toyshapes/pinets_ensemble/ensemble_22/model_1.pth (torch, 466407 bytes, 71 tensors)

encoder.blocks.0.conv.0.weight f4 [16, 1, 3, 3]
0.15568231 -0.19706175 -0.10146922 0.12009127 -0.35355723 0.14565322 -0.111071095 0.15392852
0.0054337727 0.02458148 0.13503255 0.04401228 0.1547497 -0.13745932 -0.024878826 -0.042651635
0.01746257 -0.0426892 0.3423293 0.12611263 -0.091914915 -0.19230734 -0.04101919 -0.12562786
-0.107275106 0.015815757 0.20282868 0.20432699 -0.31502855 0.22772676 0.10345698 0.3385927
0.23536843 -0.30572942 -0.30093253 -0.1515015 0.2856102 -0.05716153 0.12679484 -0.22249994
0.28287107 -0.21849032 0.099106014 -0.13653196 -0.2834536 0.19545099 -0.19323958 0.1630815
-0.055532154 0.04344989 -0.10894805 -0.1611289 0.24755657 -0.08911581 0.36842847 0.32941332
0.08624407 -0.17849496 0.18648888 0.1726656 -0.23110098 0.09147848 0.18788767 0.30951533
-0.1763432 -0.009188406 -0.008338347 0.08203245 -0.20934258 -0.23485994 0.23440346 -0.07077525
0.18782039 0.11889444 0.09982094 0.06783432 0.0890769 0.12691785 -0.33215532 0.085264765
-0.28198594 -0.273956 0.053768024 -0.030542193 0.19288608 -0.20050253 -0.27012363 0.24473035
-0.08000496 0.20314011 0.11992605 -0.2667588 0.08512334 0.11465894 -0.21409105 -0.04976783
0.117976196 0.037431166 -0.15783978 -0.16397238 0.29128578 -0.11226441 0.20634046 0.09129594
-0.24857491 -0.2755604 0.31928915 0.020286016 0.2637341 0.12462031 0.2202038 0.20622632
0.3451009 -0.12300871 -0.03088997 0.21051207 0.25105837 0.28813893 -0.23466429 -0.17702515
-0.1561171 0.062362853 0.33517084 -0.17712332 0.26109105 -0.16299461 -0.41987738 -0.15317096
0.14927329 0.22755845 -0.2947393 0.03403413 0.18388718 0.13349344 0.13763082 0.28725648
0.27299803 0.12727949 -0.2066083 -0.25476995 -0.109123185 0.017237585 -0.14021781 0.17265825
00000000: 2f6b 1f3e 8eca 49be 18cf cfbd 69f2 f53d
00000010: 7405 b5be 1e26 153e 3e79 e3bd 709f 1d3e
00000020: ca0d b23b 1a5f c93c f945 0a3e 3846 343d
00000030: b576 1e3e 23c2 0cbe aece cbbc 7bb3 2ebd
00000040: aa0d 8f3c dfda 2ebd c945 af3e ab23 013e
00000050: e33d bcbd 37ec 44be bd03 28bd 97a4 00be
00000060: 0db3 dbbd 0c90 813c 52b2 4f3e 183b 513e
00000070: 6c4b a1be 3431 693e 41e1 d33d 065c ad3e
00000080: 6c04 713e 9188 9cbe d413 9abe 3623 1bbe
00000090: 803b 923e 3522 6abd 82d6 013e 06d7 63be
000000a0: 7ad4 903e edbb 5fbe 18f8 ca3d 09cf 0bbe
000000b0: d520 91be 4e24 483e 99e0 45be d6fe 263e
000000c0: af75 63bd 83f8 313d 2820 dfbd f9fe 24be
000000d0: 787f 7d3e 5a82 b6bd a8a2 bc3e dda8 a83e
000000e0: bba0 b03d 62c7 36be f1f6 3e3e 40cf 303e
000000f0: bca5 6cbe 1259 bb3d a065 403e cb78 9e3e
00000100: 5093 34be f88a 16bc 909d 08bc a100 a83d
00000110: e75d 56be 207f 70be 7607 703e 9df2 90bd
00000120: fd53 403e ee7e f33d ec6e cc3d b8ec 8a3d
00000130: f36d b63d c1f6 013e 4310 aabe 4b9f ae3d
00000140: 7660 90be f643 8cbe dc3b 5c3d 9f33 fabc
00000150: ee83 453e 8950 4dbe a54d 8abe 989a 7a3e
00000160: a4d9 a3bd f603 503e ca9b f53d 9c94 88be
00000170: 2555 ae3d 4ed2 ea3d af3a 5bbe 5ad9 4bbd
00000180: 819d f13d 6c51 193d c0a0 21be 60e8 27be
00000190: 6923 953e e2ea e5bd ea4a 533e 5ef9 ba3d
000001a0: 6c8a 7ebe 4116 8dbe de79 a33e dc2e a63c
000001b0: 2808 873e ef38 ff3d 1b7d 613e fe2c 533e
000001c0: 11b1 b03e feeb fbbd f60c fdbc 7a90 573e
000001d0: b98a 803e f286 933e d64b 70be 1546 35be
000001e0: 29dd 1fbe 3170 7f3d 839b ab3e d15f 35be
000001f0: baad 853e 0fe8 26be 2bfa d6be d9d8 1cbe
00000200: 19db 183e 1505 693e 12e8 96be 5f67 0b3d
00000210: ec4c 3c3e 81b2 083e 18ef 0c3e 4813 933e
00000220: 66c6 8b3e 8e55 023e 2091 53be 3571 82be
00000230: fa7b dfbd d635 8d3c 4295 0fbe 53cd 303e

encoder.blocks.0.conv.0.bias f4 [16]
0.15021808 -0.15039071 0.1509763 0.19595674 0.25223166 0.24937002 -0.16410744 0.32204872
-0.0039730896 0.02111227 -0.23851252 -0.17153354 -0.22326574 -0.19561595 0.3132599 -0.06689271
00000000: c5d2 193e 0600 1abe 8899 1a3e e2a8 483e
00000010: 8224 813e db5a 7f3e c80b 28be 92e3 a43e
00000020: b130 82bb a4f3 ac3c a03c 74be 7da6 2fbe
00000030: c69f 64be 8c4f 48be 9a63 a03e 0cff 88bd

encoder.blocks.0.conv.1.weight f4 [16]
1.0326033 0.869525 1.0139009 0.9851347 0.95501167 1.0708642 0.80335844 1.070542
1.1853868 1.1220104 0.9184982 0.97338325 0.8325936 0.998054 0.850383 1.0103036
00000000: 582c 843f 3199 5e3f 81c7 813f ca31 7c3f
00000010: a57b 743f 1412 893f e6a8 4d3f 8507 893f
00000020: c1ba 973f 099e 8f3f b322 6b3f a52f 793f
00000030: db24 553f 7880 7f3f b3b2 593f a151 813f

encoder.blocks.0.conv.1.bias f4 [16]
0.023633165 -0.17271958 -0.11391286 -0.036845095 -0.075822204 0.012135799 -0.16112469 0.04420866
0.11349604 0.05469663 -0.054609794 -0.05551785 -0.12894903 -0.025527177 -0.11119259 -0.11239317
00000000: 579a c13c 67dd 30be 254b e9bd e2ea 16bd
00000010: ac48 9bbd 3bd5 463c dffd 24be 2414 353d
00000020: 9d70 e83d 9309 603d 85ae 5fbd af66 63bd
00000030: 370b 04be 5f1e d1bc f1b8 e3bd 642e e6bd

encoder.blocks.0.conv.1.running_mean f4 [16]
0.07335047 -0.11674134 0.2069348 0.20063585 0.1948222 0.25641283 0.3163886 0.30074677
0.0733892 -0.04662238 -0.34964806 -0.117745936 0.47407052 -0.18625821 0.33059508 -0.0021634356
00000000: c538 963d 1516 efbd b7e6 533e 7c73 4d3e
00000010: 797f 473e 8b48 833e b0fd a13e 7bfb 993e
00000020: 144d 963d 1cf7 3ebd 1205 b3be c824 f1bd
00000030: 5fb9 f23e 79ba 3ebe c243 a93e 6dc8 0dbb

encoder.blocks.0.conv.1.running_var f4 [16]
0.0022480702 0.000978897 0.0021717441 0.0069705746 0.004687663 0.00056794594 0.04264238 0.00156918
0.0059530074 0.0037130122 0.004057476 0.002883605 0.08187719 0.0010656505 0.0055994987 0.0051516294
00000000: 5c54 133b 554e 803a d253 0e3b 6b69 e43b
00000010: f89a 993b 35e2 143a c7a9 2e3d f2ac cd3a
00000020: 7211 c33b 0256 733b 93f4 843b ddfa 3c3b
00000030: 3aaf a73d 4cad 8b3a 007c b73b 00cf a83b

encoder.blocks.0.conv.3.weight f4 [16, 16, 3, 3]
-0.018870978 0.036665756 0.11192949 0.00071364664 -0.001517748 0.06758537 -0.02844578 0.002288464
-0.04301898 -0.074395716 -0.09451973 0.057501048 0.023456471 0.12176056 0.0848275 0.14894702
0.03568866 0.045480035 -0.18440263 0.0674717 -0.006488659 0.108731434 0.039741233 0.09170498
0.06037433 0.16138971 -0.029122341 -0.025899783 0.03019673 -0.079075836 0.13270155 0.061555352
0.020129757 0.11146003 0.19518016 0.031845335 -0.054865714 0.08868481 0.1097018 0.031458225
0.09374062 0.03500789 -0.0075462773 0.10101753 0.017763296 -0.043914277 -0.058744013 -0.050470892
-0.08763994 0.0006140582 5.3154934e-05 0.0096943285 -0.021413874 0.048242193 0.08000906 0.034418974
0.08437275 -0.01560506 -0.017081603 0.09637871 -0.04813014 0.031998854 -0.038393095 -0.07421776
0.04557376 -0.017981743 -0.017304849 0.11976941 0.14635892 0.109662995 0.09152717 -0.061950274
0.20853701 0.06280368 0.10933812 0.18124163 0.1495115 0.13273484 0.2125845 0.015570056
0.07634572 0.028108347 0.11012518 0.12377628 -0.055774905 -0.019946383 -0.034206234 -0.1276143
-0.15617491 0.12512635 0.045958508 -0.06926637 0.08082692 -0.03072293 -0.03890085 -0.012846024
0.03695949 0.061815128 0.044214766 0.0037679705 0.093595624 0.14110757 -0.0068290373 0.1557089
0.08124059 -0.031194918 0.017753085 -0.043964494 0.09294209 -0.041298967 0.028055277 0.0385608
0.021125762 0.08190946 -0.039275408 -0.03978909 -0.07719314 0.05404496 -0.106767185 -0.049691275
0.023950158 0.06955905 0.10334947 0.07690673 -0.010792345 -0.08117446 -0.056180317 0.13383336
0.068191946 0.029849144 0.006100141 -0.015692709 0.0067340015 0.03339438 -0.00882582 -0.14483435
-0.038020734 -0.0014341208 0.08740981 0.0064761355 0.082045004 0.0820662 0.14004773 0.07046854
0.0269174 -0.04946789 -0.028255196 0.13000453 0.032528173 0.13470678 -0.009562136 0.013556085
-0.061155364 -0.007259671 0.005383712 -0.06349749 -0.021099253 0.0645022 0.044518065 0.033873145
-0.0049706576 0.025044499 -0.045001272 -0.016930023 -0.009434928 -0.040433735 -0.010224943 0.03412154
-0.058823537 -0.016569521 0.00655595 0.112316005 0.15243861 0.041761253 0.11067137 0.008467327
0.042897236 0.04479981 0.047107603 0.09728998 -0.07264966 -0.049841948 -0.09425223 0.06648079
-0.0379271 -0.022713296 -0.030460462 -0.07461422 -0.061318733 0.016428446 0.20275444 0.10225664
0.1323861 0.06809599 0.23814407 0.1785582 0.12885927 0.21602103 0.009325721 -0.013591702
-0.055146646 -0.1054368 0.04357306 -0.012711157 0.021080699 -0.0027628648 -0.07970222 -0.066232875
0.13645019 -0.03298849 -0.025435563 0.06504385 0.12147137 0.0410226 0.0051814876 0.20717119
-0.05938776 0.06814276 0.043121357 0.015798196 -0.035551097 -0.06530411 0.05213642 -0.048220262
-0.053864636 -0.014380997 -0.058336865 0.04935996 -0.065902986 0.02145169 -0.008066627 0.042061128
0.045925044 -0.11949559 0.098467246 0.09234971 0.13306127 0.06929274 0.14419591 0.15455733
0.0037799347 0.12309678 0.08182164 -0.10811332 -0.02023293 -0.103174835 -0.077418916 -0.058766868
0.05026489 -0.046424937 -0.026473248 0.051311348 0.0020324567 -0.07463154 0.027802892 0.023284331
00000000: 4f97 9abc d52e 163d 4a3b e53d 0414 3b3a
00000010: 2cef c6ba 336a 8a3d 2007 e9bc 0efa 153b
00000020: ac34 30bd c85c 98bd 8f93 c1bd 3886 6b3d
00000030: c927 c03c 9a5d f93d 0aba ad3d 9185 183e
00000040: 462e 123d 4649 3a3d 0bd4 3cbe 9a2e 8a3d
00000050: d19e d4bb 96ae de3d b4c7 223d d2cf bb3d
00000060: 134b 773d 5843 253e fa91 eebc c82b d4bc
00000070: 225f f73c 83f2 a1bd eae2 073e 7721 7c3d
00000080: 29e7 a43c 2845 e43d 4fdd 473e 4170 023d
00000090: dfba 60bd 62a0 b53d 56ab e03d 57da 003d
000000a0: 15fb bf3d 6f64 0f3d c346 f7bb 47e2 ce3d
000000b0: 5584 913c 75df 33bd 909d 70bd 91ba 4ebd
000000c0: 927c b3bd c0f8 203a adf2 5e38 f6d4 1e3c
000000d0: 266c afbc 9b99 453d cadb a33d e9fa 0c3d
000000e0: 9fcb ac3d 5eac 7fbc b8ee 8bbc 3362 c53d
000000f0: 1c24 45bd 3b11 033d 1442 1dbd 7bff 97bd
00000100: 8dab 3a3d 734e 93bc e6c2 8dbc aa49 f53d
00000110: 1ddf 153e fe96 e03d 9972 bb3d 92bf 7dbd
00000120: ba8a 553e 379f 803d aaec df3d 6897 393e
00000130: 8b19 193e a4eb 073e c0af 593e 8c19 7f3c
00000140: 255b 9c3d 7a43 e63c 4f89 e13d 6b7e fd3d
00000150: 3a74 64bd 9966 a3bc d61b 0cbd 53ad 02be
00000160: 51ec 1fbe 1f21 003e fd3e 3c3d 87db 8dbd
00000170: 9688 a53d a7ae fbbc 7f56 1fbd 2178 52bc
00000180: d662 173d dc31 7d3d 8b1a 353d 0ef0 763b
00000190: 10af bf3d 817e 103e 1ec6 dfbb 2772 1f3e
000001a0: 7761 a63d 7c8c ffbc eb6e 913c 1d14 34bd
000001b0: 6c58 be3d 1b29 29bd 2ed4 e53c eef1 1d3d
000001c0: ef0f ad3c 26c0 a73d 40df 20bd e3f9 22bd
000001d0: 7017 9ebd 3f5e 5d3d c1a8 dabd 1489 4bbd
000001e0: 1f33 c43c fa74 8e3d e3a8 d33d 4781 9d3d
000001f0: 60d2 30bc cc3e a6bd 551d 66bd 9d0b 093e
00000200: 38a8 8b3d 3186 f43c b1e3 c73b ff8d 80bc
00000210: e6a8 dc3b 8cc8 083d 2c9a 10bc 754f 14be
00000220: a1bb 1bbd 1cf9 bbba ea03 b33d c335 d43b
00000230: 3607 a83d 5312 a83d ac68 0f3e cf51 903d
00000240: e181 dc3c d89e 4abd 7177 e7bc e81f 053e
00000250: 433c 053d 93f0 093e 81aa 1cbc 571a 5e3c
00000260: 0c7e 7abd 89e2 edbb d969 b03b f90a 82bd
00000270: 57d8 acbc bb19 843d 9358 363d 91be 0a3d
00000280: e6e0 a2bb 1f2a cd3c 4153 38bd d5b0 8abc
00000290: f594 1abc d89d 25bd 8586 27bc 07c3 0b3d
000002a0: f3f0 70bd cebc 87bc 4bd3 d63b ef05 e63d
000002b0: de18 1c3e d90d 2b3d aca7 e23d 8bba 0a3c
000002c0: 03b5 2f3d 0180 373d e7f3 403d f83f c73d
000002d0: 58c9 94bd 1227 4cbd 5007 c1bd 1527 883d
000002e0: 7259 1bbd 3c11 babc 3888 f9bc 57cf 98bd
000002f0: 5a29 7bbd f394 863c dc9e 4f3e ee6b d13d
00000300: 3990 073e e975 8b3d 0adc 733e f6d7 363e
00000310: aff3 033e 9e34 5d3e e9ca 183c bbaf 5ebc
00000320: 73e1 61bd 40ef d7bd aa79 323d 7542 50bc
00000330: 6eb1 ac3c 2e11 35bb eb3a a3bd 1aa5 87bd
00000340: 99b9 0b3e f01e 07bd 3e5e d0bc b635 853d
00000350: fbc5 f83d 5007 283d 78c9 a93b af24 543e
00000360: 9440 73bd 6e8e 8b3d 05a0 303d 386b 813c
00000370: 079e 11bd 29be 85bd 008d 553d 9c82 45bd
00000380: 2aa1 5cbd 469e 6bbc a3f2 6ebd ab2d 4a3d
00000390: 25f8 86bd 74bb af3c e329 04bc 4a48 2c3d
000003a0: e61b 3c3d 1bba f4bd 32a9 c93d d821 bd3d
000003b0: 3741 083e 5ae9 8d3d 18a8 133e 4744 1e3e
000003c0: c8b8 773b 2a1a fc3d 1b92 a73d 846a ddbd
000003d0: 88bf a5bc 544d d3bd cf8d 9ebd 87b5 70bd
000003e0: 8fe2 4d3d 1328 3ebd 6dde d8bc d92b 523d
000003f0: f732 053b 6cd8 98bd e4c2 e33c c8be be3c

encoder.blocks.0.conv.3.bias f4 [16]
0.024768526 0.0067538503 -0.013620616 -0.09568103 0.0027370076 0.101852715 -0.051425386 -0.14658006
0.009506748 0.00078958384 -0.058658686 -0.08696472 -0.077951916 -0.029160088 0.0139239635 -0.16511716
00000000: 5de7 ca3c 674f dd3b 0129 5fbc 6af4 c3bd
00000010: 5e5f 333b 2898 d03d 6da3 52bd 1519 16be
00000020: 31c2 1b3c 13fc 4e3a 1744 70bd 8f1a b2bd
00000030: 41a5 9fbd 23e1 eebc 5621 643c 7914 29be

encoder.blocks.0.conv.4.weight f4 [16]
1.0403564 0.8957061 0.9809644 1.0223386 1.0152603 0.96971655 1.0114629 1.0121684
0.9913656 0.9580879 0.84650767 1.0095268 1.1108238 0.9912921 0.9258061 1.0195965
00000000: 662a 853f ff4c 653f 7c20 7b3f fedb 823f
00000010: 0df4 813f 583f 783f 9e77 813f bc8e 813f
00000020: 23ca 7d3f 4045 753f bab4 583f 2d38 813f
00000030: 792f 8e3f 52c5 7d3f a101 6d3f 2382 823f

encoder.blocks.0.conv.4.bias f4 [16]
-0.074742675 -0.03759687 0.06758643 0.0042489776 0.044426017 -0.12953179 -0.028786102 -0.0021435847
-0.04513234 0.0064847246 -0.054311156 -0.08144915 -0.06307568 -0.036203284 0.055800315 -0.084487304
00000000: b012 99bd 2dff 19bd c16a 8a3d 023b 8b3b
00000010: 0ef8 353d fba3 04be d5d0 ebbc 627b 0cbb
00000020: b0dc 38bd d07d d43b 6075 5ebd d0ce a6bd
00000030: d22d 81bd e549 14bd df8e 643d ae07 adbd

encoder.blocks.0.conv.4.running_mean f4 [16]
1.2818501 0.847102 0.22783478 0.5131813 -1.1737757 1.3419254 -0.5496964 -0.5167318
0.19680303 -1.2962719 -0.85050565 -0.36135918 0.76929474 0.21087955 -1.0227453 -0.54565465
00000000: aa13 a43f addb 583f 854d 693e da5f 033f
00000010: 483e 96bf 36c4 ab3f e7b8 0cbf 8948 04bf
00000020: bc86 493e 3dec a5bf bdba 59bf 1204 b9be
00000030: 80f0 443f cff0 573e 51e9 82bf 06b0 0bbf

encoder.blocks.0.conv.4.running_var f4 [16]
2.389356 1.0845934 2.9371433 2.3901293 2.9221158 2.2466683 0.7205536 0.56952417
0.55444545 2.4423554 0.8243262 0.42254245 1.0735826 0.6312548 2.056248 0.5795665
00000000: 35eb 1840 f5d3 8a3f 28fa 3b40 e1f7 1840
00000010: f203 3b40 6ac9 0f40 3376 383f 56cc 113f
00000020: 23f0 0d3f 8d4f 1c40 0b07 533f 7c57 d83e
00000030: 286b 893f ea99 213f 9199 0340 785e 143f

encoder.blocks.0.skip.weight f4 [16, 1, 1, 1]
-0.4699558 0.8022859 -0.5533377 0.76009274 -0.8418832 0.11595571 -0.082850575 -0.7551577
0.024320364 0.83295405 -0.45180893 0.91837347 -0.10518777 -0.3162005 0.49363077 0.78173697
00000000: 0c9e f0be 9c62 4d3f 8aa7 0dbf 7095 423f
00000010: a885 57bf 307a ed3d 90ad a9bd 0452 41bf
00000020: 803b c73c 7a3c 553f 8053 e7be 861a 6b3f
00000030: b06c d7bd 08e5 a1be 2cbd fc3e ea1f 483f

encoder.blocks.0.skip.bias f4 [16]
0.86311436 0.5919535 -0.8937949 -0.20367646 0.108790874 -0.45574653 0.46729314 -0.22015369
-0.8615148 -0.44227505 -0.64499104 0.3829757 -0.72768843 -0.25207543 0.10285866 0.43120158
00000000: 10f5 5c3f 448a 173f becf 64bf 9090 50be
00000010: c0cd de3d 9c57 e9be 0c41 ef3e f86f 61be
00000020: 3c8c 5cbf e071 e2be 221e 25bf 6415 c43e
00000030: ca49 3abf 0810 81be 90a7 d23d 74c6 dc3e

encoder.blocks.1.conv.0.weight f4 [32, 16, 3, 3]
-0.12503743 0.008443927 -0.113372356 -0.1289462 -0.028041411 -0.10546848 0.01340118 -0.019714888
-0.095193334 -0.009367357 -0.020126063 -0.033193786 0.002210109 0.012743969 -0.07421889 -0.063972026
-0.044191074 0.0034817015 -0.04876777 -0.08374175 -0.097067095 -0.04321305 0.030315947 -0.14985105
-0.08939898 -0.049872816 -0.084069185 -0.020960176 0.064741045 -0.041421082 -0.016295502 -0.065256014
0.042273864 -0.048936576 -0.04378909 0.025464902 -0.00016811138 -0.0861736 0.01430228 -0.098844394
-0.038248263 -0.023336796 -0.0305681 0.056215454 -0.07753173 -0.10685693 -0.050380178 -0.013443981
0.02059008 -0.09364084 -0.06606497 -0.07912227 -0.09144607 -0.120644316 -0.031525016 0.0064280555
0.038611416 1.808093e-05 0.11682678 0.09152419 -0.04774679 0.09762897 0.11099187 0.014301231
0.084305 0.10944812 0.03002676 0.18614124 0.07360092 0.07646716 0.16870631 0.011032715
0.106093 -0.008909977 0.0331672 0.018214166 0.121081874 0.010127831 -0.05952212 0.061951857
0.08846341 0.006189086 -0.053461496 0.025870165 0.053740807 0.070445955 0.053779494 0.0732139
0.051991373 0.017030228 0.01219029 0.019969814 0.013291174 0.022300344 0.0021845256 0.043724917
0.040228814 -0.059483133 0.010294634 0.16021052 0.085509576 0.055513307 0.022186264 0.10087942
0.056496527 0.012672475 0.104193136 0.073199354 -0.10035783 -0.09193614 -0.024774456 -0.081272855
-0.06814042 -0.013027466 -0.061023086 -0.12015028 -0.021565054 0.025577232 0.16251028 0.066069864
0.06324296 0.09158857 -0.010032062 -0.017563537 0.0033881532 0.07034197 0.050167706 0.023356065
-0.020212848 -0.025585264 -0.05597752 -0.09351225 0.07752165 -0.07927375 0.053901788 0.13510747
0.11808325 0.0015266181 0.04691086 0.08719147 0.07049403 -0.023500897 0.09830385 0.01668682
-0.044175103 -0.06320037 0.103216186 0.07758606 0.0858815 0.05571406 0.06501547 0.065342985
0.095740914 0.105174005 0.09619464 0.1699854 0.13440315 0.04524192 0.16326584 0.16442348
0.054097727 0.00805044 0.07048104 0.022255378 0.16650733 0.047806423 0.0028466599 0.12047106
0.07886343 0.03924932 0.12154527 -0.07340451 0.0690822 -0.008668711 0.03409877 -0.02715421
0.036434747 -0.039394487 -0.013877775 -0.13954404 0.12742665 -0.043289617 0.086194314 0.10376009
0.06804979 0.075642884 0.034484692 0.046509273 0.021810647 -0.04376824 0.08249297 -0.026895603
0.0521071 0.104379125 -0.009577432 -0.017324211 0.051783398 0.04175796 0.10997692 -0.031764172
0.05872421 -0.04342774 0.040879816 -0.03960366 0.056376256 0.06610964 -0.0555474 0.008505236
-0.014136109 0.119486034 -0.016445033 0.034785215 -0.04120971 0.010185825 0.036567096 0.004033584
0.038784802 0.014813806 0.14842987 0.09923458 0.05332693 0.12823954 0.015482087 -0.018288001
0.044674516 0.07739418 -0.060528878 -0.023731166 0.028065505 0.03558619 0.04789889 0.010038941
-0.073028035 -0.05314338 0.05490098 0.0043014023 0.056539603 0.0665325 0.0316011 -0.030398604
-0.062272787 -0.05754582 -0.030604078 -0.0056021786 -0.05381384 0.056276053 0.028169613 -0.12529732
0.014655199 -0.109497495 -0.059852716 -0.12792969 0.18100472 -0.013028219 0.014487543 0.11109562
00000000: d009 00be 6658 0a3c c42f e8bd 790a 04be
00000010: 1ab7 e5bc dcff d7bd 9f90 5b3c 1e81 a1bc
00000020: b9f4 c2bd 8b79 19bc 6adf a4bc 35f6 07bd
00000030: 7ad7 103b 15cc 503c 1300 98bd c403 83bd
00000040: b301 35bd 422d 643b b7c0 47bd cb80 abbd
00000050: 1dcb c6bd 2b00 31bd 2659 f83c 8e72 19be
00000060: d016 b7bd 7047 4cbd 772c acbd adb4 abbc
00000070: f496 843d 27a9 29bd 257e 85bc f2a4 85bd
00000080: 5c27 2d3d b871 48bd 305c 33bd c59b d03c
00000090: 0e47 30b9 c97b b0bd 1c54 6a3c ee6e cabd
000000a0: 36aa 1cbd cf2c bfbc f469 fabc 2d42 663d
000000b0: f5c8 9ebd ced7 dabd 725b 4ebd 2544 5cbc
000000c0: 87ac a83c c5c6 bfbd 124d 87bd db0a a2bd
000000d0: 1448 bbbd 5e14 f7bd 6020 01bd 70a2 d23b
000000e0: 0127 1e3d 80ac 9737 e142 ef3d 0971 bb3d
000000f0: 2392 43bd b3f1 c73d b54f e33d b64f 6a3c
00000100: 1aa8 ac3d 5626 e03d aefa f53c cf9b 3e3e
00000110: 14bc 963d d09a 9c3d 59c1 2c3e 90c2 343c
00000120: 4947 d93d 27fb 11bc 54da 073d e035 953c
00000130: c6f9 f73d 34ef 253c 77cd 73bd 3bc1 7d3d
00000140: 4e2c b53d d1cd ca3b 71fa 5abd abed d33c
00000150: 521f 5c3d f845 903d e347 5c3d 2bf1 953d
00000160: e8f4 543d fa82 8b3c c8b9 473c bc97 a33c
00000170: 39c3 593c 36af b63c 422a 0f3b e618 333d
00000180: f8c6 243d 96a4 73bd d3aa 283c 3a0e 243e
00000190: a51f af3d ec61 633d f8bf b53c df99 ce3d
000001a0: e768 673d 36a0 4f3c 3663 d53d 8be9 953d
000001b0: 6888 cdbd 0449 bcbd cdf3 cabc 6272 a6bd
000001c0: 348d 8bbd 2771 55bc 58f3 79bd 5a11 f6bd
000001d0: 32a9 b0bc 5887 d13c 1869 263e a34f 873d
000001e0: 8685 813d ca92 bb3d 855d 24bc 68e1 8fbc
000001f0: c70b 5e3b 730f 903d a77c 4d3d 3855 bf3c
00000200: 6a95 a5bc 3098 d1bc af48 65bd 5a83 bfbd
00000210: acc3 9e3d 475a a2bd 1fc8 5c3d 9d59 0a3e
00000220: a2d5 f13d ce18 c83a 9a25 403d 7191 b23d
00000230: 2d5f 903d f484 c0bc 8753 c93d ccb2 883c
00000240: f4f0 34bd 326f 81bd 0263 d33d 71e5 9e3d
00000250: a4e2 af3d 6d34 643d d526 853d 8bd2 853d
00000260: d013 c43d 7865 d73d b201 c53d a710 2e3e
00000270: fba0 093e 974f 393d 292f 273e a15e 283e
00000280: 9495 5d3d fee5 033c 5d58 903d e950 b63c
00000290: e680 2a3e abd0 433d 078f 3a3b 88b9 f63d
000002a0: 2683 a13d e5c3 203d baec f83d 1b55 96bd
000002b0: f87a 8d3d 3607 0ebc 27ab 0b3d 8172 debc
000002c0: 9a3c 153d 1d5c 21bd 9b5f 63bc a2e4 0ebe
000002d0: 227c 023e 7450 31bd a586 b03d 2c80 d43d
000002e0: b05d 8b3d a8ea 9a3d d23f 0d3d 8280 3e3d
000002f0: 3eac b23c 5346 33bd 13f2 a83d 2b54 dcbc
00000300: 416e 553d b9c4 d53d a9ea 1cbc 81eb 8dbc
00000310: d41a 543d 650a 2b3d 943b e13d 261b 02bd
00000320: cc88 703d 49e1 31bd 9871 273d 7337 22bd
00000330: caea 663d 7e64 873d ac85 63bd 8c59 0b3c
00000340: 239b 67bc 18b5 f43d bcb7 86bc f17a 0e3d
00000350: 83cb 28bd 72e2 263c 61c7 153d 282c 843b
00000360: d0dc 1e3d 9bb5 723c 00fe 173e 803b cb3d
00000370: 576d 5a3d 3a51 033e 94a8 7d3c b8d0 95bc
00000380: a0fc 363d d780 9e3d 21ed 77bd dd67 c2bc
00000390: a1e9 e53c d3c2 113d a031 443d 5f7a 243c
000003a0: b98f 95bd dfac 59bd dadf 603d c7f2 8c3b
000003b0: 1296 673d 3142 883d 2870 013d 7e06 f9bc
000003c0: c011 7fbd 2ab5 6bbd 67b5 fabc 7b92 b7bb
000003d0: e76b 5cbd b881 663d f6c3 e63c f14d 00be
000003e0: 5c1c 703c 3940 e0bd 1f28 75bd 0000 03be
000003f0: 4d59 393e 5074 55bc 295d 6d3c 1a86 e33d

encoder.blocks.1.conv.0.bias f4 [32]
0.016218703 0.07213483 0.05231759 0.042806275 0.02606731 -0.0027033992 0.01915497 -0.055567093
-0.07545171 0.0019160268 -0.10147505 0.0011961333 -0.013302205 0.07320202 -0.050383132 -0.019119965
-0.026463527 0.012758637 -0.002012883 -0.013669314 -0.12193627 -0.10309788 -0.071575135 0.017327834
-0.017341474 0.0419562 0.052920345 -0.024247559 -0.028847355 0.11895049 0.063728556 0.09671198
00000000: 16dd 843c 6dbb 933d f84a 563d a255 2f3d
00000010: 1c8b d53c 832b 31bb e2ea 9c3c 529a 63bd
00000020: 6d86 9abd 3123 fb3a 27d2 cfbd 93c7 9c3a
00000030: 7ef1 59bc f1ea 953d 8b5e 4ebd 79a1 9cbc
00000040: 0aca d8bc 9a09 513c 93ea 03bb 42f5 5fbc
00000050: b9b9 f9bd fb24 d3bd fc95 92bd 1af3 8d3c
00000060: b50f 8ebc 44da 2b3d 01c3 583d d1a2 c6bc
00000070: 4a51 ecbc 519c f33d 1e84 823d ee10 c63d

encoder.blocks.1.conv.1.weight f4 [32]
0.9791356 0.96638536 0.9721337 0.938947 1.0129626 0.8350155 1.0293754 1.015422
1.0220145 1.0034337 0.98270315 0.9752198 1.0211967 0.9705497 0.99220854 0.994998
1.0833758 0.9791815 0.9925052 0.9412046 1.0400677 1.1043353 0.9384378 0.9269731
0.8766523 0.84573746 0.9461092 1.0342146 1.0539882 0.98995733 1.029025 0.999542
00000000: a1a8 7a3f 0865 773f c1dd 783f d55e 703f
00000010: c2a8 813f 93c3 553f 93c2 833f 59f9 813f
00000020: 5fd1 823f 8470 803f 6f92 7b3f 01a8 793f
00000030: 93b6 823f f275 783f 6101 7e3f 30b8 7e3f
00000040: 0fac 8a3f a4ab 7a3f d214 7e3f c9f2 703f
00000050: f020 853f dc5a 8d3f 763d 703f 1c4e 6d3f
00000060: 496c 603f 4082 583f 3634 723f 2561 843f
00000070: 16e9 863f d86d 7d3f 17b7 833f fce1 7f3f

encoder.blocks.1.conv.1.bias f4 [32]
-0.09502345 -0.009656439 -0.10365756 -0.075511985 -0.06744989 -0.08715053 -0.05800959 -0.07286095
-0.03823795 -0.06566873 -0.08002533 0.084668964 0.012140303 -0.12253089 0.028922545 -0.07183929
-0.12519172 -0.10725063 -0.09948627 0.01191022 -0.014317194 0.075435966 -0.009883735 0.0109586585
-0.12202077 -0.01975184 0.021388717 0.0018114535 -0.030755004 0.04340247 -0.047094285 -0.09630338
00000000: a89b c2bd 0a36 1ebc 6a4a d4bd 07a6 9abd
00000010: 2b23 8abd fa7b b2bd 779b 6dbd 1f38 95bd
00000020: 669f 1cbd 547d 86bd 52e4 a3bd ec66 ad3d
00000030: 1fe8 463c 7af1 fabd f9ee ec3c 7a20 93bd
00000040: 4232 00be 38a6 dbbd 75bf cbbd 1523 433c
00000050: aa92 6abc 2c7e 9a3d 64ef 21bc f28b 333c
00000060: 07e6 f9bd 9cce a1bc 6437 af3c 4b6e ed3a
00000070: ebf1 fbbc cac6 313d f0e5 40bd b53a c5bd

encoder.blocks.1.conv.1.running_mean f4 [32]
0.4335682 2.0438385 0.34749523 0.6730017 2.180002 2.0048873 0.93895286 -0.251806
2.3180053 0.83988374 0.6276571 0.48613378 -2.551974 -0.07163889 2.4664037 1.3795663
2.8015404 1.0184826 0.783776 -2.29521 -0.1969339 -1.5430669 1.666796 -2.2269263
2.530037 1.2454784 1.4603921 1.8862046 1.3510021 0.9453525 1.3141088 0.95985925
00000000: a7fc dd3e 40ce 0240 e5ea b13e d749 2c3f
00000010: 2785 0b40 1350 0040 375f 703f b7ec 80be
00000020: 335a 1440 9f02 573f 23ae 203f 87e6 f83e
00000030: 8b53 23c0 69b7 92bd 8fd9 1d40 a195 b03f
00000040: 704c 3340 a35d 823f 8ba5 483f b8e4 12c0
00000050: 0aa9 49be 3783 c5bf 9259 d53f f685 0ec0
00000060: 20ec 2140 d66b 9f3f 21ee ba3f 276f f13f
00000070: a3ed ac3f 9f02 723f b834 a83f 56b9 753f

encoder.blocks.1.conv.1.running_var f4 [32]
1.9197706 5.1458845 2.3963192 3.1470144 6.268623 5.798318 2.0711088 1.547318
6.330538 2.6453001 2.7846613 3.0684402 4.3565784 1.7429774 7.7363977 1.9277786
6.5566072 3.3682818 2.259772 9.566563 1.7902118 4.2782826 5.657588 5.6587753
5.8132234 3.2468855 2.5512035 6.6051393 3.364016 2.4331536 3.3732026 2.7397048
00000000: 0bbb f53f 16ab a440 4b5d 1940 af68 4940
00000010: 8f98 c840 d28b b940 0c8d 0440 840e c63f
00000020: c493 ca40 994c 2940 e437 3240 5361 4440
00000030: 1769 8b40 e219 df3f 9290 f740 73c1 f63f
00000040: bacf d140 ee91 5740 1ba0 1040 a410 1941
00000050: a925 e53f b1e7 8840 f60a b540 b014 b540
00000060: ed05 ba40 f9cc 4f40 eb46 2340 4d5d d340
00000070: 0a4c 5740 cab8 1b40 8de2 5740 5357 2f40

encoder.blocks.1.conv.3.weight f4 [32, 32, 3, 3]
0.031156853 0.03158166 0.050819922 0.08719192 0.118209004 0.07324925 0.0054687234 0.061784673
0.08820213 -0.003352402 -0.014164547 0.036238067 -0.037522424 0.0153250275 0.024035357 0.0045095426
-0.0032004593 0.016744712 -0.003620893 0.02390038 0.014280157 -0.032186594 0.09255907 0.11036246
0.059936695 0.033612408 0.011342473 -0.055043392 -0.04487038 -0.018207312 0.019078333 -0.014914317
0.036455918 0.03267687 -0.04584084 0.06919271 -0.056638073 0.0457467 0.060570497 -0.022842625
-0.07104141 -0.018488573 -0.07427561 -0.018947244 0.018084727 0.00056326215 -0.053598225 -0.011862756
-0.09229145 -0.03767684 0.021147553 -0.032453656 -0.01056207 -0.0020312795 -0.00065360084 0.09896002
0.0067666858 0.053047348 0.12899123 0.017588524 0.092817634 0.020740855 0.11563987 -0.11604084
0.040001918 0.08921823 -0.075366326 -0.040675495 0.07453042 -0.003948044 0.056627635 0.020723656
-0.00082685205 -0.006383757 -0.049420998 -0.055086967 -0.013263577 -0.046039 -0.0883924 -0.121679954
-0.07725092 0.06904253 0.12610671 0.058110163 0.04280386 0.08602132 0.14798328 0.09258091
0.040465806 0.11377434 0.0009820501 0.04190995 0.065174334 0.031373695 0.1307444 0.08299766
0.033387873 0.05925527 0.10584751 -0.09766165 0.017964605 -0.050011523 -0.017826349 0.038072854
-0.05453834 0.01659277 -0.06626075 0.0062336465 -0.057170797 -0.07199346 -0.09702705 -0.061246954
-0.023493003 -0.018435938 -0.030738626 -0.011825937 -0.108698525 0.09376427 0.117850825 0.060042545
-0.030598061 0.12471767 0.056278933 0.054697946 0.023006484 0.0029030354 0.035372242 -0.0067743864
0.039675415 0.050163504 0.051028337 0.010710258 -0.020668745 -0.0504084 -0.05065818 -0.06467516
0.07221905 -0.042362444 -0.11370379 0.036080137 0.046655074 0.022035891 -0.010939479 0.071726255
0.02929169 0.019717608 0.10288766 0.06549905 0.009226366 -0.046864755 0.027974555 0.054549564
0.034253336 -0.03309 0.0012826467 0.056564473 -0.006344428 0.12215417 0.088315465 0.067612685
0.13205343 0.11169811 -0.058100473 0.07907546 0.16781957 0.055392593 0.11385828 0.1984102
0.01750031 0.07701307 0.13435932 0.03012327 -0.05004222 -0.07398141 -0.07646845 -0.07691501
0.0008054059 -0.041822474 0.005241835 0.014823786 -0.0087435935 -0.074217 0.10276936 -0.038094323
-0.065256484 0.020591624 -0.077629656 -0.028853066 -0.001781565 -0.15724218 -0.061431497 -0.04293367
-0.06790396 -0.02179938 0.111341804 -0.0016137467 0.047382716 0.016514918 -0.003804209 0.0032476662
0.088143714 -0.038497675 -0.028904745 0.010168912 0.0016836713 0.01848824 -0.026355542 -0.08025609
-0.06906511 -0.06468562 -0.112107225 -0.041766718 -0.07877332 -0.070092745 -0.06474979 -0.13115345
-0.028894644 -0.033143796 -0.0066402494 -0.010401895 -0.010520896 0.035026737 0.033115882 -0.0079985885
-0.018700022 -0.061252754 0.028867602 -0.031470664 -0.07834402 0.024590468 0.043762665 -0.021855503
-0.041551966 -0.07340671 0.03163552 0.11064174 0.03491625 0.01964922 -0.0038562054 0.012577198
-0.025460286 -0.0064337095 -0.004034555 0.0093765855 0.033564605 0.008851774 -0.055681933 -0.056100454
0.015165686 -0.05030724 -0.13047744 0.037134238 0.03654912 0.07674501 0.05878632 0.079980545
00000000: a83c ff3c c55b 013d 8d28 503d ad91 b23d
00000010: 9017 f23d b403 963d fa32 b33b ed11 7d3d
00000020: 51a3 b43d f9b3 5bbb 6b12 68bc 5e6e 143d
00000030: 1db1 19bd d315 7b3c cce5 c43c c9c4 933b
00000040: ccbe 51bb 352c 893c 814c 6dbb bbca c33c
00000050: 52f7 693c 17d6 03bd 9c8f bd3d b705 e23d
00000060: 2e80 753d 2aad 093d c8d5 393c 2e75 61bd
00000070: 01ca 37bd 8027 95bc 2a4a 9c3c 2e5b 74bc
00000080: cd52 153d 2ed8 053d 9bc3 3bbd e8b4 8d3d
00000090: 53fd 67bd e460 3b3d c518 783d 7520 bbbc
000000a0: 297e 91bd 5975 97bc d01d 98bd 4037 9bbc
000000b0: 6c26 943c e2a7 133a d089 5bbd 015c 42bc
000000c0: 4d03 bdbd 0853 1abd a23d ad3c 20ee 04bd
000000d0: 880c 2dbc 371f 05bb 6956 2bba 8dab ca3d
000000e0: 13bb dd3b 2d48 593d 4716 043e cf15 903c
000000f0: 2c17 be3d bae8 a93c 99d4 ec3d d2a6 edbd
00000100: 0dd9 233d 0cb8 b63d a959 9abd 599b 26bd
00000110: 68a3 983d 985e 81bb 61f2 673d a8c4 a93c
00000120: 1ac1 58ba d62e d1bb ac6d 4abd dfa2 61bd
00000130: 794f 59bc 6493 3cbd 1307 b5bd 5733 f9bd
00000140: bb35 9ebd 2c66 8d3d 1e22 013e ec04 6e3d
00000150: 1a53 2f3d f22b b03d ee88 173e 0f9b bd3d
00000160: 79bf 253d 8502 e93d 22b8 803a c5a9 2b3d
00000170: 1f7a 853d b481 003d dce1 053e adfa a93d
00000180: b9c1 083d a7b5 723d 94c6 d83d d502 c8bd
00000190: 822a 933c e2d8 4cbd 9008 92bc 48f2 1b3d
000001a0: 9863 5fbd 90ed 873c b7b3 87bd 9e43 cc3b
000001b0: ed2b 6abd 4f71 93bd 1eb6 c6bd 16de 7abd
000001c0: 6674 c0bc f706 97bc 92cf fbbc 93c1 41bc
000001d0: 559d debd 7b07 c03d c65b f13d 2cef 753d
000001e0: c9a8 fabc fa6b ff3d bd84 663d f40a 603d
000001f0: 1878 bc3c da40 3e3b 7ce2 103d acfb ddbb
00000200: b082 223d 3f78 4d3d 1703 513d 147a 2f3c
00000210: 8051 a9bc 0a79 4ebd f47e 4fbd 6974 84bd
00000220: 95e7 933d 3e84 2dbd 88dd e8bd c4c8 133d
00000230: 6419 3f3d 9d84 b43c 803b 33bc 37e5 923d
00000240: 20f5 ef3c d286 a13c c4b6 d23d 5e24 863d
00000250: 2f2a 173c 42f5 3fbd e52a e53c 5d6f 5f3d
00000260: 3a4d 0c3d 6189 07bd 7b1e a83a 26b0 673d
00000270: ebe4 cfbb f72b fa3d bdde b43d 8578 8a3d
00000280: 0439 073e fbc1 e43d c3fa 6dbd 51f2 a13d
00000290: e5d8 2b3e 58e3 623d 882e e93d 0b2c 4b3e
000002a0: cf5c 8f3c 07b9 9d3d 7d95 093e 13c5 f63c
000002b0: 12f9 4cbd 9183 97bd 7e9b 9cbd 9e85 9dbd
000002c0: e021 533a 0b4e 2bbd b3c3 ab3b 77df 723c
000002d0: 4a41 0fbc 15ff 97bd be78 d23d cb08 1cbd
000002e0: 31a5 85bd c4af a83c 4cfc 9ebd 445d ecbc
000002f0: 6783 e9ba 1804 21be 989f 7bbd 37db 2fbd
00000300: 3b11 8bbd 9d94 b2bc 2c07 e43d 5b84 d3ba
00000310: 6114 423d 4b4a 873c 0950 79bb ccd6 543b
00000320: b184 b43d bdaf 1dbd a5c9 ecbc 829b 263c
00000330: a2ae dc3a a674 973c 94e7 d7bc 4e5d a4bd
00000340: 0272 8dbd e579 84bd 7998 e5bd 9413 2bbd
00000350: e853 a1bd c98c 8fbd 8a9b 84bd 174d 06be
00000360: 76b4 ecbc cac1 07bd 7396 d9bb b66c 2abc
00000370: d65f 2cbc 3278 0f3d 85a4 073d 830c 03bc
00000380: ca30 99bc 2be4 7abd c07b ec3c 62e7 00bd
00000390: d472 a0bd f371 c93c 7b40 333d 500a b3bc
000003a0: 6532 2abd 4256 96bd 3f94 013d 2398 e23d
000003b0: 5704 0f3d 67f7 a03c 64b8 7cbb 9810 4e3c
000003c0: 1792 d0bc ded1 d2bb 4d34 84bb 40a0 193c
000003d0: 0a7b 093d 0807 113c bd12 64bd 97c9 65bd
000003e0: 7f79 783c f70e 4ebd e19b 05be 121a 183d
000003f0: 88b4 153d 7d2c 9d3d edc9 703d d7cc a33d

encoder.blocks.1.conv.3.bias f4 [32]
0.019630983 -0.082865685 -0.005738016 0.018467901 0.0035552832 0.040617224 -0.036821634 0.075582795
-0.056409042 0.009088776 0.05466861 0.0050488818 -0.04278302 -0.037934735 0.004202195 -0.07436927
0.03397958 -0.015249289 -0.1064686 -0.0139638195 0.020212097 -0.0028807514 0.032764703 -0.022775229
-0.028779697 -0.007634837 -0.06005745 0.048242785 -0.05819518 0.03223877 -0.008271998 -0.035594683
00000000: 28d1 a03c 7cb5 a9bd f805 bcbb ff49 973c
00000010: c1ff 683b 3f5e 263d 48d2 16bd 27cb 9a3d
00000020: 2b0d 67bd 17e9 143c 31ec 5f3d 1771 a53b
00000030: 3f3d 2fbd 7461 1bbd 91b2 893b ea4e 98bd
00000040: 2c2e 0b3d 27d8 79bc 360c dabd 81c8 64bc
00000050: d793 a53c fdca 3cbb 4834 063d 1e93 babc
00000060: 66c3 ebbc a82d fabb cdfe 75bd 3a9a 453d
00000070: 125e 6ebd cd0c 043d 4687 07bc bbcb 11bd

encoder.blocks.1.conv.4.weight f4 [32]
1.0156059 0.9463689 1.0354884 1.0036299 0.93422663 0.8485256 0.93695945 1.006533
0.98046166 1.0647134 0.9459802 1.0467501 0.93710345 0.93795574 1.0563598 1.0595005
0.9591603 1.0961003 1.0393015 1.0230945 0.9799578 1.0229973 0.943755 1.0156698
1.0525476 0.9615373 0.9400411 0.91251737 0.9978843 1.0128937 0.9764588 0.9939931
00000000: 60ff 813f 3b45 723f e28a 843f f276 803f
00000010: 7a29 6f3f f938 593f 93dc 6f3f 13d6 803f
00000020: 89ff 7a3f 8748 883f c22b 723f e8fb 853f
00000030: 03e6 6f3f de1d 703f cc36 873f b69d 873f
00000040: 888b 753f 044d 8c3f d507 853f c3f4 823f
00000050: 84de 7a3f 93f1 823f ed99 713f 7801 823f
00000060: e1b9 863f 4f27 763f 89a6 703f bd9a 693f
00000070: 5875 7f3f 80a6 813f 34f9 793f 5576 7e3f

encoder.blocks.1.conv.4.bias f4 [32]
-0.0038297244 -0.099338226 -0.042392448 0.0072083906 -0.1502609 -0.04872865 -0.033802204 -0.100568704
-0.091430426 -0.032576732 -0.027074777 -0.07516184 -0.011056927 -0.13447593 -0.122297406 -0.06531618
0.019115027 0.038339704 0.0016991885 -0.0542636 0.044947635 -0.058197 -0.05968157 -0.051132176
-0.03551761 -0.11640017 -0.0461502 -0.112641044 -0.063279845 -0.074610494 -0.122714624 -0.037818957
00000000: 1dfc 7abb d771 cbbd b4a3 2dbd 5d34 ec3b
00000010: fedd 19be b197 47bd 2e74 0abd f7f6 cdbd
00000020: e03f bbbd 2e6f 05bd eccb ddbc 73ee 99bd
00000030: 1d28 35bc 0fb4 09be 1077 fabd 7dc4 85bd
00000040: 1e97 9c3c 180a 1d3d 4eb7 de3a 8243 5ebd
00000050: 031b 383d fa5f 6ebd a974 74bd f96f 51bd
00000060: ea7a 11bd 3663 eebd fe07 3dbd 59b0 e6bd
00000070: dd98 81bd 63cd 98bd ce51 fbbd 0de8 1abd

encoder.blocks.1.conv.4.running_mean f4 [32]
0.922587 -2.426912 0.036107652 0.41598645 1.9141912 -2.1839368 -2.6126974 1.0225945
1.6181185 0.70896256 -2.552272 0.25415984 -2.4279373 1.5864314 1.6595076 1.3563403
-2.2140982 1.2365845 0.025735931 1.0774148 -3.0719981 0.9492391 -2.3752356 0.7486183
-0.95450073 1.6206219 -1.4201214 1.7908231 -1.0507948 0.9281333 1.9092147 0.78002155
00000000: a92e 6c3f 8752 1bc0 9ee5 133d 2dfc d43e
00000010: 3804 f53f 9fc5 0bc0 6f36 27c0 60e4 823f
00000020: 821e cf3f 927e 353f 6d58 23c0 3d21 823e
00000030: 5363 1bc0 2f10 cb3f bf6a d43f 8f9c ad3f
00000040: c9b3 0dc0 6748 9e3f 29d4 d23c bae8 893f
00000050: 9e9b 44c0 5501 733f dc03 18c0 73a5 3f3f
00000060: 295a 74bf 8a70 cf3f 8ac6 b5bf b139 e53f
00000070: 7280 86bf 259a 6d3f 2661 f43f 7eaf 473f

encoder.blocks.1.conv.4.running_var f4 [32]
12.703652 17.701374 14.993434 10.930195 14.539653 13.605901 17.89838 10.396975
16.721031 9.735454 21.629782 13.928207 15.654347 17.253536 16.399652 13.988543
17.07803 16.2158 12.246665 13.392379 21.244457 12.933357 15.604536 15.064073
12.457545 15.342866 13.11334 13.566627 15.466323 7.865707 18.176203 13.46952
00000000: 2942 4b41 6a9c 8d41 1be5 6f41 14e2 2e41
00000010: 6ba2 6841 c5b1 5941 e22f 8f41 025a 2641
00000020: acc4 8541 6bc4 1b41 cb09 ad41 f0d9 5e41
00000030: 3578 7a41 3e07 8a41 7d32 8341 12d1 5f41
00000040: ce9f 8841 f5b9 8141 57f2 4341 2f47 5641
00000050: a6f4 a941 08ef 4e41 2eac 7941 7106 7141
00000060: 1b52 4741 617c 7541 3ed0 5141 e710 5941
00000070: 0f76 7741 dfb3 fb40 dd68 9141 2783 5741

encoder.blocks.1.skip.weight f4 [32, 16, 1, 1]
-0.08962828 -0.14203376 0.23151806 0.19825271 0.1933426 -0.033121556 -0.07779178 0.027992457
0.111083925 -0.05389899 0.11491269 0.07748318 0.13323411 0.15590051 0.24222961 -0.12182367
-0.13903672 0.09396961 -0.020295858 0.07316831 -0.05746436 -0.19255576 0.1302776 -0.19949824
-0.10935053 -0.2126528 -0.23326418 0.23085678 0.16778302 0.0061113536 0.22394747 -0.21415135
-0.14979893 -0.045534402 -0.12972334 -0.09450039 -0.091005266 -0.11909357 -0.22491264 -0.17108285
0.12568334 -0.015386373 -0.08570182 -0.053943098 0.23191434 0.12733322 0.09436908 -0.037849933
0.19036373 0.24583277 -0.0836612 -0.026400983 0.17540067 -0.09549156 0.2397204 -0.22402266
-0.2322276 0.015452921 -0.013677299 0.0002155304 0.01843521 0.07212588 -0.16483721 -0.03784427
-0.08523789 -0.19688168 -0.035709202 0.06280279 0.23292318 -0.03216639 0.22601938 -0.0394547
0.09165543 0.0680356 -0.10862693 -0.07244831 0.16987404 -0.2275821 -0.2270444 0.1627993
-0.22297606 0.14958242 0.036327153 0.1804128 0.09461683 -0.15601605 0.21322715 -0.116443485
0.05810514 0.012514651 0.24497107 0.11449027 -0.2057389 -0.13799989 -0.10273257 0.15017176
0.056265116 -0.21939439 0.096515566 -0.055960566 -0.21764708 0.19676691 0.09466007 -0.05918169
0.14280573 -0.011961311 0.11842185 0.167227 0.17021704 0.17159209 0.15631267 0.040192246
0.03606367 0.23522559 -0.04279858 0.078796536 -0.072811395 -0.15962109 -0.047688305 0.18249491
-0.073920846 0.062978 0.14222416 -0.029409856 0.12430671 0.03887078 0.11534661 0.20715481
0.10804129 -0.00088635087 0.09726322 0.025771946 -0.042817116 0.048469186 -0.22701082 -0.07623744
0.23899853 -0.0776152 -0.08641842 -0.09310201 -0.09481946 -0.18923292 -0.23327091 -0.060211927
0.10552782 -0.15065598 0.09899789 0.22235286 -0.007704556 0.11490843 0.12378517 -0.012031198
0.15312657 0.06692177 -0.20579752 0.19672877 0.09704101 0.20646149 -0.066197455 -0.16582742
0.12748998 0.24848282 0.08573398 -0.22040835 0.24152774 -0.09657374 0.035148352 0.056338012
0.062924325 0.07358581 0.019112527 0.01751247 0.01574108 -0.09390664 -0.20448577 0.18070385
0.017503649 -0.18338338 -0.008211553 0.0792954 0.137061 0.19052097 0.19360867 0.12813029
0.070173025 -0.022564411 0.13772675 -0.047738165 -0.106987506 -0.1121923 9.378791e-05 -0.15692812
-0.16105387 0.24136591 0.06571701 0.17705002 -0.021652699 -0.014629275 0.13798985 0.21579379
0.13716495 -0.08196232 -0.078042924 -0.07169142 0.17727143 0.07585883 0.028505623 0.08196995
-0.24573794 -0.1586881 -0.09123063 -0.20449698 -0.15125307 -0.15982643 0.020628184 0.012630701
-0.23003158 -0.1511411 0.103658885 0.19091249 0.16291705 -0.058820218 0.24903971 -0.03191957
-0.1937576 -0.07943913 -0.117290646 0.18314335 0.17349789 -0.06846973 0.065707296 0.043626636
0.1496239 -0.00074627995 0.07106188 -0.09001154 -0.1309351 -0.12632295 0.19665304 -0.12654844
0.17246652 -0.19634923 -0.036230743 0.23010758 -0.15586197 -0.11827126 -0.16343063 0.122407585
-0.20178911 -0.14146492 0.13467106 0.23398322 -0.22292969 0.09078196 0.006087482 -0.07574323
00000000: 088f b7bd 4c71 11be 1213 6d3e c202 4b3e
00000010: 9afb 453e 78aa 07bd 4c51 9fbd 7050 e53c
00000020: f87f e33d 30c5 5cbd 5857 eb3d 80af 9e3d
00000030: 866e 083e 62a4 1f3e 0a0b 783e b07e f9bd
00000040: a45f 0ebe 2473 c03d 8043 a6bc 44d9 953d
00000050: c05f 6bbd 562d 45be 7e67 053e 4449 4cbe
00000060: 2cf3 dfbd a8c1 59be cedc 6ebe b865 6c3e
00000070: 50cf 2b3e c041 c83b 7c52 653e 7e4a 5bbe
00000080: e464 19be 4882 3abd 32d6 04be 6c89 c1bd
00000090: f860 babd 54e7 f3bd 804f 66be 5830 2fbe
000000a0: 22b3 003e 2017 7cbc 7084 afbd 70f3 5cbd
000000b0: f47a 6d3e a463 023e 9444 c13d 8808 1bbd
000000c0: b6ee 423e 96bb 7b3e 9056 abbd e046 d8bc
000000d0: 3c9c 333e 1491 c3bd 4479 753e 3266 65be
000000e0: 12cd 6dbe 402e 7d3c c016 60bc 0000 6239
000000f0: 7005 973c bcb6 933d 16cb 28be 9802 1bbd
00000100: 3491 aebd 5a9b 49be d043 12bd c09e 803d
00000110: 6a83 6e3e e8c0 03bd a071 673e 409b 21bd
00000120: d8b5 bb3d 4056 8b3d cc77 debd c85f 94bd
00000130: 76f3 2d3e 480b 69be 547e 68be dcb4 263e
00000140: d653 64be 222c 193e c8cb 143d 22be 383e
00000150: 78c6 c13d acc2 1fbe 3858 5a3e ec79 eebd
00000160: a8ff 6d3d 400a 4d3c b2d9 7a3e e079 ea3d
00000170: 38ad 52be d84f 0dbe 7465 d2bd a0c6 193e
00000180: 4076 663d eca8 60be f4a9 c53d e836 65bd
00000190: e0de 5ebe 447d 493e 24dd c13d 8068 72bd
000001a0: aa3b 123e 60f9 43bc 2887 f23d 8e3d 2b3e
000001b0: 604d 2e3e d6b5 2f3e 6e10 203e a0a0 243d
000001c0: 80b7 133d fade 703e 904d 2fbd 1460 a13d
000001d0: 241e 95bd b673 23be d054 43bd f2df 3a3e
000001e0: d063 97bd 9cfa 803d 36a3 113e f0ec f0bc
000001f0: 8494 fe3d f836 1f3d d83a ec3d 6420 543e
00000200: c044 dd3d 005a 68ba f031 c73d b01f d33c
00000210: 0061 2fbd a087 463d 8675 68be 6022 9cbd
00000220: 08bc 743e b8f4 9ebd 24fc b0bd 44ac bebd
00000230: b430 c2bd 46c6 41be 92de 6ebe c8a0 76bd
00000240: f81e d83d 9045 1abe 68bf ca3d 78b0 633e
00000250: 8076 fcbb 1c55 eb3d 1483 fd3d 801e 45bc
00000260: 36cd 1c3e 480e 893d 96bc 52be 4473 493e
00000270: 70bd c63d a46a 533e 8892 87bd aace 29be
00000280: bc8c 023e 4872 7e3e 4c95 af3d bab2 61be
00000290: 0c53 773e 74c8 c5bd b8f7 0f3d b0c2 663d
000002a0: 78de 803d 28b4 963d e091 9c3c 5076 8f3c
000002b0: 70f3 803c 2052 c0bd b864 51be 6e0a 393e
000002c0: d063 8f3c dac8 3bbe c089 06bc a065 a23d
000002d0: b859 0c3e ee17 433e 5a41 463e 9634 033e
000002e0: e0b6 8f3d 00d9 b8bc 3e08 0d3e 1889 43bd
000002f0: 441c dbbd 14c5 e5bd 00b0 c438 c4b1 20be
00000300: 4eeb 24be a028 773e a496 863d 9a4c 353e
00000310: 0061 b1bc a0af 6fbc 364d 0d3e 0cf9 5c3e
00000320: f874 0c3e dcdb a7bd f8d4 9fbd f4d2 92bd
00000330: a486 353e e05b 9b3d a084 e93c dcdf a73d
00000340: baa2 7bbe 227f 22be 20d7 babd a867 51be
00000350: 16e2 1abe 8aa9 23be 70fc a83c 00f1 4e3c
00000360: 668d 6bbe bcc4 1abe 1c4b d43d 907e 433e
00000370: bad3 263e 78ed 70bd 4404 7f3e 18be 02bd
00000380: 6468 46be fcb0 a2bd 1436 f0bd ee89 3b3e
00000390: 6ea9 313e dc39 8cbd 8c91 863d d8b1 323d
000003a0: 0237 193e 00a2 43ba e488 913d f857 b8bd
000003b0: da13 06be ce5a 01be 6a5f 493e ea95 01be
000003c0: 109b 303e c60f 49be b066 14bd 52a1 6b3e
000003d0: 489a 1fbe 3438 f2bd 5c5a 27be d4b0 fa3d
000003e0: cea1 4ebe 2edc 10be 36e7 093e 4c99 6f3e
000003f0: ae47 64be e4eb b93d 8079 c73b 441f 9bbd

encoder.blocks.1.skip.bias f4 [32]
-0.06961572 0.033198 -0.08728254 0.03527993 0.01300019 0.111545 -0.06572738 0.23089376
0.2422891 -0.11751288 -0.1541236 0.12683749 0.026269466 0.0027964711 -0.2076551 0.0099592805
-0.030311465 0.07646546 0.20589617 0.12818578 -0.086541 -0.08336106 -0.10734138 -0.04538724
0.108300686 -0.2117342 -0.1017023 -0.004780531 -0.09159425 -0.114733756 -0.027010202 -0.14690953
00000000: b092 8ebd a0fa 073d 30c1 b2bd b081 103d
00000010: c0fe 543c b471 e43d 149c 86bd 6a6f 6c3e
00000020: a21a 783e 98aa f0bd 94d2 1dbe b0e1 013e
00000030: 1033 d73c 0045 373b 8aa3 54be 402c 233c
00000040: c04f f8bc ec99 9c3d 72d6 523e 2243 033e
00000050: 683c b1bd 34b9 aabd ccd5 dbbd f8e7 39bd
00000060: c0cc dd3d dad0 58be 4c49 d0bd 00a6 9cbb
00000070: c495 bbbd 88f9 eabd 8044 ddbc 746f 16be

encoder.blocks.2.conv.0.weight f4 [64, 32, 3, 3]
0.020485502 0.031556718 -0.00012671167 0.013882138 0.020700429 0.013899809 -0.00147656 0.056959987
-0.0067858347 -0.0052832784 -0.036476135 0.076793 -0.020702986 0.035091694 -0.033106342 0.04516809
0.07138037 0.004945843 -0.10863759 0.008166207 -0.08798909 -0.094394006 -0.04804455 -0.056671016
-0.0872575 -0.03744877 -0.033976533 -0.046430577 -0.080517165 -0.020757524 -0.0591152 -0.0033074054
-0.11335391 -0.05125211 -0.10233685 -0.10096435 0.041283544 0.008451674 0.009296404 -0.043523926
0.03542139 -0.015081033 -0.07346278 -0.0007845702 0.072691016 -0.031027291 -0.01394804 0.020460382
0.052182287 0.038582396 0.022835433 0.032954264 -0.044650294 -0.039732706 0.02805944 0.049069833
0.082158744 0.12418761 0.05756092 0.044960115 -0.00962273 0.055988096 -0.016179802 0.006137066
0.065725066 0.035030216 0.015431271 0.06535704 0.057087038 -0.021361725 0.04742043 0.120597586
0.04982745 0.017524315 0.03377466 5.524055e-05 0.08114708 0.025987806 -0.031305585 0.012103829
0.059767317 -0.052517153 0.03352965 -0.02544986 -0.075961165 0.096800126 0.05156866 -0.05603294
0.058438174 0.07081931 -0.021135086 -0.034179028 0.0008018218 0.055144556 0.012390143 -0.008274239
0.060022354 -0.020282581 -0.0287532 -0.006379012 0.13286789 0.027447486 -0.05078339 0.10654423
0.12737893 -0.028932143 0.024822738 0.041468613 0.077169485 0.07932572 0.009196873 0.063197784
0.09446714 0.068996646 0.07958002 0.075004615 0.05956363 0.036748435 -0.010658927 0.033314526
0.057085548 0.009247166 -0.021194875 -0.04953329 -0.015758725 0.08988417 0.014476813 0.087054044
0.049305804 -0.038335748 0.096824616 0.07529631 -0.0023269977 0.046833236 0.098438434 0.0722323
0.046835076 0.048851084 -0.039157454 0.020260202 0.08999284 -0.20599805 0.0058509996 0.07419925
0.08249493 0.020709937 0.16321546 0.13821258 0.15061301 0.15221368 0.04985946 0.10003533
0.062090218 -0.0011255947 -0.04423809 -0.0014185872 -0.047539208 -0.04179049 -0.08124163 0.004845405
0.069682285 -0.029720394 0.05668146 0.05503276 -0.028391646 0.0244286 0.023135997 0.018236512
-0.047998533 0.045817997 0.031816863 -0.022371935 0.052786462 0.020826988 -0.016020585 -0.02101355
0.053478718 -0.066968985 -0.03019145 0.01686784 0.042638764 0.15256377 0.11367424 0.094603196
0.15592949 0.07438525 0.065722115 0.07858374 0.10386674 0.04888337 0.03329009 0.031849407
0.058148306 0.085615344 0.0084470725 -0.016678365 0.026710976 0.040503033 0.026875315 0.069831416
-0.043320205 0.014106283 0.06465354 0.072139725 0.07114928 0.012585299 0.06789075 -0.074895054
-0.06767152 -0.05739889 -0.045159474 -0.05014621 -0.12566128 -0.07979179 -0.06272544 -0.026184127
0.16166818 0.06713178 -0.058671296 0.120159276 0.1631359 0.0594212 0.0610044 0.109838866
0.06888317 0.021762637 0.07055591 0.061059248 -0.048991453 0.10217527 0.06081483 -0.05691345
-0.0064945146 0.08235665 0.15167145 0.07161092 -0.06296894 0.07872173 0.044267938 0.0127526475
0.03386074 0.0157226 0.03446009 -0.018666051 0.07115931 0.05318377 0.005811903 0.10847137
0.02214583 0.009163408 -0.0070340415 0.037714407 0.016098307 0.083418414 0.040529918 0.010277901
00000000: 36d1 a73c 9e41 013d e8dd 04b9 e871 633c
00000010: f293 a93c 06bc 633c 2289 c1ba e04e 693d
00000020: b55b debb 5a1f adbb 0068 15bd a645 9d3d
00000030: 4f99 a9bc 4fbc 0f3d 849a 07bd 2d02 393d
00000040: df2f 923d bd10 a23b 637d debd 8ecb 053c
00000050: a033 b4bd a551 c1bd 5dca 44bd de1f 68bd
00000060: 0fb4 b2bd e263 19bd fa2a 0bbd fd2d 3ebd
00000070: 2fe6 a4bd af0b aabc c822 72bd 0ec1 58bb
00000080: 1826 e8bd bced 51bd fb95 d1bd 66c6 cebd
00000090: ef18 293d e478 0a3c f24f 183c 2546 32bd
000000a0: 0516 113d 7016 77bc a773 96bd 9dab 4dba
000000b0: 07df 943d f22c febc 5286 64bc 889c a73c
000000c0: 18bd 553d 9308 1e3d 6011 bb3c 0dfb 063d
000000d0: 3ae3 36bd c3be 22bd e9dc e53c 73fd 483d
000000e0: d842 a83d 1356 fe3d 00c5 6b3d 1928 383d
000000f0: a8a8 1dbc c653 653d 818b 84bc 7119 c93b
00000100: dd9a 863d d87b 0f3d 71d3 7c3c e9d9 853d
00000110: 19d4 693d c9fe aebc ed3b 423d defb f63d
00000120: de17 4c3d 278f 8f3c 4c57 0a3d 17b2 6738
00000130: 7130 a63d 61e4 d43c 493a 00bd 234f 463c
00000140: 93ce 743d 3a1c 57bd 6356 093d 3a7c d0bc
00000150: 8791 9bbd 253f c63d a939 533d cc82 65bd
00000160: de5c 6f3d b709 913d 7d23 adbc 4fff 0bbd
00000170: 5a31 523a 42df 613d 0700 4b3c ac90 07bc
00000180: 00da 753d a827 a6bc d58b ebbc 0807 d1bb
00000190: 850e 083e 8dd9 e03c 3e02 50bd dc33 da3d
000001a0: 9f6f 023e 1a03 edbc 0e59 cb3c feda 293d
000001b0: 090b 9e3d 8675 a23d 7bae 163c d76d 813d
000001c0: fd77 c13d 1d4e 8d3d d9fa a23d 059c 993d
000001d0: fef8 733d 8785 163d c8a2 2ebc d074 083d
000001e0: 89d2 693d 6d81 173c e0a0 adbc 6be3 4abd
000001f0: 7118 81bc 3115 b83d 2830 6d3c 6449 b23d
00000200: e2f4 493d f205 1dbd fc4b c63d f434 9a3d
00000210: 8b80 18bb 35d4 3f3d 179a c93d 87ee 933d
00000220: 23d6 3f3d 1318 483d 9163 20bd b9f8 a53c
00000230: 2b4e b83d 27f1 52be beb9 bf3b c7f5 973d
00000240: 1af3 a83d e3a7 a93c f421 273e 9987 0d3e
00000250: 4c3a 1a3e e7dd 1b3e 6f39 4c3d 53df cc3d
00000260: 5052 7e3d b188 93ba 0033 35bd e3ef b9ba
00000270: 79b8 42bd 812c 2bbd 0362 a6bd 34c6 9e3b
00000280: 96b5 8e3d 2f78 f3bc d22a 683d 086a 613d
00000290: 9995 e8bc 7d1e c83c b487 bd3c bd64 953c
000002a0: 1c9a 44bd a7ab 3b3d 6652 023d 5945 b7bc
000002b0: 9e36 583d 5c9d aa3c 9a3d 83bc 9c24 acbc
000002c0: 800c 5b3d 0927 89bd 0f54 f7bc 6d2e 8a3c
000002d0: fca5 2e3d ad39 1c3e 0ace e83d 52bf c13d
000002e0: fbab 1f3e 4b57 983d 5199 863d 83f0 a03d
000002f0: 16b8 d43d ee39 483d 305b 083d 8674 023d
00000300: eb2c 6e3d 1957 af3d 9765 0a3c 11a1 88bc
00000310: fad0 da3c 82e6 253d 9f29 dc3c c603 8f3d
00000320: 8770 31bd 0a1e 673c 1369 843d febd 933d
00000330: b7b6 913d 9232 4e3c 4e0a 8b3d 9462 99bd
00000340: 5e97 8abd 191b 6bbd 24f9 38bd 1d66 4dbd
00000350: 5aad 00be e169 a3bd 3276 80bd 1880 d6bc
00000360: 588c 253e 637c 893d 5051 70bd 1116 f63d
00000370: 190d 273e a563 733d c0df 793d 33f3 e03d
00000380: 9f12 8d3d 8f47 b23c 9e7f 903d 4319 7a3d
00000390: 43ab 48bd 4541 d13d f918 793d 141e 69bd
000003a0: f0cf d4bb 9aaa a83d c34f 1b3e bfa8 923d
000003b0: dcf5 80bd dc38 a13d 4c52 353d 7bf0 503c
000003c0: 8fb1 0a3d afcc 803c 0626 0d3d 8ce9 98bc
000003d0: f9bb 913d 3ad7 593d c771 be3b 3d26 de3d
000003e0: 2c6b b53c 1e22 163c d17d e6bb 6c7a 1a3d
000003f0: 99e0 833c 46d7 aa3d b302 263d a464 283c

encoder.blocks.2.conv.0.bias f4 [64]
-1.2309189e-05 -0.029246055 -0.0039899163 -0.06206772 0.032948382 -0.0027717326 -0.029316096 -0.0044078645
0.005935174 0.014599867 0.027171176 0.03285451 0.08188117 -0.045443553 -0.09382946 0.01658793
-0.008998893 -0.027187856 0.03618595 -0.004335889 -0.028002847 -0.007775726 -0.04839843 0.0042150123
-0.044451687 0.08079426 -0.05189178 0.066281855 0.0050913123 0.084252164 -0.0013072775 -0.031812344
-0.066961735 0.012470145 -0.02718705 0.015914837 -0.05966455 -0.022584017 0.0055578393 -0.009485369
-0.030469473 -0.0526533 0.028510313 -0.005437455 0.045211535 0.018139828 0.019267756 -0.026564999
0.015837632 -0.013591827 -0.008252104 0.035568476 0.0041000634 -0.0811779 -0.002942013 -0.003152759
0.024129553 0.015102317 -0.019253913 -0.08643218 -0.0062172455 -0.003024207 -0.025945023 0.03745067
00000000: 9083 4eb7 6c95 efbc d8bd 82bb b93a 7ebd
00000010: e2f4 063d f5a5 35bb 4f28 f0bc d96f 90bb
00000020: d97b c23b 4834 6f3c 1696 de3c 7392 063d
00000030: 51b1 a73d 0523 3abd a929 c0bd 69e3 873c
00000040: 1870 13bc 11b9 debc b837 143d 1314 8ebb
00000050: 3a66 e5bc 84cb febb 6f3d 46bd 161e 8a3b
00000060: f912 36bd 7677 a53d 7a8c 54bd c8be 873d
00000070: 06d5 a63b 668c ac3d f458 abba a94d 02bd
00000080: 3c23 89bd 944f 4c3c 60b7 debc d55f 823c
00000090: d162 74bd 1e02 b9bc 891e b63b 8568 1bbc
000000a0: 1e9b f9bc fdaa 57bd 768e e93c ae2c b2bb
000000b0: bb2f 393d fa99 943c 6ad7 9d3c d79e d9bc
000000c0: ecbd 813c 41b0 5ebc d533 07bc 40b0 113d
000000d0: d359 863b 9940 a6bd cace 40bb 859e 4ebb
000000e0: 57ab c53c b56f 773c 62ba 9dbc 5b03 b1bd
000000f0: 09ba cbbb c631 46bb a88a d4bc e065 193d
