toyshapes/pinets_ensemble/ensemble_22/model_5.pth (torch, 466407 bytes, 71 tensors)

encoder.blocks.0.conv.0.weight f4 [16, 1, 3, 3]
00000000: 79bc 553e 9267 a8be 460b 963e 0b7b 493e
00000010: 0fd3 4c3e fb59 87be 6b76 67be 10ed 3b3e
00000020: d284 a1be c782 833e 5d8e 053d 0dc5 a239
00000030: 3870 a9be ce8a 853e 6ee6 603e 7c8e 973d
00000040: 8ae8 5b3e 40c8 853e 5ec9 a3be eb6f 7e3e
00000050: a9c2 5cbc f522 aabd e4a0 abbe 1a3c b73d
00000060: 6bc2 d33e 93c1 7abe f342 5fbc fbbf 373e
00000070: 3501 6bbe c0e5 8d3c 29d4 68be cefa 98be
00000080: c1e0 5cbe 24dc aabd 0c9f 103e 1065 2d3e
00000090: dd54 a13e 3263 9cbe f280 48bd a3a9 a53e
000000a0: c380 8abd fe2b 03be be1d cfbe 458a b93d
000000b0: a796 343e 93bb 653d b02d 903e 0fc8 383d
000000c0: d9ce 183e 2080 1ebe 9a36 8a3e 3ae5 1dbe
000000d0: 49aa 20be 74b0 83be 8bd5 563e 905b 303e
000000e0: 54b7 583e 16b5 85be b2af 4abe b996 833e
000000f0: 38b2 3fbe 477f 2bbe 27b1 cabd f32f 773d
00000100: b726 1dbe 66ac c13e c357 b93d 8919 f93d
00000110: b22d a43e d6e9 3ebe 046a 9e3e 05b6 d7bd
00000120: 7f18 edbd a5c3 d73d a7d9 b53d d4aa 973e
00000130: 3e12 203e 3e8d 213e a0f5 4bbe 9e8e e6bd
00000140: 3fe4 91be 3a18 7dbd 8fc3 32be efb2 233e
00000150: f0cc 403e c875 bdbe e20c efbd ab2e a0bd
00000160: 469c 2b3c 08e0 e0bd ac3e 39be 6d34 f3bd
00000170: 5550 16be 87c7 6b3c c34f b6be 7184 32bd
00000180: b146 38be 1fba 3bbe 803f 553e 2382 7c3e
00000190: cf5f 03be 9a3d 79be b0c2 9abe c5c1 66be
000001a0: 28e0 dc3d bc97 fabc 6552 afbd 7023 733e
000001b0: 63ed ce3c 6d4c 8ebd f008 3abd 32d1 bd3e
000001c0: 3479 aabe 4ae4 153d 2718 783e ead0 3f3e
000001d0: e4ff 65be e2b1 a6bc 42b4 9f3e 3e3e 113e
000001e0: 9948 503d 5815 0dbe 2b0c 823e 8f90 febd
000001f0: f996 65be 79ec 8a3e 64f8 3e3e fba5 9a3d
00000200: d7a7 50be 399a 803d 5a52 86be 86e3 12be
00000210: e54e 903d ddda 833e 9774 80be 575c 9b3e
00000220: 03fb 853e e425 a3be f8f4 3a3e 7344 54be
00000230: 77f4 95be f57f 953e d11e 4fbe 02f1 fcbd
0.20872678 -0.32891518 0.29305476 0.19675843 0.20002387 -0.26435837 -0.22603767 0.18352151
-0.31546646 0.25685713 0.03260647 0.00031045862 -0.3309343 0.26082462 0.21962902 0.074002236
0.21475425 0.2612934 -0.31989568 0.24847381 -0.013474145 -0.08307449 -0.33521187 0.0894701
0.41359267 -0.24487905 -0.013626802 0.17944328 -0.22949679 0.017321467 -0.22737183 -0.2987885
-0.21570112 -0.0834277 0.14123172 0.16933084 0.31510058 -0.3054443 -0.048951097 0.32355985
-0.067628406 -0.1280975 -0.4045238 0.09059576 0.17635594 0.056087088 0.28159857 0.045112666
0.14922656 -0.15478563 0.26994783 -0.15419474 -0.15689959 -0.2572056 0.20979898 0.17222428
0.21163684 -0.2611472 -0.19793585 0.2570093 -0.18720329 -0.16747771 -0.098970704 0.060348462
-0.153468 0.37826842 0.09049942 0.121630736 0.32066113 -0.18643889 0.30940259 -0.10532764
-0.11576938 0.10535363 0.088794045 0.2962252 0.15631959 0.15776536 -0.19917917 -0.11257671
-0.2849445 -0.061790682 -0.17457412 0.15986226 0.18828177 -0.37003922 -0.11672379 -0.07821401
0.01047427 -0.109802306 -0.18090314 -0.11875234 -0.14679082 0.014390833 -0.35607728 -0.043583337
-0.17995717 -0.18332718 0.20825005 0.24659018 -0.12829517 -0.24339905 -0.3022666 -0.22534855
0.10784942 -0.03058993 -0.085606374 0.23743987 0.02525968 -0.06948171 -0.04541868 0.37073666
-0.33295596 0.036594667 0.24227963 0.18732038 -0.22460896 -0.020348493 0.31192213 0.141839
0.050850485 -0.13777673 0.25399908 -0.12429916 -0.22420873 0.2713354 0.18649441 0.075511895
-0.20376526 0.06279416 -0.26234704 -0.14344606 0.07046298 0.25752917 -0.2508895 0.30343887
0.2616807 -0.31864846 0.1825751 -0.20729236 -0.29288074 0.29199186 -0.202266 -0.12350656

encoder.blocks.0.conv.0.bias f4 [16]
00000000: 7a13 e73c 1b1e 373e 0290 bcbb 5f62 2ebe
00000010: b125 033d d75a 8cbe 1f0f 90be d750 b23d
00000020: 9cb4 fd3c f1c5 513e e040 5dbe 2a97 77be
00000030: c444 03be c2b6 a3be 9bbf 03bd fb93 3c3e
0.02820753 0.17882578 -0.0057544718 -0.17029713 0.032018367 -0.27413055 -0.28136536 0.08706825
0.03096991 0.20485665 -0.21606779 -0.24178758 -0.12819201 -0.3197537 -0.03216515 0.18415825

encoder.blocks.0.conv.1.weight f4 [16]
00000000: 3fa9 9f3f 90e8 6a3f 76e9 9b3f f710 6d3f
00000010: 7eab 9d3f d4ff 723f fcea 783f 8205 613f
00000020: 6551 7d3f 3a35 6e3f 1ba9 773f 7ab1 673f
00000030: 95d9 823f b5be 4a3f c3ba 653f 9812 6e3f
1.2473525 0.9176111 1.2180622 0.9260401 1.231796 0.9492161 0.9723356 0.8789903
0.98952323 0.9304997 0.9674241 0.9050518 1.0222651 0.79197246 0.897381 0.9299712

encoder.blocks.0.conv.1.bias f4 [16]
00000000: b1ec 853e 91f7 a7bd 67f8 293e d4c5 93bb
00000010: ec78 6b3e 69a5 dabd c322 143e 6064 62bd
00000020: e9dc 89bd 44d7 c3ba 1f0b a7bc c5ec 0cbd
00000030: 5061 723c fe94 54be b72e 6638 28dd aa3d
0.26157144 -0.082015164 0.16598664 -0.004509667 0.22995347 -0.10676081 0.14466386 -0.055271506
-0.067315884 -0.0014941473 -0.020391045 -0.03440549 0.014793709 -0.20759961 5.487978e-05 0.083429635

encoder.blocks.0.conv.1.running_mean f4 [16]
00000000: 8ab0 993c 2853 293f ee6d eabd 28bf e6be
00000010: 8e81 043c a9e7 6cbe 5a98 a2be 9d2a f23e
00000020: ccc4 d03d 2fa6 65bd 3690 2cbf 4c6c f9be
00000030: f277 d2bc c1c2 21bd 09ec 3dbe bbb4 0c3e
0.018760938 0.6614251 -0.11446749 -0.45067716 0.008087529 -0.23135246 -0.3175686 0.47298136
0.10193786 -0.05606669 -0.6740755 -0.48715436 -0.02569196 -0.039492372 -0.18547072 0.13740818

encoder.blocks.0.conv.1.running_var f4 [16]
00000000: 55d6 583b 82f0 2a3d 0d4a 893b dc27 813c
00000010: db84 ff3a 4fcd b33b 6388 043c e896 e83c
00000020: b7af ab3b ca4a 543c 36c6 183d ec9d 443c
00000030: e932 da3b 7da5 8e3c 0f3d 173c 354f 543c
0.0033086736 0.041733272 0.0041897357 0.015766077 0.001949455 0.005487121 0.008089158 0.02839227
0.0052394527 0.012957284 0.037298404 0.012000542 0.006658901 0.017412895 0.009230866 0.012958338

encoder.blocks.0.conv.3.weight f4 [16, 16, 3, 3]
00000000: 7f91 0abe e904 60bd 146c 7b3c 1ec6 29bd
00000010: 823a b93d 1a51 5f3c 3b7e 883d 2544 54bd
00000020: 3d48 bf3d b21c a13d a69f 3cbd 8bb7 cb3d
00000030: dac4 d23c f406 e6bb 60c2 79bd d5ec b5bd
00000040: ff1a 87bd 1da9 8fbd 50d4 4fbe bc70 a5bd
00000050: cbff 3ebe 26e7 38be 79d3 2abe 112a 30be
00000060: fb39 c2bd 8f61 6abd bfdb 57bd b6ea 14bb
00000070: 73b5 36bc 173b c5bd ae1c adbd 0320 4abd
00000080: aa58 8a3c e68b 1abc 00eb b3bd a1f6 9fbc
00000090: ba9b f8ba 6730 0bbd 7073 9fbd 9aa4 9abd
000000a0: a346 40bd 4016 67bd ba54 4fbd 67f1 16bd
000000b0: dda7 ca3d 7dff b7bc 29ac 533d 206f 8b3d
000000c0: 2d81 803d ea78 23bd 38b5 f03d 7e20 ce3c
000000d0: f836 89bd d411 3e3d bb99 33be 2556 1b3d
000000e0: f842 35bc 461c 52bd 6657 04bd c974 af3c
000000f0: f85a 9f3c 6ea8 e13d c6eb 44bb 1041 a13d
00000100: d857 9d3b d651 e73c b402 50bd 09c5 153d
00000110: 0530 ae3d 9985 c93d 347f 07bd 15a4 73bc
00000120: 4235 a13c bae9 8e3d 8588 36bd 8411 8fba
00000130: 637b 9cbc be96 f33d 329e b8bc 9f64 7e3d
00000140: bf20 963d 0065 82bd f157 11bd 99ca adbc
00000150: 202b 9cbd 7d83 a4bb 2495 3cbd 3562 adbc
00000160: d698 803a 94a4 91bd 1399 cbbd 0bb1 dcbd
00000170: 96d7 b8bd fafe 9bbd 2e6e b6bc bb64 eebd
00000180: 8301 03be 4b8e 113c 7084 15bd 936e e2bd
00000190: 8513 89bd 4d40 3ebd 1b74 fbbd 5b86 0fbe
000001a0: 5bf9 e5bd c811 4e3c 7cd0 5cbc 29a2 d7bd
000001b0: 8885 a7bd ba53 8c3d e9b9 8e3d 3de4 c5ba
000001c0: f587 8d3d 2db2 193d f78e 603d aebe 21bd
000001d0: 050d b9bb f98a 99bd 279d 84bd 9f97 bd3d
000001e0: 714b bc3c b586 763d bc4e 933c 440c 8bbd
000001f0: ecf0 883d 5aca 39bd e58e f8bd 13cb 25bd
00000200: b804 82bd a98d 48bd 594a 0bbe e050 133c
00000210: c42d c7bd 47ba ff3c defb 99bc 34fe 39be
00000220: 6eb1 b2bd 9c88 6ebc 1b1d 5ebc 688a bebd
00000230: c611 ae3c 8426 0abe e489 ff3c a938 be3d
00000240: 76a9 84bd 0b9e 8f3c 7dbe b93d 0ca1 2d3d
00000250: cdaf 2b3e be06 ef3c c829 2e3e accb d73d
00000260: b6c7 fe3d ec80 b9bc a461 50bd 6309 3c39
00000270: dc4f e6bc 1105 bb3a 6de0 bbbb 073e 8cbd
00000280: de07 d2bc 6fb8 4fbd 1038 4abd 7ae2 17bd
00000290: 0b64 05be 3b4f 89bc 9d07 5d3d 69b4 aebd
000002a0: d4f3 92bd 1cdb 073c 27c3 563d 8812 f63c
000002b0: 1b66 a3bd 65a6 f6bd d6a7 a5bd 4a4c c03c
000002c0: 2381 443c 56e7 753c a27c 6d3d bcca d43c
000002d0: 5324 a43c 3e9e 023e 78b6 8d3d 3108 88bd
000002e0: 266f 8b3d 433f 2d3d 0873 db3d 66c1 be3d
000002f0: 1278 213d 57b5 bd3d 95b6 0b3e 79f2 8f3d
00000300: e9f7 053e b338 2a3e 760b e83d 0fe6 543d
00000310: b3e4 883d 14b0 9b3d 50f8 153d 0b32 ee3c
00000320: 7cf2 cdbb f656 b93b 132f 183d 5783 0c3d
00000330: 6a67 593e 4e32 823d 837e ba3d 28e2 423d
00000340: 4f2a 0f3e 7183 f03c b618 4a3d 081d 94bb
00000350: 323b 7fbd 657e 01be 7a74 a33c 8c59 3d3c
00000360: b6ce a63d bf97 373e c151 473d 20ed c93d
00000370: 8bf5 ee3c 3425 873d 5a52 693d edf1 20bc
00000380: 3856 273d 489f b6bd c08d a23d 7df5 9cbd
00000390: 0fb5 c13d 4da9 91bc d4b2 15bd f19f ce3d
000003a0: e593 103e a488 b73d 504f 28bd 8093 57bd
000003b0: 2af9 4e3d 5661 95bd 8fac c7bc 84d0 98bd
000003c0: 0744 3abd aa71 153e 4c39 3c3c 9439 713c
000003d0: 823d 6cbc 66d8 a7bd 72ea a73c b38c e6bc
000003e0: 3de0 a8bc 329b f53d 8ae5 033d 7356 dd3d
000003f0: a28b 8bbd 7a9f 6b3c 57c4 22bc 7715 d73d
-0.13532065 -0.054692183 0.015345592 -0.041448705 0.090443626 0.013630176 0.066647016 -0.0518228
0.0933995 0.07866801 -0.04605069 0.099471174 0.025728632 -0.007019872 -0.060976386 -0.08883063
-0.06596946 -0.07014678 -0.20295835 -0.08078143 -0.18652265 -0.18056926 -0.16682233 -0.17203547
-0.09483715 -0.057221945 -0.0526998 -0.0022722906 -0.011151659 -0.09630411 -0.08452736 -0.049346935
0.016887981 -0.009432768 -0.08785057 -0.019526782 -0.0018967309 -0.033981707 -0.0778569 -0.075509265
-0.046942364 -0.056417704 -0.05061791 -0.036851313 0.09895299 -0.022460693 0.051677857 0.06808305
0.06274638 -0.039910235 0.11753315 0.025161978 -0.066999376 0.04640372 -0.17539112 0.03792395
-0.01106333 -0.051296495 -0.032309912 0.021417992 0.019452557 0.110184535 -0.0030047758 0.07873738
0.0048017316 0.028237265 -0.050783828 0.03656486 0.08505253 0.09839935 -0.033080295 -0.014870663
0.019678716 0.069781736 -0.04456379 -0.0010915254 -0.019101804 0.11893986 -0.02253637 0.06210768
0.073304646 -0.063669205 -0.035484258 -0.02121477 -0.07625413 -0.0050205574 -0.04604067 -0.021164993
0.0009811174 -0.07111469 -0.09941306 -0.10775956 -0.09025495 -0.07616992 -0.022269335 -0.116403066
-0.12793545 0.008884023 -0.036503255 -0.110562466 -0.06693176 -0.04644804 -0.12278005 -0.14016096
-0.112292014 0.012577482 -0.013477441 -0.105289765 -0.08179766 0.06851907 0.06969053 -0.0015097928
0.06910697 0.037523437 0.054823842 -0.039488487 -0.005647304 -0.0749721 -0.06475287 0.09257435
0.022985192 0.06018706 0.01798188 -0.06789449 0.06686577 -0.045358993 -0.1213663 -0.04047687
-0.06348556 -0.048963223 -0.1360258 0.00899145 -0.09725526 0.031216754 -0.018796857 -0.18163377
-0.08725248 -0.014558937 -0.013556744 -0.09303743 0.02124871 -0.13491255 0.031193681 0.09288151
-0.064776346 0.017531415 0.09069536 0.042389914 0.16766281 0.02917802 0.17008126 0.10536894
0.124404356 -0.022644483 -0.050874367 0.00017932574 -0.028114252 0.0014268478 -0.0057335407 -0.06847768
-0.025638517 -0.050713 -0.04936987 -0.03708122 -0.13026445 -0.016761413 0.05396234 -0.08530504
-0.07175413 0.008291986 0.052432206 0.030038133 -0.079784594 -0.12043456 -0.08088653 0.023473877
0.011993679 0.015008768 0.057980187 0.025975578 0.020036852 0.12755677 0.06919569 -0.066421874
0.06808309 0.04229666 0.107153 0.093142316 0.03942115 0.092631035 0.13643868 0.0702867
0.13082851 0.16623192 0.11330311 0.051977213 0.06684246 0.076019436 0.036613762 0.029076597
-0.00628501 0.0056561185 0.03715427 0.034304943 0.21230856 0.06357251 0.091061614 0.04757896
0.13980983 0.029359551 0.049339972 -0.0045200624 -0.062312312 -0.12645872 0.019953001 0.011556994
0.08144896 0.1792898 0.04866195 0.09859681 0.029169818 0.06598893 0.056963302 -0.009823305
0.04085371 -0.08917099 0.07937193 -0.07664011 0.09458362 -0.017780924 -0.036547497 0.100891
0.14118917 0.08961609 -0.041091263 -0.0526309 0.05053059 -0.07293956 -0.024374275 -0.07461646
-0.045475032 0.1459414 0.01148827 0.0147232 -0.0144189615 -0.081955716 0.020497534 -0.028143262
-0.020614738 0.11992492 0.032201327 0.108075045 -0.06813742 0.014381284 -0.009934506 0.10502141

encoder.blocks.0.conv.3.bias f4 [16]
00000000: c8f1 4a3d f235 a9bd 54cf 933d 6a02 0dbd
00000010: c47b 9c3c 32b4 e83c 464b 80bc c8bf 0f3d
00000020: 0950 1bbc f6b5 afbd 9b1e c3bd c3ca a2bb
00000030: f3d4 a2bd 9b6c ccbc 8f83 23bd db8f c8bd
0.049546987 -0.082622424 0.07217279 -0.03442613 0.019101985 0.028406236 -0.015660893 0.035095006
-0.009479531 -0.08579628 -0.09527322 -0.0049680187 -0.07950773 -0.02495413 -0.039920386 -0.09793063

encoder.blocks.0.conv.4.weight f4 [16]
00000000: 61dc 753f 7c6f 873f 5612 703f 8f50 863f
00000010: 9179 8c3f aacb 6f3f 9a11 673f 3346 6d3f
00000020: 930f 793f d801 883f fb22 623f 89a6 653f
00000030: 550c 633f cf85 773f 8869 833f adf5 793f
0.96039397 1.0580897 0.9377798 1.0493335 1.0974599 0.9367014 0.9026123 0.9268524
0.9728939 1.0625563 0.88334626 0.8970724 0.8869069 0.9668855 1.026658 0.97640496

encoder.blocks.0.conv.4.bias f4 [16]
00000000: ee44 90bc f90f 97bd 838f 953c d012 49bc
00000010: 5727 c23b 24ce 50bd ed9b bebd 73ad edbd
00000020: 675b af3c 7c72 c03b b98c 32bd 0c2c 76bd
00000030: ce92 44bd 5d88 c3bc d1b7 a1bd b018 8dbc
-0.017610993 -0.073760934 0.018256908 -0.012272552 0.0059251 -0.05097784 -0.09307084 -0.116053484
0.021405889 0.0058730226 -0.043591235 -0.0601006 -0.047991566 -0.023868734 -0.07896388 -0.017223686

encoder.blocks.0.conv.4.running_mean f4 [16]
00000000: 8eb7 c2bf b3cb 7e3f f6ae ddbf b5d1 25be
00000010: ffa1 8c3f c528 eebf 6e20 87bf dabe a5bf
00000020: 62b5 abbf 39db 12bf 0aa3 b8bf 09a4 46bf
00000030: 2cc6 41bf 4ace 6dbf e18f 98bf fb9d 82bf
-1.5212266 0.9952957 -1.7319019 -0.16193278 1.0986937 -1.8606192 -1.0556772 -1.2948868
-1.3414729 -0.5736576 -1.4424756 -0.7759405 -0.7569301 -0.928929 -1.1918908 -1.0204462

encoder.blocks.0.conv.4.running_var f4 [16]
00000000: 8ef5 9840 abcc 0640 09cc 5540 360a 4f3f
00000010: f998 723f cb88 f13f 15e6 2240 3f6f bb40
00000020: 3d33 8a3f 6f13 f23e a986 7740 b623 2e3f
00000030: af22 3540 f3de 583f e245 2c40 b8a5 a23f
4.779975 2.106242 3.3405783 0.80874956 0.9476467 1.8869871 2.545293 5.85733
1.0796887 0.47280452 3.867594 0.6802324 2.830242 0.84715194 2.6917653 1.2706823

encoder.blocks.0.skip.weight f4 [16, 1, 1, 1]
00000000: f48d b83e f478 053f 208f 6c3d 94d2 61bf
00000010: 74d7 c6be c0e7 5b3e 08bf 093f 24ec 65bf
00000020: 24f9 ff3e 0c6c e9be 6c6d 08bf 8ccf a13e
00000030: d06a 313f e84e 863e 7afa 78bf 1e92 10bf
0.36045802 0.52137685 0.057753682 -0.8821194 -0.38836253 0.21475124 0.53807116 -0.89813447
0.49994767 -0.45590246 -0.53291965 0.31603658 0.6930361 0.26232076 -0.97257197 -0.5647296

encoder.blocks.0.skip.bias f4 [16]
00000000: 80f4 7b3d 02c7 1b3f 5cf1 743f d6fd 57bf
00000010: 4cdf 99be 7c2c eabe 2019 66bd 68ec c5be
00000020: e8f3 e63e 4460 17bf 2031 40bd 0062 0abb
00000030: 8409 47bf f80a 5e3e 24b3 17bf 403e 79bf
0.06151247 0.60850537 0.95680785 -0.843717 -0.30053174 -0.45737064 -0.056176305 -0.38656926
0.4510796 -0.59131265 -0.04692185 -0.0021115541 -0.77748895 0.21683872 -0.5925772 -0.9736061

encoder.blocks.1.conv.0.weight f4 [32, 16, 3, 3]
00000000: 94ad cb3d 8e21 e63b b387 65bd 7b9f f03c
00000010: 04b3 483d cbf6 cebc f516 cd3c 9193 793c
00000020: f7bb 8a3d b0a7 083c 5f42 60bd 0b30 fbbb
00000030: c64f 603d 10ee b1bd b2ec 0ebe 1bde 69bd
00000040: f735 85bd bb19 bbbd e870 2dbd befe 1cbd
00000050: 6e7d e7bb ed8f c73d b42b 2fbd f8f0 ea3c
00000060: b647 593a 8946 abbc a467 01bd 2dab 8f3d
00000070: 3243 3f3e 164b 823d a448 d93d 3aed 3f3e
00000080: 5d37 823c 4121 783e a6bc 2f3e 3d56 103e
00000090: 7c51 0abe 2249 12bd 66c7 e8bd c023 cbbd
000000a0: 65ec e8bd 70cd 1abe d83f 58bd e3c5 50bd
000000b0: 8257 15be da5f 57bd 68e2 89bb f4e6 ba3d
000000c0: b37e 083b 940c f23c f207 963d 6f73 b8bd
000000d0: ac55 ae3d 454b 8d3d 11ec 10bd c560 91bd
000000e0: d47c 93bd 484d 71bd 5336 8c3d 33b6 0d3d
000000f0: a572 85bd bbd3 9c3d 734e abbd d63e d43b
00000100: d1bc de3c 073b 0b3e b21c df3d a5c4 9a3d
00000110: 61ce 803d 9013 643d b82a 573b dc1e 863c
00000120: e66d 393d e722 6b3d ffa4 37bd f5f1 c73d
00000130: 93e7 d5bc 5fa7 e3bd 4978 863d cb25 7dbc
00000140: e986 c23c ffd8 b1bd cba3 2d3d a5eb 333d
00000150: b882 8fbb 5b4b e43d 2dd7 92bd 9e86 fe3d
00000160: a918 493e ef38 953d cce2 053d ba57 55b9
00000170: cebc a83c d69a 313c 9fc5 e43d 1c55 0fbc
00000180: 7608 113d 2e5e 20bd c713 4dba dba5 00bd
00000190: 36db dc3c 5134 81bd c81a e53c 62fa 6b3d
000001a0: c731 bfbd f7e2 6fbc 8bca c83c 3fea 99bc
000001b0: 5ee9 8dbd 9f1e 013d d4be 623b efb2 7d3c
000001c0: f5c7 1abd fc29 e03c f73a 63bd e9a7 8abd
000001d0: be44 843d 9f8f 04bb 49f9 003d 58a5 443d
000001e0: f3cd 8f3d 0c08 0e3d 186b 093d 2742 3e3c
000001f0: 9a36 c73d d463 d23d 53e5 c33d 7314 95bc
00000200: 9795 f33d d3b0 903d 7b66 373d 736c 9d3c
00000210: 2f53 ac3d a509 573d bb2e 05bc f21d b8bd
00000220: 376b d1bd 01c9 37bb 9b1e 1e3d 0b71 533c
00000230: ea7d 82bd 8720 be3d 1eaa 473c e80a 38bd
00000240: 6b8f 23bd 8dd6 6abc 0b8d 74bd c8f1 203d
00000250: 67d5 3f3d c992 85bd f479 dcbd 2cd2 bfbc
00000260: 7868 10ba 181d 03bd 449c b1bd 90a5 aebd
00000270: 558b dfbd 21f3 5e3b b505 75bd 7961 dfbd
00000280: 9908 63bc 786a c5bd 04fc e83d 1958 3dbd
00000290: 8993 923d 80b8 193e 37af fcb9 36d7 4b3d
000002a0: 8d73 683d 0186 d33c 1e38 10be 6aac 193d
000002b0: ef95 013e ce2a fd3d b5ce 453c 9202 263e
000002c0: 0b82 283d 963f 083e fdd6 353e 84fd c43d
000002d0: 4ad5 b9bc d982 a8bd 2e80 29bd dcc6 17bd
000002e0: 74e9 7ebd 1569 86bd e0e1 17bd c2dd b1bd
000002f0: e927 e4bd bac4 9639 2964 d3bc 219f 9f3d
00000300: db2a dc3c de66 0abc 520b 983c 3a9b bfbd
00000310: b0b9 34bd 3432 9b3d 111d 9b3d 44b5 2abd
00000320: 262c b9bd ca68 863d 3553 2dbd da1c 14bd
00000330: 3810 f4bb 5db0 61bd 9f0d 4cbd 03e1 e13c
00000340: 4928 043d 08a7 c4bc 1ad4 fd3c 6f76 bb3c
00000350: 8460 b23c 0487 b9bc 5dd4 36bd bd0c 4d3b
00000360: 79cb 1b3d e520 873d ac93 cb3d da8e e23d
00000370: 8021 993c 2cfb a03c 503d 133e 763b a93c
00000380: 2ff7 3f3d 5d6e 0bbd 5449 f03d 0a36 d93d
00000390: d656 14bd fb86 183e 3ff0 52bc 1df6 313b
000003a0: a1a2 033e 7644 fdbd 8174 813d 1c39 fd3b
000003b0: 96d9 60bc 52cd 553d f416 0cbc 871d 05bd
000003c0: 77c8 e7bd 4895 29bc 9b62 a0bd fb70 d8bc
000003d0: 0f1e e83d 1c43 3b3e df33 de3c 87b6 053e
000003e0: bf43 de3d 974f 653d 5fab 113e 0f68 493c
000003f0: aaf4 1b3d e89a 743d b8a0 b03c d3a4 643c
0.09945217 0.007023043 -0.056037616 0.029372921 0.048998848 -0.025264164 0.02503536 0.0152329365
0.06774133 0.008340761 -0.054750796 -0.0076656393 0.054763578 -0.08687985 -0.1395748 -0.057096582
-0.065044336 -0.09135767 -0.042344004 -0.03832888 -0.007064513 0.097442485 -0.042766288 0.028679356
0.0008288579 -0.020907657 -0.03159298 0.07015071 0.18677977 0.06361978 0.10609558 0.18742839
0.01589554 0.24231435 0.17161807 0.14095397 -0.13507646 -0.035714276 -0.11366157 -0.09918928
-0.11373214 -0.1511743 -0.05279526 -0.05096997 -0.14584163 -0.052581646 -0.004207898 0.09126082
0.0020827472 0.029547013 0.07325734 -0.09006392 0.08512434 0.06899122 -0.03538138 -0.070985354
-0.072015435 -0.05891159 0.06846299 0.034597587 -0.06516007 0.07657572 -0.083645724 0.006477217
0.027189644 0.13596736 0.10894145 0.07557038 0.06289364 0.05568272 0.003283186 0.016372137
0.045270823 0.057406332 -0.044835087 0.097629465 -0.0261114 -0.11115908 0.06565911 -0.015450905
0.02374597 -0.08683967 0.042392533 0.0439259 -0.0043795966 0.111471854 -0.07169948 0.1242802
0.19638313 0.0728625 0.032686993 -0.00020345944 0.020597842 0.010840138 0.11170506 -0.008748319
0.03540846 -0.039152317 -0.00078230764 -0.031408172 0.026959997 -0.06308807 0.027966872 0.05761183
-0.09335666 -0.014641515 0.024510643 -0.018788455 -0.06929277 0.031523343 0.0034598606 0.015484556
-0.03778835 0.02736377 -0.055476155 -0.067703076 0.06458424 -0.0020227206 0.031487737 0.048009247
0.070217036 0.034675643 0.0335494 0.011612452 0.09727211 0.10272947 0.095652245 -0.018198228
0.118937664 0.070649765 0.044775467 0.019216752 0.084143035 0.052499432 -0.008128817 -0.089900866
-0.10225528 -0.0028043392 0.038603406 0.0129053695 -0.063716725 0.09283548 0.012186555 -0.044932276
-0.039931696 -0.014333379 -0.05970482 0.03929308 0.046834376 -0.06522138 -0.10765448 -0.023415647
-0.0005508731 -0.032010168 -0.086723834 -0.08527672 -0.10915247 0.0034019428 -0.059819896 -0.10907263
-0.01385703 -0.09639448 0.11376193 -0.046226595 0.07157046 0.15011787 -0.0004819573 0.049765788
0.056750823 0.025820734 -0.14083907 0.037517942 0.12654851 0.1236168 0.012073209 0.16211918
0.041139644 0.13305506 0.17757793 0.09618667 -0.022684712 -0.08228082 -0.041382007 -0.03705488
-0.062234357 -0.065630116 -0.037080646 -0.08684875 -0.11140425 0.00028756802 -0.025804596 0.07794023
0.026875904 -0.008447377 0.018560085 -0.09355779 -0.044122398 0.07577935 0.07573903 -0.041676775
-0.09041624 0.06562956 -0.04231568 -0.036160327 -0.0074482225 -0.055099834 -0.049817678 0.027573114
0.03226498 -0.024005428 0.030984927 0.022883622 0.021774538 -0.022647388 -0.04463612 0.003128811
0.038035844 0.06598071 0.099402755 0.11062403 0.018692732 0.019651018 0.14378858 0.020658236
0.046866592 -0.034040798 0.11732736 0.1060601 -0.036215626 0.14895241 -0.012874662 0.0027154752
0.12855007 -0.123665735 0.063210495 0.0077277552 -0.0137237515 0.05219776 -0.008550394 -0.032498863
-0.113175325 -0.010350533 -0.078313075 -0.02642106 0.11333858 0.18287319 0.027124343 0.1305791
0.10852765 0.055984106 0.14225529 0.012292876 0.038075127 0.059718043 0.021561012 0.013955313

encoder.blocks.1.conv.0.bias f4 [32]
00000000: e0c7 903d c3c3 c3bd 3b54 433d 30da 293d
00000010: 0f10 673d 8a27 8a3d 55c3 5bbd b317 5e3d
00000020: 3f77 b7bd eab8 8fbd 82a4 e7bd 9315 08bd
00000030: 79f4 a43c 720d 68bc 8dbd 613d 7171 f03c
00000040: 2122 61bd 6928 d33d 324c bcbd 282d c53c
00000050: ae0b 7dbd d837 ee3c fef6 0f3c a4ee 8d3d
00000060: 558f 34bd 91e3 8ab7 1907 dfbc 1b5c d7bd
00000070: b4cd 133c 1122 13bb 927a 2cbc 41a9 a0bd
0.07069373 -0.09558823 0.04768775 0.041467845 0.0564118 0.06745823 -0.05365308 0.05422182
-0.08958291 -0.070176914 -0.11310674 -0.0332237 0.020136105 -0.014163362 0.05511241 0.029350968
-0.05496419 0.10310442 -0.091942206 0.024069384 -0.061778717 0.029079363 0.008786915 0.06930283
-0.044082005 -1.655685e-05 -0.027225064 -0.105156146 0.009021211 -0.0022450725 -0.01052727 -0.078447826

encoder.blocks.1.conv.1.weight f4 [32]
00000000: 7d4a 723f 947b 893f 92de 643f 2a5c 833f
00000010: e9d0 833f f58b 753f 919a 883f 4787 7a3f
00000020: a470 6e3f c8bf 7e3f 4729 823f fcc6 683f
00000030: 62ba 8b3f 3143 803f 0c9c 843f 4ebe 773f
00000040: 3817 963f 39fb 6c3f da9e 8c3f 205c 7d3f
00000050: df6c 803f 08b0 7c3f 182f 813f 6cd2 6e3f
00000060: 7f2d 733f dd61 783f f141 823f 0d57 733f
00000070: 2654 613f 5095 753f c36e 6b3f f796 783f
0.9464491 1.0740838 0.89402115 1.0262501 1.0298129 0.9591668 1.067217 0.97862667
0.93140626 0.99511385 1.0168847 0.90928626 1.0916255 1.0020505 1.0360122 0.96774757
1.1725836 0.92570835 1.0985978 0.98968697 1.0033225 0.987061 1.0092497 0.9328983
0.94991297 0.9702433 1.0176374 0.95054704 0.88019025 0.9593096 0.91965884 0.97105354

encoder.blocks.1.conv.1.bias f4 [32]
00000000: 14e9 06bd 5326 c9bc 7fcb 20bd 22d9 653c
00000010: 3db8 6aba 9964 60ba 97b7 89bb 71d0 e0bc
00000020: d07f cabd aeae 05bd 8c32 e03d 5b89 9bbd
00000030: 51e4 a8bd c8d1 75bd 507a 603d a36b dfbd
00000040: 9fa1 d0bc bc35 3ebd e9e8 6c3d de3b 80bd
00000050: f776 75bd 43cf 21bd 47c7 2d3d 76ad dbbd
00000060: 0abc afbb 2163 79ba 43b0 2c3c 4f5b 10bd
00000070: 91b9 a3bc 7717 6abd 0e74 89bc 016b 01bd
-0.032937124 -0.024554407 -0.03925657 0.014028819 -0.0008953845 -0.0008559912 -0.004202794 -0.027443143
-0.098876595 -0.03263729 0.10947141 -0.07594558 -0.08246673 -0.060014516 0.054804146 -0.10909202
-0.025467692 -0.046437964 0.057839308 -0.06261419 -0.059927907 -0.0395043 0.042426374 -0.107264444
-0.005362992 -0.00095133675 0.010540071 -0.03524333 -0.019985946 -0.057151284 -0.016778972 -0.031596188

encoder.blocks.1.conv.1.running_mean f4 [32]
00000000: 6ee8 193f d158 2a3f d47a 83bf 14dc adbe
00000010: d531 7f3c 7da3 05be f728 e63c ef1f f6be
00000020: bd5b b03e 641f 42bf b7a7 9abd 9ec8 b33e
00000030: 61c5 e43e e784 163f 7c50 abbf ead0 1dbe
00000040: 2277 acbd d3e9 cdbf cc8e 1f3e 8f2a 743f
00000050: e1e7 f5be 3abb 5b3f 7abe cbbe f0b2 12be
00000060: 8e0c 0b3e 4530 42bf 62d5 f7be 26bc 99bf
00000070: f2ac 96bf 6b21 86be 2167 90bf 5b88 4bbf
0.60120285 0.66541773 -1.0271859 -0.3395697 0.015575846 -0.13050647 0.028095705 -0.48071238
0.3444499 -0.7582915 -0.0755152 0.35113996 0.44681838 0.5879654 -1.3383937 -0.15411726
-0.0842116 -1.6086982 0.15581816 0.9537744 -0.48028472 0.8583256 -0.3979376 -0.14326072
0.13579008 -0.75854903 -0.48404986 -1.2010543 -1.1771529 -0.2619737 -1.1281472 -0.79504937

encoder.blocks.1.conv.1.running_var f4 [32]
00000000: 9bab 5d3f 1b65 863f 4cfb e33f 76b4 933f
00000010: 43bc 523f 63c3 3c3f fca6 1e3f 1b5d ac3f
00000020: a901 ca3f 0fc0 af3f 6338 6b3f 0b18 f23e
00000030: fa73 263f 2e66 4a3f c974 3240 8164 693f
00000040: 2cd6 613f 7d7b 0640 820c 0f3f 65fd 033f
00000050: d5d7 c03f 5c18 ce3f eca8 e53e 522c ae3f
00000060: 9404 d43f 451b c73f edf1 643f 75ec f63f
00000070: b5d3 8e3f 3ec7 a93f b85e bd3f e9a0 803f
0.86589974 1.0499605 1.7811065 1.1539447 0.82318515 0.73735636 0.6197355 1.3465914
1.5781757 1.3730487 0.91882914 0.47283968 0.65020716 0.79062164 2.788378 0.9116898
0.88217425 2.1012871 0.5587846 0.51558524 1.5065867 1.6101184 0.4485544 1.3607275
1.6563897 1.5555197 0.8943165 1.9290911 1.1158358 1.3263929 1.4794531 1.0049106

encoder.blocks.1.conv.3.weight f4 [32, 32, 3, 3]
00000000: c1f7 a7bc e731 cb3d 574b 8ebd 9b1c 4d3d
00000010: 3ae7 073d 7aeb 16bd a028 383b 134b 6e3c
00000020: 5457 bebb 581f 283c e439 c03d c08f af3b
00000030: 1513 943d 5174 833d e81f 43bd 9848 153e
00000040: 5647 9e3d c445 7e3d c489 503c b48e efbc
00000050: 2d1d d03d 0389 bc3b afa8 013c ae52 dd3c
00000060: dd83 41bd be86 04bd b895 a23d d034 16bd
00000070: 607d d93d b5d2 c73d 9d66 fd3c a6ff 143d
00000080: 98f7 d23d f9d0 ee3b 7c1e ea3c 6d73 e63d
00000090: 43a4 55bb 85b9 ca3d e1a1 a43d ac83 89bd
000000a0: aaa6 033e 579a 2b3d 532a 1f3d 39cf 673d
000000b0: f2a5 553d be8c 7cbd 99fd 02bd 2f1f 483d
000000c0: 1a05 f2bc a562 973d 3886 b53c 3074 a5bc
000000d0: 3d98 ebbb bba7 98bd 2abd a83c 1e36 5a3d
000000e0: 7c7c 33bb 076f 223d dbde 013e 9120 913d
000000f0: bd9d 663d fef0 ed3d 7d5d 393d ee2e bfba
00000100: 91c0 723d bb54 9e3c 969b 823d 55a4 923d
00000110: adc2 b0bc df07 2fbd f04d 8e3c d2fb 1fbb
00000120: 015a a1bd 0c37 67bd 8e15 d13c b1bd a1bd
00000130: 26a5 40bd ba61 e6bc cfa2 d23c d138 8e3d
00000140: 082f abbd bc0d 9c3c b553 0e3c 4bcb adbb
00000150: 2773 f93c 4124 623c 88bb 8abb a845 e5bc
00000160: dfe3 9bbd 3bed 4fbc fb45 21bb 7ec3 68bc
00000170: ebe6 293d 4171 02bd e284 3bbc d4d3 013d
00000180: b15e cfbd c5dc 9a3c ecc7 573c fd90 813c
00000190: fbbd 4ebd 0a2e 8c3b a508 483c 849a 15bd
000001a0: 53d7 873d 1202 cebc d931 44bd fe25 b339
000001b0: 404c e7bd 7c83 b83d fb1b ad3d ef69 6d3c
000001c0: dda3 3f3e b99f 803d 468f e93d cacf 313e
000001d0: 2a90 033d 2bd4 4fbc 6084 9d3d 9bc3 24bd
000001e0: 279a 23bd a8ae 483d 1a4a c93b ea77 243d
000001f0: f899 1c3d 0cd0 94bd 23b9 a5bd d705 85bc
00000200: 6fd8 06bc 54b6 23be ad44 f3bd e7e3 81bd
00000210: fbfd 60bd 445c f2bd 8b8a 81bd b8df a83c
00000220: 65bd f13c 6538 2c3b 2d70 c23c 5212 513d
00000230: 117e 5cbc 278f 05bd 0fc8 9c3d 89f5 1e3d
00000240: 30c5 3dbc f19f fe3d acc3 0d3e a286 19bd
00000250: 3635 543e 99d6 0d3e 18b3 bc3c 750f 1b3e
00000260: 3327 c03d 800c 9c3c d140 e23c c8ad 633d
00000270: 6809 7dbd c4ec 20bd e893 e93c 3537 8ebd
00000280: fc70 5fbd 3610 9ebd 5f6d 8d3d 6185 323d
00000290: 8120 73bd 7bca 6d3d 14f7 0fbc 1a33 2dbb
000002a0: 8a19 593d 70bc 56ba 57c4 fabc 2c0f bbbd
000002b0: b6de 093d a21a 2d3d b5de 313c ec88 903d
000002c0: 0d45 28bd 940c dd3d ccbe 8f3d 1177 a0bc
000002d0: 52c6 863d c06c 153c 95f6 c7bd ae16 98bc
000002e0: 6c9b 7bbb 2bad 81bd ecc5 a53d bb31 ebbb
000002f0: fa55 30bd d119 093d 6ede 94bd 1294 3b3b
00000300: 6ab5 e73c 1914 85bd be79 1ebd bec4 cf3b
00000310: 3485 503d 1989 f63c 45d2 3bbd 336f dd3d
00000320: 8d9d 823d 459d f0bd 9ff8 a33d bcc7 4fbd
00000330: 6061 e1bd d4e0 0d3c a5cf 8e3c 4a5a 24bd
00000340: 94dc a4bd ed66 cfbd 7baa 38bd 7f66 0abe
00000350: 70b1 28bd 6fb0 bf3c 03fa 0abd 8d3b 3abd
00000360: 3be7 683d db58 5a3d aeb8 063b e962 eb3c
00000370: 5341 53bb 191f e73c edec 123d d9ab ab3d
00000380: 8f88 30bc dd70 493c ccf4 9dbd 54eb 48bd
00000390: 9f5a c93c 6cb6 c1bb 7108 2abd 30cd 9bbc
000003a0: 1c43 7dbd 5d34 d2bd 3102 99bc 1d60 913d
000003b0: d9be 8c3b ee87 64bd f3c1 c73d b8a0 213d
000003c0: 5f5e a6bc c5cf 56bc c0f1 ca3d 0fbf 313b
000003d0: 8ece 823c 60f2 333d fdd9 91bd a0a0 29bd
000003e0: 2067 113d b2c9 56bb e1a2 9ebc ef7a c0bc
000003f0: b2a1 11bb 8c0d ecbb 68fe 3ebc 5d5c d0bd
-0.02050388 0.099216275 -0.06947964 0.05007611 0.0331795 -0.03684566 0.0028100386 0.014544266
-0.00580875 0.010261379 0.09386042 0.0053577125 0.07230202 0.0641867 -0.04763785 0.14578474
0.0772845 0.062078252 0.012728158 -0.02924285 0.10161815 0.0057536378 0.007913752 0.027016964
-0.047244895 -0.032355063 0.07938713 -0.03667146 0.106196165 0.09756986 0.030932719 0.036376618
0.10301131 0.007288095 0.02857899 0.112524845 -0.0032599128 0.09898666 0.080386885 -0.067145675
0.12856546 0.041895237 0.038858723 0.056594107 0.05216021 -0.06165766 -0.03198013 0.048857864
-0.029543448 0.07391862 0.022158727 -0.020197004 -0.007189779 -0.07453867 0.020598013 0.053274266
-0.002738743 0.039656665 0.12682669 0.0708629 0.056302775 0.11618231 0.045255173 -0.001458613
0.059265677 0.019327512 0.06377332 0.0716025 -0.021577204 -0.042732116 0.017371148 -0.0024411571
-0.07878495 -0.05644898 0.025522973 -0.07897509 -0.047032498 -0.028122772 0.025712399 0.069444306
-0.0835858 0.019049518 0.0086869495 -0.0053037754 0.030450417 0.013802589 -0.0042337812 -0.027987316
-0.07611822 -0.0126908375 -0.0024608362 -0.014206765 0.041479986 -0.03184629 -0.011445256 0.031696156
-0.10125483 0.0189041 0.013170224 0.015816206 -0.05047415 0.004277949 0.012209092 -0.03652431
0.06632867 -0.025147472 -0.0478991 0.00034169847 -0.112938404 0.09009454 0.084526025 0.014490589
0.18714853 0.06280465 0.1140428 0.17364421 0.032119907 -0.012684862 0.07691264 -0.040225606
-0.039941933 0.04899469 0.006142867 0.04015342 0.038232774 -0.07266244 -0.08091953 -0.016238136
-0.008230313 -0.15987521 -0.11878333 -0.06342297 -0.054929715 -0.118340045 -0.06325253 0.02061449
0.029509256 0.002627873 0.02373513 0.051042862 -0.013457791 -0.032607224 0.07655346 0.03880838
-0.011582658 0.1243285 0.13844174 -0.03748191 0.20723423 0.13851394 0.023034617 0.15142615
0.09382477 0.01904893 0.027618797 0.055585653 -0.06177655 -0.039288297 0.02851291 -0.06944124
-0.05455111 -0.07717936 0.069056265 0.04358423 -0.05935717 0.05805443 -0.008786935 -0.0026428164
0.05300287 -0.00081915315 -0.0306112 -0.09133753 0.03365966 0.042261727 0.01085632 0.07057366
-0.041081477 0.10793415 0.070188135 -0.019588025 0.06580795 0.009120166 -0.09763829 -0.018565502
-0.00383922 -0.06331857 0.08094391 -0.007177559 -0.043050744 0.033471886 -0.072689876 0.0028622192
0.028284747 -0.06497974 -0.03869032 0.006340592 0.050908282 0.03009467 -0.045854826 0.10812225
0.06377707 -0.11748747 0.08006405 -0.05072759 -0.11004901 0.00865956 0.017432997 -0.04012517
-0.080498844 -0.101270534 -0.045084458 -0.13515662 -0.041184843 0.02339956 -0.033929836 -0.04546695
0.056861144 0.053307395 0.0020556855 0.028733687 -0.0032234981 0.02821307 0.03587048 0.08382387
-0.010774746 0.012294975 -0.07712707 -0.04905255 0.024579344 -0.005911639 -0.041511957 -0.01901874
-0.06183158 -0.10263894 -0.018677803 0.0709841 0.0042952118 -0.055793695 0.0975379 0.039459914
-0.020308672 -0.01311106 0.099093914 0.0027121936 0.015967634 0.04393232 -0.07121656 -0.04141295
0.03549874 -0.0032774028 -0.019364776 -0.02349612 -0.0022221622 -0.0072037634 -0.011657335 -0.10173867

encoder.blocks.1.conv.3.bias f4 [32]
00000000: ac0a e53c e01b b1bc 2a91 7a3d 6d4a 04bd
00000010: aba9 9a3c 7953 0bbd 7ab3 03ba 4223 143c
00000020: e79b 8abc 9535 333d 0d7b 9abb 9ecf b1bd
00000030: bc09 5bbd 2369 dbbc a79c cdbb 8857 9e3d
00000040: 7728 00bd 0b60 9d3a 80ca 4d3c 463f 55bd
00000050: 85cd 853b 490d 3abd a9cd 1abc c1dd b73c
00000060: dc75 c73c 4ce5 88bc 54a9 30bd a5bd 37bd
00000070: 3129 053d 07e6 db3c 5b02 0f3d b473 493d
0.02795919 -0.021619737 0.061173595 -0.03229754 0.018879732 -0.034015153 -0.00050239975 0.009041609
-0.016920043 0.04375227 -0.004714376 -0.08682178 -0.05347608 -0.026783532 -0.006274778 0.07731539
-0.03128859 0.0012006772 0.012560487 -0.052062295 0.0040833377 -0.045422826 -0.009448447 0.022444608
0.024348192 -0.0167109 -0.043130234 -0.044858593 0.032509986 0.026843084 0.034914356 0.04918261

encoder.blocks.1.conv.4.weight f4 [32]
00000000: 2153 863f 22c4 8c3f 7945 853f 517b 753f
00000010: 72d9 7c3f 0bf0 833f f1f7 683f c6ee 6e3f
00000020: c72a 773f 1987 763f 92ca 683f dd67 7e3f
00000030: 399b 723f 768b 6d3f bab8 823f d9d6 653f
00000040: 857e 7a3f a8ed 8f3f 1f1a 893f 8d27 893f
00000050: a0de 6a3f c4c5 7a3f 9f4e 783f 4445 783f
00000060: 8476 723f 4ef2 823f 6b06 893f 6b85 6f3f
00000070: 8b90 823f 7401 883f dbb1 783f 33be 743f
1.0494119 1.0997355 1.0411826 0.9589129 0.98769295 1.030763 0.9100333 0.9333309
0.9654965 0.9629989 0.909341 0.9937723 0.947681 0.92790926 1.0212624 0.89780957
0.97849303 1.1244402 1.0711097 1.0715195 0.9174595 0.97958016 0.96994966 0.9698069
0.9471209 1.0230196 1.0705084 0.93562955 1.0200361 1.0625443 0.97146386 0.9560272

encoder.blocks.1.conv.4.bias f4 [32]
00000000: fd19 43bd 7224 453b 562b c6bc 8128 b53b
00000010: bcb5 7dbd 4945 2fbd 62ce b8bc 2c96 cbbd
00000020: cd39 71bb e8a1 bdbd 1b52 a4bd 4286 1cbe
00000030: eeb7 98bb 11df c4bd a327 e5bd 3096 02bd
00000040: 7e4f 06bd 2fd2 7c3c 8ffc febb e3f9 0fbd
00000050: 2a7c 09bd aba2 36bc f944 983b db1a 12bc
00000060: 9f70 9bbd 0fa4 84bd 8a54 2abc f439 a8bc
00000070: 012c 52bd 6d86 72bd 9e68 42bc 4ae8 42bd
-0.047632206 0.0030081538 -0.024190586 0.00552851 -0.061940894 -0.042790685 -0.022559348 -0.099407524
-0.0036808134 -0.09259397 -0.08023473 -0.1528559 -0.004660598 -0.09612859 -0.11189201 -0.03188151
-0.032790653 0.015430971 -0.007781572 -0.03515042 -0.033565678 -0.0111471815 0.004646894 -0.008917536
-0.0758984 -0.06476604 -0.010396132 -0.020535447 -0.051311497 -0.05921023 -0.011865763 -0.04758481

encoder.blocks.1.conv.4.running_mean f4 [32]
00000000: 1688 7b3f 724f 923e 0f51 e23f 0523 2cc0
00000010: 3dac e93e 4778 2b3f f9b5 75c0 8dc9 2cc0
00000020: 5b79 afbf 7384 8c3f d771 87c0 e0df a43f
00000030: b386 ac3f 6e10 38c0 3546 7840 d574 2ec0
00000040: 5080 e13f f2e6 f13f e884 3a3f 6488 ad3f
00000050: d060 49c0 eb06 23c0 d63d 7fc0 94cd 803f
00000060: fc0b f8bf 6522 7b3f 839c a03f 9901 cc3e
00000070: 125f de3f a8a4 5040 6485 1040 8f33 0bc0
0.98254526 0.28576237 1.7680987 -2.6896374 0.4563922 0.66980404 -3.8392317 -2.6998017
-1.370891 1.097792 -4.2326465 1.2880821 1.3478607 -2.8760028 3.879285 -2.7258809
1.7617283 1.8898604 0.7285905 1.3557248 -3.146534 -2.5472972 -3.9881492 1.0062737
-1.9378657 0.98099357 1.2547764 0.3984497 1.7372763 3.2600498 2.2581415 -2.175022

encoder.blocks.1.conv.4.running_var f4 [32]
00000000: f57c 6440 6b55 4c40 cea6 ce40 2398 a140
00000010: a78c 0b40 a971 9b40 13db 0c41 4504 9640
00000020: caad 9540 fe76 db3f 10ab ec40 3471 1540
00000030: 46a5 0b41 7326 9640 a420 1d41 8c72 3041
00000040: b075 0441 ebdb 8b40 16ff 7840 19dc 4440
00000050: ecb5 d040 7046 7740 c6dd 0c41 ec1d f340
00000060: 06a0 0241 635b 5840 e04b 3a40 56d6 8b40
00000070: 2fed a940 9f2c 2741 04cd e640 06b7 6c40
3.5701268 3.1927135 6.457862 5.0498214 2.1804597 4.8576245 8.803485 4.688021
4.6774645 1.7145689 7.3958817 2.3350344 8.72785 4.6921935 9.820469 11.027966
8.278732 4.3705955 3.8905692 3.0759337 6.5222073 3.8636742 8.804144 7.5974026
8.164068 3.3805778 2.910881 4.369914 5.310203 10.448394 7.2125263 3.6986709

encoder.blocks.1.skip.weight f4 [32, 16, 1, 1]
00000000: bc72 79be d0fa 923d c014 27be 2e14 13be
00000010: 5259 1ebe a010 9f3c 4437 863d 8a9a 22be
00000020: 66a3 2e3e 6e88 38be d614 243e 1862 5a3e
00000030: f4ca 2dbe 2ef6 5bbe 1430 c03d 9849 75bd
00000040: d476 d93d a0f9 133c a0f0 3dbd 78a8 a1bd
00000050: 9eda 60be 00d8 2739 a8ca abbd 4a11 0c3e
00000060: ac53 ebbd a672 37be b0e9 59bd a065 21be
00000070: aee9 2b3e 30f8 5c3e 84a3 59be 8a9c 23be
00000080: 68e2 d5bd 8096 55bc c61c 7dbe acba 2b3e
00000090: c873 8fbd 28a6 66be 04dc eabd 3e21 7f3e
000000a0: 2c07 8bbd d065 bbbd c0cb 0cbe b068 f1bc
000000b0: 405e e63c 749a 52be 9833 63bd b003 3d3e
000000c0: 3016 b6bc 5674 353e 5035 c43c 380e 153e
000000d0: 587c 6b3d 7ed5 3c3e 802c 333d ec12 58be
000000e0: 2829 503d 5498 fdbd b2da 26be 1a2d 233e
000000f0: 1844 8ebd 48bb 3d3d 9888 153d e02c b73c
00000100: a025 74bc 4cdb 763e 4cd7 f7bd 7658 5c3e
00000110: 90c2 e9bc 8a84 2e3e b85f c4bd a0bb e7bd
00000120: 4e16 2a3e b8bb 633d a885 843d 62ee 123e
00000130: 4cc6 0c3e 4674 24be e89c 623e 3a59 29be
00000140: f6f7 553e 8c6a 73be be96 1c3e 00c1 2f3d
00000150: 601e 0d3e ec39 eb3d 6a03 77be 2e11 12be
00000160: d07a ed3c 6c58 a1bd 94db 033e 68ee 4bbd
00000170: 2818 1a3e 44db a5bd e0ad a8bc c040 edbc
00000180: 003e 79bb 8a72 1abe c06f 5c3d d490 1c3e
00000190: 98ed 283d 50b2 d6bc a87d dcbd 08f5 3dbe
000001a0: 2066 223e 58f9 993d bc28 fcbd 6ebe 5f3e
000001b0: 725b 563e f630 683e a46c d83d 8c2c 32be
000001c0: 38da 7e3e 70fd 1d3d b4b1 11be 3edc 673e
000001d0: d0d5 d93c c015 abbd 2005 35bc acd3 a43d
000001e0: 2a72 623e ac7d 4ebe 0adf 373e a201 53be
000001f0: bcb4 80bd 80b9 d7bd 526e 1ebe 806c 2b3c
00000200: 6897 01bd d8d4 733e 60bc 973d 62c2 333e
00000210: 14e5 223e 10b7 39bd 589f 623e fc8a 4abe
00000220: b0f6 0a3e fc6a cb3d 948c 8ebd 7841 fdbd
00000230: 20ec ae3c 0498 24be 0075 bebc dad7 043e
00000240: c0bb 2e3e e070 6f3e 9cad c23d 9e31 4c3e
00000250: c0b1 97bb 8eed 4e3e c0dd 053e 4073 b3bc
00000260: e055 07be b015 51bd 3002 cc3c 2082 3f3c
00000270: c81c 683d b088 793e 3c37 25be 8866 40be
00000280: 6885 2d3e b845 3b3e 0015 bd3b 4216 1d3e
00000290: a0ee 3dbd 005d ebbd 3ebc 373e 407d 70be
000002a0: 8866 22be ec44 513e d02a d53c 0cbb c63d
000002b0: c045 17be ee5d 403e cc29 14be 9259 713e
000002c0: 72f5 583e 4455 923d 80b3 543e e891 513d
000002d0: f81f b9bd e635 2dbe 1aee 603e 58ac 61bd
000002e0: d077 4b3e bcb3 7ebe ccc9 183e 7084 ad3c
000002f0: 089c bdbd 0004 313e f892 483d c8ed 17be
00000300: ee0b 153e 88f6 b4bd 3042 993d ac0d a0bd
00000310: b828 b23d 08b4 a0bd 004f b4bd c0e3 26bc
00000320: 6e1e 4dbe 72a1 083e c492 f3bd 60fc 3cbc
00000330: d484 23be 20b8 5d3d 008c d5bd 1e9f 79be
00000340: 4cae 053e d048 c53d f876 6a3e da0c 08be
00000350: 546f 753e 3ad2 353e 3299 3bbe 08ba 8b3d
00000360: 4ab9 403e e4dd 12be 389f cc3d fea9 663e
00000370: b4f8 b63d c898 ca3d 3a72 1a3e a4e2 a3bd
00000380: e022 523e 046b 92bd aead 4e3e e094 4b3e
00000390: e089 e3bc d439 90bd 4454 bdbd 645d 1dbe
000003a0: f8f8 afbd 9c4f b23d 5869 56bd b46c be3d
000003b0: 80ab 95bd 188c 123d 66f3 05be 5a20 26be
000003c0: d810 20be 6406 96bd 0077 edbd e88b 15bd
000003d0: b61f 1e3e 1a75 40be b0e5 7bbd dc6c ca3d
000003e0: 80ee aa3b a087 48bc b66b 273e 5c9e e1bd
000003f0: 06cd 4c3e 90e7 febc c20d 383e d048 ac3c
-0.24360174 0.07176745 -0.16316509 -0.14363167 -0.1546376 0.019417107 0.0655351 -0.15879264
0.17054519 -0.18020794 0.16023573 0.21326482 -0.16971952 -0.21480629 0.0938417 -0.059884638
0.10618368 0.009031683 -0.046372056 -0.07893461 -0.21958396 0.00016006827 -0.08388263 0.1367847
-0.114905685 -0.17914829 -0.053201377 -0.15761423 0.1678836 0.21579051 -0.21253783 -0.15977684
-0.10443574 -0.01303637 -0.24718007 0.16770428 -0.070045054 -0.22524321 -0.11467746 0.24915025
-0.06788477 -0.091502786 -0.137496 -0.029468864 0.028121114 -0.20566732 -0.055469126 0.18458438
-0.022227377 0.1772016 0.023951203 0.14556205 0.05749163 0.18440816 0.04374361 -0.21100968
0.0508205 -0.1238257 -0.16294363 0.15935174 -0.069465816 0.046321183 0.03650722 0.022360265
-0.014901549 0.24107093 -0.121016115 0.2151812 -0.028535157 0.17042747 -0.095885694 -0.113150835
0.16610071 0.055598944 0.064708054 0.14348748 0.13747519 -0.1605998 0.22130167 -0.16537943
0.20895371 -0.23771113 0.15291879 0.04290867 0.13781118 0.11485657 -0.24122396 -0.14264366
0.028989226 -0.07878193 0.12876731 -0.04978791 0.15048277 -0.08098462 -0.020590723 -0.02896154
-0.003803134 -0.15082756 0.05381751 0.15289623 0.041242212 -0.026208073 -0.107661545 -0.18550503
0.1585927 0.07518262 -0.12312457 0.21849987 0.20933321 0.22674927 0.105675966 -0.17399806
0.24887931 0.038571775 -0.14227945 0.2264261 0.026591212 -0.08353758 -0.011048585 0.08048186
0.22113863 -0.20165128 0.17956176 -0.20606092 -0.06284472 -0.10533428 -0.15471771 0.01046288
-0.031638533 0.23811662 0.074089766 0.1755462 0.15907699 -0.045340598 0.22131097 -0.19779581
0.13570666 0.09932515 -0.06960407 -0.12366003 0.021352828 -0.16073614 -0.02324915 0.12972966
0.17063808 0.23382902 0.095057696 0.19940802 -0.0046293437 0.20207807 0.13072872 -0.021905541
-0.13216352 -0.051046073 0.024903387 0.011688739 0.056668073 0.24368548 -0.16134351 -0.18789113
0.16945422 0.18288314 0.0057703257 0.15340522 -0.04637015 -0.11492348 0.17942902 -0.23485279
-0.15859425 0.20436448 0.026021391 0.09703645 -0.14772701 0.18785831 -0.14469069 0.23569325
0.2118738 0.071451694 0.20771599 0.051164538 -0.09039301 -0.16915092 0.21965829 -0.055096
0.19869924 -0.2487325 0.1492073 0.021181315 -0.09258276 0.17286682 0.048968285 -0.148368
0.14555332 -0.088360846 0.074833274 -0.07815108 0.08699173 -0.07846838 -0.088041306 -0.010186136
-0.20031139 0.13342836 -0.11893228 -0.01153478 -0.15968639 0.054130673 -0.104270935 -0.24377105
0.1305477 0.096330285 0.22896945 -0.13286152 0.2396825 0.17755976 -0.18320158 0.06822592
0.18820682 -0.14342457 0.09991306 0.22525784 0.08934155 0.09892422 0.15082636 -0.08002213
0.20521116 -0.07149318 0.20183441 0.1988101 -0.027775705 -0.0704228 -0.09244588 -0.15367657
-0.08592409 0.087065905 -0.052346557 0.09298077 -0.07308102 0.035778135 -0.1308113 -0.16223279
-0.15631425 -0.07325438 -0.11594963 -0.036510378 0.15441784 -0.1879467 -0.061498344 0.098840445
0.0052164197 -0.012239367 0.16349682 -0.11016533 0.20000085 -0.031116277 0.17973998 0.021030813

encoder.blocks.1.skip.bias f4 [32]
00000000: 4076 dfbd ecee f03d 60d9 79bc 9a44 1ebe
00000010: 40eb c53b f47f c53d 4091 a83c e0bf 603c
00000020: 3017 753d 4e67 1c3e 801e 7dbc c09c 9f3d
00000030: d80f 9c3d e4d9 c23d 2a12 073e e8f9 75bd
00000040: ecf4 a0bd ea62 4d3e 7c26 a93d 88e1 263d
00000050: 52d7 3abe e096 673c 6a10 43be 344a 153e
00000060: c6ab 283e a490 5b3e 968c 093e ccc1 cc3d
00000070: f0d0 b2bc ca27 6e3e cac1 75be 7025 c9bc
-0.10911226 0.11764321 -0.01524958 -0.15455857 0.006040007 0.09643546 0.020577073 0.013717622
0.059836566 0.15273783 -0.015449166 0.077935696 0.076202095 0.095142156 0.13190523 -0.060052782
-0.07859215 0.20057264 0.082592934 0.040742427 -0.182462 0.0141350925 -0.1904923 0.14579087
0.16471776 0.21441895 0.13432536 0.09997901 -0.021828145 0.23257366 -0.23999706 -0.024553984

encoder.blocks.2.conv.0.weight f4 [64, 32, 3, 3]
00000000: 7c17 c93d 4387 333d 812f c6bd 2156 fd3d
00000010: bf9c 55bd 5668 87ba 94e4 9c3d 53e2 bebc
00000020: af44 f9bc fba4 893c 39de bcbd 0a01 ccbd
00000030: 3ff4 da3d 92f0 08bd 24f9 debd 97ca 143e
00000040: 2729 bfbc c1aa 62bd bcaf 4c3d 99d3 15bc
00000050: d3fb 08bd 32ff 013d cb6f a33d f813 423d
00000060: 848d 1a3d 0b73 193d 635c 0dbd 8e9e 933d
00000070: a495 923c 0c04 d6bd 9f0e 183d a1dc 14bc
00000080: 627c dbbd 3f34 66bd b9a7 a4bd 9b51 c6bd
00000090: 439e 22bd 7b40 96bd 9cbb 8ebd 7db8 a13c
000000a0: f583 3abc 604c 3ebc 83db cdbc a681 1b3c
000000b0: db21 83bd db9f 063e c1e2 4b3d ca63 96bd
000000c0: 54dc 073e 7a6d 723b e18e a1bb 6852 3d3d
000000d0: 082c ddbb 6e3a 39bd 9123 0fbd ad24 a5bd
000000e0: 466c 8dbd 8a79 aebc 1a2c 39bd bfe4 30be
000000f0: d153 abbc 7c5b 05be 14ec e3bd 3f1d 8e3d
00000100: b990 42bd 3f32 a4bd ae81 1fbc 6a73 adbc
00000110: bcd1 c6bd 5b68 0e3d ca21 55bd 504f 2ebd
00000120: b3d4 e6bc 62e4 733d 7da3 b6bc febd 613c
00000130: a684 4c3d e102 a5bd 1146 863b d219 6cbd
00000140: d9bc 05bd ff67 dcbb 265e babb 4ad0 5cbd
00000150: 6737 563d a303 b4bd 8b62 00bb 31fd aabd
00000160: 635d 40bb 4e0f f138 7f81 5c3d cbcc 47bb
00000170: e944 6ebd 8d29 103d 2050 863d 7980 f3bc
00000180: b2f9 d4bc 5cc7 a7bc 14c6 21bd 7fa1 7e3d
00000190: 466d 863d ac7e d3bc 09ea 5d3d 3609 3fbd
000001a0: c4c6 babd 3ec8 053d a253 bdbd a763 22be
000001b0: c901 3fbd 4c77 373d 1c67 3f3d 79ac 3d3d
000001c0: 4bfd 853c 4303 f83d af46 cfbc 079e b93b
000001d0: d37b 263d 1e17 ec3b e4c5 173d c011 b3bc
000001e0: ee12 f0bd 6019 b5bd 11f3 8cbd ff52 36bd
000001f0: 58de a1bd 71a1 a1bd f7d4 df3c 7ebd 7a3d
00000200: af50 73bd b470 093e 7364 233c 05a9 ed3b
00000210: 4a09 043e fb27 a5bd 1947 9bbd 1699 2abd
00000220: d92b 9c3d 9fb5 9bbd 6cfc bebd 5748 b63c
00000230: 1c2e afbd e5e2 19bd 9d54 98bc 97bc febd
00000240: ed6f 443c 583f 953d 0313 2abd 08c2 d23c
00000250: 4f6d 383d 5a32 eb3c 652e 433b a78f 80bc
00000260: 6bc7 1b3d ecda 703d 768e 603c 95cf 15be
00000270: 2dd6 093e c1cc e93c dbee 40bd 027f 363d
00000280: 49b9 96bc deed a3bd 52fe db3c 7bc9 f9bd
00000290: 85e4 9ebd f512 cabc 31d8 f0bd 12d9 ebbc
000002a0: 6850 363d 4cd0 c8bd e595 d5bd 1ac1 943c
000002b0: 0c8f 49bd 21ad 31bd d3ea 68bd bbde 96bd
000002c0: c333 863c 44c5 2cbd 8820 cdbd 7bc7 8bbd
000002d0: 01df 3cbd bc85 5a3d 1894 fabd a55d 143d
000002e0: 6ce3 663d 4875 8bbc 5df8 403d 8e50 1b3c
000002f0: 2d91 c9bd 80c5 7abd 3f57 d23c 7dd9 84bd
00000300: 18ad b8bd 6801 8cbd 7f14 58bd 5060 c5bc
00000310: baa2 dfbd 71c1 89bd 7912 2f3d c818 063c
00000320: 3e4e fabd 003a 6ebd e16a 883c 5b09 54bc
00000330: c18e 893d 631f 3dbd eaa3 fe3c 296f 823d
00000340: 11c0 653d 2a47 22bd 69f6 573d 72a5 e53d
00000350: ed5b 343d 9d75 a33d bf03 413d baa1 d83d
00000360: 300a a53d 8675 e63c 1764 efbd b718 533a
00000370: 6720 0fbd d772 87bd 96c4 16bd a2aa 60bd
00000380: 72dd 08be e20e 22bd f5fc b2bd e661 dabd
00000390: 9e7e 113d 522c c5bd 5f24 6c3c 1edb 553d
000003a0: 9772 0dbd 48a4 9abc 8fe4 973d c61b 4fbc
000003b0: da1b b2bd aff7 9e3c 8de9 393d 639c 9dba
000003c0: 077d 943d 8066 3abc ef57 4cbd 15e2 9bbc
000003d0: a55b 563d 02c9 0e3d 100b 7c3d 3f55 673d
000003e0: a8fa 683c 1cd1 a73d ee00 3f3b 91f7 a53c
000003f0: d139 333d 34fc 323c 3348 61bd 184f af3d
0.098189324 0.043830168 -0.096770294 0.123699434 -0.052151438 -0.0010330777 0.07660785 -0.02330128
-0.030428259 0.016802302 -0.09222073 -0.09961136 0.106911175 -0.03343255 -0.108873636 0.14530407
-0.023335053 -0.055338625 0.04997228 -0.009144687 -0.033443283 0.031737514 0.07980307 0.047382325
0.037732616 0.03746323 -0.034511935 0.07207976 0.01789362 -0.10449991 0.03712332 -0.009085805
-0.107170835 -0.05620217 -0.08039803 -0.09683534 -0.03970171 -0.073365174 -0.069693774 0.019741291
-0.011384 -0.011614889 -0.025129085 0.00949136 -0.06402942 0.13146918 0.049776796 -0.07343252
0.13267642 0.0036991523 -0.0049303626 0.046221167 -0.0067496337 -0.04522174 -0.03494603 -0.08063636
-0.06905417 -0.021298189 -0.045208074 -0.1727476 -0.02091399 -0.1302318 -0.11129013 0.06939172
-0.0475013 -0.08017396 -0.009735508 -0.021173198 -0.097079724 0.03476749 -0.052034177 -0.042556107
-0.028177595 0.059543975 -0.022294754 0.013778208 0.04993119 -0.0805719 0.004097708 -0.05764181
-0.032650802 -0.0067262645 -0.005687493 -0.053909577 0.05229893 -0.08789756 -0.0019589986 -0.08349074
-0.0029352538 0.00011494626 0.053834435 -0.0030487056 -0.058171187 0.035195876 0.065582514 -0.029724346
-0.02599797 -0.020480804 -0.039495543 0.062165733 0.06563811 -0.025817238 0.05417827 -0.046639644
-0.09119943 0.03266167 -0.09244467 -0.15858327 -0.04663256 0.044791505 0.046729192 0.04630706
0.016356131 0.12109997 -0.02530226 0.0056645903 0.04064543 0.007204904 0.037053958 -0.02185905
-0.117223606 -0.088427305 -0.06882299 -0.044512745 -0.07903737 -0.07892121 0.02732323 0.06121587
-0.059403118 0.13421899 0.009972679 0.0072528147 0.12894168 -0.08064266 -0.0758192 -0.0416499
0.07625551 -0.07603001 -0.093254894 0.022251291 -0.085537165 -0.0375699 -0.018595034 -0.124383144
0.011989576 0.072874725 -0.041522037 0.025727287 0.04502612 0.028710533 0.0029782292 -0.015693499
0.038031977 0.05880253 0.01370584 -0.14629968 0.13460608 0.028540017 -0.04710279 0.044554718
-0.018398898 -0.08004354 0.026854668 -0.121966325 -0.077584304 -0.024667243 -0.11759985 -0.02879003
0.044510275 -0.098053545 -0.10428981 0.018158484 -0.049208686 -0.043378 -0.05686457 -0.07366701
0.016382104 -0.042180315 -0.100159705 -0.06825157 -0.04611111 0.053350195 -0.12235278 0.03622212
0.05636923 -0.017023697 0.047111858 0.009479655 -0.09842143 -0.061223507 0.025676368 -0.06486795
-0.0901739 -0.06836206 -0.05275392 -0.024093777 -0.109197095 -0.06726349 0.042742226 0.008184619
-0.12221955 -0.05816078 0.016652526 -0.012941684 0.06716681 -0.04617251 0.03108402 0.06368858
0.056091372 -0.03961865 0.05272523 0.11213197 0.04403298 0.07981417 0.047122713 0.10577722
0.08058584 0.028132211 -0.116890125 0.0008052694 -0.03494301 -0.06613701 -0.036808573 -0.054850228
-0.13365725 -0.039564975 -0.08739654 -0.10663204 0.035521142 -0.09627594 0.014412968 0.05221092
-0.03453311 -0.018877164 0.07416641 -0.012640899 -0.086967185 0.019405214 0.045388747 -0.0012024756
0.072504096 -0.011376977 -0.049888548 -0.019028703 0.052333493 0.034859665 0.061533988 0.05647778
0.014219917 0.08194181 0.0029144841 0.02025965 0.04375631 0.010924388 -0.055000495 0.08560008

encoder.blocks.2.conv.0.bias f4 [64]
00000000: 9e1e 4cbc 19b1 f83a 5029 4fbd 0e31 dfbb
00000010: fa7a aa3c 4e10 613c fae8 843d d8e5 253d
00000020: 937b 0bbc d4ea 253d eddb 93ba c2b2 acbc
00000030: 6758 81bc a8e2 41bc 698d 4e3d 3ed5 4dbd
00000040: 288f 5f3c a613 d5bc 0d1a 30bc 0710 d93c
00000050: 3b70 cf3c dfd6 743d 447e 17bb 11e6 b0bd
00000060: 94c4 973d 00a5 5c3d 1dae 0fbc 78aa 34ba
00000070: 01e6 40bd f58b 023d a8c9 e33c 08ce 933d
00000080: b431 683d 26e3 833d 2c90 75bd 24d3 fcbc
00000090: 9964 003d 7702 f73b d32d a0bb 691b 82bd
000000a0: e47e d33d 99a9 8bbd 8bf2 673d c1e2 a53b
000000b0: 06c3 5abd 292a 1c3d 2fe3 01bd eb5b 863c
000000c0: b4df bc3c 969c 5dbd ad90 92bc 1428 973d
000000d0: ebdb 9abd 2f75 223d 39ab fd3c 745f 86bc
000000e0: 1175 6fbd ace5 193d 2d3e a8bd a080 a2bc
000000f0: 01f1 3ebb c96a 4d3d e1a4 ba3d 8fb8 a0bd
-0.012458472 0.0018973678 -0.050576508 -0.0068112677 0.020810593 0.0137367975 0.06489749 0.0405024
-0.008513349 0.040507153 -0.0011280753 -0.021081332 -0.015789224 -0.011833824 0.050427828 -0.05025219
0.013644971 -0.026010346 -0.0107483985 0.0264969 0.02532207 0.05977523 -0.0023116032 -0.08637632
0.07410541 0.053868294 -0.008769539 -0.0006891857 -0.04709435 0.031871755 0.027806118 0.07217032
0.056688026 0.064398095 -0.059951946 -0.030862398 0.031345937 0.0075381356 -0.004888275 -0.06352884
0.10326937 -0.068194576 0.05662779 0.0050624316 -0.053408645 0.038126145 -0.0317108 0.016401252
0.023055889 -0.05410441 -0.017891252 0.07380691 -0.07561477 0.039662536 0.030965434 -0.016402937
-0.058461253 0.037572548 -0.08214984 -0.019836724 -0.0029135349 0.050150666 0.091134794 -0.07847702
