toyshapes/pinets_soft/model_28.pth (torch, 466881 bytes, 71 tensors)

encoder.blocks.0.conv.0.weight f4 [16, 1, 3, 3]
00000000: 9b1e 9abd c828 4c3d 137b 5a3d cf1e cabc
00000010: b4b8 6e3e e75d dfbe a8bf 893d 5733 613c
00000020: 789b d2be 66b7 48be 423c 753e 90d9 a63b
00000030: 837a d63d 84ff 443e 344f d9bc 7e89 fdbd
00000040: 24af f93d 5764 8abe af16 6a3e 4cfc 3bbe
00000050: 051f a8bd 270c 803e ac50 5fbd 4d2e 80be
00000060: e307 d1be d03e 043e 09bf 6c3e db5e 083e
00000070: 3e7f 4bbe 4e8d a3be 5b42 3e3e 074a 053e
00000080: 3eb3 3fbe 0eab a5bd 04ed 97bd b81d f0be
00000090: d19c 7abe 61b1 1fbe 520d d43d 522a bc3c
000000a0: 8255 433e 057c 51bd 6c3d 8a3e 3526 5dbe
000000b0: fe1b a1bd c3f7 cd3b 757a ae3e 338a ad3d
000000c0: 767b 2d3e eb65 b03e b616 48be 42a0 83be
000000d0: aef3 7abe 1627 0abe 3003 23be 00dd 8ebe
000000e0: d27c 4ebe 066d c6be d5e2 81be 62b4 b9bd
000000f0: 0522 f93c 8b4d dcbd 59d2 27bd b0f0 33be
00000100: 0f98 bf3d 2740 323e 398a 1dbd 6f5f 3c3e
00000110: ebbb fcbd f3ef cdbd 4f42 73be fa3a c93d
00000120: e5e2 ee3d 94a7 543e 5aed babe b529 863c
00000130: cd69 2d3e f3b4 39bc ff45 c93a 729f a23e
00000140: 3a95 c0be 2b11 d13c 715d a23e cefd 833e
00000150: b5fc 22bd 7ce7 9fbe 8c47 8cbe 094b 8639
00000160: 5478 fc3d d4b5 b2bd 0110 cdbd 0e0a 80be
00000170: 5d5d ee3e be78 5ebe c3af 583c 67cd a6be
00000180: e25c 32bd ee77 01be f957 b03c 9577 233e
00000190: 3ede d2bd 8394 f53d f26d 85be cc5a 5c3e
000001a0: c036 cebd d379 85bd b095 bdbe 143f 313e
000001b0: 0c76 d5bd 50b6 cbbd c5e4 1d3d bd55 5dbe
000001c0: 4acc 1bbe 2901 0e3e 48c8 c43e b7cc b43d
000001d0: a249 b9bc 18d3 e13d 41ca c93c fe35 83bd
000001e0: 032a 42be a948 833e 4121 33be 1c67 073d
000001f0: e9c3 06be 99cb dc3d 2a64 633a 7184 193e
00000200: 2fef 5ebe ad30 84be 36b5 a53e 968a 30be
00000210: 2d15 973e 33da aabe 3b26 883e 63a8 02be
00000220: 3db0 89be 9381 2abd a8a3 433e 5167 86be
00000230: c52e 043e 9c2e 0bbe c0b4 b13c 57ff 843e
-0.07525369 0.04984358 0.05334003 -0.024672894 0.23312646 -0.4362633 0.06726009 0.0137451505
-0.41134238 -0.19601211 0.23948768 0.0050918534 0.10472586 0.19238096 -0.026527025 -0.1237974
0.121916085 -0.27029678 0.22860216 -0.18357962 -0.082090415 0.25009272 -0.054520294 -0.25035325
-0.4082633 0.12914586 0.23119749 0.13317434 -0.19872758 -0.31943744 0.1858 0.1301652
-0.18720719 -0.08089267 -0.07418254 -0.46897674 -0.24473883 -0.15595008 0.10354103 0.022969399
0.19075587 -0.051143665 0.26999986 -0.21596606 -0.07866667 0.006285639 0.34077802 0.08473625
0.16941628 0.34452757 -0.19539914 -0.25708205 -0.24507019 -0.13491473 -0.15919185 -0.27902985
-0.20164803 -0.38755053 -0.25368372 -0.090676084 0.03041173 -0.10756978 -0.040972088 -0.17572284
0.09355175 0.17407285 -0.038461898 0.1839578 -0.1234053 -0.10055532 -0.23755763 0.09825702
0.116643704 0.20767051 -0.3650921 0.01637731 0.16934891 -0.011334646 0.0015355943 0.31762272
-0.3761385 0.025520882 0.31711915 0.25779575 -0.03979178 -0.31231296 -0.27398336 0.00025614377
0.12327638 -0.08726087 -0.10012818 -0.2500767 0.46555606 -0.21725747 0.013225499 -0.32578585
-0.04354561 -0.12643406 0.021526324 0.15963586 -0.102962956 0.11991217 -0.26060444 0.21519011
-0.100690365 -0.06517377 -0.37028265 0.17309219 -0.10422906 -0.09946883 0.03854825 -0.21614738
-0.15214649 0.1386763 0.38434052 0.08828109 -0.022618119 0.11026591 0.024632575 -0.064067826
-0.18961339 0.25641373 -0.17493154 0.033057317 -0.13160671 0.10781021 0.00086742884 0.14991929
-0.21770929 -0.25818387 0.32364815 -0.17240366 0.29508343 -0.33369598 0.26591668 -0.12759547
-0.26892272 -0.041627478 0.19105399 -0.262507 0.12908466 -0.13591999 0.021692634 0.2597606

encoder.blocks.0.conv.0.bias f4 [16]
00000000: 22cb b9bc 2525 b4be 8ac4 453e 8156 d7bc
00000010: 9248 9d3e a18d 3bbe 855b 64bd fc4c 323e
00000020: 1e4c ea3d acc8 b63e 4a08 103e bffa cebd
00000030: 85eb 46bd 67d4 19be 1e5d 013e 201d 9d3e
-0.02267987 -0.3518459 0.19313255 -0.026286365 0.3071943 -0.18315746 -0.055751342 0.1741218
0.114402995 0.35699975 0.14065662 -0.1010642 -0.048564453 -0.15022431 0.12633178 0.30686283

encoder.blocks.0.conv.1.weight f4 [16]
00000000: b015 803f 10ec 873f 51f6 913f 8cab 443f
00000010: 5116 803f c910 8c3f ddb0 743f 8905 813f
00000020: bdc4 3e3f 5912 823f c8cc 693f 718e 753f
00000030: af7f 813f e4c2 903f 4636 983f c3f7 673f
1.0006618 1.0618916 1.1403295 0.7682426 1.000681 1.0942622 0.9558237 1.0079814
0.7451895 1.0161849 0.91328096 0.95920473 1.0117091 1.1309476 1.1891563 0.9061243

encoder.blocks.0.conv.1.bias f4 [16]
00000000: 71b9 83bc 72dd 583d 793f ac3d 93c9 883c
00000010: 3fef b9bc d9c0 8f3d 8d3b fb3c 1130 f73b
00000020: 1394 ecbd 8099 aa3c 75ff 003c cbc0 6cbd
00000030: b30e 353d 2a7a 0a3e 2f8a ed3d af81 223d
-0.016079636 0.05294556 0.08410544 0.01669768 -0.02269709 0.07019205 0.030668044 0.0075435718
-0.115516804 0.020825148 0.007873406 -0.05780105 0.04420347 0.13523164 0.11598622 0.039674457

encoder.blocks.0.conv.1.running_mean f4 [16]
00000000: 9147 88be 5bcb a4be 0af5 013e 8df3 dbbe
00000010: 5c0b 813e 2f04 15be 7ee7 43bf d666 f53d
00000020: d3af 0c3e bd9e aa3e 3ab7 0ebe 5757 63be
00000030: 184c dabb 9cd4 41be 97f4 0e3e a2e6 5f3e
-0.266171 -0.32186398 0.12691131 -0.42959252 0.2520398 -0.14552377 -0.76525104 0.11982505
0.13738947 0.33324233 -0.13937083 -0.22201286 -0.006661903 -0.1892876 0.13960491 0.21865323

encoder.blocks.0.conv.1.running_var f4 [16]
00000000: 04d8 763c 0d30 293b 4abf 043b 3601 173d
00000010: 1420 003b 303b 023c 3e23 b03d c7e9 233b
00000020: 4947 d53b 5612 853b 2505 813c d38b 9b3b
00000030: 8dba 473b fdfe 423a 66f8 c73a 639c a93b
0.015066151 0.0025815994 0.0020255619 0.03686639 0.001955037 0.007948682 0.08600472 0.0025011168
0.006508742 0.0040610237 0.015749523 0.004746893 0.0030476183 0.0007438509 0.0015256524 0.0051761135

encoder.blocks.0.conv.3.weight f4 [16, 16, 3, 3]
00000000: 5226 123a 98d2 243e 7770 e93c 9012 d13c
00000010: 8d47 e53d 5c54 84bd 73c7 c83d 9e04 1fbc
00000020: addf 0dbd ce08 00be a5e7 243e 8364 83bd
00000030: d544 923d ca02 8b3c 325d 81bd 05c0 2f3e
00000040: a432 18bd 444e a83c 77d9 d7bc 2d17 eabd
00000050: 1eac 583d 8ada 2fbc fed4 bbbd 4ed6 013e
00000060: 5743 593d cb88 4abd abdf 2e3c 456b 03bc
00000070: bb05 23bd 203f 303d bde4 043e c4de d53d
00000080: 46af 043c 2012 403c 6555 6ebd bde9 b0bd
00000090: 3308 d8bd 412a 983d 732b 80bd 7157 1d3c
000000a0: 9334 d63d 1493 efbd f6a0 8b3d ade2 233d
000000b0: 0aab 2cbc 1492 b4bd 0132 8d3d 12c2 9ebd
000000c0: 0f78 573c bb29 913c c1c6 44bd 6b2a 703d
000000d0: cf29 7fbd 7ccb e1bd 7779 43bd c384 9e3d
000000e0: caff 13bd 383a 75bd 91b9 03bd d9fe 4e3d
000000f0: 51da 393d ae29 b23d 82c5 35bd 45b1 e73b
00000100: 0a92 c0bc 99a7 84bd a0fd 163b 1309 41bd
00000110: a170 6dbc 329b 4ebc db1c cbbd 9cdd 45bd
00000120: b1b2 ccbd c398 e3bc b2c6 213d df11 98bd
00000130: 8b43 8ebd 1701 4d3b 85af ab3c e521 0ebe
00000140: 0b57 323d a345 96bd be06 003e 48a4 8b3c
00000150: fe3c 88bc 1309 9ebd 21aa 44be bae3 0e3d
00000160: 3b1d 9abd 6a83 933d 40f3 a43d 1fe6 b23d
00000170: a3f6 65bd 1c9f 7dbd 0819 9bbd e054 94bd
00000180: c1cc 9c3d dcba 803c c0b2 bc3d 992f a83d
00000190: c675 d5bd d371 78bd caf1 2cbd 75ab d7bd
000001a0: 16d1 50bd ce56 c2bd d571 063d 8a00 acbd
000001b0: 13cc 553d 4b8d 26bd 587b e73c 96fd bc3d
000001c0: 2975 e2bc 80a6 303a 7e08 963b d2be 9b3d
000001d0: 858c 26bd 34c4 8f3a 864d cebb 8723 bbbd
000001e0: 6d2a f6bd 2a63 a43d 0abd ac3c a3e4 99bd
000001f0: fecd 8d3c 6b1f 573d 8e01 8fbd 805f 12be
00000200: 09ca aa3a e062 95bd 7911 3e3e 87f6 12be
00000210: 69e2 5cbb c1b9 223c d5f9 2cbe d408 8abc
00000220: 8f5e eabd 23c1 14bc 29d0 c7ba afac 3a3d
00000230: 55c5 bd3d 8bb4 af3b fb00 b53c 6a1a 1a3d
00000240: d79c 46bd 6efa 553d c5dd a53d dfd6 9d39
00000250: 83c7 0cbd 1b4b d93c e5eb 6bbd b41b 0fbd
00000260: 4edd ee3c 6666 c03d 628c c43d 5cd2 263e
00000270: 2e46 a83b 80e6 1fbd 30c6 2f3d bbf7 3a3a
00000280: d39c 82bd a798 513d e7a4 c03d 0f8a e43b
00000290: 0ec8 8f3c 3ff1 cabc 6033 443e b881 063e
000002a0: 2524 353e c133 92bc a7e8 413d 7eb6 74bc
000002b0: bd31 d13c 585f afbd 6ad1 30bd cbd9 633d
000002c0: 17be b4bd 9b25 6cbc 1d23 7c3d fd25 bcbc
000002d0: 6078 4d3d eee5 23bd 0757 d83d e5f0 f4bb
000002e0: 33c8 c4bb 1df2 84bc 890d 02bd a721 fbbd
000002f0: 84da 94bd f7a2 c23d eca4 383e 8aad 9e3d
00000300: 31c5 db3d 654e 2f3e 004c a13a 9c55 ef3c
00000310: 97ed d03c 61e6 ce3d 23ad f5bd 12c5 e8bd
00000320: 189d 0fbe 291e eebc 9c86 98bd 9f31 c03c
00000330: b256 fabd df93 ac3c 992a 87bd 2c1b df3a
00000340: e808 4b3e a07f a43d 0bcc fa3d 7745 203d
00000350: b8c6 ca3b a64a 173e dc6d 2e3b 220f 11bd
00000360: 6db0 37bd 9e75 66bd 1823 ebbc bc30 27bc
00000370: 7b71 abbc fb03 653d 85e3 e8bc 534f a8bd
00000380: 4d75 51bd e1bc 10be f3d6 173d 9bc7 8f39
00000390: b4c3 cdbc 9bc3 103c 4b94 3c3d b92e c33d
000003a0: 3c22 cf3d 374d f83c cbf6 ddbd 504f 89bc
000003b0: 7b5d fbbd 4ee6 923c 75a1 1038 1b7c c2bd
000003c0: 539b 6b3b 0378 9dbc b2c0 d4bd 195d 39bd
000003d0: 5dee ef3d e69c c33d 8045 253d f2e6 fcbc
000003e0: 3606 123e c773 a13d a458 abbb d7bc 1d3e
000003f0: cc11 133d f697 b63d e11a b4bc 6d7b 12bd
0.0005575168 0.1609596 0.02849601 0.025521547 0.11195288 -0.06461403 0.09803667 -0.009705691
-0.034637142 -0.12503359 0.1610399 -0.064156555 0.07142035 0.016969103 -0.06316604 0.17163093
-0.03715767 0.020545132 -0.026348813 -0.11430202 0.05289852 -0.010733256 -0.091714844 0.12679407
0.053042736 -0.049446862 0.010673444 -0.0080211805 -0.039800387 0.04302895 0.12977882 0.1044288
0.008098429 0.011723071 -0.058186907 -0.08638332 -0.10548439 0.07429934 -0.06258287 0.009603367
0.104592465 -0.11697975 0.0681781 0.040011097 -0.010538826 -0.08816925 0.06894303 -0.0775186
0.013151183 0.017720094 -0.04804111 0.058634203 -0.06229573 -0.1102514 -0.04772326 0.07740166
-0.03613261 -0.059869975 -0.03215939 0.05053601 0.04537422 0.08699356 -0.04437781 0.0070706927
-0.023507137 -0.06477279 0.0023039356 -0.047127794 -0.014492185 -0.012610244 -0.09917613 -0.048307046
-0.0999502 -0.027782803 0.03949613 -0.07425284 -0.069464765 0.0031281167 0.020957718 -0.13880117
0.043540042 -0.07337501 0.12502572 0.017046109 -0.016630646 -0.077165745 -0.19205524 0.034885146
-0.075251065 0.072027996 0.08054209 0.08735298 -0.056143414 -0.061919317 -0.07573134 -0.07242751
0.07656241 0.015714101 0.09213781 0.082122035 -0.10422854 -0.060655426 -0.042222776 -0.1053075
-0.05098065 -0.09489213 0.032823402 -0.0839854 0.052196573 -0.04066209 0.028257057 0.09228055
-0.027643757 0.00067386776 0.004578649 0.076047555 -0.040661354 0.0010968507 -0.0062958626 -0.09137636
-0.12019811 0.080267265 0.021086235 -0.07514312 0.017310139 0.052520197 -0.069827184 -0.14294243
0.0013030182 -0.072942495 0.18561353 -0.14351855 -0.0033704287 0.0099319825 -0.16892178 -0.016849913
-0.11443817 -0.0090792505 -0.0015244532 0.04557484 0.09266154 0.0053620986 0.022095194 0.037622847
-0.048489418 0.05224078 0.0809894 0.00030105465 -0.034369957 0.02652507 -0.057598013 -0.03493853
0.02915826 0.09394531 0.095970884 0.16291183 0.005135319 -0.03903818 0.042913616 0.00071322516
-0.06377568 0.05117097 0.094064526 0.0069744657 0.017551448 -0.024773238 0.19160223 0.13135421
0.1768957 -0.017846944 0.047341015 -0.014936088 0.025536412 -0.08563107 -0.043168463 0.055627625
-0.08825319 -0.014413263 0.061556924 -0.022967333 0.050163627 -0.0400142 0.10563474 -0.007475006
-0.006005311 -0.01622873 -0.03175119 -0.12262278 -0.07268241 0.09503739 0.18031663 0.07747944
0.10730971 0.17119749 0.0012305975 0.029215626 0.025503917 0.10102535 -0.11995914 -0.11365713
-0.1402477 -0.029067116 -0.0744755 0.023461161 -0.12223567 0.021066604 -0.06599922 0.0017021648
0.19827616 0.08032155 0.12245949 0.039128747 0.00618824 0.1477457 0.0026615774 -0.035414822
-0.044845987 -0.056264512 -0.028703257 -0.01020449 -0.020928135 0.055912 -0.028428802 -0.08218255
-0.051137257 -0.14134552 0.037070226 0.00027423803 -0.025117733 0.0088356985 0.04603986 0.09530396
0.101139516 0.030310256 -0.10838088 -0.016761452 -0.12273689 0.017932083 3.4482644e-05 -0.094963275
0.0035950735 -0.019222265 -0.10388316 -0.0452548 0.11715386 0.095514104 0.040349483 -0.030871842
0.14260182 0.07883411 -0.0052290726 0.15404068 0.035905644 0.08915703 -0.021985473 -0.03576224

encoder.blocks.0.conv.3.bias f4 [16]
00000000: 5d00 16bc 411f 783d 67c2 6abd c35d bcbc
00000010: f33d 9abc c1ea e0bc 01d3 dcbd b011 403d
00000020: 66ee d5bc c768 723d 63fb b33d fc32 8fbc
00000030: 7954 a9bd 4df0 e6bc 0bf9 a5bd 22c1 cfbc
-0.00915536 0.06057668 -0.057314303 -0.022993928 -0.018828368 -0.02745569 -0.10782433 0.046891868
-0.026114654 0.059181955 0.087881826 -0.017480366 -0.08268065 -0.028190756 -0.08104142 -0.025360648

encoder.blocks.0.conv.4.weight f4 [16]
00000000: b8db 883f 564c 633f 341f 883f 7b11 7e3f
00000010: 646d 843f 8433 913f a85a 633f eafd 3f3f
00000020: 8c40 813f 4cc7 733f 7572 6e3f 5056 7f3f
00000030: 99d9 5e3f 9dde 6d3f 6001 6f3f 131a 833f
1.0692053 0.88788354 1.0634522 0.99245423 1.0345883 1.1343846 0.88810205 0.7499682
1.0097823 0.9522598 0.931434 0.9974108 0.8705078 0.92917806 0.93361473 1.0242332

encoder.blocks.0.conv.4.bias f4 [16]
00000000: b140 3ebc 45d8 18be 4af4 25bd f132 d7bc
00000010: 2ec7 e4bb dba4 5d3c ddb8 f5bd 3363 03be
00000020: b1b9 843c 7d3d 9bbd 2396 0ebe a774 54bd
00000030: c290 3c3d ca94 9f3c f009 0abe 80cc b33c
-0.011612103 -0.1492625 -0.040516175 -0.026269408 -0.006981752 0.013528074 -0.119981505 -0.1283081
0.016201826 -0.07580087 -0.1392446 -0.05186906 0.04603649 0.019480128 -0.13480353 0.0219481

encoder.blocks.0.conv.4.running_mean f4 [16]
00000000: d35c 17be d806 963e a657 41bf bed3 e8be
00000010: d399 33bf 949c 24bc 52fb 823f aefe 163f
00000020: 6221 6cbf c4f9 67be 2388 663f afc6 c63f
00000030: 77c6 01c0 8c09 85bf a5e1 253f 5cba 5cbf
-0.14781503 0.29302096 -0.75524366 -0.45474046 -0.7015659 -0.010047097 1.0232947 0.5898236
-0.9223844 -0.22653872 0.9005148 1.5529383 -2.0277383 -1.0393538 0.6479743 -0.8622186

encoder.blocks.0.conv.4.running_var f4 [16]
00000000: 20e8 bb3e b8fb 643f 907f 4b3f 5fc8 593f
00000010: 3b46 843f a5ea c53e 1085 8e3f 39ff 7d3f
00000020: 6eb5 1340 2eb8 aa3f 6712 923f e916 1940
00000030: a43e 8640 66b3 8c3f 47d2 a83f f6b1 a13f
0.36700535 0.8944659 0.7949152 0.8507137 1.0333933 0.38655582 1.1134357 0.99217564
2.3079486 1.3337457 1.1411866 2.3920233 4.1951466 1.0992248 1.3189172 1.2632434

encoder.blocks.0.skip.weight f4 [16, 1, 1, 1]
00000000: 702c c0be c6e2 38bf 1c05 7ebf d07e f2be
00000010: 7876 b9be 2215 62bf 0881 64be aa48 6b3f
00000020: 18ce f73e 7ced 9e3e 3008 f9bd 52ed 453f
00000030: 8ce1 3abf 9c82 b83e d001 d53e 00fd 3abf
-0.37533903 -0.7222103 -0.99226546 -0.47362375 -0.36223197 -0.88313496 -0.22314847 0.9190775
0.48399425 0.3104056 -0.12159765 0.7731525 -0.7300041 0.36037147 0.41602945 -0.730423

encoder.blocks.0.skip.bias f4 [16]
00000000: 082e 14be 703e d2be a04f a03e c48d 9f3e
00000010: 6073 4fbd e0bc 09bf e05f 2c3d e8b3 e5be
00000020: 84ae 4f3f d4f7 133f c6c5 42bf 0445 e03e
00000030: b6e3 4cbf 285d 14be 106b c13e c2f8 193f
-0.14470685 -0.4106326 0.3131075 0.31162846 -0.05064714 -0.53803825 0.04208362 -0.4486382
0.81125665 0.5780003 -0.7608303 0.43802655 -0.8003496 -0.14488661 0.37776995 0.601452

encoder.blocks.1.conv.0.weight f4 [32, 16, 3, 3]
00000000: a5da 933d 3c52 083e dcc4 623d c3c3 183d
00000010: 7fcc 2ebd 4e53 1e3d 4d1e 683d fce4 633b
00000020: 448c c33d 65c3 dc3d b533 613d 2675 c23c
00000030: 7432 033e 7ad7 8e3c de5d f33d 50a9 a2bd
00000040: 5abd 273d 4d1d 513c 674c a93d 975a 933d
00000050: a845 823d 5dc4 ba3d 5ef2 473d 6fec e73d
00000060: 1b34 3a3c 94b0 513d 52a8 303e aa1a 23bd
00000070: b951 713d 9613 143d 2232 0b3e 9f1c 3a3d
00000080: 611c 1abd a06d 21bd 7d72 8d3c d608 5cbc
00000090: 0abe 263e 9843 fcbb b50a 07bd 34ae 0fbc
000000a0: ff36 5e3c adb6 6a3c 80ef d0bd 5928 cabd
000000b0: 5620 a9bd 6058 b4bc e023 96bd 8c19 86bc
000000c0: 95e5 d5bc f723 cb3d 94c2 633c 0b1d 9abd
000000d0: 4368 a13d 5b7f 113e 982d 013e e910 943d
000000e0: 0b22 053e a5a8 ee3d 7898 bf3d 719d 793d
000000f0: a247 82bd efb9 27bd 1256 c6bc d9f9 0f3d
00000100: ac76 0a3e 6c46 e63b 0618 3fbd 8089 e93c
00000110: 5de4 993d f360 d73c 792a a23d 205f c63d
00000120: f558 ccbc d712 893d 0b0a b43c c66c 373d
00000130: b3d1 48bd 37f4 8ebd f694 4bbd f8df 04be
00000140: a6ec 86bc da19 8c39 711c d53d 3010 ad3d
00000150: c45d bebc 54cb c03d 052e 063e 89c9 303d
00000160: faa9 d7bc 7e3e 213e 4328 a53d f811 393e
00000170: 8999 75b9 0a9f 8a3c e17a c13d 571b 893d
00000180: 3928 9639 beb9 40bd 04d8 04bd da93 04bc
00000190: 34cb e63d d3cb 553e e6da f93c 1661 e63c
000001a0: 669f fe3d 854a 573d 5ac8 f93d 7ca4 3a3c
000001b0: 39d5 4e3d ec7f aebc 3976 d1bd 8684 6bbd
000001c0: 0d3f b5bd 2de6 ecbd 67c0 aebd 9a1b ebbd
000001d0: 5052 2bbd 93f5 293d 1466 073d e8ab 153d
000001e0: 5e22 bbbc 29fb 1a3d e17a 38bd 2bb6 863d
000001f0: f4ec 9c3d 1e09 a03d 1b31 c93c 21f1 653e
00000200: 6fdd 863d 23d1 71bc 39f5 543d 10bc 383d
00000210: fc01 72bd 2703 b0bc 5212 c13d 73bb db3c
00000220: fd51 663d bdb6 523c f166 fe3d a966 fa3d
00000230: 9e90 9a3d 6f88 0d3e 7ca0 063e 89bf 4dbc
00000240: 68a3 acbd f023 003e 9cc3 4ebb 0389 803d
00000250: 377c 9e3d 4e32 a5bd 71a7 2f3e 8e3f 7f3d
00000260: 6245 3b3d c6ba 5f3d cf00 09bd edbe a8bc
00000270: c263 93bd 2824 4c3c 1f2c 64bd 92be b6bd
00000280: edbf 90bd 34e7 b9bd d4de debd cbc9 373c
00000290: 9bef 503e c94d 1b3d 1d3f e93d 4aca c63d
000002a0: 6999 be3d acf6 103e 4a06 46bd dc01 46be
000002b0: 581d 773d aad9 0ebd 4910 d7bc d14f 64bd
000002c0: 4ab4 aebd ecb0 f13c f56e 95bc 8f8c 17be
000002d0: 0836 80bd 467b c23c c047 febb 03d5 0bbe
000002e0: 84d5 113d f912 313b c496 3a3d a3b6 df3d
000002f0: 55a3 0f3d 371a 3d3d c57b da3d a6f6 f0bc
00000300: 1c34 573e d900 9c3d 676e a83c 2880 563e
00000310: f2fb 8bbd 6371 03be ded8 7f3c 9792 313d
00000320: de6d ff3b 9a1f aebd 8582 40bd 4295 8abd
00000330: aa14 ebbd 9b55 44bc bdae b03c b905 113c
00000340: 407d f6bb 6b45 993c 2192 ed3d b495 b6bd
00000350: f7d4 28bb 732d acbc 18a5 543d a650 2abd
00000360: 4b03 bfbc 5648 10bd 77e0 b4bd c72d 663d
00000370: f1f9 a63c 144a dbbc 02ba 473d 488f 853d
00000380: ef1a 7d3d 486d 2fbd 9c68 543c 258c f4bb
00000390: 3fa2 9b3d 1ffe 873b 985f 9e3d decb b6bc
000003a0: 20c6 b93d 1b62 df3c 48a6 da3c c1cd 5439
000003b0: 58b2 913a 87d6 1fbd 489a 9cbd c386 fc3c
000003c0: e36f e6bd 2722 92bd 3179 5aba aaa7 003e
000003d0: ee9d 243c cf9d a93d 5cff a43d ae3c debc
000003e0: a247 9e3d 41c9 16bc 672d 733c efcf 903d
000003f0: b5c9 fc3c 47e1 0dbb 1d53 fcbd be9b 06be
0.072194375 0.1331262 0.05536352 0.037296068 -0.04267549 0.038653664 0.056669522 0.0034773936
0.09548238 0.10779456 0.054980952 0.023737501 0.12812215 0.017436732 0.11883138 -0.0794245
0.040952064 0.0127633335 0.08266526 0.07195013 0.06360942 0.091194846 0.048815124 0.11324393
0.011364962 0.05119379 0.17251709 -0.03982035 0.058915827 0.03615149 0.13593343 0.04543745
-0.03762472 -0.039411187 0.017266506 -0.013429841 0.16283432 -0.0076984875 -0.032969195 -0.008769561
0.013562917 0.01432578 -0.10201931 -0.09870977 -0.08258121 -0.022014797 -0.07331061 -0.016369604
-0.02611045 0.09918969 0.0139013715 -0.07525071 0.078812145 0.14208739 0.12615049 0.07229788
0.13001268 0.1165326 0.09355253 0.060941163 -0.06361319 -0.040948804 -0.024210963 0.035150383
0.13521832 0.007027438 -0.04665377 0.028507948 0.0751426 0.026291346 0.07918257 0.096861124
-0.024944762 0.066930465 0.021977445 0.04478147 -0.04902811 -0.06980174 -0.049702607 -0.12976062
-0.016470265 0.00026722142 0.104058154 0.08450353 -0.02323807 0.09413782 0.13103493 0.04316095
-0.026326168 0.15746495 0.0806432 0.18073261 -0.00023422217 0.016921539 0.094472654 0.06694668
0.00028640198 -0.047052138 -0.03243257 -0.008091891 0.11269227 0.20878534 0.030499887 0.028122466
0.124327466 0.0525613 0.12196417 0.011391755 0.050496314 -0.021301232 -0.10227627 -0.05749943
-0.088499166 -0.1156734 -0.085327916 -0.11479874 -0.041826546 0.041493963 0.033056334 0.036540896
-0.022843536 0.03783718 -0.04503906 0.065777145 0.07662383 0.07814239 0.024559548 0.22455265
0.06585204 -0.014759335 0.051991675 0.045101225 -0.059083924 -0.021485878 0.094273224 0.026822781
0.056230534 0.012860951 0.12421978 0.12226612 0.07547115 0.13821577 0.13147157 -0.012557873
-0.08429605 0.12513709 -0.0031549698 0.06276133 0.07738536 -0.080662355 0.17153718 0.06231647
0.045720465 0.05462148 -0.033448037 -0.020598853 -0.07196762 0.012459792 -0.05570614 -0.08923067
-0.07067857 -0.090773016 -0.10882345 0.011217545 0.20403902 0.03791598 0.11388991 0.09706552
0.093066044 0.14156598 -0.04834584 -0.19336647 0.06033072 -0.03487555 -0.026252883 -0.05574018
-0.08530481 0.029503308 -0.018241385 -0.14799713 -0.06260306 0.023740422 -0.007760018 -0.13655476
0.035604015 0.0027019365 0.045553938 0.10923507 0.035067875 0.04616758 0.106681384 -0.029414486
0.21015972 0.07617349 0.020560456 0.20947325 -0.06835164 -0.12836222 0.01561567 0.04335269
0.0077950796 -0.08502121 -0.046999473 -0.0676675 -0.11478551 -0.011983301 0.021567697 0.008851462
-0.007522255 0.018709859 0.116001375 -0.08915272 -0.0025761703 -0.021017766 0.05191526 -0.04158082
-0.023317 -0.035225235 -0.08831876 0.056196 0.020382853 -0.026768722 0.048761375 0.06521469
0.061793264 -0.042828828 0.012964394 -0.0074629956 0.07599305 0.0041501666 0.07733077 -0.022314008
0.090709925 0.02726846 0.026690617 0.00020294545 0.0011115773 -0.03902295 -0.07646614 0.030825978
-0.112518094 -0.0713542 -0.0008334099 0.12563959 0.010047419 0.08282053 0.080565184 -0.027128544
0.077285066 -0.009203256 0.014842368 0.0707091 0.0308579 -0.0021649168 -0.1232054 -0.13145348

encoder.blocks.1.conv.0.bias f4 [32]
00000000: f915 77bd a39a 0bbe 946d 4cbc ea1e 89bd
00000010: da78 b2bb b759 8b3d 98d4 333b c5b1 21bd
00000020: db7b 753d 7fa1 b83b 3ce3 253d 0114 b3bd
00000030: ad70 aebc 5e00 853d e2c3 f13c 8a4c d8bd
00000040: e4c4 133e 4dab dcbc 07f5 0b3c 5a92 e83d
00000050: 1d92 edbd 4955 edbd 935a c1bd 7641 5abd
00000060: 72cc 44bd 0817 47bd a9f4 173d 726e bdbc
00000070: 8790 893c 1d2d aa3d 28cf 99bc af8f 583d
-0.06032369 -0.13633208 -0.012477297 -0.066953495 -0.0054465355 0.06804221 0.0027439948 -0.039476175
0.05993257 0.005634486 0.04049991 -0.0874405 -0.021293962 0.06494211 0.02951235 -0.10561474
0.14430577 -0.026937151 0.008542306 0.11356039 -0.116001345 -0.115885325 -0.09441104 -0.053285085
-0.048046537 -0.04860595 0.03709856 -0.023123953 0.016792549 0.08309386 -0.018775538 0.052871402

encoder.blocks.1.conv.1.weight f4 [32]
00000000: 9423 783f f5af 883f adaf 833f a232 903f
00000010: d348 7b3f c967 7d3f eaee 763f 3bdc 623f
00000020: 7c31 803f 7b4e 743f 969b 923f 70a3 783f
00000030: ae2f 913f 66b7 5c3f 2034 813f 7d89 703f
00000040: 4e55 663f b7a8 793f e728 6b3f d979 6b3f
00000050: 4f99 6b3f 28a7 713f b3fc 6a3f ce3a 6a3f
00000060: c4dc 943f 3260 6e3f c515 633f 2e26 733f
00000070: c12b 653f ad01 923f 5866 753f f972 803f
0.9692929 1.0678698 1.0287987 1.1265452 0.98157996 0.9898649 0.96458304 0.88617295
1.0015101 0.9543225 1.1453731 0.97124386 1.1342676 0.86217344 1.0094032 0.9395979
0.89973915 0.97523063 0.9185929 0.919828 0.92030805 0.94395685 0.9179184 0.9149598
1.1629872 0.9311553 0.8870509 0.9498013 0.8951989 1.1406761 0.9585929 1.0035087

encoder.blocks.1.conv.1.bias f4 [32]
00000000: bff5 d1bc 534b efba fd56 4a3d e431 41bd
00000010: 5471 203c f2ac 3fbd df54 493c 0897 79bd
00000020: d3ec 53bd f84e ccbd d401 653c 1032 5d3d
00000030: 8bfe de3c f7fb 4bbe 4257 22bd 20b1 a0bd
00000040: c67d 573c ba86 a9bd 8ca9 78bc 1c2d d23c
00000050: 50d6 4dbd 2a2f 98bd 1888 9ebd 9c47 14bd
00000060: 9737 9dbc c5be 07bd 0f92 c9bd 9db6 323e
00000070: ffe2 c5bc 3b99 d13d f599 3dbe 5cf7 e8ba
-0.025629876 -0.0018256701 0.049399365 -0.04716672 0.0097926445 -0.046795793 0.012288301 -0.06093505
-0.051739525 -0.099759996 0.013977487 0.05400282 0.027220985 -0.19920336 -0.039633997 -0.07846284
0.013152545 -0.0827765 -0.015177142 0.025656275 -0.050253212 -0.07430871 -0.077408016 -0.036201105
-0.019191546 -0.033140916 -0.098423116 0.17452474 -0.024156092 0.102343045 -0.18515761 -0.0017773914

encoder.blocks.1.conv.1.running_mean f4 [32]
00000000: 4429 eb3f e349 d83e 17ee 27c0 0948 c73f
00000010: 2d99 17c0 1785 b13f 236a 2bc0 0e60 893e
00000020: cbac b63f 83cf e53f c26a 25bf 0658 a83f
00000030: f48d b23d f8e4 6abf 5b34 0a40 686a d13f
00000040: 2361 5dbe c559 ef3f 5445 b6bf 1e08 99bf
00000050: 1a7b d8bf 6a16 3c3f 8174 c3bf c0ef edbf
00000060: e61c 2f3e e26c c13f 16c9 18be 8b9c eebf
00000070: 0771 01c0 eb10 d03e af47 423f 8745 fe3f
1.8371968 0.4224387 -2.6239069 1.5568858 -2.368724 1.3868741 -2.678353 0.26831096
1.4271482 1.7953953 -0.64616024 1.3151863 0.08718482 -0.9175563 2.1594455 1.6360598
-0.21619086 1.869927 -1.4239907 -1.1955602 -1.6912568 0.734717 -1.5269929 -1.8588791
0.17100868 1.5111353 -0.14920458 -1.8641523 -2.0225236 0.40637907 0.7589063 1.9864968

encoder.blocks.1.conv.1.running_var f4 [32]
00000000: c5bf 8240 f26b 153f ed26 9540 68aa 953f
00000010: d9e1 a240 15f0 6040 0ae0 a240 9442 8b3f
00000020: 41f4 c63f fece 5b40 9fdc 2e40 7271 5940
00000030: 322e a53f d5cb bc3f a29b 8d40 6d39 6940
00000040: 2bde a13f 738b ed40 291a 3b40 a15c cf3f
00000050: 5bcb 9340 c891 cb3f cd6d c63f 5a37 8a40
00000060: b36c 4e3f 4efa 2c40 6e32 ae3f abaf 2240
00000070: ad82 3a40 c5b1 7c3f 73c8 d73f 95b8 3d40
4.0859094 0.58367836 4.6610017 1.1692629 5.0900693 3.5146534 5.0898485 1.0879693
1.554329 3.4345088 2.7322156 3.3975492 1.2904723 1.4749705 4.425248 3.64413
1.2645925 7.4232726 2.9234717 1.6200143 4.6185737 1.5903864 1.5502259 4.319257
0.8063461 2.7027774 1.360914 2.541972 2.9142258 0.98708755 1.6858047 2.964391

encoder.blocks.1.conv.3.weight f4 [32, 32, 3, 3]
00000000: 54d1 983d ce0e e63c 76ea 063d 3bc6 cc3b
00000010: 21b6 d43c 4041 1cbc 7b4a 81bd 4755 0bbd
00000020: 9934 a6bc cd35 fcbb 5349 8dbd 5746 f8bb
00000030: ec45 bebb 06e3 2bbd 1a1a 1fbd 2d13 15bd
00000040: 3247 9dbd 772d b4bd 889a aabc e4cd 583d
00000050: 21df 00bc b233 56bd 76ff 4fbc 76fa 923d
00000060: aa2b d0bb 4534 a83c b2b9 023d 1e3f e5bd
00000070: 467b d1bd 2d58 ddbc a54a a2bd bd97 babd
00000080: c782 f4bc 94b4 98bd 9fd8 ccbd 5ddf adbd
00000090: c70d dcbc 299d 00bd 8b06 a23d 9735 5c3c
000000a0: 175f a8ba 05c3 ce3c 9a7d 8fbd 5455 89bc
000000b0: df4b 843c c035 a4bd 9800 ffbd 5297 cabd
000000c0: 19c4 54bc dc34 e0bd 10d2 e6bd 254b 44bd
000000d0: cc4d 11bb baec e9bd 7f76 87bb a349 9f3d
000000e0: 8bf2 973d c514 683b c8ad 1e3e e616 893d
000000f0: 8461 b03d 575f 153e 43dd ad3d acc2 aabc
00000100: 40ee a1bd c5da 4b3d c5ae 0cbd 0e7f 08bd
00000110: ee31 1b3d 562f b2bd 9013 3dbd c8ca 53bd
00000120: ed21 56bd 30f2 cfbd e767 86bd ef77 3abe
00000130: 2aac 01be 341a f3bc e903 59bd fb46 9cbd
00000140: 766e 8d3c 9f7c a23c 028b ba3c 6487 6dbc
00000150: 15fa c13b 174c 7e3c 5396 61bd fc0d 7abd
00000160: 90c2 d3bb 022b 0dbc 8301 50be 6ac0 33be
00000170: a5aa 2dbe dd9a cdbd d088 02be 4df3 67bd
00000180: 3b89 5bbe 483f cabd c17e 07be 368c 80bd
00000190: 90ac 60bd c080 debd a7e2 a7bc f23e 91bd
000001a0: 7e8b 50bd 8bba 71bd 5d88 393b 77ef a9bd
000001b0: dcd8 8abd d370 25bd 3c51 17bd 3068 edbd
000001c0: d1cb bebc f2a8 48bb 6c39 99bd 17ff 86bd
000001d0: 7ee4 fe3c b408 be3d cdf7 293c 4599 cb3b
000001e0: 54d1 a63d b837 0cbc 94a7 8d3d 5f88 0ebc
000001f0: 0237 163d 3770 4a3d 5f6c 48bc 4bad d83b
00000200: 046f 9abd 960f 2d3a c42a 89bd a09b d0bd
00000210: bebd b9bb a4fb 0f3c cb81 2dbd 7328 02be
00000220: b2a8 53bc 5818 4e3c a2bf a6bb e6b5 14bd
00000230: d425 373d 1b4e 12be c99c c7bb 91f9 09bd
00000240: 76b9 dabc 4b6b 35bd 985d 4dbd 8ddc 54bd
00000250: 7a99 12bd 99bf 3bbc fd5d 3abd b451 c4bc
00000260: 35e7 78bd e7e5 80bc 1791 abbd 6088 68bd
00000270: da76 aebc fbe0 56bd 0518 513c 6587 babd
00000280: 146c 4ebd f53c 99bd 318c 6a3d a4e3 b83c
00000290: f39c 51ba 74f0 4b3c c902 873d 575f 3a3d
000002a0: cac5 913c 5c16 c53b 4b39 aa3c 3b8f 00bc
000002b0: b748 6c3d 677f ebbc 2070 8fb9 ae3e e53c
000002c0: 5a40 c33b 3721 c2bc 18db 43bc 96ed 95bd
000002d0: 226e 6d3c d604 d83d c43b eb3c ed2e 93bd
000002e0: b54d 123d 13c2 10bd fd4f 88bd f7a1 dabc
000002f0: 2847 f43c bbcf 1fbd 4618 e6b9 8a0f 31bd
00000300: 218e a4bd eeb1 09bc 9c9d 573d 0f11 fcbc
00000310: 4124 b8bc b35a ecbc 2b7a b83d 93d8 343d
00000320: d167 d83d ee8e f83d bed0 9b3c 3cab 493d
00000330: da82 99ba c494 863d a77b 0b3d c39f a4bd
00000340: a122 1fbd 8139 66bd 2fd1 1dbd f66d 8cbd
00000350: 36b2 8ebd adc6 4ebd bfe7 39bd f7fb b23b
00000360: 998f efbd a295 58bd ed07 1cbd 2d98 0dbe
00000370: 3f35 dabd 6536 3dbd b68e 2dbe e84b e4bd
00000380: 1aa8 ef3b 2916 fc3c 2836 bcbc 77c6 7abb
00000390: 2bce 163d 82ca 7f3c f9d4 173d 3a36 323c
000003a0: 0c37 1cbc ad47 b8bc fb0a 46be b36e fdbd
000003b0: 53c9 14be 224b 0abe c586 9ebd 2c1d 0ebe
000003c0: 75c0 bdbc f376 00be f8a8 76ba d391 61bd
000003d0: 5fd2 443c 9821 82bd c358 79bc 7f7f 27bc
000003e0: 6854 f53b 86d6 203d 4f15 c13c d6d1 5a3d
000003f0: cd6d 2ebc fde3 89bc 4c8d 2dbd 4e8c 253c
0.07461801 0.028083231 0.032938443 0.006249217 0.025965752 -0.009537041 -0.06313034 -0.034016874
-0.020288752 -0.0076968432 -0.06898751 -0.0075767445 -0.005806675 -0.041964553 -0.03884325 -0.03639524
-0.07679595 -0.08797734 -0.02082564 0.052930728 -0.007865698 -0.052295394 -0.012695184 0.07176678
-0.0063528614 0.020532737 0.031915374 -0.11193679 -0.10228591 -0.027019585 -0.079243936 -0.09110973
-0.029847516 -0.074563175 -0.10002255 -0.08489869 -0.026862038 -0.03139988 0.07911404 0.013440511
-0.0012845722 0.025239477 -0.070063785 -0.01676432 0.01614946 -0.080180645 -0.12451285 -0.09892143
-0.012986206 -0.10947582 -0.11270535 -0.047923226 -0.0022171615 -0.11422105 -0.004133999 0.07777717
0.07419308 0.003541277 0.1549598 0.06693821 0.0861235 0.1458715 0.08489468 -0.02084478
-0.07906771 0.04976918 -0.03434636 -0.033324294 0.037889414 -0.08700435 -0.046161234 -0.05170706
-0.052278448 -0.101536155 -0.065627865 -0.18209814 -0.12663332 -0.02967558 -0.052982245 -0.07630726
0.017264586 0.019834815 0.022771362 -0.014497612 0.0059197047 0.015521071 -0.055075 -0.061048493
-0.0064624026 -0.008616211 -0.20313077 -0.17553869 -0.16959627 -0.100393035 -0.12747502 -0.056628514
-0.21439068 -0.09875351 -0.13231947 -0.06276743 -0.05485207 -0.10864401 -0.020493818 -0.07092084
-0.05091428 -0.059015792 0.0028310039 -0.082976274 -0.06779644 -0.0403908 -0.036942706 -0.11592138
-0.023290547 -0.0030618277 -0.074816555 -0.06591623 0.031114813 0.09279004 0.010374022 0.0062133395
0.08145395 -0.008558206 0.069167286 -0.008699506 0.036673553 0.049423423 -0.012232869 0.006612455
-0.07540706 0.0006601749 -0.0669761 -0.10185933 -0.005668371 0.008788023 -0.04236011 -0.12710743
-0.012918638 0.012579046 -0.0050887624 -0.036306284 0.04471381 -0.14287607 -0.0060916883 -0.03368527
-0.026699763 -0.044291776 -0.050138086 -0.051968146 -0.035790898 -0.011459255 -0.04549979 -0.02396474
-0.06076737 -0.015734626 -0.08377283 -0.056770682 -0.021296907 -0.05246065 0.012762074 -0.09107856
-0.05039604 -0.0748233 0.057262603 0.022569485 -0.00079961045 0.012447465 0.06592328 0.04550108
0.017794508 0.0060146283 0.020779273 -0.007846649 0.057686534 -0.028747274 -0.00027358625 0.02798399
0.005958599 -0.023697479 -0.0119540915 -0.073207065 0.01449159 0.105477974 0.028715022 -0.07186685
0.03571864 -0.035341334 -0.066558816 -0.026688559 0.029819086 -0.039016467 -0.00043887104 -0.04322771
-0.080349214 -0.008404238 0.052640542 -0.030769853 -0.022478225 -0.028851843 0.09007677 0.044151854
0.105666764 0.12136637 0.019020434 0.049235567 -0.001171197 0.065713435 0.03405347 -0.08038285
-0.038851384 -0.056207184 -0.03852957 -0.06856911 -0.06967585 -0.05048244 -0.045387026 0.0054621655
-0.11697311 -0.052877076 -0.038093496 -0.13827582 -0.10654687 -0.046194453 -0.16948971 -0.111472905
0.0073137404 0.030772286 -0.022975042 -0.0038265267 0.03681771 0.0156122465 0.03706834 0.010877186
-0.009534609 -0.022495115 -0.19340126 -0.1237463 -0.14529924 -0.13505223 -0.07740549 -0.13878316
-0.02316306 -0.12545376 -0.00094093336 -0.05507071 0.012013047 -0.06354064 -0.015218916 -0.0102232685
0.0074868686 0.039267085 0.023569731 0.05342277 -0.010646296 -0.016832346 -0.04237108 0.010104252

encoder.blocks.1.conv.3.bias f4 [32]
00000000: 502c 7b3c 4c1c e53b dfec a3bd da90 3f3c
00000010: 16dd 9abd a798 7bbd f575 1a3c 9736 c3bb
00000020: 1089 bebc 173d 143c 97fa 91bc baef 0e3d
00000030: f44b 82bd ce5e 3fbd e24e 6bbd 7699 17bd
00000040: 7522 55bd 4e32 12bd 4671 163c 40fe 863c
00000050: fe1c 60bc f94e be3c a802 90bd be43 f2bc
00000060: e725 d13d 19b1 f6bb 6c82 99bd 6e5f 653d
00000070: ed45 f43c 14ea 2cbd f61c bf3d a387 5bbd
0.015330389 0.0069918986 -0.08004164 0.01169225 -0.075617 -0.061424877 0.009427537 -0.0059574354
-0.023258716 0.009047768 -0.017819686 0.03489659 -0.06362143 -0.046721272 -0.057448275 -0.037011586
-0.052034814 -0.035692506 0.00918228 0.016478658 -0.013678787 0.023231016 -0.07031757 -0.029573318
0.102123074 -0.007528436 -0.07495579 0.055999212 0.0298185 -0.04221542 0.09331696 -0.05359615

encoder.blocks.1.conv.4.weight f4 [32]
00000000: bf37 7a3f 3799 873f d886 6f3f dc1b 843f
00000010: 88a3 673f 85c8 793f 2bc6 6f3f 0418 783f
00000020: 1538 7e3f ff8c 863f c7b5 733f db06 843f
00000030: 1de3 8c3f d230 883f 685a 663f 3cde 7c3f
00000040: 606f 873f 8921 6b3f e3e4 703f 3c34 783f
00000050: 6f8f 7b3f 3a09 873f ac23 833f e3cd 783f
00000060: 4e27 8e3f dea0 853f 2ac2 763f d9b8 873f
00000070: 5108 6b3f 98dc 803f cfcd 743f c450 7c3f
0.9774131 1.0593632 0.9356513 1.0321002 0.90483904 0.97571594 0.93661755 0.96911645
0.99304324 1.0511779 0.95199245 1.0314592 1.100681 1.0639899 0.899817 0.987766
1.0580864 0.91848046 0.94099253 0.96954703 0.9826574 1.0549691 1.0245261 0.9718916
1.1105745 1.0439718 0.9639002 1.0603286 0.91809565 1.006732 0.9562654 0.9856074

encoder.blocks.1.conv.4.bias f4 [32]
00000000: 5b20 6abd 7b31 ef3b 6055 9bbc 18f9 213d
00000010: ef43 d8bd 1a27 8d3c 5a7e 2abd 25fe 2a3c
00000020: b0bc 6c3d efa7 34be 392f 92bd ae9c c3bd
00000030: 723c 993d 38ce 24b9 eb7d e1bd ec5a c23c
00000040: 3f75 083c db99 343d 1cde 2cba daa0 bfbb
00000050: fc0c 81bc eb1a 963d 18c2 c4bb 7ab9 933c
00000060: 084c acbc 6001 333c 8822 c0bd ba3e b0ba
00000070: 24ed c3bd 675a f03c 2c89 ac3d 6000 d1ba
-0.057159763 0.0072995997 -0.018961608 0.039544195 -0.10559832 0.01723056 -0.041624404 0.010436569
0.057797134 -0.17642187 -0.07137913 -0.09551369 0.07482232 -0.00015717081 -0.11010345 0.023724996
0.008328735 0.04409204 -0.0006594376 -0.0058480324 -0.015753262 0.07329353 -0.006004583 0.018032778
-0.021032348 0.010925621 -0.09381586 -0.0013446428 -0.09566715 0.029339982 0.08424601 -0.0015945546

encoder.blocks.1.conv.4.running_mean f4 [32]
00000000: 910a 39c0 eef9 0fc0 d599 4ec0 693d eebf
00000010: 5bdf b83f 1361 73bf 4052 e4bf d149 8fbf
00000020: ee35 1fc0 9561 47bf aab9 0ec0 adb6 903e
00000030: 23b8 f43d accf 24bf 45ae 7ebf 8ced 85bf
00000040: 581b 04bf 3fa8 64c0 675b 24c0 0388 50bf
00000050: 1d72 68bf b762 27c0 b0c9 a3be 9711 05c0
00000060: c965 8fbf 19a7 9c3f 15d1 d83f 1b57 963d
00000070: 9e6a 963f a34e b6bf 0591 3ac0 1be8 8dbf
-2.89127 -2.2496295 -3.2281392 -1.8612491 1.4443163 -0.9507 -1.7837601 -1.1194402
-2.4876666 -0.77883273 -2.230082 0.2826437 0.11949184 -0.6437938 -0.99484664 -1.0463119
-0.51604223 -3.572769 -2.5680788 -0.8145754 -0.90799123 -2.6154 -0.31989813 -2.0791986
-1.1202937 1.2238494 1.6938807 0.07340833 1.1751287 -1.4242748 -2.9151013 -1.1086458

encoder.blocks.1.conv.4.running_var f4 [32]
00000000: fe34 2b41 856a 8040 7160 d640 221f 9440
00000010: fd7c 8441 9b63 cb40 f94c 7d40 1982 0e41
00000020: e79a e940 a19d 4d40 f63d 4541 c2ef 7040
00000030: a426 c740 2872 4240 9483 5741 6b3c 4641
00000040: 5b2a 9e40 c947 9041 5b2c 9441 915f f140
00000050: b55f d940 7747 c940 27fc e040 b9d6 4f41
00000060: 8192 9340 0fd6 b340 5155 b840 d908 5140
00000070: 8ec2 1341 67d3 7440 6feb c140 49c8 ce40
10.700438 4.013003 6.6992726 4.6288004 16.56103 6.355909 3.957823 8.906762
7.300159 3.212746 12.327627 3.7646337 6.223467 3.0382175 13.469624 12.3897505
4.9426703 18.035051 18.521658 7.542916 6.792933 6.2899737 7.0307803 12.989923
4.611634 5.61988 5.7604146 3.266165 9.234999 3.825403 6.0599895 6.461949

encoder.blocks.1.skip.weight f4 [32, 16, 1, 1]
00000000: 305a 5b3e a4ec 1f3e 3c05 673e 80ae 493e
00000010: 0215 793e a469 32be ac97 bcbd 5490 103e
00000020: c01a 44bc c092 513e ac79 96bd 7c30 f93d
00000030: a27c 763e 967d 7dbe 32d4 65be 0230 6e3e
00000040: e034 cf3c 7c62 a3bd eaa0 5fbe 40e1 b9bc
00000050: 08b2 12bd 701c e73c c02e f43b d28c 0bbe
00000060: 0042 543c 0a9a 26be 747f 1d3e 8adf 1abe
00000070: 78d8 74be 1021 68be c0a6 4fbe a0c4 263d
00000080: d4cb cfbd 4ce9 91bd 0094 febc a40a 17be
00000090: eeab 663e 4809 df3d 8a8a 13be 4e82 54be
000000a0: 989e 49bd 0af2 3abe a455 523e 246d 993d
000000b0: 8895 223e d2d6 093e ca26 443e d6dc 22be
000000c0: 4022 6b3e 60d2 d83c dc81 3cbe 30a1 2f3e
000000d0: 5c7b 263e 6839 02be ec62 4dbe 1014 0b3e
000000e0: a60d 69be c819 eebd 50f2 9f3c d8f7 ed3d
000000f0: a047 723e 48bf 6f3d 3054 583e a49b b33d
00000100: 2cf8 a03d 80e2 653b c89e 3b3d 4028 30be
00000110: 5ebe 32be a0de ee3d d01d b93d 10f2 bbbd
00000120: 8c9e f73d 8a58 303e f059 c0bc 9051 b3bd
00000130: aa01 433e 44ef 103e 0493 eb3d a08b 53bc
00000140: 3e6b 6c3e b6d3 2e3e a0f6 d43c 2adf 433e
00000150: 3c54 0abe 3ca9 b33d a66e 2cbe f0ba a43c
00000160: 0851 6b3e b88a 4a3e 86ee 663e 9460 f3bd
00000170: 90ba 8f3c 0878 71bd 502f 29bd 98fb 86bd
00000180: fe1a 7a3e 8407 cfbd 5088 71bd acc8 063e
00000190: 40df 703e 5a93 3d3e 24b6 c23d d43e f63d
000001a0: e0fc ebbc a08c 8abd 0c55 123e 9474 cabd
000001b0: 829e 6dbe 00fd 0c3c 4c51 08be 4015 713e
000001c0: 087a 10bd 1051 a73c f0b2 183d b00e 233d
000001d0: 4e80 02be c0a7 f0bc bcd9 82bd f8c0 a0bd
000001e0: aa4c 61be be12 4cbe a424 93bd aa89 293e
000001f0: 2260 01be d04f 8cbd 2812 74bd 18b8 71be
00000200: 6012 013d 3060 fb3d 2aa4 673e a49b 623e
00000210: 1820 a5bd 9413 bf3d 5a91 5d3e 4c7b bc3d
00000220: 8e5d 683e 9098 06bd a4a1 5e3e 36a0 40be
00000230: f48e b9bd c2ab 44be d49c 563e bc53 b0bd
00000240: 7430 b6bd ce95 23be 46b3 60be 98f7 3bbe
00000250: e423 b3bd be61 4abe dc5b 11be f4b1 1a3e
00000260: 1ab1 323e 009f 5fbb 38e5 9fbd 9c17 7bbe
00000270: 640c 8abd f06d 8b3d a088 7e3c 0836 463d
00000280: 680d b2bd 2224 3e3e 903a 303d b026 18bd
00000290: e69a 4a3e 7ef0 013e b836 303d a8ef 5b3d
000002a0: 34ba 753e 0ca0 ae3d a2cc 55be f2a5 463e
000002b0: 28c9 ad3d 523a 2cbe 5c78 c43d a200 42be
000002c0: 4810 08be 0422 2bbe 08dc 5c3e 7819 023e
000002d0: ec0f dd3d 8082 e4bd d223 0a3e 8ed9 173e
000002e0: 1e4b 633e 340e 603e 2c11 0abe c2d0 18be
000002f0: c8d0 7abe c043 cf3c 4ead 32be 12b1 3bbe
00000300: 981f 59bd 28b1 c2bd 4cb9 0ebe 20df 7a3e
00000310: 9807 663d e248 0ebe 409e f03c f890 1abe
00000320: 86e4 46be 541e f23d 10ee c33d bcc4 283e
00000330: 7084 24be 449b a73d 26e4 76be 1ce8 c93d
00000340: 483b 11bd e8f2 1d3e a8e0 483e b623 0b3e
00000350: 0402 f5bd 1000 acbc 8a26 253e 52b0 4b3e
00000360: 0c19 d83d 3a33 57be a4c4 97bd e8c4 16bd
00000370: 80ba dabd 004c f5bd 681e aebd dc93 07be
00000380: f8d7 3e3e 483d 5ebd 889d 66bd b00b 013e
00000390: fccf 23be f06f 4bbd 94b0 623e e855 163e
000003a0: de3a 63be 304c d2bc 5401 56be 64ed fbbd
000003b0: 1652 553e aa58 5abe 3006 aebc e06f 133c
000003c0: 80fc 57be a079 333e 3697 2d3e 10bc 283d
000003d0: 0040 d8ba 2c01 f63d b427 7abe d2f6 26be
000003e0: bca2 673e e0aa 7abe 8470 853d deb4 69be
000003f0: a82f ddbd 8086 a2bc f437 fabd b038 663e
0.21421123 0.15617615 0.2256059 0.19695473 0.2432442 -0.17423111 -0.092086166 0.14117557
-0.011969268 0.20466137 -0.07347426 0.12167451 0.24070981 -0.24754938 -0.22444227 0.23260501
0.025293767 -0.07977769 -0.21838728 -0.022690415 -0.035814315 0.028211802 0.007451862 -0.13627937
0.012955189 -0.16269699 0.15380651 -0.15124336 -0.23910701 -0.22668862 -0.20278454 0.04071486
-0.10146299 -0.07124576 -0.031076431 -0.14750153 0.22526523 0.10890442 -0.14408317 -0.20752832
-0.049223512 -0.18256393 0.20540482 0.0749152 0.15877354 0.13460854 0.19155422 -0.15904555
0.22962284 0.026467502 -0.18408912 0.17151332 0.16257995 -0.12717211 -0.20057267 0.13581872
-0.22759113 -0.11626011 0.019524723 0.11619538 0.23660135 0.05853203 0.21125865 0.087699205
0.07859835 0.0035077631 0.045805722 -0.17202854 -0.17455432 0.11663556 0.090388894 -0.09177029
0.12090787 0.17221275 -0.023480386 -0.08755791 0.19043604 0.14153773 0.115026504 -0.012911707
0.23087785 0.17072949 0.025996506 0.19128099 -0.13508695 0.08772513 -0.16839084 0.02010867
0.2298013 0.1977948 0.22551927 -0.11883655 0.017545015 -0.05895236 -0.041304886 -0.065909564
0.24424359 -0.10108855 -0.05896789 0.13162488 0.23522663 0.18513241 0.09507397 0.12023702
-0.028807104 -0.06765103 0.14290255 -0.09885517 -0.23204997 0.008605242 -0.13312262 0.23543262
-0.035272628 0.020424396 0.037280023 0.03980893 -0.12744257 -0.029376864 -0.06389186 -0.07849306
-0.22001901 -0.19929025 -0.07184723 0.16556421 -0.12634328 -0.068511605 -0.059587628 -0.23605382
0.031511664 0.12274206 0.22621217 0.22129685 -0.08062762 0.09329906 0.21637478 0.092032045
0.22691938 -0.03286034 0.21741349 -0.18811116 -0.09060469 -0.19206145 0.20958263 -0.08609721
-0.088959605 -0.15975115 -0.21943387 -0.18356168 -0.0874708 -0.19763848 -0.14195198 0.15106946
0.17450371 -0.003412187 -0.07807392 -0.24520725 -0.067406446 0.06808078 0.015535504 0.048391372
-0.08693963 0.18568471 0.0430246 -0.03714627 0.19785652 0.12689397 0.043020934 0.05369535
0.23996812 0.0852662 -0.20878842 0.1939924 0.08485633 -0.16819122 0.09593269 -0.18945554
-0.13287461 -0.16712195 0.2156831 0.12705028 0.107940525 -0.111577034 0.13490227 0.14829084
0.22196624 0.21880418 -0.13483113 -0.14923385 -0.24493706 0.02530086 -0.17448923 -0.18329266
-0.053008646 -0.09506446 -0.13937873 0.24499178 0.056159586 -0.1389499 0.029372334 -0.15094364
-0.19423112 0.11822191 0.09566891 0.16481298 -0.16066146 0.081839114 -0.24110469 0.098587245
-0.035456926 0.15424693 0.1961695 0.13587841 -0.11963275 -0.020996124 0.16127983 0.1989148
0.10551652 -0.21015635 -0.07410553 -0.03680888 -0.10680103 -0.119773865 -0.08501893 -0.13239998
0.18637073 -0.05425766 -0.056302577 0.12602115 -0.15997308 -0.0496673 0.22137672 0.14681208
-0.22190425 -0.025671095 -0.20898944 -0.12301138 0.20832095 -0.21322885 -0.021243185 0.008998841
-0.21092415 0.17526865 0.16952214 0.041194975 -0.0016498566 0.12011942 -0.24429208 -0.16305092
0.22620672 -0.24479246 0.06515601 -0.22822902 -0.10800105 -0.019839525 -0.122177035 0.22482562

encoder.blocks.1.skip.bias f4 [32]
00000000: 5069 16be 1093 efbd 94f6 8d3d 3cc6 f1bd
00000010: f62c 49be ac4e fdbd bc65 4cbe 9045 1a3e
00000020: 805b 163d ee95 25be d017 eabd 208e d7bd
00000030: 106f b8bc fc0d 933d 7841 9bbd c82b 433d
00000040: 04e1 14be 5cdb ac3d 9663 1fbe 48b2 abbd
00000050: 281d d4bd 0ca3 2fbe 6829 403d 80ec eebc
00000060: 44d8 b9bd c8e7 173d 4067 553c 481f af3d
00000070: 3447 ad3d b843 66bd 88fa fcbd 7a89 38be
-0.14688611 -0.11697972 0.06931797 -0.11805388 -0.19646057 -0.12368521 -0.19960684 0.15065598
0.036708355 -0.16170475 -0.11430323 -0.10525155 -0.022513896 0.07180402 -0.075808465 0.047649175
-0.14538962 0.08440277 -0.15565333 -0.08383614 -0.103571236 -0.17152041 0.046914488 -0.029165506
-0.090744525 0.03708628 0.013025105 0.08550888 0.084608465 -0.056216925 -0.123524725 -0.18021193

encoder.blocks.2.conv.0.weight f4 [64, 32, 3, 3]
00000000: 8130 9ebd e969 8dbd ab01 9dbd 96f8 b4bc
00000010: 9c8e b6bd d3bb 7dbd c969 d13c db2d 3abd
00000020: 1b9f 75bd 4cf9 d6bc 6539 a43c 92ac 2a3e
00000030: 6f27 36bb afc0 c53c b182 003e 2ce7 09bc
00000040: 6d85 e83c dab6 f63d 6fa5 913d 5cfa 82bd
00000050: d27e 63bb 08a1 e53c da7b 84bd ade6 e9bd
00000060: da14 da3c 223c c8bd 8888 69bc da2f 8cbd
00000070: 1a9f 163d 6c67 e43d 4774 a53d 6678 0e3e
00000080: 9611 e13a 79bb 0a3e a9e7 db3d 520f 793c
00000090: 5ac0 f5bc af13 0d3d 9789 843c 3f26 29bd
000000a0: 2ac1 033d 8b17 a93d f8ff ae3c 12e5 2f3d
000000b0: dca5 52bc 9e1b 733b e72c 773d e77a cb3c
000000c0: 54b0 be3d 7c22 833c c317 de3c 3963 1d3e
000000d0: bda1 e03c 664e 39bd 0fbc 863c 940e 6fbb
000000e0: f1e0 8f3d 35c8 da3c 2506 8b3d ddd3 02bd
000000f0: d217 8a3d bb1a 873d 3223 bbbd 0958 073d
00000100: 1871 863c a9c3 253d 67c4 0c3d ed71 62bc
00000110: ea3f 783d dd65 ffbc 0aa1 33bd b8b0 273d
00000120: a664 f4bc bd21 d93c 83b5 ce3c 17ff 423d
00000130: 0bb4 e83c 1754 623d 96aa ebbc 6f26 7ebd
00000140: 485c 333a 18fa 2cbd 0b1f c33d 637b 073e
00000150: 5276 a23c 333e 293e d3c9 823d 955f a33d
00000160: 0f41 af3d a94c c83c d39c e43c d0d3 1a3c
00000170: 582e f5bc c8ca a83d dce4 40bd baea 9dbd
00000180: a2ab 43bb c195 4fbc 063e adbc 792d 883c
00000190: d20a ae3d eacb 0f3e 0048 013e 7b3d e03d
000001a0: 8118 033d 97b0 263e 210f 163e 747a c73c
000001b0: d54f 36bd 985c d3bc fc55 12be 6193 873c
000001c0: d7d2 88bc 776b 98bd 07c6 b5bd bb83 f0bd
000001d0: 71c3 a2bd 5e3d e8b7 6ae4 b83c 81f6 a73d
000001e0: 9055 87bd 2ccd 143e 7710 ec3d d776 893b
000001f0: abee 763d e4db 963d 9eea 633c 6622 86bd
00000200: 22e3 f1bd f260 c7bc b21d ddbc 6905 e7bd
00000210: 527c 0a3d abab 423d ced7 d1bd 4716 0e3d
00000220: a3e3 8d3d 30f1 fb3c 5fa2 173d 1c9a e13c
00000230: fdc5 873d ecf0 793d 7c63 94bd 6f1e 4f3d
00000240: 3ed6 c3bc b097 af3d d4ae 653d b6b7 d63d
00000250: 3ab0 463d 7db5 67bc c910 263e e32a 103c
00000260: f46e 6cbe 574e 033d 5ead 3ebd 968a 5a3d
00000270: 9e0d 3b3c 0df3 85bd 9da3 6a3d 188b bd3c
00000280: 3d9e 3fbd a780 5d3d 89ea 66bd bc83 9ebc
00000290: b6e7 0dbe b45c ccbc 6af3 97bb 690e debd
000002a0: bf76 9e3c bdb5 4dba 382b 30bd de15 cc3d
000002b0: 345e 5b3d 610f d4ba 58cd c13d 4da4 9c3d
000002c0: 8557 b63c a812 0f3d 3bae e7bc b354 47bd
000002d0: bb2c 873d ae4e 923d c7ed 8fbc 3ac5 a73d
000002e0: 3fe7 543d 8522 6a3d eeda c73d 40d6 0fbd
000002f0: b321 3639 bae6 90bc e30c 8cbd 22fc febd
00000300: f92e 7cbd 1b83 ecbd 1cb4 8dbd cf5f 9fbd
00000310: f72c 4cbd 0caa 17be ed48 55bd 033d ae3d
00000320: edc2 023d cc17 4c3d 3064 c93c a6cd 79bd
00000330: 8787 e33d c630 f8bc 1b8f 673c b140 b93a
00000340: 1cc7 41bb ac7e 00bd b47e 313c 19a8 893c
00000350: afd0 533d d506 43bd f8bf 16bd e417 173d
00000360: fb88 0bbd 2b02 413e 504d 533d cff7 fe3c
00000370: 22b6 d93d 4d03 193d 8120 903d 58a4 cb3d
00000380: 74c1 9ebd 5e88 bebd b21f a8bd 0602 2bbd
00000390: 9154 15bd 6655 c4bb d5ca b0bd 3cd0 01bd
000003a0: 7c3f f7bb 3897 45bd 9ff6 a33c ce9d 853c
000003b0: 8358 e7bd a539 2bbd 0e22 c53c b89a 17bd
000003c0: 468b 8e3c bbeb 18bd ed59 b4bd 6915 30bd
000003d0: 32d6 a13d c3cf 203c a61d ae3d 4bca 763c
000003e0: b480 78bd 95cf 843d a68a 873d 2ff9 a1bd
000003f0: 9733 debd f969 733c 663e e7bd f940 2fbc
-0.07724095 -0.069049664 -0.07666334 -0.022091191 -0.08913919 -0.0619467 0.025563138 -0.045453887
-0.059966188 -0.02624192 0.0200469 0.16667393 -0.00277945 0.02413973 0.12549855 -0.008416932
0.028383935 0.12046595 0.07111632 -0.063954085 -0.0034713042 0.028030887 -0.06468935 -0.11420951
0.02662127 -0.097770944 -0.014253743 -0.068450645 0.036772825 0.11152539 0.08078819 0.13913116
0.0017171379 0.13548078 0.10737545 0.015201407 -0.029998947 0.0344426 0.01617889 -0.04129624
0.032166637 0.082564436 0.02136229 0.042943068 -0.012856927 0.0037095319 0.060345557 0.024838878
0.09310976 0.016007654 0.02711094 0.15369882 0.027420873 -0.045240782 0.016447095 -0.0036477195
0.07025326 0.026706794 0.06788281 -0.03194033 0.067428246 0.06596895 -0.09137572 0.03304294
0.01641135 0.0404698 0.03436699 -0.013821107 0.06060783 -0.031176502 -0.04385475 0.040940017
-0.02983315 0.026505345 0.025233036 0.047606554 0.028406164 0.055255976 -0.028767865 -0.062048372
0.0006842059 -0.042230695 0.09527405 0.13230662 0.01983181 0.16527633 0.06386151 0.07977215
0.08557331 0.024450617 0.02790681 0.009449914 -0.029929325 0.082418025 -0.047093257 -0.07710786
-0.002985694 -0.012669981 -0.02114774 0.016623246 0.084981576 0.14042631 0.12625122 0.109492265
0.03200579 0.16278301 0.14654209 0.024350382 -0.044509728 -0.025800988 -0.14290613 0.016549768
-0.016702099 -0.07442372 -0.08875661 -0.117438756 -0.07947434 -2.7685131e-05 0.022569854 0.08201314
-0.066081166 0.14531392 0.11526578 0.004195075 0.060286205 0.073661596 0.013910918 -0.0654953
-0.118109 -0.02433822 -0.026991699 -0.11280329 0.033809967 0.047526997 -0.102462396 0.034689214
0.06928184 0.030754656 0.037020084 0.027539305 0.0662956 0.061020777 -0.07245538 0.050566133
-0.02390587 0.08573854 0.056074932 0.10484259 0.048507906 -0.014142391 0.1621734 0.0087992875
-0.230892 0.032057133 -0.046552055 0.053354822 0.011416821 -0.06540499 0.05728494 0.023137614
-0.046781767 0.05407777 -0.056376014 -0.019349925 -0.13857922 -0.024946548 -0.0046371715 -0.10842592
0.019343732 -0.00078472105 -0.043009967 0.09965108 0.053556636 -0.00161789 0.09462994 0.076485254
0.02225853 0.0349299 -0.028281322 -0.04866476 0.066003285 0.07143913 -0.017569436 0.08191915
0.051978346 0.057161827 0.097585544 -0.035116434 0.00017369426 -0.017688144 -0.068383954 -0.12450434
-0.061568234 -0.11548444 -0.06919119 -0.07781946 -0.04984757 -0.14810961 -0.0520715 0.08507731
0.031924177 0.049827382 0.024583906 -0.060987137 0.11109834 -0.030296694 0.01413324 0.001413366
-0.0029568141 -0.031370804 0.010833431 0.016803788 0.051712688 -0.047613937 -0.03680417 0.03688802
-0.03406618 0.18848483 0.051587403 0.031124024 0.10630442 0.037356663 0.0703745 0.099434555
-0.07751742 -0.09303354 -0.082091704 -0.041749977 -0.036457602 -0.0059916256 -0.08632437 -0.03169273
-0.0075454097 -0.048239917 0.020015059 0.016310599 -0.11296179 -0.04180302 0.02406409 -0.037012786
0.017400395 -0.037334185 -0.088062145 -0.04298917 0.07902183 0.009815159 0.08501749 0.015062879
-0.060669616 0.06484906 0.06618242 -0.07908856 -0.10849684 0.014856809 -0.112911984 -0.010696643

encoder.blocks.2.conv.0.bias f4 [64]
00000000: 378b 11bd ffd7 8d3d efcc c3bc 3067 51bb
00000010: d9eb 8fbd ca51 be3c 17f5 633c bd93 483c
00000020: 55da 873d be49 993c dc71 bcbc eb3f 5d3b
00000030: dce0 96bd 615b d93b 8ed3 813c 3817 f8bc
00000040: ad55 a43c 02a5 973c 5804 75bd c8ef e63c
00000050: a9af a7bc 5cff 663b 7550 c9bc 8725 91bc
00000060: 90a7 c23c fb7e 59bd dd08 7fbc 3e5c e8bc
00000070: 1932 133d 87fb 913c 6820 f13c e62b cebb
00000080: 1103 1c3d 841f 8ebc a22b 943d b451 f33b
00000090: 042c fbba 5c2e fa3c 0ddb b9bb cb9d dc3a
000000a0: 2618 bf3c e4f6 c03c c21e acbd 8deb 82bc
000000b0: f9e0 903d c8a4 823d 6415 b0bd 74be c43c
000000c0: 095f c4bd dbfa 053d c981 893d 0e81 f63c
000000d0: 690b f03c 37f9 0dbc fea8 9b3d 1a33 60bd
000000e0: f358 5ebc 25f6 203d 0262 dd3c 6268 2d3d
000000f0: 7e55 c83b fbbe c2ba 301f 70bd 72f8 3b3d
-0.035533156 0.069259636 -0.02390143 -0.0031952374 -0.07027406 0.02323236 0.013913414 0.012242255
0.066334404 0.01871192 -0.023003511 0.0033760022 -0.07367107 0.0066332077 0.015847947 -0.030284509
0.020060385 0.018511299 -0.059818596 0.028190508 -0.020469503 0.003524742 -0.024574498 -0.01771809
0.02376154 -0.053099614 -0.015566078 -0.028364297 0.03593645 0.017820133 0.029434398 -0.006291854
0.03808886 -0.017349012 0.07234885 0.0074255113 -0.0019162898 0.030539684 -0.005671865 0.0016831694
0.023326945 0.023555227 -0.08404304 -0.01598146 0.0707416 0.06379086 -0.0859783 0.024016596
-0.09588439 0.032709938 0.06714208 0.030090835 0.029302316 -0.0086653745 0.07600592 -0.054736234
-0.013571012 0.03929724 0.027024273 0.042335875 0.006113707 -0.0014857942 -0.058623493 0.045891233
