toyshapes/pinets_soft/model_34.pth (torch, 466881 bytes, 71 tensors)

encoder.blocks.0.conv.0.weight f4 [16, 1, 3, 3]
0.26504537 -0.35712802 0.18387228 -0.086812794 0.17700216 -0.24384548 -0.26094288 0.12578622
0.023183553 0.31775078 -0.038013674 0.14846276 -0.29883784 0.15654056 0.035367284 -0.100716665
-0.013624916 -0.3490832 -0.0801788 -0.12655316 -0.020490991 -0.014993803 -0.32635012 -0.15622175
0.07954871 -0.27530226 0.343032 -0.14952241 0.17142199 0.3959845 0.112379745 -0.096576326
0.116128005 -0.19099604 -0.22871362 -0.2265587 -0.16338776 -0.20222689 -0.09320087 -0.07542991
0.2857795 -0.019388791 0.29906815 -0.002470238 -0.023306286 -0.041086517 0.056091163 -0.10039375
0.24285358 0.017315812 0.19535626 -0.057433438 0.39073512 -0.21220925 -0.28703555 0.25094348
-0.010232068 0.25119916 -0.22717597 -0.062942654 0.09385266 -0.22495663 0.08711806 0.04777707
0.055660974 -0.14524168 -0.043132793 -0.3492493 -0.21068673 -0.094341174 0.3407914 -0.037985504
-0.23388319 0.3127105 -0.13090737 -0.34247655 -0.060554776 -0.10696277 -0.19372022 0.09669218
-0.10555548 -0.042724606 0.22486764 -0.24832158 -0.2673571 0.22430527 0.10317178 0.2985249
-0.16279063 -0.11804163 0.21794267 -0.19611497 0.2121679 0.050885122 -0.17013341 -0.012369427
-0.18358712 0.36583632 -0.21785806 0.049977478 -0.33219823 0.15533668 0.10160893 -0.19707252
0.2201815 -0.07564924 -0.21775766 0.16276468 0.16691048 -0.32543662 0.027592443 -0.10656148
0.30110982 -0.121275224 0.17418711 -0.319749 -0.16109782 -0.19840963 0.16300918 0.09557994
-0.025459776 -0.12718296 0.27535355 -0.09744578 0.19424823 0.22132517 -0.06512071 -0.07443735
0.22460075 0.22888602 -0.016969526 0.44790605 0.23072629 0.057561234 0.18354665 0.18679713
0.24459372 -0.09634081 0.18127893 -0.06876929 -0.40979052 0.14911042 -0.19835722 -0.37235898
00000000: 07b4 873e 7cd9 b6be 0449 3c3e e8ca b1bd
00000010: 0e40 353e a1b2 79be 4e9a 85be 1ace 003e
00000020: 6feb bd3c 3bb0 a23e 3ab4 1bbd 9f06 183e
00000030: 4601 99be 2b4c 203e 49dd 103d 8a44 cebd
00000040: 0a3b 5fbc 08bb b2be c834 a4bd 2797 01be
00000050: b9dc a7bc 91a8 75bc 5d17 a7be 98f8 1fbe
00000060: 6fea a23d 6bf4 8cbe e4a1 af3e 671c 19be
00000070: 3f89 2f3e 7bbe ca3e 5a27 e63d cfc9 c5bd
00000080: 85d4 ed3d 7794 43be e733 6abe 01ff 67be
00000090: 1f4f 27be 9114 4fbe 19e0 bebd ff7a 9abd
000000a0: b151 923e 3ed5 9ebc 761f 993e b7e3 21bb
000000b0: d3ec bebc 564a 28bd d9bf 653d 3d9b cdbd
000000c0: 9cae 783e e4d9 8d3c 790b 483e 533f 6bbd
000000d0: 6f0e c83e 624d 59be 53f6 92be aa7b 803e
000000e0: 67a4 27bc 2d9d 803e d1a0 68be 14e8 80bd
000000f0: d335 c03d 085b 66be f46a b23d e4b1 433d
00000100: c3fc 633d 3cba 14be 03ac 30bd ced0 b2be
00000110: 43be 57be f235 c1bd 367c ae3e b096 1bbd
00000120: 137f 6fbe 971b a03e 950c 06be 1659 afbe
00000130: 4908 78bd 4c0f dbbd 985e 46be 8d06 c63d
00000140: 792d d8bd ffff 2ebd b443 663e 0348 7ebe
00000150: 08e3 88be 48b0 653e ba4b d33d 41d8 983e
00000160: 96b2 26be cfbf f1bd 5d2c 5f3e 5dd2 48be
00000170: 8b42 593e eb6c 503d 7437 2ebe 23a9 4abc
00000180: 43fe 3bbe e64e bb3e 2f16 5fbe 2fb5 4c3d
00000190: e315 aabe 9410 1f3e 5818 d03d 61cd 49be
000001a0: 4277 613e fded 9abd ddfb 5ebe c9ab 263e
000001b0: 95ea 2a3e a19f a6be 8c09 e23c e83c dabd
000001c0: 112b 9a3e 255f f8bd 1b5e 323e 24b6 a3be
000001d0: d4f6 24be e52b 4bbe e1eb 263e 6abf c33d
000001e0: 0591 d0bc 403c 02be 24fb 8c3e a791 c7bd
000001f0: 02e9 463e 11a3 623e 025e 85bd 9c72 98bd
00000200: bdfd 653e 1961 6a3e ad03 8bbc f153 e53e
00000210: 8343 6c3e 54c5 6b3d a7f3 3b3e bf47 3f3e
00000220: c776 7a3e 554e c5bd 2fa1 393e ead6 8cbd
00000230: 10d0 d1be 67b0 183e 281e 4bbe d6a5 bebe

encoder.blocks.0.conv.0.bias f4 [16]
0.03198088 -0.018841134 0.124353945 0.08049569 -0.1726371 0.05593908 0.061427727 0.34144312
-0.07476345 -0.1970079 0.01652532 0.1705654 -0.24920912 0.21105379 0.2907553 0.087559685
00000000: 62fe 023d b958 9abc 48ad fe3d edda a43d
00000010: c8c7 30be 6020 653d a49b 7b3d a2d1 ae3e
00000020: 941d 99bd 70bc 49be 1c60 873c b2a8 2e3e
00000030: ad30 7fbe 7c1e 583e e1dd 943e 7e52 b33d

encoder.blocks.0.conv.1.weight f4 [16]
1.206278 0.98139054 0.89466107 1.0290138 0.87235105 0.8578882 1.3277457 0.8741029
0.9225812 1.0203995 1.0840244 0.92108184 0.8611912 0.8562957 0.89014494 0.93088186
00000000: 5167 9a3f 693c 7b3f 8208 653f b9b6 833f
00000010: 6652 5f3f 909e 5b3f 92f3 a93f 35c5 5f3f
00000020: 482e 6c3f 739c 823f 50c1 8a3f 05cc 6b3f
00000030: 0777 5c3f 3236 5b3f 8ae0 633f 464e 6e3f

encoder.blocks.0.conv.1.bias f4 [16]
0.24351273 -0.06600634 0.03572533 -0.012653242 -0.049674857 -0.0963767 -0.040511906 0.022102565
0.0030324857 0.012965281 0.22106813 -0.08604852 0.01790482 -0.039353777 -0.079418145 -0.042330526
00000000: 675b 793e 552e 87bd b954 123d 8b4f 4fbc
00000010: dd77 4bbd 2661 c5bd d0ef 25bd 7010 b53c
00000020: abbc 463b 546c 543c af5f 623e 353a b0bd
00000030: 21ad 923c 6d31 21bd fba5 a2bd c662 2dbd

encoder.blocks.0.conv.1.running_mean f4 [16]
-0.056287196 -0.08596965 -0.1614364 0.0312382 -0.16311707 0.29962912 -0.005217237 0.12683001
-0.4416989 -0.19105494 0.058076974 0.10543594 -0.42511716 0.46332943 0.88235635 -0.09800771
00000000: 678d 66bd db10 b0bd 954f 25be 41e7 ff3c
00000010: 2908 27be fd68 993e 5bf5 aabb badf 013e
00000020: 5c26 e2be e8a3 43be 1fe2 6d3d ccee d73d
00000030: f5a8 d9be 8439 ed3e 1be2 613f 44b8 c8bd

encoder.blocks.0.conv.1.running_var f4 [16]
0.0021385623 0.005157658 0.016600423 0.008044692 0.0033879126 0.011739783 0.001394815 0.009944549
0.026479833 0.0011929726 0.001361641 0.004321384 0.0074120965 0.015616757 0.06214293 0.019202167
00000000: 1f27 0c3b 9201 a93b 9cfd 873c e2cd 033c
00000010: be07 5e3b 3858 403c 3ad2 b63a 76ee 223c
00000020: 3cec d83c 855d 9c3a 1779 b23a 659a 8d3b
00000030: 2ce1 f23b 6ddd 7f3c 9689 7e3d dd4d 9d3c

encoder.blocks.0.conv.3.weight f4 [16, 16, 3, 3]
-0.029297352 0.004109702 -0.10166897 -0.109497845 -0.10015959 0.008054341 0.014117239 -0.08630301
-0.11114046 -0.1800071 -0.04396762 -0.05626463 -0.22179353 -0.19714701 -0.1568452 -0.13465302
-0.07509927 -0.082833424 0.024948027 0.023740612 0.008713725 0.041996557 -0.010536852 0.0073968093
0.09826422 -0.041889522 0.04286088 -0.062523656 -0.1394346 0.097767696 -0.055656396 -0.07500848
-0.05452096 -0.03344088 -0.10975394 0.024495708 -0.02981757 0.0027004804 -0.1249876 0.011634524
-0.054353252 -0.07790208 0.0141223995 -0.06275115 -0.12677956 -0.14912033 -0.15793218 -0.08739335
-0.008444963 -0.03954384 0.027524687 -0.15340106 0.019938275 0.023307344 -0.05564722 -0.14990765
-0.047156617 -0.13730627 -0.13707392 -0.032098755 -0.14056832 -0.024006436 0.071936816 -0.04152672
0.028335014 0.021961965 0.09598152 0.031349204 -0.07091026 -0.014231898 -0.03888802 -0.080057785
0.12263074 0.06704132 0.071013816 0.04410287 0.077210166 -0.004560757 -0.001099758 0.017723024
0.013162603 0.07273678 -0.03189279 -0.009016773 -0.019425647 0.026179707 -0.017765617 -0.021993691
0.07246265 -0.016496109 -0.124050364 -0.12964194 0.01355829 -0.109267 -0.14749041 -0.041611418
-0.20112471 -0.12452656 -0.16003491 -0.012057387 -0.03104405 -0.0074371267 -0.05360713 -0.05959444
0.10264734 -0.049270414 -0.07989683 0.024655914 0.070614375 -0.06517943 -0.07565392 0.0026714916
0.058547612 -0.05899427 -0.0040650363 -0.029795473 -0.09391078 0.06478534 -0.013930486 0.06988647
0.035786297 -0.053755566 -0.031908225 0.040538367 -0.044040013 -0.03145814 -0.049542572 -0.10945286
-0.06336253 -0.0043797903 -0.031101175 -0.04223188 -0.1114259 -0.08740841 -0.0043622805 -0.068938896
-0.06953054 -0.18777119 -0.055915516 -0.0672428 -0.109744325 -0.08158135 -0.066598244 -0.02845329
-0.015212574 -0.0332966 0.1542409 -0.05098227 0.08191314 0.021998817 0.0431907 0.0145701645
0.08983123 0.044118233 0.08393002 0.06774535 0.023224222 0.095634975 0.06089413 0.04032269
-0.031816494 0.00642099 -0.019019745 -0.017597012 0.04238523 -0.008795918 0.038787033 -0.066054456
0.018745787 0.01178247 0.06398392 0.047497556 0.10804672 0.014584095 0.13347426 0.029382419
-0.0057726507 0.13643888 0.06303282 0.06777895 0.038888376 -0.026387906 0.10407345 0.053061847
0.0018859131 -0.028132282 0.06651975 -0.0059880945 -0.0051625636 -0.023545943 0.09584692 0.0051317383
0.11702274 0.12545092 0.063220225 0.020468816 0.0825609 0.107377864 -0.009172871 0.014041359
-0.078119 0.020417623 0.11347609 0.010272864 0.07823828 0.033461817 -0.08554691 -0.055361677
-0.03570258 0.033984106 -0.029922921 0.024291495 -0.0032789991 -0.014540355 0.012761126 -0.079853736
0.014508253 0.030006632 -0.06362542 -0.03594289 0.060723864 0.037056107 0.07683714 0.019983348
0.06456958 0.077031665 0.009453663 0.102115594 0.14012775 -0.025455307 0.07200154 0.093738355
0.07388346 -0.03627161 0.012040803 0.061126735 0.04604441 0.056333434 0.046195507 -0.055495128
-0.023184912 -0.04448054 0.080141865 0.030005418 -0.035492703 -0.10480616 -0.026308814 0.08677147
0.061076473 0.058928903 -0.008732847 0.016145675 -0.013080314 -0.07229787 0.06550115 0.107639045
00000000: 0001 f0bc aeaa 863b d237 d0bd 6840 e0bd
00000010: 7920 cdbd 5bf6 033c fe4b 673c a2bf b0bd
00000020: 9c9d e3bd c853 38be 6417 34bd be75 66bd
00000030: d81d 63be e8e0 49be 079c 20be 7be2 09be
00000040: a5cd 99bd 92a4 a9bd ce5f cc3c ac7b c23c
00000050: 03c4 0e3c 9504 2c3d c3a2 2cbc ef60 f23b
00000060: c03e c93d 5994 2bbd e48e 2f3d 670c 80bd
00000070: f2c7 0ebe 6e3a c83d f6f7 63bd 0c9e 99bd
00000080: 5f51 5fbd 4ef9 08bd acc6 e0bd 39ab c83c
00000090: fa43 f4bc 8bfa 303b 80f9 ffbd bb9e 3e3c
000000a0: 84a1 5ebd 208b 9fbd a361 673c ad83 80bd
000000b0: 80d2 01be 00b3 18be f9b8 21be 49fb b2bd
000000c0: be5c 0abc b9f8 21bd 747b e13c 2b15 1dbe
000000d0: 9855 a33c 0bef be3c 57ee 63bd 6481 19be
000000e0: 4c27 41bd 049a 0cbe 1b5d 0cbe fc79 03bd
000000f0: 24f1 0fbe 25a9 c4bc 9c53 933d ec17 2abd
00000100: d51e e83c 94e9 b33c f691 c43d 0668 003d
00000110: 6639 91bd e82c 69bc 0b49 1fbd 56f5 a3bd
00000120: d325 fb3d f64c 893d b16f 913d 36a5 343d
00000130: 5d20 9e3d 6772 95bb c125 90ba e02f 913c
00000140: f5a7 573c 05f7 943d 04a2 02bd 16bb 13bc
00000150: 8922 9fbc d376 d63c 3389 91bc 1d2c b4bc
00000160: 4c67 943d d922 87bc 1e0e febd dbc0 04be
00000170: 9723 5e3c 60c7 dfbd ba07 17be bc70 2abd
00000180: a3f3 4dbe c807 ffbd 31e0 23be 598c 45bc
00000190: 1750 febc 24b3 f3bb 2693 5bbd 4d19 74bd
000001a0: c538 d23d c6cf 49bd f3a0 a3bd 33fb c93c
000001b0: 459e 903d cb7c 85bd 71f0 9abd 3114 2f3b
000001c0: 9fcf 6f3d faa3 71bd ff33 85bb a315 f4bc
000001d0: 4c54 c0bd 2dae 843d b13c 64bc a320 8f3d
000001e0: a794 123d cc2e 5cbd 33b2 02bd 8f0b 263d
000001f0: 4d63 34bd 40da 00bd 27ed 4abd d228 e0bd
00000200: 37c4 81bd 5884 8fbb e4c7 febc 56fb 2cbd
00000210: 4333 e4bd 2e03 b3bd 76f1 8ebb d62f 8dbd
00000220: 0766 8ebd 1747 40be ab07 65bd 98b6 89bd
00000230: a2c1 e0bd 1f14 a7bd a964 88bd e016 e9bc
00000240: 293e 79bc 0462 08bd 54f1 1d3e c9d2 50bd
00000250: 14c2 a73d dd36 b43c bbe8 303d b3b7 6e3c
00000260: 70f9 b73d 52b5 343d 81e3 ab3d 13be 8a3d
00000270: b940 be3c 45dc c33d 206c 793d 6829 253d
00000280: 0352 02bd 2b67 d23b 4ccf 9bbc 9c27 90bc
00000290: 239c 2d3d c11c 10bc 27df 1e3d 8f47 87bd
000002a0: c490 993c 430b 413c 000a 833d cc8c 423d
000002b0: 9947 dd3d 21f2 6e3c 7aad 083e 66b3 f03c
000002c0: 8128 bdbb a2b6 0b3e 5a17 813d b1cf 8a3d
000002d0: 6b49 1f3d 732b d8bc 7624 d53d 6157 593d
000002e0: be30 f73a ac75 e6bc 823b 883d c737 c4bb
000002f0: b92a a9bb 6ce3 c0bc 644b c43d 2428 a83b
00000300: 9ea9 ef3d 3576 003e 9b79 813d 38ae a73c
00000310: b015 a93d ede8 db3d cf49 16bc ba0d 663c
00000320: dbfc 9fbd dc42 a73c 2766 e83d 844f 283c
00000330: 643b a03d 420f 093d 3833 afbd edc2 62bd
00000340: de3c 12bd eb32 0b3d ea20 f5bc f5fe c63c
00000350: 7ae4 56bb ab3a 6ebc 0b14 513c 5b8a a3bd
00000360: 06b4 6d3c 78d0 f53c 0b4e 82bd da38 13bd
00000370: 96b9 783d 25c8 173d ca5c 9d3d 1eb4 a33c
00000380: 0e3d 843d c7c2 9d3d 89e3 1a3c fb21 d13d
00000390: a67d 0f3e a687 d0bc 8b75 933d e5f9 bf3d
000003a0: 3650 973d 8a91 14bd ca46 453c 0760 7a3d
000003b0: 1099 3c3d e3bd 663d 8037 3d3d dc4e 63bd
000003c0: 49ee bdbc 3a31 36bd 6b21 a43d eccd f53c
000003d0: cc60 11bd 9da4 d6bd 9585 d7bc 3eb5 b13d
000003e0: 532b 7a3d 6f5f 713d 3714 0fbc ef43 843c
000003f0: d04e 56bc e810 94bd 7825 863d dc71 dc3d

encoder.blocks.0.conv.3.bias f4 [16]
0.08357024 -0.014236441 0.093233295 0.08540184 0.00863779 0.09256121 0.059887897 0.05644958
-0.14044836 0.06686251 -0.089944795 -0.12701674 0.067860134 0.10044371 -0.10593894 -0.023831356
00000000: e026 ab3d f63f 69bc 19f1 be3d 29e7 ae3d
00000010: 8485 0d3c bb90 bd3d 034d 753d ad37 673d
00000020: b2d1 0fbe 36ef 883d fa34 b8bd ad10 02be
00000030: 41fa 8a3d 6fb5 cd3d 84f6 d8bd fa39 c3bc

encoder.blocks.0.conv.4.weight f4 [16]
0.9583432 1.0607057 1.0362257 0.9381796 1.0308245 0.87159693 0.9882157 0.97498137
1.0750697 0.90858877 1.1889517 0.9747757 1.1849023 0.8697679 0.85329956 0.9383492
00000000: fb55 753f 34c5 873f 0ba3 843f 8a2c 703f
00000010: 0ff2 833f fa20 5f3f b4fb 7c3f 6198 793f
00000020: e29b 893f 4699 683f 922f 983f e68a 793f
00000030: e1aa 973f 1ca9 5e3f d771 5a3f a737 703f

encoder.blocks.0.conv.4.bias f4 [16]
0.02562809 -0.107867405 -0.11106466 -0.040528167 -0.054618698 -0.10729771 -0.020844368 -0.05602084
-0.1817645 -0.10571358 -0.15540427 -0.16357042 -0.093050525 -0.08437825 -0.112111025 0.031050235
00000000: 00f2 d13c 96e9 dcbd de75 e3bd dd00 26bd
00000010: dbb7 5fbd e7be dbbd cfc1 aabc 1c76 65bd
00000020: 7920 3abe 5d80 d8bd 4c22 1fbe 017f 27be
00000030: 4691 bebd 81ce acbd 779a e5bd 105d fe3c

encoder.blocks.0.conv.4.running_mean f4 [16]
-1.8823996 1.3311175 -0.37351608 0.8811096 0.28305933 0.5653198 -0.655123 -0.028704744
-0.44634172 -1.1000372 -0.1470018 0.121615954 -0.40651572 0.9650484 0.6783615 -0.56826687
00000000: 78f2 f0bf 0f62 aa3f 803d bfbe 6690 613f
00000010: 27ed 903e ccb8 103f 24b6 27bf 3626 ebbc
00000020: e786 e4be 05ce 8cbf a487 16be c911 f93d
00000030: d422 d0be 690d 773f 19a9 2d3f f079 11bf

encoder.blocks.0.conv.4.running_var f4 [16]
2.148147 0.9418066 1.2171632 2.2869148 0.34915078 0.75309175 0.49984387 0.92025954
0.44352907 0.7754833 1.1460216 0.8185376 0.68939817 0.9915008 0.6242149 1.0965837
00000000: 3e7b 0940 3d1a 713f 01cc 9b3f d05c 1240
00000010: e4c3 b23e 9fca 403f 89eb ff3e 2196 6b3f
00000020: 3e16 e33e 1386 463f d6b0 923f ae8b 513f
00000030: 667c 303f ffd2 7d3f 8ccc 1f3f db5c 8c3f

encoder.blocks.0.skip.weight f4 [16, 1, 1, 1]
-0.47563946 -0.3932191 0.9981531 -0.5468955 0.20153093 -0.14913309 -0.9525374 -0.72632504
-0.30917013 -0.40680528 0.9257834 -0.7649878 -0.55680823 0.8298485 -0.45809507 -0.8557559
00000000: 0487 f3be 0454 c9be f686 7f3f 5801 0cbf
00000010: 205e 4e3e 58b6 18be 7ed9 73bf 70f0 39bf
00000020: 8c4b 9ebe c848 d0be 2400 6d3f 3ed6 43bf
00000030: fc8a 0ebf f470 543f 708b eabe d212 5bbf

encoder.blocks.0.skip.bias f4 [16]
-0.29028428 -0.92285645 0.67017317 0.5953846 0.7246072 -0.52787256 0.4902506 0.79367995
0.8455744 -0.34845376 0.21344972 0.39990234 -0.7449448 -0.7649598 0.52950287 0.52127814
00000000: 24a0 94be 5240 6cbf 7890 2b3f 206b 183f
00000010: dc7f 393f a822 07bf 2002 fb3e 9c2e 4b3f
00000020: 9077 583f 8868 b2be 9092 5a3e 00c0 cc3e
00000030: b4b4 3ebf 68d4 43bf 808d 073f 7c72 053f

encoder.blocks.1.conv.0.weight f4 [32, 16, 3, 3]
0.021294286 -0.06337662 -0.07206558 0.040633693 -0.016969994 0.014783049 -0.04208568 -0.052057404
0.09664869 0.058315307 -0.05215375 0.030785235 -0.009156736 -0.008441207 -0.027071599 0.09398085
0.05865126 0.13084337 -0.012461427 0.066050865 -0.03398186 0.0840804 0.12812766 0.009364618
0.09718158 0.12044591 0.029100915 -0.0073867897 -0.098932885 -0.022224357 -0.067016214 0.050442338
-0.026391665 0.056749806 0.053435534 0.0025062535 -0.0691138 0.036069833 -0.014202207 -0.057765555
0.019801525 0.0032731234 -0.025271736 -0.052892055 -0.02147818 -0.08113861 0.07451066 0.067196354
-0.027826905 0.0772793 0.025715953 0.040391404 0.060871836 0.083602674 -0.014307419 0.057193875
-0.034677655 -0.01815922 -0.03259107 -0.08511638 -0.018570047 0.09293519 0.048481632 -0.10296095
0.012205814 -0.055224076 0.045388862 0.06347625 -0.068654396 -0.060008593 0.1029947 -0.055969983
0.13597974 0.12534146 -0.018765306 0.12811013 0.15457396 -0.033419877 0.10941637 0.13216937
-0.021116644 0.105129994 0.05129954 0.009460033 0.11481616 0.020322809 0.13848922 -0.033647668
0.13419926 0.0011596984 0.07829337 -0.0047704247 -0.00757508 0.06510946 0.012626603 -0.016575232
0.20021378 0.0237388 0.04062214 -0.051331785 -0.017446594 0.0017880113 -0.0019674036 0.0283448
-0.07277703 0.06981445 -0.022958718 0.08246251 0.043285634 0.08286592 -0.025924504 0.113912165
-0.017322266 -0.02065057 0.058404803 0.12721233 -0.057654787 -0.007030597 0.090477124 -0.031488217
-0.061393574 0.016204953 0.06460949 0.044845577 -0.024009487 0.02918766 -0.1057709 -0.024541454
0.017763996 -0.09770647 0.0046916944 -0.07697545 0.064125665 -0.014159898 -0.06806174 0.055048566
0.12825288 0.036536776 0.074586794 0.19777805 0.08145845 0.03076881 0.042784993 0.0674524
-0.014875262 0.05675216 0.06779263 0.13355264 0.0845717 0.074631706 -0.023171928 0.066959485
0.089785255 0.102930576 0.15267958 0.028754042 0.22304974 0.10404344 0.09038367 0.23946793
-0.01223998 0.13223884 -0.11510682 0.037662875 -0.05500675 0.05181225 -0.040240414 -0.019545188
-0.029454662 -0.016402679 0.017641816 0.0012433022 0.004090143 -0.024537668 0.031355757 -0.105853684
-0.08133534 0.023182841 -0.06893068 -0.06018697 0.08907504 0.0711079 0.023461014 0.084931634
0.05473494 -0.024000382 0.022197697 0.0954185 0.013747799 0.090677954 0.05027404 0.011814507
0.00984489 -0.06732819 -0.020310052 0.053126346 -0.074490264 0.059826978 -0.10692932 -0.01889214
-0.059970528 -0.024524605 -0.1148481 -0.02660173 -0.02483686 -0.0997269 -0.05391552 0.022700941
0.021345228 0.120885454 0.09794628 0.08025119 0.0022790527 0.08114048 0.03692929 0.06835703
0.05046562 0.03195494 0.009252647 0.13277738 0.10233011 0.030093314 0.09241077 0.048727047
0.077274166 0.04770134 0.1218326 0.013066242 0.072870925 -0.0066790297 0.0402725 0.042681813
0.056255143 -0.04650547 -0.106257185 -0.0059778644 -0.040642392 -0.006882182 -0.13990833 -0.078451134
-0.011963759 -0.04110504 0.0007036225 0.07539163 0.06145336 0.073420376 0.08535484 0.016524542
-0.10390547 0.0008459788 0.021875061 0.082214266 -0.027623748 -0.013082931 0.070552215 0.086637795
00000000: 5b71 ae3c 9acb 81bd 1e97 93bd 846f 263d
00000010: a804 8bbc 9a34 723c 0962 2cbd 253a 55bd
00000020: c0ef c53d 08dc 6e3d 2c9f 55bd 5131 fc3c
00000030: 2206 16bc fd4c 0abc 42c5 ddbc 0879 c03d
00000040: 4e3c 703d cefb 053e 032b 4cbc ad45 873d
00000050: 9030 0bbd 5832 ac3d e633 033e 0e6e 193c
00000060: 2307 c73d 58ac f63d 0b65 ee3c e20c f2bb
00000070: 539d cabd db0f b6bc cc3f 89bd a09c 4e3d
00000080: 5533 d8bc 7c72 683d 38df 5a3d f53f 243b
00000090: 898b 8dbd f6bd 133d 60b0 68bc 939b 6cbd
000000a0: cf36 a23c e681 563b ac06 cfbc 57a5 58bd
000000b0: 02f3 afbc 002c a6bd 0b99 983d 3e9e 893d
000000c0: 40f5 e3bc 9c44 9e3d 43aa d23c 7571 253d
000000d0: bf54 793d e137 ab3d aa69 6abc 2044 6a3d
000000e0: 280a 0ebd a5c2 94bc 377e 05bd 7f51 aebd
000000f0: 3620 98bc ce54 be3d ad94 463d 31dd d2bd
00000100: e5fa 473c a432 62bd ace9 393d d6ff 813d
00000110: ad9a 8cbd 92cb 75bd e3ee d23d c840 65bd
00000120: 463e 0b3e 8359 003e b3b9 99bc 4d2f 033e
00000130: a348 1e3e 48e3 08bd b115 e03d 6857 073e
00000140: d0fc acbc 654e d73d 771f 523d 41fe 1a3c
00000150: bc24 eb3d 057c a63c 1ed0 0d3e 23d2 09bd
00000160: 886b 093e 0501 983a 4658 a03d 3951 9cbb
00000170: 6038 f8bb 1c58 853d d0df 4e3c c8c8 87bc
00000180: d704 4d3e df77 c23c 6763 263d 4741 52bd
00000190: 29ec 8ebc b45b ea3a 8eef 00bb 5b33 e83c
000001a0: 200c 95bd e1fa 8e3d ec13 bcbc 1be2 a83d
000001b0: 474c 313d 9cb5 a93d a05f d4bc c84a e93d
000001c0: 6de7 8dbc 622b a9bc e039 6f3d f343 023e
000001d0: 6d27 6cbd ec60 e6bb 124c b93d caf9 00bd
000001e0: d477 7bbd 40c0 843c fb51 843d ffaf 373d
000001f0: 8baf c4bc f61a ef3c 6a9e d8bd 290b c9bc
00000200: cd85 913c 541a c8bd c9bc 993b 4ea5 9dbd
00000210: 5154 833d ebfe 67bc f463 8bbd 9b7a 613d
00000220: b954 033e 96a7 153d f6c0 983d 5486 4a3e
00000230: b0d3 a63d df0e fc3c 513f 2f3d 7c24 8a3d
00000240: 5fb7 73bc f474 683d ddd6 8a3d 06c2 083e
00000250: ed33 ad3d 82d8 983d 0ed3 bdbc 0e22 893d
00000260: 55e1 b73d 44cd d23d 0958 1c3e 998d eb3c
00000270: 2767 643e ba14 d53d 131b b93d 1537 753e
00000280: 328a 48bc 9e69 073e 20bd ebbd 6344 1a3d
00000290: c24e 61bd 1539 543d 22d3 24bd 3b1d a0bc
000002a0: e74a f1bc e95e 86bc 9285 903c 4df6 a23a
000002b0: 9b06 863b 3803 c9bc e56e 003d d1c9 d8bd
000002c0: 2593 a6bd f1e9 bd3c 872b 8dbd 9d86 76bd
000002d0: f96c b63d 05a1 913d 5031 c03c a3f0 ad3d
000002e0: bf31 603d 739c c4bc f2d7 b53c c66a c33d
000002f0: 733e 613c 5db5 b93d 27ec 4d3d a291 413c
00000300: 764c 213c 5de3 89bd 4461 a6bc 039b 593d
00000310: 5a8e 98bd 220d 753d c2fd dabd b0c3 9abc
00000320: a8a3 75bd d3e7 c8bc 7b35 ebbd dfeb d9bc
00000330: ac76 cbbc 9e3d ccbd 85d6 5cbd 53f7 b93c
00000340: 30dc ae3c cb92 f73d 0f98 c83d bc5a a43d
00000350: 295c 153b fb2c a63d 2b43 173d c5fe 8b3d
00000360: 0ab5 4e3d 2fe3 023d 6a98 173c cbf6 073e
00000370: 7392 d13d 4186 f63c dc41 bd3d 0396 473d
00000380: eb41 9e3d 7b62 433d 5f83 f93d cb13 563c
00000390: 5a3d 953d c3db dabb c7f4 243d 20d3 2e3d
000003a0: cb6b 663d 857c 3ebd 5e9d d9bd f6e1 c3bb
000003b0: a378 26bd ed83 e1bb 2144 0fbe fdaa a0bd
000003c0: a403 44bc c25d 28bd 4f73 383a ed66 9a3d
000003d0: 85b6 7b3d 6c5d 963d 85ce ae3d 7a5e 873c
000003e0: 64cc d4bd adc4 5d3a 5433 b33c f45f a83d
000003f0: 334b e2bc ca59 56bc ae7d 903d 286f b13d

encoder.blocks.1.conv.0.bias f4 [32]
0.015142589 -0.037000496 -0.011321332 0.051148426 0.0818787 0.009667617 -0.051960055 -0.109457895
0.046489533 0.038478736 0.04311773 0.033891115 -0.12257088 -0.014968635 -0.025493167 -0.0137202805
-0.13845378 0.07849526 0.05778594 0.095597915 0.0657331 0.015307041 0.07212136 -0.09411524
-0.0657636 0.014913081 -0.09095386 -0.047716964 0.0040789885 -0.031752884 0.07493756 0.0061438037
00000000: 9f18 783c d58d 17bd 1c7d 39bc 0381 513d
00000010: 05b0 a73d ed64 1e3c 11d4 54bd 762b e0bd
00000020: cf6b 3e3d e19b 1d3d 389c 303d 69d1 0a3d
00000030: 7106 fbbd 013f 75bc 0cd7 d0bc 07cb 60bc
00000040: d4c6 0dbe 1fc2 a03d f3b0 6c3d d7c8 c33d
00000050: 139f 863d 62ca 7a3c 5db4 933d 7ebf c0bd
00000060: 11af 86bd ff55 743c 0446 babd dd72 43bd
00000070: 09a9 853b 500f 02bd dd78 993d f651 c93b

encoder.blocks.1.conv.1.weight f4 [32]
1.0207231 0.95889723 0.9865631 1.0051833 1.003864 0.96920437 0.9580154 0.96305233
0.975169 1.2057697 0.89560616 1.1077614 0.9408408 1.0320864 0.9287753 0.94749266
1.0366411 0.89867145 1.0214292 1.1539378 0.9363494 0.94352084 0.8785362 0.9604615
0.98967427 0.98916 1.0898881 0.94307286 0.9388493 0.99983585 1.0170252 0.94704646
00000000: 0ea7 823f 4a7a 753f 668f 7c3f d9a9 803f
00000010: 9e7e 803f c71d 783f 7f40 753f 998a 763f
00000020: ada4 793f a956 9a3f 7246 653f 20cb 8d3f
00000030: f1da 703f 681b 843f 38c4 6d3f e18e 723f
00000040: a8b0 843f 550f 663f 31be 823f 3cb4 933f
00000050: 98b4 6f3f 958a 713f c0e7 603f cee0 753f
00000060: 4b5b 7d3f 9739 7d3f 7481 8b3f 396d 713f
00000070: 6d58 703f 3ef5 7f3f e22d 823f a371 723f

encoder.blocks.1.conv.1.bias f4 [32]
-0.1809982 -0.12708156 -0.17661442 -0.005871301 -0.20975752 -0.1321564 -0.020254822 -0.12966678
-0.20067352 -0.11144731 -0.14816111 -0.15564966 -0.029319016 0.01793224 -0.03395412 -0.11861048
-0.14423978 -0.07617983 -0.19046304 -0.06535255 -0.04084557 -0.14010441 -0.0685018 -0.19501288
-0.16198654 -0.060300224 -0.028928736 -0.20103243 -0.25687584 -0.1406255 0.0232201 -0.16816267
00000000: 9857 39be ab21 02be 69da 34be 0b64 c0bb
00000010: adca 56be 0254 07be 71ed a5bc 5ec7 04be
00000020: 5c7d 4dbe 7d3e e4bd 8cb7 17be a062 1fbe
00000030: 6f2e f0bc a2e6 923c 7a13 0bbd 0dea f2bd
00000040: 98b3 13be 2c04 9cbd be08 43be 8fd7 85bd
00000050: af4d 27bd 8877 0fbe ac4a 8cbd 75b1 47be
00000060: cddf 25be 5efd 76bd f5fb ecbc 72db 4dbe
00000070: 3b85 83be 2200 10be 1438 be3c d632 2cbe

encoder.blocks.1.conv.1.running_mean f4 [32]
1.5664418 0.4797148 0.52427155 -2.4943867 0.7957486 -1.4952984 -1.2266676 -0.024375182
1.8774785 0.019555964 1.9130926 1.0563593 1.1405311 -2.0368426 1.6860777 0.70714647
1.5145198 1.9347652 1.2358633 0.30965894 -1.8628972 0.40667298 -1.5491647 -0.010938621
0.17100273 1.0003703 0.05111235 1.5629467 1.5451349 -0.5445397 -2.5261285 0.5805344
00000000: 2a81 c83f 2e9d f53e a936 063f 08a4 1fc0
00000010: 2eb6 4b3f f065 bfbf 7203 9dbf 76ae c7bc
00000020: 3751 f03f d433 a03c 38e0 f43f c836 873f
00000030: ecfc 913f a15b 02c0 65d1 d73f 8d07 353f
00000040: c9db c13f 63a6 f73f c530 9e3f 9e8b 9e3e
00000050: 6a73 eebf 7137 d03e 074b c6bf e737 33bc
00000060: 571b 2f3e 220c 803f 2f5b 513d a30e c83f
00000070: fbc6 c53f f466 0bbf 17ac 21c0 e79d 143f

encoder.blocks.1.conv.1.running_var f4 [32]
1.4712642 1.4719872 0.67310274 5.6637516 0.8929544 2.127893 2.7508764 1.2872088
1.819088 1.4641491 2.5636163 2.1145158 2.2235372 3.3826377 3.1531873 1.0796251
1.9074425 4.0544796 1.3179293 1.3191321 2.7846308 0.7508122 3.270491 0.89196485
1.3218132 0.9952591 1.3465927 1.8809986 1.0686196 1.2433593 4.50636 1.1406525
00000000: 6352 bc3f 146a bc3f 7650 2c3f 743d b540
00000010: a998 643f 662f 0840 5c0e 3040 42c3 a43f
00000020: e0d7 e83f 3d69 bb3f 4a12 2440 3a54 0740
00000030: 6f4e 0e40 237d 5840 d2cd 4940 2831 8a3f
00000040: 1327 f43f 4cbe 8140 e8b1 a83f 52d9 a83f
00000050: 6437 3240 3a35 403f b94f 5140 cf57 643f
00000060: 2d31 a93f 4dc9 7e3f 265d ac3f 90c4 f03f
00000070: 87c8 883f 6626 9f3f 1a34 9040 e700 923f

encoder.blocks.1.conv.3.weight f4 [32, 32, 3, 3]
0.021630388 -0.010233462 0.036677923 -0.08175539 -0.009756407 -0.062102597 -0.014398914 -0.030202946
-0.08094323 -0.027403314 0.029784063 -0.0585295 -0.011877887 0.01181155 -0.11065087 -0.068081364
-0.013198565 -0.09286369 0.14026132 0.018302174 -0.038578562 -0.015529487 -0.043410424 -0.041555118
2.1318738e-05 -0.02216659 0.013209079 0.10500752 0.12169312 0.07237774 -0.022935713 0.012766386
0.033042513 0.04724585 0.033463657 0.09980911 0.15919432 -0.019035134 -0.011346888 0.0735553
-0.079143375 -0.0045937956 0.018443275 -0.018984007 -0.011128694 0.034366284 0.022162765 -0.006973034
0.032902215 -0.036548857 0.026800375 0.011019513 0.079376645 0.123180576 -0.038560502 0.028964758
0.0016824846 0.051461164 -0.07169204 0.058909032 0.008453238 -0.078306 -0.03332736 0.14867659
-0.038310014 -0.09126709 0.10142412 0.014039697 -0.12803908 0.13149776 0.118607216 -0.06529458
0.10631653 -0.012421741 0.02124113 0.01900887 -0.042881325 -0.1126165 0.104768015 -0.0642155
-0.015127301 0.022743085 0.0639197 0.028373089 -0.050310433 -0.024297152 -0.04616689 0.008860624
0.100635216 0.10696865 0.039026115 0.03473604 0.0041771973 -0.027273038 -0.04429107 -0.033083748
5.5611938e-05 0.02292582 0.0015320006 -0.0023043768 -0.031778917 0.04371231 0.004458186 -0.11688771
-0.043199643 0.013617102 0.018691251 -0.025115648 -0.0034240007 0.017904645 -0.027737463 0.03606249
0.053280376 0.08363574 0.080326214 -0.0015207293 0.0020442868 0.10182356 0.11376157 0.055817205
0.089633614 0.12488951 0.06387092 0.038408723 0.05329146 0.09772678 0.04814887 -0.10736472
0.019271856 0.009379299 -0.028052952 -0.062308963 -0.018900935 -0.12080507 -0.022300128 -0.061987508
0.017773196 -0.048595272 -0.092564225 0.009507182 -0.07372013 0.01901218 0.04647831 -0.034093402
0.07589161 0.04472047 -0.070554525 0.011151851 -0.047284313 -0.08703335 0.03200635 0.01594061
0.017810278 0.037366513 -0.01601598 0.0847648 0.08298177 0.0012890495 0.009074271 0.002219977
0.04604233 0.046577483 0.021406163 -0.0048777205 -0.06308064 -0.12889285 -0.158156 -0.113150634
-0.029603971 -0.015091915 -0.038456406 0.18641599 0.010651976 -0.027336134 0.07642716 0.0015971003
-0.036343556 0.040476035 -0.015840083 -0.0332661 0.12913539 0.053895067 0.018747862 0.05337466
0.035385087 0.076782994 0.10210752 0.030925227 0.08809335 0.106505394 -0.07955698 -0.06201749
0.0974871 0.023285994 -0.09804454 0.063131936 -0.0016583459 -0.028480353 0.033708412 -0.0013419655
0.12187992 -0.07210274 -0.01653633 -0.036416765 -0.045805898 -0.08128369 -0.014407285 0.08484731
-0.03969935 -0.012130016 0.0453231 -0.027690036 -0.050625008 -0.00627114 -0.029042523 -0.07509988
0.11174663 0.11520318 0.03428132 0.10374997 0.09328723 -0.02971218 0.09384615 0.098488905
0.05862987 -0.007920451 -0.009892205 -0.12350798 -0.05085934 -0.027882667 -0.09750599 0.00036657215
-0.044234775 -0.10508014 0.2592229 0.08011531 0.0052431794 0.14030896 0.015134122 0.032432858
0.10725833 0.024321899 0.007257158 0.13166209 0.035453614 0.03317002 0.064331554 0.014396574
-0.05749759 0.09366851 0.05809937 -0.07959297 0.08669677 0.017567521 0.009096 0.002150749
00000000: 3632 b13c 40aa 27bc 973b 163d 5f6f a7bd
00000010: 56d9 1fbc 4b5f 7ebd 6ce9 6bbc 2b6c f7bc
00000020: 90c5 a5bd ea7c e0bc b5fd f33c a1bc 6fbd
00000030: 789b 42bc 3b85 413c ec9c e2bd 3e6e 8bbd
00000040: cb3e 58bc 512f bebd aaa0 0f3e 71ee 953c
00000050: 8e04 1ebd 646f 7ebc 21cf 31bd b335 2abd
00000060: a4d5 b237 b596 b5bc e56a 583c 2f0e d73d
00000070: 3e3a f93d c83a 943d ade3 bbbc 1b2a 513c
00000080: 9657 073d dd84 413d 3011 093d b868 cc3d
00000090: d603 233e 92ef 9bbc 4ce8 39bc 29a4 963d
000000a0: ec15 a2bd 8d87 96bb 5a16 973c 5984 9bbc
000000b0: 2055 36bc a9c3 0c3d b08e b53c 0c7e e4bb
000000c0: 79c4 063d 41b4 15bd 768c db3c 308b 343c
000000d0: 3990 a23d 1946 fc3d 9ef1 1dbd 8047 ed3c
000000e0: d186 dc3a f1c8 523d 47d3 92bd 994a 713d
000000f0: 737f 0a3c e55e a0bd 4582 08bd ad3e 183e
00000100: f6ea 1cbd 3dea babd 73b7 cf3d c206 663c
00000110: ad1c 03be 59a7 063e 57e8 f23d 2ab9 85bd
00000120: 7bbc d93d 8f84 4bbc e101 ae3c 7db8 9b3c
00000130: 54a4 2fbd 7ba3 e6bd 9d90 d63d 6b83 83bd
00000140: 80d8 77bc b54f ba3c 55e8 823d ae6e e83c
00000150: 5012 4ebd d20a c7bc 7e19 3dbd 272c 113c
00000160: d619 ce3d 6112 db3d d9d9 1f3d 6147 0e3d
00000170: dfe0 883b b56b dfbc 8e6a 35bd d382 07bd
00000180: dd40 6938 eece bb3c 69cd c83a 0705 17bb
00000190: 9c2a 02bd ae0b 333d fa15 923b d362 efbd
000001a0: 1cf2 30bd 441a 5f3c 651e 993c 55bf cdbc
000001b0: 3365 60bb c3ac 923c ad39 e3bc 43b6 133d
000001c0: 863c 5a3d 3749 ab3d 1282 a43d 3553 c7ba
000001d0: 71f9 053b df88 d03d d3fb e83d 95a0 643d
000001e0: d491 b73d 12c6 ff3d c2ce 823d 7752 1d3d
000001f0: 2548 5a3d fa24 c83d c037 453d 09e2 dbbd
00000200: 03e0 9d3c a2ab 193c 4ecf e5bc af37 7fbd
00000210: 22d6 9abc a668 f7bd c2ae b6bc 9de6 7dbd
00000220: 1899 913c d60b 47bd 5092 bdbd 03c4 1b3c
00000230: 94fa 96bd 6ebf 9b3c 0a60 3e3d 86a5 0bbd
00000240: 0f6d 9b3d d02c 373d e47e 90bd 41b6 363c
00000250: 32ad 41bd 8a3e b2bd 1719 033d e295 823c
00000260: dce6 913c a10d 193d f233 83bc 2b99 ad3d
00000270: 59f2 a93d 53f5 a83a 40ac 143c 097d 113b
00000280: e296 3c3d 08c8 3e3d fa5b af3c 49d5 9fbb
00000290: 6c30 81bd 7dfc 03be a5f3 21be 85bb e7bd
000002a0: 0784 f2bc 1444 77bc 7784 1dbd d5e3 3e3e
000002b0: a085 2e3c 07f0 dfbc d885 9c3d cb55 d13a
000002c0: fbdc 14bd 33ca 253d 10c3 81bc 0942 08bd
000002d0: 113c 043e 13c1 5c3d 1e95 993c 639f 5a3d
000002e0: f4ef 103d 6740 9d3d bf1d d13d e756 fd3c
000002f0: 496a b43d 801f da3d c5ee a2bd 0d06 7ebd
00000300: 51a7 c73d 45c2 be3c 93cb c8bd 514b 813d
00000310: db5c d9ba a14f e9bc d511 0a3d e4e4 afba
00000320: 2e9c f93d 9aaa 93bd 3377 87bc bf29 15bd
00000330: f79e 3bbd 1078 a6bd 880c 6cbc 6dc4 ad3d
00000340: c99b 22bd fabc 46bc b7a4 393d 37d6 e2bc
00000350: 2b5c 4fbd 237e cdbb 96ea edbc f7cd 99bd
00000360: 6bdb e43d a5ef eb3d 926a 0c3d dd7a d43d
00000370: 600d bf3d f566 f3bc 6932 c03d 8db4 c93d
00000380: e025 703d c8c4 01bc ea12 22bc c0f1 fcbd
00000390: e251 50bd 316a e4bc 38b1 c7bd 7b30 c039
000003a0: 862f 35bd 4234 d7bd ddb8 843e 7f13 a43d
000003b0: face ab3b 27ad 0f3e 1cf5 773c 51d8 043d
000003c0: 41aa db3d b83e c73c 74cd ed3b 6dd2 063e
000003d0: cf37 113d 49dd 073d 43c0 833d 9cdf 6b3c
000003e0: 9882 6bbd 47d5 bf3d 9bf9 6d3d a401 a3bd
000003f0: 138e b13d c3e9 8f3c 6407 153c 95f3 0c3b

encoder.blocks.1.conv.3.bias f4 [32]
0.032585572 -0.04403392 0.021780206 -0.105046704 -0.04367847 0.07003837 -0.07040519 0.03265688
0.013698721 0.013173031 -0.01184209 0.044069313 -0.04789873 -0.09044335 -0.04473974 -0.071198955
-0.007091926 -0.019500464 -0.042931866 -0.018103689 -0.057319935 -0.11896974 -0.07343509 -0.07471436
0.057505026 -0.12800284 -0.032179933 0.0031339284 -0.10898149 -0.069900975 -0.06884013 -0.029485948
00000000: 7378 053d e95c 34bd 676c b23c ba22 d7bd
00000010: 32e8 32bd 4770 8f3d 9930 90bd 38c3 053d
00000020: 9a70 603c b2d3 573c 5305 42bc 0682 343d
00000030: 7531 44bd 5d3a b9bd 0541 37bd c2d0 91bd
00000040: 6363 e8bb 70bf 9fbc 53d9 2fbd 304e 94bc
00000050: 4fc8 6abd 68a6 f3bd 2365 96bd d803 99bd
00000060: 648a 6b3d 2d13 03be 1bcf 03bd 9862 4d3b
00000070: b031 dfbd 3e28 8fbd 0efc 8cbd 848c f1bc

encoder.blocks.1.conv.4.weight f4 [32]
0.9650629 1.0546396 0.9337507 1.01355 0.91203064 0.87684566 0.9557847 0.97456634
1.063486 1.0667235 0.88324535 0.8771489 0.96987665 0.9368402 0.89039034 0.9620421
0.97501355 1.0515754 0.91825134 0.9341733 0.8919509 1.1215411 1.1067026 1.0993494
1.0982862 0.9941015 1.0284182 1.0314876 1.0731487 0.98762757 1.0575445 0.98767895
00000000: 5d0e 773f 6efe 863f 490a 6f3f 02bc 813f
00000010: d77a 693f f578 603f 4eae 743f 2e7d 793f
00000020: 4f20 883f 658a 883f 5e1c 623f d58c 603f
00000030: d649 783f c2d4 6f3f 9ff0 633f 6448 763f
00000040: 7d9a 793f 069a 863f 8512 6b3f fb25 6f3f
00000050: e556 643f a98e 8f3f 6ea8 8d3f 7bb7 8c3f
00000060: a494 8c3f 707d 7e3f 35a3 833f c907 843f
00000070: f05c 893f 29d5 7c3f 9e5d 873f 87d8 7c3f

encoder.blocks.1.conv.4.bias f4 [32]
-0.18716848 -0.2875187 -0.12358682 -0.10232248 -0.16294171 -0.13653763 -0.068762116 -0.12923342
-0.20161985 -0.07531256 -0.18900837 -0.27952108 -0.25741005 -0.07068194 -0.080257416 -0.17534545
-0.2865558 -0.1479061 -0.062350824 -0.17964561 -0.016005844 -0.23463914 -0.25929096 -0.14106269
-0.16255318 -0.0584767 -0.086081006 -0.079135716 -0.20852606 -0.25804988 -0.121161096 0.0072626965
00000000: 18a9 3fbe a735 93be 161b fdbd 738e d1bd
00000010: 31da 26be 85d0 0bbe 27d3 8cbd c455 04be
00000020: 6f75 4ebe 793d 9abd 698b 41be 631d 8fbe
00000030: 40cb 83be b1c1 90bd 005e a4bd c28d 33be
00000040: 71b7 92be b274 17be 9463 7fbd 05f5 37be
00000050: b01e 83bc 3e45 70be c9c1 84be bd72 10be
00000060: 5774 26be 4485 6fbd 3d4b b0bd e811 a2bd
00000070: db87 55be 1d1f 84be 4f23 f8bd eafb ed3b

encoder.blocks.1.conv.4.running_mean f4 [32]
1.2978474 3.1631632 0.054844886 0.019858932 0.87232256 0.26759398 -0.82382995 1.1514742
1.284976 1.0884477 0.8602108 3.632827 2.1396358 1.1997517 0.5874553 2.204514
2.797134 3.968173 -1.8250223 -0.09460985 0.6732728 0.9598306 1.0432161 2.0785913
0.6413133 -0.7639858 1.335293 1.4172834 1.382121 3.2114189 3.8580308 -0.8236801
00000000: dd1f a63f 4471 4a40 08a5 603d 33af a23c
00000010: 8850 5f3f 1402 893e 85e6 52bf 8263 933f
00000020: 187a a43f 4152 8b3f c636 5c3f 3d80 6840
00000030: cbef 0840 7791 993f 7863 163f c216 0d40
00000040: 3e04 3340 8cf6 7d40 559a e9bf cfc2 c1bd
00000050: 9b5b 2c3f 75b7 753f 1b88 853f a407 0540
00000060: 1c2d 243f 9394 43bf e2ea aa3f 8b69 b53f
00000070: 57e9 b03f e387 4d40 fae9 7640 b3dc 52bf

encoder.blocks.1.conv.4.running_var f4 [32]
3.5509183 5.549654 2.2346485 3.435519 2.5215 1.3035879 2.284598 3.0467086
4.0830836 4.647041 2.7611043 11.988003 2.9973505 4.27959 3.683274 5.654462
3.0961173 6.061403 9.744484 2.5916724 7.628044 3.7373137 3.1386726 9.223727
3.7813303 1.9487818 2.8399816 2.9561603 4.077702 5.1354165 10.077797 3.8720324
00000000: 3f42 6340 c496 b140 7b04 0f40 8bdf 5b40
00000010: 4260 2140 f8db a63f db36 1240 46fd 4240
00000020: 9fa8 8240 8fb4 9440 efb5 3040 dcce 3f41
00000030: 97d4 3f40 67f2 8840 c3ba 6b40 5af1 b440
00000040: c926 4640 03f7 c140 68e9 1b41 f6dd 2540
00000050: f018 f440 2630 6f40 03e0 4840 6394 1341
00000060: 5101 7240 af71 f93f 42c2 3540 bb31 3d40
00000070: 897c 8240 5555 a440 a83e 2141 61cf 7740

encoder.blocks.1.skip.weight f4 [32, 16, 1, 1]
0.12681511 -0.18668592 -0.19232178 0.113601446 -0.152343 0.020911068 0.0053736567 -0.2088786
-0.12676397 -0.09383726 -0.025066942 -0.07275793 -0.13232154 0.12596267 0.0522891 -0.16356197
-0.12252182 0.05943218 0.043895036 0.03151828 -0.15197131 0.044608623 -0.10264492 0.15364584
-0.083909005 0.12559345 -0.15404886 0.07023573 0.24350256 0.14661506 -0.14451179 -0.024595141
0.18723199 0.03944567 -0.0934937 -0.19431537 0.046178192 -0.035117477 0.081834584 -0.011642218
-0.05629751 0.17891595 -0.1215747 0.021272063 -0.081970274 -0.10785189 -0.04786858 0.044251144
-0.18104085 -0.0021200478 0.23152953 -0.21324176 0.04549101 -0.060805768 0.18062386 0.027934134
0.20851403 0.06185764 0.051567852 -0.19617802 0.0172939 0.17405307 0.007669151 -0.061050057
0.20262188 -0.08136752 0.041837245 -0.038600117 -0.13576335 -0.14166573 0.13786998 -0.23473507
0.21291143 -0.007363856 -0.09810603 -0.033848435 0.13745558 0.13890615 -0.16159487 0.1484702
-0.044142336 0.18094775 0.18634951 -0.019722998 0.078766465 0.17648166 0.004677236 -0.123161614
-0.10961351 -0.124869674 -0.22111183 -0.17518088 0.1252676 -0.13783851 -0.21855092 -0.029640526
0.24042514 -0.077932656 -0.017580688 -0.18612117 -0.0857304 0.14346492 0.13190076 -0.052370608
-0.24183032 -0.07739031 -0.06186554 0.038804173 -0.14518863 -0.09700188 0.2353563 -0.027075887
-0.15801165 0.19825464 -0.17404237 0.006655544 0.009706855 -0.060504705 -0.19561231 -0.03885138
-0.1100232 0.02315858 0.24359116 0.1502124 -0.208462 0.20838886 -0.04986921 0.09382668
-0.21773362 0.01993969 0.076198846 -0.1980659 -0.15482321 -0.092303455 0.14905086 0.1431174
-0.11335352 -0.19116515 0.115807235 -0.102339715 0.009610981 0.13610864 0.044610232 -0.044751436
-0.19086537 0.17203057 -0.19207174 -0.11915088 -0.20847172 0.20719692 -0.056147218 0.1728712
0.028599799 0.19822177 -0.14505142 0.06427717 -0.012207001 0.09694433 0.10917559 -0.17803809
0.008169442 0.07360008 -0.12104532 0.1730909 0.039723516 -0.06899285 0.024582118 0.03878644
-0.119024426 -0.012665361 0.017876953 0.2118924 -0.05669126 -0.2012245 -0.11464423 0.07319039
-0.07367331 -0.10625729 0.23550263 0.15866783 0.10126796 0.23026377 0.08605942 -0.09264201
-0.060964763 -0.1866309 -0.016731441 -0.0351623 -0.021131128 0.079006225 0.19617817 0.09251109
0.1591551 -0.1089589 0.13657162 -0.24852744 0.09805152 -0.138075 -0.19905847 0.23691115
-0.120699674 0.18228552 -0.08539915 -0.0031743646 0.0023563504 -0.10467774 0.13349146 -0.21040043
-0.21488217 -0.13676673 -0.16601628 -0.1362358 0.054997742 -0.029364854 -0.18190756 -0.05145201
0.037201792 0.24129814 -0.0058710873 0.030990005 0.20740324 -0.20193538 -0.13080803 0.16880023
-0.16355357 -0.16530207 -0.075075865 0.17080572 0.18754405 -0.11523035 0.22395912 -0.13633123
-0.08308634 -0.24910495 -0.06310189 -0.15086204 -0.01730311 0.042499363 -0.027470082 0.16747347
-0.15276986 0.21454617 0.23661491 -0.053657502 0.20216435 -0.04731503 -0.085561395 0.09711403
0.095760494 0.115222245 0.110072285 0.038135976 0.1140354 -0.20928866 -0.07521221 -0.08986503
00000000: d2db 013e 982a 3fbe 00f0 44be e0a7 e83d
00000010: ceff 1bbe b04d ab3c 8015 b03b 46e4 55be
00000020: 6ace 01be c02d c0bd 3059 cdbc 1c02 95bd
00000030: 4c7f 07be 5cfc 003e 182d 563d ca7c 27be
00000040: b8ec fabd 286f 733d 48cb 333d 5019 013d
00000050: 5e9e 1bbe 88b7 363d 8037 d2bd 5655 1d3e
00000060: 7cd8 abbd 929b 003e fcbe 1dbe c0d7 8f3d
00000070: bc58 793e 4222 163e e6fa 13be c07b c9bc
00000080: beb9 3f3e c891 213d a079 bfbd 9cfa 46be
00000090: 5825 3d3d 58d7 0fbd e498 a73d 00bf 3ebc
000000a0: 3898 66bd be35 373e 28fc f8bd c042 ae3c
000000b0: 08e0 a7bd 74e1 dcbd d811 44bd b040 353d
000000c0: c662 39be 80f0 0abb 1416 6d3e 0c5c 5abe
000000d0: c854 3a3d 780f 79bd 76f5 383e 20d6 e43c
000000e0: b484 553e 705e 7d3d d038 533d e4e2 48be
000000f0: f0ab 8d3c f83a 323e 804d fb3b a00f 7abd
00000100: 1c7c 4f3e 04a4 a6bd 885d 2b3d 281b 1ebd
00000110: 8c05 0bbe d210 11be ca2d 0d3e 645e 70be
00000120: 7405 5a3e 804c f1bb d0eb c8bd a8a4 0abd
00000130: 28c1 0c3e 6a3d 0e3e 2079 25be 9208 183e
00000140: 98ce 34bd 5e4a 393e 68d2 3e3e 2092 a1bc
00000150: 5050 a13d 9cb7 343e 8043 993b 283c fcbd
00000160: 0c7d e0bd acbb ffbd 246b 62be 9e62 33be
00000170: 2646 003e 8a25 0dbe d0cb 5fbe b0d0 f2bc
00000180: 0232 763e 289b 9fbd 6005 90bc 8c96 3ebe
00000190: 6c93 afbd 78e8 123e fe10 073e 9082 56bd
000001a0: 5ea2 77be d07e 9ebd b866 7dbd 20f1 1e3d
000001b0: 54ac 14be eca8 c6bd 3e01 713e 40ce ddbc
000001c0: cecd 21be 4403 4b3e 2a38 32be c016 da3b
000001d0: 8009 1f3c c8d3 77bd 984e 48be a022 1fbd
000001e0: d853 e1bd 10b7 bd3c f66f 793e 48d1 193e
000001f0: 1077 55be e463 553e a843 4cbd 3428 c03d
00000200: 90f5 5ebe 9058 a33c 240e 9c3d cad1 4abe
00000210: fa89 1ebe 9809 bdbd caa0 183e 5e8d 123e
00000220: e425 e8bd ccc0 43be 582c ed3d 7c97 d1bd
00000230: 6077 1d3c 1060 0b3e 38b9 363d 484d 37bd
00000240: 3672 43be c828 303e 74ae 44be 6005 f4bd
00000250: 9c79 55be 6e2b 543e a0fa 65bd 2605 313e
00000260: 204a ea3c a6fa 4a3e 5c88 14be c0a3 833d
00000270: e0ff 47bc c08a c63d 7497 df3d 9e4f 36be
00000280: 20d9 053c a4bb 963d 9ce6 f7bd be3e 313e
00000290: 20b5 223d 204c 8dbd 7060 c93c 88de 1e3d
000002a0: 14c3 f3bd 6082 4fbc b072 923c 52fa 583e
000002b0: 1835 68bd cc0d 4ebe 98ca eabd d8e4 953d
000002c0: 08e2 96bd 6c9d d9bd 9a27 713e d279 223e
000002d0: 9465 cf3d 44ca 6b3e ec3f b03d 18bb bdbd
000002e0: 30b6 79bd 2c1c 3fbe 6010 89bc 5806 10bd
000002f0: 301b adbc 04ce a13d eee2 483e 7476 bd3d
00000300: 8ef9 223e d825 dfbd 6ed9 0b3e fa7d 7ebe
00000310: 3ccf c83d 8863 0dbe fcd5 4bbe d698 723e
00000320: 6431 f7bd 0ea9 3a3e c0e5 aebd 0009 50bb
00000330: 006d 1a3b 4861 d6bd fcb1 083e 3673 57be
00000340: 120a 5cbe 940c 0cbe 2c00 2abe 6681 0bbe
00000350: 5045 613d 908e f0bc fa45 3abe 58bf 52bd
00000360: e860 183d dc16 773e 4062 c0bb c0de fd3c
00000370: 8461 543e 26c8 4ebe 8af2 05be f8d9 2c3e
00000380: 967a 27be f244 29be 60c1 99bd b2e7 2e3e
00000390: 8c0b 403e e4fd ebbd 8a55 653e 6a9a 0bbe
000003a0: 2c29 aabd 5e15 7fbe 903b 81bd 947b 1abe
000003b0: 40bf 8dbc d013 2e3d f008 e1bc 2a7e 2b3e
000003c0: b46f 1cbe feb1 5b3e 2e4b 723e f8c7 5bbd
000003d0: 2c04 4f3e 68cd 41bd d03a afbd b8e3 c63d
000003e0: 141e c43d a4f9 eb3d 946d e13d 7834 1c3d
000003f0: 648b e93d c44f 56be dc08 9abd 280b b8bd

encoder.blocks.1.skip.bias f4 [32]
-0.175706 -0.06947744 -0.19031766 -0.16171008 0.19106776 0.033135712 -0.021728456 -0.043575406
-0.18916598 -0.097922474 0.036906213 -0.13805866 0.22065565 0.061362207 -0.026929915 -0.08240992
0.18108511 -0.24081317 0.06489122 0.13016328 -0.03350094 -0.15825406 -0.009254217 -0.014690101
-0.14828247 -0.06782642 -0.023654252 -0.17150813 0.030996233 -0.22934666 -0.021336406 -0.19008145
00000000: 46ec 33be 304a 8ebd a2e2 42be 5497 25be
00000010: 44a7 433e 50b9 073d e0ff b1bc 207c 32bd
00000020: bab4 41be 948b c8bd f82a 173d 405f 0dbe
00000030: 8ef3 613e f056 7b3d 209c dcbc 88c6 a8bd
00000040: 606e 393e ba97 76be b0e5 843d 8649 053e
00000050: 4838 09bd 5a0d 22be 009f 17bc c0ae 70bc
00000060: 5cd7 17be 94e8 8abd 90c6 c1bc d49f 2fbe
00000070: d0eb fd3c dad9 6abe b0c9 aebc b6a4 42be

encoder.blocks.2.conv.0.weight f4 [64, 32, 3, 3]
-0.14431533 -0.07187151 -0.063124 -0.05497349 -0.039812468 -0.055393957 -0.041128427 -0.018337185
-0.0075483928 0.037789967 0.124561936 0.048626933 0.12098606 0.12167665 0.050133888 -0.04664768
0.01560653 0.03186005 0.08037015 0.1317321 0.012125464 0.10287615 0.13608451 -0.023217084
0.017076164 0.015068474 0.018396111 0.04850207 0.12813349 0.035207305 0.055828307 0.07571482
-0.011304607 0.026931081 -0.008303012 0.051223308 0.047670346 0.041150678 0.027111884 0.06088136
0.06820107 0.0018093736 0.012583649 0.010101287 0.023918374 0.11168753 0.035013232 0.07721732
0.07787919 0.08869216 0.05807348 0.059591405 0.022862352 -0.0047061057 0.099671796 0.041112177
-0.009457342 0.09605118 0.057172902 0.002696052 0.03775822 -0.016312264 -0.03183219 -8.5814405e-05
0.106727146 0.105341166 0.05686394 0.024752667 0.027589692 0.008900343 0.0022356976 0.06004598
-0.020010212 -0.03846574 -0.07243379 -0.06624558 0.038484413 -0.03132211 -0.08264317 0.0029424173
-0.009666561 0.009902987 0.0046052784 -0.03661734 0.046619836 0.05728077 -0.026069114 0.013378881
3.1810567e-05 -0.06921299 0.073880926 0.15180458 0.10058725 0.040036697 0.111529894 0.15096387
0.001627838 0.07404265 0.020926554 0.090493955 0.067840554 0.07195048 0.0105956355 0.06493399
0.011943088 -0.024702908 0.0042507886 0.116031736 0.094891146 0.15623263 0.022472411 0.06918153
0.17357728 0.0730033 0.02863951 0.018146731 0.00994308 -0.008454342 -0.004430481 -0.024439694
-0.04877246 -0.03436574 -0.018581117 0.04039653 0.010606725 -0.05464341 0.1104568 0.127724
0.06054677 0.094408 0.12467229 0.08011578 0.002402038 0.005996117 -0.0062391367 -0.03595028
0.018469376 0.02984267 -0.05470749 0.06652999 0.015285451 -0.09714022 -0.052993767 -0.08010262
0.016178692 0.12525989 0.055760726 -0.008716324 0.0498236 0.05244348 0.010275164 -0.0011525262
0.049851615 -0.023403553 0.11843513 0.031020025 0.05614597 0.1248749 -0.029074313 0.04752804
0.07856314 0.043809675 -0.02426324 -0.011952485 -0.03271432 -0.016808562 -0.060562592 -0.019299109
-0.061328165 -0.045740966 -0.022645311 0.066690415 0.11808374 0.0039002576 0.11612233 0.04371467
0.03565711 0.0709454 0.04331622 0.059350003 0.020568931 0.068830684 -0.019426724 0.04578009
-0.04391617 -0.050931577 0.00063455646 0.047086094 -0.0013672824 -0.08113341 -0.01781932 -0.1000863
-0.13882227 -0.01808384 -0.05251275 -0.13863023 -0.13581397 -0.022346295 -0.014090184 -0.1343196
-0.16452274 -0.113344386 -0.09583208 -0.121806554 -0.10271924 -0.06221362 -0.16437417 0.013864818
-0.025116367 -0.05247503 -0.043681968 -0.035192717 0.028465647 -0.04923795 -0.0478568 -0.020843405
-0.14057867 -0.08231721 -0.050135225 -0.15024096 -0.03857569 -0.09963254 -0.104670554 -0.10577407
-0.10217967 0.07175499 0.075230196 0.043744814 0.1413338 0.07479363 -0.010027047 0.05374163
0.050767202 0.042248335 0.03284563 0.017864233 0.0074452236 -0.04551283 -0.06640302 -0.06799962
-0.057619985 0.05900497 0.045842614 -0.037236337 0.053038158 0.055572577 -0.027869128 0.029262159
0.108727254 -0.07094124 0.058109567 -0.021723373 -0.048912883 0.014209543 -0.023972236 -0.060878783
00000000: 66c7 13be 5f31 93bd 2847 81bd e22b 61bd
00000010: 6612 23bd c6e4 62bd 4876 28bd dd37 96bc
00000020: 8258 f7bb a7c9 1a3d 541a ff3d 092d 473d
00000030: 8ac7 f73d 9c31 f93d 3159 4d3d a311 3fbd
00000040: 88b2 7f3c af7f 023d 1b99 a43d c8e4 063e
00000050: e2a9 463c bbb0 d23d bd59 0b3e c131 bebc
00000060: 50e3 8b3c c3e1 763c 71b3 963c 1baa 463d
00000070: 6d35 033e 8935 103d 39ac 643d 5f10 9b3d
00000080: f536 39bc 929e dc3c 5b09 08bc 88cf 513d
00000090: fb41 433d 9d8d 283d be19 de3c bc5e 793d
000000a0: 01ad 8b3d 8128 ed3a a62b 4e3c de7f 253c
000000b0: 77f0 c33c 6fbc e43d 096a 0f3d 1d24 9e3d
000000c0: 207f 9f3d 3ca4 b53d 75de 6d3d 1e16 743d
000000d0: d449 bb3c ad35 9abb ba20 cc3d 3e65 283d
000000e0: f8f2 1abc 7bb6 c43d 222e 6a3d 3fb0 303b
000000f0: 5da8 1a3d 4ca1 85bc 7862 02bd 42f7 b3b8
00000100: c393 da3d 1cbd d73d 2aea 683d 1bc6 ca3c
00000110: c703 e23c bfd2 113c c884 123b c6f2 753d
00000120: 75ec a3bc 408e 1dbd 2b58 94bd c3ab 87bd
00000130: d5a1 1d3d 9d4b 00bd d340 a9bd 92d5 403b
00000140: 7f60 1ebc 2340 223c e0e7 963b 10fc 15bd
00000150: 71f4 3e3d 3e9f 6a3d e58e d5bc 1833 5b3c
00000160: 566c 0538 8abf 8dbd e24e 973d a972 1b3e
00000170: b000 ce3d 85fd 233d c969 e43d 4696 1a3e
00000180: 2e5d d53a aca3 973d 2a6e ab3c e554 b93d
00000190: fdef 8a3d c65a 933d 5199 2d3c 1dfc 843d
000001a0: f1ac 433c c15d cabc 334a 8b3b 0ca2 ed3d
000001b0: 4a56 c23d 72fb 1f3e 1018 b83c 0caf 8d3d
000001c0: 3ebe 313e c182 953d 689d ea3c 74a8 943c
000001d0: 4de8 223c 1584 0abc 922d 91bb c135 c8bc
000001e0: a2c5 47bd 17c3 0cbd 6d37 98bc d576 253d
000001f0: d4c7 2d3c c5d1 5fbd 2d37 e23d 15ca 023e
00000200: e4ff 773d fb58 c13d 3054 ff3d be13 a43d
00000210: 836b 1d3b 137b c43b ac71 ccbb 9a40 13bd
00000220: 174d 973c 9d78 f43c f614 60bd e040 883d
00000230: d46f 7a3c 74f1 c6bd fe0f 59bd d80c a4bd
00000240: 2d89 843c 2144 003e 5c65 643d eace 0ebc
00000250: d513 4c3d f9ce 563d 2959 283c 5d10 97ba
00000260: 3531 4c3d cfb8 bfbc 1e8e f23d b51d fe3c
00000270: 51f9 653d 69be ff3d 412d eebc c3ac 423d
00000280: b6e5 a03d c671 333d b4c3 c6bc 5bd4 43bc
00000290: 73ff 05bd 1cb2 89bc 7b10 78bd 2a19 9ebc
000002a0: 3e33 7bbd e15a 3bbd a982 b9bc fc94 883d
000002b0: e3d5 f13d 779b 7f3b 8bd1 ed3d 270e 333d
000002c0: 310d 123d d24b 913d 596c 313d fd18 733d
000002d0: 2d80 a83c 1af7 8c3d cb24 9fbc e783 3b3d
000002e0: 71e1 33bd a19d 50bd 5d58 263a 59dd 403d
000002f0: 6236 b3ba 4629 a6bd d3f9 91bc 0cfa ccbd
00000300: 6d27 0ebe 9024 94bc 9c17 57bd 15f5 0dbe
00000310: d112 0bbe 940f b7bc 84da 66bc 148b 09be
00000320: a678 28be 1a21 e8bd 9c43 c4bd b775 f9bd
00000330: 775e d2bd b5d3 7ebd b451 28be 4329 633c
00000340: d7c0 cdbc 0ff0 56bd ddeb 32bd 3d26 10bd
00000350: ca30 e93c bcad 49bd 7e05 44bd cabf aabc
00000360: dbf3 0fbe ed95 a8bd 985a 4dbd c4d8 19be
00000370: 8b01 1ebd 250c ccbd 845d d6bd 13a0 d8bd
00000380: 9343 d1bd 48f4 923d 4a12 9a3d c32d 333d
00000390: cfb9 103e 672d 993d 7c48 24bc 2f20 5c3d
000003a0: 45f1 4f3d 970c 2d3d 2489 063d 0358 923c
000003b0: 10f7 f33b a96b 3abd 4efe 87bd 6343 8bbd
000003c0: ef02 6cbd 32af 713d 77c5 3b3d 2185 18bd
000003d0: 8a3e 593d 12a0 633d cc4d e4bc 32b7 ef3c
000003e0: 65ac de3d a449 91bd 4c04 6e3d 37f5 b1bc
000003f0: e058 48bd 25cf 683c 6c61 c4bc 085c 79bd

encoder.blocks.2.conv.0.bias f4 [64]
-0.020571843 -0.07841445 -0.06196081 -0.027693087 0.044192366 -0.07156383 0.028195912 -0.046314586
0.0027672534 0.070277005 -0.021156088 -0.06998056 -0.012911939 0.10250188 -0.06914467 -0.042494006
0.06298306 -0.040653266 -0.059240613 0.08799103 0.0046605375 0.016424092 -0.01623438 0.096990354
0.0039071883 -0.04980367 0.016387286 -0.02948532 -0.02877927 -0.06817888 0.02972617 0.0124097075
0.052984297 0.09691475 -0.021848183 0.048807766 -0.06553037 0.05187293 -0.003977004 -0.08269482
0.021108853 -0.06732592 -0.08079823 -0.014936032 0.055056974 -0.05213479 0.028212013 -0.04922538
-0.039782453 -0.041430723 0.1256864 -0.10046213 -0.011836895 0.010374046 -0.05977822 0.04872053
0.008804856 -0.023422502 -0.039622843 -0.026608946 0.026129961 -0.08460352 -0.0051376326 -0.002806328
00000000: 4886 a8bc c197 a0bd 9eca 7dbd 9ddc e2bc
00000010: 0e03 353d 0f90 92bd 1dfb e63c 5db4 3dbd
00000020: cf5a 353b 64ed 8f3d 884f adbc f851 8fbd
00000030: 998c 53bc 81ec d13d b99b 8dbd 320e 2ebd
00000040: 43fd 803d 0a84 26bd 49a6 72bd a434 b43d
00000050: 6cb7 983b d18b 863c f6fd 84bc e1a2 c63d
00000060: df07 803b effe 4bbd a13e 863c 338b f1bc
00000070: 81c2 ebbc 5ea1 8bbd 4c84 f33c 1652 4b3c
00000080: 1006 593d 3e7b c63d f6fa b2bc a7ea 473d
00000090: c934 86bd b678 543d 8751 82bb e75b a9bd
000000a0: 79ec ac3c 2ce2 89bd 8b79 a5bd 42b6 74bc
000000b0: 6c83 613d 4a8b 55bd e11c e73c 8da0 49bd
000000c0: edf2 22bd 43b3 29bd f0b3 003e 17bf cdbd
000000d0: 89ef 41bc e7f7 293c 02da 74bd 2e8f 473d
000000e0: 3e42 103c 8ce0 bfbc 904b 22bd 01fb d9bc
000000f0: 800e d63c 9c44 adbd 9659 a8bb 5fea 37bb
