toyshapes/pinets_ensemble/ensemble_29/model_9.pth (torch, 466407 bytes, 71 tensors)

encoder.blocks.0.conv.0.weight f4 [16, 1, 3, 3]
000000 af f8 86 3d 2c 2a 2a be 63 b9 09 be 38 c6 9f 3d
       0.065904014 -0.1661765 -0.13449626 0.07801479
000010 6f 6f a8 3e e3 95 4e 3e 8e de 83 be a1 c1 5a 3e
       0.32897517 0.20174365 -0.25755733 0.21362926
000020 d8 5a 14 be b0 21 4d bd 1c 6d b2 3e b9 e5 54 3d
       -0.14487779 -0.050080955 0.3484887 0.051976893
000030 7d 30 36 be 16 38 59 be 26 9f dc 3d 9a e1 33 3c
       -0.17791934 -0.21212801 0.10772543 0.010979081
000040 d2 8f a7 bd 31 0c 7d 3d 7d 5a 9b bd 19 1f 28 bd
       -0.081817284 0.061779205 -0.07585619 -0.041045282
000050 bd 19 f8 3c 0a 4a 4c 3e 94 69 68 3e 92 3b 4e 3d
       0.03028571 0.19950119 0.22696525 0.05034978
000060 b6 67 b9 bd 2a d7 dd be ab d0 d8 3d bc 98 5a 3e
       -0.090529844 -0.4332822 0.10586675 0.21347326
000070 63 f9 c1 3e fa c4 7a 3b 23 83 5c 3d 67 0d a8 3e
       0.3788558 0.003826438 0.053836 0.32822725
000080 7c c6 19 3e 74 b8 6e 3e ee 87 78 3e a2 f0 a1 bd
       0.15017122 0.23312551 0.24270603 -0.07907225
000090 81 22 17 be 10 02 d7 3d 3b 74 12 3e b8 99 ac bc
       -0.14759256 0.1049844 0.14302151 -0.021069393
0000a0 68 ae d4 3e cd 9f 82 be c6 7f 18 3e 13 0d 2f 3e
       0.4153931 -0.25512543 0.14892492 0.17094831
0000b0 f7 76 89 be 07 59 84 3d a2 f3 9b be de bc 20 3e
       -0.26848575 0.06462293 -0.30459315 0.15697047
0000c0 c4 f9 d6 3d 15 dc c3 be 57 dd 68 3d 87 d2 f8 3b
       0.10496858 -0.38253847 0.05685171 0.007593456
0000d0 41 92 3f 3e 05 60 de bc 6c 98 99 3d 6e 8f 30 be
       0.18708135 -0.027145395 0.07499775 -0.17242214
0000e0 32 0b 26 3d e2 93 7e 3d aa 87 5f be 58 b0 4b 3e
       0.04053802 0.06215275 -0.21829095 0.19891489
0000f0 72 bc c5 bd 2d ad 38 3e 11 ea d6 bd 73 ac df 3d
       -0.09655084 0.18034811 -0.104938634 0.10921564
000100 52 56 c0 3c 3e e2 bb be 88 48 bf 3d 3f 24 4d bd
       0.02347866 -0.36696047 0.09340006 -0.050083395
000110 3a 62 d8 bd f7 c1 d9 3e d7 d6 e5 3b 2d 54 84 bd
       -0.1056561 0.42530796 0.0070141363 -0.06461368
000120 53 2f b8 be a8 7c 8e 3e 28 ff 80 be 82 2e 7e bd
       -0.35973606 0.2782948 -0.2519467 -0.062056072
000130 26 05 3d 3e e8 3e a6 be a5 d3 33 3d d4 ae ab 3e
       0.18458995 -0.3246987 0.04390301 0.3353182
000140 3a 5a ec bd 6f ec 1a 3d 7d 3b 03 be 79 63 10 be
       -0.11540647 0.037823137 -0.12815662 -0.14100446
000150 cd 63 c8 bd dd db c5 3e 92 53 a3 3d 16 05 8d be
       -0.097846605 0.38644305 0.07974924 -0.27542943
000160 87 93 9b 3e ed 4a 9e 3d b7 24 bc 3e ab e7 c7 be
       0.30385992 0.07729135 0.3674676 -0.39043936
000170 66 63 8e be bb ea 20 3d f9 9d 8c be 14 dc 4f be
       -0.2781021 0.039286356 -0.27464274 -0.20298797
000180 9e ff 6c 3e 97 8a 5f be 06 67 83 be d9 d1 79 3d
       0.23144385 -0.21830212 -0.25664538 0.060991142
000190 1e 81 9e 3d 28 53 a6 3e 2f 46 2a be 42 a2 38 3d
       0.07739471 0.32485318 -0.16628335 0.045076616
0001a0 f7 f8 5c be 14 54 d8 bb 9b 24 93 3d f3 40 47 be
       -0.21579348 -0.00660182 0.07184716 -0.1945837
0001b0 3e 2f 80 3e 7d 4c 1f bd ea 02 e3 bd 60 5b b9 bd
       0.25036043 -0.038891304 -0.1108454 -0.090506315
0001c0 74 28 98 bd 58 35 38 bd b9 4f e2 3d c2 14 87 3e
       -0.07429591 -0.044972748 0.11050362 0.26383024
0001d0 49 f2 a9 3c 42 98 ac 3e 25 d5 16 be 97 a7 c1 3d
       0.020745413 0.33709913 -0.14729746 0.09455793
0001e0 38 f7 a8 be 1a 27 16 3e 3f 96 02 3e 5a 8d 2a 3d
       -0.33001113 0.14663354 0.12752627 0.04163871
0001f0 96 17 97 be f8 91 6b 3e a9 85 fc bc 58 a0 18 3d
       -0.29510182 0.23004901 -0.030825453 0.03726229
000200 66 83 a1 3e d1 62 6a be 81 18 bc 3e b6 7d 96 bd
       0.31545562 -0.22889258 0.36737445 -0.07348196
000210 15 03 b8 be 82 d1 95 3c 16 aa 00 be 1b 9c 3b 3e
       -0.3593985 0.018288378 -0.12564883 0.18321268
000220 68 22 ef 3d 5c 37 7d be 9d 5f 28 3d 85 a8 d0 3c
       0.11676484 -0.24728149 0.04110681 0.025470981
000230 d6 9a cf bb f8 0b 43 3e 3c 83 de be 3f 0d 36 3e
       -0.0063355966 0.19047534 -0.434595 0.1777849

encoder.blocks.0.conv.0.bias f4 [16]
000000 e4 04 66 3e bb fa 0a bd 53 db fa bb e6 71 3b bd
       0.22462803 -0.03393052 -0.00765554 -0.04576292
000010 18 76 e2 bc e5 25 35 be a7 eb 3d 3d 2e 9e ae 3d
       -0.027644202 -0.17690237 0.046367314 0.08526264
000020 ac cd 84 3c 4b 8e 78 3e 2b 64 44 bd f5 de 5a be
       0.016211353 0.2427303 -0.04794709 -0.21374114
000030 bc 7c c8 3c ac 09 9f be 11 e4 92 be a9 b9 13 be
       0.02447354 -0.31062067 -0.28689626 -0.14426292

encoder.blocks.0.conv.1.weight f4 [16]
000000 c9 7b 85 3f 92 e3 72 3f c1 ef 87 3f 6d e0 6e 3f
       1.0428401 0.94878495 1.0620042 0.93311197
000010 b2 f4 79 3f b9 b7 99 3f 7b 8f 85 3f 0b 7b 66 3f
       0.97639 1.2009193 1.0434412 0.900315
000020 ac 26 89 3f 31 b2 89 3f 76 39 7a 3f 9a 3c 8a 3f
       1.0714927 1.0757505 0.9774393 1.0799744
000030 cd c1 76 3f 81 73 63 3f 27 33 83 3f 78 d1 64 3f
       0.96389467 0.8884812 1.0249985 0.89382124

encoder.blocks.0.conv.1.bias f4 [16]
000000 30 88 63 3c d6 0b 21 3d 55 63 d8 3d 87 b4 13 bd
       0.01388745 0.03931793 0.10565821 -0.036060836
000010 49 28 23 3e 13 49 ce 3d 45 34 8b 3d ea d4 75 3d
       0.15933336 0.100725316 0.06797079 0.060017504
000020 4e 79 e0 3d eb 98 97 3d 4e 49 d6 bc c2 fe cc 3c
       0.10960637 0.07402214 -0.026158001 0.025023822
000030 04 65 8d 3c ea 4a ad bd 91 8e dc 3d 75 ff c0 3d
       0.017260082 -0.08461554 0.1076938 0.094237246

encoder.blocks.0.conv.1.running_mean f4 [16]
000000 f8 90 a6 3e a5 bb 85 bd 27 1f ce bc 29 a3 2d 3f
       0.32532477 -0.06529931 -0.025161339 0.6782709
000010 6e 24 24 3e 19 ed 6e be 7b 0f e1 3c c5 dd 35 3e
       0.16029522 -0.23332633 0.027473202 0.1776038
000020 6e 84 fa bd 3b 37 bb 3e 67 9c 03 bf cf c2 50 be
       -0.1223229 0.36565575 -0.51410526 -0.20386814
000030 4b 8b 26 3e f8 10 46 be c0 29 9e be 10 9b d8 bd
       0.16264074 -0.1934241 -0.30891228 -0.10576451

encoder.blocks.0.conv.1.running_var f4 [16]
000000 89 d7 77 3b 87 15 36 3b a5 89 14 3b 26 e8 ba 3d
       0.0037817678 0.0027783827 0.002266505 0.0912631
000010 c2 10 18 3c bf 87 20 3b 7c 45 15 3a 1b 68 29 3c
       0.009281339 0.0024494973 0.0005694253 0.010339762
000020 37 5d 16 3c c7 74 ba 3b 16 fe 46 3d 11 fb 2c 3b
       0.009177498 0.0056901905 0.04858216 0.0026394764
000030 69 09 aa 3b 9c 14 a0 3b f3 29 e6 3b 63 85 24 3b
       0.00518911 0.0048852693 0.0070240437 0.0025103919

encoder.blocks.0.conv.3.weight f4 [16, 16, 3, 3]
000000 6c 6b be bd 26 dd 2b bd 1f ba 49 bc 37 83 13 3b
       -0.09297833 -0.04195895 -0.012312441 0.002250863
000010 3a 8a 3d 3d b9 1d 8f 3c f0 53 9e 3c 54 9f 0a 3e
       0.0462744 0.017470228 0.019327134 0.13537341
000020 e3 40 3f 3c a3 1b 0f bd cb 12 d8 bc f8 79 57 bd
       0.011673185 -0.034938466 -0.026376149 -0.052606553
000030 ed 3e a3 bd 8f 8c 96 bd fe 09 bf bb 2f 9d 1b bd
       -0.079709865 -0.07351028 -0.0058300486 -0.0379917
000040 c6 dc 15 3c 40 4a 1c bd 18 09 19 3a 65 07 ba 3c
       0.009146875 -0.038156748 0.0005837842 0.022708604
000050 61 fc 0a be 9f ab b3 bd a4 80 d2 bd 21 42 fc bd
       -0.13572837 -0.087729685 -0.102784425 -0.123173006
000060 8d 92 f5 bd 50 35 00 be 05 83 84 bd 18 0b 7a bd
       -0.11990843 -0.12520337 -0.064703025 -0.061045736
000070 04 70 80 3d 81 62 c8 3d 7f c2 f8 3c 55 b4 2d 3d
       0.06271365 0.09784413 0.03036618 0.042408306
000080 12 2b 69 bd eb 4c 4e bd 0c b9 bc 3b 30 42 89 3d
       -0.05692584 -0.050366323 0.005759364 0.067020774
000090 9b 30 57 3c 4f e0 61 3d 36 03 33 bd a2 6f 78 3d
       0.013134147 0.055145558 -0.043704234 0.060653336
0000a0 f0 ff dc bc ed cb 90 3d 4b e0 63 3d cc e9 26 3d
       -0.02697751 0.07070146 0.055633824 0.04075031
0000b0 e5 a5 88 3d 62 e3 9c 3d 40 b5 af bc 88 09 b4 bd
       0.06672267 0.07660557 -0.021448731 -0.087908804
0000c0 a1 49 7c 3a 15 59 0e 3c 3b 77 87 3d a7 82 8c 3d
       0.00096240087 0.008688231 0.06614538 0.068608575
0000d0 ff 7c b8 bc a3 a3 9e bc 23 be 8d 3d aa ba 55 bd
       -0.02252054 -0.019365137 0.06921031 -0.05217997
0000e0 cf fa 64 3b 71 f5 14 3d f6 12 a7 bc 86 cb 11 bd
       0.0034939533 0.036366884 -0.020394783 -0.035594486
0000f0 ca f9 ec 3a 49 8d 16 be 4c 99 33 bd 47 5b a0 bd
       0.0018079814 -0.14702334 -0.043847367 -0.0782991
000100 02 03 a6 bc 46 3e 4b bb 5d bb a2 bd 64 06 64 3c
       -0.020265106 -0.003101246 -0.07945893 0.013917539
000110 c1 f2 8e 3c 32 6b 65 3d 98 3a 28 bb 56 ad 22 3e
       0.017449738 0.056010433 -0.002566969 0.15886435
000120 2a 44 03 3d dc 75 5a 3a 5c 68 04 bd 0d 4a d0 bc
       0.03204743 0.00083336025 -0.032326087 -0.025425935
000130 f1 c6 71 bc ea 51 eb bd 47 71 fe bd 9f 3b 37 bd
       -0.014756904 -0.11490233 -0.1242395 -0.044734593
000140 7d 86 9d bc 91 1b b9 3d 2e c7 08 3c e9 c9 37 bd
       -0.019229168 0.09038461 0.008348269 -0.04487029
000150 b3 94 22 3e 4c e4 11 3e 62 43 7a bd bc e3 2e 3e
       0.15877037 0.14247245 -0.061099418 0.17079061
000160 00 a8 b6 3d 8f 86 78 3d 44 0a c5 bd 8a 5a 72 bd
       0.08918762 0.0606752 -0.09621099 -0.059168376
000170 8f 47 22 bc 4b 07 9d bc 6e d5 fd bd 5a 26 b2 bd
       -0.009904756 -0.019168517 -0.12394224 -0.08698721
000180 5a b5 a3 bd 7e ab b3 bc 58 65 82 bc cb 94 b3 3d
       -0.079935744 -0.02193236 -0.015917465 0.087686144
000190 09 6c b8 3d b0 ea 54 3d 4d 9b 57 3c 23 a1 41 bd
       0.09004981 0.051981628 0.013159585 -0.047272813
0001a0 45 dd 47 bd a8 fe 3f bd 2c 9f fe 3c 95 83 7f bd
       -0.048795003 -0.04687372 0.031081758 -0.062381346
0001b0 c7 80 eb 3c ed 7a 9c 3d 17 30 e3 3d aa 6f 8d bd
       0.02874793 0.07640634 0.11093157 -0.06906064
0001c0 7a 02 cd 3c 21 6f a1 3d 45 0d 5b 3d 73 57 ec ba
       0.025025595 0.07882524 0.05347945 -0.0018031433
0001d0 d4 b2 14 3e 59 50 21 3d dc df 3e bd 7a 2b c1 3a
       0.14521343 0.039383266 -0.046600208 0.0014737688
0001e0 0e 3e 20 3d 83 17 d6 bc 33 bd 72 bd af 4e 80 3d
       0.03912168 -0.026134258 -0.059262466 0.06265008
0001f0 fb ba 69 3d 79 a2 d6 3c 98 15 d1 bd 93 5b d6 3a
       0.057063084 0.02620052 -0.10209197 0.0016354196
000200 c9 19 cc bd 51 f9 76 3c 08 13 80 bd 82 37 cb bd
       -0.09965856 0.01507409 -0.0625363 -0.09922697
000210 e7 64 8f bb f6 02 e9 3c 00 d5 86 bc 16 a1 9c bd
       -0.004376042 0.028443795 -0.016458988 -0.07647912
000220 c5 ac e4 3a 17 18 36 3d d5 f8 1d 3d 7d 33 ec bd
       0.0017446509 0.044456568 0.038567383 -0.11533258
000230 3b 3e 1e 3e 40 84 b0 bc 12 55 85 bc 01 98 27 3d
       0.15453427 -0.021547437 -0.016275916 0.040916447
000240 7c d9 39 ba 35 3a b7 3c b6 7f fb bd c0 a8 45 3c
       -0.00070895976 0.022366622 -0.12280218 0.012064159
000250 eb 2c 22 bd 0e 4a b9 bd 26 20 82 bc 17 43 c7 bd
       -0.03959362 -0.09047328 -0.01588447 -0.09729593
000260 e5 4e 8d bd b1 05 fc bc 1a 6a d7 bb af 16 fc bd
       -0.068998136 -0.030764433 -0.0065739276 -0.12309014
000270 40 ab 91 bd 93 46 16 3c 11 1c bc 3c 28 19 c5 bd
       -0.071127415 0.0091721 0.022962602 -0.09623939
000280 4d 1b 24 3d 30 a1 a7 bd 8b 49 cc bc 22 bd 4d bd
       0.0400651 -0.08185041 -0.024937412 -0.0502292
000290 38 79 ca bd 31 f5 3f 3d 01 a5 ff bb fb a6 14 3d
       -0.09886402 0.046864692 -0.0078016524 0.036292057
0002a0 75 ef 19 be 98 dc 19 bd f8 4e 24 be 23 cc 06 be
       -0.15032752 -0.03756389 -0.16045749 -0.1316381
0002b0 42 aa 0b be b4 f9 8b bd 08 02 02 be 6e 13 ad bb
       -0.13639167 -0.068347365 -0.12696087 -0.005281857
0002c0 42 df 9f bd 61 bd 11 bd c6 65 25 bd 09 24 c9 bd
       -0.07806255 -0.035580996 -0.04038026 -0.09821326
0002d0 8c 83 8e bb ca 55 2b bd 1b 3a 94 bd b1 a9 03 be
       -0.0043491777 -0.04182986 -0.07237645 -0.12857701
0002e0 73 e3 94 bd d4 cd e8 bd d8 65 0f 3d f3 41 d2 bd
       -0.07269945 -0.113673836 0.035009235 -0.10266485
0002f0 e1 ca 5b bd 47 ae 0c bd be 83 05 be fc 99 ed bd
       -0.053660277 -0.03434589 -0.13038537 -0.11601636
000300 8d ea b3 bc f8 6f 15 be 12 a9 c9 bd 29 5c d8 3c
       -0.021962428 -0.14593494 -0.09846701 0.026411133
000310 ab 87 ec bd 1f f2 32 bd 5f 4f 45 3d df de ae 3d
       -0.11549314 -0.043687936 0.048171397 0.08538603
000320 ea 5f 82 ba 13 28 99 3d a9 10 21 3d f1 8b 55 3d
       -0.0009946798 0.07478347 0.03932253 0.05213541
000330 07 99 ed 3c a6 ab 59 3d 26 a7 7a 3d f4 d9 63 3c
       0.029003633 0.053142212 0.06119456 0.013906945
000340 15 3e 67 bd a7 47 84 bd 21 3b 4a bd df 8c dd bc
       -0.05645569 -0.06458979 -0.049372796 -0.027044712
000350 fe 64 0e be 2c 68 74 bd 08 62 53 3d 0f 60 3a bd
       -0.13905713 -0.05966966 0.05160716 -0.045501765
000360 36 dc 3e bd 1d 0a c1 bb a7 63 92 bd 09 27 3b be
       -0.04659673 -0.005891098 -0.071479134 -0.1827661
000370 36 03 73 3d f6 a6 14 be 2e 21 a9 3a c2 e0 f6 3c
       0.059329234 -0.14516816 0.0012903565 0.03013647
000380 76 e9 4f bd 3d 3e 67 3c a1 31 8f 3d cc e5 d3 bd
       -0.050759755 0.01411396 0.06991888 -0.10346565
000390 f9 9e 87 3d 57 f0 5e 3d 46 53 90 3b d4 6b 46 3d
       0.066221185 0.054428425 0.004404458 0.048442677
0003a0 19 fd 3e 3c 94 2b ad 3d 8c e4 d7 bd 75 5c 00 3d
       0.011657023 0.084555775 -0.10541639 0.031338174
0003b0 37 3a 81 bd c7 a1 c8 bd 11 4b 86 bd 22 a1 20 3d
       -0.06309932 -0.097964816 -0.065572865 0.03921617
0003c0 81 4d b0 bd 85 99 31 3d 59 60 06 3d 12 ee 5d bd
       -0.08608533 0.0433593 0.032806728 -0.05418212
0003d0 2b a1 38 bd 3a 2d 7d bd 39 93 b5 bc 84 2a e1 3a
       -0.045075577 -0.06181071 -0.022164928 0.0017178808
0003e0 c3 f5 46 bd b2 5b 58 3d a2 0c 04 be f6 f0 c5 bd
       -0.04857422 0.052821822 -0.12895444 -0.096651
0003f0 52 48 05 be 69 eb d0 bc 6e ce b5 bd f5 0c a8 bd
       -0.1301587 -0.025502877 -0.08877264 -0.08205596

encoder.blocks.0.conv.3.bias f4 [16]
000000 21 d7 1c 3b a9 e7 8f bd eb cc 4e 3d d3 45 9a 3d
       0.0023931938 -0.070266075 0.050488394 0.07532849
000010 ec f3 67 3d 59 58 a6 bd 3e 3f 73 3b 1b af 94 3c
       0.056629106 -0.0812232 0.0037116553 0.018149903
000020 14 b8 81 3c 4b f3 a9 3d 11 fd cc 3d 3e cf b7 3c
       0.015834846 0.082983576 0.10009206 0.022437688
000030 dc 6e 36 bd 32 f6 04 be 17 07 20 bd 8e 0f e1 3d
       -0.044539317 -0.12984541 -0.03906926 0.10989295

encoder.blocks.0.conv.4.weight f4 [16]
000000 b5 24 6e 3f 7c 25 6a 3f a3 95 7c 3f fa 32 98 3f
       0.9302476 0.91463447 0.9866583 1.1890557
000010 81 91 5d 3f 55 10 76 3f 9e e3 75 3f 00 ef 81 3f
       0.86550146 0.9611867 0.9605044 1.0151062
000020 30 e0 7a 3f 46 e3 6e 3f a1 f8 78 3f 54 b7 69 3f
       0.9799833 0.9331554 0.9725438 0.9129536
000030 ee 21 6f 3f 81 fe 6f 3f e1 58 84 3f 79 8e 74 3f
       0.9341115 0.9374772 1.0339624 0.95529896

encoder.blocks.0.conv.4.bias f4 [16]
000000 34 17 7c 3c 34 5e 9a bc f7 a0 5f 39 48 9e 12 bd
       0.015386391 -0.018843748 0.00021326901 -0.03579548
000010 aa da 6a bd 71 b5 d4 bb 7e b0 8d 3c ff 47 cf 3c
       -0.05733744 -0.006491356 0.017296072 0.025302885
000020 ff 46 87 bd 25 7f 76 3c f1 9c 1b 3d ae f1 2e bd
       -0.06605338 0.015044962 0.037991468 -0.042710952
000030 4f 0a 5f bd 83 a4 5b bc a1 8f 05 3d fb 4d 91 bd
       -0.05445319 -0.013405922 0.03260768 -0.07094952

encoder.blocks.0.conv.4.running_mean f4 [16]
000000 a5 c1 96 3d 06 3d d8 bf 97 f2 ae bf 0c 06 c8 be
       0.073611535 -1.6893623 -1.3667783 -0.39067113
000010 f6 bc 71 be 91 13 20 bf 94 80 21 3e 05 8b aa bf
       -0.23607239 -0.62529856 0.15771705 -1.3323675
000020 90 fa 06 40 8d 02 0d c0 99 84 db bf 07 54 5c bf
       2.1090431 -2.2032807 -1.714984 -0.86065716
000030 39 0d 4d bf 2d 4c 06 c0 52 ca b9 3f e0 a2 c9 bf
       -0.800983 -2.0983994 1.4514868 -1.575283

encoder.blocks.0.conv.4.running_var f4 [16]
000000 68 5d db 3f 8b a7 a7 3f a8 c4 34 40 51 b7 e4 3e
       1.713788 1.3098005 2.824503 0.4467111
000010 76 0b 50 3f fc 44 10 40 8f c7 84 3f 02 8e 83 3f
       0.8126749 2.2542105 1.03734 1.0277712
000020 9b 65 19 40 c1 eb 2f 40 90 38 e1 3f 65 1d b7 3f
       2.3968265 2.7487643 1.7595387 1.4305845
000030 fb 1d 5a 3f 12 22 70 40 42 8e 0e 40 b7 b1 b2 3f
       0.85201997 3.7520795 2.2274327 1.3960484

encoder.blocks.0.skip.weight f4 [16, 1, 1, 1]
000000 26 b0 30 bf a4 ab 37 3f 10 b3 b5 be 00 df c8 3c
       -0.6901878 0.7174628 -0.35488176 0.024520397
000010 d0 52 98 3d 0c 03 66 3f 90 e6 ed 3d 80 09 32 bc
       0.0743767 0.898484 0.11616242 -0.010866523
000020 c0 9b c5 3e 7a a9 68 3f 30 a2 32 bf 5a 50 44 3f
       0.3859539 0.908836 -0.6977873 0.76685107
000030 1a 5a 66 3f 42 4e 56 bf 20 7e 85 bd dc 6e 96 3e
       0.89981234 -0.8371316 -0.06518197 0.29381454

encoder.blocks.0.skip.bias f4 [16]
000000 30 4b d4 3d f2 07 1d bf 36 79 61 3f e2 de 1a 3f
       0.103659034 -0.6134025 0.8807558 0.6049634
000010 a0 0f 3e be 3c 5c 5a bf 32 6a 60 bf f8 57 37 3e
       -0.18560648 -0.8529699 -0.8766204 0.17904651
000020 40 7e 75 3d 76 51 22 bf 80 27 f5 3d a0 40 77 3f
       0.059934855 -0.6340555 0.11970425 0.96582985
000030 76 9e 6d 3f 4c 6b b5 be 10 80 00 be a4 a8 9f 3e
       0.9281992 -0.35433424 -0.12548852 0.3118335

encoder.blocks.1.conv.0.weight f4 [32, 16, 3, 3]
000000 a3 5f 97 3d 64 89 ae bc c3 20 cb bc 76 68 11 bd
       0.07391288 -0.021305747 -0.024795895 -0.035500012
000010 58 ab 54 bd 7d f8 8d 3d af 5b b7 3a 13 65 49 3d
       -0.05192122 0.06932161 0.0013989116 0.049168658
000020 a0 3e ff 3c 4d 26 b3 bb 32 93 2e bd e1 58 c0 bd
       0.031157792 -0.0054672123 -0.042620845 -0.09391952
000030 ff b0 79 3b 83 69 f9 3c a5 21 b3 3d 06 dc f2 3c
       0.0038099883 0.03044582 0.087466516 0.029645931
000040 93 09 74 3d 4d 6a f8 3c 91 34 b8 3d 32 3a 8c 3d
       0.059579443 0.030324126 0.08994401 0.068470374
000050 c2 bc d1 bc f1 e9 c0 3d 56 e9 80 3c f6 35 e0 3b
       -0.025602702 0.09419621 0.015736263 0.00684237
000060 89 f6 0f 3d bc a7 5f 3d 2b 66 e9 3c e9 4d 2b be
       0.035147224 0.054603323 0.0284911 -0.16728939
000070 13 6f d4 bd ac ca 9a 3d ca 36 2a be bf cd 76 3c
       -0.10372748 0.07558188 -0.16622463 0.015063702
000080 f4 52 21 3d d7 eb e3 bc 24 12 53 3a 50 da c9 3d
       0.03938575 -0.027822418 0.00080517144 0.09856093
000090 69 84 03 3d 2e 47 c2 bd d4 63 9f bd 1f 21 a7 3c
       0.032108698 -0.09486233 -0.077827126 0.020401536
0000a0 96 c5 aa bc 76 e6 3e bc be 46 e6 bc e8 83 56 bd
       -0.02084617 -0.011651626 -0.028109904 -0.05237189
0000b0 2f bb b0 bc f7 aa b4 bd 9d 0d 1b 3d b3 78 d5 3c
       -0.021573631 -0.088216715 0.03785478 0.02605853
0000c0 ae e4 81 bd ad 27 29 3d ce f7 66 bd 37 e6 92 bd
       -0.06342445 0.041297603 -0.05638867 -0.07172816
0000d0 0c 99 ef bd 4e 33 52 bd 36 c3 1f be 8c b0 03 be
       -0.11699113 -0.05131846 -0.15601811 -0.12860316
0000e0 75 ea 25 be 70 b4 0d be d7 28 d5 bb e1 1f 10 3c
       -0.1620272 -0.13838363 -0.0065051126 0.008796663
0000f0 9e 20 bf bc 32 91 18 bd 3c b8 18 bc 0d 93 74 bd
       -0.023330983 -0.037247844 -0.009321269 -0.05971055
000100 9b 19 80 bd fa 73 45 3d a0 29 d0 bc 4d c5 e2 3d
       -0.06254884 0.048206307 -0.025410473 0.110727884
000110 9c 3f bb 3d 5b 6d fc bc 43 9e dc bb 83 6a 21 3a
       0.09142992 -0.030813864 -0.0067327335 0.0006157534
000120 30 70 e0 bd e7 61 77 bc b4 fa 41 bc 2d df 88 bb
       -0.10958898 -0.015099025 -0.011839557 -0.0041769953
000130 5c 21 31 bd 6a 5e 24 bc f4 ff a6 bb c2 a8 c8 bc
       -0.043244705 -0.010032276 -0.00509643 -0.024494532
000140 82 50 91 bd d2 fb c8 3d ac ad 9e 3d d3 bb 3b 3c
       -0.07095434 0.09813656 0.07747969 0.011458355
000150 a8 cc f6 3d 6a 42 90 3d d0 df 2e 3d 93 d3 d4 3b
       0.12050754 0.070439175 0.042693913 0.006494948
000160 67 e4 db 3d e7 f6 36 3d 19 3c 61 bd 38 43 87 bd
       0.10736924 0.04466906 -0.054988954 -0.06604618
000170 86 27 ee bd c5 ea 0d bd 35 18 9d bd ec b3 19 3c
       -0.11628632 -0.03464772 -0.07670633 0.009381276
000180 d2 ae bd 3a aa bd ef bd c1 60 28 bd 3b 83 da 3c
       0.0014471656 -0.117060974 -0.041107897 0.026673904
000190 72 7d 9b bc 7d 1a e2 bc ee 86 b3 3c c5 03 86 bd
       -0.018980715 -0.027600521 0.021914925 -0.06543688
0001a0 43 ec 5e 3d 45 2b 02 be 25 e7 b3 bc 9a 67 19 bd
       0.054424535 -0.12711819 -0.021960804 -0.037452318
0001b0 16 98 01 3c e4 18 02 bb f5 4c 47 3c bb ac df bc
       0.007909795 -0.0019851262 0.012164344 -0.027304044
0001c0 e7 75 7a bd 4c 52 7b 3d be 80 e3 3d 2c 8a 05 bd
       -0.061147597 0.06135778 0.1110854 -0.032602474
0001d0 ca a0 f7 3c 8d d7 55 3d 3c 56 bf 3d 71 1e 8b 3d
       0.030228037 0.05220752 0.0934262 0.067929156
0001e0 af e4 6c bc 0a 61 9a 3d e3 d2 cb 3d 53 4a c5 3d
       -0.014458819 0.0753804 0.09952333 0.09633317
0001f0 7e eb 2f 3d 1c a8 59 bd b2 af 14 be e8 ae 06 be
       0.042949192 -0.053138837 -0.14520147 -0.13152659
000200 b6 84 4a bd ca 42 4c bd ac c8 c3 bc 7d e2 15 bc
       -0.04944297 -0.049868383 -0.023899399 -0.009148237
000210 10 78 09 be 4f 27 dc bd bb f2 af bb 25 cd 3f 3d
       -0.13424706 -0.10749685 -0.005369512 0.0468265
000220 94 2c 38 3d be 0d e5 3d ff 27 2d 3c 51 f1 6a 3c
       0.044964388 0.11184262 0.010568618 0.014339761
000230 c8 c6 10 bd 9a bd 0a ba aa 76 79 3b b0 8f 57 3d
       -0.035345823 -0.0005292535 0.0038065114 0.052627265
000240 24 0f 11 3e 2f 98 e3 3d a7 51 84 bc 99 d3 36 3e
       0.14165932 0.11113011 -0.016152216 0.17854156
000250 a7 32 d6 3d 20 cb 2b bd 82 e8 67 bc 70 78 ea 3c
       0.1045888 -0.041941762 -0.014154555 0.028621882
000260 51 79 e1 ba c7 28 39 bd 8d eb a5 3d c7 ce ab bc
       -0.0017202293 -0.045204904 0.08101568 -0.020972623
000270 29 6e 0e 3c 8b 77 b7 3d 86 3c a2 bd d4 b5 43 bb
       0.008693256 0.08958348 -0.079217 -0.0029863017
000280 9f 7b 44 3d 41 5f 67 3c 33 df ab bb 38 3f 18 bc
       0.047969457 0.014121831 -0.0052451133 -0.009292416
000290 3c 47 dc bc 94 07 90 bd a7 76 67 ba ea b4 9b 3c
       -0.026889436 -0.070326954 -0.0008829631 0.019007165
0002a0 12 bb 24 3d 13 51 cb 3b e5 5c 1f be 80 18 37 3c
       0.040217467 0.006204733 -0.1556278 0.011175275
0002b0 ba be e7 bd 14 d0 99 bd 52 9e 67 bd db 2b ac bd
       -0.11315675 -0.07510391 -0.05654747 -0.08406802
0002c0 0e 31 05 be 75 a2 7a bd 93 0c f2 bc 7a 52 13 be
       -0.13006994 -0.061190087 -0.029547011 -0.14386931
0002d0 3d ee d5 3c e7 8f 77 3c c6 ad a4 bd a0 ff 08 3e
       0.026114577 0.015109993 -0.08040957 0.13378763
0002e0 9c b0 d0 3d 21 da c6 bd d8 3e d1 3d 8f 40 b0 3d
       0.101899356 -0.097095735 0.102170646 0.086060636
0002f0 61 9d a6 bd 58 94 a1 bc 31 95 35 3d ca 19 0c 3e
       -0.081354864 -0.019724056 0.044331733 0.13681713
000300 20 0e 44 3d 77 20 d1 3c c7 b9 07 3e 0e 41 f3 3d
       0.047865033 0.025528176 0.13254462 0.118776426
000310 f2 9e ec 3d af 10 01 3e eb a9 dc bc 6f 9c 39 3c
       0.11553754 0.1260402 -0.026936492 0.011328801
000320 20 53 09 3b db 26 e3 3d 71 19 f3 3d 63 07 7a 3c
       0.0020954087 0.110913955 0.11870087 0.01526055
000330 d9 1d 2c bc 9c ce cd bc 09 4b 5e 3c cf e2 04 3e
       -0.010505163 -0.025122933 0.013567694 0.12977146
000340 7e 8c 25 bd f4 1b d1 bc 26 9f e0 3c 8f 80 48 bd
       -0.040417187 -0.025526024 0.027419638 -0.048950728
000350 3c e2 f0 bd a5 9a 96 bc 5d 52 be bd d1 14 39 bd
       -0.11761901 -0.018384287 -0.09293053 -0.045185868
000360 77 d7 a4 3d eb b1 1f bd 03 56 dc bc d9 db b5 3d
       0.08048909 -0.038988035 -0.026896482 0.08879823
000370 25 ab 7f 3c ec 10 04 3d 84 b5 08 bd ca a2 d8 3c
       0.015604769 0.0322427 -0.03337623 0.026444811
000380 91 1e 95 3c 83 2c dc bc ed 7c 5c 3d bd 8c 94 3c
       0.018203052 -0.026876694 0.053830076 0.018133515
000390 7d 1e a5 bd 12 fb 60 bd fa 14 10 bd a9 85 92 bc
       -0.08062456 -0.05492694 -0.035176255 -0.017886
0003a0 53 4a 37 3d 8c 87 93 3b 61 46 8d 3d d3 a3 30 bd
       0.044748615 0.0045022424 0.06898189 -0.043124985
0003b0 92 d0 78 bc f7 d1 51 3d 24 9c 6a bd 00 79 e1 bc
       -0.015186446 0.05122563 -0.057277814 -0.027523518
0003c0 aa 8a 2f 3d 6d b3 9e bc 12 54 e7 ba 21 54 d6 bc
       0.04285685 -0.019372666 -0.0017648956 -0.026163163
0003d0 ce 91 90 bd 92 80 a8 bd a4 c7 c2 bd 52 70 f1 bd
       -0.0705906 -0.08227648 -0.09510735 -0.117890015
0003e0 36 e2 54 3c d0 bf 00 be 3e c0 d8 bd 0d 05 c2 bd
       0.012993386 -0.1257317 -0.10583542 -0.094736196
0003f0 1b 2b 5d 3d ad cf d3 3c a4 f8 7b bd a4 df 02 3d
       0.053996187 0.025855863 -0.06151642 0.03195156

encoder.blocks.1.conv.0.bias f4 [32]
000000 9e 76 31 bd d3 c4 a0 bc 88 0b 8b 3d 1d d1 9d 3b
       -0.043326013 -0.019625103 0.06789309 0.004816188
000010 57 64 85 3d 21 85 93 bd 9e 23 97 bd ef 72 1f bd
       0.06513279 -0.07203127 -0.0737984 -0.03892797
000020 b2 e2 b4 bd 4b e5 87 bd 4c b6 5d bd c0 86 29 3d
       -0.08832301 -0.06635531 -0.05412893 0.041388273
000030 e5 c9 ec 3b 43 c4 7c 3d 18 85 7b 3d b7 a3 ae ba
       0.007226216 0.061710607 0.061406225 -0.0013323937
000040 bb 99 34 bc 33 3c 66 3c 7a c0 12 bd ce cb 41 3d
       -0.01102298 0.014052439 -0.03582809 0.047313504
000050 db 80 0d 3d 8b c6 5f 3d 18 d4 be bd ef a1 fa bc
       0.034546714 0.054632705 -0.093177974 -0.030594794
000060 dc 3a 33 bd 8b 9a 6d 3c ed 7d 17 bd 2d 84 4b 3d
       -0.043757305 0.014502178 -0.036985327 0.0496866
000070 89 13 5c bd fb 4c a3 3b 2e c9 37 3d 21 3f 18 3d
       -0.053729568 0.004983542 0.044869594 0.03716958

encoder.blocks.1.conv.1.weight f4 [32]
000000 11 fa 75 3f 8a 5d 67 3f a4 ca 65 3f 76 68 75 3f
       0.96084696 0.90377104 0.8976233 0.9586252
000010 ea b3 81 3f 1a 52 86 3f ad 08 77 3f 0d 53 6e 3f
       1.013303 1.0493805 0.96497613 0.93095475
000020 2e 19 80 3f fe e8 66 3f 59 6b 92 3f 1e 1a 79 3f
       1.0007684 0.9019927 1.143901 0.97305477
000030 49 3d 7a 3f 51 31 7f 3f e7 bb 63 3f ce f5 80 3f
       0.97749764 0.99684626 0.8895859 1.0075014
000040 19 10 84 3f cf a5 6d 3f 46 03 7e 3f b6 21 83 3f
       1.0317413 0.9283113 0.99223745 1.0244663
000050 d8 51 75 3f e9 10 91 3f c2 dd 7e 3f 93 57 83 3f
       0.9582801 1.1333286 0.99557126 1.02611
000060 cb 94 83 3f bb 2b 76 3f 0b 05 75 3f 12 61 7f 3f
       1.0279783 0.9616048 0.9571082 0.9975749
000070 b2 01 84 3f 87 8d 7b 3f 5c 4f 8b 3f 67 46 7f 3f
       1.0313017 0.9826283 1.0883594 0.997168

encoder.blocks.1.conv.1.bias f4 [32]
000000 be e0 11 bd 47 ba 88 bd 6e df cc bd cb 09 c3 bd
       -0.03561472 -0.066761546 -0.10003553 -0.09523352
000010 63 87 57 bd ba 45 f5 bc a2 95 4f bd 72 5c 40 3b
       -0.05261935 -0.029940475 -0.05067981 0.0029351977
000020 ca ea 7a 3a 7d 2f 92 bd 7f 40 2c 3d f2 9d cf bc
       0.00095717295 -0.07137964 0.042053696 -0.025343869
000030 c1 9b 0b 3e dd 5b 57 bd 90 a6 44 bd a7 c4 e7 ba
       0.13633634 -0.052577842 -0.04801041 -0.0017682508
000040 48 01 ff bd c7 a3 9c 3c 53 3b 09 3d 87 4d 41 bd
       -0.12451416 0.019121064 0.03350384 -0.047193076
000050 21 e1 6b bc c9 41 0d bd 1f 95 c5 bc 1e 4a 47 bd
       -0.014396937 -0.034486566 -0.024118958 -0.048654668
000060 6c a2 a1 3c b8 72 be bc 68 2f c6 bc 89 48 b1 bd
       0.01973077 -0.023248062 -0.024192527 -0.08656413
000070 e0 11 14 bd 84 0c dd 3b b0 61 37 3a 31 0d 4d bc
       -0.03614986 0.0067458767 0.00069954526 -0.012515352

encoder.blocks.1.conv.1.running_mean f4 [32]
000000 b8 25 32 bf 45 5c 86 be b5 95 8f bf 4e bd 8a bd
       -0.69588804 -0.2624227 -1.1217562 -0.06774388
000010 38 66 6d be 15 83 30 3f 51 f1 b1 bf 87 01 00 40
       -0.23183525 0.68950015 -1.3901769 2.0000932
000020 97 f7 f1 be da 64 89 bf 82 e2 1a 3f 9c 04 2e 3f
       -0.4725921 -1.0733902 0.60501873 0.67975783
000030 75 d3 69 3f f0 a0 9d 3f c1 d9 6a bf ac ed ee 3e
       0.9133828 1.2314739 -0.91738516 0.46665704
000040 cc fb a9 3e a0 b9 72 bf 7d 68 5f 3e 02 34 22 3f
       0.33199918 -0.9481449 0.21817203 0.6336061
000050 40 67 a8 bf 2f 18 15 3f 09 5f 80 bf b3 d6 bc 3f
       -1.3156509 0.58240026 -1.0029002 1.4753021
000060 0d 27 b2 bf 93 d6 cb bf 94 f6 1e c0 54 ea 87 3e
       -1.3918167 -1.5924858 -2.4838 0.26545966
000070 62 e6 19 be ba 5a bb bf 10 b3 3b 3e e2 3f 8c be
       -0.1502929 -1.4637063 0.18330026 -0.2739249

encoder.blocks.1.conv.1.running_var f4 [32]
000000 9d 0d 11 40 dd 0a db 3f 14 9f 8d 3f 06 4f 89 3f
       2.266456 1.711269 1.1064172 1.0727241
000010 05 62 af 3e 15 b9 dd 3f 59 9f 9c 3f 75 7f 81 3f
       0.3425447 1.7322108 1.2236129 1.0117022
000020 b1 85 1c 3f 62 a0 6a 3f 54 59 76 3f 5c a5 1a 3f
       0.61141497 0.91650975 0.96230054 0.6040857
000030 72 0a 11 3f 83 e0 0c 40 db c4 34 40 a3 59 43 3f
       0.56656563 2.201203 2.824515 0.7630865
000040 80 1a 6e 3f cf 32 63 3f 92 f9 e3 3f 07 75 ea 3e
       0.93009186 0.887494 1.7810538 0.4579241
000050 cd 6d 14 40 bb 77 47 3f fd 2b b9 3f dc a3 23 3f
       2.3192017 0.7791707 1.4466549 0.63921905
000060 cc 76 06 40 28 59 28 3f c6 31 63 3f 6b 34 11 40
       2.1010008 0.6576104 0.88747823 2.2688243
000070 15 0d 38 3f c9 f6 62 3f 9e 7f f3 3f 88 0e 33 3f
       0.7189496 0.88657814 1.9023321 0.6994405

encoder.blocks.1.conv.3.weight f4 [32, 32, 3, 3]
000000 f4 1f 04 bb a7 1a 92 3d 7c 22 05 bb 49 9e ab 3d
       -0.0020160647 0.0713399 -0.0020314744 0.083798
000010 c8 eb a7 39 36 64 ee bc 37 29 7c bc 4f 19 5c 3d
       0.00032028393 -0.029100519 -0.015390686 0.053735074
000020 c2 89 08 3d 83 25 1e bd 64 a2 1a bd e2 15 8d 3d
       0.0333345 -0.038609993 -0.037752524 0.068889394
000030 5c 08 45 bd 52 c8 f9 bb 47 ea b5 3d 25 1e e7 3c
       -0.048103675 -0.007622757 0.088825755 0.028212616
000040 9c b4 a5 bc 2e 03 d7 bc a1 ac a5 bd 1e d7 31 bd
       -0.020227723 -0.026246633 -0.08089567 -0.043418042
000050 dd 5e ef 3c b5 4e aa bc 6c bb 9c bc 72 35 51 bc
       0.029220039 -0.020789484 -0.019132338 -0.01276909
000060 82 ce b4 bd b0 a5 63 3d 23 c3 26 bd 28 6a 25 bd
       -0.08828451 0.055577934 -0.04071344 -0.04038444
000070 8b 08 85 bc 58 5c 9b bb 7a 1c 4a 3d 0a cf 2a bc
       -0.016239425 -0.004741233 0.049343564 -0.0104253385
000080 ca ac e6 bb 30 d2 3e 3d 5e 21 b5 3d ea df 5f 3d
       -0.007039641 0.04658717 0.08844255 0.0546569
000090 e4 2a dd 3a 05 eb a6 bc a4 0b 4c ba 16 e9 79 bc
       0.0016873744 -0.020375738 -0.0007783717 -0.015253326
0000a0 f1 32 8e 3c fb 4e 6b 3c 93 f2 38 bb 86 20 a9 bb
       0.017358275 0.014362092 -0.0028220757 -0.005161348
0000b0 00 f4 07 bd a5 9f 8d 3d 44 1d 2a 3d e3 6f 11 3e
       -0.03319168 0.069152154 0.041531816 0.14202838
0000c0 55 39 81 3d db cd 06 3d b4 be 21 3e b3 ed dd 3d
       0.06309763 0.032911163 0.15795404 0.10836353
0000d0 24 ef 00 3d af 9d bc 3d af e6 b0 bc d5 a5 08 bd
       0.031478062 0.09209763 -0.021594374 -0.033361275
0000e0 74 0b f9 3c f9 25 71 3d b5 64 aa bc 39 52 95 3d
       0.03040097 0.058874104 -0.020799974 0.07291073
0000f0 2d 6e bc 3d ff bb 12 bd 4d 3c 18 3d ac 12 8d bd
       0.09200702 -0.03582382 0.037166882 -0.06888327
000100 c1 32 c6 3c ac 50 10 bd 3a ab 57 bd 3a 8f 47 bd
       0.024194123 -0.035233185 -0.05265353 -0.048720576
000110 c3 1a 85 bd 7f af 4e bc c0 b6 6c bc d5 48 3d bc
       -0.06499245 -0.012615084 -0.014447868 -0.011553009
000120 2a 6f cc 3d 75 d5 c1 3d ad 10 9a 3c 5b da ef 3d
       0.0998214 0.09464542 0.01880678 0.1171157
000130 33 8d 08 3e ab e0 a3 3d 4d 66 d7 3c 93 f7 08 3e
       0.13335113 0.080018364 0.026293898 0.13375692
000140 7a 34 e4 3d ba fa 3c bd 6e 57 24 bc 8e 21 6f bc
       0.111428216 -0.04613755 -0.0100306105 -0.014595402
000150 8d bf 83 3c 43 0e 89 bd 15 95 45 bd 57 51 c9 bc
       0.01608255 -0.06692173 -0.04823788 -0.024574919
000160 59 76 3c 3d dc b9 13 3a da 56 77 bd c8 4c 21 3a
       0.046011303 0.00056353 -0.060385562 0.0006153104
000170 66 de 1a 3d 93 47 f0 bd d5 3a 6f bd f0 d9 86 3d
       0.037809752 -0.11732402 -0.058405716 0.06584537
000180 b4 4c b3 bd d5 88 1a bd 96 cb b5 3d 92 62 91 3c
       -0.08754864 -0.03772815 0.088767216 0.017747197
000190 e4 c7 31 bc b6 be 7c bb 08 e3 40 bd f3 51 c3 bc
       -0.01085088 -0.003856582 -0.047091514 -0.023842787
0001a0 2b 43 b2 3c a9 41 59 3c ea cb 49 3c d6 c0 80 3d
       0.021760544 0.0132602835 0.012316683 0.062867805
0001b0 07 68 8c bd bb 8a 9c bd e1 e4 43 3c 5e 2a 32 bd
       -0.06855779 -0.07643648 0.011956424 -0.043497436
0001c0 0f 44 ce bd b9 a3 e9 bc 28 2a e9 bd 8d 75 ba bd
       -0.10071575 -0.028520452 -0.11384994 -0.09104452
0001d0 9e 8f 25 3c ec c3 be 3c e7 9a 55 bb 2a c1 0e 3d
       0.010105042 0.023286782 -0.003259355 0.034852184
0001e0 4e 0a 47 bd 81 02 a8 3c 67 bd f4 bc 91 1c 1e 3d
       -0.04859381 0.020509006 -0.02987547 0.03860146
0001f0 8f 76 53 bc 97 9d 6b 3d 76 29 2a bd 6a 44 d5 3a
       -0.012906685 0.057523336 -0.041543446 0.0016270999
000200 04 4d a7 3d 40 8b 53 3d af 08 1d bd 6f b8 a7 3c
       0.081689864 0.05164647 -0.03833836 0.020473687
000210 4e 3a 46 3d cd ae 72 3c 25 b2 38 3d 6e 27 f0 3b
       0.048395447 0.014812184 0.045091767 0.007328919
000220 1b a9 a9 3c 1f 1b af 3c b5 a2 c0 bb d9 90 63 3d
       0.020710519 0.021375237 -0.005878771 0.05555806
000230 c9 3d 8e 39 c2 e2 f5 bc d1 fc 9d bc f9 09 6b 3d
       0.00027130384 -0.030015353 -0.019285591 0.057382558
000240 b2 5f 4c 3c b5 f5 6d 3d d2 a3 23 3d da 6d fa bc
       0.012473987 0.058095653 0.039951153 -0.03056996
000250 68 32 91 3b 50 cb a9 3d d9 13 44 bd 09 41 eb bc
       0.0044310577 0.08290732 -0.04787049 -0.028717535
000260 4e 6c c2 3c f6 77 c1 bc 73 d9 e5 bb 65 2e 51 3c
       0.023733284 -0.023616772 -0.0070144474 0.012767409
000270 b0 e3 3a 3c 54 e5 d7 3b ff 4e bf 3d 08 89 13 3c
       0.011406824 0.0065886173 0.09341239 0.009004839
000280 92 77 3e 3d 45 1e 78 3d 98 f7 b2 bc 0a 4d 65 3c
       0.04650075 0.060575742 -0.021846578 0.013995418
000290 81 2a 56 bb f0 cf bf bc dd 0b 45 bd c6 2f 84 bd
       -0.0032679143 -0.023414582 -0.048107017 -0.064544246
0002a0 64 68 c2 bd a6 ae ad bd 24 a4 f3 bc 66 88 c4 3c
       -0.09492567 -0.08480577 -0.029741354 0.023990821
0002b0 d3 57 89 bd 5e 28 ec 3c 9b 26 49 bd 49 1a 0d 3c
       -0.06706204 0.028827842 -0.049109083 0.008612224
0002c0 2d 8c 02 3e 21 7d 82 bd 08 21 98 3b 29 28 7d 3d
       0.12748785 -0.06371523 0.0046426095 0.061805878
0002d0 3f 88 a8 3b fd 7a 1b 3c b0 7c f5 3c 9a d8 81 3d
       0.005143195 0.009489772 0.029966682 0.063401416
0002e0 8c 22 8c 3d 4a af a1 bc d3 c1 1f 3d a3 60 84 3c
       0.06842527 -0.019736905 0.039003205 0.016159361
0002f0 38 1b 01 bd d0 07 e9 3b d6 06 b4 3c 61 e3 af 3c
       -0.0315201 0.007111527 0.021975916 0.021470727
000300 9d a7 25 bc 43 e9 c7 3d 7c 99 b8 3c d4 13 6a 3d
       -0.010110763 0.09761288 0.022534125 0.057147816
000310 6c ef 66 3d 1c a0 cc 3c ca f7 8a bd 04 ee 2c bd
       0.056380674 0.02497869 -0.06785543 -0.042219177
000320 58 e4 64 bc 04 9c 18 bd f5 36 24 bd 9c c8 66 bd
       -0.013970457 -0.037258163 -0.040091474 -0.05634366
000330 23 cd 15 bd 60 b2 21 bd 2e 68 91 bc cd a5 f8 3d
       -0.036572587 -0.039476752 -0.017749872 0.12140999
000340 ac 5d 80 3d 39 65 96 3d 55 94 f6 3d e1 01 40 3d
       0.062678665 0.073435254 0.12040011 0.046876792
000350 23 5d fb 3c 52 02 f6 3d 8a 6c 99 3c 6d 98 0a 3c
       0.03068406 0.12012161 0.018728513 0.008459193
000360 1b 53 ac bd d0 d3 75 bd 3e 7d bd bd d6 8f ab bc
       -0.084142886 -0.060016453 -0.09252404 -0.02094261
000370 83 42 e8 3b 69 0c eb bd d8 4e 59 bc f1 95 8b bd
       0.007088007 -0.114769764 -0.013263427 -0.068157084
000380 58 50 a0 bd 98 c6 ac 3b 27 7d c4 3c 41 f4 71 3d
       -0.07827824 0.0052726977 0.023985459 0.05907083
000390 1b 4c 44 bd 6b 17 cf bc 68 46 7a 3c bd a4 8b bc
       -0.047924142 -0.025279721 0.015275575 -0.017046327
0003a0 36 05 6b bd 92 ef b7 bd f3 df d9 bc 02 8a a5 3c
       -0.057378016 -0.08981241 -0.026596045 0.020207409
0003b0 4e 15 40 bd 9e 2a bf bc 3e d4 86 3d 75 2e 24 3c
       -0.046895318 -0.023335751 0.06583451 0.010020842
0003c0 92 68 0e bd ce 20 62 3a 83 14 26 3d ab e7 d0 3a
       -0.034767695 0.0008626104 0.040546905 0.0015938183
0003d0 a7 8a 26 3d b0 8b 8b 3d bf 34 c6 bc ca ec b9 3d
       0.040659573 0.06813753 -0.024195073 0.09078367
0003e0 d2 dc d6 3d aa 05 c9 bc f6 8b f0 bc 30 0e aa 3d
       0.10491337 -0.024538834 -0.029363614 0.08303487
0003f0 58 32 45 bc b1 02 09 bd a4 94 cc ba 3f 92 75 bc
       -0.012035929 -0.033449832 -0.0015608263 -0.014988481

encoder.blocks.1.conv.3.bias f4 [32]
000000 de 81 14 3c eb 4b c8 3b 50 c8 7d 3d a2 23 d3 3d
       0.009064166 0.0061125658 0.06195861 0.10309531
000010 da ec 34 bc 6b 80 2a bd 38 f5 82 bd 05 f5 8e ba
       -0.011042798 -0.041626375 -0.06394428 -0.0010906762
000020 de 69 2d bc 2c 85 1f 3d f3 85 90 bd 3d c2 72 3d
       -0.010584323 0.038945362 -0.07056799 0.05926727
000030 25 12 a9 3c 6d f8 65 3d f1 30 46 3d ae 16 4a bd
       0.020638535 0.05614512 0.048386518 -0.049338035
000040 2e 0a 0d bd 7f d6 db bb f4 7c be bc 9c 6e 87 3c
       -0.034433536 -0.0067089195 -0.023252942 0.016532235
000050 4b 5f 09 bd 34 fe 42 3d 42 51 a6 bd 71 ca 93 3c
       -0.033538144 0.04760571 -0.081209674 0.018040868
000060 2e 05 0a bd 85 cb fb 3c f3 12 2b 3d cd 32 ad bd
       -0.033696346 0.030736694 0.04176612 -0.08456955
000070 ab 27 82 bd 15 29 60 3d e9 90 9a bd d7 f1 a7 bd
       -0.06355222 0.05472668 -0.07547171 -0.08200424

encoder.blocks.1.conv.4.weight f4 [32]
000000 d1 94 76 3f 0a 03 87 3f ba cc 7c 3f a2 96 85 3f
       0.96320826 1.0547802 0.9874989 1.0436594
000010 03 4b 70 3f 88 a3 60 3f 8b 95 62 3f d8 25 6f 3f
       0.9386446 0.8774953 0.88509434 0.9341712
000020 82 a2 76 3f 2e c6 81 3f 75 f4 8b 3f dd cc 87 3f
       0.9634172 1.0138605 1.0933977 1.0609394
000030 99 d1 75 3f 61 ff 82 3f 5b 05 7d 3f af f7 8e 3f
       0.96022946 1.0234185 0.98836297 1.1169337
000040 dc 19 76 3f 4b 12 67 3f b0 ef 82 3f d0 68 82 3f
       0.9613321 0.9026229 1.0229397 1.0188236
000050 0d 25 86 3f 05 21 75 3f 10 db 86 3f a5 a1 78 3f
       1.0480057 0.9575351 1.0535603 0.9712165
000060 95 74 7e 3f 3f 60 7c 3f a0 c1 87 3f fa 44 75 3f
       0.9939664 0.9858436 1.0605965 0.95808375
000070 5d 64 83 3f 27 3b 99 3f 7d d6 89 3f 17 4a 63 3f
       1.0265003 1.1971177 1.0768582 0.8878493

encoder.blocks.1.conv.4.bias f4 [32]
000000 47 5a 51 bd 92 06 03 bd 89 f6 c4 3c 0d 57 86 3d
       -0.051111486 -0.031988688 0.024043338 0.06559572
000010 28 9d ee bd 0c b2 55 bd b8 c8 fd bd 18 34 11 be
       -0.11651069 -0.05217175 -0.123918 -0.14180028
000020 3e 63 95 bc 0b 6c 27 bd d3 bc a0 3d 06 83 a0 bc
       -0.018235799 -0.040874522 0.07848515 -0.019593727
000030 8d 1e cc bc b9 15 28 bd 20 c5 42 bd 1b 8d 5a 3c
       -0.024916911 -0.04103634 -0.047551274 0.013339306
000040 56 89 d1 bd 7d a0 29 be 4c ed 4c bd b5 98 2e 3c
       -0.10231273 -0.16565128 -0.05003099 0.010656525
000050 4f e5 2d 3d ec 3a d5 bd 4e 73 ce bb 71 83 58 3d
       0.042455014 -0.10411629 -0.0063003665 0.052859727
000060 dc d8 a4 bc 8a ae 42 ba 04 d2 00 3d 1c db 51 bc
       -0.020122938 -0.0007426521 0.031450287 -0.012808587
000070 57 ea ce bd fa fe 91 3d 9c 0e 1f bd ee ca db bd
       -0.101032905 0.07128711 -0.038832292 -0.10732065

encoder.blocks.1.conv.4.running_mean f4 [32]
000000 af 1a 95 3e 65 0b 43 3e fc fc d7 3f f8 78 c0 bf
       0.2912192 0.19047315 1.687408 -1.5036917
000010 40 4f bd 3e c8 e4 50 bf e1 1b 89 3f 5f b1 18 bf
       0.36974525 -0.8159909 1.0711633 -0.59645647
000020 58 41 d7 bf 8e 0b 09 3f da 0b 07 3f a8 11 90 3f
       -1.6816816 0.53533256 0.5275246 1.1255388
000030 aa 84 40 bf a1 79 85 3f af eb 86 3f 4a 6d f5 3f
       -0.7520243 1.0427743 1.0540675 1.9173977
000040 61 6d 04 bf 4f db 91 3f 3c 35 5b 3e 97 cc 9b bf
       -0.517294 1.1395053 0.21407026 -1.2171811
000050 6d 7a 97 be 2d ae da 3d be b1 05 40 d6 5a e2 bf
       -0.2958559 0.10677753 2.0889735 -1.7683971
000060 a9 86 ed bf 35 67 22 c0 d6 0e ca 3e 8c a1 0d c0
       -1.855672 -2.5375493 0.39464444 -2.212985
000070 98 4f 00 3f f7 91 cd 3f ce 0c 31 be dc 3e 1c c0
       0.5012145 1.606017 -0.17290041 -2.4413366

encoder.blocks.1.conv.4.running_var f4 [32]
000000 1b c7 60 40 fe 36 59 40 f2 7a 5e 40 21 bf 8c 40
       3.5121524 3.3939815 3.476254 4.398331
000010 08 55 c1 40 cf ba af 40 41 62 03 41 e9 ad 36 40
       6.04163 5.491554 8.211488 2.8543646
000020 bc 23 c8 40 a3 a8 98 40 1b a0 e3 40 06 96 05 40
       6.254362 4.7705855 7.113294 2.0872817
000030 f6 bd 7c 40 08 57 53 40 2c cb ce 40 73 1e 98 40
       3.9490943 3.302187 6.4623013 4.753717
000040 78 a9 81 40 37 de 9b 40 d5 06 c0 3f d3 eb 3d 40
       4.051937 4.870876 1.5002085 2.9675186
000050 8a 40 33 40 43 a8 82 40 70 b0 a8 40 f5 50 0c 41
       2.8008142 4.0830398 5.271538 8.769765
000060 f0 90 79 40 10 74 17 41 08 18 25 40 51 c4 ce 40
       3.8994713 9.465836 2.5795918 6.4614644
000070 2e 99 b4 3f d2 13 82 40 11 67 19 40 1f 12 e8 40
       1.4109247 4.0649195 2.3969157 7.252212

encoder.blocks.1.skip.weight f4 [32, 16, 1, 1]
000000 0a 45 2f 3e 18 b5 7c be 00 09 f8 bc 10 3b 14 3e
       0.1711618 -0.24678457 -0.030277729 0.14475656
000010 b8 23 2c 3d 40 2b 33 3e 24 80 af bd e8 33 8e bd
       0.04202625 0.17496967 -0.08569363 -0.06943494
000020 86 2f 22 be da f3 7a be 54 8f 2b 3e a4 15 9f 3d
       -0.15838441 -0.24507084 0.16753894 0.077677995
000030 08 0d 3a 3d bc e6 9a 3d 8c e2 64 3e 00 80 a8 39
       0.045422584 0.0756354 0.22352046 0.00032138824
000040 96 0c 14 3e 68 a0 f0 3d 78 30 2f 3e 00 9f 8d 3d
       0.14457926 0.11749345 0.17108333 0.069150925
000050 f0 75 a3 3d cc 9c 90 3d 80 9e 0f 3d 20 d8 61 bd
       0.07981479 0.07061157 0.035063267 -0.055137753
000060 5c a2 d6 3d a2 1f 18 3e f0 4b 0d 3d 78 f5 4d 3e
       0.10480186 0.14855817 0.034496248 0.2011317
000070 f4 bf 9c bd 4a 4a 1c be 30 d7 44 3d 06 b1 34 3e
       -0.076538 -0.15262714 0.04805678 0.17645654
000080 30 da 62 be e0 bf bd 3d 3a 41 72 be 5c 08 c3 3d
       -0.22153544 0.09265113 -0.23657694 0.09523079
000090 da 1e 17 be c2 46 7c 3e 40 b7 39 3c 90 8b 1a 3e
       -0.14757863 0.24636367 0.011335194 0.15092301
0000a0 b0 8c be bd f0 e2 06 3d a0 fb ea 3c 88 46 24 bd
       -0.09304178 0.03293127 0.028684437 -0.040106326
0000b0 44 2a 6f 3e 58 ac a7 3d 58 07 c4 3d 44 f5 5d 3e
       0.23355967 0.08187169 0.09571713 0.21675593
0000c0 9a 9d 09 3e 3e fd 1a 3e 58 f3 98 3d e0 16 7d 3c
       0.13439026 0.15135667 0.07468289 0.015447348
0000d0 30 c4 38 3d 42 be 6a 3e 60 f7 d7 bd e4 48 52 be
       0.045108974 0.2292414 -0.1054523 -0.20535618
0000e0 30 90 8a bc 68 f6 36 bd ea e8 1e 3e a0 c1 c7 3d
       -0.016914457 -0.044668585 0.15518537 0.09753728
0000f0 34 af bb 3d 72 e8 3f 3e e0 13 dd bd 1c 45 78 3e
       0.09164277 0.18741015 -0.107948065 0.24245113
000100 02 c6 39 3e e6 6d 77 be c0 7a 7b 3d 58 bb 03 3d
       0.1814194 -0.24163017 0.06139636 0.032161087
000110 80 8f 69 bb ae 8c 60 3e 8c 15 56 be 00 39 2c 3c
       -0.0035638511 0.21928665 -0.20906657 0.010511637
000120 d6 c8 47 be 84 f6 5b be 68 53 07 bd 3c c8 91 bd
       -0.19510207 -0.21480757 -0.033038527 -0.0711827
000130 30 81 3a bd 78 86 84 3d 48 4b 03 3d 88 73 d4 bd
       -0.04553336 0.064709604 0.032054216 -0.10373598
000140 d2 09 06 be 2e b8 15 3e 78 74 dc bd b4 ad ca 3d
       -0.13089684 0.1462104 -0.10764402 0.098964125
000150 b4 e5 5b 3e 88 10 a8 bd a0 f5 88 bc 7e 20 70 be
       0.21474344 -0.08206278 -0.016718686 -0.23449895
000160 3c 02 11 be 40 d0 e0 3b a8 91 37 be b0 58 ed 3d
       -0.14161009 0.006860763 -0.17926657 0.115891814
000170 14 4d 3a 3e fc 4a 2b 3e 54 e9 ee 3d 34 cf 7a be
       0.18193465 0.16727823 0.116655976 -0.24493104
000180 bc c3 91 3d 2e 26 05 3e ba 77 3f be ea 83 3f be
       0.071174115 0.13002846 -0.18698016 -0.18702665
000190 e4 f9 ac bd a0 e8 0c 3e 50 d7 3e 3d 0e 59 77 3e
       -0.084461 0.13760614 0.046592057 0.24155065
0001a0 24 c9 33 3e da 5a 58 3e c8 66 7a 3d 80 51 cf bd
       0.17557198 0.21128407 0.061133176 -0.10122967
0001b0 60 54 25 bd 12 5b 1d 3e f0 58 07 bd 38 60 1f 3e
       -0.04036367 0.15366772 -0.0330438 0.15564048
0001c0 78 78 04 bd b4 0a bf 3d 86 ae 1d be c4 7e 2b be
       -0.03234145 0.09328213 -0.15398607 -0.16747576
0001d0 4a 6c 79 3e 72 b2 20 3e 12 17 1e 3e 7a fb 34 be
       0.24357715 0.15693071 0.15438488 -0.17674056
0001e0 86 37 33 be 80 b0 c0 3b 9c 9d dc 3d 6e 07 3c be
       -0.1750165 0.0058804154 0.10772249 -0.18362209
0001f0 32 46 24 3e a6 5d 48 be d8 9f 03 3d 20 c2 5e 3d
       0.16042402 -0.19566974 0.03213486 0.05438435
000200 fc 18 10 3e ac e9 4b 3e c2 1d 5c 3e 08 23 45 be
       0.14072031 0.19913357 0.21495727 -0.19251645
000210 e0 95 25 be bc 2f 83 bd 44 e4 76 3e 1e ad 70 3e
       -0.16170454 -0.06405589 0.24110514 0.23503539
000220 04 1c 9b bd 82 8e 06 3e 60 1b 6d be b8 6d 19 3d
       -0.07573703 0.131403 -0.23154974 0.03745815
000230 68 9d 0f 3e b8 5e 2f 3d 16 78 16 be 40 76 6c bd
       0.1402489 0.04281494 -0.14694247 -0.05772996
000240 50 0d 69 3d c2 59 46 be 86 bc 1d 3e 6a 35 26 be
       0.05689746 -0.19370177 0.15403947 -0.16231313
000250 22 81 23 be c8 a1 cc 3d 36 14 42 be 04 a1 49 3e
       -0.15967229 0.09991795 -0.18953022 0.19690329
000260 06 20 0c be 70 d5 a4 3d 6c 50 77 3e c4 0d 98 bd
       -0.13684091 0.080485225 0.24151772 -0.074245006
000270 00 8c 28 3b e0 28 b2 bc f0 36 16 3e 4e a5 6e be
       0.0025718212 -0.021748006 0.14669394 -0.23305246
000280 dc 6a 22 3e 00 f4 fc 3c 14 fa d6 bd 0c 10 b5 3d
       0.15861076 0.030878067 -0.10496917 0.08840951
000290 60 b7 11 bd e0 84 81 bd 90 e7 ae bd 18 40 35 3e
       -0.03557527 -0.06324172 -0.08540261 0.17700231
0002a0 36 50 2e be a8 4d 20 3e 2a ea 18 3e c0 0b 7e be
       -0.17022786 0.15654624 0.14933077 -0.2480917
0002b0 62 48 2c be 70 d8 f3 bc 82 f6 6f 3e 44 96 36 3e
       -0.16824487 -0.029766291 0.23433879 0.1783076
0002c0 4e a1 74 3e 00 59 99 bb f6 65 07 3e 14 5b e4 3d
       0.23889658 -0.004679799 0.13222489 0.11150184
0002d0 10 b8 f8 3d 42 19 54 3e 32 4e 1c be 28 9e 78 3d
       0.12144482 0.2071276 -0.15264204 0.060697705
0002e0 18 ee 3c 3d 62 dc 0a be 90 9e 3d be 9e 4e 3a be
       0.0461255 -0.13560632 -0.18517518 -0.18194053
0002f0 cc bf f2 bd 8c e4 ae bd 1e 74 3e 3e 44 01 5f be
       -0.118529886 -0.085396856 0.18598983 -0.21777827
000300 dc fb 0e 3e 80 ac 8c 3b f8 97 21 bd 78 2f f1 3d
       0.13963264 0.0042930245 -0.03945157 0.11776632
000310 9c 00 3c be 28 57 1e 3d 78 66 0d 3e 3c a6 ca 3d
       -0.18359607 0.038657337 0.1380862 0.09894988
000320 98 92 df 3d 74 9f e2 3d c8 3b 2b 3e 72 04 13 3e
       0.109166324 0.110655695 0.16722023 0.14357165
000330 b4 a2 c0 3d 1c a3 c7 3d fc f8 09 3e 38 62 5f 3d
       0.09406033 0.097479075 0.13473886 0.054537028
000340 e0 5a 1a 3d a8 ae f4 3d b4 24 94 3d c4 c8 f7 3d
       0.03768432 0.119473755 0.07233563 0.1209884
000350 80 72 57 3e c0 5e 2b bc b0 e7 14 3d cc 31 2d 3e
       0.21039772 -0.010459602 0.036353767 0.16913527
000360 a6 90 4c be 94 90 78 be 48 12 d9 bd 1c 17 d9 bd
       -0.19977054 -0.24273902 -0.1059919 -0.10600111
000370 bc 58 7a 3e ec d8 44 3e c0 b8 13 bc 34 b1 65 3e
       0.24447912 0.19223374 -0.009016216 0.22430879
000380 ba 5b 5e be 00 35 43 bc e8 0a 14 bd 00 ab 35 be
       -0.21714678 -0.011914492 -0.036143214 -0.17741013
000390 a8 52 c5 bd b8 c5 00 be 28 19 36 3d 8a 32 31 3e
       -0.09634906 -0.12575424 0.044457585 0.17304435
0003a0 14 86 18 3e 38 83 71 3d 8c 65 59 3e 50 85 18 be
       0.14894897 0.05896303 0.21230143 -0.14894605
0003b0 fc 42 1f 3e e8 30 04 3d 24 93 fc 3d 10 46 78 be
       0.15552896 0.032273203 0.12332752 -0.24245477
0003c0 62 30 47 3e 18 c8 57 be 40 97 a9 bd d8 ce b4 bd
       0.1945205 -0.21072423 -0.08280802 -0.08828515
0003d0 80 6a d0 3c 48 f8 4b 3e 00 87 1d 3c 80 ad 41 bb
       0.025441408 0.1991893 0.009614706 -0.0029552877
0003e0 0c 3a 27 3e 48 b2 36 be ec 85 e9 bd c0 57 5f bd
       0.16330737 -0.17841446 -0.11402497 -0.054527044
0003f0 e8 af 8f 3d 52 d9 4e 3e 96 71 04 be 00 3d 02 bb
       0.07015973 0.20200089 -0.12933955 -0.0019872785

encoder.blocks.1.skip.bias f4 [32]
000000 64 ba 57 be 24 86 93 3d 2a e4 02 3e 90 83 84 bd
       -0.21067196 0.0720332 0.1278235 -0.06470406
000010 d4 c2 d6 bd 00 46 ac 3a 78 97 20 3e b0 5a 91 3c
       -0.10486379 0.001314342 0.1568278 0.017743438
000020 40 46 b6 bd a4 90 3f be 00 dc a2 bd 30 14 ce bd
       -0.08900118 -0.1870752 -0.07952118 -0.10062444
000030 8c 3c 2a 3e 52 19 64 be 6c 53 bc 3d 30 31 b9 bd
       0.1662466 -0.22275284 0.09195599 -0.09042585
000040 02 59 1f be f0 a7 05 be 10 f7 77 bd 20 6a 4f bc
       -0.15561298 -0.13052344 -0.06053835 -0.0126595795
000050 0c 77 80 3d fe 55 2b 3e a0 54 4f bd 94 0f af 3d
       0.062727064 0.16732022 -0.050617814 0.08547893
000060 58 61 35 bd 36 ef 44 be 64 12 f6 3d 12 ba 36 3e
       -0.044282287 -0.19231877 0.120152265 0.17844418
000070 d0 a7 22 be e0 1e 5e be 52 28 4b 3e 3a 0e 65 3e
       -0.15884328 -0.21691465 0.198396 0.22368708
