toyshapes/pinets_ensemble/ensemble_11/model_6.pth (torch, 466407 bytes, 71 tensors)

encoder.blocks.0.conv.0.weight f4 [16, 1, 3, 3]
0.0060724877 0.04749133 0.40378782 -0.07021665 -0.23725846 -0.15635218 -0.05235346 0.02424197
-0.06118159 -0.26861006 -0.16754729 -0.07653599 0.07986693 0.15832569 -0.17635378 0.16829601
0.22082472 0.091714256 -0.010546454 -0.04053331 -0.08092532 0.0108849555 0.14743772 0.32624942
0.11153731 -0.008932592 -0.315053 0.26705384 -0.26133344 -0.043653384 0.061846793 -0.2802549
0.21997963 -0.27732912 0.24458064 -0.0047708913 -0.14682361 -0.22220878 0.24431531 -0.17703444
0.3083698 -0.024026008 0.2485498 0.08477361 -0.18296748 0.031948615 -0.075921714 0.28821588
0.120482944 -0.121203505 0.15941903 -0.05280334 0.25749624 0.09839033 -0.24946766 -0.28745142
-0.14125527 0.17854281 0.036512416 -0.058453638 0.074673325 0.2393398 0.033168793 0.06459178
-0.10928849 0.16776273 0.19470371 -0.12119509 -0.021033352 -0.22112432 0.18218797 -0.06351226
0.2646829 0.13854389 -0.15955289 -0.18871441 0.3101922 -0.04237038 -0.4642437 0.25112432
-0.12444056 -0.07722619 -0.07383146 -0.14258528 0.3239996 0.20538247 -0.17497015 -0.046466228
-0.14264901 -0.063510485 0.15635149 -0.1266402 0.062198136 -0.037371475 -0.30267474 0.28104123
0.2560957 -0.26898205 -0.11018769 -0.16831298 0.31180295 0.06823847 0.19036226 0.061606325
-0.035381906 0.17665689 0.02686087 0.2931127 0.19546293 -0.28299752 -0.061289888 0.26151618
-0.037216783 0.042696908 0.25263405 -0.035534594 -0.21054225 -0.11515391 -0.13683784 0.03197818
0.094611496 -0.09866374 0.36034316 0.23174857 -0.15740289 -0.16211301 -0.19557795 0.1748401
-0.18926223 -0.031914786 0.26895148 -0.13210526 -0.036388777 -0.2224504 0.24865225 -0.037653923
-0.24472265 -0.29808763 0.10999443 -0.024899151 -0.005729638 0.069524385 0.2531236 0.02876577
00000000: b8fb c63b 4586 423d 47bd ce3e bfcd 8fbd
00000010: e2f3 72be c91a 20be 9570 56bd 1997 c63c
00000020: 8c99 7abd 4287 89be 8491 2bbe e7be 9cbd
00000030: 4691 a33d 2120 223e 1696 34be ca55 2c3e
00000040: e01f 623e afd4 bb3d 09cb 2cbc 4206 26bd
00000050: 2dbc a5bd d056 323c eaf9 163e 2a0a a73e
00000060: ac6d e43d 025a 12bc a04e a1be 48bb 883e
00000070: 7fcd 85be e4cd 32bd 1053 7d3d 927d 8fbe
00000080: 5742 613e 15fe 8dbe 5973 7a3e 2355 9cbb
00000090: ee58 16be b38a 63be cb2d 7a3e 8448 35be
000000a0: a5e2 9d3e 31d2 c4bc d783 7e3e c99d ad3d
000000b0: d45b 3bbe 8ddc 023d d87c 9bbd 0891 933e
000000c0: c3bf f63d 8b39 f8bd be3e 233e 5148 58bd
000000d0: 8cd6 833e df80 c93d 7374 7fbe d52c 93be
000000e0: 39a5 10be edd3 363e 0b8e 153d 156d 6fbd
000000f0: 54ee 983d 7e15 753e 00dc 073d b248 843d
00000100: a5d2 dfbd fec9 2b3e 6960 473e 2235 f8bd
00000110: 234e acbc 6a6e 62be 7c8f 3a3e b712 82bd
00000120: 8484 873e 73de 0d3e d561 23be 5a3e 41be
00000130: 83d1 9e3e 908c 2dbd 5ab1 edbe 5e93 803e
00000140: b1da febd c428 9ebd f334 97bd e001 12be
00000150: 47e3 a53e c84f 523e 602b 33be 5f53 3ebd
00000160: 9512 12be c911 82bd 9b1a 203e f8ad 01be
00000170: 79c3 7e3d d512 19bd 2ff8 9abe a3e4 8f3e
00000180: fa1e 833e 04b8 89be 15aa e1bd 3d5a 2cbe
00000190: a3a4 9f3e 9cc0 8b3d 53ee 423e ea56 7c3d
000001a0: 9eec 10bd 8be5 343e 540b dc3c de12 963e
000001b0: 6f27 483e 0de5 90be 1b0b 7bbd 73e5 853e
000001c0: a070 18bd f4e2 2e3d 4059 813e b98c 11bd
000001d0: 6398 57be d0d5 ebbd 381f 0cbe 8dfb 023d
000001e0: acc3 c13d 3710 cabd e67e b83e 7f4f 6d3e
000001f0: 392e 21be f400 26be 9645 48be 4809 333e
00000200: f5cd 41be 14b9 02bd 02b4 893e 9a46 07be
00000210: 660c 15bd 0aca 63be b29e 7e3e 003b 1abd
00000220: 9398 7abe f19e 98be c244 e13d 4ef9 cbbc
00000230: b0bf bbbb cd62 8e3d 6b99 813e 31a6 eb3c

encoder.blocks.0.conv.0.bias f4 [16]
-0.14540604 -0.15714312 -0.20811844 0.26186952 0.11151706 -0.14267877 0.109264866 -0.097236775
0.2928074 -0.23141637 0.15965809 0.17245217 0.20961283 -0.19984943 0.3017482 0.0739369
00000000: 52e5 14be 20ea 20be 001d 55be c313 863e
00000010: 0e63 e43d 621a 12be 42c6 df3d 1324 c7bd
00000020: daea 953e 6af8 6cbe 697d 233e 4d97 303e
00000030: bfa4 563e 54a5 4cbe bd7e 9a3e 3b6c 973d

encoder.blocks.0.conv.1.weight f4 [16]
1.0397516 1.0730788 0.8041673 1.10841 0.9865147 0.8825774 1.0044914 1.1917737
1.1904479 0.77047926 1.0266558 0.7789603 0.9403685 0.6731046 1.035191 0.96403503
00000000: 9516 853f a55a 893f e8dd 4d3f 61e0 8d3f
00000010: 3a8c 7c3f 98f0 613f 2d93 803f 0a8c 983f
00000020: 9960 983f 213e 453f 7569 833f f169 473f
00000030: fdbb 703f 9550 2c3f 2481 843f 00cb 763f

encoder.blocks.0.conv.1.bias f4 [16]
0.0049901633 -0.011039932 -0.13077258 0.074833766 0.024590844 -0.077316895 0.10441258 0.056202915
0.022776414 -0.0045747403 0.0367225 -0.20710489 -0.10334927 -0.031174535 0.017895855 -0.03881992
00000000: 8684 a33b d5e0 34bc 3fe9 05be 7242 993d
00000010: bd72 c93c 5258 9ebd 43d6 d53d 0735 663d
00000020: 9a95 ba3c b4e7 95bb 556a 163d 4e13 54be
00000030: c8a8 d3bd bd61 ffbc 549a 923c a301 1fbd

encoder.blocks.0.conv.1.running_mean f4 [16]
-0.16648296 -0.13003513 -0.13534653 0.22020605 0.18246596 0.20313238 0.03589914 -0.047706965
0.31385115 -0.29325992 0.13018933 0.6296954 0.2809719 -0.17534615 0.26434577 0.029953253
00000000: 827a 2abe ee27 05be 4898 0abe b27d 613e
00000010: 5bd8 3a3e ef01 503e fa0a 133d 6168 43bd
00000020: 19b1 a03e 2a26 96be 5a50 053e b833 213f
00000030: 8ddb 8f3e f18d 33be 5458 873e 8660 f53c

encoder.blocks.0.conv.1.running_var f4 [16]
0.0031029915 0.005372574 0.0022271825 0.001440025 0.002121986 0.021031471 0.006602587 0.0008768809
0.0047060205 0.003413885 0.002739188 0.034884807 0.006355273 0.0019692408 0.0014487273 0.0057988395
00000000: 8f5b 4b3b 6b0c b03b ecf5 113b 39bf bc3a
00000010: 0411 0b3b 314a ac3c 845a d83b 7bde 653a
00000020: f634 9a3b 7cbb 5f3b f383 333b 5fe3 0e3d
00000030: e53f d03b 610e 013b 39e3 bd3a 3104 be3b

encoder.blocks.0.conv.3.weight f4 [16, 16, 3, 3]
-0.0035436798 -0.10070597 -0.02581103 -0.02668753 -0.08678284 -0.08047713 0.086108685 -0.12218642
-0.09034721 0.035416093 0.05033524 0.07848916 0.10935072 0.12545529 0.010441233 -0.04879853
-0.040373124 0.013287613 -0.08285235 -0.124735765 0.067046575 -0.047181588 0.033466477 -0.06890771
-0.077546634 -0.027315442 -0.024974992 0.022702178 -0.012837927 -0.024861714 0.15251875 -0.058163367
0.05352924 0.09413642 0.08823122 -0.11236126 0.048641726 0.015789282 0.0056575895 -0.04874185
0.025867235 0.021886136 0.033648323 0.015305119 -0.037193183 -0.028173866 -0.072619244 0.056053303
-0.02290843 -0.043097626 0.007354156 0.012721844 0.07522581 -0.0121917855 0.056879178 -0.0015624734
0.1042291 0.056330033 0.079789296 0.110527486 -0.004347001 -0.04488124 -0.077524096 -0.104570486
-0.1737213 -0.05816909 -0.13170604 -0.117565565 -0.11947914 0.05289805 -0.17780602 -0.078531966
-0.001109923 -0.062628545 -0.1670536 -0.123648286 -0.090118825 -0.21478194 0.036269482 -0.024959812
-0.13755985 -0.03818718 -0.0010756025 -0.074420914 -0.104718156 -0.048731163 -0.05203303 -0.052934155
-0.12173394 -0.10242369 -0.079588026 -0.0057779024 -0.11705089 0.01587268 -0.13358645 -0.12580284
0.055846132 0.008583921 0.021666324 0.015910823 0.054561954 -0.041957673 -0.062370423 0.039216176
-0.033644672 0.0037723614 -0.05490477 0.07976377 -0.11523646 -0.11019996 -0.06491611 -0.039502054
-0.036441885 0.0031096472 -0.20445211 -0.20249236 -0.11899147 0.045449216 -0.099365205 -0.082083635
0.07116957 -0.08403825 -0.0065457504 -0.08416962 -0.14059167 -0.04026248 0.07587095 0.039745424
0.012141129 -0.051604975 0.12580912 0.01987176 -0.035843413 -0.0036251284 -0.021187652 0.057172302
0.13946442 0.086549066 0.037538964 0.058273584 0.14503923 -0.052968904 0.016462628 -0.02329214
-0.021837885 0.052752234 -0.16215761 -0.030757617 -0.037610315 -0.044073645 -0.07606709 -0.10037034
-0.011708125 0.032348063 0.048816446 0.07671342 -0.013823895 0.07068047 0.017217679 0.07155726
0.02901948 0.080564514 -0.068987966 0.040150926 -0.039077587 -0.07503105 -0.06036315 0.001421703
-0.043147657 -0.081296 -0.009514448 -0.002006103 0.07098151 -0.20072463 -0.057209957 -0.021136528
0.09453691 0.15345806 -0.13556169 0.15776792 0.03679897 0.030433021 -0.0717448 0.09133756
-0.037272062 -0.09077051 0.10411817 0.058107622 -0.051973596 0.009568474 -0.01854999 -0.012293163
0.03794907 -0.041388936 -0.058240008 0.0421383 0.025610445 0.07915168 -0.15923363 -0.03631157
0.026034284 -0.099165715 -0.1342092 -0.034849614 0.035737723 -0.0872858 0.016883237 -0.11978663
0.0721309 -0.03724496 -0.024596319 -0.061477125 0.07766234 0.18363632 0.06109742 0.116026245
-0.2113353 0.12635651 -0.040661156 -0.22989653 -0.031700987 -0.09918436 -0.0144384615 -0.19847763
0.040375836 -0.0037956827 -0.12381112 -0.004584327 -0.18829888 0.010575987 -0.12762822 -0.0025119379
-0.084879994 -0.013409072 -0.010651249 -0.0650474 -0.029952763 0.029693875 -0.13007973 0.016561715
-0.13326024 -0.042225882 0.015229916 0.0056619733 -0.041273788 0.023355534 0.036721572 -0.06294267
0.06917537 -0.032833036 0.10998326 0.018116647 0.0015240549 0.046989944 0.012517394 0.046058282
00000000: 153d 68bb ee3e cebd a771 d3bc cf9f dabc
00000010: 34bb b1bd 32d1 a4bd c059 b03d e03c fabd
00000020: f507 b9bd 7710 113d 532c 4e3d edbe a03d
00000030: 45f3 df3d 5a77 003e b511 2b3c f8e0 47bd
00000040: 4a5e 25bd 4ab4 593c 7eae a9bd 7775 ffbd
00000050: b74f 893d 7b41 41bd 2514 093d 7c1f 8dbd
00000060: c5d0 9ebd a2c4 dfbc 5b98 ccbc ebf9 b93c
00000070: 2b56 52bc cbaa cbbc e02d 1c3e b63c 6ebd
00000080: 7a41 5b3d 98ca c03d 92b2 b43d a91d e6bd
00000090: 8c3c 473d 8658 813c 4d63 b93b 89a5 47bd
000000a0: 86e7 d33c 8e4a b33c d3d2 093d 52c2 7a3c
000000b0: e157 18bd e1cc e6bc 66b9 94bd 2698 653d
000000c0: 76aa bbbc 2387 30bd 22fb f03b 486f 503c
000000d0: fd0f 9a3d 0ec0 47bc 24fa 683d e8cb ccba
000000e0: 1176 d53d 52ba 663d 9268 a33d 3c5c e23d
000000f0: 4a71 8ebb 64d5 37bd f4c4 9ebd 0d29 d6bd
00000100: ffe3 31be b642 6ebd f3dd 06be 37c6 f0bd
00000110: 7bb1 f4bd a0ab 583d c812 36be 5ed5 a0bd
00000120: d67a 91ba 6543 80bd 1910 2bbe 503b fdbd
00000130: 3890 b8bd ccef 5bbe 4f8f 143d 8578 ccbc
00000140: 7ddc 0cbe 296a 1cbd 3bfb 8cba fe69 98bd
00000150: 7976 d6bd 549a 47bd 9620 55bd 7cd1 58bd
00000160: a54f f9bd 83c3 d1bd 0cff a2bd 8f54 bdbb
00000170: 61b8 efbd 6c07 823c e3ca 08be 76d2 00be
00000180: eabe 643d 93a3 0c3c 937d b13c 6a57 823c
00000190: 5b7c 5f3d cfdb 2bbd 2178 7fbd 24a1 203d
000001a0: ffce 09bd b939 773b d3e3 60bd 305b a33d
000001b0: 1801 ecbd 84b0 e1bd bdf2 84bd e8cc 21bd
000001c0: 1644 15bd 39cb 4b3b e55b 51be 285a 4fbe
000001d0: cdb1 f3bd f528 3a3d fc7f cbbd 771b a8bd
000001e0: 5ac1 913d 3f1c acbd bc7d d6bb 1f61 acbd
000001f0: 43f7 0fbe 45ea 24bd 3b62 9b3d 19cc 223d
00000200: 96eb 463c bd5f 53bd 1bd4 003e 1aca a23c
00000210: 8bd0 12bd 9093 6dbb ba91 adbc 812d 6a3d
00000220: c3cf 0e3e a340 b13d 75c2 193d 48b0 6e3d
00000230: 2a85 143e ecf5 58bd a2dc 863c 28cf bebc
00000240: 5de5 b2bc ba12 583d a50c 26be 66f7 fbbc
00000250: 460d 1abd 9186 34bd 10c9 9bbd f78e cdbd
00000260: 6fd3 3fbc 677f 043d c1f3 473d ed1b 9d3d
00000270: 9e7d 62bc ecc0 903d 170c 8d3c 9d8c 923d
00000280: 43ba ed3c 02ff a43d 9049 8dbd 4c75 243d
00000290: d20f 20bd e1a9 99bd 5a3f 77bd 7058 ba3a
000002a0: 99bb 30bd 847e a6bd 7de2 1bbc d378 03bb
000002b0: c15e 913d c28a 4dbe fd54 6abd 8326 adbc
000002c0: 919c c13d 1c24 1d3e afd0 0abe ea8d 213e
000002d0: 84ba 163d ac4e f93c f0ee 92bd 300f bb3d
000002e0: 97aa 18bd e4e5 b9bd e83b d53d 4202 6e3d
000002f0: 44e2 54bd 17c5 1c3c 26f6 97bc 4369 49bc
00000300: 7c70 1b3d 7287 29bd 138d 6ebd 3699 2c3d
00000310: ffcc d13c 471a a23d 240e 23be 71bb 14bd
00000320: da45 d53c 6517 cbbd 236e 09be 78be 0ebd
00000330: b861 123d e6c2 b2bd b74e 8a3c b152 f5bd
00000340: 5eb9 933d 2c8e 18bd 387e c9bc 70cf 7bbd
00000350: 6f0d 9f3d 290b 3c3e 4a41 7a3d 2b9f ed3d
00000360: 4868 58be 9a63 013e 508c 26bd ff69 6bbe
00000370: e5d8 01bd 2b21 cbbd 4c8f 6cbc b83d 4bbe
00000380: 2261 253d fdc0 78bb af90 fdbd 1f38 96bb
00000390: 6cd1 40be e846 2d3c f9b0 02be 539f 24bb
000003a0: 90d5 adbd b9b1 5bbc 9482 2ebc 9237 85bd
000003b0: 7f5f f5bc 9240 f33c 9f33 05be 6fac 873c
000003c0: 5f75 08be 0cf5 2cbd e686 793c 1388 b93b
000003d0: b40e 29bd 1b54 bf3c 5c69 163d 16e8 80bd
000003e0: d1ab 8d3d ef7b 06bd e73e e13d 5d69 943c
000003f0: ccc2 c73a 8778 403d c115 4d3c 9ca7 3c3d

encoder.blocks.0.conv.3.bias f4 [16]
-0.015470218 0.010485388 -0.0817127 -0.10732136 -0.12387845 -0.06501674 -0.054560818 0.05118899
0.07369882 -0.057730135 0.07184826 -0.12062942 0.011166778 0.028119227 0.12717806 -0.008627838
00000000: cc76 7dbc e8ca 2b3c fd58 a7bd 4dcb dbbd
00000010: fcb3 fdbd 7f27 85bd 2a7b 5fbd 8cab 513d
00000020: 68ef 963d 6f76 6cbd 2e25 933d 8f0c f7bd
00000030: ddf4 363c 4b5a e63c f73a 023e c75b 0dbc

encoder.blocks.0.conv.4.weight f4 [16]
0.8910496 1.0085194 0.94154227 1.0376952 1.1011307 0.9766091 1.052846 0.94347185
1.0315022 0.9001496 0.9275111 0.98434997 0.927398 1.0476798 0.9709725 0.80949
00000000: d41b 643f 2a17 813f ea08 713f 32d3 843f
00000010: daf1 8c3f 0e03 7a3f a8c3 863f 5f87 713f
00000020: 4408 843f 3470 663f 5e71 6d3f 5cfe 7b3f
00000030: f569 6d3f 5f1a 863f a791 783f bd3a 4f3f

encoder.blocks.0.conv.4.bias f4 [16]
-0.059346672 -0.047832 -0.027648492 -0.20159264 -0.08920937 0.079857014 -0.11372047 -0.0731512
-0.036619727 -0.068565756 -0.07500424 0.008669559 -0.015300446 -0.13391158 0.030949892 -0.13146442
00000000: 7f15 73bd 7deb 43bd 177f e2bc 4d6e 4ebe
00000010: 67b3 b6bd 138c a33d 47e6 e8bd 4cd0 95bd
00000020: 91fe 15bd 346c 8cbd d39b 99bd c40a 0e3c
00000030: b9ae 7abc 1e20 09be a18a fd3c 9c9e 06be

encoder.blocks.0.conv.4.running_mean f4 [16]
-0.77304816 -0.5465942 0.5429291 -0.078365184 -0.3935364 -1.1834651 0.6222243 -0.56258374
0.87370193 -1.201125 -0.037709802 -0.8010808 -0.77693194 0.2710054 -1.3375331 -0.07546096
00000000: 7ce6 45bf 99ed 0bbf 67fd 0a3f ed7d a0bd
00000010: 9a7d c9be c97b 97bf 174a 1f3f 7d05 10bf
00000020: eeaa 5f3f 77be 99bf 9875 1abd a213 4dbf
00000030: 03e5 46bf 38c1 8a3e 4934 abbf 478b 9abd

encoder.blocks.0.conv.4.running_var f4 [16]
1.9432067 0.7575172 1.1200713 0.47560745 0.6566985 1.5451269 1.343577 0.71458864
1.3247186 2.0443003 0.70314443 1.1077335 1.98633 1.5407426 1.4933522 2.1630743
00000000: ffba f83f a6ec 413f 7f5e 8f3f d282 f33e
00000010: 651d 283f b8c6 c53f 55fa ab3f 48ef 363f
00000020: 6190 a93f d1d5 0240 4601 343f 36ca 8d3f
00000030: 1040 fe3f 0e37 c53f 2a26 bf3f cf6f 0a40

encoder.blocks.0.skip.weight f4 [16, 1, 1, 1]
-0.90862226 -0.77148116 0.12730682 -0.5813745 0.5919914 -0.940855 0.91050625 0.5266067
-0.012554526 -0.6186229 -0.48231518 -0.4986415 0.026171088 -0.26127565 0.722751 -0.80807793
00000000: 789b 68bf ca7f 45bf b85c 023e f6d4 14bf
00000010: c08c 173f e0db 70bf f016 693f b2cf 063f
00000020: 80b1 4dbc 125e 1ebf 04f2 f6be f04d ffbe
00000030: c064 d63c ecc5 85be 3606 393f 32de 4ebf

encoder.blocks.0.skip.bias f4 [16]
-0.22013426 0.773672 0.06334162 0.8856952 0.7185402 0.3476436 0.63598716 0.1554184
-0.33414578 0.2793107 0.19971526 -0.5418451 -0.5231668 0.421494 -0.3727888 -0.07173622
00000000: e06a 61be 5e0f 463f 40b9 813d ecbc 623f
00000010: 40f2 373f 58fe b13e 0ed0 223f 0026 1f3e
00000020: 2815 abbe d001 8f3e 2882 4c3e 5cb6 0abf
00000030: 42ee 05bf 10ce d73e 2cde bebe 70ea 92bd

encoder.blocks.1.conv.0.weight f4 [32, 16, 3, 3]
0.09760698 0.07122619 -0.05005246 -0.059503596 0.007679435 0.071125254 0.02408876 -0.04794285
0.01579434 -0.0014966322 -0.064239 -0.00865307 0.06219807 -0.03774277 0.0049033863 0.098978534
0.12531146 0.08451584 0.078910306 0.1361047 -0.058473866 -0.046606842 0.0074371453 0.02824979
-0.070776634 -0.092623144 -0.071232565 -0.047926802 0.00840549 0.042984013 -0.08405362 -0.054652944
0.020320762 0.050341755 0.12250073 0.079541646 0.00375094 0.05984663 0.044739384 0.103293866
-0.046876945 0.053317025 -0.04639447 0.019366477 0.09340413 0.011045449 -0.049611144 0.038632724
0.0184848 0.11915936 0.037366994 0.09916472 0.18253408 -0.018484626 0.13864812 -0.008194506
0.04006623 0.18284877 0.1498362 0.17384894 0.0630829 0.0009297945 -0.058477625 0.06722393
0.06853795 0.08151763 0.011788293 -0.06761958 0.009341279 0.058068704 -0.057984725 -0.041653883
0.14423205 0.20356004 0.014114983 -0.001902061 -0.020610465 0.09289093 0.15448526 0.01362876
0.04616232 -0.05623045 0.045111544 -0.010636711 -0.050869092 0.07426162 -0.0014556688 0.03793043
0.14603971 0.019535298 0.034979593 -0.0060000657 -0.08128536 -0.028016098 -0.012659907 -0.09433661
0.031606924 -0.054507885 -0.054579053 0.072256565 0.067339055 0.09453185 0.04124637 -0.0026222407
0.00784759 0.11559236 0.0041722097 0.008301979 0.014113125 -0.053222794 0.02649354 0.10980022
0.08328972 -0.07558495 -0.052911673 -0.06932161 0.06519041 0.17296788 0.13534796 0.025210457
0.019990826 0.058121588 0.10265116 -0.012796926 -0.071458116 0.04281023 0.122665375 0.045315303
-0.08449099 0.09837139 0.02655511 0.034905214 0.23839328 0.16342817 0.0018550083 0.10813418
0.004504204 -0.008731165 0.048914913 -0.055572126 0.007828357 -0.046208005 0.0077830306 0.065499045
-0.029096283 0.061663166 0.011760854 0.086412504 0.12624738 -0.057271022 0.030589083 0.12642701
0.108169325 -0.10503437 -0.06317363 -0.025389628 0.049506698 0.04527275 -0.085384294 0.0053647617
0.0023453603 0.0038960483 -0.024366317 -0.026350863 0.12990892 -0.047603834 0.010962522 0.06595124
0.040615834 0.14985257 0.00382227 -0.02426419 0.024930261 -0.037554987 0.06619983 0.01963021
-0.015146766 -0.026087178 0.015675057 0.0016855983 0.009994256 -0.05687175 -0.08350406 0.013957954
-0.002928738 -0.010899046 -0.03249373 -0.08539188 -0.096797474 0.0872683 0.16542855 -0.042768832
0.015235081 -0.06593325 -0.040417098 0.027181618 -0.051179923 0.0008827527 0.12125352 0.035994608
0.0005575663 0.16528723 0.13438357 0.16196504 0.0067746625 0.062512316 0.15896939 -0.020431286
0.019770913 0.024012718 -0.041344486 -0.064364955 0.023654068 0.08807114 0.060398668 0.056172647
0.034033258 0.0418331 -0.015370629 0.15594573 0.015544309 0.058797866 -0.00016273478 0.06315621
0.035737894 0.007696322 -0.034405153 -0.04760905 -0.08317654 -0.013495436 -0.054583985 -0.052186843
-0.09838885 -0.019001937 0.04921733 0.056689784 0.024868844 0.056287818 0.07726157 0.10143463
-0.032725986 0.09669278 0.089237094 0.01630136 0.08263648 -0.0190614 -0.00012647861 0.01910867
0.06754178 -0.07441811 -0.056535322 -0.08187612 -0.035028297 -0.024438946 0.021928731 0.006576396
00000000: 2be6 c73d 09df 913d cf03 4dbd 0bba 73bd
00000010: c5a3 fb3b 1eaa 913d cb55 c53c b95f 44bd
00000020: 2263 813c a52a c4ba bd8f 83bd 9bc5 0dbc
00000030: 67c3 7e3d 2a98 1abd 96ac a03b 42b5 ca3d
00000040: a651 003e a416 ad3d ba9b a13d 085f 0b3e
00000050: 4b82 6fbd d1e6 3ebd 4cb3 f33b 1b6c e73c
00000060: 57f3 90bd 34b1 bdbd 61e2 91bd e54e 44bd
00000070: 2eb7 093c 0110 303d 4e24 acbd c4db 5fbd
00000080: ba77 a63c 2833 4e3d aae1 fa3d bbe6 a23d
00000090: 55d2 753b bd21 753d a540 373d bc8b d33d
000000a0: 0a02 40bd f462 5a3d 2108 3ebd 72a6 9e3c
000000b0: aa4a bf3d f9f7 343c 0e35 4bbd 593d 1e3d
000000c0: 6f6d 973c d309 f43d 220e 193d df16 cb3d
000000d0: 37ea 3a3e 126d 97bc c6f9 0d3e 4042 06bc
000000e0: 7d1c 243d b53c 3b3e a96e 193e 7505 323e
000000f0: 9c31 813d 74bd 733a 3c86 6fbd b3ac 893d
00000100: a05d 8c3d b7f2 a63d af23 413c 227c 8abd
00000110: 2a0c 193c 73d9 6d3d 6481 6dbd 439d 2abd
00000120: 91b1 133e 0b72 503e 8842 673c 944e f9ba
00000130: 47d7 a8bc 9a3d be3d 6231 1e3e 2a4b 5f3c
00000140: b314 3d3d e651 66bd e2c6 383d 9945 2ebc
00000150: 1c5c 50bd 7a16 983d 24cc beba f05c 1b3d
00000160: 6f8b 153e 7d08 a03c c346 0f3d 339c c4bb
00000170: f078 a6bd 0482 e5bc 806b 4fbc 8d33 c1bd
00000180: 4376 013d a943 5fbd 498e 5fbd 40fb 933d
00000190: 0fe9 893d ea99 c13d f4f1 283d e6d9 2bbb
000001a0: 2e93 003c b0bb ec3d 08b7 883b 0605 083c
000001b0: bd3a 673c 2500 5abd fb08 d93c f0de e03d
000001c0: cd93 aa3d 48cc 9abd e9b9 58bd 7df8 8dbd
000001d0: 8d82 853d 7e1e 313e a898 0a3e 2986 ce3c
000001e0: cdc3 a33c e710 6e3d c53a d23d 33aa 51bc
000001f0: a258 92bd c859 2f3d fc37 fb3d 8a9c 393d
00000200: 9d09 adbd f076 c93d 1a8a d93c c5f8 0e3d
00000210: 5e1d 743e b759 273e c023 f33a 7475 dd3d
00000220: 0098 933b 290d 0fbc 015b 483d 999f 63bd
00000230: 8242 003c 9b44 3dbd cb08 ff3b 5d24 863d
00000240: 545b eebc 8492 7c3d 99b0 403c 0af9 b03d
00000250: fe46 013e 0595 6abd f595 fa3c 1576 013e
00000260: e187 dd3d 431c d7bd 2d61 81bd e9fd cfbc
00000270: 89c7 4a3d eb6f 393d f6dd aebd e2ca af3b
00000280: 9eb4 193b d854 7f3b df9b c7bc c4dd d7bc
00000290: d806 053e 3dfc 42bd 269c 333c 7211 873d
000002a0: ca5c 263d f472 193e 0d7f 7a3b b2c5 c6bc
000002b0: 8c3a cc3c 42d3 19bd c793 873d 89cf a03c
000002c0: 242a 78bc c7b4 d5bc fa68 803c 4bef dc3a
000002d0: f3be 233c 5af2 68bd 2d04 abbd e7af 643c
000002e0: 12f0 3fbb ea91 32bc 2518 05bd f0e1 aebd
000002f0: c13d c6bd b9b9 b23d 1a66 293e 5f2e 2fbd
00000300: 909c 793c 0308 87bd 668c 25bd fcab de3c
00000310: 0aa2 51bd 8868 673a c453 f83d 156f 133d
00000320: a429 123a 0e41 293e d99b 093e 2ada 253e
00000330: fdfd dd3b 7506 803d dfc8 223e 835f a7bc
00000340: 9cf6 a13c 52b6 c43c d658 29bd c6d1 83bd
00000350: 2dc6 c13c a45e b43d 9864 773d 4a15 663d
00000360: 7566 0b3d 2f59 2b3d 17d5 7bbc 3db0 1f3e
00000370: 8fad 7e3c 08d6 703d c9a3 2ab9 0b58 813d
00000380: e661 123d 6e31 fc3b 6bec 0cbd b501 43bd
00000390: 7658 aabd f61b 5dbc 7593 5fbd dfc1 55bd
000003a0: 1880 c9bd f3a9 9bbc 1c98 493d 8c33 683d
000003b0: bfb9 cb3c 0e8e 663d 503b 9e3d f6bc cf3d
000003c0: af0b 06bd dd06 c63d f0c1 b63d 6e8a 853c
000003d0: 513d a93d a726 9cbc 589f 04b9 c989 9c3c
000003e0: 5853 8a3d 8668 98bd 9591 67bd abae a7bd
000003f0: d579 0fbd 2f34 c8bc e2a3 b33c cf7e d73b

encoder.blocks.1.conv.0.bias f4 [32]
-0.026769046 0.065435484 -0.010372954 -0.008390205 -0.01905696 0.026824797 0.07184985 0.014022403
0.043169968 0.09660627 0.088683195 0.07109476 -0.018375944 0.039265938 -0.016793665 0.009953805
0.031376556 0.0059089162 0.003092612 0.04583355 -0.09868196 -0.034508158 -0.003812556 0.027513655
0.01786306 0.010250135 0.0035239677 0.04941867 -0.021519724 -0.11389683 0.059665877 0.06403287
00000000: c24a dbbc 0a03 863d 53f3 29bc 1277 09bc
00000010: 571d 9cbc adbf db3c 0426 933d 39be 653c
00000020: fed2 303d 82d9 c53d 899f b53d 219a 913d
00000030: 2689 96bc 52d5 203d de92 89bc 4915 233c
00000040: b484 003d 959f c13b 6bad 4a3b f6bb 3b3d
00000050: c419 cabd 6d58 0dbd 13dc 79bb 5164 e13c
00000060: 8d55 923c 2ff0 273c 5ef2 663b 3b6b 4a3d
00000070: 224a b0bc be42 e9bd 3564 743d aa23 833d

encoder.blocks.1.conv.1.weight f4 [32]
1.0006691 0.9027285 0.97074914 0.98152107 0.9560256 0.7781064 0.90293205 0.96466875
1.1155304 0.91292757 0.94025725 1.0411494 0.9687461 1.0316162 0.9979556 0.9713058
1.0535887 1.1090287 0.9229683 0.9303859 0.9504051 0.9854438 1.1342906 1.1226845
1.0278994 0.98679346 1.005256 0.9391876 0.88440704 0.9932362 1.0933249 0.8755221
00000000: ed15 803f 3719 673f 0483 783f f744 7b3f
00000010: 18be 743f fb31 473f 8e26 673f 88f4 763f
00000020: b3c9 8e3f 9fb5 693f b3b4 703f 6244 853f
00000030: bfff 773f 000c 843f 057a 7f3f 7fa7 783f
00000040: ffdb 863f a7f4 8d3f a747 6c3f c52d 6e3f
00000050: c04d 733f 0b46 7c3f 6f30 913f 20b4 8f3f
00000060: 3592 833f 7f9e 7c3f 3bac 803f 996e 703f
00000070: 8068 623f ba44 7e3f 12f2 8b3f 3722 603f

encoder.blocks.1.conv.1.bias f4 [32]
-0.015954254 -0.07819367 -0.04146434 0.011591916 -0.07590253 -0.12992644 0.02893404 -0.029892543
-0.064054064 -0.00057700434 -0.10950309 0.006569195 -0.027151898 0.03928821 0.045330178 -0.013423523
-0.015225468 -0.16867155 -0.026526354 -0.060818415 -0.044743355 0.059474096 -0.13363045 -0.0142802885
0.05172699 0.040331393 0.034646664 -0.040201392 -0.02526542 0.027782157 0.040876478 -0.08085
00000000: 7fb2 82bc 0124 a0bd 83d6 29bd 05ec 3d3c
00000010: c972 9bbd 700b 05be 1407 ed3c 35e1 f4bc
00000020: c72e 83bd 1b42 17ba 2843 e0bd 6742 d73b
00000030: a86d debc adec 203d 23ac 393d 56ee 5bbc
00000040: 3e74 79bc 3cb8 2cbe cc4d d9bc bb1c 79bd
00000050: cf44 37bd 1c9b 733d 6cd6 08be dff7 69bc
00000060: aedf 533d 8832 253d a9e9 0d3d 37aa 24bd
00000070: 6df9 cebc 6897 e33c 186e 273d af94 a5bd

encoder.blocks.1.conv.1.running_mean f4 [32]
1.8499738 1.0227396 0.6310556 1.1351798 -0.82482255 0.48589078 -1.0208133 -1.6031717
-0.16065985 -0.79200834 1.2864392 -0.122710004 0.86864805 0.9775419 1.7512478 1.5160238
-0.6153473 0.41066036 -0.522624 1.3471723 -1.0974271 -2.442172 1.2866584 -0.46067747
1.3161436 0.7278149 -1.7844602 0.31716403 -1.2630379 -0.71713793 1.7455343 -0.7296011
00000000: f1cb ec3f 22e9 823f dc8c 213f 924d 913f
00000010: 9227 53bf adc6 f83e 03aa 82bf bb34 cdbf
00000020: 0484 24be 0fc1 4abf 0aaa a43f 624f fbbd
00000030: b85f 5e3f 3040 7a3f e328 e03f 110d c23f
00000040: 6787 1dbf 1342 d23e b0ca 05bf 2470 ac3f
00000050: 7e78 8cbf 8c4c 1cc0 39b1 a43f ebdd ebbe
00000060: 6577 a83f 1452 3a3f 3169 e4bf 5363 a23e
00000070: 3aab a1bf 5a96 37bf ab6d df3f 23c7 3abf

encoder.blocks.1.conv.1.running_var f4 [32]
1.8477806 1.8373532 1.6904719 0.68598676 1.0543755 1.5715315 1.4379299 2.9645374
0.9447316 1.7599243 1.2689184 1.6875983 2.0858598 1.7975533 4.210675 2.692646
1.5357169 1.931678 1.5021092 2.0882244 1.4842845 3.3727236 2.265512 1.0417441
2.5551376 1.5603063 1.3922422 1.7865859 1.5419606 2.5050285 2.2954845 1.7020854
00000000: 1384 ec3f 642e eb3f 6261 d83f d49c 2f3f
00000010: c7f5 863f f227 c93f 160e b83f fbba 3d40
00000020: eed9 713f 3345 e13f eb6b a23f 3903 d83f
00000030: ba7e 0540 3a16 e63f d9bd 8640 5054 2c40
00000040: 5f92 c43f 3a41 f73f 1d45 c03f 78a5 0540
00000050: 09fd bd3f b4da 5740 26fe 1040 df57 853f
00000060: 6087 2340 1eb8 c73f fe34 b23f d9ae e43f
00000070: f75e c53f 6352 2040 38e9 1240 efdd d93f

encoder.blocks.1.conv.3.weight f4 [32, 32, 3, 3]
-0.045308575 -0.067575105 -0.05500997 -0.027993891 -0.054517996 0.0010933508 -0.045428477 0.023255792
0.00081165874 0.019018559 -0.031015208 -0.08381476 -0.002089119 -0.028126054 -0.044140935 -0.08570393
-0.08817765 -0.026450634 -0.036063924 -0.007525497 -0.04969888 0.004355532 0.024583353 -0.05944475
-0.019090801 -0.031632997 -0.06649125 -0.0055362973 0.03619988 -0.03414208 -0.0405102 -0.025432745
-0.03735459 -0.041664302 -0.04893749 -0.06965655 0.04644346 0.116531774 0.024602713 -0.044566277
-0.012043016 -0.050167106 -0.02832253 0.069796905 0.016532313 0.038419697 0.029867534 -0.021532914
0.10475975 -0.006750791 -0.01923665 -0.0007586005 -0.0348311 -0.027296642 -0.0038926736 0.05128347
0.10501598 -0.03965747 -0.009277757 0.030285982 -0.037850153 -0.019296326 0.06283797 0.06009277
-0.020094467 0.007115722 0.025067896 -0.113593556 -0.02624078 -0.03339817 -0.056005195 -0.00015312101
-0.046991616 0.07240883 0.17689282 0.0028384968 0.13647765 0.15606147 0.056506578 0.068777606
0.02280863 0.0036549538 0.050475523 0.056108657 0.077363044 0.031065805 0.04767376 0.013953458
-0.0015559142 0.055821285 0.09462194 0.07542721 0.016228786 0.08244017 0.0449365 0.044959504
0.09536018 0.015161023 -0.027967304 0.06633843 0.06277564 -0.02316004 -0.03449481 0.06445898
0.013840555 0.045084402 0.07505273 0.12811479 0.088418834 0.059528705 0.01871497 0.10509907
-0.051463887 0.023410529 0.01703784 0.03724093 -0.06427542 0.051216237 0.08185105 -0.06578371
0.020966226 0.08212464 -0.07738293 0.015861258 0.075767614 -0.0440168 -0.04318934 -0.022653954
-0.034838997 0.018678574 -0.03011079 -0.077641346 -0.053710565 0.0014213641 -0.0064252373 -0.066333346
-0.061210785 -0.09020795 -0.06174291 -0.0056632226 -0.033087205 -0.05348446 -0.064652935 -0.058174655
0.08964402 0.06638671 0.017331712 0.1556993 0.085083045 -0.011080301 0.17812218 0.026136572
-0.045038328 0.09923333 0.08947738 0.09043016 0.056775294 0.1672024 0.1120061 0.15989828
0.04247511 0.03315282 0.09841378 0.030137306 0.06388343 0.0150332395 0.011961574 0.069802545
0.0041334103 -0.022975385 -0.016727477 -0.020351162 -0.018357733 -0.14464988 -0.023098826 -0.018853458
-0.098777376 -0.03845415 -0.033163246 -0.060412016 0.09909594 0.07805318 0.10307161 0.07040801
0.12543525 0.069508746 0.11912089 0.097800426 0.06735858 0.13591304 0.019401101 0.03798801
-0.01611414 -0.04625032 0.029596971 0.02863384 0.10201465 0.020936891 -0.012223549 0.12933123
0.068742394 0.10747572 0.07450802 0.006447182 0.13842303 0.017877836 0.059897896 0.023631606
0.16126904 0.17741124 0.120812476 0.15258151 0.1562008 0.16588253 0.1531715 0.059950903
0.014977825 -0.0105833085 -0.056244362 0.022496857 0.04583869 -0.012202459 -0.0609458 -0.004215595
0.027879119 -0.06903506 0.04259046 -0.09246822 -0.006862201 -0.029364796 0.0051810346 -0.0044784867
-0.06440799 -0.024772141 0.10750723 0.0335043 0.112868145 0.027194517 0.033837333 0.0932919
-0.0023002487 0.058899887 0.08777706 0.007470978 0.0038960527 0.006811823 -0.019123051 0.047064625
-0.054098275 0.0030203932 -0.036814246 -0.09127995 0.034407303 0.06535202 -0.033691403 0.05391326
00000000: 7c95 39bd d164 8abd 2252 61bd 7253 e5bc
00000010: 434e 5fbd c44e 8f3a 3613 3abd ee82 be3c
00000020: 7fc5 543a cfcc 9b3c 9b13 febc 13a7 abbd
00000030: 9ae9 08bb 9c68 e6bc 20cd 34bd 8b85 afbd
00000040: 7c96 b4bd 00af d8bc c4b7 13bd 7298 f6bb
00000050: 0e91 4bbd dab8 8e3b 0763 c93c 577c 73bd
00000060: 5064 9cbc 9a91 01bd 912c 88bd d469 b5bb
00000070: 5346 143d 91d8 0bbd 06ee 25bd 5558 d0bc
00000080: 2001 19bd 30a8 2abd ad72 48bd 18a8 8ebd
00000090: 7f3b 3e3d 36a8 ee3d a18b c93c 218b 36bd
000000a0: 1250 45bc 067c 4dbd a704 e8bc aef1 8e3d
000000b0: c66e 873c f95d 1d3d c2ac f43c cb65 b0bc
000000c0: 488c d63d bd35 ddbb 2e96 9dbc d1dc 46ba
000000d0: 0eab 0ebd 359d dfbc 3a1c 7fbb 9e0e 523d
000000e0: 9e12 d73d df6f 22bd bc01 18bc 4f1a f83c
000000f0: c308 1bbd 5413 9ebc 32b1 803d d623 763d
00000100: 279d a4bc 012b e93b 305b cd3c bda3 e8bd
00000110: e7f6 d6bc 85cc 08bd b465 65bd 1c8f 20b9
00000120: 487a 40bd 154b 943d 6423 353e 1306 3a3b
00000130: ccc0 0b3e 94ce 1f3e 7173 673d 46db 8c3d
00000140: 2ad9 ba3c f387 6f3b 6cbf 4e3d 31d2 653d
00000150: 8470 9e3d b77d fe3c 9045 433d 0b9d 643c
00000160: d1ef cbba dca4 643d 26c9 c13d 9579 9a3d
00000170: 3bf2 843c 64d6 a83d 560f 383d 7527 383d
00000180: 334c c33d f065 783c b01b e5bc 71dc 873d
00000190: 8490 803d 20ba bdbc 6e4a 0dbd 1203 843d
000001a0: 7fc3 623c 6caa 383d 3fb5 993d 8630 033e
000001b0: ef14 b53d 5fd4 733d 2350 993c 2e3e d73d
000001c0: cccb 52bd 70c7 bf3c f192 8b3c f289 183d
000001d0: d5a2 83bd 1ec8 513d 86a1 a73d 9cb9 86bd
000001e0: 5dc1 ab3c f730 a83d f17a 9ebd 78ef 813c
000001f0: 0d2c 9b3d f64a 34bd 4ee7 30bd c994 b9bc
00000200: 56b3 0ebd cf03 993c e7aa f6bc 6d02 9fbd
00000210: 9cff 5bbd 114d ba3a cc8a d2bb c7d9 87bd
00000220: 29b8 7abd f2be b8bd 22e6 7cbd 8e92 b9bb
00000230: 7386 07bd 8512 5bbd c268 84bd 8c48 6ebd
00000240: 4997 b73d c1f5 873d 3cfb 8d3c a36f 1f3e
00000250: 0540 ae3d 278a 35bc a965 363e 5d1c d63c
00000260: 1c7a 38bd d83a cb3d eb3f b73d 7333 b93d
00000270: 368d 683d 1b37 2b3e 7463 e53d 60bc 233e
00000280: 62fa 2d3d 40cb 073d 2a8d c93d 83e2 f63c
00000290: 51d5 823d fa4d 763c 7afa 433c a3f4 8e3d
000002a0: 8f71 873b e036 bcbc 1008 89bc 7bb7 a6bc
000002b0: f562 96bc 191f 14be c039 bdbc 9172 9abc
000002c0: cb4b cabd 1982 1dbd 2fd6 07bd 9772 77bd
000002d0: d0f2 ca3d 58da 9f3d 3517 d33d 1332 903d
000002e0: 1972 003e 9a5a 8e3d a7f5 f33d 974b c83d
000002f0: 4cf3 893d ca2c 0b3e 0fef 9e3c 5199 1b3d
00000300: cd01 84bc fa70 3dbd 5975 f23c 8491 ea3c
00000310: 0fed d03d d883 ab3c 4845 48bc 686f 043e
00000320: d0c8 8c3d 3b1c dc3d a997 983d e242 d33b
00000330: c4be 0d3e 8a74 923c 7f57 753d 1297 c13c
00000340: b623 253e 4bab 353e 886c f73d 543e 1c3e
00000350: 1af3 1f3e 1cdd 293e fdd8 1c3e 148f 753d
00000360: 8d65 753c 9d65 2dbc 7d60 66bd 544b b83c
00000370: 5ac1 3b3d d3ec 47bc 4ea2 79bd f922 8abb
00000380: c062 e43c 4162 8dbd 5673 2e3d fa5f bdbd
00000390: 50dc e0bb 718e f0bc abc5 a93b 45c0 92bb
000003a0: 56e8 83bd f2ee cabc c02c dc3d ce3b 093d
000003b0: 6a27 e73d 09c7 de3c 0499 0a3d d30f bf3d
000003c0: c5bf 16bb 0241 713d 76c4 b33d 1bcf f43b
000003d0: eb54 7f3b b735 df3b f2a7 9cbc d6c6 403d
000003e0: 2796 5dbd caf1 453b 89ca 16bd fcf0 babd
000003f0: acee 0c3d 48d7 853d ffff 09bd 27d4 5c3d

encoder.blocks.1.conv.3.bias f4 [32]
-0.022709422 -0.032565705 0.06822194 -0.044686332 0.00028103695 0.12313085 0.028432077 -0.017330172
-0.05401506 0.009130877 -0.009660881 0.016603014 -0.06982425 0.044601504 0.0030003001 -0.026977986
0.035208236 -0.054308563 0.011823128 0.08314161 0.058813807 -0.015001529 0.002346909 0.023004867
-0.033058785 -0.06558539 -0.0919901 -0.032492455 -0.013056074 0.06674557 0.01909749 0.042865977
00000000: 1c09 babc 9e63 05bd f2b7 8b3d 0409 37bd
00000010: 2458 9339 072c fc3d 63ea e83c 01f8 8dbc
00000020: e53e 5dbd ad99 153c ac48 1ebc 0b03 883c
00000030: 0400 8fbd 11b0 363d afa0 443b f000 ddbc
00000040: 8336 103d a872 5ebd cbb5 413c 2646 aa3d
00000050: bfe6 703d f9c8 75bc 99ce 193b b474 bc3c
00000060: a668 07bd a251 86bd 4e65 bcbd cf16 05bd
00000070: 25e9 55bc e7b1 883d 5772 9c3c 3c94 2f3d

encoder.blocks.1.conv.4.weight f4 [32]
1.1448852 0.9844237 0.96166795 0.9232204 1.1652893 1.1382519 0.90543205 0.9602808
0.9891691 0.8948915 1.0592858 0.9324636 0.9862729 0.96020174 0.93078345 0.93632525
1.0274585 0.9607532 0.8827902 1.0739697 0.996659 0.9459122 0.9020516 0.91424984
0.9075997 0.92282414 1.03384 1.0783899 0.97012115 0.88735765 0.954361 0.91505927
00000000: 998b 923f 3103 7c3f df2f 763f 2c58 6c3f
00000010: 3328 953f 3db2 913f 65ca 673f f6d4 753f
00000020: 303a 7d3f 9c17 653f ad96 873f efb5 6e3f
00000030: 617c 7c3f c8cf 753f d347 6e3f 03b3 6f3f
00000040: c383 833f ecf3 753f 8afe 613f d777 893f
00000050: 0b25 7f3f 4d27 723f dbec 663f 470c 6a3f
00000060: 7458 683f 343e 6c3f de54 843f ae08 8a3f
00000070: dc59 783f df29 633f 0151 743f 5341 6a3f

encoder.blocks.1.conv.4.bias f4 [32]
-0.09286474 0.06074143 -0.00048148187 -0.053037822 0.01814536 -0.09583101 -0.04284769 -0.056633152
0.020154022 -0.07580584 -0.054190572 0.046931632 -0.022392964 -0.0012614528 -0.05722366 -0.040914454
0.018447602 -0.0035733934 -0.08408195 -0.03362478 -0.00990145 -0.024436735 -0.026624117 -0.028229486
-0.04529676 -0.014425804 -0.16878076 0.007755639 -0.056626096 -0.07975008 -0.0549651 -0.07861095
00000000: de2f bebd 01cc 783d 676f fcb9 303e 59bd
00000010: 94a5 943c 0c43 c4bd 0f81 2fbd 2af8 67bd
00000020: 0c1a a53c 1840 9bbd eff6 5dbd 623b 403d
00000030: 7371 b7bc 5557 a5ba 5b63 6abd ea95 27bd
00000040: 6d1f 973c 982f 6abb 2833 acbd 23ba 09bd
00000050: b139 22bc 8c2f c8bc d21a dabc 8641 e7bc
00000060: 1889 39bd 355a 6cbc ddd4 2cbe 0423 fe3b
00000070: c4f0 67bd 0354 a3bd 1623 61bd c7fe a0bd

encoder.blocks.1.conv.4.running_mean f4 [32]
1.481752 -0.36174074 0.4748568 -1.8751409 1.4651642 0.71062815 -1.8211473 1.1720891
-2.0799391 -3.6904771 2.9452324 1.0365013 -2.4916775 -1.9334481 -2.004695 0.7156373
-0.2426447 -1.1252145 -2.8137157 2.0602279 -0.5731586 0.98309034 -2.990154 1.8318639
-1.3898504 -2.9011807 -0.3747517 1.6315469 -1.7489164 -3.8980498 -2.2631128 -2.4167945
00000000: 0daa bd3f 1536 b9be 6e20 f33e 9e04 f0bf
00000010: 808a bb3f baeb 353f 5b1b e9bf 0407 963f
00000020: b91d 05c0 c730 6cc0 b07e 3c40 13ac 843f
00000030: a577 1fc0 3a7b f7bf ec4c 00c0 0234 373f
00000040: da77 78be 0707 90bf eb13 34c0 c6da 0340
00000050: 86ba 12bf cfab 7b3f af5e 3fc0 847a ea3f
00000060: 9ee6 b1bf f2ac 39c0 74df bfbe 87d6 d03f
00000070: 7edc dfbf a679 79c0 d7d6 10c0 c3ac 1ac0

encoder.blocks.1.conv.4.running_var f4 [32]
5.605144 7.480313 6.819978 9.731254 6.0076203 9.288734 9.634447 5.6427364
10.321219 13.843181 8.2271805 9.637951 10.952 7.4843755 9.445805 9.135721
8.970173 4.862313 8.471887 6.571782 7.04477 8.386694 12.00907 9.128214
7.9485836 10.3006 6.3673987 5.2589808 3.9992158 16.766281 10.994957 9.898298
00000000: 575d b340 b95e ef40 433d da40 37b3 1b41
00000010: 6d3e c040 a89e 1441 b226 1a41 4c91 b440
00000020: b723 2541 ab7d 5d41 88a2 0341 0c35 1a41
00000030: 643b 2f41 0180 ef40 0422 1741 ea2b 1241
00000040: d485 0f41 1198 9b40 d98c 0741 0a4c d240
00000050: c16e e140 e62f 0641 2725 4041 2a0d 1241
00000060: cc5a fe40 42cf 2441 bbc1 cb40 9249 a840
00000070: 27f3 7f40 5821 8641 58eb 2f41 6e5f 1e41

encoder.blocks.1.skip.weight f4 [32, 16, 1, 1]
-0.01445806 0.03600225 0.23800498 -0.22243476 -0.019886702 -0.040950954 -0.14822763 -0.060379803
0.0320217 0.015081227 -0.12621424 -0.108531415 -0.15389705 0.05271861 -0.058673978 0.12153497
-0.2499215 -0.204007 0.086257756 0.24372855 -0.24640334 -0.23998284 0.03134367 -0.10690439
0.094995975 -0.0007852316 -0.22086406 0.08971271 -0.013385087 -0.22966456 -0.045182586 -0.1964063
0.06666523 -0.1860584 -0.16466591 0.0042300224 -0.023608327 0.2229507 0.10244107 -0.22595444
0.15394115 -0.02392155 -0.21063468 -0.002336353 0.018345118 -0.1664044 -0.20568785 0.06510556
-0.008366436 0.030632406 0.13425493 -0.24143142 -0.092621 -0.08617258 0.17304656 -0.12405023
-0.22959337 0.1303755 -0.06487477 -0.14105976 0.046250165 0.06263125 0.03512317 0.2301073
0.12583068 0.045251727 0.19215691 0.022069037 -0.08624798 -0.20758209 -0.24216536 0.18210393
0.06695244 0.20336324 -0.15910101 -0.06899217 0.12512746 -0.2280083 0.05322191 -0.16859967
-0.062654644 0.15905565 0.07399377 0.008096874 0.19865847 -0.1998932 -0.22958761 -0.15613341
0.09820819 0.17173773 -0.11360344 0.08646393 -0.21977693 0.08656594 0.1277681 0.17026556
0.06474945 0.18789092 0.13441691 0.18758178 0.14461541 0.036116183 -0.1636084 -0.002693653
-0.17536539 -0.12820262 -0.07335594 0.09221542 0.14706194 0.17155007 0.13744593 -0.21332932
-0.06894085 -0.18663743 -0.039189935 0.01823634 -0.033364624 -0.052722335 0.22736302 0.001731664
-0.2426295 0.16334853 0.15572831 0.068541735 -0.034208566 -0.1535689 -0.08492124 -0.07673791
-0.1546418 -0.19163048 -0.15682986 0.05352065 -0.044472277 0.23396203 -0.0964109 -0.09748918
0.074508816 0.16406801 0.13673365 -0.23729834 -0.032773703 -0.09420106 0.024627775 0.071956456
-0.0045986176 -0.044463784 0.05241239 0.06250736 -0.059889406 0.1820482 0.16070172 0.08255753
-0.20355767 -0.18041271 0.11342853 -0.003168255 -0.09133226 -0.13861358 -0.08323857 0.04585558
-0.19825715 0.2042628 0.1421735 -0.20515707 -0.025382668 0.18518448 -0.15414512 -0.19571054
0.162691 -0.18662676 0.13438067 -0.037510157 0.032973886 0.063867 -0.18834808 -0.22991419
-0.01795274 -0.19370371 0.048994303 0.043049037 0.1147517 -0.14606202 0.08008328 0.08021051
0.18725866 0.14053574 0.0655919 -0.05688733 -0.21166223 0.19141743 0.043002516 0.20545241
0.12487164 0.16666916 -0.24060446 0.14606941 0.06613934 -0.106171966 -0.04361689 -0.09357384
0.035560966 -0.088299155 0.047238857 0.11173999 0.12354463 -0.043983042 -0.24840587 -0.11950952
-0.13682604 0.04061663 -0.20174366 0.14427426 -0.14595488 -0.14061481 0.024163127 0.117901415
0.2026054 0.0892154 -0.07189441 -0.16767108 0.24344781 -0.13728157 -0.074512005 -0.15189427
-0.22025025 -0.21611539 -0.04955867 -0.0625231 0.11169967 0.008372337 0.14619982 -0.009729236
0.08317548 -0.012657672 -0.006096065 -0.027982354 -0.20357457 -0.17618927 0.16073647 -0.18193325
-0.22131383 0.14421263 0.18689638 -0.19948113 -0.20541304 -0.0843291 0.023222685 0.16258115
-0.18276095 0.12146127 -0.015496105 0.074489355 -0.15828511 -0.02237168 0.17101935 -0.11860782
00000000: 80e1 6cbc 1877 133d 94b7 733e f0c5 63be
00000010: 70e9 a2bc 30bc 27bd fcc8 17be d050 77bd
00000020: 3029 033d 4017 773c 4e3e 01be b845 debd
00000030: 3097 1dbe 78ef 573d 2054 70bd 54e7 f83d
00000040: 6ceb 7fbe 36e7 50be e8a7 b03d fa93 793e
00000050: 2851 7cbe 10be 75be 3862 003d b0f0 dabd
00000060: 408d c23d 00d8 4dba 302a 62be 4cbb b73d
00000070: 204d 5bbc 302d 6bbe 6011 39bd bc1e 49be
00000080: c887 883d 1886 3ebe 2e9e 28be 009c 8a3b
00000090: 4066 c1bc 304d 643e a0cc d13d 9a60 67be
000000a0: c0a2 1d3e 20f7 c3bc 9eb0 57be 801d 19bb
000000b0: 8048 963c ea65 2abe d69f 52be 1056 853d
000000c0: 6013 09bc d0f0 fa3c 207a 093e cc39 77be
000000d0: 14b0 bdbd 407b b0bd 1e33 313e 0c0e febd
000000e0: 861a 6bbe 2881 053e 10dd 84bd f871 10be
000000f0: d070 3d3d d044 803d 50dd 0f3d 40a1 6b3e
00000100: c2d9 003e e059 393d c8c4 443e 20ca b43c
00000110: c8a2 b0bd 6690 54be 32fa 77be 7479 3a3e
00000120: 5c1e 893d 743e 503e 60eb 22be c44b 8dbd
00000130: 6a21 003e 027b 69be 38ff 593d 64a5 2cbe
00000140: 1451 80bd 7cdf 223e 0c8a 973d c0a8 043c
00000150: 206d 4b3e ceb0 4cbe 0419 6bbe 70e1 1fbe
00000160: 6021 c93d 04dc 2f3e eca8 e8bd 0014 b13d
00000170: 340d 61be 7c49 b13d a4d5 023e 185a 2e3e
00000180: 5c9b 843d 7a66 403e 96a4 093e 7015 403e
00000190: 1016 143e 90ee 133d f688 27be 0088 30bb
000001a0: fc92 33be 8c47 03be a43b 96bd 70db bc3d
000001b0: 6897 163e d2aa 2f3e a0be 0c3e 0073 5abe
000001c0: dc30 8dbd e21d 3fbe a085 20bd 6064 953c
000001d0: 58a9 08bd 60f3 57bd dad1 683e 00f9 e23a
000001e0: de73 78be d644 273e 3e77 1f3e 9c5f 8c3d
000001f0: 481e 0cbd 2a41 1dbe 30eb adbd c428 9dbd
00000200: 6c5a 1ebe c83a 44be 0298 20be 7838 5b3d
00000210: 9028 36bd be93 6f3e 1473 c5bd 68a8 c7bd
00000220: 1498 983d 7201 283e e803 0c3e 56fe 72be
00000230: b83d 06bd 7cec c0bd 30c0 c93c e85d 933d
00000240: 00b0 96bb a81f 36bd 60ae 563d dc03 803d
00000250: 984e 75bd d86a 3a3e fe8e 243e ec13 a93d
00000260: 6c71 50be 1cbe 38be 384d e83d 80a2 4fbb
00000270: 680c bbbd b8f0 0dbe fc78 aabd 10d3 3b3d
00000280: ec03 4bbe 442a 513e ee95 113e b214 52be
00000290: 50ef cfbc 00a1 3d3e 38d8 1dbe 5868 48be
000002a0: 7898 263e 161b 3fbe 169b 093e 40a4 19bd
000002b0: a00f 073d b4cc 823d 52de 40be a06e 6bbe
000002c0: a011 93bc 445a 46be 40ae 483d 3054 303d
000002d0: f002 eb3d 4891 15be b402 a43d 6845 a43d
000002e0: bcc0 3f3e 9ae8 0f3e 0c55 863d b002 69bd
000002f0: fcbd 58be ee02 443e 6823 303d 1e62 523e
00000300: b4bc ff3d 52ab 2a3e 0461 76be 3893 153e
00000310: 1074 873d b070 d9bd a0a7 32bd a4a3 bfbd
00000320: 60a8 113d 30d6 b4bd 887d 413d f0d7 e43d
00000330: f804 fd3d 9027 34bd 1c5e 7ebe 68c1 f4bd
00000340: 201c 0cbe a05d 263d e495 4ebe a2bc 133e
00000350: 3275 15be 54fd 0fbe c0f1 c53c 4c76 f13d
00000360: ca77 4f3e 90b6 b63d 603d 93bd f8b1 2bbe
00000370: 624a 793e 8a93 0cbe c099 98bd 2c8a 1bbe
00000380: 4889 61be 5a4d 5dbe 08fe 4abd 1c0c 80bd
00000390: ccc2 e43d 202c 093c 68b5 153e 6067 1fbc
000003a0: e857 aa3d 2062 4fbc 80c1 c7bb 403b e5bc
000003b0: da75 50be f66a 34be 1a98 243e b64c 3abe
000003c0: 18a0 62be 7aac 133e c461 3f3e c844 4cbe
000003d0: cc57 52be bcb4 acbd 803d be3c ac7b 263e
000003e0: b025 3bbe b0c0 f83d 60e3 7dbc e08d 983d
000003f0: 7e15 22be d044 b7bc b21f 2f3e a8e8 f2bd

encoder.blocks.1.skip.bias f4 [32]
0.20622644 -0.10407299 -0.08615211 -0.17989561 -0.15205485 -0.19494024 0.10689071 0.11324817
0.15685838 0.14150411 0.12985271 -0.108323604 0.21999344 0.22734904 -0.028926134 -0.13652882
0.0485256 -0.22952813 0.13916412 -0.008984834 -0.057563424 0.022999227 0.07788575 -0.13335592
0.21403459 0.13978052 0.24326918 -0.12567228 0.13662723 -0.14367929 0.1794093 -0.12579626
00000000: 062d 533e 3824 d5bd 8470 b0bd 8e36 38be
00000010: 44b4 1bbe 6a9e 47be 84e9 da3d a8ee e73d
00000020: 7c9f 203e 74e6 103e 1cf8 043e c4d8 ddbd
00000030: f645 613e 30ce 683e 80f6 ecbc 36ce 0bbe
00000040: c8c2 463d 6c09 6bbe 0a81 0e3e 2035 13bc
00000050: a0c7 6bbd e068 bc3c 9082 9f3d 748e 08be
00000060: e22b 5b3e a022 0f3e 8e1b 793e 3cb0 00be
00000070: 02e8 0b3e aa20 13be 12b7 373e bcd0 00be

encoder.blocks.2.conv.0.weight f4 [64, 32, 3, 3]
0.0349322 0.12424516 0.033664867 0.08443471 0.21784945 0.076829664 0.0618219 0.11831273
-0.020550132 -0.016769597 -0.06423781 -0.033815574 0.031390406 0.031787902 -0.03415711 0.036354844
0.06712833 -0.032127857 0.03848417 -0.032809433 -0.06709633 0.042111818 -0.0025683152 -0.035772964
0.01880348 0.048486687 0.07861276 0.009967069 0.009103964 0.016007645 0.057153795 0.020943465
0.097757004 0.0028421483 -0.019271223 0.014532877 0.08550308 0.18049572 0.07047627 0.18955699
0.22585155 -0.046692025 0.17427412 0.050746035 -0.060365636 0.06938769 0.19456422 0.084245324
0.23830406 0.22914885 0.051640365 0.13577357 0.09518111 -0.04663542 -0.0412248 0.0028893459
0.0068970914 -0.056683496 0.020465806 0.043343063 -0.018604115 -0.08899035 -0.04525112 0.029382022
-0.035299856 -0.08049196 -0.020038474 -0.019023024 -0.015379407 -0.009383654 0.016199348 0.008482097
0.09133308 0.06425951 0.10518737 0.057636358 0.005663137 0.06891121 0.012611436 0.00059873983
0.06414428 -0.013444936 0.055272155 0.086371854 0.020839281 0.018482774 0.052189797 -0.03413997
0.02886098 0.05363216 0.05653751 0.11818807 0.0027622397 0.14854574 0.08400412 0.07288744
0.15101334 0.05488253 -0.07381567 -0.0091828415 0.03963958 0.0026038403 -0.0033151628 0.04886078
-0.029696511 0.040514726 0.03595646 0.030155951 0.06424719 0.06676761 0.056905374 0.02713778
0.019232117 0.070307806 0.071408324 0.06848633 0.043038156 0.07454724 0.044164125 0.11477683
0.07965888 0.092181735 0.06639936 -0.084087804 0.0070280735 0.06210149 0.11875532 0.090180926
0.099249914 0.014124195 0.012668932 0.028886568 0.0049630236 -0.012012249 -0.014361579 -3.7001864e-05
-0.052066017 0.00058213697 0.06381935 0.016212255 -0.045258433 0.055219006 0.100881204 0.029947571
-0.051231496 -0.007720533 -0.122675054 -0.034690786 -0.10546209 -0.11521581 -0.005277977 0.021366453
-0.029853737 -0.032335736 -0.011417859 -0.08284228 -0.0024134489 -0.030608436 -0.048395846 0.057544444
-4.8038397e-05 0.06659056 0.009907107 0.053887527 0.048896078 -0.023973014 0.076985106 0.08871092
-0.039401855 0.061810903 0.06865295 -0.03299553 0.08892973 0.06392315 -0.0054958947 0.09361408
-0.040531665 0.104545176 0.033789095 -0.10334084 0.00940247 0.04667538 -0.03361243 0.05297935
0.08167879 -0.037010655 0.007101147 -0.0021438724 -0.100844815 -0.03884934 -0.066205405 -0.050110485
-0.024051122 -0.036890127 -0.009172477 0.016741974 0.07515651 0.0047126794 0.07748206 0.015220165
-0.016444378 0.09744202 0.097593404 0.057474773 0.005089179 -0.0012329302 -0.006542073 0.013706494
0.073979415 -0.013181132 0.040073987 0.112676606 -0.013597915 0.047327537 0.06917066 -0.09590059
0.051640186 0.101892985 0.07269642 -0.0017436692 -0.057273358 -0.02758675 -0.08682519 -0.07100056
-0.033853915 0.0023097938 -0.0598444 -0.034004282 -0.05010952 -0.0032468287 -0.02482817 0.024648314
0.052583396 -0.0043757632 0.039291587 0.14191066 -0.0057511637 0.059952196 0.16578774 0.024291793
0.02693827 0.012245607 2.0952568e-05 -0.100737 0.10331431 -0.04911213 0.11058923 0.13991478
-0.026164941 0.09242804 0.04679175 -0.15751575 0.02803313 0.017856117 0.06987743 0.03266176
00000000: 1115 0f3d 3f74 fe3d 2ce4 093d 1bec ac3d
00000010: ed13 5f3e df58 9d3d f638 7d3d f24d f23d
00000020: c058 a8bc 6560 89bc 1d8f 83bd 3382 0abd
00000030: 3a93 003d 0834 023d 53e8 0bbd d1e8 143d
00000040: 947a 893d 8098 03bd 94a1 1d3d 2f63 06bd
00000050: cd69 89bd 717d 2c3d 2e51 28bb ac86 12bd
00000060: c109 9a3c fa99 463d baff a03d eb4c 233c
00000070: cb28 153c 7722 833c 191a 6a3d a191 ab3c
00000080: d334 c83d 5643 3a3b afde 9dbc 4e1b 6e3c
00000090: 3d1c af3d dfd3 383e dd55 903d 3a1b 423e
000000a0: a145 673e 2340 3fbd ea74 323e 13db 4f3d
000000b0: f541 77bd 221b 8e3d d83b 473e d088 ac3d
000000c0: fb05 743e ffa5 6a3e d984 533d 3a08 0b3e
000000d0: 50ee c23d c804 3fbd 56db 28bd 2e5b 3d3b
000000e0: ff00 e23b f42c 68bd e8a7 a73c 7f88 313d
000000f0: a867 98bc 9340 b6bd 3d59 39bd 91b2 f03c
00000100: 9596 10bd f8d8 a4bd ba27 a4bc 2cd6 9bbc
00000110: e9f9 7bbc e6bd 19bc 7fb4 843c 7ef8 0a3c
00000120: d60c bb3d 7d9a 833d 7a6c d73d 1a14 6c3d
00000130: d691 b93b 5221 8d3d 32a0 4e3c c0f4 1c3a
00000140: 145e 833d 2648 5cbc 0e65 623d bae3 b03d
00000150: 24b7 aa3c 3069 973c f8c4 553d 5ad6 0bbd
00000160: dd6d ec3c 65ad 5b3d e093 673d 960c f23d
00000170: b106 353b 601c 183e 5a0a ac3d 0346 953d
00000180: 3ea3 1a3e 81cc 603d ac2c 97bd a173 16bc
00000190: 1d5d 223d 31a5 2a3b 3443 59bb 3e22 483d
000001a0: 1946 f3bc c5f2 253d 1547 133d 9d09 f73c
000001b0: 0894 833d 75bd 883d 9c15 693d 0d50 de3c
000001c0: ac8c 9d3c 8afd 8f3d 873e 923d 9042 8c3d
000001d0: c748 303d 39ac 983d 71e5 343d 1d10 eb3d
000001e0: 3224 a33d c7c9 bc3d 63fc 873d 3a36 acbd
000001f0: c14b e63b 225e 7e3d fd35 f33d c7b0 b83d
00000200: 8a43 cb3d 2b69 673c 5a91 4f3c 86a3 ec3c
00000210: dca0 a23b 06cf 44bc d44c 6bbc 7332 1bb8
00000220: 2d43 55bd 8d9a 183a b8b3 823d 90cf 843c
00000230: e860 39bd 532d 623d ce9a ce3d 9c54 f53c
00000240: 1ed8 51bd 86fc fcbb 0f3d fbbd ed17 0ebd
00000250: 82fc d7bd 44f6 ebbd e1f2 acbb b308 af3c
00000260: d38f f4bc 7a72 04bd f911 3bbc 37a9 a9bd
00000270: f42a 1ebb 8bbe fabc b93a 46bd b9b3 6b3d
00000280: d67c 49b8 a260 883d 6b51 223c 2bb9 5c3d
00000290: 4147 483d 0e63 c4bc 5eaa 9d3d 12ae b53d
000002a0: d763 21bd 6e2d 7d3d eb99 8c3d 5226 07bd
000002b0: ca20 b63d 24ea 823d e816 b4bb bdb8 bf3d
000002c0: 8804 26bd c81b d63d 6f66 0a3d 5da4 d3bd
000002d0: d10c 1a3c af2e 3f3d 30ad 09bd e000 593d
000002e0: 3647 a73d 7c98 17bd bdb0 e83b 3680 0cbb
000002f0: ba87 cebd 7c20 1fbd b396 87bd a740 4dbd
00000300: dc06 c5bc 1a1a 17bd 2848 16bc 7726 893c
00000310: a8eb 993d d26c 9a3b eaae 9e3d 005e 793c
00000320: 5cb6 86bc af8f c73d 0ddf c73d ab6a 6b3d
00000330: 21c3 a63b 469a a1ba e35e d6bb 3491 603c
00000340: 8582 973d adf5 57bc 9f24 243d fec2 e63d
00000350: cac9 5ebc 85da 413d 59a9 8d3d 8767 c4bd
00000360: a984 533d 45ad d03d dce1 943d d48b e4ba
00000370: 7897 6abd 9cfd e1bc 68d1 b1bd be68 91bd
00000380: 67aa 0abd e95f 173b 671f 75bd 1348 0bbd
00000390: a43f 4dbd bfc8 54bb 7264 cbbc 43eb c93c
000003a0: b061 573d 9062 8fbb 37f0 203d 0751 113e
000003b0: 4274 bcbb 6f90 753d 43c4 293e 95ff c63c
000003c0: a6ad dc3c cca1 483c 4cc3 af37 334f cebd
000003d0: 7496 d33d cd29 49bd 9b7c e23d d245 0f3e
000003e0: dc57 d6bc ea4a bd3d b5a8 3f3d cf4b 21be
000003f0: bca5 e53c fe46 923c e61b 8f3d 56c8 053d

encoder.blocks.2.conv.0.bias f4 [64]
0.013470272 -0.0063645504 0.010334552 0.033059638 0.02033087 0.015167335 0.049620435 -0.0016307087
0.037234012 -0.0014100432 -0.022430746 0.003865938 -0.0050625894 0.015377256 0.049640924 -0.03619902
-0.0018411962 -0.024588317 0.024009643 0.035408016 0.007062218 0.008163886 0.080550954 0.03707892
-0.0255353 0.0991944 0.07021043 0.00046920415 0.031083759 0.048473295 0.055531766 -0.06707222
0.011970087 0.061355494 0.026657555 -0.031413056 -0.0076294127 -0.004387737 0.020976681 -0.030008165
0.007890997 -0.036938317 -0.016724404 -0.0059536295 -0.011843722 0.03373664 0.015208698 0.032267675
-0.024954941 0.039104365 0.069211215 0.0070854207 0.032126058 0.03950761 -0.01268809 0.044451278
0.075719155 0.054134175 -0.038867302 -0.038069885 0.050704516 0.006956877 -0.07145454 0.047768455
00000000: 6ab2 5c3c b88d d0bb 4152 293c 8b69 073d
00000010: ed8c a63c 6a80 783c cc3e 4b3d 81bd d5ba
00000020: b182 183d 33d1 b8ba afc0 b7bc ad5b 7d3b
00000030: 14e4 a5bb e3f0 7b3c 4854 4b3d 6c45 14bd
00000040: 4b54 f1ba 706d c9bc dfaf c43c ff07 113d
00000050: 2e6a e73b d2c1 053c e6f7 a43d 11e0 173d
00000060: 682f d1bc 6f26 cb3d 7cca 8f3d 84ff f539
00000070: 5ea3 fe3c ef8b 463d 4775 633d 295d 89bd
00000080: 2f1e 443c e64f 7b3d f260 da3c faaa 00bd
00000090: 2700 fabb 01c7 8fbb 4ad7 ab3c afd3 f5bc
000000a0: 3e49 013c a24c 17bd 9e01 89bc aa16 c3bb
000000b0: 2c0c 42bc 6e2f 0a3d e72d 793c 1c2b 043d
000000c0: 4e6e ccbc e62b 203d 9cbe 8d3d d12c e83b
000000d0: 9d96 033d bbd2 213d b5e1 4fbc 8b12 363d
000000e0: a512 9b3d ccbb 5d3d 5233 1fbd 2bef 1bbd
000000f0: 8aaf 4f3d 84f6 e33b c256 92bd dba8 433d
