toyshapes/pinets_ensemble/ensemble_6/model_9.pth (torch, 466407 bytes, 71 tensors)

encoder.blocks.0.conv.0.weight f4 [16, 1, 3, 3]
00000000: 3e8f e53d 2f5a 1dbe 211c 903d 2b0e c73d
00000010: 0de4 a63e db19 b53e 51f5 8cbe 358f fe3d
00000020: 7f67 7dbe c8c8 b4bb d67c b03e 0234 303d
00000030: 554a 43be 2692 4cbe b488 3b3d 1c6d 083e
00000040: 358f 88bd 6d5d 06be a123 823d d5bd 143e
00000050: 61c1 f33d 7b0b 9f3e cdcb a73e e325 943c
00000060: 9b0b aebd cd25 babe 6d1d d43d 6321 873c
00000070: da2b e13e a70a b4bb 04a8 913d 2c51 973e
00000080: 1fd5 1d3e 63aa b53d 50d2 28be 1632 8abe
00000090: 7188 3fbe 0baa ab3c ad72 253e d080 74bd
000000a0: 388f 9f3e fe46 93be afda 153e 235a 673d
000000b0: 9d12 6cbe 143b 473e 5eda 54be b1e6 943e
000000c0: b527 5b3e 22cd 90be cdc6 7d3e 6257 c93d
000000d0: d872 ab3d 8041 eb3d 04fc ca3d bbbb f5bd
000000e0: 52c6 973d ade2 533d ef5f 80be 2664 8d3e
000000f0: 3e3e 27be 8c53 073e a7b6 2c3b 9fe9 193e
00000100: 9da7 c93c 8256 cbbe 5e3d 8bbd 19ca 90bd
00000110: f2ab 3abe ed85 943e a7d8 933c 5c1d ccbd
00000120: a65d c4be 640d a83e 8676 30be 1863 8cbd
00000130: f2a3 903e a6e4 86be 4add a33d 4d25 a23e
00000140: f2ef c1bd e07f 9d3c 3b9f a2be bbd4 8cbe
00000150: dfc3 723c 7009 aa3e 9b54 493d 9712 25be
00000160: fba8 a33e 4688 db3d 535e ad3e b9a7 c4be
00000170: 6265 b2bd 95b7 143e df64 66be f79e 253d
00000180: b018 a43e 9bb3 6ebe 435e 4ebe d00f 273d
00000190: 2b55 533d 5b28 aa3e e43d 08be ce21 833d
000001a0: 1ecd 7ebe 5f2f 603d 3294 7a3d c727 3fbe
000001b0: 12c6 933e cb9b 22be 7a04 a8bd e340 8cbd
000001c0: 59ec bebd d276 b5bd 51af 53bd cd7e 8d3e
000001d0: 906a a3bd 6ada 993e 43d5 a8be 8c6e fb3d
000001e0: 3c92 a3be f47e 003e 5003 c1bc 9e84 ce3d
000001f0: 477d a6be 5d58 de3d e9dc 27bd 8c3d 643d
00000200: 5916 b13e 02a8 afbd 5485 cc3e 6c19 85bd
00000210: d0d8 4bbe 7daf cabb e99f 6abe 18fe 983d
00000220: 9eee 6b3e 15e3 a6be 9fbb 78bd 8515 d73d
00000230: e6ff 4dbd cbab 1c3e 5ba6 bebe c511 793e
0.11208962 -0.15366434 0.07036615 0.09719499 0.32595864 0.3537129 -0.27530912 0.12429658
-0.24746512 -0.005517099 0.34470242 0.04301835 -0.19071324 -0.19977626 0.045784667 0.13322872
-0.066679396 -0.13121577 0.06354452 0.1452554 0.119021185 0.31063446 0.32772675 0.018084472
-0.08498307 -0.36356965 0.10357175 0.016495412 0.4397877 -0.005494434 0.071121246 0.29554117
0.1541333 0.08870389 -0.16486478 -0.26991338 -0.18704392 0.020955106 0.16157027 -0.059693158
0.31163955 -0.287651 0.14634202 0.056482445 -0.23053975 0.1945613 -0.20786425 0.29082254
0.21401866 -0.28281504 0.24782868 0.0983112 0.08371514 0.114871025 0.099113494 -0.11998697
0.074108735 0.051729847 -0.25073192 0.2761547 -0.16332337 0.13215464 0.0026353986 0.15030526
0.024616057 -0.39714438 -0.06798814 -0.07069797 -0.18229654 0.29008427 0.018047644 -0.09966537
-0.38352698 0.32822716 -0.17232713 -0.06854838 0.2825008 -0.2634632 0.08001192 0.31669083
-0.09469594 0.019226015 -0.31762108 -0.2750605 0.014817207 0.33210325 0.04915295 -0.16120373
0.3196486 0.107193515 0.33861026 -0.38409212 -0.087107435 0.14523156 -0.22499417 0.040434804
0.32050085 -0.23310702 -0.20153145 0.040786564 0.051594894 0.33233914 -0.1330486 0.06402932
-0.24882933 0.054732677 0.061176486 -0.18667518 0.28862053 -0.15879743 -0.08203979 -0.06848314
-0.093224235 -0.08860554 -0.051680867 0.27635804 -0.079793096 0.3004945 -0.32975206 0.122769445
-0.31947505 0.12548429 -0.02356115 0.100838885 -0.32517454 0.10856698 -0.04098216 0.05572276
0.34587362 -0.08576967 0.3994547 -0.064989895 -0.19906926 -0.0061854706 -0.22912563 0.074703395
0.23040244 -0.32595125 -0.060725804 0.105021514 -0.050292872 0.15299909 -0.37236294 0.24323185

encoder.blocks.0.conv.0.bias f4 [16]
00000000: c454 3d3e 085e 1bba 92fb d73c 0676 8ebd
00000010: dbf5 9abd 3bc3 6bbe 1de7 023e f47d b23c
00000020: b45d a8bd 6111 993e 0cbb 043c 050d 71be
00000030: 34a8 473d 2a5b 90be 62b2 7dbe e26e 07be
0.18489367 -0.00059267925 0.026365075 -0.06956105 -0.075664245 -0.23023693 0.12783475 0.021788575
-0.082209975 0.29896072 0.008101236 -0.23540123 0.048744395 -0.28194553 -0.24775079 -0.13225892

encoder.blocks.0.conv.1.weight f4 [16]
00000000: 98a7 683f 45f2 7e3f 51b5 773f 08ca 593f
00000010: c8f2 973f dc1c 663f 8bb8 573f f043 653f
00000020: cb4e 8f3f adab 703f a43a 6a3f 9410 a63f
00000030: e3bc 963f 3537 603f 7bdd 863f cb88 933f
0.9088073 0.99588424 0.9676104 0.850739 1.1870966 0.89887786 0.84265965 0.8955679
1.1195921 0.94011956 0.9149573 1.2973809 1.1776394 0.8758424 1.053634 1.1526121

encoder.blocks.0.conv.1.bias f4 [16]
00000000: cb12 d4bd b82a c73c 7ab0 07be 2a0a 04be
00000010: b9df 773e 7bd7 edbc 2d52 a0bb 4a01 e03c
00000020: e358 823d 172c 11be ad64 92bd 1794 1c3e
00000030: 4fd5 153e 10fd adbd 4e2b 15bd aac3 2a3e
-0.10355147 0.024312362 -0.13250914 -0.12894502 0.24206437 -0.029033413 -0.0048926086 0.027344365
0.0636461 -0.14176975 -0.07148109 0.15290867 0.14632152 -0.084955335 -0.03641825 0.16676202

encoder.blocks.0.conv.1.running_mean f4 [16]
00000000: e57a d93e daaa 95bc f139 bd3e 1b43 943e
00000010: 4f54 dcbd e27c 0e3e 3cf8 083e 459d 19be
00000020: 5fee 83bd e374 b13e 8cfe 02be 6d81 63be
00000030: 0855 893c a938 c3be 2717 39be 24fd 0bbe
0.42476574 -0.018269945 0.36958268 0.28957447 -0.10758268 0.13914827 0.13375944 -0.150014
-0.0644195 0.3465949 -0.12792414 -0.22217341 0.016764179 -0.38129166 -0.18075238 -0.13670784

encoder.blocks.0.conv.1.running_var f4 [16]
00000000: f88f 5a3c e00b ff3a a665 c63c 3a86 e03c
00000010: 3786 f43a 56c0 d43c 9ac9 d13a 2b39 453c
00000020: ce13 bb3b 65f3 b23b c6cd 383c 53e9 0b3b
00000030: 7586 da3a 353f 613b 5e95 c33b d31e 933a
0.013339989 0.0019458495 0.024218392 0.027407754 0.0018655722 0.02597062 0.0016005517 0.012037556
0.005709148 0.005461144 0.011279529 0.002134879 0.0016672151 0.003436995 0.0059687337 0.0011224396

encoder.blocks.0.conv.3.weight f4 [16, 16, 3, 3]
00000000: f324 9ebd 9f0c ffbd 7e6f 43bd d0f9 423d
00000010: bec4 9bbd fa80 1e3d ab5a 563a 40d0 3c3d
00000020: 9c51 b03c e8bd f9bd 2e77 113b 7d52 d8bc
00000030: 497b e8bd 3e98 d7bc fc96 973c 4c47 04bd
00000040: 7727 9d3d bb73 2d3d 7ee3 613d ba9d 753c
00000050: 067d a0bd 48ff f3bd 989c 9bbd 7d81 02be
00000060: 57b5 91bd 8554 5fbd d9ca 2cbc 9f3e 92bd
00000070: 09a3 6fba a676 583d c975 7b3c 4f9a 17bb
00000080: e83a f3bd 37f5 82bd 52f2 0bbd daff 003c
00000090: 8a17 1dbe 7fe1 133e 3e5c 81be e23e 333d
000000a0: da56 e4bd 8870 163d f30d 833e 5681 92be
000000b0: 43f0 263e a6a7 c33d 9ae7 89bd e62b 46bd
000000c0: 9e46 c8bc 0af1 68bc bc35 8d3d d2f9 9b3c
000000d0: 5e1a 9e3d ff9f a5bd c10f af3d 146a 8c3b
000000e0: 585b b73d 3684 ca3d 409d 71bd 03b9 213e
000000f0: 4913 1fbd 6219 05bd 71ca b13c bd5f d5bd
00000100: 3099 4b3d aec6 1ebd 2f27 ebbd fb5a 333d
00000110: e853 52bd a891 05bc e4dd bfbd a709 6e3d
00000120: 9e05 18be 0fa0 143e a7f8 e0bd d9f5 0dbe
00000130: 074a 623d 3331 0fbe 71cd cf3c 521c 47be
00000140: 3123 e43d 543f 75bd 3c7d 91bd 9b3d fcbd
00000150: 2da0 cc3d 472f 123d 0d2f ccbd 1132 aa3d
00000160: cac5 38bd b64b 8b3d d504 4b3d 646c 503d
00000170: 0080 f83d 9027 9c3d 10ba b3bc 3c16 fcbb
00000180: 5379 ba3c cb07 ca3d 5e4d 573c e743 9abd
00000190: 01d7 d33d 3d0a 75bd c1f8 b53d 6db0 4bbe
000001a0: 10eb 57bd 4a7b 313e 1861 0fbe 228f 873d
000001b0: 7421 923d 04f5 083d 4afb a13d ca30 c33c
000001c0: 21a1 92bd 2549 a83d 88b9 873d aff7 b3bd
000001d0: da0a fc3d cb05 dbbc a5ff aabd 9976 c5b7
000001e0: c927 10bd fb46 43bd b79a 9cbd 599f 2abd
000001f0: a828 2e3d 2504 963c 77e1 70be 200f 63bb
00000200: 8465 57be cf25 ad3d 0ed4 98bd 8f98 29bc
00000210: c5e1 423e 12c5 a83c 6ecc 3f3e 630d 01bd
00000220: 5682 a43c 8121 a8bd c445 14be 075d b23d
00000230: 554e ebbd 8c85 cabd de9c 5e3d 6063 b6bd
00000240: fe04 9ebd 6d6a 3abd ba5a 05be 3d3a 98bd
00000250: bc78 2abe 539c 2abe 3785 edba 3e6d e7bd
00000260: e2ec 16be ac82 373d cb63 8b3d 89f5 50bc
00000270: c2c0 343d 6b32 b83c d0b8 1c3e b9ed 1abd
00000280: c0c8 ab3d 9df5 77bd 0a1a f1bd 2362 d9bd
00000290: 5a25 21be 4963 63bd 6083 dbbd 4116 b3bd
000002a0: bf8e e7bd da8e 35bd abe5 5abe cd1e 3cbe
000002b0: cdf9 4bbe d9a4 adbd 7ef3 3ebe f398 d5bd
000002c0: eca5 1ebe c163 aebc e2db c3bd 7565 4abe
000002d0: 1ceb 313e cbe8 37bd 1279 3abd 6fbf 2abd
000002e0: e766 413c 2c53 39bd dc99 f53d e378 11be
000002f0: dc80 18bd c698 bebd 8f87 1bbe 5a21 4fbe
00000300: acb8 f3bc 1890 0cbe d688 57be f344 973d
00000310: eb31 03be bfc9 28bd 9aee 2dbb de24 c03d
00000320: 56bb 89bd aa72 b4bb 9969 d03b 975c 13bd
00000330: 7839 f2bd c1d2 073d 60a9 0ebd 17b0 473d
00000340: 58b5 c3bd d918 2ebe 3a48 113c 9e69 cabd
00000350: 13ea 4bbe 25b6 5cbc c672 06bd e08b 75bd
00000360: a53c 0b3e d1e9 88bc 6c70 e1bd bddc 003d
00000370: 3d28 073d 1649 c9bd d82a 1a3e e0d3 683d
00000380: 84bc 313b 5d96 3d3c 6f18 1cbc 3166 0cbe
00000390: ad3e d73d 07b5 353d da5a b73b 59e6 863d
000003a0: 002c 973d 1e2a 763d 1990 7cbb c103 093e
000003b0: 1e80 49bd 246d 1b3c 860b 553d 8dae 0c3d
000003c0: d956 b83c ba31 a83d 8145 2d3d 7a0e 3a3d
000003d0: f737 6cbd 1af4 513c b1b4 7cbd 1ac1 b53d
000003e0: e234 2bbd 6650 e43d 763d 21be 172f 16be
000003f0: 3e24 d0bd e698 b0bd 2015 ebbd cd2f 39bd
-0.07721891 -0.12453579 -0.04771375 0.04760152 -0.07605885 0.03869722 0.0008176963 0.04609704
0.02152329 -0.12194425 0.002219628 -0.026406521 -0.1135164 -0.026317712 0.018504612 -0.032294556
0.07673543 0.042346697 0.055148594 0.014991218 -0.07836346 -0.119139254 -0.07598227 -0.12744708
-0.07114666 -0.054523963 -0.0105464095 -0.0714085 -0.00091414206 0.052847527 0.015347906 -0.0023132747
-0.1187647 -0.06394427 -0.03416664 0.0078735 -0.1534101 0.14441489 -0.25265688 0.04376114
-0.11149378 0.036728412 0.2559658 -0.286143 0.1630259 0.09553461 -0.067336276 -0.04838171
-0.024447735 -0.014217624 0.06895015 0.019040022 0.07719873 -0.080871575 0.08547927 0.0042851064
0.08952969 0.098884985 -0.058987856 0.15793233 -0.03883675 -0.03249491 0.021702977 -0.10418651
0.049706638 -0.038763694 -0.11482083 0.043787938 -0.05134955 -0.008152403 -0.09368494 0.058114674
-0.14845893 0.14514183 -0.10984927 -0.13863315 0.05524638 -0.13983612 0.025366517 -0.19444397
0.11139525 -0.059874848 -0.07103965 -0.12316438 0.099914886 0.03568962 -0.09969912 0.08310331
-0.0451105 0.0680155 0.049565155 0.05088462 0.12133789 0.076247334 -0.021939307 -0.00769308
0.02276293 0.09864768 0.013141004 -0.075324826 0.10343743 -0.059824217 0.08885337 -0.1989152
-0.052714407 0.17332187 -0.14001882 0.06619097 0.07135287 0.03343679 0.07909258 0.023826975
-0.07159639 0.08217076 0.06627184 -0.08787476 0.12306757 -0.02673616 -0.083495416 -2.3539456e-05
-0.035194192 -0.047675114 -0.07646697 -0.041655872 0.04251924 0.018312523 -0.23523508 -0.0034646466
-0.21034819 0.08454477 -0.07462321 -0.010351314 0.19031437 0.020601783 0.18730327 -0.031506907
0.02008168 -0.08209515 -0.14479738 0.0870915 -0.1148955 -0.09888753 0.05434882 -0.08905673
-0.07715796 -0.04551165 -0.1302289 -0.07432983 -0.16647619 -0.16661195 -0.0018121366 -0.11300133
-0.14738801 0.044802353 0.068061434 -0.012753853 0.04412914 0.022484979 0.15304875 -0.037824366
0.083878994 -0.06053697 -0.11772545 -0.10614421 -0.15736905 -0.055514608 -0.10718417 -0.08744479
-0.113065235 -0.044325687 -0.21376674 -0.18371125 -0.1991951 -0.08478708 -0.18647572 -0.104295634
-0.15492982 -0.0212878 -0.09563424 -0.19765265 0.17374843 -0.044899743 -0.045525618 -0.04168647
0.011804319 -0.045245335 0.11992237 -0.14206271 -0.037232265 -0.09306483 -0.1518843 -0.20227566
-0.029751144 -0.13726842 -0.21048293 0.07386198 -0.12812011 -0.041208025 -0.0026539923 0.09382032
-0.067251846 -0.005506833 0.0063602445 -0.035976972 -0.118273675 0.033159975 -0.034829497 0.048751917
-0.09556073 -0.17001666 0.008867318 -0.09883426 -0.19913511 -0.013471161 -0.0328243 -0.05994785
0.13597353 -0.016713055 -0.11007771 0.031460512 0.03299736 -0.09828393 0.15055406 0.056842685
0.002712042 0.011571494 -0.00952731 -0.13710858 0.10510001 0.044362094 0.005595547 0.06586904
0.07381439 0.06009876 -0.0038538037 0.13380338 -0.049194448 0.00948647 0.052012943 0.034346152
0.02250235 0.082126096 0.042302612 0.045423962 -0.05767056 0.012814546 -0.06169576 0.08874722
-0.04179848 0.11148147 -0.15746102 -0.14666401 -0.10163163 -0.08622913 -0.11478639 -0.045211602

encoder.blocks.0.conv.3.bias f4 [16]
00000000: 5224 933c 0f5b 52bd 1b57 c13c 9f16 9d3c
00000010: 0894 733d 828d f3bd 5951 d5bd 58f2 87bc
00000020: 760b 82bc 4c0b dfbb 3fcd 343d b426 033d
00000030: 36d8 79bd 82e3 53bd 6b62 783d ed00 b53d
0.017961655 -0.05135637 0.023601105 0.019175826 0.059467345 -0.11892225 -0.104159065 -0.01659505
-0.015874606 -0.0068067666 0.04414105 0.032019332 -0.06099721 -0.05173064 0.060640734 0.08838067

encoder.blocks.0.conv.4.weight f4 [16]
00000000: d95e 873f f154 673f 005e 3d3f e60a 513f
00000010: ac4e 783f 74ab 8a3f ec20 7e3f 0f83 823f
00000020: f3fa 783f fc61 4d3f b482 893f b07a 603f
00000030: 96c4 913f 96b8 523f 6027 833f 541b 703f
1.057582 0.90363985 0.7397156 0.81657255 0.96995044 1.0833573 0.99268985 1.0196246
0.9725792 0.8022764 1.0743012 0.87687206 1.1388118 0.82312906 1.0246391 0.937917

encoder.blocks.0.conv.4.bias f4 [16]
00000000: 78a4 81bc f22b 74bd c9e2 33be 68c9 f1bd
00000010: b489 5cbd a18b 9d3c cdd1 b9bc 392b e9bc
00000020: 2cb2 c93a 8dfc 05be f52d a9bc 8f51 dfbd
00000030: 875c c3bd d651 59be 7aee 89bd 97b0 74bd
-0.015825495 -0.059612222 -0.1756698 -0.11805993 -0.05384226 0.01923162 -0.022683049 -0.028462993
0.0015388182 -0.13084622 -0.020651797 -0.10904228 -0.095391326 -0.21222624 -0.06734939 -0.05973872

encoder.blocks.0.conv.4.running_mean f4 [16]
00000000: 0def f3be 32cd c9bf c16d 27c0 9448 07be
00000010: 14e5 7cbf a7ef 0a40 8594 a93f 96c9 ffbd
00000020: 540c b33f cfcd 26c0 b084 2040 fb7b abbf
00000030: b526 dabe b1c2 a6bf 9346 ec3f 4bdf 1c3d
-0.4764332 -1.5765746 -2.6160738 -0.1321128 -0.98787045 2.1708772 1.324845 -0.12489621
1.3988137 -2.6063116 2.5080986 -1.3397211 -0.42607656 -1.3028165 1.8459038 0.038298886

encoder.blocks.0.conv.4.running_var f4 [16]
00000000: 332f 643f 749e 4940 94d4 8a40 bf05 f23f
00000010: 6e42 c43f b95d 7340 f3f8 2440 438f 8d3f
00000020: 3083 3140 cad3 7040 9ce8 8740 f00a ef3f
00000030: 8d1c 7e3f 3a39 ae3f 72cd 0a40 76c3 0540
0.8913452 3.1502962 4.3384495 1.8908004 1.5332773 3.8025954 2.5776947 1.1059345
2.773632 3.7629266 4.2471447 1.8675213 0.99262315 1.3611214 2.1687894 2.090055

encoder.blocks.0.skip.weight f4 [16, 1, 1, 1]
00000000: 26b0 30bf a4ab 373f 10b3 b5be 00df c83c
00000010: d052 983d 0c03 663f 90e6 ed3d 8009 32bc
00000020: c09b c53e 7aa9 683f 30a2 32bf 5a50 443f
00000030: 1a5a 663f 424e 56bf 207e 85bd dc6e 963e
-0.6901878 0.7174628 -0.35488176 0.024520397 0.0743767 0.898484 0.11616242 -0.010866523
0.3859539 0.908836 -0.6977873 0.76685107 0.89981234 -0.8371316 -0.06518197 0.29381454

encoder.blocks.0.skip.bias f4 [16]
00000000: 304b d43d f207 1dbf 3679 613f e2de 1a3f
00000010: a00f 3ebe 3c5c 5abf 326a 60bf f857 373e
00000020: 407e 753d 7651 22bf 8027 f53d a040 773f
00000030: 769e 6d3f 4c6b b5be 1080 00be a4a8 9f3e
0.103659034 -0.6134025 0.8807558 0.6049634 -0.18560648 -0.8529699 -0.8766204 0.17904651
0.059934855 -0.6340555 0.11970425 0.96582985 0.9281992 -0.35433424 -0.12548852 0.3118335

encoder.blocks.1.conv.0.weight f4 [32, 16, 3, 3]
00000000: 9b7e 1b3d 602e dd3c eb1d 39bb 9d83 c43c
00000010: c67c 1abc cfd7 8b3d ce97 313e 9ab4 c73d
00000020: b93b 2b3d 9427 b6bd c9c5 17bd 9e09 bdbd
00000030: 1f7e 82bd 449d f03c 327c 6e3d e299 ba3c
00000040: 95ec 203d afdd 56b9 adc3 9dbd a0de 1cbc
00000050: 2345 cfbd cc4d 88bc 1894 11bd 78a9 83bd
00000060: d0aa b9bd c0bf 82bb be42 99bc 10e7 de3b
00000070: 18cd 013d a612 98bb 23fe d73c 106d 333d
00000080: 76dc e7bd 2e33 213e 5677 7dbd dc04 7dbd
00000090: 3b7b 483d 3872 0cbd 8a3b 243b 9f3c 7b3d
000000a0: 9a61 893a c32b f63c 0bc2 ef3c f70f 80bd
000000b0: 9f1e 8ebc a399 34bd 3fc1 813d 09c0 6d3d
000000c0: e183 76bb 3314 b53d 6fee 68b9 e731 19bd
000000d0: 6a85 77bd 4ba0 263c 13c6 54bd ded1 28bd
000000e0: ad89 a9bd 72be 06bd eb57 713d cac8 7c3d
000000f0: 000b ee3d 011c 8b3d 3e5f 8c3d c39a 46bd
00000100: 59aa d6bb 9a24 8b3d 76b4 1a3d 0179 133e
00000110: d06e b23d f47b d23d 4d25 2fbd 38b6 8ebc
00000120: 6079 1dbd 3f38 ad3c 34a9 603d 37c1 b03d
00000130: 2203 d6bb 28e6 b93d 90ba c13d 8471 143d
00000140: bb96 203d 9999 603c 0f9f be3c 4653 1ebd
00000150: d78a 053d d90b 1abd 8986 0abc 22b7 13be
00000160: 6f71 8ebd f6ae 34bd ffca e9bd 0715 b2bd
00000170: 6f4d f6bd 6e2a 8abd 369b 58bd 787d e73b
00000180: 71d3 593b 7617 8bbd 7977 dfbb b926 dc3d
00000190: bc76 c9ba 3ed3 13bd c4ff dc3d 10d5 b2bd
000001a0: 6c22 763c a081 67bb f8a9 1abd c9ee c6bd
000001b0: 7fbf fa3d ae7e 6a3e 13ba cc3d e565 553e
000001c0: b793 1b3e e52d f93d 6c1c d13e 6098 063e
000001d0: 463f 0a3e 5017 78bd 63e3 0a3d 73d4 9bbc
000001e0: b310 a3bd 5c1c 1b3d 2bff ee3c bcd4 4a3d
000001f0: 639b ceba 64d7 bbbd fc23 0bbe e12c 01be
00000200: b8ff 953b 58d4 66bc 2c57 67bc 7a78 b13c
00000210: a66e 84bd d891 99bd 8262 833c c925 efbd
00000220: 5cc1 debd bd35 26bd c649 13be 1a04 cebd
00000230: 22f2 02be 188b 01be 8242 163d c202 813d
00000240: 1110 6d3d 903d 633d 6daa bdbd 0167 db3d
00000250: ec0a 863d 22d0 cbbd 4444 04be d119 dcbc
00000260: 7305 8cbd 7ee0 1fbe ab89 a9bc 0ceb dbbd
00000270: 95d3 a9bd d27b 213c 2b2d 13be e6aa c3bd
00000280: 711d 14bd 1889 06bd 58cc 63bd 1461 82bd
00000290: b3fa 66bd 0285 b9bd 04cb 4ebd fc3f c73c
000002a0: 1055 d13c 3d3f 093d 317a c2bd 3421 ae3d
000002b0: b04e 8dbc b934 44bc 05ee 083a 1dbd 7b3c
000002c0: 0a87 81bc 8cfc bcbb b951 5e3d 1c49 673c
000002d0: 8274 40be 603b 04be d322 0cbe 424f 42bd
000002e0: 7e06 fabc e1ea 27be 5567 febc c958 3fbd
000002f0: ec09 03be 48d5 153e fbb1 383e 94bc 0d3e
00000300: 78b7 fa3d 455c 9f3d 3930 b83d ab41 7d3d
00000310: 6007 ab3d 819d 493d 9441 a83d 1403 313e
00000320: e2b8 9f3d 301b 3c3e a495 4c3e 2100 853d
00000330: 7eda 0cbc c9bf 953c 7d75 133d 81a9 4c3d
00000340: 157b 5fbd 4292 38b9 3c41 f8bb d73b ce3c
00000350: afbe 29bc 298d d7bd e59f 9abd 1299 953c
00000360: 6432 4f3e 15c9 b13d c25e ed3c 0bc9 2d3e
00000370: 9f9e ac3d 7f41 893d 096f 2ebd 4df7 173d
00000380: 0daf 443c b0fa ddbc 8d33 c73c 75f6 58bc
00000390: 4244 acbd ee36 9dbd cdb2 2dbd a22d bfbc
000003a0: a54a a93c 699e bf3c 57ce 4d3e a3cd 263e
000003b0: 4d96 fa3d 1340 043e f601 623d 1bb4 a73d
000003c0: c01e 213d 7f35 133c 9608 8b3d 122f 3bbd
000003d0: 35b2 d7bd 4b37 c5bd e624 dabd d5e7 05be
000003e0: b2c0 c93c 200a c0bd 464c 8bbd beb6 4abd
000003f0: f853 ac3d 1826 303d 2546 45bd 6d7d a33d
0.037962537 0.026999652 -0.0028246592 0.02398854 -0.009429162 0.068282716 0.17343065 0.09751244
0.041805003 -0.08894268 -0.037053857 -0.0923035 -0.06371712 0.029371865 0.05822391 0.022778455
0.039288122 -0.00020491214 -0.07703338 -0.009574562 -0.10120609 -0.016638659 -0.035541624 -0.06428808
-0.09065783 -0.0039901435 -0.018708583 0.006802447 0.031689733 -0.004640895 0.026366299 0.043805182
-0.113213465 0.1574218 -0.061881386 -0.061772212 0.048945647 -0.034288615 0.0025059902 0.06133711
0.0010481358 0.030050164 0.029267332 -0.06253045 -0.017348586 -0.044091832 0.06335687 0.058044467
-0.0037615227 0.08841743 -0.00022214068 -0.037401106 -0.060429968 0.010170053 -0.05194671 -0.04121577
-0.08278213 -0.032896467 0.058921736 0.061714925 0.11623192 0.06792451 0.068541035 -0.048487436
-0.0065510687 0.067940906 0.037769757 0.14401628 0.08712542 0.102775484 -0.042760182 -0.017420873
-0.03844583 0.021144984 0.054848865 0.08630603 -0.006531135 0.09077102 0.09459412 0.03624107
0.039206248 0.013708496 0.023269204 -0.038653634 0.03260311 -0.037608955 -0.008454927 -0.14425328
-0.069552295 -0.04411217 -0.114156716 -0.08695417 -0.12026488 -0.06746374 -0.052882396 0.0070645176
0.0033237601 -0.06791584 -0.006819662 0.10749573 -0.0015370469 -0.036090128 0.10790971 -0.08732045
0.015022855 -0.0035325065 -0.03775975 -0.097135134 0.12243556 0.22899887 0.09996428 0.20839651
0.15193067 0.12166957 0.40841997 0.13144064 0.135007 -0.060569108 0.03390826 -0.019022202
-0.079621695 0.037868842 0.029174408 0.049519286 -0.0015762862 -0.09171942 -0.13587946 -0.12614776
0.004577603 -0.014088713 -0.0141199045 0.021663893 -0.06466417 -0.074985206 0.016038183 -0.11677129
-0.10876724 -0.040578593 -0.14383611 -0.10059376 -0.12787679 -0.12650716 0.03668452 0.06299354
0.05787665 0.055478632 -0.09261022 0.10713006 0.06545052 -0.099518076 -0.12916666 -0.026867779
-0.06836977 -0.1561298 -0.020695528 -0.10738191 -0.08292309 0.009856181 -0.14372699 -0.09554081
-0.03616089 -0.032845587 -0.0556148 -0.063661724 -0.05639143 -0.09058572 -0.05048658 0.024322502
0.025553256 0.033507574 -0.094959624 0.08502427 -0.017249435 -0.011975461 0.0005223456 0.015364912
-0.015811462 -0.0057674106 0.054277156 0.014116552 -0.18794444 -0.12913275 -0.1368516 -0.047438867
-0.030520674 -0.16398193 -0.031055132 -0.04671553 -0.12796754 0.14632142 0.18036644 0.13841468
0.12242025 0.07781271 0.08993573 0.061830204 0.08351016 0.049222473 0.08215633 0.1728633
0.077989355 0.18369746 0.19978958 0.06494165 -0.0085970145 0.018279927 0.036000717 0.04996634
-0.05456074 -0.00017602093 -0.007576136 0.025175018 -0.010360404 -0.10524971 -0.07550029 0.018261466
0.20234066 0.086809315 0.028975848 0.16971223 0.08428692 0.067019455 -0.04258636 0.03710108
0.012004626 -0.027097076 0.024316574 -0.013242354 -0.08411457 -0.07676493 -0.042406846 -0.02333719
0.020665476 0.023390966 0.20098244 0.16289382 0.12235699 0.12915067 0.05517765 0.08188649
0.039335966 0.008984922 0.06788747 -0.045699187 -0.10532037 -0.09629687 -0.10651569 -0.13076718
0.024628017 -0.09376931 -0.068016574 -0.049490683 0.08414453 0.04300508 -0.0481626 0.079829074

encoder.blocks.1.conv.0.bias f4 [32]
00000000: 999e 24bd 0a77 a838 8caa 313d 75e3 7d3d
00000010: 19a6 4a3d 1d75 90bd 515b 63bd 5e99 d5bd
00000020: 30ef 6ebc 3f25 cbbd 63c1 03bd 345d e53d
00000030: c25d 143c 0d8f a73d ab3a 8c3d 421e 2bbd
00000040: 6df1 9b3c 62ca 36bc cdd4 dc3a 1a29 80bc
00000050: 5ee6 f4ba 35d3 84bc 4844 cfbd 464a 4b3c
00000060: 2ccf 93bd 8167 3d3d ed7a b33d f211 353d
00000070: 435f 5dbd 39bd 8abb bb1d f13c 7d35 eb3d
-0.040190313 8.033037e-05 0.043375537 0.061984498 0.04947481 -0.070535876 -0.055507008 -0.10429643
-0.014583394 -0.099192135 -0.03216685 0.11199418 0.009055557 0.08181582 0.068471275 -0.041776903
0.01903602 -0.01115665 0.0016848088 -0.015644599 -0.0018684377 -0.016213993 -0.101204455 0.012407845
-0.07217249 0.046241287 0.087636806 0.044206567 -0.054045927 -0.004233983 0.029433122 0.114848115

encoder.blocks.1.conv.1.weight f4 [32]
00000000: 589c 803f c48a 7a3f 6826 813f 7d97 6c3f
00000010: e398 6f3f 2712 913f b9ab 733f c145 773f
00000020: 28a5 863f 44a7 613f cf29 5a3f b0aa 6c3f
00000030: be24 793f 455a 8b3f dad2 793f 4e48 893f
00000040: f683 8b3f fee6 813f ae78 7d3f b9a6 6f3f
00000050: b8f3 6a3f d4e4 833f 03cc 753f 0a94 793f
00000060: af70 913f 0f9e 793f accd 793f faa6 633f
00000070: 9c9a 873f 40ca 5f3f e99a 713f 81fd 813f
1.0047712 0.9786799 1.0089846 0.9241865 0.9359266 1.1333665 0.951839 0.9659081
1.0519152 0.8814585 0.85220045 0.9244795 0.9732169 1.0886923 0.9758736 1.0725191
1.0899646 1.0148618 0.9901227 0.93613774 0.91778135 1.0304208 0.9601442 0.97491515
1.1362513 0.97506803 0.97579455 0.8892666 1.0594058 0.87417984 0.94377 1.0155488

encoder.blocks.1.conv.1.bias f4 [32]
00000000: 020a e4bd 4fcd 403d 8fae 13bd 06f1 253d
00000010: 0680 873c 257c 603d 1a60 9d3d 9256 dbbd
00000020: ef5f 91bd 7ded 81bb 6799 05be 1f30 cdbd
00000030: 0de9 443d aa15 ddbd e886 e739 6e61 b8bc
00000040: 3bc8 e5bd a054 793d 79bb a63c 8d4d 00be
00000050: 5063 bbbd 6b5a d4bb 4911 233d b7a3 8abd
00000060: 3214 93be 8bd5 23bd 120f 0b3d 923d debd
00000070: 5b2b 6cbd 6fd6 01be 8505 573c 6b9a 7dbd
-0.11134721 0.047070798 -0.036055144 0.04051306 0.016540539 0.054805893 0.076843455 -0.10709871
-0.07098376 -0.0039650784 -0.130468 -0.10018944 0.048073817 -0.10795148 0.00044160266 -0.022507396
-0.112198316 0.06087172 0.020353066 -0.12529583 -0.09149802 -0.006480505 0.039811406 -0.067695074
-0.28726345 -0.039998572 0.03394992 -0.10851587 -0.057658534 -0.12679456 0.013123875 -0.061914843

encoder.blocks.1.conv.1.running_mean f4 [32]
00000000: 0775 043f 17c0 903f fd19 45be cfbe 2bc0
00000010: 16de 883e e944 413d de24 21bf 715d 43bf
00000020: faa1 d13f 48a6 743f d8ba 8ebf 4400 e9be
00000030: 598c 4f3f 4546 adbf 761c 09c0 07b9 e6be
00000040: c8ac 73be 4125 0fbe 7912 893f 9e7c 1a40
00000050: 00b2 c5bf 39c9 253f df60 b8be d819 3fc0
00000060: 4add de3c afad a9bf 35af c6bf 0f16 1cc0
00000070: bb34 dcbd 94e7 4bbf 50a9 be3f e6b6 ec3e
0.5174107 1.1308621 -0.19248195 -2.683521 0.26731938 0.04718486 -0.6294688 -0.76314455
1.6377556 0.95566225 -1.115077 -0.45508015 0.8107353 -1.353707 -2.142362 -0.4506304
-0.2379638 -0.13979055 1.0708762 2.413856 -1.5444946 0.64760166 -0.36011407 -2.9859524
0.027205128 -1.3256129 -1.5522219 -2.4388463 -0.10752245 -0.79650235 1.489542 0.4623329

encoder.blocks.1.conv.1.running_var f4 [32]
00000000: 493d c33f 3487 2441 650a 4540 c8c4 0441
00000010: 8c45 d440 2b1a 993f ffb6 be3f 16fb 9340
00000020: f3d4 1940 03be 0441 ded0 1d40 0cf1 6240
00000030: 94a7 2a40 da0b d740 3009 f040 9bb9 3940
00000040: cf49 5040 1a65 a340 0038 e140 c618 df40
00000050: 20ac 2b40 c006 e33f da97 ee40 3bb0 0b41
00000060: 238f 0c40 706d 0741 1cfb 1041 be07 fa40
00000070: 400c 5c40 fc82 9d40 c1cf 3441 3801 0340
1.5253078 10.283009 3.0787594 8.298042 6.6334896 1.1961111 1.4899596 4.6244
2.4036224 8.29639 2.4658732 3.5459623 2.6664782 6.7201967 7.5011215 2.9019535
3.254505 5.1060915 7.038086 6.971774 2.6823807 1.7736435 7.4560366 8.730525
2.1962364 8.464218 9.061306 7.813445 3.4382477 4.9222393 11.300721 2.0469494

encoder.blocks.1.conv.3.weight f4 [32, 32, 3, 3]
00000000: b4c7 5cbd 4344 033e 7d08 b73c 91ba e63c
00000010: 3c88 7c3c 6bc6 7f39 3b92 8fbc 0bbe ec3d
00000020: de55 a43d 3c83 6ebd 220d 90bd 3c1d d33c
00000030: fed7 a5bd d6f6 97bd 38c1 543c 253e abbb
00000040: 4f95 92bd 5f4c e0bd c19c 97bd 2642 a03c
00000050: 262c 523d 8f16 a03d 0c9a 683d ab69 a93c
00000060: 2f34 cd3c c2b7 b13d ea6a 46bd ac58 e4bc
00000070: e854 9bbd 73e5 ffbc 52e5 853d 4af3 68bd
00000080: 83a7 19bd 0f47 4b3d e2f3 173c 3c0d 95bb
00000090: ab6a c2bc 0424 16bd fb2f 12bc 5684 10bd
000000a0: 45c8 d7bc c9fc 93bc af96 54bd b851 30bd
000000b0: 8871 aabd d849 60bd 22d3 40bc dd0e c13d
000000c0: 5438 cbbd 2330 a33b 6135 103e 184d d7bc
000000d0: c243 46bc a663 863d 7ae5 81bb b43f f03c
000000e0: 08b9 923d 2f66 ad3d 5819 943c 0dfa 983d
000000f0: 7d37 fc3d b60c 83bc c4e3 96b9 9fec 38bc
00000100: b144 bc3d b234 633d 63c2 413c 2dc2 803c
00000110: 9203 513c c879 1e3d 2359 ad3c c1d5 5f3c
00000120: d7ce fa3b 7834 a73d a2a5 6b3c a2b3 493d
00000130: f20a f03d df6a 9f3d 9929 dbbb f9c0 ce3d
00000140: 354e a63d 86fc acbd 3b48 56bd ef42 64bd
00000150: 297c 27bd 3e2e e4bd 3e27 edbd 3ed0 62bd
00000160: 9f1c 0c3c 312a 24bd 61a5 2a3a dd2a d73c
00000170: c85b 563d 5028 01bd 86f7 87bc c4cf 433d
00000180: f848 413c 127d f2bc bb56 63bc 3c52 303d
00000190: e2d7 b23c 4865 bd3d 8112 d33c 4dd8 cd3c
000001a0: 02cd 9d3d 5e31 c73b 5cc2 bc3c f803 953d
000001b0: 5663 c4bd 6469 2abe 0d8d 7ebd f9a6 89bd
000001c0: eac0 0ebe 7d8e babd 3be7 2bbe d59c 1bbe
000001d0: 4055 bcbd 1eb7 beba 3fab 5e3d 5c76 a43d
000001e0: 4521 20bd ea85 ff3d e195 3e3d 8c01 6a3d
000001f0: a5b1 8f3d 6fa0 183d c693 77bc 61d9 88bc
00000200: 697f 803d 6366 9f3d a797 77bd 3b4e 0cbc
00000210: b020 d53d 5f3d 90bc 655f c13b 1304 84bc
00000220: 0d33 8d3d b191 8e3d deb4 7fbc 2cff 003e
00000230: 4571 423d a95a 4b3c 456b 973c 93b7 a93d
00000240: bc14 c53c 4714 383e 8b1b 963d d7ba 7c3d
00000250: 47cb f13d e370 093e c887 a33d 543e 613d
00000260: 39ac 193d ebbb 3ebd b0b1 a9bd 4e81 87bd
00000270: 2086 6dba 64c0 94bd ed36 923c b953 80bd
00000280: e4da 4bbd d5ab 6fbd d3a8 d0bc ba60 19bc
00000290: ecbf babc b886 e1bc cd39 81bd 9d34 b6bd
000002a0: 6100 92bd c0d6 bdbd f431 74bd a2e4 923c
000002b0: 0c29 d0bd 4e1b 823c cb6e c4bd b44e 83bd
000002c0: ad44 97bc 4fe4 e4bd c5a3 b3bd 579b 9abd
000002d0: 5d96 12bc 380d 5c3c 73ec 92bd 38be 863c
000002e0: 7288 1f3c bde4 cdbd c19e 97bc 3f5e 4bbd
000002f0: 3022 edbd 5a2c 203e 9d5d bd3d 34f6 b73d
00000300: 29cc 153e cdfe 123e 2ba1 bc3d 3622 2d3e
00000310: e6ad bc3d d0e2 d63d 4200 3fbd 1f5f 4ebc
00000320: d894 333c e795 0c3b dd30 43bc 29de 0bbd
00000330: 0de6 de3c d8b0 b5bc 7c6a 93bd c419 9c3d
00000340: 6f2f 2a3d b2f0 85bc 4818 3f3d 7f0c 8a3c
00000350: e2a5 abbd 3519 5a3d 1f48 80bd a086 05be
00000360: 0e8d 0c3e 2cf4 273e 0b03 c53b 2e11 5c3e
00000370: c451 3e3e 3a5f 57bd 3cd2 723e 8bac 2a3d
00000380: 6755 87bd 9c56 f73d f08f 733d 853b 8d3d
00000390: 9941 8bbc 5001 8fbc fd58 ba3a d242 733d
000003a0: b555 6abc 14e1 ddbd 1a6f 4f3d 6c19 893c
000003b0: c6e4 d13b cd0b 813d bd83 983d 7cfc b33d
000003c0: bad0 2e3d 4c1c 923d 4871 c93d 1c53 953c
000003d0: 7902 65bc f0ad 4b3c e614 3bbd 5ed0 49bd
000003e0: 86c7 113c 74db 2dbd c87c eebd 4e02 0d3b
000003f0: 89c0 9c3d 0a1d 953d 4ebe 6b3c b543 e43c
-0.05390139 0.12819009 0.022342915 0.028165134 0.01541334 0.00024392612 -0.017525783 0.11559685
0.0802419 -0.058230624 -0.07033755 0.025770776 -0.08097838 -0.07420127 0.01298552 -0.005225914
-0.071573846 -0.10952067 -0.07402945 0.019562792 0.051311634 0.07816803 0.056787536 0.02068027
0.025049297 0.08677627 -0.048441805 -0.027874313 -0.07584554 -0.03123734 0.0653788 -0.056872644
-0.037513267 0.049628314 0.009274455 -0.004548697 -0.023732504 -0.03665544 -0.008922572 -0.035282455
-0.026340613 -0.018064873 -0.051901516 -0.043046683 -0.083224356 -0.054757923 -0.011769088 0.09426663
-0.09922853 0.0049801036 0.14082862 -0.026281878 -0.012101116 0.06561975 -0.0039641233 0.029327251
0.07164198 0.084667556 0.018078491 0.074695684 0.12315271 -0.015997272 -0.00028779928 -0.011286884
0.09192789 0.055470176 0.011826131 0.01571759 0.012757199 0.03869036 0.021160668 0.013661803
0.0076540518 0.081643045 0.014382752 0.049243577 0.11720838 0.07784056 -0.0066883084 0.100954
0.081203856 -0.084466025 -0.052314978 -0.055727895 -0.040889893 -0.111416325 -0.115797505 -0.055374376
0.008551746 -0.0400793 0.0006509629 0.026265556 0.052333623 -0.031532586 -0.01659752 0.047805563
0.011797182 -0.029600654 -0.013875659 0.043047175 0.021831457 0.092478335 0.02576566 0.025127554
0.07705118 0.006078883 0.023041897 0.072761476 -0.09589259 -0.16641766 -0.062146235 -0.06721301
-0.13940778 -0.09109209 -0.16787426 -0.15196545 -0.09195948 -0.0014550423 0.05436253 0.08030388
-0.03909423 0.12476714 0.046529654 0.05713038 0.07016305 0.037262376 -0.0151109155 -0.016705217
0.062743016 0.077832006 -0.06044736 -0.0085635735 0.10406625 -0.017607389 0.0059012645 -0.016115224
0.06894503 0.06961382 -0.015607087 0.1259734 0.047471303 0.012411752 0.018483767 0.08286967
0.024057738 0.17976485 0.07329472 0.06170162 0.1180635 0.13421969 0.079848826 0.05499108
0.03751776 -0.04656593 -0.08285844 -0.0661646 -0.00090608187 -0.07263258 0.017848456 -0.06265969
-0.049769297 -0.05851348 -0.025471127 -0.00936144 -0.022796594 -0.02753006 -0.06309853 -0.08896754
-0.071289785 -0.09269476 -0.05961795 0.017931286 -0.10164079 0.01588216 -0.095914446 -0.06411496
-0.018465364 -0.11176359 -0.08771471 -0.0754916 -0.008946982 0.013430886 -0.07174005 0.016448125
0.009737121 -0.10053394 -0.018508317 -0.049650427 -0.115787864 0.15641919 0.09246371 0.089825064
0.14628662 0.14355011 0.09210428 0.16907582 0.09212856 0.1049248 -0.046631105 -0.012595921
0.01096078 0.0021451653 -0.011913505 -0.034147415 0.027209306 -0.022179052 -0.07198045 0.07622102
0.041549142 -0.016350124 0.046654016 0.016851662 -0.08381249 0.053246696 -0.06263756 -0.13039637
0.13725683 0.16401738 0.0060123256 0.21490929 0.18585879 -0.05258105 0.2371301 0.041668456
-0.06608086 0.12077066 0.05946344 0.06896118 -0.016999053 -0.01745668 0.0014217194 0.059389897
-0.014302661 -0.10833946 0.050643064 0.016735755 0.0064054457 0.06301079 0.07447002 0.08788392
0.042679526 0.071343035 0.0983606 0.018228106 -0.01397764 0.012431607 -0.045674227 -0.04927098
0.008897668 -0.042445615 -0.11644894 0.0021516266 0.07653911 0.072809294 0.014388634 0.027864316

encoder.blocks.1.conv.3.bias f4 [32]
00000000: ffd2 fe3b ed74 b3bd 87ee 66bb 0a0c 483d
00000010: 8c7d 27bc 2f39 bfbb 38ad 5fbd 2164 c43c
00000020: bb2b 47bd f5f0 54bc 43a8 48bd a14f 483d
00000030: df6e 713a 8b05 cd3c cb2b 5fbc 0dae 693d
00000040: 3ef7 fcbc 6832 0dbd b43b 6f3d 267a 04bc
00000050: 5517 09bd e3a8 823c a08a 9abc 13a2 793d
00000060: 62ca 60bd 4c1e 9ebc 45ad da3c 69cb 2dbd
00000070: 2228 68bc a2b9 fcbc fbc2 84bd d297 ccbc
0.0077766175 -0.08762536 -0.0035237388 0.048839606 -0.010222804 -0.0058356742 -0.054608554 0.023973526
-0.04862569 -0.012996902 -0.048988592 0.048904065 0.00092099415 0.025027057 -0.013621281 0.057050753
-0.030879613 -0.0344719 0.058406547 -0.008085763 -0.033469517 0.015949672 -0.01886493 0.06094558
-0.054880507 -0.019301556 0.02669395 -0.042430315 -0.014169725 -0.030850235 -0.06482502 -0.024974737

encoder.blocks.1.conv.4.weight f4 [32]
00000000: d0f2 793f 0ae6 7e3f e032 733f 59d3 593f
00000010: ef83 7d3f f373 7d3f 0d1f 6b3f 0b3b 503f
00000020: ad12 853f 4e4c 7e3f 4fe5 8e3f 4330 8e3f
00000030: f1a8 783f 13cf 723f 1a98 6f3f 53bd 823f
00000040: 4ed2 773f 1b31 7d3f 41ce 7a3f 38b9 8a3f
00000050: cc14 7f3f 2d90 603f 85e9 743f c16e 7f3f
00000060: 677f 8b3f 899a 643f 5164 843f 95d0 683f
00000070: c0b2 8a3f 923e 933f 063d 763f 2bfa 763f
0.9763613 0.9956976 0.94999504 0.85088116 0.9902944 0.9900505 0.91844255 0.8134009
1.0396324 0.9933518 1.116373 1.1108478 0.97132784 0.9484722 0.93591464 1.0214027
0.96805274 0.98903054 0.9797097 1.0837774 0.9964111 0.87719995 0.9566882 0.9977837
1.0898255 0.892983 1.0343114 0.9094327 1.08358 1.150347 0.96186864 0.96475476

encoder.blocks.1.conv.4.bias f4 [32]
00000000: 6c16 2bbd 25f6 1bbe 573a 78bd 3f95 9cbd
00000010: 4f7d e7bc 21d3 3abe e246 3dbe 71bb e3bd
00000020: 22e0 b03d 5ef4 d0bd fc9f 183e 79e2 88be
00000030: d745 f6bd 8f57 f13d cf44 873d ea70 ab3d
00000040: 2f81 82bd ce12 25bc 804f c3bd 2856 2ebe
00000050: 0264 d2ba 630d 26be f84f 373d a562 49bb
00000060: 3746 64be 188e 3dbd fe4b 04bd db22 2fbd
00000070: faa7 75bc 57a4 f8bd ee37 3d3d dd5c 8b3c
-0.04176943 -0.15230615 -0.060602512 -0.07645654 -0.028257994 -0.18244602 -0.18484071 -0.11119736
0.086365 -0.10202859 0.14904779 -0.26735285 -0.1202504 0.117842786 0.06604921 0.08371146
-0.06372296 -0.010075284 -0.09536648 -0.17025054 -0.0016051533 -0.16216044 0.044754 -0.0030728963
-0.2229241 -0.04627809 -0.032299034 -0.04275785 -0.014993662 -0.1214072 0.046195917 0.017012054

encoder.blocks.1.conv.4.running_mean f4 [32]
00000000: 59d9 023f a574 ed3f caf6 6ec0 f0c4 2fc0
00000010: fd48 143f 8c98 0140 69cd 5b3f 6b56 77bf
00000020: ef41 17bf 1477 d23f cd55 d13e 85ba 0140
00000030: 5586 b33f 431f 76c0 d9fe 1bc0 b171 51c0
00000040: 7165 a8bf 504c 1cbf c5f9 e63f 3dc9 5a3f
00000050: 1da1 253f 3d9c fe3f 6efd c1bf 4a05 fe3d
00000060: 3fcf 183e 125b 80be f6fc 9b3f 95b3 a1c0
00000070: 904e 8abf 34a1 473f 8b6e 08c0 6e45 61bf
0.51112896 1.8551222 -3.7338128 -2.746395 0.5792387 2.0249357 0.85860306 -0.9661624
-0.5908498 1.644259 0.40885773 2.0270092 1.402537 -3.845658 -2.4374297 -3.2725642
-1.3155957 -0.61053944 1.8044974 0.85463315 0.64698964 1.989143 -1.5155466 0.124033526
0.14922808 -0.2506948 1.2186573 -5.0531716 -1.0805225 0.7798035 -2.131747 -0.87996566

encoder.blocks.1.conv.4.running_var f4 [32]
00000000: b7e0 1a41 da7d 8140 8e7f 0741 121b 2f41
00000010: d2ba e940 d364 bd40 e1de 9640 7f9d c440
00000020: 8023 f240 1871 af40 1015 0342 3da5 df40
00000030: 835f 0741 7a03 ab41 86df 6641 997c 4341
00000040: ed3d 8641 6732 5341 e164 9440 a22b 6d40
00000050: 1cf6 8240 3f18 0241 fba8 8b41 ba71 6040
00000060: 17b4 5c40 6b1d d440 1be3 aa40 737f b441
00000070: 9b4e 9d40 92a6 0e41 156e a341 d8fc a041
9.679862 4.0466127 8.468641 10.944109 7.304055 5.9185576 4.714707 6.1442256
7.5668335 5.4825554 32.77057 6.9889207 8.460818 21.376698 14.429571 12.217919
16.780237 13.199805 4.6373143 3.7057881 4.0925426 8.130919 17.45751 3.5069413
3.4484918 6.628591 5.340223 22.562231 4.9158454 8.915667 20.428751 20.123459

encoder.blocks.1.skip.weight f4 [32, 16, 1, 1]
00000000: 0a45 2f3e 18b5 7cbe 0009 f8bc 103b 143e
00000010: b823 2c3d 402b 333e 2480 afbd e833 8ebd
00000020: 862f 22be daf3 7abe 548f 2b3e a415 9f3d
00000030: 080d 3a3d bce6 9a3d 8ce2 643e 0080 a839
00000040: 960c 143e 68a0 f03d 7830 2f3e 009f 8d3d
00000050: f075 a33d cc9c 903d 809e 0f3d 20d8 61bd
00000060: 5ca2 d63d a21f 183e f04b 0d3d 78f5 4d3e
00000070: f4bf 9cbd 4a4a 1cbe 30d7 443d 06b1 343e
00000080: 30da 62be e0bf bd3d 3a41 72be 5c08 c33d
00000090: da1e 17be c246 7c3e 40b7 393c 908b 1a3e
000000a0: b08c bebd f0e2 063d a0fb ea3c 8846 24bd
000000b0: 442a 6f3e 58ac a73d 5807 c43d 44f5 5d3e
000000c0: 9a9d 093e 3efd 1a3e 58f3 983d e016 7d3c
000000d0: 30c4 383d 42be 6a3e 60f7 d7bd e448 52be
000000e0: 3090 8abc 68f6 36bd eae8 1e3e a0c1 c73d
000000f0: 34af bb3d 72e8 3f3e e013 ddbd 1c45 783e
00000100: 02c6 393e e66d 77be c07a 7b3d 58bb 033d
00000110: 808f 69bb ae8c 603e 8c15 56be 0039 2c3c
00000120: d6c8 47be 84f6 5bbe 6853 07bd 3cc8 91bd
00000130: 3081 3abd 7886 843d 484b 033d 8873 d4bd
00000140: d209 06be 2eb8 153e 7874 dcbd b4ad ca3d
00000150: b4e5 5b3e 8810 a8bd a0f5 88bc 7e20 70be
00000160: 3c02 11be 40d0 e03b a891 37be b058 ed3d
00000170: 144d 3a3e fc4a 2b3e 54e9 ee3d 34cf 7abe
00000180: bcc3 913d 2e26 053e ba77 3fbe ea83 3fbe
00000190: e4f9 acbd a0e8 0c3e 50d7 3e3d 0e59 773e
000001a0: 24c9 333e da5a 583e c866 7a3d 8051 cfbd
000001b0: 6054 25bd 125b 1d3e f058 07bd 3860 1f3e
000001c0: 7878 04bd b40a bf3d 86ae 1dbe c47e 2bbe
000001d0: 4a6c 793e 72b2 203e 1217 1e3e 7afb 34be
000001e0: 8637 33be 80b0 c03b 9c9d dc3d 6e07 3cbe
000001f0: 3246 243e a65d 48be d89f 033d 20c2 5e3d
00000200: fc18 103e ace9 4b3e c21d 5c3e 0823 45be
00000210: e095 25be bc2f 83bd 44e4 763e 1ead 703e
00000220: 041c 9bbd 828e 063e 601b 6dbe b86d 193d
00000230: 689d 0f3e b85e 2f3d 1678 16be 4076 6cbd
00000240: 500d 693d c259 46be 86bc 1d3e 6a35 26be
00000250: 2281 23be c8a1 cc3d 3614 42be 04a1 493e
00000260: 0620 0cbe 70d5 a43d 6c50 773e c40d 98bd
00000270: 008c 283b e028 b2bc f036 163e 4ea5 6ebe
00000280: dc6a 223e 00f4 fc3c 14fa d6bd 0c10 b53d
00000290: 60b7 11bd e084 81bd 90e7 aebd 1840 353e
000002a0: 3650 2ebe a84d 203e 2aea 183e c00b 7ebe
000002b0: 6248 2cbe 70d8 f3bc 82f6 6f3e 4496 363e
000002c0: 4ea1 743e 0059 99bb f665 073e 145b e43d
000002d0: 10b8 f83d 4219 543e 324e 1cbe 289e 783d
000002e0: 18ee 3c3d 62dc 0abe 909e 3dbe 9e4e 3abe
000002f0: ccbf f2bd 8ce4 aebd 1e74 3e3e 4401 5fbe
00000300: dcfb 0e3e 80ac 8c3b f897 21bd 782f f13d
00000310: 9c00 3cbe 2857 1e3d 7866 0d3e 3ca6 ca3d
00000320: 9892 df3d 749f e23d c83b 2b3e 7204 133e
00000330: b4a2 c03d 1ca3 c73d fcf8 093e 3862 5f3d
00000340: e05a 1a3d a8ae f43d b424 943d c4c8 f73d
00000350: 8072 573e c05e 2bbc b0e7 143d cc31 2d3e
00000360: a690 4cbe 9490 78be 4812 d9bd 1c17 d9bd
00000370: bc58 7a3e ecd8 443e c0b8 13bc 34b1 653e
00000380: ba5b 5ebe 0035 43bc e80a 14bd 00ab 35be
00000390: a852 c5bd b8c5 00be 2819 363d 8a32 313e
000003a0: 1486 183e 3883 713d 8c65 593e 5085 18be
000003b0: fc42 1f3e e830 043d 2493 fc3d 1046 78be
000003c0: 6230 473e 18c8 57be 4097 a9bd d8ce b4bd
000003d0: 806a d03c 48f8 4b3e 0087 1d3c 80ad 41bb
000003e0: 0c3a 273e 48b2 36be ec85 e9bd c057 5fbd
000003f0: e8af 8f3d 52d9 4e3e 9671 04be 003d 02bb
0.1711618 -0.24678457 -0.030277729 0.14475656 0.04202625 0.17496967 -0.08569363 -0.06943494
-0.15838441 -0.24507084 0.16753894 0.077677995 0.045422584 0.0756354 0.22352046 0.00032138824
0.14457926 0.11749345 0.17108333 0.069150925 0.07981479 0.07061157 0.035063267 -0.055137753
0.10480186 0.14855817 0.034496248 0.2011317 -0.076538 -0.15262714 0.04805678 0.17645654
-0.22153544 0.09265113 -0.23657694 0.09523079 -0.14757863 0.24636367 0.011335194 0.15092301
-0.09304178 0.03293127 0.028684437 -0.040106326 0.23355967 0.08187169 0.09571713 0.21675593
0.13439026 0.15135667 0.07468289 0.015447348 0.045108974 0.2292414 -0.1054523 -0.20535618
-0.016914457 -0.044668585 0.15518537 0.09753728 0.09164277 0.18741015 -0.107948065 0.24245113
0.1814194 -0.24163017 0.06139636 0.032161087 -0.0035638511 0.21928665 -0.20906657 0.010511637
-0.19510207 -0.21480757 -0.033038527 -0.0711827 -0.04553336 0.064709604 0.032054216 -0.10373598
-0.13089684 0.1462104 -0.10764402 0.098964125 0.21474344 -0.08206278 -0.016718686 -0.23449895
-0.14161009 0.006860763 -0.17926657 0.115891814 0.18193465 0.16727823 0.116655976 -0.24493104
0.071174115 0.13002846 -0.18698016 -0.18702665 -0.084461 0.13760614 0.046592057 0.24155065
0.17557198 0.21128407 0.061133176 -0.10122967 -0.04036367 0.15366772 -0.0330438 0.15564048
-0.03234145 0.09328213 -0.15398607 -0.16747576 0.24357715 0.15693071 0.15438488 -0.17674056
-0.1750165 0.0058804154 0.10772249 -0.18362209 0.16042402 -0.19566974 0.03213486 0.05438435
0.14072031 0.19913357 0.21495727 -0.19251645 -0.16170454 -0.06405589 0.24110514 0.23503539
-0.07573703 0.131403 -0.23154974 0.03745815 0.1402489 0.04281494 -0.14694247 -0.05772996
0.05689746 -0.19370177 0.15403947 -0.16231313 -0.15967229 0.09991795 -0.18953022 0.19690329
-0.13684091 0.080485225 0.24151772 -0.074245006 0.0025718212 -0.021748006 0.14669394 -0.23305246
0.15861076 0.030878067 -0.10496917 0.08840951 -0.03557527 -0.06324172 -0.08540261 0.17700231
-0.17022786 0.15654624 0.14933077 -0.2480917 -0.16824487 -0.029766291 0.23433879 0.1783076
0.23889658 -0.004679799 0.13222489 0.11150184 0.12144482 0.2071276 -0.15264204 0.060697705
0.0461255 -0.13560632 -0.18517518 -0.18194053 -0.118529886 -0.085396856 0.18598983 -0.21777827
0.13963264 0.0042930245 -0.03945157 0.11776632 -0.18359607 0.038657337 0.1380862 0.09894988
0.109166324 0.110655695 0.16722023 0.14357165 0.09406033 0.097479075 0.13473886 0.054537028
0.03768432 0.119473755 0.07233563 0.1209884 0.21039772 -0.010459602 0.036353767 0.16913527
-0.19977054 -0.24273902 -0.1059919 -0.10600111 0.24447912 0.19223374 -0.009016216 0.22430879
-0.21714678 -0.011914492 -0.036143214 -0.17741013 -0.09634906 -0.12575424 0.044457585 0.17304435
0.14894897 0.05896303 0.21230143 -0.14894605 0.15552896 0.032273203 0.12332752 -0.24245477
0.1945205 -0.21072423 -0.08280802 -0.08828515 0.025441408 0.1991893 0.009614706 -0.0029552877
0.16330737 -0.17841446 -0.11402497 -0.054527044 0.07015973 0.20200089 -0.12933955 -0.0019872785

encoder.blocks.1.skip.bias f4 [32]
00000000: 64ba 57be 2486 933d 2ae4 023e 9083 84bd
00000010: d4c2 d6bd 0046 ac3a 7897 203e b05a 913c
00000020: 4046 b6bd a490 3fbe 00dc a2bd 3014 cebd
00000030: 8c3c 2a3e 5219 64be 6c53 bc3d 3031 b9bd
00000040: 0259 1fbe f0a7 05be 10f7 77bd 206a 4fbc
00000050: 0c77 803d fe55 2b3e a054 4fbd 940f af3d
00000060: 5861 35bd 36ef 44be 6412 f63d 12ba 363e
00000070: d0a7 22be e01e 5ebe 5228 4b3e 3a0e 653e
-0.21067196 0.0720332 0.1278235 -0.06470406 -0.10486379 0.001314342 0.1568278 0.017743438
-0.08900118 -0.1870752 -0.07952118 -0.10062444 0.1662466 -0.22275284 0.09195599 -0.09042585
-0.15561298 -0.13052344 -0.06053835 -0.0126595795 0.062727064 0.16732022 -0.050617814 0.08547893
-0.044282287 -0.19231877 0.120152265 0.17844418 -0.15884328 -0.21691465 0.198396 0.22368708

encoder.blocks.2.conv.0.weight f4 [64, 32, 3, 3]
00000000: 61c3 e23d 7265 b0ba c688 76bd d69f 163c
00000010: 8e8e 0d3d 28b2 a23c 0f63 44bc fb6b 60bd
00000020: 4ebb 8bbc d138 363e 8ff8 a73d dc5c 063d
00000030: 91fd 2d3e 67b5 c63b 4442 c43c 1179 2e3e
00000040: 7b98 053d d609 5c3c f558 1f3d 77f6 16bc
00000050: 28f6 81bd 0b01 423d 4ea3 b9bd f8c7 2c3c
00000060: 884a b3bc 398e 9bbd 7902 19bc b6e1 f9bc
00000070: 7fd7 c9bc 9c80 893d ab67 8ebd 44a3 13b9
00000080: e690 163b 7935 313c fb59 97bc 7214 2dbd
00000090: 4d8b d03d 9488 3abd 0ed5 aebc 80d7 8d3c
000000a0: 8066 823b 9466 26bd 4788 173d f1cd 39bd
000000b0: 3eeb a0bd 6d65 273e ce4a 423d 3ba9 b1bd
000000c0: e6fc ed3d ea54 fcbc 4af7 7ebd 524d cb3d
000000d0: 06e5 2cbd b446 1bbe 7fb4 1d3e 5ce5 b83d
000000e0: 441d 083d 87a4 023e 0d20 493d 0197 90bc
000000f0: 2884 6c3d 6fc2 f13c a83f 9abd 5a11 963d
00000100: 9388 ac3d c853 8ebb e8e3 dabb abb1 52bc
00000110: d0a5 19bd 8df5 1dbd e185 2d3a e865 b1bc
00000120: 0905 8e3d 6eaa 023d 17a5 4cbd 1fa0 d03d
00000130: 1935 b83c 79c6 7abd a60b 273c 522f 1fbd
00000140: 7900 d6bc 3d5f 253e 79bb f03b 3b4f be3c
00000150: 79b2 e53d a5f9 a53c 72dc 3ebd bdce 833d
00000160: 8e58 b8bc 071e b43c d0f7 a03c d9cb 8a3c
00000170: e2ec 43bd e93d 4abd de28 2bbd 3c8a 8fbd
00000180: 3fbc bebc a5b4 ec3c 1b92 333d 9004 2b3e
00000190: 17bf 3b3c d3d3 80bd e5c7 df3d d96a 06be
000001a0: 7aa2 dbbd efa7 8bbd b6f5 76be 18d6 09be
000001b0: 5f7a af3d d442 e33d cba5 193d 44ca b73d
000001c0: fa57 9b3c 926a b93c de02 d33a 3c3a 713c
000001d0: b3d3 b4bb fd32 c9bc 12a1 1cbd 03e5 8dbd
000001e0: 4530 3bbc fb17 9b3c f599 abbd 437a 5f3c
000001f0: b473 343c 1eaa 093d 7b1b 7c3c c57e 773c
00000200: 110f 83bd 5b52 213d 7835 b63c 1dfc 66bd
00000210: 1f12 ec3d 726c b2bc a472 243d 6938 0abc
00000220: ebc5 353c 9233 063d 7fd0 123d 1b38 c1bd
00000230: 5786 8b3c 28aa 163d fb04 11bd 8e37 613c
00000240: 62a0 883d beaf 753d fd1e 03bd 2780 a7bc
00000250: 9778 bdbd 52f2 61bd a06b 9fbc 304b fcbd
00000260: 3655 f8bd 5186 07bd c5a7 093d 5060 193c
00000270: 9ea1 24bd 4acc 8fbd 1b1d b53d f028 90bd
00000280: 317d 5cbd 281d bd3d 8511 f63d d3a2 903d
00000290: f0f6 383d 0235 2d3e be6c 453d 87e1 983d
000002a0: 8360 133e adc2 943d bc92 543d 4de1 1a3e
000002b0: 9ec3 d13b a876 97bc 93c2 b23d 6054 a23c
000002c0: 571c dcbd ffcd 4c3e df7e eebc c398 45bd
000002d0: dc99 bfbc 3c71 933d 9821 353d b809 31bc
000002e0: ede1 cf3d 9dce b13d 5c88 393d d29f 8f3d
000002f0: f423 ea3c b291 8d3b 1d4c 86bc dc3e 4ebd
00000300: d1e4 8f3c 123a e63c f99a 953d 9e48 43bc
00000310: e94d 58bc 9fff 953d 01af 81bc 5618 223c
00000320: e840 043b 0f81 0c3d 8bf7 7f3d 2e71 fa3c
00000330: 931c 2b3d eda7 a83d 5994 6d3d 5593 33bd
00000340: 2929 91bc 9830 c8bc c96f 50bd a3fc 3dbd
00000350: 35f1 bd3d 83c0 d2bd b069 4cbc eac9 7abb
00000360: c16c 1b3e f38a 663c 8f45 f8bd 3803 513e
00000370: 3c8b 3fbd d62d 37be bc2c 433e 8581 14bd
00000380: 9fd9 0abe 9d0e 533d bc4d e03d 4e09 163d
00000390: 06d7 963c 6817 f53d 6dfd 493c 5ca2 933d
000003a0: 16b6 b2bb c61b 70bc fde1 c33b 8568 b03d
000003b0: 989c 403d 8940 9abc 5f4e cb3d 0e4a 7bbc
000003c0: 0d01 993c d3af f0bc d258 f53c f7cf 64bc
000003d0: f1b2 383c ecee d63b 0bfd 9ebc 3e30 ffbb
000003e0: 07f9 59bd d485 bcbc bc06 f93c 19d8 2b3d
000003f0: 0cdb 613e d694 e9bb c603 f8bd cfff 153e
0.11072422 -0.0013457967 -0.06018903 0.009193381 0.03455978 0.019860342 -0.011986508 -0.05479048
-0.017057087 0.17795111 0.08201706 0.0328034 0.16991259 0.0060641053 0.02395738 0.1703837
0.03261612 0.013430079 0.038903195 -0.009214035 -0.06345779 0.047364276 -0.09064351 0.010545723
-0.021886125 -0.07595486 -0.009338968 -0.030503135 -0.02463889 0.067139834 -0.06953367 -0.00014079834
0.002297455 0.0108159715 -0.018475523 -0.042255826 0.101828195 -0.045540407 -0.021341827 0.017314672
0.003979504 -0.04062517 0.0369952 -0.045362417 -0.07857369 0.16347285 0.04743462 -0.08674856
0.11620502 -0.030802209 -0.062247552 0.09926857 -0.0422106 -0.1516369 0.15400885 0.09028122
0.033231035 0.12758075 0.04910283 -0.01765013 0.05774322 0.029511658 -0.07531673 0.07327528
0.08424487 -0.0043434836 -0.0066800006 -0.012859742 -0.037511647 -0.038564254 0.0006619376 -0.021655038
0.06934554 0.031900816 -0.04996213 0.10186791 0.022486256 -0.061224435 0.010195648 -0.038863488
-0.026123272 0.16149612 0.007346567 0.02323114 0.112156816 0.020260641 -0.04659695 0.064359166
-0.022503164 0.021986974 0.019649416 0.016942905 -0.04783333 -0.04937545 -0.04178702 -0.07008788
-0.023283122 0.028894732 0.04384051 0.16700959 0.011459134 -0.06290402 0.10926799 -0.13126697
-0.10724349 -0.0681914 -0.24117169 -0.13460577 0.08568262 0.11096731 0.037511628 0.08974126
0.018962849 0.022633824 0.0016098877 0.014723357 -0.0055184006 -0.024560446 -0.038239546 -0.06928446
-0.011425083 0.018932333 -0.08378974 0.013639989 0.011013914 0.033609502 0.015387411 0.015105908
-0.06399358 0.03938518 0.022242293 -0.056392778 0.11526894 -0.021780226 0.040148392 -0.008436301
0.011094551 0.032764025 0.03584337 -0.094345294 0.017031832 0.036783367 -0.03540514 0.013746155
0.066712156 0.059982054 -0.032011975 -0.02044685 -0.09251516 -0.055162735 -0.0194605 -0.123190284
-0.12125628 -0.03308708 0.033607263 0.009361342 -0.040193193 -0.07021387 0.08843442 -0.07039058
-0.05383033 0.09234077 0.1201506 0.07062306 0.045157373 0.16914752 0.048199408 0.07464891
0.14392285 0.07263694 0.05189775 0.15125008 0.006401493 -0.018489197 0.08728518 0.019815624
-0.10747593 0.20000456 -0.029113231 -0.048241388 -0.023388796 0.07199332 0.04422149 -0.01080554
0.10150514 0.086819865 0.045296058 0.07012905 0.028581597 0.0043203468 -0.016393716 -0.050352916
0.017565163 0.028103862 0.07304949 -0.011919169 -0.013202169 0.073241465 -0.015830519 0.009893497
0.0020180289 0.034302767 0.062491935 0.030571546 0.041775297 0.08235154 0.058002803 -0.04384168
-0.017719822 -0.024437234 -0.050887857 -0.04638351 0.09274522 -0.10290625 -0.01247637 -0.0038267323
0.15178205 0.014071214 -0.12122642 0.20411384 -0.046763644 -0.17888579 0.19060034 -0.036256332
-0.13559578 0.05152761 0.10952327 0.036629967 0.018413078 0.11967355 0.012328488 0.07208702
-0.0054538352 -0.014655059 0.0059778676 0.086136855 0.04702434 -0.0188296 0.099270575 -0.01533748
0.018677259 -0.029380715 0.02994958 -0.013965598 0.011273132 0.0065592434 -0.01940777 -0.0077877333
-0.053216007 -0.023013033 0.030398719 0.041954134 0.22056216 -0.0071283383 -0.12110095 0.14648364

encoder.blocks.2.conv.0.bias f4 [64]
00000000: a24c ea3b b50c 9e3d a7f7 56bd 183f e2bb
00000010: 64b9 41bd 8cae f2bb 505c 653a 929c 5cb9
00000020: b62a 493d b1ec 643c 369d 003d 13e3 933c
00000030: 9ce8 afbc 7776 8bbd 9f2c a6bb 8e6a ce3c
00000040: cc34 cbbd 1847 e9bc 2c53 66bc a6f8 a03d
00000050: a921 58bd cebe cfbd a49e a33d 192e 44bd
00000060: d539 9c3d 9135 cb3c 3785 c53d 0336 fb3b
00000070: 9291 e1bc 0e2c 51bd 946e 08bd 4842 803d
00000080: b8c8 6fbd 5336 673d f0a8 81bc e588 42bd
00000090: 8e15 cc3c 319e 1fbc 8e07 b03c 8e99 27bc
000000a0: 6ab4 bbbc 9621 cebc fe3c 86bd 8b2f 93bd
000000b0: bc94 4abd 7441 c6bc 01c5 e3bc 9d21 013d
000000c0: c4f2 e33c 1045 503d 2914 86bd 81a5 763c
000000d0: dcdf 4b3d 0a63 dd3c 961b c7bc 4913 03bd
000000e0: 23cf 29bd c3e0 22bd a834 e43c 467c e6bc
000000f0: 106c 153c 4dff 833c 1cd0 57bc f108 853d
0.0071502486 0.077172674 -0.052482273 -0.006904494 -0.047295943 -0.0074060615 0.00087494124 -0.00021039162
0.049112998 0.013972447 0.031399928 0.018052613 -0.021473221 -0.06809705 -0.005071237 0.025197294
-0.099221796 -0.028476283 -0.014057916 0.07859926 -0.052766476 -0.10143815 0.07989243 -0.047895525
0.07628218 0.024805816 0.09644549 0.007666351 -0.027535234 -0.051067404 -0.03330858 0.06262642
-0.05854103 0.056448292 -0.015827626 -0.047493834 0.024912622 -0.009742306 0.021487977 -0.010229481
-0.022913177 -0.0251625 -0.06554602 -0.071868025 -0.04945825 -0.024201132 -0.0278039 0.031526197
0.02782572 0.050847113 -0.06546814 0.015054108 0.049774036 0.027024765 -0.024305146 -0.032000814
-0.041457307 -0.03976513 0.02785714 -0.02813543 0.009120002 0.016112948 -0.013172176 0.06495846
