toyshapes/pinets_ensemble/ensemble_6/model_5.pth (torch, 466407 bytes, 71 tensors)

encoder.blocks.0.conv.0.weight f4 [16, 1, 3, 3]
0	0x3e56fed1	0.20995642
1	0xbe87a2b2	-0.26491314
2	0x3ea08675	0.31352583
3	0x3e321f54	0.17394763
4	0x3e8fb4f5	0.28067747
5	0xbe81735b	-0.25283322
6	0xbe719234	-0.23590928
7	0x3e30efdb	0.17278998
8	0xbe9ac76d	-0.30230275
9	0x3e96bb8b	0.2943996
10	0x3cbce86b	0.023060044
11	0x3d93afe1	0.072112806
12	0xbe877b79	-0.2646139
13	0x3dea270d	0.114332296
14	0x3e284d82	0.16435817
15	0x3e2c0a4e	0.16800806
16	0x3e8bdb35	0.2731568
17	0x3e40bad3	0.18821268
18	0xbe894064	-0.2680694
19	0x3ea54402	0.32278448
20	0x3da51e5d	0.08062432
21	0xbd591886	-0.053001903
22	0xbe96a4d4	-0.2942263
23	0x3e72472b	0.23659961
24	0x3ea6032b	0.32424292
25	0xbea3e328	-0.32009244
26	0x3db25591	0.08707727
27	0x3e454f05	0.19268425
28	0xbe795425	-0.24348505
29	0xbc4eb7df	-0.0126170805
30	0xbe274be5	-0.16337545
31	0xbe3f70c4	-0.1869536
32	0xbe9aa869	-0.30206612
33	0xbc024054	-0.007949907
34	0x3e52fe90	0.2060492
35	0x3e527f1b	0.205563
36	0x3e9f28dc	0.3108586
37	0xbe9f5cc5	-0.31125465
38	0xbcebb814	-0.028774299
39	0x3e8f263a	0.27958852
40	0x3d0d4c37	0.034496512
41	0xbdc2cce4	-0.09511736
42	0xbeb21128	-0.34778714
43	0x3e153bff	0.14573668
44	0x3e622b0e	0.22086737
45	0x3e347a74	0.17624837
46	0x3e868524	0.26273453
47	0xbd28a2bf	-0.04117083
48	0x3e2e57b5	0.17025645
49	0xbe1f86bc	-0.15578741
50	0x3e5f480c	0.21804827
51	0xbdcf1d69	-0.101130314
52	0xbe56813a	-0.20947734
53	0xbe874883	-0.2642251
54	0x3e2d28d9	0.16910113
55	0x3e037303	0.12836842
56	0x3e4c2d39	0.19939126
57	0xbe605e06	-0.21910867
58	0xbe4b695d	-0.19864412
59	0x3e97aab3	0.2962242
60	0xbe4c8110	-0.19971108
61	0xbe5daa15	-0.21646912
62	0xbdea139f	-0.11429524
63	0xbded5e6b	-0.115902744
64	0xbe5abdf7	-0.21361528
65	0x3e831c49	0.25607517
66	0x3d95c84e	0.07313596
67	0x3e5b4af6	0.21415314
68	0x3e806b08	0.25081658
69	0xbe46b606	-0.19405374
70	0x3e806255	0.2507502
71	0xbe4d819c	-0.20068973
72	0xbe11e8cd	-0.14248963
73	0x3e26344f	0.16230892
74	0x3e263794	0.16232139
75	0x3e85da42	0.2614308
76	0x3e3cd1e2	0.18439439
77	0x3e1f3bdc	0.15550178
78	0xbe469aaa	-0.19394937
79	0xbe1b108c	-0.15143031
80	0xbe8bc4c9	-0.27298573
81	0xba5b0a26	-0.0008355699
82	0xbd8b9f75	-0.068175234
83	0x3e63f03d	0.22259612
84	0x3e867efc	0.26268756
85	0xbe6cd4c0	-0.23128033
86	0xbde86930	-0.11348188
87	0xbd487876	-0.048943006
88	0x3e3b1940	0.18271351
89	0xbdc09289	-0.09402949
90	0xbdd0fa03	-0.10203936
91	0xbd89ebb3	-0.06734409
92	0xbcc731de	-0.02431577
93	0x3dd00c4b	0.10158595
94	0xbe544da4	-0.20732743
95	0xbc57985a	-0.013158882
96	0xbe37e093	-0.17956762
97	0xbdbaf016	-0.09127824
98	0x3eb388e3	0.35065374
99	0x3e04c61e	0.129662
100	0x3c67e604	0.014153961
101	0xbe7d51e6	-0.24738273
102	0xbe9a3edf	-0.30126092
103	0xbe8db965	-0.27680507
104	0x3d980a2d	0.07423816
105	0xbe34c45f	-0.17653035
106	0xbec74010	-0.38916063
107	0x3dc6820a	0.09692772
108	0x3d28c19a	0.041200258
109	0xbdd1496d	-0.10219083
110	0xbc70e459	-0.01470288
111	0x3e8c8668	0.27446294
112	0xbebffde5	-0.37498394
113	0x3da81d00	0.08208656
114	0x3db48b54	0.08815637
115	0x3e1106b1	0.14162709
116	0xbecbcff2	-0.39807087
117	0xbd76683e	-0.060158007
118	0x3e7a0cfc	0.24419016
119	0xbd1685db	-0.03674875
120	0x3de3ef69	0.11129648
121	0xbe743f05	-0.23852165
122	0x3e34e347	0.17664824
123	0xbddb4617	-0.10706728
124	0xbe8422ad	-0.25807706
125	0x3e74121e	0.23835036
126	0x3da90214	0.082523495
127	0x3d56cced	0.052441526
128	0xbe6e24b0	-0.23256183
129	0xbd89fe9b	-0.06738015
130	0xbe555c38	-0.2083596
131	0xbeb14b59	-0.34627798
132	0xbd3bf76d	-0.04589026
133	0x3e28770f	0.16451667
134	0xbe85d843	-0.26141557
135	0x3eb053da	0.34438974
136	0x3e8e5979	0.27802637
137	0xbe91e80a	-0.28497344
138	0x3e6cc9ef	0.23123907
139	0xbe3fefde	-0.18743846
140	0xbe8613a3	-0.26186857
141	0x3ea1c499	0.31595305
142	0xbe2007c1	-0.15627958
143	0xbde08ff1	-0.10964955

encoder.blocks.0.conv.0.bias f4 [16]
0	0x3d8e26cc	0.06940994
1	0x3dff2bb3	0.12459507
2	0x3d5c7100	0.053818703
3	0xbe01703d	-0.12640472
4	0xbd33081f	-0.043708917
5	0xbe6d62ff	-0.23182295
6	0xbe6e6549	-0.23280825
7	0x3df16371	0.11786545
8	0x3da9483e	0.08265732
9	0x3e18c5ed	0.14919253
10	0xbdfde5a7	-0.12397318
11	0xbeb5f388	-0.35537362
12	0xbb0b6ea4	-0.0021275664
13	0xbea0a55b	-0.31376156
14	0x3cf770c5	0.03020514
15	0x3e326b1c	0.17423671

encoder.blocks.0.conv.1.weight f4 [16]
0	0x3f980168	1.1875429
1	0x3f66cde3	0.9015791
2	0x3f815df3	1.0106796
3	0x3f7a39ac	0.9774425
4	0x3f723f34	0.9462769
5	0x3f88a108	1.0674143
6	0x3f8340c3	1.0254139
7	0x3f878123	1.0586284
8	0x3f78f6a4	0.97251344
9	0x3f70e64c	0.94101405
10	0x3f76324f	0.96170515
11	0x3f71263a	0.94198954
12	0x3f73f091	0.9528895
13	0x3f8f95e7	1.1217622
14	0x3f635413	0.8880016
15	0x3f82f8c7	1.0232171

encoder.blocks.0.conv.1.bias f4 [16]
0	0x3af3f91f	0.0018613673
1	0xbd46f766	-0.04857578
2	0x3dd8cf9c	0.10586473
3	0x3d1cba70	0.03826374
4	0x3a1db19e	0.0006015542
5	0x3cc708a9	0.024296122
6	0x3934d9d7	0.0001724729
7	0x3d23595d	0.039880145
8	0xbd383c53	-0.044979405
9	0x3dfaf1c2	0.12253143
10	0x3d6168c4	0.055031553
11	0x3dc03a31	0.09386099
12	0x3d81cebb	0.06338259
13	0x3d56aa74	0.05240865
14	0xbcea37f0	-0.028591126
15	0xbcb1f4ba	-0.02172314

encoder.blocks.0.conv.1.running_mean f4 [16]
0	0x3def3d36	0.11681597
1	0x3f1f343a	0.62189066
2	0x3dc81c7e	0.097710595
3	0xbe971e01	-0.2951508
4	0x3e07c067	0.1325699
5	0xbe27d650	-0.16390347
6	0xbe9b0487	-0.30276892
7	0x3e90bbd5	0.28268304
8	0x3e279ed9	0.1636919
9	0x3e217f51	0.15771224
10	0xbe952e32	-0.29136807
11	0xbf6427c8	-0.891232
12	0xbe3f7d3f	-0.18700121
13	0xbe8fef83	-0.2811242
14	0xbecdd46e	-0.40201133
15	0x3e788f38	0.24273384

encoder.blocks.0.conv.1.running_var f4 [16]
0	0x3b81faa9	0.0039666486
1	0x3d33f754	0.043937042
2	0x3b3c9fbb	0.002878173
3	0x3c01fc89	0.007933744
4	0x3bc86e70	0.006116681
5	0x3be8c56f	0.007103614
6	0x3c0a2a03	0.008432868
7	0x3c020fac	0.007938307
8	0x3bd9efa2	0.006650881
9	0x3aa23c6a	0.0012377624
10	0x3be57fc6	0.007003757
11	0x3d489738	0.04897234
12	0x3c18a4c6	0.009316629
13	0x3b271a27	0.0025497766
14	0x3d0e888d	0.034798194
15	0x3c61efe2	0.013790103

encoder.blocks.0.conv.3.weight f4 [16, 16, 3, 3]
0	0x3d9579c9	0.07298619
1	0x3d78f41d	0.06077968
2	0x3d6d6592	0.057958193
3	0x3cb30604	0.021853454
4	0x3e16843d	0.14698882
5	0x3d957ae0	0.07298827
6	0x3d55b141	0.052170996
7	0xbd899034	-0.06716958
8	0x3d88a3cd	0.066718675
9	0x3dc96dcb	0.098353945
10	0xbd4700cd	-0.048584748
11	0x3da40f47	0.080107264
12	0x3d76dd21	0.06026948
13	0x3c8a104c	0.016853474
14	0xbda8c938	-0.082415044
15	0xbd9634cc	-0.07334289
16	0xbd3089d7	-0.043100204
17	0xbd55d1c8	-0.052202016
18	0xbe0823c7	-0.13294898
19	0x3d44a52a	0.048009075
20	0xbe00f101	-0.12591936
21	0x3bbae214	0.00570322
22	0xbd389821	-0.045066956
23	0xbd2d6b3a	-0.042338587
24	0x3d905308	0.07047087
25	0x3d020f34	0.03175278
26	0xbd1412a3	-0.036150586
27	0x3d96420c	0.07336816
28	0x3d42daea	0.047572054
29	0xbd0345d9	-0.032049034
30	0xbc4ab8bc	-0.012373146
31	0x3cb5b0bc	0.022179
32	0x3d9eabd9	0.07747621
33	0x3cfde2af	0.03099188
34	0xbba11d7c	-0.004916845
35	0x3cae0599	0.021242904
36	0x3d2dfecf	0.042479333
37	0x3cc1a00a	0.023635883
38	0xbd87e529	-0.06635506
39	0xbdb23c60	-0.08702922
40	0xbbcdff3e	-0.0062865308
41	0x3d0ae43f	0.03390908
42	0xbd4ceeee	-0.05003255
43	0x3d7c7a19	0.06163988
44	0x3dc75b8e	0.097342595
45	0x3c5b796f	0.013395651
46	0x3d9cb4d4	0.07651678
47	0x3da2b3af	0.07944428
48	0x3d9e41f5	0.07727424
49	0xbd623a39	-0.055231307
50	0x3dca61e9	0.09881956
51	0x3d864493	0.06556048
52	0xbd88281b	-0.066482745
53	0x3d0eb43b	0.03483985
54	0xbe158b21	-0.14603855
55	0x3e1e0865	0.1543289
56	0x3dc04c93	0.093896054
57	0xbdaaf94b	-0.0834833
58	0xbd61f891	-0.055168692
59	0xbcdd780d	-0.027034784
60	0xbda3554d	-0.07975254
61	0x3d8c7704	0.06858638
62	0xbe170a27	-0.14749967
63	0x3daaa5b5	0.08332387
64	0x3bd9aa3e	0.006642609
65	0xbba77b3a	-0.0051111253
66	0xbdab8d4c	-0.083765596
67	0x3bbff8bb	0.0058585084
68	0x3d947a68	0.0724991
69	0x3db4e0c0	0.0883193
70	0xbd7d90e7	-0.061905768
71	0x3b01f91f	0.0019832326
72	0x3d167a29	0.036737595
73	0x3d70e98a	0.05881647
74	0xbda87181	-0.08224774
75	0x3aecb0e0	0.0018058084
76	0xbd360752	-0.044440575
77	0x3dc3e888	0.09565836
78	0x3cc0f34f	0.023553519
79	0x3d6eb8c8	0.05828169
80	0x3d0fd896	0.03511866
81	0x3da36556	0.07978313
82	0x3c8abc4a	0.016935486
83	0x3cbab7b1	0.022792669
84	0xbd46ec58	-0.04856524
85	0x3e03cf07	0.12871943
86	0x3b232026	0.0024890988
87	0x3d85c261	0.065312155
88	0xbc8e92ce	-0.017403986
89	0xbda29ec1	-0.07940436
90	0xbd91961e	-0.07108711
91	0xbd149dcb	-0.036283296
92	0xbd144121	-0.036194924
93	0xbd3a6e0b	-0.0455151
94	0x3d828e15	0.06374756
95	0xbd2ec5c2	-0.042669065
96	0xbdb0977d	-0.08622644
97	0x3ddf2cd8	0.10897225
98	0x3c88cf1c	0.01670032
99	0xbd299d84	-0.041409984
100	0x3bb022b3	0.00537523
101	0x3c2d3c5d	0.010573474
102	0xbd698aa2	-0.057016976
103	0xbd86f2eb	-0.06589302
104	0xbd3e38a7	-0.046440747
105	0x3d745f99	0.05966148
106	0x3d44abe1	0.04801548
107	0xbd91b486	-0.0711451
108	0xbbda15c0	-0.006655425
109	0x3d0d893e	0.034554712
110	0x3ddd2e38	0.10799831
111	0x3d81edd8	0.06344193
112	0x3d17f7a5	0.037101407
113	0x3cd2288b	0.025654098
114	0x3ddbf594	0.107402
115	0xbda23023	-0.079193376
116	0x3cd99562	0.02656049
117	0xbe052f52	-0.13006333
118	0xbd2d5b0f	-0.04232317
119	0x3d8973d0	0.067115426
120	0x3ca67c92	0.020323072
121	0x3d4fcad9	0.05073056
122	0x3cbeea74	0.023305155
123	0x3bc2b4de	0.005941971
124	0x3e0f4696	0.1399177
125	0xbdcf5c08	-0.101249754
126	0xbce888d4	-0.028385557
127	0x3c87c414	0.01657299
128	0xbc83636d	-0.01603862
129	0x3d26b9c7	0.040704515
130	0xbd909589	-0.070597716
131	0x3d424abe	0.04743456
132	0xbd481fc8	-0.048858434
133	0x3d609ffa	0.054840066
134	0x3bd42a22	0.006474749
135	0xbd3b0071	-0.045654718
136	0xbcdb72ef	-0.026788203
137	0x3da39baf	0.07988679
138	0x3e28709b	0.16449206
139	0xbd2fa660	-0.042883277
140	0x3dbaa892	0.091141835
141	0x3df95cdf	0.12175917
142	0x3c593d32	0.013259219
143	0x3e0c7b61	0.1371894
144	0xbd92ff39	-0.07177586
145	0xbd3d7f42	-0.04626394
146	0xbe04126a	-0.1289765
147	0xbc9da18e	-0.019242074
148	0x3cacdd64	0.021101661
149	0xbcfe31e3	-0.031029647
150	0x3c195ddc	0.009360757
151	0x3ce72219	0.028214501
152	0x3d0cbed6	0.034361683
153	0x3ceb1b7b	0.028699627
154	0x3c920504	0.017824657
155	0x3dcc854a	0.0998636
156	0x3d5b17f9	0.05348966
157	0x3daed8d8	0.085374534
158	0x3da93e0d	0.08263788
159	0x3d6767b6	0.05649539
160	0x3ddbc52e	0.107309684
161	0x3d995aa2	0.0748799
162	0xbd917d7e	-0.07104014
163	0x3c0f7db0	0.008757994
164	0xbe000e52	-0.12505463
165	0xbdd7bf54	-0.1053454
166	0x3cab1dec	0.020888291
167	0xbdd53ab1	-0.10411585
168	0xbe19ff08	-0.15038693
169	0xbd177479	-0.03697631
170	0x3c83e9a1	0.016102614
171	0x3d144cf3	0.036206197
172	0xbd9efb55	-0.077627815
173	0xbdc5097b	-0.09620949
174	0xbdd82c31	-0.10555304
175	0xbce89feb	-0.028396567
176	0xbc0f573d	-0.008748827
177	0xbd2e50bb	-0.04255746
178	0xbc49bb62	-0.012312742
179	0xbd8b3ce0	-0.0679872
180	0xbb77c125	-0.0037804332
181	0x3daeda2e	0.08537708
182	0xbae7a18b	-0.0017672045
183	0xbd220e1d	-0.03956424
184	0x3dbb1d58	0.09136456
185	0x3d74d84c	0.05977659
186	0x3d06f482	0.032948025
187	0x3d4e3ba6	0.050349854
188	0x3cce30e8	0.025169805
189	0x3d6cde5e	0.057829253
190	0x3d00e8c0	0.031471968
191	0x3d07294b	0.032998364
192	0x3d86bfa0	0.06579518
193	0x3dce04e5	0.10059527
194	0x3d8c5e6e	0.068539485
195	0x3de52a5a	0.111897185
196	0x3e26fa16	0.16306338
197	0x3e2b9223	0.16754965
198	0xbc57d973	-0.0131744025
199	0xbdb43bfa	-0.08800502
200	0xbdb97747	-0.090559535
201	0xbe01f601	-0.126915
202	0xbdd21570	-0.10257995
203	0xbe141f33	-0.14465027
204	0x3c9813d4	0.018564142
205	0xbdb659a5	-0.08903817
206	0xbd7d8211	-0.06189162
207	0x3cbf1093	0.023323333
208	0x3dc66a09	0.09688193
209	0x3dafd872	0.085862055
210	0x3da6d569	0.081461735
211	0x3d8d75c2	0.06907226
212	0xbc9b39e1	-0.018948497
213	0xbd977b27	-0.07396536
214	0x3db4e5c6	0.08832888
215	0x3d8b3bce	0.06798516
216	0x3c651ae4	0.013983462
217	0x3d775791	0.060386244
218	0x3c80e7c5	0.015735516
219	0x3d222b46	0.03959205
220	0xbb0ccded	-0.0021485046
221	0x3dbe0db4	0.092799574
222	0x3dc60ec3	0.09670784
223	0x3da80340	0.08203745
224	0x3e1840f1	0.14868523
225	0xbdecc7ee	-0.11561571
226	0x3cfca6a9	0.030841189
227	0xbdd7e57f	-0.1054182
228	0x3ca0d812	0.01963428
229	0xbd68104e	-0.056656174
230	0xbdc39630	-0.0955013
231	0xbd5e551a	-0.054280378
232	0x3d01f57f	0.031728264
233	0xbcfeb520	-0.031092227
234	0xbda2f490	-0.07956803
235	0xbda64b25	-0.081198014
236	0x3d1b88d9	0.037972305
237	0xbdd9be21	-0.10631967
238	0xbd968c8e	-0.073510274
239	0xbde05d42	-0.109552875
240	0xbdf5631f	-0.119817965
241	0x3d2fcbd3	0.04291899
242	0xbd868017	-0.065674
243	0xbcf8b2c0	-0.030358672
244	0xbd315cf0	-0.043301523
245	0xbdbfbebd	-0.09362552
246	0xbd1fb799	-0.03899345
247	0xbdcc69c6	-0.09981112
248	0xbd9dcf84	-0.07705596
249	0x3d03199f	0.032006856
250	0xbda90e7b	-0.08254715
251	0x3c8d6cf0	0.01726386
252	0xbd75fb04	-0.06005384
253	0xbbdb2e5f	-0.0066888775
254	0xbd371878	-0.04470107
255	0x3ccf036d	0.025270188

encoder.blocks.0.conv.3.bias f4 [16]
0	0x3c9e9aa6	0.019360851
1	0xbc2c6c71	-0.010523901
2	0x3dd7b43c	0.10532424
3	0xbd8d44b4	-0.0689787
4	0x3ba0ba69	0.0049050343
5	0x3d197082	0.03746081
6	0x3c842d73	0.016134953
7	0x3d8a543f	0.0675435
8	0x3c4df472	0.012570487
9	0xbb31b976	-0.00271186
10	0xbd0bb445	-0.034107465
11	0x3d068da3	0.03284992
12	0xbcd802da	-0.026368547
13	0xbe12c587	-0.14333163
14	0xbd96171b	-0.07328626
15	0xbd8f6bb8	-0.070029676

encoder.blocks.0.conv.4.weight f4 [16]
0	0x3f881c9c	1.0633731
1	0x3f766caa	0.9625956
2	0x3f7b3e34	0.9814179
3	0x3f681d02	0.9066926
4	0x3f65a6fa	0.8970791
5	0x3f86ac60	1.0521355
6	0x3f731d3a	0.9496647
7	0x3f7511a7	0.9573006
8	0x3f851346	1.0396507
9	0x3f7d6b45	0.98991805
10	0x3f7b9a4c	0.98282313
11	0x3f7a0e95	0.976785
12	0x3f7c79b8	0.9862323
13	0x3f79690c	0.97425914
14	0x3f8ba018	1.0908232
15	0x3f80ffcc	1.0078063

encoder.blocks.0.conv.4.bias f4 [16]
0	0xbd186784	-0.037208095
1	0x3c59e1c1	0.013298453
2	0xbdac9686	-0.084271476
3	0xbdf757d0	-0.12077296
4	0xbd3e3aa1	-0.04644263
5	0x3cdc7e16	0.026915591
6	0xbc32b0b4	-0.010906387
7	0x3d2ca56f	0.042149957
8	0x3be6d949	0.0070449454
9	0xbc92deb9	-0.017928468
10	0x3afc623a	0.0019255348
11	0xbcedf8d4	-0.029049315
12	0xbce99d9b	-0.028517535
13	0xbe19381c	-0.1496281
14	0xbceff9b0	-0.029293865
15	0xbaa1d04c	-0.0012345403

encoder.blocks.0.conv.4.running_mean f4 [16]
0	0x3ed6f383	0.4198266
1	0xbe5b1065	-0.21392973
2	0xbe017c07	-0.12644969
3	0x3efbf0f1	0.4920726
4	0xbf1c6bce	-0.61101997
5	0x3de939d7	0.11387985
6	0x3eaa6e1b	0.3328713
7	0xbf80a6bd	-1.0050884
8	0xbea26950	-0.31720972
9	0xbe96e16d	-0.2946886
10	0x3eab69e5	0.3347923
11	0x3ed927fe	0.42413324
12	0xbd687d84	-0.056760326
13	0x3f3364f0	0.70075893
14	0xbee82766	-0.4534256
15	0xbebaf9a9	-0.365186

encoder.blocks.0.conv.4.running_var f4 [16]
0	0x3f071915	0.5277265
1	0x4019febd	2.406173
2	0x40353c0f	2.8317907
3	0x3f29dd47	0.6635327
4	0x3ff66cb2	1.9251921
5	0x3f2ae3c2	0.6675378
6	0x3f71e672	0.94492257
7	0x40050aab	2.0787761
8	0x3fe2f433	1.7730774
9	0x3f68788e	0.9080895
10	0x3fe40273	1.7813247
11	0x3f89db9f	1.0770148
12	0x4011e653	2.2796829
13	0x3fb8a5b7	1.4425572
14	0x3edd6915	0.43244234
15	0x4031daa6	2.7789702

encoder.blocks.0.skip.weight f4 [16, 1, 1, 1]
0	0x3eb88df4	0.36045802
1	0x3f0578f4	0.52137685
2	0x3d6c8f20	0.057753682
3	0xbf61d294	-0.8821194
4	0xbec6d774	-0.38836253
5	0x3e5be7c0	0.21475124
6	0x3f09bf08	0.53807116
7	0xbf65ec24	-0.89813447
8	0x3efff924	0.49994767
9	0xbee96c0c	-0.45590246
10	0xbf086d6c	-0.53291965
11	0x3ea1cf8c	0.31603658
12	0x3f316ad0	0.6930361
13	0x3e864ee8	0.26232076
14	0xbf78fa7a	-0.97257197
15	0xbf10921e	-0.5647296

encoder.blocks.0.skip.bias f4 [16]
0	0x3d7bf480	0.06151247
1	0x3f1bc702	0.60850537
2	0x3f74f15c	0.95680785
3	0xbf57fdd6	-0.843717
4	0xbe99df4c	-0.30053174
5	0xbeea2c7c	-0.45737064
6	0xbd661920	-0.056176305
7	0xbec5ec68	-0.38656926
8	0x3ee6f3e8	0.4510796
9	0xbf176044	-0.59131265
10	0xbd403120	-0.04692185
11	0xbb0a6200	-0.0021115541
12	0xbf470984	-0.77748895
13	0x3e5e0af8	0.21683872
14	0xbf17b324	-0.5925772
15	0xbf793e40	-0.9736061

encoder.blocks.1.conv.0.weight f4 [32, 16, 3, 3]
0	0x3ce0e5ae	0.02745327
1	0xbc195305	-0.009358172
2	0xbd107a32	-0.035272785
3	0xbd07ee79	-0.03318641
4	0x3d430a4e	0.04761725
5	0x3a2e98aa	0.0006660322
6	0x3d997314	0.074926525
7	0x3dac9114	0.08426109
8	0x3e020672	0.12697771
9	0x3d22e5be	0.03976988
10	0x3cc54c6d	0.024084294
11	0x3d9c8d34	0.0764412
12	0x3d96679d	0.073439814
13	0x3caa84f6	0.020815354
14	0xbc9a8a72	-0.018864844
15	0xbca648ed	-0.020298446
16	0x3d502e04	0.050825134
17	0xbc1564f5	-0.009118308
18	0xbd96f952	-0.07371773
19	0xbcf14e6b	-0.029456338
20	0xbd4556ee	-0.048178606
21	0x3da98fae	0.08279358
22	0x3cd182de	0.025575098
23	0x3d6843ae	0.05670517
24	0x3d7c8f75	0.06166025
25	0x3d02326d	0.03178637
26	0xbd07bed0	-0.033140957
27	0xbde68457	-0.112557106
28	0x3db80623	0.089855455
29	0x3d9197b8	0.07109016
30	0xbdd9a746	-0.10627608
31	0x3dd0a223	0.10187175
32	0x3b010958	0.0019689407
33	0xbbbeffa5	-0.005828815
34	0x3ca97475	0.020685414
35	0x3db5c86e	0.088761196
36	0xbd1a514b	-0.037675183
37	0x3dca0b19	0.09865398
38	0x3cee71bb	0.029106965
39	0x3b6f0590	0.0036471821
40	0x3d0db54a	0.03459672
41	0x3bc2e8d5	0.005948166
42	0x3dbcaca7	0.09212618
43	0x3df74d4b	0.12075289
44	0x3d91740a	0.07102211
45	0xbdf35a4a	-0.11882456
46	0xbd9181e2	-0.07104851
47	0x3d9f4745	0.077772655
48	0xbd958201	-0.07300187
49	0xbbfa77f0	-0.007643692
50	0x3d7263b6	0.059177123
51	0xbe13a7ae	-0.14419433
52	0xbc02a748	-0.007974453
53	0xbd2897c9	-0.04116038
54	0xbcb6cd58	-0.022314712
55	0xbd5b05c7	-0.053472307
56	0x3b1dd420	0.0024082735
57	0x3b8e862e	0.0043494916
58	0x3dd763cd	0.10517082
59	0x3df6d0e9	0.12051565
60	0x3cf35dc8	0.029707804
61	0x3df8d7c0	0.12150526
62	0x3c746cbd	0.014918503
63	0x3cec4aa0	0.028844178
64	0xbba3492e	-0.004983089
65	0x3df82645	0.12116674
66	0x3e00a1f4	0.1256178
67	0x3d361e15	0.044462282
68	0x3bbe5f45	0.005809697
69	0x3dc7d6db	0.09757777
70	0xbc5899ec	-0.013220292
71	0xbd70e718	-0.05881414
72	0x3d854efd	0.065092064
73	0x3d36f2cb	0.04466514
74	0xbda2447f	-0.07923221
75	0x3df08e05	0.11745838
76	0xbbc7958d	-0.006090826
77	0xbd6c9334	-0.05775757
78	0x3db0d8f8	0.086351335
79	0x3b6526e5	0.003496581
80	0x3d544357	0.051822033
81	0xbe122138	-0.14270484
82	0xbc40a192	-0.011757271
83	0x3ca98cc5	0.020697007
84	0xbe0062b2	-0.1253765
85	0xbc85b504	-0.016321667
86	0xbaa58e61	-0.0012630933
87	0xbccb6616	-0.024828952
88	0x3d97dffb	0.07415768
89	0x3de80633	0.113293074
90	0xbcb6798a	-0.022274751
91	0xbd22e807	-0.03977206
92	0x3c8add53	0.016951239
93	0x3d0759bf	0.033044573
94	0x3df4147d	0.1191797
95	0xbc3b5cea	-0.011435727
96	0x3e059f02	0.13048938
97	0xbbe5715c	-0.007002039
98	0xbc09e609	-0.008416661
99	0x3ccd6157	0.02507083
100	0x3c5ca368	0.013466693
101	0xbdc4fcb2	-0.0961851
102	0x3dbf3c60	0.093376875
103	0x3d855174	0.065096766
104	0x3ccac3d1	0.024751576
105	0x3ac32911	0.0014889558
106	0x3d90c220	0.070682764
107	0x3dd07729	0.10178978
108	0xbcb2e35f	-0.021836935
109	0x3d34a28d	0.044100333
110	0xbce81dcc	-0.02833452
111	0x3d882783	0.06648161
112	0xbc87e32b	-0.016587814
113	0x3d66fc64	0.056393042
114	0x3d2f2613	0.04276092
115	0xbd5832bb	-0.052782755
116	0xbc0f71dc	-0.0087551735
117	0xbd5e3791	-0.05425221
118	0xbd59b8b1	-0.05315465
119	0x3ae16fd9	0.0017199471
120	0x3cbd0935	0.02307568
121	0xbc48fb6d	-0.012266976
122	0x3d609f14	0.05483921
123	0x3bdf9042	0.006822617
124	0x3df8457a	0.121226266
125	0x3dd9b219	0.106296726
126	0xbd8441b4	-0.064578444
127	0xbd8fd8e3	-0.0702379
128	0x3e280b9b	0.16410677
129	0xbd215d78	-0.03939578
130	0x3c40d7ca	0.011770198
131	0x3dc30f6a	0.095244244
132	0xbd1ade4e	-0.037809663
133	0x3ca79592	0.020457063
134	0x3d539668	0.05165711
135	0x3c5af780	0.013364673
136	0xbd37ebed	-0.04490273
137	0x3d710547	0.058842923
138	0x3dd3d842	0.10343982
139	0x3d930b94	0.07179943
140	0x3d06b171	0.032884065
141	0x3e0a4f8a	0.13506904
142	0x3dc080e7	0.09399586
143	0x3d235167	0.039872553
144	0xbcdd3668	-0.027003482
145	0x3d6223d2	0.055209942
146	0x3d4368f4	0.047707513
147	0x3e180195	0.14844353
148	0x3e1fbb3f	0.15598772
149	0x3ce09cf0	0.027418584
150	0x3d301adf	0.042994376
151	0x3dfb3a5f	0.12266993
152	0x3d5509d1	0.052011315
153	0x3cb5841a	0.022157717
154	0xbc157bdc	-0.009123769
155	0x3cf86a91	0.030324252
156	0xbd4a0666	-0.04932251
157	0x3ddea686	0.108716056
158	0x3d7a4ebe	0.06111025
159	0xbd153178	-0.03642413
160	0x3da583f7	0.08081811
161	0x3ac77993	0.0015218727
162	0x3dbb2048	0.091370165
163	0xbcabcb9e	-0.020971116
164	0x3e065aa1	0.1312051
165	0x3decb395	0.1155769
166	0xb9c49287	-0.00037493205
167	0x3dd94023	0.10607936
168	0x3d9ed984	0.077563316
169	0x3dc04c53	0.09389558
170	0xbd2a888d	-0.04163413
171	0x3d9759b7	0.073901586
172	0x3d2f4711	0.042792384
173	0x3e032e22	0.12810567
174	0x3c02de3a	0.007987553
175	0x3d69fa02	0.05712319
176	0x3d3841ad	0.04498451
177	0x3dbb4504	0.09144023
178	0x3d46e419	0.048557375
179	0x3d144c3f	0.036205526
180	0x3d685325	0.056719918
181	0xbcc2af3f	-0.023765204
182	0x3ba5856e	0.0050513064
183	0x3d0173e4	0.031604663
184	0x3c7c2db8	0.01539176
185	0x3c65d595	0.014027973
186	0xbb7ba237	-0.0038396248
187	0xbcb0ca83	-0.02158094
188	0xbc78523f	-0.015156328
189	0xbc40d5fe	-0.01176977
190	0xbd082ad6	-0.033243977
191	0x3d9324d5	0.071847595
192	0x3ce8dda7	0.028426005
193	0xbd0a0c2a	-0.033703007
194	0xbd2b3dfc	-0.04180716
195	0xbdec1055	-0.115265526
196	0xbdd25635	-0.10270349
197	0xbc1ff3da	-0.009762729
198	0x3d2d059d	0.04224168
199	0xbcd2afe6	-0.02571864
200	0xbd78c062	-0.060730346
201	0x3d7f95bd	0.06239866
202	0xbc299af5	-0.010351886
203	0xbce6ceab	-0.028174719
204	0x3cd3a6d6	0.02583639
205	0xbd1d7167	-0.038438227
206	0xbd877a95	-0.066151775
207	0x3d3b6d04	0.045758262
208	0x3c9fca00	0.0195055
209	0xbd2dea91	-0.042460028
210	0x3d8b5277	0.06802838
211	0x3b3e2bba	0.0029017762
212	0xbcd62bbf	-0.026143907
213	0xbc17a136	-0.009254744
214	0xbd1e7102	-0.03868199
215	0xbd57e247	-0.05270603
216	0x3c8bb442	0.017053727
217	0x3d1ca6d1	0.038245026
218	0x3d56a07e	0.05239915
219	0x3d414ce9	0.047192488
220	0xbc8af877	-0.01696418
221	0xbcd04329	-0.02542265
222	0x3d7e14eb	0.062031668
223	0x3b699837	0.0035643706
224	0x3d379eab	0.044829052
225	0x3dc7f695	0.09763829
226	0x3d0225c4	0.031774297
227	0x3dc010cb	0.09378203
228	0x3da21417	0.07913988
229	0x3e09787f	0.13424872
230	0x3e05f1b4	0.13080484
231	0x3d4dea85	0.050272483
232	0x3db8527f	0.0900011
233	0x3d48d1d8	0.049028248
234	0x3dad735c	0.08469269
235	0x3d11f456	0.035633408
236	0x3d2f7c62	0.04284323
237	0x3de183da	0.11011477
238	0x3d2d225a	0.04226909
239	0x3c9cf6cd	0.019160653
240	0xbcf8b173	-0.030358052
241	0x3d8b4d0f	0.06801807
242	0xbd209a2a	-0.039209522
243	0x39aa5b0e	0.00032492768
244	0x3d4bb1de	0.049730174
245	0x3dc484c5	0.09595636
246	0xbbb134b8	-0.005407896
247	0x3d6e5992	0.05819089
248	0x3dab90f6	0.083772585
249	0xbc4b6656	-0.0124145355
250	0x3dd9c19c	0.10632631
251	0x3d97fa08	0.074207366
252	0x3d45234b	0.04812936
253	0x3d22b6f3	0.039725255
254	0x3b560f6e	0.0032663005
255	0x3cd950d6	0.026527803

encoder.blocks.1.conv.0.bias f4 [32]
0	0xbb1832e7	-0.00232237
1	0xbde9fac0	-0.1142478
2	0x3dba734a	0.09104021
3	0x3d400347	0.046878126
4	0x3cd10fbf	0.025520204
5	0x3c86d31f	0.016458092
6	0xbda2ee65	-0.079556264
7	0x3e08a841	0.13345434
8	0xbd7844a2	-0.06061233
9	0xbdbd5418	-0.09244555
10	0xbdbea556	-0.09308879
11	0xbd8633e8	-0.06552869
12	0x3cc1866b	0.023623666
13	0x3d03c9d2	0.032174893
14	0x3d32cc09	0.043651614
15	0x3d207e5a	0.039183
16	0xbde497b6	-0.11161749
17	0x3bcc5cf8	0.0062366687
18	0xbd75212f	-0.0598461
19	0x3d226bfc	0.039653763
20	0xbd310faa	-0.04322783
21	0x3c9a73a8	0.018853977
22	0xbd2dc61d	-0.042425264
23	0x3da5d699	0.08097572
24	0xbce20bff	-0.02759361
25	0xbdb9bed9	-0.090696044
26	0xbd81adaf	-0.06331956
27	0xbc87b689	-0.016566532
28	0x3da176b5	0.0788397
29	0xbcfd8c71	-0.030950757
30	0xbd30983d	-0.043113936
31	0x3c1be5f0	0.009515271

encoder.blocks.1.conv.1.weight f4 [32]
0	0x3f6c24c6	0.9224361
1	0x3f734e4c	0.95041347
2	0x3f7f5227	0.9973473
3	0x3f7a3c34	0.9774811
4	0x3f80e7a9	1.0070697
5	0x3f8af378	1.0855551
6	0x3f7dd204	0.99148583
7	0x3f88f45f	1.0699576
8	0x3f7dc868	0.9913392
9	0x3f84230d	1.0323197
10	0x3f6a0788	0.9141774
11	0x3f8619c9	1.0476619
12	0x3f7ee276	0.995643
13	0x3f813319	1.0093719
14	0x3f85d26e	1.0454843
15	0x3f88f131	1.0698606
16	0x3f6acc0f	0.9171762
17	0x3f7a7812	0.9783946
18	0x3f831454	1.0240579
19	0x3f6a211c	0.9145677
20	0x3f7b9d94	0.9828732
21	0x3f827e40	1.0194778
22	0x3f63c06c	0.8896549
23	0x3f5f62cc	0.8726013
24	0x3f6e74ac	0.9314678
25	0x3f7e08a7	0.9923195
26	0x3f67a127	0.90480274
27	0x3f6ebf3e	0.9326056
28	0x3f8123b2	1.0089018
29	0x3f7bca6f	0.98355764
30	0x3f82dff5	1.0224596
31	0x3f6a8b7f	0.91619104

encoder.blocks.1.conv.1.bias f4 [32]
0	0xbd67d1b2	-0.056596465
1	0xbd3d7678	-0.04625556
2	0xbba635a6	-0.0050723134
3	0x3d91b037	0.071136884
4	0xbd861de3	-0.06548669
5	0x3db998ef	0.09062373
6	0x3cc78e85	0.02435995
7	0x3db71678	0.089398324
8	0xbc6054a8	-0.013692059
9	0xbcfc49f1	-0.030796977
10	0x3d88f6b7	0.06687682
11	0xbad03572	-0.0015885069
12	0x3d776ed8	0.060408443
13	0xbcd6a595	-0.026202003
14	0xbd7317e0	-0.05934894
15	0xbd6d9ace	-0.05800896
16	0x3bd3a916	0.0064593656
17	0x3db25aa4	0.087086946
18	0xbc8dab4c	-0.017293595
19	0xbd1d692c	-0.038430378
20	0x3cb7c1d8	0.0224313
21	0x3d841832	0.064499274
22	0xbd159566	-0.03651943
23	0xbce93168	-0.028465942
24	0xbd042616	-0.032262884
25	0x3cc38892	0.023868833
26	0xbd243b1f	-0.040095445
27	0x3bfd9b21	0.00773944
28	0x3d95ccc1	0.07314444
29	0xbde80ecc	-0.11330947
30	0x3d857ed6	0.06518333
31	0x3bd0d7ac	0.0063733663

encoder.blocks.1.conv.1.running_mean f4 [32]
0	0x3fc0a611	1.505068
1	0x4000aeb8	2.010664
2	0x3e0d7233	0.13813095
3	0x3e5b005b	0.21386854
4	0x3eef0053	0.46679935
5	0xbf312072	-0.6919013
6	0xc0036f6a	-2.0536752
7	0xbfefaf10	-1.87253
8	0xbfc33683	-1.5251011
9	0x3e987c40	0.29782295
10	0x3c7ecb56	0.015551409
11	0x3f85f164	1.0464292
12	0x3ed0373b	0.40667138
13	0x3fc15f2a	1.5107167
14	0x3fb7ef51	1.4369909
15	0x3f20d6ff	0.6282806
16	0xbc270a18	-0.010195278
17	0x3f248ae3	0.64274424
18	0x3f374c03	0.7160036
19	0x3ec13929	0.37738922
20	0xbfbc62b4	-1.4717622
21	0x3fa89e9c	1.3173404
22	0xbf461a0b	-0.7738349
23	0x3f949490	1.1607838
24	0xbfcaabca	-1.5833676
25	0x3ee97842	0.45599562
26	0x3d05c730	0.032660663
27	0xbeaf6ebf	-0.3426418
28	0x3f62b327	0.88554615
29	0x3fccd5ab	1.6002706
30	0x3f8dba57	1.1072491
31	0x3fbeec5c	1.4915881

encoder.blocks.1.conv.1.running_var f4 [32]
0	0x40360faf	2.8447073
1	0x409d628d	4.91828
2	0x3f6ba53e	0.92049015
3	0x400d9e70	2.2127953
4	0x3fd786fb	1.6838068
5	0x40176db9	2.366072
6	0x403681ae	2.851665
7	0x40522901	3.2837527
8	0x407ebfd4	3.9804583
9	0x3f55c7e7	0.8350815
10	0x4010fa8c	2.2652922
11	0x40666de5	3.6004574
12	0x400a8626	2.1644378
13	0x40431bc8	3.0485706
14	0x3f99dae1	1.2019922
15	0x3f3215c8	0.69564486
16	0x3f977fc7	1.183587
17	0x404a0c88	3.1570148
18	0x4021e002	2.5292974
19	0x3fe6377d	1.7985684
20	0x4060d745	3.513139
21	0x4093a492	4.613839
22	0x3f63a998	0.88930655
23	0x403a318a	2.9092736
24	0x4033da33	2.8101928
25	0x3f596df2	0.8493339
26	0x3f62fc78	0.88666487
27	0x3fa0557a	1.2526085
28	0x404edf19	3.2323668
29	0x3f8b3adb	1.0877336
30	0x406229d9	3.5338042
31	0x40228f6c	2.5400038

encoder.blocks.1.conv.3.weight f4 [32, 32, 3, 3]
0	0xbd8e04f5	-0.06934539
1	0xbd1fca48	-0.03901127
2	0xbce122e7	-0.027482463
3	0xbd267d74	-0.040646985
4	0xbc94165a	-0.018077064
5	0x3d1da139	0.038483832
6	0xbd3f9f41	-0.046782736
7	0xbd39cd76	-0.04536196
8	0x3c8d4eab	0.017249426
9	0xbdc38148	-0.09546143
10	0xbc81bba5	-0.015836546
11	0xbcc4748f	-0.02398136
12	0xbd8c5d73	-0.068537615
13	0xbd25817d	-0.040406693
14	0xbddc43d0	-0.10755122
15	0x3ce67384	0.028131254
16	0x3c592d5b	0.0132554425
17	0x3d11fb9c	0.035640344
18	0xbccb25e9	-0.02479835
19	0xbc261318	-0.010136388
20	0x3d557af6	0.052119218
21	0xbd501512	-0.050801344
22	0x3d538df7	0.05164906
23	0xbc767b0b	-0.015043984
24	0xbd8a1316	-0.067419216
25	0xbd169a89	-0.03676847
26	0x3d3679d1	0.044549767
27	0x3cda9f6c	0.026687346
28	0x3da005ff	0.07813644
29	0x3d8d520a	0.06900413
30	0x3d9a47fd	0.07533262
31	0xbcf018b8	-0.029308662
32	0x3ce28e6f	0.027655808
33	0x3db8eda2	0.090297
34	0x3d7995c6	0.06093385
35	0x3d8cfae6	0.068837926
36	0xbb8f0d3e	-0.0043655923
37	0xbc22438b	-0.009903799
38	0xbd4bbcf5	-0.04974075
39	0xbd822c9f	-0.06356167
40	0x3ad0be02	0.0015925767
41	0xbd2995a1	-0.041402463
42	0xbc51599d	-0.012777713
43	0xbd2e0b58	-0.042491287
44	0xbd61f51d	-0.0551654
45	0xbe02a2f1	-0.1275747
46	0xbdf4c036	-0.11950724
47	0xbcd87913	-0.02642492
48	0xbdaf1b28	-0.085501015
49	0xbd8151df	-0.06314444
50	0xbd92755a	-0.07151289
51	0xbd53698f	-0.05161434
52	0xbdfb5fb9	-0.12274117
53	0xbdd8f218	-0.10593051
54	0x3d471557	0.048604336
55	0x3c935d32	0.017988775
56	0xbc8d724b	-0.017266413
57	0x3c4dc717	0.012559674
58	0x3cf3d237	0.029763324
59	0x3c2a2acb	0.010386179
60	0x3d07c840	0.033149958
61	0x3d4a7722	0.04943002
62	0xbbed6e08	-0.0072457828
63	0xbdd6c2a0	-0.104863405
64	0xbd0f431e	-0.034976117
65	0xbd8f5ddc	-0.07000324
66	0xbd1b0aad	-0.037851978
67	0xbd1293f1	-0.03578562
68	0xbe0af66b	-0.13570563
69	0xbdf2c415	-0.11853806
70	0xbd7e2c9c	-0.06205426
71	0xbd2f2240	-0.042757273
72	0xbde5a36c	-0.11212811
73	0xbdbf6586	-0.09345536
74	0xbd4567e4	-0.04819478
75	0xbdb2ab5a	-0.08724089
76	0xbe02ea20	-0.12784624
77	0xbd7c1e6f	-0.06155246
78	0xbc912356	-0.017717045
79	0xbd0199b4	-0.031640723
80	0xbe08419a	-0.13306275
81	0xbcf837ab	-0.030299982
82	0xbca10ae0	-0.019658506
83	0xbca9e70a	-0.02074005
84	0xbca961d7	-0.020676536
85	0xbcc5156d	-0.024058068
86	0xbcb93745	-0.022609362
87	0xbd410aef	-0.047129568
88	0xbdb078ca	-0.08616789
89	0x3b2407d3	0.0025029078
90	0x3ceb8c08	0.028753296
91	0xbd42e1f8	-0.04757878
92	0x3cf65ecd	0.030074501
93	0x3d538bd7	0.051647034
94	0xbd3679e9	-0.044549856
95	0xbc8a0ff4	-0.01685331
96	0xbd10577f	-0.035239693
97	0x3c7bd0d4	0.015369613
98	0x3c76d1dd	0.015064684
99	0xbd7df0de	-0.061997287
100	0xbdb15032	-0.08657874
101	0xbccd5774	-0.025066115
102	0xbc1a1c29	-0.009406128
103	0xbdb1b657	-0.08677357
104	0x3ce520f7	0.02796982
105	0xbd38ca6f	-0.04511493
106	0xbd80f7bb	-0.06297251
107	0x3ca9b8db	0.020718029
108	0xbce0032a	-0.027345259
109	0x3d9eb95c	0.07750198
110	0x3db45fd6	0.08807342
111	0xbb73319f	-0.0037108434
112	0x3d8ac9b7	0.06776755
113	0xbca46f7f	-0.020072697
114	0x3da720a7	0.08160525
115	0x3dd6b793	0.10484233
116	0x3c9d723d	0.019219512
117	0xbb6c3313	-0.0036041185
118	0xbd88d61d	-0.06681464
119	0xbd973f17	-0.0738508
120	0xbd8b7917	-0.068102054
121	0xbd98fa64	-0.07469633
122	0x3c14da17	0.0090852
123	0x3c5a0ede	0.013309209
124	0xbccd5bcd	-0.025068188
125	0xbd15721d	-0.03648578
126	0xbc888867	-0.016666604
127	0x3bdf4331	0.0068134298
128	0xbcd1da2f	-0.025616733
129	0xbdf91d84	-0.12163833
130	0xbdb25816	-0.08708207
131	0xbd08fe6d	-0.033445764
132	0xbcbc3862	-0.022976104
133	0xbd72b91b	-0.05925856
134	0x3a0ee3a3	0.00054507906
135	0xbc7c0765	-0.015382622
136	0xbd4292c2	-0.04750324
137	0xbd91698d	-0.0710021
138	0xbc2f0757	-0.010682902
139	0xbd188933	-0.03724022
140	0xbcbb14ce	-0.022837069
141	0xbdd6f5ba	-0.10496087
142	0xbd395e36	-0.045255862
143	0xbce6e09d	-0.028183276
144	0xbc10d7c0	-0.008840501
145	0xbac4d841	-0.0015018062
146	0xbc605019	-0.013690972
147	0xbd440a44	-0.047861353
148	0xbb9d36fd	-0.004797815
149	0xbd32209d	-0.043488134
150	0x3d032421	0.032016877
151	0x3cf41ecd	0.029799843
152	0xbcd4ef5b	-0.02599304
153	0x3d1ed595	0.038777906
154	0x3d42f894	0.047600344
155	0x3c434af8	0.011919729
156	0x3bbdd5e6	0.005793321
157	0x3d338d50	0.043835938
158	0x3d71d81c	0.05904399
159	0x3d0ac109	0.0338755
160	0x3db67483	0.089089416
161	0x3cece20e	0.028916385
162	0xbd6857e8	-0.05672446
163	0xbd9469b2	-0.07246722
164	0xbd0f56c5	-0.03499486
165	0xbda1b514	-0.07895866
166	0xbd85c208	-0.06531149
167	0x3cf23a62	0.029568855
168	0xbcb8f29f	-0.022576628
169	0xbd659827	-0.056053307
170	0xbcd936ca	-0.026515383
171	0xbd980c55	-0.07424227
172	0xbc2ec6d7	-0.010667524
173	0x3c35c503	0.011094335
174	0xbd629a95	-0.055323202
175	0xbbbc4416	-0.005745421
176	0xbd35d5d8	-0.04439339
177	0x3cd6a284	0.02620054
178	0xbc94ac87	-0.018148674
179	0xbd4c2f82	-0.049849994
180	0xbd099fc4	-0.03359963
181	0xbd748c63	-0.059704196
182	0xbe193bd0	-0.14964223
183	0xbddd3db0	-0.108027816
184	0xbd28d04d	-0.041214276
185	0xbdc34403	-0.095344566
186	0xbd2911b1	-0.041276637
187	0xbd211b5d	-0.039332736
188	0xbd7b519a	-0.06135712
189	0x3ccad122	0.024757925
190	0xbca86566	-0.020556163
191	0x3d88a764	0.06672552
192	0x3db21ebb	0.086972676
193	0x3c418465	0.0118113505
194	0x3d469944	0.04848601
195	0x3d69df48	0.057097703
196	0x3ddfac40	0.10921526
197	0x3da957b6	0.08268683
198	0xbd196072	-0.037445493
199	0xbd58a6b2	-0.052893348
200	0xbd66b7c0	-0.05632758
201	0xbdd113e2	-0.102088705
202	0xbdb5416b	-0.08850368
203	0xbdbd709f	-0.092499964
204	0xbd8f20bd	-0.06988666
205	0xbd5f740a	-0.054554023
206	0x3c32c598	0.010911368
207	0xbd1f7923	-0.038933884
208	0xbbe41c20	-0.0069613606
209	0xbcb9a616	-0.022662204
210	0xbd2743c9	-0.04083613
211	0xbd8d8c3b	-0.069115125
212	0x3ccc976c	0.024974547
213	0x3cd55b5f	0.026044546
214	0x3cd20bfd	0.025640482
215	0x3b30269d	0.0026878484
216	0xbd2c70d8	-0.042099804
217	0x3ba3773a	0.004988578
218	0xbd085533	-0.033284377
219	0xbd9af62b	-0.07566484
220	0xbdb9a3a0	-0.09064412
221	0xbcc1f339	-0.023675548
222	0xbd391a0d	-0.04519086
223	0xbb8fdba3	-0.0043901964
224	0xbd19eb02	-0.037577637
225	0xbcef9a7c	-0.029248469
226	0xbda8d097	-0.0824291
227	0xbcc23be4	-0.023710199
228	0xbcb229e4	-0.02174849
229	0x3c7189ac	0.014742296
230	0xbb68a773	-0.0035500198
231	0xbd2be936	-0.041970454
232	0xbd50dcc8	-0.050991803
233	0xbd5a3e69	-0.053282175
234	0xbc15865d	-0.009126273
235	0x3cd429b0	0.025898784
236	0xbcea332d	-0.028588856
237	0xbd26c983	-0.04071952
238	0x3c1e4ba4	0.009661589
239	0xbca158a0	-0.01969558
240	0x3c73cece	0.014880849
241	0xbd0c44ba	-0.03424523
242	0x3d61fbb3	0.05517168
243	0x3d00ab08	0.031413108
244	0x3d5fa4ad	0.054600406
245	0x3c8564f8	0.016283497
246	0xbce5eb24	-0.028066225
247	0x3ca98e27	0.020697666
248	0x3b161a72	0.0022903946
249	0x3d7118f3	0.058861684
250	0x3d0d0a93	0.034433912
251	0xbcacc8f2	-0.021091912
252	0x3d344a52	0.04401619
253	0x3dad11ef	0.08450686
254	0x3b52c9be	0.0032163705
255	0x3b3f3cc0	0.0029180497

encoder.blocks.1.conv.3.bias f4 [32]
0	0x3c3d4d53	0.01155408
1	0xbdb2ef64	-0.087370664
2	0x3cbb4352	0.02285925
3	0x3d396cd9	0.04526982
4	0x3d6c80c6	0.057739995
5	0xbc8c1955	-0.017101923
6	0xbb53ff62	-0.0032348265
7	0x3d6039cc	0.05474262
8	0xbd9ea20e	-0.07745753
9	0x3d63ebcc	0.055644795
10	0xbd834f9f	-0.06411671
11	0xbda9f525	-0.08298711
12	0xbde37806	-0.11106877
13	0xbda1a44f	-0.078926675
14	0xbbc5a592	-0.0060317004
15	0x3cd4fbf8	0.025999054
16	0xbd460d77	-0.048352685
17	0xbdb86205	-0.09003071
18	0x3cb2321a	0.021752406
19	0xbbb0c45d	-0.005394502
20	0x3d7daf94	0.061935022
21	0x3cb779c4	0.02239693
22	0xbc1615fb	-0.009160514
23	0x3c0a2348	0.008431263
24	0x3d280d4e	0.041028313
25	0xbd378fe1	-0.044814948
26	0xbdc98bd7	-0.098411255
27	0xbd67994f	-0.05654269
28	0xbc9922d7	-0.01869337
29	0x3d5eb12b	0.05436818
30	0x3d671f91	0.05642659
31	0x3d039dfc	0.032133088

encoder.blocks.1.conv.4.weight f4 [32]
0	0x3f795cb5	0.97407085
1	0x3f6cd162	0.9250699
2	0x3f81db71	1.0145093
3	0x3f8ceb56	1.1009319
4	0x3f7d2b88	0.9889455
5	0x3f8400b5	1.0312716
6	0x3f767c6a	0.9628359
7	0x3f84e53b	1.0382456
8	0x3f75b2b8	0.9597583
9	0x3f84ba25	1.0369307
10	0x3f7f6959	0.9977012
11	0x3f895c93	1.0731376
12	0x3f75b3fa	0.9597775
13	0x3f80f0c0	1.0073471
14	0x3f7c8c12	0.9865123
15	0x3f87d951	1.0613195
16	0x3f74c07c	0.9560621
17	0x3f65d966	0.8978485
18	0x3f86cb5a	1.0530808
19	0x3f73c747	0.9522595
20	0x3f845a3b	1.0340036
21	0x3f823d19	1.0174896
22	0x3f84bd91	1.0370351
23	0x3f79a629	0.97519165
24	0x3f801735	1.0007082
25	0x3f665385	0.8997119
26	0x3f6acc6a	0.9171816
27	0x3f825bc6	1.0184257
28	0x3f6d44db	0.9268319
29	0x3f6a2f29	0.9147821
30	0x3f7f7679	0.9979015
31	0x3f77f45f	0.96857256

encoder.blocks.1.conv.4.bias f4 [32]
0	0x3c6ccf58	0.0144537315
1	0xbd1c4989	-0.038156066
2	0x3d9d1331	0.07669676
3	0x3d45f61a	0.048330404
4	0x3b81504e	0.0039463406
5	0xbda3ddab	-0.08001264
6	0xbd87f77c	-0.06639001
7	0x3dc07b10	0.09398472
8	0x3c3fbf0e	0.011703266
9	0xbd09a277	-0.033602204
10	0x3d936910	0.071977735
11	0xbca21ea4	-0.019790001
12	0xbbc471d4	-0.0059950147
13	0x3dc90b4c	0.09816608
14	0xbcebe523	-0.028795784
15	0x3c06b1fb	0.008221145
16	0x3da33cee	0.07970606
17	0xbdd50ed0	-0.10403216
18	0xbcbc03bc	-0.022951
19	0x3d82a0c8	0.06378323
20	0x3d35071a	0.044196226
21	0x3d438168	0.047730833
22	0xbd525d09	-0.051358256
23	0xbb5401fe	-0.003234982
24	0x3d80483c	0.062637776
25	0x3d67e744	0.056617036
26	0x3ce36594	0.027758397
27	0x3c84859d	0.016176993
28	0x3cb7e6fa	0.022449005
29	0x3db33d98	0.087519825
30	0x3c998e7f	0.018744705
31	0x3d519feb	0.0511779

encoder.blocks.1.conv.4.running_mean f4 [32]
0	0xbfdce00a	-1.7255871
1	0xc016a4d0	-2.3538094
2	0xbdae9e24	-0.08526257
3	0xbf0af27b	-0.54276246
4	0x3df34c2f	0.11879765
5	0x3f42b7dc	0.760618
6	0xc014eaba	-2.3268266
7	0xc0242f91	-2.5654032
8	0xc02e7b13	-2.7262619
9	0x3ebb01ee	0.3652491
10	0xc0894d0c	-4.290655
11	0x400a3b7b	2.1598804
12	0xbf952e2a	-1.1654713
13	0x3f9eeb35	1.241553
14	0xc039f01c	-2.90528
15	0xbf94d6bf	-1.1628035
16	0xbe42662d	-0.1898429
17	0x3f8f8179	1.1211387
18	0xbfcdfc52	-1.6092627
19	0x3df23711	0.11826909
20	0xbed8ce67	-0.42344972
21	0xc0184734	-2.379346
22	0xbe98f3a0	-0.2987337
23	0xc041cf18	-3.028265
24	0xbfd1d799	-1.639392
25	0xbfbd626d	-1.4795662
26	0xc047666d	-3.1156266
27	0xc011a80d	-2.275882
28	0xc00f635e	-2.24044
29	0x3e891063	0.26770315
30	0xbf9d853c	-1.2306285
31	0x3f438df7	0.76388496

encoder.blocks.1.conv.4.running_var f4 [32]
0	0x4098830d	4.7659974
1	0x411961fe	9.586424
2	0x40b6d022	5.712907
3	0x410011e5	8.004369
4	0x4102ee69	8.183206
5	0x40a3f49a	5.1236086
6	0x410997e8	8.5995865
7	0x4106b2a1	8.418611
8	0x40538839	3.3051894
9	0x4065b5f9	3.5892317
10	0x41c6bcbe	24.84216
11	0x40a8805c	5.265669
12	0x40808398	4.0160637
13	0x41128400	9.157227
14	0x41646e06	14.276861
15	0x41367fa1	11.406159
16	0x40e195eb	7.0495505
17	0x40ffe72a	7.9969683
18	0x41009453	8.036212
19	0x412360df	10.21115
20	0x40862c11	4.192879
21	0x410a097b	8.627315
22	0x40183977	2.3785074
23	0x4136aa40	11.416565
24	0x409b8ea1	4.8611608
25	0x40e496fc	7.1434307
26	0x40a695da	5.2057924
27	0x40ef3e85	7.476382
28	0x40893e1c	4.2888317
29	0x409b3372	4.85003
30	0x402e82be	2.7267299
31	0x40df1ece	6.9725103

encoder.blocks.1.skip.weight f4 [32, 16, 1, 1]
0	0xbe7972bc	-0.24360174
1	0x3d92fad0	0.07176745
2	0xbe2714c0	-0.16316509
3	0xbe13142e	-0.14363167
4	0xbe1e5952	-0.1546376
5	0x3c9f10a0	0.019417107
6	0x3d863744	0.0655351
7	0xbe229a8a	-0.15879264
8	0x3e2ea366	0.17054519
9	0xbe38886e	-0.18020794
10	0x3e2414d6	0.16023573
11	0x3e5a6218	0.21326482
12	0xbe2dcaf4	-0.16971952
13	0xbe5bf62e	-0.21480629
14	0x3dc03014	0.0938417
15	0xbd754998	-0.059884638
16	0x3dd976d4	0.10618368
17	0x3c13f9a0	0.009031683
18	0xbd3df0a0	-0.046372056
19	0xbda1a878	-0.07893461
20	0xbe60da9e	-0.21958396
21	0x3927d800	0.00016006827
22	0xbdabcaa8	-0.08388263
23	0x3e0c114a	0.1367847
24	0xbdeb53ac	-0.114905685
25	0xbe3772a6	-0.17914829
26	0xbd59e9b0	-0.053201377
27	0xbe2165a0	-0.15761423
28	0x3e2be9ae	0.1678836
29	0x3e5cf830	0.21579051
30	0xbe59a384	-0.21253783
31	0xbe239c8a	-0.15977684
32	0xbdd5e268	-0.10443574
33	0xbc559680	-0.01303637
34	0xbe7d1cc6	-0.24718007
35	0x3e2bbaac	0.16770428
36	0xbd8f73c8	-0.070045054
37	0xbe66a628	-0.22524321
38	0xbdeadc04	-0.11467746
39	0x3e7f213e	0.24915025
40	0xbd8b072c	-0.06788477
41	0xbdbb65d0	-0.091502786
42	0xbe0ccbc0	-0.137496
43	0xbcf168b0	-0.029468864
44	0x3ce65e40	0.028121114
45	0xbe529a74	-0.20566732
46	0xbd633398	-0.055469126
47	0x3e3d03b0	0.18458438
48	0xbcb61630	-0.022227377
49	0x3e357456	0.1772016
50	0x3cc43550	0.023951203
51	0x3e150e38	0.14556205
52	0x3d6b7c58	0.05749163
53	0x3e3cd57e	0.18440816
54	0x3d332c80	0.04374361
55	0xbe5812ec	-0.21100968
56	0x3d502928	0.0508205
57	0xbdfd9854	-0.1238257
58	0xbe26dab2	-0.16294363
59	0x3e232d1a	0.15935174
60	0xbd8e4418	-0.069465816
61	0x3d3dbb48	0.046321183
62	0x3d158898	0.03650722
63	0x3cb72ce0	0.022360265
64	0xbc7425a0	-0.014901549
65	0x3e76db4c	0.24107093
66	0xbdf7d74c	-0.121016115
67	0x3e5c5876	0.2151812
68	0xbce9c290	-0.028535157
69	0x3e2e848a	0.17042747
70	0xbdc45fb8	-0.095885694
71	0xbde7bba0	-0.113150835
72	0x3e2a164e	0.16610071
73	0x3d63bbb8	0.055598944
74	0x3d8485a8	0.064708054
75	0x3e12ee62	0.14348748
76	0x3e0cc64c	0.13747519
77	0xbe247446	-0.1605998
78	0x3e629ce8	0.22130167
79	0xbe29593a	-0.16537943
80	0x3e55f7f6	0.20895371
81	0xbe736a8c	-0.23771113
82	0x3e1c96be	0.15291879
83	0x3d2fc100	0.04290867
84	0x3e0d1e60	0.13781118
85	0x3deb39ec	0.11485657
86	0xbe77036a	-0.24122396
87	0xbe12112e	-0.14264366
88	0x3ced7ad0	0.028989226
89	0xbda1586c	-0.07878193
90	0x3e03db94	0.12876731
91	0xbd4bee68	-0.04978791
92	0x3e1a1828	0.15048277
93	0xbda5db44	-0.08098462
94	0xbca8ade0	-0.020590723
95	0xbced40c0	-0.02896154
96	0xbb793e00	-0.003803134
97	0xbe1a728a	-0.15082756
98	0x3d5c6fc0	0.05381751
99	0x3e1c90d4	0.15289623
100	0x3d28ed98	0.041242212
101	0xbcd6b250	-0.026208073
102	0xbddc7da8	-0.107661545
103	0xbe3df508	-0.18550503
104	0x3e226620	0.1585927
105	0x3d99f958	0.07518262
106	0xbdfc28bc	-0.12312457
107	0x3e5fbe6e	0.21849987
108	0x3e565b72	0.20933321
109	0x3e6830f6	0.22674927
110	0x3dd86ca4	0.105675966
111	0xbe322c8c	-0.17399806
112	0x3e7eda38	0.24887931
113	0x3d1dfd70	0.038571775
114	0xbe11b1b4	-0.14227945
115	0x3e67dc3e	0.2264261
116	0x3cd9d5d0	0.026591212
117	0xbdab15c0	-0.08353758
118	0xbc350520	-0.011048585
119	0x3da4d3ac	0.08048186
120	0x3e62722a	0.22113863
121	0xbe4e7dac	-0.20165128
122	0x3e37df0a	0.17956176
123	0xbe5301a2	-0.20606092
124	0xbd80b4bc	-0.06284472
125	0xbdd7b980	-0.10533428
126	0xbe1e6e52	-0.15471771
127	0x3c2b6c80	0.01046288
128	0xbd019768	-0.031638533
129	0x3e73d4d8	0.23811662
130	0x3d97bc60	0.074089766
131	0x3e33c262	0.1755462
132	0x3e22e514	0.15907699
133	0xbd39b710	-0.045340598
134	0x3e629f58	0.22131097
135	0xbe4a8afc	-0.19779581
136	0x3e0af6b0	0.13570666
137	0x3dcb6afc	0.09932515
138	0xbd8e8c94	-0.06960407
139	0xbdfd4178	-0.12366003
140	0x3caeec20	0.021352828
141	0xbe249804	-0.16073614
142	0xbcbe7500	-0.02324915
143	0x3e04d7da	0.12972966
144	0x3e2ebbc0	0.17063808
145	0x3e6f70e0	0.23382902
146	0x3dc2ad9c	0.095057696
147	0x3e4c319e	0.19940802
148	0xbb97b1c0	-0.0046293437
149	0x3e4eed8e	0.20207807
150	0x3e05ddc0	0.13072872
151	0xbcb37340	-0.021905541
152	0xbe0755e0	-0.13216352
153	0xbd5115b0	-0.051046073
154	0x3ccc0230	0.024903387
155	0x3c3f8220	0.011688739
156	0x3d681cc8	0.056668073
157	0x3e7988b0	0.24368548
158	0xbe25373c	-0.16134351
159	0xbe406688	-0.18789113
160	0x3e2d8568	0.16945422
161	0x3e3b45b8	0.18288314
162	0x3bbd1500	0.0057703257
163	0x3e1d1642	0.15340522
164	0xbd3deea0	-0.04637015
165	0xbdeb5d00	-0.11492348
166	0x3e37bc3e	0.17942902
167	0xbe707d40	-0.23485279
168	0xbe226688	-0.15859425
169	0x3e5144ec	0.20436448
170	0x3cd52ad0	0.026021391
171	0x3dc6bb0c	0.09703645
172	0xbe1745c0	-0.14772701
173	0x3e405dee	0.18785831
174	0xbe1429cc	-0.14469069
175	0x3e715992	0.23569325
176	0x3e58f572	0.2118738
177	0x3d925544	0.071451694
178	0x3e54b380	0.20771599
179	0x3d5191e8	0.051164538
180	0xbdb91ff8	-0.09039301
181	0xbe2d35e6	-0.16915092
182	0x3e60ee1a	0.21965829
183	0xbd61ac58	-0.055096
184	0x3e4b77d0	0.19869924
185	0xbe7eb3bc	-0.2487325
186	0x3e18c9cc	0.1492073
187	0x3cad8470	0.021181315
188	0xbdbd9c08	-0.09258276
189	0x3e310400	0.17286682
190	0x3d4892f8	0.048968285
191	0xbe17edc8	-0.148368
192	0x3e150bee	0.14555332
193	0xbdb4f688	-0.088360846
194	0x3d994230	0.074833274
195	0xbda00dac	-0.07815108
196	0x3db228b8	0.08699173
197	0xbda0b408	-0.07846838
198	0xbdb44f00	-0.088041306
199	0xbc26e3c0	-0.010186136
200	0xbe4d1e6e	-0.20031139
201	0x3e08a172	0.13342836
202	0xbdf392c4	-0.11893228
203	0xbc3cfc60	-0.01153478
204	0xbe2384d4	-0.15968639
205	0x3d5db820	0.054130673
206	0xbdd58c00	-0.104270935
207	0xbe799f1e	-0.24377105
208	0x3e05ae4c	0.1305477
209	0x3dc548d0	0.096330285
210	0x3e6a76f8	0.22896945
211	0xbe080cda	-0.13286152
212	0x3e756f54	0.2396825
213	0x3e35d23a	0.17755976
214	0xbe3b9932	-0.18320158
215	0x3d8bba08	0.06822592
216	0x3e40b94a	0.18820682
217	0xbe12dde4	-0.14342457
218	0x3dcc9f38	0.09991306
219	0x3e66a9fe	0.22525784
220	0x3db6f8b4	0.08934155
221	0x3dca98c8	0.09892422
222	0x3e1a723a	0.15082636
223	0xbda3e2a4	-0.08002213
224	0x3e5222e0	0.20521116
225	0xbd926b04	-0.07149318
226	0x3e4eadae	0.20183441
227	0x3e4b94e0	0.1988101
228	0xbce389e0	-0.027775705
229	0xbd9039d4	-0.0704228
230	0xbdbd5444	-0.09244588
231	0xbe1d5d64	-0.15367657
232	0xbdaff8f8	-0.08592409
233	0x3db24f9c	0.087065905
234	0xbd566958	-0.052346557
235	0x3dbe6cb4	0.09298077
236	0xbd95ab80	-0.07308102
237	0x3d128c18	0.035778135
238	0xbe05f366	-0.1308113
239	0xbe26205a	-0.16223279
240	0xbe2010d8	-0.15631425
241	0xbd960664	-0.07325438
242	0xbded7700	-0.11594963
243	0xbd158be8	-0.036510378
244	0x3e1e1fb6	0.15441784
245	0xbe40751a	-0.1879467
246	0xbd7be5b0	-0.061498344
247	0x3dca6cdc	0.098840445
248	0x3baaee80	0.0052164197
249	0xbc4887a0	-0.012239367
250	0x3e276bb6	0.16349682
251	0xbde19e5c	-0.11016533
252	0x3e4ccd06	0.20000085
253	0xbcfee790	-0.031116277
254	0x3e380dc2	0.17973998
255	0x3cac48d0	0.021030813

encoder.blocks.1.skip.bias f4 [32]
0	0xbddf7640	-0.10911226
1	0x3df0eeec	0.11764321
2	0xbc79d960	-0.01524958
3	0xbe1e449a	-0.15455857
4	0x3bc5eb40	0.006040007
5	0x3dc57ff4	0.09643546
6	0x3ca89140	0.020577073
7	0x3c60bfe0	0.013717622
8	0x3d751730	0.059836566
9	0x3e1c674e	0.15273783
10	0xbc7d1e80	-0.015449166
11	0x3d9f9cc0	0.077935696
12	0x3d9c0fd8	0.076202095
13	0x3dc2d9e4	0.095142156
14	0x3e07122a	0.13190523
15	0xbd75f9e8	-0.060052782
16	0xbda0f4ec	-0.07859215
17	0x3e4d62ea	0.20057264
18	0x3da9267c	0.082592934
19	0x3d26e188	0.040742427
20	0xbe3ad752	-0.182462
21	0x3c6796e0	0.0141350925
22	0xbe43106a	-0.1904923
23	0x3e154a34	0.14579087
24	0x3e28abc6	0.16471776
25	0x3e5b90a4	0.21441895
26	0x3e098c96	0.13432536
27	0x3dccc1cc	0.09997901
28	0xbcb2d0f0	-0.021828145
29	0x3e6e27ca	0.23257366
30	0xbe75c1ca	-0.23999706
31	0xbcc92570	-0.024553984
