toyshapes/pinets_ensemble/ensemble_12/model_6.pth (torch, 466407 bytes, 71 tensors)

encoder.blocks.0.conv.0.weight f4 [16, 1, 3, 3]
0	0xbd97b83d	-0.074081875
1	0xbe3e5c38	-0.18589866
2	0x3e0e3159	0.13886012
3	0xbd93c26f	-0.0721482
4	0xbe7b0525	-0.24513681
5	0xbe333e6a	-0.17504278
6	0x3e1db74c	0.15401953
7	0x3ea28a74	0.31746256
8	0x3e09d578	0.13460338
9	0xbe3e256d	-0.18568964
10	0xbe4a39b3	-0.19748573
11	0xbdac02e7	-0.08398991
12	0x3da47205	0.0802956
13	0x3de28c5f	0.1106193
14	0xbe7e89da	-0.24857274
15	0x3e8db0ba	0.27673894
16	0x3ea133a4	0.3148471
17	0x3d8ff939	0.07029957
18	0x3de3a159	0.11114759
19	0x3d933507	0.071878485
20	0xbe8a7642	-0.2704335
21	0x3d4e6866	0.05039253
22	0x3dda90a0	0.10672116
23	0x3e667f7e	0.22509572
24	0x3e597de6	0.21239433
25	0xbddf8a29	-0.10915024
26	0xbea34da4	-0.31895173
27	0x3ead14c6	0.3380491
28	0xbe394dd4	-0.18096095
29	0xbcd1c151	-0.025604876
30	0x3dcb40b0	0.099244475
31	0xbe6bf63d	-0.23043151
32	0x3e8c1e88	0.27367043
33	0xbe77f8f2	-0.24216059
34	0x3ea2c0d9	0.31787756
35	0x3d99ddd2	0.07513012
36	0xbe5335c0	-0.20625973
37	0xbe3421f8	-0.17591083
38	0x3e7054a6	0.23469791
39	0xbe780063	-0.24218898
40	0x3e891087	0.26770422
41	0x3d9f9f97	0.07794111
42	0x3e884b07	0.2661974
43	0x3eb6a3a7	0.35671732
44	0xbbe27963	-0.006911443
45	0xbe223dac	-0.15843838
46	0xbdc01ec4	-0.09380868
47	0xbd1ade07	-0.037809398
48	0xbcee3821	-0.029079499
49	0xbe4a63f6	-0.19764695
50	0xbdefd750	-0.117109895
51	0xbc967a0f	-0.018368749
52	0x3ed91c2c	0.42404306
53	0x3e85e887	0.26153967
54	0xbe43c45b	-0.19117872
55	0xbe79ec32	-0.24406508
56	0xbe4e3ffd	-0.20141597
57	0x3e615743	0.22005944
58	0x3d2932cb	0.041308206
59	0xbda3caf8	-0.079976976
60	0x3e1d40f3	0.15356807
61	0x3e87b999	0.26508787
62	0x3d718825	0.05896773
63	0x3e25095d	0.16116853
64	0xbdd90566	-0.10596733
65	0x3d8132bf	0.06308507
66	0x3e79b250	0.24384427
67	0xbd93267b	-0.07185074
68	0xbe0ae4d3	-0.13563852
69	0xbdd64223	-0.10461833
70	0x3e1370b7	0.14398466
71	0xbe68719e	-0.22699592
72	0x3ec4880f	0.38385054
73	0x3e46a828	0.19400084
74	0xbe6ba555	-0.23012288
75	0xbdab2160	-0.08355975
76	0x3ea6eb5f	0.3260145
77	0xbe1eeef5	-0.15520842
78	0xbe85cbe2	-0.26132113
79	0x3e33e6b3	0.17568474
80	0xbea38ab1	-0.3194175
81	0xbd82794c	-0.06370792
82	0xbd09f2c9	-0.033678804
83	0xbe41953b	-0.18904583
84	0x3ead36a5	0.33830753
85	0x3e519781	0.2046795
86	0xbe65de60	-0.2244811
87	0x3dac03e9	0.08399183
88	0xbd35590a	-0.044274367
89	0xbd8dabfe	-0.069175705
90	0x3e8fc6cf	0.28081366
91	0x3e33acd3	0.17546396
92	0x3e174f9a	0.1477646
93	0x3d5e31bf	0.05424666
94	0x3d96574e	0.07340871
95	0x3ed1332a	0.40859348
96	0x3e9948ab	0.29938254
97	0xbe5d8aca	-0.21634975
98	0xbe0da790	-0.13833451
99	0xbebfa740	-0.3743229
100	0x3e4b3379	0.19843854
101	0x3e32404e	0.17407343
102	0xbd8e42e7	-0.06946354
103	0x3d59c17a	0.05316303
104	0x3d70d62f	0.05879801
105	0x3d67b5c6	0.056569837
106	0x3e888f87	0.26672003
107	0x3e418ddb	0.1890177
108	0x3e69bb7c	0.22825426
109	0xbe508777	-0.20364176
110	0xbe2e2320	-0.17005587
111	0x3e8df8a1	0.2772875
112	0xbd862c07	-0.06551366
113	0xbd9d73cb	-0.076881014
114	0x3e8a7a38	0.2704637
115	0xbd241041	-0.040054563
116	0xbe616177	-0.22009836
117	0xbd9e8735	-0.077406324
118	0x3d7e8423	0.062137734
119	0xbe013176	-0.12616524
120	0x3e45dae7	0.19321786
121	0xbe2cec5e	-0.16887042
122	0x3e90dd15	0.28293672
123	0x3e82bb54	0.25533545
124	0xbe5b3a5d	-0.21408983
125	0xbe2e807c	-0.170412
126	0xbe46fc1a	-0.19432107
127	0x3d314dff	0.043287273
128	0xbe3cc734	-0.18435365
129	0xbd256038	-0.040374964
130	0x3ea324bf	0.31863973
131	0xbc9303c3	-0.01794613
132	0xbd54ac74	-0.051922277
133	0xbd28bdaf	-0.04119652
134	0x3ed61c85	0.41818634
135	0xbc4082da	-0.011749947
136	0xbddbfcbc	-0.10741565
137	0xbe93762b	-0.28801093
138	0x3e678439	0.22609033
139	0x3e324336	0.17408451
140	0xbceee9d5	-0.029164234
141	0x3e89e403	0.26931772
142	0x3e777437	0.24165426
143	0x3d6fe413	0.058567118

encoder.blocks.0.conv.0.bias f4 [16]
0	0xbeb24033	-0.34814605
1	0xbd1d5036	-0.038406573
2	0xbe4d4f59	-0.200498
3	0x3e7e4296	0.24830088
4	0x3e533d3e	0.20628831
5	0xbe68ed09	-0.22746672
6	0x3d9dc717	0.07703989
7	0xbdbab452	-0.091164246
8	0x3e34a80e	0.17642233
9	0xbdcb8870	-0.09938133
10	0x3e35334e	0.17695352
11	0x3e84a1dc	0.2590474
12	0x3e2755cc	0.16341323
13	0xbe1eecda	-0.15520039
14	0x3e62da12	0.221535
15	0x3d9fc7c4	0.07801774

encoder.blocks.0.conv.1.weight f4 [16]
0	0x3f62da4e	0.88614357
1	0x3f51071c	0.81651473
2	0x3f7d0f65	0.98851615
3	0x3f8b0bad	1.0862938
4	0x3f5e898f	0.8692865
5	0x3f614407	0.87994426
6	0x3f7cd0f1	0.9875632
7	0x3f9c70d5	1.2221934
8	0x3fa1ebcc	1.2650084
9	0x3f93fc83	1.1561435
10	0x3f4c2db5	0.79757243
11	0x3f51a001	0.8188477
12	0x3f9ae8c3	1.2102283
13	0x3f96ac4c	1.1771331
14	0x3f5e0231	0.86722094
15	0x3f5b4680	0.8565445

encoder.blocks.0.conv.1.bias f4 [16]
0	0xbd6d115d	-0.057877887
1	0xbb2f13d5	-0.0026714702
2	0xbcad8b1a	-0.021184493
3	0xbb88bab7	-0.004172649
4	0xbd22c223	-0.039735924
5	0xbdf78772	-0.12086381
6	0xbc877ec8	-0.016539946
7	0x3de7a9b3	0.113116644
8	0x3e082745	0.1329623
9	0x3e21f948	0.1581775
10	0xbdb20258	-0.08691853
11	0xbd941311	-0.07230199
12	0x3d6a14ad	0.057148624
13	0x3e31478a	0.17312446
14	0xbb1cc9b6	-0.002392394
15	0xbdb0421c	-0.08606359

encoder.blocks.0.conv.1.running_mean f4 [16]
0	0xbe9e95f8	-0.30973792
1	0x3d0d4f0c	0.034499213
2	0xbe1275fe	-0.14302823
3	0x3ee446c0	0.44585228
4	0x3f013468	0.5047059
5	0xbe6b1051	-0.22955443
6	0x3d9b9d59	0.07598371
7	0xbdaadf25	-0.08343343
8	0x3e5ee699	0.21767654
9	0xbdaeaa87	-0.08528619
10	0x3f33264b	0.69980305
11	0x3f0cbdba	0.54977
12	0x3e2c6a8a	0.16837516
13	0xbdfe2f51	-0.12411369
14	0x3eb5e327	0.35524866
15	0x3ebcce15	0.36875978

encoder.blocks.0.conv.1.running_var f4 [16]
0	0x3b91d8df	0.004450902
1	0x3c0f5ec8	0.008750625
2	0x3b81a777	0.003956731
3	0x3bf85f5e	0.007579728
4	0x3ca49257	0.020089312
5	0x3bc20a16	0.0059216125
6	0x3bf0adea	0.007344951
7	0x3b2723cb	0.0025503512
8	0x3c07fb56	0.008299669
9	0x3b9a7162	0.0047132233
10	0x3d4b6c76	0.049663983
11	0x3ca15f22	0.019698683
12	0x3c0a4b55	0.008440812
13	0x3b0af931	0.0021205659
14	0x3be97db3	0.00712558
15	0x3cb2530e	0.02176812

encoder.blocks.0.conv.3.weight f4 [16, 16, 3, 3]
0	0xbd82e168	-0.06390649
1	0xbe193ea6	-0.14965305
2	0xbd082459	-0.03323779
3	0x3a0005e3	0.00048836897
4	0xbca0709c	-0.019584946
5	0xbd55d4f0	-0.052205026
6	0x3cee60e9	0.029098945
7	0xbd04b702	-0.032401092
8	0xbdb74bce	-0.089500055
9	0xbe096c4a	-0.13420215
10	0xbdf8b7a4	-0.12144402
11	0xbe2af58e	-0.16695234
12	0x3d63e44b	0.05563764
13	0x3d9d81e1	0.07690788
14	0xbdf9a617	-0.12189882
15	0xbd21579d	-0.039390195
16	0xbd132a83	-0.035929214
17	0xbd746578	-0.05966708
18	0xbdc34b22	-0.09535815
19	0xbde933f8	-0.113868654
20	0x3dddde1e	0.10833381
21	0xbd05d96b	-0.03267805
22	0x3e14d41c	0.14534038
23	0xbd7719b2	-0.06032724
24	0xbd99fbd2	-0.07518734
25	0x3d2d583d	0.04232048
26	0xbccf193a	-0.025280584
27	0x3e1723e6	0.14759788
28	0xb991c9a9	-0.00027806804
29	0x3e1c2481	0.152483
30	0x3e9cff2a	0.30663425
31	0xbd6b4567	-0.057439234
32	0x3e3521cc	0.17688674
33	0x3e1313a8	0.14362967
34	0x3dc1b5f0	0.0945853
35	0xbcf1fd64	-0.029539771
36	0x3b9924d1	0.0046735783
37	0xbd42a6d6	-0.04752239
38	0xbdf1e6ea	-0.118116215
39	0xbd794f51	-0.060866658
40	0xbe027fcb	-0.12744062
41	0xbb7319df	-0.0037094278
42	0x3d3e547d	0.046467293
43	0x3ce346bd	0.027743692
44	0xbde9bbe6	-0.11412792
45	0xbda8c50b	-0.08240708
46	0xbe209f2d	-0.1568572
47	0xbc99c1f1	-0.018769236
48	0x3d2bc619	0.041936968
49	0xbd9f7b6b	-0.07787212
50	0xbd68c557	-0.056828823
51	0xbc9c4d56	-0.019079845
52	0xbd4189f7	-0.047250714
53	0xbdc27c01	-0.09496308
54	0xbdb3a103	-0.08770945
55	0xbe317a57	-0.17331825
56	0xbd4eef84	-0.05052139
57	0x3b20b9bf	0.0024524776
58	0x3c064271	0.008194552
59	0x3c4c19f6	0.012457361
60	0xbdace517	-0.08442133
61	0xbdb8f4a7	-0.09031039
62	0xbe446c48	-0.19181931
63	0xbd81c626	-0.06336622
64	0xbdf25793	-0.1183311
65	0x3d86c924	0.06581333
66	0x3ded255b	0.115793906
67	0xbe60a2f4	-0.21937162
68	0xbc696864	-0.01424608
69	0x3e39f251	0.18158843
70	0xbde6d45a	-0.112709716
71	0xbcc428d4	-0.02394525
72	0xbdfb8eb6	-0.12283079
73	0x3cfd5649	0.030924933
74	0xbe3194e8	-0.1734196
75	0xbdcdd612	-0.10050596
76	0xbdfe8b64	-0.124289304
77	0xbdbe2a99	-0.092854686
78	0x3e763568	0.2404381
79	0xbe3ed2fe	-0.18635175
80	0xbd6630f7	-0.05619904
81	0xbb9dca9a	-0.0048154118
82	0x3d882097	0.06646841
83	0xbd947193	-0.07248225
84	0xbce12aa2	-0.02748615
85	0x3d7a5fe8	0.06112662
86	0xbd949202	-0.07254411
87	0x3d3a0300	0.045413017
88	0x3e2404e2	0.16017488
89	0xbdc38497	-0.09546774
90	0xbe09de74	-0.13463765
91	0xbd6c9d42	-0.05776716
92	0xbdec93dc	-0.115516394
93	0xbd0c5a49	-0.03426579
94	0xbdb2cd61	-0.08730579
95	0xbdb2b1d9	-0.08725328
96	0xbba7dc8c	-0.005122727
97	0x3cb68cf5	0.02228401
98	0xb8a92f9b	-8.067415e-05
99	0xbd0ccaf3	-0.034373235
100	0x3c4c22e6	0.012459492
101	0xbd92ad17	-0.071619205
102	0xbdc632d6	-0.09677665
103	0x3d093d4b	0.03350572
104	0xbd9d6004	-0.07684329
105	0xbbf4b5e1	-0.0074679707
106	0xbda749e4	-0.081683904
107	0x3d6c530a	0.05769638
108	0xbd6f5e0e	-0.058439307
109	0xbd8968c7	-0.06709438
110	0x3da054d8	0.07828683
111	0x3dc9328a	0.09824093
112	0x3da72dd4	0.08163038
113	0x3d9c29ec	0.076251835
114	0xbe114e30	-0.14189982
115	0x3d3ac74d	0.045600224
116	0xbdba5085	-0.09097389
117	0x3e9367c0	0.28790092
118	0xbe4ec64d	-0.20192833
119	0x3d94595d	0.07243607
120	0x3d49fc6b	0.04931299
121	0x3d5ccdcd	0.053907204
122	0x3da482fd	0.080327965
123	0xbedd5d84	-0.4323541
124	0x3e96da6d	0.2946352
125	0xbde8d565	-0.11368827
126	0xbd8671b5	-0.06564657
127	0xbc8eaeaf	-0.01741728
128	0xbd7ae685	-0.061254997
129	0xbde07771	-0.10960282
130	0xbd350ca5	-0.044201512
131	0xbd16f8d4	-0.036858395
132	0xbdcef0b0	-0.10104501
133	0xbdc38920	-0.09547639
134	0xbd49a2b6	-0.04922744
135	0xbd733736	-0.059378825
136	0xbc71b91c	-0.014753606
137	0xbd26af2d	-0.040694404
138	0xbd112975	-0.035439927
139	0xbce0d723	-0.027446335
140	0x3ce37d02	0.02776957
141	0x3c638735	0.013887216
142	0x3d6ebc97	0.058285322
143	0xbd0d7065	-0.034531016
144	0x3ddb84b2	0.10718669
145	0x3cc5b787	0.024135364
146	0xbd8560e7	-0.06512623
147	0x3df68dca	0.12038763
148	0x3de0ec78	0.10982603
149	0x3d3ae47a	0.04562805
150	0x3cbcf90d	0.023067975
151	0x3ddddd27	0.10833197
152	0xbd597804	-0.05309297
153	0x3db1d69e	0.08683513
154	0xbcf36ec3	-0.029715901
155	0x3d35a89b	0.044350248
156	0x3d9be6b3	0.07612362
157	0x3c9da46f	0.019243447
158	0x3c9185c7	0.017763985
159	0x3d2c8efe	0.042128555
160	0xbdb1583b	-0.08659407
161	0x3d111fda	0.035430767
162	0xbc21d305	-0.009876971
163	0x3a5e43f9	0.00084787566
164	0xbd1be5e1	-0.038061026
165	0xbd79c6fd	-0.060980786
166	0xbe1e0de9	-0.15434994
167	0xbd010f8b	-0.031508964
168	0xbe2f1f7e	-0.17101857
169	0xbe0897cf	-0.1333916
170	0xbdbf00f0	-0.09326351
171	0x3e28bfa2	0.16479352
172	0x3dd567e8	0.10420209
173	0xbd932fb1	-0.07186831
174	0x3e06b3bf	0.13154505
175	0xbd31475f	-0.043280955
176	0x3d0db8c4	0.034600034
177	0x3e56fe48	0.20995438
178	0xbd213a2b	-0.039362114
179	0x3d1c781f	0.038200494
180	0x3dfc67e1	0.12324501
181	0x3cbb44bf	0.02285993
182	0xbd591f9b	-0.053008657
183	0x3dee836e	0.11646162
184	0x3ce76b7c	0.028249495
185	0xbd82581b	-0.06364461
186	0x3df5aeb6	0.11996214
187	0x3d3c0d65	0.04591121
188	0xbda777ad	-0.08177123
189	0x3d17bc0b	0.037044566
190	0xbc9b5bad	-0.018964613
191	0xbcde5231	-0.027138801
192	0xbb6e1caa	-0.0036333003
193	0xbce2860e	-0.027651813
194	0xbcf53233	-0.029931163
195	0x3d7962af	0.060885128
196	0xbc57c530	-0.013169572
197	0x3ccc9e16	0.024977725
198	0xbd99f20a	-0.075168684
199	0xbd87de18	-0.06634158
200	0x3d94f5a3	0.07273414
201	0xbd46b1dc	-0.048509464
202	0xbdb28689	-0.08717067
203	0x3d4d9c65	0.050197978
204	0xbd4f4335	-0.050601203
205	0xbe48e3dd	-0.19618173
206	0xbc9c2770	-0.019061774
207	0xbd9c4925	-0.07631139
208	0xbd91c5b3	-0.07117786
209	0xbe0ae556	-0.13564047
210	0x3d12f1aa	0.035875
211	0xbe534701	-0.20632555
212	0xbdb1d90c	-0.086839765
213	0x3e5391ee	0.20661137
214	0xbdd02384	-0.10163024
215	0xbe3d8f35	-0.1851166
216	0xbc16bd23	-0.009200367
217	0xbd73d757	-0.059531536
218	0xbc1277bc	-0.00893968
219	0xbdcfa15b	-0.10138198
220	0xbeb15757	-0.34636948
221	0x3dacbfb4	0.08435002
222	0x3e39966b	0.18123786
223	0xbe955d83	-0.29172906
224	0x3df93402	0.12168123
225	0x3d208f1a	0.039198972
226	0xbe6afe0f	-0.22948478
227	0xbdc58bf3	-0.09645834
228	0xbd4646c5	-0.048407335
229	0xbd9cf056	-0.07663028
230	0xbe58f1a8	-0.21185935
231	0xbd59e9c9	-0.05320147
232	0xbe647811	-0.22311427
233	0xbdfc92bf	-0.12332677
234	0x3cf41e43	0.029799586
235	0x3c15fd63	0.00915465
236	0xbd70842b	-0.058719795
237	0x3dbea180	0.093081474
238	0x3c10c380	0.008835673
239	0xbc94a54c	-0.018145226
240	0xbcaf87f8	-0.02142714
241	0x3d6a28b1	0.057167713
242	0x3da97e72	0.08276071
243	0x3d167e03	0.036741268
244	0x3b2dcaeb	0.0026518654
245	0x3c8c919d	0.017159278
246	0x3da34ca4	0.079736024
247	0xbbee4de2	-0.007272468
248	0x3dc8d049	0.09805352
249	0x3c4e8541	0.012605012
250	0x3e13aef7	0.14422213
251	0x3cd01b04	0.025403507
252	0x3d1c186a	0.03810922
253	0xbd3bf8b3	-0.045891475
254	0xbe8cd565	-0.27506557
255	0x3da24e5a	0.079251006

encoder.blocks.0.conv.3.bias f4 [16]
0	0xbd2fb9ce	-0.042901807
1	0xbcb1a0be	-0.021683093
2	0xbb840b6a	-0.004029681
3	0xbd55e98e	-0.05222469
4	0xbd3a4651	-0.045477215
5	0x3d215623	0.039388787
6	0xbd084faa	-0.0332791
7	0x3da2adf9	0.07943339
8	0x3ddf06c1	0.1088996
9	0xbcafaf88	-0.021446005
10	0x3dd1d932	0.10246505
11	0xbd80a293	-0.062810086
12	0x3dcaf584	0.0991011
13	0xbc27bff7	-0.010238639
14	0x3da80320	0.08203721
15	0xbd1a12cf	-0.037615594

encoder.blocks.0.conv.4.weight f4 [16]
0	0x3f85d5de	1.0455892
1	0x3f7d2e21	0.9889851
2	0x3f5a9db9	0.85396916
3	0x3f904510	1.1271076
4	0x3f782438	0.96930265
5	0x3f83f41f	1.0308875
6	0x3f8fd53e	1.1236951
7	0x3f6fea55	0.9371694
8	0x3f623a9d	0.88370687
9	0x3f622216	0.8833326
10	0x3f6d52d2	0.927045
11	0x3f84bd4e	1.0370271
12	0x3f5b8437	0.8574862
13	0x3f5d42dc	0.86430144
14	0x3f71ec56	0.94501245
15	0x3f720c6d	0.9455021

encoder.blocks.0.conv.4.bias f4 [16]
0	0xbca1c938	-0.019749269
1	0x3e4afda5	0.1982332
2	0x3e8fb08e	0.28064388
3	0xbdb417ee	-0.08793627
4	0xbc68656f	-0.01418434
5	0xbd095cc0	-0.03353572
6	0xbc57ba82	-0.0131670255
7	0x3e6b8552	0.23000076
8	0xbd687ecb	-0.056761544
9	0x3c490590	0.012269393
10	0x3c836266	0.016038131
11	0xbdaf47c0	-0.08558607
12	0x3e640b29	0.22269882
13	0x3e2a75e4	0.16646534
14	0xbb0c7ce2	-0.002143674
15	0x3c07fb9b	0.0082997335

encoder.blocks.0.conv.4.running_mean f4 [16]
0	0xbf52ff46	-0.82420766
1	0xbf653cb5	-0.89545757
2	0xc017b444	-2.3703775
3	0x3e39be4b	0.18138997
4	0x3f9ce8b2	1.2258513
5	0x3fd098a9	1.6296588
6	0x3ef94853	0.48687991
7	0xc01a1d02	-2.4080205
8	0xbec8b324	-0.39199173
9	0xc007ed7a	-2.1238694
10	0x3ee6969d	0.45036784
11	0x3f80347b	1.0016016
12	0xc010e527	-2.2639863
13	0xc04d8016	-3.2109427
14	0xc019c1e8	-2.40246
15	0xc048d46c	-3.1379652

encoder.blocks.0.conv.4.running_var f4 [16]
0	0x3fb4586b	1.4089483
1	0x40c45bd3	6.136209
2	0x41466613	12.39992
3	0x3f59c15e	0.8506068
4	0x40f749c4	7.7277546
5	0x40b866c5	5.762545
6	0x409932f5	4.7874703
7	0x418733e5	16.90034
8	0x402ee9b4	2.733014
9	0x40e85bdb	7.261213
10	0x403b323e	2.9249415
11	0x41268cfe	10.409422
12	0x4132c676	11.173452
13	0x418732e8	16.899857
14	0x4102defc	8.17944
15	0x414c497c	12.7679405

encoder.blocks.0.skip.weight f4 [16, 1, 1, 1]
0	0xbf689b78	-0.90862226
1	0xbf457fca	-0.77148116
2	0x3e025cb8	0.12730682
3	0xbf14d4f6	-0.5813745
4	0x3f178cc0	0.5919914
5	0xbf70dbe0	-0.940855
6	0x3f6916f0	0.91050625
7	0x3f06cfb2	0.5266067
8	0xbc4db180	-0.012554526
9	0xbf1e5e12	-0.6186229
10	0xbef6f204	-0.48231518
11	0xbeff4df0	-0.4986415
12	0x3cd664c0	0.026171088
13	0xbe85c5ec	-0.26127565
14	0x3f390636	0.722751
15	0xbf4ede32	-0.80807793

encoder.blocks.0.skip.bias f4 [16]
0	0xbe616ae0	-0.22013426
1	0x3f460f5e	0.773672
2	0x3d81b940	0.06334162
3	0x3f62bcec	0.8856952
4	0x3f37f240	0.7185402
5	0x3eb1fe58	0.3476436
6	0x3f22d00e	0.63598716
7	0x3e1f2600	0.1554184
8	0xbeab1528	-0.33414578
9	0x3e8f01d0	0.2793107
10	0x3e4c8228	0.19971526
11	0xbf0ab65c	-0.5418451
12	0xbf05ee42	-0.5231668
13	0x3ed7ce10	0.421494
14	0xbebede2c	-0.3727888
15	0xbd92ea70	-0.07173622

encoder.blocks.1.conv.0.weight f4 [32, 16, 3, 3]
0	0xbd969f54	-0.07354608
1	0xbd885e9f	-0.066586725
2	0xbe4146f5	-0.18874724
3	0xbe42cf14	-0.19024307
4	0xbd505744	-0.050864473
5	0x3c935a17	0.017987294
6	0xbd9742ef	-0.073858134
7	0xbd9e3af2	-0.07726087
8	0xbd0079ca	-0.031366147
9	0xbe52a870	-0.20572066
10	0xbe0023d5	-0.12513669
11	0xbe1dc337	-0.154065
12	0xbe44917d	-0.19196124
13	0xbe6e02dc	-0.23243278
14	0xbe32e1f0	-0.17469001
15	0xbe99a130	-0.3000579
16	0xbe2f6748	-0.17129242
17	0xbe52dd23	-0.2059217
18	0x3cc23fa1	0.023711981
19	0x3e4b4854	0.1985181
20	0x3bc04d9e	0.0058686277
21	0xbe220036	-0.15820393
22	0x3c3a1e14	0.01135971
23	0x3cf253b3	0.029580927
24	0xbe15a3a0	-0.14613199
25	0xbc35ca9a	-0.011095667
26	0xbc1e46c2	-0.009660425
27	0x3cc2a87c	0.02376198
28	0xbe0863c5	-0.13319309
29	0xbd9d047d	-0.07666872
30	0xbc82e23e	-0.015977021
31	0xbda80015	-0.08203141
32	0xbd0a4314	-0.033755377
33	0x3db8e37b	0.090277635
34	0x3ddbf6fe	0.107404694
35	0x3a19ff0c	0.0005874492
36	0x3d32da28	0.04366508
37	0xbe24e7a0	-0.16103983
38	0xbe17b83e	-0.14816377
39	0x3e4d9b1a	0.20078698
40	0xbde7f37b	-0.11325737
41	0xbc696c4b	-0.01424701
42	0x3dfdbf4e	0.12390004
43	0xbc62c11f	-0.013839989
44	0xbc7c40da	-0.015396321
45	0x3d5769d6	0.052591167
46	0x3d433779	0.047660325
47	0x3e06f667	0.13179933
48	0xbaf44915	-0.0018637503
49	0x3e0080e2	0.12549165
50	0x3dd117c5	0.10209612
51	0xbd7c55fc	-0.06160544
52	0x3d620701	0.05518246
53	0xbd224f30	-0.0396263
54	0x3e2114ae	0.15730545
55	0xbe16c1ad	-0.14722319
56	0xbd6f47df	-0.05841815
57	0x3e467e5d	0.19384141
58	0x3d8e1965	0.06938437
59	0x3dcff5f8	0.10154337
60	0x3e567200	0.20941925
61	0x3d8f15b1	0.06986559
62	0xbd55cb98	-0.052196115
63	0x3d038203	0.03210641
64	0x3e78c6fd	0.24294658
65	0x3e02201d	0.12707563
66	0xbe19cd34	-0.15019685
67	0x3b1fce90	0.0024384595
68	0x3c9aa1dd	0.01887601
69	0xbdc4adae	-0.09603439
70	0xbcd2cc71	-0.02573225
71	0xbd9b9739	-0.07597203
72	0x3cc57862	0.024105255
73	0x3e209a51	0.15683867
74	0xbb4870b8	-0.0030584764
75	0xbdc84b4a	-0.09779985
76	0xbbef5816	-0.007304202
77	0x3d71be91	0.05901963
78	0xbd7bd1d2	-0.061479397
79	0xbd82341f	-0.063575976
80	0xbd1191e4	-0.035539523
81	0xbd5ae99c	-0.053445444
82	0x3e114b8a	0.14188972
83	0x3d175a20	0.036951184
84	0xbdc1b773	-0.09458818
85	0x3d774799	0.060371015
86	0xbca642f9	-0.020295607
87	0xbe0693d5	-0.13142331
88	0x3cc9bbeb	0.02462574
89	0xbdba49a0	-0.09096074
90	0x3d9dbda5	0.077021874
91	0xbdb44c38	-0.088036
92	0xbdcf6d5f	-0.10128283
93	0x3dd79bfb	0.10527798
94	0x3d8bf913	0.068346165
95	0x38f8b53f	0.00011859321
96	0x3e35e864	0.17764431
97	0x3d37c815	0.044868547
98	0xbc9377c7	-0.01800145
99	0x3e0cfb01	0.13767625
100	0xbd82b74a	-0.06382616
101	0xbd83c3d4	-0.064338356
102	0x3e0fc3fa	0.14039603
103	0xbc7eb0e7	-0.0155451065
104	0xbd8080fb	-0.06274601
105	0x3e8a41be	0.27003282
106	0xbc52ef30	-0.01287441
107	0xbe0a172f	-0.13485406
108	0x3da8dfda	0.08245821
109	0x3d8c9d6b	0.068659626
110	0x3db52ac9	0.08846051
111	0x3d4688e2	0.048470385
112	0x3d9b7589	0.075907774
113	0xbddb5a8b	-0.10710629
114	0xbe0031cd	-0.12518997
115	0xbd76e1f6	-0.060274087
116	0x3d519ada	0.05117307
117	0x3d97c83c	0.074112386
118	0x3dfabcca	0.1224304
119	0x3b71702c	0.0036840541
120	0xbe02ac15	-0.12760957
121	0xbc9ae374	-0.018907286
122	0x3c4fe6c6	0.012689298
123	0xbe1e0a58	-0.15433633
124	0xbd3d7ec9	-0.04626349
125	0x3be36fa9	0.006940801
126	0x3d92c05a	0.071655944
127	0xbce4a963	-0.027912801
128	0xbd9e31ca	-0.0772434
129	0x3c94d0f9	0.018166052
130	0xbd937d06	-0.07201581
131	0xbd34b211	-0.04411513
132	0x3da98486	0.0827723
133	0x3d58d709	0.05293945
134	0xbdf845f3	-0.12122717
135	0x3d5f524b	0.05452184
136	0xbc64dfa0	-0.013969332
137	0xbdaa1264	-0.08304289
138	0xbd15d4a4	-0.036579743
139	0xbdc438a3	-0.09581115
140	0xbdc9e9f4	-0.09859076
141	0xbde329ca	-0.11091955
142	0xba82f4c7	-0.0009991162
143	0xbc66d85e	-0.014089672
144	0xbcda898a	-0.026676912
145	0x3df03b69	0.117300816
146	0x3d703b07	0.058650043
147	0x3d58152b	0.052754562
148	0x3e0b6a2d	0.13614722
149	0x3c872120	0.016495287
150	0xbd82eaeb	-0.06392463
151	0x3d8fd0eb	0.0702227
152	0x3e499696	0.1968635
153	0xbd9db65e	-0.077007994
154	0xbbe19c91	-0.0068851192
155	0xbc8dd1ce	-0.017311957
156	0x3d841aff	0.064504616
157	0x3d931b52	0.07182945
158	0xbdb2efdd	-0.087371565
159	0x3de6cdaa	0.11269696
160	0x3cb03c54	0.021513142
161	0x3cdbbc76	0.026823264
162	0xbd034c5e	-0.03205525
163	0xbda917e6	-0.082565114
164	0x3bd9059b	0.0066229827
165	0x3d8192e8	0.06326848
166	0xbce27e93	-0.027648246
167	0xbc2387d8	-0.009981118
168	0x3e0d502a	0.13800111
169	0x3cee1845	0.029064307
170	0xbdf047c4	-0.11732438
171	0x3da76e15	0.08175293
172	0x3dd816f7	0.10551255
173	0x3d083be8	0.033260256
174	0x3d85b0b0	0.06527841
175	0x3da51e97	0.08062475
176	0x3d892784	0.0669699
177	0xbdb2d32f	-0.08731686
178	0x3dc8913f	0.097933285
179	0x3dc882f8	0.09790605
180	0x3e096c81	0.13420297
181	0x3ddabe32	0.10680808
182	0x3d2f0acd	0.04273491
183	0x3d10268a	0.035193004
184	0x3e04104f	0.12896846
185	0x3da939e7	0.08262997
186	0xbdaac428	-0.08338195
187	0x3d8bcb1e	0.06825851
188	0xba9eaf8a	-0.0012106758
189	0xbe0ad36b	-0.13557212
190	0xbdd2cf2a	-0.1029342
191	0xbe85f417	-0.26162788
192	0xbe22fa9b	-0.15915911
193	0xbe6933c9	-0.2277366
194	0xbe77b98c	-0.24191874
195	0xbdac7b95	-0.08422009
196	0xbe167384	-0.14692503
197	0xbdfa4be6	-0.12221508
198	0x3de33bfc	0.110954255
199	0x3d0cae82	0.03434611
200	0xba744f65	-0.0009319692
201	0x3d912662	0.07087399
202	0x3dee9ef4	0.11651412
203	0x3e07b9c1	0.13254453
204	0xbe2626e6	-0.16225776
205	0x3da4222c	0.0801433
206	0x3e3cc7a1	0.18435527
207	0xbd0b8435	-0.03406163
208	0xbcbf0861	-0.023319425
209	0xbc72e49a	-0.014825011
210	0x3d21c08f	0.03949028
211	0xbdd16532	-0.102243796
212	0xbd26bfbe	-0.040710203
213	0x3e44b962	0.19211343
214	0xbc06bb4c	-0.008223366
215	0xbcded416	-0.02720074
216	0xbd7c54d5	-0.06160434
217	0xbdd14e79	-0.102200456
218	0xbe35005a	-0.17675915
219	0x3c5535ca	0.013013313
220	0xbe5188aa	-0.2046229
221	0xbe0cc65f	-0.13747548
222	0xbd386580	-0.045018673
223	0xbdb956ed	-0.09049783
224	0xbe29e7ea	-0.16592374
225	0xbbeb7920	-0.00718607
226	0xbe32b3d5	-0.17451413
227	0xbe3214eb	-0.17390792
228	0xbcfe9bbc	-0.03108012
229	0xbda84bcf	-0.08217584
230	0xbe2f5510	-0.17122293
231	0x3daee430	0.08539617
232	0xbdd4b5a2	-0.10386206
233	0xbdd73e25	-0.105099
234	0xbca5734d	-0.020196581
235	0x3d1ad735	0.037802894
236	0xbd49de79	-0.049284432
237	0xbdf95fa7	-0.12176447
238	0xbd45951d	-0.04823791
239	0x3ccb8713	0.024844682
240	0xbe75ae64	-0.23992306
241	0x3d208b8f	0.039195593
242	0x3dc53a77	0.09630292
243	0x3d2e2234	0.042513087
244	0x3e295dc3	0.16539674
245	0x3d7afce3	0.061276328
246	0xbd29e7c2	-0.041480787
247	0x3dd8c9e7	0.10585385
248	0x3e06217a	0.13098708
249	0xbe16769c	-0.14693683
250	0x3d028ad7	0.03187069
251	0x3d841cea	0.064508274
252	0xbcaf4340	-0.021394372
253	0xbd6922ae	-0.05691784
254	0xbc92eae6	-0.017934274
255	0x3e093d41	0.13402273

encoder.blocks.1.conv.0.bias f4 [32]
0	0xbcfb5b52	-0.030683193
1	0xbcfc28bf	-0.030781148
2	0xbcdc9c25	-0.026929924
3	0xbd0605ac	-0.032720253
4	0xbac39049	-0.001492032
5	0xbcdd8e77	-0.027045472
6	0x3d1476d8	0.03624615
7	0x3c0d1c0f	0.008612647
8	0x3d63552c	0.055501148
9	0x3e017614	0.126427
10	0x3d20b2ac	0.039232895
11	0xbc8f3ba0	-0.017484486
12	0x3d94f9ec	0.07274231
13	0x3ca16dd3	0.019705689
14	0xbd82054f	-0.06348669
15	0x3b8c377d	0.0042790757
16	0x3d190cfe	0.037365906
17	0x3b1d49ef	0.0024000367
18	0x3b2ec74e	0.0026669088
19	0x3ca4545d	0.020059759
20	0xbd8980fc	-0.06714055
21	0xbd2c8692	-0.042120524
22	0xbd22ad4a	-0.039716043
23	0x3df1be67	0.118038945
24	0x3d9306f0	0.071790576
25	0x3d1f4b5c	0.038890228
26	0x3dada4a4	0.08478668
27	0x3d05589c	0.032555208
28	0xbd36970f	-0.044577654
29	0xbd22b4f7	-0.039723363
30	0x3c0ffcb6	0.008788278
31	0x3d2c0071	0.04199261

encoder.blocks.1.conv.1.weight f4 [32]
0	0x3f899b17	1.0750455
1	0x3f786cf7	0.9704127
2	0x3f66955f	0.9007167
3	0x3f85e27c	1.0459743
4	0x3f76ff8d	0.9648369
5	0x3f79656f	0.974204
6	0x3f860e7b	1.0473169
7	0x3f6df187	0.92946666
8	0x3f7e2d8b	0.99288243
9	0x3f7fe8ed	0.9996479
10	0x3f86e744	1.0539327
11	0x3f77f3a0	0.9685612
12	0x3f61bf72	0.8818275
13	0x3f87ffe8	1.0624971
14	0x3f6309ed	0.8868702
15	0x3f868e0a	1.0512097
16	0x3f85bba8	1.0447893
17	0x3f8b95df	1.0905112
18	0x3f76c713	0.96397513
19	0x3f6b0125	0.9179862
20	0x3f80c7b5	1.0060946
21	0x3f7baed1	0.98313624
22	0x3f8c3726	1.095433
23	0x3f7501a9	0.9570566
24	0x3f5bf6ac	0.85923266
25	0x3f8474e9	1.0348178
26	0x3f45886d	0.77161294
27	0x3f5d2805	0.8638919
28	0x3f56d763	0.83922404
29	0x3f7fcb37	0.99919456
30	0x3f8451bf	1.0337447
31	0x3f796295	0.9741605

encoder.blocks.1.conv.1.bias f4 [32]
0	0xbd0af8f4	-0.033928826
1	0xbd6466f4	-0.055762246
2	0xbe16cb77	-0.14726053
3	0xbd8a54a3	-0.067544244
4	0xbe152ce0	-0.145679
5	0xbe273c9a	-0.16331711
6	0xbd2278d9	-0.03966603
7	0xbc99c339	-0.018769847
8	0xbdf69ab6	-0.120412275
9	0x3c666190	0.014061347
10	0xbcc3d564	-0.023905464
11	0x3d1094d9	0.035298202
12	0xbe14642a	-0.14491335
13	0xbd98c616	-0.07459657
14	0x3d41867f	0.047247406
15	0x3e18e110	0.14929605
16	0x3d040c4f	0.0322383
17	0x3d36250e	0.04446893
18	0xbd483286	-0.048876308
19	0xbe14375b	-0.14474241
20	0x3dc5aeb0	0.096524596
21	0xbc65f19c	-0.014034655
22	0xbde00c02	-0.1093979
23	0xbd5280ce	-0.05139237
24	0xbb83eebc	-0.004026262
25	0xbdf3ca03	-0.11903765
26	0xbe19a432	-0.15004042
27	0xbd557c13	-0.05212028
28	0xbdeb1df4	-0.114803225
29	0xbd5a8051	-0.05334503
30	0xbe2c2ff2	-0.16815165
31	0xbdb2c7f6	-0.08729546

encoder.blocks.1.conv.1.running_mean f4 [32]
0	0xbf94f069	-1.1635867
1	0xbdbdb284	-0.09262565
2	0x3fe073bf	1.7535323
3	0x3d9dcdba	0.07705255
4	0x3fe2b60c	1.7711806
5	0x400675c1	2.1009371
6	0x3f1a470c	0.6026466
7	0xbd8245e5	-0.063609876
8	0x3f847671	1.0348645
9	0x3eae9db0	0.3410468
10	0xc008b8fc	-2.1362906
11	0xc02ccd63	-2.7000358
12	0xbfdb467e	-1.7130888
13	0xbfa5a2b2	-1.2940276
14	0xc06c530a	-3.6925683
15	0xc00d1b02	-2.2047734
16	0x3ee7486a	0.45172435
17	0x3e2a591e	0.16635558
18	0x3fd799b2	1.6843779
19	0x3ffe8f01	1.9887391
20	0xc0537cd5	-3.3044941
21	0x3f8566ae	1.042196
22	0x3fdabae6	1.7088287
23	0x4015ea52	2.3424268
24	0xbff74075	-1.9316546
25	0x3fcd9891	1.6062185
26	0x3e7b9eb3	0.24572258
27	0x3fd456cb	1.6588987
28	0xc07894e7	-3.8840883
29	0x3fb5df32	1.4208739
30	0xbf844774	-1.0334306
31	0xbf808c1e	-1.004276

encoder.blocks.1.conv.1.running_var f4 [32]
0	0x409b6f28	4.857319
1	0x409cdd13	4.9019866
2	0x40b82b2e	5.755271
3	0x3f86ac2a	1.052129
4	0x40f84e31	7.759545
5	0x40b494fd	5.643187
6	0x40938c85	4.6109033
7	0x407aad30	3.9168205
8	0x406fd190	3.7471657
9	0x40c98ec4	6.2986774
10	0x40e891bd	7.2677903
11	0x4173d1af	15.238692
12	0x4126bfec	10.421856
13	0x410c23a7	8.758704
14	0x416fd0a5	14.988439
15	0x40885a76	4.2610426
16	0x40a6d57f	5.2135615
17	0x41276ad7	10.463584
18	0x40cf7f3a	6.4842806
19	0x40e535dd	7.162825
20	0x41081a7b	8.506465
21	0x4103fce7	8.249244
22	0x40dde306	6.933963
23	0x40be1b28	5.940815
24	0x417d112f	15.816695
25	0x40bab096	5.834056
26	0x40d845df	6.758529
27	0x4130b68c	11.044567
28	0x418d64fd	17.67431
29	0x40e6187a	7.190488
30	0x3f81d54f	1.0143222
31	0x40f42dff	7.6306148

encoder.blocks.1.conv.3.weight f4 [32, 32, 3, 3]
0	0xbe598e59	-0.21245708
1	0xbcee3f19	-0.029082822
2	0x3ce011ab	0.027352175
3	0xbe64838f	-0.2231581
4	0x3c500b90	0.012698069
5	0x3db90167	0.090334706
6	0xbe4c4cb8	-0.19951141
7	0x3e253370	0.16132903
8	0x3e0b017a	0.13574782
9	0xbcfb4561	-0.03067273
10	0xbdc134ca	-0.09433897
11	0xbe103ee9	-0.14086498
12	0xbc8e2941	-0.017353656
13	0xbcdc6ebd	-0.026908273
14	0xbcbb8670	-0.022891253
15	0xbdf838a3	-0.121201776
16	0xbd8f5eb2	-0.070004836
17	0x3d0dac85	0.034588356
18	0xbcfd603e	-0.03092968
19	0x3d6d87ea	0.057990946
20	0x3c28c737	0.010301403
21	0x3d61d4bf	0.05513453
22	0x3dcdd8a6	0.10051088
23	0x3c273410	0.010205284
24	0x3d047478	0.032337636
25	0xbbc4e619	-0.006008875
26	0x3cbe82f7	0.023255808
27	0xbe47af09	-0.19500364
28	0x3c9ebdc1	0.019377591
29	0x3e4d68a4	0.20059448
30	0xbe40e445	-0.18837078
31	0xbba54e51	-0.0050447364
32	0x3e142c03	0.14469914
33	0xbe201675	-0.15633567
34	0xbc78a672	-0.015176402
35	0x3d9dbc43	0.07701924
36	0xbd8101b8	-0.06299156
37	0x3d60303f	0.05473351
38	0x3cbade88	0.02281119
39	0xbc2e103b	-0.010623987
40	0x3c3f0a5a	0.011660183
41	0x3d0974ed	0.033558775
42	0x3d1a6149	0.037690435
43	0x3dc4b7bc	0.09605357
44	0x3d8ef8cb	0.06981047
45	0x3da6ab2e	0.08138119
46	0x3de4de43	0.111752056
47	0x3d06033e	0.032717936
48	0x3e4c716e	0.19965145
49	0x3d935c7f	0.071953766
50	0x3d2e3916	0.04253491
51	0x3ddf8cb7	0.10915511
52	0x3d1b9a33	0.037988853
53	0x3cda4479	0.026643978
54	0xbcdd787a	-0.027034987
55	0x3cf58c16	0.029974025
56	0x3da555dd	0.08073018
57	0xbd276962	-0.040871985
58	0x3d127c02	0.035762794
59	0x3d90e113	0.070741795
60	0xbceb6465	-0.028734395
61	0xbc6548ca	-0.013994405
62	0x3bd6f54f	0.006560005
63	0x3c5c92f0	0.013462767
64	0xbd539e5a	-0.051664688
65	0x3c6e3e88	0.014541276
66	0xbc3ce802	-0.011529924
67	0xbdab88d3	-0.083757065
68	0xbcac1a3f	-0.021008609
69	0xbd2d7164	-0.042344466
70	0xbc01970d	-0.0079095485
71	0x360cff8e	2.1010378e-06
72	0x3daaa5c9	0.08332402
73	0x3d338dcf	0.04383641
74	0xbcaa07a3	-0.020755595
75	0x3e073f4a	0.13207737
76	0x3de0214f	0.10943853
77	0xbcdd7cbf	-0.027037023
78	0x3df266fe	0.118360505
79	0x3ca69826	0.020336222
80	0x3cce93c0	0.025216937
81	0xbda6f83b	-0.08152815
82	0x3da681a6	0.08130197
83	0x3e2e2243	0.17005257
84	0xbd83eab3	-0.0644125
85	0x3dddf9be	0.1083865
86	0x3e21f0f8	0.15814579
87	0xbda3fa11	-0.08006681
88	0x3da18302	0.07886316
89	0x3e137ea8	0.14403784
90	0xbe45dfbc	-0.19323629
91	0x3ca9ccff	0.020727633
92	0xbc40e9dd	-0.011774507
93	0xbe28160a	-0.16414657
94	0x3d24327e	0.040087216
95	0x3dc4a93f	0.09602594
96	0xbe11753c	-0.14204878
97	0x3d8fe674	0.07026377
98	0x3d4dee85	0.050276298
99	0x3e2c305f	0.16815327
100	0x3df268ff	0.11836433
101	0x3d8bb9ce	0.06822549
102	0x3dc1da54	0.09465471
103	0x3def49c9	0.11683995
104	0x3dd8d254	0.10586992
105	0x3dd40054	0.10351625
106	0x3d8d759a	0.06907196
107	0x3e0f0c13	0.1396945
108	0x3d5f94b2	0.054585166
109	0xbdf0d0ba	-0.117585614
110	0xbda4a177	-0.080386095
111	0x3e06b505	0.13154991
112	0xbe5c58b9	-0.2151822
113	0xbd86dd82	-0.06585218
114	0xbd37a960	-0.044839263
115	0xbdd39b5a	-0.10332365
116	0xbe3f9212	-0.18708065
117	0xbe5a5514	-0.21321517
118	0xb918e948	-0.00014582754
119	0x3ccd8153	0.02508608
120	0xbe18f0ea	-0.14935651
121	0x3d35cb2e	0.04438322
122	0x3dc348b4	0.095353514
123	0xbdb1c8e7	-0.08680897
124	0x3dfa9da1	0.122370966
125	0x3e10d77d	0.14144702
126	0xbc9588f5	-0.018253783
127	0xbc62e7af	-0.013849183
128	0x3cec347c	0.02883362
129	0x3b7dd96e	0.0038734335
130	0xbcae8784	-0.021304853
131	0xbb162311	-0.0022909085
132	0xbe0c5770	-0.1370523
133	0xbd41af8f	-0.047286566
134	0x3bd88e04	0.0066087265
135	0xbcbdae07	-0.023154272
136	0xbdc2a965	-0.09504966
137	0x3ce42f2e	0.027854528
138	0xbd943fcf	-0.07238733
139	0xbd6c9d9c	-0.057767496
140	0x3d415115	0.047196466
141	0xbd9d50bb	-0.07681414
142	0xbd9a792f	-0.07542645
143	0xbced95f1	-0.029002162
144	0xbe3d0ec0	-0.18462658
145	0x3cc28a58	0.023747608
146	0x3df18572	0.11793031
147	0xbd61e872	-0.055153318
148	0x3dad1ef7	0.08453172
149	0x3df55bac	0.11980376
150	0xbc6e6c49	-0.014552184
151	0x3d967ac1	0.07347632
152	0x3d05a712	0.032630034
153	0xbe7a515e	-0.24445102
154	0xbc34d714	-0.011037607
155	0x3cf9e9a4	0.030506916
156	0xbe67e1e6	-0.22644767
157	0x3e1e0a8c	0.15433711
158	0x3e1c408b	0.15258996
159	0xbd97fee3	-0.07421663
160	0x3dbfad21	0.093591936
161	0x3e1580b8	0.14599884
162	0xbd0b2684	-0.03397228
163	0x3a2211d5	0.0006182467
164	0x3c524abe	0.012835203
165	0xbc686853	-0.014185029
166	0x3d3443f6	0.044010125
167	0x3db52b98	0.088462055
168	0x3cff1ca0	0.03114158
169	0x3d1455db	0.03621469
170	0x3d1f72b7	0.03892776
171	0x3c9d8384	0.01922775
172	0xbc1c5948	-0.009542771
173	0xbdefb1ea	-0.11703856
174	0x3cc8a9e6	0.024495076
175	0x3cf780e5	0.030212829
176	0xbd8aba44	-0.067738086
177	0x39496e73	0.0001921
178	0xbc90f9fe	-0.01769733
179	0xbc428b02	-0.011873962
180	0xbd01d06e	-0.031692915
181	0x3cb969cf	0.022633461
182	0x3e24a274	0.16077596
183	0xbd8ed157	-0.06973522
184	0x3d905871	0.07048119
185	0x3e2c5710	0.16830087
186	0xbd4dc40d	-0.050235797
187	0x3ccae90e	0.024769332
188	0x3dfb39c0	0.12266874
189	0xbd2458da	-0.040123798
190	0xbde0d24c	-0.10977611
191	0xbda1db02	-0.079031006
192	0xbdd8001e	-0.10546897
193	0xbdc76b58	-0.09737271
194	0xbcb65370	-0.022256583
195	0xbd21e063	-0.039520632
196	0x3d32915e	0.043595664
197	0xbd5ba960	-0.053628325
198	0xbdb7be77	-0.08971875
199	0x3e0b55c3	0.13606934
200	0x3d92be8a	0.07165249
201	0x3ce23312	0.027612243
202	0x3daf34df	0.08555006
203	0x3d560bf3	0.05225749
204	0x3d65fb38	0.056147784
205	0x3d325c16	0.04354485
206	0x3dd5a14e	0.10431157
207	0x3da05e3d	0.078304745
208	0x3d32fa83	0.043695938
209	0xbccf3780	-0.02529502
210	0x3e3484e5	0.1762882
211	0x3d46fab1	0.04857892
212	0x3ca2e307	0.019883646
213	0x3e41f9f6	0.18943009
214	0x3dece990	0.11567986
215	0x3d84bb6f	0.064810626
216	0x3d902e91	0.07040132
217	0x3d8d8b89	0.0691138
218	0x3dac8211	0.08423246
219	0x3ac96f1a	0.0015368194
220	0x3ddd4163	0.10803487
221	0x3daf5f8c	0.08563146
222	0xbd85fe7c	-0.0654268
223	0x3d76a4a1	0.060215596
224	0x3e01984a	0.1265575
225	0xbe4df3e1	-0.20112564
226	0x3dc29384	0.095007926
227	0x3c9479f3	0.018124556
228	0xbdc99346	-0.09842543
229	0x3d2062d1	0.03915674
230	0x3e124455	0.14283879
231	0xbd4aeafe	-0.049540512
232	0x3d96f3fb	0.07370754
233	0x3df8f0bf	0.12155294
234	0xbdba1e21	-0.09087778
235	0x3c5c8981	0.013460518
236	0x3d7e7237	0.062120643
237	0xbda4e5b6	-0.080516264
238	0x3d96818f	0.0734893
239	0x3dbc62e5	0.0919855
240	0xbdb44319	-0.0880186
241	0x3e0acac4	0.13553911
242	0x3df1b099	0.118012615
243	0xbd8ab5f0	-0.06772983
244	0xbd32ed0f	-0.043683108
245	0xbd0f6fae	-0.035018615
246	0xbde5fd66	-0.112299725
247	0x3bd23e27	0.0064161005
248	0xbdbf6176	-0.09344761
249	0xbca484e6	-0.020082902
250	0xbd34ec1c	-0.044170484
251	0xbd573abe	-0.052546255
252	0x3d6708d1	0.056404892
253	0x3de9bf95	0.114134945
254	0xbaf97504	-0.0019032066
255	0x3da78bfe	0.08180998

encoder.blocks.1.conv.3.bias f4 [32]
0	0xbce1fc36	-0.027586084
1	0xbd285ef6	-0.041106187
2	0x3c6f57fd	0.01460838
3	0xbce105de	-0.027468618
4	0xbbddef40	-0.0067729056
5	0x3d3028dc	0.043007717
6	0x3dbafbdb	0.09130069
7	0x3d0a5571	0.03377289
8	0xbda46322	-0.080267206
9	0xbbb4368a	-0.0054996656
10	0xbc6ce6d6	-0.014459332
11	0xbdbd475b	-0.092421256
12	0xbd648164	-0.05578746
13	0xbd08effd	-0.033431996
14	0xbda0f8dc	-0.07859966
15	0xbcd6cf25	-0.026221821
16	0xbbd94c08	-0.006631378
17	0x3c6cd313	0.014454621
18	0x3cb8849d	0.022524172
19	0x3ab40d2d	0.0013736837
20	0x3ddc67bd	0.10761974
21	0xbce5a72f	-0.02803382
22	0x3bebd1da	0.007196647
23	0xba5d9322	-0.00084524055
24	0xba3219d5	-0.00067940104
25	0xbd79d64f	-0.060995396
26	0xbda9c5d6	-0.08289687
27	0x3dc29a19	0.09502048
28	0xbcd0b111	-0.025475057
29	0x3cda8c21	0.026678147
30	0x3cc524d0	0.024065405
31	0x3cb6e6b8	0.022326812

encoder.blocks.1.conv.4.weight f4 [32]
0	0x3f4ca199	0.7993408
1	0x3f57bd71	0.8427344
2	0x3f6e4fc6	0.93090475
3	0x3f80dfbf	1.0068282
4	0x3f8d55ce	1.104181
5	0x3f7d2062	0.9887754
6	0x3f8c743d	1.0972973
7	0x3f7ebdc4	0.9950831
8	0x3f7153bf	0.9426841
9	0x3f850401	1.0391847
10	0x3f82c46d	1.0216194
11	0x3f8df37e	1.1089933
12	0x3f875b95	1.0574824
13	0x3f710df3	0.9416191
14	0x3f711d55	0.9418538
15	0x3f65d4ac	0.89777637
16	0x3f851e10	1.0399799
17	0x3f8d7543	1.105141
18	0x3f6d0184	0.9258044
19	0x3f8fc5cc	1.1232238
20	0x3f89f075	1.0776507
21	0x3f781705	0.96910125
22	0x3f82bfe7	1.0214814
23	0x3f64ed78	0.8942485
24	0x3f73c559	0.95223004
25	0x3f80a423	1.005009
26	0x3f6aa56c	0.91658664
27	0x3f8961d6	1.0732982
28	0x3f84a3b9	1.0362464
29	0x3f7188d5	0.94349414
30	0x3f823176	1.0171344
31	0x3f50d34a	0.815724

encoder.blocks.1.conv.4.bias f4 [32]
0	0xbe14c3b7	-0.14527784
1	0xbd8745ca	-0.06605108
2	0x3e14a256	0.14515051
3	0x3d164967	0.036691096
4	0xbe22c5e6	-0.15895805
5	0x3e5d9327	0.21638165
6	0x3db55ab6	0.08855192
7	0x3e0a87da	0.13528386
8	0xbd9d44e2	-0.07679154
9	0xbcdb739b	-0.026788523
10	0xbe115a8d	-0.14194699
11	0x3e3cced3	0.18438272
12	0x3e130b0c	0.14359683
13	0xbdc07846	-0.0939794
14	0x3dc6242e	0.096748695
15	0xbe877dfc	-0.26463306
16	0x3e42fd99	0.19042052
17	0x3dc0fe2d	0.0942348
18	0xbdedb71a	-0.116071895
19	0x3d3c6540	0.045994997
20	0xbd026f7d	-0.031844605
21	0xbd1de1eb	-0.03854553
22	0x3b1a8b1b	0.0023581448
23	0xbd3fe081	-0.046844963
24	0xbe581925	-0.21103342
25	0xbe8a7588	-0.27042794
26	0xbe6bd71d	-0.23031278
27	0xbe36c4b7	-0.17848478
28	0xbdb75314	-0.08951393
29	0xbe645d18	-0.22301137
30	0x3e21fe26	0.15819606
31	0xbd6ef771	-0.058341447

encoder.blocks.1.conv.4.running_mean f4 [32]
0	0x3f9eb4ef	1.2398967
1	0xbfe946fa	-1.8224785
2	0xc07cf057	-3.9521692
3	0xc097360f	-4.725349
4	0x3eac67cb	0.33672938
5	0xc0a03d42	-5.0074778
6	0xc00df4cb	-2.218066
7	0xc02811d4	-2.6260881
8	0x3fc51210	1.5396137
9	0x3eefd1e5	0.46839824
10	0x3e6ec77a	0.23318282
11	0xc07df688	-3.968172
12	0xc084f3ed	-4.154776
13	0xc098ce69	-4.7751966
14	0xc0100aec	-2.2506666
15	0x3f18ec42	0.597355
16	0xc082d468	-4.0884285
17	0xbfb9d0ee	-1.4516885
18	0xbe6adf4d	-0.22936745
19	0x403334ed	2.8001053
20	0x3f8b0276	1.0860126
21	0xbed47c40	-0.41501045
22	0x3f822203	1.016663
23	0xbfddd6b2	-1.7331145
24	0x3ef9d8c1	0.48798183
25	0xbfe88c78	-1.8167868
26	0xbee11e6f	-0.4396853
27	0xbe029c11	-0.12754847
28	0xc0206280	-2.506012
29	0xbed69b16	-0.41915196
30	0xbfec94d7	-1.8482922
31	0xc093454b	-4.6022086

encoder.blocks.1.conv.4.running_var f4 [32]
0	0x41830f06	16.382336
1	0x4261daca	56.46366
2	0x41d05518	26.04155
3	0x42b60ad6	91.021164
4	0x4187d854	16.980629
5	0x42da6fee	109.21861
6	0x40f8744c	7.7641964
7	0x4297d43e	75.914536
8	0x4174eeba	15.308283
9	0x4150bbaf	13.045821
10	0x417c3bec	15.764629
11	0x42ab0614	85.51187
12	0x4299be4e	76.87169
13	0x41e7fe70	28.999237
14	0x425f1d79	55.77878
15	0x419525c1	18.643435
16	0x42ad7078	86.719666
17	0x4118c1fd	9.54736
18	0x4171f994	15.123432
19	0x41f28226	30.313549
20	0x41624488	14.141731
21	0x41963591	18.776155
22	0x413b97dd	11.724576
23	0x4268e618	58.2247
24	0x41499fbf	12.6015005
25	0x417b3796	15.701071
26	0x411e5bce	9.897413
27	0x4194309f	18.52374
28	0x40943c7f	4.632385
29	0x4103b094	8.23061
30	0x41df2919	27.895067
31	0x42e11a57	112.551445

encoder.blocks.1.skip.weight f4 [32, 16, 1, 1]
0	0xbc6ce180	-0.01445806
1	0x3d137718	0.03600225
2	0x3e73b794	0.23800498
3	0xbe63c5f0	-0.22243476
4	0xbca2e970	-0.019886702
5	0xbd27bc30	-0.040950954
6	0xbe17c8fc	-0.14822763
7	0xbd7750d0	-0.060379803
8	0x3d032930	0.0320217
9	0x3c771740	0.015081227
10	0xbe013e4e	-0.12621424
11	0xbdde45b8	-0.108531415
12	0xbe1d9730	-0.15389705
13	0x3d57ef78	0.05271861
14	0xbd705420	-0.058673978
15	0x3df8e754	0.12153497
16	0xbe7feb6c	-0.2499215
17	0xbe50e736	-0.204007
18	0x3db0a7e8	0.086257756
19	0x3e7993fa	0.24372855
20	0xbe7c5128	-0.24640334
21	0xbe75be10	-0.23998284
22	0x3d006238	0.03134367
23	0xbddaf0b0	-0.10690439
24	0x3dc28d40	0.094995975
25	0xba4dd800	-0.0007852316
26	0xbe622a30	-0.22086406
27	0x3db7bb4c	0.08971271
28	0xbc5b4d20	-0.013385087
29	0xbe6b2d30	-0.22966456
30	0xbd391160	-0.045182586
31	0xbe491ebc	-0.1964063
32	0x3d8887c8	0.06666523
33	0xbe3e8618	-0.1860584
34	0xbe289e2e	-0.16466591
35	0x3b8a9c00	0.0042300224
36	0xbcc16640	-0.023608327
37	0x3e644d30	0.2229507
38	0x3dd1cca0	0.10244107
39	0xbe67609a	-0.22595444
40	0x3e1da2c0	0.15394115
41	0xbcc3f720	-0.02392155
42	0xbe57b09e	-0.21063468
43	0xbb191d80	-0.002336353
44	0x3c964880	0.018345118
45	0xbe2a65ea	-0.1664044
46	0xbe529fd6	-0.20568785
47	0x3d855610	0.06510556
48	0xbc091360	-0.008366436
49	0x3cfaf0d0	0.030632406
50	0x3e097a20	0.13425493
51	0xbe7739cc	-0.24143142
52	0xbdbdb014	-0.092621
53	0xbdb07b40	-0.08617258
54	0x3e31331e	0.17304656
55	0xbdfe0e0c	-0.12405023
56	0xbe6b1a86	-0.22959337
57	0x3e058128	0.1303755
58	0xbd84dd10	-0.06487477
59	0xbe1071f8	-0.14105976
60	0x3d3d70d0	0.046250165
61	0x3d8044d0	0.06263125
62	0x3d0fdd50	0.03512317
63	0x3e6ba140	0.2301073
64	0x3e00d9c2	0.12583068
65	0x3d3959e0	0.045251727
66	0x3e44c4c8	0.19215691
67	0x3cb4ca20	0.022069037
68	0xbdb0a2c8	-0.08624798
69	0xbe549066	-0.20758209
70	0xbe77fa32	-0.24216536
71	0x3e3a7974	0.18210393
72	0x3d891e5c	0.06695244
73	0x3e503e74	0.20336324
74	0xbe22eb60	-0.15910101
75	0xbd8d4bc4	-0.06899217
76	0x3e00216a	0.12512746
77	0xbe697b02	-0.2280083
78	0x3d59ff38	0.05322191
79	0xbe2ca564	-0.16859967
80	0xbd805114	-0.062654644
81	0x3e22df7c	0.15905565
82	0x3d978a0c	0.07399377
83	0x3c04a8c0	0.008096874
84	0x3e4b6d20	0.19865847
85	0xbe4cb0ce	-0.1998932
86	0xbe6b1904	-0.22958761
87	0xbe1fe170	-0.15613341
88	0x3dc92160	0.09820819
89	0x3e2fdc04	0.17173773
90	0xbde8a8ec	-0.11360344
91	0x3db11400	0.08646393
92	0xbe610d34	-0.21977693
93	0x3db1497c	0.08656594
94	0x3e02d5a4	0.1277681
95	0x3e2e5a18	0.17026556
96	0x3d849b5c	0.06474945
97	0x3e40667a	0.18789092
98	0x3e09a496	0.13441691
99	0x3e401570	0.18758178
100	0x3e141610	0.14461541
101	0x3d13ee90	0.036116183
102	0xbe2788f6	-0.1636084
103	0xbb308800	-0.002693653
104	0xbe3392fc	-0.17536539
105	0xbe03478c	-0.12820262
106	0xbd963ba4	-0.07335594
107	0x3dbcdb70	0.09221542
108	0x3e169768	0.14706194
109	0x3e2faad2	0.17155007
110	0x3e0cbea0	0.13744593
111	0xbe5a7300	-0.21332932
112	0xbd8d30dc	-0.06894085
113	0xbe3f1de2	-0.18663743
114	0xbd2085a0	-0.039189935
115	0x3c956460	0.01823634
116	0xbd08a958	-0.033364624
117	0xbd57f360	-0.052722335
118	0x3e68d1da	0.22736302
119	0x3ae2f900	0.001731664
120	0xbe7873de	-0.2426295
121	0x3e2744d6	0.16334853
122	0x3e1f773e	0.15572831
123	0x3d8c5f9c	0.068541735
124	0xbd0c1e48	-0.034208566
125	0xbe1d412a	-0.1535689
126	0xbdadeb30	-0.08492124
127	0xbd9d28c4	-0.07673791
128	0xbe1e5a6c	-0.1546418
129	0xbe443ac8	-0.19163048
130	0xbe209802	-0.15682986
131	0x3d5b3878	0.05352065
132	0xbd362890	-0.044472277
133	0x3e6f93be	0.23396203
134	0xbdc57314	-0.0964109
135	0xbdc7a868	-0.09748918
136	0x3d989814	0.074508816
137	0x3e280172	0.16406801
138	0x3e0c03e8	0.13673365
139	0xbe72fe56	-0.23729834
140	0xbd063db8	-0.032773703
141	0xbdc0ec7c	-0.09420106
142	0x3cc9c030	0.024627775
143	0x3d935de8	0.071956456
144	0xbb96b000	-0.0045986176
145	0xbd361fa8	-0.044463784
146	0x3d56ae60	0.05241239
147	0x3d8003dc	0.06250736
148	0xbd754e98	-0.059889406
149	0x3e3a6ad8	0.1820482
150	0x3e248efe	0.16070172
151	0x3da913ec	0.08255753
152	0xbe50716c	-0.20355767
153	0xbe38be1c	-0.18041271
154	0x3de84d38	0.11342853
155	0xbb4fa280	-0.003168255
156	0xbdbb0c68	-0.09133226
157	0xbe0df0b8	-0.13861358
158	0xbdaa78fc	-0.08323857
159	0x3d3bd310	0.04585558
160	0xbe4b03ec	-0.19825715
161	0x3e512a44	0.2042628
162	0x3e1195ee	0.1421735
163	0xbe5214b2	-0.20515707
164	0xbccfef50	-0.025382668
165	0x3e3da100	0.18518448
166	0xbe1dd838	-0.15414512
167	0xbe486858	-0.19571054
168	0x3e269878	0.162691
169	0xbe3f1b16	-0.18662676
170	0x3e099b16	0.13438067
171	0xbd19a440	-0.037510157
172	0x3d070fa0	0.032973886
173	0x3d82ccb4	0.063867
174	0xbe40de52	-0.18834808
175	0xbe6b6ea0	-0.22991419
176	0xbc9311a0	-0.01795274
177	0xbe465a44	-0.19370371
178	0x3d48ae40	0.048994303
179	0x3d305430	0.043049037
180	0x3deb02f0	0.1147517
181	0xbe159148	-0.14606202
182	0x3da402b4	0.08008328
183	0x3da44568	0.08021051
184	0x3e3fc0bc	0.18725866
185	0x3e0fe89a	0.14053574
186	0x3d86550c	0.0655919
187	0xbd6902b0	-0.05688733
188	0xbe58bdfc	-0.21166223
189	0x3e4402ee	0.19141743
190	0x3d302368	0.043002516
191	0x3e52621e	0.20545241
192	0x3dffbcb4	0.12487164
193	0x3e2aab52	0.16666916
194	0xbe766104	-0.24060446
195	0x3e159338	0.14606941
196	0x3d877410	0.06613934
197	0xbdd970b0	-0.106171966
198	0xbd32a7a0	-0.04361689
199	0xbdbfa3a4	-0.09357384
200	0x3d11a860	0.035560966
201	0xbdb4d630	-0.088299155
202	0x3d417d88	0.047238857
203	0x3de4d7f0	0.11173999
204	0x3dfd04f8	0.12354463
205	0xbd342790	-0.043983042
206	0xbe7e5e1c	-0.24840587
207	0xbdf4c168	-0.11950952
208	0xbe0c1c20	-0.13682604
209	0x3d265da0	0.04061663
210	0xbe4e95e4	-0.20174366
211	0x3e13bca2	0.14427426
212	0xbe157532	-0.14595488
213	0xbe0ffd54	-0.14061481
214	0x3cc5f1c0	0.024163127
215	0x3df1764c	0.117901415
216	0x3e4f77ca	0.2026054
217	0x3db6b690	0.0892154
218	0xbd933d60	-0.07189441
219	0xbe2bb1f8	-0.16767108
220	0x3e794a62	0.24344781
221	0xbe0c938a	-0.13728157
222	0xbd9899c0	-0.074512005
223	0xbe1b8a2c	-0.15189427
224	0xbe618948	-0.22025025
225	0xbe5d4d5a	-0.21611539
226	0xbd4afe08	-0.04955867
227	0xbd800c1c	-0.0625231
228	0x3de4c2cc	0.11169967
229	0x3c092c20	0.008372337
230	0x3e15b568	0.14619982
231	0xbc1f6760	-0.009729236
232	0x3daa57e8	0.08317548
233	0xbc4f6220	-0.012657672
234	0xbbc7c180	-0.006096065
235	0xbce53b40	-0.027982354
236	0xbe5075da	-0.20357457
237	0xbe346af6	-0.17618927
238	0x3e24981a	0.16073647
239	0xbe3a4cb6	-0.18193325
240	0xbe62a018	-0.22131383
241	0x3e13ac7a	0.14421263
242	0x3e3f61c4	0.18689638
243	0xbe4c44c8	-0.19948113
244	0xbe5257cc	-0.20541304
245	0xbdacb4bc	-0.0843291
246	0x3cbe3d80	0.023222685
247	0x3e267bac	0.16258115
248	0xbe3b25b0	-0.18276095
249	0x3df8c0b0	0.12146127
250	0xbc7de360	-0.015496105
251	0x3d988de0	0.074489355
252	0xbe22157e	-0.15828511
253	0xbcb744d0	-0.02237168
254	0x3e2f1fb2	0.17101935
255	0xbdf2e8a8	-0.11860782

encoder.blocks.1.skip.bias f4 [32]
0	0x3e532d06	0.20622644
1	0xbdd52438	-0.10407299
2	0xbdb07084	-0.08615211
3	0xbe38368e	-0.17989561
4	0xbe1bb444	-0.15205485
5	0xbe479e6a	-0.19494024
6	0x3ddae984	0.10689071
7	0x3de7eea8	0.11324817
8	0x3e209f7c	0.15685838
9	0x3e10e674	0.14150411
10	0x3e04f81c	0.12985271
11	0xbdddd8c4	-0.108323604
12	0x3e6145f6	0.21999344
13	0x3e68ce30	0.22734904
14	0xbcecf680	-0.028926134
15	0xbe0bce36	-0.13652882
16	0x3d46c2c8	0.0485256
17	0xbe6b096c	-0.22952813
18	0x3e0e810a	0.13916412
19	0xbc133520	-0.008984834
20	0xbd6bc7a0	-0.057563424
21	0x3cbc68e0	0.022999227
22	0x3d9f8290	0.07788575
23	0xbe088e74	-0.13335592
24	0x3e5b2be2	0.21403459
25	0x3e0f22a0	0.13978052
26	0x3e791b8e	0.24326918
27	0xbe00b03c	-0.12567228
28	0x3e0be802	0.13662723
29	0xbe1320aa	-0.14367929
30	0x3e37b712	0.1794093
31	0xbe00d0bc	-0.12579626
