toyshapes/pinets_ensemble/ensemble_13/model_8.pth (torch, 466407 bytes, 71 tensors)

encoder.blocks.0.conv.0.weight f4 [16, 1, 3, 3]
000000 e1 61 1d 3e 70 49 98 3e 54 b3 4d 3e d6 1d 83 bd
       0.15369369 0.29743528 0.2008794 -0.06402175
000010 d7 30 8a bd db 18 89 3c c1 ee 32 3e 58 34 ee be
       -0.06747597 0.016735485 0.1747389 -0.4652431
000020 10 fc d8 bd 78 c0 83 be 6c 80 92 3e d8 3d 52 3e
       -0.10594952 -0.2573278 0.28613603 0.20531404
000030 4f 87 3b be 2c 63 7f be 78 32 9a be dc 12 9f 3e
       -0.18313335 -0.24940175 -0.3011663 0.31069076
000040 3a 43 5b 3e a8 15 08 be 4f d7 8e 3d a7 0b b6 bc
       0.21412364 -0.13289511 0.069746606 -0.022222353
000050 63 47 2b be 00 99 19 3e 14 34 22 be b2 11 80 3e
       -0.1672645 0.14999771 -0.15840179 0.250135
000060 68 9b 90 3e f5 4d 8a be 9e fa e8 3b 01 ed 80 3c
       0.28243566 -0.27012601 0.007109954 0.015738012
000070 2e 74 36 3e e6 6f 13 be 41 c2 c9 bd 3b f5 25 3d
       0.17817757 -0.14398155 -0.09851504 0.040517073
000080 a3 28 8e be f3 de 98 3d f9 ba 6d be e2 42 c8 3e
       -0.27765378 0.07464399 -0.23215856 0.39113528
000090 53 0e 66 bd f4 35 70 3e 66 b6 a1 be 9c 1e e2 bd
       -0.056166004 0.23458081 -0.3158447 -0.110409945
0000a0 03 6a 07 3e 6c b3 02 3e 59 33 db 3d 4c 7b a6 be
       0.13224034 0.12763757 0.10703153 -0.32515943
0000b0 03 e9 27 3e 9a 36 95 3e ba 0a 32 3d 97 6e 02 3e
       0.1639748 0.2914322 0.04346726 0.12737499
0000c0 e2 e2 70 3d 93 af c3 3e da ea 49 3e 3c 5a 9d 3e
       0.058810122 0.3821989 0.19718495 0.30732906
0000d0 0d 98 1a 3c 4b ae 68 3e 89 9c 46 bd 80 bd 29 3e
       0.009435666 0.22722737 -0.048489127 0.16576195
0000e0 68 48 ab be 63 b2 e0 3d d3 9d 13 be 08 0f 82 be
       -0.3345368 0.109715246 -0.14415674 -0.25402093
0000f0 36 ad 05 3e 79 94 e3 bb a2 9d a2 be e5 9c 36 be
       0.13054356 -0.0069451896 -0.3176089 -0.17833288
000100 ad 19 29 3e 09 2d 7a be c8 97 8a 3c 7b cc c1 3e
       0.16513701 -0.24431242 0.016918078 0.3785132
000110 93 2a ab bd 43 f8 75 be 07 10 44 3e aa 48 f3 3d
       -0.0835773 -0.24020486 0.19146739 0.11879094
000120 ad 57 82 3e 23 d7 79 be 10 45 2b be 48 f4 5d 3b
       0.25457516 -0.24398474 -0.16725564 0.0033867527
000130 98 7b 72 be ce 99 b8 3d fd 22 61 bd b7 ac 81 3e
       -0.2367996 0.09013711 -0.054965008 0.25327083
000140 67 e5 19 3e 81 96 9b be 24 ee b0 3c cd 1c a9 bd
       0.15028916 -0.30388263 0.02159793 -0.082574464
000150 26 d5 07 3e b8 f6 83 3e 1e f3 18 be ff ff a9 3c
       0.13264903 0.2577417 -0.14936492 0.020751951
000160 83 f8 a0 3d 50 7a 9e 3e ed 9d ed bd 4d 6f b3 3e
       0.078599 0.30952692 -0.116023876 0.35045853
000170 a0 94 9a be 48 03 ad 3e 0d 7d d2 bd b8 81 90 3e
       -0.30191517 0.33791566 -0.10277758 0.28223968
000180 e5 69 31 3e 7b 85 a9 be 4e 81 59 be b3 1c 65 3e
       0.17325552 -0.3310965 -0.21240732 0.22374229
000190 9a d0 82 be 63 97 c8 3d c8 b3 11 3d a7 3f 86 be
       -0.25549775 0.097945 0.035571843 -0.26220438
0001a0 d3 94 74 be 10 09 69 3e 16 84 d2 3d c7 c3 96 bb
       -0.23884897 0.22757363 0.102791 -0.004600975
0001b0 09 6b c3 bd a6 35 bf be 57 a8 91 3e f3 68 c4 bd
       -0.095419 -0.37345618 0.28448746 -0.0959033
0001c0 21 86 97 bd 32 f1 06 3e 71 1d 23 3e e2 51 50 3d
       -0.0739863 0.13177946 0.159292 0.05085934
0001d0 c8 14 e0 3d e1 cd 20 3e 32 9a b8 3e 60 4f c3 3d
       0.10941464 0.15703537 0.36055142 0.09536624
0001e0 6d 52 05 be f1 2e c4 3e e4 44 42 be 3d e7 53 3e
       -0.13019724 0.38317063 -0.18971592 0.20693679
0001f0 39 de 82 3c ba 9e 82 be f3 94 62 3d a4 db 28 3e
       0.015975105 -0.25511724 0.05531783 0.16490036
000200 dd 8e 5c be 75 5c 9c bc 2d d8 57 bd cd da 33 3e
       -0.21538873 -0.019087056 -0.052696396 0.17563935
000210 2f d7 bf bd 29 7f 15 bb c4 42 9f 3d 00 9e a9 bc
       -0.09367215 -0.002281139 0.077764064 -0.020705223
000220 95 4d 60 3d 8f cd a6 bd 5d bc f9 3d 8b 8b 9b be
       0.054761488 -0.08144676 0.121941306 -0.303799
000230 35 2b 8b 3d 7b d0 9c 3e fa e5 92 3d 34 08 6e 3d
       0.067953505 0.30627808 0.07172771 0.05811329

encoder.blocks.0.conv.0.bias f4 [16]
000000 f5 b6 66 bc ee a9 24 be 26 2e 95 bc 7b dd 09 3e
       -0.014081706 -0.16080448 -0.018210482 0.13463394
000010 32 da 1b 3d af 75 68 be 1a 3c 0e be 7a ce f3 bd
       0.038049884 -0.22701143 -0.13890114 -0.11904617
000020 bb 54 a9 3e 1e e6 6f be 32 1f 25 3e de b9 59 be
       0.33072457 -0.23427626 0.16125181 -0.21262309
000030 c0 7d 5b bd 8f 4d c7 be 31 34 ba 3d 88 4e c1 be
       -0.05358672 -0.3892636 0.09091986 -0.37755227

encoder.blocks.0.conv.1.weight f4 [16]
000000 5b cc 84 3f 85 ef 83 3f 01 99 5a 3f ab 43 9a 3f
       1.0374864 1.030747 0.85389715 1.2051901
000010 70 fd 8f 3f f9 65 5c 3f 6c ab 65 3f bc 0b 6b 3f
       1.1249218 0.860931 0.89714694 0.9181478
000020 f3 44 7c 3f 86 24 80 3f 36 d4 82 3f ca 2b 5e 3f
       0.9854271 1.0011146 1.0221012 0.86785567
000030 d2 4c 6e 3f cd b1 6f 3f 15 18 71 3f 21 2a 7f 3f
       0.9308597 0.9363068 0.9417737 0.9967366

encoder.blocks.0.conv.1.bias f4 [16]
000000 10 bd 3f be a0 7a cc bd 89 95 cb bc d8 04 27 3e
       -0.18724465 -0.09984326 -0.024851577 0.16310441
000010 ed d1 a0 3d 80 70 80 be 08 36 fe bd 8c 37 0c bd
       0.0785254 -0.2508583 -0.124126494 -0.03423266
000020 01 eb a3 bc 44 c3 83 3c ce 53 9b bd 86 c4 89 bd
       -0.02000952 0.01608432 -0.07584344 -0.06726937
000030 b5 3a 13 bd aa e1 52 be 49 53 66 bd 58 c1 50 bd
       -0.03594466 -0.20593897 -0.05623177 -0.050965637

encoder.blocks.0.conv.1.running_mean f4 [16]
000000 e1 55 70 3d de 9b 55 be c5 dd 2b 3d 4e a5 c7 3d
       0.05867565 -0.2086024 0.041959543 0.09748326
000010 9c 44 c2 3c 79 bd 0d 3f 4e fa fe be 9d 01 8c bd
       0.023714356 0.5536724 -0.49800342 -0.06836245
000020 3e cb b4 3e 8e ca c8 bd a0 b6 3d 3e 2d dd 6e be
       0.3531131 -0.09804259 0.18526697 -0.2332656
000030 e6 16 b5 bb 76 e8 82 bd eb e9 00 3e bc b6 8b be
       -0.0055264113 -0.06391995 0.12589233 -0.27287853

encoder.blocks.0.conv.1.running_var f4 [16]
000000 b2 08 e8 3b 53 59 78 3b 0a 26 43 3b c2 4f b7 3a
       0.0070811147 0.0037895038 0.0029777312 0.0013985562
000010 7b 10 41 3a 69 56 cf 3d 84 90 e8 3c ef 22 80 3b
       0.00073648215 0.10123903 0.028389223 0.0039104144
000020 b9 2e 1a 3b 5c 9d d9 3b bf d7 8e 3b 54 7a 89 3b
       0.0023526384 0.006641073 0.004359215 0.004195491
000030 e0 8c 8a 3b 61 65 be 3c 05 a3 1b 3a 8b ef 92 3b
       0.0042282194 0.0232417 0.00059370726 0.004484122

encoder.blocks.0.conv.3.weight f4 [16, 16, 3, 3]
000000 87 a7 bb bd d6 4a ce bd 2d 90 2a be e6 e4 b1 bd
       -0.09162813 -0.100728676 -0.16656561 -0.08686237
000010 42 e3 0d bc a9 25 88 bd a7 a3 a4 3c 14 57 95 bb
       -0.0086601395 -0.06647808 0.020097567 -0.0045574997
000020 d1 31 01 3b 43 b0 0e bd 43 7f ac 3c 2d 71 00 bb
       0.001971353 -0.034836065 0.021056777 -0.0019598708
000030 15 26 02 3c ba 4b 8f bd 17 6b 94 bd 0d 1c 30 3d
       0.00794365 -0.069968656 -0.07246988 0.0429955
000040 70 7f 22 be 87 77 d9 3d 86 24 29 bc 99 e4 a8 3d
       -0.15868926 0.10618501 -0.010323649 0.082467265
000050 6b ff ab 3d 46 f6 36 3d f5 27 d3 3d c8 54 8f bd
       0.083983265 0.04466846 0.103103556 -0.069985926
000060 b1 9e a3 3d e0 1b 8a 3d 80 b9 09 bd 05 01 e6 bd
       0.07989252 0.06743598 -0.033624172 -0.11230663
000070 a3 77 43 3e bc ed 12 be 0f d7 4d be 31 5d 58 3d
       0.19088607 -0.14348501 -0.2010157 0.05282325
000080 b7 b4 59 be eb b0 12 3e 1d 87 cc bd 3b d1 73 3e
       -0.21260343 0.14325301 -0.09986708 0.23810284
000090 be 8e 8d be d9 9f b5 3e 77 87 13 be c2 7a 3f bd
       -0.27647966 0.35473517 -0.14407144 -0.04674793
0000a0 e0 6a 55 3e 3d 99 22 be 3d b8 b4 3d 72 df 04 bd
       0.20841551 -0.15878768 0.08824203 -0.032439657
0000b0 5d 52 9a 3e 14 6d 97 bb 00 e6 ba bc 5b 43 8c 3c
       0.30140963 -0.0046211574 -0.02281475 0.017121961
0000c0 6c a6 95 3d af 02 d5 3d 2a 15 17 bd 6a a5 69 3d
       0.07307133 0.104009025 -0.036885418 0.057042517
0000d0 e7 a2 22 3d 36 bc 6a 3d fb 9c 6c bd a1 40 b0 bd
       0.039706137 0.0573084 -0.057766896 -0.08606077
0000e0 e8 6f ad bd 7d 58 92 3d d2 3c 65 bd 9a 5e 18 3d
       -0.0846861 0.07145784 -0.055966206 0.037199594
0000f0 71 57 e2 bc 5f 0d 84 3c 46 a4 bc bd 2d 92 fe 3c
       -0.027629586 0.016119657 -0.0921102 0.031075561
000100 88 86 21 3d da c5 27 bd 02 4e b6 bc 4c 6f 17 3d
       0.03943494 -0.04096017 -0.022253994 0.036971375
000110 cb 0d 5f bd 6d 3b 03 bd 1a ef 2e ba 98 ea d2 bb
       -0.054456513 -0.032039095 -0.0006673202 -0.006436657
000120 d8 4d c3 3d 50 49 74 3d 6d 96 b8 3d f5 6f fa 3d
       0.09536332 0.05964023 0.090130664 0.12228385
000130 7e 6f 6d ba 6d 21 98 bc d9 05 82 3d 9c e4 0a 3e
       -0.0009057446 -0.018570626 0.063487716 0.1356377
000140 7e 12 9f bd d6 cd d9 bd 58 0c f5 3d 69 8e 10 be
       -0.07767199 -0.10634963 0.11965245 -0.14116825
000150 18 b3 80 bd c6 41 14 3e be b1 97 bd 42 af a8 3d
       -0.062841594 0.14478216 -0.074069485 0.08236553
000160 48 03 aa bd 0d 3a 3b 3e 32 f7 99 bc 0c 20 ad 3d
       -0.08301407 0.18283863 -0.01879463 0.08453378
000170 bf 2c 10 be b9 6a fb bd 56 9c fa 3c d5 2e 0b be
       -0.1407957 -0.12276215 0.030592125 -0.13592084
000180 59 66 9e 3b 6b ab 62 3d df 91 a3 bd 2b 61 2e 3d
       0.004833978 0.05533926 -0.07986807 0.042573135
000190 18 6e 87 bd 67 5c 4d bc e6 d0 0c 3e ec 29 13 bd
       -0.066127956 -0.0125342375 0.13751563 -0.03592865
0001a0 6d 18 00 3e 33 8d c8 3c 97 30 48 3e f8 61 69 3d
       0.12509318 0.024481392 0.19549786 0.056978196
0001b0 b1 37 ef 3b 8a b2 fb 3d 6c 6b 1c 3d fe 57 da bd
       0.00730034 0.12289913 0.038188383 -0.106613144
0001c0 0f 64 e5 3d 8b 6d 80 bd a6 c4 a7 3b 36 65 8b 3d
       0.11200725 -0.06270894 0.005119878 0.06806414
0001d0 e5 31 91 bd 47 8e 5f bd 15 02 3a 3d c9 73 04 3d
       -0.07089595 -0.054579046 0.04541214 0.032336984
0001e0 23 22 fc 3c 23 64 70 bb 10 7c 0f 3d 1b ea e8 3d
       0.030777996 -0.003668078 0.035030425 0.11372777
0001f0 0b 83 6e 3d da 73 08 3e 9c c3 b6 bd 5d b9 17 3d
       0.05823044 0.13325444 -0.08924028 0.03704201
000200 d2 69 0c be 75 23 c8 bd 9c b4 9a 3d c5 76 a6 bd
       -0.13712242 -0.09772388 0.0755398 -0.08128122
000210 95 23 a9 bd ac e5 48 be 9c d8 29 be 82 63 1b 3d
       -0.0825874 -0.19618863 -0.16586536 0.037936695
000220 29 8b f9 bb 0f de d2 bd ef 52 15 bd 67 ff 03 3e
       -0.007615466 -0.102962606 -0.036456045 0.12890397
000230 f2 62 93 bc c7 dc b8 bd 58 7b 99 ba 4f 0d 74 bc
       -0.017991517 -0.09026485 -0.0011709733 -0.014895751
000240 ac 24 c7 3d 9a 77 04 3d e2 e9 7e 3d c2 78 d1 3c
       0.097237915 0.032340623 0.062234767 0.025570277
000250 21 5e 91 3d fa be 96 3d c8 98 34 3d 64 61 cc 3d
       0.07098032 0.07360645 0.044091016 0.09979513
000260 0f 60 ed 3c df 22 7c 3e 5e a8 2f 3e da 47 12 3e
       0.028976468 0.24622677 0.1715407 0.14285222
000270 4e 23 40 3d a8 23 88 3e 29 fb 21 3e 92 ee 8f bb
       0.04690867 0.26589704 0.15818466 -0.0043924535
000280 6a ad 9f 3c c8 53 4b 3e 84 39 ad 3d 03 13 d8 3d
       0.01949187 0.19856179 0.08458236 0.10550501
000290 59 39 61 bd b1 c8 9e bc 7c f1 8d 3d 68 79 d7 3d
       -0.05498633 -0.019382806 0.06930825 0.10521203
0002a0 a7 ff 12 bd 61 05 c9 3c b1 7b 32 bd d0 a4 8c 3a
       -0.03588834 0.024538698 -0.043574993 0.001073027
0002b0 99 2e 8d 3e 94 7b 62 3d 33 37 e7 3d af 37 96 3d
       0.27574614 0.055293635 0.11289825 0.073348396
0002c0 be 88 43 3e 7b c6 35 3e cb 60 86 3d b4 84 17 3c
       0.19095132 0.17751496 0.065614305 0.0092479475
0002d0 3e ad 5f 3e b4 98 0e 3e 05 fb a2 bd b3 f4 1f bd
       0.2184343 0.13925439 -0.079580344 -0.039051723
0002e0 14 7b 79 3e 5a 13 16 3e b5 d3 5a 3e 9a a9 08 bd
       0.24363357 0.1465582 0.21369822 -0.03336487
0002f0 d4 0d dd 3d 80 4b 30 3b a3 57 de 3d bf 6e 01 3d
       0.10793653 0.002690047 0.10856559 0.031599756
000300 7d 55 8a bc c7 80 00 bc 04 9c fa 3d 1d 58 a5 3d
       -0.016886467 -0.007843203 0.12236789 0.08073447
000310 97 b7 de 3b b9 fc 9a 3d 5b 5e 38 3d eb 4f 14 bc
       0.006796788 0.07567734 0.04501186 -0.009052257
000320 cf 19 da 3d 2c b9 0e 3e bd ca 86 bc 30 8b 0e 3d
       0.10649454 0.13937825 -0.016454095 0.03480071
000330 1f 5b 50 bc 0b 8a ab 3d 7b eb a4 3d 3c 54 76 bd
       -0.012717037 0.08375939 0.08052727 -0.060138926
000340 e4 ce 2a bd f0 17 57 3d 70 b1 b7 bd ae 03 d6 3d
       -0.041701213 0.052513063 -0.089693904 0.104499206
000350 de bb 03 3d 59 16 67 3d d3 c1 13 3e 08 dc b4 3c
       0.032161586 0.056417797 0.14429407 0.022077575
000360 af 1b f2 3d 83 5f ce 3d d6 04 a2 3c 34 aa 87 3c
       0.118216865 0.10076811 0.019777697 0.016560651
000370 c8 c9 88 3d ea 7c 05 3e 71 17 b7 3c bb 17 14 3e
       0.06679112 0.13035932 0.022350045 0.14462177
000380 47 28 74 bd 2a f0 b7 bd 21 e9 8d 3d e3 c8 af 3d
       -0.059608724 -0.089813545 0.069292314 0.08583238
000390 31 0b b0 bd 08 c8 9a 3d 78 20 c2 3d ae e8 50 3d
       -0.085958846 0.07557684 0.09478849 0.05100315
0003a0 75 01 3d 3e c0 97 b0 3d 43 ca e1 3d ee 9d d1 bc
       0.18457587 0.08622694 0.110249065 -0.025588002
0003b0 c8 4f 0a bc 34 38 76 bc 78 cb fd bb c8 4c 0a 3e
       -0.008441873 -0.015028048 -0.0077452026 0.13505852
0003c0 6f b2 1d 3e 17 33 77 bd bf 3b 7c 3d 27 bd 11 3e
       0.15400098 -0.060351457 0.061580416 0.14232312
0003d0 c9 e9 2a 3e 1f 11 e7 3c 9b 99 6e 3d 84 7b 8a 3d
       0.16690744 0.028206406 0.05825196 0.0676184
0003e0 0f 32 12 3e 07 6e ab 3d b4 c6 9f 3d 30 15 26 3e
       0.14276908 0.083705954 0.078015715 0.1621902
0003f0 ca bd 20 be 2d 3d 74 3d d4 51 b7 bc 3e 01 cb 3c
       -0.15697399 0.059628654 -0.022377886 0.024780866

encoder.blocks.0.conv.3.bias f4 [16]
000000 e5 e0 92 3d 97 c4 f4 3d 66 5f b5 3d 75 d9 2c bd
       0.071718015 0.11951559 0.088560864 -0.04219957
000010 09 b6 c8 3d c2 b5 cc 3d db 6b 97 ba 48 86 dd 3b
       0.098003455 0.09995605 -0.0011552529 0.0067603923
000020 a3 df e5 3d ae 26 bb 3d 2e 3a 10 bd fe 78 42 bc
       0.11224296 0.09138237 -0.035211734 -0.011869667
000030 84 78 68 bd 49 f1 7d ba 5b 91 91 3d 0a 96 19 bd
       -0.056755558 -0.00096871384 0.071078025 -0.037496604

encoder.blocks.0.conv.4.weight f4 [16]
000000 4b 22 8d 3f 85 d9 60 3f 29 12 7f 3f 98 98 6d 3f
       1.102609 0.8783191 0.99637085 0.92810965
000010 98 fa 7c 3f 6d 89 7a 3f f9 22 88 3f 63 74 74 3f
       0.98819876 0.97865945 1.0635673 0.9549009
000020 7f f8 6b 3f 2e 33 66 3f d5 43 83 3f 81 f5 7d 3f
       0.9217605 0.89921844 1.0255076 0.99202734
000030 af 6d 58 3f 77 00 80 3f 69 98 6c 3f 98 80 6e 3f
       0.84542364 1.0000142 0.9242006 0.9316497

encoder.blocks.0.conv.4.bias f4 [16]
000000 6d 5a 37 bd f3 d0 38 be d5 c5 8a bd da 87 04 bd
       -0.04476397 -0.18048458 -0.06776015 -0.03235612
000010 71 8e 39 bd 7e 32 59 bb 04 68 f0 bd 4f 40 b1 3d
       -0.04530186 -0.0033141668 -0.117385894 0.08654844
000020 d3 1f 08 3e db 0a 33 bb bf 47 b9 3d 31 b5 d3 3c
       0.1329339 -0.0027319703 0.090468876 0.025843235
000030 1a de 78 bc e6 fc 3f bd 48 b5 60 3d 9a cf bd bd
       -0.015189672 -0.046872042 0.054860383 -0.092681125

encoder.blocks.0.conv.4.running_mean f4 [16]
000000 51 d7 cd 3d 07 58 1d 40 e6 f1 81 3e d9 60 b8 bf
       0.10050834 2.4584978 0.25379866 -1.4404556
000010 ba 74 01 3f c6 9a 04 40 ab f2 ba be 32 f2 a3 bd
       0.50568736 2.0719466 -0.36513266 -0.080051795
000020 76 77 19 bf 32 29 09 c0 51 e4 32 bf 6a 17 88 bf
       -0.5994791 -2.1431394 -0.69879633 -1.0632145
000030 a1 b3 ca be 24 c6 07 40 26 e2 92 3f ab 36 af 3f
       -0.3959017 2.1214685 1.1475265 1.3688558

encoder.blocks.0.conv.4.running_var f4 [16]
000000 b3 55 63 3f f1 72 84 40 1d ed e9 3f 05 4e 52 40
       0.8880264 4.139031 1.8275486 3.286012
000010 a9 2e b1 3f 78 dd 96 40 8b 9c 91 3f 37 f6 05 40
       1.3842365 4.7145348 1.1375898 2.0931528
000020 73 cb 68 40 1f 9b 8c 40 da b2 9a 3f 73 e6 da 3f
       3.6374176 4.3939357 1.2085831 1.7101578
000030 69 d0 bf 3f d3 60 6b 40 a4 32 c9 3f ae ba 30 40
       1.4985477 3.6777847 1.5718579 2.761394

encoder.blocks.0.skip.weight f4 [16, 1, 1, 1]
000000 e0 f0 9f bd 58 d0 5a be 0c e8 70 3f 54 92 2a 3f
       -0.07809615 -0.2136854 0.94104075 0.6662953
000010 be 8a 73 3f d6 46 4e bf 38 fd c8 be a0 30 31 be
       0.9513358 -0.8057684 -0.3925569 -0.17303705
000020 c0 ef 5a bf 40 f6 69 bd 60 25 b9 3d 0c 9b 7a 3f
       -0.8552208 -0.057119608 0.09040332 0.9789283
000030 f0 d2 c3 3d 84 b3 db be 00 7e c6 3e dc 22 05 3f
       0.095617175 -0.42910397 0.38768005 0.52006316

encoder.blocks.0.skip.bias f4 [16]
000000 4c bf c6 3e 3c 1a 05 3f 70 80 3b 3e 58 b1 fc be
       0.38817823 0.51993155 0.18310714 -0.49354053
000010 6e 24 5d bf 18 82 c4 be 5e f6 5f 3f 7c fe 02 3f
       -0.8638371 -0.38380504 0.874853 0.5116956
000020 94 ba de be aa bd 34 bf 18 85 a8 be 40 c1 27 3f
       -0.43501723 -0.70601904 -0.32914042 0.6552925
000030 d8 68 7e be 1c 38 0f 3f 90 35 96 bd 20 98 4e bf
       -0.24844682 0.5594499 -0.07334435 -0.80700874

encoder.blocks.1.conv.0.weight f4 [32, 16, 3, 3]
000000 0c b9 b2 bc 76 1c 94 bd 69 c7 5c be 58 55 6d be
       -0.021816753 -0.07231991 -0.21560444 -0.23177087
000010 29 c0 58 be 9a 52 8c be c0 e6 f2 bd 21 6e 06 be
       -0.21167053 -0.2740677 -0.11860418 -0.13127948
000020 db 9a 4f be a2 37 56 bd 15 db 17 be cc 88 15 bb
       -0.20273916 -0.05229915 -0.14829667 -0.0022817133
000030 56 ce 36 be 4e d3 49 bd db 1a 49 bd a0 7c 20 be
       -0.17852148 -0.04927378 -0.049097877 -0.1567254
000040 3a 1a 02 bd 5b ae c4 bd f1 4e 9f 3d 76 0c ae 3d
       -0.031763293 -0.09603568 0.07778729 0.084984705
000050 cf 34 60 3d 4f ff 57 3d 95 cb 71 bc be 45 4d 3c
       0.054737862 0.052733716 -0.01475801 0.012528835
000060 fe 88 8b bd 04 b0 61 3c 3a a4 d3 3c e6 8c 95 3c
       -0.068132386 0.013774876 0.025835145 0.018255662
000070 60 27 b5 3d 36 6d f0 3d fd 8d cd 3d 8b 33 56 3d
       0.08845401 0.1173958 0.10036848 0.05229525
000080 b4 cc 89 3c ad 2a 3f 3c 25 ce 82 3d 3d 0d 30 bd
       0.016821243 0.01166789 0.06386975 -0.042981375
000090 e3 08 1d bd 78 98 39 be 6c 47 43 bd a0 6d 41 bd
       -0.038338553 -0.18124568 -0.047675535 -0.047223687
0000a0 87 97 b3 bd d3 48 28 be f7 22 97 bd 73 f4 01 be
       -0.08769136 -0.1643403 -0.07379716 -0.12690906
0000b0 21 18 2c be 03 b7 e2 bd 14 8b c9 bd 7a 8b 1d be
       -0.1680608 -0.11070063 -0.0984098 -0.15385237
0000c0 10 88 8e bb 47 40 9a bb b2 32 0a bd 9d 51 1a bc
       -0.004349716 -0.0047073695 -0.033739753 -0.009418872
0000d0 5a 44 16 bd d3 f3 ea bd cb 19 bd bd a0 64 89 bd
       -0.03668628 -0.11472287 -0.09233435 -0.06708646
0000e0 e9 d6 d2 bd 02 d1 16 be 60 bf 26 be 08 57 2c bd
       -0.10294897 -0.14728168 -0.16283941 -0.042075187
0000f0 44 11 33 be 1c d7 87 bd ae 70 bb bd 83 b4 bf bd
       -0.17487055 -0.06632826 -0.09152351 -0.09360602
000100 dd 76 12 be 36 34 d1 bd 1b 22 41 be 9c 40 38 be
       -0.14303155 -0.102150366 -0.18860666 -0.17993397
000110 d3 23 d2 bd d2 83 8b bc 49 d7 ca bd 9e cf bc bd
       -0.10260739 -0.01703063 -0.09904344 -0.09219287
000120 cd 18 ea bd 40 8b 6b bd e3 5d ff bd 21 38 a0 bd
       -0.114305116 -0.057505846 -0.12469079 -0.07823206
000130 3a 54 2f be 8d 3f 63 be 84 27 d7 bd 72 f6 20 bd
       -0.17121974 -0.22192211 -0.10505584 -0.03929753
000140 93 4b 37 be 6e 37 3c 3d 08 a1 28 bd 56 3d 9e bb
       -0.17899923 0.0459513 -0.041169196 -0.004829089
000150 ec 97 6c bd 5d 00 c1 3d d8 0c a6 3d 9c b0 85 38
       -0.05776207 0.094238974 0.081079185 6.37483e-05
000160 10 80 31 3d 4f a1 7a 3a 96 94 c6 bd d4 27 93 bc
       0.04333502 0.000956078 -0.09696309 -0.017963327
000170 16 d7 e7 bd 07 0f 11 bc 41 3f 11 be cb 11 c0 bd
       -0.11320321 -0.00885368 -0.14184286 -0.09378394
000180 b9 76 00 be 37 2a 1f bd 63 c8 1b be f1 54 ba bd
       -0.12545289 -0.03885862 -0.1521316 -0.090982325
000190 e3 b5 9b bd 99 e0 e8 bc 90 0d 03 bd 42 be 07 bd
       -0.076030515 -0.028427409 -0.031995356 -0.03314043
0001a0 76 9b af bd 1b 9f ce bd 23 38 76 3c 40 95 83 bc
       -0.08574574 -0.10088941 0.0150280325 -0.016062379
0001b0 d5 62 92 3d cb a9 0e 3e 58 ca 18 3b 59 c5 0b bd
       0.07147757 0.13931958 0.0023313966 -0.034123752
0001c0 7b ae a0 bb 29 e2 d4 3d 1e b4 e0 3d 04 fd 4e 3d
       -0.004903612 0.10394699 0.109718546 0.050534263
0001d0 82 3d 89 3d af 9d 9a bd eb 07 17 bd 33 70 35 bd
       0.06701185 -0.07549607 -0.036872786 -0.044296455
0001e0 59 2b 2b bd 40 a7 5c bd ff 85 a2 bd f8 d5 71 bd
       -0.041789386 -0.05387044 -0.07935714 -0.059041947
0001f0 ed 31 94 bd 8d 1b 27 3d fb d6 ee 3a fa 7c b8 bb
       -0.07236085 0.04079776 0.0018222028 -0.0056301327
000200 ab d4 cd bd 9e a8 0f be f6 53 c7 bd 71 9d ff bd
       -0.10050329 -0.14029166 -0.09732811 -0.124812014
000210 6a db 83 be bd e2 07 be bb b8 d3 bd cb be f3 3c
       -0.25753337 -0.13270088 -0.10337969 0.029754063
000220 89 80 22 be c6 76 71 bc 5e 43 2d bd db c3 e0 bd
       -0.15869345 -0.01473779 -0.042300574 -0.109748565
000230 a1 43 88 bd ca a1 98 bd 18 23 15 be 3c e8 d0 bd
       -0.06653524 -0.07452734 -0.14564168 -0.10200545
000240 04 b7 8a 3d 20 7a 0c 3e 42 b5 6f 3b 2b cc 61 3e
       0.06773189 0.13718462 0.0036576544 0.2205054
000250 03 fb 12 3e 44 17 c5 bc d6 3b 81 3e b6 17 87 3d
       0.14353566 -0.024058945 0.25240964 0.065963194
000260 89 85 fc 3d 29 66 3e bc e7 fd 96 3a 08 ee 13 be
       0.12330157 -0.011621037 0.0011519761 -0.1444627
000270 39 5e 53 3d c5 8c bb bd 61 ff 63 bd 96 0c db bb
       0.05160353 -0.09157709 -0.05566347 -0.00668485
000280 03 d2 6f 3d 3a 4e f0 bd dc df 46 bd 90 d3 b9 bd
       0.058549892 -0.117336705 -0.048553333 -0.090735555
000290 b8 95 8e bd cd fe af bd cc e2 ca 39 a0 b3 d4 bc
       -0.0696215 -0.08593521 0.0003869742 -0.025964558
0002a0 77 31 81 3d a7 7b e6 3c f2 b2 51 3c 14 c1 65 3c
       0.06308263 0.028135134 0.012799012 0.014023084
0002b0 d1 b3 72 bd 45 f9 d8 bd 3e 66 c2 bb 0c 1b 9e bb
       -0.059253518 -0.105944194 -0.0059325984 -0.0048250016
0002c0 31 87 bd 3b 14 50 05 bd 02 94 7a bd 60 c1 4d bd
       0.0057839383 -0.03254707 -0.061176307 -0.050233245
0002d0 46 98 d0 3c 08 0a b2 bd 86 21 19 be 27 b1 f5 3c
       0.025463235 -0.086933196 -0.14954194 0.0299917
0002e0 ed cd a0 bd ed cc dc bd 2c 42 0a 3d c8 17 d9 bb
       -0.07851777 -0.10781274 0.033754513 -0.0066251494
0002f0 e8 06 4a bd 5d 35 9d bd ff 19 0c be 06 1b 2f be
       -0.049322993 -0.07676194 -0.13681792 -0.17100152
000300 93 a0 94 3c 27 45 e8 bd b9 00 09 be b9 75 70 bc
       0.018142974 -0.11341315 -0.13379182 -0.014676505
000310 df 35 96 bd 74 ab 5f be 7e 3a 4b 3d ee 50 be 3d
       -0.07334494 -0.21842748 0.04961633 0.0929278
000320 6f 18 8e 3c f1 4f 99 3e 9e 8d 38 3e e4 e9 00 bc
       0.017345635 0.29943803 0.18022773 -0.007868264
000330 c1 8d b9 3e b8 0a b8 3d e9 e6 cc 3d 71 d1 8b bd
       0.36240962 0.089864194 0.1000498 -0.06827057
000340 91 4d 32 3d db 9d 1f be a3 a5 f1 3d 8b e7 a0 3d
       0.043531004 -0.15587561 0.11799171 0.07856663
000350 fa 31 b6 bd d9 cb 1a 3e 1f db 05 3d 45 cd d8 bd
       -0.08896251 0.15116824 0.032679673 -0.10586027
000360 bf 41 bc bd 76 bf 23 bd ea de 4c be f3 d4 98 bc
       -0.091922276 -0.039977513 -0.2000691 -0.01865623
000370 53 00 f1 3b 8f 9b 08 be 8c 39 f7 3d 48 d9 57 bd
       0.007354775 -0.13340591 0.12071523 -0.05269745
000380 f5 1f 05 be 8e 6b 85 3c 28 03 d9 bd 7b 0e 72 bd
       -0.13000472 0.016286638 -0.10596305 -0.05909584
000390 54 55 a9 3d 13 68 48 3d 6f 0a 19 3c 0e 23 02 3d
       0.08268228 0.048927378 0.0093408665 0.031771712
0003a0 30 48 8d 3c 7a 9f 25 bc 74 f6 d5 bc 06 6d 0b 3e
       0.017246336 -0.010108823 -0.026118495 0.13615808
0003b0 28 16 30 3d b9 64 43 3c c5 98 42 3e bc 2a a0 3b
       0.04298988 0.01192587 0.1900359 0.004887907
0003c0 b3 56 dd bb b3 32 e2 3d b8 9f a8 3d bc 82 ab 3d
       -0.00675472 0.11044826 0.08233589 0.08374545
0003d0 3e 02 ec 3d ba ed 9e 3d a9 9c 87 3d 5e de e9 3d
       0.11523865 0.077601865 0.066216774 0.11419366
0003e0 86 be 59 3d 18 b4 e7 bd de 7c 6a 3d f4 51 78 3d
       0.053160213 -0.11313647 0.05724799 0.06062503
0003f0 98 73 03 3d 38 e9 a5 bd 6a 54 0b be 18 8d a4 3a
       0.03209266 -0.081011236 -0.1360642 0.0012554256

encoder.blocks.1.conv.0.bias f4 [32]
000000 69 5f c8 bc b6 b0 56 bd 49 5d ac 3b 0c 3c bd bd
       -0.024459558 -0.05241462 0.005260144 -0.09239969
000010 44 ea 85 bd 81 7c 00 3d 0a 62 be 3d c7 7c ed bc
       -0.06538823 0.031368736 0.09296043 -0.028990163
000020 4d de b8 bd 72 42 b3 3d 85 08 4e 3d f9 ca 11 3d
       -0.090267755 0.08752908 0.050301094 0.03559396
000030 8c db 12 3d b9 5b 00 bd 95 39 06 3d 70 8e 40 3d
       0.035853907 -0.031337474 0.03276976 0.04701084
000040 58 e3 4c bd 28 da 23 3d d0 57 85 bd b4 82 c9 3d
       -0.0500215 0.040002972 -0.065108895 0.09839383
000050 6e e8 c0 bc c0 f8 bb 3b cf 69 8f bc 97 3f be 3c
       -0.023548331 0.0057364404 -0.017506508 0.023223681
000060 f2 ba d4 3d e9 1d 06 be 76 81 e3 bc 4d f8 81 bd
       0.103872195 -0.13097347 -0.027771693 -0.06346188
000070 ce c4 8b 3c 7c a4 8f 3d cf a4 a8 bc 19 99 73 3d
       0.017061617 0.07013795 -0.0205864 0.059472177

encoder.blocks.1.conv.1.weight f4 [32]
000000 14 58 5f 3f 0e 00 8d 3f b0 77 80 3f 02 64 5a 3f
       0.8724377 1.1015642 1.0036526 0.8530885
000010 09 97 69 3f 46 9e 6d 3f a6 1c 6b 3f 18 d8 7c 3f
       0.91246086 0.9281963 0.9184059 0.9876723
000020 b0 e4 87 3f c3 c5 53 3f 88 f5 64 3f 1b f9 87 3f
       1.0616665 0.82723635 0.8943715 1.0622896
000030 05 af 6e 3f 11 64 70 3f 3c 4a 6b 3f 02 a0 83 3f
       0.9323581 0.9390269 0.9191015 1.0283206
000040 41 89 58 3f e3 b1 50 3f 16 f2 68 3f e2 d2 63 3f
       0.8458443 0.81521434 0.90994394 0.88993657
000050 7f 5d 8e 3f f9 d1 7e 3f 71 45 97 3f 71 9f 8a 3f
       1.1122283 0.9953914 1.1818067 1.0829908
000060 6a 8c 8a 3f 1f 89 6a 3f ee 11 95 3f 03 c9 89 3f
       1.0824101 0.9161548 1.1646097 1.0764469
000070 bd 94 81 3f 59 b3 73 3f 70 7c 95 3f ca 6c 67 3f
       1.0123516 0.9519554 1.16786 0.90400374

encoder.blocks.1.conv.1.bias f4 [32]
000000 9d 2e bf bd 5e 6c 43 3d d7 d5 dd bd b8 ad 9f bd
       -0.09335063 0.04771077 -0.10831802 -0.07796806
000010 1f 4e f3 bc d1 76 29 bd 52 5e d7 bc 9a a6 c1 3b
       -0.029700337 -0.041373078 -0.026290093 0.005909753
000020 d8 cb 9c bd fc 49 22 be df 4f 42 3c 03 11 50 bd
       -0.076560676 -0.15848535 0.011859863 -0.050797474
000030 de d4 87 3c 75 06 0c 3d 56 23 68 3c ac d7 88 3d
       0.016580995 0.034185845 0.014168581 0.06681761
000040 59 0b 44 be 70 ca 60 bd a3 5a 1f bd a5 ae 15 bd
       -0.19144954 -0.05488056 -0.038904797 -0.036543507
000050 06 96 53 bd 07 11 bc 3b 3c 14 d9 3c a4 83 b4 bc
       -0.051656745 0.0057393345 0.026498906 -0.022035427
000060 96 e0 2f 3e a8 48 23 bd 8c bb 44 3d f2 13 0e be
       0.17175516 -0.039864212 0.04803042 -0.13874796
000070 42 ad be bd cd af 52 bd 30 dc c5 bd 3b 14 1e bd
       -0.0931039 -0.051437188 -0.09661138 -0.038593512

encoder.blocks.1.conv.1.running_mean f4 [32]
000000 8f 10 9e c0 01 0f c1 be a3 55 07 bf 0e bb 5f c0
       -4.9395213 -0.3770676 -0.52865046 -3.495792
000010 af 9a 53 c0 c0 65 8b 3f c6 80 93 c0 a8 47 36 40
       -3.3063161 1.0890427 -4.6094694 2.8481236
000020 15 de bb 3f 07 4e f9 be f6 a7 f3 3f 8e d6 2a bf
       1.4677149 -0.48692343 1.9035633 -0.66733634
000030 7c 08 39 40 ca 5b 21 40 c3 ec d1 3f 32 0e 3d 40
       2.8911428 2.5212274 1.6400379 2.9539914
000040 aa df bf 3f df 83 21 bf a1 00 64 c0 b9 98 8b 40
       1.4990132 -0.63091844 -3.5625384 4.362393
000050 0c 61 9f 3e 84 2b 89 c0 4b ef b6 3f 34 67 ce 3f
       0.31128728 -4.286562 1.4291776 1.6125245
000060 d4 ab 90 be 88 98 4a 40 ea 8b d7 3e 81 25 d6 3f
       -0.28256094 3.1655598 0.42098933 1.6730195
000070 2e 8c 19 bf fe b2 77 c0 d7 64 2e bf c5 bc 23 40
       -0.5997952 -3.8702998 -0.6812262 2.5583966

encoder.blocks.1.conv.1.running_var f4 [32]
000000 ab b5 d8 41 28 44 aa 40 02 fc 89 40 ff 8a 70 41
       27.088705 5.32082 4.3120127 15.033935
000010 e4 84 5b 41 9a 89 e5 40 13 cf be 41 35 41 02 41
       13.719944 7.173047 23.85111 8.14092
000020 11 c0 9d 40 26 da 26 40 c6 13 84 40 8e 2b 9e 40
       4.9296956 2.6070647 4.1274137 4.9428167
000030 d7 0e 3d 41 b2 f4 1e 41 ef 79 4a 41 13 0d 03 41
       11.816123 9.93474 12.654769 8.190692
000040 ed d7 84 40 6a 88 49 40 97 3b 77 41 2b f6 89 41
       4.151358 3.148951 15.452048 17.2452
000050 09 46 69 40 60 77 92 41 c1 40 a2 40 70 ac a4 40
       3.6448996 18.308289 5.0704045 5.1460495
000060 ca 60 d3 40 ee bc 3b 41 a7 ea 92 40 e6 ad 7b 40
       6.605565 11.733625 4.591144 3.932489
000070 12 1b 81 40 f9 d5 96 41 ce 79 a4 40 92 f0 fd 40
       4.0345545 18.854479 5.1398687 7.9356165

encoder.blocks.1.conv.3.weight f4 [32, 32, 3, 3]
000000 04 b1 11 be e0 ac 5a bd e0 93 9f bc 47 04 f9 bd
       -0.14227682 -0.053387523 -0.019479692 -0.12159019
000010 f6 58 e7 bd fa e1 fe bd 14 b5 32 be c5 88 ed bd
       -0.11296265 -0.12445445 -0.17451888 -0.11598352
000020 93 fc cd bd f9 ac 75 3d d2 c6 2d 3d 97 ab 9b bc
       -0.1005794 0.059979413 0.042425938 -0.019002719
000030 c3 97 c0 3d d0 7d 8e 3d 91 d9 76 3d 02 18 d1 3c
       0.09403946 0.069575906 0.06026608 0.025524143
000040 ea 1f 81 bd 42 7d 96 3c cd 56 14 3d e8 27 6e 3b
       -0.06304915 0.018370274 0.036215592 0.0036339704
000050 00 ae 59 3d e1 db 5e 3d 39 56 2f 3e 02 1b f7 3d
       0.053144455 0.05440891 0.17122735 0.12065698
000060 bc 3a 94 3d 4d 6b 21 3d fe d8 d4 3d 16 85 3f be
       0.07237765 0.03940897 0.103929505 -0.18703112
000070 2a 2a 59 be 15 78 15 be f4 ff 75 be ea af 3d bd
       -0.2120749 -0.14596589 -0.2402342 -0.046310343
000080 52 c7 6b bd 3c 65 53 be a6 03 5d be 3e 1d 3c be
       -0.057563134 -0.20644087 -0.21583423 -0.1837053
000090 05 b1 d5 3d 72 01 23 3e 76 7d 72 3d 90 cf 26 3d
       0.104341544 0.1591852 0.05920168 0.04072529
0000a0 a2 56 49 3d c5 46 97 3c 61 47 c4 bc 71 82 cf bd
       0.049154885 0.018466363 -0.023959817 -0.101323016
0000b0 6f af d2 bc 3b e4 80 bd 1a eb fe bd cd 78 0f be
       -0.025718419 -0.062935315 -0.12447186 -0.14010926
0000c0 fd a2 d8 bd 49 ba fa bd 3c ec 61 be e7 f7 8b bd
       -0.105779625 -0.12242562 -0.22062773 -0.06834393
0000d0 e6 4f 11 be d7 52 c3 bd fb fd c5 bd 88 6b 6b bb
       -0.14190635 -0.09537285 -0.096675836 -0.0035922248
0000e0 90 05 d3 bb 70 e8 38 be e3 6b ce bd a8 6c 10 be
       -0.006439872 -0.18057418 -0.100791715 -0.14103949
0000f0 22 24 3b be 51 85 5b bd 6a 6f 83 bd 18 83 b8 bc
       -0.18275502 -0.053593937 -0.06417735 -0.022523448
000100 a0 65 d2 bd 69 49 33 be f6 a9 ed 3b b4 7c 9e bd
       -0.1027329 -0.17508473 0.007252927 -0.07738629
000110 3a 51 4b be 92 62 bb 3c 8f e3 09 bd 53 8b 10 be
       -0.19855204 0.02287415 -0.033664282 -0.14115648
000120 26 6f be bc f7 24 08 bd 94 11 93 bd 0a 0a a5 3b
       -0.02324636 -0.033238377 -0.07181087 0.005036597
000130 86 57 6f bd 52 52 e5 3a 1b 1b e6 bd 9b f7 a1 bc
       -0.05843308 0.0017495847 -0.11235639 -0.019771388
000140 af 44 3a 3c 54 10 27 3e 88 c3 82 3d f9 79 26 3d
       0.0113689145 0.16314822 0.06384951 0.040643666
000150 47 db 00 3e 15 92 41 bd 71 08 2b bb a0 37 b3 3d
       0.12583648 -0.047258455 -0.002609756 0.08750844
000160 a7 b9 c6 bd cb 9c fe bd 94 d7 65 b9 4f 39 b1 bd
       -0.09703379 -0.1243225 -0.00021919451 -0.08653509
000170 f9 ab c5 bd 1f 3a 82 bc d2 ca 83 bc b5 98 fd bd
       -0.09651942 -0.015896855 -0.016087923 -0.12382642
000180 2b 76 03 3d 0b ad fa bd f0 66 a9 bd e8 cd a9 3d
       0.032095116 -0.122400366 -0.08271587 0.082912266
000190 36 b9 21 3d 5a 85 cc bc 61 ad 51 3d ca c0 bb 3d
       0.03948327 -0.02496593 0.051190738 0.09167631
0001a0 2b 17 17 3e cb c5 8e bc a9 c8 9a bd 7e 56 49 3c
       0.14754932 -0.0174283 -0.07557804 0.012288688
0001b0 77 f0 43 3b e6 b4 df bd 55 8b 94 bd 1d 9e 2d bd
       0.0029897967 -0.109231755 -0.07253138 -0.042387117
0001c0 22 a2 0d be c3 4b 14 be 60 96 66 3d 4a 86 1d be
       -0.1383138 -0.14482026 0.056295753 -0.15383258
0001d0 42 cf 6d be 4f 15 d8 3d cc 87 b3 3c 55 8e 8d 3c
       -0.23223594 0.10550939 0.021915339 0.017279783
0001e0 89 ed 80 3c 28 0e 87 bd ad 42 35 bd 3d 86 7a 3d
       0.015738266 -0.06594497 -0.04425304 0.061163176
0001f0 2a 6f 7e bd 01 d1 cb bd 6c 92 96 3d 3d 27 0a bb
       -0.062117733 -0.09951974 0.073521465 -0.0021080517
000200 40 f5 22 3c 49 2f dd 3c 10 31 46 3d b5 ea d9 bc
       0.0099461675 0.027000086 0.048386633 -0.026601175
000210 10 b6 a1 3d ac df 98 3d c4 c3 a6 bd 51 af fe 3b
       0.07896054 0.07464537 -0.08142808 0.007772364
000220 3b 83 19 3d 67 0e 96 bc 3a 79 1a 3d 73 c9 a5 bd
       0.037478667 -0.018317414 0.037713267 -0.08095064
000230 8d 26 c9 bd 56 ed 13 3d 62 d7 40 bb 2a 8a 7b bd
       -0.09821806 0.036115013 -0.0029425253 -0.06141106
000240 f0 28 12 3d 03 11 ff 3c da b2 07 bb f8 49 f1 bc
       0.035683572 0.031136042 -0.002070597 -0.029454216
000250 d0 7c c5 3d f6 3c 5f 3d c3 4a 93 bc 5d 7d 7a 3d
       0.09642947 0.054501496 -0.017979985 0.061154712
000260 80 d8 26 3d fb 6c 33 3c c7 e5 3a 3d 4d e8 be 3a
       0.040733814 0.010951276 0.04562929 0.0014565081
000270 de 33 f0 3c d5 b0 1e bd 67 4e 84 bc 99 d2 6f bd
       0.029321607 -0.03874286 -0.016150666 -0.05855045
000280 6e 59 0a bd 05 ae bc 3c f6 71 9f bd 4b 36 46 bb
       -0.033776693 0.023032198 -0.07785408 -0.0030244763
000290 16 99 04 3e 50 59 f8 3c c5 e1 98 3d e4 fa 89 3d
       0.12949023 0.030316025 0.07464937 0.06737307
0002a0 5e 3f 04 3d 9f b2 c7 3c 57 93 55 3d ed 45 11 bc
       0.032286994 0.024377165 0.052142467 -0.008866769
0002b0 48 ad 10 be 42 71 2c be f6 fe d1 bd 30 46 21 be
       -0.14128602 -0.1684008 -0.10253708 -0.1574943
0002c0 a9 2a 07 be 0c 29 8c bd 1a 92 2a be 99 e4 55 be
       -0.13199867 -0.068437666 -0.16657296 -0.20887984
0002d0 7b 26 29 3d 45 3e c0 3d 60 a4 bf 3d 91 94 e0 3d
       0.041296463 0.09386877 0.09357524 0.10965837
0002e0 12 f8 1d 3e 24 c2 49 3e 0f ac 9a 3c f3 27 87 3b
       0.15426663 0.19702965 0.018880872 0.0041246354
0002f0 f8 cb 56 3e 6b da cd 3c ec 76 e5 3d 50 18 d8 3d
       0.20976245 0.025128564 0.11204323 0.10551512
000300 a1 19 78 bd a9 c3 69 bc cc ce 4b 3d 1e 09 83 bc
       -0.060571317 -0.01426784 0.049757764 -0.015995558
000310 ba 7b 6b bd 81 15 a5 bd ed 2b c3 3d 85 c2 ac 3d
       -0.05749104 -0.08060742 0.095298626 0.08435539
000320 7d a6 54 3d 42 66 58 3e 30 c5 c7 3d dd c1 c7 3d
       0.051916588 0.21132758 0.097544074 0.09753773
000330 54 97 f6 3d 3f 76 95 bc 5e 95 bf 3d 78 36 9a 3d
       0.12040582 -0.01824486 0.093546614 0.0752992
000340 6b 44 ba 3d 7a 42 85 3c e3 d8 1b 3e 8d 62 ba 3d
       0.09095081 0.01626705 0.15219454 0.09100828
000350 a5 52 d8 3d 86 13 f9 3d b2 d3 be 3d 12 aa 30 3e
       0.10562638 0.12161927 0.093177214 0.17252377
000360 72 32 40 3d 7b 49 56 3c 7b 20 85 bd 97 f5 b0 3d
       0.04692311 0.013079043 -0.06500336 0.086405925
000370 7d aa 19 bd 10 b4 27 bd 0b 42 92 3d 55 75 e1 bb
       -0.037516106 -0.040943205 0.07141503 -0.006880442
000380 22 ab ec bc 3f ac 9f bc ec f8 88 bd a4 87 de bd
       -0.028890196 -0.019491313 -0.06688103 -0.10865715
000390 23 14 10 3d 02 d4 82 bd be aa 55 be a4 f2 a8 3c
       0.035175454 -0.063880935 -0.20865914 0.020623513
0003a0 c3 c1 da bd 78 04 69 be b4 db 63 3e a8 b6 12 3e
       -0.10681488 -0.22755611 0.22251779 0.1432749
0003b0 53 67 12 3e f4 28 62 3e 60 49 20 3e 2d c5 56 3e
       0.14297228 0.22085935 0.1565299 0.20973654
0003c0 5a 24 2e 3d eb b5 ea 3d 94 34 2d 3e 81 df 85 bd
       0.042515136 0.11460479 0.16914588 -0.065367706
0003d0 e7 4d 8d bd 3b ca b2 bd fd 46 44 bd a7 46 92 3c
       -0.06899624 -0.08729979 -0.047919262 0.017855955
0003e0 fd 9a 91 3d f5 9f 62 bd 67 0b 1a 3b 65 4d 25 3d
       0.0710964 -0.05532833 0.0023505331 0.040357012
0003f0 76 c4 d0 3d 5c 03 dc 3d c0 bf 5d 3d bd d2 fc 3d
       0.10193722 0.10742828 0.054137945 0.12344883

encoder.blocks.1.conv.3.bias f4 [32]
000000 cf 64 69 bb 53 df c3 3c 29 a6 a0 bc 35 40 fb bc
       -0.0035613065 0.0239102 -0.019610481 -0.030670265
000010 c0 b6 8d bd b9 a8 02 ba 10 29 4c 3d 45 30 92 bd
       -0.069196224 -0.0004984248 0.049843848 -0.07138113
000020 51 71 af bd 4e 86 de 3b 4e 9b 94 bd 42 9a 6b bc
       -0.08566535 0.0067909127 -0.072561845 -0.01438004
000030 49 f3 6d bd f2 52 db 3c 24 d4 96 3d e6 b1 f9 3c
       -0.058093343 0.02677295 0.07364681 0.030480336
000040 eb fa 15 bd 6b b6 a7 3c ed 34 97 3c ff 08 8c 3d
       -0.036616247 0.020472726 0.018457854 0.06837653
000050 8d d2 9e bc 7c e9 e6 bb bd 62 95 bb 35 55 85 3d
       -0.019387508 -0.0070468765 -0.0045588897 0.065103926
000060 d8 ab 70 3d f4 5f 95 3d af 8a 96 bc 41 82 17 3c
       0.058757633 0.07293692 -0.018376676 0.009247364
000070 72 e9 bc bd 01 ea 44 3c 62 ba 96 bc ba 8a 04 bd
       -0.09224214 0.0120186815 -0.018399421 -0.032358862

encoder.blocks.1.conv.4.weight f4 [32]
000000 17 c8 6b 3f 9c 9c 6a 3f cf 94 69 3f 3e f5 6c 3f
       0.9210219 0.91645217 0.9124269 0.9256171
000010 c2 e5 82 3f 81 f6 79 3f 5f 35 84 3f a5 18 56 3f
       1.0226367 0.9764176 1.0328788 0.83631355
000020 8a 43 77 3f 25 e2 96 3f 40 a1 65 3f 25 6e 89 3f
       0.9658743 1.1787764 0.8969917 1.0736738
000030 f3 23 8c 3f fc b4 6b 3f c3 5c 6c 3f b1 b7 70 3f
       1.0948471 0.92073035 0.92329043 0.9403029
000040 fa 66 64 3f 35 20 8f 3f a5 10 84 3f a6 fa 8e 3f
       0.8921963 1.1181704 1.031758 1.1170242
000050 95 62 7a 3f d7 2c 4f 3f c8 82 78 3f e5 0f 85 3f
       0.97806674 0.80927795 0.97074556 1.0395476
000060 4c ef 85 3f 8c 85 50 3f 44 34 83 3f 9e 20 78 3f
       1.0463653 0.81453776 1.0250325 0.9692477
000070 5c 03 7b 3f 56 be 70 3f 39 ed 74 3f e0 e1 8d 3f
       0.98052 0.9404043 0.95674473 1.1084557

encoder.blocks.1.conv.4.bias f4 [32]
000000 35 8b 88 bd 6c 29 7b 3d e1 c6 c4 3d 0b 30 37 be
       -0.06667177 0.0613188 0.09608246 -0.1788942
000010 4c 62 86 3d 1d ae ec 3b 92 a1 e8 3d f5 0d 3d be
       0.065617174 0.0072229044 0.11358942 -0.18462355
000020 86 49 21 be f9 b1 5e be 07 0e e3 3d ba 84 18 3e
       -0.15750703 -0.21747579 0.1108666 0.14894381
000030 2b e9 6c be a5 a3 25 be b2 47 26 be c0 27 2c be
       -0.23135822 -0.16175707 -0.16238287 -0.16812038
000040 66 5f 8d 3c 6a b7 18 be c3 fe 26 be d4 d7 dc bd
       0.017257404 -0.14913717 -0.16308121 -0.107833534
000050 7b 7d 01 3e 78 fc 48 be 90 f7 1c be 81 27 12 3e
       0.12645523 -0.19627559 -0.15328813 0.14272882
000060 55 0a a7 3c 1b 33 e9 bd 2b 55 4e be cd 45 e2 3d
       0.020390669 -0.11386701 -0.20149677 0.1104847
000070 93 10 7a 3d 5e 95 f7 3d 72 29 71 3d df 9d 3b be
       0.061050963 0.120890364 0.058877416 -0.18321942

encoder.blocks.1.conv.4.running_mean f4 [32]
000000 f4 ad 23 bf 49 37 81 c0 b6 74 ea 3e 28 5d 50 3f
       -0.63937306 -4.0379987 0.45792168 0.81392145
000010 17 bf a1 c0 c7 c9 ff 3f 52 f9 ad 3f ba 53 3f 40
       -5.0545764 1.9983453 1.3591712 2.9894853
000020 c1 07 67 40 f8 3d b0 3f 2e 35 89 3e b0 66 e0 bf
       3.6098483 1.3768911 0.26798385 -1.7531338
000030 75 ad ae 3f 8b 00 18 3f 23 41 4d 3e e4 da 95 3f
       1.3646685 0.5937583 0.20044379 1.1707425
000040 d7 a0 9a bf 50 d3 45 40 31 ee 36 3e da 12 e4 3f
       -1.2080334 3.0910225 0.178643 1.7818253
000050 40 f9 8f c0 da f2 a9 3f 20 b1 66 40 a0 f9 8b c0
       -4.499176 1.3277237 3.6045609 -4.374222
000060 4d 55 0a 40 92 38 cd 3f 7d 8a 07 40 6a 44 9b c0
       2.1614563 1.6032889 2.1178277 -4.8521013
000070 5d 02 a5 c0 92 2b ad c0 67 99 68 c0 77 9f 2a 40
       -5.1565385 -5.4115686 -3.634363 2.665983

encoder.blocks.1.conv.4.running_var f4 [32]
000000 1e c7 51 41 73 b8 a6 41 f2 d9 f5 41 82 eb 86 41
       13.111113 20.840063 30.731419 16.864994
000010 09 d7 df 41 e9 ff 2f 42 28 5b f8 41 83 cf a0 41
       27.979998 43.999912 31.04451 20.101324
000020 d1 dc a7 41 3c c3 5c 41 9e 34 93 41 ea a4 b1 41
       20.98282 13.797665 18.400692 22.205524
000030 c9 23 43 41 77 55 b9 41 6b ec 90 41 62 8c 90 41
       12.196237 23.16673 18.115438 18.068546
000040 a4 c7 84 41 f5 85 9d 41 84 bc 6c 41 8e eb 8f 41
       16.59748 19.690409 14.796024 17.990017
000050 46 27 b6 41 35 65 89 41 94 c3 cd 41 f2 c5 9f 41
       22.769176 17.174417 25.720497 19.971653
000060 c1 d8 2b 42 96 29 8a 41 90 66 98 41 34 03 f1 41
       42.961674 17.270306 19.05008 30.126564
000070 16 ec e4 41 61 39 dd 41 92 1c 5c 41 0a c9 bc 41
       28.615276 27.653017 13.756975 23.598164

encoder.blocks.1.skip.weight f4 [32, 16, 1, 1]
000000 74 e2 d1 3d b6 af 00 be c0 1a f7 bb 3c 62 f0 3d
       0.10248271 -0.12567028 -0.0075410306 0.11737487
000010 30 3f 88 bc 6c ec 21 3e b4 e2 89 bd 94 34 d3 bd
       -0.016631693 0.15812844 -0.06732693 -0.10312763
000020 e6 cb 26 3e 74 65 4f be 70 28 ac bc b0 50 9c bd
       0.16288719 -0.20253545 -0.021015376 -0.076325774
000030 88 fa 57 be 08 08 2e bd 58 42 38 3e 78 30 6b 3e
       -0.21091664 -0.042488128 0.17994058 0.22967708
000040 f0 25 42 3e 00 aa 2d be 40 6f f0 bd 70 5a db 3d
       0.18959785 -0.16959381 -0.11739969 0.10710609
000050 14 f7 af bd b0 cc a6 bd 2e 33 34 be 36 71 3b 3e
       -0.08592048 -0.0814451 -0.17597649 0.18304905
000060 f0 7b 96 bd c4 78 8e 3d 42 b6 43 3e 58 0a 3d be
       -0.07347858 0.06956628 0.19112495 -0.18460977
000070 e8 18 66 3d 3a 72 55 be d0 ef a0 bc 22 22 0b 3e
       0.056176096 -0.20844355 -0.019645602 0.1358724
000080 14 ea 66 3e b0 8b d6 3d 40 20 5b be 00 5e 9f 3c
       0.22550231 0.10475862 -0.21399021 0.019454002
000090 64 52 db bd 96 06 79 be 9e d2 1e be 7e 66 23 3e
       -0.10709074 -0.24318919 -0.15510032 0.15957066
0000a0 74 90 08 be ac 95 62 be 40 d5 c8 3b 1a 58 63 3e
       -0.13336354 -0.22127408 0.006128937 0.22201577
0000b0 74 70 a1 3d 30 05 cd 3c 24 d8 bd 3d 28 cd 76 3d
       0.07882777 0.025026888 0.09269741 0.060254246
0000c0 98 6e 75 be bc 4b d7 3d 80 ff 39 3e f0 47 6a 3e
       -0.2396797 0.10512492 0.18163872 0.22879004
0000d0 a8 a7 24 be bc 7c 82 3d e0 63 76 3d bc 33 4f be
       -0.16079581 0.063714474 0.060153842 -0.20234579
0000e0 06 5b 5a be 00 6c de ba 48 d4 47 3d 38 1b 7c 3e
       -0.21323785 -0.0016969442 0.04878643 0.24619758
0000f0 0c 08 59 3e c0 c0 65 3c 1a 92 5b 3e 10 94 15 be
       0.21194476 0.014023006 0.21442452 -0.14607263
000100 c8 0e 5b bd da fa 44 be 5e e1 23 be 64 0a dc 3d
       -0.053480893 -0.19236317 -0.1600394 0.10744169
000110 e4 7b 92 3d c8 fb 2e 3e 88 58 4e be 60 db f9 3c
       0.071525365 0.17088234 -0.2015096 0.030500114
000120 40 24 df bd 00 a1 36 3b 56 47 75 3e 50 22 0a 3e
       -0.10895586 0.002786696 0.23952994 0.13489652
000130 2c 92 9c 3d c0 01 96 3b e0 af 66 3c 80 1f 6a bd
       0.076450676 0.0045778453 0.014080018 -0.057158947
000140 98 0d 29 3d 30 da 5d 3d 00 53 63 bd 94 ad a3 bd
       0.04127273 0.054163158 -0.055499077 -0.07992092
000150 c2 a0 53 3e 3e 8d 41 be 4e de 37 be 32 4e 07 be
       0.20666793 -0.18901536 -0.17955896 -0.13213423
000160 60 c6 ab bd cc ce 57 be f0 9e 8e 3d 14 68 14 be
       -0.083874464 -0.2107498 0.06963909 -0.14492828
000170 30 e0 5a be f2 d3 33 be e0 98 57 bc 3c fb 11 be
       -0.21374583 -0.1756132 -0.013159007 -0.14255995
000180 00 3b 2b 3d 5c de a4 3d 8c 3f 98 3d 56 e7 06 be
       0.041804314 0.08050224 0.074339956 -0.13174185
000190 84 d5 2f 3e 50 76 89 bd ba ef 05 be 0c 6e c0 3d
       0.17171293 -0.067120194 -0.1307973 0.0939599
0001a0 2a 19 03 3e 3c 6a b2 3d 10 bf 5c 3e 2c 8c 56 3e
       0.12802568 0.08711669 0.2155726 0.20951909
0001b0 ac bf c2 bd 76 9b 21 be 84 ad 03 3e 24 f8 2c 3e
       -0.09509215 -0.1578196 0.1285916 0.16891533
0001c0 20 55 7b 3c 2c b3 4c 3e 6a 3a 0a be 68 b5 5b bd
       0.01534012 0.19990224 -0.13498846 -0.0536398
0001d0 be 5d 5a 3e 30 15 9b bc e8 3b f1 3d 50 d2 a7 3d
       0.21324822 -0.018931001 0.11779004 0.08194411
0001e0 5c 26 ab bd 16 46 46 be ec 8a ff bd 20 31 bb 3d
       -0.08356926 -0.19362673 -0.12477669 0.09140229
0001f0 b0 5e 55 bd 3c 59 cb 3d e6 6c 75 3e 64 42 a8 bd
       -0.052092254 0.099291295 0.23967323 -0.08215788
000200 c6 ad 26 be 2c d5 cb bd 5e 18 45 3e a4 3d 75 3e
       -0.16277227 -0.09952769 0.19247577 0.23949295
000210 f0 68 56 be 00 2f c4 bd 6c 5f 10 be 2c b7 6a be
       -0.20938468 -0.09579277 -0.140989 -0.22921437
000220 4a 4a 27 3e 3c 63 db 3d 00 8b a2 3d 50 fc eb bc
       0.16336933 0.10712287 0.079366684 -0.028806835
000230 e8 74 c7 bd 70 0c 13 3d 94 eb 6f 3e 30 d3 c8 3d
       -0.09739095 0.035900533 0.2342971 0.09805906
000240 48 e9 cf 3d 1e a6 53 be 14 b5 c9 3d 40 49 48 bd
       0.10151917 -0.20668837 0.09848991 -0.04889798
000250 80 2b 01 be f8 55 db 3d d0 d8 82 bd f0 37 49 bd
       -0.1261425 0.107097566 -0.0638901 -0.04912561
000260 00 66 21 bd 00 7d 82 ba 82 a9 3f be aa 7d 0d 3e
       -0.039403915 -0.0009955466 -0.18717006 0.13817468
000270 28 a2 99 3d 78 3c a0 bd de 97 34 be 46 53 71 3e
       0.07501632 -0.078240335 -0.17636058 0.23566923
000280 cc 11 f5 bd e2 55 53 be 38 32 c6 3d c0 77 17 bc
       -0.11966285 -0.2063823 0.09677547 -0.009244859
000290 40 af a9 3d 40 ee 7c 3c b0 61 16 3d 04 67 00 3e
       0.082853794 0.015437663 0.036714256 0.12539297
0002a0 78 bf 0d 3e 90 3c 31 bd 2c 86 c1 bd a2 5e 06 3e
       0.13842571 -0.043270648 -0.094494194 0.13122037
0002b0 b8 7c 18 3e 48 9e 8a bd 3c 5a cc bd 80 f9 2d 3e
       0.14891326 -0.06768471 -0.09978148 0.16989708
0002c0 ac 4b d8 bd 00 82 a6 3b 22 6f 66 3e c0 ef 04 be
       -0.10561308 0.005081415 0.22503331 -0.12982082
0002d0 4a b0 4d be 3c 08 ee bd 18 c2 fc bd b0 90 a7 bd
       -0.2008678 -0.11622664 -0.12341708 -0.08181894
0002e0 a0 fc 7e 3c 2c a5 0f be a0 cb 55 3e 54 95 95 bd
       0.01556316 -0.14027852 0.20878458 -0.07303873
0002f0 a0 72 45 3d 2c 61 b3 3d 36 eb 16 be 7e bf 01 3e
       0.048205018 0.087587684 -0.14738163 0.12670705
000300 00 9a 68 3b 7a 07 5d 3e b4 47 5d 3e c0 df 03 3e
       0.0035492182 0.21584883 0.21609384 0.12878323
000310 be 52 2e be 1e 0d 78 3e ee ed 01 be d0 7c 72 be
       -0.17023751 0.24223754 -0.12688419 -0.23680425
000320 66 a9 47 3e b8 33 a2 bd 14 c6 bf bd 00 4e c9 ba
       0.19498214 -0.07920021 -0.09363952 -0.0015358329
000330 18 22 64 3d 6e 87 6c be c8 f8 1d bd 18 da af 3d
       0.055696577 -0.23098537 -0.038567334 0.0858652
000340 70 a5 ad 3d 4a 4d 0b be f4 20 2f 3e 14 b4 d1 3d
       0.0847882 -0.13603702 0.17102414 0.10239425
000350 fe c5 7c 3e ea 35 07 be 30 01 1a 3d 46 f9 33 be
       0.24684903 -0.1320416 0.03759879 -0.17575559
000360 98 8b cd bd 80 8d ec bc 12 a1 0d 3e 7a 35 7b 3e
       -0.10036391 -0.028876066 0.13830975 0.24532118
000370 d8 f0 7a 3d e2 b1 01 3e 14 2d 40 3e 96 5c 58 be
       0.061264843 0.12665513 0.18767196 -0.21129069
000380 4e 77 6c 3e 9e a7 5b be 78 7b 8a 3d b0 2f 31 3d
       0.23092386 -0.2145066 0.06761831 0.04325837
000390 30 cd 53 3d 52 9e 3d 3e 12 b7 3a be 16 75 52 be
       0.051709354 0.18517426 -0.18233898 -0.20552477
0003a0 a4 e4 8c 3d 00 af 16 bc 16 40 1c be 68 95 fa 3d
       0.06879547 -0.009196997 -0.15258822 0.12235528
0003b0 4e e3 05 be c0 a9 05 3e d8 e1 48 3e e8 2f 20 3e
       -0.13074991 0.13053036 0.19617403 0.15643275
0003c0 96 6a 61 3e 96 a8 41 3e 28 ef 35 be 6e 3a 69 be
       0.22013316 0.18911967 -0.17767012 -0.22776195
0003d0 7e 73 6a be 82 50 06 3e 2a 34 0b be 4c a1 60 be
       -0.2289562 0.13116649 -0.13594118 -0.2193653
0003e0 14 ae cb bd a0 65 57 3c 00 40 46 be c8 3e 89 3d
       -0.09945312 0.013146788 -0.19360352 0.06701428
0003f0 18 99 5f 3d 08 2e 34 be b4 ad c9 3d bc 8c 8e bd
       0.05458936 -0.17595685 0.09847584 -0.06960437

encoder.blocks.1.skip.bias f4 [32]
000000 cc e1 a9 bd bc e6 ac 3d ce 26 78 be c2 9f 1e be
       -0.082950205 0.084424466 -0.24233553 -0.1549063
000010 18 7f 33 be 04 f9 27 be 60 10 cc bc 3c 17 ef 3d
       -0.17528951 -0.16403586 -0.024910152 0.116743535
000020 04 76 64 be 00 7a 66 3b 26 9b 6a 3e 40 51 28 bd
       -0.22310644 0.0035167933 0.22910747 -0.04109311
000030 f2 62 34 be 68 60 b0 3d 58 6e 15 be 5a 77 7b 3e
       -0.1761587 0.08612138 -0.14592874 0.24557248
000040 70 4a 9e 3c dc 1a bc 3d 7c 51 ad bd 60 21 80 bc
       0.019322604 0.091848105 -0.084628075 -0.015640914
000050 48 e1 51 3d 34 9d 41 be 60 9a 74 3e f0 1a e2 bd
       0.051240236 -0.18907624 0.23887014 -0.11040294
000060 82 73 28 3e 40 83 43 bc 38 69 1b 3d 58 01 14 3e
       0.16450313 -0.011933148 0.03794214 0.14453638
000070 28 03 2f be c0 ce 15 be 6e 40 7a be 4c 4f 74 be
       -0.17091048 -0.1462965 -0.2443864 -0.23858374
