toyshapes/pinets_ensemble/ensemble_19/model_7.pth (torch, 466407 bytes, 71 tensors)

encoder.blocks.0.conv.0.weight f4 [16, 1, 3, 3]
0	0x3db099cb	0.08623084
1	0xbe575272	-0.21027544
2	0x3e136fe0	0.14398146
3	0x3dd92e4f	0.10604536
4	0xbd7b4f1b	-0.061354738
5	0xbc5cd443	-0.0134783415
6	0xbe2fce22	-0.17168477
7	0x3e57023c	0.20996946
8	0xbe054153	-0.130132
9	0x3e7abd9b	0.24486391
10	0x3e9cdabe	0.30635637
11	0x3d975d7d	0.07390878
12	0xbe2533b2	-0.16133001
13	0xbe2a4a37	-0.16629873
14	0x3bf6bf46	0.007530126
15	0xbdc8fbec	-0.09813675
16	0x3dde2ed2	0.10848774
17	0xbe8caddf	-0.27476403
18	0x3e96b112	0.2943197
19	0xbecebbb6	-0.40377587
20	0x3e097cc2	0.13426498
21	0x3c8e1653	0.01734463
22	0x3d8c0e21	0.068386324
23	0x3d05cf29	0.032668266
24	0x3e50f283	0.20405011
25	0x3da71fc6	0.08160357
26	0x3e7c3dfe	0.24633023
27	0xbd89348f	-0.06699478
28	0x3d338c61	0.043835048
29	0xbec532bd	-0.38515273
30	0x3e059e99	0.13048781
31	0x3e4f5d17	0.20250355
32	0x3caf491c	0.021397166
33	0xbd56ec6b	-0.05247156
34	0x3e01bea7	0.12670384
35	0x3e81cda0	0.25352192
36	0xbdbb4c58	-0.09145421
37	0xbe7ea562	-0.24867776
38	0xbde0f8c0	-0.10984945
39	0xbe451818	-0.19247472
40	0x3e06acfb	0.13151924
41	0xbe4b7699	-0.1986946
42	0xbe320630	-0.17385173
43	0x3e909107	0.28235647
44	0x3ea175af	0.31535098
45	0xbd006187	-0.03134301
46	0xbde836e6	-0.11338596
47	0xbdaf1b32	-0.08550109
48	0x3dd8c462	0.10584332
49	0xbebfefe5	-0.37487713
50	0xbe935366	-0.28774565
51	0x3e5fd1e3	0.21857409
52	0x3ea30d79	0.31846216
53	0xbc88a0c4	-0.016678222
54	0xbe8be900	-0.27326202
55	0xbd3cadc2	-0.046064146
56	0xbe2eba15	-0.17063172
57	0x3c85309f	0.016258536
58	0x3e1e396a	0.15451589
59	0x3e225688	0.15853322
60	0xbbc511bf	-0.0060140784
61	0x3d025703	0.031821262
62	0x3dd408e7	0.103532605
63	0xbe9a9a88	-0.30196023
64	0xbe49e21a	-0.19715157
65	0xbd6c8c16	-0.057750784
66	0xbe139dbb	-0.14415638
67	0xbd1f89eb	-0.03894989
68	0x3da5d1df	0.0809667
69	0x3dfef160	0.124483824
70	0xbdd618f1	-0.10453976
71	0xbe2d790d	-0.16940708
72	0x3d726532	0.05917854
73	0xbeaabc17	-0.33346626
74	0xbe225a05	-0.15854652
75	0x3e821e6f	0.25413844
76	0xbd19ce44	-0.037550226
77	0xbd2384bb	-0.039921504
78	0x3e3d81a2	0.18506482
79	0xbe03199d	-0.1280274
80	0x3e3aa42c	0.18226689
81	0xbe96e50b	-0.2947162
82	0xbe377332	-0.17915037
83	0xbe13f2eb	-0.14448135
84	0xbe037735	-0.12838443
85	0xbdd20d89	-0.10256488
86	0x3e153583	0.14571194
87	0x3e449a4c	0.19199485
88	0x3d89465f	0.06702875
89	0x3e8539d9	0.26020697
90	0xbe33aceb	-0.17546432
91	0xbe369591	-0.17830493
92	0x3e4b410e	0.19849035
93	0x3d2f355a	0.04277549
94	0xbe67a472	-0.22621325
95	0xbe3277a1	-0.17428447
96	0xbe289510	-0.16463113
97	0x3eb8d12c	0.36097085
98	0x3e3ec7b2	0.18630865
99	0x3e8fd544	0.28092396
100	0xbe3b0dd2	-0.18266991
101	0xbea06e79	-0.31334284
102	0xbe36ebf2	-0.17863443
103	0x3d9add8e	0.075617895
104	0xbe17b83d	-0.14816375
105	0xbe41bb6c	-0.18919152
106	0x3e836606	0.25663775
107	0xbe687fbe	-0.2270498
108	0xbe8b0d8b	-0.2715877
109	0x3de28e75	0.11062328
110	0xbe0c5dad	-0.1370761
111	0x3e42bb0a	0.19016662
112	0x3d640ffe	0.055679314
113	0x3d89f9ae	0.06737076
114	0x3e07179f	0.13192604
115	0xbe763d72	-0.24046877
116	0xbdcf8669	-0.101330586
117	0xbd860c2c	-0.0654529
118	0xbe8d64e7	-0.27616045
119	0x3ddb01d8	0.10693711
120	0x3d64e10a	0.055878676
121	0xbe1b67a1	-0.1517625
122	0x3e850705	0.25981918
123	0xbe3244e0	-0.17409086
124	0x3dcd9df1	0.100398906
125	0xbd05779f	-0.032584783
126	0xbe612d4d	-0.21989937
127	0xbe9dd8ac	-0.3082937
128	0x3e29de28	0.16588652
129	0x3e3e8a48	0.18607438
130	0xbe5f97fd	-0.21835323
131	0xbcec6cb7	-0.028860433
132	0xbea72ee3	-0.3265296
133	0x3e353bb3	0.17698555
134	0x3ea2ee4c	0.3182243
135	0x3d851dca	0.064998224
136	0xbe603bbb	-0.21897785
137	0x3e25b4fb	0.1618232
138	0x3e9b898d	0.3037838
139	0xbda27c79	-0.079338975
140	0xbd1a08f9	-0.037606213
141	0x3ddc7332	0.10764159
142	0x3d1728d7	0.036904182
143	0xbe0660f8	-0.13122928

encoder.blocks.0.conv.0.bias f4 [16]
0	0xbe853d31	-0.26023248
1	0xbeb3b79a	-0.35101014
2	0x3d0a3edf	0.033751365
3	0xbc425a99	-0.0118624205
4	0x3ea1d96d	0.31611195
5	0x3d525f8a	0.051360644
6	0xbd9cff76	-0.07665913
7	0xbead48d2	-0.3384462
8	0xbed96287	-0.42457983
9	0x3de41765	0.11137275
10	0x3eabc351	0.33547452
11	0xbcb83869	-0.022487836
12	0xbec9c515	-0.39408174
13	0x3d01a77d	0.03165387
14	0x3e61ff53	0.22070055
15	0xbe986126	-0.29761618

encoder.blocks.0.conv.1.weight f4 [16]
0	0x3f8c2cc9	1.0951167
1	0x3f8c3698	1.0954161
2	0x3f6e5eed	0.93113595
3	0x3f752feb	0.9577624
4	0x3f7d73c7	0.9900479
5	0x3f78296f	0.9693822
6	0x3f77d195	0.9680417
7	0x3f81566f	1.0104502
8	0x3f8137a5	1.0095106
9	0x3f805b4a	1.0027859
10	0x3f709877	0.9398264
11	0x3f710760	0.9415188
12	0x3f6a2452	0.9146167
13	0x3f81c1d6	1.0137279
14	0x3f6f68c2	0.9351922
15	0x3f704df8	0.9386897

encoder.blocks.0.conv.1.bias f4 [16]
0	0x3d3c01ab	0.04590003
1	0xbc7d44ac	-0.015458267
2	0xbb6b5da2	-0.0035913964
3	0x3c197dee	0.009368403
4	0x3cd8fdc2	0.026488189
5	0x3cfcf788	0.03087975
6	0x3c293608	0.010327823
7	0xbd17c47d	-0.03705262
8	0x3d3bae93	0.045820784
9	0x3d94ee52	0.072720185
10	0x3d24a890	0.040199816
11	0xbd74fded	-0.059812475
12	0x3d404311	0.04693896
13	0xbcf42996	-0.029804986
14	0x3cfe128d	0.031014705
15	0xbcaf9fd1	-0.021438511

encoder.blocks.0.conv.1.running_mean f4 [16]
0	0xbe8c711d	-0.2743005
1	0xbeae06b8	-0.339895
2	0x3ebbf39d	0.367093
3	0x3e160d90	0.14653611
4	0x3e31ccf7	0.17363344
5	0xbdbdb545	-0.0926309
6	0xbda89ddc	-0.08233234
7	0xbf380821	-0.71887404
8	0xbecab873	-0.3959385
9	0x3cc60882	0.024173979
10	0x3e85f879	0.26166132
11	0xbea57d3e	-0.32322115
12	0xbefae72e	-0.490045
13	0xbd4fc786	-0.05072739
14	0x3dec29b7	0.11531394
15	0xbe4d7482	-0.20063975

encoder.blocks.0.conv.1.running_var f4 [16]
0	0x39c46b53	0.00037463996
1	0x3ba028fe	0.004887699
2	0x3cb0f557	0.021601362
3	0x3c0690e1	0.008213253
4	0x3c16001d	0.0091553
5	0x3c1db142	0.009624781
6	0x3b517218	0.0031958874
7	0x3cd71a47	0.026257647
8	0x3ba7fd85	0.0051266574
9	0x3c177ed5	0.009246548
10	0x3b93a459	0.0045056758
11	0x3c932df3	0.017966246
12	0x3b396721	0.002829023
13	0x3b4ebdeb	0.0031546305
14	0x3bf98db3	0.007615769
15	0x3b71283a	0.0036797659

encoder.blocks.0.conv.3.weight f4 [16, 16, 3, 3]
0	0x3d692a54	0.056925133
1	0xbd45890a	-0.048226394
2	0xbd660504	-0.056157127
3	0xbcd87768	-0.026424125
4	0x3d4fa014	0.05068977
5	0xbd34ee75	-0.044172723
6	0xbc9eff6e	-0.019408908
7	0xbd4e2d09	-0.050335918
8	0x3d7d033b	0.06177066
9	0xbccff5b4	-0.025385715
10	0x3d207890	0.039177477
11	0xbc93529f	-0.017983733
12	0x3dc6db19	0.09709758
13	0x3ba1b23d	0.0049345777
14	0xbe0a9cda	-0.13536397
15	0x3ced3788	0.028957143
16	0x3c054796	0.008134743
17	0x3b088d51	0.0020836184
18	0x3d5ecff1	0.054397527
19	0xbd927701	-0.071516044
20	0x3d8468b0	0.0646528
21	0x3dc170f8	0.09445375
22	0x3cbedb01	0.023297789
23	0x3d86651c	0.06562254
24	0xbcf42318	-0.02980189
25	0xbd2dde3d	-0.04244827
26	0xbd2f1d5a	-0.0427526
27	0x3dc54578	0.09632391
28	0x3da038cf	0.078233354
29	0x3cf87d7b	0.030333271
30	0x3dfed7ee	0.12443529
31	0x3e2270eb	0.15863387
32	0x3e06d99d	0.1316895
33	0xbde26463	-0.110543035
34	0xbae4dc8a	-0.0017460745
35	0x3cbd5085	0.023109684
36	0x3e0c5712	0.1370509
37	0x3d879b68	0.06621438
38	0x3ddc1cbd	0.10747669
39	0x3cee033b	0.029054275
40	0x3deaa0cb	0.1145645
41	0x3e1e2b7d	0.15446277
42	0xbd749c7e	-0.059719555
43	0xbdd17518	-0.10227412
44	0xbd5e4e20	-0.054273725
45	0x3d77322a	0.060350575
46	0x3d6e300e	0.058151297
47	0x3d85c393	0.065314434
48	0x3da0c291	0.078496106
49	0x3df325c8	0.118724406
50	0x3d6729d8	0.05643639
51	0xbc66a0f8	-0.014076464
52	0xbdb9e267	-0.09076386
53	0x3d370f36	0.04469224
54	0x3dda58c6	0.106614634
55	0x3ddd3da9	0.10802776
56	0x3e651166	0.22369918
57	0x3dfa1a80	0.12212086
58	0x3e02cc5a	0.12773266
59	0x3e27a875	0.16372855
60	0x3d068d6d	0.032849718
61	0xbcaee4c9	-0.021349328
62	0x3dbc26db	0.091870986
63	0x3d0f1dac	0.034940407
64	0x3d6c2de3	0.05766095
65	0xbd02787d	-0.031853188
66	0x3c5e626f	0.013573273
67	0xbc776ee7	-0.015102125
68	0xbd8ae45e	-0.06781839
69	0xbd714fa1	-0.05891383
70	0xbda3af73	-0.07992449
71	0xbcaed6d1	-0.021342667
72	0x3e12e3e5	0.14344747
73	0x3d9d99c7	0.07695346
74	0x3d99b0e7	0.075044446
75	0x3e00b465	0.12568815
76	0x3de84067	0.11340409
77	0x3d9b5132	0.07583846
78	0x3d80c0a1	0.06286741
79	0xbd336db6	-0.0438058
80	0x3d0ad9c9	0.033899102
81	0x3d5d2e4d	0.053999234
82	0x3db389b0	0.08766496
83	0x3d251438	0.040302485
84	0x3d7284f6	0.059208833
85	0x3e2c02b2	0.16797903
86	0x3d175164	0.036942855
87	0xbdd9a7ae	-0.106276855
88	0x3c5cdcfe	0.013480423
89	0x3d97d214	0.07413116
90	0x3dc32cdf	0.09530043
91	0x3d676551	0.056493107
92	0x3af301f8	0.0018540015
93	0x3dc98355	0.09839503
94	0xbd0344b5	-0.032047946
95	0x3d8651c7	0.065585665
96	0xba33f270	-0.0006864434
97	0x3d0f45e5	0.034978766
98	0xbd662ea8	-0.05619684
99	0x3b82faf4	0.003997201
100	0xbc08c338	-0.008347325
101	0x3dc5f92d	0.09666667
102	0x3beb6e93	0.0071848123
103	0xbd7f5abf	-0.0623424
104	0x3d2e51d7	0.042558517
105	0xba8b723c	-0.0010638903
106	0xba916b2e	-0.0011094564
107	0xbd28c693	-0.041205
108	0xbd34d245	-0.04414584
109	0x3d53a977	0.051675286
110	0xbd121809	-0.035667453
111	0xbcd62606	-0.026141178
112	0xba9ee47c	-0.0012122537
113	0x3de5f92b	0.11229166
114	0x3c0ca474	0.008584131
115	0x3b9a40f5	0.0047074505
116	0x3c5c9572	0.013463365
117	0xbd0b7317	-0.034045305
118	0x3dedbc4a	0.11608179
119	0x3d851353	0.064978264
120	0x3d4c59f0	0.04989046
121	0x3e010b94	0.12602073
122	0xbd8172da	-0.06320734
123	0xbc0a1e77	-0.008430115
124	0xbd74925b	-0.059709888
125	0xbd0a754f	-0.03380328
126	0xbc279fed	-0.010231
127	0xbc8436e6	-0.016139459
128	0x3db917c9	0.0903774
129	0xbc984e4e	-0.018592026
130	0x3d20d7ba	0.039268233
131	0xbcb496b5	-0.022044519
132	0xbdcd5a5b	-0.100269996
133	0xbbb77dc5	-0.0055997097
134	0xbb9d8ab5	-0.004807795
135	0x3ded9a8c	0.11601743
136	0xbd9dae68	-0.07699281
137	0x3dec683d	0.115433194
138	0xbd774b78	-0.060374707
139	0x3da14399	0.07874221
140	0x3de8065c	0.11329338
141	0x3d931201	0.07181168
142	0x3c5ca9d9	0.013468229
143	0x3dcbc661	0.09949947
144	0x3d28aeb3	0.04118223
145	0xbcbb6dc9	-0.022879498
146	0x3c75088b	0.01495565
147	0xbdada193	-0.084780835
148	0x3da34841	0.07972766
149	0xbcbb9211	-0.022896798
150	0x3d9d203d	0.076721646
151	0xbe1fb13b	-0.15594952
152	0xbd9476bb	-0.072492085
153	0x3df13b13	0.11778846
154	0x3e27f456	0.164018
155	0x3e47efca	0.19525066
156	0x3d093f6d	0.033507753
157	0x3e0bee27	0.13665067
158	0x3e1084ed	0.14113207
159	0xbd2ec9c9	-0.042672906
160	0x3d141929	0.036156807
161	0xbc1facf8	-0.009745829
162	0xbcefbdd0	-0.029265314
163	0xbdfa5c4d	-0.12224636
164	0xbd9b6ef7	-0.07589524
165	0xbde43997	-0.11143797
166	0xbd7c1569	-0.061543856
167	0xbd3c8b10	-0.046031058
168	0xbd6dac60	-0.058025718
169	0xbdce0135	-0.10058824
170	0xbc85bafe	-0.016324516
171	0xbc53ff27	-0.012939251
172	0xbe10129d	-0.140696
173	0xbe05fea2	-0.13085416
174	0xbd94260c	-0.07233819
175	0xbd4868e8	-0.04892817
176	0xbe115f99	-0.14196624
177	0xbd5bd67e	-0.053671353
178	0xbd89c4e1	-0.06727005
179	0xbe005d48	-0.12535584
180	0x3d83f694	0.064435154
181	0x3d3f2f37	0.046675887
182	0x3d2b120f	0.04176527
183	0x3c02eeb7	0.007991484
184	0xbc7f0036	-0.015564015
185	0x3bd7b076	0.006582315
186	0x3dccb6d6	0.09995811
187	0x3ddcf038	0.107880056
188	0xbd2a44e3	-0.0415696
189	0x3dc628f3	0.09675779
190	0xbd1a6940	-0.03769803
191	0xbca7f585	-0.020502815
192	0xbbcd6b0f	-0.006268866
193	0x3d96e138	0.07367176
194	0xbd38c540	-0.045109987
195	0xbb5278d2	-0.0032115472
196	0x3ce15721	0.027507367
197	0x3dde699d	0.10859988
198	0xbdbab05f	-0.09115671
199	0xb96da6c8	-0.00022664212
200	0x3d3f134c	0.046649262
201	0xbd04d54d	-0.032429982
202	0xbd699898	-0.05703029
203	0xbd327199	-0.043565366
204	0x3c0ff671	0.008786784
205	0xbc94575f	-0.018108068
206	0xbde58c0c	-0.112083524
207	0x3d835634	0.06412926
208	0xbc8d04f4	-0.017214276
209	0xbd320b17	-0.043467607
210	0x3da7ebbe	0.08199261
211	0x3d422d59	0.04740653
212	0x3deaf564	0.11472586
213	0x3d1ff9d3	0.03905661
214	0x3dd00d23	0.10158756
215	0x3ce88481	0.028383495
216	0xbe0fcb83	-0.14042477
217	0x3c425b56	0.0118625965
218	0x3c57da42	0.013174595
219	0xbc8050a1	-0.015663447
220	0xbdc72e9b	-0.09725686
221	0xbde54fad	-0.111968376
222	0xbd3b40f9	-0.04571626
223	0xbcf2ea78	-0.029652819
224	0xbd641883	-0.05568744
225	0xbc92bd88	-0.017912641
226	0xbbdd8fa2	-0.006761507
227	0x3d966b42	0.073446766
228	0x3d30b659	0.04314265
229	0x3da4337c	0.08017632
230	0x3cc58765	0.024112413
231	0xbd16abac	-0.036784813
232	0x3b2cf852	0.0026393128
233	0x3ab1b6c1	0.0013558493
234	0x3db401a5	0.08789376
235	0xbd6823e7	-0.056674864
236	0xbcb304bd	-0.021852845
237	0x3afcce96	0.0019287642
238	0x3d0e8bbf	0.03480124
239	0x3d62ca00	0.055368423
240	0x3d270e9a	0.04078541
241	0x3d40adc1	0.047040705
242	0x3d257ec6	0.040404104
243	0xbd958927	-0.0730155
244	0x3d45c3df	0.0482825
245	0x3db14a0e	0.08656703
246	0xbcaf392f	-0.021389572
247	0x3dab6841	0.08369494
248	0x3d013a6a	0.03154985
249	0x3daefc6a	0.08544238
250	0x3da77ed0	0.081784844
251	0xbcbbd9a4	-0.022930928
252	0xbda94476	-0.08265011
253	0x3d507106	0.050889038
254	0xbd7a8524	-0.06116213
255	0xbdc09621	-0.09403635

encoder.blocks.0.conv.3.bias f4 [16]
0	0xbc02ca60	-0.00798282
1	0x3d6171e3	0.05504025
2	0x3c33df9d	0.0109786065
3	0x3c4cda16	0.012503168
4	0xbbd898c3	-0.0066100075
5	0xbd5386b1	-0.051642124
6	0xbda3ace8	-0.079919636
7	0xbc4fc19f	-0.01268044
8	0xbcbd7dcd	-0.023131276
9	0xbc9d7208	-0.019219413
10	0x3d31af5f	0.043380138
11	0xbd122cad	-0.035687137
12	0xbd2139a3	-0.039361607
13	0x3d4a3a12	0.049371786
14	0xbdb282c8	-0.08716351
15	0x3d64a86e	0.05582469

encoder.blocks.0.conv.4.weight f4 [16]
0	0x3f81474e	1.0099885
1	0x3f7fe4ec	0.9995868
2	0x3f7f442a	0.99713385
3	0x3f7700b2	0.96485436
4	0x3f509e30	0.81491375
5	0x3f76d533	0.96419066
6	0x3f668bd2	0.900571
7	0x3f800d2b	1.0004019
8	0x3f76ed00	0.96455383
9	0x3f7d4317	0.98930496
10	0x3f8cca05	1.0999151
11	0x3f790e16	0.9728712
12	0x3f73dd5a	0.9525963
13	0x3f7832cb	0.96952504
14	0x3f7f52d0	0.99735737
15	0x3f89c1d6	1.0762279

encoder.blocks.0.conv.4.bias f4 [16]
0	0xbd219850	-0.039451897
1	0xbb9e7fc9	-0.0048370105
2	0xbd295fd1	-0.041351143
3	0x3d69b2c9	0.05705527
4	0xbe09c7c8	-0.13455117
5	0x3dc53a28	0.09630233
6	0xbd6ddcd2	-0.05807192
7	0x3cb82d15	0.022482434
8	0xbd9b8636	-0.07593958
9	0xbd898929	-0.06715614
10	0x3d1874aa	0.037220635
11	0xbcaf7982	-0.021420244
12	0x3c8d7104	0.017265804
13	0x3db9c81a	0.090713695
14	0x3ceeff3f	0.029174445
15	0x3c69e9d5	0.014276941

encoder.blocks.0.conv.4.running_mean f4 [16]
0	0x3f999b2f	1.2000483
1	0xbd097b97	-0.03356513
2	0x3f195b31	0.5990477
3	0x3db185c2	0.086680904
4	0xbee17752	-0.44036347
5	0x3f2d20d6	0.6762823
6	0xbeb58f11	-0.35460714
7	0x3f955cde	1.1668966
8	0xbeca5424	-0.3951732
9	0x3f0cc0a8	0.5498147
10	0xbe55691f	-0.20840882
11	0xbe86c0e7	-0.26319048
12	0xbf87b93f	-1.0603408
13	0x3f842a94	1.0325494
14	0x3fd7bb29	1.6853992
15	0xbebe2d8a	-0.3714412

encoder.blocks.0.conv.4.running_var f4 [16]
0	0x401ded74	2.467618
1	0x3ffbf891	1.9685231
2	0x4067d9c1	3.6226656
3	0x40274c35	2.6140263
4	0x4008119c	2.1260748
5	0x3f8c8e27	1.0980881
6	0x40101974	2.2515535
7	0x3f88a432	1.0675108
8	0x3f570048	0.83984804
9	0x3fb4a9d9	1.4114333
10	0x3f3a9e72	0.7289802
11	0x3f200f61	0.62523466
12	0x3fedfb9d	1.8592411
13	0x3ffe25d8	1.9855299
14	0x400532bd	2.0812218
15	0x3f6064de	0.8765391

encoder.blocks.0.skip.weight f4 [16, 1, 1, 1]
0	0xbe1455e0	-0.14485884
1	0xbf5a8bf4	-0.853698
2	0x3e978378	0.2959249
3	0xbe8aa2e4	-0.270774
4	0xbf18da2a	-0.5970789
5	0x3f3fc136	0.7490419
6	0xbdd7c260	-0.10535121
7	0x3e99bd24	0.30027115
8	0xbcb7e3c0	-0.022447467
9	0xbf24ed48	-0.6442456
10	0x3d5ec500	0.054387093
11	0x3ebd94a8	0.37027478
12	0xbdce35a0	-0.10068822
13	0x3d9ea880	0.077469826
14	0x3ea95b90	0.3307767
15	0x3f200094	0.6250088

encoder.blocks.0.skip.bias f4 [16]
0	0x3d244bc0	0.040111303
1	0xbdfce4d0	-0.1234833
2	0xbf202bd6	-0.6256689
3	0xbeb7ec84	-0.35922635
4	0xbee1a19c	-0.4406861
5	0xbee5ceec	-0.4488443
6	0xbf315c44	-0.6928141
7	0xbc192980	-0.009348273
8	0xbf1e062a	-0.61728156
9	0x3e035cf8	0.12828434
10	0x3e8afcd8	0.2714603
11	0x3f4d31b8	0.8015399
12	0x3d07ea60	0.0331825
13	0x3f359b70	0.70940304
14	0xbf1f38bc	-0.62195945
15	0xbe94c818	-0.2905891

encoder.blocks.1.conv.0.weight f4 [32, 16, 3, 3]
0	0xbe03055e	-0.12795016
1	0xbdbd6631	-0.09248007
2	0xbe08bfba	-0.13354388
3	0xbe0f9c5d	-0.14024492
4	0xbd9f28a4	-0.077714235
5	0x3d05db06	0.03267958
6	0xbd8d20d4	-0.06891027
7	0x3d18c9e4	0.037301913
8	0xbc11a01f	-0.0088882735
9	0x3c3b333d	0.01142579
10	0xbd425f6c	-0.047454283
11	0xbd599e1c	-0.0531293
12	0xbd294913	-0.041329455
13	0xbd6e5662	-0.05818785
14	0xbdc67e8d	-0.096921064
15	0x3d2a4e16	0.041578375
16	0xbcc46d30	-0.023977846
17	0xbdbd5f7c	-0.09246728
18	0x3deb437e	0.114874825
19	0xbd4444cd	-0.047917176
20	0x3c3afda7	0.0114130145
21	0x3d28294b	0.041055005
22	0x3d5930a3	0.0530249
23	0x3d0284a2	0.03186477
24	0x3cc18a70	0.023625582
25	0x3d270539	0.040776465
26	0x3da269d4	0.07930341
27	0x3d882d6a	0.06649287
28	0xbd64c493	-0.05585153
29	0xbcdd3d5f	-0.027006803
30	0x3dd26aca	0.10274275
31	0xbc4aeb24	-0.012385163
32	0x3d59b3ce	0.05314999
33	0x3d5a5983	0.05330802
34	0x3d84b9c4	0.064807445
35	0xbd34f636	-0.044180118
36	0xbe14fa11	-0.14548518
37	0xbdd4e716	-0.10395639
38	0xbd87bc07	-0.0662766
39	0x3d86ef3d	0.065886
40	0xbd2f1b09	-0.042750392
41	0xbc8bbe56	-0.017058533
42	0xbcec8add	-0.028874809
43	0xbb7c36e7	-0.0038484873
44	0x3c9e9593	0.019358432
45	0xbd91d149	-0.07119996
46	0x3bbcac71	0.0057578613
47	0xbd82d452	-0.06388153
48	0xbda5a4b9	-0.08088059
49	0x3ca5182b	0.020153126
50	0x3d631cb9	0.055447314
51	0x3dc26770	0.094923854
52	0xbda9ddf8	-0.0829429
53	0x3d128144	0.03576781
54	0x3d6eda93	0.058313917
55	0x3cb7c127	0.02243097
56	0x3bef4375	0.0073017427
57	0x3d72c3e3	0.059268843
58	0x3d64b6bf	0.055838343
59	0x3d2692ae	0.04066723
60	0x3d1bdb6d	0.038051058
61	0x3d8d91c6	0.0691257
62	0x3cd49303	0.025949007
63	0xbcc72e77	-0.024314148
64	0xbda3c89f	-0.0799725
65	0xbd687c54	-0.056759194
66	0x3bc60066	0.006042528
67	0xbd584084	-0.052795902
68	0xbdacfe08	-0.0844689
69	0xbd87f2c6	-0.06638102
70	0xbd87fd52	-0.06640114
71	0x3d2c8194	0.042115763
72	0x3dda7b5e	0.10668062
73	0x3cd1650c	0.025560878
74	0x3a8aec82	0.0010599049
75	0x3c9392e7	0.018014384
76	0x3ca4e578	0.02012895
77	0x3d30a6af	0.04312771
78	0x3d8f2029	0.06988556
79	0x3de2a287	0.11066156
80	0x3dc47051	0.09591735
81	0xbb331c83	-0.0027330227
82	0x3dc856aa	0.09782155
83	0x3d9a5991	0.07536615
84	0x3d0acd8e	0.03388744
85	0xbd19aa28	-0.03751579
86	0x3dba4d76	0.09096806
87	0xbd3ef481	-0.046619896
88	0x3c8cc68e	0.017184522
89	0x3e0156d8	0.12630785
90	0x3d4f8d1b	0.050671678
91	0x3e2e2a94	0.1700843
92	0x3cdddad8	0.027081892
93	0x3d1cce2a	0.03828255
94	0x3e60a2fc	0.21937174
95	0x3e50d992	0.20395496
96	0x3d2f588c	0.042809054
97	0x3d9830f9	0.07431216
98	0x3e77dac9	0.24204554
99	0x3cf57df4	0.029967286
100	0x3d8bfc35	0.06835214
101	0xbd80baa0	-0.06285596
102	0x3baf3380	0.0053467155
103	0x3dd74419	0.105110355
104	0x3d9cacee	0.07650171
105	0xbcec0eb5	-0.028815607
106	0x3d9e8e46	0.0774198
107	0x3d943962	0.072375074
108	0x3d82328d	0.06357298
109	0x3d25dd5e	0.040494315
110	0xbc6cd26b	-0.014454464
111	0x3d7a50f1	0.061112348
112	0xbd5e7ad9	-0.054316375
113	0x3be5cdfe	0.0070130816
114	0xbceca6cb	-0.028888127
115	0xbd9c4497	-0.0763027
116	0xbd958e0f	-0.07302486
117	0xbaa908ca	-0.0012896296
118	0x3b011156	0.001969417
119	0x3951b9f5	0.00020001068
120	0xbdb816b0	-0.08988702
121	0xbd9db2a7	-0.07700091
122	0xbd0dbae9	-0.03460208
123	0x3be7e4d4	0.007076839
124	0x3d5b951f	0.05360901
125	0xbd0d0cde	-0.0344361
126	0xbb7c7159	-0.003851971
127	0xbd72695e	-0.059182517
128	0xbdc68186	-0.096926734
129	0xbcf66e36	-0.03008185
130	0xbd8798ef	-0.06620967
131	0x3cf6f927	0.030148102
132	0x3cfda95f	0.030964551
133	0xbd978129	-0.07397682
134	0x3d347948	0.044060975
135	0x3ce53f7b	0.027984371
136	0x3d35a67a	0.044348218
137	0x3e2f85af	0.1714084
138	0xbd2782d8	-0.040896267
139	0x3e40a2b7	0.18812071
140	0x3ddaa13c	0.10675284
141	0x3afe4230	0.0019398388
142	0x3e351526	0.17683849
143	0x3e39ea63	0.18155818
144	0xbe191b17	-0.1495174
145	0xbe1f31f1	-0.15546395
146	0xbd789174	-0.06068559
147	0xbd6f346b	-0.0583996
148	0xbb315340	-0.0027057678
149	0xbd1d1533	-0.038350295
150	0xbc5f1e3d	-0.013618049
151	0xbd540d93	-0.051770758
152	0xbdb7ed1f	-0.08980774
153	0xbdd80678	-0.10548109
154	0xbd9df38f	-0.07712471
155	0xbd9a5ff7	-0.07537835
156	0xbdb3fb59	-0.08788175
157	0xbd47bd8c	-0.04876475
158	0xbcb3cef3	-0.021949267
159	0xbcd77aed	-0.026303733
160	0xbdf12000	-0.11773682
161	0x3cf60125	0.030029843
162	0xbc939264	-0.01801414
163	0xbd13ee21	-0.03611577
164	0xbc93ef88	-0.018058553
165	0xbdd5a72c	-0.10432276
166	0xbdf9a297	-0.12189215
167	0xbbe8c5ea	-0.0071036713
168	0xbcbacd93	-0.022803104
169	0xbd3e934c	-0.046527192
170	0xbd02ea63	-0.03196181
171	0xbde4955c	-0.111613005
172	0x3a0109b5	0.0004922406
173	0xbda98ff5	-0.08279411
174	0x3bcb159a	0.0061976435
175	0xbdd731fb	-0.1050758
176	0xbd9f14a9	-0.077676125
177	0xbd83d3a7	-0.06436854
178	0xbdac8c73	-0.08425226
179	0xbd657e15	-0.056028444
180	0xbdc8b564	-0.098002225
181	0x3d075d86	0.033048175
182	0xbdb55fc4	-0.088561565
183	0xbcd3b0c7	-0.02584113
184	0x3ccb1d0e	0.024794128
185	0x3cff9001	0.031196596
186	0x3d3e68ed	0.046486784
187	0xbcba3ed0	-0.02273503
188	0xbdea67c2	-0.114455715
189	0xbdcdfd76	-0.100581095
190	0xbd294c4d	-0.04133253
191	0xbd889476	-0.06668942
192	0xbd2e7da4	-0.04260029
193	0xbdc2e50d	-0.09516344
194	0xbd90a043	-0.070618175
195	0xbde49219	-0.111606784
196	0xbd54e76e	-0.05197852
197	0xbdd789f7	-0.105243616
198	0xbdb028f4	-0.08601561
199	0xba46032c	-0.0007553573
200	0x3c91216c	0.017716132
201	0x3cf234f0	0.029566258
202	0xbd99aa1e	-0.075031504
203	0x3dbb6fc6	0.091521785
204	0xbd5f0334	-0.054446414
205	0xbd16db11	-0.03683001
206	0xbca9b96c	-0.020718299
207	0xbd0b4f57	-0.03401121
208	0xbd832bbb	-0.06404825
209	0xbd518c2e	-0.051159076
210	0xbcbf9de9	-0.023390727
211	0xbdbc1ff1	-0.0918578
212	0xbe125d06	-0.14293298
213	0xbdd42ae6	-0.10359745
214	0xbdd2ce2d	-0.10293231
215	0x3c22f6aa	0.009946505
216	0xbd1e7444	-0.0386851
217	0xbaca9624	-0.0015456122
218	0x3d599b16	0.053126417
219	0xbda558a8	-0.080735505
220	0xbc6da956	-0.014505705
221	0x3da5a629	0.08088333
222	0x3c07a578	0.008279197
223	0xbcc7d054	-0.02439133
224	0x3db6890f	0.089128606
225	0xbcce45a3	-0.02517969
226	0x3d3135dc	0.043264255
227	0xbc9ea641	-0.019366385
228	0x3bd834d6	0.0065980954
229	0x3bb4eba6	0.0055212555
230	0x3d172ad1	0.036906067
231	0xbc8d26e2	-0.017230455
232	0x3793ff46	1.7642637e-05
233	0xbd05d4c1	-0.0326736
234	0xbd41c31a	-0.047305204
235	0xbcd5f7bb	-0.026119104
236	0x3bb18186	0.0054170517
237	0xbcfc6144	-0.030808099
238	0xbd97f79f	-0.07420277
239	0x3dc1d771	0.0946492
240	0x3cfe9603	0.03107739
241	0x3d1759f5	0.036951024
242	0x3cbfd16c	0.02341529
243	0xbdad2ccf	-0.08455812
244	0xbbc85929	-0.0061141443
245	0xbc518c22	-0.012789758
246	0xbd0ef91b	-0.034905534
247	0x3d5f8739	0.054572318
248	0xbc6b40ef	-0.014358743
249	0xbdfe3595	-0.12412564
250	0x3bcac2df	0.006187781
251	0xbd8d10f4	-0.06887999
252	0xbbea5e7c	-0.0071523767
253	0x3d1f182b	0.038841408
254	0x3da63485	0.08115486
255	0xbdda6e06	-0.106655166

encoder.blocks.1.conv.0.bias f4 [32]
0	0x3caf3df1	0.02139184
1	0xbdce12fb	-0.10062214
2	0xb89cae11	-7.471082e-05
3	0x3d0ca870	0.034340322
4	0x3cc176b1	0.023616167
5	0xbd1dd776	-0.038535558
6	0xbc22b8c3	-0.009931746
7	0xbc418444	-0.01181132
8	0x3ce3be4d	0.027800703
9	0xbdac16bb	-0.08402773
10	0xbcc42d06	-0.02394725
11	0x3d840e89	0.06448085
12	0xbc4c6185	-0.012474422
13	0x3d43ad59	0.04777274
14	0x3bef5157	0.0073033976
15	0xbcd0cfaf	-0.025489656
16	0x3b06990d	0.0020538003
17	0xbe05c4d0	-0.1306336
18	0x3d6b1c16	0.05739983
19	0x3de36949	0.11104066
20	0xbd2f88f0	-0.042855203
21	0xbb7a7de5	-0.0038222012
22	0x3d0fe0f7	0.035126653
23	0xbca65ac9	-0.020306962
24	0x3c42d1ff	0.011890887
25	0xbb3bf5cb	-0.002868044
26	0xbd9fbd39	-0.07799763
27	0xbc99b163	-0.018761342
28	0x3d71640e	0.05893331
29	0xbce2334c	-0.02761235
30	0xbcc587a5	-0.024112532
31	0x3caf7032	0.021415804

encoder.blocks.1.conv.1.weight f4 [32]
0	0x3f8f9ada	1.1219132
1	0x3f7819b0	0.96914196
2	0x3f8431fa	1.0327752
3	0x3f7fa008	0.99853563
4	0x3f6f950a	0.9358679
5	0x3f84d7b1	1.0378324
6	0x3f737ad6	0.9510931
7	0x3f810b8e	1.0081651
8	0x3f6a3fb8	0.9150348
9	0x3f731ee3	0.94969004
10	0x3f729144	0.9475291
11	0x3f88cf0f	1.0688189
12	0x3f7c3694	0.9852078
13	0x3f7d8a9a	0.99039614
14	0x3f73aa42	0.9518167
15	0x3f89d409	1.0767833
16	0x3f84de07	1.0380257
17	0x3f8a42cf	1.0801638
18	0x3f78a8ca	0.9713255
19	0x3f83b86e	1.0290658
20	0x3f70d8a1	0.9408055
21	0x3f814d20	1.0101662
22	0x3f82a8ee	1.0207803
23	0x3f8253b2	1.0181792
24	0x3f71004a	0.94141066
25	0x3f8bc366	1.0919006
26	0x3f66b582	0.9012071
27	0x3f6911d8	0.9104285
28	0x3f848380	1.0352631
29	0x3f7324a3	0.9497778
30	0x3f7d4076	0.98926485
31	0x3f81e4b7	1.0147923

encoder.blocks.1.conv.1.bias f4 [32]
0	0x3d788ab2	0.060679145
1	0x3b35d36f	0.0027744432
2	0x3c897758	0.01678054
3	0x3cbb90a3	0.022896117
4	0xbd94cdab	-0.072657906
5	0x3c2fca02	0.010729315
6	0xbcb523e3	-0.022111839
7	0x3da1e27c	0.079045266
8	0xbd7f2dc6	-0.062299512
9	0xbdbdb6d3	-0.092633866
10	0xbd6b5188	-0.0574508
11	0x3d3f53a1	0.046710614
12	0xbd0e6c23	-0.034771096
13	0xbcb8d96e	-0.022564616
14	0xbd2bccfa	-0.041943528
15	0x3cadced1	0.021216782
16	0x3d1b4ecd	0.037916947
17	0xbd530363	-0.0515169
18	0x3b27acc3	0.0025585152
19	0xbc30090f	-0.010744347
20	0xbdcb7ea3	-0.099362634
21	0x3bfcd670	0.0077159926
22	0xbca01a12	-0.019543681
23	0x3d045ed8	0.032317013
24	0xbd5c78c8	-0.053826123
25	0xbd8a2491	-0.06745256
26	0xbd37ab53	-0.044841122
27	0xbd4d9313	-0.05018909
28	0xb9fa4f66	-0.00047742872
29	0xbd0c745a	-0.03429065
30	0xbcb0eb79	-0.021596657
31	0xbc1ff1bf	-0.009762227

encoder.blocks.1.conv.1.running_mean f4 [32]
0	0x3f83795c	1.0271411
1	0xc014e20b	-2.3262966
2	0x401ea993	2.4791
3	0x3ef39145	0.4757177
4	0xbfd54f01	-1.6664735
5	0x3f7781d9	0.96682507
6	0x3f842d02	1.0326235
7	0x40360670	2.844143
8	0xc00f84cc	-2.2424803
9	0xbf854c71	-1.0413953
10	0xc001eab9	-2.0299513
11	0x3ec0688d	0.37579766
12	0x3df98516	0.12183587
13	0x3f849c6d	1.0360237
14	0x3f56e761	0.83946806
15	0xbf63486f	-0.887824
16	0x3f64fb85	0.8944629
17	0x3f235fa9	0.6381784
18	0xbfdfab48	-1.7474146
19	0x3f43d0bf	0.76490396
20	0xbf6e6ce3	-0.931349
21	0x400845db	2.1292636
22	0xc02f013c	-2.7344503
23	0x3fdba67b	1.7160181
24	0xbfef584c	-1.8698821
25	0xbec4d5ee	-0.38444465
26	0xc0048290	-2.070469
27	0xbffcf22a	-1.9761403
28	0x3e9f72d6	0.311423
29	0xbfd41d5c	-1.657146
30	0xbfcb1cef	-1.5868205
31	0xbffd55aa	-1.9791768

encoder.blocks.1.conv.1.running_var f4 [32]
0	0x400e370c	2.2221098
1	0x40ab3921	5.3507237
2	0x40b1e40b	5.5590873
3	0x3fac5f0a	1.3466504
4	0x40336690	2.803135
5	0x3fd56b58	1.6673384
6	0x401029b7	2.252546
7	0x40fff1ca	7.9982653
8	0x40917f06	4.546756
9	0x40464356	3.0978599
10	0x40692984	3.643159
11	0x3f6d26f2	0.9263755
12	0x3fa27695	1.2692438
13	0x401069b3	2.2564514
14	0x3fb0fa90	1.3826466
15	0x401a8bc4	2.4147806
16	0x3fa6a9b5	1.302054
17	0x3fb3a969	1.4036075
18	0x406c5abf	3.6930387
19	0x3fba794d	1.4568268
20	0x400e1922	2.220284
21	0x408972f4	4.2952824
22	0x40faa163	7.8322005
23	0x4083c339	4.117581
24	0x40a62d09	5.1929975
25	0x401bfd39	2.4373305
26	0x40c0b76c	6.0223904
27	0x405cdade	3.4508586
28	0x3fcebb12	1.6150839
29	0x40398b4c	2.899127
30	0x40231af8	2.548521
31	0x40508557	3.2581384

encoder.blocks.1.conv.3.weight f4 [32, 32, 3, 3]
0	0x3c53e0c7	0.012932009
1	0xbc4fbbb4	-0.012679029
2	0x3c8059ae	0.015667763
3	0xbd4ce75c	-0.05002533
4	0xbdd0a9e0	-0.10188651
5	0xbd95b933	-0.073107146
6	0xbd95b8d9	-0.073106475
7	0xbdac6d15	-0.08419243
8	0xbd2c7e52	-0.042112656
9	0x3d10decf	0.035368737
10	0x3cd5bc13	0.026090657
11	0x3bb133cf	0.0054077874
12	0xbd41b201	-0.0472889
13	0xbcc427dc	-0.023944788
14	0xbcb2a476	-0.021806937
15	0xbc9ca216	-0.019120257
16	0x3d4b0576	0.049565755
17	0xbcba0dfa	-0.022711743
18	0xbd96f73c	-0.07371375
19	0xbd85a43e	-0.06525467
20	0xbd32a392	-0.043613024
21	0xbdc8d17a	-0.098055795
22	0xbd2f1060	-0.042740226
23	0xbd6e95d6	-0.058248363
24	0xbcc54100	-0.024078846
25	0xbcba86da	-0.02276938
26	0x3c3b73cf	0.011441185
27	0xbb923a0f	-0.0044624875
28	0xbd872aa3	-0.06599929
29	0x3cebda87	0.028790725
30	0xbb8b6d2a	-0.0042549567
31	0xbd62e863	-0.055397402
32	0xbc741f6f	-0.0149000725
33	0xbce49954	-0.027905144
34	0xbdb79acc	-0.08965072
35	0xbd768223	-0.0601827
36	0x3b76695d	0.0037599423
37	0xbd4bc5fe	-0.049749367
38	0xbc9a80b9	-0.018860208
39	0x3c9af625	0.018916199
40	0xbd30994d	-0.04311495
41	0xbd82d0b9	-0.06387467
42	0x3c42f239	0.011898571
43	0xbd2ba927	-0.041909363
44	0x3ccd2caf	0.02504572
45	0x3cec3020	0.028831542
46	0x3c239fd5	0.009986837
47	0x3de4d94f	0.11174261
48	0x3cfa2d56	0.030539196
49	0x3c0d9cda	0.008643353
50	0x3d23c600	0.03998375
51	0xbd19d1b1	-0.037553493
52	0x3cce5958	0.025189087
53	0xbd80c27f	-0.06287097
54	0xbdc35809	-0.09538276
55	0xba84609e	-0.0010099595
56	0x3d12e2f9	0.03586099
57	0xbcf1304a	-0.029441971
58	0xbb14d544	-0.0022710124
59	0xbcd73837	-0.026271923
60	0xbdaacb98	-0.08339614
61	0xb8eee6c3	-0.00011391707
62	0xbc8b9c2d	-0.017042244
63	0x3bb01673	0.00537377
64	0xbdc03d68	-0.09386712
65	0xbb9d2783	-0.00479597
66	0xbd3b809e	-0.045776956
67	0xbc1d0e29	-0.009585896
68	0xbd485034	-0.048904613
69	0xbd6f6f26	-0.05845561
70	0xbce13555	-0.027491251
71	0xbd0981e3	-0.033571135
72	0x3c95673a	0.018237699
73	0xbda97475	-0.082741655
74	0xbd605269	-0.054766092
75	0x3b1d7552	0.0024026227
76	0xbcfe654c	-0.031054161
77	0x3d3ac634	0.045599177
78	0xbb229c57	-0.0024812424
79	0x3d10c67c	0.03534554
80	0xbb8db790	-0.004324861
81	0x3d6c99ba	0.057763793
82	0x3b30cc96	0.0026977411
83	0xbd4d8cfe	-0.05018329
84	0xbd9fb3f1	-0.07797993
85	0xbd5ed092	-0.054398127
86	0x3b17a96a	0.002314175
87	0xbdd016e4	-0.10160616
88	0xbceb1db0	-0.02870068
89	0xbcdfe613	-0.027331388
90	0x3c001d50	0.007819489
91	0xbbe38ffc	-0.0069446545
92	0x3d327358	0.04356703
93	0xbc9b6fa9	-0.018974142
94	0xbce474be	-0.027887698
95	0xbc974c8d	-0.01846912
96	0x3da4213a	0.0801415
97	0x3c9dc1e3	0.019257491
98	0x3b9831a0	0.0046445876
99	0x3c9d6ead	0.019217813
100	0x3d0c01ab	0.03418128
101	0x3d8a7b8b	0.06761845
102	0xbd945728	-0.07243186
103	0xbd81241a	-0.06305714
104	0xbd88d3f5	-0.066810526
105	0xbde7f84a	-0.11326654
106	0xbdda7ad6	-0.1066796
107	0xbdbe5c51	-0.09294952
108	0x3b4605dd	0.0030215897
109	0x3cf44e27	0.029822422
110	0x3c11ebbc	0.008906301
111	0xbd8228b2	-0.06355418
112	0xbd8c5b44	-0.06853345
113	0xbda7045c	-0.08155128
114	0xbdc8567a	-0.09782119
115	0xbd30ce05	-0.043165226
116	0xbda65e67	-0.081234746
117	0xbcc5095b	-0.024052313
118	0x3d501684	0.050802723
119	0x3d4484fa	0.04797838
120	0x3cb1b7ad	0.021694029
121	0xbcd58625	-0.026064942
122	0xbc2fbb27	-0.010725773
123	0xbbc44ad6	-0.0059903665
124	0xbd4ccfbc	-0.0500028
125	0xbdc7f421	-0.09763361
126	0xbd8772b5	-0.066136755
127	0x3d562a57	0.052286472
128	0xbdc84b4b	-0.09779986
129	0xbd6e61be	-0.058198683
130	0xbce1e493	-0.027574813
131	0xbd3be6a4	-0.045874253
132	0x3ccebbbc	0.025236003
133	0xbdc80469	-0.09766466
134	0xbdae0ac3	-0.084981464
135	0xbd33a3be	-0.04385733
136	0xbdab9cd7	-0.08379524
137	0x3c291abf	0.010321318
138	0xbdd463c7	-0.103705935
139	0xbe14c803	-0.14529423
140	0xbda6ecde	-0.081506476
141	0xbe26cab1	-0.16288258
142	0xbe10d6c6	-0.1414443
143	0xbdc70e70	-0.097195506
144	0x3cefe4e6	0.029283952
145	0x3d227543	0.03966261
146	0x3a2ec8e8	0.00066675106
147	0xbc920e24	-0.017829008
148	0x3cb4ecd6	0.022085588
149	0x3cffaa3b	0.031209102
150	0xbca764ee	-0.02043387
151	0xbd7e07a1	-0.062018994
152	0xbd0e61d4	-0.034761265
153	0xbc81c9cd	-0.015843296
154	0xbdaf7db6	-0.08568899
155	0xbd2b4219	-0.041811083
156	0xbbadba8b	-0.0053017787
157	0xbdd0a5fd	-0.1018791
158	0xbcc4b3fd	-0.024011606
159	0xbc92b6fa	-0.017909516
160	0xbde8a09b	-0.11358758
161	0xbddd8b78	-0.10817617
162	0x3cd2f615	0.025752107
163	0xbd3e7e50	-0.04650718
164	0xbc13090c	-0.008974325
165	0xbc6a4541	-0.014298738
166	0xbd4761fe	-0.048677437
167	0xbd5b8624	-0.053594723
168	0xbcc6b792	-0.024257455
169	0xbdd39148	-0.103304446
170	0xbd45a16d	-0.04824965
171	0xbd5df535	-0.054188926
172	0xbdae6758	-0.08515805
173	0xbc267e2e	-0.0101619195
174	0xbd73f32c	-0.05955808
175	0x3ca94eb9	0.02066742
176	0x3c0e6e4b	0.008693288
177	0x3cce47cc	0.02518072
178	0xbd8e5ac2	-0.069509044
179	0xbd2b567c	-0.041830525
180	0xbcf63abc	-0.030057304
181	0x3cd8d01f	0.026466427
182	0xbc5234c8	-0.012829967
183	0xbdecb655	-0.115582146
184	0xbc8931a1	-0.016747298
185	0xbdcc80e1	-0.09985519
186	0xbd9bcbb3	-0.07607212
187	0xbd48faee	-0.04906743
188	0xbd38a9d6	-0.045083843
189	0xbd09ae74	-0.033613637
190	0xbcc240de	-0.023712572
191	0x3d0d54fb	0.03450487
192	0xbdb9c02d	-0.09069858
193	0xbdc22aa9	-0.09480793
194	0x3da62ef1	0.08114422
195	0x3bd9c03b	0.00664523
196	0xbdb93187	-0.0904265
197	0xbbf6cbad	-0.0075316043
198	0x3bf0e9af	0.007352076
199	0x3d3da3f5	0.04629894
200	0x3d9f494e	0.07777654
201	0x3d28ca97	0.04120883
202	0xbccbac5d	-0.024862463
203	0xbcf16ad5	-0.029469887
204	0x3d95e981	0.07319928
205	0x3cf4e3da	0.029893804
206	0xbcb0a74d	-0.02156415
207	0xbd9dbcf1	-0.07702053
208	0xbd91b44d	-0.07114468
209	0xbb42cff8	-0.002972601
210	0x3b0718e3	0.00206142
211	0xbc81b1c5	-0.015831837
212	0xbc086379	-0.008324497
213	0xbd04b377	-0.032397714
214	0x3d289779	0.04116008
215	0xbc01d9f0	-0.0079254955
216	0xbc4b9da0	-0.012427717
217	0xbcced330	-0.025247186
218	0x3c689357	0.014195285
219	0x3cb4c5d2	0.022066984
220	0x3d875de3	0.06609704
221	0xbc907a2d	-0.017636383
222	0x3d5c14fb	0.053730946
223	0xbd079f6e	-0.03311103
224	0xbc1540bb	-0.009109671
225	0xbc9c0367	-0.019044591
226	0xbdc3895e	-0.09547685
227	0xbda2c23e	-0.07947205
228	0xbdc51d47	-0.09624725
229	0xbd787d32	-0.06066627
230	0xbccb6bd3	-0.024831688
231	0xbd319242	-0.043352373
232	0xbdf9c4ef	-0.12195765
233	0xbdea7fe7	-0.11450177
234	0x3c4a3ea2	0.012344034
235	0x3cb6819a	0.022278596
236	0xbdae52ea	-0.08511908
237	0xbd77a087	-0.060455825
238	0xbd36a453	-0.044590306
239	0xbc909afd	-0.01765203
240	0xbdafac82	-0.08577825
241	0xbcda5362	-0.026651088
242	0x3ced8ae9	0.028996902
243	0xbd57880c	-0.05261998
244	0xbdbc467b	-0.091931306
245	0xbd9463a2	-0.07245566
246	0xbd27d0f5	-0.04097076
247	0xbd649b03	-0.055811893
248	0xbd846bab	-0.064658485
249	0x3c4ba2e9	0.0124289775
250	0xbd52358b	-0.051320594
251	0x3cf99caa	0.030470211
252	0x3c296ba9	0.01034061
253	0x3ddb4566	0.10706596
254	0x3ce5f652	0.028071556
255	0x3ca91249	0.020638602

encoder.blocks.1.conv.3.bias f4 [32]
0	0x3da5ea74	0.08101359
1	0xbd2ebc10	-0.04265982
2	0xbc8b9738	-0.01703988
3	0xbaeabd2b	-0.001790916
4	0x3da92f17	0.08260935
5	0xbc8022f8	-0.015641674
6	0x3cb22af4	0.021748997
7	0xbd87f1f3	-0.06637945
8	0x3be00fc8	0.006837819
9	0x3d1b7354	0.037951782
10	0xbbb0f07d	-0.005399762
11	0xbc649fcd	-0.013954115
12	0x3d0b3d1b	0.03399382
13	0x3c19bdfa	0.009383673
14	0xbd360fe5	-0.044448752
15	0xbc151087	-0.009098179
16	0x3c094228	0.008377589
17	0xbbd0584b	-0.0063581816
18	0xbd1d2e61	-0.03837431
19	0xbd067f50	-0.03283626
20	0x3d7740d0	0.060364544
21	0x3b6366d9	0.0034698753
22	0xbd0bcfb4	-0.034133628
23	0x3d9813fc	0.07425687
24	0x3d5f4925	0.054513115
25	0x3ca90e84	0.020636804
26	0xbb375250	-0.0027972646
27	0xbc47e7de	-0.012201278
28	0x3d1ae905	0.03781988
29	0x3d0ed0b6	0.03486701
30	0xbd260e30	-0.040540874
31	0xbd90dc0f	-0.07073223

encoder.blocks.1.conv.4.weight f4 [32]
0	0x3f70534a	0.9387709
1	0x3f88b2ee	1.0679605
2	0x3f76e6f0	0.9644613
3	0x3f906de4	1.1283536
4	0x3f6fc8d0	0.9366579
5	0x3f63a852	0.8892871
6	0x3f9ddee0	1.2333641
7	0x3f87f00d	1.0620133
8	0x3f810e30	1.0082455
9	0x3f7a7b3c	0.9784429
10	0x3f68f17c	0.90993476
11	0x3f8d61aa	1.104543
12	0x3f717dd0	0.943326
13	0x3f8804d6	1.0626476
14	0x3f62e044	0.8862345
15	0x3f757dda	0.9589516
16	0x3f879f6c	1.0595527
17	0x3f8c1599	1.0944091
18	0x3f65c981	0.89760596
19	0x3f699b88	0.91252947
20	0x3f81a0b8	1.0127172
21	0x3f84fa06	1.0388801
22	0x3f623678	0.8836436
23	0x3f83ca19	1.029605
24	0x3f795833	0.97400206
25	0x3f75f04b	0.9606978
26	0x3f7a8837	0.978641
27	0x3f729e26	0.94772565
28	0x3f7aed8e	0.9801873
29	0x3f732687	0.94980663
30	0x3f91d880	1.1394196
31	0x3f6866b0	0.9078169

encoder.blocks.1.conv.4.bias f4 [32]
0	0xbc8737fc	-0.016506188
1	0x3c630f4a	0.013858626
2	0xbd1b22d2	-0.037875004
3	0xbc925149	-0.017861025
4	0xbd7c4ece	-0.06159859
5	0xbd8e2c41	-0.069420345
6	0xbd95ec37	-0.07320445
7	0x3cb661f6	0.022263508
8	0xbc1f24b4	-0.009713341
9	0xbbb60e86	-0.0055559305
10	0xbdbbbcb3	-0.09166851
11	0xbb95aa9b	-0.004567457
12	0xbd746fbb	-0.059676867
13	0xbd2aadb0	-0.041669548
14	0xbdae9328	-0.085241616
15	0xbd4ada97	-0.04952487
16	0xbd515f25	-0.051116128
17	0x3cc9047a	0.024538267
18	0xbd8abdca	-0.06774481
19	0xbd9a8697	-0.07545202
20	0xbd309934	-0.043114856
21	0xbd3d8871	-0.0462727
22	0xbd902949	-0.070391245
23	0xbd1529a0	-0.03641665
24	0xbd39d064	-0.045364752
25	0xbb7a0ffa	-0.0038156495
26	0xbc4cd819	-0.012502694
27	0xbd329d92	-0.043607302
28	0xbb8cadf6	-0.0042931987
29	0xbd81c3ff	-0.063362114
30	0xbd9e2aa9	-0.077229805
31	0xbbdad058	-0.0066776685

encoder.blocks.1.conv.4.running_mean f4 [32]
0	0xc0172a6d	-2.3619645
1	0x3f16d1ff	0.5891418
2	0x3f89dfa9	1.0771381
3	0x3fa0ba57	1.2556866
4	0xc00d10aa	-2.204142
5	0xbfbb1bb6	-1.4617832
6	0x3f9ea295	1.2393366
7	0x3f70bc5e	0.94037426
8	0x3f26b0a1	0.65113264
9	0xc00885a9	-2.133158
10	0xbe7fbef1	-0.24975182
11	0x3fac9cc8	1.3485346
12	0x3f328ff4	0.69750905
13	0x3fe97e5a	1.8241684
14	0xc01220b9	-2.2832472
15	0xbe43a90c	-0.19107455
16	0x3f0eb8f3	0.5575096
17	0x3f7f293e	0.99672306
18	0x3fa76b86	1.3079689
19	0xbfe75467	-1.8072633
20	0x3f6f3518	0.9344039
21	0x3fd7b89f	1.6853217
22	0xc00b4063	-2.1758049
23	0x402cecb2	2.7019467
24	0xc00eb181	-2.229584
25	0x3ff36b3e	1.9017103
26	0x3ffc35d8	1.9703932
27	0xc013f99f	-2.3121107
28	0xc0067c57	-2.101339
29	0x3f47b359	0.7800804
30	0x3f9c2a41	1.2200395
31	0xbf8509dd	-1.0393635

encoder.blocks.1.conv.4.running_var f4 [32]
0	0x402cee97	2.7020624
1	0x40a24d51	5.071938
2	0x40a2206f	5.066459
3	0x40d3490e	6.602668
4	0x40b1dc0a	5.55811
5	0x40a4b1c7	5.1467013
6	0x401e2ea6	2.4715972
7	0x409a87e0	4.8290863
8	0x40548a85	3.3209546
9	0x4098eaf2	4.77868
10	0x409d65f7	4.918697
11	0x407d997c	3.962493
12	0x405991d7	3.3995264
13	0x40d1012c	6.531393
14	0x40df9369	6.9867444
15	0x4067566a	3.6146493
16	0x40932a65	4.598925
17	0x40867d48	4.202793
18	0x40c6feec	6.2186184
19	0x410d2f5c	8.824062
20	0x40827b27	4.0775332
21	0x409ce6b6	4.903163
22	0x40a75faf	5.23043
23	0x40b14de2	5.540757
24	0x408cd7fd	4.4013658
25	0x401437d4	2.3159075
26	0x40a9b425	5.3032403
27	0x411e56fb	9.896235
28	0x40c9192a	6.284322
29	0x406c4001	3.6914065
30	0x40b309d6	5.5949507
31	0x4058ae82	3.385651

encoder.blocks.1.skip.weight f4 [32, 16, 1, 1]
0	0xbe7ecc4c	-0.2488262
1	0x3d258570	0.04041046
2	0xbd53ee80	-0.051741123
3	0xbe565d08	-0.20933926
4	0x3e7676f4	0.24068815
5	0x3e45350c	0.19258517
6	0x3e2b8d02	0.16753009
7	0xbe4bf9aa	-0.19919458
8	0xbd2e7d58	-0.042600006
9	0x3e1aa690	0.15102601
10	0xbe7d2c50	-0.24723935
11	0xbe114c8e	-0.1418936
12	0x3c0e2900	0.008676767
13	0x3df96ad4	0.12178579
14	0xbe1c8694	-0.15285712
15	0xbdfae3c8	-0.12250477
16	0xbd1c04a0	-0.03809035
17	0xbe0a1e16	-0.1348804
18	0x3e3b3e04	0.18285376
19	0xbe298e66	-0.16558227
20	0x3e1e27bc	0.15444845
21	0x3e688d8c	0.22710246
22	0xbe163498	-0.146685
23	0xbc9a58b0	-0.018841118
24	0xbdb5494c	-0.08851871
25	0xbdfcca58	-0.123432815
26	0xbe5b4e9a	-0.21416703
27	0xbdb4b4e0	-0.08823562
28	0xbe7704de	-0.2412295
29	0x3e7a4190	0.24439073
30	0x3e4fbc3a	0.20286646
31	0x3e1f6c7a	0.15568724
32	0x3e067df2	0.13133982
33	0xbe4987ca	-0.19680706
34	0x3da4b314	0.08041969
35	0x3e748876	0.2388018
36	0xbdce9d70	-0.100886226
37	0x3d296f28	0.041365772
38	0x3cd8fc50	0.0264875
39	0x3e4dee84	0.20110518
40	0x3e3b874e	0.18313333
41	0x3dde81e8	0.108646214
42	0x3db95d68	0.09051019
43	0xbe68f4e2	-0.22749665
44	0xbe5a1046	-0.2129527
45	0xbe7713a2	-0.24128583
46	0x3e761f8c	0.24035472
47	0x3d045998	0.032312006
48	0x3e69c96e	0.22830746
49	0xbdc68088	-0.09692484
50	0x3e6a0f18	0.2285732
51	0x3d9188d4	0.07106176
52	0xbd830034	-0.06396523
53	0x3dd72ea4	0.10506943
54	0x3e5b9da2	0.21446851
55	0x3c81dff0	0.015853852
56	0xbdffbd30	-0.124872565
57	0x3e2d6c5a	0.16935864
58	0xbd8477fc	-0.06468198
59	0xbe1b2e08	-0.15154278
60	0xbe138d7e	-0.14409444
61	0xbcea99c0	-0.028637767
62	0xbd227550	-0.03966266
63	0x3d582e48	0.052778512
64	0xbe0a7854	-0.13522464
65	0x39912000	0.00027680397
66	0x3dfb9174	0.12283602
67	0xbe628654	-0.22121555
68	0x3d9c428c	0.0762988
69	0x3d327d30	0.04357642
70	0x3c08cce0	0.008349627
71	0xbe32a31e	-0.17445037
72	0xbe6cc258	-0.23121011
73	0x3e09d3da	0.13459721
74	0x3d9c3174	0.0762662
75	0x3de9daa8	0.114186585
76	0xbe026746	-0.12734708
77	0xbe184a1e	-0.14872023
78	0xbd141fc0	-0.03616309
79	0x3e2f1a9c	0.17099994
80	0xbe0141d4	-0.12622768
81	0x3e16be10	0.1472094
82	0xbe32093e	-0.17386338
83	0xbe7843f4	-0.24244672
84	0xbe4897e2	-0.19589189
85	0x3d97cb28	0.07411796
86	0x3e1333dc	0.14375252
87	0xbe6850e0	-0.22687101
88	0x3e23a3cc	0.15980452
89	0xbe4a1842	-0.19735816
90	0xbde121ac	-0.109927505
91	0xbdec3fb8	-0.11535591
92	0xbe20d5fc	-0.15706629
93	0x3e2157f4	0.15756208
94	0xbdb28d3c	-0.087183446
95	0x3e665b64	0.224958
96	0x3e222bd4	0.15837032
97	0xbe3e40ec	-0.18579453
98	0xbe1be5d6	-0.15224394
99	0xbc046aa0	-0.008082062
100	0xbe1044e4	-0.1408878
101	0xbdefe310	-0.117132306
102	0xbe4911a0	-0.1963563
103	0x3db7cff8	0.08975214
104	0x3e1bceb6	0.15215573
105	0xbc2d7260	-0.010586351
106	0xbdcc21b4	-0.09967366
107	0xbe709ae8	-0.23496592
108	0x3d8761e8	0.06610471
109	0x3d428f98	0.047500223
110	0xbe28d102	-0.1648598
111	0xbcb7a1f0	-0.022416085
112	0xbe45571c	-0.19271511
113	0xbe71b464	-0.2360397
114	0xbd154a80	-0.036448
115	0xbe0e12f2	-0.13874415
116	0x3e3e2a58	0.1857084
117	0x3db8a1f8	0.09015268
118	0xbcf78a80	-0.03021741
119	0xbc257ce0	-0.010100573
120	0xbd728bf0	-0.059215486
121	0x3cc48b70	0.02399227
122	0x3d3f5288	0.046709567
123	0xbdb98ac0	-0.090596676
124	0x3e5683e6	0.20948753
125	0x3d744018	0.059631437
126	0xbd9c4198	-0.076296985
127	0x3d170b98	0.03687629
128	0x3e215140	0.1575365
129	0xbca2cc30	-0.019872755
130	0x3d9f3310	0.07773411
131	0x3db43fb8	0.08801216
132	0xbda9abf8	-0.082847536
133	0xbd299d00	-0.041409492
134	0xbe25a53e	-0.16176316
135	0x3e79b778	0.24386394
136	0x3e1cb932	0.15305021
137	0x3c575e80	0.013145089
138	0x3cd28050	0.02569595
139	0xbe277276	-0.16352257
140	0x3e32bb5a	0.17454281
141	0x3e0cdcbe	0.13756081
142	0xbe0b95e0	-0.13631392
143	0x3bcaf2c0	0.006193489
144	0x3e49005e	0.19629046
145	0xbd233038	-0.039840907
146	0x3c92bda0	0.017912686
147	0xbd754518	-0.059880346
148	0x3e16e526	0.1473585
149	0x3d11cac0	0.035593748
150	0x3e3e8ea6	0.18609104
151	0xbe7cbb6e	-0.24680874
152	0xbbb71440	-0.005587131
153	0x3d7d2728	0.06180492
154	0x3d0d6b08	0.0345259
155	0x3ddc33b0	0.10752046
156	0x3e42bc9e	0.19017264
157	0x3cf30a10	0.029667884
158	0x3d22dfd8	0.039764255
159	0x3e2ff78c	0.17184275
160	0x3e5de63c	0.21669859
161	0x3e3fe44e	0.18739435
162	0x3a0ea400	0.0005441308
163	0x3de5a170	0.112124324
164	0x3cc6c140	0.02426207
165	0xbd8527bc	-0.06501719
166	0x3e4a0c2e	0.19731209
167	0x3d561bb0	0.0522725
168	0x3d628b98	0.05530891
169	0x3d3eb450	0.04655868
170	0xbe120554	-0.14259845
171	0xbe255aaa	-0.16147867
172	0x3d99402c	0.07482943
173	0xbe040dc6	-0.12895879
174	0xbdc1936c	-0.094519466
175	0x3e2a2104	0.16614157
176	0x3e0a2bc8	0.13493264
177	0xbd2a2bc8	-0.04154566
178	0x3cafc380	0.021455526
179	0x3d52bbc8	0.051448613
180	0xbe7694ba	-0.24080172
181	0x3d371dc0	0.044706106
182	0xbe43caa6	-0.19120273
183	0xbdba12ac	-0.09085593
184	0x3e010b9c	0.12602085
185	0x3d978c44	0.073998004
186	0xbe7a791c	-0.24460262
187	0x3e617b72	0.22019747
188	0x3e599ba8	0.21250784
189	0x3da68a14	0.08131805
190	0x3b187c80	0.0023267567
191	0x3d129d98	0.035794824
192	0xbe385456	-0.18000922
193	0x3e538e1e	0.20659682
194	0x3dc0448c	0.09388074
195	0xbdde5a60	-0.108570814
196	0xbe08197e	-0.13290974
197	0x3e7be92a	0.24600664
198	0x3e7ae438	0.24501121
199	0xbd71b4e8	-0.059010416
200	0x3e3bec78	0.18351924
201	0xbdcaa3c0	-0.09894514
202	0xbd0b2740	-0.03397298
203	0x3e325bbc	0.17417806
204	0x3e510076	0.20410332
205	0x3d586ed0	0.052840054
206	0xbe3754c0	-0.17903423
207	0x3e5b55e6	0.21419486
208	0x3e517ea0	0.2045846
209	0xbe236d06	-0.15959558
210	0xbe622afa	-0.22086707
211	0xbe44c998	-0.19217527
212	0xbdccd95c	-0.100023955
213	0xbe42d990	-0.19028306
214	0xbd0f3828	-0.034965664
215	0x3e1550ce	0.14581606
216	0x3e14ec78	0.1454333
217	0xbe1386ec	-0.14406937
218	0xbe37bf94	-0.17944175
219	0x3da24c90	0.079247594
220	0xbe775314	-0.24152786
221	0x3e5a647c	0.21327394
222	0x3e7385b2	0.2378147
223	0x3c891bd0	0.016736895
224	0xbcd74c70	-0.026281565
225	0xbe473f80	-0.19457817
226	0x3d88a2b4	0.06671658
227	0xbe081420	-0.13288927
228	0xbe23d350	-0.15998578
229	0xbd86dd28	-0.06585151
230	0xbe7377d4	-0.2377618
231	0xbe3e8364	-0.18604809
232	0x3e312eaa	0.17302957
233	0xbdb15764	-0.086592466
234	0xbd402608	-0.04691127
235	0xbe46e436	-0.19422993
236	0x3d68ee90	0.056868136
237	0xbe4f87e8	-0.20266688
238	0x3e742bf2	0.23844889
239	0xbe617354	-0.2201665
240	0x3dde3c98	0.10851401
241	0xbd7dfef8	-0.062010735
242	0xbdadd9b8	-0.08488792
243	0x3e29b464	0.1657272
244	0x3e782c4a	0.24235645
245	0xbe264ac2	-0.16239455
246	0x3cc63560	0.024195373
247	0xbda69090	-0.08133042
248	0xbd581410	-0.052753508
249	0x3c5012c0	0.012699783
250	0x3e6e7e7e	0.2329044
251	0xbb417700	-0.0029520392
252	0xbdf088bc	-0.1174483
253	0xbce5fe40	-0.028075337
254	0xbda8052c	-0.082041115
255	0x3e5fadce	0.21843645

encoder.blocks.1.skip.bias f4 [32]
0	0xbc92e880	-0.01793313
1	0xbe0d5aca	-0.13804165
2	0x3e0d6312	0.13807324
3	0xbd9fcc4c	-0.078026384
4	0xbd83c064	-0.0643318
5	0xbe0bbb28	-0.13645613
6	0xbd1fa958	-0.03897986
7	0xbe1dc768	-0.15408099
8	0x3dc97c60	0.09838176
9	0xbb9d8940	-0.0048076212
10	0x3e281f1e	0.1641812
11	0xbd188278	-0.0372338
12	0x3e4e2766	0.20132217
13	0xbdfb53e8	-0.12271863
14	0xbe034d64	-0.12822491
15	0x3e7036ac	0.23458356
16	0x3df94400	0.12171173
17	0x3e171e9a	0.14757767
18	0xbe21cd44	-0.15800959
19	0xbe624102	-0.22095111
20	0xbe2f3b72	-0.1711252
21	0xbdefb6e0	-0.117048025
22	0x3e5915f2	0.21199778
23	0x3e4e17ae	0.2012622
24	0x3da140c4	0.07873681
25	0x3d11d1f8	0.035600632
26	0xbdc7d9dc	-0.0975835
27	0x3e344cd8	0.17607439
28	0x3e0df66a	0.13863531
29	0xbe671a70	-0.22568679
30	0x3e181cf4	0.14854795
31	0xbdbaea2c	-0.09126696
