toyshapes/pinets_defaults/model_17.pth (torch, 466881 bytes, 71 tensors)

encoder.blocks.0.conv.0.weight f4 [16, 1, 3, 3]
000000 e0 59 bf 3d d4 cf 18 3d 85 4d 9f 3e 71 25 b7 bd
       0.09343314 0.037307575 0.3111383 -0.08942688
000010 2b ef 96 be be 79 a0 3d cf 6e 9c bd f5 8a 3c 3d
       -0.29479346 0.078357205 -0.076383226 0.046030957
000020 33 0e 32 bd 55 62 a0 be b9 91 a3 be 52 86 35 be
       -0.043470573 -0.3132502 -0.31947115 -0.1772702
000030 38 63 9c bd c9 8c 07 be 0b b9 06 be d1 2a e6 bd
       -0.07636112 -0.13237299 -0.13156526 -0.11238635
000040 8e e7 c1 be 3b ca a6 be 82 33 f5 3d ca f0 ab 3d
       -0.37871975 -0.32576165 0.11972715 0.08395536
000050 42 14 4d be 5b d6 93 be f1 83 fc b9 aa c1 60 be
       -0.20027259 -0.28874478 -0.0004816349 -0.21948877
000060 0a 67 0b be 0d 7c a6 3e a3 40 48 3e b2 52 52 be
       -0.13613525 0.32516518 0.19555907 -0.20539358
000070 94 7b 83 be 97 df 42 3e 01 ba 93 be 03 2c 72 3e
       -0.2568022 0.19030605 -0.28852847 0.23649602
000080 72 47 3a be 5e 35 18 3d c4 74 b3 3e 73 d3 fe 3d
       -0.18191317 0.03716027 0.35050023 0.124426745
000090 7a ed 78 3e 7e e6 3e 3e 4b 07 e9 3d 22 57 53 be
       0.2430934 0.18642613 0.11378344 -0.20638707
0000a0 e7 cc 3c be 4f ca db bc 8b 18 ec 3d cc 0f 11 be
       -0.18437539 -0.026829867 0.11528119 -0.14166182
0000b0 5a b9 28 3d 04 c3 62 3e c2 72 08 3e f4 79 7c be
       0.04119239 0.22144705 0.13325027 -0.24655896
0000c0 7f d7 54 be 9d 7c 18 3e 3c d7 6c 3e e1 00 94 3e
       -0.2078533 0.14891286 0.2312898 0.2890692
0000d0 db 1f 82 3e 09 c0 81 be 60 09 80 be 6e f4 18 3d
       0.2541493 -0.25341824 -0.25007153 0.03734248
0000e0 5d 6d 00 3e a2 cf 34 be 22 10 5b 3e 06 2d 82 be
       0.12541719 -0.1765733 0.21392873 -0.25424975
0000f0 38 83 9c 3e 57 ab 90 be 0d 18 30 3e 61 88 19 be
       0.30568862 -0.28255722 0.17196675 -0.1499343
000100 51 f4 4f bd c3 e3 90 be 62 bd 3f be ef d1 b0 bd
       -0.050770108 -0.28298768 -0.18724588 -0.08633792
000110 35 92 7b 3d 30 ea a8 be c3 e0 37 3e d9 9d bf 3d
       0.06141873 -0.3299117 0.17956834 0.09356279
000120 8a 6a 45 be 20 e5 93 be b7 f6 68 be e9 3f 0b be
       -0.19278923 -0.28885746 -0.22750364 -0.13598599
000130 cd 47 e3 3e aa 29 c0 3d af ae 18 bb 79 e8 88 be
       0.44390717 0.09382947 -0.002329748 -0.26739863
000140 14 1c 7b be 14 48 39 3e 3b a9 3c be f8 27 ea 3d
       -0.2452243 0.18093902 -0.18423931 0.11433405
000150 76 5d 46 3e 65 b8 e8 bd 6d 1c 33 3e 27 39 b8 3d
       0.1937159 -0.113632955 0.17491312 0.08995276
000160 e1 4f f5 be 1b 55 c0 3d f6 25 ec bd 1f e4 d1 3d
       -0.47912505 0.093912326 -0.11530678 0.10248589
000170 48 ef a7 bd e6 d5 7b 3b ad b3 2b be eb fe 4e 3d
       -0.08199936 0.0038427054 -0.1676776 0.050536077
000180 0f 82 58 3e 1a 7f 8a be 48 77 c9 3d 9e 4f 88 3d
       0.21143363 -0.27050096 0.09837204 0.06655811
000190 e9 bc f5 bd 49 e0 1c be 18 59 27 bc a7 0e 99 be
       -0.119989224 -0.15319933 -0.010214113 -0.2989399
0001a0 93 cf a2 3e 7b 7d 7d 3e d4 c6 d1 3e ee 8a ef 3d
       0.31798992 0.24754898 0.40972006 0.116964206
0001b0 3c fa 99 bd 59 c9 0d 3e 6b 97 16 be 49 f2 64 be
       -0.075184315 0.1384634 -0.14706199 -0.2235805
0001c0 b9 c8 98 3d ed a9 b7 bd 71 d8 95 be 4c 88 8b 3e
       0.0746016 -0.08967958 -0.29266694 0.27252424
0001d0 5c 60 96 3e cc 75 c9 bd 6b 49 c7 bd a7 f2 9a be
       0.2937039 -0.09836921 -0.097308 -0.30263254
0001e0 77 b5 4c 3e a1 40 49 3e f9 f1 b1 bd d3 dd d6 bd
       0.19991098 0.1965356 -0.08688731 -0.10491528
0001f0 db 9c b0 3d 05 a2 4e 3e 5c 90 2d be 71 28 a9 be
       0.08623668 0.20178993 -0.169496 -0.33038667
000200 a2 5a 60 be d1 ca 2e be ee 17 a3 be 2e 8f 4c be
       -0.21909574 -0.17069556 -0.31854194 -0.19976494
000210 c5 24 0c 3e 65 f1 9c be 90 dd cb 3d 8c c9 db 3d
       0.13685901 -0.3065292 0.09954369 0.107318014
000220 aa 6d 58 be 1c f2 3f 3e 69 08 00 3d 3c ef 0a 3e
       -0.21135584 0.18744701 0.03125802 0.13567823
000230 68 52 5a be 1a 8d 0b be 64 3f e6 3d ed 79 04 3d
       -0.21320498 -0.13628045 0.112425596 0.03234284

encoder.blocks.0.conv.0.bias f4 [16]
000000 ff 1e 94 3c f4 b1 26 3e dc db c8 bd 63 50 2f be
       0.018081186 0.16278821 -0.0980756 -0.17120509
000010 53 e1 46 be f3 44 c7 3d 39 6a 19 3e 10 e3 cb 3d
       -0.19421892 0.09729948 0.14981927 0.09955418
000020 f6 c5 0a 3e b5 9b 6a be df 92 ee bd 24 f2 44 be
       0.13552079 -0.2291096 -0.11649107 -0.19232994
000030 ee 0b a9 3e af ae 2d 3e 8d 04 44 bd f7 56 93 3d
       0.33016914 0.16961168 -0.047855902 0.071943216

encoder.blocks.0.conv.1.weight f4 [16]
000000 05 f3 68 3f f5 91 4c 3f 04 6d 69 3f 33 f0 96 3f
       0.9099582 0.7991021 0.9118197 1.1792053
000010 dc 17 80 3f 1e 8d 73 3f c5 0e a0 3f da 5c 4e 3f
       1.0007281 0.951372 1.2504507 0.8061043
000020 29 c0 6b 3f 87 15 76 3f 0a ac 81 3f c8 ea 76 3f
       0.9209009 0.961266 1.0130627 0.96452
000030 20 8a 78 3f 54 37 6e 3f f1 b4 57 3f f3 bc 90 3f
       0.9708576 0.93053174 0.8426047 1.1307663

encoder.blocks.0.conv.1.bias f4 [16]
000000 41 a0 ef bc 2c 59 03 be 61 c9 e7 bd f9 a8 36 3b
       -0.02925122 -0.12826985 -0.11317707 0.0027871712
000010 d2 f5 0d bd 9a cf 96 bc ea 06 ae 3d 2d fd 15 be
       -0.03465826 -0.018409539 0.084974125 -0.1464736
000020 15 6c e7 bd bf 99 b2 bd 7c fa d2 3c 76 55 13 bd
       -0.11299912 -0.08720731 0.025754206 -0.035970174
000030 39 70 d3 bc 6b 77 d0 bd 70 e6 d8 bd b7 26 86 3d
       -0.025810348 -0.10179027 -0.105908275 0.06550353

encoder.blocks.0.conv.1.running_mean f4 [16]
000000 c4 94 56 bc c0 b2 44 bf d8 44 35 be 04 cb 1a be
       -0.013096992 -0.7683525 -0.17702043 -0.15116507
000010 fb ad e7 bd 0d 16 c0 3e 71 60 e5 3d 42 0c 87 be
       -0.11312481 0.37516823 0.11200035 -0.2637654
000020 a4 6e 8d be d8 ed 47 be 24 c8 4d be ef 4d 91 3d
       -0.27623475 -0.19524324 -0.20095879 0.07094943
000030 87 9c a0 3e c8 6a 2a 3e 42 47 40 bf d0 7f d5 3d
       0.3136942 0.16642296 -0.7510873 0.10424769

encoder.blocks.0.conv.1.running_var f4 [16]
000000 c4 60 72 3b 74 c6 1c 3e 5f ae 89 3b f4 5d cc 3b
       0.0036983946 0.15310079 0.004201695 0.006236786
000010 dd cc 8f 3b 3f 49 87 3c 97 6c e3 3a 6e 81 d9 3c
       0.0043884353 0.016514419 0.0017351088 0.026550975
000020 85 5c 05 3d 09 6f 97 3b c4 63 fe 3a fe cd 92 3c
       0.032558937 0.0046213907 0.0019408395 0.01792049
000030 7b 0f 9b 3b 74 ba 61 3b 96 91 b9 3d 29 62 08 3a
       0.00473207 0.003444341 0.090609714 0.0005202615

encoder.blocks.0.conv.3.weight f4 [16, 16, 3, 3]
000000 ad b4 4b 3c 03 98 d0 bc 5a f6 e0 3c a0 66 b4 3d
       0.012433213 -0.02546311 0.02746122 0.08808637
000010 05 64 91 bb d2 0d 63 bb c2 dc 7a bd ba 1d c8 bd
       -0.004436972 -0.0034645689 -0.061245687 -0.09771295
000020 88 cf ab bd 2f fc ff bc 63 f0 47 3d 13 b2 71 bc
       -0.08389193 -0.03124818 0.048813235 -0.014751929
000030 e8 b8 6c bd 52 b3 36 bd d4 41 a7 bd a0 8d 9e bd
       -0.057793528 -0.044604607 -0.081668526 -0.077418566
000040 9e c6 bb 3c 6b bd c5 bd 40 20 f1 3d 0b 67 00 3c
       0.022921856 -0.09655269 0.11773729 0.007837067
000050 db a6 69 bd 8f e9 40 3c 52 e8 95 3d 85 3c 7b bc
       -0.05704389 0.011774435 0.07319702 -0.015334253
000060 9b e6 84 3d a4 1c f2 bc c7 14 54 bd fe e6 ef 3c
       0.06489297 -0.029554673 -0.051777627 0.02928495
000070 ed 6c 4f 3e 24 8e 13 3e 80 71 df 3d 18 d1 2b 3e
       0.20256396 0.14409691 0.1091032 0.16778982
000080 0a 04 01 3e f3 08 a7 bd 5a c9 d4 3d 57 57 5e 3d
       0.12599197 -0.08156004 0.10389967 0.054282513
000090 df eb cb bd 39 62 ab bc 17 3d 8e 3c cd b2 f7 bc
       -0.09957098 -0.02092086 0.017363114 -0.030236626
0000a0 86 78 0e bc 7c a8 fc bd 39 66 8b 3b d5 a5 60 3d
       -0.008695727 -0.12336823 0.0042541292 0.05484565
0000b0 4b 22 09 3d 01 3e 73 bc a7 6b 01 bc 7f 22 4c 3d
       0.03347997 -0.014846326 -0.0078992015 0.049837586
0000c0 b5 d3 e0 3d 97 7c 0b bc 44 58 b8 3c e3 88 7e 3b
       0.1097788 -0.008513591 0.022503026 0.0038838915
0000d0 e7 3c b0 3a 01 37 69 3d 86 f8 9e bc 73 fd 5b 3e
       0.0013445885 0.05693722 -0.019405615 0.21483402
0000e0 15 f8 a0 3d 70 e5 f6 3d 59 6c 01 3e 74 e0 66 bb
       0.07859818 0.120554805 0.12638988 -0.0035229
0000f0 87 37 9d 3d 06 a9 58 bd ee d7 01 be bd 9c 96 3d
       0.076766066 -0.05289557 -0.12680027 0.07354114
000100 60 d9 ce 3c ae 0b b0 bd c9 ce 23 3c b8 c5 08 bc
       0.025250137 -0.08595978 0.009998032 -0.008347921
000110 aa 72 ab 3c 65 0a a5 bd 7e e9 b5 bc e8 5c be bd
       0.0209287 -0.08058623 -0.022206064 -0.09295064
000120 ae b1 3b bc bf fb 3d bd 21 39 61 3d ee d8 8a bd
       -0.011455936 -0.046382662 0.054986123 -0.06779657
000130 e2 0a b0 bd cb 9c 7b 3c 02 e1 9c 3b 61 d1 5f bd
       -0.08595826 0.015357207 0.004787565 -0.05464304
000140 e1 aa c9 bc b3 42 10 bd 1e bf 18 bd 2a 28 f6 bd
       -0.024617614 -0.03521986 -0.03729164 -0.120193794
000150 90 3f 29 bd 96 ab 9c bb ee dd bf 3d 3d d4 2a 3e
       -0.041320384 -0.004781197 0.093685016 0.16682525
000160 12 54 3e 3d 59 a9 38 bd b2 2f 0e bd 64 e6 ab bc
       0.046466894 -0.045083378 -0.034713455 -0.020983882
000170 60 16 74 bd 60 13 5a bd 8a 43 ac bd 38 59 9e bd
       -0.05959165 -0.053241134 -0.084113196 -0.07731861
000180 fe 69 11 bc 01 81 8d bd c9 2e 12 be d6 05 4b 3d
       -0.008875368 -0.06909371 -0.1427566 0.049566112
000190 80 5a 95 3d 47 8a 52 3d 6e 41 46 bb 95 08 53 3d
       0.07292652 0.051401403 -0.0030251401 0.051521856
0001a0 a1 0d c1 3c 01 4c fe 3c e2 e8 66 3d e0 d8 80 3d
       0.02356607 0.0310421 0.056374438 0.062913656
0001b0 f7 0e 22 bd 93 01 23 3e 92 4a 89 bd 57 2d 86 bd
       -0.039565053 0.1591857 -0.06703676 -0.06551617
0001c0 07 23 9e 3d 7b b5 e2 bc 22 40 ad bd cb c0 bc 3d
       0.07721525 -0.027674427 -0.08459498 0.0921646
0001d0 28 b6 20 be 95 d8 13 3e 82 11 1f 3d 63 a6 be 3c
       -0.15694487 0.14438088 0.038835056 0.023272699
0001e0 44 a5 c3 bc af 1e 50 3d c1 d8 f8 3c 5e ae a1 3d
       -0.023882516 0.050810512 0.030376794 0.07894586
0001f0 49 12 97 ba 1e 86 6d 3b 64 d2 e4 bb a6 b7 10 3d
       -0.0011525835 0.003624327 -0.0069830883 0.03533139
000200 1d d5 55 3d d2 e6 c4 3c c2 93 72 3d 03 a1 44 3d
       0.052205194 0.024035845 0.059222944 0.048005115
000210 da 18 03 ba 33 6e 84 bd 82 16 1d bb 8e 6d 43 bb
       -0.00050009566 -0.06466331 -0.0023969715 -0.0029819938
000220 7e a8 62 be e5 2f 6f 3a 23 31 85 bd 00 63 73 bd
       -0.22134587 0.00091242633 -0.06503513 -0.059420586
000230 4e fe 4b be d7 d6 82 bd ac cb 00 bc ee 2f d4 3c
       -0.19921228 -0.06388634 -0.007861059 0.02590176
000240 fc 54 28 3c fd 49 9d bd 85 53 c0 3c 64 ef 43 b9
       0.010274168 -0.07680128 0.023477325 -0.00018685829
000250 20 71 26 3d d4 51 9c bc a7 8c d2 bc e1 03 28 3d
       0.04063523 -0.019081987 -0.025701834 0.041019324
000260 98 b1 2b 3b ff 4f 75 bc 94 6b 1e 3d 76 5f a2 3c
       0.0026198383 -0.014972686 0.038676813 0.01982091
000270 f3 a6 85 3d c4 4e 8b bb 6e cf 69 3d fc 46 ce 3d
       0.06525984 -0.004251333 0.057082586 0.10072133
000280 4b 61 9d bc 1c 86 35 bd 75 f4 f8 bc 9c b0 ed 3d
       -0.019211432 -0.04431735 -0.030390004 0.11605951
000290 4e 90 4f bd 4b 4b 15 3d 15 93 ed 3c 8c 15 ab ba
       -0.05067473 0.036448758 0.029000798 -0.0013052686
0002a0 33 e3 d5 bd c8 58 2f bd bc ed 01 3e 30 1b 55 be
       -0.104437254 -0.042809278 0.12688345 -0.20811152
0002b0 3e eb ca 3c c7 1d 5e be 9e 9b 0f be ad c6 47 bb
       0.024770375 -0.21691047 -0.14024207 -0.003048341
0002c0 8b a7 91 bd 8d 09 b4 bc 1b 57 40 be 7d 9b ce bc
       -0.071120344 -0.02197721 -0.18783228 -0.025220627
0002d0 e6 c3 7c bd 87 79 d6 bd 6a 3c b3 bd 61 db de 3c
       -0.06171026 -0.10472398 -0.087517574 0.027204217
0002e0 57 82 49 bd f1 4d 38 3c c6 9e ad bd 6b 96 83 bd
       -0.049196567 0.011249051 -0.08477549 -0.06425174
0002f0 d2 a1 90 bd 1d 88 89 bd 6a 98 9b 3d 86 c8 e0 3c
       -0.07062115 -0.06715415 0.0759743 0.027439367
000300 00 df b0 3d db 6d c6 3c 53 9e 2d 3d 14 ad b1 bb
       0.08636284 0.024222305 0.042387318 -0.005422244
000310 18 e2 86 bd 79 33 c6 3c 64 3e e8 bc 4f ee 0c be
       -0.06586093 0.024194466 -0.028350063 -0.13762783
000320 f7 5d 15 be ae 86 ec bd a2 8c 1a 3e f7 b6 3b be
       -0.14586626 -0.115491256 0.1509271 -0.18331514
000330 90 fd 07 be 46 6c e1 ba 8f 0b 40 be 81 22 de bc
       -0.1328032 -0.0017198406 -0.18754409 -0.027116062
000340 a1 10 0f 3d 00 dc 33 3d 8b fe c8 bd 7d 77 93 3d
       0.034927968 0.04391098 -0.09814175 0.07200525
000350 92 57 cc bd 69 6a 52 bd 11 24 36 3b 41 48 94 3d
       -0.0997764 -0.051371012 0.0027792493 0.07240344
000360 61 e2 75 bc 45 c8 fd 3b 93 a7 13 3b cc 56 e6 3b
       -0.015007586 0.0077448213 0.0022530302 0.00702939
000370 3e 98 47 3d 48 49 96 3c c9 a2 39 bc 1c 22 71 3c
       0.048729174 0.01834549 -0.011330315 0.014717605
000380 c7 9b b5 3d ec ae 4b 3d e7 af df bb 16 c4 44 3d
       0.08867603 0.049727365 -0.006826389 0.048038565
000390 14 18 79 bd 96 c6 65 bd ad 62 16 3d 83 43 8e bd
       -0.06081398 -0.05609759 0.0367152 -0.069464706
0003a0 02 f9 9e 3d 14 5c 0e be 55 ac a4 3d 88 61 09 bd
       0.07762338 -0.13902313 0.08040682 -0.03354028
0003b0 a2 8e 7e 3d 8e 0f d8 3b 71 81 6e 3d 11 13 08 be
       0.062147744 0.006593651 0.058228914 -0.13288523
0003c0 91 19 b2 bd d4 1f d3 3d 83 12 85 bd ba 22 0f bc
       -0.08696283 0.10308805 -0.064976715 -0.008736307
0003d0 e3 d4 ab bd 19 d3 46 3c 2b 5f 25 3d 3e d0 24 bd
       -0.08390214 0.012135291 0.040373962 -0.040237658
0003e0 29 57 0d 3d dc 35 86 bc d6 6f 60 3c df c2 42 3c
       0.03450695 -0.016383104 0.013698539 0.011887281
0003f0 aa f0 8c bd b5 ce 77 3d df ac ac 3a ca 84 2b bd
       -0.068818405 0.060499866 0.0013174078 -0.041874684

encoder.blocks.0.conv.3.bias f4 [16]
000000 8f ca 62 3d 10 92 a7 bd 58 9b 05 3e 48 55 33 3d
       0.055368956 -0.08182156 0.1304754 0.043782502
000010 53 98 7e 3d 3d bc f3 bd 5b f6 44 3c be 4e 85 3d
       0.062156986 -0.11901138 0.012021626 0.065091595
000020 66 7d 10 3d d6 c1 c1 3d e0 9e a9 3d 90 30 a2 3c
       0.03527584 0.094607994 0.08282256 0.019798547
000030 fe 43 b5 3d 0c bb ec 3c ac 42 0b bc 5e 96 3e 3d
       0.08850859 0.028897785 -0.0084997825 0.04653012

encoder.blocks.0.conv.4.weight f4 [16]
000000 52 6c 82 3f 74 55 72 3f cb fd 8a 3f 7a ef 70 3f
       1.0189307 0.9466164 1.0858701 0.9411541
000010 4a c4 6e 3f 3d 54 80 3f df 93 85 3f 56 2d 6c 3f
       0.93268263 1.0025707 1.0435752 0.9225668
000020 96 a8 8c 3f 61 c5 5e 3f b3 75 70 3f 69 ad 90 3f
       1.0988948 0.87019926 0.93929595 1.130292
000030 27 58 7d 3f 8c 5c 70 3f 97 86 87 3f e7 40 78 3f
       0.98962635 0.93891215 1.0587949 0.96974033

encoder.blocks.0.conv.4.bias f4 [16]
000000 75 e4 dd bc 89 e1 c4 3c ea a0 a7 3d c1 3d da 3c
       -0.027086476 0.024033325 0.08184989 0.026640775
000010 8d aa c3 bb 99 94 2b 3d 2d 2e 8f 3c 50 33 3e bd
       -0.005971259 0.04188976 0.017478073 -0.046435654
000020 69 08 01 bd b0 5b eb 3c 4d 25 4a 3c 16 87 4d 3d
       -0.03150216 0.028730243 0.012337995 0.050177656
000030 d4 ae c8 3c 95 96 d7 bc 5d a0 1f 3d 7c e0 24 bd
       0.024497427 -0.02631692 0.038971294 -0.040253147

encoder.blocks.0.conv.4.running_mean f4 [16]
000000 8c f1 1c bd 77 60 27 bf 85 37 d6 3f f0 88 89 bf
       -0.038316295 -0.6538157 1.6735693 -1.0744915
000010 df 83 43 bf 92 77 e3 3d ff af d8 3d f4 d3 a7 be
       -0.76373094 0.111067906 0.105804436 -0.32778895
000020 8b 17 7b 3e 8a e2 58 bf 53 ed ce 3e 12 2f d6 3d
       0.245207 -0.8472067 0.4041544 0.10458197
000030 e7 80 d9 3e 36 6c 23 bf 99 cb b1 be ca ca f9 3e
       0.42481157 -0.6383699 -0.34725645 0.48787528

encoder.blocks.0.conv.4.running_var f4 [16]
000000 78 10 8e 3f a3 e7 4f 3f 23 79 b1 3f be 17 a0 3f
       1.1098776 0.81212825 1.3865093 1.2507246
000010 f1 22 28 40 0e 51 f6 3e 9b 28 05 3f 7b 90 49 3f
       2.6271327 0.48108715 0.52015084 0.78736085
000020 ce d3 af 3f a9 a9 04 40 de 64 0a 3f a9 ab e4 3e
       1.3736513 2.0728552 0.5406016 0.44662216
000030 17 4b 05 3f 8c 02 9a 3f 45 89 ed 3e 76 92 0a 3f
       0.52067703 1.2032027 0.4639379 0.5412973

encoder.blocks.0.skip.weight f4 [16, 1, 1, 1]
000000 30 1d 66 3e c0 ec 2e be 20 b2 a4 3e 38 7f 06 be
       0.22472072 -0.170825 0.3216715 -0.13134468
000010 b4 0c d8 3e e6 16 5c 3f a0 dd 23 be d0 96 e2 3e
       0.42197192 0.8597244 -0.16002512 0.44255686
000020 7a 6d 7d 3f 00 00 dc b6 1a 92 58 3f 90 8b c9 3d
       0.9899517 -6.556511e-06 0.84597933 0.098410726
000030 aa 86 4a 3f 1a b8 6f bf c8 a9 48 bf 40 54 94 be
       0.7911173 -0.9364029 -0.78384066 -0.28970528

encoder.blocks.0.skip.bias f4 [16]
000000 8a 2a 7a 3f 28 ce b4 be 08 ed ed be 02 c8 38 3f
       0.9772116 -0.35313535 -0.46469903 0.7218019
000010 c0 7d 8b bd 48 32 cd 3e 4c a4 b2 3e 20 7f 10 bd
       -0.06811094 0.40077424 0.34890974 -0.035277486
000020 c0 5f be bd cc 2d cf 3e 1a 3b 34 3f dc d0 7c 3f
       -0.092956066 0.40464628 0.7040268 0.98756194
000030 20 08 f4 3e 5c 04 65 bf 30 69 74 be c0 94 e5 3e
       0.4766245 -0.89459777 -0.23868251 0.4484005

encoder.blocks.1.conv.0.weight f4 [32, 16, 3, 3]
000000 ec aa 15 be 0a a9 45 3c 5a b1 06 3e f8 15 19 be
       -0.14615983 0.012064228 0.13153592 -0.14949787
000010 64 4f 9b bd ed d9 7b 3d 20 44 06 be ba 49 80 bd
       -0.07583502 0.061487127 -0.13111925 -0.06264062
000020 06 dd 7c 3d 01 4e c4 3d 91 3a 4b 3d f5 e6 be 3c
       0.061734222 0.095851906 0.0496164 0.023303488
000030 ff d0 21 3e 42 60 8f 3d fc a3 19 bd 78 51 a4 3d
       0.15802382 0.070007816 -0.037509903 0.080233514
000040 a7 a5 78 3d 8a 74 52 3d 77 19 53 3d 08 78 68 bc
       0.060704853 0.05138067 0.051537957 -0.014188774
000050 51 04 f8 bc 55 1b 2f 3d a4 e0 0e 3e 1b ab 34 bd
       -0.030275496 0.042750675 0.13952881 -0.04410849
000060 dc 6d 7d bd aa 0f 03 3e 26 41 2b 3b c5 6e 07 be
       -0.06187235 0.12798944 0.002613136 -0.13225849
000070 f5 43 58 bd 6d 25 b9 bc 93 3b c5 bd c1 a4 01 3d
       -0.052799184 -0.022600854 -0.096305035 0.031651262
000080 2d 5c 93 3b 95 f4 3b bc a3 62 09 3d e4 0a 0f 3d
       0.004497072 -0.011471887 0.033541333 0.034922495
000090 55 5c 6e 3d 50 16 7d 3d e7 b7 01 3d 8f 19 89 bd
       0.058193523 0.061788857 0.031669524 -0.06694328
0000a0 f4 4e 17 bd a4 88 7d 3d a9 ed e2 bd 6c e2 db ba
       -0.03694053 0.06189789 -0.11080486 -0.0016775853
0000b0 76 3b 3d 3d de d7 a2 3d 25 25 07 bd a3 79 5b bd
       0.046199284 0.0795133 -0.03299441 -0.0535828
0000c0 12 05 0e 3c 28 6c 69 bd 0d 3a 2c 3d cf 1d 8d 3d
       0.008668201 -0.05698791 0.04204755 0.06890451
0000d0 f8 65 b7 3d 79 d0 15 3c 16 b9 c9 3d a2 a1 62 bd
       0.08954996 0.009143942 0.098497555 -0.055329926
0000e0 91 ff 09 be 3b 1e b7 3c 55 4e e4 3d 06 98 3d bd
       -0.13476397 0.022353282 0.11147753 -0.04628756
0000f0 c9 d3 de 3c e7 95 99 3d c7 3c 42 3d 3c 52 26 bd
       0.027200596 0.07499295 0.047421243 -0.04060577
000100 ce 04 dc 3d 56 47 40 3d 94 39 c6 3d 14 ba 2d 3d
       0.10743104 0.04694303 0.09678951 0.042413786
000110 50 a2 d5 3d 34 05 2c bc aa fc 59 bd a6 94 f7 3d
       0.10431349 -0.010499287 -0.053219475 0.12088899
000120 9c 17 70 3d 25 49 f6 bc 0b 41 c3 bd 7c 62 01 bd
       0.058616266 -0.030064175 -0.0953389 -0.031588063
000130 c3 d4 15 bd 06 be 54 bd f9 e0 90 bd 45 71 b7 bd
       -0.03657986 -0.051939033 -0.0707416 -0.08957151
000140 81 bd d3 bd 8d 55 b9 bc ae 4d 05 3e 3e 1e 7a bc
       -0.103388794 -0.022623802 0.13017914 -0.015265999
000150 40 8d 96 3c 3a b9 97 3d b3 1c d1 3b c1 9c b4 3d
       0.0183779 0.07408376 0.006381595 0.08818961
000160 35 cd a2 3d c5 e7 2d 3e cc 0a 4f 3d a6 85 1c be
       0.079492964 0.16982944 0.050547406 -0.15285358
000170 71 8d 4d bd 81 e1 04 3d 43 1f 30 bc db e3 a7 bd
       -0.050183717 0.03244162 -0.010749641 -0.08197757
000180 40 d2 a2 3b 65 2c 1a bd 28 a6 d2 bd ed b4 51 3e
       0.0049689114 -0.037639994 -0.10285598 0.20479174
000190 1c b5 db bc 76 e9 a6 bd 2c 32 03 3e a9 04 2f 3e
       -0.026819758 -0.08149998 0.12812108 0.17091621
0001a0 6d 62 7e bd e0 5b ac 3d f0 b2 37 3e b8 62 9c 3d
       -0.062105585 0.08415961 0.17939353 0.076360166
0001b0 7b 75 fa 3c 77 a4 af bd d5 4c 78 bd 20 d8 3d 3d
       0.030573597 -0.08576291 -0.060620148 0.04634869
0001c0 fe e3 8a bd ba 08 13 bd b0 c2 8c 3d 53 9a 86 bc
       -0.06781767 -0.035896994 0.06873071 -0.01643101
0001d0 19 f0 ab bc fe b0 ad bd d1 84 2b 3c 46 e5 06 bd
       -0.02098851 -0.08481024 0.010468678 -0.032933496
0001e0 83 32 21 3d 67 55 bb bd 29 98 71 bd e1 cb b4 3d
       0.039354812 -0.091471486 -0.058983 0.08827949
0001f0 e1 71 21 bd c0 4c 34 bd 76 d1 51 bc 3d de ee bd
       -0.039415244 -0.044018507 -0.012806287 -0.11663482
000200 0e 10 c5 bd 41 d3 06 3d 68 7d 83 bd c0 9d 0c be
       -0.09622203 0.03291631 -0.06420404 -0.13732052
000210 9c 3e 38 bd b4 04 db 3d 52 91 82 bd 94 50 a5 3d
       -0.044981584 0.106942564 -0.06375374 0.0807201
000220 55 44 8b bd de 2b 93 b9 c6 93 86 bd 24 9d 07 bd
       -0.06800143 -0.00028070709 -0.06571154 -0.033108845
000230 3c 95 72 bd 2c 88 6a bc 25 a1 c8 3c 3f 56 35 bb
       -0.059224352 -0.0143146925 0.024490902 -0.0027669815
000240 1e d4 d2 3d bc 6f 9c bd 3a 00 33 3d 5c 30 6f 3a
       0.102943644 -0.07638499 0.043701388 0.00091243326
000250 34 78 bb 3d 20 e7 7f bd 86 3b 0b bd 2e e5 73 bd
       0.09153786 -0.062476277 -0.033992313 -0.059544735
000260 15 e8 cb bd 3e 69 e3 3c dd 5f 5d bd 3a f8 53 bc
       -0.099563755 0.027760144 -0.0540465 -0.0129376
000270 eb 51 fa 3d 54 d8 a2 bd ec a1 88 3b 09 40 9c 3c
       0.12222656 -0.079514176 0.004169693 0.019073503
000280 cf 18 2e 3c 73 9e 23 3c eb 2d a7 3c 45 c5 1f bd
       0.010626032 0.009986508 0.020407638 -0.03900649
000290 b3 92 70 3d 0d 35 7e 3d d5 4a b6 bc e0 60 a8 bd
       0.058733653 0.062062312 -0.02225248 -0.082216024
0002a0 ed 36 af 3d a3 ec 06 be eb 4a 59 be e0 23 0c bd
       0.08555398 -0.13176207 -0.21219985 -0.0342139
0002b0 cf a6 dd bd 56 5d dc bd 38 4f 0a 3d dd b7 b0 bd
       -0.10822832 -0.1075999 0.033766955 -0.08628819
0002c0 2d 25 1e be e8 d6 86 3c ea 4d 8a bc 58 9d be 3c
       -0.15443869 0.016459897 -0.016882855 0.023268387
0002d0 54 cf 26 bd bd 7c 8c bd 0c 4f e1 3d a6 49 f9 3b
       -0.040725067 -0.068597294 0.11001405 0.0076076565
0002e0 04 6b 98 3d 88 2e 22 3d 14 7f 32 3d be 32 1b 3d
       0.074422866 0.039595157 0.043578222 0.03789019
0002f0 c3 ce 19 3c 1e 57 fc 3b 8c 7e 0e bd 89 c1 08 bd
       0.009387675 0.007700815 -0.034788653 -0.033387695
000300 9d 44 c9 3d cc f8 3c 3c 5d b3 2a 3d 93 c6 0b 3e
       0.0982754 0.011533927 0.04167496 0.13649969
000310 21 c8 9e 3d 49 9c 3d bd c1 39 f7 3d 31 69 59 ba
       0.07753015 -0.046291623 0.120715626 -0.0008293568
000320 7d 85 8f bd b6 f3 b9 3d be 37 74 3b 33 1e ea 3b
       -0.07007883 0.09079687 0.003726467 0.0071447133
000330 ca 9c cc 3d 82 a5 0d be 6c 43 06 be 84 7d 4a 3d
       0.09990843 -0.13832667 -0.13111657 0.049436107
000340 1b 9c 4e 3d 55 e4 12 3d 0f 75 31 bd 3c 50 83 bc
       0.050441843 0.035862286 -0.043324526 -0.01602947
000350 75 88 29 3c 19 49 b0 3d 1b 97 a3 3d a0 7d 98 3d
       0.010347475 0.08607692 0.079878055 0.07445836
000360 06 8a 00 3c 6e be a2 bd e8 11 5d bc 1e 9a d5 bd
       0.007845407 -0.07946478 -0.013493039 -0.10429786
000370 7f 9c f9 bc e9 13 8f 3d 7c 40 43 3d cc 8f 1c bd
       -0.030470131 0.069862194 0.04766892 -0.038223073
000380 df ac 6d 3d d8 4e 0d 3d 5c 41 84 bd d1 6e 64 3d
       0.05802619 0.03449902 -0.06457779 0.055769745
000390 9f d0 71 3d ba 2b ac 3b 19 95 a6 bc 3e 01 09 3e
       0.059036847 0.005254236 -0.020334767 0.1337938
0003a0 a5 7e 11 3d 47 65 ab 3c a8 a0 4b bd 39 81 ad 3c
       0.03552117 0.020922316 -0.04971376 0.021179782
0003b0 61 41 ae 3d c5 eb d8 3d 83 ba ed bb a8 3c a9 3c
       0.08508564 0.105918445 -0.0072549 0.020658806
0003c0 dc e4 31 bd d3 4b 47 bd b6 34 8c bd 4e cd 7c bd
       -0.043431148 -0.048656296 -0.06845991 -0.06171923
0003d0 6c ac c3 bd 49 92 f4 bd b3 5d d9 3d 1f 1f 10 bb
       -0.09554371 -0.11941964 0.10613575 -0.0021991206
0003e0 0c 9b 22 be 33 22 2d 3e cc 03 22 3d ed 85 6c be
       -0.15879458 0.16907577 0.039554402 -0.23097964
0003f0 db a1 8f 3d fa 2b 8c 3c e9 44 95 bd ba 1a 77 bc
       0.07013293 0.017110813 -0.07288534 -0.015082056

encoder.blocks.1.conv.0.bias f4 [32]
000000 aa f5 83 bc fd a4 87 bc 7c 94 38 bd a8 59 be bd
       -0.016108353 -0.016558165 -0.04506348 -0.09294444
000010 fa 50 44 3d 11 68 ea 3d 4a ac 58 3c 48 92 12 bc
       0.047928788 0.1144563 0.013224671 -0.008946009
000020 43 86 59 3d 58 1f b7 3d 94 a4 b2 3c ea 99 31 bc
       0.053106558 0.08941525 0.021806993 -0.010839919
000030 43 5c 05 3d f7 06 24 38 e1 99 8d 3d 8e 34 9f 3c
       0.03255869 3.9107133e-05 0.06914116 0.01943424
000040 2d e5 88 bc 1f d8 35 bd dc d3 52 3d d9 78 58 3d
       -0.016710842 -0.044395562 0.051471576 0.052849624
000050 d6 48 ed bd ee ca 52 bd e1 9c 8a bd d0 20 a1 bd
       -0.11586158 -0.05146306 -0.067682035 -0.078675866
000060 84 7b c1 3d ff e0 85 3c 6d 9f 00 3d 0b 71 9c bd
       0.09447387 0.016342638 0.03140204 -0.07638749
000070 16 ee b6 bc 81 1e 5d bd 60 6f 26 3b 46 73 37 bd
       -0.022330325 -0.05398417 0.0025395975 -0.044787668

encoder.blocks.1.conv.1.weight f4 [32]
000000 f0 8e 98 3f b8 d7 72 3f ef b5 7a 3f cf c2 5b 3f
       1.1918621 0.9486041 0.9793386 0.8584413
000010 04 08 77 3f ad 51 89 3f a6 a9 79 3f 71 bd 6f 3f
       0.96496606 1.072805 0.9752449 0.9364844
000020 ac 98 82 3f e3 c5 78 3f 12 dc 6a 3f be 9e 6f 3f
       1.0202842 0.9717695 0.9174205 0.93601596
000030 8f 82 8a 3f fa 57 72 3f e4 22 72 3f b3 3e 6e 3f
       1.0821093 0.9466549 0.9458449 0.9306442
000040 ac ff 6d 3f 45 4b 83 3f 93 5c 80 3f 0b 0c 62 3f
       0.9296825 1.0257345 1.0028251 0.88299626
000050 b3 30 6a 3f 0d 38 83 3f e2 06 60 3f 56 ca 74 3f
       0.9148056 1.025148 0.875105 0.9562124
000060 8f 4f 72 3f 36 63 8c 3f 19 d1 81 3f 12 96 79 3f
       0.94652647 1.0967777 1.0141937 0.97494614
000070 20 ad 6d 3f 3f c2 72 3f 7e f9 78 3f 46 eb 70 3f
       0.9284229 0.94827646 0.97255695 0.94109

encoder.blocks.1.conv.1.bias f4 [32]
000000 28 20 98 3c 0e b5 61 bd 70 b5 48 ba 6a 56 67 bd
       0.01857002 -0.055104308 -0.0007656431 -0.056478895
000010 97 5a 4a bd ae 66 03 bd 3f 1f 22 3d cd c0 fd 3c
       -0.0494028 -0.032080345 0.03958058 0.030975724
000020 ed 9c 0e 3d 78 51 5b bc 28 5c 1b bd b7 69 51 3d
       0.034817625 -0.013386123 -0.037929684 0.05112621
000030 1f 23 15 bc 44 84 43 bc cd db a1 3d 38 fc c7 bb
       -0.009102612 -0.01193339 0.07903252 -0.006103065
000040 84 3e 67 bd 0c 35 a6 3b c6 f4 dd 3c 2a cd 12 bc
       -0.056456104 0.0050722416 0.027094256 -0.008960048
000050 a1 39 3b bd 64 68 e9 ba a0 3d d4 bd 4b 9d a4 3c
       -0.045709256 -0.00178076 -0.103633165 0.020094534
000060 76 5c c3 bc 16 d6 34 bc c1 da c9 3c 9d 9f 95 bc
       -0.0238478 -0.01103737 0.024640443 -0.018264586
000070 53 6f 39 bc b5 c9 c7 3a 61 3d 8f 3c ff 05 d3 3b
       -0.011318046 0.0015242608 0.017485322 0.006439924

encoder.blocks.1.conv.1.running_mean f4 [32]
000000 ea 77 73 3e db 99 c6 be 43 60 60 c0 87 bf ef bf
       0.23776212 -0.38789257 -3.5058753 -1.8730325
000010 f5 86 64 3f 26 b6 a2 3f 5b 0e 38 c0 f4 67 8c be
       0.8926843 1.2711837 -2.8758762 -0.2742306
000020 54 2f 18 bf 69 30 b9 3f 2d 4f 79 bd 09 e9 25 c0
       -0.59447217 1.4467899 -0.060866524 -2.5923483
000030 21 7a a8 3e db dc b9 3f 8a 88 5b c0 37 e7 28 bf
       0.32905677 1.4520525 -3.4302087 -0.65977806
000040 69 5d 1b c0 e2 ad 96 be 12 3c 88 3f d0 4d c3 bf
       -2.4275763 -0.29429537 1.0643332 -1.5258121
000050 ff 24 73 c0 64 3b 43 3e 96 79 fd bd 44 df 20 3e
       -3.799133 0.19065624 -0.12376706 0.15710169
000060 cc 91 f4 bf 85 57 5e 3e 16 fe 40 c0 4c 04 b1 3f
       -1.9106994 0.21713074 -3.0155082 1.3829436
000070 52 8b 71 3f 43 21 b0 3f d3 71 82 3f ff a3 13 c0
       0.9435321 1.3760151 1.0190986 -2.3068845

encoder.blocks.1.conv.1.running_var f4 [32]
000000 9c dc c7 3f 79 78 0f 40 de 08 26 41 68 22 97 40
       1.56142 2.241728 10.377165 4.72295
000010 58 fb 79 3f 9b 8d 23 40 cd 3c f4 40 96 4e fd 3f
       0.97649145 2.555518 7.632422 1.9789608
000020 86 c2 12 40 28 8b 3e 40 67 15 23 40 9d 90 d9 40
       2.2931228 2.9772434 2.5481813 6.798903
000030 17 69 37 40 40 ea 4d 40 d9 94 34 41 7d 89 e3 3f
       2.8657892 3.2174225 11.28634 1.7776333
000040 49 d5 c2 40 da c9 a5 3f b8 11 0d 40 6a df 65 40
       6.088536 1.2952225 2.2042065 3.591761
000050 d6 b7 38 41 da 7b b2 3f 36 0b 17 40 99 76 1b 40
       11.544882 1.3944046 2.3600593 2.4291136
000060 80 c5 3b 40 27 18 bd 3f 52 6d fd 40 f7 e6 2a 40
       2.9339294 1.4772996 7.919595 2.670347
000070 30 e4 81 3f 06 ea 96 40 53 aa cd 3f e6 7c eb 3f
       1.0147762 4.7160673 1.6067604 1.8397491

encoder.blocks.1.conv.3.weight f4 [32, 32, 3, 3]
000000 75 f0 55 be d8 49 f4 bd 4b 74 9f 3b 8a 1a a6 bd
       -0.20892508 -0.11928147 0.004866158 -0.08110531
000010 77 0b 24 be 1a 91 15 bd e1 18 7c 3c c9 c0 2f bd
       -0.16019998 -0.036515333 0.015386791 -0.042908464
000020 ca c9 e5 bd 52 16 47 3d fa 16 7a bc 75 50 83 3d
       -0.11220129 0.04860527 -0.015264267 0.0641183
000030 3f fb 2a 3d e5 6b 0e 3d 6f 0a 3a 3d 64 e8 94 3d
       0.041743513 0.034770865 0.045420107 0.072708875
000040 3a 64 52 bc 98 f4 8e 3d 1f b2 51 3d 0e 45 be 3b
       -0.012841279 0.06980246 0.05119526 0.005806572
000050 b0 cd fb 3b 26 48 31 3d 13 15 f7 3c 7c b2 83 bd
       0.007684432 0.043281697 0.030161416 -0.064305276
000060 29 62 a1 3d 47 05 43 bb c6 1f 3a 3c 74 b4 a5 bc
       0.07880051 -0.0029757784 0.011360114 -0.020227648
000070 29 02 3b 3d 89 9f 7f bd 55 8b 6e bc 7d af 0a bd
       0.045656357 -0.062408004 -0.0145595865 -0.033858765
000080 dd 1c ac bd 51 42 6a 3d a8 9a 0f bd 28 e3 d4 bd
       -0.08403943 0.05719215 -0.0350596 -0.10394889
000090 a6 f4 9e 3b fb 6e 24 bc 99 14 1d bc e2 cb 55 bd
       0.0048509417 -0.010036225 -0.00958743 -0.05219639
0000a0 ca 71 6b 3c a4 6c a3 bc 59 30 8f bd 11 4a 25 bd
       0.014370391 -0.019949265 -0.069916435 -0.04035384
0000b0 ca de 29 bc ac 90 14 be 1e 45 19 3d b0 85 09 be
       -0.010368058 -0.14508313 0.03741943 -0.13429904
0000c0 b2 9e 45 bd 27 75 21 3d 92 77 0a be cf f3 97 bd
       -0.048247047 0.039418366 -0.13522175 -0.0741955
0000d0 4c 7c 9b 3c a2 75 a0 bd 85 d1 3e 3d de ab 02 bd
       0.018980168 -0.07834937 0.046586532 -0.031902187
0000e0 7a 49 98 bd 61 40 cb bc 9d 55 a1 3d f6 2d a8 bc
       -0.074358895 -0.024810972 0.078776576 -0.020529728
0000f0 1d 76 8e bc 15 94 09 3d 10 db 52 bd e6 61 0e be
       -0.017390305 0.033588488 -0.051478446 -0.13904533
000100 0b a8 ad bd 4c 13 a8 bd e5 f3 39 bd c0 06 df bd
       -0.08479317 -0.082068056 -0.04539861 -0.10889959
000110 ab 98 02 be 66 39 25 bd 4c f2 78 bd 41 2a 55 bd
       -0.1275355 -0.040337943 -0.060777947 -0.05204225
000120 91 b0 80 bd 7a dc 16 bd 16 d3 5d bd 64 a7 de bc
       -0.06283677 -0.036831357 -0.054156385 -0.027179427
000130 07 cc b1 3c c2 33 de bd 93 9e 0b bc 00 05 96 bd
       0.021703733 -0.10849716 -0.008521694 -0.073251724
000140 cf 86 85 bd e9 dc 81 bd 92 4e a7 3d 90 a6 cc bc
       -0.06519853 -0.063409634 0.08169283 -0.024981767
000150 b4 2d 0a bd 81 0b ba 3b 7b aa 69 3d 8b 3c 95 3b
       -0.033734992 0.005677641 0.05704735 0.0045543364
000160 37 a1 a4 3c d8 68 cb 3c ba a2 88 3d d3 79 7f 3d
       0.020096404 0.024830267 0.06671663 0.06237204
000170 fc 65 02 bd 37 08 f1 3d c3 65 82 3d 41 ed a1 bd
       -0.03183554 0.11769145 0.06367066 -0.07906581
000180 74 2a c3 3d 1a c2 81 3d c4 28 b3 ba de a3 db 3c
       0.09529582 0.0633585 -0.0013668765 0.026811536
000190 e8 15 b3 3b fe 85 0a be 0c d0 41 bd 80 4c a2 bd
       0.005465258 -0.13527676 -0.04731755 -0.079247475
0001a0 df 9e 09 be b2 18 41 bd 5c 51 1d bd 8d 65 c6 bd
       -0.13439511 -0.047142692 -0.03840767 -0.09687338
0001b0 a5 91 1b bd 3a ce 88 bd b5 dc d9 bc 96 7f c3 bb
       -0.037980694 -0.066799596 -0.0265945 -0.005966137
0001c0 ee 29 c4 bb 96 31 1c bd ce 89 9b 38 35 cc 20 bd
       -0.0059864437 -0.038133226 7.416644e-05 -0.039257247
0001d0 37 be 89 bd 8e ec 33 bd e8 08 84 bd 7a b0 85 bd
       -0.06725734 -0.043926768 -0.06447011 -0.06527801
0001e0 ff 6a fb bd 13 2b 6c bd 91 dd b0 bd 6d e3 40 3d
       -0.12276267 -0.057658266 -0.086360104 0.04709189
0001f0 fa af ed 3c 0f 9d 0c bd a1 ca 5e bd d0 b6 11 3d
       0.029014576 -0.03432947 -0.05439246 0.035574734
000200 37 81 a8 bd 70 12 1c bd 2e e7 7d bd 9b c3 88 3b
       -0.08227771 -0.03810352 -0.06198805 0.0041737086
000210 49 8d 40 bd 7d c8 7c bd 05 9f 7b bc a4 5b 7d 3d
       -0.04700974 -0.061714638 -0.015357737 0.061854973
000220 ab d6 fb 3c f3 74 e2 3d f3 24 ee bc ff 8a 0f 3d
       0.03074201 0.110574625 -0.029070353 0.035044666
000230 ec 8f 4e 3d d4 62 40 3d 6f 9a 20 3c 92 9c ab 3d
       0.050430223 0.04696925 0.009802445 0.08379473
000240 c1 1e 62 3d fa b3 59 bc 7f f5 a9 bc 34 15 15 bd
       0.05520511 -0.013287539 -0.020746944 -0.036397174
000250 74 89 09 3d ea 01 74 bd b2 31 22 3d 15 da 54 3c
       0.03357835 -0.059572138 0.039598174 0.012991448
000260 20 f8 17 be 9a 80 83 bd ad 3b 93 bd 97 9d 01 bd
       -0.14840746 -0.06421013 -0.071891166 -0.03164443
000270 52 41 7e bd f2 2c dd bd 82 d4 9a bd d4 52 b7 bc
       -0.062074013 -0.10799588 -0.07560064 -0.022378363
000280 0d ce 64 bd 1f c9 bf bc 69 60 c2 bd bb 32 95 bd
       -0.055860568 -0.023411332 -0.09491045 -0.07285067
000290 b5 29 e6 bc 27 56 eb 3a 8a 37 10 bd b8 8f 03 3d
       -0.02809606 0.0017954753 -0.035209216 0.032119483
0002a0 39 32 95 bd 9c 5c 82 bc aa 32 c7 bc ad 83 57 bb
       -0.0728497 -0.0159133 -0.02431615 -0.0032884881
0002b0 cf c7 54 3d 30 f0 24 3d ea f1 95 3d 62 a8 9b 3d
       0.051948365 0.040268123 0.07321532 0.07600476
0002c0 9a 09 43 bd 9a 41 11 3d 94 48 ce 3d 93 15 b6 3b
       -0.04761658 0.035462953 0.10072437 0.005556771
0002d0 9c af 9f 3c a7 b8 47 3d b4 84 44 bd 4d 8c d2 bc
       0.019492917 0.048760083 -0.047978118 -0.025701666
0002e0 9f 9e eb bb 09 0a 52 3d 50 79 42 3d f9 d0 9b 3a
       -0.00719054 0.0512791 0.047478974 0.001188784
0002f0 88 a3 f1 bc 9d 5e f1 bd 2a 14 05 bd f8 1b 44 bd
       -0.029496923 -0.11785624 -0.032489933 -0.047878236
000300 df c1 89 bd a1 79 b0 bd 4c ec bb bd a1 33 9a 3d
       -0.06726431 -0.08616949 -0.091759294 0.07529379
000310 4c ba 72 bd f8 2d 81 bd 30 f6 1b 3c ca da 26 3d
       -0.059259698 -0.06307596 0.009519145 0.040735997
000320 45 d3 6e 3c 0c a7 87 3d 3c 9b 8c 3d 8c fb bc 3b
       0.014576738 0.066236585 0.06865546 0.0057672914
000330 0e db c9 3c 90 33 c8 3d eb 28 0b 3d a6 89 dc 3c
       0.024640586 0.0977546 0.03397457 0.026921105
000340 4c 30 0d 3d a6 f9 77 3c 25 3a 21 3d 1a e3 89 3d
       0.034469888 0.015135204 0.03936209 0.06732769
000350 fc a6 8d 3d c5 1b 37 bd be 66 fd 3b 24 c9 52 3d
       0.06916615 -0.044704217 0.007733195 0.051461354
000360 e4 19 f9 bc 50 21 a1 bd c1 13 7e bc 05 af 5d bd
       -0.030407853 -0.07867682 -0.015507639 -0.05412199
000370 c0 e3 63 bd 70 85 39 bd 32 6a d7 3c c6 6f 84 bd
       -0.05563712 -0.04529327 0.026295755 -0.064666316
000380 0f 21 11 bb 3f 3f 50 3c 19 a8 f8 3b 0f 2a 38 bc
       -0.0022144949 0.012710392 0.007588398 -0.011240496
000390 3c c5 f1 3c ae 88 07 bc ae b5 bd bb fa 37 90 bd
       0.029512994 -0.008272333 -0.00578948 -0.07041927
0003a0 8f 1f 5e bd 71 27 a1 3d 7b ff 70 ba af f9 07 3d
       -0.054229315 0.07868851 -0.0009193343 0.0331971
0003b0 68 65 c9 bd c5 1f 62 bc 1d 13 31 3d 85 7b 03 bd
       -0.09833795 -0.01380152 0.04323112 -0.03210022
0003c0 54 ac 85 3c 05 b0 ff bc b2 44 26 bd a6 23 5c bd
       0.016317524 -0.031211862 -0.040592857 -0.053744934
0003d0 c2 e3 ca bd a5 b8 eb bd d8 02 6a bd 23 eb b3 bd
       -0.099067226 -0.115098275 -0.05713162 -0.08785083
0003e0 df 49 b7 bd 9b 95 43 bd f5 f9 0a be c1 07 9c bd
       -0.08949637 -0.047750097 -0.13571914 -0.076186664
0003f0 3b f0 90 3c b7 69 c0 bd 9f 1b e5 bd 26 44 02 bd
       0.017692676 -0.093951635 -0.11186909 -0.031803273

encoder.blocks.1.conv.3.bias f4 [32]
000000 30 19 18 bd 4f bd 82 bc 6c 39 14 3d 01 5b 70 3c
       -0.037133396 -0.01595941 0.036187574 0.0146701345
000010 d1 ac ac bc 22 02 ac 3d 26 34 b9 3c 65 d7 8e bc
       -0.021078499 0.08398844 0.022607874 -0.017436692
000020 53 9d 68 3d c0 1d fc 3c d7 88 6e 3d a0 8c 34 bd
       0.05679066 0.030775905 0.05823597 -0.044079423
000030 db f6 1c bd ea 72 71 bd 81 66 f3 bc aa 9e a4 bc
       -0.038321357 -0.05894748 -0.029711964 -0.020095188
000040 cd 3f 45 bd 24 72 ec bc 8d 77 82 3d 43 3c 24 3d
       -0.04815655 -0.02886302 0.06370459 0.040096533
000050 c6 e3 d9 3b ac d8 69 bb 45 4a 71 3c ab 1b 31 3d
       0.006649467 -0.0035682125 0.01472718 0.043239277
000060 f0 f0 a1 bc a8 39 ce 3a 4b e5 59 3d 1a f1 d8 3c
       -0.019768208 0.0015733736 0.053197186 0.026482154
000070 eb 41 00 3e ad 55 18 bc 38 75 06 bd b5 66 8f bc
       0.12525146 -0.00929777 -0.032826632 -0.01750503

encoder.blocks.1.conv.4.weight f4 [32]
000000 67 8a 6b 3f 39 61 70 3f 99 ba 7b 3f 73 31 8d 3f
       0.9200806 0.9389835 0.983316 1.1030716
000010 40 ae 7c 3f 24 d3 77 3f 26 bb 76 3f 21 90 88 3f
       0.98703384 0.9680655 0.96379316 1.0668985
000020 54 23 74 3f f3 23 6d 3f 13 92 8b 3f b9 3d 74 3f
       0.95366406 0.9263298 1.0903953 0.9540668
000030 b1 75 7b 3f 20 2c 87 3f 12 b6 71 3f f3 8a 77 3f
       0.9822646 1.0560341 0.9441844 0.96696395
000040 2d 8f 6d 3f 0e d4 60 3f 59 ca 6c 3f 61 4e 67 3f
       0.92796594 0.8782357 0.9249626 0.9035397
000050 04 4c 74 3f 3f 3f 73 3f 9f 34 76 3f 84 8c 77 3f
       0.9542849 0.9501838 0.96174043 0.96698785
000060 d4 94 6b 3f 18 5c 7e 3f 8e 1e 7b 3f fc c9 85 3f
       0.9202397 0.99359274 0.980935 1.0452266
000070 7c 58 7c 3f 37 fc 81 3f 72 4f 8e 3f 0f c8 80 3f
       0.98572516 1.0155095 1.1117995 1.0061053

encoder.blocks.1.conv.4.bias f4 [32]
000000 f0 fd ef bc 75 fc ab bc 41 2e 3c bd 28 9a 8c bd
       -0.029295892 -0.020994404 -0.04594255 -0.068653405
000010 c3 4b ce bc cf 5f b0 bc df 35 13 bd d4 5a e9 3c
       -0.02518261 -0.02153006 -0.035940047 0.028485693
000020 f4 9c 58 bd 8c f9 e5 3b 16 55 c3 3d 55 e7 09 bd
       -0.052884057 0.0070182737 0.09537713 -0.03366788
000030 db 0d 7d 3d 57 27 48 3d 38 aa 24 bd 04 98 48 bb
       0.06178079 0.048865642 -0.040201396 -0.0030608186
000040 8f 0b a9 3b e6 a5 04 bc 9a 32 c2 bc 5f 5a ba bd
       0.0051588486 -0.008096194 -0.02370577 -0.09099268
000050 8e c9 eb bc 35 3f b8 bc 6d 73 de bc a0 5c 9c bd
       -0.028782632 -0.022491077 -0.027154649 -0.07634854
000060 20 f7 8c 39 98 e1 43 bd 56 b9 f4 bc 2f 34 37 bc
       0.00026887003 -0.047822565 -0.029873531 -0.011181875
000070 a3 61 a4 bc af 9f e2 3b de 8f 37 bd d5 f9 d2 bc
       -0.020066088 0.0069160084 -0.044814937 -0.025753895

encoder.blocks.1.conv.4.running_mean f4 [32]
000000 2e f4 dd bf 5b 1a 42 bf 7d c7 3f bf 76 6b 15 be
       -1.7340143 -0.75821465 -0.7491377 -0.14591774
000010 ec 27 00 3f ef 39 4b 3f c7 c2 ba bd 70 7d 77 bf
       0.50060916 0.79385275 -0.09119182 -0.9667578
000020 06 6c 85 bd 80 52 f6 bb 54 d8 68 3e 05 15 bd bf
       -0.065147445 -0.007517159 0.22738773 -1.477204
000030 da 53 e0 bf b5 76 95 3f 70 fe 2b c0 1f ce d1 3f
       -1.752559 1.1676852 -2.6874046 1.6391028
000040 6b 00 6b 3e fa dd 61 be af 56 6b bf 92 a6 a6 bf
       0.22949378 -0.22057334 -0.91929144 -1.3019583
000050 d1 b0 bf bf de 2a 52 3f 9f d1 a1 bf 57 4c 6c 3f
       -1.4975835 0.8209666 -1.2642096 0.92303985
000060 bf 49 78 3f 5e 14 fa be 16 5a 86 bf cd 68 18 40
       0.9698753 -0.48843664 -1.0496242 2.3813965
000070 87 85 b4 3d 79 4c 9e be b6 27 13 3f d1 de c8 3f
       0.08814531 -0.3091772 0.5748247 1.5692998

encoder.blocks.1.conv.4.running_var f4 [32]
000000 30 60 80 40 0b 0b ce 40 f5 1c 43 40 4e c4 18 40
       4.0117416 6.438848 3.0486424 2.3869815
000010 18 95 23 40 c4 79 ab 40 66 8c ef 40 28 11 37 40
       2.555975 5.358614 7.4858885 2.8604221
000020 f7 ef e6 3f 34 1e ac 40 7a 01 f4 3f 17 e2 12 41
       1.8041981 5.378687 1.9062951 9.180198
000030 fa c9 c6 3f 76 10 fd 3f e8 67 42 40 f1 73 8c 40
       1.5530388 1.9770648 3.037592 4.389153
000040 8d 89 8d 40 9b a5 e0 40 9b 2c e9 40 ee 4e 0d 41
       4.423041 7.0202155 7.286695 8.83177
000050 fc 11 e8 40 a8 bd 29 40 af b6 80 40 fd 95 b2 3f
       7.2521954 2.6522007 4.0223002 1.3952023
000060 42 a1 94 40 cf 0b d8 3f 13 82 a3 40 82 09 92 40
       4.644685 1.6878604 5.109628 4.5636606
000070 e8 f2 25 40 d8 5e 3a 40 ca 41 00 40 48 c3 85 40
       2.5929508 2.9120388 2.0040154 4.180088

encoder.blocks.1.skip.weight f4 [32, 16, 1, 1]
000000 4c 5c 83 bd 20 2e 58 be d0 f3 ea 3c 4c d6 38 3e
       -0.064140886 -0.21111345 0.028680712 0.18050498
000010 1c 07 fb bd 3e 4d 2e 3e 72 0a 23 3e 60 4a 11 bc
       -0.122572154 0.17021653 0.15921953 -0.00886783
000020 5c 72 91 3d 0e 35 78 3e 80 1a fc 3b 00 59 5b bd
       0.071018904 0.24238989 0.0076935887 -0.053551674
000030 98 db b0 bd 54 f6 db 3d 04 a7 af bd 88 a9 30 3e
       -0.08635634 0.10740343 -0.085767776 0.17252171
000040 50 28 fb 3d 20 81 c9 3d c0 ea dc bb f0 70 a4 3c
       0.122635484 0.09839082 -0.0067418516 0.020073384
000050 8c 13 80 bd b2 48 79 3e 80 cd a9 3d ae 9d 52 be
       -0.06253728 0.24344137 0.08291149 -0.20567963
000060 aa e4 22 be 3e 30 2a 3e 20 9b 3a be 60 cb 2f bc
       -0.15907541 0.16619965 -0.18223238 -0.010729641
000070 f2 c3 0b 3e 9c ec 0f 3e 3a f3 39 be 54 f8 a4 bd
       0.13648966 0.14055103 -0.1815919 -0.08055177
000080 c0 74 31 bc 24 a5 26 3e cc 12 72 be b2 00 22 3e
       -0.010831058 0.16273934 -0.23639983 0.15820578
000090 6e d0 24 be 78 a5 20 be 66 4f 35 3e 5a 42 45 be
       -0.16095135 -0.15688121 0.1770607 -0.19263592
0000a0 ca 9e 35 be bc e1 1c 3e e4 10 17 3e f0 ea 56 bd
       -0.17736354 0.15320486 0.14752537 -0.052470148
0000b0 94 bd e6 3d 94 86 aa 3d f0 82 52 be 1a a3 57 be
       0.11266628 0.0832645 -0.20557761 -0.21058312
0000c0 14 6b 5f be 04 df 76 be 46 7d 79 3e 94 86 0d be
       -0.21818191 -0.24108511 0.24364194 -0.13820869
0000d0 0c c2 67 3e 64 95 0f 3e 60 9a fe bc cc ca 63 be
       0.22632617 0.14021832 -0.031079471 -0.2224533
0000e0 ee 95 79 be d0 9b e7 3c 8c 4a 8a 3d 20 ae 4b bc
       -0.243736 0.02827254 0.067525 -0.012431651
0000f0 80 e7 e7 3c c8 f4 1c be 70 a4 f6 bc 4c fd 33 be
       0.02830863 -0.15327752 -0.030107707 -0.17577094
000100 80 f2 2e bb f8 02 d8 3d b4 8f 8d 3d 74 e5 18 3e
       -0.0026694834 0.10547441 0.06912175 0.1493128
000110 1c b1 26 be 3e 8d 5b be 60 4c 2c bc c0 91 83 bc
       -0.162785 -0.21440598 -0.010516256 -0.01606071
000120 10 15 b0 3c 86 ca 61 3e 58 01 98 bd f0 37 06 3d
       0.021494418 0.22049913 -0.07422131 0.03276819
000130 36 0b 1f be 08 a5 31 bd 20 cb d1 bd dc 7d 8e 3d
       -0.1553162 -0.043370277 -0.10243821 0.069575995
000140 26 24 72 be 52 a5 06 be 82 90 23 3e 10 50 30 bd
       -0.23646602 -0.13149002 0.15973094 -0.043045104
000150 36 77 26 3e 8c 40 9f 3d 04 b0 f9 3d be 76 45 be
       0.16256413 0.07775983 0.121917754 -0.19283578
000160 1c a1 26 be 30 9d a3 3d 90 fe 6e 3e a0 0b 18 3d
       -0.16272396 0.079889655 0.23339295 0.03712046
000170 64 b9 c3 bd a4 8b d8 bd 5e fc 5c 3e a6 4e 57 3e
       -0.09556845 -0.10573509 0.21580645 0.21026096
000180 68 35 39 3d 2c 58 6d 3e 40 8b 15 3e f0 10 ee 3c
       0.045216948 0.23178166 0.14603901 0.02906081
000190 a0 ae f7 bc 30 e0 e3 bc 2c e9 d6 bd 42 34 32 3e
       -0.030234635 -0.027816862 -0.10493693 0.17402747
0001a0 6a 03 33 be c8 b2 5f 3e 00 19 db ba 1c f6 b5 bd
       -0.17481771 0.21845543 -0.0016715825 -0.08884832
0001b0 00 4e da 3a 80 8f 61 3c c8 9f 21 3e 6c 06 99 3d
       0.0016655326 0.013767123 0.15783608 0.07471928
0001c0 60 90 53 3e 94 55 68 be e0 a3 25 3d 40 f4 ff 3b
       0.20660543 -0.22688895 0.040439487 0.0078110993
0001d0 10 45 bb bd fe a8 43 be c6 6f 0f be 2a 08 38 be
       -0.09144032 -0.19107434 -0.14007482 -0.17971864
0001e0 cc 72 e3 bd cc 30 ca bd 80 80 cb 3b f8 d0 66 be
       -0.1110588 -0.098725885 0.0062103868 -0.22540653
0001f0 de cf 41 3e 60 00 6e bd 40 e5 17 bd 66 06 3e be
       0.18926951 -0.058105826 -0.037083864 -0.18557128
000200 60 53 34 be 94 4f 2a be fc fb 71 be 0c 2c 6e be
       -0.1760993 -0.16631919 -0.2363128 -0.2325899
000210 4a 72 67 be 3a 0d 1b 3e c4 85 82 bd c0 eb 25 3e
       -0.22602192 0.15141764 -0.0637317 0.16203213
000220 b0 81 24 3e c8 d1 fa bd 0c b1 9d bd 80 81 f4 3d
       0.16065097 -0.12247044 -0.07699785 0.11938763
000230 a0 b1 fe 3d 9a f7 3e be 4e c9 3e 3e 4c bb 46 be
       0.12436223 -0.1864914 0.18631479 -0.19407386
000240 40 9b a7 bc cc ac ab bd 0c 57 db bd 24 b8 07 3e
       -0.020459771 -0.08382568 -0.10709962 0.13253838
000250 64 fd 37 be 90 05 f1 3c a2 95 00 be 10 4d 9c 3c
       -0.17967755 0.029421598 -0.1255708 0.019079715
000260 18 52 2f bd a8 ac 8d 3d 90 72 d2 3d 00 4d b4 bd
       -0.0428029 0.06917697 0.10275757 -0.08803749
000270 50 62 61 3d d6 e0 71 3e 00 fe 79 bd 54 c3 41 be
       0.0550254 0.23620924 -0.06103325 -0.18922168
000280 5a e9 08 3e 54 88 95 3d 80 15 68 3b 08 f8 29 3d
       0.13370267 0.07301393 0.0035413206 0.041496307
000290 fe 0d 1d be 5c 89 cc 3d dc 15 88 bd 00 25 9f 3c
       -0.15337369 0.09987137 -0.06644794 0.019426823
0002a0 10 99 7e 3e d6 ba 70 3e 08 21 24 bd e4 ce 35 3e
       0.24863076 0.23508772 -0.040070564 0.17754704
0002b0 aa 2d 3e 3e 48 87 00 bd 48 af cc 3d b0 e3 76 bd
       0.18572107 -0.031379014 0.0999437 -0.060275733
0002c0 fc be 70 be 88 98 00 3e 34 a0 2f 3e f0 21 70 be
       -0.23510355 0.12558186 0.17150956 -0.23450446
0002d0 84 35 b2 bd f8 86 ce 3d 70 d0 fb 3c 00 6f 26 be
       -0.087016135 0.10084337 0.03073904 -0.1625328
0002e0 12 53 30 3e b0 1a 9f bd b0 ad 71 3d b4 c3 d4 bd
       0.17219189 -0.07768762 0.059003532 -0.1038889
0002f0 40 cf 59 3d 3c 10 44 be 20 ed 0e be 96 b6 39 be
       0.053176165 -0.19146818 -0.13957644 -0.18136057
000300 00 ef 9e 3d 28 e8 01 be 10 ca 6c be 46 a5 45 be
       0.077604294 -0.12686217 -0.23123956 -0.19301328
000310 40 38 64 bc a8 c7 36 3d 3c 8b 06 be 48 03 2c bd
       -0.013929427 0.044624 -0.13139051 -0.041995317
000320 40 a4 c3 3b d0 b4 3c 3e 38 d7 28 be 90 f4 d0 bc
       0.005970508 0.1842835 -0.1648835 -0.025507241
000330 e8 00 51 3d 00 15 86 3c 28 b1 6c be 16 f8 51 be
       0.051026255 0.016367435 -0.23114455 -0.20504794
000340 8c 29 92 bd 00 11 b7 ba f0 37 ad 3d aa 4b 2f 3e
       -0.07136831 -0.0013966858 0.08457935 0.17118707
000350 40 d0 81 bc 00 2d 9f bd e8 78 d0 bd 50 82 f9 bd
       -0.015846372 -0.07772255 -0.10179311 -0.12183058
000360 88 37 01 3d ac 91 52 be 54 00 b2 bd a0 b7 7a 3c
       0.0315471 -0.20563382 -0.08691469 0.015302569
000370 fc 75 da bd 88 1b 87 bd a0 ef fd 3d c8 da 92 bd
       -0.10667035 -0.06597048 0.123992205 -0.071706355
000380 c8 19 a3 3d dc b8 1b be 86 f1 5c 3e dc 45 d1 3d
       0.07963902 -0.15207237 0.21576509 0.10218403
000390 46 45 15 be a0 24 53 be 94 38 5b 3e fa 48 6e 3e
       -0.14577207 -0.2061944 0.21408302 0.23270026
0003a0 f2 c5 74 3e 64 26 00 3e e4 d0 96 bd c0 86 86 3b
       0.23903635 0.12514645 -0.073640615 0.004105419
0003b0 c6 7f 57 3e cc dc ea bd c6 c6 34 3e 86 fc 76 be
       0.21044835 -0.11467895 0.17653951 -0.24119768
0003c0 80 78 1b bb 64 a9 c5 bd 50 ed cc bd 4c 8a 26 3e
       -0.0023722947 -0.09651449 -0.10006201 0.16263694
0003d0 00 80 8a 3a a4 16 28 be a0 14 fe bd 68 86 42 3e
       0.0010566711 -0.16414887 -0.12406278 0.18996584
0003e0 9c b4 51 3e 7c 19 9b bd b2 ce 74 be e8 26 cd 3d
       0.20479053 -0.0757322 -0.23906973 0.100171864
0003f0 da ee 70 3e 00 51 d6 bd ec 24 ab bd 52 5a 63 be
       0.23528615 -0.10464668 -0.08356652 -0.22202423

encoder.blocks.1.skip.bias f4 [32]
000000 26 44 56 be 84 ac 8f 3d b0 c8 18 bd d4 55 fb bd
       -0.20924434 0.070153266 -0.037300766 -0.1227223
000010 1c 17 64 3e 56 ff 1e 3e 10 02 13 bd 74 02 00 be
       0.2227444 0.1552709 -0.03589064 -0.12500936
000020 b8 49 22 bd c6 99 51 be 46 f3 05 be 9a 80 5f be
       -0.039621085 -0.20468816 -0.13081083 -0.21826401
000030 04 bf 4a 3e 2c c1 ab 3d b2 26 2f 3e 30 a3 26 be
       0.19799429 0.08386454 0.17104605 -0.16273189
000040 48 d2 7b 3e 18 66 3c bd f2 9e 60 3e 38 62 86 3d
       0.24591935 -0.0459958 0.21935633 0.065617025
000050 1c b6 91 3d 9c b8 75 3e 34 93 25 3e 30 c7 ad 3c
       0.07114813 0.23996204 0.16169435 0.021213144
000060 3e ff 77 be 8c 94 fc bd 80 5e 07 bd 30 c2 61 be
       -0.24218461 -0.123330206 -0.033049107 -0.22046733
000070 74 bd 44 3e 80 be ee bc 54 22 5c be c2 fb 0f be
       0.19212896 -0.029143572 -0.2149747 -0.14060882
