toyshapes/pinets_defaults/model_14.pth (torch, 466881 bytes, 71 tensors)

encoder.blocks.0.conv.0.weight f4 [16, 1, 3, 3]
00000000: ed49 a13d c3d8 dabe 2b8a 8e3e 1939 4e3e
00000010: 367d 3c3e 9d50 2c3e 77ff 91be 125f 11be
00000020: c381 3ebe aa19 bbbb 5f70 90be 401b 553e
00000030: 1dc6 a2bd eb76 283e f4f9 e23b 159b 38be
00000040: ceb0 a2be 82c8 a93e 78fa b83d 18cb 7fbd
00000050: fe3f 5dbd db0c b93e f4e8 5e3d 41e8 c9bd
00000060: 9c7f 883e 034d dcbd 3987 b3bc 011a cd3d
00000070: 4631 35be 9570 c6be 0531 033e 51b1 b2bd
00000080: 7226 ac3d c75c 99bd d0fc 493e e555 cb3d
00000090: 4450 803d f758 bcbe 26eb e6bd f67b 573e
000000a0: d13c 2d3e 666c e93d 79ed 45be 02c3 35be
000000b0: 5238 6e3e 2e89 df3d 174c 023e 9ac8 c83b
000000c0: f3bd 66be bb06 1f3e aa19 8b3e c40c 963d
000000d0: e3de e3bd e17e 92be f5ef 82be 86a9 393e
000000e0: 606c 403d 5a4d 6f3e 8c60 fdbd 1cd0 4e3d
000000f0: 4282 8dbe 251c 98bc 7328 20be c348 853e
00000100: 626c 8ebe b048 9f3e 878a a63e cd54 1abe
00000110: 4661 3cbe 66fa 45be d4b8 77be cba4 563e
00000120: 52a5 85bd 6cba afbd a13f 413e 8325 2a3d
00000130: 7f0a 443e e653 1e3e c8d1 8f3c 5839 ba3c
00000140: f0ab babe fe6c 833d 6a14 a23e b09e 4e3e
00000150: ea3e 91bc 1765 1d3e 2e91 37be 3ddb 8ebe
00000160: 1e2f 423e 85a9 bcbe 3c1f 583e 7fff 7bbe
00000170: 5b82 1c3e b717 f8bc d5b4 41bd d2bb 01be
00000180: 027c 2bbe 79da 833e 1dad 8c3b dc5f 623e
00000190: 2e4f 463e 90ed 93be 6e27 6fbe 123c 853e
000001a0: 764c dd3e 64bd bbbd 5745 4c3d b35d ac3e
000001b0: ced9 643e 07bd b83d 3175 91be 4052 69be
000001c0: 7230 88be 65e6 a3bd 465d 8d3c 0f28 f93d
000001d0: d7d3 fe3d 4154 1abe d22a 52be a3d3 d33d
000001e0: cc8f de3e 5756 3dbe 52c3 da3e ceba bebd
000001f0: f13a 723d 3be5 93be 8131 0e3e 07cb 8abe
00000200: 38be 353e ed52 eabd 4874 97be 40cb 17be
00000210: f96b a3be 2469 a3be d8ab 413e c911 683e
00000220: 0e39 3e3e 2de1 a0be 0080 4d3e a46e efbd
00000230: 7eb5 f4bd 4c45 cdbd c586 6fbe cace 11bd
0.07875428 -0.427435 0.2783979 0.20138969 0.18407139 0.16827627 -0.28515217 -0.14196423
-0.18604188 -0.0057098465 -0.28210732 0.20811176 -0.07947943 0.16451614 0.0069267694 -0.18027909
-0.31775516 0.33160788 0.09032148 -0.062449545 -0.054016106 0.3614262 0.05442138 -0.09858752
0.26659858 -0.10756876 -0.021915065 0.100147255 -0.17694578 -0.38757768 0.12811668 -0.08725227
0.0840577 -0.07488399 0.19725347 0.099284925 0.062653095 -0.36786625 -0.1127532 0.21043381
0.16917731 0.113976285 -0.1932887 -0.17750171 0.23263672 0.10914837 0.12724338 0.006127429
-0.22533397 0.15529911 0.27168018 0.073266536 -0.11126497 -0.28612426 -0.25573698 0.18131074
0.046978354 0.23369351 -0.123719305 0.050491437 -0.2763844 -0.018568108 -0.1564043 0.26032075
-0.27817065 0.31110144 0.32527563 -0.15071411 -0.18396482 -0.193338 -0.241916 0.20961301
-0.06525673 -0.08580479 0.18871929 0.04153968 0.19144629 0.15461692 0.017556086 0.022732422
-0.36459303 0.06417273 0.316562 0.20177722 -0.017730195 0.15370594 -0.17926475 -0.2790164
0.18963286 -0.36848083 0.21105665 -0.24609183 0.15284102 -0.030284746 -0.047291595 -0.12669304
-0.16746524 0.2575262 0.0042930976 0.2210688 0.19366142 -0.28892183 -0.23354885 0.26022393
0.43222398 -0.09166983 0.049870815 0.33665237 0.22348711 0.09020429 -0.28409722 -0.22785282
-0.2659946 -0.08002929 0.01725639 0.12165844 0.12442749 -0.15071203 -0.20524147 0.10343101
0.43469083 -0.18489967 0.42727143 -0.09312974 0.059138242 -0.28885826 0.13886072 -0.27108023
0.17748344 -0.11441598 -0.29580903 -0.14823627 -0.31918314 -0.31916153 0.1891321 0.22663034
0.18576452 -0.31421795 0.2006836 -0.11691025 -0.119486794 -0.10022983 -0.23391254 -0.0355976

encoder.blocks.0.conv.0.bias f4 [16]
00000000: e158 86be beaa 55bd 62de 08be 0d94 7ebe
00000010: 804d 2fbd b391 573d cbb8 923e 8149 61be
00000020: 9602 7c3e e4c8 9dbe 4e12 a7bc 5c1b b03e
00000030: d235 22be 485c b7be d4bf a53e 2b64 d23e
-0.26239684 -0.052164786 -0.13366082 -0.24861164 -0.04279852 0.052629184 0.2865661 -0.22000696
0.24610361 -0.3081733 -0.02039447 0.34395874 -0.15840843 -0.35812593 0.32372916 0.41092047

encoder.blocks.0.conv.1.weight f4 [16]
00000000: 584c 893f daa1 533f f0a4 683f 0368 873f
00000010: 31d0 783f 37d4 773f 3a95 7f3f 8fad 773f
00000020: 7741 7a3f 9d63 8b3f 1d5c 9d3f bf99 603f
00000030: d63b 833f a8f5 683f e392 683f 2433 6d3f
1.0726423 0.8266884 0.90876675 1.0578617 0.97192675 0.9680819 0.99837077 0.96749204
0.9775614 1.0889775 1.2293736 0.877346 1.0252635 0.9099984 0.9084913 0.9265616

encoder.blocks.0.conv.1.bias f4 [16]
00000000: c279 383e 21d5 debc d679 8cbd 2d3e a8bc
00000010: 7d01 6abc cdcb a83c d567 21bd 1349 52bd
00000020: b5b3 a03d 1db6 d33d 5195 973c a39b d3bd
00000030: 78ae 273d a37a 0abd 09a5 8bbb 790d 66bd
0.18015197 -0.027201237 -0.06859176 -0.02053746 -0.014282581 0.020604992 -0.039405663 -0.05133922
0.078467764 0.1033747 0.018503817 -0.1033242 0.04093787 -0.03380836 -0.004261617 -0.056165192

encoder.blocks.0.conv.1.running_mean f4 [16]
00000000: 40c4 afbe 4e5f 1fbe 1092 b13d e4b1 aabe
00000010: 0d8d 6cbd f378 033e 2b0d 063e 6255 61be
00000020: a501 7d3e ba0a 78be b4cd 80bc 6a1e 473f
00000030: 087b 9dbe fb8e a3be 0669 fbbd 7885 873e
-0.34329414 -0.155637 0.08670437 -0.33338845 -0.057751704 0.12839107 0.1309096 -0.22005227
0.24707659 -0.24222842 -0.015723087 0.77780783 -0.30757928 -0.31945023 -0.12275891 0.26469016

encoder.blocks.0.conv.1.running_var f4 [16]
00000000: b246 b13b 3dc5 cd3b 9ca9 5a3c c6fc a23b
00000010: 0922 3c3b d782 653b d02f c63b 8284 883b
00000020: c9b5 f43a 7f10 0a3c 269b 1a3a ba61 163d
00000030: d9f0 c13b 6181 633b 0e83 223d 4b66 0f3c
0.005410039 0.006279616 0.013346102 0.0049739806 0.002870681 0.0035020614 0.00604818 0.004166187
0.0018669899 0.008426785 0.00058977527 0.036714293 0.005918604 0.0034714567 0.039675765 0.008752416

encoder.blocks.0.conv.3.weight f4 [16, 16, 3, 3]
00000000: d818 90bd 8e03 02bd 8d85 e0bd aef3 c5bc
00000010: 283f dc3c c268 8e3c 9f72 1abe 4589 39bd
00000020: 5589 1cbe 6717 16bd 12bb 5cbc fe91 f4bd
00000030: f6f3 52bd 009a d4bd e8f9 ebbd 9a7a 8ebc
00000040: f3b0 0ebe 61a8 07be 5915 ebbc 5dd5 803d
00000050: 9708 1abc b181 07bd 4aa2 753d bea7 9c3d
00000060: cd8e 873d d9e3 133d b55d fe3d 8a26 f73c
00000070: f328 d9bc 11fe 62bc 8d03 a2bc 42b7 513d
00000080: b21a f83c ffc8 e8bc 2194 c6bd ef71 00be
00000090: e3fc 523d f38b 413c 3678 a33d e1fc c3bd
000000a0: 844c 323d 659c b3bd d6e2 9f3d 74df 303d
000000b0: 766d 8bbd 539d fbbc 0b40 6d3d a64f 5f3d
000000c0: dd09 b5bd d0b0 2d3d 70eb 0d3e f5ea 95bc
000000d0: e36f 2c3d 0898 af3d 0ee0 babd 502b f5bc
000000e0: 06c5 403d 2ef3 8f3d 14fb 913c b37c 92bd
000000f0: d58a ffbc 90c8 033d f8c1 b13d b1fb 483b
00000100: 7483 883d 7f05 593d b863 edbc a544 843d
00000110: e4f1 8dbd c943 5c3d 1ebc ed3c 3446 97bd
00000120: 5df7 203c 18c0 b1bd 1a13 0d3d 5b1d 523d
00000130: fe2c 963c 6f13 23bd 3344 d2bd f1c3 d9bc
00000140: 21de 68bb ad5b 1b3e 0d88 233d 1f88 693d
00000150: bd86 34bd 87c1 cdbd 233b 763d 0a48 63bd
00000160: 4b9d 34bd ceba 78bd 4993 c0b9 0aae 75bd
00000170: e63b 073c 72a5 f3bd bac7 81bd f82a f1bd
00000180: 6278 24be 2b58 80bb 3718 bc3b 4f0b d83d
00000190: 5302 123d f58d 173e 0638 c3bc b089 053d
000001a0: 21d7 993d 8dc0 1f3e 9ea5 0c3e df54 103e
000001b0: 360f 92bd be71 5cbc 2ad6 f8bc 1950 59bd
000001c0: 6714 97bd c143 d3bd 3e1e e3bc 55a9 62bd
000001d0: 1bd5 3f3c 4bf7 50bc 6ab1 94bd 8183 89b9
000001e0: 5e70 9bbc 5d43 b8bd 4cb8 cdbd 0be6 3dbd
000001f0: 6ff4 f9bd 2770 4bbb 7848 c5bd d0f2 f0bd
00000200: dfea 91bb c854 b3bd 0b76 a7bd c90e 90bd
00000210: c854 85bd a2db bebd 62fc b7bd f3ed bbbd
00000220: 62a9 173d 8081 d2bc 0270 83bd 2e14 17bc
00000230: 62e2 adbd 6b2b 15bd b34e e2bd f6ff 13bd
00000240: 45f5 873c 7c73 203d 0190 f53c a7f2 bbbd
00000250: 734e c5bd cf0f e63d dc22 3c3c 5749 cabd
00000260: a6b2 37bd c2db 8f3c 7c80 5abd ff5d a1bc
00000270: 05af b13d 0d53 6e3d 0a7a f13d deb4 ae3d
00000280: 53af d5bd 5515 8f3d e091 1bbd d9bf a2bd
00000290: b134 f9bb 25dd 5dbd f694 b8bd bdcd 2fbe
000002a0: fe82 803b 8445 adbd 8489 b7bd 53c8 1dbe
000002b0: 7cba 85bd 02f1 03be 3548 e0bd e7e2 8abd
000002c0: ad17 b9bd 9e94 853d 4d6c a93c 1b8b 6d3d
000002d0: 77a7 0bbe 9ebf 0bbe 7b07 923a c0e4 b6bd
000002e0: 7877 c9bd ef9b 61bd ad9f 65bd 2120 06be
000002f0: 1175 a8bc cc61 a23b 450d 7b3b d2e6 eb3d
00000300: 6d7a 9c3b 8dcc 723c 5686 28bd e30b 23be
00000310: 0d8c 0bbe 2a89 39be fd46 b13c 594f 21bd
00000320: 1b42 5fbd a53b 803c d69d dcbc 5ff8 9cbd
00000330: b38f d7bd 5ffd abbd 2d61 c4bd 8cb3 a13d
00000340: 5641 833d 1b2a c2bc f32e 103e bf0f 83bd
00000350: 3d64 8ebd 4f38 a13d d028 e1bd 6d7c 8f3c
00000360: 2938 c4bc 44f7 9fbc 8743 683d 2aef 6fbb
00000370: 0251 1bbe 6723 a8bd 4ab5 0abe 1275 02be
00000380: a15e e9bd 6519 ee3d 99b9 103d f1f1 233c
00000390: 8ffc d33c 20ef 66bd af79 74bd 2996 a0bc
000003a0: 5468 1bbe a4d0 cebd d6c4 53ba 0a4b 063d
000003b0: 0ccd f73c 72a4 933c f27e 5d3d 6b73 263c
000003c0: ee80 cb3d c8b7 4dbd 2bbd a7bd 3135 93bd
000003d0: 5679 343c ad64 81bb 31ae 4cbd 28d4 bebd
000003e0: 22d6 8dbd 8df8 00be ed8b a8bd d38d a0bd
000003f0: 945c 20bd 1161 39bd ba94 15be 9756 c43c
-0.070359886 -0.03174167 -0.10962973 -0.024164047 0.026885584 0.017383937 -0.15082787 -0.045296926
-0.15286763 -0.036643412 -0.013472335 -0.11941908 -0.05150219 -0.10380936 -0.11522275 -0.017392445
-0.13934688 -0.13247825 -0.028696703 0.06290696 -0.009401462 -0.033082668 0.059969224 0.07649182
0.06619034 0.036105964 0.12420217 0.030169744 -0.026508784 -0.013854519 -0.019777084 0.05120016
0.030286167 -0.028416155 -0.09696222 -0.12543462 0.051510703 0.011813152 0.07981913 -0.09569717
0.043530002 -0.08770064 0.078069374 0.04318185 -0.068079874 -0.030714666 0.057922404 0.054519318
-0.08839772 0.04240495 0.13859344 -0.018300513 0.04209889 0.085739195 -0.09124766 -0.02992788
0.047062896 0.07028805 0.017819919 -0.07152691 -0.03119413 0.032173693 0.08679575 0.0030667598
0.06665698 0.052983757 -0.028978214 0.064584054 -0.069309026 0.053775582 0.029020365 -0.07386437
0.009824601 -0.08679217 0.034442045 0.051297527 0.018332 -0.039813455 -0.10266914 -0.02658269
-0.003553279 0.1517169 0.03992467 0.05701458 -0.04407381 -0.10046678 0.06011499 -0.055488624
-0.04409532 -0.060725026 -0.0003673083 -0.05998043 0.008254027 -0.118967906 -0.06336923 -0.11775774
-0.16061547 -0.0039167604 0.0057401913 0.10549032 0.035646748 0.14800246 -0.023830425 0.032602012
0.07511736 0.15600796 0.13735053 0.14094876 -0.071318075 -0.013454853 -0.030375559 -0.053054903
-0.07376938 -0.103156574 -0.027724382 -0.05533727 0.011708523 -0.012754272 -0.072604015 -0.00026228654
-0.01897448 -0.089972235 -0.100449175 -0.046361964 -0.12204825 -0.003104219 -0.09632963 -0.11765063
-0.0044530476 -0.08756405 -0.08176812 -0.0703407 -0.06510311 -0.093192354 -0.08983685 -0.091762446
0.03702677 -0.025696516 -0.06417848 -0.00922112 -0.08490445 -0.03641836 -0.11050167 -0.036132775
0.016596446 0.039172634 0.029975893 -0.09177142 -0.096341036 0.11233484 0.0114829205 -0.0987727
-0.044848107 0.017560843 -0.05334519 -0.019698141 0.086759605 0.058184672 0.11790855 0.085305914
-0.10433831 0.06986491 -0.037980914 -0.07946748 -0.0076051583 -0.054165978 -0.09012787 -0.17168327
0.0039218655 -0.08460525 -0.08961776 -0.15408449 -0.0652971 -0.12884906 -0.109512724 -0.067815594
-0.09037719 0.06522487 0.020681525 0.05799399 -0.13638102 -0.13647315 0.0011141145 -0.08930349
-0.0983724 -0.05508035 -0.05606048 -0.13098194 -0.020563634 0.004955506 0.003830747 0.11518635
0.0047753365 0.0148192765 -0.041143738 -0.15922503 -0.13627644 -0.1811873 0.021640295 -0.039382312
-0.054506402 0.01565344 -0.02693073 -0.076645605 -0.10525455 -0.08397936 -0.09588847 0.07895574
0.06408946 -0.023701718 0.1408041 -0.06399488 -0.06952713 0.07872068 -0.109941125 0.017515386
-0.02395256 -0.019527085 0.056705024 -0.0036611059 -0.15167621 -0.082098775 -0.13545719 -0.12739971
-0.11395002 0.11625937 0.03533325 0.010006414 0.025877265 -0.05638039 -0.05968636 -0.019602852
-0.15176517 -0.10098389 -0.0008078342 0.032786407 0.030249141 0.01802275 0.054076143 0.010159354
0.09936701 -0.050224096 -0.08190378 -0.0718788 0.011015257 -0.003948769 -0.04997081 -0.09317809
-0.06925608 -0.12594815 -0.08229814 -0.07839551 -0.03915079 -0.045258585 -0.14607516 0.02396707

encoder.blocks.0.conv.3.bias f4 [16]
00000000: 2989 813c 1325 afbd fc5b f53b 05a9 33bd
00000010: 8cf3 843d 8440 89bd f33e 8dbd 3987 223d
00000020: 080d e23b 7fb4 963d 4d1d 793d a2f8 ec3d
00000030: b898 c4bd 74ee 99bd 60d2 22bc 666c 49bd
0.015812473 -0.08551993 0.007487772 -0.04386236 0.064917654 -0.067017585 -0.06896772 0.03967974
0.006898526 0.07358646 0.06081896 0.115708604 -0.09599441 -0.075161844 -0.009937853 -0.049175642

encoder.blocks.0.conv.4.weight f4 [16]
00000000: e461 693f 958c 5b3f 6964 863f e18f 743f
00000010: 6426 6f3f d5a1 5c3f 4b03 7b3f cd3e 723f
00000020: 49f1 853f 9580 723f c3c1 713f 29ae 823f
00000030: 62c8 823f 2fd4 7b3f ebac 883f 4341 7b3f
0.91164994 0.85761386 1.0499393 0.9553204 0.93417954 0.86184436 0.980519 0.94627076
1.0464259 0.9472745 0.9443628 1.02094 1.0217402 0.9837064 1.067777 0.98146456

encoder.blocks.0.conv.4.bias f4 [16]
00000000: 76bf 18be 70a9 b0bd fe8f b3bb 98b3 e0bc
00000010: e1a5 2bbd 3715 babd 8d86 95bd 7d53 7a3d
00000020: 9252 dcbd a1ad b13c a890 abbd 9d42 eebb
00000030: 2418 183d 7812 a9bc c13a 32bc 7e1d 9bbd
-0.14916787 -0.08626068 -0.0054798117 -0.027429387 -0.04190624 -0.09086078 -0.07301054 0.061114777
-0.107579365 0.021689238 -0.083772 -0.0072711245 0.037132397 -0.02063869 -0.010878266 -0.075739846

encoder.blocks.0.conv.4.running_mean f4 [16]
00000000: 8644 84bf eb62 a5bf dbb9 7e3f 1bb6 7a3f
00000010: 3abe db3f af8a c4bf f438 95bf acc3 373d
00000020: 7683 3dbf cd2d abbe 4e28 59bf 14ac b7bd
00000030: 85eb 03bf d730 4ebf 39f7 22bf 24f6 2b3f
-1.0333412 -1.2920812 0.9950234 0.9793412 1.7167428 -1.5354823 -1.1658006 0.04486434
-0.7402872 -0.3343338 -0.84827125 -0.08968368 -0.5153125 -0.80543274 -0.6365848 0.67172456

encoder.blocks.0.conv.4.running_var f4 [16]
00000000: c60a 1240 9746 e33f b0a4 893f adf2 1140
00000010: c570 e93f c852 2040 3bc0 b53f 7702 7c3f
00000020: 1d24 bc3f eb37 0240 e17a 1740 8267 e53e
00000030: 8d5f 0c3f ea98 5a3f 20bf 413f f24a 763f
2.2819076 1.7755917 1.0753384 2.2804368 1.823754 2.5050526 1.4199289 0.9844126
1.4698521 2.034663 2.366875 0.44805533 0.548333 0.8538958 0.7568226 0.9620811

encoder.blocks.0.skip.weight f4 [16, 1, 1, 1]
00000000: 4465 80be 9a2f 543f 68f2 8c3e ea98 723f
00000010: a885 d53e b2f1 6b3f 6490 d5be 8ca5 a03e
00000020: 80f6 6b3f 9c26 86be 2000 91bd 001f 1d3f
00000030: 7cd4 0fbf 58af b73e 80ff 3ebc ee14 67bf
-0.2507726 0.82885134 0.2752869 0.9476458 0.41703534 0.9216567 -0.41711724 0.31376302
0.92173004 -0.26201332 -0.07080102 0.6137543 -0.561836 0.35875964 -0.011657596 -0.9026631

encoder.blocks.0.skip.bias f4 [16]
00000000: 4809 143e 9649 4abf e032 2bbd fa55 3d3f
00000010: a63a 3fbf 246f 9dbe 0058 eebc dcf7 3f3f
00000020: 00e7 cf3b 60c7 883d dc72 633f 58cd 5c3f
00000030: 604a 613d 2040 78bf ec23 cf3e 6086 0bbe
0.14456666 -0.79018533 -0.041796565 0.73959315 -0.74698865 -0.30748856 -0.029094696 0.7498758
0.006344676 0.06678653 0.88847136 0.8625083 0.05500257 -0.96972847 0.40457094 -0.13625479

encoder.blocks.1.conv.0.weight f4 [32, 16, 3, 3]
00000000: 1241 f93d 9ae6 a13d 7a6f dcba b79a b03c
00000010: 5803 bc3c 4979 193e 6eaf f43c 17e4 20bd
00000020: b492 873d 62b3 10bd 4d30 01bd 3405 b5bd
00000030: c502 0c3d 5f92 953d ccd3 a43d aae4 08bd
00000040: 57e6 4a3d 4802 293d c4e1 413c 814f bdbc
00000050: 3272 5abb 6cf6 ddbd c86c 72bd a8ba cabd
00000060: ab79 043d ffc6 f13c d8cd 15be f774 98bb
00000070: 07fb 19bd 8e39 8dbd 7708 40bd eac2 dcba
00000080: 7c89 283d 55f9 bebc b160 5cbd b95d 6ebc
00000090: 5600 ebbd 16e9 71bc 5bd4 03be 6912 113d
000000a0: 91f0 7dbc aa4f 84bd b917 cebd 5bfc d0bb
000000b0: ffb0 b4bd 9a8b f83c f332 cdbc e5fa a4bd
000000c0: 2002 c1bc 1890 3dbd cb27 c1bc bc5f aabd
000000d0: 8d78 fabd 0c56 22bc f195 84bd c01d 143c
000000e0: 91f0 dbbd 7215 95bd 548d f23d bc33 88bd
000000f0: 07da 8d3c 700b b7bc 2690 c03d d28b c8bd
00000100: bb1f 0abe 76cc 12bd a566 33bc eae1 b3bd
00000110: 02d4 bebc 2566 c4bd 918f a9bd 76a0 193d
00000120: 442a b5bc d14f b53c 7ba3 aa3d e6a7 d03d
00000130: f95e 083e f424 083e d98d 243e 9736 e33d
00000140: a64e 883d e94f 633d c166 6d3d 87b0 14bd
00000150: 757f 3ebd be73 fa3d f82a c43d 1fe3 6f3d
00000160: 0c75 1abd 630c 93ba f8d3 8ebc 8155 863d
00000170: 2ef8 90bd 4275 26bc 0c7e 4f3c d925 94bd
00000180: 86f5 82bd ba2d f0bd 72b0 3dbd 5f6c 01be
00000190: b42d 0dbe 40d4 70bd 2a9b ad3c db88 0c3e
000001a0: fa9f e83d f8db 113d a055 103e 9399 cb3d
000001b0: 7b51 82bd 3324 eabd 7947 0cbc 3565 dabd
000001c0: 9f69 d6bd ccd6 8fbd f531 7cbd cebe 04be
000001d0: ee3a 2dbd aa8a 81bd fee1 3bbe b7b8 c1bd
000001e0: 216c 853c 56af 9cbd fe1b 823d f486 e5bc
000001f0: 0aeb 993d e1a5 383d 1322 f93b 702e 04be
00000200: 5de0 45bc 464d 083d 00bf c8bc 96d3 433d
00000210: 321f 073d d0d9 ea3d 7223 a43d 9b21 febd
00000220: 31be c9bd 0145 59bd 9183 d93d c2ed 283c
00000230: e3a6 21bd 20ed 663d e059 943d 97ed 8cbd
00000240: 5721 39bd a309 07bd f525 6b3c 703e 2c3d
00000250: de95 fd3d 04e5 2a3e 1193 f53d ca25 d23d
00000260: 83dd ed3d 656c 0ebd 735c 89bd ed2c 94bd
00000270: 2700 f13c db0d cd3d c43a 2a3d 5ff6 bcbd
00000280: c225 993d 4b59 e8bc 025a 14be ebc2 6ebd
00000290: 3d99 98bd 363b 543d 441e a5bc 5f17 0a3e
000002a0: f0a0 01bd 2795 963d 9def 8cbc 7cdf bc3c
000002b0: 439f 0c3d d158 843d 8dd5 9a3a ed79 443c
000002c0: 4c70 b9bc cd69 2abc 9c5f d23d 15f9 253d
000002d0: 693e 24bd b35b b6bd afc1 303c 1132 53bc
000002e0: 2c1e 7e3d c999 9ebc 7218 063c 8e35 fabb
000002f0: 4599 e03d 49db 91bd 02d5 d7bc 2509 85bd
00000300: eb89 2b3d a35e 483d eda8 4f3d e8f2 ebbb
00000310: 53e0 4cbd 16e2 933d 9194 7dbd 24bc 343c
00000320: 4c79 cbbc 8a7f 04bd 5cc0 87bd 0953 e7bc
00000330: 9e0d 9abd 23b7 30bd 808d 23bd 89c2 efbd
00000340: bf96 49bc fab3 1d3d 1445 ab3c cb5c 87bc
00000350: bda0 d63c a33f d9bd 4711 8bbd bf5d b5bc
00000360: 4c73 0fbd c521 f1bb 3c26 e33d 4fed 433d
00000370: ee0f 523d 295a c4bc 5cc9 7dbd 1e06 93bd
00000380: 3847 a83b 3c13 06be 6c43 a83c a614 72bd
00000390: a88a d5bc f07f b43d c34b 203e 1198 7e3d
000003a0: 91b6 6bbc f856 113d 4bbb 833c 5e5f c93d
000003b0: ea10 33bc cb4a 91bc 588e 403c f372 0ebd
000003c0: 1c57 b33d d9cf f23c 9080 b53c 3f1c fabd
000003d0: 2e9e a7bd cb62 6abb 1125 0abd 0ef8 babc
000003e0: d8ce cc3d 858e 2abe cc93 a2bd 648e e13d
000003f0: 7e6e ab3d 6720 513d 2359 be3d 0a69 063e
0.12170614 0.07905312 -0.001681789 0.021558149 0.022950813 0.14987673 0.029868808 -0.039280023
0.06619778 -0.035327323 -0.031540204 -0.08838883 0.03418233 0.07303309 0.080482095 -0.033421196
0.049536075 0.04126194 0.011833612 -0.0231092 -0.0033332226 -0.10838017 -0.059185773 -0.09898883
0.032342594 0.029513834 -0.14629304 -0.004652615 -0.037592914 -0.06895743 -0.046883073 -0.0016842757
0.04114674 -0.02331225 -0.05380315 -0.014548712 -0.114746734 -0.014765045 -0.12873976 0.035417948
-0.01549925 -0.06460507 -0.100631185 -0.0063777394 -0.08822822 0.030340005 -0.025048709 -0.08055667
-0.023560584 -0.046279997 -0.023578545 -0.08319041 -0.122300245 -0.0099082105 -0.064739116 0.009040296
-0.10739244 -0.07279481 0.118433625 -0.066504925 0.017315878 -0.022344321 0.09402494 -0.097922936
-0.13488667 -0.03583952 -0.010949765 -0.08783324 -0.023294453 -0.09589795 -0.08279336 0.037506543
-0.02211488 0.022132786 0.08331963 0.10188274 0.13317479 0.13295346 0.16069736 0.110943966
0.06655626 0.05549613 0.057959322 -0.036301162 -0.04650827 0.12229107 0.09578508 0.05856621
-0.03770928 -0.0011218901 -0.017435059 0.06559277 -0.070785865 -0.010159792 0.012664329 -0.07233781
-0.06394486 -0.11727472 -0.04631085 -0.12638997 -0.13786966 -0.058796167 0.021192152 0.13724081
0.11358638 0.03561017 0.14095163 0.09941401 -0.063631974 -0.11432686 -0.008561962 -0.10663835
-0.104693644 -0.07023391 -0.06157108 -0.12963411 -0.042292528 -0.06325276 -0.18347928 -0.0945906
0.016286911 -0.0765063 0.06352995 -0.028018452 0.07515533 0.04508007 0.007602939 -0.1290834
-0.012077418 0.03327682 -0.024505138 0.047809206 0.032988735 0.11467326 0.08014573 -0.124087535
-0.09850729 -0.053044323 0.106207974 0.010310592 -0.039465796 0.056378484 0.07243705 -0.06881254
-0.04519781 -0.032968175 0.014352311 0.042051733 0.123821005 0.16688925 0.11990941 0.10261114
0.11614516 -0.03477134 -0.067070864 -0.072351314 0.029419018 0.10012408 0.04155995 -0.09226679
0.07477905 -0.02836289 -0.1448746 -0.058291357 -0.07451103 0.05181428 -0.020156033 0.13485478
-0.031647623 0.07352667 -0.0172041 0.023055784 0.03433157 0.06462253 0.0011812911 0.01199196
-0.022636555 -0.010401201 0.10272142 0.040520746 -0.04009858 -0.08904209 0.010788365 -0.012890355
0.062040493 -0.01936044 0.008184539 -0.0076357787 0.10966734 -0.071219034 -0.026346687 -0.06495885
0.041879576 0.048918378 0.05069821 -0.0072005875 -0.05001862 0.07220857 -0.061909262 0.011031184
-0.024838112 -0.032348193 -0.066284865 -0.028237836 -0.075221285 -0.043143403 -0.039929867 -0.117070265
-0.012304007 0.038501717 0.020906962 -0.01652374 0.026199693 -0.10607841 -0.06790405 -0.022139428
-0.035022065 -0.007358762 0.11091277 0.047833737 0.051284723 -0.023968773 -0.06195961 -0.07178901
0.005135443 -0.13093275 0.020539962 -0.059101723 -0.026067093 0.08813465 0.15653901 0.06215674
-0.014386789 0.03548333 0.01608052 0.09832643 -0.010929326 -0.01773586 0.011752687 -0.034777593
0.08756849 0.029640125 0.02215603 -0.12212419 -0.08184467 -0.0035764452 -0.033726756 -0.02282336
0.1000039 -0.1665593 -0.07938346 0.11013487 0.08370684 0.051056292 0.09294345 0.13126007

encoder.blocks.1.conv.0.bias f4 [32]
00000000: d130 c1ba ef86 83bc 528d 4539 959c f03c
00000010: 619b 863d bbab c33d 98ff a03d 9097 0abd
00000020: a408 a23d a905 b03d a9d9 863d 259a 8bbc
00000030: d714 54bd 502b 3d3d 9b09 183c eac8 e1bc
00000040: 5ed2 363d c62d ebbd 2f20 d13c d19e 96bd
00000050: 97c8 143d 88c7 c53d 29e8 af3d 9348 19bd
00000060: 6369 62bd 3204 363d 8713 a3bc 9309 163d
00000070: 0b6b 333d 66af 86bd 2e3a 103d b257 8f3d
-0.001473928 -0.016055552 0.0001884003 0.02937154 0.06572605 0.09554239 0.07861251 -0.033835948
0.07911804 0.085948296 0.06584484 -0.017041275 -0.051777687 0.046183884 0.009279634 -0.027561624
0.044634216 -0.1148334 0.025528042 -0.073545106 0.03632411 0.09657198 0.08589203 -0.037422728
-0.055276286 0.044437595 -0.019906772 0.036630224 0.043803256 -0.06576423 0.035211734 0.069991484

encoder.blocks.1.conv.1.weight f4 [32]
00000000: 8554 6c3f 325e 633f 3445 863f d191 773f
00000010: 80c0 623f cb33 743f 5c6d 5c3f c2d5 603f
00000020: 0357 753f 6c9b 853f 2a6c 733f 3a8a 913f
00000030: c465 653f 3f0b 8b3f 6f3d 6a3f 41a5 683f
00000040: f1ba 843f 4562 7e3f 10e1 8c3f 3db9 6c3f
00000050: acee 683f c912 763f d615 6b3f a038 683f
00000060: 1b20 803f f84f 7b3f d80e 7d3f 95f3 813f
00000070: d499 843f 5cac 743f 8e8c 723f 072e 8a3f
0.92316467 0.88815606 1.0489869 0.96706873 0.8857498 0.9539153 0.8610437 0.8782617
0.95835894 1.0438056 0.9508692 1.1370308 0.8960841 1.0862807 0.9149999 0.9087716
1.036955 0.993687 1.1006184 0.9247015 0.90989184 0.96122414 0.91830194 0.907114
1.0009798 0.981689 0.98850775 1.015246 1.0359445 0.955755 0.9474572 1.0795296

encoder.blocks.1.conv.1.bias f4 [32]
00000000: 752b a6bd d8a2 00be 3063 0dbd bcaa e9bb
00000010: 7921 6abc 6359 11bc 846a 20be 909e b6bd
00000020: e152 8dbd b1a9 263d bb56 cb3b b8f3 4d3d
00000030: 16db 01bd 19ca 8ebd 94f6 d3bd 0c95 95bd
00000040: 1b6e 9dbc 6928 81bd 9515 87bd 77c0 51bd
00000050: 691d 15bc 9818 0b3c 59d2 a4bd e0aa 91bd
00000060: 5820 aabd 41e0 69bd 51e2 be3c 05ee 7abc
00000070: 9679 88bc 3e46 87bd ba3e 32bd 1e0c 2e39
-0.081137575 -0.1256212 -0.03451842 -0.007130949 -0.014290207 -0.008871409 -0.15665632 -0.08916962
-0.069005735 0.040689174 0.0062054074 0.050281256 -0.031703077 -0.06972141 -0.103497654 -0.07303819
-0.019217541 -0.06306536 -0.06595913 -0.05120894 -0.00910125 0.00848975 -0.08047933 -0.0711267
-0.0830695 -0.05709863 0.023301275 -0.015315537 -0.01665954 -0.066051945 -0.043516852 0.00016598447

encoder.blocks.1.conv.1.running_mean f4 [32]
00000000: c232 16bf bdc7 863e 747c e43f b71b 59be
00000010: c8f6 3b3f 5a15 133f 8f5c b6bf a067 95bf
00000020: 7302 0d40 f2bb 143f c738 da3e 9d3f a9be
00000030: 223a 04c0 5864 5fbf 24bf 26be 98f0 c9bf
00000040: 73d8 1b40 d797 6abf a5d0 db3d 18d4 d4be
00000050: 90c2 00bf 042b a0bf a874 79bf 8b90 0140
00000060: 6835 ce3e 927a 2040 391b 30c0 fb7f 10c0
00000070: 8b5c 88bf 32e8 ca3f 9ff1 84bf 2907 183f
-0.586712 0.26324263 1.785048 -0.21201979 0.73423433 0.57454455 -1.4246997 -1.1672249
2.2032745 0.5809928 0.42621443 -0.33056346 -2.0660481 -0.8726249 -0.16283852 -1.5776548
2.435086 -0.9163794 0.10733155 -0.41568065 -0.5029688 -1.2513127 -0.9744363 2.0244472
0.4027512 2.507481 -2.7516615 -2.2578113 -1.0653242 1.585211 -1.0386237 0.59385926

encoder.blocks.1.conv.1.running_var f4 [32]
00000000: 78e8 c93f 1f40 0c3f 8af8 f23f 392f 593f
00000010: d803 9a3f 6274 903f e496 fe3f ee5a 1240
00000020: 9261 8740 3ce4 543f ccdc 8b3f ea99 a13f
00000030: 9125 2d40 0074 ea3f eb6d d03f ebc1 ea3f
00000040: 8e85 4e40 04fd 1340 48c6 993f ff1f 8d3f
00000050: 1ac4 b43f f5cb 1b40 7211 c43f b708 f53f
00000060: 2435 693f 4882 ad40 8254 4b40 40f3 6540
00000070: 978b 1140 f606 2040 4272 dd3f 6bb6 bf3f
1.5774069 0.5478534 1.8982098 0.8483768 1.2032423 1.1285517 1.9889798 2.2868
4.2306604 0.8316076 1.0926757 1.2625096 2.7054179 1.831665 1.6283544 1.8340429
3.2269015 2.3123178 1.2013636 1.102539 1.4122345 2.4343235 1.5317824 1.9143285
0.9109671 5.4221535 3.177033 3.5929718 2.274145 2.5004249 1.7300494 1.4977545

encoder.blocks.1.conv.3.weight f4 [32, 32, 3, 3]
00000000: 9c08 7f3d db2a d6bb 6147 afbd 5633 453d
00000010: 609f 2bbd 5bed 92bd fb44 983c ad7b 1bbd
00000020: 5e2d 8abd cc23 3ebd 489b 1fbd acb5 833d
00000030: 358c 883c 2dd3 90bd 8f1e 88bd 8dfd 713d
00000040: d95d cebb 595d 76bd 1bd7 01be de50 30bc
00000050: 57d6 c03c 5628 71bd 5829 b93c ec4a 983d
00000060: 25e1 46bd c9ed a33d 49b3 c63d fd93 61bd
00000070: acb8 8d3c 179c 43bc 7f1a 26ba fe5e ca3c
00000080: 1df5 75bd 7784 adbd 7a99 75bc 0bcd debc
00000090: a583 98bd 87ad 693c 10e2 56bc 7a30 a93d
000000a0: db62 e5bc 706e 5abd ea92 c73c cac8 b13c
000000b0: f4dd 473d f4f2 55bc 936e 7a3d 57e6 f73b
000000c0: 6990 653d e606 933d 9450 54bd 0146 78bc
000000d0: cc93 4ebd a8d2 cc3d 2f40 f03c 68d0 3ebd
000000e0: 187e d5bc 1abf 693c 5bd5 b53c 2727 133d
000000f0: 1707 01bd 9e7c 1c3d 9ed1 acbc d912 293c
00000100: c604 cfbd c5d3 a0b9 f14a 64bd 4ca2 423d
00000110: 0546 613d 5678 94bd 7d8a adbc e185 82bc
00000120: 12b0 a13c 1c38 db3a 051b 47bd 6036 3b3d
00000130: 5609 d1bc c658 753d e422 c53c b4f1 283d
00000140: 1fd6 ff3d e2be 4f3d 7d16 42bb a47c 97bc
00000150: fa07 863d b27a ea3c 0aa4 e3bc 4e4a 0abc
00000160: 1224 4ebd c014 973c 96ad 08be a65a 81bd
00000170: f279 043d 64ce 06be baf7 5abd 53cd 32ba
00000180: ad13 c1bc 9eed 2d3c adcb c03c 0e91 f33d
00000190: d1a8 0bbc 4986 dbbd 3708 653d 4a6d 2fbd
000001a0: 3eb8 58bc 5d32 1c3d caa8 b03b 14bc cbbd
000001b0: b4ba c03d f973 3a3d 1b18 17bd 759c c6bc
000001c0: 5c15 803d 6c5f 2bbd 341f 783d 1950 cc3b
000001d0: 3269 23bc 5139 3bbd 310a 483e e98d f73d
000001e0: fb24 e33d 5a92 163e 86c0 0e3d a75a 603d
000001f0: 5cfe bc3d 6f05 c8bc f5db 68bc bb9c 083c
00000200: 121e d43c 637e 383c 5bc9 fd3c f31a 033d
00000210: e187 523d 5023 943d 390c 323c 78df 0a3d
00000220: 171d 9bbd fbd4 c43b 9f3f ae3c 623a f6ba
00000230: 9eb9 f93b 1605 a8bc 0bb2 723c f43f 053d
00000240: ddc1 63bd 416b 4c3d 7b36 033d 97d8 81bd
00000250: 1d7f 6c3d b54b 003e 7fcb 03be fccb 97bc
00000260: 46b4 073c a7cb d8bc d396 10bc 80ec b23d
00000270: 7793 173d 9505 953d 9f0c b1bc eab5 64bd
00000280: 1e70 1bbd 0421 fdbc 0f5b 303d b326 c33d
00000290: e540 0f3e 827c ee3d 723a bb3d 0bb7 8d3d
000002a0: 417e a93d 02e9 5a3d 5d0b ef3c ba85 8fbd
000002b0: f158 1c3d 536e 24bd 60dd 103c d73a 6cbd
000002c0: f3d9 00bd 8442 3bbd ddc0 d93c c4f3 2d3d
000002d0: 62ad 11bd 6e35 6d3d c341 db3c 4f82 6b3d
000002e0: 9ce8 1f3d 6035 14bc 2fc4 dc3c f26b 2abd
000002f0: 0a95 0bbc 74d9 edbc 1f30 e23d df1e 253c
00000300: 27b8 943d 8a57 ac3d a296 c5bc 653b bf3b
00000310: c5b0 84bc 82a5 943c eeb3 b13c e7db 02bd
00000320: 83ef ffbc 7e42 f739 b586 a7bd 3c44 8e3d
00000330: 58a4 b7bd b913 5cbd 8050 7e3d 883d 95bd
00000340: be22 6f3d 68c1 223d 1f69 d03a ff66 d93c
00000350: 27fd 383d 3580 e13c da86 ff3b 8f29 7ebc
00000360: 3c73 6abd 90a8 acba cf59 db3d 345a 78bd
00000370: bed3 bf3d 31cf a13d 692f 883d c1b9 5e3d
00000380: 5831 9abc cbbd 9ebd df4f d7bc 87d4 97bc
00000390: ddb0 9f3b d0c1 d4bb c9fc ed3b 89fb 29bd
000003a0: 99f8 18bd 35e0 263d daed 4eba 02f1 c13c
000003b0: f377 72bd 3379 6b3d 00ad e8bc a50c 36bc
000003c0: f4b7 df3c 53d4 97bd 6767 aabb 7750 62bd
000003d0: b0cb 43bd 28ae bd3c f397 063d e3b6 49bd
000003e0: cd04 99bb b1aa 95bd 00ee 47bd ea40 a8bd
000003f0: 910d 863c 6d29 a93c fc32 683c 7909 31bd
0.06226407 -0.0065358705 -0.08558536 0.04814466 -0.04190004 -0.07174178 0.01858758 -0.037959743
-0.06746934 -0.046420857 -0.038966447 0.064311355 0.016668418 -0.070715286 -0.066464536 0.059079695
-0.0062978086 -0.060147617 -0.12679712 -0.010761468 0.023539705 -0.058876358 0.022602722 0.07436165
-0.04855456 0.08004338 0.09702165 -0.055072773 0.017299972 -0.01193907 -0.00063363457 0.024703499
-0.06004821 -0.08472531 -0.014990205 -0.027197381 -0.07446984 0.014262564 -0.013115421 0.08261199
-0.02800124 -0.053327978 0.024362046 0.021702189 0.048795655 -0.013058413 0.061140608 0.0075653004
0.056045923 0.0717905 -0.051834658 -0.015153409 -0.05043392 0.10001117 0.02932748 -0.04658547
-0.026061103 0.014266754 0.022196462 0.03592601 -0.031500902 0.03820478 -0.021096047 0.010319435
-0.10108332 -0.0003067536 -0.055735532 0.04751806 0.054998416 -0.07249515 -0.0211842 -0.015932979
0.019737277 0.0016725096 -0.048609752 0.045706153 -0.025517147 0.059899114 0.024064489 0.04124613
0.12492012 0.05071915 -0.0029615455 -0.01849205 0.0654449 0.028622959 -0.02778818 -0.008440567
-0.050327368 0.018442512 -0.13347468 -0.06316118 0.03234286 -0.1316467 -0.053458907 -0.0006820757
-0.023568952 0.010615734 0.02353462 0.11892901 -0.008524136 -0.10718972 0.055916037 -0.042828836
-0.0132275205 0.038133968 0.005391215 -0.099479824 0.09410611 0.045520756 -0.036888223 -0.024244526
0.06254074 -0.04183905 0.060576633 0.0062351343 -0.009973811 -0.045708958 0.19535138 0.12087614
0.11091038 0.14704266 0.034851573 0.054773953 0.09228203 -0.024416653 -0.014212598 0.008338149
0.025893245 0.011260602 0.030979803 0.032008123 0.051399115 0.07233298 0.010867172 0.033904523
-0.07573908 0.0060068346 0.021270571 -0.001878571 0.0076210042 -0.020510238 0.014812957 0.032531694
-0.055604804 0.049906973 0.03203438 -0.06340139 0.057738412 0.1252888 -0.12870596 -0.018529885
0.008282727 -0.026464297 -0.008825022 0.08736515 0.037005868 0.07276455 -0.021612464 -0.05583755
-0.03794872 -0.030899532 0.04305559 0.09528866 0.13989599 0.11644842 0.09142007 0.06919678
0.08276034 0.05344487 0.029180223 -0.07007928 0.03817076 -0.040144276 0.008841842 -0.0576733
-0.031457853 -0.04571773 0.026581222 0.0424688 -0.03556574 0.057912283 0.026764756 0.05749732
0.039040193 -0.009045929 0.026949016 -0.04160685 -0.00851942 -0.029034354 0.110443346 0.010078161
0.07261687 0.08415134 -0.024119679 0.005835938 -0.016197572 0.018145327 0.021692242 -0.031947996
-0.031242138 0.00047161052 -0.0817999 0.069466084 -0.08966893 -0.053729746 0.06208849 -0.07287127
0.058382742 0.039735228 0.0015900469 0.02653837 0.0451633 0.027526954 0.007798058 -0.015512838
-0.057238802 -0.0013172794 0.10710489 -0.0606329 0.093665585 0.07900847 0.06649668 0.054376367
-0.018822357 -0.07751044 -0.026283203 -0.018533958 0.0048733787 -0.006492831 0.0072628004 -0.04149965
-0.037346456 0.040741164 -0.0007893719 0.023674492 -0.059196424 0.05748863 -0.028402805 -0.011111413
0.027309395 -0.074135445 -0.005200315 -0.05525252 -0.047801673 0.023154333 0.032859754 -0.04924668
-0.0046697618 -0.073079474 -0.04881096 -0.082155064 0.01636389 0.020649636 0.014172312 -0.043221924

encoder.blocks.1.conv.3.bias f4 [32]
00000000: 522c 59bd 8f62 1cbd 0597 debc f1c1 973c
00000010: bc0c b2bd c74f 793a 2a6a 90bc 6214 05bd
00000020: 70d7 b93c 0071 48bc 08ab ed3d a062 a83b
00000030: cb44 c83d 195b 9abd 65a9 c8bb f368 febc
00000040: 2a9d 193d 7e57 b1bd 0054 39bd 8b8c b53d
00000050: bdff b93c bffd 05bd 5e90 3dbc 0bf4 4e3c
00000060: 40ca a23d 2b63 adbb d0f0 1e3d a4b8 4c3d
00000070: e007 e3bd b2d6 a1bd ab56 5f3d 38ed 8dbc
-0.053020783 -0.03817993 -0.027171621 0.018525096 -0.08693835 0.0009510484 -0.017628748 -0.03249014
0.022685736 -0.012233973 0.11604887 0.00513871 0.09778746 -0.07536907 -0.006123709 -0.031055903
0.0375034 -0.08659266 -0.045246124 0.08864697 0.022704953 -0.032712694 -0.011570064 0.012631427
0.079487324 -0.0052913628 0.038803875 0.049980775 -0.110854864 -0.07902278 0.054526012 -0.017325029

encoder.blocks.1.conv.4.weight f4 [32]
00000000: 81ca 7d3f 33d0 7c3f 1def 623f e89f 753f
00000010: 2ee0 793f 44fd 8f3f 0c79 8b3f 55fe 663f
00000020: 7220 703f cc9c 893f 25f6 853f 67f0 883f
00000030: 00b4 853f a245 8a3f 1cf2 7e3f d202 7b3f
00000040: 0f3d 773f b0bf 8d3f c910 773f d555 833f
00000050: 3f45 693f 0fe0 583f 863c 753f 5756 693f
00000060: a134 853f 6119 833f 1dbe 793f 4fa4 6f3f
00000070: 4203 703f f417 773f 8cc6 793f f934 703f
0.9913712 0.98755187 0.8864611 0.9594712 0.97607696 1.1249166 1.0896316 0.9023183
0.9379951 1.0750976 1.0465742 1.0698365 1.0445557 1.08025 0.9958818 0.9805118
0.96577543 1.1074123 0.9650999 1.0260569 0.91121286 0.84716886 0.95795476 0.9114737
1.0406686 1.024212 0.97555715 0.9361009 0.9375497 0.96520925 0.97568583 0.9383083

encoder.blocks.1.conv.4.bias f4 [32]
00000000: cec7 ddbd 6c61 efbc f384 c83b 9213 af3b
00000010: 7198 02bd c097 99bd 9e3f acbd 41dd c4bd
00000020: 9a39 6dbd 3cc1 79bd 0772 ddbc 0580 173c
00000030: dbde da3d b79b 3d3d ef7d 13bc 0c9b 5cbc
00000040: b422 abbc 6318 0bbe 97b9 91bd 400e 59bd
00000050: 013e b0bd 5be0 f8bd 0065 22bd c9d0 b5bd
00000060: f846 a03d 78e7 303c 1090 ddba 60e7 42bb
00000070: 0f65 89bd b39b 22bd 04a8 53bc b1f5 8dbd
-0.10829125 -0.029221259 0.0061193644 0.005342909 -0.03188366 -0.07499647 -0.084105715 -0.09612513
-0.05791626 -0.0609753 -0.027031912 0.009246831 0.106870376 0.04629108 -0.009002193 -0.0134647
-0.020890571 -0.13583522 -0.071154766 -0.052992105 -0.08605576 -0.121521674 -0.039647102 -0.08877713
0.07826036 0.010797374 -0.0016903896 -0.002973996 -0.067087285 -0.039699268 -0.012918476 -0.069316275

encoder.blocks.1.conv.4.running_mean f4 [32]
00000000: 4a0c 753f 3aba 9e3e 4ca0 a23d 06e1 0dc0
00000010: 3b2c 0ec0 3d26 a63f 8f26 483f 133e 87bf
00000020: db04 30c0 f171 cebe 0d69 ff3f bc72 c8be
00000030: 931d e6bf 5e5c a33d a69b 823e 643b c43f
00000040: c8b8 d53f ab17 793f 6d19 21be 89cf bb3f
00000050: c527 cfbd 89a6 bfbf 0cd2 5e3f d3cd 39c0
00000060: 80e3 acbe 0c5e c03e 1dfe 01c0 79f9 633f
00000070: 4166 3bc0 6dcf 0340 fa6e 323f 59d3 873f
0.95721877 0.31001455 0.079407305 -2.2168593 -2.2214496 1.2980419 0.78183836 -1.0565819
-2.7502964 -0.40321305 1.9953934 -0.39150035 -1.7977775 0.07976602 0.25509375 1.5330625
1.6697016 0.9730174 -0.15732355 1.467271 -0.10115007 -1.4972697 0.87039256 -2.9031875
-0.3376732 0.37571752 -2.0311348 0.8905254 -2.928116 2.0595353 0.69700587 1.0611373

encoder.blocks.1.conv.4.running_var f4 [32]
00000000: 2e8c ff3f 86f6 fc3f a8c1 b240 0e32 5340
00000010: 29ad 2940 bbcb 2240 ae1d 3640 2aa2 3940
00000020: 8d21 9440 bcb6 5940 a707 8b40 d550 8640
00000030: ef9b 8c40 f4cd 3040 86a2 8440 1386 bc40
00000040: 4d80 2a40 b438 3f40 1c17 6940 9700 1540
00000050: a012 0a40 4f5c 1440 bc3b 4840 01db 0340
00000060: 2b37 4a40 5260 e83f dab8 3b40 8a0a b740
00000070: 61c3 9640 3c23 1a40 6a82 2940 973b ee3f
1.9964654 1.9762733 5.5861397 3.29993 2.6511939 2.5436847 2.8455615 2.9005227
4.6290956 3.4017782 4.344684 4.197367 4.394035 2.7625704 4.1448393 5.8913665
2.6640809 2.987836 3.6420355 2.328161 2.1573868 2.318134 3.128646 2.060242
3.1596172 1.8154395 2.9331574 5.7200365 4.71135 2.4084005 2.6485848 1.8611935

encoder.blocks.1.skip.weight f4 [32, 16, 1, 1]
00000000: c24d 3dbe 1876 1fbe 08ed 4a3e 5e32 263e
00000010: 7c52 333e 7490 833d c0cd 92bc 2002 6f3e
00000020: ac8a 49be c4db bc3d 28b5 973d 702c f1bc
00000030: 2493 bcbd b479 463e f650 073e 507b d43d
00000040: 7039 f93c 6a71 6c3e ee4f 513e 10c5 54bd
00000050: 80d6 34bd f02f f63c ee98 0a3e 545e debd
00000060: 9cdf ea3d 8895 223e 9493 eabd ccfb 28be
00000070: b0f5 aa3d 085b 813d a05d 23bc 1cf2 b23d
00000080: b266 4abe d2b1 20be a0bc 1dbc 08ca 5bbd
00000090: e471 29be 28c5 733e 6897 01bd 8c3f b6bd
000000a0: c884 7a3e ae5c 733e 0a5e 703e 8091 503c
000000b0: d2cf 3d3e 78cb c4bd b057 5dbd 70b6 103e
000000c0: d65d 64be b8e3 63be 0078 2cbc f0db e4bc
000000d0: d0de 823c a0af 0cbe 40d6 1e3e 2806 ba3d
000000e0: 6a28 2f3e 783e 3b3e 4887 5dbe b48a 8b3d
000000f0: 7016 2fbe 243d e23d 7c08 963d 1afa 03be
00000100: 7039 6a3d a047 533c 84a0 c83d d8bb 803d
00000110: 883c 2cbe c0c9 fa3c 00d8 bbb9 c44f b5bd
00000120: 922f 113e 58b5 6dbd 3491 10be 3e47 7f3e
00000130: b4db 923d fa7d 14be 86a4 46be 18b7 51bd
00000140: 8048 65bd 8895 58be 6084 413e 3677 21be
00000150: d462 f4bd fe4e 00be 90ce 523d 9afd 743e
00000160: 2a7a 29be 3062 763e 105a b5bc 9c9a babd
00000170: d8a5 283e 3401 9f3d c403 dabd 14cd 433e
00000180: b4be 5a3e 2074 b1bc 98fb 23be c87b c4bd
00000190: 003a f1ba a8ec 433d b46e 76be 2046 353c
000001a0: 146b 113e 40b0 2f3d c620 003e b82d 76bd
000001b0: 40c5 31bd a292 79be 504c fc3c e053 623c
000001c0: 80d2 973b e822 743e b88b e9bd d8e6 45be
000001d0: 8ee6 583e 10d8 6dbe 1cf2 b53d 1093 05be
000001e0: f04f f3bc ecc2 de3d 70e4 7b3e 8a0e 6bbe
000001f0: ea7b 0a3e 48fe 33bd 803e 6f3d a843 43bd
00000200: f09f 333d 2025 673d 6cba 3bbe 561c 293e
00000210: e038 6f3c 7430 a1bd 1c51 c83d 383d 52be
00000220: 84d5 1cbe d870 c0bd ce30 263e 3048 c53c
00000230: 0064 18ba 10ed 61bd a482 7d3e 2a10 183e
00000240: 0c22 65be 9873 48be 8025 58bd 2acd 17be
00000250: a659 1c3e d8f4 e93d 4089 653d ba72 5b3e
00000260: 8acd 31be 7076 dcbc 08c6 423d ecf5 2fbe
00000270: 08c7 60be 0e06 333e 00a0 843b 1c0a e0bd
00000280: 289d 113d 24d2 72be ec92 e33d 4a26 57be
00000290: 8028 9ebc 78d1 db3d 5a7c 163e 4003 ee3b
000002a0: f0a7 0a3e 107d e9bd f071 7cbe 68d0 69be
000002b0: b0a7 08bd 4e9d 30be f06d 0b3d 5478 993d
000002c0: 9035 0c3e 961b 753e 1491 71be 706d 81bc
000002d0: 0087 bcbb 3076 ddbc e4ef 0b3e d0f2 ad3c
000002e0: fe7d 11be 6e52 74be a09e 183d 8431 74be
000002f0: 3480 6b3e e606 30be 1c19 f43d 00e1 593e
00000300: 6893 b0bd 342f 983d c667 68be 40dc 9d3d
00000310: d4f9 213e 4aa3 3abe e059 fcbd e05c 023c
00000320: 5e06 55be a6b7 373e 001a 0bbc f809 6d3e
00000330: d68b 17be a01a b2bc 08c4 453e 38f0 573e
00000340: 6a43 323e c01f dfbd cc4c 26be 165f 22be
00000350: f017 2bbe 008c 75be cc7e cebd 802e 26be
00000360: fe71 12be e0c2 76be 14ac d4bd 9cc6 9fbd
00000370: 2c0a 29be be96 31be c8d2 0abe 6041 753e
00000380: 3e40 5f3e 20ac dfbd ec3a 103e 62b9 3fbe
00000390: 6012 e13c f6c2 65be 8002 cb3d 40c5 eabd
000003a0: 9053 6a3e ee8e 4cbe 3cb6 d23d 2c5c 9bbd
000003b0: 7041 10be 20c1 283c b481 6cbe a437 68be
000003c0: d605 30be de25 4abe c0f1 413d 6891 59bd
000003d0: da53 703e 0004 c1bd 724f 4fbe 50c3 fc3d
000003e0: 382c 8f3d 1c78 9c3d 7c89 b0bd a0e3 5dbe
000003f0: c6e9 3c3e 0c88 ba3d 9ce5 f1bd 044f 5cbe
-0.18486694 -0.15572393 0.19816983 0.16230151 0.17511934 0.064240366 -0.017920375 0.23340654
-0.19681805 0.092216045 0.074076 -0.029440135 -0.09207752 0.19382364 0.13214478 0.103750825
0.030422896 0.23090139 0.20440647 -0.051945746 -0.044149876 0.030052155 0.135349 -0.108578354
0.11468431 0.15877354 -0.114539295 -0.16502303 0.083476424 0.06316191 -0.009971052 0.08737585
-0.19765738 -0.15692833 -0.009627491 -0.05365947 -0.16547352 0.23805678 -0.031638533 -0.08898839
0.24464715 0.23765823 0.23473373 0.012730002 0.18536308 -0.09609121 -0.054038703 0.14132094
-0.2230142 -0.22254837 -0.010526657 -0.027936906 0.015975386 -0.1373887 0.15511417 0.090832055
0.1710526 0.18285549 -0.21633637 0.06813565 -0.17098403 0.11046818 0.07325837 -0.12888375
0.057183683 0.012895495 0.09796241 0.06285828 -0.16819966 0.03061378 -0.00035828352 -0.08853105
0.14178303 -0.05803427 -0.1411789 0.2492952 0.07170811 -0.14501181 -0.19398698 -0.051200002
-0.055977345 -0.21150792 0.18898153 -0.15768132 -0.119329125 -0.12530133 0.051466525 0.23924866
-0.16550508 0.24060893 -0.022137672 -0.09111521 0.16469514 0.07763901 -0.106452495 0.191212
0.2136181 -0.021661818 -0.16013944 -0.09593922 -0.0018404126 0.047833115 -0.24065667 0.011064082
0.14201003 0.042892694 0.12512502 -0.060102195 -0.043401003 -0.24372342 0.030798107 0.013813943
0.004633248 0.2384144 -0.11403602 -0.19326341 0.211817 -0.23226953 0.08884069 -0.13044381
-0.029701203 0.10877022 0.2459886 -0.22954765 0.13523832 -0.043943673 0.058409214 -0.047671944
0.0438537 0.05643189 -0.18332833 0.16514716 0.014600962 -0.0787057 0.097810954 -0.20531166
-0.15315825 -0.09396523 0.16229555 0.024082273 -0.0005813241 -0.05515772 0.24756867 0.14849916
-0.22376269 -0.19575346 -0.052770138 -0.14824358 0.15268573 0.11423653 0.056039095 0.21430483
-0.17363563 -0.026911944 0.04755214 -0.17183656 -0.21950924 0.17482778 0.004047394 -0.10939428
0.035550267 -0.23712975 0.111120075 -0.210107 -0.019306421 0.10733312 0.14695874 0.007263571
0.13540626 -0.11400807 -0.24652839 -0.22833407 -0.033363044 -0.17247507 0.03404039 0.07493654
0.13692307 0.23936304 -0.23590499 -0.015799254 -0.005753398 -0.027033895 0.1366573 0.021233946
-0.14208218 -0.2385957 0.03726065 -0.23847014 0.22998124 -0.17190132 0.11918852 0.21277237
-0.086218655 0.07430878 -0.22695836 0.07708025 0.15817958 -0.18226352 -0.1232183 0.007956713
-0.2080321 0.1794115 -0.008490086 0.23148334 -0.14799437 -0.021741211 0.19313061 0.2108773
0.17408529 -0.10894728 -0.16240233 -0.15856585 -0.1670835 -0.23979187 -0.10082778 -0.16228676
-0.14301297 -0.24097776 -0.10384384 -0.078015536 -0.16507787 -0.1734266 -0.13556969 0.2395072
0.2180185 -0.10921502 0.14084977 -0.18723062 0.027474582 -0.22437653 0.09912586 -0.11463404
0.22883439 -0.19976398 0.10288665 -0.0758594 -0.14087462 0.010299951 -0.23096353 -0.22677475
-0.17189726 -0.19741008 0.04734969 -0.053117186 0.23469487 -0.09424591 -0.2024515 0.123419404
0.06990856 0.076400965 -0.08619973 -0.21668863 0.18448552 0.0910798 -0.11811373 -0.21514517

encoder.blocks.1.skip.bias f4 [32]
00000000: 5c3f 5f3e 3039 43be 1c99 b93d 74cc dfbd
00000010: 60ba 77bc 20fe 263c 5420 8a3d bc2e 7fbe
00000020: 7405 3cbe 24ba a9bd 3001 99bc acb6 fabd
00000030: 6ef9 0c3e e0cf 5b3d 48e3 653e 12ce 7fbe
00000040: 7c92 9ebd 681e 543d ba30 7c3e 5246 21be
00000050: 1cdb 6cbe 9c2a cdbd 882c e13d 6049 51bc
00000060: f2b0 2f3e 86db 00be e071 943d 5a79 30be
00000070: 904a d63c c014 62bd 006b a43c d04e 33be
0.21801513 -0.19064784 0.090624064 -0.10927668 -0.015120119 0.010192424 0.06744447 -0.24920171
-0.18361455 -0.08287457 -0.018677324 -0.12241873 0.13767025 0.053665042 0.22449982 -0.24980953
-0.077427834 0.05178681 0.24627963 -0.15749481 -0.23130459 -0.10017893 0.10994822 -0.012773842
0.17157343 -0.12583742 0.072482824 -0.17233792 0.026158601 -0.05519557 0.020070553 -0.17510533

encoder.blocks.2.conv.0.weight f4 [64, 32, 3, 3]
00000000: 72c5 633d 6c43 da3b c8b1 abbc 5c35 013e
00000010: 778f 393d 5683 85bc 117b 1d3c bebd a13c
00000020: 56dc b0bc 71db 333e 3c15 6c3d c2b1 33bd
00000030: f9c5 0e3e defe cd3d cc45 653c 6106 ce3d
00000040: 90d8 6f3d 023e f63c 4715 123d 0d46 db3a
00000050: f5e3 d3bb 08e6 b73d 0f2f 443d 01eb 71bd
00000060: 4394 e7bc 530e b5bb 61ed db3b e9eb 783d
00000070: 2da5 623d b835 813d 082f 9c3c 9138 99bc
00000080: 3ad8 fe3c 5676 1ebd 7572 b1bd 9bd4 3abd
00000090: aa3b 1ebd 4873 0abc d26a b43d c2df 7abc
000000a0: 51aa 573c 1f5c 653d 0f5e 013d 088b b23d
000000b0: b34d a43d 4d75 9938 7be1 803d 132d cebd
000000c0: 65f0 963d 7551 2abc f3dc b0bd 01c7 273d
000000d0: 15fe 2fbd 0cd6 acbd eda0 253d 41c7 943d
000000e0: be62 b3bd 0a44 9e3d e22d 3f3d 085f 63bd
000000f0: 583e f53d f105 b8ba 9ab6 e8bc fedb 4d3d
00000100: 9285 723d 6f94 873d 9bdf ec3d 4927 43bb
00000110: 32af fabb 15db e63c c252 033c b078 3339
00000120: 7235 483c e8f4 cabb d559 aabc 02c4 223b
00000130: 51a2 663d 4ced 683d bc00 de3c 48c5 2c3d
00000140: 7fc3 083d 056a 0d3e 57e8 833d 2254 d1bc
00000150: 0396 833d 85eb fa3d cf70 573d f8be ad3d
00000160: 27be 973d a2e1 4a3d bfb4 cd3d f0fb d63d
00000170: 8233 873d a3d6 293e 0e3b 323d 22c6 d23c
00000180: 4fd7 313d cc59 6d3d ba89 453d 8588 d13d
00000190: b193 183e 40d2 e53d 92a8 2d3e 42fb 923d
000001a0: 1a31 843c 07d3 4e3e a728 aa3d fbe4 a43c
000001b0: 65f8 033d 7cf0 8b3c 96a1 2e3d d7d4 ba3d
000001c0: 60dd f43d 4ff3 ff3d 83a4 7abd 0cd0 32bd
000001d0: ab38 663d 5958 c23d c85b 093e 676f d0bc
000001e0: a84b 163d f73b 1d3e 3884 beba 9d24 9a3d
000001f0: b82b 0b3e 4f70 303d 1baf b03c 25f8 0fbd
00000200: d003 efbc c835 bf3d abc8 ffbc 6ff4 3cbd
00000210: 8ec2 abb9 2f77 43bd 7cb5 84bd c020 b03d
00000220: 8ec8 45bb 0edf 2bbd 2b93 873d 3548 3fbd
00000230: 1089 00bd 21ce dcba 63b2 0ebd a943 d0bd
00000240: ed97 a83d 7a57 ce3c 164c c0bd 540f e63d
00000250: c877 5abc 331e c6bd 0314 f33d fcc5 5ebc
00000260: 0e17 c3bd d7e5 053e 09e1 e13d 7089 f6bc
00000270: 3dd2 243d 8b7c 993d 9098 65bd 21d0 953d
00000280: 7748 8abd a462 b0bd a2b6 6c3d 1e36 b03d
00000290: a907 763c 4c63 803d 0129 95bb ee33 753c
000002a0: 2df0 fc3c 90a7 df3c dc16 1f3b e8d3 6b3d
000002b0: c750 b33c 853c b2bb 7b4b f5bc 3be6 90bd
000002c0: f9da 9ebd 5153 483d f48d 9c3b 8ad3 00bd
000002d0: ca45 203d 7b91 fdb9 3547 ae3c 09bf 63bd
000002e0: b782 ec37 2709 133d 8b9a 593d 8be5 8c3b
000002f0: bb4c a73c 4813 7c3d dd90 673d 7821 323d
00000300: 0004 7b3d 5ee8 6b3d aa11 873d a909 c33d
00000310: dd4d b53c 1947 773c 0460 de3d db67 383d
00000320: c88c 8dbc 467d 783d bd72 c43a b13d aebc
00000330: bd01 fb3d 43e0 b73d a67e 2b3c 26b0 953c
00000340: 21d7 713c fc4d 593d 262e 96bd 515c eb3a
00000350: ab74 64bc 71a8 a3bd 8732 703c 535c f0bc
00000360: 0dd5 173d 7bf9 873c 6e46 2c3d bcbb 8d3b
00000370: cb0c 913c 882c b03c 8464 a5bd 0c4f a7bd
00000380: cba6 bc3c ed6b 0b3e 7eac ac3d 67fb 87bc
00000390: 9054 953d a67e 9fba d886 f1bb 674f 163e
000003a0: e747 453d 7f82 2d3d e1a3 c7bc 8dc2 e7bd
000003b0: 7afe d6bc d428 cabd 93b9 83bd b461 69bd
000003c0: 793e f5bd 3b4d d3bd f614 bdbd eccf c53d
000003d0: 59b9 9f3c b076 8abc afa1 713d 8de7 9dbc
000003e0: e979 6dbc 4c05 2c3d 3e49 9b3d d632 a63c
000003f0: fc90 b13d e384 9d3d 20e0 34bd 91ef aa3a
0.05560822 0.0066608693 -0.020958796 0.12618011 0.045302834 -0.016297977 0.009611861 0.019743796
-0.02158944 0.17564179 0.05763744 -0.043870695 0.13942708 0.10058378 0.013993692 0.100598104
0.05855614 0.030058865 0.035664823 0.0016729251 -0.0064663836 0.08979422 0.04789644 -0.059062008
-0.028268939 -0.005525389 0.0067116474 0.060771856 0.055333305 0.06309074 0.019065395 -0.01870373
0.031108964 -0.038687073 -0.08664409 -0.045612913 -0.03863112 -0.008450337 0.08809437 -0.015312137
0.013163165 0.055996057 0.031583842 0.08717924 0.080226324 7.3174575e-05 0.06293007 -0.10067191
0.0737007 -0.010395397 -0.08635893 0.04096127 -0.04296692 -0.08439264 0.040436674 0.07264567
-0.08759068 0.07727821 0.046674617 -0.05551055 0.11974782 -0.0014039857 -0.028407384 0.05025863
0.059209414 0.06620108 0.11566087 -0.0029778054 -0.0076502794 0.028180638 0.0080153365 0.0001711573
0.012219774 -0.006193746 -0.020794788 0.0024836068 0.05630714 0.05686693 0.02709996 0.04218033
0.033389565 0.13809974 0.064408 -0.025552813 0.06425097 0.12251953 0.052597817 0.0848369
0.074093156 0.049531586 0.1004424 0.10497272 0.06601621 0.16585784 0.04351335 0.025729243
0.043418225 0.057946965 0.04822705 0.10231117 0.1490009 0.11221743 0.16958836 0.0717683
0.016136695 0.20197688 0.08308535 0.020128718 0.03221931 0.017082445 0.04263457 0.09122627
0.119562864 0.12497579 -0.061192047 -0.04365544 0.056206387 0.09489507 0.13413918 -0.025443746
0.036693245 0.15354906 -0.0014535254 0.07526515 0.13590896 0.043075856 0.021567872 -0.03514876
-0.029176623 0.0933643 -0.031223616 -0.046131548 -0.00032760616 -0.047721084 -0.06479928 0.085999966
-0.0030179354 -0.04196077 0.06619867 -0.04669972 -0.031380713 -0.0016846099 -0.03483809 -0.10169155
0.082321025 0.025188196 -0.09389512 0.11233392 -0.013334222 -0.09673729 0.11869051 -0.013597008
-0.09525882 0.13075958 0.1102925 -0.030094832 0.04023956 0.07494458 -0.056053698 0.07315088
-0.06752103 -0.08612564 0.05779136 0.08604072 0.015016475 0.062689394 -0.004552007 0.014965994
0.030876243 0.02730158 0.00242751 0.057575136 0.021889104 -0.0054393434 -0.029943218 -0.07075163
-0.077566095 0.04890758 0.0047776643 -0.03145174 0.039129056 -0.00048364312 0.021274189 -0.055602107
2.8194261e-05 0.0358974 0.0531259 0.0042998246 0.02042233 0.061541826 0.056534637 0.04348895
0.06128311 0.05759465 0.06595166 0.09523327 0.022131855 0.015092635 0.10858157 0.04502092
-0.017279044 0.060666345 0.0014987808 -0.021269651 0.12256191 0.089783214 0.010467207 0.01827247
0.014760763 0.053052887 -0.07333021 0.001795659 -0.013943831 -0.07991112 0.014660484 -0.029340899
0.037068415 0.016598454 0.042059354 0.004325358 0.017706295 0.02150561 -0.080758125 -0.08169374
0.023028752 0.13615389 0.08431338 -0.01659937 0.0729152 -0.0012168481 -0.007370811 0.14678727
0.048164275 0.04236078 -0.024370136 -0.113164045 -0.02624439 -0.098710686 -0.0643188 -0.056977943
-0.11974806 -0.10317465 -0.092325136 0.096587986 0.01949756 -0.016902298 0.058992084 -0.019275451
-0.014494398 0.04199724 0.07582329 0.020287912 0.08670232 0.07691362 -0.044159055 0.0013041367

encoder.blocks.2.conv.0.bias f4 [64]
00000000: b203 43bc d36a e9bc 8061 0abc f9ec 84bc
00000010: 9eb4 ab3d d9ef babc 8da1 553c 47fe 76bc
00000020: 477f d8bc b7c7 9b3c 311b 55bd a9b8 a3bd
00000030: 2145 893d f405 89bd 9652 d33b dad7 b3bd
00000040: 2fcb c53c 5ba9 06bd 149b b03c ec7e 28bd
00000050: fcd0 12bc dba7 acbc 0496 8bbd e6d2 7e3c
00000060: 2f52 d53c ff58 c7bd 112a 193d 39b8 833b
00000070: a7b3 95bd 2756 bbbb 0e7e 77bb 92df b8bc
00000080: 1cb4 043d d265 49bc 53ff 7b3c ce9c 37bd
00000090: 2c78 8cba ba7e 0c3d b0e7 db3c 8c0b 1abd
000000a0: df06 ae3d 677e 073d 8e6b b23d 4bd5 48bd
000000b0: 4f89 1bbd 2307 0dbd 6e78 56bd 2103 6ebd
000000c0: afa0 743d 5f20 b33c ac80 16bd 0b64 263d
000000d0: 50b4 373d e141 f33c 9346 6c3c b221 6abd
000000e0: 2bb1 b9bb 7504 a93c 3e4b 26bc 75a5 4c3d
000000f0: bb41 59bd 5609 003b c071 9f3d e502 083d
-0.0119027365 -0.02849332 -0.008446097 -0.016226279 0.08384059 -0.022819446 0.013039005 -0.015075273
-0.026427878 0.01901613 -0.052027885 -0.079942055 0.067026384 -0.066905886 0.006449054 -0.08781405
0.024144737 -0.032876354 0.021558322 -0.041136667 -0.008960959 -0.021076133 -0.068157226 0.015553212
0.026040165 -0.097337715 0.037393633 0.004019764 -0.073096566 -0.0057170573 -0.0037764343 -0.022567544
0.03239833 -0.012292342 0.015380698 -0.044827275 -0.0010716966 0.034300543 0.026843876 -0.03760867
0.08497404 0.03307953 0.08711921 -0.049031537 -0.037972745 -0.034430634 -0.052360944 -0.058108453
0.059723552 0.021866022 -0.036743805 0.040622752 0.044849694 0.0296945 0.014421123 -0.05716104
-0.005666872 0.020632008 -0.010149775 0.04996248 -0.0530412 0.0019536815 0.07785368 0.033205885
