toyshapes/pinets_defaults/model_33.pth (torch, 466881 bytes, 71 tensors)

encoder.blocks.0.conv.0.weight f4 [16, 1, 3, 3]
00000000: 6a79 883d b931 063e 5ab2 66be ef90 02bd
00000010: 959c 14be a883 203e 035b 023e c1a7 8cbe
00000020: 059a 5e3e f2c7 80be 9712 e93a 2642 9d3e
00000030: c812 58be a8f9 943e 326a 3ebe e4a7 babd
00000040: 3e8e dbbd e087 b63e 0f6c fdbb f1d3 4abe
00000050: 008b bdbe 162c c83d 66d9 833d cc7b 62bd
00000060: 3cf8 1cbe 75ae e33c 0ae0 913e 4bf4 5bbd
00000070: 9c5a 863e ebe6 6c3e 9db7 9b3d f97b 143e
00000080: 8ae6 e1bd 80ab a4be 6c29 e8bd a1a0 b2bd
00000090: cec8 1e3e 1004 95be 06cb 043e ecf3 413e
000000a0: cf55 123e 8815 85be 574e b73d 6449 adbd
000000b0: 6792 61bd 6084 c7bd 8f09 80bd 56d6 603e
000000c0: ba8e 6dbc 1200 7bbd b0bc 803e 5ed1 a13d
000000d0: 01e6 c9be 4d9b b13d 8496 0fbe fc62 a93e
000000e0: 77f0 5f3c 3917 023e e4cb c7be e9d6 923c
000000f0: 3729 4c3b abdd 85b9 89a1 d0bd d06d 5f3e
00000100: 7510 bfbe 7c37 c03e fec3 3c3e 2d5f 25be
00000110: 6289 c23d d16c f5bd f1c4 b6bd 75d6 8ebd
00000120: a546 4abe d367 30be 7ed4 14be 1811 153e
00000130: 846a 42bd 2c81 243e c33c 78be ae28 653e
00000140: 1750 2c3e dd85 7b3d be71 a5be 5e74 1f3e
00000150: 3c3e 483e 20ed 21bd 32d6 86be 6ef6 673d
00000160: 8499 913e 71a5 303d b611 34be f3fe ea3d
00000170: 09f8 f33d 97f1 ea3d caa2 b83e 2706 3e3e
00000180: fb9d 30be e3c4 4b3d ee66 8d3e df35 ec3d
00000190: 87f7 be3d 2bf2 1abe b531 f83d 766d 8bbe
000001a0: f2ab b2bc bd39 d9bc 8efa abbe 389c b13e
000001b0: 26a4 07be f702 8cbd 64e5 d9bd 9450 a03e
000001c0: 900a bb3c 38ae 543e 2a53 9cbe ae08 26bd
000001d0: 452f 27bd c47b 013e 7dbe 4b3e 1a00 15be
000001e0: f500 81bc e504 8fbe 7e6f 053e ebd4 9c3c
000001f0: 928c bcbe d390 353e 1b87 e0bc dace aabe
00000200: 8f4b 25be 729d acbd 64d5 3b3e e2a0 a4bd
00000210: ddfc 7d3d 7bb9 713e d1d1 16be f8e9 1d3e
00000220: d2fe 9ebe f70e 42be 82f2 f3bd d2e8 853d
00000230: 1021 3f3e dd26 113e 4749 58bd 5c6d 723e
0.06663783 0.13104905 -0.22528973 -0.0318765 -0.14512856 0.15675223 0.1273003 -0.27471736
0.21738441 -0.25152546 0.001778203 0.3071453 -0.21100914 0.29096723 -0.18595198 -0.09114054
-0.1072049 0.3565054 -0.007733829 -0.19807412 -0.3702011 0.09774034 0.0643795 -0.055293843
-0.15329069 0.027793149 0.2849124 -0.053699773 0.26241004 0.23134963 0.07603381 0.14500417
-0.110303 -0.32162094 -0.113360256 -0.08722044 0.15506288 -0.29104662 0.12968072 0.18940705
0.14290546 -0.2599299 0.08950489 -0.08461264 -0.05507126 -0.097420454 -0.06251823 0.21956763
-0.014499361 -0.061279364 0.25143957 0.07901262 -0.39433292 0.086721994 -0.14022261 0.33083332
0.013668171 0.12704171 -0.39022744 0.017924743 0.0031152496 -0.00025532892 -0.101870604 0.21819234
-0.37317243 0.3754233 0.1843414 -0.16149588 0.0949886 -0.11983646 -0.08924282 -0.06974498
-0.19753511 -0.17227106 -0.14534184 0.14557302 -0.047464862 0.160649 -0.24241929 0.223788
0.16827427 0.06140696 -0.3231334 0.15571734 0.1955499 -0.03953278 -0.26335293 0.056631498
0.28437436 0.043126527 -0.17584881 0.11474409 0.11912543 0.11471861 0.36061698 0.18557034
-0.17247765 0.049748313 0.27617592 0.115337126 0.09324556 -0.15131442 0.12118856 -0.2723195
-0.021810506 -0.02651679 -0.33589596 0.34689498 -0.13246211 -0.06836503 -0.10639456 0.31311476
0.022832185 0.20769584 -0.305322 -0.04053562 -0.040816564 0.12644869 0.19896884 -0.1455082
-0.015747527 -0.27933422 0.13030812 0.019144496 -0.36825997 0.17731027 -0.027408173 -0.3336094
-0.16142105 -0.08428468 0.18343121 -0.080384985 0.062008727 0.23605911 -0.14728476 0.15421283
-0.31053787 -0.18951021 -0.11911489 0.065385476 0.18664956 0.14174981 -0.052804258 0.2367453

encoder.blocks.0.conv.0.bias f4 [16]
00000000: 25bf 383e 2e04 a4be 5825 4d3e afac ea3c
00000010: 75ca 443e 6e7d 813d 6f42 77bc 2f72 8b3e
00000020: 07a2 b3bc 8646 82bc 50e6 61be 9d9d 173e
00000030: 0840 14be 4301 abbe 5751 063e 0f3e 5b3e
0.18041666 -0.3203444 0.20033777 0.028646795 0.19217856 0.06322752 -0.015091523 0.27235553
-0.021927847 -0.015902769 -0.22060513 0.14806218 -0.14477551 -0.333994 0.13116966 0.21410392

encoder.blocks.0.conv.1.weight f4 [16]
00000000: 2594 8d3f ca47 673f 6fec 673f d7a1 8a3f
00000010: 02a9 703f a148 7e3f d1b0 523f 82b4 a03f
00000020: 44df 723f f2c4 733f 4f04 4a3f 2876 883f
00000030: 608f 603f 61ec 883f 4d4e 773f 3807 723f
1.1060835 0.90343916 0.90595144 1.083064 0.94007885 0.9932957 0.8230105 1.2555087
0.94871926 0.9522239 0.78912824 1.0661058 0.8771877 1.0697137 0.9660385 0.94542265

encoder.blocks.0.conv.1.bias f4 [16]
00000000: 75e8 d33d 4812 c1bd 5c28 9ebd 5e58 52bd
00000010: dff0 d4bd c6e4 7abd 1a80 0bbe 0e4e cb3e
00000020: 83ea 03be dd36 a1bd f45e 3fbe 3629 a03d
00000030: a89a 19be 96f7 b2bb ee65 a9bd fcd6 5ebe
0.10347072 -0.09427315 -0.07722542 -0.051353805 -0.10397505 -0.06125333 -0.13623086 0.39707989
-0.12882428 -0.078717925 -0.18688565 0.0782036 -0.15000403 -0.0054616434 -0.08271395 -0.21761698

encoder.blocks.0.conv.1.running_mean f4 [16]
00000000: f849 493e 46d5 94be 23fd 513d 8599 343d
00000010: c673 4d3e fd5f a03d d048 bdbd 2d9e 9b3e
00000020: 0d51 90bd d3e8 0a3d a6c1 563e 10ec b53d
00000030: a3ac 55be 17b1 cfbe 01af 29bd 75d3 893e
0.19657123 -0.29068965 0.0512668 0.04409172 0.20063695 0.07830808 -0.092424035 0.30394116
-0.07046709 0.033913445 0.20972309 0.08882916 -0.20866637 -0.40564796 -0.041426662 0.2691914

encoder.blocks.0.conv.1.running_var f4 [16]
00000000: 43bb 683a 669f ce3b eda0 ed3b 5bb8 bf3b
00000010: ef27 303b 02ab 803b cb3f 0c3b d330 703b
00000020: 28d9 923b 32fd 613b 8e8a 133d e7c3 223b
00000030: 50b7 313b 8e91 3f3b fca1 0a3c b81f 743b
0.0008878002 0.006305623 0.00725185 0.0058508343 0.002687927 0.0039266357 0.0021400328 0.0036650195
0.0044814534 0.0034483192 0.036020808 0.0024836005 0.002711732 0.0029231044 0.008461472 0.003725035

encoder.blocks.0.conv.3.weight f4 [16, 16, 3, 3]
00000000: 7121 483e 3042 d33d 172c 453d b864 043e
00000010: 1038 213e 2ef0 f53c 85c3 283e 7670 f73d
00000020: 723c a63d 7e94 5e3c 06a6 2fbd 9c77 9ebd
00000030: e7a7 cd3c e09c b03d 506c 7ebc 905d cc3b
00000040: 5f7e 6f3d d5d0 183d 7d1b 98ba fb83 ee3c
00000050: 2c0b 18be 894b 573c 9833 c33d bacd c0bc
00000060: a680 f0bc 70ca 57bd 79cd 743d 468d a33d
00000070: 24ae 4abc d749 a73d fa4e aa3d 6dbd f73d
00000080: 64b4 c23d 1028 413d 4a24 8c3d 8a13 2a3e
00000090: 61b4 47bd b333 903c 4b34 773d 529c 1c3d
000000a0: 67e6 7cbd 65af 1e3c a096 2cbc c692 2fbd
000000b0: d487 243d 03a6 f73d 339e f03d d67f a23d
000000c0: 3ff3 323e 5d62 b63d 8ad1 ef3d d0dc 973d
000000d0: f3f2 d33d 1ada e7ba c077 87bd 9933 863c
000000e0: 8112 ea3c 92ef 833c 489b 60bc f725 a73c
000000f0: 9f78 10bd da40 e63b 8edf 04bd 8e7a 843e
00000100: cbca 9fbc 09e6 513c 9744 873e 36e9 853b
00000110: 4045 263e e3ac eb3d d1f6 bf3d 7c4d 483e
00000120: 0c95 883b 0e73 3abd e87b 08bd 4bbe 4b3d
00000130: 9356 9f3c 5898 a03d 01e0 1b3d 18c1 c5bc
00000140: b428 a13d 1c11 39bd eb99 e7bc e794 403c
00000150: eb51 3b3d 93b9 2dbd c9f3 683d fc35 d43d
00000160: 0d50 563c 36e6 31bb f529 a13d a7e0 9c3b
00000170: 6c51 393d 0d43 ca3d f552 963d 8533 a53c
00000180: ed8e 4d3c 079e 033e bce6 e93b bc86 e43d
00000190: d2d1 f33c ec00 323d 7ed0 023e dc86 dc3d
000001a0: 4cf9 843c 51fe c03d 76b0 91bd a3fd ef3d
000001b0: 59cb 833d c668 f73b 4fe5 91bc b9fd 94bc
000001c0: e387 563d 0e87 bf3d cf08 6c3d 0585 7eb9
000001d0: f19d 45bd 740e 4b3d 8056 ab3c 4e84 06be
000001e0: 17fb 6fbc 02ec 453c 3947 dcbd c0ac a4bb
000001f0: 1c46 ddbb 3d0b 053d 6141 c3bd ba79 c93d
00000200: 6637 05bd 8dc2 52bd 59ea d03c 8905 293e
00000210: fcd1 0bbb 6174 133e 8e3e ab3d 422f 7e3d
00000220: 59f6 dabc 95c4 58bd bd49 6f3d 21e5 0ebd
00000230: 077f 8bbc 6c5f a63d 456a 953d 30b6 b83c
00000240: 86db 4b3d be7d e03c 70f8 bebd b146 ad3d
00000250: dffa 583d 084f a63c d0a4 8a3d 5fd6 37bd
00000260: 5a0c 053e 89e4 943d b604 903d e425 4b3d
00000270: 90d5 143e 439c 813d 6541 103e 5731 70bc
00000280: a470 f23d a0a7 27bc 1d5a 4abd 08a1 43bd
00000290: 568e 1dbe 66de c6bd 1381 12bd 58c9 63bd
000002a0: 7bec dbbd 666d 82bd 65fa 5abd 2714 27be
000002b0: c342 40be 5513 32be 058e 81bd b26e 8bbe
000002c0: d299 74be 5813 8ebb 2130 6fbd 1d1c 52be
000002d0: 93df 9e3d 8ed2 b83d 14e0 af3d ddcb babc
000002e0: 61fa 003e 3ca3 40bd c426 9cbc 1ef5 d13d
000002f0: 2fab da3d 5bb3 0cbe be85 20be 9e7d 18bd
00000300: bee3 f7bd fc38 b1bd 4cc5 46be 12a9 56bd
00000310: 61ad d5bd 4dd3 95bd 01e2 c4bc f177 983c
00000320: 3799 db3d ddec 5b3d 16cd ef3d 8c2d bf3d
00000330: db78 af3d 78ff 4d3d f8f0 4b3d 3e49 803d
00000340: f54d 7bbb 38a6 acbd 2cee e9bd e2b9 d6bb
00000350: a3e3 80bd 852d b7bc 14ad a83d 1379 ab3c
00000360: 0b09 02be c70c 6abd 67ba 01be f51a 35bd
00000370: 7ca6 fcbd c3c6 26bd 2787 57be 2ce3 8ebd
00000380: 38d9 ffbd ce3c 2bbd 5352 e53b bd6e 1e3d
00000390: 1204 0bbd 399c 4c3d 4afd 05bc a391 26bd
000003a0: b7e1 25bc e925 d8bd ce50 25bd 094f f0bc
000003b0: 5659 3abe a689 06bd 2f49 86bc 97fa e9bd
000003c0: 6ee9 8cbd bd1a 28bd 0e59 babd b991 5cbd
000003d0: de1e 27bd c074 1fbe aad9 4bbc a577 7fbd
000003e0: 7b77 b73b 1733 9a3c 89e7 06be ffb2 99bd
000003f0: 1b8f c5bd 3fd2 edbd eeff 5bbe 50ab 24bc
0.19544007 0.10315359 0.04813775 0.12929046 0.15744042 0.030021753 0.16480835 0.12081997
0.08116998 0.013585208 -0.04288294 -0.077376574 0.025104476 0.086236715 -0.015528753 0.0062367395
0.058470126 0.037308533 -0.0011604872 0.029115668 -0.14848012 0.013140568 0.09531325 -0.023535598
-0.02935822 -0.052683294 0.059766266 0.0798593 -0.01237062 0.08168381 0.08315845 0.12096677
0.09507063 0.047157347 0.06842859 0.16609016 -0.048756007 0.017602777 0.060352605 0.038235016
-0.061743166 0.009685372 -0.010533959 -0.042864583 0.0401686 0.12092211 0.11748924 0.07934539
0.17475604 0.0890548 0.11709888 0.074151635 0.10349073 -0.0017688901 -0.066146374 0.016382026
0.028573276 0.016105447 -0.013708897 0.020403845 -0.035271283 0.007026774 -0.03243976 0.25874752
-0.019505879 0.012811192 0.26419517 0.004086639 0.16237354 0.11507585 0.09373248 0.19560808
0.0041681584 -0.04551988 -0.03332129 0.049742024 0.019450461 0.07841557 0.038055424 -0.024139926
0.07869092 -0.045182332 -0.028271636 0.011754251 0.04573242 -0.042413305 0.056873117 0.10361859
0.013080609 -0.0027145273 0.07869331 0.004787523 0.045243666 0.0987607 0.073400415 0.020166168
0.012546283 0.12853251 0.0071381014 0.11158511 0.029763136 0.04345791 0.12774846 0.1076791
0.016232155 0.09423507 -0.071137354 0.11718299 0.0643527 0.0075503318 -0.017809538 -0.01818739
0.052375685 0.093519315 0.057625588 -0.00024272881 -0.048246328 0.04957433 0.02091527 -0.13136408
-0.014647267 0.012080194 -0.10755772 -0.005025476 -0.0067527425 0.03248142 -0.095339544 0.098376706
-0.032523535 -0.05145507 0.02550237 0.16506018 -0.0021334877 0.14399864 0.08361541 0.062056787
-0.026728796 -0.05292185 0.05841993 -0.034886483 -0.017028345 0.08123669 0.0729566 0.022547811
0.0497699 0.027403709 -0.093247294 0.08460749 0.052973624 0.020301357 0.06769717 -0.044882175
0.12992993 0.07270152 0.070321485 0.049596682 0.14534593 0.06328633 0.14087446 -0.014660201
0.11837891 -0.010232836 -0.049402345 -0.047760993 -0.15386328 -0.09710388 -0.035767626 -0.05561194
-0.107384644 -0.06368522 -0.05346145 -0.16316281 -0.18775468 -0.17390187 -0.06325916 -0.2723289
-0.23886803 -0.004335802 -0.05839551 -0.20518537 0.07757487 0.09024535 0.085876614 -0.022802288
0.12595512 -0.047030672 -0.019061454 0.102518305 0.10677182 -0.13740294 -0.15676019 -0.037229173
-0.12103985 -0.08653447 -0.194112 -0.05240733 -0.1043346 -0.07315693 -0.024033548 0.01861188
0.10722583 0.053692687 0.11709039 0.09334859 0.08567973 0.050292462 0.049790353 0.0626397
-0.0038346027 -0.08430141 -0.11422381 -0.0065529207 -0.06293418 -0.022360573 0.08236137 0.020931756
-0.12698762 -0.05714109 -0.12668763 -0.04421516 -0.12336442 -0.040716898 -0.2104765 -0.06976923
-0.12492603 -0.041806035 0.006998339 0.038679827 -0.03393943 0.049953673 -0.008178065 -0.040666234
-0.010124615 -0.10554106 -0.040360264 -0.029334562 -0.18198141 -0.032846116 -0.016392319 -0.11424749
-0.06880461 -0.041041125 -0.09099017 -0.05384991 -0.04080092 -0.1557188 -0.012442032 -0.06236996
0.00559896 0.01882319 -0.13174261 -0.07504844 -0.09646436 -0.11612367 -0.21484348 -0.01005061

encoder.blocks.0.conv.3.bias f4 [16]
00000000: 751d 57bc c9be d93d 8fbc b73a 2947 663d
00000010: d8fc a7bd 1f71 bb3c f688 b5bd 9fe5 cd3d
00000020: ba1c 8dbd 631f a53c ff4a 80bc b0fa 6bbc
00000030: 7628 933c 5a72 b23c cb33 073d ce90 043e
-0.013129582 0.106320925 0.0014017987 0.056220207 -0.08202523 0.022881089 -0.08864014 0.100535624
-0.06890245 0.020156568 -0.01566076 -0.01440303 0.01796363 0.021783043 0.033008378 0.12945864

encoder.blocks.0.conv.4.weight f4 [16]
00000000: 766b 7c3f 7573 733f c443 833f 963c 6c3f
00000010: dbe0 683f 4633 573f e4de 673f b424 6d3f
00000020: 7c5c 613f 412f 623f 844d 633f b797 693f
00000030: 4996 6e3f f1fd 963f 9374 893f b15f 773f
0.9860147 0.9509805 1.0255055 0.92279947 0.909681 0.8406261 0.9057448 0.9263413
0.88031745 0.88353354 0.88790154 0.91247123 0.93198067 1.1796247 1.0738701 0.9663039

encoder.blocks.0.conv.4.bias f4 [16]
00000000: a813 72bd 72e5 4abd e950 04be 31a8 61bd
00000010: 3f37 9dbe b998 03bd 2494 a5bd 3e1c 20be
00000020: 2b52 cabd 949a cabd 26b0 2c3c cf1f debd
00000030: a184 2ebe 78b8 43bd 5533 29be b30f e5bd
-0.059100777 -0.049535222 -0.1292149 -0.05509204 -0.30706212 -0.03212807 -0.08084896 -0.15635774
-0.098789535 -0.09892765 0.010540044 -0.10845911 -0.17042781 -0.047783345 -0.16523488 -0.11184635

encoder.blocks.0.conv.4.running_mean f4 [16]
00000000: d751 e93f cbe6 a7bf 7423 fe3f 884c 4dbf
00000010: 2441 d43f 8cd5 0fc0 8e8a d53f 1a10 1f3e
00000020: b221 b53f 4a93 febf 6ae9 cebf 80f3 603f
00000030: 0d19 ad3f 8dc3 393f efd2 48bd 2fc5 fb3f
1.82281 -1.3117307 1.985457 -0.801949 1.6582379 -2.2474089 1.6682909 0.15533486
1.4150908 -1.9888699 -1.6164982 0.8787155 1.352327 0.7256401 -0.049029287 1.9669551

encoder.blocks.0.conv.4.running_var f4 [16]
00000000: c21f 1240 100f 1a40 353a 3740 f916 a33f
00000010: 22ab e33f 6d89 2340 1488 1240 c76e 2a3f
00000020: 2833 ea3f 1d83 7040 9bb4 4540 7978 da3f
00000030: cd2d d93f d569 5a3f b172 173f d5a7 4040
2.2831883 2.4071693 2.8629277 1.2741386 1.77866 2.5552628 2.2895555 0.6657528
1.8296862 3.7580025 3.0891483 1.7068015 1.6967102 0.85317737 0.5915938 3.0102437

encoder.blocks.0.skip.weight f4 [16, 1, 1, 1]
00000000: ecf4 1ebf 80ff 483f 3828 00be 70d3 25bf
00000010: 8062 1ebe 5c1c b0be 7ce3 3cbf 04cd ea3e
00000020: 0096 14be 0882 2c3e 40fb 2dbf d859 71be
00000030: b43b 8e3e 5413 babe 0ca1 45bf 305a 8bbd
-0.6209247 0.7851486 -0.12515342 -0.64775753 -0.15467262 -0.34396636 -0.73784614 0.4585954
-0.14510345 0.16846478 -0.679615 -0.23569429 0.27779925 -0.3634287 -0.77198863 -0.06804311

encoder.blocks.0.skip.bias f4 [16]
00000000: 0016 2bbc dafb 6cbf d284 113f 1850 013e
00000010: 607a a0be de30 4c3f 760a 043f c0be a2bc
00000020: e4e7 6abf a82f 67bf 80df dfbe 5ec6 3ebf
00000030: 86fe 0b3f 5038 b1be 6091 43be 205d ecbe
-0.010442257 -0.92571795 0.5684329 0.1262821 -0.31343365 0.79762065 0.5157846 -0.019866347
-0.91760087 -0.9030709 -0.43725204 -0.74521434 0.54685247 -0.34613276 -0.19098425 -0.461648

encoder.blocks.1.conv.0.weight f4 [32, 16, 3, 3]
00000000: 51e7 d6bd dddf 36bd 9070 843d 4e26 d3bd
00000010: 4eb1 183d ada2 903c 2d86 1b3c 9c49 953b
00000020: b494 29bc 10ce ae3c 4286 073e d7e2 0fbd
00000030: 5930 80bc 8be2 85bc 21b5 dabb 158a bdba
00000040: 0af3 3bbc d874 8abd 0240 c83b 876e d03c
00000050: d321 1ebd c7f0 493d 9a84 823d 48f8 21bd
00000060: 1d46 663d 4c17 223d 6522 6f3c 0740 96bc
00000070: 4a26 ba3d 13cd 9b3d 7314 12bd e04f 1e3d
00000080: a556 043c 65b8 8a3d f9ad 933d d321 d1bb
00000090: 21d7 5dbd 9624 0fbd d514 e2bc 2b59 dc3c
000000a0: f488 a8bb cf4b debd d0cc 02be 2301 e3bd
000000b0: 07b4 3a3d 1f85 ad3d 258b 403c a7eb f13d
000000c0: 6170 b23d 6033 25bc a29f 4b3e ac20 0f3d
000000d0: b526 283c 308a e43d a319 43bd cf9e 49bd
000000e0: c2f9 443d 1e76 d3bc 5263 72bd 98a2 8c3d
000000f0: 16eb 0abd 1654 0dbd 4795 513d 8140 f93d
00000100: 167b 913c e656 bc3d 102c 9f3d 0dc9 6dbc
00000110: d96b 09bd 939a 153d 462c 90bd 4684 74bd
00000120: 278c 863c f85b b43d 5c0f a73d 1879 9abd
00000130: 44c9 32bd 82a4 963d b221 aa3d df32 033e
00000140: 3642 4f3d 9fd3 8f3d c51b b23d 2ef4 163e
00000150: 4d6f bb3d a798 953d 573a 223d 01d5 83bd
00000160: 1845 d73d f081 b93d 8ee4 f23d bb6d 543d
00000170: ea9f b83c 5115 9d3d 32fe 02bd 46f7 f33c
00000180: 9a41 4dbc b4cb 0cbd 60ed 863b 06d3 b5bd
00000190: 022f 9fbd 9b73 363d 7cbb dabc 6980 3b3d
000001a0: 736f 31bd 6859 b9bc 84de 0b3e 0b0b 56bd
000001b0: 216b 9cbd 06f5 abbd 4088 8ebb fe41 b03c
000001c0: fb31 843d 4db0 cabc bf8b 90bc 8348 8f3d
000001d0: c4bd 113c ced9 0f3e 3e25 4d3e 8790 4eba
000001e0: c860 443e 5ba2 be3d 603b 683d 0be9 483e
000001f0: 76c8 c73d 0bb7 3cbc c1ba 3d3e f17b 3d3e
00000200: 390a 7ebc 0821 6b3e 8164 783e 7dd4 1dbd
00000210: b136 b43d 6e01 0b3e 0026 b53c 0367 50bd
00000220: 753b b73b 2310 3f3d 6e94 a7bc ca54 883d
00000230: bc58 273d d80f d83d eb4f cf3d a250 c03d
00000240: 8cbb b1bb a9b4 0cbd 2f40 ec3c bf41 dabd
00000250: 2611 9fbc a916 90bd 8a2c f3bc 502d 03be
00000260: dca4 08bd 0250 9cbd 0a40 473c 9d0a 99bd
00000270: bd28 66bb 8ff1 7dbd 69ce 58bd a723 ef3d
00000280: f0af 173e f483 873d a59a d9bd 0d9c 133b
00000290: 943e 823c e456 b63b 333b 24bd cb2f 093d
000002a0: fd97 debd 2772 a2bc 861d e53c af0d 01bd
000002b0: a3e4 c8bd 4919 5ebd 8c89 41be 32c6 8ebd
000002c0: 874c a5bd 92a9 7ebd 9533 0dbe 663a 8ebd
000002d0: 2614 66bd 22ef 01be 1cf2 77bd 798f 11be
000002e0: 541d 08be d853 0fbe a8db 2abe ee74 1dbe
000002f0: 7385 14be a6a6 edbd b5c4 94bd e172 7cbd
00000300: 885e 653c 4ccc a4bc 340c 9abb ead8 593d
00000310: c614 2cbd 39d0 adbd 0694 18bd 753f e7bc
00000320: ff69 113d d598 313c 0256 c6bd 3e74 6f3c
00000330: 9149 89bd 978f 95bd 71de 94bd 47eb dcbd
00000340: f6f6 efbc 2cd3 3e3d 31c8 343d 5615 723d
00000350: 6deb 65bd cf4c 8a3d 28f1 0d3e ab43 d83d
00000360: d203 c73d 5c5f 053d 18d3 b03d 95df a7bd
00000370: 5d19 71bd 96a9 a1bd 041b acbd e450 1e3d
00000380: ba43 a7bd e00a 353c e2e8 e33b 9eeb 3cbd
00000390: 8e76 84bd 5db5 0cbd b336 373c 67ab a0bd
000003a0: 6f50 9a3d 3f2d 5cbd 0baf b4ba 935e cebd
000003b0: 87e5 2fbd 4957 2bbe efe8 c4bd 09ca cabd
000003c0: 8a7b 1dbe 46e3 1bbe 28b0 453c 9589 25bd
000003d0: 215d a83c 0abf 96bd 8eb5 50bc 69e2 14bc
000003e0: 5390 0d3c 6099 9ebd f4d0 3bbd 1fca cdbd
000003f0: 395f bd3d f9db 933d a6d8 703c a6b0 00be
-0.10493339 -0.044647086 0.06466782 -0.103100404 0.037278466 0.017655695 0.009492439 0.004555894
-0.010350395 0.021338493 0.13234809 -0.03512844 -0.015648054 -0.016343376 -0.0066744243 -0.0014460707
-0.011471519 -0.067605674 0.006111146 0.025443329 -0.038606476 0.04930189 0.06372948 -0.03954342
0.05621921 0.039573 0.014595603 -0.018341077 0.09089334 0.07607474 -0.035664033 0.038650393
0.008077298 0.06773452 0.07210917 -0.006382206 -0.05416024 -0.034947 -0.027597824 0.026897987
-0.005143279 -0.10854303 -0.12773442 -0.11084201 0.045581844 0.084726565 0.011751925 0.11812525
0.08712841 -0.01008305 0.19885114 0.034943268 0.010263135 0.1115917 -0.04763187 -0.049223717
0.04808975 -0.025813159 -0.05917675 0.0686695 -0.0339156 -0.03450402 0.051167753 0.12170506
0.017758887 0.09196262 0.07772076 -0.014513266 -0.033550117 0.036524367 -0.070396945 -0.05969646
0.016424252 0.08806604 0.081572264 -0.07542628 -0.043648973 0.07355596 0.08307208 0.12812375
0.050600253 0.070227854 0.08696703 0.14741585 0.09152088 0.07304507 0.03960642 -0.06437112
0.105112255 0.09057987 0.118599996 0.05186246 0.02253719 0.076700814 -0.0319807 0.029780995
-0.012527848 -0.034373954 0.004117653 -0.0887814 -0.07772638 0.044543844 -0.026700728 0.04577676
-0.043319177 -0.02262564 0.13659102 -0.052256625 -0.07637621 -0.08396344 -0.0043497384 0.021515843
0.064548455 -0.02474227 -0.017644761 0.069962524 0.008895341 0.1404793 0.20033738 -0.00078798126
0.19177544 0.093083106 0.05669725 0.19620149 0.09755032 -0.01151825 0.18528272 0.18504311
-0.015505367 0.22961819 0.24257089 -0.038532723 0.08799494 0.13574764 0.022112846 -0.05087949
0.0055918046 0.04664625 -0.020456519 0.06656797 0.040856108 0.10549897 0.10122665 0.093903795
-0.0054239687 -0.03435198 0.028839199 -0.10657071 -0.019417357 -0.07035572 -0.029684324 -0.12810254
-0.033360347 -0.07632448 0.012161264 -0.074727274 -0.0035119497 -0.061997946 -0.052931223 0.11676722
0.14813209 0.06616965 -0.10625199 0.0022523433 0.01589898 0.0055645574 -0.04009552 0.033492845
-0.10868833 -0.019829823 0.02796818 -0.03150719 -0.09809234 -0.054223333 -0.18900126 -0.069713965
-0.08071237 -0.062173434 -0.13789208 -0.06944732 -0.05617156 -0.12688878 -0.060533628 -0.14214887
-0.13292438 -0.13996828 -0.16685355 -0.15376636 -0.14504032 -0.11604051 -0.072640814 -0.061632995
0.013999589 -0.020116948 -0.0047011618 0.05318538 -0.042012 -0.08486981 -0.03725054 -0.0282285
0.035501476 0.010839661 -0.096843734 0.014615117 -0.06703485 -0.07302778 -0.0726899 -0.10787063
-0.029292565 0.046588108 0.04413623 0.05910238 -0.056132723 0.06752931 0.13861525 0.10559782
0.097175255 0.032561645 0.08634013 -0.08196942 -0.05886208 -0.07893674 -0.0840359 0.038651362
-0.08167215 0.011049956 0.006955252 -0.04612314 -0.06467925 -0.03435265 0.011182475 -0.078451924
0.07534873 -0.053754088 -0.0013785077 -0.10076632 -0.042943504 -0.16732515 -0.09614741 -0.099018164
-0.15379158 -0.15223417 0.012065925 -0.04041441 0.02055222 -0.073606566 -0.0127385985 -0.0090871835
0.008640367 -0.07744098 -0.04585357 -0.10048317 0.09246678 0.07219691 0.0147000905 -0.12567386

encoder.blocks.1.conv.0.bias f4 [32]
00000000: db1f 4ebc 50a9 983c b3ad 9ebc 72aa 013d
00000010: 25c2 67bd 128b a7bc 37d7 48bd 82fe cdbd
00000020: 6636 94bd 7199 193c aa29 a43d d7e8 53bc
00000030: 81cf 55bd b570 b9bd eea1 84bd 027c 2e3d
00000040: f83e 35bb ffa3 9f3c f0ab aeb8 1e80 023d
00000050: 9614 4b3d f694 813d bf22 6e3d 32c8 a3bc
00000060: 5c43 de3d e61c 4f3d bc3b cfbc c16c 863d
00000070: daf0 b5ba dcf6 8abd 3187 10bd 303a a03c
-0.012580837 0.018635422 -0.019369936 0.03165669 -0.056581635 -0.020452056 -0.04903337 -0.10058309
-0.07236938 0.009374962 0.08015759 -0.012933931 -0.052199844 -0.090547 -0.06476198 0.04259873
-0.002765594 0.01948738 -8.3289924e-05 0.031860463 0.04958018 0.0632724 0.058138605 -0.019992922
0.108526915 0.05056467 -0.025297038 0.06563712 -0.0013880983 -0.06785366 -0.03528518 0.019558996

encoder.blocks.1.conv.1.weight f4 [32]
00000000: aa5a 863f 10d9 573f e312 713f c823 823f
00000010: 2da5 893f 26cf 6f3f c56b 6d3f 8f1f 743f
00000020: 42f7 883f a913 653f 4534 583f a849 803f
00000030: 2815 7f3f 30eb 6a3f 2189 5a3f bb2f 863f
00000040: 4dc6 4d3f 7f4f 853f c3c1 7d3f 8b57 6f3f
00000050: 9bb4 873f 52f7 753f ab4f 893f 09d0 543f
00000060: da2d 803f 5adb 973f 4730 683f 9291 8f3f
00000070: 8bce 913f dfe8 883f c907 873f 25cd 4b3f
1.0496418 0.84315586 0.94169444 1.016717 1.0753533 0.9367546 0.9274257 0.95360655
1.0700457 0.89483124 0.84454757 1.0022478 0.99641657 0.9176512 0.8536549 1.0483316
0.8038071 1.0414885 0.9912378 0.93492955 1.0601991 0.96080506 1.0727438 0.83129936
1.0013993 1.1863816 0.90698665 1.12163 1.1391157 1.0696067 1.0549251 0.796099

encoder.blocks.1.conv.1.bias f4 [32]
00000000: 909f bebc 2f80 dbbd 0913 64bd 47e7 2c3d
00000010: 2105 c9bc 767d 4cbc 2c74 1abc 18c0 d53d
00000020: b34f 13bd fc6d 69bb aa9e 08be 7501 7f3c
00000030: b17d d2bd 2062 e1bd 240a ac3c 0b8d 81bc
00000040: bdb3 02be 76cc b8bd 396a 0c3d f59e 3bbe
00000050: 4b43 403d d83c a23d 06f5 1abc ddb6 55be
00000060: d488 0bbd 4729 aabc e3b4 18bd 46c9 9f3d
00000070: 9db1 60bd 880c 9ebd 5809 9fbc 2f70 e2bd
-0.023269445 -0.107178085 -0.055682216 0.04221275 -0.024538578 -0.012481084 -0.009427112 0.104370296
-0.03596468 -0.0035618534 -0.13341776 0.015564312 -0.1027788 -0.11005044 0.02100093 -0.015814325
-0.12763877 -0.09023373 0.03428099 -0.18322356 0.046939176 0.07921761 -0.009457832 -0.20870538
-0.034066036 -0.020771636 -0.037281882 0.07802062 -0.054856885 -0.07717234 -0.019413635 -0.110565536

encoder.blocks.1.conv.1.running_mean f4 [32]
00000000: a9c5 f43f d55f 4ac0 9f97 94bf 8a27 d33f
00000010: e118 a73f ef6a a2bf 6007 533f b8ad 16c0
00000020: 8a45 4940 2acb e9bf 74d7 2140 ca4d 6940
00000030: 5e45 86be f48f 8c3f 4dd6 1cc0 c1f6 5840
00000040: d3b5 edbf 32f1 4b40 9c42 c4bf f14e a63e
00000050: f23f 5640 682c 2bc0 b5c3 d5bf a75b 3a3f
00000060: 5905 2e3f 2656 6cbf 8ab6 2ac0 e8d9 98bf
00000070: 3d49 1340 abe5 763f a806 6a3f 30cf 0ec0
1.9122821 -3.1620991 -1.1608771 1.6496441 1.3054467 -1.2688884 0.8243313 -2.354353
3.1448693 -1.8265126 2.5287752 3.6453729 -0.26224798 1.0981431 -2.45058 3.3900607
-1.8571113 3.1865964 -1.5332828 0.32482103 3.347653 -2.6745853 -1.670035 0.727961
0.6797691 -0.9231895 -2.6673913 -1.19415 2.301345 0.96444196 0.91416407 -2.2313957

encoder.blocks.1.conv.1.running_var f4 [32]
00000000: 97a7 6240 26e5 2d41 78c3 1140 45b8 a640
00000010: df5f 9c40 1d97 9d3f f2f6 2140 d511 3241
00000020: 5f2c 3041 c2c8 d040 6713 1041 7ac6 6c41
00000030: 956f e23f 1d66 af40 b659 3241 5e7b 7841
00000040: 35b0 d040 bf15 2741 786a dd40 8a48 2e40
00000050: d6b3 7d41 e5cf 3f41 be4a 0141 5583 0240
00000060: 33a2 6d40 606b 4240 d034 1d41 df40 e83f
00000070: c349 de40 a58c 8440 052f 3a40 8eb9 0441
3.5414789 10.868444 2.2775555 5.209994 4.886703 1.2311741 2.5306973 11.129354
11.010833 6.5245066 9.004737 14.798456 1.7690302 5.481215 11.146902 15.530119
6.5215096 10.442809 6.9192467 2.7231774 15.856405 11.9882555 8.080748 2.0392659
3.7130249 3.0378036 9.825394 1.8144797 6.946504 4.1421685 2.9091198 8.295301

encoder.blocks.1.conv.3.weight f4 [32, 32, 3, 3]
00000000: 6d2c 813c 7b70 6f3d 3c96 85bd 607c 2bbc
00000010: de92 893d a72d 80bd 646f 8e3d e736 c33d
00000020: 423f 273d 9b38 0d3d 7a91 323d e71c 993c
00000030: f107 913d b96d 493c dc59 353d ff4b 023d
00000040: aacd c1bc 016e f73c 722a 66bc dbf3 08be
00000050: 7a6f b7bd 08ce aa3c a5a1 26bd 759f dbbc
00000060: abcf e53c 0aad 82bc 125c 033b cfac 78bd
00000070: b6be 503d f2b9 1bbc d582 dc3c 0f35 c63d
00000080: 9673 3cbd 9737 a1bd 5524 1e3c 403a 67bc
00000090: 5c19 12be d9a0 91bd eb03 1ebe d588 eabd
000000a0: ec86 22be 0f1f 47be 8739 1bbe eaf6 c4bd
000000b0: 2c2e 13be 70aa cebd fa39 a33c 54fb 0dbd
000000c0: 92a2 04bd 46c9 073d a6a3 6ebd bbd8 b8bd
000000d0: 311d 7fbd 7bcf edbd ab53 f23c 9ad7 103d
000000e0: fe4c 883d a209 473d 8200 643d d140 9abb
000000f0: 86e7 993d 624e 833d afbc af3c ed86 973d
00000100: cac6 76bc 8e0e 7f3d 6b40 013d ff81 74bd
00000110: 60f8 9dbd 65b8 a3ba cac0 143c 908c 58bd
00000120: 360c 173c be7a dd3c c170 58bd b0e1 6e3c
00000130: 2062 853d 35ee 0c3d a0eb 7eb9 ec20 553d
00000140: 5a9c ea3c a714 ca3d 9fbf 8c3b 3fd1 ba3d
00000150: 4acf eb3c 5a1f 023d 74e6 583d 9610 76bd
00000160: 367b 82bd 18ab 9c3c 5c10 d43d ad79 243d
00000170: b4ea ce3d d1e0 e53d d11b c43c a450 be3d
00000180: 3590 073e 5446 aa3d 8991 8d3d 0e13 7c3d
00000190: fa49 063d b91f 833d 0df6 b73d 156b 763d
000001a0: f65e b03d cc24 093e 68fe 7a3d aa1f 84bc
000001b0: ba15 96bd 0272 b8bd eba3 30bd e6ff 84bd
000001c0: 27e9 8abd 0f48 f9bd cd32 a7bd 1278 b2bd
000001d0: ba2a f9bd 5f41 bd3c 8d10 a73d 8492 983d
000001e0: 7016 993d 0c64 d93c 7105 c93c efba 2d3d
000001f0: 26d4 13bd aa4a 87ba a723 6dbc 00db 36bd
00000200: 29b2 67bc 87df eebc d657 0a3c 6399 2e3d
00000210: 14a0 80bd 984a e6bc 44e9 613c 30df 413d
00000220: a3b4 ca3d 26c8 3a3d 4038 d83d 9ca7 e63d
00000230: 489c ee3d a50e 973d d52a 963d 6418 a73d
00000240: 359e 753d c654 a53d ef87 683d 25e0 a23d
00000250: a0f2 b63c 142f 37bb 24f0 d53d c662 293c
00000260: 0054 bb3d 59d9 de3c e50b 773d 3cdf 943d
00000270: 9715 c83c b590 01bb cfb8 013c 61b3 933c
00000280: a8bb 633a f1df 76bc 5746 2e3c 43c6 29bd
00000290: c0b9 923c e097 4abb e3cd b4bc 4dd3 4c3d
000002a0: a6a1 07be 8ded d2bd 0a37 013c dab6 96bd
000002b0: bda6 06bd d0ae 98bd ed85 75bd f43d bd3c
000002c0: 1314 73bd be3e cfbd a456 84bd 0961 11be
000002d0: dea6 f33d 4cf5 d93c 0255 9b3d c649 e83d
000002e0: f8e3 ae3d d219 e53d 0f0c a93d e330 e43d
000002f0: 52fc 133e 4825 843d edb0 3ebb 83fe 483d
00000300: d8c5 7bbd 45b6 863c 10f0 fcbc 68b8 89bd
00000310: 2ce7 babc a7c8 1d3c ea17 b0bc f52a 57bd
00000320: 74d1 1e3d ebd6 243d 7f08 6dbd 1276 15bd
00000330: 0fd7 63bd c955 9ebd fc00 dfbb 329e 563c
00000340: 585b 1dbd 3701 73bd b694 323c f254 703c
00000350: 0059 adbd 18f0 2cbd 0c64 c3bc 2b0f 49bd
00000360: 2492 01bd f590 1fbd 347b 28be de23 34bd
00000370: b9b2 1ebd fd3a 23be 636f 9fbd 5d5b 9fbc
00000380: 50e4 0abe 8747 6bbd c66e 8dbc 8c6e 89bd
00000390: 9ba8 aebc 4755 38bd 56d8 c7bd c9ff 02bd
000003a0: 4a1b 79bd cbbe d6bd 0594 fb3c 781d 443d
000003b0: 5bfa 7b3d ad94 f5bc 3d06 b23c 3c6b 753d
000003c0: 52a2 41bd d6fe 103d d5db bb3c 826e 22be
000003d0: 0ca0 a9bd d7a1 c3bd ef96 afbd ac9c 64bd
000003e0: d66b b9bd 4af1 a6bd 8436 0cbd eb97 49bd
000003f0: 3e9f f5bd bdf4 56bd caf2 28bd 51a6 343c
0.015768254 0.05845688 -0.065227956 -0.010466665 0.06717466 -0.062587075 0.0695484 0.09531956
0.04083181 0.03447781 0.04359577 0.01869054 0.07081593 0.012294226 0.04427515 0.031810757
-0.023657639 0.030203821 -0.014048206 -0.13374273 -0.08956809 0.020850196 -0.0406815 -0.026809433
0.028053125 -0.015951652 0.0020043892 -0.060711678 0.050963126 -0.009504782 0.026917854 0.09678089
-0.04600867 -0.07871931 0.009652217 -0.014113009 -0.14267486 -0.071107574 -0.15431182 -0.1145188
-0.15871781 -0.19445442 -0.15158664 -0.096174076 -0.14373082 -0.10091102 0.019925106 -0.034663513
-0.0323816 0.033150934 -0.058261536 -0.09025713 -0.0622837 -0.116118394 0.029580912 0.035361864
0.0665531 0.04859317 0.055664547 -0.0047074337 0.07514863 0.06411435 0.021452276 0.07398782
-0.015062043 0.06226974 0.031555574 -0.059694286 -0.077133894 -0.0012490867 0.009079168 -0.052868426
0.00921922 0.027036067 -0.052841906 0.014580175 0.065128565 0.03440686 -0.00024311105 0.05203335
0.028639007 0.0986722 0.004295304 0.09121942 0.028785367 0.03176818 0.052954152 -0.06007441
-0.06371157 0.019124553 0.10354683 0.0401551 0.1010336 0.11224521 0.023939045 0.09292725
0.13238604 0.08314195 0.06912524 0.06154161 0.032785393 0.06402535 0.08982477 0.060160715
0.08611862 0.13392943 0.061277777 -0.01612838 -0.07328363 -0.0900612 -0.043125074 -0.06494121
-0.067827515 -0.12171947 -0.08163986 -0.08714308 -0.121663526 0.02310246 0.08157454 0.07449821
0.07474983 0.026536964 0.024538727 0.042414602 -0.036090992 -0.0010321934 -0.014473832 -0.04464245
-0.014141598 -0.02915932 0.008443793 0.04262675 -0.062805325 -0.028111741 0.013788525 0.04733199
0.09897735 0.045601033 0.10557604 0.11262438 0.11650902 0.0737584 0.07332388 0.08158949
0.05996533 0.0807281 0.05677026 0.079529084 0.02233249 -0.0027951645 0.10446194 0.010338491
0.09146881 0.027203249 0.060314078 0.07269141 0.024424357 -0.001977009 0.007917597 0.01802987
0.0008687326 -0.01506804 0.0106368875 -0.041448843 0.017910838 -0.0030913278 -0.02207083 0.0500062
-0.13245258 -0.102992155 0.0078866575 -0.07359095 -0.032873858 -0.07455218 -0.059942175 0.02310083
-0.059345316 -0.10119389 -0.06461838 -0.14197172 0.11897062 0.026606224 0.07584573 0.11342196
0.08539575 0.111865655 0.08254253 0.11142137 0.14451721 0.06452423 -0.0029097155 0.049070846
-0.061467975 0.016444335 -0.03087619 -0.06724626 -0.02281531 0.009630359 -0.021495778 -0.0525312
0.03877397 0.040244024 -0.05786943 -0.036489554 -0.055625018 -0.07731206 -0.0068055373 0.01309924
-0.03841719 -0.05932733 0.010899713 0.01466869 -0.08464241 -0.04222116 -0.023851417 -0.04908673
-0.03163351 -0.0389566 -0.16453248 -0.043979518 -0.038744662 -0.15940471 -0.07784917 -0.019452745
-0.13563657 -0.05744126 -0.017264735 -0.06710538 -0.021320632 -0.0450032 -0.0975806 -0.031982217
-0.06081704 -0.104856096 0.03071023 0.047879666 0.061518054 -0.02997812 0.02173149 0.05991672
-0.04727394 0.03539928 0.022931973 -0.15862468 -0.0828248 -0.09552353 -0.0857371 -0.055813476
-0.09053771 -0.08151491 -0.034231678 -0.049217146 -0.11993264 -0.052479494 -0.041247167 0.011025981

encoder.blocks.1.conv.3.bias f4 [32]
00000000: b395 88bc 91b7 063d e7c9 fe3c d77e b8bd
00000010: ea45 a8bb 55b3 0d3d 1557 0d3d bb49 913d
00000020: 9d18 e63c 4fa9 603d 74a8 7f3d 0896 293d
00000030: bc41 95bd 6820 e6bd 4c89 0c3d 3259 98bc
00000040: fdd9 9f3d 65b5 d73c f2d0 933c ce63 42bd
00000050: cd9d 95bd e929 163d 3099 a4bd 5f1d ddbb
00000060: 6dc1 5c3d 3483 8d3d 61bc e63b 11b2 263d
00000070: 78e7 00bd 6870 03bd 3e40 2a3c 8dba ef3c
-0.016672945 0.032889906 0.031102134 -0.09008568 -0.0051352875 0.034594852 0.034506876 0.07094141
0.028087908 0.054848965 0.06241651 0.041402847 -0.072879285 -0.1123665 0.034310624 -0.01859722
0.0780525 0.026331613 0.018043969 -0.047458462 -0.07305489 0.036661062 -0.08037031 -0.006747886
0.053895403 0.06909791 0.0070414995 0.04069716 -0.031470746 -0.03208962 0.010391293 0.029263759

encoder.blocks.1.conv.4.weight f4 [32]
00000000: 6187 443f e788 6e3f bf7c 863f a220 783f
00000010: 2b3f 823f 9d0b 883f 4651 6d3f 70b0 893f
00000020: d541 7a3f f99f 693f adb8 6c3f 9f66 733f
00000030: 4220 8b3f 4a49 793f dbcf 653f 9c0d 7a3f
00000040: 9dcc 763f c88c 713f 116a 813f 662d 843f
00000050: 0b04 8f3f f91b 8d3f 29f8 903f fb72 863f
00000060: 6471 913f 6dd7 893f 0a2a 603f 6821 673f
00000070: 9443 6b3f 677a 8e3f 506a 693f 6772 6c3f
0.7676907 0.93177646 1.050682 0.96924794 1.0175527 1.0628544 0.9270214 1.075697
0.977567 0.91259724 0.9246929 0.9507846 1.0869219 0.97377455 0.8977029 0.97677016
0.96405965 0.9435544 1.0110494 1.0326355 1.1173109 1.1024162 1.1325732 1.0503839
1.1362729 1.0768868 0.87564147 0.9028535 0.9189999 1.1131104 0.91177845 0.92362064

encoder.blocks.1.conv.4.bias f4 [32]
00000000: a48c 48be 4d4b c03d 29ba e2bd ac7e 1b3d
00000010: 0c46 a83c cb80 303d 0c0f 11be d5a0 8bbd
00000020: 8731 c63d 00ea 2ebe fd60 adbc 82ef 6a3d
00000030: 4153 f03b 9325 12bd c581 57bd a4cf 03be
00000040: a4ad 833b 3935 bb3d 3e0f a23d 87bf 5d3d
00000050: 52e9 6abd 8d91 12be cbe8 edbd 8909 f03d
00000060: 0f66 10be 8e01 83bd 0436 87bc e49f c8bd
00000070: 2bf9 a23d 793c a73d f00e 3ebd ff59 bd3d
-0.195849 0.093893625 -0.110706635 0.0379626 0.020541213 0.043091577 -0.14165896 -0.06817786
0.09677415 -0.17081451 -0.021164412 0.05735732 0.0073341434 -0.035680365 -0.052613992 -0.12872177
0.0040185023 0.09141011 0.079130635 0.054137733 -0.057351418 -0.14313336 -0.11616667 0.11720569
-0.14101432 -0.06396781 -0.016505249 -0.09796122 0.07957681 0.08165831 -0.046400964 0.09245681

encoder.blocks.1.conv.4.running_mean f4 [32]
00000000: 8e94 23bf 2b41 78c0 6b5c 0f40 0679 33c0
00000010: 25db 993e e428 bf3f e9eb 78bf b385 0040
00000020: 9dda 08c0 a40b d93e 91a6 86c0 9998 56c0
00000030: 8e3c 8b3f 77f6 2fc0 ea00 bc3f b498 5d3f
00000040: 4326 6cc0 390c 65c0 0476 6ec0 0f5d 50c0
00000050: fa3e cf3f 90a5 2340 347f e53f 0181 64c0
00000060: 5da4 0f40 d0cc 2e3f 75bd 7bc0 d648 85c0
00000070: 042a 2fc0 5b00 1dc0 7ecc 253f ecca 52c0
-0.6389855 -3.8789775 2.2400157 -2.8042617 0.30050007 1.4934354 -0.9723497 2.0081604
-2.138343 0.42391694 -4.207833 -3.3530638 1.0877855 -2.749418 1.4687779 0.8656113
-3.6898353 -3.578871 -3.725953 -3.2556798 1.6191094 2.5569801 1.7929444 -3.5703738
2.244407 0.6828127 -3.9334385 -4.165141 -2.7369394 -2.4531467 0.64765155 -3.2936354

encoder.blocks.1.conv.4.running_var f4 [32]
00000000: 1edd 8340 c0f7 9141 a82a 1d41 ae52 f940
00000010: 6f05 4b41 69ba 7b41 0628 c640 f3da fc40
00000020: e2b0 7441 23f3 4540 9148 3142 f52f 8e41
00000030: 2975 cd40 a5df ed40 9d9b 5c41 ab7e c940
00000040: 3e71 e241 56ac 8d41 89f3 a941 4a9f d441
00000050: 1c92 be40 266f 1441 9f28 2241 39d2 8e41
00000060: 8315 c340 3417 dc40 b596 9741 53c5 bf41
00000070: 2d34 0242 c7e8 0841 2323 8641 810a 5241
4.120742 18.245972 9.822914 7.7913427 12.688827 15.73301 6.1923857 7.901727
15.293184 3.092965 44.320866 17.773417 6.420552 7.4335504 13.787992 6.2967124
28.305294 17.709148 21.243914 26.577778 5.9553356 9.277136 10.134917 17.852648
6.096376 6.8778324 18.948587 23.97135 32.550953 8.55683 16.767157 13.127564

encoder.blocks.1.skip.weight f4 [32, 16, 1, 1]
00000000: 58ba 2d3e d072 e9bc 683c c03d 1c8e a23d
00000010: 40e7 543e 502d 27bd 5093 693d 0c1b a5bd
00000020: 4c14 c43d 9c20 62be 2c8c 883d e8f0 a33d
00000030: 161f 2fbe 7842 72bd 123b 673e 9ebe 783e
00000040: 1416 833d a076 0f3e 70d0 a43d 7a9c 643e
00000050: 583b 5dbd d421 283e d03d d9bd 60f0 233c
00000060: 1c00 223e d4be 35be a08d 6b3d 844f 79be
00000070: dae9 65be 80fb bf3d 38b1 503e a0a3 943d
00000080: 8847 d5bd 8206 45be 4c85 a5bd 7059 7e3e
00000090: 90e5 3dbe 306d dfbc 5a48 6bbe 88c6 623d
000000a0: 8ae8 6dbe 4c7e 573e 70ca 7a3e 403b 51be
000000b0: 100d cdbd a037 513e 80a9 c8bd 08a4 0dbd
000000c0: 8063 b03c b0ae b63d 687c f43d fcf2 b33d
000000d0: 5464 f73d d4f7 d63d 803c 69be bad6 5fbe
000000e0: c807 0dbd 1e08 393e 7816 2c3d d024 11bd
000000f0: 8a7d 7ebe 0610 223e 08d2 7f3e 72ee 733e
00000100: 7a24 5dbe 9417 fcbd f0da 06be 0e4d 003e
00000110: 2c94 a13d 824f 563e 9841 98bd 82b8 25be
00000120: 0e3a 083e 7224 2abe b22a 213e 3e5a 4a3e
00000130: 1a51 0bbe 7042 15be a068 853d d0cd 0bbd
00000140: 60e3 70bd 709d 74be 1c13 45be 4878 84bd
00000150: 0061 233b d0ad 6c3e f4aa 4b3e 40be 5cbd
00000160: 8c96 fe3d 7808 1abd 284d 30be dc79 be3d
00000170: f050 0abe b4c9 ae3d b8d4 08bd fe5e 36be
00000180: 2439 9dbd e80f 6abd cc00 62be 70cc 49be
00000190: 26b4 703e f00f 65be 709b e13d 905a 54be
000001a0: c046 333c 38c4 633e 2004 a83c 7c39 fcbd
000001b0: 5095 01be f00a a63d e073 12bc a0a6 693e
000001c0: e68d 483e 6045 3b3d 2a21 3d3e 2e72 733e
000001d0: 147f 87bd 8845 25bd a0a2 e7bc 2ca3 bdbd
000001e0: 8cdd 9dbd 4af2 2ebe 5072 e4bc ea3d 30be
000001f0: 0001 47bc 5614 70be 92fc 23be 96a1 58be
00000200: 2cb9 73be 2812 3abd ba72 1d3e c056 c73d
00000210: 8029 b63c 8492 d3bd e2ad 29be ac4b 63be
00000220: a0aa 653c c003 2f3d 52f9 3cbe 9c39 d73d
00000230: 92a6 57be e4a9 29be 105d 99bd 068f 5f3e
00000240: ea1b 523e 2c4a 8dbd 7812 d1bd 6ed7 12be
00000250: ea44 4ebe 8006 3f3d 3a93 1d3e 4aad 73be
00000260: 20f3 003d b074 253d 9c7a e63d 24f7 3d3e
00000270: dc16 45be e6c6 423e e6bf 2cbe 9a82 2f3e
00000280: c092 b2bc 3491 dabd a445 473e 0881 7ebe
00000290: 002d 0a3d dcdd eb3d 62dc 443e 6a62 293e
000002a0: 50a9 ffbd 4e0f 69be a0ee 46bc e064 a7bc
000002b0: 40df ad3c eef9 57be 282c 033e 68ce db3d
000002c0: 8851 453d 0050 62b9 68b6 dd3d c24a 2d3e
000002d0: 2035 a4bd f8d0 933d 2416 ce3d 6cda 5b3e
000002e0: e060 16be b011 3cbe 007c 2e3d 8034 543c
000002f0: 50cf b23d 3894 b73d 0218 163e 28a8 c33d
00000300: 00e2 fd3c 48f3 49be dc97 52be 107f b2bc
00000310: 70f0 64bd 00ec 56bb 34e7 4a3e f418 65be
00000320: 5a19 5f3e 98d2 7dbe a097 f93c 7a62 62be
00000330: 8cd7 38be 8c29 2a3e 8c10 b2bd 74d1 43be
00000340: e8c1 cb3d e0b7 453e da4e 123e fa82 393e
00000350: ac14 e93d fa0e 60be c8e9 82bd c28c 643e
00000360: 9c41 ad3d 20cc 93bc 40d1 0cbd 0216 7bbe
00000370: 64f5 60be 501f ee3d 161a 44be 188a 52bd
00000380: e8d9 5e3d e02b 083c 1c3f 9ebd 6043 c9bd
00000390: 8828 ac3d 4c41 adbd a8e5 d3bd 28e8 723d
000003a0: b421 c3bd b41c bdbd b8be 44bd 380e 1c3e
000003b0: 70b6 01bd 64f8 7c3e a2f9 3c3e 16b2 0a3e
000003c0: 549d fa3d a832 cc3d f49c 50be 60e8 503d
000003d0: 9a11 663e 00e7 8ebb d866 6cbd 2491 4e3e
000003e0: 640b 98bd 8050 75bd c61d 573e 00dc f53b
000003f0: 0ed0 67be 8801 3abd d60e 633e 5c78 ccbd
0.16965616 -0.02849713 0.093865216 0.079372615 0.2079134 -0.040814698 0.057025254 -0.080617994
0.09574184 -0.22082752 0.06667361 0.080049336 -0.17101702 -0.05914542 0.22581127 0.24291465
0.064006954 0.14010096 0.08047569 0.22325316 -0.054011673 0.16419154 -0.10607493 0.01000604
0.15820354 -0.17748576 0.05750811 -0.24346739 -0.22452489 0.09374142 0.20380104 0.072577715
-0.10414034 -0.19240764 -0.08082065 0.24838805 -0.18544602 -0.027273744 -0.22976819 0.055365115
-0.23233238 0.21044272 0.24491286 -0.20432758 -0.10012257 0.20431376 -0.097979546 -0.03458026
0.02153182 0.08920038 0.11937791 0.0878658 0.12079683 0.10496488 -0.22776985 -0.21859255
-0.03443125 0.18069503 0.042013615 -0.035435498 -0.24852577 0.15826425 0.24982464 0.23821428
-0.21595946 -0.12309185 -0.13169456 0.12529394 0.0788959 0.20928767 -0.07434386 -0.16183665
0.13303396 -0.16615465 0.15738943 0.19760987 -0.13605157 -0.14576125 0.06514096 -0.034131825
-0.05881059 -0.23888183 -0.19245571 -0.06468254 0.0024929643 0.23113179 0.19889432 -0.053892374
0.12431058 -0.037605733 -0.17216933 0.093005866 -0.13507438 0.085345656 -0.03340599 -0.17809674
-0.07676914 -0.057144076 -0.22070616 -0.19706893 0.23506221 -0.22369361 0.110159755 -0.20737672
0.010942161 0.2224282 0.02050978 -0.12315652 -0.12654614 0.08107555 -0.00893876 0.22817469
0.1958538 0.045720458 0.18469682 0.23774025 -0.06616035 -0.040349513 -0.028275788 -0.09259638
-0.07708272 -0.17084613 -0.02788654 -0.17211118 -0.0121462345 -0.23445258 -0.16014317 -0.2115539
-0.23801106 -0.04542747 0.15375796 0.09733343 0.022236586 -0.1033068 -0.16570237 -0.22196835
0.014017731 0.042728186 -0.18454483 0.10509035 -0.21059635 -0.16568714 -0.074884534 0.21831903
0.20518461 -0.06898913 -0.10208601 -0.14339992 -0.20143476 0.04663706 0.15388194 -0.23796573
0.031481862 0.040394485 0.11253855 0.18551308 -0.19247001 0.19021186 -0.16870078 0.17139664
-0.021798491 -0.106722265 0.1946016 -0.24853909 0.03373432 0.11516926 0.19224694 0.16541448
-0.12483466 -0.22759745 -0.012141854 -0.020433843 0.021224618 -0.21091434 0.12809813 0.10732728
0.048173457 -0.00021582842 0.10825807 0.16923049 -0.08017945 0.07217592 0.10062817 0.2147004
-0.14685392 -0.18366122 0.042598724 0.01295197 0.08730948 0.08963817 0.14657596 0.09553558
0.030991554 -0.1972171 -0.20565742 -0.021789104 -0.05589336 -0.0032794476 0.1981476 -0.223728
0.21787015 -0.24787366 0.030467808 -0.22107878 -0.18050975 0.16617411 -0.08694562 -0.19122869
0.09949094 0.19308424 0.14287892 0.1811637 0.11380896 -0.21880713 -0.063922465 0.2231932
0.084597796 -0.01804167 -0.034379244 -0.24520114 -0.21968609 0.11627066 -0.19150576 -0.051401228
0.05440703 0.008311242 -0.07726881 -0.09827304 0.08406168 -0.0845972 -0.10346538 0.059303433
-0.09527913 -0.0923399 -0.048033446 0.15239799 -0.031668127 0.24704129 0.18454602 0.13544497
0.12237039 0.099705994 -0.20372373 0.05100286 0.22467652 -0.0043610334 -0.057715267 0.20172554
-0.074240476 -0.059891224 0.21007451 0.0075030327 -0.2263796 -0.045411617 0.22173628 -0.09983894

encoder.blocks.1.skip.bias f4 [32]
00000000: 94f8 4cbe 76f0 363e d86e 85bd 22e3 1bbe
00000010: d4ae 0dbe faf4 0bbe b89a c7bd d4ce bdbd
00000020: 98d4 513d 9c04 483e 8c1c 28be 2a33 41be
00000030: d894 123d 60da 32bd 2a6e 4fbe 3239 273e
00000040: 90e3 6f3e 761e 7ebe b4e5 ee3d ec5d e73d
00000050: 1c91 91bd 6203 753e 0894 31be 9258 38be
00000060: 0086 13bb 50a3 e4bd 64a8 d6bd 8aad 6fbe
00000070: e030 3cbd 8e40 6e3e ce48 25be d027 163d
-0.200167 0.17865166 -0.065152824 -0.15223363 -0.13836223 -0.1366767 -0.09746307 -0.09267965
0.051228136 0.19533008 -0.1641714 -0.18867174 0.03578648 -0.04366529 -0.20256868 0.16330412
0.23426652 -0.24816307 0.11664906 0.11297211 -0.071077555 0.23927072 -0.17341626 -0.18002537
-0.002251029 -0.11163962 -0.10481337 -0.23406044 -0.04594505 0.23266813 -0.16141054 0.036659062

encoder.blocks.2.conv.0.weight f4 [64, 32, 3, 3]
00000000: 8f00 ba3b e482 e73c d4f4 90bc 36cc 493d
00000010: 3d1a 573d 478c 6c3d f240 08bd d52c 00bb
00000020: 6533 29bd 1c26 42bd 528c cdbd 44df 09bc
00000030: f6ce 703a c259 75bd fcc9 27bd 475b 45bc
00000040: 5370 08be 8dee 80bd d511 c4bb 6668 24bd
00000050: 6bb3 f93c a2f2 023c f982 673d 4bcf 143e
00000060: 4143 8f3c 4e8c 3f3d a719 643d fc95 83bd
00000070: a13e a8bd 90c7 afbd 85f6 dabd 3cb5 d7bd
00000080: 7cbc d6bd f623 14bd 35a4 97bd c39c 54bd
00000090: 1b84 913d 6552 5fbd a3b7 083d ef25 093b
000000a0: 8542 f2bd 6700 dd3b 6dfd 5fbd 4b0a 07be
000000b0: 75ca 803b 176b 933d 14fe 923d 610f 4b3d
000000c0: d0d0 db3d 6b99 c83d afcf 0e3e 5464 283d
000000d0: 5a77 253d 570a c33d a30d c3bd 5f6f 21bc
000000e0: 29dc ed3c b63b 33bd d5cd 7fbc 89f7 c23d
000000f0: 1d24 a0bd c680 913d d4ee b33d 0773 b4bd
00000100: 0494 ab3c 8a3b 9f3c 4122 39bd 3dbe 1c3d
00000110: 9eca f33d 5877 97bd 2370 4a3d f138 f63d
00000120: d998 523d 7a80 8d3d c34f f23c 79ea 573d
00000130: f73a e63c 9a42 353c a7f6 253d 2840 9f3d
00000140: 0677 4e3d b0cd febc b972 473d dfe1 153d
00000150: b275 22bc fda1 26bd aabf e83c c715 01bd
00000160: 25d1 76bd 8dc1 ac3d 3008 f9bc 7075 09bd
00000170: 20e5 f6bc e74c fabc 3c19 cabd 049c e2bd
00000180: 0a00 523c 6ebf d3bd 1071 5ebd 8d81 a13d
00000190: 918f 81bd 2d65 00bd 96da 323d 5bfe 26bd
000001a0: 55bc c0bc ddc6 1dbd b0bd 33bd 5851 4f3d
000001b0: b638 5dbd c7fa 303d a030 b63d a1f8 b3bc
000001c0: e3b6 583d 1bd4 433e dfd2 6e3c 6671 cd3d
000001d0: 4033 583e a16a cdbb 74f7 213d ea68 babd
000001e0: 4eff 5abd 5eca 803b 3a38 d4bd 8bda ff3c
000001f0: 2d02 853c 0b86 f83b a822 38bd a7fc b5bb
00000200: cf68 393d f311 a8bc e424 0ebb 19ad 18bd
00000210: 5632 a1bd 143f a73c f227 38bd e52c c1bd
00000220: 12d6 9cbd 0227 4e3d 8a9e 90bb b553 f1bc
00000230: 36d9 aa3d 3eba 1cbc c46f 44bd 790c b23d
00000240: 9d10 f5bc da93 71bd 3319 31bd d26e 68bd
00000250: 53ef 16bd 436a 75bd e3fc f4bc 1f87 3dbd
00000260: 898d dbbd 9d4d 1ebb 29fc bcbd ec22 19bd
00000270: dc34 8dbd 2190 74bd f2f6 02be 5692 06bd
00000280: f0d6 3ebd 4f8d 8abd 0782 0c3c 4391 2bbd
00000290: 4d80 9dbd d9e9 513c c9e4 abbd 86a7 31bd
000002a0: 9541 d43c d24c 74bd dc60 dfbc b6e0 603b
000002b0: b70d 6cbd d13f abbd c922 773d 359f a9bd
000002c0: 8da8 41bd f878 7e3d 85db f1bd 5cba 0dbd
000002d0: 2b60 0dbd fdec d83c d0a0 b63d 2540 78bd
000002e0: 8831 863d a235 053e f34e cfbc 43aa 8e3c
000002f0: 6808 623e d745 8a3d ab7f e33c 24f1 063e
00000300: 32c5 c4ba b642 6d3c c5d7 0e3e deb7 87bc
00000310: ad65 d03d e9d6 0d3e 55e2 31bd 60b4 373d
00000320: 0ca3 cb3d e57a 0abd ca27 023d 828c 643e
00000330: 4d58 583a 96b1 ab3d c5bb 183e 29dc e1bb
00000340: 2ef2 a9bc 9d8f a8bd ea8e 40bd 6ea7 f439
00000350: 298b d4bc e1c8 f0bc 3f2d 7bbd 9661 d23c
00000360: ef21 a23d 7341 903d 7958 2b3e d0c2 d83c
00000370: 207a 073e 0def e43d 660f d03d 2884 2e3e
00000380: cb45 dc3d 623c b7bd 4dfa be3b 3964 a63d
00000390: 13b0 073d f3b1 0cbd d574 0f3e 868a 563d
000003a0: 18b0 923c e2c3 313e c6a5 873b 1c11 33bd
000003b0: a5b2 fc3c 5003 b53d 2c3c 75bd 740e 94bc
000003c0: de17 963d eaeb 783d af43 4dbc 9e85 da3b
000003d0: 8ea0 463c b56f 87bd fe05 1bbd 2433 0cbc
000003e0: 14b7 5bbd fcdf 70bd 6aff a53b c056 533c
000003f0: cdb0 b23d e967 ce3d 79b3 7f3d 7ce1 053e
0.005676336 0.028260656 -0.017694868 0.049267016 0.052515257 0.057750966 -0.03326506 -0.0019557972
-0.04130878 -0.047399625 -0.100365296 -0.008415047 0.0009186113 -0.059900053 -0.04096411 -0.012045688
-0.13324098 -0.062955 -0.005983571 -0.040138625 0.030481061 0.0079924185 0.05652139 0.14532201
0.017488124 0.046764664 0.055688526 -0.064250916 -0.082150705 -0.085829854 -0.10691551 -0.105326146
-0.10485169 -0.036167108 -0.07404367 -0.051907312 0.07105275 -0.054521937 0.033378255 0.0020927151
-0.11829094 0.0067444327 -0.054685045 -0.1318752 0.0039303848 0.0719816 0.07177368 0.049575213
0.10733187 0.09794887 0.13946413 0.041111305 0.040397026 0.095234565 -0.095240854 -0.009853213
0.029035645 -0.043758117 -0.015613039 0.0951987 -0.07819388 0.0710464 0.08785787 -0.08811002
0.020944603 0.01943757 -0.045198683 0.038267363 0.119038805 -0.0739581 0.04942335 0.120225795
0.051415298 0.069092706 0.029579049 0.052713845 0.028104289 0.011063242 0.04051843 0.07775909
0.05040648 -0.031103939 0.048693392 0.03659236 -0.009915756 -0.040681828 0.028411705 -0.03151491
-0.06025805 0.084353544 -0.030399412 -0.033559263 -0.030138552 -0.030554248 -0.09868094 -0.11064914
0.012817392 -0.10339247 -0.054307044 0.07886038 -0.06326211 -0.03134649 0.04366549 -0.040769916
-0.023527304 -0.03851973 -0.043882072 0.050614685 -0.054009162 0.04320791 0.08895993 -0.021969141
0.05290879 0.1912388 0.014576643 0.10031395 0.211133 -0.0062688147 0.03954263 -0.09102042
-0.053466134 0.003930374 -0.10362287 0.03123214 0.016236389 0.0075843385 -0.044954926 -0.0055538
0.04526597 -0.020516371 -0.002168947 -0.037274454 -0.07870929 0.02041582 -0.04495997 -0.09432391
-0.07658018 0.05033017 -0.0044134306 -0.02945886 0.08342211 -0.009565888 -0.04795815 0.08693785
-0.029915148 -0.058978893 -0.043236922 -0.05674631 -0.03684933 -0.059915792 -0.029905742 -0.04627144
-0.10720355 -0.0024155148 -0.09227783 -0.03738682 -0.06894848 -0.059707765 -0.12789515 -0.0328544
-0.0465917 -0.06765234 0.008575923 -0.04188658 -0.07690487 0.012812101 -0.08393247 -0.043372653
0.025910178 -0.059643574 -0.027267866 0.0034313626 -0.057630267 -0.083617814 0.060335908 -0.082823195
-0.047279883 0.062127084 -0.11809448 -0.034601554 -0.03451554 0.026480192 0.08917391 -0.060608048
0.06552416 0.1300874 -0.0253062 0.017415171 0.22073519 0.06751602 0.027770838 0.13177925
-0.0015012382 0.014481237 0.13949497 -0.016567167 0.10175643 0.13851513 -0.043428738 0.044849753
0.09943208 -0.033808608 0.031776227 0.22319224 0.0008252904 0.08383481 0.14915378 -0.0068927
-0.020745363 -0.08230517 -0.047011293 0.00046664051 -0.025945263 -0.029392662 -0.061322447 0.025681298
0.079166286 0.070437334 0.16732968 0.026460081 0.1323018 0.11178408 0.10159187 0.17042601
0.107554995 -0.08947064 0.005828178 0.08124585 0.0331269 -0.034349393 0.14009412 0.0523782
0.017906234 0.1735988 0.004139635 -0.04371749 0.030846903 0.088385224 -0.059871837 -0.018073298
0.07328771 0.06077186 -0.012528344 0.0066687604 0.01212324 -0.06613103 -0.03784751 -0.008557115
-0.053641394 -0.05880736 0.005065848 0.012899101 0.08725128 0.10078413 0.062427018 0.13074297

encoder.blocks.2.conv.0.bias f4 [64]
00000000: 44d2 1cbd f52a 813c f2ba 5fbd fa66 51bd
00000010: da89 283c 13cc 0dbc fcea 943d 9458 cabc
00000020: 707d f6bc 9d8a 7e3c a7c3 afbb 6064 b63d
00000030: b433 1bbd d50f 533c 9969 a83d 3ff1 c83c
00000040: 45e9 8dbd 4933 82bd b134 34ba 8504 ce3c
00000050: ced9 333c 3a54 bf3d 8338 2c3d 3e19 5a3b
00000060: f361 f7bc 264b b33d 599b 11bc 1c0b 86bc
00000070: 74ef f73c 4693 ffbb 5098 263d ec28 6ebc
00000080: efdb a4bd 6a8d 9fbd 2012 5b3c 9cc2 f43b
00000090: d169 9cbc 7f62 d7bc 3dc8 e0bd 3ebc f2bc
000000a0: 1e60 0e3d 3942 1b3d ef95 5dbd 773e 993d
000000b0: 4cd7 c03c ba17 30bd 315d 16bd ebe5 0fbc
000000c0: 2b2a 0fbc c1e6 ccbd acdc 953c 5ba0 e7ba
000000d0: 36fd 333d d10e a23d 4b83 9bbb 1bdf 5b3d
000000e0: 78e5 c3bd 73e7 0d3d c010 963d 7d68 e1bc
000000f0: d64d ce3b 4555 313c d37b 08bd ea52 db3c
-0.038286462 0.015767554 -0.054621644 -0.051123597 0.010286773 -0.008654612 0.07271382 -0.02470044
-0.03008911 0.015535978 -0.0053638997 0.08905864 -0.037891105 0.012882193 0.08223266 0.024529098
-0.06929258 -0.06357438 -0.0006874307 0.02514864 0.010977222 0.09342237 0.04204608 0.0033279206
-0.030198073 0.08754568 -0.008887135 -0.01636272 0.030265547 -0.007799539 0.0406726 -0.014536124
-0.080497615 -0.077906445 0.013371021 0.0074694883 -0.019093426 -0.026292084 -0.109756924 -0.029630776
0.034759633 0.03790495 -0.054098066 0.07482617 0.023540162 -0.042991377 -0.036709968 -0.008782844
-0.008738081 -0.1000495 0.018293701 -0.0017671691 0.043942653 0.07912982 -0.004745876 0.053679567
-0.09565252 0.034644555 0.073274136 -0.027515644 0.0062959 0.0108235525 -0.033321213 0.026772935
