toyshapes/pinets_defaults/model_5.pth (torch, 466407 bytes, 71 tensors)

encoder.blocks.0.conv.0.weight f4 [16, 1, 3, 3]
0	0x3e4c9506	0.19978723
1	0xbeaf68c5	-0.3425962
2	0x3e9476f2	0.28996998
3	0x3e42d2c8	0.19025719
4	0x3e687c1d	0.22703595
5	0xbe81fa7f	-0.25386426
6	0xbe6737e1	-0.2257991
7	0x3e564fea	0.20928922
8	0xbe8e8e0b	-0.27842745
9	0x3e9a60b9	0.3015192
10	0x3de62d2c	0.112390846
11	0x3d56ce65	0.052442927
12	0xbe8814f6	-0.26578492
13	0x3eb583b0	0.35452032
14	0x3e8af73c	0.2714175
15	0xbd13a121	-0.036042336
16	0x3e24af23	0.16082434
17	0x3cc5382b	0.024074635
18	0xbe801a03	-0.25019845
19	0x3e9a1b1c	0.30098808
20	0x3d382a7d	0.044962395
21	0xbd94961c	-0.072551936
22	0xbe9a4842	-0.30133253
23	0x3e441986	0.19150361
24	0x3ec608ce	0.38678592
25	0xbe992f5b	-0.29918942
26	0x3ce07fbf	0.027404664
27	0x3e02bbe7	0.12766992
28	0xbe017474	-0.1264208
29	0xbd31faf0	-0.043452203
30	0xbe6362fe	-0.22205731
31	0xbd9f3afd	-0.07774923
32	0xbe980830	-0.29693747
33	0x3cd22976	0.025654536
34	0x3e54510e	0.20734045
35	0x3e5c5ecb	0.21520536
36	0x3e8afca1	0.27145866
37	0xbea4ca5e	-0.32185644
38	0xbd89280b	-0.06697091
39	0x3eb5a849	0.35479954
40	0xbca3bb65	-0.019986818
41	0xbe1d075c	-0.15334839
42	0xbec07974	-0.3759266
43	0x3e096226	0.13416347
44	0x3e2d2d03	0.16911702
45	0x3e4bf823	0.19918875
46	0x3e19c0e4	0.15014988
47	0x3d771897	0.060326185
48	0x3dfeefc3	0.12448075
49	0xbe424557	-0.18971764
50	0x3e677654	0.22603732
51	0xbe1f6329	-0.1556517
52	0xbe3c7b83	-0.18406491
53	0xbe7ae8f4	-0.24502927
54	0x3e3d0b43	0.18461327
55	0x3e01a53c	0.12660688
56	0x3e512050	0.20422482
57	0xbe5cd5c9	-0.21565928
58	0xbe493bbf	-0.19651698
59	0x3eaba14d	0.335215
60	0xbe33675a	-0.17519894
61	0xbe401108	-0.18756497
62	0xbd366ca1	-0.04453719
63	0xbd7ffd49	-0.06249741
64	0xbe6d4d0d	-0.23173924
65	0x3e8f9df0	0.28050184
66	0x3d425e2f	0.0474531
67	0x3de95e63	0.11394956
68	0x3e6b2dd5	0.22966702
69	0xbe64268d	-0.22280331
70	0x3e8601b9	0.2617319
71	0xbe50a694	-0.20376045
72	0xbe26e2b5	-0.1629742
73	0x3e485a65	0.19565733
74	0x3e5e8d57	0.21733604
75	0x3e507a7a	0.20359221
76	0x3dbf4291	0.093388684
77	0x3e16bb5a	0.14719906
78	0xbe86273d	-0.2620181
79	0xbe1a186c	-0.15048379
80	0xbe90e3ad	-0.28298703
81	0xbc129782	-0.008947255
82	0xbd86f684	-0.06589988
83	0x3e636666	0.2220703
84	0x3e97ee69	0.2967408
85	0xbe5d17c2	-0.21591094
86	0xbdd40dbc	-0.10354182
87	0xbc889a77	-0.016675217
88	0x3d858d9c	0.065211505
89	0xbd7212e3	-0.059100043
90	0xbe78f312	-0.24311474
91	0xbc9c935e	-0.019113239
92	0xbe394f0b	-0.18096559
93	0x3d5ea906	0.054360412
94	0xbe81c936	-0.25348824
95	0xbd4ac4bb	-0.049504023
96	0xbe1b7fba	-0.15185443
97	0xbdf180ca	-0.11792143
98	0x3e7f3b5f	0.24924992
99	0x3e4f24ea	0.20228925
100	0xbd20f79b	-0.039298635
101	0xbe88e159	-0.26734427
102	0xbeb188a5	-0.34674564
103	0xbe1eeef7	-0.15520845
104	0x3dd0d64a	0.101971224
105	0xbe0bba6c	-0.13645333
106	0xbe00570c	-0.12533206
107	0x3e827fef	0.2548823
108	0x3c98f5a9	0.018671827
109	0xbd0c3f4e	-0.03424006
110	0xbde341fe	-0.110965714
111	0x3e918ca1	0.28427604
112	0xbea4f5d5	-0.32218805
113	0xbc7b8c17	-0.015353224
114	0x3dfcdcb5	0.12346784
115	0x3e98049d	0.2969102
116	0xbe93b71a	-0.28850633
117	0xbdca71fb	-0.09885021
118	0x3e7f75c9	0.24947275
119	0xbbcc0ca0	-0.006227091
120	0x3d6a7a7d	0.05724572
121	0xbe6d8757	-0.2319616
122	0x3e0f1821	0.13974048
123	0xbe2a4073	-0.16626148
124	0xbe7a449b	-0.24440233
125	0x3e89ad2d	0.26889935
126	0x3cb3d908	0.021954075
127	0xbcd3a764	-0.025836654
128	0xbea2b099	-0.31775358
129	0xbdc51dfe	-0.09624861
130	0xbe807ac6	-0.2509367
131	0xbe137efb	-0.14403908
132	0xbdb1dcfb	-0.08684727
133	0x3c600976	0.013674131
134	0xbe99d82f	-0.30047747
135	0x3e915291	0.28383306
136	0x3e65ab11	0.22428538
137	0xbebb8598	-0.3662536
138	0x3e4944d5	0.19655164
139	0xbe5d8319	-0.21632041
140	0xbe979f94	-0.29613936
141	0x3e8c5319	0.27407148
142	0xbe441706	-0.19149408
143	0xbded0014	-0.115722805

encoder.blocks.0.conv.0.bias f4 [16]
0	0x3dd7b2ec	0.105321735
1	0x3e250710	0.16115975
2	0xbc46b60c	-0.012128364
3	0xbdbcd736	-0.09220736
4	0x3a9a0883	0.0011751804
5	0xbe4f9f61	-0.20275642
6	0xbe496d1a	-0.19670525
7	0x3e12c5f6	0.14333329
8	0x3c3ba0c5	0.011451905
9	0x3e13811f	0.14404725
10	0xbde6e814	-0.11274734
11	0xbec0b6ad	-0.3763937
12	0xbdd6b506	-0.10483746
13	0xbecccf4b	-0.40001902
14	0xbdd0393b	-0.10167166
15	0x3d9218a4	0.07133606

encoder.blocks.0.conv.1.weight f4 [16]
0	0x3f9d7b95	1.2303339
1	0x3f6f4a50	0.93472767
2	0x3f8bc2ae	1.0918787
3	0x3f784ce2	0.96992314
4	0x3f9efb34	1.2420411
5	0x3f7a3938	0.9774356
6	0x3f6a549d	0.9153536
7	0x3f8b89a3	1.0901378
8	0x3f88c1af	1.0684108
9	0x3f6a204c	0.9145553
10	0x3f6ec891	0.9327479
11	0x3f596229	0.84915406
12	0x3f5fc665	0.874121
13	0x3f7cd874	0.9876778
14	0x3f6160e3	0.8803846
15	0x3f6796c5	0.9046443

encoder.blocks.0.conv.1.bias f4 [16]
0	0x3dfd1183	0.12356856
1	0xbcfaf47f	-0.030634163
2	0x3c9ba221	0.018998208
3	0xbd5b835f	-0.053592082
4	0xbd5f9af2	-0.054591127
5	0x3d44491e	0.047921292
6	0x3d845de1	0.064632185
7	0x3e24a89b	0.16079943
8	0xbdd49128	-0.10379249
9	0xbc7a7764	-0.015287254
10	0xbd077b3d	-0.033076514
11	0xbdb1d8e5	-0.086839475
12	0xbdd636ff	-0.104597084
13	0x3cc4eeb4	0.024039604
14	0xbd225b0a	-0.039637603
15	0xbd360649	-0.044439588

encoder.blocks.0.conv.1.running_mean f4 [16]
0	0x3dfa28e2	0.12214829
1	0x3f22d060	0.63599205
2	0xbb632657	-0.0034660303
3	0xbe3a7bb2	-0.18211249
4	0xbb7f7488	-0.003897937
5	0xbe264ea8	-0.16240942
6	0xbe41ae2b	-0.18914096
7	0x3e77620c	0.24158496
8	0x3ba7501b	0.005105985
9	0x3e3f2139	0.18665017
10	0xbee7619c	-0.45191658
11	0xbf25bff7	-0.6474604
12	0xbe0927e8	-0.1339413
13	0xbed6370a	-0.41838866
14	0xbf2ad263	-0.66727275
15	0xbcbe28c2	-0.023212794

encoder.blocks.0.conv.1.running_var f4 [16]
0	0x3b33a36d	0.0027410642
1	0x3d2585b3	0.04041071
2	0x3ae9d485	0.0017839825
3	0x3b88cc44	0.004174741
4	0x3af84f20	0.001894448
5	0x3bcda3bc	0.006275622
6	0x3bf66408	0.007519249
7	0x3b8d7608	0.004317049
8	0x3bcc03b7	0.006226029
9	0x3aae25cf	0.0013286414
10	0x3cac9e11	0.021071466
11	0x3c6f8863	0.0146199195
12	0x3b94682c	0.00452902
13	0x3b449284	0.0029994557
14	0x3d67945e	0.05653798
15	0x3c6a5ff8	0.014305107

encoder.blocks.0.conv.3.weight f4 [16, 16, 3, 3]
0	0x3cddb395	0.02706317
1	0x3e23607c	0.15954775
2	0x3b7657db	0.0037588987
3	0x3d6322d9	0.055453155
4	0x3dabeedf	0.083951704
5	0x3dcf39a9	0.1011842
6	0x3df1f3a8	0.11814052
7	0xbd082c6f	-0.0332455
8	0x3db3572a	0.087568596
9	0x3d789e28	0.060697705
10	0xbdbfaa17	-0.09358614
11	0x3d4efe99	0.050535772
12	0x3c82b9b9	0.0159577
13	0xbc7458a7	-0.0149137145
14	0xbd9fda8c	-0.078053564
15	0xbdc4db7d	-0.096121766
16	0xbdb3f7be	-0.087874874
17	0xbd54e6ed	-0.05197804
18	0xbcd99fed	-0.026565516
19	0xbd96bf0c	-0.07360658
20	0xbcf485ff	-0.02984905
21	0x3c5216fc	0.012822863
22	0xbbfbbc28	-0.007682342
23	0xbda8432a	-0.082159355
24	0x3cb7ada4	0.022421665
25	0x3df848c0	0.12123251
26	0x3d308b0b	0.04310135
27	0x3d2a9f3a	0.041655757
28	0x3d7f0c46	0.062267564
29	0xbc01ecc4	-0.0079299845
30	0xbd0f1ec5	-0.034941453
31	0xb8117fd1	-3.4689732e-05
32	0x3dc0f6d6	0.0942208
33	0x3d3e92c8	0.0465267
34	0xbd1c1473	-0.03810544
35	0x3cbe6c53	0.023245012
36	0x3cabdef8	0.020980343
37	0x3dee7fbe	0.11645459
38	0xbc50c5b2	-0.012742447
39	0xbdb9fc68	-0.09081346
40	0xbcf1b197	-0.029503627
41	0x3dd261b3	0.10272541
42	0xbd39ec1e	-0.045391195
43	0xbcabde59	-0.020980047
44	0x3d83d7b3	0.06437626
45	0xbc8b3d24	-0.016996928
46	0x3bcc38ef	0.006232373
47	0x3c997a5b	0.018735101
48	0x3d3a11f1	0.045427267
49	0xbdbc0d13	-0.09182181
50	0x3d81c35e	0.063360915
51	0x3c55cfb7	0.013050011
52	0xbd9d9034	-0.0769352
53	0x3d049d9e	0.032376878
54	0xbda8106f	-0.082062595
55	0x3cd6e4a4	0.026232071
56	0x3cebf919	0.028805302
57	0xbd12ad0a	-0.035809554
58	0xbda975ad	-0.08274398
59	0xbc98e052	-0.018661652
60	0xbd13f23e	-0.036119692
61	0x3ceae8cf	0.028675465
62	0xbdf5c617	-0.12000673
63	0x3d3215aa	0.04347769
64	0xbcb9182c	-0.022594534
65	0xbc28b140	-0.010296166
66	0xbd81004c	-0.06298885
67	0xbc57f07c	-0.013179895
68	0x3e024a99	0.12723769
69	0x3ddef0ca	0.108857706
70	0xbda6462c	-0.08118853
71	0xbbccd1e5	-0.0062506073
72	0xbc657390	-0.014004603
73	0xbc1f6049	-0.009727546
74	0xbdb6217f	-0.088931076
75	0xbd812e35	-0.063076414
76	0xbe0703e0	-0.13185072
77	0x3ca88e09	0.02057554
78	0xbd9af352	-0.07565941
79	0x3cae1cc6	0.021253955
80	0x3cb1b790	0.021693975
81	0xbb1534b5	-0.0022767012
82	0x3d92c298	0.07166022
83	0x3db6739e	0.08908771
84	0x3c8eee4d	0.017447615
85	0x3d87fb28	0.06639701
86	0xbc2b6619	-0.010461354
87	0x3d0f2b68	0.034953505
88	0x3dc94c49	0.09829003
89	0xbd4dbb62	-0.05022753
90	0xbd40732d	-0.04698484
91	0xbd87acb1	-0.06624735
92	0xbc77ffd3	-0.015136677
93	0xbcadb3e4	-0.021203943
94	0x3cc31134	0.023811914
95	0xbd72c045	-0.059265394
96	0xbd9e5af4	-0.07732192
97	0x3d801e28	0.06255752
98	0x3c84b21d	0.016198212
99	0xbd4496a3	-0.04799522
100	0xbc43dbbc	-0.011954244
101	0x3ce69e90	0.02815178
102	0xbd7c65e8	-0.061620623
103	0xbd84d7b4	-0.064864546
104	0xbcd04375	-0.025422791
105	0x3d6f01f9	0.05835149
106	0x3d1d7bef	0.03844827
107	0xbd588c1d	-0.052867997
108	0xbd013abc	-0.031550154
109	0x3dd5fd71	0.10448731
110	0x3e2a41cd	0.16626664
111	0x3dac5dc7	0.08416324
112	0x3dabb2db	0.08383723
113	0x3d085bf5	0.033290822
114	0x3dd28409	0.1027909
115	0xbbe85c29	-0.0070910645
116	0x3d1ddd94	0.03854139
117	0xbd805d6a	-0.06267817
118	0xbde4757f	-0.11155223
119	0x3d72d90a	0.059289016
120	0x3cb86dfe	0.022513386
121	0x3cff4a39	0.031163322
122	0xbd903867	-0.07042008
123	0xbdc71e0d	-0.097225286
124	0x3dc2b0aa	0.09506352
125	0xbe09768c	-0.13424128
126	0xbd683af1	-0.056696836
127	0x3d31ac86	0.04337742
128	0x3b8cdb60	0.0042986125
129	0x3cf99997	0.030468745
130	0xbd448846	-0.047981523
131	0x3d8c0435	0.0683674
132	0xbd455a4d	-0.04818182
133	0x3d94f033	0.07272377
134	0x3d03a434	0.03213902
135	0xbc7afda6	-0.015319264
136	0x3d27fc1e	0.041011922
137	0x3d7bfb4b	0.06151895
138	0x3dc6061b	0.09669133
139	0x3d1cca29	0.038278732
140	0x3d5ab985	0.05339958
141	0x3b67ba21	0.0035358744
142	0x3d74891e	0.059701078
143	0x3de6d12d	0.11270366
144	0x3da2843e	0.079353794
145	0xbc8314df	-0.016001163
146	0x3d52d664	0.05147399
147	0xbb997b92	-0.00468392
148	0x3dcc6648	0.09980446
149	0x3db3675e	0.0875995
150	0x3df1f472	0.11814202
151	0x3c1bee60	0.009517282
152	0x3de7a589	0.1131087
153	0xbd6d4760	-0.057929397
154	0xbda48faa	-0.08035214
155	0x3d0082bc	0.031374678
156	0xbcbf6ec4	-0.023368247
157	0xbc7feadb	-0.015619959
158	0xbcbe627d	-0.023240322
159	0xbd46c482	-0.04852725
160	0x3c938c7b	0.018011322
161	0xbb1982ee	-0.0023423987
162	0x3b94b08e	0.0045376485
163	0x3dfa88ad	0.122331
164	0xbc2f5f41	-0.010703863
165	0xbd143035	-0.036178786
166	0x3e08eae5	0.13370855
167	0xbd8cb15a	-0.068697646
168	0xbd85f3c2	-0.06540634
169	0xbc6ecbe2	-0.014574977
170	0x3d13253b	0.035924178
171	0x3e137fb5	0.14404185
172	0xbcbb3b8d	-0.022855544
173	0xbd235e7d	-0.039885033
174	0xbd75f084	-0.060043827
175	0x3c53799e	0.012907414
176	0x3d78dd75	0.060758073
177	0x3cccc22e	0.024994936
178	0x3c94448a	0.018099088
179	0xbc25759b	-0.01009884
180	0x3e427437	0.18989645
181	0x3d99db29	0.075125046
182	0xbdf670b1	-0.12033213
183	0xbd65877f	-0.056037422
184	0x3e8493d2	0.25894028
185	0x3ddf9fd0	0.10919154
186	0x3e438db9	0.19097032
187	0x3b793f8a	0.0038032257
188	0x3e0b0db8	0.13579452
189	0xbc05fc90	-0.008177891
190	0x3c935a5e	0.017987426
191	0x3cd51008	0.02600862
192	0xbc182537	-0.009286216
193	0x3cf9a6bb	0.030475011
194	0xbcda4286	-0.026643049
195	0x3d06a0db	0.032868247
196	0x3db23e79	0.08703322
197	0x3d2f78a6	0.04283967
198	0x3d8cb799	0.06870956
199	0x3d6dcd6a	0.058057226
200	0x3d24acb2	0.040203758
201	0xbcfacd4a	-0.030615468
202	0xbbb273d8	-0.0054459386
203	0xbd7e12fd	-0.062029827
204	0x3e15ca4f	0.14627956
205	0xbcac23fa	-0.021013249
206	0xbd2eb462	-0.042652495
207	0x3dbe9e71	0.09307564
208	0x3e4a3d3d	0.19749923
209	0x3e28c369	0.16480793
210	0x3e04130e	0.12897894
211	0x3dad9245	0.08475164
212	0xbd51fec7	-0.051268365
213	0xbdb4070d	-0.08790407
214	0xbd608886	-0.0548177
215	0x3c283fef	0.010269149
216	0x3cc2d0b8	0.023781165
217	0x3e210a15	0.15726502
218	0x3e1c42f1	0.15259911
219	0x3d359206	0.044328712
220	0xbc82cc40	-0.015966535
221	0x3e0d4944	0.1379748
222	0x3df21499	0.11820335
223	0xbbd78f0e	-0.0065783327
224	0x3d1056c2	0.03523899
225	0xbe033231	-0.12812115
226	0x3e164265	0.14673765
227	0xbd8d1f7e	-0.06890772
228	0x3de01317	0.10941141
229	0x3c3dd80e	0.011587156
230	0xbad656f7	-0.0016352822
231	0x3d1edf34	0.03878708
232	0x3dd1c7fd	0.10243223
233	0xbd0aff66	-0.033934973
234	0x3cdf05ae	0.027224388
235	0xba2f56b7	-0.0006688642
236	0x3db749e0	0.089496374
237	0xbd5c906c	-0.05384867
238	0xbd08aaa9	-0.03336588
239	0xbd64a0ba	-0.055817343
240	0xbd50b7bc	-0.050956473
241	0x3db74848	0.089493334
242	0xbcafab71	-0.021444054
243	0x3d140466	0.036137007
244	0xbbe907ae	-0.007111511
245	0xbd802a95	-0.06258122
246	0xbb2ccfb6	-0.0026368923
247	0xbd880e02	-0.06643297
248	0xbd3580a2	-0.044312127
249	0x3d9e3a9b	0.07726022
250	0xbd64f02c	-0.05589311
251	0x3d1cddfb	0.038297635
252	0x3cd139cc	0.025540255
253	0x3dcf23de	0.10114263
254	0x3cd3d26d	0.025857175
255	0x3e1594f8	0.14607608

encoder.blocks.0.conv.3.bias f4 [16]
0	0x3d2aab69	0.041667376
1	0x3c8416b9	0.016124116
2	0x3d931f6f	0.0718373
3	0xbc340c49	-0.010989257
4	0xbd3040bf	-0.043030497
5	0x3ca99f60	0.020705879
6	0xbbc7092d	-0.006074092
7	0x3d094c40	0.033519983
8	0xbd0275ab	-0.0318505
9	0x3c7d1e8b	0.015449177
10	0xbd9e3f02	-0.077268615
11	0x3d08ce1d	0.03339969
12	0xbddb21ee	-0.10699831
13	0xbddeb4f9	-0.108743615
14	0xbcaa3c42	-0.020780686
15	0xbdbbd97f	-0.091723435

encoder.blocks.0.conv.4.weight f4 [16]
0	0x3f7445c1	0.95418936
1	0x3f842996	1.0325191
2	0x3f6bd242	0.921177
3	0x3f89bd1b	1.0760835
4	0x3f83a1f7	1.0283803
5	0x3f6fca32	0.936679
6	0x3f71016f	0.9414281
7	0x3f68c2dd	0.9092234
8	0x3f85a87d	1.0442044
9	0x3f6d5fa2	0.9272405
10	0x3f5a7f42	0.8535043
11	0x3f7165d8	0.94296026
12	0x3f766c40	0.96258926
13	0x3f740512	0.95320237
14	0x3f69e1c2	0.91360104
15	0x3f8eff33	1.1171631

encoder.blocks.0.conv.4.bias f4 [16]
0	0xbdb3d530	-0.08780897
1	0xbbc5a008	-0.00603104
2	0xbd9fb653	-0.077984475
3	0xbd37b5e8	-0.044851214
4	0xbd42a2e1	-0.047518615
5	0xbd68777c	-0.056754574
6	0xbddef835	-0.108871855
7	0xbda2feff	-0.07958793
8	0xbd98d2c5	-0.07462076
9	0xbc1709b8	-0.009218626
10	0xbdba4a9f	-0.09096264
11	0xbd1cae19	-0.03825197
12	0x3c0048bd	0.007829842
13	0xbd0804d9	-0.033207748
14	0x3d3dc80b	0.046333354
15	0xbd6445b4	-0.055730537

encoder.blocks.0.conv.4.running_mean f4 [16]
0	0x3e737138	0.23773658
1	0x3f8d7502	1.1051333
2	0xbf8b5427	-1.0885056
3	0xbe8774be	-0.26456255
4	0x3f56f7f6	0.8397211
5	0x3f7069b8	0.93911314
6	0x3e9506dd	0.291068
7	0x3eb181fd	0.34669486
8	0xbdb92e43	-0.09042027
9	0x3f314a0c	0.6925361
10	0xbe94791a	-0.28998643
11	0x3be833e3	0.0070862635
12	0xbf80d5a3	-1.0065197
13	0xbf2ab633	-0.66684264
14	0xbf757b3f	-0.95891184
15	0xbef8ef79	-0.48620203

encoder.blocks.0.conv.4.running_var f4 [16]
0	0x3f18a7ec	0.5963123
1	0x3fd8731b	1.6910127
2	0x3fbbeeb6	1.4682224
3	0x3f49e8da	0.7887093
4	0x3fc3a506	1.5284736
5	0x3f5998bf	0.849987
6	0x3f0bb606	0.5457462
7	0x3faff9dc	1.3748126
8	0x3ebf2b50	0.37337732
9	0x3f2b1750	0.6683245
10	0x3f66aaf6	0.90104616
11	0x3f019542	0.50618374
12	0x40461a65	3.095361
13	0x3faa44ea	1.3302281
14	0x400b697c	2.1783133
15	0x3f0a5267	0.54031986

encoder.blocks.0.skip.weight f4 [16, 1, 1, 1]
0	0x3eb88df4	0.36045802
1	0x3f0578f4	0.52137685
2	0x3d6c8f20	0.057753682
3	0xbf61d294	-0.8821194
4	0xbec6d774	-0.38836253
5	0x3e5be7c0	0.21475124
6	0x3f09bf08	0.53807116
7	0xbf65ec24	-0.89813447
8	0x3efff924	0.49994767
9	0xbee96c0c	-0.45590246
10	0xbf086d6c	-0.53291965
11	0x3ea1cf8c	0.31603658
12	0x3f316ad0	0.6930361
13	0x3e864ee8	0.26232076
14	0xbf78fa7a	-0.97257197
15	0xbf10921e	-0.5647296

encoder.blocks.0.skip.bias f4 [16]
0	0x3d7bf480	0.06151247
1	0x3f1bc702	0.60850537
2	0x3f74f15c	0.95680785
3	0xbf57fdd6	-0.843717
4	0xbe99df4c	-0.30053174
5	0xbeea2c7c	-0.45737064
6	0xbd661920	-0.056176305
7	0xbec5ec68	-0.38656926
8	0x3ee6f3e8	0.4510796
9	0xbf176044	-0.59131265
10	0xbd403120	-0.04692185
11	0xbb0a6200	-0.0021115541
12	0xbf470984	-0.77748895
13	0x3e5e0af8	0.21683872
14	0xbf17b324	-0.5925772
15	0xbf793e40	-0.9736061

encoder.blocks.1.conv.0.weight f4 [32, 16, 3, 3]
0	0x3dcc8ea3	0.09988143
1	0xbd8005ee	-0.06251131
2	0xbe004276	-0.12525353
3	0x3db33ce9	0.08751852
4	0x3ce90e39	0.028449165
5	0xbe0c4331	-0.13697506
6	0x3db37118	0.08761805
7	0x3c1143da	0.008866275
8	0xbced87ce	-0.02899542
9	0x3b8f64e0	0.004376039
10	0xbc893bdf	-0.016752182
11	0x3d3794da	0.04481969
12	0x3d02fa98	0.031977266
13	0xbd3beb0d	-0.04587846
14	0xbdb2b38a	-0.087256506
15	0xbd442e15	-0.04789551
16	0xbceaafde	-0.028648313
17	0xbddaf945	-0.10692076
18	0xbc5a1fc3	-0.013313237
19	0xbd0b1e11	-0.03396422
20	0x3a030bec	0.000499903
21	0x3dbc446c	0.09192738
22	0xba50fba6	-0.0007972069
23	0x3d1edd2b	0.03878514
24	0x3ca99d13	0.020704782
25	0xbb97e571	-0.004635506
26	0xbd1fcccb	-0.039013665
27	0x3dcdfa57	0.10057514
28	0x3de1ed41	0.11031581
29	0xbd3050ab	-0.04304568
30	0x3d9d1c51	0.076714166
31	0x3e15b50c	0.14619845
32	0xbe0670c3	-0.13128953
33	0x3e289f92	0.16467121
34	0x3ddddc78	0.10833067
35	0x3ce96ed7	0.028495235
36	0xbdbc67ae	-0.09199463
37	0x3c7deef3	0.015498864
38	0xbd1c7c35	-0.03820439
39	0xbda2bce8	-0.07946187
40	0xbd6b664e	-0.057470612
41	0xbde8b138	-0.11361927
42	0xbce842c8	-0.028352156
43	0x3baba0b6	0.005237664
44	0xbd98b36e	-0.074560985
45	0xbcf21dc6	-0.029555213
46	0xbca97199	-0.02068405
47	0x3d2962ba	0.04135392
48	0x3b00f74c	0.001967865
49	0x3c3bf2b2	0.011471437
50	0x3c9de948	0.019276276
51	0xbdd41cf0	-0.10357082
52	0x3d32784f	0.043571766
53	0xbc4ba55d	-0.012429562
54	0x3d5947be	0.053046934
55	0xb994bf0a	-0.00028371095
56	0x3d268bed	0.040660787
57	0x3ce5497c	0.027989142
58	0x3dcd9004	0.100372344
59	0x3dfea039	0.12432904
60	0x3c97e636	0.01854239
61	0x3dbb2146	0.09137206
62	0xbc4a4224	-0.012344871
63	0xbd4a7927	-0.049431946
64	0xbd9d2136	-0.0767235
65	0x3d8b775f	0.068098776
66	0x3d44360b	0.047903102
67	0xbd5682fd	-0.052371014
68	0xbd504893	-0.050850462
69	0x3d79284d	0.06082945
70	0xbd74dbd6	-0.059779964
71	0xbde32b4d	-0.11092243
72	0x3e2b2614	0.16713744
73	0x3e0a2bcf	0.13493274
74	0xbdba87d6	-0.0910794
75	0x3e2c4677	0.16823755
76	0x3c23d605	0.009999757
77	0xbe0225db	-0.12709753
78	0x3de13983	0.109972976
79	0x3d297c15	0.0413781
80	0xbc587deb	-0.013213615
81	0xbdea3a22	-0.11436869
82	0xbd616433	-0.055027198
83	0xbca50a5a	-0.020146538
84	0xbdef9ecc	-0.1170021
85	0xbbf242ee	-0.0073932325
86	0xbd3ab60e	-0.045583777
87	0xbcfd0f75	-0.03089116
88	0x3d97fd06	0.07421307
89	0x3d3aa2ba	0.045565344
90	0xbccad102	-0.024757866
91	0xbd3f1137	-0.046647277
92	0xbd30778a	-0.04308275
93	0x3be74431	0.0070576896
94	0x3dba445f	0.09095072
95	0xbdbf2101	-0.09332467
96	0x3d7a2e4d	0.061079312
97	0xbd9d7f89	-0.07690341
98	0xbdea1fe2	-0.114318624
99	0xbcca67b5	-0.024707654
100	0xbaa59a51	-0.0012634491
101	0xbde3fa14	-0.11131683
102	0xbbd56499	-0.0065122363
103	0xbc365c15	-0.0111303525
104	0xbda7416e	-0.081667766
105	0xbddb2760	-0.107008696
106	0xbc8d5739	-0.017253505
107	0xbcd6fb46	-0.026242863
108	0xbdd50b5e	-0.10402559
109	0x3ce425c9	0.027850049
110	0xbd0e81a4	-0.034791604
111	0xbd0aae73	-0.033857774
112	0xbd62d538	-0.055379122
113	0x3cc52d65	0.024069497
114	0xbda5d906	-0.080980346
115	0xbdc96dea	-0.098354176
116	0xbc4a3741	-0.012342275
117	0xbd3ee1fc	-0.046602234
118	0xbd8a50dd	-0.06753705
119	0xbd8e7857	-0.06956547
120	0x3d01419d	0.031556714
121	0xbd0840f8	-0.033265084
122	0xbd327f95	-0.043578703
123	0xbd453b1e	-0.04815208
124	0x3d8e9afd	0.069631554
125	0xbbf99309	-0.007616405
126	0x3d76c10d	0.0602427
127	0xbcfd3fbb	-0.030914178
128	0x3d8f303d	0.069916226
129	0x3d17aa40	0.037027597
130	0x3d32416e	0.04351943
131	0x3cf5f5bd	0.030024404
132	0x3d5a7c6c	0.053341314
133	0x3d8da120	0.06915498
134	0x3ca445c9	0.020052807
135	0x3d666078	0.056244344
136	0x3c2db79c	0.010602858
137	0x39cc5f62	0.00038980978
138	0x3e018dc4	0.12651736
139	0x3dbd8e05	0.09255604
140	0xbd3b70d5	-0.045761902
141	0x3df20c8f	0.118188016
142	0x3d78ef21	0.060774926
143	0xbd3bcb6f	-0.045848306
144	0xbd13bf30	-0.036071002
145	0xbd459ea4	-0.048246995
146	0xbcde92ea	-0.027169663
147	0x3dd0687b	0.10176178
148	0x3d53b8b7	0.05168983
149	0xbd7b1c64	-0.061306372
150	0x3bf32295	0.007419894
151	0x3ce570a6	0.028007817
152	0xbcb56724	-0.022143908
153	0xbd41f83a	-0.047355868
154	0xbdb74a1e	-0.089496836
155	0xbd8e1dc9	-0.06939275
156	0xbdd93671	-0.10606087
157	0x3d00d297	0.031450834
158	0xbd00cacc	-0.031443402
159	0xbdc5dc6c	-0.09661183
160	0x3c652867	0.013986683
161	0xbd8f8327	-0.07007437
162	0x3df5ae26	0.11996107
163	0xbccd7aaf	-0.025082914
164	0x3df35535	0.11881486
165	0x3e0d82cf	0.13819431
166	0xbce56efb	-0.028007021
167	0x3d92a632	0.071606055
168	0x3d8f461e	0.06995796
169	0x3d8f0e45	0.069851436
170	0xbd8e736d	-0.069556095
171	0x3e0cbc31	0.13743664
172	0x3d943343	0.0723634
173	0x3e1e4c76	0.15458855
174	0x3d2440ce	0.040100865
175	0x3d8a392e	0.067491874
176	0x3d17eec4	0.03709294
177	0x3de47bbf	0.11156415
178	0x3dc5ba85	0.096547164
179	0x3d3d2076	0.046173535
180	0xb9ddfea1	-0.00042342118
181	0xbd939a7b	-0.07207199
182	0xbd00cfcc	-0.03144817
183	0xbccd9fed	-0.025100673
184	0xbc3672d7	-0.011135778
185	0xbb0b67d4	-0.0021271603
186	0xbd9053af	-0.070472114
187	0xbd2b63b9	-0.04184315
188	0xbd3e63fa	-0.046482064
189	0xbd154c50	-0.03644973
190	0xbcb65b13	-0.022260224
191	0x3d8150c1	0.06314231
192	0x3c6a03a0	0.014283091
193	0xbb9cbe8c	-0.004783457
194	0x3a7c7b2c	0.0009631391
195	0xbdc1e1f5	-0.09466926
196	0xbccd4717	-0.025058312
197	0x3d8859c6	0.06657748
198	0x3d29213b	0.041291457
199	0xbcfb5cbc	-0.030683868
200	0xbd91da10	-0.0712167
201	0x3db773a5	0.08957604
202	0x3b8c71b2	0.0042860145
203	0xbd4d3501	-0.050099377
204	0x3cb81e89	0.022475498
205	0xbd08d2f1	-0.033404294
206	0xbdab13d6	-0.08353393
207	0x3c7093e2	0.0146836955
208	0xbcee8213	-0.029114759
209	0xbd4e6522	-0.050389417
210	0x3d6b0d94	0.057385996
211	0x3ca0699c	0.019581608
212	0x3c1c29bc	0.009531435
213	0x3c22f13e	0.009945212
214	0x3c5b568f	0.013387336
215	0xbb0f51f2	-0.0021868912
216	0x3cb30dfd	0.021857256
217	0x3da91670	0.08256233
218	0x3db059b4	0.086108595
219	0x3d6e0058	0.058105797
220	0x3cc6709d	0.02422362
221	0x3ca1c2df	0.019746242
222	0x3dcf8572	0.101328745
223	0x3d725be2	0.059169658
224	0x3de242f7	0.11047929
225	0x3c2a4d6f	0.010394438
226	0xbcd05032	-0.025428865
227	0x3d55c869	0.05219308
228	0x3bc14143	0.0058976724
229	0x3d85868a	0.06519802
230	0x3d67ea31	0.056619827
231	0xbd3705b0	-0.04468316
232	0x3d66ec1e	0.056377523
233	0xbbfa8a85	-0.0076459073
234	0xbca427d0	-0.020038515
235	0xbc779d26	-0.015113151
236	0xbcb39e80	-0.021926165
237	0x3d4fcb18	0.050730795
238	0xbcbce5e0	-0.023058832
239	0xbd797779	-0.060904954
240	0xbd82efd6	-0.06393401
241	0x3cea7693	0.028620994
242	0xbd8f1ebe	-0.069882855
243	0xbdf8f6a9	-0.12156422
244	0xbd1f4025	-0.038879532
245	0x3ce7426f	0.02822992
246	0xbdcc5fcc	-0.09979209
247	0x3c9033f2	0.017602894
248	0x3d0cfdd7	0.034421768
249	0xbd7e81de	-0.06213557
250	0x3dbc1bc9	0.09184987
251	0x3c0b0067	0.008483983
252	0xbc3d214b	-0.011543582
253	0x3ce52594	0.02797202
254	0xbcf95e78	-0.030440554
255	0xbd56492b	-0.052315872

encoder.blocks.1.conv.0.bias f4 [32]
0	0x3ca016b4	0.019542076
1	0xbdd49291	-0.10379518
2	0x3d2cb3f8	0.04216382
3	0x3ceebc87	0.029142631
4	0x3cfd28d7	0.030903263
5	0x3d2093e8	0.039203554
6	0xbd1b0bab	-0.037852924
7	0x3cf3634a	0.02971043
8	0xbd653b84	-0.05596496
9	0xbca79fca	-0.020461936
10	0xbd8ea8e8	-0.0696581
11	0x3d274f83	0.040847313
12	0x3d3be027	0.045868065
13	0x3d6cb1c3	0.057786714
14	0x3d45e074	0.04830976
15	0x3dad4ca7	0.08461886
16	0xbd3bcd21	-0.045849923
17	0x3bf62c13	0.0075125783
18	0xbda01a12	-0.078174725
19	0x3d5e181a	0.054222204
20	0x3d204913	0.03913219
21	0x3c9821b1	0.018570753
22	0x394bdaf8	0.00019441161
23	0x3d002288	0.03128293
24	0xbc9a0722	-0.01880223
25	0x3babae6e	0.0052392995
26	0xbd9aeee2	-0.075650945
27	0xbda73f72	-0.08166398
28	0x3c45cbce	0.012072517
29	0x3d762601	0.060094837
30	0xbdaecd40	-0.08535242
31	0xbd200819	-0.039070223

encoder.blocks.1.conv.1.weight f4 [32]
0	0x3f8aafdc	1.0834918
1	0x3f81d1cd	1.0142151
2	0x3f5d3601	0.8641053
3	0x3f791e06	0.9731144
4	0x3f96c1ac	1.1777854
5	0x3f7c18d2	0.9847537
6	0x3f7785d5	0.96688586
7	0x3f87c3cc	1.0606627
8	0x3f84dd3c	1.0380015
9	0x3f72a2db	0.9477975
10	0x3f6f0ab2	0.93375695
11	0x3f77ab3b	0.9674565
12	0x3f6cb2b4	0.9246018
13	0x3f746e23	0.95480555
14	0x3f861aa6	1.0476882
15	0x3f7c0520	0.9844532
16	0x3f82be22	1.0214274
17	0x3f7a4494	0.9776089
18	0x3f75c75d	0.9600733
19	0x3f84b636	1.0368106
20	0x3f80c637	1.006049
21	0x3f849f9b	1.0361208
22	0x3f71b693	0.9441921
23	0x3f76694e	0.9625443
24	0x3f7f6e05	0.9977725
25	0x3f61fadc	0.88273406
26	0x3f73990b	0.951554
27	0x3f799188	0.9748769
28	0x3f721218	0.9455886
29	0x3f7b0e2b	0.98068494
30	0x3f6e2aa5	0.9303382
31	0x3f782d8d	0.96944505

encoder.blocks.1.conv.1.bias f4 [32]
0	0xbb03e7f1	-0.0020127262
1	0xbccece81	-0.025244953
2	0xbd45a36f	-0.048251566
3	0xbd45d8ba	-0.04830239
4	0xbe48ce24	-0.19609886
5	0x3cccff49	0.025024073
6	0x3d31e24c	0.043428704
7	0xbe31ae75	-0.17351706
8	0xbd52e842	-0.05149103
9	0xbd044244	-0.03228976
10	0xbd932357	-0.07184475
11	0x3c8007cd	0.01562872
12	0xbd5c357e	-0.05376195
13	0x3bc7ac53	0.0060935407
14	0x3d0c3f7f	0.034240242
15	0xbcc14882	-0.023594145
16	0xbcf189b0	-0.0294846
17	0xbdc57e91	-0.09643281
18	0xbd3f8da8	-0.046765953
19	0x3d212aa2	0.0393473
20	0x3dad9c0a	0.08477028
21	0x3ddce379	0.107855745
22	0xbd3c2eb6	-0.045942985
23	0x3ba92e67	0.0051630023
24	0xbd91e473	-0.07123651
25	0xbd25a9aa	-0.040445007
26	0xbd91a2f9	-0.07111163
27	0x3ced1829	0.028942185
28	0x3cf54dd9	0.029944347
29	0xbdbf7826	-0.09349088
30	0xbdb8a9b9	-0.09016747
31	0xbd5ceb18	-0.05393514

encoder.blocks.1.conv.1.running_mean f4 [32]
0	0x3d03be53	0.03216393
1	0x3e88eb51	0.26742032
2	0xbf83c96b	-1.0295843
3	0x3f1c79bf	0.6112327
4	0x3ee1b9f8	0.44087195
5	0xc011519f	-2.2706068
6	0xbfaa46d7	-1.3302869
7	0xbd1a0300	-0.037600517
8	0x3f9c9e96	1.2235897
9	0x3ecb6720	0.39727116
10	0x3f8223ca	1.0167172
11	0xbf0142cd	-0.50492555
12	0x3e0b3d2d	0.13597555
13	0x3f2027f3	0.6256096
14	0xc00e45d5	-2.2230122
15	0x3fecc544	1.8497701
16	0xbb3d1d86	-0.0028856709
17	0x3efabf72	0.48974186
18	0x3f9cb8ad	1.2243859
19	0xbfd41b77	-1.6570882
20	0xbff6c220	-1.9277992
21	0xc037aacb	-2.8697994
22	0x3e43bf0a	0.19115844
23	0xbea55b44	-0.32296193
24	0xbf094ec3	-0.53635806
25	0xbe31e9a6	-0.17374286
26	0x3ed1b78e	0.40960354
27	0xbfe7ef3b	-1.8119882
28	0xbf4ebfc9	-0.8076139
29	0x3f418686	0.7559589
30	0x3e1618b0	0.14657855
31	0x3fb770b0	1.4331264

encoder.blocks.1.conv.1.running_var f4 [32]
0	0x3f817750	1.0114536
1	0x3ec285f4	0.37992823
2	0x3ffdbc16	1.9823024
3	0x3f8955ca	1.0729306
4	0x3f439474	0.76398396
5	0x4083df30	4.1209946
6	0x407258c3	3.7866676
7	0x3f50cc5f	0.81561846
8	0x40093c94	2.1443224
9	0x3fc71647	1.5553674
10	0x3f80268c	1.0011764
11	0x3faa6150	1.3310947
12	0x3f1a21d2	0.60207856
13	0x3f834990	1.0256824
14	0x4081ea4e	4.0598516
15	0x401ff141	2.4991
16	0x3f961369	1.1724674
17	0x3ee4891b	0.44635853
18	0x3ff3fdd3	1.9061836
19	0x4009e6ce	2.1547122
20	0x406f4bcb	3.739001
21	0x40fc2a88	7.880192
22	0x3f6d7315	0.92753726
23	0x3f7a5399	0.9778381
24	0x3fc10497	1.5079526
25	0x3fd22d73	1.642012
26	0x400dca2c	2.2154646
27	0x40430aa9	3.0475256
28	0x4012b736	2.2924323
29	0x3ec9a86d	0.3938631
30	0x3fb7e24d	1.4365937
31	0x40366cf0	2.850399

encoder.blocks.1.conv.3.weight f4 [32, 32, 3, 3]
0	0x3da9f919	0.08299465
1	0x3db2e046	0.08734183
2	0x3ccc10e3	0.024910396
3	0x3d9e7de7	0.07738858
4	0x3d7dcab3	0.061960887
5	0x3d905f4d	0.07049427
6	0x3c0cf0d7	0.008602343
7	0x3cecc9be	0.028904792
8	0x3cee8313	0.029115235
9	0x3c9b0946	0.01892532
10	0x3dd64b95	0.10463635
11	0x3da8e7a2	0.082473055
12	0x3d455fa2	0.048186906
13	0x3da1edb6	0.07906668
14	0x3b0bc96b	0.0021329771
15	0x3e074dd1	0.13213278
16	0x3dff607c	0.12469575
17	0x3e08367a	0.13302031
18	0x3d4fb99a	0.050714113
19	0x3c159668	0.009130098
20	0x3d487d28	0.048947483
21	0x3c97b768	0.018520072
22	0x3d2fbceb	0.042904776
23	0xbcbbf21f	-0.0229426
24	0xbbe54f42	-0.0069979737
25	0xbd165949	-0.036706243
26	0x3d1edecd	0.038786698
27	0x3cea8682	0.028628591
28	0x3daf394c	0.085558504
29	0x3d6b1a32	0.05739803
30	0x3da2aba8	0.07942897
31	0xbc0dad08	-0.008647211
32	0x3d15eb55	0.036601383
33	0x3d83d580	0.06437206
34	0x3d477bf5	0.0487022
35	0x3dd92b68	0.10603982
36	0x3df51e0a	0.1196862
37	0x3e1fcfe0	0.15606642
38	0x3e0c07fe	0.13674924
39	0x3d0424e1	0.032261733
40	0x3e173b0a	0.14768615
41	0x3dc4334d	0.09580097
42	0x3d83ee7a	0.0644197
43	0x3df263d4	0.11835447
44	0x3daf2cd3	0.085534714
45	0xbd929688	-0.07157618
46	0xbd4a60e1	-0.049408797
47	0x3b6d12a3	0.0036174438
48	0xbca72fab	-0.020408472
49	0x3c266c61	0.0101576755
50	0xbcb92bdb	-0.02260392
51	0x3c709782	0.01468456
52	0xbd5d8a51	-0.054086987
53	0xbd978d72	-0.074000254
54	0x3d2c84a1	0.042118672
55	0xbc903082	-0.017601255
56	0xbd27b8ba	-0.040947653
57	0xbc4797d1	-0.012182192
58	0xbaed8c09	-0.0018123399
59	0xbbba0992	-0.0056774104
60	0x3ca8da61	0.020611944
61	0x3cd56e92	0.0260537
62	0xbb9ea189	-0.004841034
63	0x3d973789	0.07383639
64	0x3e089c49	0.13340868
65	0x3dbb49ba	0.091449216
66	0x3e2adccb	0.16685788
67	0x3e13783a	0.14401332
68	0x3d5882d9	0.05285916
69	0x3d429d91	0.04751355
70	0x3ddff59f	0.109355204
71	0x3dda8c96	0.10671346
72	0xbdf71ca0	-0.12066007
73	0xbdd9d2f9	-0.10635943
74	0xbd0d1235	-0.03444119
75	0xbdafcca5	-0.08583955
76	0xbdcca904	-0.09993175
77	0xbc30a7b9	-0.010782176
78	0xbd35c814	-0.044380262
79	0x3b382d68	0.0028103236
80	0xbdb839b6	-0.089953825
81	0xbdccbe90	-0.099972844
82	0x3cc02ac4	0.023457892
83	0xbd0e82bd	-0.03479265
84	0xbd75e9f4	-0.06003757
85	0x3bf734d1	0.007544138
86	0xbc88d8db	-0.016704967
87	0xbda6928e	-0.08133422
88	0xbd37c13a	-0.04486201
89	0x3cf7f9d0	0.030270487
90	0x3cbc5716	0.022990745
91	0x3b77e677	0.0037826577
92	0x3d9b87c0	0.07594252
93	0x3dbdaeed	0.0926188
94	0x3cb9872c	0.022647463
95	0x3d5823e8	0.052768618
96	0xbc9fa221	-0.019486489
97	0x3da0ae5e	0.07845758
98	0x3d783263	0.060594928
99	0x3d393fe1	0.045226935
100	0x3d369783	0.044578087
101	0x3d556001	0.05209351
102	0x3d913415	0.07090012
103	0x3c96515a	0.018349338
104	0x3dcb3153	0.09921517
105	0x3d208163	0.039185893
106	0x3c51ab8b	0.012797247
107	0x3d8ddf7b	0.06927391
108	0xbcd9a090	-0.02656582
109	0x3d3c66bf	0.045996424
110	0x3d7393da	0.059467174
111	0xbc8cf828	-0.017208174
112	0x3d009448	0.031391412
113	0xbd3d06c1	-0.04614902
114	0x3d659a4b	0.05605535
115	0x3d9918b9	0.074754186
116	0x3c999c5a	0.018751312
117	0xbc81361e	-0.015772875
118	0x3c3e7bc6	0.01162619
119	0xbc750eef	-0.014957174
120	0xbd8b3d7b	-0.06798836
121	0xbc585903	-0.013204816
122	0x3daa7121	0.08322359
123	0x3c158389	0.009125599
124	0x3d17e305	0.037081737
125	0xbd6599dc	-0.056054935
126	0x3d1f9132	0.03895683
127	0x3cd7521d	0.026284272
128	0x3d186f17	0.03721532
129	0xbd442788	-0.047889262
130	0xbd967461	-0.07346416
131	0xbcd5ff3d	-0.026122684
132	0x3d1eab54	0.03873761
133	0xbd84815b	-0.06469985
134	0xbd052b74	-0.032512143
135	0x3cb95da4	0.02262766
136	0xbd46ee0e	-0.04856687
137	0xbd5f0c7d	-0.05445527
138	0x3d71be6a	0.059019484
139	0x3c951ec4	0.018203147
140	0x3be7d919	0.0070754406
141	0xbc202446	-0.009774273
142	0x3d51c0f8	0.05120942
143	0x3d1dc188	0.038514644
144	0x3d9e967b	0.077435456
145	0x3d999ab7	0.07500213
146	0x3d8a33b1	0.067481406
147	0x3d5cb219	0.053880785
148	0x3dc8d3c7	0.09806018
149	0x3d7a910b	0.06117348
150	0x3defe6dd	0.117139556
151	0x3dd987ab	0.1062158
152	0x3d593007	0.053024318
153	0xbc7da219	-0.015480542
154	0xbba74489	-0.0051046056
155	0x3bced949	0.0063125235
156	0xbd0ab352	-0.03386242
157	0xbc256ef3	-0.010097253
158	0x3d5a9de0	0.053373218
159	0xbcca8dca	-0.024725813
160	0xbcb64a2a	-0.022252161
161	0xbbd76a25	-0.0065739327
162	0x3c18ba98	0.009321831
163	0xbb879fac	-0.0041389074
164	0xbd2e5d59	-0.042569492
165	0x3c2e0199	0.010620498
166	0x3c3e994b	0.011633228
167	0x3d94942c	0.07254824
168	0x3d443cd5	0.047909576
169	0x3bb6fc12	0.0055842483
170	0x3b2e11c3	0.002656088
171	0xbc5ef6e1	-0.013608665
172	0x3c9383b8	0.018007144
173	0x3dd5fbd5	0.10448424
174	0xb849ff97	-4.816017e-05
175	0x3ba2a815	0.0049638846
176	0x3c2d18e1	0.010565014
177	0x3d8f8a76	0.07008831
178	0x3c450598	0.012025259
179	0xba7ed8fd	-0.0009721665
180	0x3cf4dd82	0.02989078
181	0xbc2305de	-0.009950129
182	0xbd391086	-0.045181774
183	0xbd81de78	-0.06341261
184	0xba96fef2	-0.0011520071
185	0xbda41640	-0.08012056
186	0x3c481656	0.012212357
187	0xbd04db6f	-0.03243583
188	0xbd79b9f2	-0.060968347
189	0xbd0b0000	-0.033935547
190	0xbdbba936	-0.09163134
191	0xbcc7f102	-0.024406914
192	0x3c910333	0.01770172
193	0xbdb07f94	-0.086180836
194	0xbd539239	-0.05165312
195	0xbd048fcf	-0.03236371
196	0xbc10dce1	-0.008841724
197	0xbc99d6db	-0.018779209
198	0x3ce6d4bc	0.028177612
199	0x3db40979	0.08790869
200	0x3dafe4a6	0.08588533
201	0x3c01df6a	0.007926801
202	0x3da74bd5	0.08168761
203	0x3d4abae3	0.049494635
204	0x3c832e7a	0.016013373
205	0x3daba15d	0.08380387
206	0x3dfcb690	0.123395085
207	0xbc96ff2f	-0.018432228
208	0xbcd98159	-0.026550936
209	0x3b4b3a4a	0.0031010085
210	0x3aa1c40c	0.0012341752
211	0xbd1cbb54	-0.038264588
212	0x3d5393fb	0.051654797
213	0xbc21ccf1	-0.009875522
214	0xbd026173	-0.031831216
215	0xbb9a169d	-0.0047024027
216	0x3c042222	0.0080647785
217	0x3d7b4d25	0.061352868
218	0x3d833c74	0.06408015
219	0x37fe13f9	3.028846e-05
220	0x3c5ea590	0.013589278
221	0x3da0b101	0.07846261
222	0x3c8cb369	0.017175393
223	0x3d787c83	0.06066562
224	0x3c1499eb	0.0090699
225	0x3d0e46ac	0.034735367
226	0x3c21a6c1	0.009866417
227	0x3d1a6b14	0.037699774
228	0x3d904051	0.070435174
229	0x3dbeaa05	0.093097724
230	0x3d853edb	0.06506129
231	0x3d083523	0.0332538
232	0x3d0a7e4b	0.03381185
233	0x3c83ed63	0.016104406
234	0x3a8c2ff4	0.0010695443
235	0x3d442987	0.047891166
236	0xbcb50af8	-0.022099957
237	0xbc94ab85	-0.018148193
238	0x3d20151f	0.039082643
239	0xbce56ad4	-0.028005041
240	0x3cb47688	0.022029176
241	0xbcdbc735	-0.026828388
242	0x3d929aaa	0.07158406
243	0xbd17b2c2	-0.03703571
244	0xbc90ed8b	-0.017691394
245	0xbd3a90a4	-0.045548096
246	0xbd29028d	-0.0412622
247	0xbd9398c5	-0.07206873
248	0xbc99cc80	-0.018774271
249	0x3b833ca4	0.0040050317
250	0xbd06bcf6	-0.03289505
251	0xbdb41fc7	-0.087951235
252	0x3cfcdfcc	0.030868433
253	0x3d2b4aee	0.041819505
254	0xbbc610a2	-0.0060444633
255	0xbcd32cc7	-0.025778187

encoder.blocks.1.conv.3.bias f4 [32]
0	0x3d1108ea	0.03540889
1	0x3a03464f	0.000500773
2	0x3cea6745	0.028613696
3	0x3bf23363	0.0073913797
4	0x3d7d4ea0	0.06184256
5	0x3d1c4a9c	0.03815709
6	0xbd92d292	-0.07169069
7	0x3da24d92	0.079249516
8	0xbc5f89c5	-0.013643687
9	0x3c10464a	0.008805821
10	0xbc864661	-0.016390981
11	0xbd92110e	-0.07132159
12	0xbbb19ace	-0.0054200655
13	0xbd7b43dd	-0.061344016
14	0xb979e617	-0.00023832206
15	0x3d280709	0.041022334
16	0x3a6e7100	0.0009095818
17	0xbcee2dc5	-0.029074559
18	0x3cc5741b	0.024103215
19	0xbd7fb146	-0.06242492
20	0x3d88df7b	0.066832505
21	0xbbb9cc40	-0.0056701005
22	0xbc0fc941	-0.00877601
23	0x3cfc8c8e	0.03082874
24	0x3d6acac4	0.05732228
25	0xbcda48a8	-0.026645973
26	0xbc53c221	-0.012924702
27	0xbbcf979b	-0.0063352115
28	0x3d0ca2eb	0.03433506
29	0xbca141fe	-0.019684788
30	0x3c28657f	0.010278105
31	0x3b28d477	0.0025761405

encoder.blocks.1.conv.4.weight f4 [32]
0	0x3f8095f4	1.0045762
1	0x3f7018ce	0.9378785
2	0x3f829887	1.0202798
3	0x3f6e77be	0.9315146
4	0x3f8176ca	1.0114377
5	0x3f7cfd66	0.98824155
6	0x3f684360	0.90727806
7	0x3f8232db	1.017177
8	0x3f815453	1.0103859
9	0x3f790cb7	0.97285026
10	0x3f79aaed	0.9752644
11	0x3f8512da	1.0396378
12	0x3f7933a6	0.97344434
13	0x3f831ca2	1.0243113
14	0x3f708e91	0.9396754
15	0x3f7385ca	0.9512602
16	0x3f7e5fe0	0.99365044
17	0x3f804c79	1.0023338
18	0x3f8aa167	1.0830506
19	0x3f707131	0.93922716
20	0x3f6e635f	0.9312038
21	0x3f76fa05	0.9647525
22	0x3f8786b6	1.0587986
23	0x3f786d1f	0.97041506
24	0x3f8d6e01	1.1049196
25	0x3f86368c	1.0485396
26	0x3f6b719a	0.9197022
27	0x3f770384	0.9648974
28	0x3f822bb8	1.0169592
29	0x3f8fa93f	1.1223525
30	0x3f6f5b14	0.9349835
31	0x3f83e9a2	1.0305674

encoder.blocks.1.conv.4.bias f4 [32]
0	0xbe174bbf	-0.14774989
1	0xbdb5f8ea	-0.08885367
2	0xbdf0e834	-0.11763039
3	0xbcc9df67	-0.02464266
4	0x3d31c557	0.04340109
5	0xbcdbb7be	-0.026821014
6	0xbda54bb4	-0.0807108
7	0xbd90b500	-0.07065773
8	0xbcba2330	-0.022721857
9	0xbd048a9c	-0.03235875
10	0xbadf7ae4	-0.0017050174
11	0xbbad9b6f	-0.00529807
12	0xbd9e874b	-0.07740649
13	0x3c100048	0.00878913
14	0xbd523435	-0.05131932
15	0xbc2ced72	-0.010554658
16	0xbdf8f1ce	-0.121554956
17	0x3c8b6110	0.017014056
18	0xbde4e07b	-0.11175629
19	0xbb874e80	-0.004129231
20	0xbd01e717	-0.031714525
21	0xbb7096a8	-0.0036710892
22	0x3de46289	0.111516066
23	0xbd9b2c89	-0.07576854
24	0xbe44ecaa	-0.19230905
25	0xbe0001bd	-0.12500663
26	0xbd476d2a	-0.04868809
27	0xbd96093d	-0.07325981
28	0xbdf15e87	-0.11785608
29	0xbdb4cd82	-0.0882826
30	0xbe1dbcb0	-0.1540401
31	0x3d953bbb	0.07286783

encoder.blocks.1.conv.4.running_mean f4 [32]
0	0x3fa36f71	1.2768384
1	0xbf12af55	-0.57298785
2	0x40046bc5	2.0690777
3	0xbf2dea63	-0.6793577
4	0xbdaaa4db	-0.08332225
5	0xbfbd2bb1	-1.4778959
6	0xbfd5c08d	-1.6699387
7	0x3e9a7622	0.30168253
8	0xbf0fff12	-0.5624858
9	0x3f01bb0d	0.5067604
10	0xbf0a3364	-0.53984666
11	0xbf699c21	-0.9125386
12	0x3de18f5b	0.11013671
13	0xbfc3ff92	-1.5312369
14	0x3f3e6665	0.7437499
15	0xbf17e41a	-0.5933243
16	0x3fee5335	1.8619143
17	0xbfba77a8	-1.4567766
18	0x3fd17d38	1.6366339
19	0xc017dbb6	-2.372785
20	0xbfcfbee6	-1.6230133
21	0xc0113b6f	-2.2692525
22	0xc004f4fe	-2.0774531
23	0xbf2a571f	-0.66539186
24	0xbe9be15a	-0.30445367
25	0x3f96c2dd	1.1778218
26	0x3fcaa529	1.5831653
27	0xbf4f20fb	-0.809097
28	0x3fe09add	1.754726
29	0x3fd0a282	1.6299593
30	0x3faf7e1d	1.3710362
31	0xbfbafd2a	-1.460851

encoder.blocks.1.conv.4.running_var f4 [32]
0	0x408ebdb5	4.4606576
1	0x40352945	2.830644
2	0x40857fe4	4.1718616
3	0x4075c9d7	3.8404443
4	0x3f865fac	1.0497947
5	0x409a05a1	4.813187
6	0x3fd3bcc8	1.6541986
7	0x4068fbe3	3.640374
8	0x401ac360	2.4181747
9	0x3f9080df	1.1289328
10	0x400e73a4	2.2258081
11	0x401bf53a	2.4368424
12	0x4021803b	2.5234516
13	0x4035003a	2.8281388
14	0x40db632f	6.8558574
15	0x40157136	2.3350348
16	0x407c1c91	3.9392436
17	0x40315317	2.7706964
18	0x407c393e	3.9409938
19	0x403a49d8	2.910757
20	0x40af03ad	5.4691987
21	0x3fc4c702	1.5373232
22	0x40ae6450	5.449745
23	0x4032b204	2.7921152
24	0x40224763	2.535607
25	0x409e6d94	4.950876
26	0x4026c19e	2.6055675
27	0x40582190	3.3770485
28	0x408f9904	4.4874287
29	0x40692e1c	3.6434393
30	0x403a3b33	2.9098632
31	0x3fe1a691	1.7628957

encoder.blocks.1.skip.weight f4 [32, 16, 1, 1]
0	0xbe7972bc	-0.24360174
1	0x3d92fad0	0.07176745
2	0xbe2714c0	-0.16316509
3	0xbe13142e	-0.14363167
4	0xbe1e5952	-0.1546376
5	0x3c9f10a0	0.019417107
6	0x3d863744	0.0655351
7	0xbe229a8a	-0.15879264
8	0x3e2ea366	0.17054519
9	0xbe38886e	-0.18020794
10	0x3e2414d6	0.16023573
11	0x3e5a6218	0.21326482
12	0xbe2dcaf4	-0.16971952
13	0xbe5bf62e	-0.21480629
14	0x3dc03014	0.0938417
15	0xbd754998	-0.059884638
16	0x3dd976d4	0.10618368
17	0x3c13f9a0	0.009031683
18	0xbd3df0a0	-0.046372056
19	0xbda1a878	-0.07893461
20	0xbe60da9e	-0.21958396
21	0x3927d800	0.00016006827
22	0xbdabcaa8	-0.08388263
23	0x3e0c114a	0.1367847
24	0xbdeb53ac	-0.114905685
25	0xbe3772a6	-0.17914829
26	0xbd59e9b0	-0.053201377
27	0xbe2165a0	-0.15761423
28	0x3e2be9ae	0.1678836
29	0x3e5cf830	0.21579051
30	0xbe59a384	-0.21253783
31	0xbe239c8a	-0.15977684
32	0xbdd5e268	-0.10443574
33	0xbc559680	-0.01303637
34	0xbe7d1cc6	-0.24718007
35	0x3e2bbaac	0.16770428
36	0xbd8f73c8	-0.070045054
37	0xbe66a628	-0.22524321
38	0xbdeadc04	-0.11467746
39	0x3e7f213e	0.24915025
40	0xbd8b072c	-0.06788477
41	0xbdbb65d0	-0.091502786
42	0xbe0ccbc0	-0.137496
43	0xbcf168b0	-0.029468864
44	0x3ce65e40	0.028121114
45	0xbe529a74	-0.20566732
46	0xbd633398	-0.055469126
47	0x3e3d03b0	0.18458438
48	0xbcb61630	-0.022227377
49	0x3e357456	0.1772016
50	0x3cc43550	0.023951203
51	0x3e150e38	0.14556205
52	0x3d6b7c58	0.05749163
53	0x3e3cd57e	0.18440816
54	0x3d332c80	0.04374361
55	0xbe5812ec	-0.21100968
56	0x3d502928	0.0508205
57	0xbdfd9854	-0.1238257
58	0xbe26dab2	-0.16294363
59	0x3e232d1a	0.15935174
60	0xbd8e4418	-0.069465816
61	0x3d3dbb48	0.046321183
62	0x3d158898	0.03650722
63	0x3cb72ce0	0.022360265
64	0xbc7425a0	-0.014901549
65	0x3e76db4c	0.24107093
66	0xbdf7d74c	-0.121016115
67	0x3e5c5876	0.2151812
68	0xbce9c290	-0.028535157
69	0x3e2e848a	0.17042747
70	0xbdc45fb8	-0.095885694
71	0xbde7bba0	-0.113150835
72	0x3e2a164e	0.16610071
73	0x3d63bbb8	0.055598944
74	0x3d8485a8	0.064708054
75	0x3e12ee62	0.14348748
76	0x3e0cc64c	0.13747519
77	0xbe247446	-0.1605998
78	0x3e629ce8	0.22130167
79	0xbe29593a	-0.16537943
80	0x3e55f7f6	0.20895371
81	0xbe736a8c	-0.23771113
82	0x3e1c96be	0.15291879
83	0x3d2fc100	0.04290867
84	0x3e0d1e60	0.13781118
85	0x3deb39ec	0.11485657
86	0xbe77036a	-0.24122396
87	0xbe12112e	-0.14264366
88	0x3ced7ad0	0.028989226
89	0xbda1586c	-0.07878193
90	0x3e03db94	0.12876731
91	0xbd4bee68	-0.04978791
92	0x3e1a1828	0.15048277
93	0xbda5db44	-0.08098462
94	0xbca8ade0	-0.020590723
95	0xbced40c0	-0.02896154
96	0xbb793e00	-0.003803134
97	0xbe1a728a	-0.15082756
98	0x3d5c6fc0	0.05381751
99	0x3e1c90d4	0.15289623
100	0x3d28ed98	0.041242212
101	0xbcd6b250	-0.026208073
102	0xbddc7da8	-0.107661545
103	0xbe3df508	-0.18550503
104	0x3e226620	0.1585927
105	0x3d99f958	0.07518262
106	0xbdfc28bc	-0.12312457
107	0x3e5fbe6e	0.21849987
108	0x3e565b72	0.20933321
109	0x3e6830f6	0.22674927
110	0x3dd86ca4	0.105675966
111	0xbe322c8c	-0.17399806
112	0x3e7eda38	0.24887931
113	0x3d1dfd70	0.038571775
114	0xbe11b1b4	-0.14227945
115	0x3e67dc3e	0.2264261
116	0x3cd9d5d0	0.026591212
117	0xbdab15c0	-0.08353758
118	0xbc350520	-0.011048585
119	0x3da4d3ac	0.08048186
120	0x3e62722a	0.22113863
121	0xbe4e7dac	-0.20165128
122	0x3e37df0a	0.17956176
123	0xbe5301a2	-0.20606092
124	0xbd80b4bc	-0.06284472
125	0xbdd7b980	-0.10533428
126	0xbe1e6e52	-0.15471771
127	0x3c2b6c80	0.01046288
128	0xbd019768	-0.031638533
129	0x3e73d4d8	0.23811662
130	0x3d97bc60	0.074089766
131	0x3e33c262	0.1755462
132	0x3e22e514	0.15907699
133	0xbd39b710	-0.045340598
134	0x3e629f58	0.22131097
135	0xbe4a8afc	-0.19779581
136	0x3e0af6b0	0.13570666
137	0x3dcb6afc	0.09932515
138	0xbd8e8c94	-0.06960407
139	0xbdfd4178	-0.12366003
140	0x3caeec20	0.021352828
141	0xbe249804	-0.16073614
142	0xbcbe7500	-0.02324915
143	0x3e04d7da	0.12972966
144	0x3e2ebbc0	0.17063808
145	0x3e6f70e0	0.23382902
146	0x3dc2ad9c	0.095057696
147	0x3e4c319e	0.19940802
148	0xbb97b1c0	-0.0046293437
149	0x3e4eed8e	0.20207807
150	0x3e05ddc0	0.13072872
151	0xbcb37340	-0.021905541
152	0xbe0755e0	-0.13216352
153	0xbd5115b0	-0.051046073
154	0x3ccc0230	0.024903387
155	0x3c3f8220	0.011688739
156	0x3d681cc8	0.056668073
157	0x3e7988b0	0.24368548
158	0xbe25373c	-0.16134351
159	0xbe406688	-0.18789113
160	0x3e2d8568	0.16945422
161	0x3e3b45b8	0.18288314
162	0x3bbd1500	0.0057703257
163	0x3e1d1642	0.15340522
164	0xbd3deea0	-0.04637015
165	0xbdeb5d00	-0.11492348
166	0x3e37bc3e	0.17942902
167	0xbe707d40	-0.23485279
168	0xbe226688	-0.15859425
169	0x3e5144ec	0.20436448
170	0x3cd52ad0	0.026021391
171	0x3dc6bb0c	0.09703645
172	0xbe1745c0	-0.14772701
173	0x3e405dee	0.18785831
174	0xbe1429cc	-0.14469069
175	0x3e715992	0.23569325
176	0x3e58f572	0.2118738
177	0x3d925544	0.071451694
178	0x3e54b380	0.20771599
179	0x3d5191e8	0.051164538
180	0xbdb91ff8	-0.09039301
181	0xbe2d35e6	-0.16915092
182	0x3e60ee1a	0.21965829
183	0xbd61ac58	-0.055096
184	0x3e4b77d0	0.19869924
185	0xbe7eb3bc	-0.2487325
186	0x3e18c9cc	0.1492073
187	0x3cad8470	0.021181315
188	0xbdbd9c08	-0.09258276
189	0x3e310400	0.17286682
190	0x3d4892f8	0.048968285
191	0xbe17edc8	-0.148368
192	0x3e150bee	0.14555332
193	0xbdb4f688	-0.088360846
194	0x3d994230	0.074833274
195	0xbda00dac	-0.07815108
196	0x3db228b8	0.08699173
197	0xbda0b408	-0.07846838
198	0xbdb44f00	-0.088041306
199	0xbc26e3c0	-0.010186136
200	0xbe4d1e6e	-0.20031139
201	0x3e08a172	0.13342836
202	0xbdf392c4	-0.11893228
203	0xbc3cfc60	-0.01153478
204	0xbe2384d4	-0.15968639
205	0x3d5db820	0.054130673
206	0xbdd58c00	-0.104270935
207	0xbe799f1e	-0.24377105
208	0x3e05ae4c	0.1305477
209	0x3dc548d0	0.096330285
210	0x3e6a76f8	0.22896945
211	0xbe080cda	-0.13286152
212	0x3e756f54	0.2396825
213	0x3e35d23a	0.17755976
214	0xbe3b9932	-0.18320158
215	0x3d8bba08	0.06822592
216	0x3e40b94a	0.18820682
217	0xbe12dde4	-0.14342457
218	0x3dcc9f38	0.09991306
219	0x3e66a9fe	0.22525784
220	0x3db6f8b4	0.08934155
221	0x3dca98c8	0.09892422
222	0x3e1a723a	0.15082636
223	0xbda3e2a4	-0.08002213
224	0x3e5222e0	0.20521116
225	0xbd926b04	-0.07149318
226	0x3e4eadae	0.20183441
227	0x3e4b94e0	0.1988101
228	0xbce389e0	-0.027775705
229	0xbd9039d4	-0.0704228
230	0xbdbd5444	-0.09244588
231	0xbe1d5d64	-0.15367657
232	0xbdaff8f8	-0.08592409
233	0x3db24f9c	0.087065905
234	0xbd566958	-0.052346557
235	0x3dbe6cb4	0.09298077
236	0xbd95ab80	-0.07308102
237	0x3d128c18	0.035778135
238	0xbe05f366	-0.1308113
239	0xbe26205a	-0.16223279
240	0xbe2010d8	-0.15631425
241	0xbd960664	-0.07325438
242	0xbded7700	-0.11594963
243	0xbd158be8	-0.036510378
244	0x3e1e1fb6	0.15441784
245	0xbe40751a	-0.1879467
246	0xbd7be5b0	-0.061498344
247	0x3dca6cdc	0.098840445
248	0x3baaee80	0.0052164197
249	0xbc4887a0	-0.012239367
250	0x3e276bb6	0.16349682
251	0xbde19e5c	-0.11016533
252	0x3e4ccd06	0.20000085
253	0xbcfee790	-0.031116277
254	0x3e380dc2	0.17973998
255	0x3cac48d0	0.021030813

encoder.blocks.1.skip.bias f4 [32]
0	0xbddf7640	-0.10911226
1	0x3df0eeec	0.11764321
2	0xbc79d960	-0.01524958
3	0xbe1e449a	-0.15455857
4	0x3bc5eb40	0.006040007
5	0x3dc57ff4	0.09643546
6	0x3ca89140	0.020577073
7	0x3c60bfe0	0.013717622
8	0x3d751730	0.059836566
9	0x3e1c674e	0.15273783
10	0xbc7d1e80	-0.015449166
11	0x3d9f9cc0	0.077935696
12	0x3d9c0fd8	0.076202095
13	0x3dc2d9e4	0.095142156
14	0x3e07122a	0.13190523
15	0xbd75f9e8	-0.060052782
16	0xbda0f4ec	-0.07859215
17	0x3e4d62ea	0.20057264
18	0x3da9267c	0.082592934
19	0x3d26e188	0.040742427
20	0xbe3ad752	-0.182462
21	0x3c6796e0	0.0141350925
22	0xbe43106a	-0.1904923
23	0x3e154a34	0.14579087
24	0x3e28abc6	0.16471776
25	0x3e5b90a4	0.21441895
26	0x3e098c96	0.13432536
27	0x3dccc1cc	0.09997901
28	0xbcb2d0f0	-0.021828145
29	0x3e6e27ca	0.23257366
30	0xbe75c1ca	-0.23999706
31	0xbcc92570	-0.024553984
