toyshapes/pinets_ensemble/ensemble_30/model_9.pth (torch, 466407 bytes, 71 tensors)

encoder.blocks.0.conv.0.weight f4 [16, 1, 3, 3]
0.077136345 -0.07780291 -0.082684904 0.22594759 0.44302228 0.32033408 -0.29526195 0.0902537
-0.20798223 -0.028710032 0.3178076 0.060592648 -0.2340004 -0.19423705 -0.053164408 0.17755641
-0.016123904 -0.13896374 -0.03158646 0.021102984 0.11526182 0.24708092 0.40316018 0.2068516
-0.045829915 -0.32348195 0.18841878 0.14418551 0.26354355 -0.048618563 0.3325546 0.06870417
0.31154236 0.04784039 -0.18801428 -0.18085636 -0.16180664 0.18956423 0.28209826 -0.14649807
0.33334908 -0.27915734 0.059657615 0.04444637 -0.27864513 0.055315565 -0.34157658 0.1062386
0.07624724 -0.42609885 0.010737719 0.0443384 0.08090318 0.14013027 0.14599498 -0.15982006
0.015543461 0.044996932 -0.19714433 0.1860103 -0.16413864 0.21066047 -0.06781258 0.2515825
0.06973366 -0.2720066 0.06734446 0.008369227 -0.10804231 0.40330967 0.15256903 -0.0015207588
-0.45027074 0.23167188 -0.25807652 -0.03555262 0.19434747 -0.20353697 0.0982271 0.39138377
-0.006854109 0.062248874 -0.18372741 -0.29343557 0.0062359306 0.40050635 0.09038292 -0.16944583
0.34186637 0.14132254 0.42306688 -0.2894456 -0.08192388 0.1956368 -0.1402281 -0.07921871
0.3804774 -0.14949414 -0.16880961 0.05817538 0.08216098 0.3008407 -0.202045 -0.015701478
-0.26970184 -0.030592749 0.024509607 -0.19075319 0.20535356 -0.12449279 -0.16469505 -0.039021444
-0.06721952 -0.042524412 0.14827368 0.2478099 0.046561085 0.25071678 -0.11606664 0.057970718
-0.44642562 0.18051864 -0.036201805 0.030094989 -0.2906239 0.22359833 0.030765515 0.1407068
0.33751422 -0.25449464 0.38933748 -0.13936493 -0.0052633253 -0.06550574 -0.24072602 0.35854292
0.07501176 -0.2645027 0.13001035 0.13743609 0.00041222948 0.07860333 -0.39567778 0.15830079
00000000: a9f9 9d3d 2257 9fbd b456 a9bd ce5e 673e
00000010: d1d3 e23e d402 a43e 932c 97be efd6 b83d
00000020: 4bf9 54be 4d31 ebbc aeb7 a23e ff2f 783d
00000030: cd9d 6fbe 14e6 46be ecc2 59bd 59d1 353e
00000040: 4716 84bc 834c 0ebe ce60 01bd 2ae0 ac3c
00000050: 640e ec3d c802 7d3e 036b ce3e e8d0 533e
00000060: 26b8 3bbd 6d9f a5be daf0 403e 5ea5 133e
00000070: 2eef 863e 4224 47bd 9944 aa3e c6b4 8c3d
00000080: 7b82 9f3e 49f4 433d d186 40be 6932 39be
00000090: a4b0 25be 201d 423e 2f6f 903e 9703 16be
000000a0: bbac aa3e b6ed 8ebe 8b5b 743d 660d 363d
000000b0: 93aa 8ebe 9392 623d 20e3 aebe a093 d93d
000000c0: 8327 9c3d a129 dabe 42ed 2f3c 2f9c 353d
000000d0: 91b0 a53d 4f7e 0f3e b57f 153e dfa7 23be
000000e0: 00aa 7e3c b44e 383d 34e0 49be 7c79 3e3e
000000f0: f613 28be 61b7 573e 52e1 8abd 6ccf 803e
00000100: 85d0 8e3d 7344 8bbe e4eb 893d 151f 093c
00000110: 4945 ddbd 9b7e ce3e 0e3b 1c3e 3354 c7ba
00000120: e389 e6be 653b 6d3e 9b22 84be a09f 11bd
00000130: 0603 473e ff6b 50be 4a2b c93d 7463 c83e
00000140: 6f98 e0bb adf8 7e3d 0a23 3cbe 303d 96be
00000150: c756 cc3b 2b0f cd3e ae1a b93d 3583 2dbe
00000160: 1c09 af3e dbb6 103e 399c d83e 3732 94be
00000170: b5c7 a7bd 0355 483e f497 0fbe 6b3d a2bd
00000180: efcd c23e fe14 19be 6ddc 2cbe 4f49 6e3d
00000190: 0444 a83d cb07 9a3e e2e4 4ebe 63a0 80bc
000001a0: 5c16 8abe a59d fabc 5fc8 c83c ce54 43be
000001b0: 3448 523e 13f6 febd d2a5 28be f3d4 1fbd
000001c0: 63aa 89bd 142e 2ebd 0ed5 173e e1c1 7d3e
000001d0: d6b6 3e3d f35d 803e 59b4 edbd b472 6d3d
000001e0: e691 e4be e1d9 383e 5848 14bd c489 f63c
000001f0: a8cc 94be f6f6 643e f607 fc3c 7215 103e
00000200: aace ac3e 1f4d 82be 3e57 c73e aeb5 0ebe
00000210: f977 acbb e027 86bd e280 76be f092 b73e
00000220: c49f 993d e66c 87be 6f21 053e 0cbc 0c3e
00000230: 8120 d839 c8fa a03d 4796 cabe 9a19 223e

encoder.blocks.0.conv.0.bias f4 [16]
0.20798571 -0.121399924 -0.018285695 0.017305104 0.0044830753 -0.20027311 0.14361575 0.10622389
-0.046008263 0.2572813 -0.1224309 -0.2001906 0.06793313 -0.33391684 -0.30027953 -0.16492686
00000000: 35fa 543e 86a0 f8bd e2cb 95bc 6fc3 8d3c
00000010: c3e6 923b 6514 4dbe 0210 133e e98b d93d
00000020: 2973 3cbd 60ba 833e 0dbd fabd c4fe 4cbe
00000030: 8620 8b3d 26f7 aabe 3dbe 99be 96e2 28be

encoder.blocks.0.conv.1.weight f4 [16]
0.8653564 1.1082059 0.94077736 0.91340935 0.81502104 0.94255286 1.157864 0.86359864
1.0184803 1.184572 1.1349441 1.02943 0.979014 0.9853258 1.0477809 0.9001581
00000000: ff87 5d3f b1d9 8d3f c9d6 703f 32d5 693f
00000010: 38a5 503f 254b 713f e334 943f cd14 5d3f
00000020: 905d 823f 0ea0 973f d945 913f 5dc4 833f
00000030: a9a0 7a3f 503e 7c3f af1d 863f c370 663f

encoder.blocks.0.conv.1.bias f4 [16]
0.03367069 0.044183355 0.102464445 0.126525 -0.06740439 0.02966925 0.010379348 0.058174122
0.12831368 0.08143134 -0.016732013 0.01715291 0.045363735 0.068820976 0.08304402 0.120017916
00000000: 47ea 093d 9bf9 343d e1d8 d13d c58f 013e
00000010: 500b 8abd ed0c f33c 240e 2a3c fd47 6e3d
00000020: a964 033e 79c5 a63d 9311 89bc 4284 8c3c
00000030: 53cf 393d 03f2 8c3d fc12 aa3d f4cb f53d

encoder.blocks.0.conv.1.running_mean f4 [16]
0.45467922 -0.18587643 0.37377852 0.40612188 0.036117014 -0.3445134 0.14509863 0.3731075
-0.07898863 0.4583838 -0.06168136 -0.3344827 0.17312633 -0.43087244 -0.22432694 -0.03236808
00000000: b7cb e83e 6456 3ebe e65f bf3e 35ef cf3e
00000010: 6fef 133d 0f64 b0be bc94 143e f207 bf3e
00000020: cac4 a1bd 48b1 ea3e 98a5 7cbd 5141 abbe
00000030: 0748 313e 509b dcbe f6b5 65be 6494 04bd

encoder.blocks.0.conv.1.running_var f4 [16]
0.014805427 0.0027892122 0.028677762 0.029112741 0.0034700169 0.006489527 0.00045871205 0.019416863
0.008191339 0.011707124 0.0112667065 0.0060631507 0.004708831 0.0035984141 0.005976822 0.0070455493
00000000: 7692 723c 37cb 363b a0ed ea3c d87d ee3c
00000010: 3969 633b 19a6 d43b 4a7f f039 1d10 9f3c
00000020: f734 063c 3dcf 3f3c fe97 383c 65ad c63b
00000030: 8a4c 9a3b 5fd3 6b3b 38d9 c33b 5ade e63b

encoder.blocks.0.conv.3.weight f4 [16, 16, 3, 3]
-0.11289456 -0.12270273 -0.039502293 -0.04895482 -0.058046643 -0.04321566 0.019447489 0.06789261
0.004365262 0.12295795 0.20381445 0.13617705 -0.008201422 0.11736446 0.23144272 -0.069683254
-0.042863224 0.0409943 0.033743363 0.03304814 -0.08308886 -0.09768029 -0.12721865 -0.10502501
-0.009879781 -0.058686163 0.021199666 -0.09749041 0.0008229041 0.039187763 -0.0041449186 -0.020807778
-0.121151306 -0.06347272 -0.043517955 0.016814455 -0.036522165 -0.046302192 -0.12985756 0.0069443816
-0.13431552 -0.00675784 -0.031239534 -0.06500619 -0.0042124353 0.008753791 -0.042456135 -0.13768335
-0.0334107 0.05896778 0.05398378 0.05903243 0.010233646 -0.002478631 0.11099759 -0.007785962
0.15889232 0.016941927 0.13952956 0.11537786 0.15404044 0.0018380806 0.20500103 0.021437785
-0.111740634 -0.25121662 0.038565528 0.04044407 -0.00039792352 0.12267339 -0.035786424 0.12819935
0.10552387 -0.035542686 -0.11917348 0.065884076 0.039469212 -0.11328712 -0.019687941 0.09476441
0.15206431 0.012917984 -0.12979919 -0.11007677 0.16734707 0.18848124 -0.0478414 0.23468167
0.24516575 0.16972175 0.090845175 0.023114383 -0.028200006 0.16285223 -0.033336505 -0.03641821
0.11721127 0.023102278 0.030906094 0.17492841 0.18468691 0.15442224 0.06707113 -0.025261108
-0.02071794 -0.09949601 0.024392197 -0.050279524 0.021111093 -0.020339156 -0.0022929278 0.059621535
0.097309865 0.054412868 0.13442394 0.05407082 0.1465842 -0.039807092 -0.10167883 0.03993421
-0.08686425 -0.14289717 0.077705026 -0.07679432 -0.056495354 -0.117851056 0.022950852 0.14976612
0.036056686 0.11121051 -0.025165483 0.039267175 -0.054158572 0.0076545523 0.021549203 -0.079603136
-0.053883497 -0.100882865 0.024034576 -0.16985574 -0.022371978 0.0099587785 -0.08749994 -0.12651147
0.046116706 0.0104861865 -0.06413823 0.042226613 -0.03915144 -0.07043379 0.06952656 0.024291558
0.023973836 0.1864662 0.20465752 0.13371517 0.036707647 0.07273207 0.2580017 -0.04903883
-0.007050563 -0.07603185 -0.048444737 -0.008928024 -0.101746 0.042739194 -0.014681301 0.03726216
-0.065006666 0.045940213 -0.028809652 -0.09957938 -0.10582001 -0.039953858 -0.079701155 0.03438221
-0.03121667 0.039369922 0.032066867 -0.031471156 0.049301676 -0.057588607 -0.051249135 -0.08802037
-0.10405432 -0.05180856 0.07552515 -0.09103561 0.03631665 -0.047133245 -0.11792177 -0.09196663
-0.0013474398 -0.060480762 -0.043531593 0.023708845 -0.042083915 0.021152332 0.06919924 0.09108972
0.023151135 0.1410652 0.09915204 0.1120064 0.065791115 0.120516255 0.08491183 0.07961103
-0.008798711 -0.07222558 0.024747595 0.017395664 0.019352807 -0.01863559 0.041171208 0.024657292
0.12823586 0.0384429 -0.039691344 0.015119257 0.1186971 0.05509645 0.10170051 -0.024917977
0.12920581 0.15454872 0.1160809 -0.016178241 0.35488382 0.26307493 0.23075095 0.27683106
0.20073994 0.2785866 -0.091184326 0.1264719 -0.093746334 -0.0916257 -0.011142105 0.004437161
-0.15385246 0.08592875 -0.05819982 0.09338256 0.07032934 0.104669824 0.0093804 0.05468655
0.004857135 -0.042626075 -0.20242417 -0.14736655 -0.04380849 0.010904459 -0.0023654941 0.07491453
00000000: 4335 e7bd 924b fbbd 28cd 21bd d984 48bd
00000010: 51c2 6dbd e702 31bd 5750 9f3c 480b 8b3d
00000020: 790a 8f3b 61d1 fb3d bcb4 503e ff71 0b3e
00000030: 425f 06bc c75c f03d 52ff 6c3e 18b6 8ebd
00000040: 5991 2fbd a4e9 273d 7b36 0a3d 7d5d 073d
00000050: 7e2a aabd 9b0c c8bd 9b45 02be 5a17 d7bd
00000060: cede 21bc e760 70bd ecaa ad3c 0da9 c7bd
00000070: 29b8 573a 5983 203d 19d2 87bb 1375 aabc
00000080: 2d1e f8bd fcfd 81bd e23f 32bd 78be 893c
00000090: 4498 15bd 5ea7 3dbd 61f9 04be b28d e33b
000000a0: 028a 09be df70 ddbb 0dea ffbc f721 85bd
000000b0: 7808 8abb 106c 0f3c 7ce6 2dbd ddfc 0cbe
000000c0: a8d9 08bd 3388 713d 191e 5d3d fdcb 713d
000000d0: 06ab 273c 8770 22bb b452 e33d 6221 ffbb
000000e0: abb4 223e ccc9 8a3c d6e0 0e3e 3a4b ec3d
000000f0: c7bc 1d3e c0eb f03a caeb 513e 4b9e af3c
00000100: 46d8 e4bd 779f 80be e3f6 1d3d aea8 253d
00000110: 64a0 d0b9 303c fb3d c994 12bd b146 033e
00000120: e61c d83d 3595 11bd 3a11 f4bd 3bee 863d
00000130: 78aa 213d 1403 e8bd 9b48 a1bc d813 c23d
00000140: bfb6 1b3e f4a5 533c 14ea 04be ee6f e1bd
00000150: 085d 2b3e 3a01 413e 58f5 43bd 6450 703e
00000160: bb0c 7b3e 8acb 2d3e 090d ba3d 605a bd3c
00000170: b303 e7bc bcc2 263e dc8b 08bd 432b 15bd
00000180: 760c f03d fd40 bd3c c72e fd3c 6f20 333e
00000190: 911e 3d3e dd20 1e3e 975c 893d 62f0 cebc
000001a0: abb8 a9bc 90c4 cbbd 25d2 c73c e7f1 4dbd
000001b0: 2cf1 ac3c 4d9e a6bc f244 16bb b635 743d
000001c0: 654a c73d 07e0 5e3d 6ea6 093e 5d79 5d3d
000001d0: 2b1a 163e c30c 23bd fe3c d0bd 0e92 233d
000001e0: e2e5 b1bd a353 12be d023 9f3d 5746 9dbd
000001f0: ac67 67bd e55b f1bd 6d03 bc3c 4a5c 193e
00000200: 2db0 133d 56c2 e33d d827 cebc 9ed6 203d
00000210: 61d5 5dbd 0ad3 fa3b f487 b03c f806 a3bd
00000220: f1b4 5cbd ad9b cebd 29e4 c43c aaee 2dbe
00000230: 7045 b7bc 252a 233c 2b33 b3bd 398c 01be
00000240: dfe4 3c3d 41ce 2b3c e85a 83bd d0f5 2c3d
00000250: 435d 20bd 973f 90bd f163 8e3d 17ff c63c
00000260: c764 c43c fff0 3e3e be91 513e a1ec 083e
00000270: c25a 163d 8df4 943d cc18 843e f1dc 48bd
00000280: 6908 e7bb 96b6 9bbd fd6d 46bd d946 12bc
00000290: 3560 d0bd 4b0f 2f3d d789 70bc 35a0 183d
000002a0: 3722 85bd ce2b 3c3d 3802 ecbc 46f0 cbbd
000002b0: 29b8 d8bd a8a6 23bd 5c3a a3bd 5cd4 0c3d
000002c0: 1aba ffbc 5b42 213d 8c58 033d e6e7 00bd
000002d0: 8ef0 493d 08e2 6bbd 9dea 51bd 0644 b4bd
000002e0: 6e1a d5bd 3635 54bd eeac 9a3d e170 babd
000002f0: c5c0 143d ca0e 41bd f880 f1bd 0059 bcbd
00000300: 949c b0ba adba 77bd 2f4e 32bd 0d39 c23c
00000310: 2f60 2cbd a847 ad3c 55b8 8d3d 3f8d ba3d
00000320: 73a7 bd3c 6573 103e 3a10 cb3d 9d63 e53d
00000330: 7ebd 863d 3ad1 f63d 41e6 ad3d 1c0b a33d
00000340: 7828 10bc 01eb 93bd 78bb ca3c 5a81 8e3c
00000350: c789 9e3c aaa9 98bc 24a3 283d 17fe c93c
00000360: 4350 033e 4d76 1d3d 6493 22bd c3b6 773c
00000370: 7717 f33d d1ac 613d 5b48 d03d c920 ccbc
00000380: 874e 043e 0542 1e3e d3bb ed3d 3b88 84bc
00000390: 55b3 b53e c2b1 863e fa49 6c3e cdbc 8d3e
000003a0: c58e 4d3e e7a2 8e3e d9be babd da81 013e
000003b0: 14fe bfbd 41a6 bbbd 608d 36bc 9b65 913b
000003c0: 808b 1dbe 6afb af3d ef62 6ebd 5b3f bf3d
000003d0: d408 903d 225d d63d 40b0 193c 01ff 5f3d
000003e0: 9a28 9f3b ae98 2ebd 4848 4fbe 42e7 16be
000003f0: 8870 33bd 9ea8 323c 6806 1bbb ca6c 993d

encoder.blocks.0.conv.3.bias f4 [16]
-0.01070068 -0.034831855 0.12370274 -0.0010930444 0.0054100617 -0.056172833 -0.097517945 0.052065477
0.078797095 0.08694409 0.028940003 0.062802844 0.010887436 -0.056037474 0.0066452366 0.042362213
00000000: e851 2fbc d9ab 0ebd dd57 fd3d 7c44 8fba
00000010: e346 b13b 7c15 66bd 7db7 c7bd 9c42 553d
00000020: 5f60 a13d be0f b23d 9613 ed3c c79e 803d
00000030: 3761 323c 8d87 65bd 49c0 d93b 0084 2d3d

encoder.blocks.0.conv.4.weight f4 [16]
1.1758745 1.0745913 1.0743172 0.8776433 1.0129036 1.0126822 0.76447105 0.9895196
0.8557491 1.1261653 1.0626396 0.93354076 1.0432165 1.1076232 0.95598745 0.88955957
00000000: 0e83 963f 358c 893f 3a83 893f 3bad 603f
00000010: d3a6 813f 929f 813f 60b4 433f 2851 7d3f
00000020: 5f12 5b3f 2f26 903f 9304 883f 87fc 6e3f
00000030: 1e88 853f 99c6 8d3f 98bb 743f 2dba 633f

encoder.blocks.0.conv.4.bias f4 [16]
-0.031547274 -0.054912698 -0.001720953 -0.023289783 0.079287484 -0.05607011 -0.11796186 0.014270848
-0.079137474 -0.10602062 -0.099551074 -0.021045461 0.09708595 -0.003281151 0.016210286 -0.009556154
00000000: b737 01bd 23ec 60bd 9a91 e1ba 37ca bebc
00000010: 7a61 a23d c6a9 65bd fd95 f1bd 46d0 693c
00000020: d412 a2bd 5721 d9bd 6fe1 cbbd 8867 acbc
00000030: 00d5 c63d 9408 57bb 6fcb 843c 6a91 1cbc

encoder.blocks.0.conv.4.running_mean f4 [16]
0.49879077 1.286108 0.08308073 -3.5623035 -0.2492664 -1.5209944 -3.4529696 0.087903194
-3.495052 -1.1241629 1.2889904 0.06628992 -0.31792405 -0.21049884 -1.8860744 -0.76986235
00000000: 8161 ff3e 309f a43f 3b26 aa3d c8fc 63c0
00000010: b13f 7fbe f2af c2bf 74fd 5cc0 9706 b43d
00000020: efae 5fc0 92e4 8fbf a3fd a43f 02c3 873d
00000030: f1c6 a2be 028d 57be e36a f1bf b315 45bf

encoder.blocks.0.conv.4.running_var f4 [16]
1.5902815 2.229613 0.6856625 6.270771 4.139225 1.5253053 5.1402407 2.6811159
5.3035493 1.0375841 2.879472 5.059653 4.7331944 0.92087847 5.0254908 2.1551192
00000000: 588e cb3f fbb1 0e40 9487 2f3f 28aa c840
00000010: 8874 8440 343d c33f da7c a440 6797 2b40
00000020: adb6 a940 8ecf 843f 4549 3840 ade8 a140
00000030: 5476 9740 b1be 6b3f d2d0 a040 79ed 0940

encoder.blocks.0.skip.weight f4 [16, 1, 1, 1]
-0.6901878 0.7174628 -0.35488176 0.024520397 0.0743767 0.898484 0.11616242 -0.010866523
0.3859539 0.908836 -0.6977873 0.76685107 0.89981234 -0.8371316 -0.06518197 0.29381454
00000000: 26b0 30bf a4ab 373f 10b3 b5be 00df c83c
00000010: d052 983d 0c03 663f 90e6 ed3d 8009 32bc
00000020: c09b c53e 7aa9 683f 30a2 32bf 5a50 443f
00000030: 1a5a 663f 424e 56bf 207e 85bd dc6e 963e

encoder.blocks.0.skip.bias f4 [16]
0.103659034 -0.6134025 0.8807558 0.6049634 -0.18560648 -0.8529699 -0.8766204 0.17904651
0.059934855 -0.6340555 0.11970425 0.96582985 0.9281992 -0.35433424 -0.12548852 0.3118335
00000000: 304b d43d f207 1dbf 3679 613f e2de 1a3f
00000010: a00f 3ebe 3c5c 5abf 326a 60bf f857 373e
00000020: 407e 753d 7651 22bf 8027 f53d a040 773f
00000030: 769e 6d3f 4c6b b5be 1080 00be a4a8 9f3e

encoder.blocks.1.conv.0.weight f4 [32, 16, 3, 3]
0.06531496 0.022868529 -0.039481055 0.12161207 0.11055615 0.26700914 0.18174069 0.17496057
0.19006793 0.019514058 0.059838396 -0.06579319 0.11756077 0.21138382 0.24469915 0.19399086
0.22057495 0.2279956 -0.09578634 -0.05725832 -0.17914353 0.078903385 0.024642933 -0.018038385
0.10163907 0.15394302 0.106681444 0.060786605 0.07931561 0.12768015 0.023059087 0.06904605
0.014258311 0.11969182 0.029508315 0.084671795 -0.027297258 -0.10129077 -0.079395786 -0.031314537
-0.015880836 0.010177798 -0.025651144 -0.008018275 0.0649508 -0.1374925 0.022646429 0.06664396
-0.09574545 0.016835041 -0.0142646935 -0.041853935 -0.112508215 0.019159162 -0.025122635 -0.022379184
-0.015563512 -0.074498944 0.027174672 0.06893695 0.08387981 0.054900676 0.05664743 -0.16076696
-0.12677182 -0.065052085 -0.0710733 0.010984163 -0.004237499 -0.03693766 -0.08839304 -0.045690466
0.08189827 0.15222421 0.16900802 0.125819 0.08262405 0.10436617 0.119935766 0.1103435
0.044505805 -0.071019165 -0.011892827 -0.09296091 0.06580334 0.021371635 -0.0046163015 0.0075728977
0.07607591 0.025313921 0.08946736 0.1067634 0.08332761 0.09060669 0.11203997 0.20370057
0.07409334 0.010846195 0.10305087 -0.0031350064 -0.06908198 -0.077314384 -0.0053471047 -0.10054151
0.023695461 -0.088639244 0.029203515 0.015063226 0.006312993 0.055443697 -0.0040730233 -0.025274873
-0.014532326 0.07866566 0.14097533 0.0072444975 0.07666295 -0.11155245 0.038996693 0.0025024775
-0.08884703 0.07124376 0.08989852 0.053678155 0.0068368684 -0.05536374 0.059573088 0.043012638
0.13201618 0.17157662 0.16449137 0.15634282 0.11197326 0.13040756 0.2034937 0.00655376
-0.014336468 0.113598704 -0.09041268 -0.10890302 -0.10035409 -0.06962951 -0.047930405 0.025703711
0.15486671 0.1781952 0.024620991 0.12181588 0.13287094 0.0013623066 -0.053517506 0.06483743
0.014459192 0.14082594 0.28724056 0.122094914 0.15339853 0.27954164 0.08956664 0.09626739
0.20912553 0.16992652 0.04258531 0.112658806 0.045823652 -0.08283661 0.06333443 0.07839438
0.0010194879 0.019650329 -0.1432096 0.041736234 -0.039653648 0.06495267 0.02896569 -0.020892497
0.040378418 0.0029648168 0.060899373 0.12191617 0.0277682 0.017866 -0.038110472 0.17107852
0.14273068 -0.0112720495 0.15167044 0.12214339 0.035661027 -0.20950904 -0.121340044 0.0015368718
-0.17904416 -0.20882294 -0.08941937 -0.092557766 -0.0943495 -0.07542209 -0.111402 -0.086302124
-0.04760493 0.03435857 0.0048886486 -0.02051031 -0.03535629 -0.083179474 0.042962592 0.10427495
-0.050020035 -0.023091165 0.023365807 -0.022206357 -0.03546772 -0.005647221 -0.055217937 0.03165472
0.03505214 -0.115837455 -0.07450674 0.040993676 -0.09518121 -0.004705356 -0.027689343 -0.020315414
0.047045514 -0.01482039 0.05167021 -0.0062984265 -0.12570749 -0.05530999 -0.02476927 -0.14567038
-0.05941165 -0.061441403 0.0030695968 -0.019599881 0.070012696 -0.022859856 -0.08276267 0.002236236
0.07887038 0.05031505 0.099352285 0.106612846 0.008557452 -0.004533078 0.053075735 0.007613254
0.15399142 0.04214226 0.06911776 0.100517355 0.20140144 0.19858266 0.03523875 0.17309502
00000000: dac3 853d c856 bb3c e3b6 21bd c00f f93d
00000010: 436b e23d 6cb5 883e 3b1a 3a3e dd28 333e
00000020: 2ba1 423e f2db 9f3c 1b19 753d 94be 86bd
00000030: b3c3 f03d 0075 583e 6a92 7a3e 8aa5 463e
00000040: 66de 613e ae77 693e a12b c4bd b387 6abd
00000050: 6771 37be 1998 a13d fadf c93c 3cc5 93bc
00000060: 2528 d03d 3da3 1d3e cd7b da3d 60fb 783d
00000070: 3970 a23d 96be 023e 69e6 bc3c 0468 8d3d
00000080: b19b 693c fc20 f53d 6cbb f13c 6868 ad3d
00000090: 809e dfbc 8971 cfbd 429a a2bd ac43 00bd
000000a0: 8718 82bc c7c0 263c 5922 d2bc 155f 03bc
000000b0: ed04 853d d5ca 0cbe 0185 b93c a17c 883d
000000c0: 3116 c4bd a4e9 893c 76b6 69bc 086f 2bbd
000000d0: b56a e6bd adf3 9c3c fccd cdbc 8d54 b7bc
000000e0: 1afe 7ebc e792 98bd 6b9d de3c d12e 8d3d
000000f0: 2ec9 ab3d 88df 603d 2307 683d 18a0 24be
00000100: 79d0 01be 073a 85bd e18e 91bd ebf6 333c
00000110: b8da 8abb f24b 17bd 6907 b5bd ed25 3bbd
00000120: 48ba a73d aae0 1b3e 7010 2d3e b2d6 003e
00000130: cc36 a93d eebd d53d e2a0 f53d c6fb e13d
00000140: b84b 363d 7f72 91bd 22da 42bc 4a62 bebd
00000150: e7c3 863d 9113 af3c 5844 97bb 1226 f83b
00000160: b0cd 9b3d 245f cf3c aa3a b73d c5a6 da3d
00000170: aaa7 aa3d 0090 b93d 3675 e53d e296 503e
00000180: 40be 973d 3db4 313c 560c d33d ae74 4dbb
00000190: da7a 8dbd 0157 9ebd c436 afbb b5e8 cdbd
000001a0: fc1c c23c 7e88 b5bd 363c ef3c c0cb 763c
000001b0: 39dd ce3b ee18 633d ff76 85bb 400d cfbc
000001c0: fe18 6ebc 761b a13d d65b 103e 4063 ed3b
000001d0: 7701 9d3d 9c75 e4bd ffba 1f3d 9b00 243b
000001e0: 6ff5 b5bd 40e8 913d b71c b83d a0dd 5b3d
000001f0: cf07 e03b 17c5 62bd e902 743d 052e 303d
00000200: 402f 073e c8b1 2f3e 6d70 283e 5518 203e
00000210: 3d52 e53d 8f89 053e a760 503e ecc0 d63b
00000220: 81e3 6abc 70a6 e83d 482a b9bd 8c08 dfbd
00000230: 7286 cdbd eb99 8ebd ac52 44bd 9790 d23c
00000240: 6195 1e3e cd78 363e f6b1 c93c 9b7a f93d
00000250: 520f 083e 6d8f b23a 2c35 5bbd 7dc9 843d
00000260: 3fe6 6c3c ad34 103e 3211 933e e60c fa3d
00000270: 8114 1d3e 1520 8f3e b76e b73d d627 c53d
00000280: 0125 563e 3801 2e3e ef6d 2e3d a9b9 e63d
00000290: 95b1 3b3d 3ea6 a9bd 7bb5 813d 3c8d a03d
000002a0: 56a0 853a baf9 a03c 8aa5 12be 9df3 2a3d
000002b0: dd6b 22bd e805 853d 7449 ed3c be26 abbc
000002c0: d763 253d 5f4d 423b 9f71 793d 2faf f93d
000002d0: 237a e33c b85b 923c ba19 1cbd 352f 2f3e
000002e0: fe27 123e 67ae 38bc 7f4f 1b3e 5026 fa3d
000002f0: 4c11 123d 8a89 56be 2181 f8bd dc70 c93a
00000300: 5a57 37be aed5 55be 8121 b7bd ed8e bdbd
00000310: 503a c1bd e676 9abd bb26 e4bd 2bbf b0bd
00000320: 63fd 42bd 92bb 0c3d f530 a03b 3d05 a8bc
00000330: c2d1 10bd 005a aabd 8bf9 2f3d 1b8e d53d
00000340: cfe1 4cbd af29 bdbc a669 bf3c 1bea b5bc
00000350: 9a46 11bd 530c b9bb 342c 62bd 61a8 013d
00000360: d592 0f3d 303c edbd fd96 98bd fce8 273d
00000370: 5eee c2bd 632f 9abb c3d4 e2bc 836c a6bc
00000380: ccb2 403d 39d1 72bc 24a4 533d 0863 cebb
00000390: 77b9 00be ba8c 62bd ede8 cabc 9e2a 15be
000003a0: a159 73bd fba9 7bbd 4a2b 493b ee8f a0bc
000003b0: d162 8f3d 9844 bbbc 7a7f a9bd d08d 123b
000003c0: cb86 a13d 2717 4e3d 3679 cb3d d657 da3d
000003d0: 8e34 0c3c 378a 94bb f165 593d 9a78 f93b
000003e0: edaf 1d3e 5d9d 2c3d 9d8d 8d3d 0bdc cd3d
000003f0: 2e3c 4e3e 4159 4b3e 8256 103d d23f 313e

encoder.blocks.1.conv.0.bias f4 [32]
-0.027342161 0.010017467 0.021499684 0.12164615 -0.04330917 -0.08356446 -0.00626656 -0.13221781
-0.09332052 -0.08843995 -0.019227695 0.07110766 -0.030778548 0.12157786 0.056022357 -0.0062247626
-0.067282185 -0.013892698 0.053549517 0.08767825 0.07513591 -0.006199172 -0.104304545 -0.045436088
-0.100809075 0.04024994 0.004127463 0.053969666 -0.052535474 -0.09576557 0.034655005 0.09412901
00000000: abfc dfbc 4d20 243c 1b20 b03c 9e21 f93d
00000010: f564 31bd d823 abbd b757 cdbb 1b64 07be
00000020: d41e bfbd 0120 b5bd 6683 9dbc e5a0 913d
00000030: 4b23 fcbc d0fd f83d b377 653d 18f9 cbbb
00000040: 3ecb 89bd 339e 63bc bd56 5b3d a890 b33d
00000050: dbe0 993d 6d22 cbbb 9f9d d5bd 311b 3abd
00000060: fd74 cebd 1fdd 243d ab3f 873b 4c0f 5d3d
00000070: 702f 57bd bd20 c4bd 68f2 0d3d b6c6 c03d

encoder.blocks.1.conv.1.weight f4 [32]
1.0724876 0.9636165 0.9915721 1.0287521 1.0403069 0.8859428 1.0367684 0.9207269
1.0195006 1.0902205 1.1609442 0.96692455 1.1269689 0.9458462 1.1520978 0.88757616
0.89128786 0.8383629 0.93710154 0.87307924 1.0543101 0.9646812 0.9798059 0.9702484
1.1001955 1.1440253 0.81874293 0.90025574 1.0013597 0.95154667 0.9731557 0.82543755
00000000: 4647 893f 92af 763f abd7 7d3f 26ae 833f
00000010: c728 853f 26cd 623f d4b4 843f c2b4 6b3f
00000020: ff7e 823f 588c 8b3f d299 943f 5e88 773f
00000030: 8440 903f fa22 723f f177 933f 3138 633f
00000040: 712b 643f f39e 563f e3e5 6f3f 1f82 5f3f
00000050: a2f3 863f 59f5 763f 8fd4 7a3f 3362 783f
00000060: 35d3 8c3f 6c6f 923f 2399 513f 2977 663f
00000070: 8e2c 803f 9098 733f bb20 793f e04f 533f

encoder.blocks.1.conv.1.bias f4 [32]
0.05225575 -0.01804184 -0.024365315 -0.026392827 -0.14698607 -0.0007969805 0.06956785 -0.007995848
-0.021599635 -0.14450467 -0.0785452 0.041766856 0.038137946 -0.09503455 0.04030451 -0.022671318
0.024228795 -0.052307386 -0.10285642 0.032358967 -0.017012138 -0.17999059 -0.1416189 -0.08677919
-0.079171106 0.13254605 -0.20725146 -0.039755054 0.03885706 -0.06411287 0.012447884 -0.08413551
00000000: 200a 563d 7bcc 93bc c599 c7bc c535 d8bc
00000010: 8483 16be 75ec 50ba 9779 8e3d 0401 03bc
00000020: b8f1 b0bc 08f9 13be 4edc a0bd b913 2b3d
00000030: 8936 1c3d 79a1 c2bd 5816 253d 33b9 b9bc
00000040: 777b c63c 4540 56bd 63a6 d2bd d68a 043d
00000050: 0a5d 8bbc 744f 38be 8b04 11be 4ab9 b1bd
00000060: 7624 a2bd 27ba 073e ba39 54be 32d6 22bd
00000070: 9528 1f3d 9c4d 83bd 36f2 4b3c 3d4f acbd

encoder.blocks.1.conv.1.running_mean f4 [32]
2.12196 2.052817 1.8131213 -0.80198634 2.0826614 3.1640725 -1.7830603 2.337658
-3.2301295 2.5129359 1.8273689 2.4778154 3.519822 -0.13992587 3.5666225 -3.0548904
-2.4701953 2.3336537 1.2801218 1.3262166 2.3032417 1.723488 0.6072355 2.4858727
0.055309977 2.356278 -2.9216824 -2.8101065 -4.529325 0.48574287 -4.7319193 -2.9899294
00000000: 31ce 0740 5b61 0340 5c14 e83f fa4e 4dbf
00000010: 534a 0540 2a80 4a40 523b e4bf 309c 1540
00000020: 71ba 4ec0 f1d3 2040 39e7 e93f 8794 1e40
00000030: c344 6140 ba48 0fbe 8b43 6440 5383 43c0
00000040: ae17 1ec0 955a 1540 08db a33f 77c1 a93f
00000050: 5068 1340 419b dc3f c973 1b3f 8a18 1f40
00000060: b78c 623d 42cd 1640 d8fc 3ac0 c9d8 33c0
00000070: 3bf0 90c0 4ab3 f83e e26b 97c0 015b 3fc0

encoder.blocks.1.conv.1.running_var f4 [32]
4.7883487 7.4944377 5.193536 4.3659387 2.7739646 6.182131 6.509428 6.5548854
9.699591 4.699549 3.7434082 10.847485 8.102106 1.7465357 6.400179 10.996829
8.798902 9.039401 5.0425324 7.4934096 6.2494993 2.1217036 2.6664155 6.010362
5.3449826 3.473571 5.617742 5.1676626 7.5061865 2.8139725 8.980239 8.461068
00000000: 273a 9940 6fd2 ef40 7231 a640 c5b5 8b40
00000010: a388 3140 04d4 c540 3c4d d040 9fc1 d140
00000020: 8631 1b41 b562 9640 0094 6f40 4c8f 2d41
00000030: 3aa2 0141 7b8e df3f 44ce cc40 03f3 2f41
00000040: 4dc8 0c41 63a1 1041 6d5c a140 03ca ef40
00000050: e6fb c740 fec9 0740 8da6 2a40 e354 c040
00000060: 190a ab40 fd4e 5e40 8bc4 b340 7e5d a540
00000070: ae32 f040 2018 3440 0faf 0f41 8960 0741

encoder.blocks.1.conv.3.weight f4 [32, 32, 3, 3]
-0.041655354 0.07016568 0.0018840189 0.054997846 0.016739536 -0.002137101 -0.01651646 0.11583614
0.10965327 -0.022818713 -0.031345703 0.066431165 -0.019645493 0.06146594 0.12417453 0.04257937
0.019234655 -0.011152042 -0.031113286 -0.06053964 -0.013838058 0.071909204 0.029398596 0.032272745
0.020422159 0.06417597 -0.02018502 -0.14280963 -0.09635513 -0.07142076 -0.062314 -0.09560304
-0.11937482 -0.1061845 -0.05322674 -0.09055568 -0.05129819 0.066681236 0.17794664 0.048950776
0.16572642 0.2172856 0.10971913 0.12945579 0.11772127 0.011822014 -0.00023651398 0.07057265
-0.04299449 -0.022224346 0.05621352 0.033920206 -0.008378296 0.062567 -0.078939304 -0.11292192
-0.023826227 -0.03974682 -0.11659411 -0.023257326 -0.014960416 -0.15704505 -0.070693865 -0.09093806
0.052196834 -0.004927269 -0.056273498 -0.07232296 -0.06225475 -0.026672777 0.021568358 -4.4917844e-05
0.18361574 0.11774143 0.04102764 0.14932786 0.1171364 0.068493195 0.019620093 0.09163336
0.06915903 -0.0915155 0.13552119 0.18891835 0.09363473 0.21006818 0.22306184 0.084746666
0.22246884 0.08298605 -0.026013719 0.03761057 0.06442575 -0.16529341 -0.08269599 0.011318349
-0.11410635 -0.03469183 0.077268824 0.14652145 0.07107539 0.056406602 0.095614396 0.060220294
0.11112206 0.057069436 0.06544579 0.117384195 -0.06251888 -0.104527466 -0.018843476 -0.031512447
-0.10461166 -0.07010894 -0.09833876 -0.07554625 -0.000264905 -0.033041023 -0.06810722 -0.009204461
-0.09581837 -0.03409942 -0.087715745 -0.04450505 -0.10343861 -0.021504598 -0.1287035 -0.00011898983
0.1511275 0.049729526 0.057066977 0.12008788 0.077413075 0.10120538 0.09949578 0.09212405
0.08415074 0.05326611 0.07009324 0.09085029 0.032233216 -0.004754521 -0.02278237 0.06187377
0.13981088 0.13687551 0.07380999 0.0790433 0.06459265 0.099703655 0.04233976 0.0119426055
0.05498344 0.0017094366 -0.0054467604 -0.046249464 0.04417548 0.02973365 0.053062577 -0.011061747
0.047307707 0.04292625 -0.088100724 -0.037135564 -0.055729255 -0.11212907 -0.099392146 -0.103753984
-0.14017831 -0.10497282 -0.06595312 0.11807391 -0.004543243 0.061825465 0.013608639 0.03418603
0.08730502 0.0051353467 0.00035966747 0.008650717 -0.06455682 -0.029819354 -0.013532245 -0.0019213223
0.023368964 -0.055183116 0.041145712 0.041783147 -0.0061461204 -0.08890127 -0.005020838 0.13720638
-0.048379432 0.11629135 0.16497065 -0.010761717 0.08471122 0.11427824 -0.036576867 0.027596999
0.01312109 -0.039543245 -0.017408319 -0.038876973 -0.026774839 0.0054222783 -0.0025643879 0.07278118
0.063215464 0.14215955 0.09729255 0.11940856 0.12115583 0.12122536 0.08402862 0.052184273
-0.061133213 0.03116631 0.06684904 0.07106562 0.1642356 0.09969444 0.09372964 0.032719407
0.0026529985 0.029205052 0.11218585 0.12694938 0.04033399 0.11606823 0.18619342 0.1424696
0.114486724 0.032351393 0.045290325 0.02047972 -0.034594327 0.044772215 0.07868987 0.08625891
0.046404235 0.079318814 0.11644193 0.08989815 0.04291595 0.07187154 -0.043579437 -0.057160996
-0.005004841 -0.06025245 -0.13861042 0.0027173199 0.10917507 -0.036182653 -0.012226976 0.018646374
00000000: ce9e 2abd 06b3 8f3d 2ff1 f63a 6c45 613d
00000010: 5a21 893c 9b0e 0cbb 874d 87bc 803b ed3d
00000020: e591 e03d 4fee babc 5a64 00bd 100d 883d
00000030: 96ef a0bc b6c3 7b3d 374f fe3d b567 2e3d
00000040: ff91 9d3c 0eb7 36bc 4ae1 febc 6af8 77bd
00000050: 06b9 62bc 2245 933d 53d5 f03c 6d30 043d
00000060: 5f4c a73c b16e 833d 0e5b a5bc b03c 12be
00000070: d755 c5bd 0c45 92bd f73c 7fbd 87cb c3bd
00000080: c97a f4bd 4277 d9bd 4804 5abd 4275 b9bd
00000090: 0d1e 52bd 2c90 883d a537 363e 9c80 483d
000000a0: 30b4 293e 1e80 5e3e 6cb4 e03d 0f90 043e
000000b0: d917 f13d 1fb1 413c bd00 78b9 6588 903d
000000c0: fe1a 30bd d50f b6bc 2640 663d eaef 0a3d
000000d0: 1f45 09bc 2123 803d eeaa a1bd 9c43 e7bd
000000e0: 382f c3bc 90cd 22bd e5c8 eebd 2686 bebc
000000f0: 881c 75bc 6bd0 20be f2c7 90bd bc3d babd
00000100: 59cc 553d ee74 a1bb 0a7f 66bd 0f1e 94bd
00000110: d6fe 7ebd de80 dabc 20b0 b03c 2b66 3cb8
00000120: c405 3c3e 6b22 f13d 990c 283d 67e9 183e
00000130: 35e5 ef3d 2946 8c3d 51ba a03c 45aa bb3d
00000140: 40a3 8d3d 7a6c bbbd 11c6 0a3e d073 413e
00000150: 91c3 bf3d 1d1c 573e 536a 643e a98f ad3d
00000160: dfce 633e 97f4 a93d b91a d5bc 8b0d 1a3d
00000170: a6f1 833d ad42 29be 845c a9bd 9970 393c
00000180: 97b0 e9bd 0519 0ebd 1e3f 9e3d b809 163e
00000190: f98f 913d 9c0a 673d 7bd1 c33d 8ea9 763d
000001a0: f693 e33d a4c1 693d 7108 863d 2067 f03d
000001b0: e609 80bd 7f12 d6bd a25d 9abc 3213 01bd
000001c0: a33e d6bd 4795 8fbd d565 c9bd feb7 9abd
000001d0: f2e2 8ab9 0656 07bd cc7b 8bbd 4fce 16bc
000001e0: 6c3c c4bd d5ab 0bbd 50a4 b3bd ed4a 36bd
000001f0: 9fd7 d3bd 692a b0bc daca 03be 2e8a f9b8
00000200: 2bc1 1a3e 30b1 4b3d 10bf 693d a2f0 f53d
00000210: bf8a 9e3d c444 cf3d 72c4 cb3d 89ab bc3d
00000220: 3957 ac3d 912d 5a3d 0b8d 8f3d b80f ba3d
00000230: fa06 043d d0cb 9bbb 18a2 babc 5a6f 7d3d
00000240: 952a 0f3e 1829 0c3e b129 973d 74e1 a13d
00000250: 2749 843d 6e31 cc3d 756c 2d3d ebaa 433c
00000260: 5136 613d 2d0f e03a bd7a b2bb 1470 3dbd
00000270: 59f1 343d fc93 f33c 2558 593d 543c 35bc
00000280: bac5 413d 6fd3 2f3d 276e b4bd 761b 18bd
00000290: 5c44 64bd eda3 e5bd 1c8e cbbd f87c d4bd
000002a0: e78a 0fbe fdfb d6bd 6e12 87bd bcd0 f13d
000002b0: 7cdf 94bb b33c 7d3d c5f6 5e3c a706 0c3d
000002c0: f9cc b23d 6946 a83b c091 bc39 bdbb 0d3c
000002d0: 5e36 84bd b847 f4bc 59b6 5dbc e1d4 fbba
000002e0: 4570 bf3c b107 62bd 6888 283d ce24 2b3d
000002f0: 6565 c9bb de11 b6bd d885 a4bb d47f 0c3e
00000300: 8329 46bd 292a ee3d 11ee 283e ea51 30bc
00000310: 137d ad3d b60a ea3d a0d1 15bd 1a13 e23c
00000320: d7f9 563c 19f8 21bd e49b 8ebc 763d 1fbd
00000330: e856 dbbc 5ead b13b 4a0f 28bb 4d0e 953d
00000340: 1c77 813d 4692 113e 5141 c73d 7a8c f43d
00000350: 8c20 f83d 0045 f83d 3217 ac3d 2dbf 553d
00000360: d266 7abd 7d50 ff3c 26e8 883d da8a 913d
00000370: 612d 283e 992c cc3d 53f5 bf3d c904 063d
00000380: eedd 2d3b 6f3f ef3c b2c1 e53d 05ff 013e
00000390: 4135 253d 2eb5 ed3d 7da9 3e3e 8de3 113e
000003a0: 0478 ea3d e582 043d 5982 393d 16c5 a73c
000003b0: c8b2 0dbd 1263 373d 2828 a13d 83a8 b03d
000003c0: 5e12 3e3d e771 a23d 1b79 ee3d 851c b83d
000003d0: a3c8 2f3d 6331 933d 5a80 32bd a621 6abd
000003e0: a6ff a3bb 46cb 76bd e4ef 0dbe 1015 323b
000003f0: 2e97 df3d 4334 14bd a853 48bc 48c0 983c

encoder.blocks.1.conv.3.bias f4 [32]
0.018541439 -0.05597817 -0.0040654545 0.054216973 0.024236793 -0.01798041 -0.07447692 -0.037137847
-0.05976799 -0.0038473047 0.01878998 0.08485194 0.06017975 0.044562567 0.10049908 0.030869732
0.047880065 -0.06162256 0.07143091 -0.003878244 -0.065387 0.07121748 0.017935032 0.048822407
0.012681029 -0.004182487 -0.0045056795 -0.049525995 -0.055711392 0.08769056 -0.01542948 -0.0055066147
00000000: 37e4 973c 5e49 65bd 8137 85bb 9e12 5e3d
00000010: 3d8c c63c a74b 93bc 5b87 98bd db1d 18bd
00000020: 48cf 74bd 1023 7cbb 72ed 993c dbc6 ad3d
00000030: 0b7f 763d 3d87 363d 76d2 cd3d 85e2 fc3c
00000040: e31d 443d f067 7cbd 5e4a 923d 232a 7ebb
00000050: 9fe9 85bd 78da 913d 7dec 923c 01fa 473d
00000060: 17c4 4f3c 3e0d 89bb 61a4 93bb c5db 4abd
00000070: a131 64bd 1c97 b33d eecb 7cbc d570 b4bb

encoder.blocks.1.conv.4.weight f4 [32]
1.0670594 0.8662638 0.98964983 0.85578847 0.82576066 0.8608033 1.0152986 0.986231
1.0859714 0.8157702 1.1639643 0.94366384 0.9062744 1.0945976 1.1315233 1.0896156
1.071085 0.9498902 0.9791712 1.0606831 1.0509009 0.95956707 1.0656766 1.0227941
0.8918823 0.89957947 0.96169937 0.96364933 0.9271634 1.0337958 1.1237384 0.86551327
00000000: 6795 883f 77c3 5d3f b159 7d3f f414 5b3f
00000010: 0d65 533f 9b5d 5c3f 4ef5 813f a379 7c3f
00000020: 1c01 8b3f 51d6 503f c8fc 943f f493 713f
00000030: 9901 683f c61b 8c3f c1d5 903f 8678 8b3f
00000040: 5019 893f 012c 733f f7aa 7a3f 77c4 873f
00000050: ec83 863f 30a6 753f 1768 883f ebea 823f
00000060: 6652 643f d74a 663f ee31 763f b9b1 763f
00000070: 955a 6d3f 6c53 843f a9d6 8f3f 4792 5d3f

encoder.blocks.1.conv.4.bias f4 [32]
-0.05624078 -0.1797222 -0.018821303 0.04939448 -0.10961724 -0.029382717 3.6350575e-05 -0.10067039
0.104802914 -0.08756751 0.14273617 -0.122458 0.04001994 -0.009524325 -0.058864128 0.20148553
-0.13838954 -0.12738758 -0.023263885 -0.04573314 -0.23529407 -0.018557854 -0.0007367662 -0.01788223
-0.047926944 -0.088575155 0.101964176 -0.0559246 0.032267675 -0.072053045 0.13253975 0.014481313
00000000: bb5c 66bd 1909 38be 222f 9abc de51 4a3d
00000010: 017f e0bd 06b4 f0bc 2277 1838 472c cebd
00000020: e9a2 d63d 9856 b3bd 6e29 123e 43cb fabd
00000030: f3eb 233d ea0b 1cbc 831b 71bd 3952 4e3e
00000040: fdb5 0dbe e471 02be e793 bebc ac52 3bbd
00000050: eef0 70be a406 98bc 8b23 41ba c17d 92bc
00000060: 0b4f 44bd e466 b5bd 98d2 d03d 3211 65bd
00000070: 1c2b 043d 8c90 93bd 80b8 073e 0743 6d3c

encoder.blocks.1.conv.4.running_mean f4 [32]
2.402254 -5.1451592 -0.49938726 0.092392586 0.4144437 -0.22523555 -4.918513 -2.0534716
1.9865736 -1.5356991 -1.4614894 -3.2347383 1.6913471 2.364277 2.2905645 -3.1781228
-1.0956277 -4.4612427 2.461193 -2.2211285 0.21482027 -5.4764957 1.8605404 4.0473957
3.9810479 1.4578137 1.1780393 -1.3060031 3.2787592 2.9386818 -0.43860036 -6.2682157
00000000: 88be 1940 25a5 a4c0 b0af ffbe 5338 bd3d
00000010: f731 d43e 26a4 66be 7564 9dc0 146c 03c0
00000020: 0b48 fe3f ca91 c4bf 1612 bbbf f405 4fc0
00000030: 107e d83f 5050 1740 9c98 1240 5d66 4bc0
00000040: 873d 8cbf 80c2 8ec0 3084 1d40 f826 0ec0
00000050: d8f9 5b3e 743f afc0 3026 ee3f 4484 8140
00000060: 7dc9 7e40 a499 ba3f fec9 963f 1c2b a7bf
00000070: 31d7 5140 5d13 3c40 3a90 e0be 3995 c8c0

encoder.blocks.1.conv.4.running_var f4 [32]
11.534465 46.782207 20.333357 27.269802 17.02588 14.566449 44.371407 16.960001
22.920013 11.932905 14.491493 8.517091 48.729565 17.102262 17.568407 19.769863
13.895306 27.997978 36.9944 14.2539425 5.0756607 46.89719 14.844223 27.356241
32.051777 16.183096 35.87439 29.104385 38.14556 15.299798 21.546392 54.840897
00000000: 2b8d 3841 fb20 3b42 b7aa a241 8e28 da41
00000010: 0135 8841 2d10 6941 527c 3142 15ae 8741
00000020: 305c b741 2eed 3e41 28dd 6741 0146 0841
00000030: 13eb 4242 6fd1 8841 198c 8c41 ae28 9e41
00000040: 2c53 5e41 dcfb df41 44fa 1342 2610 6441
00000050: d06b a240 b996 3b42 f081 6d41 95d9 da41
00000060: 0535 0042 fb76 8141 607f 0f42 c8d5 e841
00000070: 0e95 1842 f9cb 7441 035f ac41 145d 5b42

encoder.blocks.1.skip.weight f4 [32, 16, 1, 1]
0.1711618 -0.24678457 -0.030277729 0.14475656 0.04202625 0.17496967 -0.08569363 -0.06943494
-0.15838441 -0.24507084 0.16753894 0.077677995 0.045422584 0.0756354 0.22352046 0.00032138824
0.14457926 0.11749345 0.17108333 0.069150925 0.07981479 0.07061157 0.035063267 -0.055137753
0.10480186 0.14855817 0.034496248 0.2011317 -0.076538 -0.15262714 0.04805678 0.17645654
-0.22153544 0.09265113 -0.23657694 0.09523079 -0.14757863 0.24636367 0.011335194 0.15092301
-0.09304178 0.03293127 0.028684437 -0.040106326 0.23355967 0.08187169 0.09571713 0.21675593
0.13439026 0.15135667 0.07468289 0.015447348 0.045108974 0.2292414 -0.1054523 -0.20535618
-0.016914457 -0.044668585 0.15518537 0.09753728 0.09164277 0.18741015 -0.107948065 0.24245113
0.1814194 -0.24163017 0.06139636 0.032161087 -0.0035638511 0.21928665 -0.20906657 0.010511637
-0.19510207 -0.21480757 -0.033038527 -0.0711827 -0.04553336 0.064709604 0.032054216 -0.10373598
-0.13089684 0.1462104 -0.10764402 0.098964125 0.21474344 -0.08206278 -0.016718686 -0.23449895
-0.14161009 0.006860763 -0.17926657 0.115891814 0.18193465 0.16727823 0.116655976 -0.24493104
0.071174115 0.13002846 -0.18698016 -0.18702665 -0.084461 0.13760614 0.046592057 0.24155065
0.17557198 0.21128407 0.061133176 -0.10122967 -0.04036367 0.15366772 -0.0330438 0.15564048
-0.03234145 0.09328213 -0.15398607 -0.16747576 0.24357715 0.15693071 0.15438488 -0.17674056
-0.1750165 0.0058804154 0.10772249 -0.18362209 0.16042402 -0.19566974 0.03213486 0.05438435
0.14072031 0.19913357 0.21495727 -0.19251645 -0.16170454 -0.06405589 0.24110514 0.23503539
-0.07573703 0.131403 -0.23154974 0.03745815 0.1402489 0.04281494 -0.14694247 -0.05772996
0.05689746 -0.19370177 0.15403947 -0.16231313 -0.15967229 0.09991795 -0.18953022 0.19690329
-0.13684091 0.080485225 0.24151772 -0.074245006 0.0025718212 -0.021748006 0.14669394 -0.23305246
0.15861076 0.030878067 -0.10496917 0.08840951 -0.03557527 -0.06324172 -0.08540261 0.17700231
-0.17022786 0.15654624 0.14933077 -0.2480917 -0.16824487 -0.029766291 0.23433879 0.1783076
0.23889658 -0.004679799 0.13222489 0.11150184 0.12144482 0.2071276 -0.15264204 0.060697705
0.0461255 -0.13560632 -0.18517518 -0.18194053 -0.118529886 -0.085396856 0.18598983 -0.21777827
0.13963264 0.0042930245 -0.03945157 0.11776632 -0.18359607 0.038657337 0.1380862 0.09894988
0.109166324 0.110655695 0.16722023 0.14357165 0.09406033 0.097479075 0.13473886 0.054537028
0.03768432 0.119473755 0.07233563 0.1209884 0.21039772 -0.010459602 0.036353767 0.16913527
-0.19977054 -0.24273902 -0.1059919 -0.10600111 0.24447912 0.19223374 -0.009016216 0.22430879
-0.21714678 -0.011914492 -0.036143214 -0.17741013 -0.09634906 -0.12575424 0.044457585 0.17304435
0.14894897 0.05896303 0.21230143 -0.14894605 0.15552896 0.032273203 0.12332752 -0.24245477
0.1945205 -0.21072423 -0.08280802 -0.08828515 0.025441408 0.1991893 0.009614706 -0.0029552877
0.16330737 -0.17841446 -0.11402497 -0.054527044 0.07015973 0.20200089 -0.12933955 -0.0019872785
00000000: 0a45 2f3e 18b5 7cbe 0009 f8bc 103b 143e
00000010: b823 2c3d 402b 333e 2480 afbd e833 8ebd
00000020: 862f 22be daf3 7abe 548f 2b3e a415 9f3d
00000030: 080d 3a3d bce6 9a3d 8ce2 643e 0080 a839
00000040: 960c 143e 68a0 f03d 7830 2f3e 009f 8d3d
00000050: f075 a33d cc9c 903d 809e 0f3d 20d8 61bd
00000060: 5ca2 d63d a21f 183e f04b 0d3d 78f5 4d3e
00000070: f4bf 9cbd 4a4a 1cbe 30d7 443d 06b1 343e
00000080: 30da 62be e0bf bd3d 3a41 72be 5c08 c33d
00000090: da1e 17be c246 7c3e 40b7 393c 908b 1a3e
000000a0: b08c bebd f0e2 063d a0fb ea3c 8846 24bd
000000b0: 442a 6f3e 58ac a73d 5807 c43d 44f5 5d3e
000000c0: 9a9d 093e 3efd 1a3e 58f3 983d e016 7d3c
000000d0: 30c4 383d 42be 6a3e 60f7 d7bd e448 52be
000000e0: 3090 8abc 68f6 36bd eae8 1e3e a0c1 c73d
000000f0: 34af bb3d 72e8 3f3e e013 ddbd 1c45 783e
00000100: 02c6 393e e66d 77be c07a 7b3d 58bb 033d
00000110: 808f 69bb ae8c 603e 8c15 56be 0039 2c3c
00000120: d6c8 47be 84f6 5bbe 6853 07bd 3cc8 91bd
00000130: 3081 3abd 7886 843d 484b 033d 8873 d4bd
00000140: d209 06be 2eb8 153e 7874 dcbd b4ad ca3d
00000150: b4e5 5b3e 8810 a8bd a0f5 88bc 7e20 70be
00000160: 3c02 11be 40d0 e03b a891 37be b058 ed3d
00000170: 144d 3a3e fc4a 2b3e 54e9 ee3d 34cf 7abe
00000180: bcc3 913d 2e26 053e ba77 3fbe ea83 3fbe
00000190: e4f9 acbd a0e8 0c3e 50d7 3e3d 0e59 773e
000001a0: 24c9 333e da5a 583e c866 7a3d 8051 cfbd
000001b0: 6054 25bd 125b 1d3e f058 07bd 3860 1f3e
000001c0: 7878 04bd b40a bf3d 86ae 1dbe c47e 2bbe
000001d0: 4a6c 793e 72b2 203e 1217 1e3e 7afb 34be
000001e0: 8637 33be 80b0 c03b 9c9d dc3d 6e07 3cbe
000001f0: 3246 243e a65d 48be d89f 033d 20c2 5e3d
00000200: fc18 103e ace9 4b3e c21d 5c3e 0823 45be
00000210: e095 25be bc2f 83bd 44e4 763e 1ead 703e
00000220: 041c 9bbd 828e 063e 601b 6dbe b86d 193d
00000230: 689d 0f3e b85e 2f3d 1678 16be 4076 6cbd
00000240: 500d 693d c259 46be 86bc 1d3e 6a35 26be
00000250: 2281 23be c8a1 cc3d 3614 42be 04a1 493e
00000260: 0620 0cbe 70d5 a43d 6c50 773e c40d 98bd
00000270: 008c 283b e028 b2bc f036 163e 4ea5 6ebe
00000280: dc6a 223e 00f4 fc3c 14fa d6bd 0c10 b53d
00000290: 60b7 11bd e084 81bd 90e7 aebd 1840 353e
000002a0: 3650 2ebe a84d 203e 2aea 183e c00b 7ebe
000002b0: 6248 2cbe 70d8 f3bc 82f6 6f3e 4496 363e
000002c0: 4ea1 743e 0059 99bb f665 073e 145b e43d
000002d0: 10b8 f83d 4219 543e 324e 1cbe 289e 783d
000002e0: 18ee 3c3d 62dc 0abe 909e 3dbe 9e4e 3abe
000002f0: ccbf f2bd 8ce4 aebd 1e74 3e3e 4401 5fbe
00000300: dcfb 0e3e 80ac 8c3b f897 21bd 782f f13d
00000310: 9c00 3cbe 2857 1e3d 7866 0d3e 3ca6 ca3d
00000320: 9892 df3d 749f e23d c83b 2b3e 7204 133e
00000330: b4a2 c03d 1ca3 c73d fcf8 093e 3862 5f3d
00000340: e05a 1a3d a8ae f43d b424 943d c4c8 f73d
00000350: 8072 573e c05e 2bbc b0e7 143d cc31 2d3e
00000360: a690 4cbe 9490 78be 4812 d9bd 1c17 d9bd
00000370: bc58 7a3e ecd8 443e c0b8 13bc 34b1 653e
00000380: ba5b 5ebe 0035 43bc e80a 14bd 00ab 35be
00000390: a852 c5bd b8c5 00be 2819 363d 8a32 313e
000003a0: 1486 183e 3883 713d 8c65 593e 5085 18be
000003b0: fc42 1f3e e830 043d 2493 fc3d 1046 78be
000003c0: 6230 473e 18c8 57be 4097 a9bd d8ce b4bd
000003d0: 806a d03c 48f8 4b3e 0087 1d3c 80ad 41bb
000003e0: 0c3a 273e 48b2 36be ec85 e9bd c057 5fbd
000003f0: e8af 8f3d 52d9 4e3e 9671 04be 003d 02bb

encoder.blocks.1.skip.bias f4 [32]
-0.21067196 0.0720332 0.1278235 -0.06470406 -0.10486379 0.001314342 0.1568278 0.017743438
-0.08900118 -0.1870752 -0.07952118 -0.10062444 0.1662466 -0.22275284 0.09195599 -0.09042585
-0.15561298 -0.13052344 -0.06053835 -0.0126595795 0.062727064 0.16732022 -0.050617814 0.08547893
-0.044282287 -0.19231877 0.120152265 0.17844418 -0.15884328 -0.21691465 0.198396 0.22368708
00000000: 64ba 57be 2486 933d 2ae4 023e 9083 84bd
00000010: d4c2 d6bd 0046 ac3a 7897 203e b05a 913c
00000020: 4046 b6bd a490 3fbe 00dc a2bd 3014 cebd
00000030: 8c3c 2a3e 5219 64be 6c53 bc3d 3031 b9bd
00000040: 0259 1fbe f0a7 05be 10f7 77bd 206a 4fbc
00000050: 0c77 803d fe55 2b3e a054 4fbd 940f af3d
00000060: 5861 35bd 36ef 44be 6412 f63d 12ba 363e
00000070: d0a7 22be e01e 5ebe 5228 4b3e 3a0e 653e

encoder.blocks.2.conv.0.weight f4 [64, 32, 3, 3]
0.009746268 -0.029184518 -0.048275426 0.0075652096 0.061306562 0.052980322 0.049427092 0.0069476934
0.0689458 0.043771535 0.040068083 -0.029606663 0.017850155 -0.040946666 -0.06146288 0.0966073
0.035517007 0.0062052235 0.2087886 0.2220093 0.16182154 0.26576748 0.12966861 0.18899916
0.14218621 0.08320433 0.1336774 0.04614588 0.029572885 0.12878846 -0.001609798 -0.016760325
0.059106544 -0.011200895 -0.09165988 -0.086539336 -0.01237838 -0.11596884 -0.04866449 -0.036293656
0.021648029 -0.057274617 0.040443894 -0.0019713782 -0.05333057 0.093525805 0.018989172 -0.027177325
0.06696669 -0.058545057 -0.017853433 0.038398914 -0.13015994 -0.13530393 -0.01149042 0.06410206
0.034364842 -0.164193 -0.1349457 -0.18244569 -0.11736937 -0.14245737 -0.17258155 0.26103795
0.27995396 0.22755915 0.15454748 0.09700623 0.08729852 0.03271623 0.051206853 0.008888176
0.020422015 0.06726427 0.01990883 0.074674055 0.09182256 0.020059165 0.04045106 0.062035378
0.05919143 -0.0032843128 -0.08869011 0.010518878 -0.028158877 -0.053676892 -0.071332015 -0.052427936
-0.0840754 0.0037910978 0.20286848 0.15795256 0.14539495 0.012366417 -0.033072725 -0.040815912
-0.029079748 -0.012704702 0.028686583 0.11386574 0.11925088 0.009921978 0.14108285 -0.06761357
-0.017333161 -0.09621093 -0.1320078 -0.07353835 0.019863928 0.06491301 0.033280388 0.05267107
0.010728237 0.039175108 0.002540772 0.02107487 -0.0012424722 0.090205684 0.021479325 -0.011156167
0.12248794 0.09302658 0.005621503 0.12490173 0.08027906 0.10162807 -0.010759922 0.00963117
-0.06199978 0.029729996 0.019404467 -0.060370192 0.10500318 -0.03018922 0.034067497 0.19056928
0.23336771 0.27460566 0.0851624 -0.09379485 0.043490395 -0.077147 -0.15713617 -0.042059
0.16238353 0.18427387 0.15534794 0.06130157 0.0010501196 0.09171652 0.06357127 -0.001516043
0.004078849 -0.013767792 0.09714491 -0.075375296 -0.1480828 -0.15745896 -0.14424047 -0.16567878
-0.16414091 -0.14740153 -0.02044812 -0.08869509 -0.02339139 0.1144793 0.04255608 0.039835062
0.12497029 0.077732936 0.027956357 -0.021871988 -0.044389915 -0.180425 -0.13004452 -0.10412263
-0.3091676 0.0032925035 -0.12820013 -0.21088465 -0.174797 -0.09698583 -0.19178298 -0.006374876
0.03279133 -0.11437109 0.06179858 0.047305163 -0.18685466 -0.083197825 -0.07403608 -0.104407124
-0.11262011 -0.07704878 -0.057042837 -0.08186386 -0.06415987 -0.034221437 -0.024808407 -0.043149535
0.020818526 0.033351604 0.0010564524 0.02698793 0.014226761 0.021633012 0.05023354 -0.03556066
-0.045137998 -0.04667943 0.025034426 -0.0040071867 0.10139954 0.04077286 0.07750498 0.04323453
-0.036147624 -0.011635763 -0.09263227 0.07798397 -0.019649496 -0.04752712 0.11863271 -0.013317471
-0.07581503 -0.009720317 0.030797916 0.0072537456 -0.021079531 0.041879788 -0.019526482 0.06589012
-0.03677738 -0.07429094 0.049604867 0.09626426 0.1181993 0.0432976 0.08179118 0.029346095
0.045632195 -0.061008207 -0.030216765 0.10913171 0.13494362 0.07375409 0.108122535 0.12341842
0.023772467 0.05949711 0.12573689 0.08372359 0.038300075 -0.08524955 -0.043959487 0.041783694
00000000: d0ae 1f3c 5f14 efbc 74bc 45bd 94e5 f73b
00000010: 971c 7b3d e501 593d 1074 4a3d 7aa9 e33b
00000020: 7533 8d3d c849 333d 6e1e 243d ac89 f2bc
00000030: 7d3a 923c b1b7 27bd 80c0 7bbd 0cda c53d
00000040: 487a 113d 3055 cb3b aecc 553e 6856 633e
00000050: 8cb4 253e ad12 883e d9c7 043e ff88 413e
00000060: 4399 113e 0867 aa3d bae2 083e 7603 3d3d
00000070: d642 f23c 1fe1 033e dcff d2ba f34c 89bc
00000080: b419 723d f583 37bc 2db8 bbbd 893b b1bd
00000090: b0ce 4abc 1281 edbd 6b54 47bd a8a8 14bd
000000a0: 3557 b13c ca98 6abd 7fa8 253d 3d32 01bb
000000b0: 2871 5abd 758a bf3d 2e8f 9b3c fba2 debc
000000c0: d525 893d f1cc 6fbd 5d41 92bc 2e48 1d3d
000000d0: a648 05be 1d8d 0abe 5142 3cbc f147 833d
000000e0: 26c2 0c3d 3622 28be 352f 0abe 0bd3 3abe
000000f0: 5a5f f0bd 58e0 11be 38b9 30be c4a6 853e
00000100: 2056 8f3e 4405 693e b241 1e3e 34ab c63d
00000110: 91c9 b23d 7401 063d 47be 513d b69f 113c
00000120: 124c a73c d9c1 893d d817 a33c b6ee 983d
00000130: 770d bc3d 1e53 a43c 03b0 253d cf18 7e3d
00000140: b772 723d a03d 57bb 29a3 b5bd 5f57 2c3c
00000150: 72ad e6bc 4ddc 5bbd 8516 92bd adbe 56bd
00000160: b92f acbd 1174 783b c1bc 4f3e 51be 213e
00000170: 6ae2 143e 839c 4a3c 4477 07bd 962e 27bd
00000180: a738 eebc 6227 50bc 2000 eb3c 7132 e93d
00000190: ce39 f43d cb8f 223c 0678 103e fc78 8abd
000001a0: 46fe 8dbc 3c0a c5bd 0d2d 07be 469b 96bd
000001b0: adb9 a23c 1df1 843d 0451 083d 9fbd 573d
000001c0: 7dc5 2f3c 1476 203d 1583 263b 35a5 ac3c
000001d0: 73da a2ba c2bd b83d 69f5 af3c 5bc8 36bc
000001e0: f5da fa3d b884 be3d 9634 b83b 7acc ff3d
000001f0: 5969 a43d 6122 d03d 624a 30bc 0ecc 1d3c
00000200: 7bf3 7dbd 528c f33c 1ef6 9e3c bc46 77bd
00000210: e80b d73d 624f f7bc 5c8a 0b3d 9824 433e
00000220: f2f7 6e3e 1d99 8c3e a069 ae3d 8417 c0bd
00000230: fc22 323d 3fff 9dbd 4ee8 20be 0f46 2cbd
00000240: de47 263e 4ab2 3c3e 8813 1f3e 5b17 7b3d
00000250: 2ba4 893a dfd5 bb3d a731 823d f6b5 c6ba
00000260: dea7 853b 4e92 61bc e9f3 c63d 5d5e 9abd
00000270: 04a3 17be ec3c 21be c6b3 13be b3a7 29be
00000280: 8e14 28be 6df0 16be d182 a7bc c5a5 b5bd
00000290: 4d9f bfbc 2074 ea3d 494f 2e3d 172a 233d
000002a0: 6cf0 ff3d 7232 9f3d bb04 e53c e22c b3bc
000002b0: 33d2 35bd 55c1 38be 642a 05be 3f3e d5bd
000002c0: 374b 9ebe 0bc7 573b e546 03be 25f2 57be
000002d0: fcfd 32be 82a0 c6bd c262 44be 56e4 d0bb
000002e0: 3450 063d 643b eabd 8220 7d3d 0fc3 413d
000002f0: d456 3fbe 9f63 aabd 3aa0 97bd 67d3 d5bd
00000300: 5fa5 e6bd c0cb 9dbd c0a5 69bd 3da8 a7bd
00000310: 4066 83bd c72b 0cbd 003b cbbc 91bd 30bd
00000320: 9d8b aa3c b19b 083d a978 8a3a cb15 dd3c
00000330: 5c17 693c b737 b13c afc1 4d3d 0ea8 11bd
00000340: 9fe2 38bd ee32 3fbd ff14 cd3c b84e 83bb
00000350: 90aa cf3d 7101 273d eeba 9e3d b116 313d
00000360: 880f 14bd eda3 3ebc fdb5 bdbd 0fb6 9f3d
00000370: fbf7 a0bc ccab 42bd b5f5 f23d 8631 5abc
00000380: e944 9bbd f741 1fbc e94b fc3c d4b0 ed3b
00000390: fbae acbc 248a 2b3d 00f6 9fbc 66f1 863d
000003a0: e1a3 16bd d925 98bd 792e 4b3d 3226 c53d
000003b0: 7912 f23d d358 313d 2282 a73d 3967 f03c
000003c0: d3e8 3a3d bee3 79bd 2689 f7bc 7280 df3d
000003d0: a92e 0a3e 620c 973d 596f dd3d ccc2 fc3d
000003e0: 7abe c23c 3eb3 733d 2cc1 003e 4677 ab3d
000003f0: 8ae0 1c3d 5197 aebd dd0e 34bd 6125 2b3d

encoder.blocks.2.conv.0.bias f4 [64]
3.703554e-05 0.048490543 -0.05525741 0.016003484 -0.004273394 0.0027735066 -0.0032770166 0.047296636
0.06852922 0.0046722777 0.02977929 -0.024941683 0.01675392 -0.06731247 0.014286427 0.061115798
-0.02528065 0.0056007 0.01681126 0.0006045989 -0.05013713 -0.056254633 0.025397804 -0.0507701
0.099038176 0.05526784 0.123355 -0.113975525 -0.060582403 -0.034661893 -0.011350621 0.09308432
-0.035674646 -0.051810022 0.08009503 0.024770072 0.04155322 0.018562883 0.014910774 0.04086862
0.01902848 -0.06240536 -0.052997995 -0.021187905 -0.025946487 -0.053020284 -0.046140473 0.02388619
0.02574351 0.005900476 -0.0032030528 -0.020049892 0.029400855 0.032895464 0.015201135 -0.001475947
-0.020319724 -0.08822082 -0.008656946 -0.03836369 0.032922633 0.05119482 0.029893618 0.07054887
00000000: 9c56 1b38 059e 463d 9855 62bd bd19 833c
00000010: d407 8cbb b8c3 353b 37c3 56bb 1eba 413d
00000020: 0c59 8c3d e819 993b b3f3 f33c 8052 ccbc
00000030: 843f 893c 1fdb 89bd 9e11 6a3c 8f54 7a3d
00000040: 5e19 cfbc 1486 b73b c4b7 893c f27d 1e3a
00000050: 975c 4dbd 426b 66bd 0e0f d03c 4ff4 4fbd
00000060: 87d4 ca3d 8860 623d 8ca1 fc3d 006c e9bd
00000070: 4125 78bd a1f9 0dbd f4f7 39bc fea2 be3d
00000080: 941f 12bd bf36 54bd dd08 a43d 9bea ca3c
00000090: b633 2a3d 3011 983c 524c 743c db65 273d
000000a0: 9de1 9b3c c39c 7fbd 6d14 59bd 4292 adbc
000000b0: ba8d d4bc cc2b 59bd cbfd 3cbd f9ac c33c
000000c0: 0ee4 d23c c858 c13b 4fea 51bb ac3f a4bc
000000d0: 10da f03c 65bd 063d 2e0e 793c 9074 c1ba
000000e0: 8d75 a6bc 1ead b4bd ddd5 0dbc 3f23 1dbd
000000f0: e2d9 063d a9b1 513d 76e3 f43c ed7b 903d
