toyshapes/pinets_ensemble/ensemble_27/model_5.pth (torch, 466407 bytes, 71 tensors)

encoder.blocks.0.conv.0.weight f4 [16, 1, 3, 3]
0	0x3e33fb33	0.17576294
1	0xbec46280	-0.383564
2	0x3e814f18	0.25255656
3	0x3e14cea7	0.14531957
4	0x3e5a07ec	0.21292084
5	0xbe938d03	-0.2881852
6	0xbe8bace8	-0.27280354
7	0x3e3e4cbc	0.1858396
8	0xbe8b482e	-0.27203506
9	0x3e79e0a8	0.24402106
10	0xbdb88ef5	-0.09011642
11	0xbe11ce6f	-0.14238904
12	0xbecc0959	-0.39850882
13	0x3e289efe	0.164669
14	0x3d4d75f5	0.05016132
15	0xbdeb1ac7	-0.11479717
16	0x3e9a83a3	0.30178556
17	0xbd087540	-0.033314943
18	0xbe907eef	-0.28221843
19	0x3eafd586	0.34342593
20	0x3b806835	0.0039186724
21	0xbd301f01	-0.042998318
22	0xbe86c279	-0.26320246
23	0x3e5d5fd0	0.21618581
24	0x3ecc0625	0.39848438
25	0xbe7f0305	-0.24903496
26	0x3d756349	0.05990914
27	0x3e160a12	0.14652279
28	0xbe5e1fb9	-0.21691789
29	0x3d015800	0.031578064
30	0xbe39fd62	-0.18163064
31	0xbe1a7cb4	-0.15086633
32	0xbe6cdeeb	-0.23131911
33	0x3c99b528	0.01876314
34	0x3e75e5f4	0.24013501
35	0x3e6bf5e2	0.23043016
36	0x3e93f097	0.28894493
37	0xbeab5de1	-0.3347006
38	0xbc2a5630	-0.010396525
39	0x3ebb5f2e	0.36596054
40	0xbd537567	-0.051625635
41	0xbe05afd3	-0.13055353
42	0xbed4ce9a	-0.41563874
43	0x3dd407b0	0.10353029
44	0x3e3385f8	0.17531574
45	0x3e35b779	0.1774577
46	0x3e1c6036	0.15271077
47	0x3d1a8397	0.03772315
48	0x3e456f57	0.19280754
49	0xbe2d31f0	-0.16913581
50	0x3e81ebdb	0.25375256
51	0xbdfa2b68	-0.1221531
52	0xbe11f997	-0.14255367
53	0xbe78dc45	-0.24302776
54	0x3e61101b	0.219788
55	0x3e0ace19	0.13555183
56	0x3e501c38	0.20323265
57	0xbe62dc2d	-0.22154303
58	0xbe704306	-0.23463067
59	0x3e93c40f	0.28860518
60	0xbe3df32b	-0.18549792
61	0xbe5f862a	-0.21828523
62	0xbda0d971	-0.07853974
63	0xbda51f4d	-0.08062611
64	0xbe82e2e9	-0.25563744
65	0x3e986589	0.29764965
66	0x3d3dbd9b	0.0463234
67	0x3dd90dd7	0.10598343
68	0x3e5efc49	0.21775927
69	0xbe826887	-0.25470373
70	0x3e5babf8	0.2145232
71	0xbe8398a8	-0.25702405
72	0xbdade248	-0.08490425
73	0x3e379659	0.17928447
74	0x3e535e8c	0.20641536
75	0x3e80abc4	0.25131047
76	0x3d73c34a	0.059512414
77	0x3e228483	0.15870862
78	0xbe71e93b	-0.23624127
79	0xbe223301	-0.15839769
80	0xbe8e1d62	-0.27756792
81	0x3c82c208	0.015961662
82	0xbd918298	-0.07104987
83	0x3e69050e	0.22755834
84	0x3e668605	0.22512062
85	0xbe4dfbc2	-0.20115569
86	0xbe4c3638	-0.19942558
87	0xbe081a95	-0.1329139
88	0x3d938234	0.07202569
89	0xbe2f1a90	-0.17099977
90	0xbe3a0dcf	-0.1816933
91	0x3d922159	0.07135267
92	0xbe2a2c20	-0.16618395
93	0x3e07d0e6	0.13263282
94	0xbe849c5e	-0.2590055
95	0xbd601072	-0.054703183
96	0xbe393178	-0.18085277
97	0xbe53293f	-0.20621203
98	0x3e459db3	0.19298439
99	0x3e6dcbb8	0.23222244
100	0xbd692089	-0.056915794
101	0xbe848903	-0.25885782
102	0xbe3dbc39	-0.18528832
103	0xbe2b7a91	-0.16745974
104	0x3e710d6d	0.23540278
105	0x3bbf0945	0.0058299624
106	0xbe033de3	-0.12816577
107	0x3eab211e	0.33423704
108	0x3c9d467d	0.01919865
109	0xbde75dc5	-0.11297182
110	0xbdd9a2a2	-0.10626723
111	0x3e8deae6	0.27718276
112	0xbeb64995	-0.35603014
113	0xbd366ddb	-0.04453836
114	0x3e0b607c	0.13611025
115	0x3e856f54	0.260615
116	0xbe8b3fa7	-0.27197
117	0xbd10d74f	-0.035361584
118	0x3ea66793	0.32500896
119	0x3d028cb7	0.031872477
120	0x3daf20ee	0.08551203
121	0xbe3fade2	-0.18718675
122	0x3e2f241e	0.17103621
123	0xbe376536	-0.17909703
124	0xbe8ce42b	-0.27517828
125	0x3e2cf1a7	0.16889058
126	0x3e04cda4	0.1296907
127	0x3df54083	0.11975195
128	0xbe69ee2c	-0.22844762
129	0x3cb79cc3	0.022413617
130	0xbdb4846f	-0.08814322
131	0xbe815a29	-0.252641
132	0x3a6352ac	0.0008671682
133	0x3e4091fb	0.18805687
134	0xbec1ff70	-0.37890196
135	0x3e9b98b4	0.3038994
136	0x3e90efd0	0.28307962
137	0xbea68272	-0.32521397
138	0x3e68e5f8	0.22743976
139	0xbe27d065	-0.1638809
140	0xbe85c542	-0.26127058
141	0x3eb040ff	0.34424588
142	0xbdf04114	-0.11731163
143	0xbdc26078	-0.09491056

encoder.blocks.0.conv.0.bias f4 [16]
0	0x3cfcec05	0.030874262
1	0x3e355621	0.17708637
2	0xbd8c84f2	-0.06861295
3	0xbdd11dc6	-0.10210757
4	0x3dd13eee	0.10217081
5	0xbe3c77b7	-0.18405043
6	0xbeb51cac	-0.35373437
7	0x3d0587be	0.032600157
8	0xbdd0f9ac	-0.10203871
9	0x3e167837	0.14694296
10	0xbdb13745	-0.0865312
11	0xbe6950a1	-0.22784664
12	0xbd2c2a95	-0.042032797
13	0xbeab2c1e	-0.33432096
14	0xbd9cda8d	-0.07658873
15	0x3e23410a	0.15942779

encoder.blocks.0.conv.1.weight f4 [16]
0	0x3fa86306	1.315522
1	0x3f53dccc	0.82758784
2	0x3f8e7111	1.1128255
3	0x3f74caf5	0.9562219
4	0x3f86b0f7	1.0522755
5	0x3f7e2ec2	0.99290097
6	0x3f82d1b0	1.0220242
7	0x3f7ce675	0.9878915
8	0x3f8ad7a0	1.0847054
9	0x3f5c8d1c	0.86152816
10	0x3f6ce798	0.92540884
11	0x3f5b9310	0.85771275
12	0x3f768c02	0.96307385
13	0x3f85adec	1.0443702
14	0x3f58b85f	0.8465633
15	0x3f6473b3	0.89239043

encoder.blocks.0.conv.1.bias f4 [16]
0	0x3e753cc4	0.23948961
1	0xbdba3c14	-0.0909349
2	0x3d79923f	0.060930487
3	0x3c36f4f5	0.011166801
4	0xbdeb8154	-0.11499277
5	0xbbb3fc40	-0.005492717
6	0x3d26d551	0.040730778
7	0x3dbcbc5b	0.092156135
8	0xbd9184b1	-0.07105387
9	0xbd161d17	-0.036648836
10	0xbd307e1f	-0.04308903
11	0xbb680ccc	-0.0035408018
12	0xbd7db279	-0.061937783
13	0x3d804369	0.062628575
14	0xbd4d8ad0	-0.05018121
15	0xbcbacf14	-0.02280382

encoder.blocks.0.conv.1.running_mean f4 [16]
0	0xbdac793e	-0.084215626
1	0x3e708823	0.23489432
2	0x3c04abaf	0.008097573
3	0xbe1dd033	-0.15411453
4	0x3dd41498	0.103554904
5	0xbde5ebb4	-0.112265974
6	0xbed45282	-0.41469198
7	0x3d9143e3	0.070930265
8	0xbd5cec3f	-0.05393624
9	0x3d2eb51e	0.042653196
10	0xbec31f62	-0.3810988
11	0xbe68a3df	-0.22718762
12	0xbe187f7a	-0.14892378
13	0xbe84b8f3	-0.25922355
14	0xbe976c44	-0.29574788
15	0x3e7cd634	0.24691087

encoder.blocks.0.conv.1.running_var f4 [16]
0	0x3b94e03c	0.0045433324
1	0x3b2100db	0.002456716
2	0x3b27d485	0.002560885
3	0x3b64845a	0.0034868927
4	0x3af63322	0.0018783549
5	0x3bb22ae4	0.005437242
6	0x3c0be0c3	0.008537474
7	0x3b4e2f2f	0.003146123
8	0x3bceb34e	0.006307996
9	0x3b5815ba	0.0032971934
10	0x3c851ca0	0.016249001
11	0x3b0be187	0.0021344142
12	0x3bda10b1	0.006654822
13	0x3b9a4dcc	0.004708981
14	0x3c6ba41f	0.014382391
15	0x3c6728ca	0.014108846

encoder.blocks.0.conv.3.weight f4 [16, 16, 3, 3]
0	0x3d2554a1	0.04036391
1	0xbd44b819	-0.04802713
2	0x3d6b8afb	0.05750559
3	0xbd0d6af6	-0.034525834
4	0x3e46c537	0.19411169
5	0xbcb969f8	-0.022633538
6	0xbcbe0baf	-0.02319893
7	0x3da04ba9	0.07826931
8	0x3e0453cf	0.12922595
9	0x3da84f37	0.08218234
10	0xbce1988d	-0.027538562
11	0x3de942ca	0.11389692
12	0x3d6b133e	0.057391398
13	0x3cb592fa	0.02216481
14	0xbd97cb05	-0.0741177
15	0xbd7faf42	-0.062423
16	0xbd70c7f2	-0.058784433
17	0xbdbbf525	-0.09177617
18	0xbe384dcd	-0.17998429
19	0xbd089468	-0.033344656
20	0xbe10b601	-0.14131929
21	0xbe11e274	-0.14246541
22	0xbda23a06	-0.07921223
23	0xbd4c1292	-0.049822398
24	0xbcf6af21	-0.030112805
25	0xbd6749da	-0.056466915
26	0xbc1da743	-0.009622398
27	0x3d47d676	0.04878851
28	0xbab4b38e	-0.0013786422
29	0xbd085e93	-0.033293318
30	0xbd58facd	-0.052973557
31	0xbc0f9925	-0.00876454
32	0x3c9dfb84	0.019284971
33	0x3c61c5c4	0.013780061
34	0xbdabd9bf	-0.08391141
35	0xba22107d	-0.00061822665
36	0x3df74083	0.120728515
37	0xbcb2baf1	-0.021817656
38	0x3b8e6c8d	0.0043464364
39	0xbb59e820	-0.003324993
40	0x3cd555cb	0.026041886
41	0xbb78515b	-0.0037890289
42	0x3c492deb	0.012279014
43	0xbd4fec65	-0.050762553
44	0x3ddd650e	0.1081029
45	0x3d759d48	0.05996445
46	0x3dcf2d01	0.10116006
47	0x3dec432e	0.11536251
48	0x3e2f1fa2	0.1710191
49	0x3cf02cbf	0.029318212
50	0x3e7eea2c	0.24894017
51	0x3e46c985	0.19412811
52	0xbd5827a0	-0.052772164
53	0x3e305d2e	0.17223045
54	0xbe216f56	-0.15765128
55	0x3d5416c8	0.05177954
56	0xbb88d770	-0.004176073
57	0xbd1ac029	-0.037780914
58	0xbd4a69da	-0.049417354
59	0x3cb520d4	0.02211038
60	0x3d02b316	0.03190907
61	0x3de125ea	0.1099356
62	0xbd858ab1	-0.06520594
63	0x3da1221a	0.078678325
64	0x3d9d2ea1	0.076749094
65	0x3d643739	0.055716727
66	0xbdc8f8a9	-0.09813053
67	0x3df6cd02	0.12050821
68	0x3dae3186	0.085055396
69	0x3d79f9cc	0.06102924
70	0xbd14447c	-0.036198124
71	0xbd5d8569	-0.054082308
72	0x3e064d1a	0.1311535
73	0x3df0691e	0.117387995
74	0x3d869eb7	0.06573241
75	0x3d7aad28	0.06120029
76	0x3d9c9ce6	0.076471135
77	0x3e3b4626	0.18288478
78	0x3da85529	0.08219368
79	0x3e0803e0	0.13282728
80	0x3e14e20f	0.1453936
81	0xb98271cc	-0.00024880318
82	0xbd4b51ca	-0.049638547
83	0x3d56858c	0.052373454
84	0xbd274167	-0.040833857
85	0x3cb8bf62	0.022552196
86	0x3d469b78	0.04848811
87	0x3c8147e3	0.015781349
88	0x3ca14f14	0.019691028
89	0x3cc61575	0.024180153
90	0xbdb85f2b	-0.09002527
91	0xbdaabcd7	-0.083367996
92	0xbd881830	-0.066452384
93	0xbd918bd8	-0.07106751
94	0xbc3e2d22	-0.01160744
95	0xbdda98ff	-0.10673713
96	0xbde0559b	-0.10953828
97	0x3cbd2b0b	0.023091814
98	0xbce777ce	-0.02825537
99	0xbdf2d75f	-0.11857485
100	0xb93d93d9	-0.00018079522
101	0x3ca9dec3	0.020736104
102	0xbd93c7c7	-0.07215839
103	0xbdc989f1	-0.09840763
104	0xbd8b7a09	-0.06810386
105	0x3ce649c9	0.028111355
106	0x3da385c0	0.07984495
107	0xbd9d2327	-0.076727204
108	0xbd9183ed	-0.07105241
109	0x3d947e07	0.072506
110	0x3db34f9e	0.0875542
111	0x3c9f0a27	0.01941402
112	0x3b819ad4	0.0039552245
113	0x3ce607a2	0.028079811
114	0x3cfb8d53	0.030707037
115	0x3c49fa63	0.012327763
116	0x3cec3dfc	0.02883815
117	0xbda2aa73	-0.07942667
118	0x3b34416e	0.002750482
119	0x3da08938	0.078386724
120	0x3d7cec45	0.06174876
121	0x3df2fe50	0.118649125
122	0x3d93cf09	0.07217223
123	0xbc5a2c4e	-0.013316227
124	0x3db7f183	0.089816116
125	0x3b38de26	0.0028208583
126	0xbddb508f	-0.10708725
127	0xbcd76d3b	-0.026297202
128	0x3d30674b	0.043067258
129	0xbc23dd4a	-0.01000149
130	0xbdf57e9d	-0.1198704
131	0x3dbf4d13	0.093408726
132	0xbd929993	-0.07158198
133	0x3d17e598	0.037084192
134	0x3d67ce5a	0.056593277
135	0xbe02894c	-0.12747687
136	0xbd225352	-0.03963024
137	0x3ceb0692	0.028689656
138	0x3dabcf40	0.08389139
139	0xbcf2f748	-0.029658929
140	0x3dac300b	0.08407601
141	0x3c597f59	0.013274991
142	0x3d797b13	0.06090839
143	0x3e1dd6da	0.1541399
144	0xbd909c58	-0.0706107
145	0xbb41383f	-0.0029482988
146	0xbc5cd448	-0.013478346
147	0x3d283f8b	0.041076224
148	0x3d2f08ad	0.042732883
149	0x3a60040b	0.00085455243
150	0x3dc7e30c	0.09760103
151	0x3d18bd61	0.03728998
152	0x3d1f5f33	0.03890915
153	0x3bb78f30	0.005601786
154	0x3d11efb7	0.035629
155	0x3da0b639	0.07847256
156	0xbd42afd0	-0.04753095
157	0xbb4c2f49	-0.0031156114
158	0x3d032acd	0.03202324
159	0xbcd3749e	-0.025812443
160	0x3d06834f	0.03284007
161	0x3c6f7c42	0.014617028
162	0x3c86c942	0.01645339
163	0x3ce15094	0.027504243
164	0xbd5ec9bb	-0.054391604
165	0x3c1a5b76	0.00942122
166	0x3dfc831c	0.12329695
167	0xbdcc7af6	-0.099843904
168	0xbdb0d8ed	-0.08635125
169	0xbd5d450b	-0.054020923
170	0x3ddd7132	0.10812606
171	0x3df34d86	0.11880021
172	0xbcf0db82	-0.029401544
173	0xbdb7ef6c	-0.08981213
174	0xbd94c1da	-0.07263537
175	0x3caa925c	0.020821743
176	0x3d813154	0.06308237
177	0x3d77983f	0.060447928
178	0x3ded045a	0.115730956
179	0x3d84d22c	0.064853996
180	0xbcaf6f10	-0.021415263
181	0x3d907906	0.070543334
182	0x3dbbc8ca	0.09169157
183	0xbccc1e6c	-0.02491685
184	0x3da27bdf	0.07933783
185	0x3e08cbb8	0.13358963
186	0x3e43e8db	0.19131796
187	0x3dc57d2d	0.09643016
188	0x3cf7b9bc	0.030239932
189	0x3e13ffc9	0.14453043
190	0x3db7ea87	0.089802794
191	0x3e4c335a	0.19941464
192	0x3dcf1a51	0.10112441
193	0x3e2372d8	0.15961778
194	0x3e0448bf	0.12918375
195	0x3d85aca4	0.06527069
196	0x3d8c2400	0.06842804
197	0x3e0de092	0.13855198
198	0x3de8350f	0.11338245
199	0x3cc5b3f8	0.024133667
200	0x3c24e086	0.010063296
201	0xbc835642	-0.016032342
202	0x3c80aa29	0.015706139
203	0xbc18a0ee	-0.009315712
204	0x3e124077	0.14282404
205	0xbaf1d6eb	-0.0018450891
206	0x3b037025	0.0020055857
207	0x3db314a6	0.08744173
208	0x3e4e2f41	0.20135213
209	0x3e0a142a	0.13484254
210	0x3e06116c	0.13092583
211	0x3def6c40	0.11690569
212	0x3d80c93b	0.06288382
213	0xbdf3aab3	-0.11897793
214	0x3da1d3c9	0.07901723
215	0x3da232a1	0.07919813
216	0x3e208b63	0.15678172
217	0x3e4cc9d6	0.1999887
218	0x3e35124e	0.17682764
219	0x3e07eb27	0.13273297
220	0x3e12101f	0.14263962
221	0x3e471aa2	0.19443753
222	0x3e17fbfd	0.1484222
223	0x3dae0c00	0.084983826
224	0x3e136cd5	0.14396985
225	0xbd9bb79f	-0.07603382
226	0x3d9c0e2e	0.07619892
227	0xbd39568d	-0.045248557
228	0x3dff5aa9	0.12468464
229	0x3d766f11	0.060164515
230	0xbd2d94cc	-0.042378232
231	0x3ce1119f	0.027474223
232	0x3e164c90	0.14677644
233	0x3d13e253	0.03610451
234	0xbc8218c7	-0.015880955
235	0xbd04d7b0	-0.032432258
236	0x3d8679b4	0.06566182
237	0xbd965a55	-0.07341448
238	0xbcd2d0a2	-0.02573425
239	0xbd87737e	-0.06613825
240	0xbd5cc818	-0.05390176
241	0x3dd5695c	0.10420486
242	0xbd03fb58	-0.032222122
243	0x3cded0ae	0.027199116
244	0x3bbcdeca	0.005763863
245	0xbd96c488	-0.07361704
246	0xbd313ba9	-0.043269787
247	0xbd4ca90d	-0.049965907
248	0xbb618fe1	-0.0034418034
249	0x3dbaf106	0.09128003
250	0xbb2e25c0	-0.0026572794
251	0x3dc6015f	0.0966823
252	0xbd833c3c	-0.06407973
253	0xbd25cbfe	-0.040477745
254	0xbd8ed7b2	-0.06974734
255	0x3dce3ee1	0.10070587

encoder.blocks.0.conv.3.bias f4 [16]
0	0x3d8a050a	0.067392424
1	0xbdaabd27	-0.08336859
2	0x3d54b69f	0.051931974
3	0xbdc5a2a7	-0.09650164
4	0x3c81fb98	0.01586704
5	0xbba5c475	-0.00505882
6	0xbd177c78	-0.036983937
7	0x3d525cb2	0.051357932
8	0x3cb9ab7f	0.022664784
9	0xbd71e675	-0.05905767
10	0xbcb0889c	-0.021549515
11	0xbca63e22	-0.0202933
12	0xbe040b96	-0.12895045
13	0xbdee0c6c	-0.11623463
14	0xbd616490	-0.055027544
15	0xbd35546f	-0.044269975

encoder.blocks.0.conv.4.weight f4 [16]
0	0x3f7bebd5	0.98406726
1	0x3f7e5b78	0.9935832
2	0x3f636a16	0.8883375
3	0x3f8e8c3b	1.1136545
4	0x3f710cda	0.94160235
5	0x3f630548	0.88679934
6	0x3f6333c2	0.8875085
7	0x3f8838d9	1.0642349
8	0x3f8a9cae	1.0829065
9	0x3f62b585	0.88558227
10	0x3f799a40	0.9750099
11	0x3f7a2164	0.977072
12	0x3f63f20d	0.89041215
13	0x3f6508e5	0.89466697
14	0x3f835edf	1.0263327
15	0x3f8b1b50	1.086771

encoder.blocks.0.conv.4.bias f4 [16]
0	0xbd88fed5	-0.0668923
1	0xbd7f1de5	-0.06228437
2	0xbddd8a86	-0.10817437
3	0xbc90ef00	-0.01769209
4	0xbd7c9861	-0.061668757
5	0xbd6d139a	-0.05788002
6	0xbddb6ebd	-0.10714481
7	0xbd14ff4c	-0.036376283
8	0xbdbedac2	-0.093190685
9	0xbdbc0ba4	-0.09181908
10	0xbd97bf18	-0.07409495
11	0xbddd06ee	-0.10792337
12	0xbdf13066	-0.117768094
13	0xbe06ccb6	-0.13164029
14	0x3d2d3281	0.042284492
15	0x3d1fc109	0.039002452

encoder.blocks.0.conv.4.running_mean f4 [16]
0	0x3f11bfd2	0.5693332
1	0x3fb66436	1.4249332
2	0xbfd088eb	-1.6291784
3	0xbf2ff8d5	-0.6873906
4	0xbf84117c	-1.0317836
5	0xbfffeb56	-1.9993694
6	0x3f09937b	0.5374066
7	0x3fb8c0c5	1.4433829
8	0xbea588c8	-0.32330918
9	0xbf3aecf2	-0.730178
10	0x3ead53c3	0.33852968
11	0xbef3ea7e	-0.4763984
12	0x3f00af06	0.50267065
13	0xbfc6a4f2	-1.5519087
14	0x3f035e50	0.51315784
15	0xbea7d7d2	-0.32781845

encoder.blocks.0.conv.4.running_var f4 [16]
0	0x3fd28521	1.6446878
1	0x4060379c	3.5033941
2	0x404e0185	3.2188427
3	0x3f3a2352	0.72710145
4	0x4008a097	2.1348016
5	0x408761c1	4.230683
6	0x400643d0	2.097889
7	0x4008a2da	2.1349397
8	0x3f572d73	0.84053725
9	0x3f9bd717	1.2175015
10	0x3f9a0d6d	1.2035347
11	0x40057396	2.0851798
12	0x3fb7648e	1.4327562
13	0x40377349	2.8664114
14	0x3f8b98b0	1.0905972
15	0x3f1cf051	0.61304194

encoder.blocks.0.skip.weight f4 [16, 1, 1, 1]
0	0x3eb88df4	0.36045802
1	0x3f0578f4	0.52137685
2	0x3d6c8f20	0.057753682
3	0xbf61d294	-0.8821194
4	0xbec6d774	-0.38836253
5	0x3e5be7c0	0.21475124
6	0x3f09bf08	0.53807116
7	0xbf65ec24	-0.89813447
8	0x3efff924	0.49994767
9	0xbee96c0c	-0.45590246
10	0xbf086d6c	-0.53291965
11	0x3ea1cf8c	0.31603658
12	0x3f316ad0	0.6930361
13	0x3e864ee8	0.26232076
14	0xbf78fa7a	-0.97257197
15	0xbf10921e	-0.5647296

encoder.blocks.0.skip.bias f4 [16]
0	0x3d7bf480	0.06151247
1	0x3f1bc702	0.60850537
2	0x3f74f15c	0.95680785
3	0xbf57fdd6	-0.843717
4	0xbe99df4c	-0.30053174
5	0xbeea2c7c	-0.45737064
6	0xbd661920	-0.056176305
7	0xbec5ec68	-0.38656926
8	0x3ee6f3e8	0.4510796
9	0xbf176044	-0.59131265
10	0xbd403120	-0.04692185
11	0xbb0a6200	-0.0021115541
12	0xbf470984	-0.77748895
13	0x3e5e0af8	0.21683872
14	0xbf17b324	-0.5925772
15	0xbf793e40	-0.9736061

encoder.blocks.1.conv.0.weight f4 [32, 16, 3, 3]
0	0x3e22a3f2	0.15882853
1	0x3cd08d68	0.025458053
2	0x3cebea7a	0.02879833
3	0x3e144852	0.14480713
4	0x3df56256	0.11981647
5	0x3d127f2f	0.035765823
6	0x3e250ab2	0.16117361
7	0x3de6731c	0.11252424
8	0x3da8cf7c	0.082426995
9	0x3db65118	0.08902186
10	0x3ca93a54	0.020657696
11	0x3e10094a	0.14066043
12	0x3e3d3c21	0.18479969
13	0x3d04dc1d	0.03243648
14	0x3c753e09	0.014968404
15	0x3d85cdfe	0.065334305
16	0x3d6adcdd	0.057339538
17	0xbd1cf6b7	-0.038321223
18	0xbdc604d4	-0.0966889
19	0xbd9d3bf7	-0.07677453
20	0xbd0fc4fe	-0.035099976
21	0x3ce2d08e	0.027687337
22	0xbced9e2c	-0.029006086
23	0x3c8ec839	0.017429458
24	0xbc9fd8bb	-0.019512525
25	0x3b91a843	0.004445107
26	0xbbf2c698	-0.007408928
27	0xbdd32c87	-0.10311227
28	0xbc8365fe	-0.016039845
29	0xbcd54b6e	-0.026036944
30	0xbdcf769e	-0.10130046
31	0x3c295113	0.010334271
32	0xbdc0ed4c	-0.09420261
33	0x3cc26589	0.023730056
34	0xbc47bb4a	-0.012190649
35	0x3d4e773e	0.050406687
36	0xbd801cc7	-0.06255489
37	0x3d7c1c0e	0.061550193
38	0x3ca36bf1	0.019948931
39	0xbd7409c5	-0.05957963
40	0xbc7eee36	-0.015559724
41	0xbd3d5cbf	-0.046231028
42	0x3b8b641d	0.004253878
43	0x3d455339	0.04817507
44	0x3d0ffbc8	0.035152227
45	0xbcaa03f7	-0.020753844
46	0xbc9cb7c9	-0.019130604
47	0x3d1d02b3	0.038332652
48	0xbc36dd85	-0.011161213
49	0x3c0605c7	0.008180088
50	0x3c7ebfd0	0.015548661
51	0xbdc8d861	-0.09806896
52	0x3d5c1a00	0.053735733
53	0x3ce4f033	0.027946567
54	0x3c882ae4	0.016622014
55	0xbce3fee5	-0.027831504
56	0x3d4eea67	0.050516512
57	0x3d867090	0.06564438
58	0x3e034346	0.12818632
59	0x3e0a15be	0.13484856
60	0x3d64272c	0.05570142
61	0x3df41b25	0.1191924
62	0xbd0cbe2a	-0.034361042
63	0x3d12006e	0.03564494
64	0x3ae4adcf	0.0017446819
65	0x3e2d018e	0.16895124
66	0x3e5d7cd5	0.21629651
67	0x3dcfd5ab	0.10148176
68	0x3dc52cfe	0.09627722
69	0x3e2901f7	0.16504656
70	0x3bec7998	0.0072166435
71	0xbcbc190d	-0.022961164
72	0x3d5c2941	0.05375028
73	0x3d96986e	0.073532924
74	0xbc6e00a6	-0.014526522
75	0x3dd24351	0.10266746
76	0x3c5d9177	0.013523451
77	0xbd078be4	-0.033092394
78	0x3ddb26be	0.10700749
79	0x3d73e4b0	0.059544265
80	0x3de8c6e4	0.113660604
81	0xbdbdef83	-0.09274199
82	0xbd316fb8	-0.043319434
83	0x3b9df076	0.004819925
84	0xbdad7128	-0.084688485
85	0x3a493a63	0.0007676242
86	0xbce4686e	-0.027881827
87	0x3d04e08c	0.032440707
88	0x3df176c4	0.11790231
89	0x3e0b72f5	0.13618071
90	0x3d713eb6	0.058897696
91	0xbc4ef690	-0.012632027
92	0x3d8ad117	0.06778162
93	0x3e254441	0.16139318
94	0x3e4b13e3	0.19831805
95	0x3d92740b	0.0715104
96	0x3e08b86a	0.13351598
97	0x3c923f5a	0.017852474
98	0xbc8f4db5	-0.017493108
99	0xbcce1ee5	-0.025161216
100	0x3c5bc23d	0.013413009
101	0xbdfd74e3	-0.1237581
102	0x3c39b58d	0.011334789
103	0x3beec39a	0.007286501
104	0xbd319401	-0.04335404
105	0xbd9c75cc	-0.076396555
106	0x3a29d700	0.0006478876
107	0x3cdec3cd	0.027192974
108	0xbd187277	-0.037218537
109	0xbc378abc	-0.01120251
110	0xbd419afc	-0.047266945
111	0x3d9a97ba	0.07548471
112	0xbc11d5f2	-0.008901106
113	0x3cbdb708	0.023158565
114	0x3d256137	0.040375914
115	0xbd21e079	-0.039520714
116	0xbc9214ac	-0.017832123
117	0xbccda041	-0.02510083
118	0xbd6bae77	-0.05753943
119	0xbd08b8a1	-0.0333792
120	0xbb607719	-0.0034250675
121	0xbd216f4d	-0.039412785
122	0x3ce170ee	0.02751967
123	0xbdcce125	-0.100038804
124	0x3d90c31c	0.07068464
125	0x3d5a64fe	0.05331897
126	0x3da3a5f5	0.07990638
127	0xbd911e4c	-0.07085857
128	0x3d8dc789	0.06922824
129	0x3e0e3d65	0.13890608
130	0x3dce7cb9	0.10082383
131	0x3df3b5d8	0.11899918
132	0x3dc9264b	0.09821757
133	0x3d499455	0.049213726
134	0x3da44df6	0.08022682
135	0xbd9153a4	-0.07096031
136	0xbdff0cd0	-0.12453616
137	0x3c8f120c	0.01746466
138	0x3d3cbcbc	0.04607843
139	0x3cf4318b	0.02980878
140	0x3c02d59d	0.0079855
141	0x3e050289	0.12989248
142	0x3d9663fa	0.07343288
143	0x3d0ab5f0	0.033864915
144	0xbde444a9	-0.111459084
145	0xbd4480d2	-0.047974415
146	0xbd4b5731	-0.0496437
147	0x3d5a132f	0.05324095
148	0x3db60273	0.08887186
149	0xbd61f346	-0.055163644
150	0xbdd7990a	-0.10527237
151	0xbbc76525	-0.0060850554
152	0xbc972011	-0.018447908
153	0xbd14840c	-0.036258742
154	0xbd6102fa	-0.05493448
155	0xbd131f86	-0.035918735
156	0xbd69a980	-0.057046413
157	0x3d8730c8	0.06601101
158	0x3b8268e4	0.003979789
159	0xbdb06aba	-0.086141065
160	0x3c1c5f0f	0.009544148
161	0xbd430b41	-0.047618154
162	0x3d922abd	0.07137058
163	0xbd0a5f78	-0.033782452
164	0x3dd92251	0.106022485
165	0x3de65ab8	0.11247772
166	0x39a35804	0.0003115536
167	0x3d7278cc	0.059197232
168	0x3d2aaa73	0.04166646
169	0x3d6d5811	0.057945315
170	0xbd6809f1	-0.056650106
171	0x3d7c482c	0.061592266
172	0x3e4461ed	0.1917798
173	0x3e31d957	0.17368065
174	0xbd4bf49a	-0.049793817
175	0x3ddf1948	0.10893494
176	0x3e11853d	0.14210983
177	0x3d5784d7	0.05261692
178	0x3d718ee0	0.058974147
179	0x3e0ea175	0.13928778
180	0x3d7a2e19	0.06107912
181	0xbd9afe50	-0.075680375
182	0xbd86a659	-0.06574697
183	0x3c69a5b8	0.014260702
184	0xbd549173	-0.051896524
185	0xbd3564b5	-0.044285495
186	0xbd45b2ce	-0.048266225
187	0xbd8e2073	-0.06939783
188	0xbd972bf4	-0.0738143
189	0x3dae11d9	0.08499498
190	0x3d053b65	0.032527346
191	0x3df3d131	0.119051345
192	0x3dd5e59d	0.10444186
193	0x3cec1198	0.028816983
194	0xbc85ed8d	-0.016348625
195	0xbcd0264e	-0.02540889
196	0xbb9474a3	-0.0045305057
197	0x3d4dd3dc	0.050250873
198	0xbc6238eb	-0.013807516
199	0xbdafce34	-0.08584252
200	0xbdd23d97	-0.102656536
201	0x3c955979	0.01823114
202	0xbd04089e	-0.03223478
203	0xbd26642c	-0.040622875
204	0xbd9cfca3	-0.07665374
205	0xbe03969f	-0.12850426
206	0xbdea7c08	-0.11449438
207	0xbd802151	-0.062563546
208	0xbdc4315a	-0.095797256
209	0xbdf63cc9	-0.120233126
210	0xbd354918	-0.04425916
211	0xbd8124f9	-0.0630588
212	0xbbbd641d	-0.0057797567
213	0xbd9d19a3	-0.076709054
214	0xbd488e05	-0.048963565
215	0xbc8c5be6	-0.017133664
216	0xbda031b0	-0.07821977
217	0x3d9ba412	0.07599653
218	0x3e05a3da	0.13050786
219	0xbbac15b0	-0.005251609
220	0x3d835680	0.06412983
221	0x3df7eb2b	0.121054016
222	0x3d44c222	0.048036702
223	0x3d09f7ef	0.033683714
224	0x3e14eb49	0.14542879
225	0xbd26b88c	-0.04070334
226	0x3c0e62a8	0.008690514
227	0x3d6a699b	0.05722962
228	0xbc8118b9	-0.015758859
229	0x3da5da3e	0.08098267
230	0x3d924821	0.07142664
231	0xbd293697	-0.041311827
232	0x3d4efda3	0.050534856
233	0xbc8609b6	-0.016362052
234	0xbd2165c8	-0.039403707
235	0xbd2cdfe7	-0.042205717
236	0xbb6118c8	-0.0034347046
237	0x3c50afab	0.012737195
238	0xbd86f955	-0.06590525
239	0xbdbe5e80	-0.09295368
240	0xbdfb52ad	-0.122716285
241	0xbc939061	-0.018013181
242	0xbdae38c2	-0.085069194
243	0xbd339071	-0.043838922
244	0x3bcfcee9	0.0063418043
245	0x3def4ec0	0.11684942
246	0xbd359dff	-0.04434013
247	0x3d3317d7	0.043723907
248	0x3de8da6e	0.11369787
249	0x3c188107	0.009308106
250	0x3e208e5b	0.15679304
251	0x3dfa76cb	0.12229689
252	0x3d49f2cf	0.049303826
253	0x3c41ff62	0.011840673
254	0xbd6eb522	-0.05827821
255	0xbd55fc13	-0.05224235

encoder.blocks.1.conv.0.bias f4 [32]
0	0x3d324fdb	0.043533187
1	0xbd5d3a6e	-0.0540108
2	0x3d48a72e	0.04898756
3	0x3d2fbf44	0.042907014
4	0x3d9d8e60	0.076931715
5	0x3d877006	0.06613164
6	0xbd5cddc4	-0.05392243
7	0x3d834ea0	0.06411481
8	0xbddad1f3	-0.10684576
9	0xbd93c01f	-0.072143786
10	0xbd6209bf	-0.055185076
11	0xbd4ba692	-0.0497194
12	0x3d24ffe3	0.040283095
13	0x3c93f255	0.018059889
14	0x3d8f539a	0.069983676
15	0x3d3de1ff	0.046358105
16	0xbdc496a7	-0.09599047
17	0x3d43152f	0.047627624
18	0xbd2e3fb4	-0.04254122
19	0xbcd24d47	-0.025671614
20	0xbd3b26bc	-0.045691237
21	0x3cebdb99	0.028791236
22	0xbc585a8e	-0.013205184
23	0x3df1f72f	0.11814725
24	0xbbc42100	-0.005985379
25	0xbd1502d5	-0.036379654
26	0xbd3ac5ab	-0.045598667
27	0xbd8a850d	-0.06763659
28	0x3cba3ccd	0.02273407
29	0xbb7ec364	-0.0038873786
30	0xbc949117	-0.01813559
31	0xbd01ab4e	-0.03165751

encoder.blocks.1.conv.1.weight f4 [32]
0	0x3f7bca19	0.9835525
1	0x3f8e09df	1.1096762
2	0x3f75488f	0.9581384
3	0x3f8b110b	1.0864576
4	0x3f693b61	0.9110623
5	0x3f8087c1	1.0041429
6	0x3f5df499	0.8670135
7	0x3f7c1306	0.9846653
8	0x3f73a7d9	0.9517799
9	0x3f8cfa00	1.1013794
10	0x3f7a8e42	0.9787332
11	0x3f65d5a0	0.8977909
12	0x3f815641	1.0104448
13	0x3f7793f2	0.9671012
14	0x3f6dcbba	0.9288899
15	0x3f6e3bd3	0.93060035
16	0x3f80f8b7	1.0075902
17	0x3f870637	1.0548772
18	0x3f712d69	0.94209915
19	0x3f75e35c	0.9605005
20	0x3f5df355	0.8669942
21	0x3f836a97	1.0266904
22	0x3f79f4c8	0.9763913
23	0x3f81526c	1.0103278
24	0x3f79f238	0.9763522
25	0x3f6f05d9	0.933683
26	0x3f8a7f7d	1.0820156
27	0x3f88a7e6	1.0676239
28	0x3f806a3d	1.0032421
29	0x3f77a884	0.9674151
30	0x3f5be5fe	0.85897815
31	0x3f7db5e7	0.99105686

encoder.blocks.1.conv.1.bias f4 [32]
0	0xbd2aaed2	-0.041670628
1	0xbcbcb250	-0.023034245
2	0x3c40564a	0.011739323
3	0xbdb66671	-0.08906258
4	0xbd813e55	-0.06310717
5	0xbd79f9ba	-0.061029173
6	0xbd20fb3a	-0.03930209
7	0xbd9c30e1	-0.076265104
8	0xbdd543b9	-0.10413308
9	0xbe11c266	-0.14234313
10	0xbe3d35bf	-0.18477534
11	0xbd032a37	-0.03202268
12	0xbdc0a16e	-0.0940579
13	0xbdde80fc	-0.108644456
14	0xbc3abedc	-0.0113980435
15	0xbc99c623	-0.018771237
16	0xbdf271b2	-0.11838092
17	0xbd99a211	-0.07501615
18	0xbc8c1e7e	-0.017104384
19	0xbd40033d	-0.04687809
20	0xbdeef55f	-0.116678946
21	0xbe132a12	-0.14371517
22	0xbe23da7a	-0.16001311
23	0xbc272fb6	-0.010204246
24	0xbdb7cd20	-0.08974671
25	0xbdfca733	-0.12336578
26	0xbd9be119	-0.07611293
27	0xbe261410	-0.1621859
28	0xbd9b4327	-0.07581168
29	0xbd8b1a5f	-0.06792139
30	0xbdf97e9c	-0.12182352
31	0x3a7245d7	0.00092419743

encoder.blocks.1.conv.1.running_mean f4 [32]
0	0x3ff03613	1.8766502
1	0xbe319593	-0.17342214
2	0xbf385470	-0.7200384
3	0xbebd47e0	-0.369689
4	0x3f2d6319	0.67729336
5	0x3fba1f6f	1.4540843
6	0xbf9e1adb	-1.2351946
7	0x3dd8f5ae	0.10593735
8	0x3ebb140f	0.3653874
9	0xbf618a79	-0.8810192
10	0xbdb8ce84	-0.09023765
11	0x4015d150	2.3409004
12	0xbf0cfe00	-0.55075073
13	0x3fbf77b0	1.4958401
14	0xbfd673dc	-1.6754107
15	0xbff856f0	-1.9401531
16	0x3ec6ee59	0.3885372
17	0xbce27414	-0.027643241
18	0xbfdef70b	-1.7419142
19	0x40059496	2.087194
20	0x4007c88e	2.121616
21	0x3d0e08f5	0.03467651
22	0xbd8746d9	-0.0660531
23	0x400f9d67	2.243982
24	0x3f652508	0.8950963
25	0x3ef83f0e	0.48485607
26	0xbdc96bf1	-0.09835041
27	0xbe835171	-0.25648072
28	0x3fc74fc0	1.5571213
29	0x3f4ddf8b	0.80419225
30	0x3f2a6e0f	0.66574186
31	0x3e5c32c4	0.2150374

encoder.blocks.1.conv.1.running_var f4 [32]
0	0x41019633	8.09917
1	0x4027cd91	2.6219218
2	0x408f22bc	4.47299
3	0x40b82383	5.754335
4	0x40572f46	3.3622603
5	0x3f5e1803	0.8675539
6	0x40ba0e78	5.814266
7	0x40116479	2.2717574
8	0x40c0ce19	6.0251584
9	0x3ff9fa30	1.9529476
10	0x400f69a9	2.240824
11	0x410fc392	8.985247
12	0x40e19432	7.0493402
13	0x40c81120	6.2520905
14	0x4037cb64	2.871789
15	0x4049b4a9	3.1516516
16	0x3f7e280d	0.9927986
17	0x3fbb5708	1.4635935
18	0x409ebcca	4.9605455
19	0x41039175	8.223012
20	0x40f8914b	7.767736
21	0x4003df6c	2.0605116
22	0x40777420	3.8664627
23	0x41043d30	8.264938
24	0x3fb7d4da	1.4361832
25	0x403f41dd	2.988395
26	0x40630966	3.5474486
27	0x402c17ac	2.6889448
28	0x4012cd93	2.2937973
29	0x3fd6c7a9	1.6779681
30	0x40080aa1	2.1256487
31	0x40320a15	2.7818654

encoder.blocks.1.conv.3.weight f4 [32, 32, 3, 3]
0	0xbd02c14f	-0.031922635
1	0x3cfced97	0.03087501
2	0xbd1401b5	-0.03613444
3	0x3c76a445	0.015053813
4	0x3c795b8b	0.015219579
5	0x3d24d198	0.040238947
6	0xbcede1f0	-0.0290384
7	0xbcd2c5f7	-0.025729163
8	0xbc858747	-0.016299857
9	0x3cc9b111	0.024620565
10	0x3da17526	0.078836724
11	0x3c9ac9c2	0.018895034
12	0x3d6f7c43	0.058468115
13	0x3d2f7047	0.042831685
14	0xbd6bac9e	-0.057537667
15	0x3dcf520f	0.10123073
16	0x3dcccd45	0.100000896
17	0x3dc07567	0.09397393
18	0xbbdca275	-0.0067332336
19	0xbcf0d9e8	-0.02940078
20	0x3d1df8ad	0.038567234
21	0xbd060e8b	-0.032728713
22	0x3c3414c7	0.010991282
23	0xbd4b018d	-0.049562026
24	0xbda61a66	-0.08110504
25	0xbdcf6aba	-0.10127778
26	0xbc15a5d9	-0.009133779
27	0x3dbe89fa	0.09303661
28	0x3e0fd8d9	0.14047565
29	0x3de0fb03	0.10985377
30	0x3dc3e14d	0.09564457
31	0x3ce6990c	0.02814915
32	0x3d9fa2a5	0.07794694
33	0x3e001b88	0.12510502
34	0x3dd30e1b	0.10305425
35	0x3df73148	0.120699465
36	0x3caf5420	0.021402419
37	0x3d47b500	0.0487566
38	0x3c815cd4	0.015791334
39	0xbd2434f0	-0.040089548
40	0x3d3cb0eb	0.04606716
41	0xbcb8e0bd	-0.022568101
42	0x3b811500	0.003939271
43	0xbb15d7ce	-0.0022864225
44	0xbc601d01	-0.01367879
45	0x3b37fce4	0.0028074319
46	0xbd02d161	-0.03193796
47	0x3c4e42b6	0.012589147
48	0x3dc10d17	0.09426325
49	0x3db25bbe	0.08708905
50	0x3be7f270	0.0070784613
51	0x3de6334d	0.112402536
52	0x3d55030c	0.05200486
53	0x3d058995	0.03260191
54	0x3c378a9a	0.011202479
55	0xbd1218bc	-0.03566812
56	0x3c08ceb9	0.008350068
57	0xbca0a881	-0.019611599
58	0x3c078359	0.008271062
59	0x3c8e5d4d	0.017378474
60	0x3c85d348	0.016336098
61	0x3d5341af	0.051576313
62	0x3c6052a6	0.01369158
63	0x3df74996	0.12074582
64	0x3e13ea1f	0.14444779
65	0x3d5bd48e	0.053669505
66	0x3e222516	0.1583446
67	0x3dea84d9	0.1145112
68	0x3c15e91b	0.009149815
69	0x3d802543	0.06257107
70	0x3d2f16ab	0.042746227
71	0x3dc6f5a9	0.09714825
72	0xbce1b7e1	-0.0275535
73	0xbc9ef5de	-0.019404348
74	0xbc134bce	-0.008990241
75	0xbc668dca	-0.014071891
76	0xbd4df7ac	-0.050285026
77	0x3c9bc1e5	0.019013355
78	0x3c06825d	0.008209792
79	0x3ce772b0	0.02825293
80	0xbd3ade96	-0.04562243
81	0x3e5ec931	0.21756436
82	0x3e202bc7	0.156417
83	0x3d3793d8	0.04481873
84	0x3e324f72	0.17413118
85	0x3e00855d	0.12550874
86	0x3db511fa	0.088413194
87	0x3e142eba	0.1447095
88	0x3cc494f8	0.023996815
89	0x3d85349d	0.06504176
90	0x3dbdcb77	0.092673235
91	0x3e09140d	0.13386555
92	0x3d99fd7b	0.07519051
93	0x3dd178db	0.102281295
94	0x3dae8ddb	0.085231505
95	0x3da29de0	0.079402685
96	0xbc2c046b	-0.0104991
97	0x3dc9f2a0	0.0986073
98	0x3dbde1ff	0.09271621
99	0x3b01643e	0.0019743587
100	0xbc84c3a5	-0.016206572
101	0xbd2200d0	-0.039551556
102	0x3d8f1f8f	0.06988441
103	0xbd03dc66	-0.03219261
104	0x3d116fde	0.035507075
105	0x3c30b42d	0.010785145
106	0xbd018f8f	-0.03163105
107	0x3c337a4a	0.010954449
108	0x3d84b4b9	0.064797826
109	0x3df00a58	0.11720723
110	0x3df27d97	0.118403606
111	0x3d7efce8	0.06225291
112	0x3db0553b	0.086100064
113	0x3c621c3e	0.013800679
114	0x3e0eaf33	0.1393402
115	0x3ded90bf	0.11599874
116	0x3cf586e3	0.029971546
117	0xbc59679c	-0.013269331
118	0x3bacc763	0.005272792
119	0xbd4f65a0	-0.050634027
120	0xbdaa73bb	-0.08322855
121	0xbc9d8460	-0.01922816
122	0x3d1836b1	0.037161533
123	0x3c40e63b	0.011773641
124	0x3bf9e85d	0.007626577
125	0xbd943d72	-0.07238282
126	0x3c96c240	0.018403172
127	0x3dabed79	0.08394904
128	0x3d9e8647	0.07740455
129	0xbda86d2d	-0.08223949
130	0xbdb76bed	-0.08956132
131	0x3c168fb9	0.00918954
132	0x3cbcc544	0.023043282
133	0xbd3d1fb8	-0.046172827
134	0x3c166c32	0.009181069
135	0x3dd37cf0	0.10326564
136	0x3d61a754	0.055091217
137	0x3d221f67	0.03958073
138	0x3dc6215c	0.096743315
139	0x3dbefbb3	0.093253516
140	0x3d9c67bd	0.07636974
141	0xbb6df2e0	-0.0036308095
142	0x3dd13536	0.10215227
143	0x3d7a7580	0.061147213
144	0x3d84ccd3	0.064843796
145	0x3cfea589	0.031084793
146	0xbb8337dd	-0.004004462
147	0x3db9bd50	0.090693116
148	0x3dbd6948	0.092485964
149	0x3c37df0b	0.011222611
150	0x3ddc00a7	0.10742312
151	0x3d9fa494	0.07795063
152	0x3d025425	0.031818528
153	0x3e1c450c	0.15260714
154	0x3e02f70c	0.12789553
155	0x3d09a273	0.03360219
156	0x3d93cf1e	0.07217239
157	0x3d8f13c0	0.06986189
158	0x3d46df00	0.048552513
159	0x3db441dc	0.08801624
160	0x3d349b7c	0.044093594
161	0x3c25653f	0.01009494
162	0xbd3a129c	-0.045427904
163	0xbda5900a	-0.08084114
164	0xbd4b3092	-0.049606867
165	0xbd0764a1	-0.03305495
166	0xbd426fd1	-0.047469918
167	0x3cde1cce	0.027113345
168	0x3ce3c991	0.027806075
169	0xbd139455	-0.036030132
170	0xbd1d8f90	-0.03846699
171	0xbcdfe0c3	-0.027328854
172	0x3bd47613	0.006483802
173	0x3d363467	0.04448357
174	0xbb85ff78	-0.004089292
175	0x3ca8e6cf	0.02061787
176	0xbc411ea5	-0.011787091
177	0x3d8c4f02	0.06851007
178	0x3c3916f2	0.0112969745
179	0xbc819411	-0.015817674
180	0x3c9c1ca2	0.019056622
181	0x3bb2cce1	0.0054565524
182	0xbd4323c5	-0.047641534
183	0xbd6b96eb	-0.057516973
184	0x3c8877c7	0.016658677
185	0xbd0b1be8	-0.03396216
186	0x3ced0541	0.02893317
187	0xbc65fad2	-0.014036851
188	0xbd515126	-0.05110278
189	0x3da48eb0	0.08035028
190	0xbc70e420	-0.014702827
191	0xbbd5a42f	-0.0065198164
192	0x3df30103	0.11865427
193	0xbcb2a603	-0.021807676
194	0xbaf4d75f	-0.0018679908
195	0x3db47849	0.08812005
196	0x3c97596a	0.018475253
197	0x3d14328d	0.03618102
198	0x3e03649a	0.12831345
199	0x3e07d828	0.13266051
200	0xbc714f12	-0.0147283245
201	0x3ce1f174	0.027580954
202	0x3d385656	0.04500421
203	0xbc96c8ba	-0.01840626
204	0x3d9ac00f	0.075561635
205	0x3d9f2381	0.07770444
206	0x3da84ff1	0.082183726
207	0x3d123ff3	0.035705518
208	0x3d3dc984	0.04633476
209	0xbc76d712	-0.015065925
210	0x3cb2ef90	0.021842748
211	0xbd0e998b	-0.0348144
212	0x3c4cbca2	0.012496145
213	0x3cda7c8c	0.026670717
214	0x3cb98651	0.022647055
215	0xbc131c2c	-0.008978885
216	0x3d73f936	0.059563838
217	0x3d2f5718	0.04280767
218	0xbd79bcaf	-0.06097096
219	0x3d3f6695	0.04672869
220	0x3b7cda5b	0.0038582298
221	0x3c1d6696	0.009606978
222	0x3cde362b	0.027125439
223	0x3d56beb6	0.05242797
224	0xbcabcb36	-0.020970922
225	0x3d853326	0.065038964
226	0x3be2b567	0.0069185975
227	0xbcbecca5	-0.023290941
228	0x3dcfd7ed	0.101486064
229	0x3db08474	0.086190134
230	0x3bccab21	0.006245986
231	0x3d8127f1	0.06306446
232	0xbc2862cb	-0.01027746
233	0xbd8f2ae2	-0.06990601
234	0x3e0e451e	0.13893554
235	0x3e3c5a77	0.18393885
236	0x3c2f8282	0.010712268
237	0x3dcfb414	0.10141769
238	0x3e2d0300	0.16895676
239	0x3cd5faaa	0.026120503
240	0x3de274a3	0.11057403
241	0x3c5ef207	0.0136075085
242	0x3dbf9b1a	0.09355755
243	0x3e275ce7	0.16344033
244	0x3e3971f5	0.18109877
245	0xbc6367f6	-0.013879767
246	0x3db1f8f1	0.0869006
247	0x3dbe1069	0.09280474
248	0x3bb50511	0.0055242856
249	0x3e108115	0.14111741
250	0x3e02def3	0.12780361
251	0x3ca5ddd6	0.020247381
252	0x3af5c274	0.0018749968
253	0x3d3fcc1b	0.04682551
254	0x3d37dbb0	0.044887245
255	0xbd28963e	-0.041158907

encoder.blocks.1.conv.3.bias f4 [32]
0	0x3d8af34c	0.067846864
1	0xbdbc7799	-0.09202499
2	0x3db29eac	0.087216705
3	0x3bd0ab76	0.006368096
4	0x3bd590ce	0.006517506
5	0x3d37a0f2	0.044831224
6	0xbcf159f6	-0.029461842
7	0xbd091856	-0.033470474
8	0xbd0453e8	-0.03230658
9	0x3d7bc4a3	0.061466824
10	0xbde26a29	-0.11055405
11	0xbde66c1a	-0.112510875
12	0xbda7fabe	-0.08202122
13	0xbd9daa2d	-0.07698474
14	0xbce55a3d	-0.02799713
15	0x3d0b63c2	0.034030683
16	0xbdc383ca	-0.09546621
17	0xbd8343e9	-0.06409437
18	0xbafecf21	-0.0019440391
19	0xbd3c6b66	-0.04600086
20	0x3cd48f8a	0.025947351
21	0x3cdfb5a6	0.027308296
22	0x3d25b654	0.040457085
23	0x3caf59c5	0.02140511
24	0x3d84f2ee	0.06491648
25	0x3c92c882	0.017917875
26	0xbcbcc804	-0.023044594
27	0xbd874a91	-0.06606019
28	0xbcdd0bad	-0.026983107
29	0xbafca07e	-0.0019273905
30	0xbc5c638a	-0.013451466
31	0x3d8f2200	0.06988907

encoder.blocks.1.conv.4.weight f4 [32]
0	0x3f71ff06	0.9452976
1	0x3f7ff967	0.9998993
2	0x3f89052d	1.0704705
3	0x3f64909e	0.8928317
4	0x3f725803	0.94665545
5	0x3f868146	1.0508201
6	0x3f725cff	0.9467315
7	0x3f84e0ac	1.0381064
8	0x3f73b3de	0.9519633
9	0x3f7b1a2d	0.98086816
10	0x3f866922	1.0500834
11	0x3f8365d6	1.0265453
12	0x3f78a688	0.97129107
13	0x3f86600c	1.0498061
14	0x3f7959ab	0.9740245
15	0x3f8aa85f	1.0832633
16	0x3f7a6e84	0.97824883
17	0x3f817d62	1.0116389
18	0x3f84e1ed	1.0381447
19	0x3f83c5ed	1.0294777
20	0x3f83a139	1.0283576
21	0x3f8661b9	1.0498573
22	0x3f814b2a	1.0101063
23	0x3f812b8e	1.0091417
24	0x3f668958	0.9005332
25	0x3f8292f2	1.0201094
26	0x3f6dd973	0.92909926
27	0x3f8d3a8b	1.1033491
28	0x3f557667	0.8338379
29	0x3f814ce3	1.0101589
30	0x3f72bff5	0.94824153
31	0x3f72deba	0.94871104

encoder.blocks.1.conv.4.bias f4 [32]
0	0xbe807867	-0.2509186
1	0xbd065b49	-0.0328019
2	0xbe766604	-0.24062353
3	0xbdd4493d	-0.103655316
4	0xbd160f20	-0.036635518
5	0xbdb80ada	-0.08986445
6	0xbd97219f	-0.073794596
7	0xbdb5b18e	-0.088717565
8	0xbe1d445f	-0.15358113
9	0xbe7fd2d5	-0.2498277
10	0xbcf4f2b3	-0.029900884
11	0x3c4cbc40	0.012496054
12	0xbe603b8d	-0.21897717
13	0xbe5d9a88	-0.2164098
14	0xbba62b78	-0.0050711
15	0xbd3d0228	-0.046144634
16	0xbe93c80d	-0.28863564
17	0xbc4c2f22	-0.012462409
18	0xbe2262e9	-0.15858044
19	0xbabb6e25	-0.0014299793
20	0xbcfedcac	-0.031111084
21	0x3d976295	0.0739185
22	0x3c4be699	0.0124451155
23	0xbe5f82e7	-0.21827279
24	0xbdd4d8a1	-0.10392881
25	0xbe76111a	-0.24029961
26	0xbe108088	-0.14111531
27	0xbdfe7d0e	-0.12426196
28	0xbe347998	-0.1762451
29	0x3d1facf0	0.038983285
30	0xbddd2c78	-0.10799497
31	0xbd47cfc7	-0.048782136

encoder.blocks.1.conv.4.running_mean f4 [32]
0	0x403cc9d4	2.9498186
1	0x3fa2856f	1.2696971
2	0x3ff1b8a8	1.8884478
3	0x3f16e8e7	0.5894913
4	0xc02d3882	-2.706574
5	0x3fa615fb	1.2975458
6	0xc0400723	-3.0004356
7	0x3fd68484	1.675919
8	0xbedf0957	-0.43561813
9	0x40473ba9	3.1130164
10	0x3f615bec	0.88030887
11	0x3fbc31b0	1.4702663
12	0x401e7cd3	2.4763687
13	0x402e01c4	2.7188578
14	0x3f9e7558	1.237956
15	0x3fc2dece	1.5224245
16	0x3f8c572d	1.0964104
17	0x3f3af125	0.7302421
18	0x3fae6e6e	1.362745
19	0xc0872942	-4.2237864
20	0x3fb7ffc1	1.4374925
21	0xc06c22b4	-3.689618
22	0xc018eff7	-2.3896463
23	0x3ff88422	1.9415324
24	0xbf8af94f	-1.0857333
25	0x3fe3be3a	1.7792428
26	0x3fef0afc	1.8675227
27	0x3f805f60	1.0029106
28	0x3ffd5fc6	1.9794853
29	0x3f8e77cd	1.113031
30	0x3f255342	0.64580166
31	0xbeb5015a	-0.35352594

encoder.blocks.1.conv.4.running_var f4 [32]
0	0x411154ef	9.083236
1	0x405f6826	3.4907317
2	0x40bc9f4a	5.8944445
3	0x40bd6d36	5.9195814
4	0x40f0d1d4	7.525614
5	0x40acc93e	5.3995657
6	0x416e6984	14.900761
7	0x41156299	9.336572
8	0x40efbd40	7.491852
9	0x410a762b	8.65385
10	0x40bb8b84	5.8607807
11	0x419d69e8	19.676712
12	0x40af31e5	5.4748406
13	0x40ce3eb4	6.445154
14	0x417747e0	15.455048
15	0x40cc1b16	6.3783064
16	0x412bce34	10.737843
17	0x41095a34	8.584522
18	0x4117142e	9.442427
19	0x41676adf	14.463592
20	0x411aa80a	9.666025
21	0x412b0377	10.688346
22	0x41212d18	10.073509
23	0x40f4c7a8	7.649372
24	0x416ab878	14.670036
25	0x40a0c07f	5.023498
26	0x40ee409a	7.445386
27	0x4106b99e	8.420317
28	0x404c2241	3.1895907
29	0x414cad29	12.792275
30	0x4162f6a2	14.185213
31	0x4050f82e	3.2651477

encoder.blocks.1.skip.weight f4 [32, 16, 1, 1]
0	0xbe7972bc	-0.24360174
1	0x3d92fad0	0.07176745
2	0xbe2714c0	-0.16316509
3	0xbe13142e	-0.14363167
4	0xbe1e5952	-0.1546376
5	0x3c9f10a0	0.019417107
6	0x3d863744	0.0655351
7	0xbe229a8a	-0.15879264
8	0x3e2ea366	0.17054519
9	0xbe38886e	-0.18020794
10	0x3e2414d6	0.16023573
11	0x3e5a6218	0.21326482
12	0xbe2dcaf4	-0.16971952
13	0xbe5bf62e	-0.21480629
14	0x3dc03014	0.0938417
15	0xbd754998	-0.059884638
16	0x3dd976d4	0.10618368
17	0x3c13f9a0	0.009031683
18	0xbd3df0a0	-0.046372056
19	0xbda1a878	-0.07893461
20	0xbe60da9e	-0.21958396
21	0x3927d800	0.00016006827
22	0xbdabcaa8	-0.08388263
23	0x3e0c114a	0.1367847
24	0xbdeb53ac	-0.114905685
25	0xbe3772a6	-0.17914829
26	0xbd59e9b0	-0.053201377
27	0xbe2165a0	-0.15761423
28	0x3e2be9ae	0.1678836
29	0x3e5cf830	0.21579051
30	0xbe59a384	-0.21253783
31	0xbe239c8a	-0.15977684
32	0xbdd5e268	-0.10443574
33	0xbc559680	-0.01303637
34	0xbe7d1cc6	-0.24718007
35	0x3e2bbaac	0.16770428
36	0xbd8f73c8	-0.070045054
37	0xbe66a628	-0.22524321
38	0xbdeadc04	-0.11467746
39	0x3e7f213e	0.24915025
40	0xbd8b072c	-0.06788477
41	0xbdbb65d0	-0.091502786
42	0xbe0ccbc0	-0.137496
43	0xbcf168b0	-0.029468864
44	0x3ce65e40	0.028121114
45	0xbe529a74	-0.20566732
46	0xbd633398	-0.055469126
47	0x3e3d03b0	0.18458438
48	0xbcb61630	-0.022227377
49	0x3e357456	0.1772016
50	0x3cc43550	0.023951203
51	0x3e150e38	0.14556205
52	0x3d6b7c58	0.05749163
53	0x3e3cd57e	0.18440816
54	0x3d332c80	0.04374361
55	0xbe5812ec	-0.21100968
56	0x3d502928	0.0508205
57	0xbdfd9854	-0.1238257
58	0xbe26dab2	-0.16294363
59	0x3e232d1a	0.15935174
60	0xbd8e4418	-0.069465816
61	0x3d3dbb48	0.046321183
62	0x3d158898	0.03650722
63	0x3cb72ce0	0.022360265
64	0xbc7425a0	-0.014901549
65	0x3e76db4c	0.24107093
66	0xbdf7d74c	-0.121016115
67	0x3e5c5876	0.2151812
68	0xbce9c290	-0.028535157
69	0x3e2e848a	0.17042747
70	0xbdc45fb8	-0.095885694
71	0xbde7bba0	-0.113150835
72	0x3e2a164e	0.16610071
73	0x3d63bbb8	0.055598944
74	0x3d8485a8	0.064708054
75	0x3e12ee62	0.14348748
76	0x3e0cc64c	0.13747519
77	0xbe247446	-0.1605998
78	0x3e629ce8	0.22130167
79	0xbe29593a	-0.16537943
80	0x3e55f7f6	0.20895371
81	0xbe736a8c	-0.23771113
82	0x3e1c96be	0.15291879
83	0x3d2fc100	0.04290867
84	0x3e0d1e60	0.13781118
85	0x3deb39ec	0.11485657
86	0xbe77036a	-0.24122396
87	0xbe12112e	-0.14264366
88	0x3ced7ad0	0.028989226
89	0xbda1586c	-0.07878193
90	0x3e03db94	0.12876731
91	0xbd4bee68	-0.04978791
92	0x3e1a1828	0.15048277
93	0xbda5db44	-0.08098462
94	0xbca8ade0	-0.020590723
95	0xbced40c0	-0.02896154
96	0xbb793e00	-0.003803134
97	0xbe1a728a	-0.15082756
98	0x3d5c6fc0	0.05381751
99	0x3e1c90d4	0.15289623
100	0x3d28ed98	0.041242212
101	0xbcd6b250	-0.026208073
102	0xbddc7da8	-0.107661545
103	0xbe3df508	-0.18550503
104	0x3e226620	0.1585927
105	0x3d99f958	0.07518262
106	0xbdfc28bc	-0.12312457
107	0x3e5fbe6e	0.21849987
108	0x3e565b72	0.20933321
109	0x3e6830f6	0.22674927
110	0x3dd86ca4	0.105675966
111	0xbe322c8c	-0.17399806
112	0x3e7eda38	0.24887931
113	0x3d1dfd70	0.038571775
114	0xbe11b1b4	-0.14227945
115	0x3e67dc3e	0.2264261
116	0x3cd9d5d0	0.026591212
117	0xbdab15c0	-0.08353758
118	0xbc350520	-0.011048585
119	0x3da4d3ac	0.08048186
120	0x3e62722a	0.22113863
121	0xbe4e7dac	-0.20165128
122	0x3e37df0a	0.17956176
123	0xbe5301a2	-0.20606092
124	0xbd80b4bc	-0.06284472
125	0xbdd7b980	-0.10533428
126	0xbe1e6e52	-0.15471771
127	0x3c2b6c80	0.01046288
128	0xbd019768	-0.031638533
129	0x3e73d4d8	0.23811662
130	0x3d97bc60	0.074089766
131	0x3e33c262	0.1755462
132	0x3e22e514	0.15907699
133	0xbd39b710	-0.045340598
134	0x3e629f58	0.22131097
135	0xbe4a8afc	-0.19779581
136	0x3e0af6b0	0.13570666
137	0x3dcb6afc	0.09932515
138	0xbd8e8c94	-0.06960407
139	0xbdfd4178	-0.12366003
140	0x3caeec20	0.021352828
141	0xbe249804	-0.16073614
142	0xbcbe7500	-0.02324915
143	0x3e04d7da	0.12972966
144	0x3e2ebbc0	0.17063808
145	0x3e6f70e0	0.23382902
146	0x3dc2ad9c	0.095057696
147	0x3e4c319e	0.19940802
148	0xbb97b1c0	-0.0046293437
149	0x3e4eed8e	0.20207807
150	0x3e05ddc0	0.13072872
151	0xbcb37340	-0.021905541
152	0xbe0755e0	-0.13216352
153	0xbd5115b0	-0.051046073
154	0x3ccc0230	0.024903387
155	0x3c3f8220	0.011688739
156	0x3d681cc8	0.056668073
157	0x3e7988b0	0.24368548
158	0xbe25373c	-0.16134351
159	0xbe406688	-0.18789113
160	0x3e2d8568	0.16945422
161	0x3e3b45b8	0.18288314
162	0x3bbd1500	0.0057703257
163	0x3e1d1642	0.15340522
164	0xbd3deea0	-0.04637015
165	0xbdeb5d00	-0.11492348
166	0x3e37bc3e	0.17942902
167	0xbe707d40	-0.23485279
168	0xbe226688	-0.15859425
169	0x3e5144ec	0.20436448
170	0x3cd52ad0	0.026021391
171	0x3dc6bb0c	0.09703645
172	0xbe1745c0	-0.14772701
173	0x3e405dee	0.18785831
174	0xbe1429cc	-0.14469069
175	0x3e715992	0.23569325
176	0x3e58f572	0.2118738
177	0x3d925544	0.071451694
178	0x3e54b380	0.20771599
179	0x3d5191e8	0.051164538
180	0xbdb91ff8	-0.09039301
181	0xbe2d35e6	-0.16915092
182	0x3e60ee1a	0.21965829
183	0xbd61ac58	-0.055096
184	0x3e4b77d0	0.19869924
185	0xbe7eb3bc	-0.2487325
186	0x3e18c9cc	0.1492073
187	0x3cad8470	0.021181315
188	0xbdbd9c08	-0.09258276
189	0x3e310400	0.17286682
190	0x3d4892f8	0.048968285
191	0xbe17edc8	-0.148368
192	0x3e150bee	0.14555332
193	0xbdb4f688	-0.088360846
194	0x3d994230	0.074833274
195	0xbda00dac	-0.07815108
196	0x3db228b8	0.08699173
197	0xbda0b408	-0.07846838
198	0xbdb44f00	-0.088041306
199	0xbc26e3c0	-0.010186136
200	0xbe4d1e6e	-0.20031139
201	0x3e08a172	0.13342836
202	0xbdf392c4	-0.11893228
203	0xbc3cfc60	-0.01153478
204	0xbe2384d4	-0.15968639
205	0x3d5db820	0.054130673
206	0xbdd58c00	-0.104270935
207	0xbe799f1e	-0.24377105
208	0x3e05ae4c	0.1305477
209	0x3dc548d0	0.096330285
210	0x3e6a76f8	0.22896945
211	0xbe080cda	-0.13286152
212	0x3e756f54	0.2396825
213	0x3e35d23a	0.17755976
214	0xbe3b9932	-0.18320158
215	0x3d8bba08	0.06822592
216	0x3e40b94a	0.18820682
217	0xbe12dde4	-0.14342457
218	0x3dcc9f38	0.09991306
219	0x3e66a9fe	0.22525784
220	0x3db6f8b4	0.08934155
221	0x3dca98c8	0.09892422
222	0x3e1a723a	0.15082636
223	0xbda3e2a4	-0.08002213
224	0x3e5222e0	0.20521116
225	0xbd926b04	-0.07149318
226	0x3e4eadae	0.20183441
227	0x3e4b94e0	0.1988101
228	0xbce389e0	-0.027775705
229	0xbd9039d4	-0.0704228
230	0xbdbd5444	-0.09244588
231	0xbe1d5d64	-0.15367657
232	0xbdaff8f8	-0.08592409
233	0x3db24f9c	0.087065905
234	0xbd566958	-0.052346557
235	0x3dbe6cb4	0.09298077
236	0xbd95ab80	-0.07308102
237	0x3d128c18	0.035778135
238	0xbe05f366	-0.1308113
239	0xbe26205a	-0.16223279
240	0xbe2010d8	-0.15631425
241	0xbd960664	-0.07325438
242	0xbded7700	-0.11594963
243	0xbd158be8	-0.036510378
244	0x3e1e1fb6	0.15441784
245	0xbe40751a	-0.1879467
246	0xbd7be5b0	-0.061498344
247	0x3dca6cdc	0.098840445
248	0x3baaee80	0.0052164197
249	0xbc4887a0	-0.012239367
250	0x3e276bb6	0.16349682
251	0xbde19e5c	-0.11016533
252	0x3e4ccd06	0.20000085
253	0xbcfee790	-0.031116277
254	0x3e380dc2	0.17973998
255	0x3cac48d0	0.021030813

encoder.blocks.1.skip.bias f4 [32]
0	0xbddf7640	-0.10911226
1	0x3df0eeec	0.11764321
2	0xbc79d960	-0.01524958
3	0xbe1e449a	-0.15455857
4	0x3bc5eb40	0.006040007
5	0x3dc57ff4	0.09643546
6	0x3ca89140	0.020577073
7	0x3c60bfe0	0.013717622
8	0x3d751730	0.059836566
9	0x3e1c674e	0.15273783
10	0xbc7d1e80	-0.015449166
11	0x3d9f9cc0	0.077935696
12	0x3d9c0fd8	0.076202095
13	0x3dc2d9e4	0.095142156
14	0x3e07122a	0.13190523
15	0xbd75f9e8	-0.060052782
16	0xbda0f4ec	-0.07859215
17	0x3e4d62ea	0.20057264
18	0x3da9267c	0.082592934
19	0x3d26e188	0.040742427
20	0xbe3ad752	-0.182462
21	0x3c6796e0	0.0141350925
22	0xbe43106a	-0.1904923
23	0x3e154a34	0.14579087
24	0x3e28abc6	0.16471776
25	0x3e5b90a4	0.21441895
26	0x3e098c96	0.13432536
27	0x3dccc1cc	0.09997901
28	0xbcb2d0f0	-0.021828145
29	0x3e6e27ca	0.23257366
30	0xbe75c1ca	-0.23999706
31	0xbcc92570	-0.024553984
