toyshapes/pinets_ensemble/ensemble_2/model_4.pth (torch, 466407 bytes, 71 tensors)

encoder.blocks.0.conv.0.weight f4 [16, 1, 3, 3]
-0.001947496 0.08700305 -0.2990739 -0.2474825 -0.28712752 -0.3350944 0.31531918 0.2619858
0.0823812 0.26586124 -0.23302107 -0.21782494 0.19708872 -0.09940743 0.06402923 0.11082281
0.1833011 -0.23253833 -0.15276977 -0.3440322 -0.010914373 -0.122774564 0.038244557 -0.0078742225
0.2856283 0.024484254 0.14528736 -0.009113946 0.15444009 -0.2957411 0.16486157 0.08594101
-0.26271236 0.19519222 0.24853212 -0.29561594 -0.22073045 0.09368718 0.23014477 0.024756514
0.05800276 0.22777276 0.2904334 -0.28306162 -0.21233644 0.18439887 0.15822786 -0.18327875
-0.22247154 0.34117728 -0.23649989 0.12451235 0.1866166 -0.3404444 -0.31071913 0.05236848
0.19024634 0.27047727 -0.016043851 0.22267856 -0.2388806 0.19065623 -0.37391976 0.20108467
0.038518768 0.23987293 0.0880954 -0.24534129 0.03563807 -0.031938594 0.061662987 -0.31361273
-0.2021429 -0.1383636 -0.19930111 0.27224115 0.17340463 0.15433656 -0.085906215 -0.28326946
0.12093821 0.24940778 0.18084054 -0.29895568 -0.030253094 -0.005772471 0.2359975 0.16021584
-0.29383972 -0.26163873 0.0032000549 0.11115656 0.05070829 0.1181996 0.3195792 -0.2235782
-0.4681099 0.09510705 0.18918929 -0.22321862 -0.18562654 0.26371738 0.301338 -0.023069022
-0.17747608 0.119367 -0.3599605 -0.10515697 0.046133365 -0.08252497 0.16448839 0.017738407
-0.2788805 -0.037727598 -0.009391411 0.23939848 -0.05406059 -0.07916813 0.10074939 0.17451955
0.039794296 -0.22524491 0.11251328 -0.0169504 0.15034819 -0.16814902 -0.07156158 0.1882916
-0.106531486 0.13687582 -0.042554427 0.2778415 -0.08875207 -0.1796665 -0.01088385 -0.08820856
0.2687683 -0.051915642 0.19077049 -0.14500563 0.027566068 0.11593667 -0.32689172 0.110289685
00000000: 1f43 ffba a82e b23d 3720 99be 0d6c 7dbe
00000010: 6102 93be 7e91 abbe 8471 a13e 0123 863e
00000020: 79b7 a83d f71e 883e 139d 6ebe 800d 5fbe
00000030: a0d1 493e 1f96 cbbd c221 833d 12f7 e23d
00000040: 49b3 3b3e 871e 6ebe ae6f 1cbe fd24 b0be
00000050: 33d2 32bc 3b71 fbbd 53a6 1c3d e202 01bc
00000060: df3d 923e 3493 c83c 36c6 143e a952 15bc
00000070: 8b25 1e3e 616b 97be 79d1 283e d701 b03d
00000080: 3c82 86be 78e0 473e 347f 7e3e f95a 97be
00000090: 2a07 62be 10df bf3d 12ab 6b3e 2cce ca3c
000000a0: 4d94 6d3d 433d 693e b0b3 943e 74ed 90be
000000b0: b96e 59be 0fd3 3c3e 7c06 223e 6dad 3bbe
000000c0: 94cf 63be caae ae3e 072d 72be 5500 ff3d
000000d0: 6c18 3f3e ba4e aebe 9416 9fbe 5580 563d
000000e0: f0cf 423e ff7b 8a3e 656e 83bc d905 643e
000000f0: 1e9d 74be 633b 433e 6972 bfbe 24e9 4d3e
00000100: dbc5 1d3d 40a1 753e 5c6b b43d bf3a 7bbe
00000110: 3af9 113d 0bd2 02bd 5492 7c3d d991 a0be
00000120: 8cfe 4ebe 30af 0dbe 9715 4cbe 3163 8b3e
00000130: fc90 313e 670a 1e3e 99ef afbd b208 91be
00000140: 74ae f73d c164 7f3e 432e 393e b810 99be
00000150: 56d5 f7bc ff26 bdbb 54a9 713e 9f0f 243e
00000160: 2972 96be 83f5 85be 03b8 513b 0da6 e33d
00000170: 7fb3 4f3d a212 f23d e39f a33e aff1 64be
00000180: 1aac efbe 7cc7 c23d d6ba 413e 6c93 64be
00000190: e214 3ebe f705 873e f948 9a3e 3ffb bcbc
000001a0: 4abc 35be b076 f43d be4c b8be 8a5c d7bd
000001b0: 57f6 3c3d da02 a9bd a56f 283e 2350 913c
000001c0: 6dc9 8ebe 4188 1abd 6fde 19bc e024 753e
000001d0: a36e 5dbd e722 a2bd b255 ce3d 41b5 323e
000001e0: 58ff 223d 9aa6 66be 5d6d e63d 91db 8abc
000001f0: e0f4 193e 422f 2cbe e18e 92bd 83cf 403e
00000200: 2e2d dabd 2d29 0c3e 8d4d 2ebd 3e41 8e3e
00000210: a5c3 b5bd 7ffa 37be 2d52 32bc b1a6 b4bd
00000220: 009c 893e 7fa5 54bd 5759 433e 5b7c 14be
00000230: 3cd2 e13c 3470 ed3d 5a5e a7be 8fdf e13d

encoder.blocks.0.conv.0.bias f4 [16]
0.12137553 0.18583877 0.073657334 -0.02007062 0.04076919 -0.014317465 -0.078929536 0.1766683
-0.40333015 -0.020021824 -0.16509987 -0.15092723 -0.22907029 0.31491736 0.071738236 0.087002665
00000000: bc93 f83d 854c 3e3e a8d9 963d 246b a4bc
00000010: 98fd 263d cd93 6abc cfa5 a1bd 89e8 343e
00000020: 4a81 cebe cf04 a4bc f10f 29be ab8c 1abe
00000030: 6791 6abe d93c a13e 7feb 923d 742e b23d

encoder.blocks.0.conv.1.weight f4 [16]
0.8950326 1.028045 0.98439884 0.8449451 1.0704688 1.1131196 1.0670117 1.1546812
0.97580785 0.93537843 0.9059215 0.91816163 1.0651608 0.8955468 1.016246 1.1510348
00000000: db20 653f fb96 833f 9001 7c3f 524e 583f
00000010: 1f05 893f b47a 8e3f d793 883f 98cc 933f
00000020: 8bce 793f f674 6f3f 79ea 673f a40c 6b3f
00000030: 3057 883f 8e42 653f 5914 823f 1c55 933f

encoder.blocks.0.conv.1.bias f4 [16]
9.696598e-05 -0.07613728 -0.013829771 -0.021186164 0.030796107 -0.02773804 -0.024901554 0.08087863
-0.034376178 -0.05046858 -0.0034551427 -0.03668793 0.006771536 -0.0021298109 -0.0046665394 0.24394254
00000000: 375a cb38 dded 9bbd 4496 62bc 9b8e adbc
00000010: 1e48 fc3c e33a e3bc 58fe cbbc b2a3 a53d
00000020: 09ce 0cbd 24b8 4ebd ad6f 62bb 1546 16bd
00000030: c3e3 dd3b 4c94 0bbb c5e9 98bb 13cc 793e

encoder.blocks.0.conv.1.running_mean f4 [16]
-0.111863986 0.17895904 0.015092396 0.02541571 0.09732899 -0.002328815 -0.076649025 0.19654754
-0.48686114 -0.018640015 -0.065669194 -0.3411994 -0.23882408 0.40057704 0.10179482 0.0938897
00000000: f218 e5bd 0a41 373e 1946 773c 9b34 d03c
00000010: 6c54 c73d 089f 18bb 2afa 9cbd c243 493e
00000020: dd45 f9be f2b2 98bc 927d 86bd b0b1 aebe
00000030: 4d8e 74be 6f18 cd3e cd79 d03d 3e49 c03d

encoder.blocks.0.conv.1.running_var f4 [16]
0.017474089 0.0053486987 0.005501372 0.009270786 0.0027013423 0.006080722 0.002916415 0.0038441436
0.0042255037 0.0044782334 0.004316877 0.008602604 0.00083423656 0.0018162947 0.0015506422 0.0012274488
00000000: d225 8f3c 2344 af3b da44 b43b 7fe4 173c
00000010: 0109 313b cb40 c73b 5321 3f3b 07ee 7b3b
00000020: 1876 8a3b 25be 923b 9774 8d3b f0f1 0c3c
00000030: abb0 5a3a bd10 ee3a eb3e cb3a 59e2 a03a

encoder.blocks.0.conv.3.weight f4 [16, 16, 3, 3]
-0.04308563 -0.03538086 -0.06890537 0.011342246 -0.047771808 -0.05442828 -0.00907666 0.02915691
-0.08414583 -0.17041318 0.047773257 -0.040903002 -0.037241686 -0.08482084 -0.04532248 -0.078089185
-0.03210377 -0.01540475 -0.04772217 0.05732841 0.07925103 0.023571003 -0.05086323 -0.008148094
-0.03231315 -0.035175204 0.0067988494 -0.07532308 -0.041156586 -0.13168682 -0.08155314 -0.012515946
0.05109514 -0.14616151 -0.010625784 0.023181025 -0.09649323 -0.058222827 0.025890842 -0.14664575
-0.032973863 -0.08620759 -0.012229029 0.00070803176 -0.044207405 -0.004430282 -0.14068484 -0.06815663
-0.031210648 0.023617253 -0.047478482 -0.12153519 0.0022425097 0.0747163 -0.045730237 -0.018833043
-0.03307226 -0.11069124 -0.080965675 0.06603063 0.049778707 -0.06824004 -0.07523006 -0.111005686
-0.009947376 -0.13127951 -0.055182617 -0.14564362 -0.06400187 -0.05950469 -0.09885912 -0.048010644
0.037237883 0.06564767 0.030821756 -0.014669864 -0.05728343 -0.09451928 -0.010625554 0.12155711
-0.05456265 0.010191575 -0.072621375 -0.035735082 -0.00025516245 -0.0076423865 -0.13063778 -0.0971044
-0.07486812 0.048946038 -0.09660385 -0.061747853 -0.14426523 -0.075768545 -0.10347859 -0.11840547
-0.009554388 -0.023497164 -0.052674446 -0.06843838 0.052011628 -0.022616921 -0.013677356 0.046022177
0.06494013 -0.016916554 0.021759914 0.00035405363 -0.07371878 0.08263066 -0.012101673 0.037177987
0.021171007 0.14872444 -0.027348919 -0.07305508 0.024865344 -0.075473726 -0.0006166907 0.015417485
-0.08373183 -0.019831713 -0.09363671 -0.010247189 -0.029135218 -0.14682955 -0.13964023 -0.079307705
-0.043117963 0.037910774 -0.08435938 0.04816959 -0.07872892 0.0020397997 0.027643863 0.03818233
-0.08103884 0.012996675 0.041663487 -0.12254836 0.10367529 0.055817626 -0.02701042 0.086071625
-0.070094846 -0.06600556 -0.071166776 -0.056440607 -0.00071926834 -0.12939039 -0.028440759 -0.004961988
-0.0022981637 0.07884476 -0.08528942 0.047665272 -0.052033797 0.014533908 0.06381863 0.02172815
0.019043472 -0.04638523 -0.00827018 -0.039826427 -0.03257246 -0.0021598926 0.019733492 -0.081254624
-0.0046189986 0.04385373 0.05186809 0.0501107 0.08887591 0.08838323 0.034881357 0.070713565
-0.04505697 -0.025131745 -0.048602164 0.004161417 0.13948192 0.07402634 -0.11059948 0.06014376
0.05206387 0.074071355 -0.08945793 0.048549138 0.052668147 -0.10094754 0.09582341 -0.016633814
-0.00010637222 0.036318522 0.012664334 -0.057906695 0.112990215 -0.057062723 0.12276607 -0.031835437
0.08352825 -0.026247794 0.03461351 -0.0054039303 0.0010485094 0.062979005 0.07190829 0.16578256
-0.04392108 0.018446127 0.19751385 0.093350105 0.111530095 0.1450484 0.08006989 0.09643154
0.08205935 -0.0015692719 -0.038895167 0.047400635 -0.054137666 0.02884384 0.016142776 -0.078311235
-0.047614608 0.10129828 -0.0056999177 0.04017834 0.037451953 0.15740198 0.14848144 0.011591154
-0.021566866 0.08954994 0.0719456 0.01571812 0.02717238 0.087385 -0.012159442 0.10144029
-0.058035947 -0.029407628 0.01243398 -0.114061646 0.028586421 -0.062481977 0.0693042 -0.002575578
0.03493718 0.043146435 -0.0044931932 0.024155557 0.029224928 -0.037914738 0.08171438 -0.017652156
00000000: 8f7a 30bd 85eb 10bd 421e 8dbd d4d4 393c
00000010: 5fac 43bd 30f0 5ebd 45b6 14bc 79da ee3c
00000020: a654 acbd cb80 2ebe e4ad 433d e889 27bd
00000030: bd8a 18bd 8cb6 adbd 11a4 39bd 39ed 9fbd
00000040: 3e7f 03bd 3464 7cbc 5278 43bd 32d1 6a3d
00000050: 5d4e a23d fa17 c13c f655 50bd 957f 05bc
00000060: cb5a 04bd e013 10bd e2c8 de3b fd42 9abd
00000070: cf93 28bd e9d8 06be 5505 a7bd af0f 4dbc
00000080: 2349 513d 5dab 15be c517 2ebc 22e6 bd3c
00000090: 3e9e c5bd 0f7b 6ebd 0819 d43c 4e2a 16be
000000a0: 9a0f 07bd 9b8d b0bd 445c 48bc 359b 393a
000000b0: d312 35bd e62b 91bb b00f 10be b495 8bbd
000000c0: 79ad ffbc f878 c13c cc78 42bd 71e7 f8bd
000000d0: 12f7 123b dc04 993d a14f 3bbd c147 9abc
000000e0: c776 07bd 17b2 e2bd 55d1 a5bd 113b 873d
000000f0: c2e4 4b3d 6fc1 8bbd 3812 9abd f356 e3bd
00000100: 52fa 22bc 236e 06be 2b07 62bd 9a23 15be
00000110: 6a13 83bd 31bb 73bd a676 cabd cfa6 44bd
00000120: c086 183d 4972 863d e87d fc3c df59 70bc
00000130: 08a2 6abd 5393 c1bd ce16 2ebc eff2 f83d
00000140: 167d 5fbd 90fa 263c 84ba 94bd f35e 12bd
00000150: 53c7 85b9 fc6c fabb e9c5 05be acde c6bd
00000160: 7554 99bd a47b 483d 3dd8 c5bd 51eb 7cbd
00000170: 44ba 13be 8a2c 9bbd 95ec d3bd 917e f2bd
00000180: 028a 1cbc 207d c0bc 29c1 57bd 6c29 8cbd
00000190: 250a 553d 1f47 b9bc fd16 60bc c081 3c3d
000001a0: 55ff 843d 9694 8abc d941 b23c 46a0 b939
000001b0: dff9 96bd 433a a93d 1846 46bc f247 183d
000001c0: d26e ad3c 384b 183e d70a e0bc e79d 95bd
000001d0: 68b2 cb3c f891 9abd 6aa9 21ba 9e99 7c3c
000001e0: 987b abbd 1e76 a2bc 9ac4 bfbd d3e3 27bc
000001f0: fbac eebc 7c5a 16be d9fd 0ebe 146c a2bd
00000200: 769c 30bd 5448 1b3d 9cc4 acbd 7a4d 453d
00000210: a13c a1bd 29ae 053b 6275 e23c 1365 1c3d
00000220: b1f7 a5bd 02f0 543c 55a7 2a3d a2fa fabd
00000230: b653 d43d 06a1 643d f544 ddbc 5246 b03d
00000240: e38d 8fbd ec2d 87bd e3bf 91bd 442e 67bd
00000250: 488d 3cba ea7e 04be 98fc e8bc 2c98 a2bb
00000260: ca9c 16bb 5d79 a13d 38ac aebd a93c 433d
00000270: 6421 55bd a11f 6e3c 58b3 823d 3cff b13c
00000280: 0e01 9c3c 70fe 3dbd a67f 07bc 0921 23bd
00000290: b36a 05bd fc8c 0dbb 22a8 a13c d368 a6bd
000002a0: f85a 97bb f89f 333d a273 543d e140 4d3d
000002b0: 9304 b63d 4402 b53d c1df 0e3d 46d2 903d
000002c0: a88d 38bd 17e1 cdbc 1013 47bd 7f5c 883b
000002d0: 59d4 0e3e 1f9b 973d fb81 e2bd 4e59 763d
000002e0: ed40 553d b9b2 973d b835 b7bd 76db 463d
000002f0: 8eba 573d 95bd cebd 103f c43d a343 88bc
00000300: 2714 dfb8 bbc2 143d 117e 4f3c 922f 6dbd
00000310: 6a67 e73d 9aba 69bd c76c fb3d e065 02bd
00000320: dc10 ab3d 9d05 d7bc e5c6 0d3d 7413 b1bb
00000330: 236e 893a 23fb 803d a744 933d e7c2 293e
00000340: 97e6 33bd 551c 973c 1241 4a3e 572e bf3d
00000350: e469 e43d 9187 143e affb a33d e67d c53d
00000360: bc0e a83d 07b0 cdba 8a50 1fbd 2b27 423d
00000370: 75bf 5dbd eb49 ec3c db3d 843c a461 a0bd
00000380: 8907 43bd 7975 cf3d 60c6 babb 0b92 243d
00000390: 3867 193d fc2d 213e 850b 183e d3e8 3d3c
000003a0: ffac b0bc f565 b73d 3758 933d 49c3 803c
000003b0: 9c98 de3c e8f6 b23d 6538 47bc edbf cf3d
000003c0: 1ab7 6dbd 44e8 f0bc e4b7 4b3c 2799 e9bd
000003d0: 122e ea3c 1aed 7fbd 5cef 8d3d 07cb 28bb
000003e0: 4a1a 0f3d 51ba 303d a33b 93bb e0e1 c53c
000003f0: 1e69 ef3c 7c4c 1bbd de59 a73d 419b 90bc

encoder.blocks.0.conv.3.bias f4 [16]
-0.088889524 0.031058047 0.005564376 0.021730676 0.06010298 0.0693392 -0.14149009 0.021222912
0.0748693 0.10760161 0.00093087414 0.08036162 -0.03262655 -0.03825945 -0.11835082 0.02587562
00000000: b60b b6bd 726d fe3c 5e55 b63b 8804 b23c
00000010: 8b2e 763d b601 8e3d c7e2 10be acdb ad3c
00000020: 1355 993d 3c5e dc3d e805 743a a294 a43d
00000030: 6ba3 05bd f1b5 1cbd ea61 f2bd 1cf9 d33c

encoder.blocks.0.conv.4.weight f4 [16]
0.9346683 0.9812891 1.0127631 1.0940996 0.95443934 0.9467448 0.9425258 0.87219715
1.0042106 1.023748 0.9975843 0.9320776 0.985001 0.9050444 1.0880312 1.0147362
00000000: 6c46 6f3f c335 7b3f 39a2 813f 750b 8c3f
00000010: 2356 743f de5d 723f 5f49 713f 5048 5f3f
00000020: f989 803f 2d0a 833f af61 7f3f a39c 6e3f
00000030: 0729 7c3f fdb0 673f 9b44 8b3f e0e2 813f

encoder.blocks.0.conv.4.bias f4 [16]
-0.07444889 -0.122802384 -0.058377545 -0.0026209315 -0.07212363 -0.055078715 -0.07363453 -0.04705007
0.04050956 -0.05839026 -0.035256494 -0.06118886 -0.05481147 0.020613447 -0.068860844 -0.017481104
00000000: a978 98bd d17f fbbd 4b1d 6fbd efc3 2bbb
00000010: 8eb5 93bd 389a 61bd b3cd 96bd 93b7 40bd
00000020: 5aed 253d a02a 6fbd 1d69 10bd 2ca1 7abd
00000030: fe81 60bd 88dd a83c ea06 8dbd 8834 8fbc

encoder.blocks.0.conv.4.running_mean f4 [16]
-1.1910617 1.0973208 0.5329539 -0.08533534 1.1421705 -0.2819225 -1.3713373 1.3682709
-0.073507614 -0.034847822 1.1534972 0.7211118 -0.36120215 -1.0198781 -0.120816104 -0.32603505
00000000: b674 98bf 0275 8c3f ab6f 083f 4bc4 aebd
00000010: a532 923f 2558 90be fb87 afbf 8023 af3f
00000020: 298b 96bd 97bc 0ebd cca5 933f c89a 383f
00000030: 7def b8be 5e8b 82bf 6f6e f7bd 11ee a6be

encoder.blocks.0.conv.4.running_var f4 [16]
1.671141 2.3730986 1.1618369 0.48120692 1.2621183 2.0644128 3.7860699 2.673783
1.3474122 0.5578393 1.3389776 0.7237541 1.6106321 2.1112874 0.3817409 0.51042455
00000000: f3e7 d53f d9e0 1740 12b7 943f c160 f63e
00000010: 188d a13f 571f 0440 f84e 7240 431f 2b40
00000020: 0178 ac3f 8ece 0e3f 9e63 ab3f f347 393f
00000030: 3129 ce3f 551f 0740 8b73 c33e 2fab 023f

encoder.blocks.0.skip.weight f4 [16, 1, 1, 1]
0.1913054 -0.16322935 -0.9212041 0.27257288 0.63163793 0.67763627 -0.30287838 -0.5471885
-0.7730484 -0.7537651 -0.7284061 -0.41206074 -0.5332117 -0.9805224 0.06765211 -0.7341361
00000000: 90e5 433e 9825 27be 08d4 6bbf ac8e 8b3e
00000010: 06b3 213f 9279 2d3f e012 9bbe 8c14 0cbf
00000020: 80e6 45bf c0f6 40bf d278 3abf a0f9 d2be
00000030: 9080 08bf 8403 7bbf 308d 8a3d 58f0 3bbf

encoder.blocks.0.skip.bias f4 [16]
-0.87150145 -0.93733096 -0.6547625 0.8494365 -0.26601958 -0.98895144 -0.72959185 0.9377413
-0.15017033 0.9716371 0.8784058 -0.5239351 -0.46992576 0.49941146 0.40854943 -0.58713794
00000000: b81a 5fbf ecf4 6fbf 849e 27bf ac74 593f
00000010: b833 88be ec2b 7dbf 88c6 3abf d00f 703f
00000020: 40c6 19be 36bd 783f 34df 603f 9c20 06bf
00000030: 1c9a f0be dcb2 ff3e 642d d13e ac4e 16bf

encoder.blocks.1.conv.0.weight f4 [32, 16, 3, 3]
0.05141648 0.004923105 -0.09598292 -0.11535376 0.010586714 -0.08337518 -0.042900667 0.004883266
-0.048699185 -0.023827126 0.022236742 0.028125985 -0.12789674 -0.09628474 0.035610504 -0.10284561
-0.11439002 -0.07810031 0.0156325 -0.08082843 0.075942464 -0.0154834865 -0.092117846 0.023131076
-0.12647615 -0.16460164 -0.14012574 0.02069056 0.011492674 0.03786844 0.010730965 -0.13418758
-0.11776712 0.026474884 -0.101908006 -0.16793275 -0.011349655 0.019021995 0.117754534 -0.108110406
-0.11816581 -0.059233755 0.003255773 -0.1868297 -0.06303985 0.012952395 0.049296327 0.011006246
0.0066882116 -0.09861813 0.019225469 0.002567966 0.029349115 0.0053570885 -0.005728898 -0.049090497
-0.098675504 0.070807986 -0.038584877 -0.024986552 -0.05128887 -0.06195316 0.062323604 -0.03952077
0.016143698 0.10255857 -0.04110564 0.056817893 0.012589089 -0.0775316 -0.067204736 -0.019137923
-0.08246496 -0.026772337 -0.090313055 -0.0650072 -0.13325848 -0.16332711 -0.04027897 -0.07123757
-0.096059985 -0.07431576 0.042995933 0.060875095 -0.02416106 -0.102871805 -0.065860376 0.058678336
-0.013957903 -0.0041404422 0.076444164 0.0890591 0.11672981 -0.10153053 -0.0856919 0.083057806
-0.05547129 -0.12309954 -0.10660696 -0.054789413 -0.007831555 0.064633 -0.032503314 -0.09368628
0.011479963 0.016852126 -0.0764988 -0.058305938 -0.062019337 0.013804736 -0.08496851 -0.07912699
-0.04420138 -0.018868512 -0.037500273 0.055871315 -0.009156708 -0.056055203 0.06290119 0.004514325
0.0073038945 0.023111703 -0.023798216 -0.029293334 0.08358485 0.09181412 0.102846116 -0.0037426876
0.0059823007 -0.0008203648 -0.005498252 -0.019469023 0.012196879 0.04874891 0.050126255 0.047413077
-0.10328275 -0.043418102 -0.10882626 -0.12286123 -0.07213951 0.028576305 -0.0021635718 -0.125999
0.06268312 -0.04598853 -0.037107732 0.043423172 0.08759358 0.0034881192 0.03667453 -0.09970911
0.04609902 -0.027551867 0.043872103 0.043340836 0.0145403845 0.06361583 -0.04565524 0.026504992
-0.018488327 -0.04174418 -0.004473377 -0.08968055 -0.13459931 -0.06957152 -0.024290645 -0.10283145
0.060364123 -0.03782961 -0.069192946 0.041992325 0.19382045 0.12780778 0.037871975 0.12215281
0.083653174 0.13358101 0.15732594 0.07343498 -0.00013620015 -0.040925432 -0.034670368 -0.016777923
-0.020833027 -0.005743104 -0.07252077 0.046448123 0.04761517 0.023565311 -0.012936035 -0.02723697
-0.06509144 0.04033787 -0.054534428 -0.062386952 0.039632738 -0.02400853 0.037077393 0.004572902
-0.052513607 -0.08125384 0.031879857 0.009318614 -0.0066040936 -0.044810086 -0.07709904 -0.013992339
0.07327032 -0.092222564 -0.039025944 0.03863271 0.04560356 -0.0133232735 -0.01760246 0.08118769
-0.08278503 -0.05101944 -0.05221703 0.06820582 0.048747268 0.048702296 -0.030868957 0.06160342
0.04148218 0.09753337 0.07053112 -0.008100395 0.022531934 0.099700265 0.059735324 0.01460506
0.14461908 0.10200445 0.068483554 -0.073067576 0.03019736 0.008666791 0.017511394 0.04835264
0.061403453 0.052044787 0.040227477 -0.07748658 -0.05076723 -0.036249287 -0.010597282 -0.0016510377
-0.0041871336 0.0024315922 0.024460742 0.08597206 0.07998817 0.017036587 0.06254219 -0.042746842
00000000: 169a 523d ff51 a13b b192 c4bd 983e ecbd
00000010: e673 2d3c 9bc0 aabd 9cb8 2fbd ce03 a03b
00000020: cc78 47bd 1b31 c3bc d429 b63c 7768 e63c
00000030: 5df7 02be ef30 c5bd 52dc 113d b8a0 d2bd
00000040: 5145 eabd 0ef3 9fbd bb0f 803c 6089 a5bd
00000050: b987 9b3d 73ae 7dbc 48a8 bcbd 627d bd3c
00000060: f782 01be 558d 28be 1f7d 0fbe 407f a93c
00000070: c54b 3c3c f01b 1b3d eed0 2f3c 7868 09be
00000080: e32f f1bd dbe1 d83c 25b5 d0bd 90f6 2bbe
00000090: e7f3 39bc 04d4 9b3c 4a29 f13d fd68 ddbd
000000a0: eb00 f2bd 189f 72bd cf5e 553b 4950 3fbe
000000b0: 091b 81bd 4836 543c f2ea 493d 8b53 343c
000000c0: c928 db3b 4df8 c9bd bb7e 9d3c 524b 283b
000000d0: 8e6d f03c 848a af3b 7bb9 bbbb 1e13 49bd
000000e0: 6216 cabd c703 913d 2d0b 1ebd 99b0 ccbc
000000f0: 4714 52bd 99c2 7dbd 0947 7f3d 88e0 21bd
00000100: ca3f 843c 3a0a d23d 635e 28bd e1b9 683d
00000110: 7742 4e3c e3c8 9ebd a3a2 89bd 22c7 9cbc
00000120: 64e3 a8bd a951 dbbc 0df6 b8bd 7f22 85bd
00000130: e974 08be 393f 27be 90fb 24bd 01e5 91bd
00000140: 19bb c4bd dc32 98bd 811c 303d 2a58 793d
00000150: 6aed c5bc 74ae d2bd cee1 86bd b258 703d
00000160: b0af 64bc 8cac 87bb c28e 9c3d 9e64 b63d
00000170: 0a10 ef3d 3def cfbd 3c7f afbd 361a aa3d
00000180: dd35 63bd 9d1b fcbd c054 dabd dd6a 60bd
00000190: ec4f 00bc 4e5e 843d 3222 05bd 98de bfbd
000001a0: 7416 3c3c 780d 8a3c 67ab 9cbd 35d2 6ebd
000001b0: fd07 7ebd 422d 623c f803 aebd 550d a2bd
000001c0: 820c 35bd 2392 9abc e399 19bd 52d9 643d
000001d0: 0406 16bc 249a 65bd 57d2 803d e7ec 933b
000001e0: 8255 ef3b c154 bd3c 7af4 c2bc 93f8 efbc
000001f0: 892e ab3d 0b09 bc3d fca0 d23d e147 75bb
00000200: 2d07 c43b c00d 57ba ae2a b4bb 807d 9fbc
00000210: 6bd5 473c f0ac 473d 3051 4d3d 3734 423d
00000220: e885 d3bd 2ed7 31bd 4de0 debd ab9e fbbd
00000230: e1bd 93bd db18 ea3c b6ca 0dbb e205 01be
00000240: 0260 803d 785e 3cbd 47fe 17bd 7fdc 313d
00000250: 4364 b33d ee98 643b 0838 163d 4a34 ccbd
00000260: 53d2 3c3d 74b4 e1bc 3cb3 333d 2986 313d
00000270: cb3a 6e3c 0449 823d fd00 3bbd ff20 d93c
00000280: d574 97bc f2fb 2abd 6895 92bb 70aa b7bd
00000290: 67d4 09be 837b 8ebd 2dfd c6bc 4c99 d2bd
000002a0: 5f40 773d 39f3 1abd 08b5 8dbd 2500 2c3d
000002b0: de78 463e 0be0 023e a51f 1b3d 412b fa3d
000002c0: 5b52 ab3d 76c9 083e 0d1a 213e 1465 963d
000002d0: f3d0 0eb9 6da1 27bd 8402 0ebd db71 89bc
000002e0: 06aa aabc a630 bcbb c585 94bd 6340 3e3d
000002f0: 2008 433d 0a0c c13c aaf1 53bc 1120 dfbc
00000300: a94e 85bd 5339 253d 7e5f 5fbd 7689 7fbd
00000310: f055 223d 89ad c4bc 77de 173d 48d8 953b
00000320: 8218 57bd 6a68 a6bd 7494 023d 1aad 183c
00000330: 2767 d8bb c88a 37bd 1ae6 9dbd 2040 65bc
00000340: c00e 963d 2fdf bcbd abd9 1fbd 553d 1e3d
00000350: ccca 3a3d dc49 5abc 0933 90bc bb45 a63d
00000360: 338b a9bd c3f9 50bd 86e1 55bd 7eaf 8b3d
00000370: 37ab 473d 0f7c 473d e5e0 fcbc de53 7c3d
00000380: 38e9 293d 93bf c73d 9f72 903d 85b7 04bc
00000390: e494 b83c a72f cc3d 07ad 743d 104a 6f3c
000003a0: 0617 143e b6e7 d03d 1b41 8c3d 74a4 95bd
000003b0: 7460 f73c 28ff 0d3c 0e74 8f3c 6b0d 463d
000003c0: 3082 7b3d ea2c 553d 91c5 243d 49b1 9ebd
000003d0: 4df1 4fbd 227a 14bd 39a0 2dbc a267 d8ba
000003e0: 3934 89bb 595b 1f3b e561 c83c 1f12 b03d
000003f0: d6d0 a33d 5090 8b3c 1f16 803d 5017 2fbd

encoder.blocks.1.conv.0.bias f4 [32]
-0.071554124 -0.06516671 0.010138483 -0.021722121 -0.055331536 0.0049189352 0.015803538 0.060555864
0.1162395 0.14209053 -0.07546477 0.028107733 -0.01908509 -0.061972786 0.038590007 -0.02031695
0.059772745 -0.07935724 0.09853172 -0.04616811 -0.13515893 0.0074931635 -0.0047579906 0.06764319
-0.10039894 0.004236877 -0.0015189811 -0.029280072 -0.0035083564 -0.06814851 0.04913385 -0.0641619
00000000: f88a 92bd 2076 85bd e11b 263c 97f2 b1bc
00000010: 52a3 62bd 052f a13b 6c76 813c 6d09 783d
00000020: fa0e ee3d 2e80 113e 468d 9abd 3042 e63c
00000030: 5658 9cbc 2dd7 7dbd 8e10 1e3d bb6f a6bc
00000040: 44d4 743d 0c86 a2bd 00cb c93d c61a 3dbd
00000050: 1a67 0abe 3689 f53b ebe8 9bbb 8388 8a3d
00000060: f69d cdbd 80d5 8a3b 8c18 c7ba c3dc efbc
00000070: 74ec 65bb 7291 8bbd 9340 493d 5067 83bd

encoder.blocks.1.conv.1.weight f4 [32]
0.9054137 0.90758693 0.93903 0.9846036 0.98995847 0.9729176 0.935469 0.88842964
1.1174592 1.0313318 0.98732126 0.95397043 1.0698181 1.0763797 0.9002988 1.0073227
0.9367026 0.99843156 1.0067307 0.9941891 0.979639 1.0301157 1.0768394 0.8922139
1.1048695 1.0576639 0.92667484 0.9104564 0.9730039 1.029385 1.0632836 0.9471686
00000000: 31c9 673f 9e57 683f 4564 703f fb0e 7c3f
00000010: eb6d 7d3f 2111 793f e57a 6f3f 2070 633f
00000020: e708 8f3f ae02 843f 16c1 7c3f 6837 743f
00000030: cdef 883f cfc6 893f fb79 663f f3ef 803f
00000040: becb 6f3f 3699 7f3f 8ddc 803f 2d83 7e3f
00000050: 9fc9 7a3f d5da 833f e0d5 893f 2168 643f
00000060: 5d6c 8d3f 8861 873f 903a 6d3f ac13 693f
00000070: c916 793f e3c2 833f ad19 883f a479 723f

encoder.blocks.1.conv.1.bias f4 [32]
-0.04721448 -0.05641107 -0.022422032 0.015352646 -0.10544304 -0.050051827 -0.024467595 -0.1293474
-0.06994771 0.008629006 0.010980567 0.03769932 -0.029757712 -0.049692225 -0.08691344 -0.11676662
-0.027041955 -0.0062430366 -0.04179282 -0.050308708 0.0002784757 -0.07364923 -0.12084457 -0.064626485
-0.09847078 -0.07955628 -0.0033320945 -0.055850286 -0.007093631 -0.038222972 -0.012343388 -0.17958233
00000000: f863 41bd 4b0f 67bd 69ae b7bc aa89 7b3c
00000010: 85f2 d7bd 2503 4dbd 4470 c8bc a573 04be
00000020: bf40 8fbd ad60 0d3c d6e7 333c 9a6a 1a3d
00000030: 72c6 f3bc 138a 4bbd acff b1bd 5623 efbd
00000040: 1787 ddbc 6392 ccbb f32e 2bbd 8110 4ebd
00000050: 6000 9239 68d5 96bd 5c7d f7bd e45a 84bd
00000060: 0cab c9bd 67ee a2bd 455f 5abb 45c3 64bd
00000070: b171 e8bb b18f 1cbd ec3b 4abc 6ee4 37be

encoder.blocks.1.conv.1.running_mean f4 [32]
-1.7663658 1.8071477 -0.9688262 -0.0874599 -0.56703 -1.9065057 -1.4839613 -1.025594
0.5543488 1.0758748 -0.4474486 -0.9702859 -0.090809196 -0.40424407 -1.0761948 0.47187153
-0.48151124 0.3092222 1.352983 0.7358573 -1.4129088 0.15400727 1.0515913 0.35617596
0.21380587 1.1097972 -2.327655 -0.47138768 0.94501793 0.2498701 -0.08097106 1.2441853
00000000: 4618 e2bf 9e50 e73f fe04 78bf 2d1e b3bd
00000010: e128 11bf 6108 f4bf 72f2 bdbf aa46 83bf
00000020: cee9 0d3f 44b6 893f fc17 e5be a864 78bf
00000030: 2cfa b9bd 14f9 cebe c0c0 89bf 2599 f13e
00000040: a488 f6be 5f52 9e3e 8c2e ad3f 2561 3c3f
00000050: 32da b4bf 15b4 1d3e 8b9a 863f b25c b63e
00000060: edef 5a3e d60d 8e3f 4df8 14c0 ba59 f1be
00000070: b2ec 713f f3dd 7f3e 28d4 a5bd 7741 9f3f

encoder.blocks.1.conv.1.running_var f4 [32]
2.7569678 2.3482354 1.0797849 1.3379246 5.1377788 3.7452543 3.8515291 1.8310702
1.3703284 2.8169742 2.8620956 3.795683 1.2048049 1.6762677 4.966754 3.005852
2.4786263 1.409017 1.6857582 1.7908181 2.2211337 1.3874545 2.6835985 1.1564695
1.3496277 1.5175365 9.8073845 1.6994768 2.6952176 1.8076233 1.2682551 3.0202458
00000000: 2972 3040 7d49 1640 6436 8a3f 1d41 ab3f
00000010: af68 a440 3fb2 6f40 747f 7640 8260 ea3f
00000020: ec66 af3f 4e49 3440 932c 3740 78ec 7240
00000030: 0c37 9a3f f18f d63f a6ef 9e40 e15f 4040
00000040: d0a1 1e40 ab5a b43f edc6 d73f 8739 e53f
00000050: 0e27 0e40 1c98 b13f 14c0 2b40 3107 943f
00000060: 9ac0 ac3f a33e c23f 0ceb 1c41 7588 d93f
00000070: 727e 2c40 3360 e73f 2f56 a23f b54b 4140

encoder.blocks.1.conv.3.weight f4 [32, 32, 3, 3]
-0.04303385 0.02402103 -0.06078971 -0.0012262082 0.03638598 0.025314908 0.053927395 0.06262925
0.007673337 -0.0025477551 -0.021841168 -0.066405416 -0.00610294 -0.09218512 -0.07638724 0.04197506
-0.0020468044 0.027550122 0.097845905 0.041988622 -0.0075547663 0.07342123 0.05865081 0.017769868
0.08972236 0.07836167 -0.041565582 0.069864675 0.07475665 -0.004295532 0.05974542 0.018804882
-0.018332824 -0.0036134194 -0.0098194005 0.04042102 0.15240428 0.10190417 0.05072072 0.0007312775
0.07881496 0.05834404 -0.004990095 0.11195463 0.086411856 0.043030202 -0.0093535185 0.118627734
0.09602631 0.0049758395 0.13696663 0.022734668 0.031625 0.13189793 -0.04068216 -0.037659064
-0.022847038 -0.016786616 -0.030410504 -0.037107565 0.053617973 -0.050868653 -0.062178805 0.07071892
0.027132755 -0.029838732 0.097250484 0.015100583 -0.030642936 -0.0062676733 0.099271305 -0.04493212
-0.10766324 -0.10674031 -0.028944843 0.019563315 -0.10795826 -0.107773274 0.0123974215 -0.09289573
-0.07090343 0.0027261574 -0.0736802 -0.07430323 0.020810256 -0.009865598 -0.0061456384 -0.016537206
-0.042455062 -0.12105872 -0.03328207 0.0041329754 0.0053769015 0.04988989 -0.055848267 0.005116124
0.048843134 0.00933387 0.039036803 0.043288488 0.09243908 -0.02484925 0.11915909 -0.0034485294
-0.018094983 0.072103895 0.07715908 -0.04827033 -0.007612142 -0.10529501 -0.10158459 -0.09612322
-0.052630257 -0.035912212 -0.04081212 0.0022897995 -0.02425131 -0.087223 -0.052870773 -0.039655507
-0.085389346 -0.046021745 -0.10251269 -0.012854823 -0.054060567 -0.07861866 0.000980607 0.046516396
0.01450596 -0.02880743 -0.0223637 0.012490168 -0.018979501 -0.013828697 -0.05050698 0.047254417
0.047458865 -0.07144877 0.012272457 -0.0039811437 0.001203838 -0.055932894 -0.0694236 0.03458406
0.02065884 0.116448194 0.009267491 0.10406621 0.04570074 0.010855083 0.006432563 0.03254576
0.06190575 -0.010924347 0.041867014 0.0018669064 0.021626482 0.024458041 0.017900052 0.029533055
0.020326132 -0.011495578 0.016478956 -0.07124898 -0.02113232 -0.012763657 0.0036191167 -0.08262504
-0.013515662 -0.03984252 -0.058256973 0.03612109 -0.03153015 -0.06671038 0.018299727 0.0089203315
-0.09206636 -0.021032777 0.008807139 -0.025151636 0.063958526 0.054272346 0.056785382 -0.021111578
0.0140919555 0.002257125 0.028468201 -0.010720109 0.03532479 -0.01130764 -0.034600306 -0.061550204
-0.094629146 -0.0942342 -0.11260408 -0.08662264 -0.014806731 -0.033875518 0.0033336326 -0.04846542
-0.02139698 0.056043398 -0.04724719 -0.08554921 0.0050937864 -0.045762952 -0.09370845 0.008783315
0.09607721 0.06779085 0.08710041 -0.016677253 0.038605675 -0.0064929924 0.05017446 0.0061374176
-0.0704555 -0.114645824 -0.06706124 -0.1061288 -0.12421083 -0.09179523 -0.03573543 -0.117374554
-0.049873363 -0.06344609 0.0015962953 -0.06346508 -0.020424685 -0.001312428 -0.082475424 -0.0052089635
-0.012316418 -0.015385981 0.05636935 0.01799372 0.05425208 0.10137821 0.048834983 0.07949114
-0.0015834628 0.037362427 0.0042546145 0.0059714043 -0.10097366 -0.025167007 0.009084218 0.014509371
-0.037824728 0.026911695 -0.036473684 -0.059026316 0.025353234 0.060221992 -0.02218951 0.02371877
00000000: 4344 30bd c0c7 c43c a2fe 78bd b8b8 a0ba
00000010: 7709 153d 3661 cf3c f9e2 5c3d c443 803d
00000020: 9e70 fb3b 3df8 26bb 40ec b2bc 90ff 87bd
00000030: 2cfb c7bb 8dcb bcbd ea70 9cbd 0aee 2b3d
00000040: ae23 06bb cbb0 e13c 6f63 c83d 43fc 2b3d
00000050: f98d f7bb df5d 963d d53b 703d 1d92 913c
00000060: 5bc0 b73d 157c a03d ac40 2abd 3615 8f3d
00000070: 041a 993d 89c1 8cbb 9db7 743d b20c 9a3c
00000080: b82e 96bc 1ecf 6cbb 8de1 20bc 8390 253d
00000090: de0f 1c3e 22b3 d03d 88c0 4f3d 34b3 3f3a
000000a0: bd69 a13d 29fa 6e3d f383 a3bb 7848 e53d
000000b0: b3f8 b03d 7040 303d 803f 19bc 19f3 f23d
000000c0: 71a9 c43d 5e0c a33b fb40 0c3e 0e3e ba3c
000000d0: 3789 013d 4010 073e 56a2 26bd 6440 1abd
000000e0: b629 bbbc 1684 89bc 731f f9bc 1afe 17bd
000000f0: 859e 5b3d a65b 50bd 34af 7ebd 15d5 903d
00000100: 8345 de3c 5b70 f4bc 432b c73d 7068 773c
00000110: e506 fbbc 0e61 cdbb c14e cb3d be0a 38bd
00000120: 8b7e dcbd aa9a dabd bc1d edbc 3f43 a03c
00000130: 3819 ddbd 3cb8 dcbd 8e1e 4b3c 1e40 bebd
00000140: d135 91bd 55a9 323b a5e5 96bd 4b2c 98bd
00000150: 457a aa3c 51a3 21bc 5a61 c9bb 0979 87bc
00000160: 5ce5 2dbd a2ed f7bd c852 08bd e96d 873b
00000170: b830 b03b 5759 4c3d 27c1 64bd 29a5 a73b
00000180: bd0f 483d 17ed 183c 0ee5 1f3d 454f 313d
00000190: b350 bd3d a890 cbbc ae09 f43d b900 62bb
000001a0: ee3b 94bc 35ab 933d 9405 9e3d 1cb7 45bd
000001b0: 466f f9bb e9a4 d7bd 950b d0bd 40dc c4bd
000001c0: d392 57bd af18 13bd 9c2a 27bd 7610 163b
000001d0: afaa c6bc f9a1 b2bd 068f 58bd d06d 22bd
000001e0: 9ce0 aebd 4c81 3cbd 2cf2 d1bd 099d 52bc
000001f0: 9d6e 5dbd d202 a1bd b687 803a fa87 3e3d
00000200: 68aa 6d3c 8ffd ebbc 1434 b7bc 90a3 4c3c
00000210: e67a 9bbc c291 62bc 68e0 4ebd d98d 413d
00000220: 3a64 423d bc53 92bd 6a12 493c 4174 82bb
00000230: 1aca 9d3a e419 65bd f62d 8ebd 04a8 0d3d
00000240: ba3c a93c 647c ee3d add6 173c aa20 d53d
00000250: b330 3b3d 85d9 313c 40c8 d23b b44e 053d
00000260: e290 7d3d 08fc 32bc bf7c 2b3d fcb2 f43a
00000270: 052a b13c 3b5c c83c 21a3 923c 4eef f13c
00000280: fd82 a63c f357 3cbc e0fe 863c fcea 91bd
00000290: b01d adbc a81e 51bc b42e 6d3b 5137 a9bd
000002a0: cc70 5dbc e931 23bd dd9e 6ebd b5f3 133d
000002b0: c225 01bd 749f 88bd 4fe9 953c 9526 123c
000002c0: 4a8d bcbd ee4c acbc d14b 103c ce0a cebc
000002d0: b0fc 823d ae4c 5e3d ca97 683d 30f2 acbc
000002e0: f2e1 663c 46ec 133b 2536 e93c 65a3 2fbc
000002f0: bab0 103d ae43 39bc 0db9 0dbd 111c 7cbd
00000300: edcc c1bd dcfd c0bd f89c e6bd 3667 b1bd
00000310: ee97 72bc 0ec1 0abd 1379 5a3b ad83 46bd
00000320: b848 afbc c38d 653d 4586 41bd 6d34 afbd
00000330: c7e9 a63b ef71 3bbd 37ea bfbd e5e7 0f3c
00000340: 21c4 c43d eed5 8a3d b361 b23d bc9e 88bc
00000350: fc20 1e3d 2bc3 d4bb bc83 4d3d 641c c93b
00000360: f94a 90bd 6ecb eabd 6757 89bd 0e5a d9bd
00000370: 3f62 febd 23ff bbbd 505f 12bd 1262 f0bd
00000380: 0348 4cbd 06f0 81bd c83a d13a fbf9 81bd
00000390: ab51 a7bc c705 acba e0e8 a8bd f4af aabb
000003a0: cdca 49bc 7b15 7cbc 8ce3 663d 9167 933c
000003b0: 6e37 5e3d 619f cf3d 3107 483d 40cc a23d
000003c0: 328c cfba 5809 193d 4b6a 8b3b c5ab c33b
000003d0: 47cb cebd 0a2b cebc f9d5 143c b6b8 6d3c
000003e0: 1aee 1abd ea75 dc3c 6e65 15bd 94c5 71bd
000003f0: 96b1 cf3c 56ab 763d c6c6 b5bc de4d c23c

encoder.blocks.1.conv.3.bias f4 [32]
0.06436336 0.033299427 0.055765506 0.0095351115 -0.06490747 -0.03432319 0.059856288 0.03173239
-0.0250227 0.02054062 0.032366227 0.06575214 0.047280077 -0.06471197 -0.033570107 -0.04539963
0.09675786 0.021784293 0.065744035 -0.016585998 -0.067655794 -0.013414447 -0.0614138 0.018820398
-0.02617252 -0.056071818 0.03580784 -0.058550578 -0.014138909 0.11219108 -0.026497295 -0.016459819
00000000: f0d0 833d fb64 083d 5f6a 643d 2839 1c3c
00000010: 35ee 84bd 7996 0cbd de2b 753d d3f9 013d
00000020: 68fc ccbc cd44 a83c 7392 043d 0fa9 863d
00000030: c1a8 413d b687 84bd cf80 09bd f6f4 39bd
00000040: fc28 c63d f974 b23c cfa4 863d 5cdf 87bc
00000050: 1f8f 8abd 45c8 5bbc 098d 7bbd 3c2d 9a3c
00000060: c167 d6bc 90ab 65bd 3eab 123d bbd2 6fbd
00000070: e2a6 67bc 70c4 e53d db10 d9bc bed6 86bc

encoder.blocks.1.conv.4.weight f4 [32]
1.0219393 1.0006992 0.98254675 0.9219268 0.8914253 0.9806606 0.9501403 0.927127
0.9230988 1.0346035 0.9683679 0.99984604 1.0393752 0.958947 1.0189513 0.96863383
1.0098246 0.9911459 1.0306479 1.0301229 0.9509516 0.97634494 1.1093216 1.0230788
0.9454346 1.0972474 1.0143197 0.97080797 0.9934454 1.042515 1.0217412 0.9714393
00000000: e8ce 823f e916 803f 2f88 7b3f 6503 6c3f
00000010: 7334 643f 930c 7b3f 653c 733f 3258 6d3f
00000020: 3450 6c3f e36d 843f f5e6 773f e9f5 7f3f
00000030: 3f0a 853f 8d7d 753f ff6c 823f 63f8 773f
00000040: ef41 813f bdbb 7d3f 45ec 833f 11db 833f
00000050: 9071 733f bef1 793f 40fe 8d3f 3ff4 823f
00000060: 0008 723f 9a72 8c3f 3ad5 813f df86 783f
00000070: 7052 7e3f 2271 853f 6ac8 823f 3fb0 783f

encoder.blocks.1.conv.4.bias f4 [32]
0.051769357 -0.08235487 -0.033287022 -0.07630603 -0.08156 -0.07226137 -0.1392703 -0.0028131483
-0.09168198 -0.11162732 -0.03561201 0.006378822 -0.09954892 -0.044604182 -0.03535096 -0.12479396
-0.031002546 0.037858065 -0.10889053 -0.12521932 -0.08138095 -0.068008065 0.015476167 -0.049028125
-0.08918067 0.12843525 -0.008835427 0.025926502 -0.0966077 -0.12945755 -0.020744435 0.007928148
00000000: 1b0c 543d aca9 a8bd f957 08bd 5646 9cbd
00000010: ee08 a7bd c5fd 93bd e09c 0ebe cc5c 38bb
00000020: c3c3 bbbd dd9c e4bd e6dd 11bd 7005 d13b
00000030: 4ee0 cbbd e0b2 36bd 2bcc 10bd fa93 ffbd
00000040: 0df9 fdbc 0f11 1b3d 0002 dfbd 7e39 00be
00000050: 0eab a6bd d047 8bbd c08f 7d3c b7d1 48bd
00000060: 5ba4 b6bd 8884 033e 78c2 10bc d163 d43c
00000070: 42da c5bd 8590 04be 3cf0 a9bc 10e5 013c

encoder.blocks.1.conv.4.running_mean f4 [32]
-0.20456086 0.9966442 0.7803707 1.5902796 1.4903078 2.0445976 1.1007683 -0.37371507
0.8544184 0.6866224 2.0642812 -0.6433015 0.7225022 -0.091453694 0.29232377 1.4632486
-0.7976652 -0.48441434 -0.64843476 0.74812675 0.3050931 0.6508602 1.1440179 0.06933406
0.93610466 -0.70837694 -0.06243997 -1.7765222 0.54616535 1.6375483 0.39690995 -2.1244946
00000000: 6778 51be 1324 7f3f 60c6 473f 488e cb3f
00000010: 68c2 be3f b0da 0240 fae5 8c3f 9557 bfbe
00000020: 2abb 5a3f 7cc6 2f3f 2f1d 0440 68af 24bf
00000030: e7f5 383f 134c bbbd 76ab 953e bb4b bb3f
00000040: c933 4cbf 2805 f8be d2ff 25bf 3c85 3f3f
00000050: 2a35 9c3e c69e 263f 2e6f 923f 04ff 8d3d
00000060: 8ea4 6f3f 3158 35bf 0ec1 7fbd 1465 e3bf
00000070: 7ed1 0b3f 2f9b d13f c837 cb3e b8f7 07c0

encoder.blocks.1.conv.4.running_var f4 [32]
5.458081 5.064081 4.1343045 2.9124637 7.6229014 10.690107 5.547432 2.21468
1.4457022 5.3588486 3.8515081 2.4640298 5.8876824 5.455826 2.3714068 6.6197467
4.7213583 4.013358 3.9577966 7.3277073 2.3842459 4.128284 11.833829 3.9844549
4.883292 8.277898 3.0224533 6.682491 5.6396055 9.54338 4.681448 9.052409
00000000: 99a8 ae40 f40c a240 394c 8440 ce65 3a40
00000010: cfee f340 ae0a 2b41 9084 b140 51bd 0d40
00000020: c50c b93f b07b ab40 1c7f 7640 aab2 1d40
00000030: e567 bc40 2096 ae40 21c5 1740 f7d4 d340
00000040: 5e15 9740 6e6d 8040 8a4c 7d40 947c ea40
00000050: 7c97 1840 e71a 8440 5d57 3d41 4f01 7f40
00000060: ee43 9c40 4572 0441 e06f 4140 f7d6 d540
00000070: a677 b440 afb1 1841 6cce 9540 abd6 1041

encoder.blocks.1.skip.weight f4 [32, 16, 1, 1]
-0.20537981 -0.15110052 0.011091024 -0.050817937 -0.12156549 0.21894068 -0.05651 0.1738896
-0.2038869 -0.18962571 -0.11146423 0.17298153 0.07501024 0.22762495 0.16458023 0.24382812
-0.020939678 -0.0721522 0.15167564 -0.1434148 0.1293334 0.05791104 0.032521546 -0.052856892
0.032470167 -0.1578885 0.15730017 0.112920225 -0.23976815 0.14531729 -0.2168091 -0.14745766
-0.13910455 -0.07542628 0.24733323 -0.10952163 -0.09340179 0.1638326 -0.074538946 -0.13887525
-0.09799829 -0.029508084 0.20620608 0.09515235 0.13606688 -0.11219302 -0.1440134 -0.1565314
0.037364215 0.004161328 -0.063343465 -0.2053146 -0.018855006 -0.11765379 -0.040483713 -0.14116138
0.035856456 -0.2186983 -0.16200724 0.23593175 -0.2344777 -0.18796128 -0.21979564 -0.029102832
0.11060953 0.022903323 -0.10922247 -0.019532919 0.019935012 -0.15583006 0.1421313 -0.030054808
0.23472884 -0.10724524 -0.04899326 -0.08429921 -0.21168241 -0.008876085 -0.050779015 0.2066766
0.03334248 -0.12892357 0.19550341 0.19373041 0.1976797 0.056541294 -0.022136897 0.0274221
-0.018152118 -0.1549834 -0.23426586 0.17542684 -0.06597382 0.10238546 0.015436083 0.23138484
0.15675294 -0.11988211 0.23684391 0.120373845 0.08277407 0.14784786 -0.04607588 0.08842051
-0.13085556 0.0014900267 0.16008112 -0.12496394 0.04176557 0.002981156 -0.02226618 -0.038554996
-0.17144078 -0.04754606 -0.10152465 0.101374835 -0.24397117 0.14392391 0.1165005 0.052923113
-0.050392598 -0.036566496 0.14181912 0.16759378 0.07450661 -0.18039191 -0.14910251 -0.07693651
0.034545153 0.24771613 0.15963125 -0.030415863 -0.16203308 -0.109434664 0.043079704 -0.10861704
0.0977923 0.03458321 0.04033208 0.14314184 -0.034804553 0.041384548 -0.100174576 0.10136512
0.22474208 0.22464454 -0.078296125 -0.039173514 -0.09939772 0.14028439 0.2083891 0.01754716
0.2471914 0.21868691 -0.19238847 0.13677171 -0.15933046 -0.2063764 -0.24518311 -0.19223237
-0.20651874 -0.07198146 0.23545802 -0.0027404428 -0.2449762 0.010054857 -0.13376144 0.1264633
-0.11630234 -0.10241765 0.07010278 -0.23796669 -0.19945082 -0.077270776 0.112231135 0.22817326
-0.062219262 0.17881778 0.1470648 -0.07632178 -0.19457182 0.09839594 0.09449032 -0.06413925
-0.19306546 0.22878668 0.17384344 -0.070763886 0.09678292 -0.012426853 -0.040348113 -0.1701146
-0.23213547 -0.18740273 0.0389508 -0.16170186 0.13906679 -0.098355085 -0.010745883 -0.08468813
0.054967523 -0.13067263 0.05652386 -0.2190206 -0.2498788 -0.04457 -0.14719668 -0.23522735
0.17068878 -0.24286932 0.22972858 0.1098319 -0.01661992 0.15549615 0.1564157 -0.048486263
-0.20622921 0.056175113 0.16995624 0.14450184 -0.07285175 -0.13852426 0.0995287 0.2096676
-0.14019677 -0.16751054 -0.13210103 0.1629889 -0.20306805 0.06253934 0.13695332 -0.15289366
0.061876893 0.012898713 0.025809407 -0.12730867 -0.13961962 0.13348252 -0.17288187 0.025429785
0.017754346 0.24329573 -0.07778105 0.122769415 -0.15877557 -0.22688577 -0.13066667 0.068187594
0.18746558 0.22639996 0.11222777 0.23943195 0.24401829 -0.084899634 -0.11310837 -0.21188906
00000000: 164f 52be 18ba 1abe 20b7 353c 7826 50bd
00000010: 54f7 f8bd fc31 603e 0877 67bd 1e10 323e
00000020: bac7 50be 3e2d 42be 5c47 e4bd 1222 313e
00000030: f89e 993d 8416 693e b887 283e 14ae 793e
00000040: b089 abbc 88c4 93bd dc50 1b3e 54db 12be
00000050: fa6f 043e 2034 6d3d 5035 053d 7880 58bd
00000060: 70ff 043d 86ad 21be 4c13 213e b842 e73d
00000070: c885 75be 0ece 143e 3403 5ebe 24ff 16be
00000080: 6c71 0ebe 1879 9abd ec44 7d3e e04c e0bd
00000090: 7049 bfbd bcc3 273e e0a7 98bd 5035 0ebe
000000a0: 54b3 c8bd f0ba f1bc b027 533e 3cdf c23d
000000b0: 1e55 0b3e 74c5 e5bd 4078 13be c449 20be
000000c0: 380b 193d c05b 883b 38ba 81bd fe3d 52be
000000d0: d075 9abc 78f4 f0bd 40d2 25bd 9c8c 10be
000000e0: 38de 123d 72f2 5fbe 3ae5 25be 1898 713e
000000f0: ec1a 70be ec78 40be 1c12 61be 1069 eebc
00000100: 4087 e23d c09f bb3c 08b0 dfbd 8003 a0bc
00000110: c04e a33c ea91 1fbe de8a 113e 8035 f6bc
00000120: c25c 703e 64a3 dbbd 28ad 48bd 10a5 acbd
00000130: 46c3 58be 006d 11bc a8fd 4fbd 08a3 533e
00000140: 2092 083d 8a04 04be 0c32 483e 4461 463e
00000150: 8c6c 4a3e d897 673d 7058 b5bc 50a4 e03c
00000160: c0b3 94bc f8b3 1ebe 64e3 6fbe 18a3 333e
00000170: 481d 87bd 78af d13d a0e7 7c3c 26f0 6c3e
00000180: d883 203e c084 f5bd 3687 723e 9086 f63d
00000190: 7485 a93d 6e65 173e 10ba 3cbd d015 b53d
000001a0: 00ff 05be 004d c33a 4eec 233e 18ed ffbd
000001b0: 6012 2b3d 805f 433b 9067 b6bc d8eb 1dbd
000001c0: 2c8e 2fbe a8bf 42bd 28ec cfbd 9c9d cf3d
000001d0: 94d3 79be ca60 133e d097 ee3d e8c5 583d
000001e0: 7868 4ebd c0c6 15bd 0839 113e b49d 2b3e
000001f0: ec96 983d a8b8 38be 54ae 18be e490 9dbd
00000200: 387f 0d3d 4ca9 7d3e 6076 233e b02a f9bc
00000210: 00ec 25be 481f e0bd 5874 303d 9c72 debd
00000220: 5447 c83d 20a7 0d3d 4033 253d c693 123e
00000230: 388f 0ebd d882 293d 5428 cdbd 8498 cf3d
00000240: ca22 663e 3809 663e b859 a0bd 6874 20bd
00000250: 0891 cbbd b6a6 0f3e f463 553e 10bf 8f3c
00000260: be1f 7d3e 76ef 5f3e 7c01 45be e20d 0c3e
00000270: 8627 23be 5654 53be 4811 7bbe 90d8 44be
00000280: a679 53be 046b 93bd e81b 713e 0099 33bb
00000290: 0adb 7abe 20bd 243c c2f8 08be 987f 013e
000002a0: ec2f eebd 58c0 d1bd 0c92 8f3d 8aad 73be
000002b0: d63c 4cbe 2440 9ebd 70d9 e53d 40a6 693e
000002c0: a0d9 7ebd 021c 373e 2898 163e 984e 9cbd
000002d0: d63d 47be d083 c93d 2484 c13d 705b 83bd
000002e0: f4b2 45be 0e47 6a3e 0404 323e a8ec 90bd
000002f0: 2036 c63d 009a 4bbc 1044 25bd 8632 2ebe
00000300: ecb4 6dbe 80e6 3fbe e08a 1f3d 2c95 25be
00000310: 8667 0e3e 646e c9bd 800f 30bc f870 adbd
00000320: a025 613d 0ccf 05be 9085 673d f046 60be
00000330: 3ae0 7fbe 088f 36bd baba 16be 70df 70be
00000340: 0ac9 2e3e bcb2 78be f83d 6b3e 8cef e03d
00000350: 8026 88bc 623a 1f3e 702b 203e 8899 46bd
00000360: c02d 53be e017 663d 0209 2e3e 4af8 133e
00000370: 4c33 95bd 4ed9 0dbe b4d5 cb3d 1ab3 563e
00000380: be8f 0fbe e287 2bbe 7e45 07be 90e6 263e
00000390: 12f1 4fbe a014 803d 7e3d 0c3e 2890 1cbe
000003a0: a072 7d3d 2055 533c 406e d33c 345d 02be
000003b0: 72f8 0ebe a4af 083e f207 31be 2052 d03c
000003c0: 9071 913c 8422 793e ac4b 9fbd 886e fb3d
000003d0: 1096 22be be54 68be 7ccd 05be f0a5 8b3d
000003e0: faf6 3f3e 64d5 673e acd7 e53d a62d 753e
000003f0: eedf 793e dcdf adbd 5ca5 e7bd 72f9 58be

encoder.blocks.1.skip.bias f4 [32]
-0.1553334 0.22982675 -0.08736989 -0.0024404824 -0.039138317 0.1524407 -0.12293163 0.124470085
0.088741034 0.025042653 0.22975826 0.15035188 -0.08241224 -0.2433159 0.24998423 -0.01093635
-0.12782338 -0.0014902353 -0.05660236 0.07586908 0.059767425 -0.08177081 -0.08147851 -0.097853005
-0.07900664 0.15750396 -0.14657798 0.18349689 -0.102060676 -0.21046415 0.09705418 0.23380181
00000000: b80f 1fbe b457 6b3e fcee b2bd 80f0 1fbb
00000010: 804f 20bd 6a19 1c3e 94c3 fbbd 2cea fe3d
00000020: dcbd b53d 4026 cd3c c045 6b3e d8f5 193e
00000030: c0c7 a8bd ce27 79be defb 7f3e 602e 33bc
00000040: 22e4 02be 0054 c3ba e0d7 67bd 4061 9b3d
00000050: b0ce 743d 7477 a7bd 34de a6bd 2867 c8bd
00000060: 3cce a1bd b848 213e 8a18 16be 9ce6 3b3e
00000070: 3005 d1bd ea83 57be 58c4 c63d be69 6f3e

encoder.blocks.2.conv.0.weight f4 [64, 32, 3, 3]
0.09427164 0.0030179566 0.039747614 -0.03612397 -0.025056837 0.08559935 0.061403327 0.050249487
0.04152865 -0.020062242 0.012468653 -0.043323122 0.056045454 -0.02680575 -0.06157738 0.038159203
-0.063113645 -0.045022674 -0.05821686 0.005636009 -0.089995265 -0.14822267 -0.03866277 -0.04272894
-0.1209001 -0.1287756 -0.10577925 -0.03762868 -0.060942847 -0.05978699 -0.039121516 -0.0209716
-0.06060607 -0.0009488309 -0.08789799 -0.10515359 -0.07189873 -0.003951431 -0.089085 -0.10456069
-0.0823055 -0.08633321 -0.044305496 -0.095644414 -0.08614927 -0.038676135 -0.07222338 -0.087062836
-0.09567003 -0.110156894 -0.09323192 0.01848767 -0.033047043 -0.0437465 -0.07100596 -0.09623093
-0.0020540752 -0.0497209 -0.031582333 -0.11733861 -0.08992811 -0.06508299 -0.0608607 0.0074242377
-0.04706142 -0.03303458 0.08158452 0.074246764 0.014878325 0.028551195 -0.04456165 -0.045224056
-0.06993237 0.0025247901 -0.06548602 -0.0648099 -0.07003514 -0.02746803 -0.12505876 -0.046312373
-0.065730415 -0.10608432 0.011007037 0.042937346 -0.12896416 -0.087228134 0.036714155 -0.08773624
0.0182396 0.0034579595 -0.02619427 0.0044774446 0.011796966 -0.013412875 -0.04832519 -0.026473965
-0.015214415 0.0041060164 0.039779227 -0.062201995 0.038042318 -0.047258817 0.0810221 0.06482824
0.02912534 0.022351062 -0.03442461 -0.08047625 -0.08355845 -0.06539325 -0.0043768142 0.053190652
-0.07585051 0.0076396135 -0.059466925 -0.026580123 -0.0350424 0.00081822457 0.05674848 -0.046596352
-0.003042667 -0.038723264 -0.017263833 -0.06258587 -0.0017933499 -0.03357853 -0.013908621 -0.038567346
0.03759084 0.012622006 -0.014382951 0.05250709 0.015093491 -0.07101823 0.014568651 -0.061522353
0.00017325414 0.0051144147 -0.11816096 -0.043047626 -0.047608063 -0.05212377 0.0065742005 -0.009248887
-0.0507253 -0.08902422 0.009116789 0.023936486 -0.007854617 0.038426157 -0.026557913 -0.007235016
-0.027339837 0.0018004082 0.025218649 0.03330834 -0.020143278 0.08946352 0.005839232 0.00778916
-0.036011647 0.0033666976 0.016013585 -0.04054045 0.010653052 0.0981023 -0.020063613 0.049898524
0.06306499 0.08754741 0.117119975 -0.0074741733 -0.005432953 -0.06601728 -0.0017550837 -0.02471347
0.015688887 -0.0052862377 0.08500199 -0.009505306 -0.048930213 0.02132963 -0.03808314 0.032659408
-0.03345525 -0.084340155 -0.08139144 -0.08546762 -0.037446678 0.0060105124 -0.0062881648 -0.03798684
-0.04413714 -0.044678543 -0.009838942 0.010275785 0.019480444 -0.044573586 0.04559089 -0.026774727
0.0065735406 0.04304068 -0.11260256 -0.004243495 0.0017637248 -0.05066135 -0.029658904 -0.032008138
-0.036092542 -0.08788512 -0.08521113 -0.09039671 -0.060534373 -0.0031195835 0.036897775 0.036512587
-0.09480718 -0.078661874 -0.0879439 -0.071783274 -0.026005102 -0.029017769 -0.08122703 -0.064005196
0.035321295 0.01409144 0.005119237 0.043894194 -0.025060194 -0.020265458 0.002343835 -0.06349911
-0.064643525 -0.009444357 0.034265373 -0.015456279 0.05390728 0.030748045 0.06152885 0.070639625
0.10742998 0.07764245 0.054011025 -0.011355185 0.013432318 -0.0654724 0.016718943 0.019769348
0.04057438 0.034994762 -0.039942723 0.042029638 -0.060111202 0.015394689 0.005739653 0.017427454
00000000: 7d11 c13d e9c8 453b 65ce 223d baf6 13bd
00000010: ff43 cdbc b64e af3d 0e82 7b3d 68d2 4d3d
00000020: f219 2a3d 9259 a4bc 5249 4c3c 9673 31bd
00000030: eb8f 653d bb97 dbbc 9038 7cbd d34c 1c3d
00000040: ba41 81bd b269 38bd cd74 6ebd 45ae b83b
00000050: 704f b8bd afc7 17be da5c 1ebd 8a04 2fbd
00000060: 799a f7bd c0dd 03be cba2 d8bd 8820 1abd
00000070: 359f 79bd 34e3 74bd e23d 20bd a2cc abbc
00000080: 123e 78bd f7ba 78ba dd03 b4bd c45a d7bd
00000090: a43f 93bd 017b 81bb 3272 b6bd ea23 d6bd
000000a0: c98f a8bd 77cf b0bd ae79 35bd 38e1 c3bd
000000b0: 076f b0bd de6a 1ebd dae9 93bd 004e b2bd
000000c0: a6ee c3bd f099 e1bd 60f0 bebd 7473 973c
000000d0: 565c 07bd 882f 33bd 936b 91bd b914 c5bd
000000e0: aa9d 06bb 24a8 4bbd 7a5c 01bd 3a4f f0bd
000000f0: 3b2c b8bd 3b4a 85bd 1249 79bd 0547 f33b
00000100: 7ac3 40bd 454f 07bd c915 a73d b00e 983d
00000110: 38c4 733c 32e4 e93c 4786 36bd dc3c 39bd
00000120: b438 8fbd f376 253b 891d 86bd 0ebb 84bd
00000130: 956e 8fbd a204 e1bc 670f 00be 0bb2 3dbd
00000140: ab9d 86bd bc42 d9bd dc56 343c 12df 2f3d
00000150: 2e0f 04be aaa4 b2bd 9561 163d 0faf b3bd
00000160: 376b 953c ef9e 623b 5e95 d6bc 87b7 923b
00000170: 1048 413c adc1 5bbc a2f0 45bd eedf d8bc
00000180: e245 79bc c38b 863b 8bef 223d 85c7 7ebd
00000190: 43d2 1b3d 7692 41bd eaee a53d abc4 843d
000001a0: 4498 ee3c 9319 b73c d200 0dbd bbd0 a4bd
000001b0: b120 abbd e5ec 85bd 616b 8fbb 71de 593d
000001c0: 8357 9bbd b955 fa3b 9793 73bd 8fbe d9bc
000001d0: 9f88 0fbd 1f7e 563a 1871 683d d1db 3ebd
000001e0: 7b67 47bb 499c 1ebd e26c 8dbc 052d 80bd
000001f0: d60e ebba a489 09bd fce0 63bc cbf8 1dbd
00000200: daf8 193d 88cc 4e3c 78a6 6bbc ad11 573d
00000210: b14a 773c 0172 91bd 5ab1 6e3c ddfe 7bbd
00000220: 8eab 3539 d296 a73b 60fe f1bd b552 30bd
00000230: ac00 43bd bc7f 55bd 646c d73b a588 17bc
00000240: 55c5 4fbd 5552 b6bd 965e 153c 7316 c43c
00000250: a7b0 00bc bf64 1d3d fb8f d9bc b713 edbb
00000260: cbf7 dfbc adfb eb3a 5797 ce3c 536e 083d
00000270: 8403 a5bc a638 b73d 0757 bf3b 363c ff3b
00000280: f380 13bd d0a3 5c3b ec2e 833c be0d 26bd
00000290: 238a 2e3c dce9 c83d 725c a4bc 6562 4c3d
000002a0: 3828 813d 0e4c b33d 99dc ef3d e9e9 f4bb
000002b0: ea06 b2bb 1134 87bd d60a e6ba e773 cabc
000002c0: fb85 803c 2d38 adbb 8615 ae3d 25bc 1bbc
000002d0: 0c6b 48bd 7abb ae3c 11fd 1bbd dfc5 053d
000002e0: 5f08 09bd 88ba acbd 8eb0 a6bd a609 afbd
000002f0: b061 19bd d5f3 c43b f30c cebb 1798 1bbd
00000300: 25c9 34bd d900 37bd 8433 21bc c45b 283c
00000310: 7495 9f3c cb92 36bd 83bd 3a3d ac56 dbbc
00000320: db66 d73b 6d4b 303d 2c9c e6bd 040d 8bbb
00000330: c92c e73a 4782 4fbd 3bf7 f2bc f71a 03bd
00000340: c6d5 13bd 1dfd b3bd 2c83 aebd e921 b9bd
00000350: e4f2 77bd ed71 4cbb 1f22 173d 398e 153d
00000360: 442a c2bd 7a19 a1bd ee1b b4bd 1c03 93bd
00000370: a708 d5bc acb6 edbc 5b5a a6bd 2815 83bd
00000380: 10ad 103d c8df 663c 46bf a73b 66ca 333d
00000390: 094b cdbc bf03 a6bc 079b 193b d20b 82bd
000003a0: d363 84bd 81bc 1abc d959 0c3d 553c 7dbc
000003b0: e1cd 5c3d 53e3 fb3c ad05 7c3d 82ab 903d
000003c0: 4004 dc3d 0103 9f3d aa3a 5d3d 190b 3abc
000003d0: 3a13 5c3c 6516 86bd 2af6 883c 54f3 a13c
000003e0: 5231 263d ab56 0f3d fb9a 23bd 4527 2c3d
000003f0: 2a37 76bd 013a 7c3c b313 bc3b 05c4 8e3c

encoder.blocks.2.conv.0.bias f4 [64]
0.01731023 0.026051566 -0.022382583 -0.06622432 -0.019361973 0.014674467 -0.0120737 -0.056047894
-0.08054445 0.0053310897 0.061378177 -0.00013134361 0.0016220603 0.07318894 0.05940422 -0.047264457
0.04191782 0.029280066 0.037039153 -0.056783233 0.015332639 -0.0551716 0.010772918 -0.10693347
-0.017366322 -0.034909677 0.0928728 -0.07356617 0.076247424 -0.06341275 0.049470697 -0.02157053
-0.039010894 -0.06130332 -0.07113991 -0.013611374 0.02520062 -0.049930975 -0.01001001 0.06903065
0.02738301 0.040737677 -0.011681415 -0.03965636 -0.024661675 -0.01278378 -0.009050097 -0.06605332
0.018432902 -0.050648507 0.022204937 -0.012986759 -0.06514537 -0.018989082 -0.045231864 -0.03952651
0.016831258 -0.026129102 -0.0726345 0.07355219 0.011527044 0.056869935 -0.06987957 0.02425571
00000000: 2fce 8d3c 186a d53c ae5b b7bc 9ea0 87bd
00000010: 009d 9ebc 2d6d 703c c5d0 45bc 7a92 65bd
00000020: 7df4 a4bd 6cb0 ae3b af67 7b3d 48b9 09b9
00000030: 509b d43a 15e4 953d d751 733d 6098 41bd
00000040: 05b2 2b3d c0dc ef3c 5eb6 173d 8995 68bd
00000050: c035 7b3c 9efb 61bd e580 303c efff dabd
00000060: d143 8ebc 73fd 0ebd 1834 be3d dca9 96bd
00000070: 9c27 9c3d 8bde 81bd c9a1 4a3d aeb4 b0bc
00000080: e3c9 1fbd 3119 7bbd cdb1 91bd 3e02 5fbc
00000090: 8871 ce3c 6c84 4cbd 0601 24bc f15f 8d3d
000000a0: 5652 e03c 8ddc 263d 6863 3fbc b56e 22bd
000000b0: 4807 cabc 0f73 51bc dc46 14bc f746 87bd
000000c0: 9900 973c cf74 4fbd 21e7 b53c 6ac6 54bc
000000d0: f06a 85bd fe8e 9bbc 0c45 39bd 8de6 21bd
000000e0: b5e1 893c b30c d6bc 66c1 94bd 88a2 963d
000000f0: eddb 3c3c 73f0 683d 051d 8fbd e9b3 c63c
