toyshapes/pinets_ensemble/ensemble_17/model_0.pth (torch, 466407 bytes, 71 tensors)

encoder.blocks.0.conv.0.weight f4 [16, 1, 3, 3]
000000 ee f3 41 3d f3 3c 3e 3e fa 38 8e be 94 ab 71 be
       0.04735177 0.18577938 -0.27777845 -0.23600608
000010 57 15 0e be ae 6e c1 3d 32 2b 0c 3d 22 19 a7 3e
       -0.13875328 0.094449386 0.03422088 0.32636362
000020 22 e7 72 3a 9d 7a 61 3e 35 1c 83 bb 74 0a 25 bc
       0.0009266009 0.2201943 -0.0040011653 -0.010073293
000030 8e bf 9a be 98 fc 2b be 62 db 2b be 7b aa 79 3d
       -0.3022427 -0.16795576 -0.16782907 0.0609536
000040 0c 26 43 3e e9 44 52 3e 45 fe 76 be 94 f5 37 be
       0.19057482 0.205341 -0.24120434 -0.17964774
000050 88 6a ea 3d 15 21 98 3e 49 53 73 bd 74 fe 65 3e
       0.114461005 0.2971274 -0.0594056 0.22460347
000060 15 07 37 bd 63 6b 10 3d 7a 0d 93 3e ed 28 93 be
       -0.04468449 0.035258662 0.2872122 -0.2874216
000070 ed 83 14 be 3d 73 70 bd 1e 20 80 bc 99 18 cd 3e
       -0.1450345 -0.05870365 -0.015640315 0.4005783
000080 16 8f 93 be a0 6a 6a bd 0f 7b 1b be df 05 8e be
       -0.28820103 -0.05723059 -0.15183662 -0.27738854
000090 b4 b8 36 be 31 48 a6 3e cd 86 1a 3e b4 cb 60 3e
       -0.17843896 0.32476953 0.15090485 0.21952707
0000a0 c6 e3 01 3d 0a ee 16 be 9f 18 2e 3e e8 d3 92 be
       0.031711362 -0.14739242 0.1700158 -0.28677297
0000b0 65 c3 08 be b3 12 4a be 0a 00 4d 3e 57 ca 35 3e
       -0.13355787 -0.19733696 0.20019546 0.17752968
0000c0 c4 48 e8 bd 9d 35 85 bb 7b 70 91 3e 8e 67 aa 3e
       -0.11342004 -0.004065229 0.28406128 0.3328213
0000d0 43 d8 98 3d 1a de 12 3d 08 55 7a 3e f1 ca 5e be
       0.07463124 0.035856344 0.244465 -0.21757104
0000e0 97 f4 ca 3d e1 75 78 be ec fd ab bd b3 5b c6 bd
       0.09909933 -0.24263717 -0.08398041 -0.09685459
0000f0 aa d6 f2 3d 03 d5 5a 3e c2 c3 68 be 7e 3b 12 bd
       0.1185735 0.2137032 -0.22730926 -0.035701267
000100 0a 86 2d 3e 48 b3 fe 3c a5 14 28 bb 55 a2 2e 3d
       0.16945663 0.031091347 -0.002564707 0.04263528
000110 41 19 78 3e 84 62 59 3e 48 ff b0 be 4f 08 34 be
       0.24228384 0.21228987 -0.34569764 -0.17581294
000120 cf be 8b 3d d6 5b 93 3e 3b d1 7a 3e 17 ef 75 3e
       0.06823503 0.28781003 0.24493878 0.24016987
000130 5e 3b e8 3c 1f 6d a6 be d3 47 c8 3c 11 54 8c be
       0.028348621 -0.32505128 0.024448311 -0.27407888
000140 6f 9e bc be bc 1f 80 3e 60 3c 92 3e f2 c3 df be
       -0.36839625 0.2502421 0.28561687 -0.43704182
000150 05 70 8a 3c 4a 7f 8b bd e4 11 a6 bd 24 85 35 be
       0.016899118 -0.06811388 -0.08108881 -0.1772657
000160 79 9e d4 3d 36 7a 02 be c0 c3 ba 3d 7c ad 5e 3e
       0.10381789 -0.12741932 0.091193676 0.21745867
000170 0e 15 7b 3e 0e 6e e4 3d bb 44 b3 be 9e bd 68 be
       0.2451975 0.11153804 -0.35013375 -0.22728583
000180 cf 63 ee 3d ee 63 6a 3d 92 1a 8c be 95 42 e6 bd
       0.11640131 0.057224207 -0.27364022 -0.11243168
000190 53 8c be 3e 52 cb ab 3e ad 13 dc bd 72 1e f2 3a
       0.37216434 0.3355356 -0.1074594 0.0018472208
0001a0 9f 9a 7f be d4 d9 15 3e 0c 6c 39 be df 2e 1d be
       -0.24961327 0.14633876 -0.18107623 -0.15349911
0001b0 a3 e6 c1 bd 0d 78 f2 3d 1f 09 01 be a4 f7 36 3e
       -0.094678186 0.11839304 -0.12601136 0.17867905
0001c0 71 c9 5b be a9 9c a8 3e 0b dc 88 3e eb bb 7f be
       -0.21463563 0.32932022 0.2673038 -0.24974029
0001d0 71 7a 48 bc 10 b8 e4 3b 0c 5a 53 3d ec 48 09 3e
       -0.012236224 0.00697995 0.051599547 0.13406724
0001e0 da f3 2f 3e 24 4a 6b 3d 14 84 d9 bd 4b fe 7e 3e
       0.17182866 0.057443753 -0.10620895 0.24901693
0001f0 e2 86 90 be 6d 5f e1 bd e0 8f ae 3b 67 d4 6b be
       -0.28227907 -0.11004529 0.00532721 -0.23030244
000200 4f ea 28 be 44 7f 74 be 95 ee a9 bc 43 97 89 3d
       -0.16495632 -0.23876673 -0.020743648 0.06718304
000210 f2 37 6f be d1 24 ca 3c fc 83 65 3e c1 2d d6 bd
       -0.23361185 0.024675759 0.2241363 -0.104579456
000220 6d 51 2e be 35 21 2f bd ad fc 2a bc db 34 9b 3d
       -0.17023249 -0.042756278 -0.010436219 0.07578441
000230 63 c8 ab 3e 89 17 e9 3d d7 5d aa 3e d7 e3 63 bd
       0.3355132 0.11381442 0.3327472 -0.055637207

encoder.blocks.0.conv.0.bias f4 [16]
000000 a6 3a 8a be de ce 34 be d3 82 58 3e 23 c6 aa bd
       -0.2699787 -0.17657039 0.21143655 -0.08338573
000010 e6 b7 f4 bd f9 b0 67 be b9 34 6f be f0 c4 9b be
       -0.11949138 -0.22626103 -0.23359956 -0.3042369
000020 c3 18 b9 bd 07 d1 54 3e a0 41 be 3d 7f 86 a1 be
       -0.09037926 0.20782863 0.09289861 -0.31547925
000030 6c bc 29 3e 04 f1 61 be 81 f8 05 be 07 1d dc bd
       0.16575783 -0.22064596 -0.13083078 -0.10747724

encoder.blocks.0.conv.1.weight f4 [16]
000000 8e 5d 82 3f 19 51 81 3f c1 39 73 3f 67 4b 6f 3f
       1.0184801 1.0102874 0.9501 0.9347443
000010 56 18 88 3f 87 c4 6a 3f c2 6a 92 3f a3 55 5b 3f
       1.0632427 0.91706127 1.143883 0.85677546
000020 f6 03 7f 3f b3 49 74 3f 87 06 70 3f c7 a9 60 3f
       0.9961542 0.95424956 0.9375996 0.8775906
000030 1d b7 99 3f 2a 80 71 3f 2b 26 6b 3f 2c c4 5a 3f
       1.2009007 0.9433619 0.91855115 0.85455585

encoder.blocks.0.conv.1.bias f4 [16]
000000 ac 0a 87 bd 97 f0 5b bd 99 07 17 3d 6c 17 23 3b
       -0.065938324 -0.05369624 0.03687248 0.0024885787
000010 6d 0d ce 3d d0 2a 2e bd 61 a6 8b 3d 00 67 a2 bb
       0.100611545 -0.042521298 0.06818844 -0.004956126
000020 15 8c b9 3c 6b 3e 56 bd 5c 90 d9 3d 9c fd 07 be
       0.022649804 -0.05230562 0.106232375 -0.13280338
000030 f4 63 69 3e 9c 96 f1 bc 42 6f b8 bd 4d 86 47 be
       0.22792035 -0.029490761 -0.09005596 -0.19484825

encoder.blocks.0.conv.1.running_mean f4 [16]
000000 e9 e2 76 be 40 0a 33 be ac c6 da 3e 03 df 00 bf
       -0.24109997 -0.17484379 0.427297 -0.5034029
000010 87 ce 24 bd 3d 2a 2b 3e 21 cb a9 be dd 04 6f be
       -0.040236022 0.16715331 -0.33162788 -0.23341699
000020 7a 2e 0c be 56 b2 9e 3d 56 50 ac 3d 46 53 aa be
       -0.13689604 0.07748859 0.0841376 -0.33266658
000030 62 92 84 3e 82 85 16 be a3 21 d2 be 8d 5e 1b 3e
       0.2589293 -0.14699367 -0.41041288 0.15172787

encoder.blocks.0.conv.1.running_var f4 [16]
000000 0a 44 10 3b 77 f7 22 3b 36 b4 48 3c 6d a6 fd 3c
       0.002201321 0.0024866739 0.012249997 0.030963147
000010 c9 20 7b 3b 03 84 de 3c c2 1b 45 3b d9 78 37 3b
       0.0038319102 0.027162557 0.003007636 0.0027995615
000020 48 3f 3b 3c a9 87 ed 3b 39 00 ab 3b 88 b9 a1 3b
       0.011428662 0.007248838 0.0052185324 0.004935447
000030 92 37 41 3b 30 de 63 3b f8 5d 81 3c 6e 8d 6b 3c
       0.0029482585 0.0034769885 0.015791878 0.014376981

encoder.blocks.0.conv.3.weight f4 [16, 16, 3, 3]
000000 26 de 25 bd dc 0c 7a bd be 0e fb bd df 0d e0 bd
       -0.04049506 -0.06104742 -0.12258671 -0.10940146
000010 98 11 70 bd 59 c8 69 bd be be 94 bd 89 d2 b6 3c
       -0.05861053 -0.057075832 -0.07262944 0.022317188
000020 1e cc f2 bd 69 4f f6 3c a5 85 4b 3d 21 a6 bc bd
       -0.118553385 0.030067163 0.049688 -0.09211374
000030 32 92 d3 3d 2b b1 42 bb 77 47 ec bd a2 d9 b0 3d
       0.10330619 -0.002970765 -0.11537068 0.0863526
000040 f0 78 ac bc d8 78 a4 bd 3e 15 ea 3c 05 c1 d4 bd
       -0.021053761 -0.080308616 0.028574582 -0.10388378
000050 fb bd 85 3c 79 69 83 bd a6 7a 37 3c 0f 70 a7 3c
       0.016325941 -0.06416602 0.011198675 0.020439176
000060 a7 06 69 3c 99 d7 69 bb 66 7a 99 bc 80 a6 bc bc
       0.014222777 -0.0035681485 -0.018735122 -0.023028612
000070 7b a1 af bd f7 3f 8d 3b 9b 80 34 3d 9d 12 c0 3c
       -0.08575722 0.0043106037 0.04406796 0.023446376
000080 09 50 ef bd 56 2b 19 bd 5d e5 d2 bd 26 90 dc bd
       -0.11685187 -0.037394844 -0.10297654 -0.10769682
000090 e1 57 22 be ae 09 79 bd c1 3f fa bd 62 13 f2 bd
       -0.15853836 -0.060800247 -0.12219191 -0.11820103
0000a0 a3 ba bd bd ab 6f ea bc 87 f4 30 be a4 cb 07 be
       -0.09264114 -0.0286177 -0.1728078 -0.13261276
0000b0 70 ea f8 bd 2a 85 81 3d 25 73 71 bd 22 4a 23 3d
       -0.121540904 0.06324227 -0.0589477 0.03986562
0000c0 c7 db 50 3d 81 cd 68 bc 5b 0e f1 bc 5c 0f 5e bc
       0.050990846 -0.014209152 -0.02942579 -0.013553467
0000d0 22 c5 e6 bc 2d 07 57 bd 14 4a 13 3c ad e2 25 3d
       -0.028170172 -0.052497078 0.00898983 0.040499378
0000e0 2f 27 8d bd e7 f4 32 bc 38 d1 c0 3d 64 72 85 bd
       -0.06892239 -0.010922647 0.09414905 -0.06515959
0000f0 ce 15 01 3c f0 7c d7 3d f7 65 ca 3c 21 a7 0e 3d
       0.007878734 0.10521877 0.024706824 0.034827355
000100 8d d3 4e bd 19 92 b3 bb 79 74 06 bd 45 92 a7 ba
       -0.05049472 -0.0054800627 -0.03282592 -0.0012784681
000110 34 8a c8 bc 9c e8 30 bb dc 2c 9d 3c ca f7 91 3d
       -0.024479963 -0.0026994115 0.01918643 0.0712734
000120 d3 72 a7 bd 69 05 5f bc 33 42 7f bc 76 d9 fe bd
       -0.08176198 -0.01361213 -0.015579748 -0.12443821
000130 f6 fd 1f bd 3f 2a 08 be ab 63 bd bd 36 ca a0 bc
       -0.039060555 -0.13297366 -0.09247526 -0.019627672
000140 82 34 b7 bb 15 78 a8 bc 2f 8a 98 bd 75 79 ad bd
       -0.005590976 -0.020565072 -0.074482314 -0.08470432
000150 80 62 73 bd 70 ab fb bd 92 22 a5 bb 2e 93 3b be
       -0.05942011 -0.122885585 -0.0050395215 -0.18317863
000160 9a 82 36 bd a8 dd d8 bd 5d d2 07 be 94 1e e8 bd
       -0.044558145 -0.105891526 -0.13263841 -0.11333957
000170 2e 64 8d 3c 0b 17 c0 bd 83 fe 16 be ba 8e c2 bd
       0.017259683 -0.09379395 -0.14745526 -0.09499879
000180 97 1c 2a be 74 a5 16 bd 8c 72 ac bd 81 88 c8 bd
       -0.16612469 -0.036778882 -0.084202856 -0.09791661
000190 52 38 c8 bd 75 4d dc bc 2b 27 5e 3b 97 70 96 3c
       -0.09776367 -0.026892403 0.0033897858 0.018364234
0001a0 46 f5 26 bd 74 21 91 bd 9a 60 8f bd f5 a4 61 bd
       -0.040761255 -0.07086459 -0.07000847 -0.055088956
0001b0 9a 5d 10 bd 5c 43 e0 bc 12 a6 86 bd 3e 19 43 be
       -0.035245515 -0.02737587 -0.06574644 -0.19052598
0001c0 03 7e 46 be 19 d1 28 bd a6 04 43 be e1 ab 49 be
       -0.19384007 -0.041215036 -0.19044742 -0.19694473
0001d0 7b 1e 2a 3d 1b 92 26 be 8d 66 10 be de 80 97 bd
       0.041532975 -0.16266672 -0.1410162 -0.07397626
0001e0 44 a8 c8 bd 44 2c 33 be ea 43 21 be 7e 24 e6 bc
       -0.09797719 -0.17497355 -0.15748563 -0.028093573
0001f0 1f fe b7 bd dc ce 7c 3a 61 c7 42 3c fd a6 3d 3d
       -0.089840166 0.00096438616 0.011888356 0.04630183
000200 a9 f6 8c bd d8 ff b2 3c 80 1b 7b bd e0 9a ee bc
       -0.06882984 0.021850511 -0.061305523 -0.029126585
000210 2d b0 46 3d eb a7 90 bc 64 f4 a0 bd 66 32 c7 bc
       0.048507858 -0.017658195 -0.07859114 -0.024316024
000220 13 dc 67 3d 93 b4 a8 bd b9 ca 44 3d 99 31 27 bd
       0.056606364 -0.08237567 0.048044894 -0.040818784
000230 5c 5e 8e bd 25 b0 e9 3c 64 5d 96 bd 88 92 4a bc
       -0.06951591 0.028526375 -0.073420316 -0.012364037
000240 73 7d 0a bd 0e d4 81 bd b6 6a 3b bc 93 c5 8f 3c
       -0.033811044 -0.06339274 -0.011439016 0.017550265
000250 23 4f 5e 3d 1c 2c bc ba e3 00 cc bd 7a e5 85 3c
       0.05427469 -0.0014356407 -0.09961107 0.016344775
000260 b8 6a 84 3d 6c 99 a9 bd 65 13 87 3c 42 de 54 bb
       0.064656675 -0.08281216 0.01648874 -0.0032481109
000270 8c 89 5a bd 8f 15 62 3b e8 4c 3d 3c 58 34 82 3c
       -0.05335383 0.0034497713 0.01155398 0.0158941
000280 b2 9e 39 3b 2b 0a 2a 3d 14 da 49 bd b8 79 46 bd
       0.002832335 0.041513603 -0.04928024 -0.048455924
000290 bd 7c dc 3d e2 a7 0b 3d da 1a ff bb 7d 46 cf b9
       0.107659794 0.034095652 -0.0077851834 -0.00039534635
0002a0 54 6e bf bc ec 7e 54 bd 31 ac c3 bd 49 72 69 bd
       -0.023368038 -0.051878855 -0.09554327 -0.056993756
0002b0 16 8a 1b 3e cb fb 4c 3d 42 1a fc bc 97 0a c0 3d
       0.15189394 0.050044816 -0.03077424 0.0937702
0002c0 6d 39 42 3d 7b d5 21 3e 0f ee cd 3d 12 89 b9 3d
       0.047418047 0.15804093 0.10055172 0.09059347
0002d0 36 fd 3a bd 39 5b 79 bd 55 7b a5 3d 7f 11 1b bd
       -0.045651637 -0.060878012 0.08080164 -0.037858482
0002e0 60 3b 27 3c 55 e1 dd bd b7 93 f2 3c 5e 7a 2d 3e
       0.010207027 -0.10833994 0.029611452 0.1694121
0002f0 37 dc 07 be 83 33 9a 3c b7 12 31 bd fc 4d a1 3d
       -0.13267599 0.01882339 -0.04323074 0.078762025
000300 a5 4a a8 bc a6 34 44 3d 3a 95 d5 3c ed 7a f0 bb
       -0.020543406 0.047901772 0.026072133 -0.0073388726
000310 80 26 a3 bc 31 a2 02 3d de f3 ea bd 9d 1f 53 3d
       -0.01991582 0.03189296 -0.11472295 0.05154382
000320 f9 04 49 be 47 85 10 3d cb 38 3c be da 8f e0 3d
       -0.19630803 0.035283353 -0.1838104 0.109649375
000330 e4 cc 46 3e b8 c3 a0 bd e7 b4 32 3e d0 62 35 bc
       0.19414097 -0.078498304 0.17451821 -0.011070922
000340 1e 7e 34 be 36 d2 f4 3c bc 24 36 bd 07 6d a1 3d
       -0.17626235 0.029885393 -0.044468626 0.078821234
000350 44 b5 5d bd ed f7 bb bd bb 49 0e bd 56 21 fc bd
       -0.054127946 -0.091781475 -0.034738284 -0.12311046
000360 ed a8 7f 3c d6 aa 9e 3c c0 ea c4 bc 34 c5 4f 3d
       0.01560424 0.01936857 -0.024037719 0.050725177
000370 3f c1 4a 3c a2 48 da bd 69 f8 9d 3d 03 e1 b1 3c
       0.012375175 -0.10658385 0.07713396 0.02171374
000380 47 71 fe bc 43 ec 8d 3c cb f4 15 3d 78 39 cb 3c
       -0.031059874 0.017324572 0.036610406 0.024807677
000390 b6 24 73 bd fd 96 d2 3c 59 98 25 bb 8f f3 24 3b
       -0.059361182 0.025706762 -0.0025267808 0.0025169586
0003a0 3a f8 07 be 0a 3e 52 bd 3b e2 3d bd 01 9a dd 3a
       -0.13278285 -0.051328696 -0.04635833 0.0016906859
0003b0 b8 83 5c 3d 96 ac 8e 3c 97 3a 1b be a8 1a 4b 3d
       0.053836554 0.01741628 -0.15159069 0.04958597
0003c0 c8 bd d4 3d 48 56 ab bc 43 00 12 bd 48 b6 62 3b
       0.103877604 -0.020915166 -0.03564478 0.0034593511
0003d0 ad 74 3d 3d c4 a2 ee bd c6 4d 04 bd d1 68 b4 3d
       0.04625385 -0.11652139 -0.032300733 0.08809055
0003e0 58 65 16 be d6 13 a4 3d b1 c6 d8 bc 84 41 99 3c
       -0.14687097 0.08011596 -0.026461931 0.018707998
0003f0 1c af 92 3e bc 4e 08 be 25 0c 1d 3e ed eb 4e bd
       0.28649223 -0.13311285 0.15336664 -0.050517965

encoder.blocks.0.conv.3.bias f4 [16]
000000 fe 7a f5 3b 3b a2 81 bb 5a 0b 0b bd 77 77 4c 3d
       0.0074914685 -0.003956107 -0.033946373 0.049918618
000010 f5 59 85 bd 23 ba 53 3d 26 c9 1b 3d 17 b4 ee bc
       -0.065112986 0.051691186 0.038033627 -0.029138608
000020 0b f1 b7 bd 94 85 93 bd 2a 02 cd 3d d1 68 df 3c
       -0.08981522 -0.072032124 0.100101784 0.02727166
000030 f1 a3 11 3d 45 d5 cf bb 40 55 cd bd 73 40 f6 3c
       0.035556737 -0.0063425624 -0.10026026 0.030060029

encoder.blocks.0.conv.4.weight f4 [16]
000000 5e 1e 65 3f 3f 27 83 3f 69 54 70 3f 00 39 72 3f
       0.8949946 1.0246352 0.938788 0.94618225
000010 fe 87 86 3f 54 0f 6b 3f aa 86 75 3f b1 13 74 3f
       1.0510252 0.91820264 0.95908606 0.95342547
000020 dd 9d 77 3f 62 82 7b 3f 5b b4 88 3f 98 12 6f 3f
       0.96725255 0.98245823 1.068004 0.93387747
000030 93 a3 77 3f 23 08 75 3f 93 ea 7c 3f 0c d5 8b 3f
       0.9673397 0.9571554 0.9879543 1.0924392

encoder.blocks.0.conv.4.bias f4 [16]
000000 62 81 31 bd 40 8f 31 bd b6 b4 dd bd cc 6c 28 bd
       -0.04333628 -0.043349504 -0.108254835 -0.04111938
000010 ba c3 40 bd 0c 6e ac bd 73 b5 56 bd cb d5 cf bc
       -0.04706166 -0.08419427 -0.052419137 -0.0253705
000020 bc fc 0a bd 0c 9f 84 bd b2 86 0b bc ab 6b ae bd
       -0.033932433 -0.06475648 -0.008516001 -0.0851663
000030 4c cb c5 bd 2e 8c 9c ba 86 2a 34 bd fb d4 1e 3c
       -0.096579164 -0.0011943632 -0.043985866 0.009694333

encoder.blocks.0.conv.4.running_mean f4 [16]
000000 2e fa 05 c0 53 c4 18 bb 68 c5 8b 3e fa b7 9d be
       -2.0933948 -0.0023310378 0.27299047 -0.30804425
000010 d0 4a 1b bc 67 75 56 3e ab 34 53 3d 53 3c 32 bf
       -0.009478286 0.20943223 0.0515639 -0.696233
000020 1f 2f c5 be ff 80 4c 3f 10 38 2a 3e f2 ee 1b bf
       -0.38512513 0.7988433 0.16622949 -0.60911477
000030 6b eb 76 3e d9 d1 ee bf 84 2b 01 bf c5 06 64 3f
       0.24113242 -1.865779 -0.50457025 0.8907283

encoder.blocks.0.conv.4.running_var f4 [16]
000000 5f ac 45 40 3b ca bc 3e 86 70 1a 3f 6d c0 9c 3f
       3.0886457 0.3687304 0.6032795 1.2246224
000010 bc 11 be 3e 15 67 90 3f 1c 9f a8 3e f5 63 e0 3f
       0.37122905 1.1281458 0.3293389 1.7530504
000020 28 f3 3b 3f 32 74 d5 3f 4d cb 40 3f 2e a8 05 40
       0.734179 1.6676085 0.7531021 2.0883899
000030 8c 72 d1 3e 9c 29 18 40 c9 2c 0d 3f 47 37 7c 3f
       0.40907705 2.3775396 0.5514646 0.98521847

encoder.blocks.0.skip.weight f4 [16, 1, 1, 1]
000000 4a b6 1a bf f0 6b 21 be e0 b1 9f be 80 bb a2 bd
       -0.604344 -0.15763831 -0.31190395 -0.07945919
000010 4e 12 5f bf b4 cd 6a bf d0 18 dc 3e f0 11 e8 bd
       -0.87137306 -0.9172013 0.4298768 -0.11331546
000020 50 6d 1a bf 40 b0 d0 bc d6 a8 69 bf 10 e8 87 3e
       -0.6032305 -0.025474668 -0.9127325 0.26544237
000030 7c 26 f3 3e e6 45 78 3f 6a 8e 50 bf b0 55 f8 bd
       0.474903 0.96981657 -0.81467307 -0.121257186

encoder.blocks.0.skip.bias f4 [16]
000000 0e ee 0a 3f 2c 9d 6a 3f 08 23 36 bf a8 94 d9 3e
       0.5426949 0.91646075 -0.71147203 0.42496228
000010 ec 62 d3 3e be 55 1a 3f 94 7d 30 bf 92 af 36 3f
       0.4128641 0.6028708 -0.68941617 0.7136165
000020 34 02 df be 9a 94 1d bf 90 52 4b 3e 2e de 58 3f
       -0.43556368 -0.61554873 0.19855714 0.8471402
000030 5a 87 29 bf 32 ae 08 3f 70 8c ea bd 14 73 a3 3e
       -0.66222155 0.533908 -0.114525676 0.31923735

encoder.blocks.1.conv.0.weight f4 [32, 16, 3, 3]
000000 7e cf 78 3d 20 c6 ff 3c d7 be 78 bd cc 6c f0 bc
       0.060744755 0.031222403 -0.060728874 -0.029348753
000010 08 19 c1 3c 5f 11 32 bd 1f a7 22 bc 53 79 86 bd
       0.023571506 -0.043473598 -0.00992754 -0.065661095
000020 05 61 13 bc 4b 3e dc bc cc 24 e6 bd 21 aa 47 bd
       -0.008995299 -0.026885172 -0.11237487 -0.048746232
000030 30 d5 a3 3b 53 37 c1 bd 10 15 8c 3d 15 69 af bd
       0.004999779 -0.094343804 0.06839955 -0.08564965
000040 42 9a 0e bd 43 59 30 3c b1 6b 72 bc a2 61 8b bd
       -0.03481508 0.010763469 -0.014796183 -0.06805731
000050 43 f9 17 3d b9 20 36 3b 38 ee 87 3d 9f 61 46 bd
       0.03710295 0.00277905 0.066372335 -0.048432942
000060 ec 75 70 bd 3e d9 42 3c a9 62 2e bb 54 9c 88 bd
       -0.05870621 0.011892615 -0.00266091 -0.06670442
000070 a1 1d 90 bd 1c 50 bf bd 4f 28 cd bd 68 e0 8d bd
       -0.07036901 -0.093414515 -0.10017454 -0.06927568
000080 3a 53 ad bd f4 b5 d4 bd b9 21 58 bd 8c 51 c4 3c
       -0.0846314 -0.10386267 -0.052766535 0.023964666
000090 1b c4 85 bd 92 89 81 bc a5 9d 85 bb 09 7c 31 3d
       -0.06531545 -0.015812669 -0.0040776306 0.04333118
0000a0 15 16 f3 bc 6c 3f a4 3c 0b 3c b3 3d 2f fd a0 3d
       -0.029673615 0.020049773 0.08751687 0.07860791
0000b0 29 60 6b bd f3 01 db 3d 75 a1 b4 3d d6 91 3f 3d
       -0.057464752 0.10693731 0.08819858 0.04676994
0000c0 02 18 9f 3d 02 69 96 3d 74 14 0e 3e 4e bf d4 3d
       0.07768251 0.073442474 0.1387499 0.10388051
0000d0 1f 5b b3 3d 52 66 d0 3d 96 58 59 3d cd 0d cd 3d
       0.08757614 0.10175766 0.053062998 0.10012398
0000e0 24 90 18 3e e4 60 a1 3d 4b 01 be 3d 62 85 da 3d
       0.14898735 0.078798085 0.0927759 0.10669972
0000f0 37 80 25 3e 2a 73 c3 3d 09 09 a9 3d ba a1 37 bd
       0.16162191 0.0954345 0.082536764 -0.04483197
000100 b8 7a a2 bd 19 30 0e bc b4 23 25 3c 03 c7 23 bd
       -0.07933563 -0.00867846 0.010079313 -0.039984714
000110 98 5c 09 be b4 37 0b 3d 35 22 88 bc b4 85 bd bb
       -0.13414228 0.03398867 -0.016617874 -0.005783761
000120 30 31 50 3d 01 61 c5 3d 73 97 19 3e 51 aa 9f 3d
       0.05082816 0.09637643 0.1499918 0.07796157
000130 07 d2 c4 bc 69 df bf 3d 95 9b 4a 3c 17 be 67 bd
       -0.02402593 0.09368784 0.012366195 -0.05657777
000140 73 b4 d1 bd bb 21 89 3b c0 a8 c6 bc 1b 48 0f 3e
       -0.10239496 0.004184929 -0.024250388 0.1399235
000150 47 4d 01 3e fe a3 d3 3d 29 a6 02 3e 1d fa 88 3d
       0.12627135 0.103340134 0.12758698 0.0668833
000160 5b 6b e6 3d a1 b7 10 3d 59 89 4c 3d d6 55 65 bd
       0.11250945 0.035331372 0.049935672 -0.055990063
000170 da 4c bc bb 22 17 cb 3d 27 22 6c 3d d8 e0 28 bd
       -0.005746466 0.099165216 0.057649758 -0.041230053
000180 23 e7 91 3d 2b aa ec bc a0 6f 6a bd 60 ba 08 bd
       0.07124164 -0.028889736 -0.05723536 -0.033380866
000190 26 26 bb bd 2a 82 15 bc bc eb 0c be de c3 a8 bd
       -0.091381356 -0.009125272 -0.137618 -0.08240484
0001a0 ad 08 55 bd aa 3f 12 be ad 80 08 3d 77 63 67 3d
       -0.052010227 -0.14282098 0.03332584 0.05649134
0001b0 79 3c 03 3d 75 a9 4f 3d 57 dd 8d 3d fc 76 04 3e
       0.032040093 0.050698716 0.06926983 0.12936014
0001c0 32 c2 22 3d 3d 85 23 bd a7 df 40 3e 72 f0 f7 3c
       0.03973598 -0.039921988 0.18835317 0.03026602
0001d0 e4 83 4e 3d a3 c4 63 3d a1 54 a3 3c 20 a1 50 3d
       0.05041875 0.05560745 0.019937815 0.05093491
0001e0 d5 98 22 bd a4 6e 1c 3d 60 fa 77 3d 20 77 7a 3d
       -0.039696533 0.038191453 0.06054151 0.061148763
0001f0 a7 7a 31 bd ca 06 c2 3d 49 72 0c 3e 3f e7 b9 3d
       -0.04332986 0.09473951 0.13715471 0.0907731
000200 06 1e c8 3d 53 4b dd 3d ee fc 02 3e 8a 15 1f 3e
       0.097713515 0.108053826 0.12791798 0.1553556
000210 d8 d0 e2 3d 1e 01 ff 3d 73 b2 d7 3d 3f 09 fe 3d
       0.1107499 0.12451385 0.10532083 0.12404107
000220 0d 2d cd 3d eb 1e 36 3d 79 79 33 3e 3f 44 d8 3d
       0.100183584 0.04446308 0.17526807 0.10559892
000230 5e ea cc 3d e7 1c 6a 3d 8c 1a 40 3d 3c 7e 5a bc
       0.100056395 0.05715647 0.046900317 -0.013335761
000240 2f 37 02 bc 70 01 87 bc 4d c6 88 3d a0 d7 54 3d
       -0.007947727 -0.016480178 0.06678448 0.05196345
000250 69 49 8b bd ea 3d 31 3d 33 5a 24 3d 1b 97 b5 3c
       -0.06801111 0.043271936 0.040125083 0.02216678
000260 0b 4d 29 3c 75 7f 0e 3e f4 68 99 3d d0 a5 b2 3c
       0.01033331 0.13915808 0.07490721 0.021807581
000270 12 7e 0c 3d b3 41 cf 3d 80 0b 25 3d 73 dd bf 3c
       0.034299918 0.10119953 0.04029417 0.023421025
000280 54 7e df 3d 1f 52 af 3d 72 24 fa bc 7c ca 5c 3d
       0.10912767 0.08560585 -0.030534957 0.05390404
000290 a7 fd 90 3d d4 e8 46 3c e2 7e 9a bc 14 cc cb 3d
       0.0707963 0.0121404715 -0.01885933 0.09951034
0002a0 6f bd 64 bd 7d d2 8c 3b 7a 11 ba 3c 91 79 2d 3d
       -0.05584472 0.004297553 0.022713412 0.042352263
0002b0 c1 3e e8 bd c1 1a ca 3a ad b0 d6 bd 3a 4e c4 bc
       -0.11340094 0.001541935 -0.10482917 -0.023963083
0002c0 be 6c 8b 3c f4 35 19 bd 51 88 8c 3d 6f 90 bb 3c
       0.017019626 -0.03740497 0.06861938 0.02289602
0002d0 1f 15 e1 3c 43 3f ed 3d ff fa b1 3d bc eb 4a 3d
       0.027475892 0.11584332 0.08690452 0.04954122
0002e0 34 bf 18 3e 02 de 17 bc 0a 15 03 3d 86 ed d8 3d
       0.14916688 -0.009269239 0.032002486 0.10592179
0002f0 38 85 d9 3d ba 05 ec bd 12 dd 35 bd 3d fa 03 be
       0.106211126 -0.1152453 -0.044400282 -0.12888427
000300 e6 65 25 be 92 31 a1 bd 25 12 6a bd 68 38 1d 3d
       -0.16152152 -0.07870783 -0.05714621 0.03838387
000310 bb 81 5f 3d 3c f0 85 3d 03 20 aa bd 77 17 52 bd
       0.05456708 0.06539962 -0.08306887 -0.05129191
000320 c1 9c c8 bd 0e 2e bb 3c 82 db d5 3c 97 1a 2e bd
       -0.097955234 0.022849109 0.026105646 -0.042505827
000330 6a bf 93 bc bf e8 29 3d b0 dc 55 3d 4d 85 d9 bc
       -0.01803561 0.04148173 0.052212417 -0.02655282
000340 d5 19 47 bd 50 ba c1 3d 65 74 2b 3b 97 bd 94 3d
       -0.04860862 0.094593644 0.0026161906 0.07262724
000350 0b f0 9d 3c 1a f5 a3 3c bc b8 24 bc ae ef 33 bd
       0.0192795 0.020014334 -0.01005381 -0.04392975
000360 fa 6d 03 be 32 57 1d ba ab a3 b5 bd 96 b2 2c be
       -0.12834921 -0.0006002068 -0.08869108 -0.16865
000370 11 80 3d 3c 56 37 8f bd 5a 8d cf bd 86 c0 c3 bd
       0.011566178 -0.06992976 -0.101343825 -0.09558205
000380 19 c6 dd bd 7b 42 be bd 03 c2 fb 3c 10 eb 13 bc
       -0.108288 -0.09290024 0.03073216 -0.009028211
000390 36 e4 ef 3b 8e 77 e0 bd ed 03 96 bd 01 dc f4 bc
       0.007320906 -0.10960303 -0.073249675 -0.029890062
0003a0 a9 96 6e 3d 94 83 7f bc 43 b7 05 3d 59 df 91 3d
       0.05824915 -0.0155953355 0.032645475 0.07122678
0003b0 1a de f7 3d 63 1c 8b 3d 95 69 da 3d 48 aa 8f 3d
       0.121029094 0.06792524 0.106646694 0.070149004
0003c0 92 8d 56 3c c2 84 a7 3d 76 0b db 3c 4e 56 ae 3d
       0.013095276 0.081796184 0.026738863 0.08512555
0003d0 66 19 0d bd e9 c0 3c 3d 2c ca 34 bd 63 dc 41 3b
       -0.03444805 0.04608241 -0.04413812 0.0029580824
0003e0 5d f8 b6 3c 53 f1 9c bd 0e e4 54 3d f2 e6 83 bd
       0.022335226 -0.076632164 0.051975302 -0.06440534
0003f0 85 a1 e2 bc 74 5c cb bb 42 a8 2f 3d ec dd f7 3c
       -0.02766491 -0.0062060896 0.042885073 0.030257188

encoder.blocks.1.conv.0.bias f4 [32]
000000 c7 df ca 3d 21 70 bd bd a9 cc 91 3c 8f f1 08 3e
       0.099059634 -0.092499025 0.017797785 0.13373397
000010 6a eb 36 3c df 99 83 bd 24 76 fd bd 7e a6 a2 3d
       0.0111645255 -0.06425833 -0.12376049 0.07941912
000020 77 ce d4 bc d3 42 91 bd 4d bd 35 bd 62 ee 78 3d
       -0.025977356 -0.07092824 -0.044369984 0.060774215
000030 59 17 26 bc 1e 7c 3d bc a3 4e 31 bd 2b 5f bc 3c
       -0.010137402 -0.011565236 -0.043287884 0.022994598
000040 fc 12 f9 bd 43 e5 e2 3b 0f d4 34 3d 8b 38 f0 3c
       -0.12161824 0.006924303 0.044147547 0.029323837
000050 8d 70 06 bc 4d cd 88 3c 45 e8 c4 3d d8 d7 a7 3c
       -0.008205545 0.016699458 0.096146144 0.020488665
000060 a0 3f 91 3d 00 e7 09 bd 3e c7 7c 3b ea c4 92 bd
       0.07092214 -0.033667564 0.0038570906 -0.071664646
000070 45 60 19 bd f7 4c 58 3d 4e e3 16 3d 1c b8 26 3d
       -0.037445325 0.052807774 0.03683787 0.040702924

encoder.blocks.1.conv.1.weight f4 [32]
000000 bb ab 85 3f e7 29 81 3f 75 12 85 3f 27 d6 76 3f
       1.0443033 1.0090913 1.0396258 0.9642052
000010 70 ab 82 3f a2 dd 78 3f ba 7e 80 3f cb fe 75 3f
       1.0208569 0.97213185 1.0038674 0.9609191
000020 6b 24 95 3f 9f b5 7b 3f e8 fc 8a 3f b0 cf 89 3f
       1.1651739 0.98324007 1.0858431 1.0766506
000030 71 8a 73 3f e8 ef 75 3f 69 ef 7c 3f 7d f1 82 3f
       0.9513312 0.9606919 0.9880281 1.0229946
000040 5b d6 6d 3f 2f be 5b 3f ae 77 6d 3f 86 f1 81 3f
       0.92905205 0.8583707 0.9276074 1.0151832
000050 39 c0 7d 3f 2a ab 85 3f 2c b7 83 3f 71 fb 83 3f
       0.99121433 1.044286 1.0290275 1.0311109
000060 6a 6e 73 3f a9 af 7e 3f 63 ea 7d 3f 69 da 7e 3f
       0.95090353 0.99486786 0.9918577 0.9955202
000070 03 23 6a 3f b3 9f 75 3f 95 4b 6b 3f c6 fa 74 3f
       0.91459674 0.95946807 0.91912204 0.9569515

encoder.blocks.1.conv.1.bias f4 [32]
000000 c4 2b 73 bc 86 64 f2 bc d3 f6 df bb d2 4f e1 ba
       -0.0148419775 -0.029588949 -0.0068348437 -0.0017189926
000010 2c ba 91 bc 37 19 6a bb a9 d2 98 bc dc 45 9b 3c
       -0.017788969 -0.0035720596 -0.018655138 0.01895421
000020 d1 39 0d 3d f0 99 8a ba 3d 20 d7 bd 33 f1 3c be
       0.034478966 -0.0010574441 -0.10504196 -0.18451385
000030 1f c8 be ba 47 64 ef bb 46 09 45 3c 5d c9 2d 3d
       -0.001455549 -0.007305655 0.012026137 0.042428363
000040 36 64 cc bc 8e 39 df bd 18 02 b0 3c e1 1f 81 bd
       -0.024950128 -0.108996496 0.021485373 -0.063049085
000050 f7 f9 72 bd 04 42 10 be d3 e4 1c 3c 93 c5 11 be
       -0.059320416 -0.14087683 0.00957604 -0.14235525
000060 f0 6e 93 bd e0 9d 91 bd be 9b ea bd cc 64 2a 3d
       -0.07198894 -0.071101904 -0.11455487 0.041600034
000070 d3 7f 3b bd 00 4a e4 bd 49 04 2a bc 5a 9d d4 3c
       -0.0457762 -0.11146927 -0.010376998 0.025953937

encoder.blocks.1.conv.1.running_mean f4 [32]
000000 1a 9b ea 3f 81 44 28 be f3 04 9d bd 24 14 30 3f
       1.8328583 -0.16432382 -0.076669596 0.6878073
000010 ed 6f 22 bf 63 1d dc bf 8b 0a d2 3f 03 f8 5d c0
       -0.63452035 -1.7196468 1.6409467 -3.4682624
000020 f5 b3 a6 3d e0 a6 f5 bf 7f 40 11 bf 94 5b 9f be
       0.08139793 -1.9191551 -0.5673904 -0.31124556
000030 8c 8e 85 3e 4b 94 e4 be b2 6e f8 be ce 8e ba be
       0.26085317 -0.4464439 -0.48521954 -0.36437076
000040 df 93 b7 bf 20 b2 52 bf 9f 12 a3 bd da 15 ac 3f
       -1.4342002 -0.8230305 -0.07962536 1.3444169
000050 a0 d3 0e 3f 51 51 6c 3f 11 56 16 40 b3 6f a4 bf
       0.55791664 0.9231158 2.349003 -1.2846588
000060 ee 92 48 3f 6e 60 ca bd f2 d1 48 bf 13 f8 8a bf
       0.78349197 -0.09881674 -0.7844535 -1.0856956
000070 96 2b 2d 3f f5 69 f5 3f 4b c5 ba be 0f 68 71 be
       0.6764463 1.917296 -0.36478648 -0.23574851

encoder.blocks.1.conv.1.running_var f4 [32]
000000 76 6c 5a 40 3f de c6 3f b9 62 83 3f 02 9d 26 3f
       3.41287 1.5536574 1.0264503 0.65083325
000010 a9 eb 72 3f 54 2a 5d 40 a0 41 ca 3f f8 86 97 40
       0.9489084 3.4557085 1.5801277 4.7352257
000020 5f 56 ee 3e fe e6 26 40 43 92 c5 3f f0 cc 67 3f
       0.4655027 2.6078486 1.543526 0.90547085
000030 9a cf ae 3f 89 1c 80 3f 6c ad 43 3f 52 ff 8d 3f
       1.3657105 1.0008708 0.76436496 1.1093543
000040 a7 a9 f7 3f 41 2a 0c 40 34 17 8b 3f 74 11 f6 3f
       1.9348649 2.190079 1.0866456 1.9224076
000050 ec b9 c9 3f 72 48 98 3f 91 a0 ac 40 82 8b 0f 40
       1.5759864 1.1897109 5.3946004 2.24289
000060 ee aa 18 40 28 2a c9 3f 1d 94 9a 3f c5 a9 9a 3f
       2.3854327 1.571599 1.207645 1.208306
000070 c7 c8 80 3f 31 c8 6d 40 83 62 69 3f 9f 53 dc 3f
       1.0061272 3.7153437 0.9116594 1.7213019

encoder.blocks.1.conv.3.weight f4 [32, 32, 3, 3]
000000 94 f6 bb bd 55 a8 ea bd ed 63 15 be 31 13 34 bd
       -0.091778904 -0.11457888 -0.145889 -0.043963615
000010 40 2a e5 bd b7 b4 f6 bd 78 46 d5 bd 8d 6b b6 bd
       -0.11189699 -0.12046187 -0.104138315 -0.089072324
000020 48 35 d2 bd 92 d4 46 3d db e6 a1 3d 0f aa 39 3d
       -0.10264069 0.048542567 0.0790536 0.045328196
000030 7d b8 e4 bc 5e 65 c4 3c fd fe cb 3d 2f ca 09 bd
       -0.027920002 0.023974117 0.099607445 -0.033640083
000040 cd f2 94 bd ab 9b c1 3c f8 cf 28 bd b2 d6 4a 3b
       -0.07272873 0.023633799 -0.04121396 0.0030950722
000050 a2 fe c1 3d 76 8c 3e bd aa a1 41 3d e4 05 f4 3d
       0.094723955 -0.046520673 0.047273315 0.11915186
000060 ad 65 ae bd bd 7d eb 3c 8c b3 c8 3b 21 77 43 bd
       -0.08515487 0.02874648 0.0061249193 -0.047721032
000070 ae 75 a9 bd 27 d7 dc bc e4 dd 89 bd 6a ad e6 3c
       -0.08274399 -0.026958061 -0.067317754 0.028158862
000080 d6 6c 46 bd 40 18 9d bd db 7b be bc 0a 8b 3a bd
       -0.048443638 -0.07670641 -0.023252418 -0.045542754
000090 a5 fd 04 3d c4 7a dd 3d 71 3d bb bc f8 30 c0 3d
       0.032468457 0.10814431 -0.022856446 0.0938434
0000a0 c7 78 98 3d 1d d4 65 bd 5a 0c 80 3d 0f 7c 53 3d
       0.074449115 -0.05611049 0.06252356 0.051631983
0000b0 bd de b8 bd 9f e8 a2 bc 0d 69 a1 bc ae 53 d3 bd
       -0.09026859 -0.019886313 -0.019703412 -0.10318695
0000c0 99 d8 b3 3c e3 d3 8a bd be 56 a7 bd ff 50 83 bc
       0.021953868 -0.067786954 -0.08170842 -0.016029833
0000d0 cf 4b 6f bd 5e 00 a9 bd ae 1b fe bc 22 ca bd bc
       -0.058421906 -0.08252023 -0.031019058 -0.023167673
0000e0 96 f9 86 bd 9a a5 94 bd f1 5a b3 bd a7 c2 0a 3d
       -0.065905735 -0.072581485 -0.0875758 0.03387704
0000f0 ab e6 21 3b a7 46 63 bc de eb 91 bd 5d 90 df bc
       0.002470414 -0.013871825 -0.07125066 -0.027290517
000100 30 38 f5 bd f1 6e ae bd 2e 7b 99 bb 54 31 30 bd
       -0.119736075 -0.08517254 -0.0046838736 -0.043015793
000110 94 57 eb bd 45 d0 d2 bd 3a f5 0d be 9d 7b 09 be
       -0.114913136 -0.102936305 -0.13863078 -0.13426061
000120 08 4b 4d 3c 2c 31 50 3d ef 31 8a bc 49 da 9b bc
       0.012530096 0.050828144 -0.016869513 -0.019024985
000130 e4 68 f1 3d 07 b9 53 bd f5 31 eb 3c 7b cf 5d 3d
       0.117875844 -0.051690128 0.028710345 0.054152947
000140 76 94 e1 bc a5 3f 41 3d a5 07 b9 3d 57 3d 1f bc
       -0.027536612 0.047179837 0.09034661 -0.009719214
000150 94 d7 22 3d e7 8e 26 bc ac 52 bf 3d 32 d7 60 3d
       0.039756373 -0.0101659065 0.0934194 0.054892726
000160 3b 80 83 ba 22 4b d9 3d a4 ee f8 3c d9 99 18 3e
       -0.0010032722 0.106100336 0.03038723 0.14902438
000170 f1 b5 08 3e 6a f1 47 3d b0 bc a5 3d 70 2a dc 3d
       0.13350655 0.048814215 0.0809263 0.10750282
000180 6f b3 27 3d 47 6b 8d 3c dd a8 ee 3d 97 80 1b bd
       0.040942606 0.017263068 0.11653302 -0.03796443
000190 53 67 03 3e dd 24 5a 3e b9 29 da 3b ad 8c d7 3d
       0.12832384 0.21303125 0.0066578058 0.10524879
0001a0 0a 61 c2 3d f8 2b bf 3c cf 75 03 3e 38 5e b4 3d
       0.09491165 0.023336396 0.12837909 0.08807033
0001b0 81 9d b6 bd 9e 31 52 bd 58 7e e4 3c 3a 60 7f ba
       -0.0891676 -0.05131685 0.027892277 -0.0009741817
0001c0 7f 60 82 3b f0 d7 61 3d 2c b2 c9 3c 1d 24 89 bc
       0.0039787884 0.055137575 0.024621092 -0.016740853
0001d0 b7 86 4d bd 5b c5 43 3c 54 95 8e 3b 6d e0 30 bd
       -0.050177302 0.011948909 0.0043512974 -0.04318278
0001e0 f5 c0 a2 bd e4 c9 bc bc bd 24 73 3b b1 6a 2e 3d
       -0.0794696 -0.023045488 0.0037100755 0.042582218
0001f0 4b c5 68 3d 4b f4 74 3c ed 53 ce 3d 45 d8 0f 3d
       0.05682878 0.014950822 0.10074601 0.03511836
000200 96 3d 38 bd 09 f5 c3 3c d2 ca 43 3d c1 a6 0c bc
       -0.044980608 0.023920553 0.047800846 -0.008584679
000210 d8 c8 f2 3c 1a 69 44 bc 97 82 36 bd 54 7b 9b 3d
       0.029636785 -0.011987949 -0.044558134 0.07591882
000220 d1 db 4b bd a7 8b 30 bd eb 54 f2 bc 13 7c 4b 3c
       -0.04977018 -0.043101933 -0.029581508 0.012419718
000230 d4 2a 65 bd f4 bf b4 3b 2d c1 fb bc a2 5e 12 bd
       -0.055949047 0.0055160467 -0.030731762 -0.03573478
000240 cf 86 e7 3b 2e 5d 0f bd 15 d8 ed 3c 31 ac 01 3d
       0.007065631 -0.035000972 0.0290337 0.031658355
000250 c6 13 8b 3c 40 c2 f6 3c 30 22 d8 bd 21 02 c7 3c
       0.016977202 0.030121922 -0.10553396 0.024293007
000260 2d 80 1f bd c8 a1 5d 3c dd 11 b6 3c fa 3a 05 bd
       -0.038940597 0.013527341 0.022225315 -0.032526948
000270 cc 0d 24 bc ec 89 85 bd 6d 8b 67 3d df 3c 31 3a
       -0.010013055 -0.06520447 0.05652945 0.00067610847
000280 bc a5 a6 3d 4e 11 04 3b 33 e4 b4 bd c8 cd 0e 3d
       0.0813708 0.0020151916 -0.08832588 0.034864217
000290 bf 3a 69 bd 37 0b a0 bd 24 91 8c 3c 4b 45 8f bd
       -0.05694079 -0.07814639 0.017159052 -0.069956385
0002a0 30 82 6b bc 16 74 f0 bc 91 db 35 3d 0b 70 e3 bd
       -0.014374301 -0.02935223 0.044398848 -0.11105355
0002b0 3c b6 b1 bc 3a 8f 03 bd 53 10 f5 bd c4 28 84 bc
       -0.021693341 -0.032119013 -0.11966004 -0.01613272
0002c0 26 6a a1 3d fd 21 75 bd 7b 43 fe bc ed df 05 3e
       0.07881574 -0.059846867 -0.031038037 0.13073702
0002d0 b7 57 0b bb 68 a0 d8 3d f7 c4 e2 bb 69 f6 a8 3d
       -0.0021262 0.1057747 -0.0069204527 0.08250124
0002e0 3f 61 a6 3c 5a 41 d5 3d c4 84 90 3d f5 8b f0 3c
       0.020310042 0.104128554 0.07056573 0.029363612
0002f0 c9 9e ef 3c 7f 84 92 bd cc 86 d7 3c ca b1 1a 3e
       0.02925052 -0.07154178 0.026309393 0.15106884
000300 a0 be 5a bb 32 74 d8 bc 93 6c 7d 3d 24 a9 82 bd
       -0.0033377782 -0.026422594 0.061871123 -0.06379917
000310 8e 96 2e 3d af ae c2 3d e5 d9 cc bd 46 20 ef bd
       0.04262405 0.095059745 -0.100024976 -0.116760775
000320 79 98 3c bd ec 05 12 bd 66 22 53 bd 35 d4 04 bd
       -0.046043847 -0.03565018 -0.051546477 -0.03242894
000330 94 7f 8a bd 90 79 22 be fd 00 24 bd c5 f8 7a ba
       -0.06762615 -0.15866685 -0.040040005 -0.0009573813
000340 6a 57 9a 3d ad de ac 3d cb 7d c1 b9 5b 0b cd 3d
       0.07536204 0.084409095 -0.00036905552 0.100119315
000350 0f 09 c1 3d 53 36 d1 3c d1 00 d0 3d e7 3d ae 3d
       0.09425556 0.0255386 0.10156406 0.08507901
000360 6a 1a aa bd 6f 3c e1 bd 3e ba 30 3c 81 0b 09 bd
       -0.08305819 -0.10997855 0.010786591 -0.033458237
000370 c7 4e 1d bd e1 33 b6 3d 38 3d 38 bd 72 ca 0c bd
       -0.038405206 0.08896614 -0.044980258 -0.034372754
000380 02 0a d9 3d 27 58 e4 bd 16 92 06 3d 4a 68 7c bd
       0.10597612 -0.11149626 0.032854162 -0.061622895
000390 19 dd 89 bd 1c 06 fc bd c8 7d 97 bb 71 1e b5 bd
       -0.06731624 -0.12305853 -0.0046231486 -0.08843697
0003a0 87 6e f4 bd 7d f3 d6 bd 6f 6f 42 bd 6f eb b6 bd
       -0.11935144 -0.104956605 -0.047469553 -0.08931624
0003b0 fa 0b 11 3e 14 25 d4 bb 29 32 87 3d 21 19 ea 3d
       0.14164725 -0.0064741466 0.06601364 0.11430574
0003c0 59 fa aa bd 1c c8 7c 3b 33 e9 92 3d b6 de 2a 3b
       -0.08348531 0.0038571423 0.071733855 0.0026072687
0003d0 b3 54 06 3c 16 32 b8 bd 4b c2 01 bc 81 c6 2b bd
       0.008198905 -0.08993928 -0.007919858 -0.041937355
0003e0 ed 2e ae bc 9a 97 3a bd 50 a9 0b 3d 0c ce 6f bd
       -0.02126261 -0.045554735 0.034097016 -0.05854611
0003f0 0e 05 9c bc b5 4f 72 3d b7 9e 60 bd d1 ec 07 bd
       -0.019045379 0.059158046 -0.054838862 -0.03318483

encoder.blocks.1.conv.3.bias f4 [32]
000000 d1 5e 7c bd 71 55 16 3d 67 d0 7d 3c 69 bf 02 bc
       -0.06161386 0.036702577 0.0154915815 -0.007980206
000010 2c 0f eb 3c d0 7a 9f bd df 33 b3 3d 95 fc 09 bd
       0.028693758 -0.077870965 0.08750128 -0.033688147
000020 9a be b0 bb 64 89 80 3c 78 59 4a 3d c6 5d e1 3c
       -0.005393815 0.015690513 0.04940173 0.027510535
000030 55 b6 f0 3c 7a 6d 2a bd 5f 3e 3d 3d 50 1a 20 3d
       0.029383818 -0.04160831 0.04620206 0.039087594
000040 a0 65 ac 3c 6b 26 5a 3c e5 9a 1a bc 36 87 a8 bd
       0.021044552 0.013314824 -0.009436344 -0.082289144
000050 e9 78 6c 3d 7a 1c 32 3c 73 02 4c bd 26 0b 1b 3d
       0.057732496 0.010871047 -0.049807023 0.03785243
000060 c3 41 7e bd 58 a3 a4 bd 45 18 e0 bb f3 d0 ec 3b
       -0.062074434 -0.08038968 -0.0068388307 0.007227057
000070 36 cf 90 bd a1 a6 fa bb 4b 2e 43 bd 77 ef cf 3c
       -0.07070772 -0.0076492582 -0.04765157 0.02538274

encoder.blocks.1.conv.4.weight f4 [32]
000000 bd 43 7a 3f d0 7e 71 3f 71 4e 74 3f 19 ef 7b 3f
       0.9775961 0.94334126 0.9543219 0.9841171
000010 50 e7 66 3f 6d 57 8f 3f a2 9b 83 3f 78 42 7b 3f
       0.90196705 1.1198555 1.028187 0.981483
000020 9b f5 85 3f fa 44 71 3f f6 71 83 3f bc 44 7f 3f
       1.0465578 0.94245875 1.0269153 0.99714255
000030 57 b4 63 3f f4 a5 84 3f 90 fd 72 3f 8c 9e 68 3f
       0.8894705 1.0363145 0.94918156 0.90866923
000040 82 3c 78 3f 29 8b 83 3f 8a 7e 70 3f f0 6e 86 3f
       0.9696733 1.0276843 0.93943083 1.0502605
000050 6d 06 7b 3f b0 f8 7c 3f 3f c6 71 3f ab 26 67 3f
       0.9805668 0.98816967 0.94443125 0.9029338
000060 dc 3e 7e 3f da 34 76 3f 8f 1a 74 3f 1d 02 82 3f
       0.99314666 0.96174395 0.95353025 1.0156895
000070 5e 3f 85 3f 9e 1e 77 3f 5e 41 77 3f e8 29 80 3f
       1.0409963 0.96531093 0.9658412 1.0012789

encoder.blocks.1.conv.4.bias f4 [32]
000000 b0 7f eb bd f8 94 81 bd de 4c 48 be 46 a6 d2 3b
       -0.11498964 -0.06327242 -0.19560573 0.0064285127
000010 c3 db 91 bd 42 70 01 be eb 0f 32 be 37 4e 10 be
       -0.07121994 -0.12640479 -0.17388885 -0.14092337
000020 2b e9 f0 bd c3 24 0a 3d c7 f8 6d 3d 97 20 10 be
       -0.11763223 0.033726465 0.05809858 -0.14074932
000030 0a d5 bf bd 74 2a ea bd 86 ea 20 be 62 e1 8b bd
       -0.09366806 -0.114338785 -0.15714464 -0.06830098
000040 07 ab 6e bd 34 19 83 bd 0d 29 39 be a7 ed 89 bb
       -0.058268573 -0.064012915 -0.18082066 -0.0042092386
000050 67 38 59 3c 41 3d 7c 3b 06 a2 12 be d4 41 39 bd
       0.013258076 0.0038488659 -0.1431962 -0.045228794
000060 8f 85 23 be a2 ce 24 bd 88 b8 bb bd bf 4d c1 bd
       -0.15968917 -0.040236123 -0.09166056 -0.09438657
000070 d0 4a 0e 3d 0b 7f 0a be aa 78 8a bd 63 2a 14 be
       0.034739316 -0.13525026 -0.06761296 -0.14469294

encoder.blocks.1.conv.4.running_mean f4 [32]
000000 e0 d3 6e bf f2 a5 62 3f 07 f5 b6 3e 64 9a d4 be
       -0.93292046 0.8853446 0.35733816 -0.4152404
000010 76 99 26 3f 76 00 4d bf 7d 83 c5 3b d9 68 58 3f
       0.6507791 -0.8007883 0.0060276375 0.84534985
000020 38 dd ba 3f 72 eb fa be 03 6b 30 be 91 26 2b 3f
       1.4598761 -0.49007756 -0.17228322 0.6685572
000030 0f cf ec 3e b3 b7 92 3f 32 8f 4f bf 1c 93 23 c0
       0.46251723 1.146231 -0.81077874 -2.5558538
000040 be 2e f3 bf 2b 74 f0 be a0 fc 0a bf 19 a4 3c 40
       -1.899864 -0.4696363 -0.54291725 2.9475157
000050 e9 dc df 3e f3 60 9b 3f 73 0c 31 3e 6a 2d e3 bf
       0.4372323 1.2138962 0.17289905 -1.7748234
000060 14 18 f6 3e 31 d1 cf be 73 df 73 bf ee 0b 1e 3f
       0.48065245 -0.40589288 -0.9526283 0.61736953
000070 9c 02 c9 bf 2e bc ce 3f d0 cc e8 3f 58 80 f5 bd
       -1.5703921 1.6151178 1.8187504 -0.1198737

encoder.blocks.1.conv.4.running_var f4 [32]
000000 2d 69 75 40 fb 51 56 40 66 45 08 40 9a 03 2a 40
       3.8345444 3.3487537 2.1292357 2.6564698
000010 5c 78 38 40 f7 7f 4a 40 e1 4b 22 40 74 7d 88 40
       2.8823462 3.1640604 2.5358813 4.265314
000020 88 b7 89 40 d1 96 8b 40 4a 29 4c 40 41 37 45 40
       4.3036537 4.36216 3.19002 3.0814974
000030 88 e4 49 40 a0 98 78 40 25 ce 8a 40 ce 6b 1a 41
       3.1545734 3.8843155 4.337664 9.6513195
000040 48 d5 fc 3f db 7a 48 40 2a f8 c5 40 bc 7a 0a 41
       1.9752588 3.1324985 6.1865435 8.654964
000050 fe 5c 03 40 76 89 b1 3f 33 2b 59 40 51 18 ad 40
       2.0525508 1.3870075 3.3932617 5.4092183
000060 2b 4a 55 40 a5 5f 78 40 bb ae fa 3f 57 4b 8b 40
       3.3326519 3.8808377 1.9584574 4.3529468
000070 7c a0 54 40 ea ea 9e 40 69 ec 9a 40 02 73 94 40
       3.3222952 4.966176 4.8413587 4.639039

encoder.blocks.1.skip.weight f4 [32, 16, 1, 1]
000000 f0 c4 d1 bc 50 e5 f3 bc 4e 61 42 be 04 b3 00 be
       -0.025606602 -0.02977243 -0.18982431 -0.12568289
000010 40 1f 38 3e 7c 33 ff 3d 58 8b e2 bd d0 d3 cf 3c
       0.17980671 0.12460992 -0.11061734 0.025369555
000020 58 fc 59 bd 7e 6d 4d be 6c cf b1 3d 00 b9 db bd
       -0.05321917 -0.20061299 0.08682141 -0.10728645
000030 78 53 27 3e 00 50 b1 bc 3c de 99 3d 00 cc 3f bd
       0.16340435 -0.021644592 0.07513091 -0.04682541
000040 20 0e b2 3c ce df 48 3e cc f5 5e be c2 81 78 3e
       0.021735251 0.19616625 -0.21773452 0.24268249
000050 c4 cb 92 3d fe e6 3b be 88 bb 68 be e0 1b 7f 3c
       0.071677715 -0.18349835 -0.22727787 0.015570611
000060 98 a9 fe bd fa 5c 7a 3e 74 99 fc bd 54 a9 5c 3e
       -0.12434691 0.2444953 -0.12333956 0.21548969
000070 b6 80 1c 3e 58 42 2d be 10 21 9c bd 26 32 2a 3e
       0.15283474 -0.1691984 -0.07623494 0.16620693
000080 5a 9a 10 be ee f4 20 be 08 9f 10 be d8 a1 27 bd
       -0.1412138 -0.15718433 -0.14123166 -0.04092583
000090 5e 96 06 3e 20 44 c7 bc 10 ec 54 3d 7c 7f a3 3d
       0.13143298 -0.024324477 0.05198294 0.079833
0000a0 50 87 95 bc e2 96 0d 3e 22 62 3d 3e 78 56 0b be
       -0.018252999 0.13827088 0.18494466 -0.13607204
0000b0 3c 17 f2 3d 38 22 43 bd e0 4f 2d bc 00 bd 50 be
       0.11820838 -0.047640055 -0.010578126 -0.20384598
0000c0 06 14 5a 3e 70 98 1a 3e 08 b5 f1 3d 74 de 03 be
       0.21296701 0.15097213 0.11802107 -0.12877828
0000d0 00 36 17 3d 84 42 37 3e 70 be 40 3d 14 1f 7c be
       0.036916733 0.17896467 0.047056615 -0.2462123
0000e0 44 6c 23 3e d8 e7 53 3e f8 4a 5d 3d f0 be 1e 3e
       0.15959269 0.2069391 0.054026574 0.15502524
0000f0 78 36 2f 3e 02 8f 44 be 10 7f 5e bd ba cb 29 3e
       0.17110622 -0.19195178 -0.054320395 0.16581622
000100 10 44 69 bd de ad 79 be 78 ed 7c be 80 79 14 3e
       -0.056949675 -0.24382731 -0.24699962 0.14499474
000110 c0 8f ad 3c 86 6d 01 3e 92 18 5b be 00 d8 15 39
       0.02118671 0.12639436 -0.21396092 0.00014290214
000120 36 97 4d be 5c 23 f2 3d fa 1d 22 be 32 d9 0e be
       -0.20077214 0.118231505 -0.15831748 -0.13950041
000130 f4 55 26 be 6e 06 22 be 00 2f d9 bc c0 33 7f 3d
       -0.16243726 -0.15822765 -0.02651167 0.062305212
000140 26 ce 31 3e a6 f8 7b 3e b0 83 90 bd 48 67 64 3d
       0.17363796 0.2460657 -0.070563674 0.05576256
000150 fc e2 d9 bd c4 9d 74 be 30 c1 82 bd be c2 45 3e
       -0.10638997 -0.23888308 -0.06384504 0.1931257
000160 9c 4a b5 3d 00 65 e0 ba c0 2c 54 be 56 23 00 be
       0.08852121 -0.0017119944 -0.20720196 -0.1251348
000170 b4 61 87 3d 48 dc 70 3e e0 2f 4f bc 32 d8 14 be
       0.06610432 0.2352153 -0.012645692 -0.14535597
000180 0c 38 e7 3d a0 ea d2 3c 50 18 ed 3d 50 f9 f4 bc
       0.11289987 0.025746644 0.11576903 -0.029904038
000190 aa 28 14 3e a0 91 06 3e 0c a2 2b be 50 5c 62 3d
       0.14468637 0.13141489 -0.16761035 0.055263817
0001a0 00 42 3e 3d ba a7 5a 3e f0 7a 53 be d0 00 3b 3e
       0.04644966 0.21353045 -0.20652366 0.18262029
0001b0 d0 fc 8f 3c a0 dd 13 3d 10 74 97 3d fa 63 55 be
       0.017576605 0.03610003 0.07395184 -0.2083892
0001c0 7c cd 27 be fc 85 73 be 0a 0a 3e 3e 64 16 55 3e
       -0.1638698 -0.2378158 0.18558517 0.20809323
0001d0 96 9a 02 be a4 f8 ce 3d 12 55 2a 3e 20 19 78 be
       -0.12754282 0.10106018 0.16634014 -0.24228334
0001e0 a0 10 8e 3c 18 ce 62 3d ca 05 46 be 64 c6 be bd
       0.017341912 0.055372328 -0.19338146 -0.09315184
0001f0 6c 7f ec 3d 2e 43 15 3e e0 2b 13 bc fe db 31 3e
       0.11547741 0.14576408 -0.008982629 0.17369077
000200 f2 77 06 3e b0 ee c0 bd f2 6b 0c be b4 c9 2e 3e
       0.13131693 -0.09420526 -0.13713053 0.17069131
000210 00 7a ff 3a ac 2c 10 3e 38 80 42 3d 88 ec 60 bd
       0.0019491315 0.14079541 0.04748556 -0.054913074
000220 88 a3 d6 3d a4 c9 26 be 78 97 17 3d b8 51 c4 3d
       0.1048041 -0.16287857 0.037009686 0.09585899
000230 e8 89 19 be 26 2e 50 3e 90 48 83 bc 5a ad 39 be
       -0.14994013 0.20330104 -0.016025811 -0.18132535
000240 b0 17 96 3d 28 5d 14 be d4 ef 1c be 00 84 5b 3a
       0.07328737 -0.14488661 -0.15325862 0.00083738565
000250 38 35 ec 3d 88 fe 75 3e c0 99 52 3c bc 2b 56 3e
       0.11533588 0.24022877 0.01285404 0.20915121
000260 bc f1 62 3e ac ab 89 bd 60 d1 73 bc 0c d0 77 be
       0.22162527 -0.06722197 -0.014881462 -0.24200457
000270 c0 04 9f bd 24 3d 23 3e 00 aa a4 bc f0 e8 fc bc
       -0.07764578 0.15941292 -0.020100594 -0.030872792
000280 bc a6 9d bd 94 07 04 3e 12 aa 4d 3e 8c b4 1e be
       -0.07697818 0.12893516 0.20084408 -0.1549856
000290 78 29 f7 3d f8 35 07 be 58 5d 20 3e 00 be 5e ba
       0.120684564 -0.13204181 0.15660608 -0.000849694
0002a0 7c 10 e6 bd 1e 4d 20 3e 04 2e 5b be 84 f5 00 3e
       -0.11233613 0.15654418 -0.21404272 0.12593657
0002b0 60 c8 45 bc b0 da 1a be e0 62 3a be 66 6f 10 be
       -0.012071699 -0.15122485 -0.1820178 -0.14104995
0002c0 00 54 c2 39 f4 fd da 3d a0 d6 06 bc 1c 48 85 bd
       0.00037065148 0.10692969 -0.0082298815 -0.065078944
0002d0 bc 46 99 bd 90 ff 62 3d de 34 2d 3e 40 8e e9 3b
       -0.07484195 0.055419505 0.16914698 0.007127553
0002e0 34 c8 0b be d8 ce 19 bd 6c 1a 43 be a4 c5 cb 3d
       -0.1365059 -0.037550777 -0.19053048 0.09949806
0002f0 f8 33 ec bd e0 21 bb 3d 90 12 83 bc 8c b1 4f 3e
       -0.1153335 0.091373205 -0.016000062 0.20282573
000300 b0 c7 ea bd d8 e7 2b be d0 8b 83 3c 98 b5 a8 3d
       -0.114638686 -0.1678766 0.016057879 0.08237761
000310 f6 68 49 be 9e f7 14 be 8a ba 3d 3e ea b2 58 3e
       -0.19668946 -0.14547583 0.1852819 0.21162
000320 a0 9e 1d 3e 98 b7 3b 3e 2c 87 07 3e e8 95 54 3e
       0.15392542 0.18331754 0.13235158 0.2076031
000330 c8 fa 8c 3d 62 5e 2f be b2 a5 0a be 10 8f e0 3d
       0.0688377 -0.17125848 -0.1353977 0.10964787
000340 20 8b 00 bc 22 9a 67 3e 60 53 7c 3e be e2 42 3e
       -0.00784567 0.22617391 0.2464118 0.19031808
000350 cc 0f 20 be 8c af 9a bd 16 bd 57 3e f8 8b 1a 3d
       -0.15631026 -0.07553014 0.21068224 0.03773114
000360 cc d5 5b 3e 82 f2 17 3e 0c 05 74 be c8 4f 9a 3d
       0.21468276 0.14838603 -0.2383005 0.07534748
000370 e8 bc 53 3d 20 0d 8b bc fa 99 4c 3e 2a e2 36 be
       0.051693827 -0.016974032 0.19980612 -0.17859712
000380 60 90 6f 3e ee 38 4a 3e 98 a3 87 3d 66 dc 59 3e
       0.23394918 0.1974828 0.06623 0.21275482
000390 f8 5b 3f 3d f4 ff de bd 5e c9 2b be 7c 4a 6f 3e
       0.046718568 -0.10888663 -0.16776034 0.23368257
0003a0 78 71 34 bd 20 c0 5a 3d 70 a1 57 bd a2 68 17 3e
       -0.044053525 0.05340588 -0.052644193 0.14786008
0003b0 40 5c 75 3c e8 89 05 bd 8c 61 fc bd 62 cc 67 3e
       0.014975607 -0.03260222 -0.12323293 0.2263656
0003c0 e2 58 78 3e 26 c5 07 3e 40 9a 41 bc a4 82 2d 3e
       0.24252656 0.132588 -0.011816561 0.16944367
0003d0 4e ae 5c 3e d8 ba 98 bd 06 0b 42 be 46 a6 68 be
       0.21550867 -0.074575126 -0.18949518 -0.22719678
0003e0 e0 a4 d6 bd 04 5b 2a be 60 99 af bd 40 c1 5a bd
       -0.10480666 -0.16636282 -0.08574176 -0.053406954
0003f0 3c f7 3d be dc aa 20 3e 76 e9 5f 3e aa 19 60 3e
       -0.18551344 0.15690178 0.21866402 0.2188479

encoder.blocks.1.skip.bias f4 [32]
000000 be 5d 36 be 50 be 48 3d f0 1e 2b bd 7c 77 5f 3e
       -0.17809197 0.04900962 -0.04177755 0.21822923
000010 38 2a 1d bd 2a c5 45 3e bc 36 d9 bd f0 80 c7 bd
       -0.03837034 0.19313493 -0.10606143 -0.0974139
000020 00 1c 3c 3a c0 8e 0f 3e c8 2f 6c 3e ac bb ef 3d
       0.0007175803 0.14019299 0.23065102 0.117057174
000030 a0 2f e6 bd 00 56 8c 3c 94 07 2a 3e 7c 37 4c 3e
       -0.112395525 0.017130852 0.16604453 0.1994304
000040 fe c9 37 3e f8 bb ac 3d c0 4f fc bc dc 2a 2f 3e
       0.17948148 0.0843429 -0.030799747 0.17106193
000050 00 a4 ab 3d 60 47 5d be 44 aa 7a 3e f0 ea 95 bc
       0.0838089 -0.21609259 0.24479014 -0.018300503
000060 c6 e8 74 3e f2 b8 17 3e 80 1b 81 bc 46 b7 5a be
       0.23916921 0.14816645 -0.015760183 -0.21358976
000070 e6 28 75 be 94 87 f5 bd 24 49 d5 3d 10 fb 9d 3c
       -0.23941383 -0.1198875 0.10414341 0.019284755
