toyshapes/pinets_ensemble/ensemble_17/model_6.pth (torch, 466407 bytes, 71 tensors)

encoder.blocks.0.conv.0.weight f4 [16, 1, 3, 3]
-0.055494986 -0.12485824 0.2821026 -0.08194104 -0.31948015 -0.21359193 -0.024861297 0.13561043
-0.04124163 -0.2523344 -0.11139745 -0.054621767 0.049917873 0.17907678 -0.2184128 0.17357385
0.22341976 0.08932425 -0.22740108 -0.16401926 -0.058780875 -0.06817402 -0.03647255 0.30538037
0.112689085 -0.11404696 -0.15203238 0.26583797 -0.25503817 -0.030445019 0.03270763 -0.30304933
0.24781331 -0.25333765 0.22771077 0.07047894 -0.2416567 -0.346939 0.1994676 -0.2268097
0.19376913 -0.020052502 0.20962976 0.19513123 0.028216636 -0.17072885 -0.07980726 0.114357084
-0.026258662 -0.24172328 -0.10446132 -0.067370564 0.2540932 0.083672464 -0.27281103 -0.2524001
-0.14455357 0.19014663 -0.040650092 -0.09008472 0.11975035 0.20843413 0.02927549 0.13507459
-0.08721243 0.112186775 0.22395882 -0.10114564 -0.09691726 -0.14525732 0.071490176 -0.18035422
0.3017657 0.11537329 -0.18858342 -0.16111332 0.33347556 -0.09571037 -0.3661296 0.25953752
-0.25974125 -0.060988124 -0.09770896 -0.19805788 0.35692897 0.17129868 -0.1386477 0.030872865
-0.04528545 -0.019928904 0.096503235 -0.07282412 0.07464125 -0.09318133 -0.2730773 0.29854083
0.33705613 -0.19599272 -0.12647708 -0.2747342 0.148927 0.07902184 0.024741292 -0.17863645
-0.056824226 0.15196998 0.05422271 0.37323055 0.12629405 -0.33888075 -0.1644417 0.19534169
-0.08327366 -0.030660454 0.17335495 -0.07489421 -0.26804364 -0.1599654 -0.07403551 -0.1485861
0.0801363 -0.16704313 0.27266818 0.15912075 -0.18673378 -0.18058501 -0.21966979 0.1631627
-0.20803405 -0.05324392 0.23676302 -0.16493042 0.005071691 -0.2031198 0.2706565 0.07141511
-0.09945025 -0.22962278 0.24853013 0.16986972 0.1233032 0.22504133 0.19428053 0.13326542
00000000: b64e 63bd adb5 ffbd c16f 903e b4d0 a7bd
00000010: e792 a3be d8b7 5abe eba9 cbbc 76dd 0a3e
00000020: fcec 28bd f931 81be 5924 e4bd 13bb 5fbd
00000030: af76 4c3d e75f 373e 9ba7 5fbe 58bd 313e
00000040: 26c8 643e a2ef b63d d4db 68be aaf4 27be
00000050: 37c4 70bd d29e 8bbd 3e64 15bd d15a 9c3e
00000060: 89c9 e63d 7491 e9bd 60ae 1bbe ea1b 883e
00000070: 5d94 82be d567 f9bc 70f8 053d 4829 9bbe
00000080: c6c2 7d3e 79b5 81be 032d 693e 4357 903d
00000090: db74 77be fda1 b1be 3c41 4c3e cd40 68be
000000a0: 6a6b 463e 2545 a4bc 2fa9 563e 7bd0 473e
000000b0: 9326 e73c 8bd3 2ebe fd71 a3bd 0c34 ea3d
000000c0: 681c d7bc 4f86 77be d1ef d5bd 94f9 89bd
000000d0: 8118 823e 785c ab3d e3ad 8bbe 963a 81be
000000e0: da05 14be ccb5 423e b680 26bd 567e b8bd
000000f0: ac3f f53d c26f 553e 27d3 ef3c fe50 0a3e
00000100: 6e9c b2bd 2ec2 e53d 7655 653e 7225 cfbd
00000110: 8e7c c6bd 56be 14be 7169 923d c7ae 38be
00000120: 0981 9a3e d548 ec3d 031c 41be e4fa 24be
00000130: 4fbd aa3e cc03 c4bd 5775 bbbe 1ae2 843e
00000140: cefc 84be afce 79bd a31b c8bd afcf 4abe
00000150: 65bf b63e ec68 2f3e aaf9 0dbe 17e9 fc3c
00000160: 3c7d 39bd f141 a3bc 7da3 c53d d024 95bd
00000170: 83dd 983d dad5 bebd cad0 8bbe 58da 983e
00000180: 9f92 ac3e 51b2 48be 3583 01be f6a9 8cbe
00000190: 5280 183e 34d6 a13d 40ae ca3c 79ec 36be
000001a0: 85c0 68bd 059e 1b3e a218 5e3d 1318 bf3e
000001b0: 3a53 013e c781 adbe 6863 28be a707 483e
000001c0: 618b aabd a22b fbbc f683 313e 2362 99bd
000001d0: 043d 89be f8cd 23be ee9f 97bd f426 18be
000001e0: 801e a43d 5b0d 2bbe 2a9b 8b3e 8df0 223e
000001f0: 2437 3fbe 47eb 38be 1ef1 60be 1f14 273e
00000200: e106 55be 4c16 5abd 0172 723e 85e3 28be
00000210: 6d30 a63b a3fe 4fbe 7d93 8a3e 1642 923d
00000220: 93ac cbbd 3c22 6bbe af7e 7e3e 54f2 2d3e
00000230: 6386 fc3d 3c71 663e 7af1 463e bb76 083e

encoder.blocks.0.conv.0.bias f4 [16]
-0.23346467 -0.096466176 -0.14845382 0.3217602 0.14058916 -0.09609505 0.13611215 -0.10802717
0.29934314 -0.12956324 0.10239129 0.23618701 0.24185987 -0.020729166 0.31639287 0.12516005
00000000: 5d11 6fbe 0f90 c5bd 4704 18be c1bd a43e
00000010: 9bf6 0f3e 7bcd c4bd fc60 0b3e 593d ddbd
00000020: 8143 993e 3aac 04be 86b2 d13d 02db 713e
00000030: 1daa 773e 36d0 a9bc 3ffe a13e f529 003e

encoder.blocks.0.conv.1.weight f4 [16]
0.93686044 0.97361815 0.89940935 1.0720587 0.9935033 1.1252124 0.8988422 1.158764
1.0812938 0.8373687 1.0170308 0.8917869 0.96910906 1.0442489 1.03599 0.94541174
00000000: 16d6 6f3f 0a3f 793f b13f 663f 3839 893f
00000010: 3b56 7e3f f606 903f 861a 663f 6152 943f
00000020: d667 8a3f cc5d 563f 112e 823f 254c 643f
00000030: 8817 783f f3a9 853f 529b 843f 8106 723f

encoder.blocks.0.conv.1.bias f4 [16]
0.05758852 0.07611698 0.0009976174 0.21347538 0.014841971 -0.018489989 0.0025694685 0.02686824
0.13104185 -0.045752507 0.07328293 -0.083219156 0.051186055 0.016506357 0.03122684 0.045043256
00000000: f1e1 6b3d 38e3 9b3d 7cc2 823a 4a99 5a3e
00000010: bd2b 733c 5178 97bc 8764 283b c91a dc3c
00000020: d62f 063e fb66 3bbd 5c15 963d ce6e aabd
00000030: 78a8 513d 5738 873c 6ecf ff3c 477f 383d

encoder.blocks.0.conv.1.running_mean f4 [16]
-0.4193844 -0.059537698 -0.33561227 0.31163323 0.1515306 -0.21720022 0.012787971 -0.1439692
0.2460092 -0.16551974 0.10540782 0.40218616 0.026439464 -0.18161444 0.21778634 0.56037384
00000000: 8db9 d6be cddd 73bd 5fd5 abbe 648e 9f3e
00000010: d62a 1b3e bc69 5ebe a384 513c a96c 13be
00000020: d6e9 7b3e 027e 29be 0ee0 d73d 58eb cd3e
00000030: 9397 d83c 23f9 39be 6203 5f3e a974 0f3f

encoder.blocks.0.conv.1.running_var f4 [16]
0.007610886 0.0048916317 0.007620507 0.0015933684 0.005130401 0.00436275 0.008344888 0.001989182
0.0056307423 0.0039208247 0.0019486464 0.007860586 0.01334482 0.0060758786 0.0025535568 0.035281822
00000000: bd64 f93b fb49 a03b 72b5 f93b 92d8 d03a
00000010: ec1c a83b 66f5 8e3b ffb8 083c f05c 023b
00000020: 1782 b83b 437a 803b b969 ff3a b0c9 003c
00000030: 3ba4 5a3c 2a18 c73b 9359 273b ac83 103d

encoder.blocks.0.conv.3.weight f4 [16, 16, 3, 3]
-0.033853937 -0.11258447 -0.0145051405 -0.008013755 -0.031722154 -0.04349821 0.048681907 -0.04465105
-0.041311044 -0.098278545 -0.07011953 -0.0944178 0.05455822 0.09372977 -0.0350253 0.012423262
0.10405839 0.08880832 -0.07136244 -0.10840446 0.06343065 -0.06257757 0.06724782 -0.04603823
-0.026888927 0.031189356 0.014699677 -0.06335448 -0.0010577628 0.05088203 0.12666874 -0.014436855
0.04042196 0.030269684 0.078059 -0.06412422 0.020802263 -0.01816288 -0.08567049 -0.07223896
-0.10413839 0.064917944 0.13541861 0.11183546 -0.030428197 -0.020923983 -0.06850429 0.10744506
0.03934348 -0.012493796 0.032602195 0.08175063 0.14177898 0.019707806 -0.039215352 -0.07926937
0.025174776 -0.03709237 0.049535826 0.07423619 0.07204821 0.05507939 -0.022387816 0.019775612
-0.12654182 -0.05085408 -0.06032142 -0.16214232 -0.19466694 -0.05784319 -0.15253761 -0.12331746
0.043299854 -0.033477608 -0.10550228 -0.077179685 -0.07524572 -0.17400827 -0.003580688 -0.06325593
-0.173893 -0.029468717 0.025129853 -0.12312774 -0.16465203 -0.12064545 -0.17498459 -0.05510393
-0.12926142 -0.13976805 -0.0834352 0.018957734 -0.09283153 -0.01287425 -0.022362603 -0.07986557
-0.0119002 -0.08205266 0.043042846 0.007967989 0.031474244 -0.07277534 -0.072084926 0.014337885
-0.06698859 0.003010875 -0.061886046 0.06224378 -0.008248011 -0.0077199317 -0.015948534 0.032494202
0.038639285 0.026174834 -0.09602915 -0.09457316 -0.07858804 -0.0110062715 -0.11676466 -0.10157306
-0.037657946 -0.10131977 -0.055616945 -0.15036058 -0.13673575 0.029078372 0.0599679 0.05260014
0.037102457 -0.042717744 0.018915001 0.011365134 -0.017355412 -0.027718896 -0.044251222 0.050233908
0.06369164 0.0047908947 -0.007706978 0.004977787 0.06000199 0.012775448 0.052920844 -0.0041861767
0.021162678 0.033941913 -0.08484263 0.04524619 0.085998036 0.014271373 -0.009616435 0.09765615
-0.04145555 0.07268844 -0.07688146 0.10661377 0.063179746 0.0007061883 0.06854088 0.016436998
0.026082462 0.10216896 0.04296213 0.14391038 0.047580972 0.03545987 -0.024972927 0.07722395
-0.038525403 -0.038201164 0.02625936 -0.041980717 0.2105556 -0.1134676 -0.15089314 0.1792673
0.0010045726 0.10635242 -0.0066270074 -0.016407497 0.06884278 -0.046054423 -0.10022112 0.00848393
-0.040404085 -0.10725116 -0.045748804 0.031815708 -0.16067345 -0.053243466 -0.09326599 -0.114028774
-0.053139023 -0.11660127 -0.20472124 -0.07757087 -0.051269934 -0.11553843 -0.032745324 0.03703983
0.06991704 -0.026289541 -0.040989272 0.02157316 0.031266768 -0.045271058 0.032100502 -0.13991135
0.07592608 -0.12933777 -0.16619241 0.07339898 -0.10572473 8.850912e-05 0.055622045 -0.05531665
0.04810117 -0.08170979 0.11376473 -0.14524393 -0.090148434 -0.030500509 -0.1283116 0.069941685
-0.08153843 0.09689533 -0.03564868 0.0031152973 -0.08960652 0.038032144 -0.058472198 0.040556516
-0.052403554 0.07138741 -0.11554366 0.067920946 -0.15754817 -0.026850222 -0.07858838 0.07255182
-0.01988761 -0.18384567 0.18181218 -0.052777916 -0.028607586 -0.025707604 0.056062862 -0.08707558
0.08871894 0.02521504 0.046123177 0.029587658 0.08984836 0.043354206 -0.048531815 0.03430204
00000000: 6daa 0abd b092 e6bd f8a6 6dbc 204c 03bc
00000010: 17ef 01bd 2e2b 32bd ae66 473d 05e4 36bd
00000020: c535 29bd 4346 c9bd d49a 8fbd 1f5e c1bd
00000030: 7178 5f3d 65f5 bf3d b076 0fbd f08a 4b3c
00000040: 911c d53d 23e1 b53d 7926 92bd 2803 debd
00000050: eee7 813d ab28 80bd 3ab9 893d 9592 3cbd
00000060: 2b46 dcbc d280 ff3c ead6 703c febf 81bd
00000070: a1a4 8aba ad69 503d 73b5 013e 8f88 6cbc
00000080: 7f91 253d 21f8 f73c 66dd 9f3d 8f53 83bd
00000090: 8269 aa3c 52ca 94bc 0374 afbd 05f2 93bd
000000a0: 8246 d5bd b3f3 843d 2dab 0a3e fd09 e53d
000000b0: 8e44 f9bc c668 abbc fa4b 8cbd 280c dc3d
000000c0: a126 213d c7b2 4cbc e189 053d e06c a73d
000000d0: 822e 113e 4472 a13c 47a0 20bd fb57 a2bd
000000e0: 553b ce3c 2bee 17bd 14e6 4a3d 2509 983d
000000f0: 038e 933d ed9a 613d a766 b7bc 7700 a23c
00000100: 2e94 01be 5e4c 50bd 9813 77bd a308 26be
00000110: c556 47be fbec 6cbd d232 1cbe dd8d fcbd
00000120: 305b 313d d11f 09bd 9411 d8bd 6210 9ebd
00000130: 6e1a 9abd 392f 32be faa9 6abb 538c 81bd
00000140: 0211 32be 6168 f1bc 1fdd cd3c 662a fcbd
00000150: 8b9a 28be f614 f7bd 292f 33be a9b4 61bd
00000160: 1b5d 04be 5b1f 0fbe 13e0 aabd 404d 9b3c
00000170: 751e bebd 85ee 52bc c731 b7bc 8f90 a3bd
00000180: 0ef9 42bc 3a0b a8bd b24d 303d 2b8c 023c
00000190: 23eb 003d 3d0b 95bd 43a1 93bd 73e9 6a3c
000001a0: 5031 89bd 1a52 453b 397c 7dbd 55f3 7e3d
000001b0: aa22 07bc 7bf7 fcbb 80a6 82bc a418 053d
000001c0: 3a44 1e3d 9b6c d63c eeaa c4bd 93af c1bd
000001d0: c4f2 a0bd a653 34bc 4f22 efbd 8905 d0bd
000001e0: 383f 1abd bd80 cfbd 98ce 63bd 20f8 19be
000001f0: 7504 0cbe c435 ee3c e7a0 753d 3f73 573d
00000200: bff8 173d cdf8 2ebd a2f3 9a3c d434 3a3c
00000210: f02c 8ebc bd12 e3bc c540 35bd 12c2 4d3d
00000220: c370 823d f0fc 9c3b d18a fcbb b41c a33b
00000230: a6c4 753d 1d50 513c 87c3 583d 322c 89bb
00000240: 5a5d ad3c ad06 0b3d f9c1 adbd 1254 393d
00000250: bd1f b03d 7ad2 693c 408e 1dbc f3ff c73d
00000260: 4bcd 29bd addd 943d 0774 9dbd 5258 da3d
00000270: 6264 813d 7f1f 393a 295f 8c3d e2a6 863c
00000280: e3aa d53c f63d d13d 0ff9 2f3d 3e5d 133e
00000290: 44e4 423d 5e3e 113d 0694 ccbc 9727 9e3d
000002a0: d0cc 1dbd d378 1cbd df1d d73c f9f3 2bbd
000002b0: e39b 573e b361 e8bd bb83 1abe d991 373e
000002c0: ddab 833a 4ccf d93d 5e27 d9bb 0469 86bc
000002d0: 72fd 8c3d 90a3 3cbd bb40 cdbd 2e00 0b3c
000002e0: c17e 25bd 7fa6 dbbd 1963 3bbd 3051 023d
000002f0: 9587 24be d215 5abd 3d02 bfbd eb87 e9bd
00000300: 4ea8 59bd a6cc eebd 72a2 51be 7add 9ebd
00000310: 6c00 52bd 6a9f ecbd f61f 06bd 14b7 173d
00000320: aa30 8f3d 2a5d d7bc 5ee4 27bd 32ba b03c
00000330: 9511 003d 256e 39bd d17b 033d ec44 0fbe
00000340: 227f 9b3d 1f71 04be 582e 2abe 3452 963d
00000350: 3586 d8bd f99d b938 f1d3 633d b693 62bd
00000360: bc05 453d 7657 a7bd 7cfd e83d d3ba 14be
00000370: be9f b8bd 34dc f9bc 1e64 03be 963d 8f3d
00000380: 9ffd a6bd 0f71 c63d 5a04 12bd 042a 4c3b
00000390: a083 b7bd 98c7 1b3d 8b80 6fbd 971e 263d
000003a0: 1ca5 56bd 9033 923d 28a2 ecbd 231a 8b3d
000003b0: 4f54 21be fff4 dbbc f2f2 a0bd 0c96 943d
000003c0: 57eb a2bc 0a42 3cbe f92c 3a3e a82d 58bd
000003d0: 755a eabc c198 d2bc 2ca2 653d af54 b2bd
000003e0: 47b2 b53d c68f ce3c a8eb 3c3d d161 f23c
000003f0: 6b02 b83d 2e94 313d 4cc9 46bd 4c80 0c3d

encoder.blocks.0.conv.3.bias f4 [16]
0.071395196 -0.017103503 -0.09467284 -0.06952209 -0.08473186 -0.059100036 0.0015313119 0.084182635
0.080976434 0.011083316 0.028646015 -0.025094409 0.07452672 0.08594552 0.064974084 -0.077324815
00000000: a537 923d a51c 8cbc d5e3 c1bd 9961 8ebd
00000010: e687 adbd e112 72bd 4db6 c83a f267 ac3d
00000020: f9d6 a53d cc96 353c 0cab ea3c ca92 cdbc
00000030: 77a1 983d 3404 b03d 2211 853d 795c 9ebd

encoder.blocks.0.conv.4.weight f4 [16]
1.0040034 1.0925702 1.0818112 1.0350721 0.88946354 1.0355829 1.0249004 0.9362797
0.96494114 1.0317765 0.9330796 1.0154467 0.879933 0.96624804 0.922235 0.91997963
00000000: 2f83 803f 57d9 8b3f ca78 8a3f 3e7d 843f
00000010: e2b3 633f fb8d 843f f02f 833f 07b0 6f3f
00000020: 6206 773f 4111 843f 4ede 6e3f 28fa 813f
00000030: 4a43 613f 085c 773f 9817 6c3f c983 6b3f

encoder.blocks.0.conv.4.bias f4 [16]
0.04386343 0.0102974055 -0.019323632 -0.026305402 -0.088006474 -0.037106704 -0.00888884 -0.06856607
0.025751283 -0.07953659 -0.022983707 -0.059529286 -0.0462779 -0.081091486 -0.08610974 -0.08988819
00000000: 24aa 333d 73b6 283c 984c 9ebc 6d7e d7bc
00000010: bd3c b4bd 33fd 17bd 7fa2 11bc 5e6c 8cbd
00000020: 5bf4 d23c 14e4 a2bd 5448 bcbc fbd4 73bd
00000030: e58d 3dbd 4b13 a6bd 4e5a b0bd 4d17 b8bd

encoder.blocks.0.conv.4.running_mean f4 [16]
-0.9527892 -0.11104399 -0.85247743 -0.3693371 1.6013715 1.4200503 -2.01813 0.89331615
-0.8077073 -0.11955662 -1.0117505 -0.22342047 0.77451396 1.4444485 0.09721493 1.2012416
00000000: fee9 73bf 086b e3bd f63b 5abf c119 bdbe
00000010: bef9 cc3f 35c4 b53f 0b29 01c0 5eb0 643f
00000020: e8c5 4ebf 1ada f4bd 0a81 81bf 56c8 64be
00000030: 8c46 463f b0e3 b83f 9f18 c73d 49c2 993f

encoder.blocks.0.conv.4.running_var f4 [16]
1.7334815 0.38762432 0.740909 0.39519238 1.8535957 2.0201035 2.3844974 1.1957363
1.6886363 0.28099996 1.2758753 0.7510379 0.8347601 1.8753213 0.55346704 1.9511123
00000000: b9e2 dd3f b276 c63e 36ac 3d3f a856 ca3e
00000010: a042 ed3f 6049 0140 9b9b 1840 e30d 993f
00000020: 3c25 d83f 3adf 8f3e e24f a33f 0544 403f
00000030: d7b2 553f 870a f03f 04b0 0d3f 0cbe f93f

encoder.blocks.0.skip.weight f4 [16, 1, 1, 1]
-0.90862226 -0.77148116 0.12730682 -0.5813745 0.5919914 -0.940855 0.91050625 0.5266067
-0.012554526 -0.6186229 -0.48231518 -0.4986415 0.026171088 -0.26127565 0.722751 -0.80807793
00000000: 789b 68bf ca7f 45bf b85c 023e f6d4 14bf
00000010: c08c 173f e0db 70bf f016 693f b2cf 063f
00000020: 80b1 4dbc 125e 1ebf 04f2 f6be f04d ffbe
00000030: c064 d63c ecc5 85be 3606 393f 32de 4ebf

encoder.blocks.0.skip.bias f4 [16]
-0.22013426 0.773672 0.06334162 0.8856952 0.7185402 0.3476436 0.63598716 0.1554184
-0.33414578 0.2793107 0.19971526 -0.5418451 -0.5231668 0.421494 -0.3727888 -0.07173622
00000000: e06a 61be 5e0f 463f 40b9 813d ecbc 623f
00000010: 40f2 373f 58fe b13e 0ed0 223f 0026 1f3e
00000020: 2815 abbe d001 8f3e 2882 4c3e 5cb6 0abf
00000030: 42ee 05bf 10ce d73e 2cde bebe 70ea 92bd

encoder.blocks.1.conv.0.weight f4 [32, 16, 3, 3]
0.12102894 0.10431105 -0.0021549019 -0.0053735627 0.09485945 0.09469692 0.08511999 0.018095009
0.09841459 -0.1014206 -0.11226033 -0.13512017 0.12209835 -0.043514017 -0.1155084 0.16670185
0.05308774 -0.12838668 0.06058168 0.13815595 0.010748522 -0.04807532 0.05164713 0.12078231
0.007974627 0.0322289 0.057397127 -0.030501332 -0.079816036 -0.07682538 -0.02153882 -0.14436208
-0.12476778 0.049485672 0.08229121 -0.06234795 -0.06519788 0.01155658 -0.05542282 0.07278512
-0.05780781 -0.021711143 -0.039389215 -0.026475035 -0.0423251 0.03185433 0.008089487 0.10218073
-0.031037895 0.081146955 0.07269083 -0.021821186 0.05196551 -0.060104378 -0.011443326 -0.058377087
-0.068562955 -0.013579999 0.03742854 0.018298194 -0.09129415 -0.067260206 -0.13710786 0.017567383
0.06898509 0.019440386 -0.013594992 -0.0025574872 -0.01346952 0.08312321 0.004342179 -0.092766955
0.060880546 0.12263458 -0.02152004 -0.009069128 0.0024320318 0.08076484 0.11595302 0.01602386
0.02413419 -0.12444446 -0.032458313 -0.09678843 -0.012266929 0.008419505 -0.044355147 0.014210845
0.047641322 -0.10538436 -0.061260037 -0.014001063 -0.11206931 -0.029597415 0.0050996225 -0.11552489
0.025333768 -0.020320237 -0.098506644 -0.0729213 -0.008552318 -0.011446833 -0.085289545 -0.054394737
-0.08620604 0.035807654 -0.061226174 -0.19517626 -0.0003254926 -0.07149586 0.025456075 0.038119413
0.02795164 -0.113232814 -0.099822305 -0.108134136 0.02914231 0.032654688 -0.016589472 -0.07914862
-0.08194338 -0.009043278 0.05369485 -0.015545444 -0.021101477 0.049252953 0.046839148 -0.05777515
-0.04725408 -0.016007755 -0.05955419 0.007452839 0.06184531 0.07231829 -0.10779842 0.019920863
-0.090532005 -0.08577546 -0.0038493893 -0.06180075 -0.03039538 -0.040995188 0.07045835 0.026173094
-0.05322377 0.100202054 -0.020407367 -0.013660466 0.08566988 -0.06843383 -0.06521232 0.07247833
0.063224226 -0.07298796 -0.11903622 -0.14593104 0.11573468 0.009197684 -0.18763506 0.11844267
0.061535295 -0.07632606 0.032643702 0.010601218 0.13058928 0.045194007 0.03072657 0.02071547
0.03241133 0.08015511 -0.059165943 0.012723541 -0.060939904 -0.095338956 0.09813089 -0.063253164
-0.11352411 0.030008389 -0.036455765 -0.12611145 0.042138413 -0.079549044 -0.13952588 0.037957184
0.021026311 -0.04803573 0.014933566 -0.018295946 -0.15397944 -0.074722886 0.040790588 -0.026895633
-0.01251028 -0.075073324 -0.063353844 0.001329964 -0.08030389 -0.07452569 0.009243122 -0.0658871
-0.12569061 -0.0047001494 -0.039977033 -0.050652735 -0.14236228 -0.09754891 -0.007528822 -0.012745158
-0.07494778 -0.065101646 0.004796443 -0.053606324 -0.034093145 0.067193285 0.038780414 -0.040091623
0.062490072 0.1124268 0.033645768 0.020290257 -0.07827852 -0.011933036 -0.1210418 -0.021072565
-0.03810835 0.07829936 -0.1186631 -0.11457334 -0.029362256 0.0113319475 -0.11618837 0.055637952
0.022896288 -0.023836475 0.04833551 0.030891443 -0.03991612 -0.09581295 -0.077727616 -0.05347944
-0.17665423 -0.027688218 -0.0415293 -0.04606654 -0.0037351225 -0.12530091 -0.040522296 -0.037263613
-0.07185506 -0.068586975 -0.058405664 -0.11211372 -0.08145702 -0.109420724 -0.09293435 -0.007625582
00000000: 05de f73d 08a1 d53d 4139 0dbb b614 b0bb
00000010: ac45 c23d 75f0 c13d 6453 ae3d fc3b 943c
00000020: 978d c93d 9bb5 cfbd bee8 e5bd f15c 0abe
00000030: b30e fa3d c13b 32bd ab8f ecbd e4b3 2a3e
00000040: 8872 593d cc77 03be 7f24 783d c178 0d3e
00000050: 921a 303c a0ea 44bd f18b 533d b75c f73d
00000060: 03a8 023c 7302 043d 4019 6b3d eedd f9bc
00000070: 9776 a3bd a056 9dbd 2e72 b0bc a7d3 13be
00000080: 4086 ffbd 7db1 4a3d 4b88 a83d 9060 7fbd
00000090: 7786 85bd cf57 3d3c 0a03 63bd 5d10 953d
000000a0: e2c7 6cbd 91db b1bc 9656 21bd 2ce2 d8bc
000000b0: 165d 2dbd b079 023d c589 043c 2144 d13d
000000c0: 2f43 febc 6030 a63d eede 943d 58c2 b2bc
000000d0: c9d9 543d 0230 76bd ca7c 3bbc d01c 6fbd
000000e0: bc6a 8cbd a57e 5ebc ab4e 193d 18e6 953c
000000f0: 6df8 babd b8bf 89bd 0166 0cbe 79e9 8f3c
00000100: 0e48 8d3d 7241 9f3c 88bd 5ebc 849b 27bb
00000110: 43af 5cbc 803c aa3d d648 8e3b 9afc bdbd
00000120: e15d 793d d727 fb3d cc4a b0bc ae96 14bc
00000130: b962 1f3b 0968 a53d c778 ed3d 7844 833c
00000140: 11b5 c53c bddc febd 02f3 04bd 0339 c6bd
00000150: 3bfb 48bc f7f1 093c bead 35bd 9bd4 683c
00000160: 8c23 433d c1d3 d7bd ceeb 7abd b764 65bc
00000170: 9884 e5bd 4776 f2bc bc1a a73b 5098 ecbd
00000180: c388 cf3c a076 a6bc dabd c9bd c357 95bd
00000190: 061f 0cbc 7f8b 3bbc 49ac aebd 04cd 5ebd
000001a0: cb8c b0bd 0cab 123d 4cc8 7abd 49dc 47be
000001b0: e1a6 aab9 6c6c 92bd 4289 d03c 1a23 1c3d
000001c0: d6fa e43c 9be6 e7bd a36f ccbd 6e75 ddbd
000001d0: dbbb ee3c ecc0 053d a5e6 87bc ac18 a2bd
000001e0: eed1 a7bd 422a 14bc 22ef 5b3d 51b2 7ebc
000001f0: 01dd acbc 77bd 493d 68da 3f3d a3a5 6cbd
00000200: 7f8d 41bd b222 83bc 18ef 73bd f236 f43b
00000210: 8251 7d3d 9d1b 943d 6bc5 dcbd 1431 a33c
00000220: d868 b9bd 0bab afbd 0946 7cbb c922 7dbd
00000230: bbff f8bc 92ea 27bd 784c 903d f568 d63c
00000240: 2b01 5abd bc36 cd3d 5a2d a7bc 26d0 5fbc
00000250: b173 af3d 0927 8cbd 098e 85bd 856f 943d
00000260: b47b 813d b67a 95bd 43c9 f3bd f26e 15be
00000270: 4e06 ed3d e2b1 163c 6823 40be 1292 f23d
00000280: 6f0c 7c3d d650 9cbd 67b5 053d bbb0 2d3c
00000290: 32b9 053e 5a1d 393d 4ab6 fb3c 7db3 a93c
000002a0: bec1 043d 5d28 a43d fd57 72bd 6676 503c
000002b0: 1f9c 79bd 1241 c3bd d9f8 c83d e08a 81bd
000002c0: 547f e8bd 27d4 f53c a452 15bd 5c23 01be
000002d0: 5499 2c3d 9cea a2bd dfdf 0ebe fe78 1b3d
000002e0: 5f3f ac3c 1dc1 44bd eaab 743c 61e1 95bc
000002f0: c9ac 1dbe 5008 99bd 0814 273d 3b54 dcbc
00000300: ebf7 4cbc 0bc0 99bd a9bf 81bd 3052 ae3a
00000310: 5e76 a4bd eda0 98bd 7770 173c d1ef 86bd
00000320: 0ab5 00be b603 9abb f5be 23bd 3e79 4fbd
00000330: 6bc7 11be b9c7 c7bd 56b4 f6bb 11d1 50bc
00000340: 397e 99bd 0354 85bd 7b2b 9d3b 4e92 5bbd
00000350: 41a5 0bbd a29c 893d 36d8 1e3d 1d37 24bd
00000360: 97f5 7f3d 0640 e63d 25d0 093d c137 a63c
00000370: 7d50 a0bd c882 43bc c3e4 f7bd 5fa0 acbc
00000380: 8017 1cbd 6a5b a03d a405 f3bd 6da5 eabd
00000390: 1d89 f0bc a2a9 393c 2bf4 edbd 9fe4 633d
000003a0: ff90 bb3c b644 c3bc 75fb 453d 0d10 fd3c
000003b0: 167f 23bd 9439 c4bd a82f 9fbd 420d 5bbd
000003c0: d9e4 34be 67d2 e2bc a11a 2abd 45b0 3cbd
000003d0: f5c8 74bb e24e 00be b5fa 25bd bba1 18bd
000003e0: bf28 93bd 5477 8cbd c73a 6fbd e19b e5bd
000003f0: f0d2 a6bd f917 e0bd 5d54 bebd 05e0 f9bb

encoder.blocks.1.conv.0.bias f4 [32]
-0.079777345 0.02551018 -0.03373127 -0.049601547 -0.019583534 0.035238314 0.035235178 -0.025112424
0.019150835 0.07274101 0.0471223 0.089885995 0.04686125 0.0465873 -0.038775027 -0.039868105
0.08047273 0.07344191 0.057164017 0.04009687 -0.058541317 0.013170143 -0.035349872 0.09918717
0.016564475 -0.047901496 0.03612845 0.09076632 -0.06263251 -0.01364101 -0.004783365 0.08070325
00000000: 4e62 a3bd bafa d03c cd29 0abd fe2a 4bbd
00000010: a66d a0bc 0d56 103d c352 103d 92b8 cdbc
00000020: 36e2 9c3c 3df9 943d 5003 413d 2616 b83d
00000030: 95f1 3f3d 53d2 3e3d 90d2 1ebd bd4c 23bd
00000040: e3ce a43d b668 963d d124 6a3d 9e3c 243d
00000050: 05c9 6fbd 95c7 573c 07cb 10bd a522 cb3d
00000060: 39b2 873c 5c34 44bd 6dfb 133d b1e3 b93d
00000070: 7945 80bd 8b7e 5fbc c6bd 9cbb bf47 a53d

encoder.blocks.1.conv.1.weight f4 [32]
1.0245183 1.0766852 1.0821997 0.9257892 0.9981686 1.0708581 0.9454642 1.016474
1.0869516 0.92073387 0.9089031 0.93921375 1.0413704 0.96558255 0.9621575 0.8702326
1.1434575 1.0046914 1.0113717 1.0512372 0.8417084 0.9727286 1.047484 0.9615781
0.98045665 0.9523677 0.91317195 1.0425336 1.0206261 0.9952255 0.9686317 0.9053713
00000000: 6a23 833f d2d0 893f 8585 8a3f 8500 6d3f
00000010: fa87 7f3f e111 893f f109 723f d21b 823f
00000020: 3b21 8b3f 37b5 6b3f e0ad 683f 5070 703f
00000030: a04b 853f 6b30 773f f44f 763f 90c7 5e3f
00000040: d15c 923f ba99 803f a174 813f f18e 863f
00000050: 347a 573f be04 793f f513 863f fb29 763f
00000060: 35ff 7a3f 5fce 733f a3c5 693f be71 853f
00000070: e0a3 823f 19c7 7e3f 3ff8 773f 6ac6 673f

encoder.blocks.1.conv.1.bias f4 [32]
0.054473974 0.07461406 0.069049835 -0.05047486 -0.016674183 0.10697521 -0.06308666 0.029797813
-0.060740605 -0.12285226 -0.011567242 0.043227844 -0.05083884 0.014396869 -0.059239756 -0.02854174
0.030972874 -0.00325836 -0.03322021 -0.04699591 -0.0427496 -0.0486442 -0.05249817 -0.16390984
-0.0430606 -0.001631844 -0.01597777 -0.10808074 0.033477318 0.070516 -0.058879897 -0.038724914
00000000: 1a20 5f3d 42cf 983d 006a 8d3d babe 4ebd
00000010: 4c98 88bc d215 db3d 9433 81bd 8b1a f43c
00000020: 24cb 78bd f799 fbbd 8884 3dbc ae0f 313d
00000030: 633c 50bd d8e0 6b3c 63a5 72bd 5ed0 e9bc
00000040: d3ba fd3c 368a 55bb ea11 08bd c97e 40bd
00000050: 341a 2fbd 243f 47bd 5208 57bd fbd7 27be
00000060: 5060 30bd 99e3 d5ba d0e3 82bc 6f59 ddbd
00000070: 831f 093d b16a 903d 0c2c 71bd 049e 1ebd

encoder.blocks.1.conv.1.running_mean f4 [32]
-0.68652076 -1.818034 -0.4375657 -0.14065002 -0.5119487 -2.3857222 0.2773266 -1.1693347
0.74596107 0.59174806 -0.37795335 -1.5466406 0.8136641 -1.7082367 0.70090884 0.16641587
0.9828265 2.2838075 0.42832938 -1.1900812 -1.1073966 0.32733682 -1.2979147 -0.84471124
1.1136285 -1.4998285 -1.8986864 -0.68296826 1.9433131 0.33496213 1.5892934 1.968274
00000000: d3bf 2fbf 57b5 e8bf 9d08 e0be 8f06 10be
00000010: 120f 03bf acaf 18c0 c1fd 8d3e c2ac 95bf
00000020: 4ef7 3e3f cd7c 173f 1a83 c1be 52f8 c5bf
00000030: 4a4c 503f 80a7 dabf c36e 333f ec68 2a3e
00000040: 849a 7b3f e729 1240 fd4d db3e 9554 98bf
00000050: 2cbf 8dbf b198 a73e 1222 a6bf ff3e 58bf
00000060: 618b 8e3f 61fa bfbf 2808 f3bf 02d7 2ebf
00000070: 7cbe f83f 2880 ab3e f76d cb3f 67f0 fb3f

encoder.blocks.1.conv.1.running_var f4 [32]
0.6916049 2.4629707 1.4158816 1.3203307 1.8257353 3.9576972 0.8455154 2.5098739
1.2292416 0.8613292 1.9303958 7.165222 1.508875 2.4330611 2.0825338 2.0205812
1.2803756 4.5732512 0.7431832 2.416636 0.8862203 0.69667953 3.1239836 3.818278
2.8885567 1.0907612 2.706019 2.281034 2.977631 0.9607845 2.6859903 2.3778002
00000000: 050d 313f 50a1 1d40 9c3b b53f 9900 a93f
00000010: b2b1 e93f e94a 7d40 b273 583f c6a1 2040
00000020: ca57 9d3f 1280 5c3f 3617 f73f 8049 e540
00000030: d122 c13f 46b7 1b40 3c48 0540 3451 0140
00000040: 59e3 a33f 1358 9240 4141 3e3f 2aaa 1a40
00000050: 55df 623f 9759 323f 59ef 4740 ab5e 7440
00000060: 1dde 3840 109e 8b3f 6a2f 2d40 76fc 1140
00000070: 8291 3e40 f9f5 753f 44e7 2b40 e12d 1840

encoder.blocks.1.conv.3.weight f4 [32, 32, 3, 3]
0.10435911 0.05300873 0.11518507 0.090247706 0.0577134 0.10575885 0.08887085 0.102935955
0.1110658 -0.013901859 0.025070265 -0.054826275 -0.016575597 -0.019647831 0.031551454 -0.10955162
-0.10797242 0.05905872 0.020224204 0.08369841 0.10741161 -0.0015132213 0.0728678 0.026740309
0.10162752 0.08884423 0.044785764 0.055922706 0.100554936 0.17665513 0.00857176 0.057211015
0.17837599 0.0027120784 0.058470003 0.020437716 0.04401111 0.091036856 -0.048788708 0.013170743
-0.018138124 -0.06237399 0.074096836 0.038626235 -0.0014154185 -0.011643332 0.023610225 0.04081
0.05781016 -0.04361805 0.04501637 -0.025195299 -0.022054078 0.008387582 -0.013529009 0.057394624
0.07587102 0.041475978 0.07320384 0.03545183 0.056056034 0.06317733 0.068529315 0.008216458
-0.048631556 0.03059063 -0.015540097 -0.06208633 -0.037547886 -0.04315746 -0.041809537 -0.035833944
0.11969312 0.17155606 0.0398864 0.083642304 0.15522042 0.08876611 0.044251185 0.06761397
0.11969433 0.11887304 0.05019977 -0.021903424 0.051507697 0.04451516 0.029878234 -0.055843115
-0.010186959 0.100195 0.0675469 0.056832742 0.036010064 0.049497273 -0.010656964 0.06619594
0.018712584 -0.03205457 -0.008177389 0.04502786 0.05265104 -0.032304116 0.024632396 0.07181341
0.04526611 0.08425894 0.025988085 0.051809855 0.10196894 0.10847257 0.0014637338 0.09364906
0.029715741 0.10719116 0.002852758 0.07532713 0.022106936 0.025264213 0.029602757 -0.047136534
0.0076080663 0.042096347 -0.030027015 0.078755096 0.037089195 -0.0670768 -0.009165086 -0.01798597
0.0040733074 0.06257771 -0.00095446856 -0.023700058 0.018882256 0.050312728 0.032917418 -0.019017328
0.0033066915 0.09771291 0.01465259 0.079342596 0.13544431 0.04430488 0.0783881 0.09392745
0.014717137 0.086992204 0.056307793 0.04954936 0.1522055 0.110268 -0.037960563 0.08729236
0.09216166 0.028079873 -0.005239651 0.021430979 -0.03199087 0.07409656 0.04244069 0.059842095
0.008975934 0.02072985 0.08984981 0.08735006 0.03273646 0.034523744 0.023256492 0.06907965
-0.0024066379 -0.051586762 0.0040467633 0.068372 0.042431854 -0.112378746 0.013926767 0.016894754
-0.074683316 -0.009694092 0.029006353 -0.003867217 0.018114034 -0.026805162 0.07523215 -0.022702333
0.022158155 0.09108945 0.07788083 0.058287464 0.023715204 0.14731038 -0.006055248 -0.093225084
-0.054398227 0.00016418441 -0.033851307 -0.036703598 0.06711009 0.0016846986 0.022270111 0.16436896
0.024817742 0.09537499 0.08077631 -0.00052653585 0.05540768 -0.004254491 0.086210765 0.036897667
0.04107549 0.028125506 0.09451388 0.015754921 0.034869414 0.07787061 0.08246069 0.02618004
0.030567875 0.016948486 0.017947081 0.009436488 0.049640093 0.04245295 -0.0019930922 0.0895784
0.11704405 -0.05616709 0.0059101204 -0.046282593 -0.004641626 -0.07446685 0.042922545 0.00019376563
-0.004536063 0.035497196 -0.029633496 -0.06233822 0.06563283 -0.042364225 -0.05033662 0.0025483065
-0.05518549 0.0056471955 -0.04591805 0.12800838 0.028717956 -0.011992408 -0.00034634696 0.068571724
-0.09249645 -0.05195017 -0.07059774 -0.06119565 -0.009833143 0.045641728 -0.0030742313 0.09841407
00000000: 3bba d53d af1f 593d 26e6 eb3d cad3 b83d
00000010: e364 6c3d 1998 d83d ec01 b63d 16d0 d23d
00000020: 7776 e33d 9fc4 63bc 2860 cd3c 8491 60bd
00000030: 8cc9 87bc 7df4 a0bc 193c 013d 9a5c e0bd
00000040: a520 ddbd 8ee7 713d 3bad a53c 126a ab3d
00000050: 9efa db3d 4857 c6ba b73b 953d 7e0e db3c
00000060: 1722 d03d f7f3 b53d 4771 373d 350f 653d
00000070: bfef cd3d 15e5 343e 9170 0c3c 1956 6a3d
00000080: 32a8 363e 20bd 313b 3e7e 6f3d ff6c a73c
00000090: fe44 343d 8871 ba3d abd6 47bd 1aca 573c
000000a0: 6796 94bc de7b 7fbd 15c0 973d 8b36 1e3d
000000b0: 9085 b9ba adc3 3ebc 3b6a c13c 6328 273d
000000c0: 59ca 6c3d d7a8 32bd 1663 383d 5f66 cebc
000000d0: c1aa b4bc 126c 093c c7a8 5dbc a016 6b3d
000000e0: 4462 9b3d b7e2 293d e5eb 953d f035 113d
000000f0: 039b 653d 1e63 813d 1959 8c3d 539e 063c
00000100: e231 47bd 3399 fa3c e49b 7ebc 3c4e 7ebd
00000110: d0cb 19bd e0c5 30bd 7a40 2bbd 9dc6 12bd
00000120: ab21 f53d 64ac 2f3e ec5f 233d a84c ab3d
00000130: 1af2 1e3e 02cb b53d bb40 353d 3179 8a3d
00000140: 4d22 f53d b573 f33d 469e 4d3d cf6e b3bc
00000150: bcf9 523d 8755 363d 33c3 f43c c0bb 64bd
00000160: 34e7 26bc 0933 cd3d 0756 8a3d 73c9 683d
00000170: 4a7f 133d a7bd 4a3d 8c9a 2ebc bd91 873d
00000180: 224b 993c a74b 03bd 75fa 05bc 226f 383d
00000190: 9ea8 573d 5251 04bd e1c9 c93c e912 933d
000001a0: f568 393d f38f ac3d f7e4 d43c 9236 543d
000001b0: 17d5 d03d de26 de3d c2da bf3a 14cb bf3d
000001c0: 6d6e f33c 0a87 db3d 56f5 3a3b 1c45 9a3d
000001d0: 9b19 b53c e5f6 ce3c 7b81 f23c 3d12 41bd
000001e0: 164d f93b 386d 2c3d 37fb f5bc 5a4a a13d
000001f0: d7ea 173d 905f 89bd 2829 16bc 5057 93bc
00000200: 6179 853b be28 803d 4d35 7aba a026 c2bc
00000210: f6ae 9a3c b814 4e3d 6ad4 063d 3aca 9bbc
00000220: 14b5 583b b51d c83d 6b11 703c 5f7e a23d
00000230: eab1 0a3e 0979 353d f189 a03d 095d c03d
00000240: 2620 713c f828 b23d 00a3 663d 45f4 4a3d
00000250: c2db 1b3e 30d4 e13d 897c 1bbd 56c6 b23d
00000260: 41bf bc3d c307 e63c 61b1 abbb 0590 af3c
00000270: dc08 03bd f0bf 973d 4ad6 2d3d fc1c 753d
00000280: cc0f 133c a5d1 a93c 2d03 b83d 97e4 b23d
00000290: ab16 063d c568 0d3d 6684 be3c a279 8d3d
000002a0: afb8 1dbb a44c 53bd b69a 843b 9e06 8c3d
000002b0: 06cd 2d3d d426 e6bd 182d 643c de66 8a3c
000002c0: 91f3 98bd f8d3 1ebc bb9e ed3c 2371 7dbb
000002d0: e263 943c 8096 dbbc 5013 9a3d 3efa b9bc
000002e0: 0585 b53c 1b8d ba3d fc7f 9f3d d6be 6e3d
000002f0: 6346 c23c 88d8 163e 1a6b c6bb cbec bebd
00000300: add0 5ebd eb28 2c39 aba7 0abd 8356 16bd
00000310: 0471 893d 1bd1 dc3a cf6f b63c 5650 283e
00000320: 944e cb3c f653 c33d 0d6e a53d 3907 0aba
00000330: 2af3 623d 4269 8bbb 458f b03d 0222 173d
00000340: c63e 283d 7667 e63c 7e90 c13d 7710 813c
00000350: 3bd3 0e3d a07a 9f3d 26e1 a83d 8677 d63c
00000360: 7b69 fa3c 8dd7 8a3c c205 933c 809b 1a3c
00000370: 6953 4b3d 25e3 2d3d 8a9e 02bb e174 b73d
00000380: cab4 ef3d 760f 66bd afa9 c13b d192 3dbd
00000390: c818 98bb 1382 98bd 8dcf 2f3d 912d 4b39
000003a0: 41a3 94bb 8265 113d f2c1 f2bc 5d56 7fbd
000003b0: 816a 863d 1c86 2dbd c62d 4ebd 7d01 273b
000003c0: 2e0a 62bd 1c0c b93b 9114 3cbd a114 033e
000003d0: eb41 eb3c ce7b 44bc e795 b5b9 556f 8c3d
000003e0: c76e bdbd b4c9 54bd 8c95 90bd 4aa8 7abd
000003f0: 311b 21bc d2f2 3a3d 0b79 49bb 518d c93d

encoder.blocks.1.conv.3.bias f4 [32]
-0.00866394 0.006036711 0.032068778 -0.0064730453 0.041857693 0.028238533 0.065081365 -0.00380031
-0.03616059 -0.09489409 0.0013477615 -0.01453417 -0.008387262 -0.027002463 -0.051071472 -0.039882597
-0.0025028784 -0.04969931 0.030150056 0.03357192 0.072696246 -0.013851327 0.017115677 0.0022780728
0.004366256 -0.027550329 -0.054478146 0.024790004 0.014781964 0.052152697 -0.055321574 0.0105734505
00000000: 33f3 0dbc 9acf c53b 8d5a 033d d71b d4bb
00000010: f972 2b3d 7f54 e73c 6149 853d 9f0e 79bb
00000020: 201d 14bd d557 c2bd 5fa7 b03a ba20 6ebc
00000030: ba6a 09bc 4534 ddbc 5230 51bd ef5b 23bd
00000040: 5507 24bb 8191 4bbd 40fd f63c b682 093d
00000050: c5e1 943d adf0 62bc 2d36 8c3c b84b 153b
00000060: cf12 8f3b 3ab1 e1bc 7a24 5fbd 6814 cb3c
00000070: 0d30 723c 119e 553d e098 62bd 443c 2d3c

encoder.blocks.1.conv.4.weight f4 [32]
1.1495668 1.0395314 0.9811953 0.90748227 1.0744866 0.9783129 0.8083221 1.1142344
0.99936265 0.98207057 0.9548999 0.8909949 1.0499169 0.9672183 0.9170668 0.9883836
0.95520335 0.9743308 0.97971773 0.97787225 0.8980983 0.95802563 0.88820654 0.94868976
1.0196137 0.97606456 1.0725591 0.9801117 1.0591539 0.92701745 1.1306988 0.9926802
00000000: 0125 933f 5d0f 853f 9d2f 7b3f c250 683f
00000010: c788 893f b772 7a3f 32ee 4e3f 3c9f 8e3f
00000020: 3bd6 7f3f fa68 7b3f 5274 743f 3e18 643f
00000030: ad63 863f 9e9b 773f e4c4 6a3f b506 7d3f
00000040: 3588 743f be6d 793f c8ce 7a3f d655 7a3f
00000050: c5e9 653f 2b41 753f 8161 633f 55dd 723f
00000060: b482 823f 5edf 793f 9e49 893f 9ae8 7a3f
00000070: 5b92 873f 0451 6d3f bdba 903f 4a20 7e3f

encoder.blocks.1.conv.4.bias f4 [32]
-0.0073047904 -0.004998558 -0.008820537 -0.07893506 -0.12803064 -0.002126232 -0.10465218 0.052702684
0.010178486 -0.0108320955 -0.030235061 -0.04708678 0.05455909 -0.080500655 -0.028827516 -0.07160755
-0.06899646 0.00081281824 -0.073033884 -0.08470107 -0.058576964 0.03255732 -0.114953585 -0.00088563433
-0.08340062 -0.09644831 -0.13167122 -0.06899978 -0.14535344 0.01040354 -0.005030052 -0.08614146
00000000: 065d efbb f2ca a3bb 0384 10bc b4a8 a1bd
00000010: 771a 03be 4158 0bbb e253 d6bd c5de 573d
00000020: aac3 263c 1a79 31bc 85af f7bc 11de 40bd
00000030: 5a79 5f3d 87dd a4bd af27 ecbc fba6 92bd
00000040: 044e 8dbd 4f13 553a ca92 95bd c177 adbd
00000050: 66ee 6fbd d35a 053d c96c ebbd ea29 68ba
00000060: f2cd aabd b186 c5bd d2d4 06be c24f 8dbd
00000070: 88d7 14be 9c73 2a3c 22d3 a4bb ef6a b0bd

encoder.blocks.1.conv.4.running_mean f4 [32]
2.8627772 1.8069189 -0.9932951 1.8201749 2.1521046 -2.3513935 -1.41271 1.2929431
-3.0116487 -3.2938333 -1.3388172 -2.894712 -0.81346625 1.6137946 -1.8592569 0.94433916
1.0810691 -2.692962 -1.8637683 1.8929951 -0.44333714 -2.6630762 -0.77178645 -2.1341403
2.511979 0.346565 2.9288638 1.3907866 1.5035886 -0.64330274 1.030524 1.9077653
00000000: be37 3740 1e49 e73f 9648 7ebf 7efb e83f
00000010: 15bc 0940 3b7d 16c0 aed3 b4bf 297f a53f
00000020: dabe 40c0 2ace 52c0 5d5e abbf f642 39c0
00000030: 533f 50bf d290 ce3f 21fc edbf 36c0 713f
00000040: 7960 8a3f 7d59 2cc0 f68f eebf aa4d f23f
00000050: 16fd e2be d76f 2ac0 cc93 45bf c195 08c0
00000060: 44c4 2040 f870 b13e 8172 3b40 4c05 b23f
00000070: 9775 c03f 7daf 24bf 36e8 833f a731 f43f

encoder.blocks.1.conv.4.running_var f4 [32]
5.873801 5.259285 4.809951 8.724594 2.5446115 3.5207987 4.5122433 1.5411716
5.1491756 3.5372937 4.219044 21.568268 6.069972 5.269563 15.663751 4.321166
8.023188 4.772354 3.4520032 2.0930374 7.452793 2.9765255 2.9693038 2.7210672
9.786117 3.3371255 7.1627803 8.2407 2.4711196 3.6466696 2.1453679 6.2144933
00000000: 2ef6 bb40 104c a840 1eeb 9940 f097 0b41
00000010: eada 2240 c454 6140 4c64 9040 1c45 c53f
00000020: 0cc6 a440 0563 6240 6902 8740 d08b ac41
00000030: 363d c240 43a0 a840 b99e 7a41 fe46 8a40
00000040: fa5e 0041 20b7 9840 9fed 5c40 53f4 0540
00000050: 487d ee40 657f 3e40 1309 3e40 f725 2e40
00000060: ef93 1c41 7793 5540 7f35 e540 e8d9 0341
00000070: d326 1e40 0963 6940 b54d 0940 21dd c640

encoder.blocks.1.skip.weight f4 [32, 16, 1, 1]
-0.01445806 0.03600225 0.23800498 -0.22243476 -0.019886702 -0.040950954 -0.14822763 -0.060379803
0.0320217 0.015081227 -0.12621424 -0.108531415 -0.15389705 0.05271861 -0.058673978 0.12153497
-0.2499215 -0.204007 0.086257756 0.24372855 -0.24640334 -0.23998284 0.03134367 -0.10690439
0.094995975 -0.0007852316 -0.22086406 0.08971271 -0.013385087 -0.22966456 -0.045182586 -0.1964063
0.06666523 -0.1860584 -0.16466591 0.0042300224 -0.023608327 0.2229507 0.10244107 -0.22595444
0.15394115 -0.02392155 -0.21063468 -0.002336353 0.018345118 -0.1664044 -0.20568785 0.06510556
-0.008366436 0.030632406 0.13425493 -0.24143142 -0.092621 -0.08617258 0.17304656 -0.12405023
-0.22959337 0.1303755 -0.06487477 -0.14105976 0.046250165 0.06263125 0.03512317 0.2301073
0.12583068 0.045251727 0.19215691 0.022069037 -0.08624798 -0.20758209 -0.24216536 0.18210393
0.06695244 0.20336324 -0.15910101 -0.06899217 0.12512746 -0.2280083 0.05322191 -0.16859967
-0.062654644 0.15905565 0.07399377 0.008096874 0.19865847 -0.1998932 -0.22958761 -0.15613341
0.09820819 0.17173773 -0.11360344 0.08646393 -0.21977693 0.08656594 0.1277681 0.17026556
0.06474945 0.18789092 0.13441691 0.18758178 0.14461541 0.036116183 -0.1636084 -0.002693653
-0.17536539 -0.12820262 -0.07335594 0.09221542 0.14706194 0.17155007 0.13744593 -0.21332932
-0.06894085 -0.18663743 -0.039189935 0.01823634 -0.033364624 -0.052722335 0.22736302 0.001731664
-0.2426295 0.16334853 0.15572831 0.068541735 -0.034208566 -0.1535689 -0.08492124 -0.07673791
-0.1546418 -0.19163048 -0.15682986 0.05352065 -0.044472277 0.23396203 -0.0964109 -0.09748918
0.074508816 0.16406801 0.13673365 -0.23729834 -0.032773703 -0.09420106 0.024627775 0.071956456
-0.0045986176 -0.044463784 0.05241239 0.06250736 -0.059889406 0.1820482 0.16070172 0.08255753
-0.20355767 -0.18041271 0.11342853 -0.003168255 -0.09133226 -0.13861358 -0.08323857 0.04585558
-0.19825715 0.2042628 0.1421735 -0.20515707 -0.025382668 0.18518448 -0.15414512 -0.19571054
0.162691 -0.18662676 0.13438067 -0.037510157 0.032973886 0.063867 -0.18834808 -0.22991419
-0.01795274 -0.19370371 0.048994303 0.043049037 0.1147517 -0.14606202 0.08008328 0.08021051
0.18725866 0.14053574 0.0655919 -0.05688733 -0.21166223 0.19141743 0.043002516 0.20545241
0.12487164 0.16666916 -0.24060446 0.14606941 0.06613934 -0.106171966 -0.04361689 -0.09357384
0.035560966 -0.088299155 0.047238857 0.11173999 0.12354463 -0.043983042 -0.24840587 -0.11950952
-0.13682604 0.04061663 -0.20174366 0.14427426 -0.14595488 -0.14061481 0.024163127 0.117901415
0.2026054 0.0892154 -0.07189441 -0.16767108 0.24344781 -0.13728157 -0.074512005 -0.15189427
-0.22025025 -0.21611539 -0.04955867 -0.0625231 0.11169967 0.008372337 0.14619982 -0.009729236
0.08317548 -0.012657672 -0.006096065 -0.027982354 -0.20357457 -0.17618927 0.16073647 -0.18193325
-0.22131383 0.14421263 0.18689638 -0.19948113 -0.20541304 -0.0843291 0.023222685 0.16258115
-0.18276095 0.12146127 -0.015496105 0.074489355 -0.15828511 -0.02237168 0.17101935 -0.11860782
00000000: 80e1 6cbc 1877 133d 94b7 733e f0c5 63be
00000010: 70e9 a2bc 30bc 27bd fcc8 17be d050 77bd
00000020: 3029 033d 4017 773c 4e3e 01be b845 debd
00000030: 3097 1dbe 78ef 573d 2054 70bd 54e7 f83d
00000040: 6ceb 7fbe 36e7 50be e8a7 b03d fa93 793e
00000050: 2851 7cbe 10be 75be 3862 003d b0f0 dabd
00000060: 408d c23d 00d8 4dba 302a 62be 4cbb b73d
00000070: 204d 5bbc 302d 6bbe 6011 39bd bc1e 49be
00000080: c887 883d 1886 3ebe 2e9e 28be 009c 8a3b
00000090: 4066 c1bc 304d 643e a0cc d13d 9a60 67be
000000a0: c0a2 1d3e 20f7 c3bc 9eb0 57be 801d 19bb
000000b0: 8048 963c ea65 2abe d69f 52be 1056 853d
000000c0: 6013 09bc d0f0 fa3c 207a 093e cc39 77be
000000d0: 14b0 bdbd 407b b0bd 1e33 313e 0c0e febd
000000e0: 861a 6bbe 2881 053e 10dd 84bd f871 10be
000000f0: d070 3d3d d044 803d 50dd 0f3d 40a1 6b3e
00000100: c2d9 003e e059 393d c8c4 443e 20ca b43c
00000110: c8a2 b0bd 6690 54be 32fa 77be 7479 3a3e
00000120: 5c1e 893d 743e 503e 60eb 22be c44b 8dbd
00000130: 6a21 003e 027b 69be 38ff 593d 64a5 2cbe
00000140: 1451 80bd 7cdf 223e 0c8a 973d c0a8 043c
00000150: 206d 4b3e ceb0 4cbe 0419 6bbe 70e1 1fbe
00000160: 6021 c93d 04dc 2f3e eca8 e8bd 0014 b13d
00000170: 340d 61be 7c49 b13d a4d5 023e 185a 2e3e
00000180: 5c9b 843d 7a66 403e 96a4 093e 7015 403e
00000190: 1016 143e 90ee 133d f688 27be 0088 30bb
000001a0: fc92 33be 8c47 03be a43b 96bd 70db bc3d
000001b0: 6897 163e d2aa 2f3e a0be 0c3e 0073 5abe
000001c0: dc30 8dbd e21d 3fbe a085 20bd 6064 953c
000001d0: 58a9 08bd 60f3 57bd dad1 683e 00f9 e23a
000001e0: de73 78be d644 273e 3e77 1f3e 9c5f 8c3d
000001f0: 481e 0cbd 2a41 1dbe 30eb adbd c428 9dbd
00000200: 6c5a 1ebe c83a 44be 0298 20be 7838 5b3d
00000210: 9028 36bd be93 6f3e 1473 c5bd 68a8 c7bd
00000220: 1498 983d 7201 283e e803 0c3e 56fe 72be
00000230: b83d 06bd 7cec c0bd 30c0 c93c e85d 933d
00000240: 00b0 96bb a81f 36bd 60ae 563d dc03 803d
00000250: 984e 75bd d86a 3a3e fe8e 243e ec13 a93d
00000260: 6c71 50be 1cbe 38be 384d e83d 80a2 4fbb
00000270: 680c bbbd b8f0 0dbe fc78 aabd 10d3 3b3d
00000280: ec03 4bbe 442a 513e ee95 113e b214 52be
00000290: 50ef cfbc 00a1 3d3e 38d8 1dbe 5868 48be
000002a0: 7898 263e 161b 3fbe 169b 093e 40a4 19bd
000002b0: a00f 073d b4cc 823d 52de 40be a06e 6bbe
000002c0: a011 93bc 445a 46be 40ae 483d 3054 303d
000002d0: f002 eb3d 4891 15be b402 a43d 6845 a43d
000002e0: bcc0 3f3e 9ae8 0f3e 0c55 863d b002 69bd
000002f0: fcbd 58be ee02 443e 6823 303d 1e62 523e
00000300: b4bc ff3d 52ab 2a3e 0461 76be 3893 153e
00000310: 1074 873d b070 d9bd a0a7 32bd a4a3 bfbd
00000320: 60a8 113d 30d6 b4bd 887d 413d f0d7 e43d
00000330: f804 fd3d 9027 34bd 1c5e 7ebe 68c1 f4bd
00000340: 201c 0cbe a05d 263d e495 4ebe a2bc 133e
00000350: 3275 15be 54fd 0fbe c0f1 c53c 4c76 f13d
00000360: ca77 4f3e 90b6 b63d 603d 93bd f8b1 2bbe
00000370: 624a 793e 8a93 0cbe c099 98bd 2c8a 1bbe
00000380: 4889 61be 5a4d 5dbe 08fe 4abd 1c0c 80bd
00000390: ccc2 e43d 202c 093c 68b5 153e 6067 1fbc
000003a0: e857 aa3d 2062 4fbc 80c1 c7bb 403b e5bc
000003b0: da75 50be f66a 34be 1a98 243e b64c 3abe
000003c0: 18a0 62be 7aac 133e c461 3f3e c844 4cbe
000003d0: cc57 52be bcb4 acbd 803d be3c ac7b 263e
000003e0: b025 3bbe b0c0 f83d 60e3 7dbc e08d 983d
000003f0: 7e15 22be d044 b7bc b21f 2f3e a8e8 f2bd

encoder.blocks.1.skip.bias f4 [32]
0.20622644 -0.10407299 -0.08615211 -0.17989561 -0.15205485 -0.19494024 0.10689071 0.11324817
0.15685838 0.14150411 0.12985271 -0.108323604 0.21999344 0.22734904 -0.028926134 -0.13652882
0.0485256 -0.22952813 0.13916412 -0.008984834 -0.057563424 0.022999227 0.07788575 -0.13335592
0.21403459 0.13978052 0.24326918 -0.12567228 0.13662723 -0.14367929 0.1794093 -0.12579626
00000000: 062d 533e 3824 d5bd 8470 b0bd 8e36 38be
00000010: 44b4 1bbe 6a9e 47be 84e9 da3d a8ee e73d
00000020: 7c9f 203e 74e6 103e 1cf8 043e c4d8 ddbd
00000030: f645 613e 30ce 683e 80f6 ecbc 36ce 0bbe
00000040: c8c2 463d 6c09 6bbe 0a81 0e3e 2035 13bc
00000050: a0c7 6bbd e068 bc3c 9082 9f3d 748e 08be
00000060: e22b 5b3e a022 0f3e 8e1b 793e 3cb0 00be
00000070: 02e8 0b3e aa20 13be 12b7 373e bcd0 00be

encoder.blocks.2.conv.0.weight f4 [64, 32, 3, 3]
0.01032617 0.10214379 -0.052145574 -0.11348019 0.098698966 0.073507644 -0.14768587 0.019204397
0.09231876 -0.013364971 0.015579522 0.022776023 -0.042542107 0.08736209 0.050799698 -0.06462807
0.04972136 0.047657855 -0.009092426 -0.055878002 -0.030647304 0.0032080084 -0.06409389 -0.08161483
-0.050290994 -0.025110675 0.016455354 -0.03831208 -0.047843095 -0.09564733 -0.0015598247 -0.013371785
0.03651247 -0.02869119 -0.023936924 0.010655563 0.04588097 0.04342137 -0.009971751 -0.02733598
0.07916448 -0.028212052 0.0028306616 0.009451529 0.092159405 0.11395977 0.09638702 -0.0074309343
0.12521526 0.14548619 0.012236344 0.012747285 0.09492696 0.06524532 -0.041262664 0.022135051
0.034570824 -0.012310931 0.067857824 0.058559105 0.062907554 0.026610339 0.017385932 0.04626275
0.0054213176 -0.04759624 -0.055566475 0.035577077 0.04876288 -0.10343064 0.038839195 0.11976518
0.04080611 0.018962406 0.08389622 0.053718053 0.0037755647 0.045854867 0.031912427 0.019307744
0.035141185 -0.054635953 0.036525194 0.053186744 0.0013599688 -0.011083758 -0.02931041 0.015900217
0.050399415 -0.0143928975 0.02402871 0.010367087 -0.02151189 0.064692624 -0.03556241 0.029555297
0.07125384 0.003953775 -0.033265796 -0.061278056 0.01841481 -0.018902402 0.001436618 0.06978168
0.009827857 0.028486809 0.008875162 0.046333592 0.0062346673 -0.017861312 -0.08853758 -0.03451364
0.026179746 -0.0470216 0.030707557 0.0871285 -0.06456948 0.07091978 0.008223306 0.025573233
0.024680778 0.053057026 -0.004785795 -0.07616312 0.014187223 0.07222637 0.03548344 0.014272466
0.030235495 -0.017604092 -0.015991 -0.0011189451 0.0008131338 -0.020107783 -0.020620985 0.041998897
0.012894716 -0.003343296 0.033016518 0.08907991 -0.025663508 -0.060779087 0.04567908 0.02754786
-0.09209399 0.010229262 -0.051605497 -0.02630814 -0.065599576 -0.044019174 -0.0057920273 0.045213822
7.5671276e-05 0.0074750916 0.038383234 0.032459136 0.08058624 0.012114716 -0.015646739 0.114933856
0.039994124 0.09332423 0.1103357 0.094038665 -0.0142173795 0.005242885 0.089641556 -0.0070312894
-0.05673074 0.09474699 0.025771666 0.04054886 0.072183765 0.03951742 -0.079987705 -0.01564498
0.010478607 0.021328172 -0.010779256 0.021068206 -0.09082423 -0.052045964 -0.094986245 -0.022501517
0.007522996 -0.07205031 -0.052221254 -0.028304735 -0.09569305 0.017692497 -0.011108269 0.07584508
0.06404483 0.011881939 0.08602566 0.07676372 0.09257362 0.06662283 0.030817164 -0.04010155
-0.030415691 0.04948921 0.0379131 -0.03799959 -0.019739762 0.026955519 -0.04098492 0.0625901
0.0039377534 -0.016520485 0.037684556 0.012785557 -0.02089113 0.07556149 0.04492472 -0.06526045
-0.014297293 0.056120604 -0.018798102 -0.032705393 -0.015374619 -0.018651353 -0.072798096 -0.008846656
0.020710709 -0.01062202 -0.0199962 -0.039923377 -0.09219095 0.013445059 -0.008600928 -0.0468689
0.01770655 0.0027883765 0.031966206 0.066197805 -0.09037102 -0.08399217 0.0547297 -0.011216275
-0.10377558 -0.026289938 0.1032267 -0.10883899 -0.018303366 -0.065956675 -0.050871328 -0.05542613
-0.043206673 -0.020319972 0.019292869 -0.07180533 0.073974736 0.024279743 -0.07998098 0.03278501
00000000: 192f 293c c330 d13d 9996 55bd 4d68 e8bd
00000010: af22 ca3d 2d8b 963d f73a 17be 8a52 9d3c
00000020: 9e11 bd3d c0f8 5abc 4041 7f3c c894 ba3c
00000030: a240 2ebd e5ea b23d 5813 503d b95b 84bd
00000040: a0a8 4b3d e234 433d 66f8 14bc 55e0 64bd
00000050: 0e10 fbbc 733d 523b a843 83bd ad25 a7bd
00000060: eefd 4dbd e7b4 cdbc 61cd 863c 21ed 1cbd
00000070: 1ff7 43bd bfe2 c3bd 0873 ccba 5515 5bbc
00000080: 1a8e 153d c909 ebbc 5e17 c4bc ac94 2e3c
00000090: afed 3b3d 9bda 313d 8e60 23bc b5ef dfbc
000000a0: fd20 a23d f61c e7bc 9f82 393b 96da 1a3c
000000b0: 12be bc3d bd63 e93d 8f66 c53d 327f f3bb
000000c0: 6e38 003e 55fa 143e f27a 483c fdd9 503c
000000d0: 1169 c23d 579f 853d 0a03 29bd 9154 b53c
000000e0: 239a 0d3d cab3 49bc 0bf9 8a3d acdb 6f3d
000000f0: add5 803d edfd d93c f16c 8e3c 027e 3d3d
00000100: 4fa5 b13b 46f4 42bd ac99 63bd 45b9 113d
00000110: 96bb 473d 72d3 d3bd d915 1f3d 7247 f53d
00000120: 4f24 273d 0c57 9b3c c8d1 ab3d 7607 5c3d
00000130: 776f 773b 50d2 3b3d 9bb6 023d 462b 9e3c
00000140: 34f0 0f3d f3c9 5fbd 719b 153d 58da 593d
00000150: fb40 b23a a798 35bc 631c f0bc 2c41 823c
00000160: 9e6f 4e3d 30d0 6bbc dbd7 c43c b7da 293c
00000170: b439 b0bc 917d 843d e4a9 11bd f31d f23c
00000180: 89ed 913d ab8e 813b b741 08bd b3fe 7abd
00000190: a8da 963c 36d9 9abc e74c bc3a b3e9 8e3d
000001a0: 0505 213c 2b5d e93c 2169 113c 4bc8 3d3d
000001b0: 2e4c cc3b e351 92bc 3153 b5bd 2d5e 0dbd
000001c0: e876 d63c b999 40bd 6a8e fb3c 6d70 b23d
000001d0: 013d 84bd 643e 913d 0cbb 063c f57e d13c
000001e0: 582f ca3c 5352 593d 29d2 9cbb 69fb 9bbd
000001f0: 8771 683c 6beb 933d 1557 113d 10d7 693c
00000200: 6eb0 f73c 7536 90bc 8fff 82bc 91a9 92ba
00000210: 7c28 553a 14b9 a4bc 57ed a8bc 0907 2c3d
00000220: 5c44 533c 331b 5bbb 543c 073d 876f b63d
00000230: 473c d2bc 7ef3 78bd fd19 3b3d 0dac e13c
00000240: c69b bcbd a298 273c 4960 53bd 2b84 d7bc
00000250: 1259 86bd 734d 34bd 0ccb bdbb 2132 393d
00000260: b5b1 9e38 9df1 f43b bd37 1d3d dff3 043d
00000270: 660a a53d cd7c 463c 972d 80bc 7162 eb3d
00000280: e1d0 233d c620 bf3d aff7 e13d 5897 c03d
00000290: 03f0 68bc 82cc ab3b fe95 b73d bb66 e6bb
000002a0: 7e5e 68bd b60a c23d 1a1f d33c 9016 263d
000002b0: 15d5 933d 05dd 213d 98d0 a3bd e729 80bc
000002c0: 77ae 2b3c 6bb8 ae3c 7a9b 30bc 3b97 ac3c
000002d0: 0e02 babd 262e 55bd 2688 c2bd 1a55 b8bc
000002e0: 7783 f63b 1d8f 93bd f4e5 55bd 55df e7bc
000002f0: b8fa c3bd dbef 903c 75ff 35bc aa54 9b3d
00000300: f029 833d 77ac 423c 392e b03d 4c36 9d3d
00000310: 3d97 bd3d 8d71 883d 4774 fc3c 8641 24bd
00000320: 542a f9bc 33b5 4a3d c44a 1b3d 75a5 1bbd
00000330: 48b5 a1bc d2d1 dc3c cedf 27bd 3d2f 803d
00000340: 4508 813b f855 87bc 1f5b 1a3d 837a 513c
00000350: e023 abbc fcbf 9a3d fc02 383d 45a7 85bd
00000360: 313f 6abc b8de 653d 7afe 99bc 17f6 05bd
00000370: d3e5 7bbc b9ca 98bc 2b17 95bd 91f1 10bc
00000380: 81a9 a93c fb07 2ebc 12cf a3bc b286 23bd
00000390: 9cce bcbd aa48 5c3c e8ea 0cbc 9bf9 3fbd
000003a0: 540d 913c 32bd 363b ffee 023d b792 873d
000003b0: 7114 b9bd 1604 acbd 402c 603d 78c4 37bc
000003c0: 4b88 d4bd ff5d d7bc 8568 d33d fae6 debd
000003d0: f1f0 95bc 4b14 87bd 745e 50bd 8206 63bd
000003e0: 7bf9 30bd 1276 a6bc 140c 9e3c ac0e 93bd
000003f0: 1180 973d 50e6 c63c 11cd a3bd 9349 063d

encoder.blocks.2.conv.0.bias f4 [64]
0.07483932 -0.036350068 -0.010727354 0.0605385 0.042417563 0.039516706 -0.005789926 0.04922435
-0.018528437 0.021407329 -0.030724507 0.0013850209 0.019139804 0.027618488 0.07191372 -0.091067724
0.029283749 0.009629585 0.028700104 0.019683812 -0.017094564 -0.024128849 0.027460437 0.04595492
-0.052382264 0.0028052765 -0.021905594 0.0009787984 -0.037990626 0.06749814 0.06364407 -0.043028783
-0.0052970643 0.057135444 0.067228206 -0.040374402 0.048632007 0.066266075 -0.026517613 0.054841787
0.039933786 -0.0161074 -0.0784181 -0.049567383 0.023446668 0.08502042 0.060673296 -0.014818791
-0.019655284 0.036856093 0.087956734 0.092652455 0.07707693 -0.002465067 -0.066592626 0.07317671
0.08652512 0.04807999 0.07582219 -0.077154174 0.039578326 -0.027757196 -0.03332599 -0.0075018457
00000000: 5b45 993d cfe3 14bd c9c1 2fbc 38f7 773d
00000010: 0abe 2d3d 45dc 213d 6bb9 bdbb 799f 493d
00000020: f3c8 97bc 6c5e af3c f6b1 fbbc 9789 b53a
00000030: 14cb 9c3c 2b40 e23c 8047 933d b781 babd
00000040: 79e4 ef3c 68c5 1d3c 7b1c eb3c f23f a13c
00000050: e609 8cbc dda9 c5bc b6f4 e03c 3a3b 3c3d
00000060: c98e 56bd bbd8 373b 5c73 b3bc 064b 803a
00000070: 0f9c 1bbd 773c 8a3d d257 823d f33e 30bd
00000080: ff92 adbb db06 6a3d f1ae 893d a15f 25bd
00000090: 5b32 473d 82b6 873d 773b d9bc c8a1 603d
000000a0: 9c91 233d abf3 83bc ab99 a0bd 2b07 4bbd
000000b0: 3a13 c03c 301f ae3d 9084 783d 84ca 72bc
000000c0: 1e04 a1bc 6af6 163d a922 b43d 92c0 bd3d
000000d0: 82da 9d3d f68c 21bb b761 88bd acdd 953d
000000e0: 1534 b13d 86ef 443d aa48 9b3d 0203 9ebd
000000f0: e21c 223d 0f63 e3bc d580 08bd 0bd2 f5bb
