toyshapes/pinets_ensemble/ensemble_4/model_4.pth (torch, 466407 bytes, 71 tensors)

encoder.blocks.0.conv.0.weight f4 [16, 1, 3, 3]
00000000: cf99 7c3d 8f9d bd3d 633e 6abe 0e16 50be
00000010: 15ec 99be 35ea 9cbe b592 b93e 31de a73e
00000020: 6fe9 f53d ea86 883e 2744 51be d6f9 83be
00000030: 6192 843e 0bfd cdbd 71f7 c2bc f54e 013e
00000040: 5bd0 053e 66d7 8cbe f85a 24be 754d a3be
00000050: 2fa1 e5bb 0b2c 11be 1136 723d 778e 963b
00000060: f3dc 9d3e e811 3e3d c8a6 383e 990b a73c
00000070: 9c50 093e be3a 90be fc57 ac3e a9c4 2a3e
00000080: aede 81be 79c0 c43d ba30 403e 622a a3be
00000090: 18bb 38be 8a44 833e 4d91 8f3e f56f 48bd
000000a0: db76 c83d 2ca7 3c3e c71b bd3d 4ace c4be
000000b0: dac1 8abe 4189 363e 979a b33d 2dbc 7cbe
000000c0: 40f8 20be eff3 b93e 0f9d 8cbe c05c fe3d
000000d0: 655b 353e b71b c3be 8516 b9be f4cb 5a3d
000000e0: 5399 5b3e ea0d 903e acd2 40ba 2b51 7b3e
000000f0: c68c 68be 34a5 473e dcf2 b3be f950 553e
00000100: 20bb 153d cdbe 6b3e 9b3a d53d faba 86be
00000110: 7fcf d8b9 aacf aabb c93f 8a3c 1131 adbe
00000120: a544 44be ded9 edbd 7e1d 36be a32f 9c3e
00000130: 2ed8 703e 490d 343e c31c b9bd 7eee 85be
00000140: 10c5 dd3d 921a a43e 8a11 173e 6bbd 95be
00000150: 0656 3f3c 81f5 ce3c 4284 643e ea58 653e
00000160: ef33 60be 608f 9bbe 51af 50bd e11a 5d3d
00000170: e73a c1bd 3e4d 593e 5d33 e23e 0e98 b2be
00000180: aded e0be 114d 573d 0f57 d73d 4057 98be
00000190: b7dc 4cbe 8195 6d3e 0d52 963e 604e 643c
000001a0: 24f5 79be a019 243e 2476 09be 23b1 4ebe
000001b0: 833a a6bd d0e4 1abe 7a9b a73d 8116 283c
000001c0: e430 92be 3977 8bbc b5ae e63d 6ded 9b3e
000001d0: a9ed 0a3e 29a0 7cbe 2771 e3bb 3e6e 653c
000001e0: ef91 49bd d8f4 1bbe 765d 863d 2a6d f63b
000001f0: aca3 b93e 9800 00be 17f4 67bd 6255 713d
00000200: d89f b2bd 89b0 ca3d ca9d cebd 12ac d63e
00000210: eec5 babd 4001 63be 1f3f 2c3d 0e15 3cbd
00000220: f22f 883e 9d1d bcbd 0589 813e 59aa d7bd
00000230: eda8 553a 4c4e 953d fa85 c1be 3425 c13c
0.06167012 0.092585675 -0.22875361 -0.20320913 -0.3006293 -0.30647436 0.3624474 0.32786706
0.120074145 0.2666543 -0.20436154 -0.25776547 0.25892928 -0.1005803 -0.02379963 0.12627776
0.13067763 -0.27508086 -0.16050327 -0.31895033 -0.00700774 -0.14176957 0.059133593 0.00459462
0.30832633 0.046403795 0.18032372 0.020391272 0.13409656 -0.28169817 0.33660877 0.16676582
-0.25365204 0.09607024 0.18768588 -0.31868273 -0.1804012 0.2563823 0.28040543 -0.048934896
0.09788295 0.18423146 0.09233814 -0.38438636 -0.27101022 0.17825796 0.0876972 -0.24681158
-0.157197 0.3631892 -0.27463576 0.124200344 0.17710645 -0.38107082 -0.36149994 0.05341716
0.21445207 0.28135616 -0.00073556113 0.24542682 -0.22709951 0.19496614 -0.35146224 0.2083167
0.03655541 0.23022003 0.10411569 -0.26314527 -0.00041353327 -0.0052127438 0.016876118 -0.33826497
-0.19166811 -0.116138205 -0.17784688 0.30505094 0.23519966 0.17583193 -0.09038689 -0.26158518
0.10828602 0.32051522 0.14752784 -0.29246077 0.011678224 0.02526355 0.22316077 0.223972
-0.21894811 -0.30382824 -0.050948445 0.05398071 -0.09435063 0.21220872 0.44179812 -0.34881634
-0.43931332 0.05256373 0.10514652 -0.29754066 -0.20006071 0.23201562 0.29359475 0.013934702
-0.2440992 0.160254 -0.13423973 -0.2018476 -0.08116629 -0.15126348 0.08183952 0.010259272
-0.28552926 -0.017024623 0.112637915 0.3045458 0.13567223 -0.24670471 -0.006940979 0.014003335
-0.04921144 -0.15230119 0.06560795 0.0075203376 0.36257684 -0.12500226 -0.056629267 0.058919318
-0.08721894 0.09896953 -0.100886896 0.41928154 -0.09119783 -0.22168446 0.042052384 -0.045918517
0.2659908 -0.09185336 0.2529985 -0.10530538 0.0008150477 0.072903246 -0.37797529 0.02357731

encoder.blocks.0.conv.0.bias f4 [16]
00000000: 5213 6e3e 26e2 fc3d 4d75 88bd ae4f aebd
00000010: 1d33 fb3d 7436 343d 8b04 0dbe eb78 903d
00000020: 540f 52be 1acd e2bc 1773 1bbe c0d5 38be
00000030: 8c8a 86be 8367 573e a14c d7bb acbc f9bd
0.23249558 0.12347822 -0.06662998 -0.085112914 0.122656085 0.043997243 -0.13771264 0.07054313
-0.2051366 -0.02768569 -0.15180622 -0.18050289 -0.26277578 0.2103558 -0.006570414 -0.121941894

encoder.blocks.0.conv.1.weight f4 [16]
00000000: 8373 803f d220 873f edd2 813f 8a54 6c3f
00000010: 39b1 863f 1797 8c3f 990e 7b3f 6994 8b3f
00000020: a2a9 853f 9c4e 8f3f 86a2 893f b67c 6c3f
00000030: 727e 683f 9be0 773f d818 913f 9de1 8f3f
1.0035251 1.0556891 1.0142494 0.92316496 1.0522834 1.0983609 0.9806915 1.0904666
1.0442393 1.1195865 1.0752723 0.92377794 0.9081794 0.96827096 1.1335707 1.1240727

encoder.blocks.0.conv.1.bias f4 [16]
00000000: d44d ae3b 996d 0abe f010 56bc 2843 aa3c
00000010: b2dc 03be e2b0 23be 9dee 0e3e f63b 16be
00000020: f0ca c13c 2233 3d3d e88c 0abe 0f47 86bd
00000030: dc7f 8dbd f88a c8bc fc06 12be 4c89 c7bc
0.0053193364 -0.1351837 -0.013065562 0.020783976 -0.12877157 -0.15985444 0.13958211 -0.14671311
0.023656338 0.046191342 -0.13530314 -0.06556522 -0.06909153 -0.024480328 -0.14260477 -0.02435746

encoder.blocks.0.conv.1.running_mean f4 [16]
00000000: 4275 5f3e ee8e a93d c189 97bd f21f 2bbd
00000010: bcd4 0c3e 0df3 85bc ed5f eebd 2e64 903d
00000020: 29be 4abe fe1a d53b 6ece 22be d78b c1be
00000030: 0cbb 34be 18d6 263e 3ef3 dcbb 9c09 e6bd
0.21822074 0.08279215 -0.07399321 -0.041778512 0.13753027 -0.016351247 -0.1163939 0.07050358
-0.19799103 0.006503462 -0.15899059 -0.37802002 -0.17649478 0.16292608 -0.006742864 -0.112323016

encoder.blocks.0.conv.1.running_var f4 [16]
00000000: e38f 0f3c c032 033c 0644 b63b 0c61 253c
00000010: 88de bf3b 7fb6 033c 07cf 623b 6cfe 903b
00000020: a155 3a3b 96ab c83b 4ccb 3f3b 1560 093c
00000030: 1348 9a3b 8266 243b c88a 1d3b 2f68 143b
0.008762333 0.008007705 0.0055623082 0.010093939 0.005855385 0.008039116 0.0034608261 0.0044248607
0.0028432386 0.0061239703 0.0029265461 0.008384724 0.004708299 0.0025085513 0.002403902 0.0022645106

encoder.blocks.0.conv.3.weight f4 [16, 16, 3, 3]
00000000: 55c6 093c 0db9 48bd a9ad 9bbd f941 1a3d
00000010: 3c82 2abd d618 42bd 4d02 abbd cace 21bd
00000020: 86d2 3abe 2bfc 5dbe 0478 c3bd 4792 09be
00000030: 5c47 58bd 2b86 0fbe 2123 08be 0e8d 8ebd
00000040: 60e9 23be fdd2 3dbe dff6 febd 2eef 47bd
00000050: 6416 2ebd e6e6 3bbd a8c6 00be 7c28 a9bd
00000060: ed47 15be 2ec2 08be 854c bfbd 0bb0 7bbd
00000070: ee14 78bc 42ce ddbd 01ef 42bd f098 bebb
00000080: 14f2 013d b167 cabd a99d 4abd 280d febc
00000090: e76d 26be 5214 aabd 7ee0 8cbd a80f 36be
000000a0: 7ceb 4bbd 85df 49be 764b 06be 17e3 0cbd
000000b0: 93cd 7ebe 28e1 f5bd c29d 43be d1f0 04be
000000c0: 15c3 a3bd 30ad 4ebd 1ecc e2bd 1825 00be
000000d0: fca5 4dbe 391d 0abe 53e1 6fbc 3fc0 123e
000000e0: bd4b b93c 4970 4ebd 0620 ac3d 5c83 0a3e
000000f0: 6810 523e 0d94 5ebd aa36 1fbd 6ad8 1fbe
00000100: 84b9 f7bd e54e 7bbe 7379 18bd 0ab0 2ebe
00000110: e238 ccbd 3fdc a23d 8280 52be d7ff 4fbe
00000120: da02 7bbd 72b2 8ebd 27e0 bcbd c0a0 173c
00000130: 3a77 10be 1f77 d5bd 81d6 84bd 492a 533d
00000140: 9102 f6bd 3712 59bd a5c5 15be 964a a7bd
00000150: 1942 08bd 7d92 963b fc6b 13be 8543 ebbc
00000160: 641d 2cbe 430e 27be 0737 11be d2bc 003d
00000170: c133 51be 519f 46be acdc 1cbd 33d5 02be
00000180: fd19 033c 215c e5bd 5db2 07be 47e8 a5bd
00000190: 75fc 353d 0321 93bc fb4a b9bc eb27 573c
000001a0: ce5b 093d 6cd9 0ebd fe33 c2bb a0e4 d8bc
000001b0: fccc bdbd 2fe4 613c d83f 06bd db07 d2bc
000001c0: 2056 06bd 5f06 8f3d 0826 12bd 59f5 a3bd
000001d0: 90dc 243d bb5c 95bd 5469 873d 218e 043d
000001e0: 2874 c5bd db5c 9f3d 7871 cdbd 8b9d d6bd
000001f0: 4a9b 65bd 0af3 2ebe d149 4abe 6a05 00be
00000200: afd4 fcbd e1d4 c8bc 2b3f 29be 160a 86bd
00000210: 76d6 1cbe 1c5a cbbd 2306 09bd d306 8e3d
00000220: f495 a9bd 22ea d73c 5553 8a3d a146 13be
00000230: a47b 043d f2c3 cc3d f2bb 16bd 399a fc3c
00000240: 97b0 8ebd 60f2 93bd 9f08 2fbe 03e4 043e
00000250: 3ca8 293e 22d2 c83b 914c 72bc 95c3 e3bc
00000260: cfd1 5abd fb4d b73d 648a c1bc b97f 9fbd
00000270: 4445 89bd 6080 1c3e 3cae e73c 946f b73b
00000280: 43f2 3a3e 3873 573d 7a3c 3bbe bfe9 e7bd
00000290: 9aa3 12be 02c6 103e 7116 1d3e 4f97 b53b
000002a0: 94c8 323e c9f6 463e 6c9f 093e 2196 c43d
000002b0: 57bf 543d 11d2 58bc 368e 8b3d 10bd 923d
000002c0: 8797 0dbe 91a5 11bd 278d f8bb 48b8 9bbc
000002d0: cb88 833e f3b0 843e 0ee2 643e d283 7d3d
000002e0: eec5 363e 0186 7f3e f627 a7bd f955 fd3d
000002f0: 50f9 013e 1c96 7e3d ea53 8a3d cd86 3fbe
00000300: 1242 0f3e 84fb e53c 65aa 3abe 01bf 003d
00000310: 8e82 e53d e7e5 37be 6c15 2c3e e862 863d
00000320: ceaf 9e3e 9628 dfbc 631d 17bd 67dc 9d3d
00000330: 200b 043d 07ef 283e cc67 393e 634a 923e
00000340: a8b6 063e 98f9 063e e8c0 983e 6a52 973e
00000350: 6700 853e 3322 5f3d 8d36 183e f7dc 2abc
00000360: 93ff 1f3d a430 363d 1018 52bd 791d a4bd
00000370: d996 07be 332b 83bc d951 563e e680 c93d
00000380: 38b6 e03d 366e a83a 6886 053d 709a 2d3c
00000390: 1bf3 b3bd e80d bf3d b125 12bd d1c7 26bd
000003a0: 3543 7abd 65ac 76bd 6936 0c3d f407 62bd
000003b0: e527 193e 0e51 7f3d e0bf 25be 4c6f 9e3d
000003c0: 3959 08be a961 03be aea1 233b 6c46 7cbc
000003d0: 552f 7f3d d954 aebd 5bc4 e73d 3375 b6bc
000003e0: ac05 6fbb bbc0 043e cc09 763c e4f8 223b
000003f0: 2e9f 88bc 99b9 77bd 6706 103d 8c3e 28bd
0.008409102 -0.049004603 -0.076014824 0.037660573 -0.041628107 -0.047386967 -0.08350048 -0.03950385
-0.18244371 -0.21678226 -0.095443755 -0.13434707 -0.05280243 -0.14016025 -0.1329465 -0.06960498
-0.16006994 -0.18537517 -0.12449431 -0.048812084 -0.042501822 -0.0458745 -0.12575781 -0.08259675
-0.14578219 -0.13355324 -0.09340767 -0.061447185 -0.015141709 -0.10830356 -0.047591213 -0.0058165714
0.031725004 -0.09883059 -0.049466763 -0.031012133 -0.16252862 -0.08304657 -0.06878756 -0.1777941
-0.049785122 -0.19714172 -0.13114724 -0.034396257 -0.24883108 -0.12005836 -0.19103149 -0.12982489
-0.07996193 -0.050458133 -0.110740885 -0.1251415 -0.2008285 -0.1348771 -0.014641124 0.14331149
0.022619123 -0.050400052 0.084045455 0.13526672 0.20514071 -0.05434041 -0.03887049 -0.15609899
-0.12095931 -0.24541815 -0.037225198 -0.17059341 -0.09971787 0.07952165 -0.20556834 -0.20312439
-0.061282016 -0.069676295 -0.09222441 0.009254634 -0.14107981 -0.10423111 -0.06486226 0.051554
-0.12012208 -0.052995887 -0.14626177 -0.08168523 -0.03326616 0.0045950995 -0.14396662 -0.02871872
-0.16808087 -0.16314034 -0.14181148 0.031430073 -0.20429899 -0.19396712 -0.038296387 -0.12776642
0.008001802 -0.11199213 -0.13251634 -0.08100944 0.044430215 -0.017960077 -0.022618761 0.013132076
0.033534817 -0.03487532 -0.005926608 -0.026476204 -0.09267613 0.013787313 -0.03277573 -0.025638511
-0.03279698 0.06983637 -0.0356808 -0.08005781 0.040249407 -0.072930776 0.066118866 0.032362107
-0.09641296 0.07781383 -0.10031408 -0.10479268 -0.0560563 -0.170849 -0.19754721 -0.12502065
-0.12345254 -0.024515571 -0.16528003 -0.065448925 -0.15316185 -0.099292964 -0.033453118 0.06934895
-0.082805544 0.02635676 0.067541756 -0.14382412 0.032344475 0.09998311 -0.036800332 0.030835258
-0.069672756 -0.07223964 -0.17093132 0.12977605 0.16568083 0.0061285654 -0.014788763 -0.027803222
-0.053422745 0.089504205 -0.02362556 -0.07788033 -0.067026645 0.15283346 0.028281324 0.005598018
0.18256478 0.052600116 -0.18284789 -0.113238804 -0.14320222 0.14138034 0.15340592 0.005541719
0.17459327 0.19430079 0.13439721 0.09598947 0.05194029 -0.0132336775 0.06814234 0.07164967
-0.13827334 -0.035558287 -0.007585186 -0.01900877 0.25690302 0.25916252 0.22351858 0.06189329
0.17848942 0.24953462 -0.08161919 0.123699136 0.12692761 0.062154874 0.067542866 -0.18703766
0.13990048 0.028074034 -0.18229063 0.031432156 0.11206542 -0.17958795 0.16805047 0.065618336
0.30993503 -0.027241033 -0.03689326 0.07708054 0.032237172 0.16497432 0.18106002 0.28572378
0.13155615 0.1318115 0.29834676 0.29555064 0.2597687 0.054475974 0.1486456 -0.010428659
0.039062094 0.04447998 -0.05129248 -0.08013434 -0.13241138 -0.01601181 0.2092966 0.098390386
0.109722555 0.0012850228 0.032598883 0.010595903 -0.08786603 0.09328824 -0.035680477 -0.040717904
-0.06109925 -0.060223002 0.034231577 -0.055183366 0.14956625 0.06233316 -0.16186476 0.07736072
-0.13315286 -0.12830223 0.0024968195 -0.015397649 0.062301 -0.08512277 0.11316749 -0.022272682
-0.0036471887 0.12964146 0.015016984 0.0024867589 -0.016677465 -0.060479734 0.035162356 -0.041075274

encoder.blocks.0.conv.3.bias f4 [16]
00000000: 5546 b3bc 1f8d b63c 5538 783c 9a25 a73d
00000010: 5a70 993d 2930 ac3c 54c1 babd 0346 a43d
00000020: 4c5d 943d 589f f53c dba2 5e3d df03 173c
00000030: 6768 1bbb f373 71bc d63e 03bc 7463 df3c
-0.021884123 0.022284089 0.015150149 0.08161469 0.074921325 0.021019058 -0.09118906 0.08021166
0.072443575 0.029983208 0.05435453 0.009217232 -0.0023713352 -0.014737117 -0.008010587 0.027269103

encoder.blocks.0.conv.4.weight f4 [16]
00000000: 2a6d 6d3f 61f4 973f 27d9 8a3f b55d 4c3f
00000010: 6738 843f 75a7 983f 2bec 5c3f 97e7 613f
00000020: 6963 6e3f e11d 6f3f 7504 8c3f 1ca4 693f
00000030: 520b 5a3f 0f4a 8f3f f067 613f 733a 943f
0.92744696 1.1871454 1.084752 0.79830486 1.0329713 1.1926104 0.86297864 0.88244003
0.9312044 0.93404967 1.093886 0.91266036 0.85173523 1.1194476 0.8804922 1.1580337

encoder.blocks.0.conv.4.bias f4 [16]
00000000: baa8 693d c5c4 d43d 99e7 393d cc31 02bd
00000010: 01d4 d93d ebea cabd 3331 b9bd 9bdd 4a3e
00000020: a4d5 b6bd 02ce 2dbd 73a5 203e 5b66 403e
00000030: cfe3 e73d 3621 023e 0fed 863d f2e7 ff3d
0.057045676 0.10389093 0.045386884 -0.03178577 0.1063614 -0.09908088 -0.09042587 0.19811098
-0.089274675 -0.042432792 0.15688114 0.18789046 0.11322748 0.12707981 0.06588184 0.12495412

encoder.blocks.0.conv.4.running_mean f4 [16]
00000000: c0da 02c0 875e d03f 9312 b13f 43e8 12c0
00000010: 3005 f83f e213 99be 6d6d 35c0 703b 0bc0
00000020: ffab 2fbd 180a 183f f886 c63f adf4 28c0
00000030: d4a0 dcbf 104d 843f 080c 0dc0 17d5 ec3f
-2.0446014 1.6278847 1.3833793 -2.2954261 1.9376583 -0.29897982 -2.8348038 -2.1755028
-0.042888638 0.593904 1.5509939 -2.6399338 -1.7236581 1.0336018 -2.2038593 1.850253

encoder.blocks.0.conv.4.running_var f4 [16]
00000000: a179 fb40 ad67 e840 cf3b 0441 b8de 1e41
00000010: 8c5d c240 1c61 8e3f 438c 2141 6c0b 3d41
00000020: 3b56 4d40 dec4 4740 4b9e ce40 c067 7241
00000030: 8dec 0841 1b30 9c40 faa3 1e41 e10d db40
7.8585973 7.2626557 8.264602 9.929375 6.0739193 1.1123385 10.096744 11.815289
3.208388 3.1213908 6.456823 15.15033 8.557752 4.8808722 9.915033 6.845444

encoder.blocks.0.skip.weight f4 [16, 1, 1, 1]
00000000: 90e5 433e 9825 27be 08d4 6bbf ac8e 8b3e
00000010: 06b3 213f 9279 2d3f e012 9bbe 8c14 0cbf
00000020: 80e6 45bf c0f6 40bf d278 3abf a0f9 d2be
00000030: 9080 08bf 8403 7bbf 308d 8a3d 58f0 3bbf
0.1913054 -0.16322935 -0.9212041 0.27257288 0.63163793 0.67763627 -0.30287838 -0.5471885
-0.7730484 -0.7537651 -0.7284061 -0.41206074 -0.5332117 -0.9805224 0.06765211 -0.7341361

encoder.blocks.0.skip.bias f4 [16]
00000000: b81a 5fbf ecf4 6fbf 849e 27bf ac74 593f
00000010: b833 88be ec2b 7dbf 88c6 3abf d00f 703f
00000020: 40c6 19be 36bd 783f 34df 603f 9c20 06bf
00000030: 1c9a f0be dcb2 ff3e 642d d13e ac4e 16bf
-0.87150145 -0.93733096 -0.6547625 0.8494365 -0.26601958 -0.98895144 -0.72959185 0.9377413
-0.15017033 0.9716371 0.8784058 -0.5239351 -0.46992576 0.49941146 0.40854943 -0.58713794

encoder.blocks.1.conv.0.weight f4 [32, 16, 3, 3]
00000000: bf99 4d3d c252 c439 f26b 8ebd 7d22 26bd
00000010: 57b9 d53d a3cc cc3c 9b27 2dbd e9eb af3d
00000020: 8f3a 893c 7959 1abe d3d3 113c 6d8c ecbd
00000030: 62a7 a6be 02cc 07be 0b6b 06be da6c 2dbe
00000040: fb4a c7bd 9f42 4fbe 382b d9bd 7274 70bd
00000050: 94dd e9bc 693e 26be 5dea 09be f4ba c0bd
00000060: aeec a4be 0557 99be accf a5be 07fd d4bc
00000070: 8aa7 41bd 678b 093d f69b 9d3c 88b1 87bd
00000080: 3f1a 4abd 6c44 a5bc 3727 2cbd dcb6 b0bd
00000090: 5694 a2bd b569 e53d 80fc 533d 11e3 60be
000000a0: 25a6 06be 6eb9 13be b6fb a4bd 7732 1fbe
000000b0: 5d5f e6bd 588b 82be 907d d23c 5c6a 1abc
000000c0: f51e a2be 7be3 99be 1647 97bd ae61 cbbe
000000d0: 9ae5 a8be 8b56 48be 7d4c 3a3c 8f7d e13b
000000e0: df0f 16bd 1b6b 0c3e 1133 0c3d 364a 473d
000000f0: a7ec adbc 55d6 a7bc 57cd dd3d 14cd 09be
00000100: b419 b5bd b706 b93c 53bb 05bb d57b e23d
00000110: 10c2 853c 5805 91bd ea5d 9dbc 8951 bdbc
00000120: fcf6 b3bb bee2 683d 12eb 80bc 523e e0bb
00000130: 368a 49bd 986b 70bd 6303 dc3d 26c5 8a3d
00000140: 590f a93d 3867 72bd 67f1 193e fa4d bd3d
00000150: 1db9 6bbd f720 b0bd 8514 b5bd 7d9a 573d
00000160: ba4a b7bd f504 8ebd 5a46 a3bd 10e7 753d
00000170: 160a 2d3d b5bc 9dbe cfbf 23be f45c 82bd
00000180: 74d4 32be 867d 22be b601 59be 23d2 14be
00000190: 2803 d3bd b23a 1abc 1d65 13bc 5d73 73b9
000001a0: 69e0 543d afbd d0bc 9608 263c 9bc8 d53c
000001b0: 7ed9 bcbd 1468 bcbc 003f 72bd 7cfc a7bd
000001c0: f27a 63bc 6695 883d 44d5 01be da2a ad3d
000001d0: f101 d53d 673a 45be 3ef3 1c3d 4b9c a4bd
000001e0: 9431 5cbe 42d6 11be 48a9 6ebe e93e 88be
000001f0: fa0d 30be 1261 5fbe ca43 fb3c 47f8 8ebd
00000200: a5df 76bc 0458 c1ba 67a0 153d 4428 233c
00000210: 146a 25bd 86b9 af3d 9e8e cb3d 4def 7cbd
00000220: f01d e1bd f463 c2bd 71ac 9abe d719 44be
00000230: 2267 26be 5c24 28be f9f0 d1bd 3573 8bbe
00000240: e8f3 993c bcf2 c5bd 01e3 4a3d c976 1abe
00000250: 66b3 03be db50 a0bd 5c76 bbbd 7bd5 68be
00000260: ae4f 93bd a678 25bc 4df2 033e b809 9c3b
00000270: 1e99 8b3d 0997 6b3e d58f 1abd 4f72 473e
00000280: 9644 fb3d 0092 933d a804 c23d 86da 3f3d
00000290: f5d1 fbbd 0254 c83b 44b5 a73d ce6f 5abd
000002a0: a7e4 003e ed81 2cbd 10fd aebc 4226 08bd
000002b0: 1696 d1bc 7774 ba3d 756d f4bd 898b 48be
000002c0: 4d26 fbbd d9db debb 18b4 a2bd c482 30be
000002d0: 4ffa 133e fcfc 1b3e 5268 1bbd 9378 0c3d
000002e0: fa0f 073e cb5f 4f3d bb97 a3bc 3fe1 f53d
000002f0: aa6b 1f3e cabb 603d bf46 ed3d 9085 59be
00000300: 0eee 00be 1b4b fd3d ee38 15be ea04 30be
00000310: b8eb ad3c ef68 43bd 4af6 ed3d 598a f83c
00000320: f20d 783d 3c39 e3bd b3ee d2bc e2d5 5c3d
00000330: 571c 43bd 1599 9dbd bdcf 86bd 7bc9 90bd
00000340: 3130 9abc fd3c 8e3c 7bf3 82be c607 45be
00000350: 4c4a 02bd 00d7 39be 8245 72be 1720 c9bd
00000360: aad6 b5bd 1d4f 4cbd bbf7 19bd d64d 0d3e
00000370: 95b5 f43d 5b58 053e e534 393e 264c 903e
00000380: 9cc3 8a3e bc37 82bd b26b a2bd 0efa c3bd
00000390: 9936 e1bd 016d 67bd 8d77 c0bd 5edb 393d
000003a0: 810a c93d 0448 23bd 306e 9b3d daaa 473d
000003b0: c7ee 3e3c ef1d 863c d051 033e d8ac 583d
000003c0: 8a4c 003e 5b04 563d a6c7 c83d e5f5 9ebc
000003d0: ba5b 0dbd b5a3 d33d 5241 0cbe efe5 1dbe
000003e0: 8447 5dbd e8b4 d1bd 851c 00be bfc6 d1bd
000003f0: a378 da3d 4875 9bbb dd00 4f3e fbe4 0dbe
0.05019545 0.00037445693 -0.06954183 -0.040560234 0.104357414 0.024999922 -0.0422741 0.08589918
0.016751556 -0.15073194 0.0089006005 -0.115502216 -0.32549578 -0.13261417 -0.13126771 -0.16936055
-0.09731098 -0.20240258 -0.106039464 -0.0587048 -0.02854804 -0.16234745 -0.13468309 -0.094106585
-0.32211822 -0.29949203 -0.32385004 -0.02599956 -0.04727892 0.03358021 0.019239407 -0.06625658
-0.049341436 -0.020174228 -0.042029586 -0.08628628 -0.07938449 0.11201803 0.051754475 -0.21961619
-0.13149317 -0.14426205 -0.080558226 -0.15546595 -0.11248658 -0.25496936 0.025694638 -0.009424772
-0.31664243 -0.30056366 -0.073866054 -0.3972296 -0.32987672 -0.19564264 0.011370775 0.006881423
-0.03663623 0.13712732 0.03422839 0.048654757 -0.021231009 -0.020487944 0.10830181 -0.13457137
-0.08842793 0.02258621 -0.0020405843 0.11058775 0.016327888 -0.07081097 -0.01920982 -0.023110168
-0.0054920893 0.056856863 -0.01573709 -0.0068433667 -0.049204074 -0.05869636 0.107428335 0.06775884
0.082548805 -0.05918047 0.15033494 0.092433885 -0.057549585 -0.086000375 -0.088418044 0.052637566
-0.089498 -0.06934539 -0.07972403 0.06003481 0.042245947 -0.30808035 -0.15991138 -0.06365386
-0.17463857 -0.15868196 -0.21192059 -0.14533286 -0.103033364 -0.009413408 -0.008996275 -0.00023217262
0.051971827 -0.025481073 0.010133883 0.026096633 -0.09221171 -0.022998847 -0.059142113 -0.082024544
-0.013884293 0.066691205 -0.1267901 0.08455439 0.10400761 -0.1926056 0.03831791 -0.08037623
-0.21503288 -0.14241889 -0.23306763 -0.26610497 -0.17192832 -0.21814373 0.030671973 -0.06980949
-0.015067969 -0.0014750962 0.036529925 0.009958331 -0.040384367 0.08580308 0.099393114 -0.061751653
-0.10992038 -0.09491721 -0.30209687 -0.19150482 -0.1625028 -0.1642012 -0.1025104 -0.27236333
0.018793061 -0.096654385 0.049532894 -0.15084375 -0.12861404 -0.07827922 -0.09153435 -0.22737686
-0.07192932 -0.010099566 0.12885399 0.0047619008 0.06816314 0.23006834 -0.037734825 0.19477199
0.12268941 0.07205582 0.09473544 0.04683926 -0.122959055 0.00611353 0.081888705 -0.05332928
0.12587224 -0.042116094 -0.021360904 -0.03323961 -0.025584262 0.09104245 -0.1193494 -0.19584478
-0.12263165 -0.00680111 -0.079445064 -0.17237383 0.14450954 0.15233225 -0.037941284 0.034294676
0.13189688 0.050628465 -0.019969812 0.12005853 0.15568414 0.05486659 0.11585759 -0.21242356
-0.1259081 0.12367841 -0.14572498 -0.17189375 0.021230564 -0.047707494 0.116192415 0.030339407
0.060560174 -0.11094901 -0.025748586 0.053914912 -0.04763445 -0.07695214 -0.06582592 -0.07069679
-0.018821808 0.017363066 -0.25576386 -0.19241247 -0.031809136 -0.18148422 -0.23659328 -0.09820574
-0.088788345 -0.049880136 -0.03758977 0.13799223 0.119486965 0.13021986 0.18086584 0.28183097
0.27102363 -0.06358287 -0.079306975 -0.095691785 -0.10996742 -0.05650044 -0.093978025 0.04537522
0.098164566 -0.0398636 0.07589376 0.04874692 0.011653609 0.016371695 0.12824178 0.05289921
0.12529197 0.052250247 0.09803705 -0.019404361 -0.034511305 0.10333959 -0.13696793 -0.15419744
-0.05402328 -0.10239583 -0.1251088 -0.10242986 0.10667541 -0.0047442056 0.20215173 -0.1385688

encoder.blocks.1.conv.0.bias f4 [32]
00000000: 6984 39bd 331b d6bc 4348 c2bd 62d9 8bbd
00000010: c3bd edbc 0d31 713c 7b56 8a3d 0e60 d1bb
00000020: 65ca dd3c d48e 0d3d 7fe7 84bd 869c c53c
00000030: 7fcb a0bc ab7a babc 1198 a6bc b470 eeba
00000040: cab8 843d fac8 79bb b486 033d dc61 603d
00000050: 2496 0abd 84aa f0bc 5a3f 51bd ae8d 0c3d
00000060: 782b 89bd c518 103d afe2 ae3c 5410 66bd
00000070: 630b a5bd 5c7e 63bd 66e5 633d 0eac d1bc
-0.04529229 -0.026136016 -0.09486439 -0.06828572 -0.02902115 0.014721167 0.06754776 -0.0063896244
0.027074048 0.03456004 -0.06489467 0.024122488 -0.019628284 -0.02276357 -0.020336183 -0.0018191547
0.06480558 -0.0038114176 0.032110885 0.054780826 -0.03383459 -0.029378183 -0.051085807 0.034314804
-0.06697744 0.035179872 0.021348326 -0.056167915 -0.080588125 -0.055540428 0.055638693 -0.025594737

encoder.blocks.1.conv.1.weight f4 [32]
00000000: 9fec 803f 1413 813f 7f7d 893f 06b2 873f
00000010: fb8a 823f 1018 8b3f 70dd 763f ce86 703f
00000020: 040f 533f 9777 813f 1450 883f bc24 8e3f
00000030: bd5f 723f 53ff 963f 6f3d 7b3f 9af6 663f
00000040: 02a2 7c3f 7b33 8e3f 3f83 973f 9b7c 903f
00000050: fbe2 673f 0a5a 833f 2aa4 763f c212 873f
00000060: 76d9 753f 7808 7b3f 5009 873f 986d 873f
00000070: 00af 6e3f bab6 653f f48b 893f 0ad8 743f
1.0072211 1.0083947 1.0741423 1.0601203 1.0198663 1.0866718 0.96431637 0.93955696
0.8244479 1.0114621 1.0649438 1.110496 0.94677335 1.1796669 0.98140615 0.90220034
0.98684704 1.110946 1.1836928 1.1288027 0.9058072 1.0261853 0.96344244 1.05526
0.96034944 0.980598 1.0549717 1.058032 0.9323578 0.89731944 1.0745835 0.9564215

encoder.blocks.1.conv.1.bias f4 [32]
00000000: 3086 903d 52be dc3d 2f3e ab3d 612d 0bbd
00000010: 5cdf 973d 9979 ab3d 053e 0e3e 6207 a2ba
00000020: 57f6 2abe b855 bb3d 0c4b 823d 66bd 8e3d
00000030: ce8c 273e f112 1bbd 3eb8 cd3d d2b2 cc3d
00000040: 4f98 193c 083a 413e fd63 c43d 762c 093e
00000050: 66cc 85bd 5c5a 4d3d 309d a0bc 388f 903d
00000060: d078 fa3d f96e 913d 16b1 0b3e ffc9 a33d
00000070: e000 8d3b d48b 39bd 1844 e23d 4e59 da3c
0.07056844 0.10778488 0.0836147 -0.033978824 0.07415649 0.08372802 0.13890846 -0.0012361819
-0.16695534 0.09147209 0.0636197 0.06969719 0.16362306 -0.03785986 0.10044907 0.09995045
0.009374692 0.18869793 0.09589384 0.13395867 -0.065331265 0.050135 -0.019606203 0.07058567
0.122300744 0.071012445 0.13641772 0.07997512 0.004303083 -0.045299366 0.11048144 0.026653912

encoder.blocks.1.conv.1.running_mean f4 [32]
00000000: 6cad bbc0 b588 6d3f 78b8 1040 b344 f83e
00000010: 4453 aac0 8b50 83c0 629f 71c0 e53f 6fc0
00000020: 9e06 88c0 c28a 9ec0 a432 0c3f d9af 3ebe
00000030: aa2f 9cc0 8670 90bf 833a 863f 2707 fc3e
00000040: c0bf fabf 9974 67c0 b0fd b3c0 f163 42c0
00000050: e6d5 55c0 aeb7 b1c0 865e 91c0 15af b2c0
00000060: 431e 9bc0 4349 a5c0 fb65 f13e b0cf 9dc0
00000070: 3316 78c0 e122 5dc0 fe48 a0c0 94a4 44c0
-5.8649197 0.92786723 2.261259 0.48489913 -5.3226643 -4.103582 -3.775353 -3.7382748
-4.250808 -4.954438 0.5476477 -0.18621768 -4.8808184 -1.128434 1.0486606 0.49224207
-1.9589767 -3.6164916 -5.6247177 -3.03735 -3.3411803 -5.553672 -4.5427885 -5.5838723
-4.847444 -5.165193 0.47148117 -4.9316025 -3.876355 -3.4552538 -5.00891 -3.072545

encoder.blocks.1.conv.1.running_var f4 [32]
00000000: 200c 2e42 3c06 9741 1730 0c42 1b7e 9b41
00000010: ced8 fa41 c3b9 9841 d21c f141 1422 4941
00000020: 2cd4 aa41 440d 1342 33a8 4241 3cb1 c440
00000030: 343b 1a42 efef 6b40 b0c9 5f41 277f 3e41
00000040: bba8 3141 d2fa 6341 c083 dc41 7b8c 2c41
00000050: 7af1 9341 ac94 2742 e9fb ba41 8a3d 3242
00000060: 0769 0242 574e d941 d708 c140 da42 fe41
00000070: 23fd ba41 9e15 7a41 1896 f841 648e ba41
43.51184 18.878044 35.046963 19.436575 31.355862 19.090704 30.139072 12.57082
21.3536 36.762955 12.166064 6.146635 38.557816 3.6865194 13.98674 11.906043
11.103694 14.248735 27.564331 10.784297 18.492908 41.895187 23.373003 44.560097
32.602566 27.163252 6.032329 31.782642 23.373602 15.630278 31.073288 23.319527

encoder.blocks.1.conv.3.weight f4 [32, 32, 3, 3]
00000000: a987 1dbe 3408 1dbe b0bb 72bc 64ff 23be
00000010: b958 fdbd 871a 813d f8a5 9cbd 864d 36be
00000020: 1000 36bd 6de8 153c df39 ae3c d596 da3b
00000030: 9820 9f3b 848c 90bc b932 08bd 43a6 da3d
00000040: 161a 443e 09ae 9c3d 542b c63d 9149 763d
00000050: ef50 763d f4b1 fa3d 7b9a b23d 7075 303d
00000060: fb82 343e 5a5e 2e3e 9a58 0bbd e096 833d
00000070: af90 aa3d dbea 3c3d f758 003e 654d 833d
00000080: 6aba 84ba 2ba5 c23d 35c2 a33d 7578 1e3d
00000090: aff1 df3b 6919 f6bd 6187 3a3d 95e9 32be
000000a0: ddf2 2fbe 3af6 e23c aa8e f1bd 369f fbbd
000000b0: ebda 313d 80b8 e63b 9f82 c8bd 4460 1b3e
000000c0: 8be1 c0bc a0b2 3ebe 2fba e93c 1221 65bd
000000d0: ec18 22be 901e 583c eb99 83bd 716d 19bd
000000e0: 313b 103e a0b9 0dbd 3a28 52bd c2a4 a43d
000000f0: ffbb 46bd 1b1d 30be dfc5 b0bb 86c3 c03d
00000100: 1ac0 bd3c 13cc 563c 7668 d13d 8764 2c3d
00000110: 4726 e93c bfa2 b83c e6de e63d cfc8 b13c
00000120: 070e 9ebd 2448 b9bd 77f1 4a3e 287d f1bc
00000130: dfdc febd cf7c 183d b432 43bd 455b 2fbe
00000140: 5472 abbc 72d6 9ebc 0b47 39be d316 023d
00000150: 4500 13bd ffcd f9bd 879f a23d f53c 6dbd
00000160: ca68 22be a6bc 08bd d1c7 2bbe b795 babd
00000170: c194 53bd 15e8 31bd 275c 10be 4490 d4bd
00000180: d2b4 b33c e4bb 78bc 0ba5 7cbd 909a 16be
00000190: 112a 57bd 6748 bcbd da38 aebd b656 2bbe
000001a0: 1aeb 01be 0036 dbbc dd6f ac3c 3eee 0bbe
000001b0: 4166 1a3d 6b9f b4bd 9940 893d 5d9a 22be
000001c0: 960d 0fbe a2f2 2e3d f4c1 dbbd 4b68 03be
000001d0: 1b5d 383d d2ea 67be c320 49be 53ac ddbd
000001e0: 6bd6 62be b9a3 61be 6769 f0bd cfbf 53be
000001f0: b115 88be 08cd 09be b0be b5b9 b98b ec3d
00000200: a7e0 8d3d e646 4bbb 914c 543d 37d8 dc3c
00000210: be60 9b3d c957 fa3d 410b 6abd b913 e93c
00000220: cfef 973d 03c4 6dbc d02a 303d e090 743d
00000230: d71c be3c 69f2 1c3d 87ee 813d a504 313d
00000240: 2ba0 a3bd dc4a a83c 561b a83d bd4f 32bd
00000250: c41e b2bd 6304 4e3d 51d5 e6bd 1b74 d1bd
00000260: bbf1 c73c 4e41 07be d2c9 4bbe 3bff d6bc
00000270: 15a3 12be e9a2 84be e6c1 7fbd 635a 5abd
00000280: 0958 2ebe e63d 0dbd 68df 81bd 5467 6ebe
00000290: 6053 85bb 7185 c3bd 9515 fcbd 1424 97bd
000002a0: 7a58 a6bd b0e4 49be 9d00 d4bd 6c4b c6bd
000002b0: 7d6d 98be 9e18 05be 5e61 3bbe 9d26 8fbe
000002c0: 43c5 23be 53ee 31be 4a73 69be 3806 a0bd
000002d0: 43b0 b03d 969c 1c3e e319 693e 8eec cf3c
000002e0: 7df9 183e 9914 263e 4b71 553d b881 503d
000002f0: f17a 253e aa08 a4bb 71d4 c4bd 36bc a83d
00000300: 2a15 01be 96d2 16be 823f ce3c 875c 1ebe
00000310: 2ee4 3bbe 7bb7 6e3b 0598 67bd 463c 1fbe
00000320: 2dcd f03c fdce e13b 58db 1fbe dde5 02bd
00000330: 49b9 6cbd e074 29be 2e93 afbd deb6 c0bd
00000340: ae2b 45bd 2b5e 273e 13ed 42bd d749 45be
00000350: ba65 e93d d044 eebd 5faf 1dbe f602 f83c
00000360: 841c 04bc 2183 13be 1d54 8e3d 7174 dfbd
00000370: f506 38be 3845 65bb 8446 6ebd 5861 5dbe
00000380: e6b6 d0bb 045f 5fbd 7205 bebd a853 5d3c
00000390: 7e0e 19bd 913a a4bd 91bc 29bd 5073 dfbc
000003a0: 4e48 f4bd 052e 4abc bda4 f1bb 447f 23bd
000003b0: 861d 9d3c a7da b63d 86eb 353d 1ede 5a3d
000003c0: a45c ca3a 9392 cb3d 4b8f 1dbb ac97 96bd
000003d0: a61e 23be 321a e33d cf01 efbd e0cd aebd
000003e0: 5c89 783d 811c b1bd 7635 3fbe 8763 b9bc
000003f0: ab0c 6bbd 9e7c 95bd c262 2e3b f426 b8bd
-0.15383781 -0.1533516 -0.014815256 -0.16015393 -0.12370438 0.06303888 -0.076488435 -0.1780301
-0.044433653 0.009149653 0.02126783 0.0066708126 0.0048561804 -0.017645128 -0.033251498 0.10676243
0.19150576 0.07650382 0.09676233 0.060128752 0.060135778 0.12240973 0.08720871 0.043080747
0.1762809 0.1702818 -0.034020044 0.064252615 0.083283775 0.046122413 0.12533937 0.06411246
-0.0010126357 0.095041595 0.079960264 0.038689096 0.006834231 -0.12016565 0.045539264 -0.17471917
-0.17182489 0.0277053 -0.11794789 -0.122862265 0.043421667 0.007041037 -0.09790539 0.15173441
-0.023545047 -0.18622828 0.028531162 -0.05593974 -0.1582982 0.01319088 -0.06425842 -0.037457887
0.1408508 -0.034600854 -0.051307894 0.080392376 -0.04851913 -0.17198603 -0.005394682 0.09412293
0.02316289 0.0131101785 0.102250025 0.042088058 0.028460635 0.02253854 0.11272983 0.021702198
-0.07717519 -0.09046963 0.19818674 -0.029478624 -0.124444716 0.0372284 -0.047655776 -0.1712466
-0.02092854 -0.019389365 -0.18093507 0.031760048 -0.03588893 -0.12197494 0.07940584 -0.05791946
-0.15860286 -0.033383034 -0.16775443 -0.09110587 -0.051655535 -0.04343422 -0.14097653 -0.10379079
0.021936808 -0.015181515 -0.061680835 -0.14707398 -0.052530352 -0.09193497 -0.08506937 -0.16732296
-0.1268734 -0.026759148 0.021049434 -0.13665101 0.037695173 -0.08819469 0.06701774 -0.15879197
-0.13970026 0.04271186 -0.10730353 -0.12832753 0.045010667 -0.2264817 -0.19641404 -0.10823884
-0.22152106 -0.22035111 -0.11738854 -0.20678638 -0.2657905 -0.1345712 -0.00034665084 0.115500875
0.06927615 -0.00310176 0.051830832 0.026958568 0.075868115 0.12223775 -0.05713964 0.028451787
0.07418787 -0.014512065 0.04300958 0.059708476 0.023207111 0.038317118 0.063443236 0.04321732
-0.07989534 0.020543508 0.08208339 -0.043533076 -0.08697274 0.050297152 -0.112711556 -0.102272235
0.024407258 -0.13208506 -0.19901207 -0.02624475 -0.14320023 -0.2590554 -0.062440775 -0.053308856
-0.1702577 -0.03448286 -0.063414395 -0.23281604 -0.004068777 -0.09546936 -0.12308804 -0.07379928
-0.08122344 -0.19716144 -0.103516795 -0.09682354 -0.29771033 -0.12997672 -0.18298861 -0.27959147
-0.15993218 -0.1737607 -0.22797886 -0.07813686 0.08627369 0.15294108 0.22763781 0.025381353
0.14938922 0.16218795 0.052109998 0.05090496 0.1616018 -0.0050059156 -0.096108325 0.082390234
-0.1260573 -0.1472877 0.025176767 -0.15464984 -0.18348762 0.003642528 -0.05654146 -0.15550336
0.02939471 0.00689113 -0.15611017 -0.031957496 -0.05779389 -0.1654849 -0.08572994 -0.09409879
-0.04813736 0.16344516 -0.047589373 -0.19266449 0.11396356 -0.11634219 -0.1539893 0.03027485
-0.008063439 -0.1440549 0.06949637 -0.10910881 -0.17971404 -0.0034983885 -0.058172718 -0.21619165
-0.0063694594 -0.054533973 -0.09278382 0.013508715 -0.037367336 -0.08018983 -0.041439597 -0.027276665
-0.119278535 -0.0123400735 -0.0073743747 -0.03991629 0.019179117 0.089284234 0.044414066 0.053434484
0.0015438986 0.09940066 -0.0024041708 -0.07353148 -0.1592966 0.11088981 -0.11670267 -0.08535361
0.06067787 -0.08648015 -0.18672737 -0.022630466 -0.057385128 -0.072991595 0.0026609157 -0.08991805

encoder.blocks.1.conv.3.bias f4 [32]
00000000: d9b2 4e3d 7832 a73d 7c4e 193d f742 69bd
00000010: b76c d0bc fe02 31bc bcb6 8b3d 2d03 93bd
00000020: 1527 113c c9cc 673b 90ec 3a3d 460d 563d
00000030: 3539 a43c 21a0 a6bc 0e43 843c 510c 1dbd
00000040: 557c f33c 00c2 073d be16 87ba b88a 653d
00000050: 5db8 66bc 8cf5 fc3a 54cd 02bd 799e 933d
00000060: b2e1 813d 0a9a 52bd bec3 023e bd8b 8abc
00000070: 0ffe 02bd 7a14 4f3d 64f6 83bd 5932 e53c
0.05046353 0.08163923 0.037428364 -0.05694863 -0.025442464 -0.010803936 0.06821963 -0.0717834
0.008859416 0.0035369864 0.04563576 0.052258752 0.02004681 -0.020340027 0.016145255 -0.038341824
0.029722372 0.033143997 -0.001030646 0.056040496 -0.014082042 0.0019299253 -0.031934097 0.07207961
0.06341876 -0.051416434 0.12769982 -0.016912336 -0.03198057 0.050556637 -0.0644348 0.02797811

encoder.blocks.1.conv.4.weight f4 [32]
00000000: e83b 6a3f 8ba4 843f 5a09 833f b6a0 743f
00000010: 45b3 6f3f 185f 883f 9d3a 893f b863 8a3f
00000020: 24fd 863f 4760 5d3f 9ff4 833f e3eb 883f
00000030: 63db 883f a5cd 803f dab2 813f 45aa 833f
00000040: f5ba 6b3f 1a6b 773f 1126 823f e630 823f
00000050: 6a9a 513f 90e4 893f 3d7a 8f3f 24e1 813f
00000060: 5ad4 833f d590 773f d435 813f 29e8 5c3f
00000070: 7e9b 823f bcf8 803f 1cb8 853f b5bf a33f
0.9149766 1.0362715 1.0237229 0.95557725 0.9363292 1.065402 1.0721012 1.0811682
1.0546002 0.8647503 1.0309027 1.0696987 1.0691952 1.0062758 1.0132706 1.0286337
0.9208215 0.966478 1.0167867 1.0171173 0.8187624 1.0772877 1.1209179 1.0146832
1.029918 0.9670537 1.0094552 0.8629175 1.0203702 1.0075908 1.0446811 1.2792879

encoder.blocks.1.conv.4.bias f4 [32]
00000000: 4651 efbc 5502 8abd ab98 24bd aac4 42bd
00000010: 33c7 b3bd f148 8cbd cd96 72bd 40de 983d
00000020: e2f5 4e3d 5364 3fbd 8a99 3fbd 365e 943c
00000030: 6fef b83d 3e22 07be 15f0 77bd 0313 163d
00000040: 9402 40bd 4072 debd 4be1 c8bd 521b e9bc
00000050: 3c82 febd 7300 b2bd 67fa 9f3d 25de 8bbd
00000060: 122d 99bc 3fe0 31bd c873 14be 75bd 19be
00000070: 2325 80bd 8113 efbd fc27 e0bd ef4f edbc
-0.029213559 -0.06738726 -0.040184658 -0.047550835 -0.087782286 -0.0684985 -0.059225846 0.07464266
0.05052746 -0.046726536 -0.046777286 0.01811133 0.09030043 -0.13196656 -0.060531694 0.036639225
-0.04687746 -0.10861635 -0.09808596 -0.02845541 -0.12427184 -0.08691492 0.07811432 -0.0682948
-0.018698249 -0.04342675 -0.14497292 -0.15013678 -0.06257083 -0.11673642 -0.109451264 -0.02896878

encoder.blocks.1.conv.4.running_mean f4 [32]
00000000: a39f 99c0 24f3 b4bd 2fac b140 cdcb 8ac0
00000010: e626 9640 004f b740 d487 9f3f e9ab f7bf
00000020: 98d7 6ec0 3169 ccc0 a888 ec3e a47d 45c0
00000030: 3b28 4ac0 8470 9640 3fea d9c0 1eca 95c0
00000040: 00fa d4c0 b271 3f40 146e 883e 5d23 51bf
00000050: f4bd 1741 afcb 9e40 60a1 52c0 2b6c 9240
00000060: e031 5c3f f064 5ac0 9bd4 3ec0 9794 bf40
00000070: 9a54 8540 b658 5340 88fb 0840 8459 57c0
-4.800737 -0.08835438 5.5522685 -4.337378 4.6922483 5.7283936 1.2463326 -1.9349338
-3.7319088 -6.3878407 0.4619801 -3.0857935 -3.1587055 4.701235 -6.8098445 -4.6809225
-6.6555176 2.9913144 0.26646483 -0.81694585 9.483875 4.9623637 -3.2910995 4.575704
0.86013603 -3.4124107 -2.9817264 5.9868884 4.1665773 3.3022895 2.1403522 -3.3648386

encoder.blocks.1.conv.4.running_var f4 [32]
00000000: 796a 9941 58c2 7442 0226 f241 db2d 3042
00000010: bd46 1c42 a27d aa41 9d7e 6041 9fc0 7641
00000020: 4e86 dc40 2da2 2142 aa00 2c42 dd3f 1841
00000030: 148c aa41 736e 8a41 6bb1 4d41 aabe 0741
00000040: 76f9 b641 5be3 9641 cf31 1c42 b669 6341
00000050: 99c6 b141 664d 1142 b850 b040 51f5 bf41
00000060: a13b 0542 6739 0a42 1d85 de40 aaec 4841
00000070: 46ef 6141 8118 2a42 fcab f841 5d9a 1541
19.176989 61.18979 30.268559 44.04478 39.06908 21.311344 14.030911 15.422027
6.8913946 40.408375 43.00065 9.515592 21.318398 17.30393 12.855815 8.484049
22.871807 18.861013 39.04864 14.213308 22.221972 36.325584 5.5098534 23.994783
33.30823 34.556057 6.953749 12.557779 14.120916 42.52393 31.083977 9.350186

encoder.blocks.1.skip.weight f4 [32, 16, 1, 1]
00000000: 164f 52be 18ba 1abe 20b7 353c 7826 50bd
00000010: 54f7 f8bd fc31 603e 0877 67bd 1e10 323e
00000020: bac7 50be 3e2d 42be 5c47 e4bd 1222 313e
00000030: f89e 993d 8416 693e b887 283e 14ae 793e
00000040: b089 abbc 88c4 93bd dc50 1b3e 54db 12be
00000050: fa6f 043e 2034 6d3d 5035 053d 7880 58bd
00000060: 70ff 043d 86ad 21be 4c13 213e b842 e73d
00000070: c885 75be 0ece 143e 3403 5ebe 24ff 16be
00000080: 6c71 0ebe 1879 9abd ec44 7d3e e04c e0bd
00000090: 7049 bfbd bcc3 273e e0a7 98bd 5035 0ebe
000000a0: 54b3 c8bd f0ba f1bc b027 533e 3cdf c23d
000000b0: 1e55 0b3e 74c5 e5bd 4078 13be c449 20be
000000c0: 380b 193d c05b 883b 38ba 81bd fe3d 52be
000000d0: d075 9abc 78f4 f0bd 40d2 25bd 9c8c 10be
000000e0: 38de 123d 72f2 5fbe 3ae5 25be 1898 713e
000000f0: ec1a 70be ec78 40be 1c12 61be 1069 eebc
00000100: 4087 e23d c09f bb3c 08b0 dfbd 8003 a0bc
00000110: c04e a33c ea91 1fbe de8a 113e 8035 f6bc
00000120: c25c 703e 64a3 dbbd 28ad 48bd 10a5 acbd
00000130: 46c3 58be 006d 11bc a8fd 4fbd 08a3 533e
00000140: 2092 083d 8a04 04be 0c32 483e 4461 463e
00000150: 8c6c 4a3e d897 673d 7058 b5bc 50a4 e03c
00000160: c0b3 94bc f8b3 1ebe 64e3 6fbe 18a3 333e
00000170: 481d 87bd 78af d13d a0e7 7c3c 26f0 6c3e
00000180: d883 203e c084 f5bd 3687 723e 9086 f63d
00000190: 7485 a93d 6e65 173e 10ba 3cbd d015 b53d
000001a0: 00ff 05be 004d c33a 4eec 233e 18ed ffbd
000001b0: 6012 2b3d 805f 433b 9067 b6bc d8eb 1dbd
000001c0: 2c8e 2fbe a8bf 42bd 28ec cfbd 9c9d cf3d
000001d0: 94d3 79be ca60 133e d097 ee3d e8c5 583d
000001e0: 7868 4ebd c0c6 15bd 0839 113e b49d 2b3e
000001f0: ec96 983d a8b8 38be 54ae 18be e490 9dbd
00000200: 387f 0d3d 4ca9 7d3e 6076 233e b02a f9bc
00000210: 00ec 25be 481f e0bd 5874 303d 9c72 debd
00000220: 5447 c83d 20a7 0d3d 4033 253d c693 123e
00000230: 388f 0ebd d882 293d 5428 cdbd 8498 cf3d
00000240: ca22 663e 3809 663e b859 a0bd 6874 20bd
00000250: 0891 cbbd b6a6 0f3e f463 553e 10bf 8f3c
00000260: be1f 7d3e 76ef 5f3e 7c01 45be e20d 0c3e
00000270: 8627 23be 5654 53be 4811 7bbe 90d8 44be
00000280: a679 53be 046b 93bd e81b 713e 0099 33bb
00000290: 0adb 7abe 20bd 243c c2f8 08be 987f 013e
000002a0: ec2f eebd 58c0 d1bd 0c92 8f3d 8aad 73be
000002b0: d63c 4cbe 2440 9ebd 70d9 e53d 40a6 693e
000002c0: a0d9 7ebd 021c 373e 2898 163e 984e 9cbd
000002d0: d63d 47be d083 c93d 2484 c13d 705b 83bd
000002e0: f4b2 45be 0e47 6a3e 0404 323e a8ec 90bd
000002f0: 2036 c63d 009a 4bbc 1044 25bd 8632 2ebe
00000300: ecb4 6dbe 80e6 3fbe e08a 1f3d 2c95 25be
00000310: 8667 0e3e 646e c9bd 800f 30bc f870 adbd
00000320: a025 613d 0ccf 05be 9085 673d f046 60be
00000330: 3ae0 7fbe 088f 36bd baba 16be 70df 70be
00000340: 0ac9 2e3e bcb2 78be f83d 6b3e 8cef e03d
00000350: 8026 88bc 623a 1f3e 702b 203e 8899 46bd
00000360: c02d 53be e017 663d 0209 2e3e 4af8 133e
00000370: 4c33 95bd 4ed9 0dbe b4d5 cb3d 1ab3 563e
00000380: be8f 0fbe e287 2bbe 7e45 07be 90e6 263e
00000390: 12f1 4fbe a014 803d 7e3d 0c3e 2890 1cbe
000003a0: a072 7d3d 2055 533c 406e d33c 345d 02be
000003b0: 72f8 0ebe a4af 083e f207 31be 2052 d03c
000003c0: 9071 913c 8422 793e ac4b 9fbd 886e fb3d
000003d0: 1096 22be be54 68be 7ccd 05be f0a5 8b3d
000003e0: faf6 3f3e 64d5 673e acd7 e53d a62d 753e
000003f0: eedf 793e dcdf adbd 5ca5 e7bd 72f9 58be
-0.20537981 -0.15110052 0.011091024 -0.050817937 -0.12156549 0.21894068 -0.05651 0.1738896
-0.2038869 -0.18962571 -0.11146423 0.17298153 0.07501024 0.22762495 0.16458023 0.24382812
-0.020939678 -0.0721522 0.15167564 -0.1434148 0.1293334 0.05791104 0.032521546 -0.052856892
0.032470167 -0.1578885 0.15730017 0.112920225 -0.23976815 0.14531729 -0.2168091 -0.14745766
-0.13910455 -0.07542628 0.24733323 -0.10952163 -0.09340179 0.1638326 -0.074538946 -0.13887525
-0.09799829 -0.029508084 0.20620608 0.09515235 0.13606688 -0.11219302 -0.1440134 -0.1565314
0.037364215 0.004161328 -0.063343465 -0.2053146 -0.018855006 -0.11765379 -0.040483713 -0.14116138
0.035856456 -0.2186983 -0.16200724 0.23593175 -0.2344777 -0.18796128 -0.21979564 -0.029102832
0.11060953 0.022903323 -0.10922247 -0.019532919 0.019935012 -0.15583006 0.1421313 -0.030054808
0.23472884 -0.10724524 -0.04899326 -0.08429921 -0.21168241 -0.008876085 -0.050779015 0.2066766
0.03334248 -0.12892357 0.19550341 0.19373041 0.1976797 0.056541294 -0.022136897 0.0274221
-0.018152118 -0.1549834 -0.23426586 0.17542684 -0.06597382 0.10238546 0.015436083 0.23138484
0.15675294 -0.11988211 0.23684391 0.120373845 0.08277407 0.14784786 -0.04607588 0.08842051
-0.13085556 0.0014900267 0.16008112 -0.12496394 0.04176557 0.002981156 -0.02226618 -0.038554996
-0.17144078 -0.04754606 -0.10152465 0.101374835 -0.24397117 0.14392391 0.1165005 0.052923113
-0.050392598 -0.036566496 0.14181912 0.16759378 0.07450661 -0.18039191 -0.14910251 -0.07693651
0.034545153 0.24771613 0.15963125 -0.030415863 -0.16203308 -0.109434664 0.043079704 -0.10861704
0.0977923 0.03458321 0.04033208 0.14314184 -0.034804553 0.041384548 -0.100174576 0.10136512
0.22474208 0.22464454 -0.078296125 -0.039173514 -0.09939772 0.14028439 0.2083891 0.01754716
0.2471914 0.21868691 -0.19238847 0.13677171 -0.15933046 -0.2063764 -0.24518311 -0.19223237
-0.20651874 -0.07198146 0.23545802 -0.0027404428 -0.2449762 0.010054857 -0.13376144 0.1264633
-0.11630234 -0.10241765 0.07010278 -0.23796669 -0.19945082 -0.077270776 0.112231135 0.22817326
-0.062219262 0.17881778 0.1470648 -0.07632178 -0.19457182 0.09839594 0.09449032 -0.06413925
-0.19306546 0.22878668 0.17384344 -0.070763886 0.09678292 -0.012426853 -0.040348113 -0.1701146
-0.23213547 -0.18740273 0.0389508 -0.16170186 0.13906679 -0.098355085 -0.010745883 -0.08468813
0.054967523 -0.13067263 0.05652386 -0.2190206 -0.2498788 -0.04457 -0.14719668 -0.23522735
0.17068878 -0.24286932 0.22972858 0.1098319 -0.01661992 0.15549615 0.1564157 -0.048486263
-0.20622921 0.056175113 0.16995624 0.14450184 -0.07285175 -0.13852426 0.0995287 0.2096676
-0.14019677 -0.16751054 -0.13210103 0.1629889 -0.20306805 0.06253934 0.13695332 -0.15289366
0.061876893 0.012898713 0.025809407 -0.12730867 -0.13961962 0.13348252 -0.17288187 0.025429785
0.017754346 0.24329573 -0.07778105 0.122769415 -0.15877557 -0.22688577 -0.13066667 0.068187594
0.18746558 0.22639996 0.11222777 0.23943195 0.24401829 -0.084899634 -0.11310837 -0.21188906

encoder.blocks.1.skip.bias f4 [32]
00000000: b80f 1fbe b457 6b3e fcee b2bd 80f0 1fbb
00000010: 804f 20bd 6a19 1c3e 94c3 fbbd 2cea fe3d
00000020: dcbd b53d 4026 cd3c c045 6b3e d8f5 193e
00000030: c0c7 a8bd ce27 79be defb 7f3e 602e 33bc
00000040: 22e4 02be 0054 c3ba e0d7 67bd 4061 9b3d
00000050: b0ce 743d 7477 a7bd 34de a6bd 2867 c8bd
00000060: 3cce a1bd b848 213e 8a18 16be 9ce6 3b3e
00000070: 3005 d1bd ea83 57be 58c4 c63d be69 6f3e
-0.1553334 0.22982675 -0.08736989 -0.0024404824 -0.039138317 0.1524407 -0.12293163 0.124470085
0.088741034 0.025042653 0.22975826 0.15035188 -0.08241224 -0.2433159 0.24998423 -0.01093635
-0.12782338 -0.0014902353 -0.05660236 0.07586908 0.059767425 -0.08177081 -0.08147851 -0.097853005
-0.07900664 0.15750396 -0.14657798 0.18349689 -0.102060676 -0.21046415 0.09705418 0.23380181

encoder.blocks.2.conv.0.weight f4 [64, 32, 3, 3]
00000000: e8fc a8bd 4af8 1fbe ba80 f7bc 413b 0fbe
00000010: 6f59 19be b555 84bc 2fbf 113d f1a6 893b
00000020: d931 f63c 96cc 6e3d 913d 233d e78c 31bc
00000030: 815e 143c bb7e bcbd 84a7 bebd 9336 93bd
00000040: 5395 19be 1137 1cbd 3ddf 1bbe 49ab f7bd
00000050: 2544 2cbe d700 f2bd 04cf c7bd cb8d c6bd
00000060: c4f4 96bc 62dd e4bd 11d8 18be 12b4 22be
00000070: f76c d4bd 4408 70bd a446 d0bd aa76 97bd
00000080: c655 ddbd 6462 db3c 8d8e a0bd b356 17be
00000090: f280 b9bd 1b20 afbd 8790 3cbe c196 71bd
000000a0: 74f0 bdbd dcb5 18be e566 9c3d e9ab 93bd
000000b0: c84a 12be 1cf2 813d d021 10bd 8bde 84bd
000000c0: f3b0 a5bd 9471 30be e25f 2abe 400d 06bd
000000d0: d4c0 c5bd 59f9 c2bd 4d85 28bd f8b1 82bc
000000e0: c94b e1bc ff73 21be 8b4d 50bd 606c 3cbe
000000f0: 141c 2ebe b398 06be 0e9c 52be d9dc a93d
00000100: 72af a1bd 9654 a4bd b9bc 0ebd d76f 26be
00000110: 45f5 83bd 1d66 33be 38a1 acbe 630f cabc
00000120: c21c 49be 3be6 38bd 51a6 21be fd08 29be
00000130: d584 a1bd 3468 2dbe 27ab 47be d8a9 93ba
00000140: d37e 42be 2ec5 25be 7793 97bd 7c2c dbbc
00000150: f714 f7bd c325 05be deff 4bbd 4cc6 a6ba
00000160: 8922 3e3d ef76 f63c 63a8 383d 246d d73a
00000170: 07ca 773b adb0 38bd b0b5 39be 66e6 05be
00000180: 0b14 1fbe b68e f9bd 9b65 a4bd 1d32 5ebd
00000190: 56f5 bf3d cb31 d6bc 5090 8abd bc7c 003d
000001a0: 53c7 43bd b1ee 36be f55c 81bd d2fa 3fbe
000001b0: b237 c33c d0ef ddbd b426 95bd 862d a2bd
000001c0: 98b8 92be add3 fabc 95bb 78be 96fd 94be
000001d0: 714b b6bc 9ffd 5e3d e5cf 663d fb3f 82bd
000001e0: 188f 23bd 34ca efbd ce3c e1bd 16c0 2bbd
000001f0: a6ec c03c 0c18 30bd 77b9 0abc 2405 50be
00000200: 4155 42bd e97c 1abd 411b 16be 2be0 723c
00000210: c55c cdbb 1482 98bd 04d2 803d f7a0 1dbe
00000220: f91f 65bc fa8a 20bb 78aa 9bbc e49b 463d
00000230: 9e9d 4b3d d2b5 8f3d 3abd 063e 74fa c63d
00000240: 06e5 8fbc 2f44 40be 5668 d1bc 4ac2 01be
00000250: 586e 43be 2cdf d83c b24a 69be 153a 56be
00000260: 7ac2 83bc da8e 963d bc40 f03c a429 663d
00000270: 8b9a 92bd b3f8 9ebc 2d51 dfbd fb4c 38bb
00000280: 3175 5cbd d547 2bbd a3d0 5c3d 223a a6bd
00000290: ffd7 06bd df6f fdbc 22d5 0abe 3d94 f1bd
000002a0: 03a9 cbbd f111 93bd 7e6b 4bbd 1737 233d
000002b0: bd67 cd3d ae07 87bd 14ce d8bd b9cc 4cbd
000002c0: 999c 8ebd 74bd 5abe 4581 5fbd 17d4 4abe
000002d0: 5b3f acbd 9b56 22bd 0558 27bd 1b24 66bd
000002e0: e0a7 06be e6f0 18be 5940 e9bd 44ab 1fbe
000002f0: 108a c7bd c1f3 5d3d cf2e 4b3c 7e0d eebc
00000300: da4b 1fbe 28c3 1cbe 0fe8 fabd 2ab9 7abd
00000310: ce71 15bd 651b 0abe a9da a6bd 133a ebbd
00000320: 2a22 10be 235f 28be 4cf6 38be a961 50be
00000330: f853 81be 3e53 2bbe 9a5f 6cbe d153 443d
00000340: bf41 ee3c 4a4c 70bd b538 cdbd f70c dfbd
00000350: 5dcf bbbd 0f03 57bd 1938 c2bc b76b 6cbd
00000360: b5a0 633d 817d 403c 0006 7ebd 2ced 06be
00000370: b114 fbbd 0358 91bd 792e e8bd 36e0 fbbd
00000380: 9cb3 87bc 0d9f d33d 10af 783c f283 fc3c
00000390: 2f40 50bd 6c0c d6bd 6eb1 55bd 039b efbd
000003a0: 5adc 22be 7f4c 8039 5bc7 45bd 021c 48be
000003b0: c0d3 30bc f6a8 9bbc 91ae 6fbd a4e6 a13c
000003c0: c240 c23d 52b0 a73c b5c2 dd3c d210 bd3d
000003d0: 9275 323d da1c 2fbb 5202 c53d 9b80 243d
000003e0: 1618 c83c ec08 223e 5930 173d 7310 163d
000003f0: 59d5 c4bc da0a 083d a89b 81bc 1a21 34bd
-0.08251363 -0.15622059 -0.030212749 -0.13987447 -0.14975522 -0.01615415 0.035582718 0.004200809
0.030053066 0.058300577 0.039853636 -0.010836816 0.009055735 -0.092038594 -0.09309295 -0.071881436
-0.14998369 -0.038138453 -0.15221877 -0.12093217 -0.1682287 -0.118165664 -0.09756282 -0.096950136
-0.01842726 -0.11175038 -0.14926173 -0.15889004 -0.10372346 -0.058601633 -0.10169724 -0.0739568
-0.108073756 0.026780315 -0.078396894 -0.14779167 -0.090577975 -0.085510455 -0.18414508 -0.05898166
-0.092743784 -0.14913124 0.07636813 -0.07210524 -0.1428634 0.06345007 -0.035188496 -0.06487759
-0.08090391 -0.17230827 -0.16638139 -0.03272748 -0.0965592 -0.095202155 -0.04114275 -0.015954003
-0.027501957 -0.15766905 -0.0508552 -0.18400717 -0.17002898 -0.13144188 -0.20567343 0.082940765
-0.07894792 -0.08023946 -0.03484795 -0.16253601 -0.06443266 -0.17519422 -0.3371675 -0.02466554
-0.19639876 -0.04514144 -0.15786101 -0.16507335 -0.07886664 -0.16934282 -0.19498883 -0.0011265827
-0.18993692 -0.161885 -0.074011736 -0.02675461 -0.120645456 -0.13002686 -0.04980456 -0.0012723892
0.046419654 0.030086009 0.04508246 0.0016435725 0.0037809627 -0.045090366 -0.18135715 -0.13076171
-0.1553499 -0.12185423 -0.08027192 -0.05424701 0.09372966 -0.02614679 -0.06765807 0.031368956
-0.047797512 -0.17864491 -0.06316558 -0.18748024 0.023830269 -0.10836756 -0.07282773 -0.07918839
-0.2865646 -0.030618513 -0.24290307 -0.2909972 -0.02225277 0.05444109 0.056350607 -0.063598596
-0.039931387 -0.11708489 -0.10997926 -0.041931234 0.023550343 -0.042991683 -0.00846707 -0.20314461
-0.047444586 -0.03771678 -0.14658834 0.014823954 -0.0062671625 -0.074466854 0.06290057 -0.15393434
-0.013984674 -0.00244969 -0.019002184 0.048488513 0.049710862 0.07017101 0.13158122 0.09715739
-0.017565262 -0.1877601 -0.025562447 -0.12671772 -0.19085062 0.026473604 -0.227824 -0.20920594
-0.016083945 0.073514655 0.029327743 0.056192055 -0.07158383 -0.019405698 -0.10904155 -0.0028122056
-0.0538227 -0.04181655 0.05390991 -0.08116557 -0.032920834 -0.030937133 -0.13557866 -0.11795852
-0.09944346 -0.071811564 -0.04966306 0.03984746 0.10029552 -0.06593262 -0.10586181 -0.049999926
-0.069634624 -0.21361333 -0.05456664 -0.19807468 -0.084105216 -0.039633375 -0.040855426 -0.056186777
-0.13149977 -0.14935645 -0.113892265 -0.15592676 -0.0974313 0.05418754 0.012401297 -0.029059168
-0.15556279 -0.15308821 -0.12251293 -0.061211742 -0.036485486 -0.13487013 -0.08147175 -0.11485686
-0.14075533 -0.16442542 -0.18062705 -0.20349754 -0.25259376 -0.16730973 -0.23083344 0.047931496
0.029084085 -0.058666505 -0.10020582 -0.10891145 -0.09170411 -0.05249315 -0.02370839 -0.057719912
0.055573184 0.011748672 -0.06201744 -0.13176411 -0.12259806 -0.07096865 -0.11336989 -0.12298624
-0.016565137 0.10333071 0.015178457 0.030824635 -0.05084246 -0.10451588 -0.052171163 -0.11699488
-0.1590437 0.00024471057 -0.048285823 -0.19541934 -0.010792673 -0.019001465 -0.05851609 0.019763298
0.09485008 0.020469818 0.027070383 0.09231724 0.043569155 -0.0026720078 0.09619583 0.04016171
0.024425548 0.15823716 0.036911342 0.03663678 -0.024027513 0.033213474 -0.015821293 -0.04397688

encoder.blocks.2.conv.0.bias f4 [64]
00000000: 28c3 62bc 0956 7a3d 46ee 71bd daab 573b
00000010: 7da1 913c 1823 1f3d f813 3abc 1af2 8fbc
00000020: aadf 0bbd d04a 483d 9ef6 e8bc a481 b63d
00000030: 8fb5 b8bc 7745 5b3d b2ea 613d 36ad 093c
00000040: ddf0 9d3c 8dd9 ab3c 6bd5 803c 43d8 353d
00000050: 731a 663d 7ded 31bd 2c45 b5bd 58bb 89bd
00000060: c1bd ca3c 4f3c 99bd 320a 033c 4af9 b4bd
00000070: f026 0c3d 52ff ef3c e514 d13d 7a69 433d
00000080: 43d4 e0bd 808d 37bd 549a 1bbb 83aa 043c
00000090: 05ca 303d fba6 313c 8f89 66bd c937 8d3d
000000a0: 7d0c a8bb 9262 e03c ea65 bdbc 2670 84bc
000000b0: 9940 d7bd 1ad9 29bd 51db 7bbc 3c1c d9bb
000000c0: f2e8 c2bd 7ad9 92bd d1da 9d3c 29b4 923d
000000d0: 67bc 833a 90d3 1f3d 115c eabc b5f0 b6bd
000000e0: 26c7 dbbb 4701 1e3b 7448 933c e9fb 743d
000000f0: 3e57 87bc 423e 1c3d 56b7 7bbd cba3 81bd
-0.013840474 0.061117206 -0.059065126 0.0032908828 0.017777199 0.038851827 -0.0113573 -0.017571498
-0.03414885 0.04889947 -0.028437909 0.08911446 -0.022547511 0.053533044 0.055155464 0.008403113
0.019279892 0.02097776 0.015726766 0.044395696 0.056177568 -0.043439377 -0.08851084 -0.06725186
0.024748685 -0.07482206 0.007998036 -0.088366106 0.03421682 0.02929655 0.102090634 0.047708012
-0.10977986 -0.04481268 -0.002374311 0.008097294 0.04316141 0.010843034 -0.05628353 0.06895406
-0.005128442 0.027390752 -0.023119885 -0.016166758 -0.10510368 -0.04146681 -0.015372113 -0.0066256803
-0.09517087 -0.071703866 0.019269379 0.07163269 0.0010050655 0.03902012 -0.028608354 -0.0893263
-0.00670709 0.0024109648 0.017978884 0.059810553 -0.016521093 0.03814531 -0.06145414 -0.06330069
