toyshapes/pinets_ensemble/ensemble_15/model_9.pth (torch, 466407 bytes, 71 tensors)

encoder.blocks.0.conv.0.weight f4 [16, 1, 3, 3]
0.122112595 -0.20592295 -0.030795036 -0.002590536 0.22407788 0.10735595 -0.30817702 0.250997
-0.22524424 -0.034263853 0.34119087 0.078568205 -0.19312254 -0.20950785 0.05569907 -0.009033719
0.0097115915 -0.056943197 -0.1528437 -0.082166985 -0.0902545 0.22711678 0.18780202 0.0182523
-0.05904156 -0.43734053 0.16011974 0.1275444 0.5555257 -0.058499098 -0.18423352 0.1255557
0.14429905 0.15721953 0.014400601 -0.13529058 -0.2327427 0.041396223 0.1822801 -0.10093379
0.29024792 -0.27648866 0.20736805 0.09126684 -0.18409911 0.08845918 -0.31789047 0.10678196
0.06736708 -0.38634497 0.032090675 -0.05994966 0.178806 0.115082845 -0.068865515 -0.12747324
-0.0075109038 -0.0049725506 -0.11402077 0.2790793 -0.20353466 0.14056283 -0.08297335 0.2153074
0.074236125 -0.31790766 0.0049779615 -0.064335816 -0.17718323 0.30284628 0.034929402 -0.08563297
-0.40831527 0.34641036 -0.18011475 -0.021362804 0.24170275 -0.31606323 0.14954843 0.21530272
-0.14046834 -0.1236453 -0.23668344 -0.3867696 -0.07415993 0.2610494 -0.10056002 -0.28258947
0.20303337 -0.023665132 0.41540205 -0.3396666 -0.2423885 0.20674798 -0.1218944 -0.046963215
0.2997957 -0.22787268 -0.26613426 0.007894274 0.08125217 0.3475877 -0.15603895 0.078313306
-0.19977885 0.097150035 0.11820421 -0.13951276 0.23394826 -0.10234414 -0.083054796 -0.057366602
-0.04812771 -0.017727496 0.080047786 0.2949664 0.008853717 0.28261688 -0.1849787 0.11203223
-0.3999205 0.15784118 -0.022682203 0.12484239 -0.3101727 0.13836955 -0.053679135 0.024721239
0.25912017 -0.18472339 0.34592652 -0.09350298 -0.31918088 -0.110014156 -0.32008702 0.2489175
0.23009795 -0.24632886 0.03751524 0.12956043 -0.065188825 0.032319896 -0.38905007 0.119944625
00000000: 2b16 fa3d 77dd 52be df45 fcbc fbc5 29bb
00000010: ac74 653e 70dd db3d 61c9 9dbe ae82 803e
00000020: 6da6 66be 4158 0cbd 92b0 ae3e 5ee8 a03d
00000030: eac1 45be 3a89 56be b524 643d 2a02 14bc
00000040: 5e1d 1f3c 453d 69bd 0f83 1cbe 2a47 a8bd
00000050: 5ad7 b8bd 4d91 683e 2c4f 403e d985 953c
00000060: 90d5 71bd 19eb dfbe 6ef6 233e 009b 023e
00000070: ef36 0e3f c09c 6fbd b6a7 3cbe ac91 003e
00000080: 21c3 133e 28fe 203e 80f0 6b3c 9d89 0abe
00000090: 1a54 6ebe 168f 293d a2a7 3a3e 60b6 cebd
000000a0: 609b 943e ec8f 8dbe 4a58 543e 1cea ba3d
000000b0: 7a84 3cbe 162a b53d 8ac2 a2be 80b0 da3d
000000c0: c0f7 893d 02cf c5be 8371 033d c68d 75bd
000000d0: ec18 373e 8eb0 eb3d 5d09 8dbd 5888 02be
000000e0: 071e f6bb c7f0 a2bb b983 e9bd 7be3 8e3e
000000f0: 646b 50be b4ef 0f3e efed a9bd 8b79 5c3e
00000100: 1c09 983d cbc4 a2be 2b1e a33b 7fc2 83bd
00000110: 856f 35be ab0e 9b3e 2212 0f3d 5760 afbd
00000120: b30e d1be b35c b13e 0070 38be 0c01 afbc
00000130: ed80 773e 0ad3 a1be 3923 193e 5178 5c3e
00000140: efd6 0fbe bf39 fdbd 255d 72be aa06 c6be
00000150: 29e1 97bd 44a8 853e 69f2 cdbd 91af 90be
00000160: fbe7 4f3e 61dd c1bc 94af d43e c8e8 adbe
00000170: b134 78be beb5 533e c5a3 f9bd 805c 40bd
00000180: d27e 993e 7557 69be c042 88be fc56 013c
00000190: 8a67 a63d 04f7 b13e adc8 1fbe ba62 a03d
000001a0: d492 4cbe 99f6 c63d 0d15 f23d 6fdc 0ebe
000001b0: 2290 6f3e ce99 d1bd a218 aabd 3ef9 6abd
000001c0: 9021 45bd 4139 91bc 18f0 a33d d605 973e
000001d0: 2e0f 113c 29b3 903e 0e6b 3dbe 2771 e53d
000001e0: 61c2 ccbe 1ea1 213e 07d0 b9bc 5ead ff3d
000001f0: f5ce 9ebe bfb0 0d3e a7de 5bbd 3284 ca3c
00000200: 66ab 843e 2128 3dbe 481d b13e 7e7e bfbd
00000210: ad6b a3be 1a4f e1bd 72e2 a3be 3be4 7e3e
00000220: cc9e 6b3e a23d 7cbe 95a9 193d 7dab 043e
00000230: b881 85bd de61 043d 9231 c7be 87a5 f53d

encoder.blocks.0.conv.0.bias f4 [16]
0.16218002 -0.03656966 -0.02252691 -0.15920657 0.08991495 -0.22013661 0.08421771 0.089949235
-0.13185012 0.3309438 -0.10324427 -0.23148917 0.028105002 -0.2515239 -0.29672334 -0.16833232
00000000: 8512 263e 11ca 15bd 5b8a b8bc 0c07 23be
00000010: 5425 b83d 7e6b 61be 567a ac3d 4e37 b83d
00000020: b803 07be 7771 a93e bb71 d3bd 7f0b 6dbe
00000030: 763c e63c bec7 80be 1fec 97be 4f5f 2cbe

encoder.blocks.0.conv.1.weight f4 [16]
0.9080498 0.92871195 0.86173123 0.8005865 1.318632 1.0043751 0.8007164 0.9555087
1.2900592 0.8703612 0.83135873 1.1967889 0.9292592 1.0511537 0.98695886 0.959949
00000000: f475 683f 11c0 6d3f 6b9a 5c3f 3df3 4c3f
00000010: efc8 a83f 5d8f 803f c0fb 4c3f 389c 743f
00000020: a920 a53f fecf 5e3f edd3 543f 6130 993f
00000030: eee3 6d3f 348c 863f 56a9 7c3f 38bf 753f

encoder.blocks.0.conv.1.bias f4 [16]
-0.028052945 -0.09421439 -0.06908535 -0.050472002 0.23866087 0.018668748 -0.12081315 -0.08251246
0.072516315 -0.0849694 -0.09207892 0.12403109 0.00048286628 0.011224835 -0.034279626 0.04113513
00000000: 4acf e5bc 79f3 c0bd 9f7c 8dbd bbbb 4ebd
00000010: 8463 743e 34ef 983c e36c f7bd 4bfc a8bd
00000020: 6f83 943d 7004 aebd df93 bcbd 0304 fe3d
00000030: 3729 fd39 5fe8 373c cb68 0cbd 4f7d 283d

encoder.blocks.0.conv.1.running_mean f4 [16]
0.13751419 -0.03903668 -0.112539425 0.20311931 0.10586437 -0.3084288 -0.021129273 0.081053615
-0.16190672 -0.032483276 -0.2714638 -0.11348725 0.15487227 -0.31302544 -0.49794272 -0.12147811
00000000: 85d0 0c3e ede4 1fbd 127b e6bd 82fe 4f3e
00000010: 6bcf d83d 61ea 9dbe 4c17 adbc 70ff a53d
00000020: e0ca 25be 2f0d 05bd 4efd 8abe 016c e8bd
00000030: d696 1e3e df44 a0be 59f2 febe 84c9 f8bd

encoder.blocks.0.conv.1.running_var f4 [16]
0.0016020983 0.0023067174 0.0034228563 0.02498868 0.0017768987 0.0037095794 0.0033456245 0.00681005
0.0056517986 0.026175588 0.017510608 0.003898725 0.004395976 0.0022429833 0.013309717 0.0035459076
00000000: 80fd d13a 4c2c 173b 0052 603b 0fb5 cc3c
00000010: d4e6 e83a 6a1c 733b 4442 5b3b d726 df3b
00000020: b932 b93b 306e d63c 6872 8f3c c081 7f3b
00000030: 1f0c 903b 04ff 123b 0011 5a3c 7562 683b

encoder.blocks.0.conv.3.weight f4 [16, 16, 3, 3]
0.02774107 -9.193558e-05 0.058601547 0.09488026 0.04975305 0.095327534 0.00057056564 0.09061336
0.07129266 -0.040772684 0.071868375 0.03131335 -0.046836965 -0.047342736 0.12126976 -0.034288675
0.02547112 0.01258148 0.121160984 0.14344437 0.012927112 -0.018074822 -0.021122074 -0.057895474
-0.022896431 -0.018979281 0.047684062 -0.014964057 0.10338526 0.14084044 0.0784901 0.033903006
-0.047686737 -0.02083703 -0.022004442 0.062085237 0.15849356 0.14350744 -0.050352633 0.10205199
0.011845297 0.0950894 0.013025088 -0.010894925 0.035579856 0.10010929 0.06902747 -0.04554774
-0.069953844 0.067879826 0.11160428 0.0062934174 0.06604379 0.011420817 0.008453279 -0.032496553
0.017228067 0.007824695 -0.026596632 0.05474636 -0.037014756 -0.09094142 0.0027471783 0.008719405
0.044835202 0.016504757 -0.06426733 0.057608694 0.001196174 0.034135807 0.008044172 0.109528154
0.10258449 0.06348925 -0.003469437 0.05328378 0.03231421 -0.067425735 -0.14003235 -0.019363446
-0.023390105 -0.053195264 -0.13250536 -0.1050647 0.06168135 0.053377725 -0.09447209 0.015832584
-0.054363925 -0.017877147 -0.041307732 0.0064458037 0.05422669 0.017620005 -0.048935518 -0.019527227
-0.023509089 0.041581064 0.04421158 0.19592431 0.17130181 0.043410096 0.014726079 0.027494043
-0.04845942 -0.08496846 -0.05673805 -0.08267947 0.09065826 0.08440352 0.096948855 -0.033233102
0.02111792 -0.016961977 0.034673173 -0.035625704 0.08001772 0.15039761 0.00493515 0.12809831
0.015215382 0.07219071 0.033967715 0.10726672 0.09349867 0.084105596 -0.08497737 -0.006071271
-0.07746203 0.049619317 -0.028547367 -0.037687212 0.002538423 0.044598423 0.021207068 -0.029686294
0.09163268 0.09515068 0.071832985 -0.031333514 0.09609095 0.018035417 -0.0005694424 -0.070719294
0.079315454 0.08877507 -0.06852976 0.076138094 -0.10363428 -0.132977 0.049601898 -0.087085195
-0.052417174 -0.046938013 0.011397621 -0.1356988 0.036167208 0.100038126 0.10063059 -0.042300265
0.046370085 -0.06851114 0.011190507 -0.023400605 -0.03775733 -0.046382934 -0.042724766 -0.020451635
-0.16877775 0.0030716422 -0.12463202 -0.119045086 -0.10328459 -0.03561001 -0.106434196 0.044024054
-0.05660412 0.0013021089 -0.012362958 -0.10367152 -0.007722296 0.11203296 -0.0570454 -0.0603765
0.050969943 -0.14151895 0.19957854 -0.064640015 -0.045726422 0.020870551 -0.117811166 -0.14181781
0.061579708 -0.13894658 -0.09689799 0.052350964 -0.054484177 -0.010959029 0.026170662 0.05755042
-0.017626379 0.017919375 0.009745019 -7.47872e-05 -0.05457093 0.06780145 0.010013848 0.049580425
-0.0035435874 -0.10053348 -0.034323864 0.028222427 -0.15031391 0.02886663 0.093289606 -0.064640716
-0.008028939 0.087872 -0.0070591294 -0.099597774 0.121314436 -0.11394002 0.15650631 0.10985349
-0.017619187 0.032638676 0.044454537 -0.101914935 0.05006663 -0.0042948406 -0.0269403 0.0058902637
-0.01606455 0.046743535 -0.079566695 0.056943297 -0.05497138 -0.08637635 -0.029320195 0.03037726
-0.06482198 0.09461791 0.02355472 -0.102370225 -0.010422083 -0.07910367 0.05349729 0.11051107
0.019140266 0.1430442 -0.19753958 -0.082334265 -0.075888634 -0.017396765 -0.11096367 0.014562808
00000000: 3e41 e33c 8acd c0b8 2d08 703d 9550 c23d
00000010: dbc9 4b3d 153b c33d 0392 153a 7f93 b93d
00000020: e301 923d 4201 27bd ba2f 933d 6d42 003d
00000030: 1ed8 3fbd 75ea 41bd 485c f83d 4872 0cbd
00000040: cfa8 d03c 8d22 4e3c 4023 f83d 15e3 123e
00000050: 3dcc 533c a611 94bc 3308 adbc ce23 6dbd
00000060: 4c91 bbbc 707a 9bbc 5d50 433d ce2b 75bc
00000070: a7bb d33d 7a38 103e 6bbf a03d e1dd 0a3d
00000080: 2b53 43bd 6bb2 aabc a942 b4bc 174d 7e3d
00000090: 234c 223e 9df3 123e 903e 4ebd a200 d13d
000000a0: c712 423c 3bbe c23d 2e67 553c a180 32bc
000000b0: 2fbc 113d 1906 cd3d 465e 8d3d 4490 3abd
000000c0: f643 8fbd 9404 8b3d c990 e43d 0339 ce3b
000000d0: f741 873d 611e 3b3c 9f7f 0a3c 1b1b 05bd
000000e0: e021 8d3c 2633 003c 2ee1 d9bc b83d 603d
000000f0: c99c 17bd 7f3f babd 010a 343b d6db 0e3c
00000100: 1ea5 373d fc34 873c 979e 83bd 18f7 6b3d
00000110: f0c8 9c3a fdd1 0b3d b4cb 033c 4c50 e03d
00000120: d117 d23d a706 823d 7e5f 63bb 1840 5a3d
00000130: e85b 043d 8116 8abd a464 0fbe 17a0 9ebc
00000140: 9b9c bfbc 47e3 59bd 7caf 07be 292c d7bd
00000150: 95a5 7c3d 9aa2 5a3d 957a c1bd 56b3 813c
00000160: b5ac 5ebd 1873 92bc 4c32 29bd 5237 d33b
00000170: ce1c 5e3d d457 903c 9c70 48bd 90f7 9fbc
00000180: 2296 c0bc e850 2a3d 3417 353d 62a0 483e
00000190: be69 2f3e c9ce 313d a745 713c 303b e13c
000001a0: 637d 46bd f203 aebd 2866 68bd db53 a9bd
000001b0: 0aab b93d c1db ac3d 1f8d c63d 6f1f 08bd
000001c0: 7dff ac3c d8f3 8abc 7505 0e3d 42ec 11bd
000001d0: 55e0 a33d d501 1a3e 0ab7 a13b 342c 033e
000001e0: f049 793c b9d8 933d bb21 0b3d a7ae db3d
000001f0: 3b7c bf3d 8e3f ac3d 9e08 aebd 83f1 c6bb
00000200: 6aa4 9ebd a03d 4b3d 2bdc e9bc e85d 1abd
00000210: ac5b 263b d6ac 363d 72ba ad3c ac30 f3bc
00000220: eaa9 bb3d 5cde c23d 2c1d 933d 9257 00bd
00000230: 55cb c43d 03bf 933c a246 15ba 47d5 90bd
00000240: 2470 a23d b4cf b53d 5559 8cbd 4aee 9b3d
00000250: 363e d4bd 1f2b 08be 5c2b 4b3d b959 b2bd
00000260: 64b3 56bd 1342 40bd 16bd 3a3c a0f4 0abe
00000270: 1124 143d cae0 cc3d 6917 ce3d 0b43 2dbd
00000280: 8fee 3d3d 924f 8cbd 6358 373c a0b2 bfbc
00000290: 6ea7 1abd 08fc 3dbd 2a00 2fbd 308a a7bc
000002a0: 13d4 2cbe 9b4d 493b 133f ffbd e9cd f3bd
000002b0: df86 d3bd cddb 11bd 2cfa d9bd 9152 343d
000002c0: b9d9 67bd 86ab aa3a 018e 4abc bc51 d4bd
000002d0: 500b fdbb 8971 e53d 70a8 69bd 594d 77bd
000002e0: dcc5 503d 58ea 10be 515e 4c3e fc61 84bd
000002f0: a14b 3bbd b8f8 aa3c fb46 f1bd b038 11be
00000300: 013b 7c3d 0348 0ebe 7472 c6bd f76d 563d
00000310: cd2a 5fbd 808d 33bc db63 d63c fdb9 6b3d
00000320: 3265 90bc a7cb 923c 92a9 1f3c 13d7 9cb8
00000330: c485 5fbd 7ddb 8a3d 1f11 243c d814 4b3d
00000340: 883b 68bb 7fe4 cdbd 2e97 0cbd b832 e73c
00000350: e4eb 19be b679 ec3c 9f0e bf3d 5a62 84bd
00000360: d08b 03bc 3cf6 b33d 4550 e7bb ebf9 cbbd
00000370: b473 f83d 6359 e9bd 3143 203e defa e03d
00000380: 1d56 90bc 22b0 053d f615 363d c7b8 d0bd
00000390: ab12 4d3d bcbb 8cbb e7b1 dcbc 1d03 c13b
000003a0: ce99 83bc 2676 3f3d ddf3 a2bd 603d 693d
000003b0: ab29 61bd 15e6 b0bd e830 f0bc bbd9 f83c
000003c0: 63c1 84bd 09c7 c13d d4f5 c03c 7ba7 d1bd
000003d0: 62c1 2abc 1b01 a2bd f91f 5b3d a153 e23d
000003e0: 0ccc 9c3c 2e7a 123e d147 4abe de9e a8bd
000003f0: 806b 9bbd a983 8ebc ec40 e3bd d898 6e3c

encoder.blocks.0.conv.3.bias f4 [16]
0.076997876 -0.13965087 0.10873144 -0.040296834 -0.022058303 -0.08048985 -0.07333023 -0.014225772
0.06636126 -0.036450524 0.019300308 0.12412641 -0.057858575 -0.029337691 0.007938075 0.014973443
00000000: 10b1 9d3d a300 0fbe 97ae de3d 4b0e 25bd
00000010: 9db3 b4bc ddd7 a4bd 292e 96bd 3613 69bc
00000020: 6ae8 873d 254d 15bd ae1b 9e3c fd35 fe3d
00000030: 1dfd 6cbd 9955 f0bc b30e 023c 2c53 753c

encoder.blocks.0.conv.4.weight f4 [16]
0.96175957 0.9117305 0.9259839 1.1075422 0.81869155 0.81514245 0.95107776 1.0125953
0.96959734 1.0351747 0.90370685 0.8744519 1.0357075 0.97595894 0.9584883 0.97829515
00000000: e035 763f 2c67 693f 480d 6d3f f1c3 8d3f
00000010: c595 513f 2dad 503f d579 733f b99c 813f
00000020: 8837 783f 9b80 843f 5559 673f 14dc 5f3f
00000030: 1092 843f 72d8 793f 7d5f 753f 8d71 7a3f

encoder.blocks.0.conv.4.bias f4 [16]
-0.031559885 0.021089831 0.019180844 -0.13495359 -0.16106227 -0.085529916 -0.061459582 -0.03723791
-0.053718373 -0.11598826 -0.03725188 -0.105892405 -0.0009329457 0.0049662967 -0.055289604 0.0057127634
00000000: f044 01bd 95c4 ac3c 2521 9d3c 4631 0abe
00000010: 82ed 24be 4f2a afbd 0bbd 7bbd c786 18bd
00000020: cc07 5cbd 418b edbd 6d95 18bd 1ede d8bd
00000030: ed90 74ba 51bc a23b 5a77 62bd 2232 bb3b

encoder.blocks.0.conv.4.running_mean f4 [16]
1.0313593 -0.7067187 -1.2701504 -0.25928333 -1.2113765 -1.0102634 1.0913849 -0.03953562
-0.24234061 0.8445157 -1.1136045 -0.11253124 -0.43137366 0.7489025 0.70304275 -0.88497335
00000000: 9503 843f 84eb 34bf 4a94 a2bf c9c0 84be
00000010: 630e 9bbf 5050 81bf 80b2 8b3f 1af0 21bd
00000020: 2328 78be 2e32 583f 988a 8ebf c776 e6bd
00000030: 02dd dcbe 13b8 3f3f 9cfa 333f 9d8d 62bf

encoder.blocks.0.conv.4.running_var f4 [16]
0.72525674 1.0347235 1.9197079 0.3935865 2.7929587 2.8555772 2.2174606 0.99219227
0.4002996 0.735072 1.8012203 0.6026899 0.7923856 0.8015931 1.1934923 1.0372854
00000000: 6daa 393f d271 843f fdb8 f53f 2b84 c93e
00000010: d6bf 3240 c7c1 3640 e0ea 0d40 5000 7e3f
00000020: 12f4 cc3e ae2d 3c3f 638e e63f e349 1a3f
00000030: c8d9 4a3f 3535 4d3f 5bc4 983f c5c5 843f

encoder.blocks.0.skip.weight f4 [16, 1, 1, 1]
-0.6901878 0.7174628 -0.35488176 0.024520397 0.0743767 0.898484 0.11616242 -0.010866523
0.3859539 0.908836 -0.6977873 0.76685107 0.89981234 -0.8371316 -0.06518197 0.29381454
00000000: 26b0 30bf a4ab 373f 10b3 b5be 00df c83c
00000010: d052 983d 0c03 663f 90e6 ed3d 8009 32bc
00000020: c09b c53e 7aa9 683f 30a2 32bf 5a50 443f
00000030: 1a5a 663f 424e 56bf 207e 85bd dc6e 963e

encoder.blocks.0.skip.bias f4 [16]
0.103659034 -0.6134025 0.8807558 0.6049634 -0.18560648 -0.8529699 -0.8766204 0.17904651
0.059934855 -0.6340555 0.11970425 0.96582985 0.9281992 -0.35433424 -0.12548852 0.3118335
00000000: 304b d43d f207 1dbf 3679 613f e2de 1a3f
00000010: a00f 3ebe 3c5c 5abf 326a 60bf f857 373e
00000020: 407e 753d 7651 22bf 8027 f53d a040 773f
00000030: 769e 6d3f 4c6b b5be 1080 00be a4a8 9f3e

encoder.blocks.1.conv.0.weight f4 [32, 16, 3, 3]
0.12583731 0.048717473 0.056320705 0.043518007 0.046907723 0.17977504 0.12592709 0.1426985
0.079705454 -0.005924457 0.01170228 -0.08029214 0.030934604 0.11860236 0.06807264 0.105298474
0.09110669 -0.0127305575 0.023211272 0.07067047 -0.029313393 0.0115427915 0.024867486 0.011186105
-0.070843995 0.08499088 0.057538945 0.06173084 0.11462434 0.1574946 0.09205682 0.07500813
0.040632684 0.15521216 -0.03848906 0.04088416 0.05435584 0.032258127 0.05697931 0.03905793
0.07015527 0.11538352 0.00638516 0.0061649587 0.07934807 -0.019090384 0.10487509 0.10020012
0.020049978 0.1272355 0.033052426 -0.021511588 -0.03989869 0.027077144 -0.063931674 -0.034243535
-0.07804016 0.009678963 0.10330686 0.11168159 0.11829286 0.051378388 0.04937972 -0.040870763
-0.05908426 -0.038860347 0.0193521 0.106797926 0.04097968 0.06399628 -0.024672119 -0.04014552
-7.407584e-05 0.118704885 0.0075772745 0.1494496 0.0055514686 -0.005997406 0.14397909 -0.036978535
-0.0053961333 0.14688438 0.12645847 0.005841687 0.15400892 0.10232062 0.11064315 0.013303102
0.09854577 0.04118262 -0.07022615 -0.072176404 -0.09916532 -0.053214107 -0.04645993 0.03843376
-0.015951345 -0.12192332 -0.015662096 0.03902879 -0.044492792 -0.099150546 -0.020749755 -0.13250086
-0.0040460774 -0.14647508 -0.0921172 -0.13204888 -0.03613516 0.06463 0.021815535 -0.03850433
-0.032589655 0.10614932 0.1408331 -0.03459754 0.06637412 -0.00084442593 0.07366361 -0.012722473
-0.058512226 0.094911784 0.12880789 0.023470802 0.032574274 -0.08888545 -0.030438371 -0.039341543
-0.03333793 0.027383963 0.008011286 -0.02345113 -0.058186714 -0.11902442 -0.026089402 0.0375169
0.0017169284 -0.010128921 0.06324507 0.004362826 -0.06295841 -0.008823954 -0.01673957 0.012588295
0.042199783 0.06826826 -0.02451985 0.07204142 0.032708265 -0.072312675 -0.1483067 -0.043909974
-0.036370676 -0.12140246 0.033292245 -0.0591559 -0.11152594 0.0114631625 -0.10785513 -0.09757476
-0.028473109 -0.0017194331 -0.08125802 -0.0326233 -0.03817623 -0.1362192 -0.046949986 -0.004594299
-0.02349017 0.0039878874 -0.14150986 -0.03787059 -0.08464043 -0.0028841463 -0.17619486 -0.09789388
-0.06695063 -0.15361927 -0.066818275 -0.08484794 -0.0022894638 -0.017796677 -0.048121452 0.11832681
0.07261396 -0.062330823 0.08577105 0.034334622 -0.056284163 -0.041712727 0.008679407 0.081686154
0.014637072 -0.014104191 0.060419347 0.056937836 0.0764006 0.07329458 -0.04572881 0.021797862
0.007712664 0.066667706 0.09928094 -0.01492637 -0.0716878 -0.075293966 -0.022017615 0.070760116
-0.060137697 0.021123854 -0.043760322 -0.07488667 -0.036724485 -0.09492721 -0.10890285 0.0020963459
0.028329886 -0.0922282 -0.1000827 -0.013665091 -0.08000219 -0.03760337 -0.12000064 -0.051268257
-0.0032116505 0.035375204 0.10760716 0.15277314 -0.012303831 -0.00015520389 0.06914646 0.014917394
0.06656948 0.10923895 0.056184758 0.03580137 0.07113074 0.06793564 0.046270687 0.08782901
0.020418977 0.052912343 0.078915514 -0.017314443 -0.07010963 -0.057447754 -0.11423938 -0.13231799
0.019465927 -0.1375785 -0.06844759 -0.06672283 0.021168416 -0.007985073 -0.087057956 -0.0016249846
00000000: 7fdb 003e f98b 473d 8ab0 663d f03f 323d
00000010: 5022 403d f316 383e 08f3 003e 8e1f 123e
00000020: 9d3c a33d f321 c2bb ebba 3f3c 3570 a4bd
00000030: 916a fd3c cbe5 f23d ab69 8b3d baa6 d73d
00000040: 2596 ba3d d493 50bc 9125 be3c aebb 903d
00000050: a422 f0bc fa1d 3d3c e6b6 cb3c ed45 373c
00000060: a816 91bd b30f ae3d f5ad 6b3d 7ad9 7c3d
00000070: 2ac0 ea3d 4446 213e 4988 bc3d dd9d 993d
00000080: 756e 263d f0ef 1e3e b4a6 1dbd 2676 273d
00000090: 3ba4 5e3d 1921 043d 2363 693d 35fb 1f3d
000000a0: 91ad 8f3d 324e ec3d 9b3a d13b 6c03 ca3b
000000b0: 3e81 a23d 7063 9cbc c0c8 d63d b835 cd3d
000000c0: da3f a43c 064a 023e fb61 073d 1239 b0bc
000000d0: cf6c 23bd e3d0 dd3c 9cee 82bd f342 0cbd
000000e0: 85d3 9fbd 8394 1e3c 8c92 d33d 51b9 e43d
000000f0: 8743 f23d 2572 523d 6442 4a3d 1a68 27bd
00000100: 5602 72bd 072c 1fbd 4c88 9e3c dfb8 da3d
00000110: 4fda 273d 7b10 833d 2f1d cabc a16f 24bd
00000120: 2a59 9bb8 8c1b f33d c94a f83b 5109 193e
00000130: 18e9 b53b e385 c4bb 416f 133e ce76 17bd
00000140: 0cd2 b0bb dc68 163e 547e 013e 9f6b bf3b
00000150: 84b4 1d3e 798d d13d e098 e23d 41f5 593c
00000160: 5dd2 c93d 1baf 283d bad2 8fbd 39d1 93bd
00000170: 3017 cbbd 09f7 59bd c44c 3ebd b86c 1d3d
00000180: 65ac 82bc efb2 f9bd cc4d 80bc a7dc 1f3d
00000190: 133e 36bd 710f cbbd 64fb a9bc 4eae 07be
000001a0: f594 84bb 90fd 15be f1a7 bcbd d237 07be
000001b0: 7602 14bd bc5c 843d 7eb6 b23c b7b6 1dbd
000001c0: bb7c 05bd d164 d93d 8d36 103e 26b6 0dbd
000001d0: 28ef 873d 775c 5dba f2dc 963d eb71 50bc
000001e0: 84aa 6fbd 1c61 c23d 37e6 033e d745 c03c
000001f0: 9a6c 053d 9309 b6bd e459 f9bc 9924 21bd
00000200: 5a8d 08bd 5554 e03c c541 033c 961c c0bc
00000210: 3155 6ebd 13c3 f3bd 71b9 d5bc 52ab 193d
00000220: 8f0a e13a c6f3 25bc a286 813d 09f6 8e3b
00000230: 57f0 80bd 5892 10bc 6c21 89bc 233f 4e3c
00000240: aed9 2c3d 3bd0 8b3d dadd c8bc 748a 933d
00000250: 1af9 053d ab18 94bd b6dd 17be f2da 33bd
00000260: 6bf9 14bd daa1 f8bd 735d 083d 754d 72bd
00000270: b667 e4bd fdcf 3b3c 27e3 dcbd 47d5 c7bd
00000280: 7040 e9bc 9a5e e1ba 9b6a a6bd 02a0 05bd
00000290: ae5e 1cbd 0c7d 0bbe a14e 40bd c68b 96bb
000002a0: 756e c0bc d3ac 823b f6e7 10be 311e 1bbd
000002b0: f657 adbd f203 3dbb 6d6c 34be 967c c8bd
000002c0: 691d 89bd 5f4e 1dbe 05d8 88bd c2c4 adbd
000002d0: d40a 16bb 56ca 91bc 001b 45bd 5455 f23d
000002e0: a1b6 943d 9b4e 7fbd bba8 af3d 76a2 0c3d
000002f0: 398a 66bd f7da 2abd 1234 0e3c 124b a73d
00000300: 54d0 6f3c 4415 67bc 477a 773d a637 693d
00000310: eb77 9c3d 781b 963d 224e 3bbd 6e91 b23c
00000320: 84ba fc3b 1489 883d ce53 cb3d bc8d 74bc
00000330: 0ed1 92bd b933 9abd 495e b4bc aeea 903d
00000340: f252 76bd ef0b ad3c 063e 33bd 2f5e 99bd
00000350: 6a6c 16bd 3269 c2bd 7508 dfbd d962 093b
00000360: 1414 e83c 23e2 bcbd 29f8 ccbd 8ce3 5fbc
00000370: 30d8 a3bd fe05 1abd e5c2 f5bd aafe 51bd
00000380: 8e7a 52bb 97e5 103d 2561 dc3d 9070 1c3e
00000390: 0296 49bc 3abe 22b9 a99c 8d3d 1668 743c
000003a0: 9455 883d acb8 df3d fd21 663d 75a4 123d
000003b0: feac 913d d721 8b3d 5586 3d3d b2df b33d
000003c0: b345 a73c 9dba 583d 759e a13d 05d7 8dbc
000003d0: a395 8fbd 564e 6bbd 56f6 e9bd 5e7e 07be
000003e0: 0277 9f3c 61e1 0cbe 402e 8cbd fba5 88bd
000003f0: 6369 ad3c d3d3 02bc 714b b2bd 6ffd d4ba

encoder.blocks.1.conv.0.bias f4 [32]
-0.06163472 0.0014330721 -0.02149321 0.0819486 0.02976288 -0.113410324 -0.06960492 -0.05937459
-0.021789262 -0.12978835 -0.0022758283 0.06903988 -0.10691393 -0.0041326825 0.07907886 0.009893572
0.017689306 0.006675336 -0.018893017 0.029354125 -0.014233684 0.04510217 -0.07962187 0.00067202025
-0.10847641 -0.022578701 0.06765038 0.08641197 -0.08727184 -0.0705296 0.068208046 0.032757197
00000000: b074 7cbd ecd5 bb3a 8712 b0bc abd4 a73d
00000010: 49d1 f33c ac43 e8bd 068d 8ebd c532 73bd
00000020: 657f b2bc 3de7 04be 1026 15bb c864 8d3d
00000030: b1f5 dabd 746b 87bb 19f4 a13d a618 223c
00000040: 2ae9 903c c7bc da3b 87c5 9abc 1078 f03c
00000050: 6634 69bc 0ebd 383d ca10 a3bd 842a 303a
00000060: e128 debd f8f6 b8bc 488c 8a3d c2f8 b03d
00000070: 94bb b2bd d371 90bd a9b0 8b3d 692c 063d

encoder.blocks.1.conv.1.weight f4 [32]
0.93501997 0.91729385 1.01167 0.96007454 0.9132936 0.96105814 1.0433254 0.9563828
0.93578744 0.9511208 1.0830084 1.0734549 1.0340656 0.90374637 0.93699574 0.9149292
1.100308 0.9777063 0.9214671 1.0557817 1.0212802 1.0217266 0.9566216 0.91685
1.0148401 1.0270948 0.8326743 1.0026098 1.1828487 0.9264603 0.9860593 0.9460735
00000000: 785d 6f3f c5d3 6a3f 677e 813f 72c7 753f
00000010: 9ccd 693f e807 763f b08b 853f 81d5 743f
00000020: c48f 6f3f a77c 733f 05a0 8a3f f866 893f
00000030: 435c 843f ec5b 673f f4de 6f3f cd38 6a3f
00000040: e4d6 8c3f f64a 7a3f 45e5 6b3f db23 873f
00000050: 4fb9 823f f0c7 823f 27e5 743f aeb6 6a3f
00000060: 48e6 813f d877 833f 252a 553f 8555 803f
00000070: 9667 973f 812c 6d3f 626e 7c3f df31 723f

encoder.blocks.1.conv.1.bias f4 [32]
0.027459968 -0.073543295 -0.048698116 0.024870588 -0.049992118 -0.005840822 0.005888416 -0.025766201
-0.01898142 -0.010690092 0.008965548 -0.142713 0.016111186 -0.07677414 -0.05067892 -0.11306027
-0.12602882 0.03504441 -0.0642514 0.00215206 0.026312608 -0.062301483 -0.01661374 -0.04757849
-0.034896716 0.028797938 -0.07458871 -0.0057704286 -0.0060648 -0.08710657 -0.037176102 0.058297623
00000000: baf3 e03c de9d 96bd ad77 47bd 67bd cb3c
00000010: 89c4 4cbd 5e64 bfbb 9df3 c03b a413 d3bc
00000020: ec7e 9bbc 7f25 2fbc 3ce4 123c 5b23 12be
00000030: 9bfb 833c c33b 9dbd b394 4fbd 258c e7bd
00000040: b30d 01be ba8a 0f3d 3d96 83bd 9309 0d3b
00000050: 8a8d d73c d72f 7fbd 8a19 88bc aae1 42bd
00000060: dcef 0ebd a7e9 eb3c f7c1 98bd dd15 bdbb
00000070: 3bbb c6bb ee64 b2bd f845 18bd 7dc9 6e3d

encoder.blocks.1.conv.1.running_mean f4 [32]
1.706403 -1.2119492 -0.59798026 -1.452356 -0.8928263 1.7535772 -1.4701123 -0.6245033
2.1886911 -2.3058665 0.78689593 -0.78061265 -1.6824269 -0.57209736 0.25833485 1.5153037
-0.09186303 -2.9981346 -1.7408271 1.8290625 -0.921051 1.6668816 0.48909035 -2.712954
-0.38958046 -0.90512335 -2.6158268 2.199696 0.9312672 -1.2179227 0.19949538 -1.1455526
00000000: 6a6b da3f 2721 9bbf 3c15 19bf cde6 b9bf
00000010: 4490 64bf 3875 e03f a42c bcbf 73df 1fbf
00000020: 8413 0c40 5193 13c0 0372 493f 3bd6 47bf
00000030: c459 d7bf f974 12bf 7744 843e 79f5 c13f
00000040: af22 bcbd 70e1 3fc0 6cd3 debf b81e ea3f
00000050: 00ca 6bbf 605c d53f 0d6a fa3e 0aa1 2dc0
00000060: 1777 c7be 2ab6 67bf b569 27c0 d2c7 0c40
00000070: 8767 6e3f e4e4 9bbf 8448 4c3e 78a1 92bf

encoder.blocks.1.conv.1.running_var f4 [32]
3.8182728 1.2918199 0.86674356 3.7087102 1.8694043 1.6609622 1.5717565 0.76674485
3.22312 2.8069139 2.1042533 1.2321336 1.2512484 1.3260742 1.1419024 1.586268
0.9528454 4.4452333 1.9072431 3.3108354 1.1984167 1.5282543 1.9809308 3.7578175
0.8970739 1.1155456 4.2479525 3.7385201 1.0871757 1.8911737 2.1242409 2.9254181
00000000: 955e 7440 5b5a a53f e8e2 5d3f 825b 6d40
00000010: a448 ef3f 699a d43f 512f c93f 6449 443f
00000020: 9947 4e40 7aa4 3340 16ac 0640 8eb6 9d3f
00000030: e828 a03f cdbc a93f dc29 923f d40a cb3f
00000040: aded 733f 5a3f 8e40 8b20 f43f bae4 5340
00000050: b865 993f d69d c33f 248f fd3f 1580 7040
00000060: a3a6 653f 33ca 8e3f 3aef 8740 ea43 6f40
00000070: 9328 8b3f fb11 f23f 90f3 0740 0d3a 3b40

encoder.blocks.1.conv.3.weight f4 [32, 32, 3, 3]
-0.018266948 0.06878792 -0.032444526 0.07974682 0.0068697296 -0.039662153 -0.0022122178 0.08303764
0.043483496 -0.09475236 -0.07856089 0.007287119 -0.10403309 -0.042390812 0.020031618 -0.066991314
-0.056244235 -0.09186208 -0.0874167 -0.06580244 0.0022859273 0.013369458 0.010278453 -0.012125836
-0.011672533 0.057545293 -0.078163356 -0.04880216 0.0042473753 0.05161617 0.0540274 0.057852224
0.0500714 0.026866516 0.10607063 0.081694014 -0.07132872 -0.038120393 -0.011562301 -0.07120856
0.019412816 0.009253616 -0.051973123 -0.004611459 -0.04120735 0.015974233 0.005268278 0.06470777
0.03883586 0.00880943 0.09910774 0.059888296 0.0034994816 0.016585521 0.055267856 -0.052165654
-0.059740916 0.0840939 -0.035044346 -0.06925691 0.14570202 -0.08623814 -0.059030738 0.10115045
0.10399129 0.028856434 0.08371839 -0.004721284 -0.07064575 0.07291536 0.01730069 0.019617105
0.05810436 0.02548236 -0.060593024 0.05743398 0.04475596 -0.0077025397 -0.03027106 0.040725715
0.0043209326 -0.19848984 -0.12953511 -0.12640445 -0.071737416 -0.0964686 -0.09562021 -0.10869057
0.026487276 -0.031239396 0.047498062 0.050458 -0.021616206 -0.07543154 -0.0037395097 -0.033028193
-0.100713775 -0.020897921 0.009042096 0.10158954 0.09876536 0.06762014 0.10325499 0.07411411
0.037783496 0.14163484 0.06943041 0.05772985 -0.053020515 -0.12168308 -0.055447854 -0.008732635
-0.07759765 -0.07194715 -0.05749868 -0.04953961 0.008465606 0.011203671 -0.015684811 -0.03185845
-0.037413016 0.032632954 -0.115170844 -0.005653718 -0.08255734 -0.024504432 -0.06806075 -0.036660492
0.013977199 -0.008001811 -0.11607469 -0.04585113 -0.031718638 -0.03514149 0.0027015265 0.036917366
0.033297293 -0.004243678 0.039661992 0.08149158 -0.023536412 -0.029076517 -0.017823767 0.025008397
0.038476955 0.17641476 0.1267225 0.023124775 0.09190902 0.1482703 0.054146834 0.047498036
0.05494454 -0.09253082 -0.106088266 -0.09098143 -0.050039146 -0.08861691 -0.005912779 -0.13137233
-0.091836445 -0.09371895 -0.008984561 -0.018179243 -0.024900192 -0.04474189 -0.060035687 -0.06565228
-0.09595489 -0.07322154 -0.040722042 -0.016689202 -0.06669636 0.007856984 -0.080025226 -0.009081361
0.018269548 -0.050272554 -0.027143283 -0.04955265 0.0044331728 -0.0957421 -0.13458607 0.011413417
-0.048494875 -0.13950847 0.01914111 -0.038160026 -0.08260252 0.02478134 0.008164612 0.07571142
-0.00064385583 0.09316807 0.083444424 0.049614936 0.089602314 0.09328897 -0.013283791 -0.012682774
-0.06089856 -0.0470808 -0.07592448 -0.08757387 -0.026811562 -0.0394568 -0.05050888 -0.014305022
-0.06015311 -0.0012040484 -0.0037188116 -0.0600289 -0.03914761 -0.01920877 -0.10708154 -0.151621
-0.02401037 -0.12003737 -0.13454007 0.0101984255 -0.035900168 -0.13873777 0.04645807 -0.08738975
-0.07359453 0.035646126 -0.048373494 -0.054628648 -0.011539795 -0.036551554 -0.019608071 0.09727745
-0.0023264035 -0.05600874 0.0058472925 -0.0064070597 -0.027641628 -0.010475853 0.03150835 0.04834606
-0.03575178 0.015043435 0.04065265 0.069997184 0.03280606 -0.026302243 -0.022958767 -0.012271117
-0.02340327 -0.025975585 -0.07902961 0.0047795083 0.04718246 0.10579722 0.15821546 0.07380107
00000000: 91a4 95bc aee0 8c3d 8de4 04bd 4d52 a33d
00000010: 781b e13b c874 22bd dbfa 10bb a30f aa3d
00000020: c01b 323d 860d c2bd 88e4 a0bd c9c8 ee3b
00000030: 4d0f d5bd fda1 2dbd 5919 a43c be32 89bd
00000040: 5b60 66bd 3022 bcbd 8707 b3bd 6ec3 86bd
00000050: 7fcf 153b 920b 5b3c f566 283c 71ab 46bc
00000060: 273e 3fbc 9db4 6b3d 1c14 a0bd c6e4 47bd
00000070: 912d 8b3b 7a6b 533d d64b 5d3d 74f6 6c3d
00000080: ab17 4d3d 2b17 dc3c 8f3b d93d 314f a73d
00000090: cb14 92bd 2124 1cbd ce6f 3dbc cbd5 91bd
000000a0: a007 9f3c 7b9c 173c c5e1 54bd b91b 97bb
000000b0: 0ac9 28bd 65dc 823c 85a1 ac3b 8285 843d
000000c0: 5a12 1f3d 6d55 103c 00f9 ca3d 6e4d 753d
000000d0: 8f57 653b 5cde 873c 8c60 623d a7ab 55bd
000000e0: e4b2 74bd 6c39 ac3d a98a 0fbd 91d6 8dbd
000000f0: e932 153e 9f9d b0bd 37ca 71bd f827 cf3d
00000100: 63f9 d43d 5464 ec3c 8c74 ab3d 00b5 9abb
00000110: b8ae 90bd a654 953d 2dba 8d3c 0db4 a03c
00000120: d6fe 6d3d 62c0 d03c 6430 78bd e53f 6b3d
00000130: 0752 373d 9665 fcbb 04fb f7bc 02d0 263d
00000140: 9c96 8d3b ec40 4bbe daa4 04be 2b70 01be
00000150: 11eb 92bd 5491 c5bd 87d4 c3bd 2999 debd
00000160: d8fb d83c c3e9 ffbc 548d 423d 0cad 4e3d
00000170: 7814 b1bc da7b 9abd 9012 75bb 9248 07bd
00000180: 0643 cebd 1e32 abbc 4d25 143c 2d0e d03d
00000190: 7e45 ca3d 6e7c 8a3d 5a77 d33d 23c9 973d
000001a0: dec2 1a3d b908 113e 8831 8e3d 2376 6c3d
000001b0: 0a2c 59bd fb34 f9bd 4a1d 63bd 5313 0fbc
000001c0: 84eb 9ebd 0759 93bd bc83 6bbd 0cea 4abd
000001d0: 53b3 0a3c 9a8f 373c 6f7d 80bc 027e 02bd
000001e0: 643e 19bd 22aa 053d b1de ebbd d342 b9bb
000001f0: d313 a9bd 85bd c8bc 6f63 8bbd 5029 16bd
00000200: 9f00 653c 071a 03bc 91b8 edbd 65ce 3bbd
00000210: 67eb 01bd 86f0 0fbd 180c 313b aa36 173d
00000220: be62 083d 8d0e 8bbb 9d74 223d 0fe5 a63d
00000230: 6fcf c0bc e031 eebc 2603 92bc 69de cc3c
00000240: 039a 1d3d 12a6 343e 8bc3 013e 2b70 bd3c
00000250: cc3a bc3d 2bd4 173e 12c9 5d3d 4d8d 423d
00000260: 870d 613d cc80 bdbd ce44 d9bd 7954 babd
00000270: d9f5 4cbd c87c b5bd fcbf c1bb 7886 06be
00000280: bf14 bcbd b9ef bfbd fb33 13bc a3ec 94bc
00000290: 7dfb cbbc 4643 37bd fbe7 75bd b474 86bd
000002a0: ff83 c4bd 2df5 95bd 28cc 26bd cbb7 88bc
000002b0: 1a98 88bd 94ba 003c 44e4 a3bd fdc9 14bc
000002c0: 05aa 953c 98ea 4dbd 975b debc b8f7 4abd
000002d0: 2644 913b 6f14 c4bd eed0 09be 57ff 3a3c
000002e0: 90a2 46bd 4fdb 0ebe d1cd 9c3c b04d 1cbd
000002f0: 832b a9bd 3d02 cb3c ddc4 053c 970e 9b3d
00000300: 6fc8 28ba e7ce be3d e9e4 aa3d 0839 4b3d
00000310: 6b81 b73d 4a0e bf3d 42a4 59bc 69cb 4fbc
00000320: c570 79bd ccd7 40bd 4b7e 9bbd ee59 b3bd
00000330: eca3 dbbc 749d 21bd 66e2 4ebd 9c5f 6abc
00000340: 1c63 76bd 29d1 9dba 4eb7 73bb dde0 75bd
00000350: 3f59 20bd b65b 9dbc 914d dbbd 8942 1bbe
00000360: 65b1 c4bc 27d6 f5bd dfc4 09be 4c17 273c
00000370: 0e0c 13bd 4611 0ebe d14a 3e3d 66f9 b2bd
00000380: bbb8 96bd ac01 123d 4923 46bd 4ac2 5fbd
00000390: 6911 3dbc 15b7 15bd 1ba1 a0bc 6639 c73d
000003a0: 9376 18bb 6c69 65bd a59a bf3b 50f2 d1bb
000003b0: b270 e2bc eaa2 2bbc e60e 013d 8506 463d
000003c0: 7570 12bd bd78 763c 6583 263d af5a 8f3d
000003d0: a65f 063d cd77 d7bc 0614 bcbc cc0c 49bc
000003e0: 37b8 bfbc c0ca d4bc 47da a1bd 6c9d 9c3b
000003f0: 6542 413d 36ac d83d 3c03 223e 0425 973d

encoder.blocks.1.conv.3.bias f4 [32]
-0.022215232 0.011351608 -0.023642426 -0.010673671 -0.06582128 0.046456035 -0.11195996 0.005121351
0.01994386 -0.04233384 -0.048504643 0.027102621 0.031373378 0.025635956 0.050441507 0.051441766
-0.00057002716 -0.07986638 0.011201928 -0.04985808 0.04509269 0.05199199 -0.026571523 0.014606527
-0.022714311 -0.07394165 -0.04532247 -0.0687476 -0.023503976 -0.01105233 -0.0468769 -0.0044882842
00000000: b8fc b5bc 18fc 393c c3ad c1bc 9fe0 2ebc
00000010: 4fcd 86bd af48 3e3d 434b e5bd 02d1 a73b
00000020: 4e61 a33c 4066 2dbd ceac 46bd 5106 de3c
00000030: 5f81 003d 7f02 d23c c19b 4e3d 9ab4 523d
00000040: e06d 15ba fc90 a3bd 4b88 373c fc37 4cbd
00000050: 1db3 383d 8ef5 543d 86ac d9bc 3750 6f3c
00000060: 5d13 babc b86e 97bd 0ea4 39bd 8bcb 8cbd
00000070: 698b c0bc d514 35bc fe01 40bd 7512 93bb

encoder.blocks.1.conv.4.weight f4 [32]
1.0001202 1.1019369 0.93094057 0.89088756 0.9431974 0.93456393 0.87315536 1.0236131
1.0815866 1.0114578 0.9996756 0.86941224 1.130019 0.92900276 0.86670357 0.8670727
0.95729005 0.9591672 1.1647435 0.9737062 1.1088349 0.87355065 0.88834894 0.97620904
1.0057076 0.9221598 1.015592 0.8819391 1.1943134 1.1791657 1.134269 0.90395886
00000000: f003 803f 450c 8d3f 1f52 6e3f 3511 643f
00000010: 6375 713f 953f 6f3f 1c87 5f3f c105 833f
00000020: 6e71 8a3f 7377 813f bdea 7f3f cd91 5e3f
00000030: 76a4 903f 20d3 6d3f 49e0 5d3f 7af8 5d3f
00000040: f610 753f fb8b 753f 5116 953f cf44 793f
00000050: 4dee 8d3f 04a1 5f3f d66a 633f d6e8 793f
00000060: 07bb 803f aa12 6c3f ebfe 813f c3c6 613f
00000070: 43df 983f e7ee 963f ba2f 913f d969 673f

encoder.blocks.1.conv.4.bias f4 [32]
-0.10046779 -0.10584149 -0.08728141 -0.04449256 -0.08446376 -0.051962692 -0.114920974 -0.0023617353
0.022358319 -0.086532 0.0583047 -0.06666868 -0.050844498 -0.0065752096 -0.14893913 -0.11105707
-0.06534591 -0.037884653 -0.07163946 -0.039824314 -0.037925873 -0.098262325 -0.08665846 -0.10855092
-0.06875885 -0.08698378 -0.08174574 -0.09243968 0.016921686 -0.1184335 0.056449424 -0.026728455
00000000: 0fc2 cdbd 6cc3 d8bd 99c0 b2bd d53d 36bd
00000010: 56fb acbd d5d6 54bd b05b ebbd 58c7 1abb
00000020: cb28 b73c b037 b1bd e9d0 6e3d 9789 88bd
00000030: 5242 50bd db74 d7bb 8083 18be e471 e3bd
00000040: 14d4 85bd f02c 1bbd b6b7 92bd d21e 23bd
00000050: 2958 1bbd c23d c9bd fe79 b1bd f24f debd
00000060: 71d1 8cbd 8d24 b2bd 4f6a a7bd 0451 bdbd
00000070: 599f 8a3c 438d f2bd 8337 673d a2f5 dabc

encoder.blocks.1.conv.4.running_mean f4 [32]
-0.70282847 0.7092853 1.6494577 -0.75140566 -1.3458878 -0.9130024 -2.55673 0.31398594
1.1727136 -0.15060075 -0.047177125 -1.2802988 0.5546094 -0.8635756 -0.8035549 -2.3109803
0.0046330094 -0.9167587 0.51013297 0.7730836 -0.14769575 -2.5083377 -1.5642105 0.60222065
-0.42651612 0.033726674 -0.48365462 -2.708876 0.7510207 0.5191676 -0.33293763 -1.4099737
00000000: 91ec 33bf b993 353f 6e21 d33f 1f5c 40bf
00000010: 0d46 acbf 86ba 69bf 77a1 23c0 c4c2 a03e
00000020: 7b1b 963f 1537 1abe cd3c 41bd d5e0 a3bf
00000030: e2fa 0d3f 4a13 5dbf c6b5 4dbf 1ae7 13c0
00000040: 80d0 973b b3b0 6abf 1398 023f cfe8 453f
00000050: 8e3d 17be 9b88 20c0 0d38 c8bf 222b 1a3f
00000060: 5260 dabe fb24 0a3d 94a1 f7be 395e 2dc0
00000070: e542 403f 2be8 043f cd76 aabe 057a b4bf

encoder.blocks.1.conv.4.running_var f4 [32]
5.0330925 4.8090434 8.757172 6.314942 2.1991022 6.117916 9.443313 4.8942356
9.529467 6.039006 4.843172 2.3986578 3.6140158 3.8766875 5.7468114 10.547149
2.2101657 5.890607 3.7620614 3.8457835 3.9950511 3.453042 6.367847 3.3545554
3.9330597 2.543056 1.8099587 7.177877 3.017592 4.849254 3.3483796 9.61416
00000000: 180f a140 afe3 9940 601d 0c41 0114 ca40
00000010: 17be 0c40 f8c5 c340 cf17 1741 949d 9c40
00000020: b278 1841 8a3f c140 44fb 9a40 9c83 1940
00000030: 094c 6740 a61b 7840 e1e5 b740 1fc1 2841
00000040: 5b73 0d40 da7f bc40 9dc5 7040 5121 7640
00000050: ebae 7f40 a4fe 5c40 67c5 cb40 09b1 5640
00000060: 40b7 7b40 6ec1 2240 baac e73f 2bb1 e540
00000070: 3a20 4140 172d 9b40 da4b 5640 99d3 1941

encoder.blocks.1.skip.weight f4 [32, 16, 1, 1]
0.1711618 -0.24678457 -0.030277729 0.14475656 0.04202625 0.17496967 -0.08569363 -0.06943494
-0.15838441 -0.24507084 0.16753894 0.077677995 0.045422584 0.0756354 0.22352046 0.00032138824
0.14457926 0.11749345 0.17108333 0.069150925 0.07981479 0.07061157 0.035063267 -0.055137753
0.10480186 0.14855817 0.034496248 0.2011317 -0.076538 -0.15262714 0.04805678 0.17645654
-0.22153544 0.09265113 -0.23657694 0.09523079 -0.14757863 0.24636367 0.011335194 0.15092301
-0.09304178 0.03293127 0.028684437 -0.040106326 0.23355967 0.08187169 0.09571713 0.21675593
0.13439026 0.15135667 0.07468289 0.015447348 0.045108974 0.2292414 -0.1054523 -0.20535618
-0.016914457 -0.044668585 0.15518537 0.09753728 0.09164277 0.18741015 -0.107948065 0.24245113
0.1814194 -0.24163017 0.06139636 0.032161087 -0.0035638511 0.21928665 -0.20906657 0.010511637
-0.19510207 -0.21480757 -0.033038527 -0.0711827 -0.04553336 0.064709604 0.032054216 -0.10373598
-0.13089684 0.1462104 -0.10764402 0.098964125 0.21474344 -0.08206278 -0.016718686 -0.23449895
-0.14161009 0.006860763 -0.17926657 0.115891814 0.18193465 0.16727823 0.116655976 -0.24493104
0.071174115 0.13002846 -0.18698016 -0.18702665 -0.084461 0.13760614 0.046592057 0.24155065
0.17557198 0.21128407 0.061133176 -0.10122967 -0.04036367 0.15366772 -0.0330438 0.15564048
-0.03234145 0.09328213 -0.15398607 -0.16747576 0.24357715 0.15693071 0.15438488 -0.17674056
-0.1750165 0.0058804154 0.10772249 -0.18362209 0.16042402 -0.19566974 0.03213486 0.05438435
0.14072031 0.19913357 0.21495727 -0.19251645 -0.16170454 -0.06405589 0.24110514 0.23503539
-0.07573703 0.131403 -0.23154974 0.03745815 0.1402489 0.04281494 -0.14694247 -0.05772996
0.05689746 -0.19370177 0.15403947 -0.16231313 -0.15967229 0.09991795 -0.18953022 0.19690329
-0.13684091 0.080485225 0.24151772 -0.074245006 0.0025718212 -0.021748006 0.14669394 -0.23305246
0.15861076 0.030878067 -0.10496917 0.08840951 -0.03557527 -0.06324172 -0.08540261 0.17700231
-0.17022786 0.15654624 0.14933077 -0.2480917 -0.16824487 -0.029766291 0.23433879 0.1783076
0.23889658 -0.004679799 0.13222489 0.11150184 0.12144482 0.2071276 -0.15264204 0.060697705
0.0461255 -0.13560632 -0.18517518 -0.18194053 -0.118529886 -0.085396856 0.18598983 -0.21777827
0.13963264 0.0042930245 -0.03945157 0.11776632 -0.18359607 0.038657337 0.1380862 0.09894988
0.109166324 0.110655695 0.16722023 0.14357165 0.09406033 0.097479075 0.13473886 0.054537028
0.03768432 0.119473755 0.07233563 0.1209884 0.21039772 -0.010459602 0.036353767 0.16913527
-0.19977054 -0.24273902 -0.1059919 -0.10600111 0.24447912 0.19223374 -0.009016216 0.22430879
-0.21714678 -0.011914492 -0.036143214 -0.17741013 -0.09634906 -0.12575424 0.044457585 0.17304435
0.14894897 0.05896303 0.21230143 -0.14894605 0.15552896 0.032273203 0.12332752 -0.24245477
0.1945205 -0.21072423 -0.08280802 -0.08828515 0.025441408 0.1991893 0.009614706 -0.0029552877
0.16330737 -0.17841446 -0.11402497 -0.054527044 0.07015973 0.20200089 -0.12933955 -0.0019872785
00000000: 0a45 2f3e 18b5 7cbe 0009 f8bc 103b 143e
00000010: b823 2c3d 402b 333e 2480 afbd e833 8ebd
00000020: 862f 22be daf3 7abe 548f 2b3e a415 9f3d
00000030: 080d 3a3d bce6 9a3d 8ce2 643e 0080 a839
00000040: 960c 143e 68a0 f03d 7830 2f3e 009f 8d3d
00000050: f075 a33d cc9c 903d 809e 0f3d 20d8 61bd
00000060: 5ca2 d63d a21f 183e f04b 0d3d 78f5 4d3e
00000070: f4bf 9cbd 4a4a 1cbe 30d7 443d 06b1 343e
00000080: 30da 62be e0bf bd3d 3a41 72be 5c08 c33d
00000090: da1e 17be c246 7c3e 40b7 393c 908b 1a3e
000000a0: b08c bebd f0e2 063d a0fb ea3c 8846 24bd
000000b0: 442a 6f3e 58ac a73d 5807 c43d 44f5 5d3e
000000c0: 9a9d 093e 3efd 1a3e 58f3 983d e016 7d3c
000000d0: 30c4 383d 42be 6a3e 60f7 d7bd e448 52be
000000e0: 3090 8abc 68f6 36bd eae8 1e3e a0c1 c73d
000000f0: 34af bb3d 72e8 3f3e e013 ddbd 1c45 783e
00000100: 02c6 393e e66d 77be c07a 7b3d 58bb 033d
00000110: 808f 69bb ae8c 603e 8c15 56be 0039 2c3c
00000120: d6c8 47be 84f6 5bbe 6853 07bd 3cc8 91bd
00000130: 3081 3abd 7886 843d 484b 033d 8873 d4bd
00000140: d209 06be 2eb8 153e 7874 dcbd b4ad ca3d
00000150: b4e5 5b3e 8810 a8bd a0f5 88bc 7e20 70be
00000160: 3c02 11be 40d0 e03b a891 37be b058 ed3d
00000170: 144d 3a3e fc4a 2b3e 54e9 ee3d 34cf 7abe
00000180: bcc3 913d 2e26 053e ba77 3fbe ea83 3fbe
00000190: e4f9 acbd a0e8 0c3e 50d7 3e3d 0e59 773e
000001a0: 24c9 333e da5a 583e c866 7a3d 8051 cfbd
000001b0: 6054 25bd 125b 1d3e f058 07bd 3860 1f3e
000001c0: 7878 04bd b40a bf3d 86ae 1dbe c47e 2bbe
000001d0: 4a6c 793e 72b2 203e 1217 1e3e 7afb 34be
000001e0: 8637 33be 80b0 c03b 9c9d dc3d 6e07 3cbe
000001f0: 3246 243e a65d 48be d89f 033d 20c2 5e3d
00000200: fc18 103e ace9 4b3e c21d 5c3e 0823 45be
00000210: e095 25be bc2f 83bd 44e4 763e 1ead 703e
00000220: 041c 9bbd 828e 063e 601b 6dbe b86d 193d
00000230: 689d 0f3e b85e 2f3d 1678 16be 4076 6cbd
00000240: 500d 693d c259 46be 86bc 1d3e 6a35 26be
00000250: 2281 23be c8a1 cc3d 3614 42be 04a1 493e
00000260: 0620 0cbe 70d5 a43d 6c50 773e c40d 98bd
00000270: 008c 283b e028 b2bc f036 163e 4ea5 6ebe
00000280: dc6a 223e 00f4 fc3c 14fa d6bd 0c10 b53d
00000290: 60b7 11bd e084 81bd 90e7 aebd 1840 353e
000002a0: 3650 2ebe a84d 203e 2aea 183e c00b 7ebe
000002b0: 6248 2cbe 70d8 f3bc 82f6 6f3e 4496 363e
000002c0: 4ea1 743e 0059 99bb f665 073e 145b e43d
000002d0: 10b8 f83d 4219 543e 324e 1cbe 289e 783d
000002e0: 18ee 3c3d 62dc 0abe 909e 3dbe 9e4e 3abe
000002f0: ccbf f2bd 8ce4 aebd 1e74 3e3e 4401 5fbe
00000300: dcfb 0e3e 80ac 8c3b f897 21bd 782f f13d
00000310: 9c00 3cbe 2857 1e3d 7866 0d3e 3ca6 ca3d
00000320: 9892 df3d 749f e23d c83b 2b3e 7204 133e
00000330: b4a2 c03d 1ca3 c73d fcf8 093e 3862 5f3d
00000340: e05a 1a3d a8ae f43d b424 943d c4c8 f73d
00000350: 8072 573e c05e 2bbc b0e7 143d cc31 2d3e
00000360: a690 4cbe 9490 78be 4812 d9bd 1c17 d9bd
00000370: bc58 7a3e ecd8 443e c0b8 13bc 34b1 653e
00000380: ba5b 5ebe 0035 43bc e80a 14bd 00ab 35be
00000390: a852 c5bd b8c5 00be 2819 363d 8a32 313e
000003a0: 1486 183e 3883 713d 8c65 593e 5085 18be
000003b0: fc42 1f3e e830 043d 2493 fc3d 1046 78be
000003c0: 6230 473e 18c8 57be 4097 a9bd d8ce b4bd
000003d0: 806a d03c 48f8 4b3e 0087 1d3c 80ad 41bb
000003e0: 0c3a 273e 48b2 36be ec85 e9bd c057 5fbd
000003f0: e8af 8f3d 52d9 4e3e 9671 04be 003d 02bb

encoder.blocks.1.skip.bias f4 [32]
-0.21067196 0.0720332 0.1278235 -0.06470406 -0.10486379 0.001314342 0.1568278 0.017743438
-0.08900118 -0.1870752 -0.07952118 -0.10062444 0.1662466 -0.22275284 0.09195599 -0.09042585
-0.15561298 -0.13052344 -0.06053835 -0.0126595795 0.062727064 0.16732022 -0.050617814 0.08547893
-0.044282287 -0.19231877 0.120152265 0.17844418 -0.15884328 -0.21691465 0.198396 0.22368708
00000000: 64ba 57be 2486 933d 2ae4 023e 9083 84bd
00000010: d4c2 d6bd 0046 ac3a 7897 203e b05a 913c
00000020: 4046 b6bd a490 3fbe 00dc a2bd 3014 cebd
00000030: 8c3c 2a3e 5219 64be 6c53 bc3d 3031 b9bd
00000040: 0259 1fbe f0a7 05be 10f7 77bd 206a 4fbc
00000050: 0c77 803d fe55 2b3e a054 4fbd 940f af3d
00000060: 5861 35bd 36ef 44be 6412 f63d 12ba 363e
00000070: d0a7 22be e01e 5ebe 5228 4b3e 3a0e 653e

encoder.blocks.2.conv.0.weight f4 [64, 32, 3, 3]
0.074280284 0.070405565 -0.021839395 0.01516307 0.13169768 0.015626557 0.08749506 -0.0064050267
-0.037841134 0.0813306 0.09698575 -0.013899552 0.09809736 0.0125432 -0.083315946 0.13775738
0.017956182 -0.10644412 0.019004324 0.023242896 -0.049049787 0.046143383 -0.07584705 0.0056540244
-0.050135095 -0.09440409 -0.036104333 0.027498327 -0.0228155 0.038354274 -0.050917286 0.011035862
0.0020167981 -0.0874966 -0.033784322 -0.06384806 0.06433802 0.019888973 -0.012082691 0.042023145
0.07534422 -0.046607126 0.12473521 0.041831955 -0.044297922 0.12231816 0.029960707 0.0017500309
0.08281035 -0.01607139 -0.003994403 0.037166163 -0.009726046 -0.06843219 -0.0030830863 0.012102102
0.046718437 0.037126526 0.006822404 0.016318718 -0.023180565 0.036708936 -0.030240804 0.021715779
0.032902118 -0.0107567785 -0.05637449 -0.06282993 -0.054472297 -0.07360701 -0.026886947 -0.052547596
-0.13853489 0.05274415 -0.03606072 -0.017949 0.07791781 -0.06437449 -0.033183254 0.021121493
-0.09867919 0.05261584 0.020995645 0.038433496 0.01100848 0.02932868 -0.08171197 0.0036798483
-0.025783204 -0.028167468 0.021947179 -0.016101468 -0.067628786 -0.10571081 -0.05819046 -0.07692701
-0.11910521 -0.017090434 0.0035068286 -0.004200905 0.03800154 -0.037310775 0.01359193 0.006263696
-0.031756144 -0.049302306 -0.07056623 -0.09577618 -0.030661462 0.119020425 -0.008660348 0.02385706
0.042840634 -0.06243063 0.0017411099 0.014592583 -0.1524252 -0.015728984 0.018152602 -0.04981236
0.020298477 0.10259248 -0.045864124 0.06520253 0.036239777 0.033142358 -0.030686205 -0.008816513
-0.040450025 0.05853047 0.007116937 -0.03629903 0.09351333 -0.004048494 0.0628455 0.0116707
-0.0098038865 0.06278221 0.054977503 -0.05857303 0.06612755 0.021358136 -0.0005725429 0.059394877
0.030402001 0.122168444 0.061787117 0.023194054 0.012506264 0.035961617 0.02197091 -0.0580975
-0.13011254 0.07680926 0.1103408 -0.005319222 0.06616394 -0.016334744 0.024179455 -0.00019789526
-0.031438325 0.0073151803 -0.00034309522 0.07963993 0.0051418953 0.09268689 0.058725547 -0.022839462
0.13563831 0.06533896 -0.06936305 -0.03543954 -0.04960196 -0.01964133 -0.09512257 -0.009510231
-0.04757146 0.040590756 -0.0046600304 0.056728125 -0.10469218 0.07445535 0.044600368 -0.06383644
0.10016202 0.0613444 -0.013113514 0.052700557 -0.05730252 0.0120414505 -0.019912694 -0.032247134
0.042960495 0.0472312 0.088444516 0.04631919 0.03921846 0.08759562 -0.061176058 -0.058108315
-0.00092054234 -0.031329587 -0.012449945 0.019595167 -0.08612855 -0.010728384 0.025637126 -0.0056276917
-0.028307457 -0.08450652 0.0010510666 -0.034013804 0.06926502 -0.023183746 -0.01665565 -0.033590015
-0.00013448174 0.020997686 -0.18188286 0.09723612 -0.020792693 -0.14944397 0.13939671 -0.004059557
-0.102468 0.07789359 0.089334644 0.08721313 -0.0015062405 0.060307566 0.026360208 -0.011388652
-0.03173505 -0.016784357 -0.1158399 0.029264241 0.06762571 -0.07153201 0.10627164 -0.05021294
0.050589062 0.0036326803 -0.09069151 0.04730954 0.05949832 0.057820465 -0.012573899 0.03433012
0.020220611 -0.037841596 0.08128128 0.096648976 0.027703231 0.026819328 -0.15317285 0.069158666
00000000: 4320 983d cb30 903d 88e8 b2bc 866e 783c
00000010: c2db 063e 4403 803c 9c30 b33d 42e1 d1bb
00000020: 4eff 1abd a890 a63d 77a0 c63d f2ba 63bc
00000030: 45e7 c83d fe81 4d3c 8da1 aabd 4510 0d3e
00000040: d818 933c 60ff d9bd f5ae 9b3c e367 be3c
00000050: 6ee8 48bd d800 3d3d b355 9bbd 6545 b93b
00000060: 755a 4dbd ee56 c1bd 23e2 13bd 2c44 e13c
00000070: 92e7 babc 5f19 1d3d a58e 50bd c3cf 343c
00000080: 422c 043b 6b31 b3bd 6e61 0abd c6c2 82bd
00000090: a7c3 833d 33ee a23c 7bf6 45bc 7620 2c3d
000000a0: 124e 9a3d 1de7 3ebd 2c75 ff3d fc57 2b3d
000000b0: bd71 35bd f281 fa3d 2870 f53c 4b61 e53a
000000c0: 7998 a93d 26a8 83bc 7be3 82bb 8c3b 183d
000000d0: fe59 1fbc 2d26 8cbd 9b0d 4abb e547 463c
000000e0: d55b 3f3d fc11 183d 798e df3b d5ae 853c
000000f0: 2be5 bdbc 1c5c 163d 90bb f7bc 4ae5 b13c
00000100: 5fc4 063d 333d 30bc f0e8 66bd faac 80bd
00000110: 581e 5fbd 46bf 96bd 0442 dcbc 263c 57bd
00000120: 17dc 0dbe 400a 583d 68b4 13bd c809 93bc
00000130: 5f93 9f3d c6d6 83bd 2aeb 07bd fb06 ad3c
00000140: 5118 cabd b583 573d 0fff ab3c 716c 1d3d
00000150: e95c 343c b342 f03c 9b58 a7bd 9c29 713b
00000160: 4c37 d3bc 76bf e6bc 92ca b33c 3ae7 83bc
00000170: f680 8abd e97e d8bd 1f59 6ebd e98b 9dbd
00000180: 6fed f3bd 3d01 8cbc d2d2 653b bfa7 89bb
00000190: 81a7 1b3d 2fd3 18bd b0b0 5e3c b13f cd3b
000001a0: bb12 02bd 37f1 49bd 0785 90bd 4d26 c4bd
000001b0: bf2d fbbc fbc0 f33d 22e4 0dbc e26f c33c
000001c0: a979 2f3d 43b7 7fbd f435 e43a bb15 6f3c
000001d0: 5a15 1cbe 12da 80bc c4b4 943c 0c08 4cbd
000001e0: fe48 a63c 021c d23d 05dc 3bbd e788 853d
000001f0: 2970 143d 48c0 073d a361 fbbc 2373 10bc
00000200: edae 25bd a5bd 6f3d 3235 e93b 4bae 14bd
00000210: eb83 bf3d 3ba9 84bb 24b5 803d 7736 3f3c
00000220: 7ba0 20bc f693 803d 1730 613d 46ea 6fbd
00000230: e26d 873d 42f7 ae3c b416 16ba 0b48 733d
00000240: 9e0d f93c 7333 fa3d 7d14 7d3d 7501 be3c
00000250: 13e7 4c3c 7d4c 133d 56fc b33c a5f7 6dbd
00000260: 393c 05be 2c4e 9d3d 5bfa e13d de4c aebb
00000270: f680 873d 71d0 85bc fe13 c63c 1b82 4fb9
00000280: 79c5 00bd 2eb4 ef3b 76e1 b3b9 421a a33d
00000290: 587d a83b a0d2 bd3d 338a 703d d319 bbbc
000002a0: c5e4 0a3e 6fd0 853d 370e 8ebd 0d29 11bd
000002b0: 6d2b 4bbd dbe6 a0bc 9fcf c2bd cdd0 1bbc
000002c0: 4bda 42bd 7e42 263d 2bb3 98bb c05b 683d
000002d0: db68 d6bd 0c7c 983d e0ae 363d aebc 82bd
000002e0: bf21 cd3d 4444 7b3d 10da 56bc 8adc 573d
000002f0: 0cb6 6abd 8149 453c f21f a3bc 9215 04bd
00000300: 58f7 2f3d 8175 413d 6622 b53d 31b9 3d3d
00000310: 89a3 203d 5565 b33d bf93 7abd fc02 6ebd
00000320: 8d50 71ba 7453 00bd dbfa 4bbc 0b86 a03c
00000330: 2a64 b0bd 1bc6 2fbc f304 d23c 8068 b8bb
00000340: 0ae5 e7bc c111 adbd f1c3 893a 0f52 0bbd
00000350: d2da 8d3d d7eb bdbc 6e71 88bc af95 09bd
00000360: ab03 0db9 5703 ac3c 803f 3abe bb23 c73d
00000370: 7055 aabc d707 19be 03be 0e3e 0806 85bb
00000380: beda d1bd ad86 9f3d 15f5 b63d cc9c b23d
00000390: 0b6d c5ba 1105 773d 5df1 d73c 7897 3abc
000003a0: 9dfc 01bd 597f 89bc 783d edbd 90bb ef3c
000003b0: 597f 8a3d 607f 92bd f2a4 d93d 15ac 4dbd
000003c0: 7a36 4f3d 4312 6e3b 78bc b9bd a6c7 413d
000003d0: 83b4 733d 27d5 6c3d c102 4ebc bd9d 0c3d
000003e0: b2a5 a53c caff 1abd cd76 a63d e6ef c53d
000003f0: e3f1 e23c 35b4 db3c 58d9 1cbe 0fa3 8d3d

encoder.blocks.2.conv.0.bias f4 [64]
-0.048687365 -0.045600638 -0.037721917 0.016254712 0.0083545465 0.005442549 -0.034135986 0.060207095
0.08613584 0.03555566 0.08960859 0.046020392 -8.115931e-05 -0.009228649 0.038114924 0.08389985
-0.072069444 -0.09051459 -0.03498616 0.039827835 -0.0746279 -0.05726922 0.07318698 -0.04842678
0.07662697 0.038467348 0.027243491 -0.0155109 -0.073788986 -0.011372901 -0.008072068 0.11232181
-0.09407563 0.010108152 0.054284524 0.04120339 0.030089872 0.030511182 0.041458968 0.01180348
0.0025558749 0.016844453 -0.022619471 -0.06784234 -0.07350431 -0.024668949 -0.022475408 0.032639734
-0.04708794 -0.00024882398 -0.05008333 0.017451348 0.026306693 0.023357116 -0.034124788 -0.008292539
-0.053937152 -0.11727581 0.009527635 0.011095525 0.0655849 0.06687008 0.0781628 0.017991167
00000000: 676c 47bd bcc7 3abd 4c82 1abd 9a28 853c
00000010: 82e1 083c 6957 b23b 2dd2 0bbd b79b 763d
00000020: fd67 b03d d0a2 113d b584 b73d e17f 3c3d
00000030: 1334 aab8 c233 17bc 651e 1c3d afd3 ab3d
00000040: 2599 93bd b75f b9bd a64d 0fbd 8322 233d
00000050: 83d6 98bd 2193 6abd 0ee3 953d 295b 46bd
00000060: 9aee 9c3d f08f 1d3d be2d df3c 6e21 7ebc
00000070: ae1e 97bd 6755 3abc b540 04bc fa08 e63d
00000080: b9aa c0bd aa9c 253c 7359 5e3d e3c4 283d
00000090: 097f f63c 96f2 f93c e1d0 293d 6263 413c
000000a0: 7780 273b 61fd 893c 784c b9bc edf0 8abd
000000b0: 6d89 96bd 8916 cabc 591e b8bc 3eb1 053d
000000c0: 49df 40bd 9774 82b9 2e24 4dbd 21f6 8e3c
000000d0: 2281 d73c 6c57 bf3c 6fc6 0bbd 6edd 07bc
000000e0: 34ed 5cbd 4d2e f0bd cc19 1c3c 01ca 353c
000000f0: 6051 863d 2ef3 883d d113 a03d 3662 933c
