toyshapes/pinets_ensemble/ensemble_23/model_3.pth (torch, 466407 bytes, 71 tensors)

encoder.blocks.0.conv.0.weight f4 [16, 1, 3, 3]
00000000: 7a5c b3be daea 5cbe 9e3e 13bd bf80 debe
00000010: b8cc 3dbd 19b1 82be b59e 1d3e 9c82 603e
00000020: 413f 563d 3742 953e a257 3dbb c6e5 373e
00000030: 4fea 57be c1ca 10bd 2807 93be cc72 8cbc
00000040: 6f2c 5cbe 2a92 ad3e 69b1 793e 49fa 823e
00000050: 1157 c53d 72db 59be b0d4 943e f6cc afbe
00000060: 2493 37be e089 72be e8ae dfbd 6640 bc3b
00000070: c55f 3abe cd1d 76be 123d 84be 7347 da3e
00000080: 487c 88be fa9c 9cbe 8701 b1bd 3803 a23c
00000090: 8f67 61be 1805 64be 3254 42bd 4ed0 eebd
000000a0: f440 a73d 63de e9bc be24 b3bd 5270 82be
000000b0: ad5f 513e 0739 30be cd81 76be 7342 04be
000000c0: 4090 c9bd e7e9 9a3e fd4f ba3d a40e 1ebe
000000d0: e91f d9bd de70 7e3e 8dfb a53e 8149 873d
000000e0: 33ac 9cbd 9c02 8f3e 8b99 493e 7219 aebd
000000f0: ca8d 713e 2c65 e93c 94dc 95be 5ec4 41be
00000100: 61b3 80be 1c05 87be b9c2 163d b6dc 44be
00000110: 4728 4c3e cb34 4a3e b031 903d 0d84 933e
00000120: fe19 5ebe cd78 483d a272 463e 0813 333e
00000130: 02bf 093e c00e ce3e c349 c23c 6142 053e
00000140: f16d a4be 5fb4 28be b32f 6abe 4845 643e
00000150: dd31 d53e 4909 7abe 05bf a03e d135 1dbe
00000160: 87fd 2d3b 29be 8a3d fe97 22be 5d8e ef3c
00000170: 766e 85be 57a2 9a3e 9233 da3d 87cb fa3d
00000180: d6b8 81be 8ef5 883e e99f b5bd 571d 3dbe
00000190: b9c2 df3c 5df6 043e 470a 1d3e 66f3 3abe
000001a0: 0c63 603d 1ad0 033e 2918 06bd f961 1abe
000001b0: d0da 863e ef1a 83be 2e3b 093e 3acc 803e
000001c0: a927 75be 041e 77be aa1b 4fbe d33c f8bd
000001d0: 4199 903e 6ff3 bf3e 4d99 fcbb 5b13 cb3e
000001e0: d075 403e 8463 9ebe c8e5 86be 784e e1bc
000001f0: 0b7f e2bd 94cf d7bd c217 803d 87c5 24bb
00000200: fa6a cdbd ac44 1cbd 1fa2 633e 7567 7cbd
00000210: c780 ab3d cf15 4dbe e184 afbe 6472 493d
00000220: 6347 113e 0c24 3c3e 8802 b1be 4b2d 5ebd
00000230: 4947 a9be 279a f1bd 1760 da3b a698 a43d
-0.35031492 -0.21573964 -0.03594839 -0.434576 -0.046337813 -0.2552574 0.15392573 0.21924824
0.052306417 0.2915208 -0.0028891345 0.17958745 -0.21085475 -0.03534961 -0.28716397 -0.017144583
-0.21501325 0.33900577 0.24384083 0.25581577 0.09635747 -0.21275118 0.29068518 -0.3433606
-0.17927223 -0.23685408 -0.109220326 0.0057449816 -0.18200596 -0.24034806 -0.25827843 0.42632636
-0.2665732 -0.30588514 -0.086428694 0.019776925 -0.2201216 -0.22267568 -0.047443576 -0.11660825
0.08166686 -0.028548425 -0.087472424 -0.2547632 0.20446654 -0.17209254 -0.24072953 -0.12915973
-0.09841967 0.30256578 0.09097288 -0.15435272 -0.106017895 0.24847743 0.3241848 0.06605817
-0.07650032 0.27931678 0.19687478 -0.08500947 0.23589244 0.028490625 -0.2926985 -0.18922564
-0.25136855 -0.26371086 0.036806796 -0.1922482 0.1993724 0.19746701 0.07040727 0.28811684
-0.21689603 0.04894333 0.19379666 0.17487729 0.1345177 0.40245628 0.023716813 0.13013603
-0.3211513 -0.16475056 -0.22869758 0.22292054 0.41639605 -0.24417605 0.31395736 -0.1535256
0.002654882 0.067745514 -0.15878293 0.029242689 -0.26060838 0.3020198 0.106543675 0.12245851
-0.2533633 0.26749843 -0.08868391 -0.18468224 0.02731453 0.12984605 0.15335952 -0.18256912
0.05478196 0.12872353 -0.032737885 -0.15076436 0.26338816 -0.25606486 0.13401482 0.25155813
-0.2394091 -0.24132544 -0.20225397 -0.12120976 0.28241923 0.37490413 -0.0077087046 0.39663205
0.18794942 -0.309353 -0.26347184 -0.027503237 -0.11059388 -0.10537639 0.062545314 -0.002514215
-0.1003017 -0.038151428 0.22229813 -0.0616221 0.08374172 -0.2002785 -0.34281066 0.049181357
0.14187388 0.18373126 -0.34572244 -0.054242413 -0.330622 -0.1179698 0.006664287 0.08036928

encoder.blocks.0.conv.0.bias f4 [16]
00000000: 35d4 28bd 2037 7fbd 8de6 7d3d aca7 8ebe
00000010: 0ec3 403e 6869 bf3e d1a2 39be d23f af3e
00000020: 303c a0bc ee79 b23e c0ed b03e aeb0 7cbe
00000030: ae42 523e 374e 953d bd58 8b3d 9037 2dbe
-0.041218 -0.06230843 0.06198745 -0.27862298 0.18824407 0.37385106 -0.18128516 0.3422838
-0.01955995 0.3485865 0.3455639 -0.24676773 0.20533249 0.07290309 0.06804035 -0.16915727

encoder.blocks.0.conv.1.weight f4 [16]
00000000: c954 3e3f adbe 853f e65e 883f 3392 7c3f
00000010: 850e 533f 666e 7c3f 08b3 5a3f 25d8 8d3f
00000020: dc1f 7b3f ff69 713f c9cf 7f3f 14a3 8d3f
00000030: a277 8d3f 61a9 7e3f 81a7 823f 8605 7e3f
0.7434812 1.0448815 1.0653961 0.9866058 0.8244403 0.98605955 0.8542943 1.1081587
0.9809549 0.9430236 0.9992643 1.1065392 1.1052134 0.994772 1.0207368 0.9922718

encoder.blocks.0.conv.1.bias f4 [16]
00000000: c975 d6bd 479b 9fbc 20fd 2bbd 02fd 08bd
00000010: 83ab c9bd 0509 923c c088 e8bc 8623 9e3c
00000020: 4cf9 4d3c ae1c cbbc 22a6 63ba 98c3 bf3d
00000030: cafd c4bc a781 3abd 6ea2 2cbc fe47 70bd
-0.104716845 -0.019483222 -0.041989446 -0.033444412 -0.098471664 0.017826566 -0.02838552 0.019304048
0.012571644 -0.024793949 -0.00086841185 0.093634784 -0.024046797 -0.045533802 -0.010536773 -0.058662407

encoder.blocks.0.conv.1.running_mean f4 [16]
00000000: 8575 febe a88a 3abd e129 41bd 6943 3abf
00000010: ba99 11be bf07 833e 0641 293e 76af 9c3e
00000020: 0431 933e cfc2 eb3e 9f9b bf3e 3201 8cbe
00000030: 8ba2 1f3e bf6f f33d f061 eabd 06f8 acbe
-0.49699035 -0.04554239 -0.04715908 -0.7275911 -0.14218798 0.25591847 0.1652871 0.30602616
0.28748333 0.46047065 0.37423417 -0.27344662 0.15589349 0.11886548 -0.11444461 -0.33782977

encoder.blocks.0.conv.1.running_var f4 [16]
00000000: b1b0 293d 81f7 453b 1ebc 173c 43fe 0c3d
00000010: 8e08 a73c a84c d73b 96ff ed3c 92f1 123c
00000020: 2e8a 933c e744 bc3b fa8d 4d3b e2c7 213a
00000030: 9160 493b d860 103c 8884 113c 568b 093c
0.04142827 0.0030207338 0.009261159 0.03442217 0.020389821 0.0065704174 0.029052537 0.008968728
0.018010225 0.0057455185 0.0031365142 0.00061714475 0.0030727724 0.008812152 0.008881696 0.008395037

encoder.blocks.0.conv.3.weight f4 [16, 16, 3, 3]
00000000: 71f5 adbd baa6 1dbd 77b0 0fbd 240b eabc
00000010: e9b5 09be 5207 1ebe dd2c 463d 5667 b7bc
00000020: df4a e33b f91f 99bd 8032 a0bd a0f2 02bd
00000030: 836f acbd c390 2b3d 8c93 113d e9db 1a3e
00000040: ea93 0a3d 6f66 2a3e 5db2 253c b78c 44bd
00000050: 58c1 653d 5665 bb3d 8282 3f3e 3766 103e
00000060: c4da ab3d c8a5 b13d 421b 923d 9e2d 4cbd
00000070: 167e 41be 8d55 b6bd b9f5 ef3a dff4 fdbd
00000080: 5b78 e9bd 541e 083c 1aa5 6e3c cb39 2c3d
00000090: abd3 1bbd 4e87 7dbd 314a 01be 5aec 91bc
000000a0: 11b5 28be 9a27 5dbd 97f9 3c3c 0b87 e3ba
000000b0: c2f7 d53c 1a7a 953b bf59 f33d 9591 32bd
000000c0: 01ec c6bc ad84 cdbd 2eaa b6bd 740f 26bd
000000d0: ba04 633d 6be9 cbbc 3ffe 25bc 25e9 03bd
000000e0: 949c 923c d5df 253d bf07 1b3d 365c 963d
000000f0: c0ac 5abc 9a89 aebd db01 023d 3ffa 143e
00000100: dba5 c83d 937c 693d e894 923c 242b 003c
00000110: 8166 8c3d b992 04bd 7ea9 0ebd 05c5 033d
00000120: 1840 1f3e 1deb 243e 81ee be3d a55d 313e
00000130: baeb 52bc ed8e a13d eec5 a33d 3485 e63d
00000140: 30dd 9b3d 7f43 ab3c 7a5e bfbd 330e 97bd
00000150: 6108 08bd f774 9cbd af38 d7bd d8c9 c8bb
00000160: 215b cfbd 7d0a 00be 4b59 9a3d f299 083e
00000170: 5fa3 103d 561e a5bd 15b2 aa3b 8cd7 e8bd
00000180: eb08 0c3d e464 c03d a7c9 57bd 4b4c 67bd
00000190: fe4c cabd c5f7 febd 85d5 553d 70ad 543d
000001a0: c0e5 a2bc 993e 13bd ca59 653c 713c c63c
000001b0: eecc adbd f8ad 20bd 0f3e e63c bc17 d7bc
000001c0: 767a 8dbd 5240 1f3d e383 833d ad8e 89bb
000001d0: 0240 923c 1eaf 1fbe a8c3 bebd b94b dfbb
000001e0: 693b 683c 850c ab3d 80f6 963d f0b3 193d
000001f0: aa26 bd3d 43e2 6c3c 2734 47bd d172 7c3d
00000200: 753f 0fbd e3a5 ea3d e970 c33c bb73 3abb
00000210: b3a8 d8bd 50da 0dbd ed14 393c 3b4d e4bd
00000220: 34d2 14be 1897 6fbc aee2 d33c 511f 8a3d
00000230: e769 00bd 29c5 653d bd99 ac3d 50f2 bf3d
00000240: f8ff 3a3c 4478 24bd 1a99 38bd ef6a 47bd
00000250: d475 c2bc cfe6 88bd 7ccf 623d 5d54 d33d
00000260: 8ec5 d43c d956 e93c c6f1 85bd a2f5 c0bc
00000270: b24a f23c ecfe 953c 26dc c1bc 727a 043e
00000280: 7166 9f3d ea02 8a3c 5382 2ebd 422a ccbd
00000290: 5a25 453d 3f0d 073c d5eb 983d 77ed b8bc
000002a0: d39e e23c 705e 2a3b 0f5f c4bc 2054 953d
000002b0: 664b c5bc f4a5 393a 8103 ae3d eb01 b53d
000002c0: 57c7 01bd 3745 0e3e 8a57 1d3e 2eba 803d
000002d0: 8b5e bfbb 91c0 27bd 353b b3b9 eee3 c83c
000002e0: f30d 873c 2268 dbbc ab32 f53c f868 173d
000002f0: 89d0 55bd 1e05 8c3d 8d76 79bd 27a6 53bd
00000300: c7d5 783c 9ccc c3bd 597e 843c 6543 e93c
00000310: ecbb b1bd 23fd 16be 6682 e2bc e842 5cbd
00000320: e899 39bd 89d1 fb3a bc79 0b3c 20b7 973d
00000330: 5059 5b3d 03db dfbc 5f14 d73d 7f1c bcbd
00000340: 588c 2bbe b098 843c fe7f e6bd e1ea f9bd
00000350: 27ce 61bc 7d02 7f3c d8b9 2ebe c524 5c3c
00000360: 6867 edbc acbe 87bb 44f2 763d 2b63 3dbc
00000370: 22c2 43bc c66c b0bd d5d2 72bd b599 0cbd
00000380: 6018 cabc b534 acbb 3774 1f3e 4434 3cbc
00000390: 1a25 aa3d 1b9e d3ba d008 1e3e 131a ff3d
000003a0: c7ff 0f3d 63ed 1a3e ca59 f53c 771e 33be
000003b0: 31d8 09be 42bd 1abd b4cf 39bd 7e7c 0fbe
000003c0: 3baa 64bd d712 9ebc d3ff d3bd cacb 83bd
000003d0: 4dff 463e 191c d03c 3c70 c1bd 631b 02bd
000003e0: ee65 633d 0854 abbd 32a5 f4ba c233 a23e
000003f0: ad75 1d3d dbe6 4e3e c592 93bd 21a1 013e
-0.0849408 -0.03848908 -0.0350804 -0.028569765 -0.134483 -0.1543248 0.04838263 -0.022388142
0.0069364156 -0.074768014 -0.07822132 -0.031969666 -0.08419707 0.041886102 0.035541102 0.15122952
0.033832468 0.16640638 0.010113326 -0.04798576 0.05609259 0.09150188 0.18702129 0.14101492
0.083913356 0.086741984 0.07134105 -0.04984819 -0.18895754 -0.08903036 0.0018307484 -0.12400221
-0.11399909 0.008308012 0.0145657305 0.042047303 -0.03804366 -0.061896615 -0.12625958 -0.017812897
-0.16475321 -0.053992845 0.011534116 -0.0017358972 0.026119117 0.004561675 0.11882352 -0.04359587
-0.024282457 -0.100350715 -0.08919178 -0.04054208 0.05542443 -0.024891576 -0.010131418 -0.032204766
0.017896928 0.040496666 0.037849184 0.073418066 -0.013346851 -0.08522339 0.03174005 0.14548586
0.097972594 0.05700357 0.01789327 0.0078227855 0.068554886 -0.032366488 -0.03482961 0.032170314
0.15551794 0.16105314 0.09322835 0.17320879 -0.012873584 0.07888589 0.079967365 0.11255875
0.076105475 0.020906208 -0.09344192 -0.07375755 -0.033211116 -0.07639497 -0.105088584 -0.0061275773
-0.10124803 -0.12504001 0.075365625 0.13339975 0.035312053 -0.08062427 0.0052092173 -0.11369237
0.034188192 0.09394243 -0.052682545 -0.056469243 -0.09877966 -0.12449602 0.05220558 0.051923215
-0.019884944 -0.03594837 0.013998458 0.024198743 -0.08486353 -0.03922841 0.028105764 -0.026256435
-0.06908123 0.0388797 0.0642164 -0.0041979165 0.017852787 -0.15594146 -0.09314662 -0.0068144468
0.014174321 0.08351997 0.07371235 0.037525117 0.0923589 0.014458242 -0.04863372 0.061632935
-0.034972627 0.11457422 0.02385755 -0.0028450328 -0.10579052 -0.034632027 0.011296493 -0.11147543
-0.14533311 -0.014623426 0.025864925 0.067442544 -0.031350996 0.05609623 0.08427761 0.09372389
0.011413567 -0.040153757 -0.045067884 -0.048685964 -0.023737825 -0.06684648 0.055373654 0.103188254
0.025973108 0.028483795 -0.06540255 -0.023554627 0.029576633 0.018310033 -0.023664545 0.12937334
0.07783211 0.016847093 -0.042604756 -0.099689975 0.048131324 0.008242904 0.074668564 -0.02257417
0.027663624 0.002599623 -0.023971109 0.07291436 -0.024083804 0.0007081919 0.08496762 0.088382564
-0.031684246 0.13893591 0.15365425 0.06285511 -0.005840128 -0.04095513 -0.00034185653 0.024522748
0.016486144 -0.026783053 0.029931387 0.03696534 -0.052200828 0.068369135 -0.060904074 -0.051672127
0.015187687 -0.095605105 0.016173529 0.028474519 -0.086784214 -0.14745001 -0.02765007 -0.053774744
-0.045312792 0.0019212227 0.00851291 0.07407975 0.053551972 -0.027326113 0.10501932 -0.09185123
-0.16752756 0.016186088 -0.11254881 -0.12203003 -0.013782061 0.015564558 -0.17063081 0.013436501
-0.028979972 -0.004142603 0.060289636 -0.011559288 -0.01194814 -0.08614497 -0.059283096 -0.034326274
-0.024669826 -0.0052553066 0.15571676 -0.0114870705 0.08307858 -0.0016145142 0.15433049 0.12456145
0.035156038 0.15129618 0.029950041 -0.1749209 -0.13461377 -0.037778147 -0.045364097 -0.14012334
-0.055826407 -0.019296093 -0.10351529 -0.06435354 0.19433327 0.025404023 -0.09445235 -0.0317644
0.05551713 -0.08365637 -0.0018664955 0.31680113 0.038442302 0.20205252 -0.072057284 0.12659122

encoder.blocks.0.conv.3.bias f4 [16]
00000000: 6a9a fd3c 07c2 2a3d ceef 6b3d 9fc2 fb3d
00000010: da04 a83c e556 24bd c20b a93d a5d1 943d
00000020: eaf9 283c 07fd dabd 0ee5 4ebd eae6 16bc
00000030: 79fd 323d 8556 843d 9d64 0bbc 2b72 04be
0.03095742 0.041688945 0.057601742 0.122929804 0.020510126 -0.04012193 0.08254196 0.07266549
0.01031349 -0.106927924 -0.050511412 -0.009210328 0.04369876 0.06461815 -0.008507875 -0.12934177

encoder.blocks.0.conv.4.weight f4 [16]
00000000: 327a 7c3f ccdd 823f 111a 773f 0ec3 933f
00000010: 5d84 853f 1b3e 833f d677 803f 6f1b 793f
00000020: 9e0a 7d3f 3a4a 543f 2991 863f e17b 743f
00000030: 2509 513f 461e 6f3f 9a12 823f fb4c 7d3f
0.98623955 1.0223937 0.9652415 1.1543901 1.0431019 1.0253328 1.0036571 0.97307485
0.98844326 0.8292576 1.0513049 0.95501524 0.8165458 0.9340557 1.0161927 0.9894559

encoder.blocks.0.conv.4.bias f4 [16]
00000000: 069c 603c dcb3 f73c 50e6 bd3b 3b04 26be
00000010: 070f 5dbd 949d cbbc 0a5a 38bc a7e1 0ebe
00000020: 8eca e9bc f0ff 8abd 4bc8 13bd 3bc4 9bbd
00000030: 140f 0abe 9127 eaba 0d2e 9f3d dc07 28be
0.013709074 0.03023713 0.0057952777 -0.16212551 -0.05396941 -0.024855413 -0.011251936 -0.13953267
-0.028538968 -0.067870975 -0.036079686 -0.07605787 -0.13482314 -0.0017864575 0.07772455 -0.16409248

encoder.blocks.0.conv.4.running_mean f4 [16]
00000000: 9a1d 4f3d 0aa4 373e 1a3a 4ebf f72a 393d
00000010: c454 80be 0c8d 8e3e d038 f9bc 149a 413b
00000020: b6b3 753f 7b8c 70bf 3390 f0bd 6cac bebf
00000030: b2c6 a0bf 3c18 bb3e 1e7f d7be 14df 423f
0.05056534 0.1793367 -0.80557406 0.04520699 -0.2506467 0.27841985 -0.030422598 0.00295413
0.9597734 -0.93964356 -0.11746254 -1.4896369 -1.2560637 0.36541927 -0.4208917 0.7612164

encoder.blocks.0.conv.4.running_var f4 [16]
00000000: 2085 c13f ff83 fb3e fe8b 4b3f 8d0e b33e
00000010: 9ff0 233f 41ac 4a3f 2da1 0140 7b20 8e3f
00000020: 91e3 b23f 3423 873f c3da 3a3f 0fcc 1640
00000030: 2e43 2540 3981 913f 7687 7c3f 8bb1 723f
1.5118752 0.49124143 0.79510486 0.3497204 0.64039034 0.7916909 2.0254624 1.1103662
1.3975698 1.0557618 0.72990054 2.3562047 2.5822253 1.1367561 0.98644197 0.9480216

encoder.blocks.0.skip.weight f4 [16, 1, 1, 1]
00000000: 608f 11bf 0046 45bd 9454 c2be 4090 6c3d
00000010: 8c6b c0be b85c 2fbf c284 253f e81d 3abe
00000020: 982c 41bf 2883 123e ec16 f53e ecd8 233f
00000030: 281b 40be 1cfc f4be d84b 57be 94bc 3dbf
-0.568594 -0.04816246 -0.37955153 0.057754755 -0.37582052 -0.6850085 0.646557 -0.18175471
-0.7545867 0.14307845 0.4786905 0.6400287 -0.1876036 -0.47848594 -0.21025026 -0.7411587

encoder.blocks.0.skip.bias f4 [16]
00000000: 08e0 6c3f b491 bd3e c0e4 31bd 58cc 8fbe
00000010: b028 1c3e 10fc 9a3d 5272 503f 7430 2ebf
00000020: 9448 f5be 0206 703f 20fb 7c3f 9ef4 3dbf
00000030: c079 053e f2d0 22bf f8b1 f83e 9cab debe
0.92529345 0.37025225 -0.043431044 -0.2808559 0.15249896 0.07567608 0.8142444 -0.68042684
-0.47906935 0.9375917 0.98820686 -0.7420138 0.13034725 -0.63600075 0.4857328 -0.43490303

encoder.blocks.1.conv.0.weight f4 [32, 16, 3, 3]
00000000: 8563 5a3d 402a f9bc 562b 133e 3b01 d43b
00000010: 0e43 47bc 9c6e 183c c1f2 973d 554d 8c3b
00000020: af69 2d3d 6f04 46bc af6d c53d ed5f 513d
00000030: 6f29 1f3d 74f7 7b3d 8f37 ff3c 6b78 29bd
00000040: 7520 4abd 13ea 7e3b 1263 143e 5e02 bf3d
00000050: 4658 983d 3fc8 d93c 09a6 203d af79 12bd
00000060: cc2c 213d b930 ccbd 1724 5cbc bf2e c83d
00000070: 9e5a a93d 33ff ddbd 77d9 483d e092 783d
00000080: 7cb4 c9bc 0bd0 27bd 7166 cfbd 2de9 e9bd
00000090: 46df 623c 4675 29bd a7e8 82bd 8938 8cbc
000000a0: 92db b0bd 0e84 32bd 690b 683c 96b5 debc
000000b0: d72a 9a3c fc7f aa3c 448d 053e d045 e13d
000000c0: 7cdd 693d ea9a 99bc 56f4 153d 9761 93bd
000000d0: 0d7f c3bd c5e5 a2bd be98 333d df87 333d
000000e0: 897b b53d 41a9 d63d c542 c93d 3360 313e
000000f0: 83f9 083e 03ad 8e3d 0714 8c3c 09fa e03d
00000100: f3ad f93d d37b c33d 4f65 00bd cca8 d73c
00000110: f398 003c a9f7 d2bc 883f 9c3d 17cc 633d
00000120: ea60 2f3e 8ea8 0d3e 3b16 9a3d e986 1f3e
00000130: 0128 ba3d 3b21 463c 0d7a d53c c173 8bbc
00000140: 7b3e 283b bd00 c83d 7e42 0b3d 9233 38bd
00000150: ec2f 993c 475e 6f3d d0c3 c43c 9d5c 7fbc
00000160: 9168 df3d da1d a23d d9e2 323d bbe9 50bd
00000170: cb41 48bd 469e 4fbd d18f 853c 8912 27bc
00000180: b41c 083e b414 a03d dbd7 ef3b 7680 83bc
00000190: c9ec 97bc 916d a3bd 78bd 84bd ae2a 903c
000001a0: e68c 423c 8c52 d23c 0d75 d3bb 31e7 17be
000001b0: 395f 60bc de01 26bd f457 37bd ddc9 2f3c
000001c0: 9424 9ebc 7ca3 3e3d 212f 6d3d ac8e 71bd
000001d0: 6ad7 51bd caf9 3a3d b4a0 463e 851a bb3d
000001e0: 6971 1a3e 2a28 223e 0afd f33d bdd8 aebc
000001f0: fd7d 41bd fd3e 3ebc 6eed dd3d a2f9 ed3d
00000200: 9268 063e 5f6d b53d d757 1f3d 9344 223e
00000210: db66 23bc 9691 7ebd 4848 e9bd e83a 603d
00000220: cb26 213d 85fa 8b3d cc31 043d cda1 a0ba
00000230: 2e6c 2c3d 7b4d ee3d ab88 6d3d 02c0 003e
00000240: 347a 82bd af3f 8ebd 6845 0fbc 0215 40bc
00000250: 23fa a5bd a5cc a7bd 8f0f 0dbc 0941 683d
00000260: 8da6 48bd 76af 8d3d ac37 ea3c 46aa e2bc
00000270: 9163 283e 1749 e63d 9765 813c ee64 093e
00000280: adee 083e 6483 fc3d 241a 053d 5e56 c9bd
00000290: cc0c f2bc 4489 b0b9 fb7c c6bd 2804 15bb
000002a0: a02d 0b3d 152b b93c b80f 92bd 87e0 ed3d
000002b0: 4bb5 563e 81a6 293e 2f60 f53c e58b 3e3e
000002c0: 25ab 273e deb9 903c 2867 0d3e bf0e 8b3e
000002d0: 8bbc 443c d78f 613d cdf0 48bd be41 003e
000002e0: 479e 373c 189f 2a3d 308a 6f3c f09a 383e
000002f0: 39ea d83d b04e 473d 88f3 88bc 8bdd 82bd
00000300: fca1 f23d 62ae 8e3d ef40 94bc a70a 733d
00000310: e5bf e3bb 5b03 a7bd 79e6 833c 5b3c 4bbc
00000320: 4276 bebd 424f 8abc d999 893d bcf5 093d
00000330: e431 563d f098 d1bc 50d8 8cbd 04db cfbd
00000340: 7493 06be 7428 45bd 5107 6a3b 984b 0c3d
00000350: a0e6 3cbd 361c 8b3d 77fa c73b 6239 9ebd
00000360: a360 0dbe e72e 05be 7956 2ebd 2071 853c
00000370: 21cd 3dbd b4fa 1abe 3925 3b3d 2a2d 09be
00000380: a04a a1bc 88ca 2dbc 27bc 22bd e1d3 883a
00000390: 4102 5c3d 3ff7 243d 78f7 113b b781 32bd
000003a0: b021 6bbd 9011 283d 4188 293e 8d08 8f3c
000003b0: 1ce4 e5bd 4fec d43d a27a bd3d ca11 14bd
000003c0: e6c9 1c3e 7165 cb3d 5c72 8cbd 88b3 ea3d
000003d0: 89f2 2f3d 5f59 f6bc 8370 ad3b 8c10 153e
000003e0: 61d5 a3bc 578d 69bd 254c 593d 0228 c0bb
000003f0: 8e7a a2bb c12f 7cbd d8e3 f9bc a3a0 d1ba
0.053317565 -0.030415654 0.14372 0.0064698732 -0.012161983 0.009303715 0.074193485 0.0042816796
0.042337116 -0.012086018 0.09640061 0.051116873 0.038857874 0.061515287 0.031154422 -0.041374605
-0.04934736 0.0038896843 0.14490917 0.093266234 0.07438712 0.026584743 0.039220843 -0.035760578
0.039349362 -0.099702306 -0.013436339 0.09774541 0.08269237 -0.10839691 0.049035516 0.060686946
-0.024622194 -0.04096989 -0.10126961 -0.11421428 0.013847178 -0.041371606 -0.06392031 -0.017116802
-0.0863563 -0.04358297 0.014162877 -0.027186196 0.018819256 0.02081298 0.1304217 0.10999644
0.05709599 -0.018750627 0.03660997 -0.07196348 -0.095457174 -0.07953981 0.04384684 0.04383075
0.08861453 0.10481501 0.098271884 0.17321853 0.13376431 0.06966593 0.017099394 0.109851904
0.12191381 0.09545102 -0.031346615 0.026325606 0.007848966 -0.02575286 0.07629305 0.055614557
0.17126814 0.1383383 0.075237714 0.15578808 0.090896614 0.012092884 0.026059175 -0.01702297
0.0025672007 0.09765766 0.03399896 -0.044971056 0.018699609 0.05843952 0.024019152 -0.015586046
0.10908616 0.0791585 0.04367337 -0.051004153 -0.04889087 -0.05068805 0.016303929 -0.01019729
0.132922 0.07816449 0.007319433 -0.016052466 -0.018545525 -0.079798825 -0.06481451 0.017598476
0.011874413 0.025674127 -0.0064531625 -0.14834286 -0.013694578 -0.040529124 -0.044761613 0.01072928
-0.019304551 0.04654263 0.057906274 -0.058973953 -0.051230825 0.045648374 0.19397241 0.091359176
0.15082325 0.15835634 0.11913498 -0.021343583 -0.047239292 -0.011611697 0.10836302 0.11619879
0.13125828 0.088587515 0.03890213 0.15846471 -0.009973253 -0.06215056 -0.1139074 0.054743677
0.039343636 0.06834892 0.032274053 -0.0012255252 0.042095356 0.11635872 0.057991665 0.12573245
-0.06370965 -0.069457404 -0.008744575 -0.011723759 -0.081043504 -0.0819333 -0.0086096665 0.056702647
-0.04898696 0.06918232 0.028591 -0.027669083 0.16444232 0.112444095 0.015795512 0.13417408
0.13372298 0.12329748 0.032495633 -0.09830926 -0.029547118 -0.00033671607 -0.09691807 -0.0022738073
0.03397906 0.02260355 -0.07131904 0.11615091 0.20967595 0.16567422 0.02995309 0.18608053
0.1637388 0.017666753 0.13808882 0.27159688 0.012007843 0.055068817 -0.04905777 0.12525079
0.01120717 0.04165563 0.014620349 0.18027854 0.105915494 0.048659027 -0.016717687 -0.06389912
0.11847302 0.06966855 -0.018097369 0.05933633 -0.006950366 -0.08154937 0.016101109 -0.012404527
-0.092999 -0.016883496 0.06718797 0.033681616 0.052293673 -0.025585622 -0.06877196 -0.10149196
-0.13142186 -0.048134282 0.0035709927 0.03425178 -0.04611838 0.0679249 0.006102856 -0.07725789
-0.13806395 -0.13006173 -0.042562936 0.016289294 -0.046338204 -0.15134698 0.045689795 -0.13396135
-0.019688904 -0.010607369 -0.039730217 0.0010439121 0.053713087 0.040274855 0.0022272747 -0.043580737
-0.057405174 0.041032374 0.16555883 0.017460132 -0.11225149 0.10396635 0.09251906 -0.036149777
0.15311393 0.09931458 -0.0685775 0.11460024 0.04295591 -0.030071912 0.0052929535 0.14557093
-0.019999208 -0.057019558 0.053051133 -0.0058641443 -0.0049584573 -0.06156898 -0.030504152 -0.0015993308

encoder.blocks.1.conv.0.bias f4 [32]
00000000: 3a02 fcbc e322 b3bc a0a9 833d 8d50 703d
00000010: a86a d23d 25b2 993c 9a82 a23d 9221 8fbd
00000020: 7167 70bc 2d55 673c e63a e0bd dd3d bf3d
00000030: f527 d53b f0eb 193d c80b 2a3e 3228 d0bc
00000040: 4861 783c 187f 34bd 8b66 0a3c 3766 883c
00000050: c928 633b 35aa 843c e512 e1bd 3249 3e3d
00000060: 2027 003a 460a d2bb ec90 9bbd b1cb b53d
00000070: 2adc 9d3b 7c78 d33c 784e 803d b42b 1bbd
-0.03076278 -0.021867221 0.06428838 0.05867057 0.10274249 0.018761704 0.079350665 -0.06988825
-0.0146731 0.014119429 -0.10948734 0.09337971 0.0065050074 0.037578523 0.16606057 -0.025409792
0.015159912 -0.04406652 0.0084473 0.016650302 0.003466176 0.016194442 -0.10989932 0.046456523
0.00048886426 -0.006409916 -0.07596001 0.08876742 0.0048175054 0.025814287 0.06264967 -0.037883475

encoder.blocks.1.conv.1.weight f4 [32]
00000000: 7d84 813f ac9d 793f a0a2 863f 12f0 903f
00000010: 3577 753f c049 5f3f aac5 6e3f 72f8 673f
00000020: a46f 723f ec0c 6c3f 4ec0 803f db7d 823f
00000030: d555 603f e193 663f 2a84 813f 5255 533f
00000040: 9991 883f 12d2 793f 06b3 813f 799c 923f
00000050: 4f46 733f 1167 8a3f f38c 743f d7c3 833f
00000060: e0fe 843f 4233 803f 0ab8 853f cae7 703f
00000070: 5617 6d3f bb71 883f ac7d 853f 6e76 7a3f
1.0118557 0.97506213 1.0518379 1.1323264 0.9588502 0.8722191 0.9327036 0.9061347
0.947016 0.9220722 1.0058687 1.0194658 0.8763097 0.90069395 1.0118458 0.82552063
1.0669433 0.97586167 1.0132759 1.1454002 0.9502916 1.0812703 0.9552757 1.029414
1.0390282 1.0015643 1.0446789 0.9410368 0.9261373 1.0659708 1.0428977 0.9783696

encoder.blocks.1.conv.1.bias f4 [32]
00000000: f16b 293c 079f 363c 569f ae3c 3720 9e3c
00000010: 9705 3ebd b875 3abd f29c 333c e21d 64bd
00000020: e0a7 d03a c9c5 94bc 505c 94bd 9c81 313d
00000030: 8890 e1bd 57f6 cfbd 52ff a5bc 43b3 12be
00000040: 7b70 b93d 70ce f0bd e509 663d 712f f43d
00000050: 2ab4 e03b b5a2 433d 2db7 82bd e62f 15bd
00000060: 1f63 a13d 9b1c 84ba ad1d 963d 2b4d 0cbc
00000070: ec6f 2abd 43d8 8a3d f358 303c b91f 8ebd
0.010340677 0.0111463135 0.021316212 0.01930247 -0.04639205 -0.04552242 0.010962712 -0.05569256
0.0015919171 -0.018160718 -0.0724417 0.043336496 -0.11013895 -0.101544075 -0.020263348 -0.14326195
0.09054657 -0.11758125 0.05616178 0.11923111 0.0068574147 0.04776259 -0.06382594 -0.036422633
0.07880234 -0.0010079326 0.07329879 -0.00856332 -0.041610643 0.0677953 0.010763395 -0.06939644

encoder.blocks.1.conv.1.running_mean f4 [32]
00000000: 5c49 f63f ca9e 7e3f 913f ad3f 5f50 0140
00000010: c2f8 a73b 3276 e8bf 4b14 24c0 5160 673f
00000020: 43ca b83e ad30 5cc0 a029 d53d c08c de3f
00000030: 4a5f 1bc0 0997 9ebf cdc2 bdbe b456 373e
00000040: 8ad6 a73f 5c84 d43e 540f b8bf c34d fe3f
00000050: 2b28 c23f f6a9 633f e613 9bbf 66fd c63d
00000060: 0c08 263f b81b 353f 0569 323f 3960 d43e
00000070: ba9d ddbf e0a4 403f 76e3 e53f c38e 34be
1.9241138 0.9946104 1.3535024 2.0205305 0.00512609 -1.816107 -2.5637386 0.9038134
0.36091813 -3.440471 0.1040833 1.7386703 -2.427691 -1.2389842 -0.37062684 0.17904168
1.3112347 0.41507232 -1.4379678 1.9867481 1.5168508 0.88931215 -1.2115448 0.09716301
0.6485603 0.7074542 0.696915 0.41479662 -1.7313759 0.7525158 1.796004 -0.17632584

encoder.blocks.1.conv.1.running_var f4 [32]
00000000: 4488 5e40 91a1 0640 af2f 0040 07f6 8240
00000010: d8a0 b03f 540c 8340 afc0 7840 b188 ec3f
00000020: bd4f 0a3f 7cd9 d540 63a2 2f3f e2f8 3440
00000030: 6115 6e40 7e12 1d40 577b fb3f b93e 813f
00000040: 5d25 923f a007 0840 bc65 2b40 c1f6 9340
00000050: d30d 7040 e2c9 e13f 0ca8 1140 fd47 923f
00000060: c0b7 a93f 59fc 8b3f 0ade c23f ef06 693f
00000070: 1a8c 4140 7f53 e63f 3929 1040 acb6 bc3f
3.477067 2.1036112 2.0029104 4.0925326 1.3799086 4.095255 3.8867605 1.8479215
0.5402792 6.6827984 0.6860716 2.8276906 3.7200549 2.4542537 1.9647015 1.0097266
1.1417652 2.1254654 2.6780844 4.6238713 3.7508438 1.7639735 2.2758818 1.1428219
1.3259201 1.0936385 1.5224011 0.91026205 3.0241761 1.7994231 2.252516 1.4743247

encoder.blocks.1.conv.3.weight f4 [32, 32, 3, 3]
00000000: 64d6 1e3b fbf4 8cbc 10f9 283d 9486 bebc
00000010: ae21 33bd 9540 503b b4c0 7dbd e784 adbd
00000020: a016 f3bb 6e43 ce3b e7d4 96bc ccf4 e8bd
00000030: 5183 84bd 1433 95bd f4a0 afbd 6676 c4bd
00000040: 1cec 3bbd 48f9 813a 6ef5 cebd cc8c 0abe
00000050: 493c 33bd 6b36 5ebd cfea babd a91e f9bd
00000060: 8a3a a8bd 8a56 bdbd 38b7 d4bd db2c adbd
00000070: 78ac 76bd 35ae cd3d 5bc2 2cbd e7e5 8ebd
00000080: 487a dc3c 0906 9dbd 844c e0bd a85b c1bc
00000090: 89f0 46bb 0cbf 7c3c 8f21 bfbd 903e 9ebc
000000a0: 25fc f13c 82c2 003c d3f8 09bd 27ba 08bd
000000b0: 16b0 b83c e251 713b ea6b 02bd 2c34 29bd
000000c0: bc75 cb3b 720d 4a3b 06cd 2fbd 14e1 853d
000000d0: 19fa 69bd a7bb f3bb 6f74 22bd 27c9 4b39
000000e0: 3763 9c3c 9bcf 19bc 1764 cbbd e3b7 a9bd
000000f0: eb9c 433d f6ea 58bd 0209 eabb f31a 353c
00000100: 9ffe 373c 0c40 223d 2547 0b3d 6982 003d
00000110: 9b77 97bc ff43 56bc cdf4 2c3c e44e de3c
00000120: 1a67 d23c 442b 523d 0bbd 80bd 2f70 c73c
00000130: 5fc8 f73d 4d13 bb3d e049 1ebc 96c6 333d
00000140: 0d34 c23d e41d 033e d600 d13d 98a0 8b3d
00000150: 5331 c93d b804 ad3d 37b4 763d 2c4f ef3d
00000160: d3a7 473d a811 093d 40a2 7cbd d41d 13be
00000170: c8b0 c8bd 7770 b3bd 7071 eebd 2a9a b4bd
00000180: 3da8 41be 612f 0ebe ffdd 1fbe 0e6e d8bc
00000190: 675c 17bd 8c04 84bc cbf9 dfbc 819c 59bd
000001a0: c97f 683d 8739 0ebe c4f6 87bd b999 0d3c
000001b0: 1704 983d 2a9f 473d 460e 423d a030 333c
000001c0: 1ac2 1abd 3d45 f4bb 3a90 ac3d 0b0a c13b
000001d0: a9e3 13bd e5af 153d cce7 30bb e71a 013d
000001e0: 82e5 a4bc e7be 673d 09e9 1d3c 3579 a63d
000001f0: 4b5f 383c e810 8ebc f205 90bd 634f 69ba
00000200: e4cd 9fbd ef14 853c 4e5e a63b e8a2 45bd
00000210: b34a 01bc ae87 413d 7f84 cbbd 5685 4e3d
00000220: 486e 893d 475c 0ebd c765 74bd 2684 643d
00000230: 8f0c c53d e10c 493c fe14 713d 9999 c23d
00000240: 43e1 56bd 238c 82bd 9aa1 ba3c 8928 6dbd
00000250: 4c53 11bc afa8 df3d 73fc 3dbc fb52 253d
00000260: ce0c 5a3c 193f c5bc 9469 753d 9456 f23d
00000270: 0a29 c5bc 771d 133c 2733 383c 3fc5 a2bd
00000280: d122 9bbd 86ca 8ebd 5077 863d d079 cc3d
00000290: 69af bdbd 313c ff3c abd0 37bd 9f31 c0bd
000002a0: df34 b83d 6afe 893d 231d 683d c1de fcbd
000002b0: a05e debc 579f 63bd 4752 0bbe e428 6ebd
000002c0: 7e9a 12ba f95c 29bd 30b2 46bd 78c0 96bd
000002d0: fad5 cc3c d170 953c c59c 03bc 7cb3 64bc
000002e0: a075 67bd 8684 2d3d 4f69 debd b0e3 03be
000002f0: 3fb1 b6bc 0060 debd 6c08 22bd cc68 04be
00000300: 6ffa 07be 4975 15be 5f44 c1bd 5710 c0bd
00000310: 9054 03be a4f9 e5bb 6fd3 93bd 7dd0 07bd
00000320: 1b1a 29bd 0beb c9bb 348d 41bd c5bf c2bc
00000330: f009 f7bc cd25 2cbd 7a24 f5bb b657 41bd
00000340: 13ea 19bd 20dd c8bd 11c3 b9bd f620 52bd
00000350: 955b 3cbd bd81 eebd 2b68 12bd e581 a13c
00000360: 2106 9ebc 7cf9 9c3c a144 96bd 3e48 13bd
00000370: c126 b4bd 2811 98bd 74dd 4cbd 286e dcbd
00000380: 0bb7 adbd 3b79 16bd a289 5bbd b3a6 bbbc
00000390: 3e47 fbbc 3453 81bd 47c1 5ebc 9d56 76bc
000003a0: 4469 98bc e23d 57bc 339b a8bd b0be 72bd
000003b0: 502a c4bd dbb3 dcbd 16a8 cabc 200a 7dbc
000003c0: daf8 eabd 32f4 1abd 6011 13bd 8bbb 4c3d
000003d0: c253 7cbc 7266 3a3d 0c32 99bd 4e87 c43c
000003e0: 9eb6 bb3a 2c90 ed3c 0dfe 613d 2116 c6bc
000003f0: 7279 2fbd e865 b2bd 0a6a c6bd 5e14 adbb
0.0024236673 -0.01720666 0.04125315 -0.023257531 -0.04373329 0.0031776775 -0.061951354 -0.08472615
-0.0074184686 0.0062946593 -0.018412067 -0.11374816 -0.06470359 -0.07285133 -0.08575621 -0.09592895
-0.04587947 0.000991621 -0.10105406 -0.13530272 -0.043758664 -0.054251116 -0.091268174 -0.12164051
-0.082142904 -0.09245022 -0.10386509 -0.08455821 -0.060223073 0.10042993 -0.04217754 -0.06977444
0.026913777 -0.07667167 -0.10952094 -0.023603275 -0.0030355772 0.0154264085 -0.09332573 -0.019316941
0.029539177 0.007858874 -0.033684563 -0.033380654 0.022544902 0.0036822488 -0.031841196 -0.04130952
0.0062091034 0.0030830768 -0.042920135 0.06537071 -0.057123277 -0.0074381414 -0.03966182 0.00019434524
0.019090278 -0.009387876 -0.099312 -0.08287027 0.04775707 -0.05295845 -0.007142187 0.0110537885
0.01123014 0.03961186 0.034003396 0.03137437 -0.01848965 -0.013077735 0.010556412 0.027137227
0.025683928 0.051310793 -0.06286057 0.024345485 0.12098765 0.09134541 -0.009661168 0.04389056
0.09482584 0.12804371 0.102052376 0.0681774 0.09823861 0.08448166 0.06023046 0.11685023
0.048744034 0.033464104 -0.06167817 -0.14366847 -0.09799343 -0.08761685 -0.1164273 -0.08818467
-0.18911834 -0.13885261 -0.15612029 -0.026419666 -0.036953356 -0.01611545 -0.02734079 -0.05312777
0.05676249 -0.13889132 -0.06638864 0.008642607 0.07422655 0.048735775 0.047376893 0.010936886
-0.037782766 -0.007454543 0.084259465 0.00589109 -0.036105786 0.0365447 -0.002699363 0.031519797
-0.02012897 0.056578543 0.009638079 0.08128587 0.011253188 -0.017342046 -0.07032384 -0.0008900074
-0.078029424 0.016245333 0.00507716 -0.048251063 -0.007891345 0.047248535 -0.09937381 0.050420128
0.067104876 -0.03475597 -0.059667375 0.05579009 0.09621536 0.012271137 0.05885791 0.09501953
-0.05246092 -0.06374385 0.022782136 -0.057899985 -0.008869957 0.10920846 -0.011595833 0.04036234
0.013308717 -0.024077939 0.05991514 0.1183292 -0.02406742 0.008979193 0.011242664 -0.07947778
-0.07575 -0.06972222 0.06565726 0.099841714 -0.092619725 0.031156631 -0.044876736 -0.093844645
0.08994459 0.06737979 0.056668412 -0.123471744 -0.02714473 -0.05557188 -0.13605605 -0.058144465
-0.0005592479 -0.04134843 -0.048509777 -0.07360929 0.025004376 0.018242272 -0.008032982 -0.013958808
-0.05650866 0.042362712 -0.1085993 -0.12879825 -0.022301314 -0.10858154 -0.039558813 -0.12930602
-0.13279127 -0.14595522 -0.09436869 -0.093781166 -0.12825227 -0.007018285 -0.07218062 -0.033157814
-0.04128466 -0.0061620525 -0.047253802 -0.023773083 -0.030156106 -0.042028237 -0.007481155 -0.04720279
-0.037576746 -0.09807801 -0.09070409 -0.051300965 -0.045985777 -0.11645839 -0.035743874 0.019715259
-0.019290032 0.019161932 -0.07337309 -0.035957567 -0.08796454 -0.07425147 -0.05001588 -0.10763198
-0.08482178 -0.036736708 -0.053598054 -0.022906637 -0.03067362 -0.06314698 -0.013595886 -0.015035299
-0.018604882 -0.013137313 -0.08232727 -0.059263885 -0.09578383 -0.10776492 -0.024738353 -0.0154443085
-0.11473246 -0.03783054 -0.035905242 0.049983542 -0.015400829 0.045507856 -0.07480249 0.0239903
0.0014321392 0.02899941 0.055173922 -0.024180474 -0.04284043 -0.08710843 -0.09688194 -0.005281969

encoder.blocks.1.conv.3.bias f4 [32]
00000000: 9cc6 01bd ea20 50bd 048d d0bc 0eb9 b13d
00000010: 674a 8d3c 6db6 10bc 98ec f2bb 6852 4d3d
00000020: 5634 fc3a 0d09 90bc 79b6 f2bc 2b77 c8bc
00000030: b326 a93c 8bc4 02bd af39 983c d208 613d
00000040: a143 0bbd 5d27 48bd 867e eb3c 1c18 a4bc
00000050: 6904 a5bc 3e99 33bd 2743 3e3a b115 083d
00000060: be69 1dbd 56bc 0dbd 329f 5fbd 48ba 14bd
00000070: 52ba ac3b 37e4 673c 9ce7 b63c ec53 2cbc
-0.03168355 -0.05081264 -0.025457866 0.086778745 0.017247392 -0.008832556 -0.007413458 0.050127417
0.0019241672 -0.01758244 -0.029628025 -0.024470886 0.020648336 -0.03192572 0.018582193 0.054940052
-0.034000043 -0.048865665 0.028746855 -0.020031027 -0.020143704 -0.043847315 0.0007257931 0.03322381
-0.03843092 -0.03460344 -0.05459518 -0.036310464 0.0052712345 0.014153532 0.022327237 -0.010518055

encoder.blocks.1.conv.4.weight f4 [32]
00000000: 3d66 7d3f a57f 6f3f 2b30 903f 5bb1 803f
00000010: 091f 813f 91a6 853f c08e 783f cafb 5b3f
00000020: b18b 803f 34d2 713f 4f5d 843f ed35 7b3f
00000030: 1bca 7c3f acc8 813f 00d0 683f 1f12 813f
00000040: 9aed 6c3f 50a6 703f d325 7c3f e79b 7a3f
00000050: b794 843f 24c2 823f 4cfc 773f 3326 883f
00000060: d1f1 7e3f 8d81 783f fe26 753f 69d7 903f
00000070: 9750 8b3f 27ea 5d3f 4a32 713f 36ba 883f
0.9898413 0.93554145 1.12647 1.0054125 1.0087596 1.0441457 0.9709282 0.85931075
1.004263 0.9446137 1.0340976 0.9812916 0.9874589 1.0139365 0.9094238 1.0083655
0.9255005 0.9400377 0.98495215 0.9789414 1.0357884 1.0215497 0.9686935 1.0636657
0.9958773 0.9707268 0.9576262 1.1315738 1.0883969 0.86685413 0.9421736 1.0681827

encoder.blocks.1.conv.4.bias f4 [32]
00000000: b531 be3d 3c16 c23c f794 863d 7800 e93c
00000010: 6179 71bd 47eb 023c 3e47 60bd 25c2 bfbc
00000020: 1560 d23c 838d 39bd 246d 963d c2b5 41bc
00000030: 0adf 86bc c4ef f33c 6a22 8cbd f519 653d
00000040: 1db9 683d 9a0c 463d 3764 15bc c5c9 f0bc
00000050: b19e b53c a3a0 c83c 670c bbbb e510 763d
00000060: 32b3 e0bc 0146 52ba db7c 5c3c e32f c93d
00000070: 78f0 a83d 5841 c2ba 050a 5bbd ac4f 2abc
0.092868246 0.023692243 0.065713815 0.028442606 -0.058953647 0.007990665 -0.05475544 -0.023408005
0.025680581 -0.04530097 0.07345036 -0.01182312 -0.016463775 0.029777415 -0.068425015 0.055932958
0.056817163 0.04835186 -0.009118131 -0.029393086 0.022170397 0.02449066 -0.0057082656 0.060074706
-0.027429197 -0.00080212957 0.013457502 0.09823587 0.08248991 -0.0014820499 -0.053476352 -0.010394972

encoder.blocks.1.conv.4.running_mean f4 [32]
00000000: 4ca9 26c0 68ca 563f e4fc 2e40 43f2 9f3f
00000010: 2677 b43e 5453 03c0 390d 863e d788 bd3f
00000020: 5499 bebe d6ae d93f e2a2 aabc 1ae2 a53d
00000030: c7e1 dc3f 7f70 aabf 73c2 863f c90f 903e
00000040: 8e80 af3f 0acb 193f 0008 ac3f 5605 86bf
00000050: 56a0 91bf bb8c d1bf adaf e23e 1896 a2be
00000060: 5101 613f f838 54c0 1300 823f 05b0 3abf
00000070: fc8a 273f 5ed4 47bf a0c2 aa3f e396 01c0
-2.604083 0.839026 2.7341852 1.2495807 0.35247153 -2.051961 0.26181963 1.4807385
-0.37226355 1.7006481 -0.020829622 0.08099766 1.7256402 -1.3315581 1.0528091 0.28137043
1.3711107 0.6007544 1.3439941 -1.0470378 -1.1377056 -1.6371073 0.44274655 -0.31755137
0.87892634 -3.315977 1.0156273 -0.72924834 0.6544645 -0.7805842 1.3340645 -2.0248344

encoder.blocks.1.conv.4.running_var f4 [32]
00000000: ad07 6241 b532 1841 039d 8541 f087 3a41
00000010: bca7 cc40 eaa7 3f41 3534 9140 2bae 1a41
00000020: d76d c040 2eb4 3741 e88d 9640 47df 7d40
00000030: 1d3d ab40 8b47 8540 dd74 9840 f4d7 b540
00000040: ac3e 1f41 c227 0e41 25db 5a41 92bc 4940
00000050: 2623 7e40 049a ed40 5c1e e140 ff27 de40
00000060: 0581 c840 b096 8941 2fc7 3041 ab8b dc40
00000070: e7b7 0b41 1de6 9e40 b54c 9440 2a2b 0541
14.126874 9.51238 16.701666 11.658188 6.3954754 11.978495 4.537623 9.667521
6.013408 11.481489 4.7048225 3.9667528 5.35121 4.1649833 4.7642655 5.6826115
9.952801 8.8847065 13.678502 3.1521344 3.9708953 7.4250507 7.034956 6.9423823
6.2657495 17.198578 11.048629 6.8920493 8.732398 4.96559 4.6343637 8.323038

encoder.blocks.1.skip.weight f4 [32, 16, 1, 1]
00000000: 001c 723e 647b ee3d 48b3 6b3e 06ab 4cbe
00000010: 3460 e5bd e065 1c3d 2483 ec3d c4fa ddbd
00000020: 40f6 7bbd f28c 02be b0f5 873c 98c3 c2bd
00000030: 82b3 053e 9ce0 1cbe 60fc 38be 8449 97bd
00000040: e070 393d dc13 6a3e a673 483e 90a9 af3d
00000050: 2889 1ebd 4c25 223e c0ea 0b3e 2665 4bbe
00000060: 6830 c1bd 689e 30bd 986f 403d d660 2fbe
00000070: 5c33 a23d 8007 543d 002b 10bc 60cf 073c
00000080: 72b6 033e 78fc 33bd ee43 4a3e 4846 2dbd
00000090: 50b7 4f3d 3003 383d e82a e4bd cab2 54be
000000a0: d491 1bbe 10de 35be c854 373e 047f 623e
000000b0: c0c9 a13c f004 46bd 003e 963b 044f 0bbe
000000c0: 2081 f13d 0afa 673e 0e30 17be 1e18 2e3e
000000d0: 8441 5bbe 563f 1e3e 2e6f 5cbe 94dd d93d
000000e0: f8c1 fc3d 381d a0bd b0eb df3d ccea 9dbd
000000f0: 083b c3bd 7055 03be 40a7 5bbd f06a 473d
00000100: b0d4 503d 8266 603e 86d6 68be 7235 073e
00000110: 6c24 33be ea86 7d3e cc14 a13d 7679 3cbe
00000120: 4898 25bd 00fa b83b 6873 f63d fc3f be3d
00000130: 1cc8 613e e87d 453e 8699 58be 3c8c 2f3e
00000140: 4699 273e 74e4 84bd 2203 033e c48b 903d
00000150: dc8e 53be 8476 dc3d 8489 b43d ca37 50be
00000160: 4e48 2bbe 60c7 1cbe 545d f0bd 845e 153e
00000170: 40ed cd3c e0ca 163d 9e5b 4f3e bc14 983d
00000180: 4895 d6bd 0cb5 a33d 96f1 1f3e 7036 623d
00000190: b8d4 6dbd 4633 623e 1c53 bbbd a87b 2dbe
000001a0: 3858 2dbd d0ca 2f3d c447 d93d f4d2 683e
000001b0: 309f 54bd f8a7 0cbe fa05 73be 748c 07be
000001c0: 0481 bfbd a458 92bd a053 563c f092 74bd
000001d0: ee97 443e 4021 abbb 140e 46be 806e 633c
000001e0: 5466 513e 0866 d5bd 68ca 673d 0052 e23a
000001f0: 0051 b3bc 8a37 1dbe de19 08be b0b4 343d
00000200: 24e3 c83d cc07 14be 4865 babd b2d9 2bbe
00000210: 709c 673d a003 04bd caae 3abe 08c5 1b3e
00000220: fc64 9b3d eef7 4ebe 7297 303e 88e3 e53d
00000230: 9a2a 623e 6c38 ef3d ba89 20be 78d3 c4bd
00000240: d086 c53d 30f3 733d 806d 6e3b 802e f8bc
00000250: 4a92 203e 6a68 243e e4ff a1bd 5461 f83d
00000260: 1835 a93d 3a01 54be 5e69 11be 8260 183e
00000270: c0a0 cc3b ce5d 463e 644f 383e 4890 693d
00000280: 30ff babd 9a2a 593e 3031 60bd 00a1 60bb
00000290: 8a1e 6f3e 9a4a 61be 5caa 353e b87e 39be
000002a0: 3016 3d3d 905c 80bd d28b 793e 6e46 513e
000002b0: f84c 373e 8024 37bb fcf1 c1bd 1093 783e
000002c0: 4001 3abc 100b 5d3d c04d 2f3d 2a93 3b3e
000002d0: d808 053e c02a aebb 0075 a93a 6091 423c
000002e0: 94bf 20be 780b 4cbd 420d 233e ca35 4c3e
000002f0: 92e9 3b3e 20c0 0abe 841d 39be 1434 34be
00000300: 843e 9b3d f0c8 78bd b413 603e 3ee7 0bbe
00000310: a005 79be 6c84 57be 06f0 73be 9824 733e
00000320: 80e1 b93c f2b0 743e 3847 40be 18b3 1e3d
00000330: 084b 5bbd c268 59be 88c7 2cbd 50de 6cbe
00000340: 0835 26bd accc ca3d a8bf 42be 4c12 b4bd
00000350: 008b e33d 10f3 3f3e 04ca cf3d 5a02 673e
00000360: 5cc9 21be 4488 473e 16de 3fbe a4ac 4dbe
00000370: 4081 a93b 9e83 34be 94bc c23d 9628 6ebe
00000380: dc48 aabd 0823 103d 50e2 f33c 760b 02be
00000390: 88c8 d1bd 56ae 473e c096 f6bd b6b4 3a3e
000003a0: 9cde 10be 2042 2c3c 32ad 5ebe 048b c23d
000003b0: 2020 4d3c d0bd 8d3d 6631 163e aa73 54be
000003c0: e099 1c3d e859 1b3d 6648 023e 2874 b33d
000003d0: c0b4 c33b 808d 803c 5c72 24be 94c3 d0bd
000003e0: b666 2abe 0add 453e b89c 833d dc77 253e
000003f0: 5a45 79be 4c3c d6bd 2857 2e3e 08b5 2abd
0.23643494 0.11644629 0.23017609 -0.19987115 -0.1119999 0.038183093 0.115484506 -0.10838845
-0.06151414 -0.12749079 0.016596645 -0.09509963 0.13056758 -0.15320057 -0.18065023 -0.07387069
0.04527366 0.22859138 0.19575366 0.08577263 -0.03870502 0.1583454 0.13663769 -0.19862804
-0.09433061 -0.043119818 0.046981424 -0.17126784 0.07919952 0.051764965 -0.0087993145 0.008289188
0.12862566 -0.043941945 0.19752476 -0.042303354 0.05071193 0.044924915 -0.11140996 -0.20771328
-0.15192348 -0.17760491 0.17903435 0.22118765 0.019749522 -0.048344553 0.0045850277 -0.13604361
0.11792207 0.22653976 -0.14764425 0.17001387 -0.21411711 0.15453848 -0.21526787 0.10637966
0.12341684 -0.07818073 0.10933626 -0.077107996 -0.09532744 -0.1282556 -0.0536263 0.048685968
0.050984085 0.21914104 -0.22738084 0.13203982 -0.17494363 0.24758497 0.07865295 -0.18405709
-0.04042843 0.0056450367 0.12033731 0.09289548 0.22048992 0.1928631 -0.21152315 0.17143339
0.16367063 -0.064888865 0.12794164 0.07057908 -0.20659965 0.107647926 0.088152915 -0.20333782
-0.16726801 -0.1531043 -0.11736551 0.14586836 0.025137544 0.03681457 0.20249793 0.0742583
-0.10477692 0.07993516 0.15619501 0.055227697 -0.058064193 0.22089872 -0.09146711 -0.16941702
-0.04232046 0.042918026 0.10609391 0.22736722 -0.051909626 -0.1373595 -0.23732749 -0.13237172
-0.0935078 -0.07145813 0.013081461 -0.059710443 0.19198582 -0.0052224696 -0.19341308 0.013881326
0.20449191 -0.104198515 0.056589514 0.001726687 -0.02188921 -0.15353218 -0.13291118 0.04411763
0.09808949 -0.144561 -0.09101349 -0.16782263 0.056545675 -0.03223002 -0.18230739 0.1521188
0.075876206 -0.20211765 0.17245272 0.11225039 0.22086564 0.116806835 -0.15677539 -0.09610647
0.09644854 0.059558094 0.0036381185 -0.03029561 0.15680805 0.16055456 -0.079101354 0.12127939
0.0826208 -0.20703593 -0.1420035 0.14880565 0.006244749 0.19371721 0.17999035 0.057022363
-0.091307044 0.21207657 -0.05473441 -0.003427565 0.23351493 -0.22001114 0.17740768 -0.18114746
0.046163738 -0.06267655 0.24369743 0.20437023 0.17900455 -0.002794534 -0.09469983 0.2427485
-0.011352837 0.05396563 0.042798758 0.18317857 0.12991655 -0.005315155 0.0012928545 0.01187548
-0.15698081 -0.049815625 0.15923026 0.19942394 0.18350819 -0.13549852 -0.18077666 -0.17597991
0.07580283 -0.060738504 0.21882516 -0.1366243 -0.24318552 -0.21046609 -0.2382203 0.23744428
0.022690535 0.23895624 -0.18777168 0.038745016 -0.053538352 -0.21231368 -0.042182475 -0.2313168
-0.04057792 0.09902319 -0.19018424 -0.08792552 0.111104965 0.18745065 0.10145953 0.22559491
-0.15799469 0.19485575 -0.18737063 -0.20085388 0.0051728785 -0.17628333 0.09508625 -0.2325767
-0.08314678 0.03518966 0.029771 -0.12699685 -0.102433264 0.19500098 -0.12040472 0.18232998
-0.14147419 0.010513812 -0.21745756 0.094991714 0.012519866 0.069209695 0.14667282 -0.20747247
0.038232684 0.03792754 0.1272293 0.087623894 0.005972475 0.015692472 -0.1605925 -0.101935536
-0.16640744 0.19322601 0.06426376 0.16159004 -0.24342862 -0.104607195 0.17025435 -0.04167655

encoder.blocks.1.skip.bias f4 [32]
00000000: 343f 97bd fc70 8cbd 281a 4b3d d05a 713d
00000010: 8c5e ff3d 403e 273e 7e04 643e 2a12 6d3e
00000020: f47a 3a3e 6015 00bd 0032 643a 609c 903d
00000030: 96b7 283e 0eaa 423e 187e a03d 8c4c 3fbe
00000040: 8038 503b a84e 4dbe a05d 44be 1807 633d
00000050: 6adf 7a3e e085 c0bc 52a7 7ebe b00d c73c
00000060: e62c 6ebe 7c96 50be 9c34 33be 48a5 eb3d
00000070: cc0a 953d 7e4b 17be 68af 0abe 440a febd
-0.07385102 -0.068574876 0.04958549 0.058924496 0.12469205 0.1633234 0.22267339 0.2315146
0.18210965 -0.031270385 0.00087049603 0.07061076 0.16476282 0.19010183 0.078365505 -0.18681544
0.0031771958 -0.20049536 -0.1917634 0.055426687 0.24499288 -0.023501337 -0.24868515 0.024298519
-0.23259315 -0.20369905 -0.17500538 0.11506134 0.0727745 -0.14774892 -0.13543475 -0.12404302

encoder.blocks.2.conv.0.weight f4 [64, 32, 3, 3]
00000000: 1e4c 513d 6304 d63b 5c81 cf3b c673 1e3d
00000010: cc21 893d 4000 52bc 71ea 8f3d 3a1a b73c
00000020: b754 0dbc 6ee0 86bd 7dd0 253d f5d8 e53c
00000030: 43d8 a6bd 3999 4dbc 6b91 bf3c 4e9c 92bd
00000040: 74dd 9fbc c33a d4bc e83a febd 4d3e 8ebd
00000050: b131 1dbe 0934 2cbd 20d9 f9bd 7820 91bd
00000060: ad07 97bd a0eb 35bd 2b97 5abd b1f2 9a3d
00000070: 6851 d03d c189 c53d dd9d e0bc c23b a63c
00000080: ba9d c93d e727 d0bc be9f 373d 6d0c 5f3d
00000090: 57ca 4ebd f45b 913c 66ac c43d ba52 0cbe
000000a0: 1923 8339 66e6 b13c 20f3 ecbd 647d 63bc
000000b0: 820f d03d d0fc e4bd e855 c43d c400 213e
000000c0: 55dc bfbc 03c1 873d 0500 a53d a3c1 edbd
000000d0: 8220 d1bc efc0 ba3d 26d2 363d 72f1 b03c
000000e0: e64c a93d f293 c1bd 8f4c 13bd 4ae7 b6ba
000000f0: f8a8 c7bd bed1 a63c 4b47 7f3d 71dd 2abd
00000100: 7b50 973d c9e5 d03c c215 d13c d1b3 e03c
00000110: a8ad eabc 2fad 71bd b5e0 e3bc 14d4 93bd
00000120: d00f 8ebd 505f 863c b8ce db3c 2516 8abc
00000130: 0ed5 cfba 4ac9 393d d1df 07be c923 38bc
00000140: 1bcd db3c f2e4 243b 89e3 843d 9c74 263c
00000150: 54b2 54bd 1b08 813c 30b7 be3c 41ab 2fbd
00000160: 5529 fb3b c4ba 34bd a86d 88bd c0cf 00bd
00000170: a692 d6bd 34e7 623d b1e8 413d d994 fa3c
00000180: 3752 7f3d 6b65 103d 4e27 153d 0e28 113b
00000190: f154 89bc 2386 973d d76e 9fbd afe8 38bd
000001a0: 1b4d 6ebb ba80 5bbd 4b34 b8bd 3d11 b1ba
000001b0: 1466 9bbc c57d f33c 0327 68bd eee1 003d
000001c0: 0b9d 453c de28 8ebd c017 94bd 082e 73bd
000001d0: 94f9 6bbd 9ab7 a03d 8ef4 fe3d 0ba7 8f3d
000001e0: e66c d53c 7f3c d83d aa6a d53d 1013 50bc
000001f0: c41e 6a3c 3d31 983c b1ef 403d 8a06 af3c
00000200: aece 2dbd e633 5fbd 914c 043d 604e 9ebd
00000210: 19d2 29bd 245d 47ba 8be3 6ebc 88c0 eabd
00000220: 3fc1 8d3d 4be5 6d3d bc41 0cbe 5152 5abd
00000230: b1ec 51bd 0f16 35bd 91fd b9bd cc38 39bc
00000240: 73fe 0c3d efe3 72bb 7487 0abd 6b97 9e3c
00000250: 05d0 653d 4b50 d2bc 6fce efbd 67dd 6abd
00000260: c652 acbd a02d 93bc 48be 723d 8b8b 72bc
00000270: 29ed a43b 698e 9cbc cef3 31bd 0e4e cbbb
00000280: f6d7 5dbd f0a7 ae3c 17b3 bd3d 0020 593d
00000290: ca7a 863d 1e0f 603d f892 bb3d 4bd5 893d
000002a0: da45 5dbd 10eb 343d 0efb 753c a3e4 5dbc
000002b0: 5d81 573d 4246 823d fbfc 69bd c0e2 b13c
000002c0: 5460 8a3d 3e24 d2bd acaa bdbc 4781 453a
000002d0: ddd0 d2bd 1fce 6f3d 84ca 8f3d c8d5 7ebd
000002e0: 4a75 933d 3e23 053e edda 4fbd 3375 5bbd
000002f0: fac1 c63d c777 22be bdfe 213d 3c67 fa3d
00000300: 091a 1cbe c816 98bd e35a 903d 774f e6bd
00000310: 882e a1bd 7b89 443d 47ac 1c3c 0c13 6d3c
00000320: ef9c 9c3d a672 23bd c0c7 d9bb ba41 b43d
00000330: 7226 f1bd d042 433d 845c 5c3b db0c 0ebe
00000340: 45f0 5bbd f21c 213d 3fb6 eebd eed5 59bc
00000350: b0da bb3d 8e5e e7bd 7147 6cbd c087 2d3d
00000360: a01f adbd 0012 8ebc 8186 ba3d 68a1 18bd
00000370: cd3a 6dbc 72b2 523c 8c0b 11be 26ee 68bd
00000380: d2a2 9b3d 9819 0dbd c210 4abc f493 05bd
00000390: 1975 f33d ea05 a43d dd5d f03b b133 0abd
000003a0: fa6e 1a3d 5303 343d a52f 41bc 122b b93d
000003b0: 205b 8a3d a3f5 833c 0032 973d 67ee e53c
000003c0: 1702 c1bd 1c33 bcbc ea6a 6f3d 7b11 31be
000003d0: bf48 e7bd efd9 e2bd c08d 1abe 3ca0 fcbd
000003e0: c292 a2bd 693f 0dbe 9dc0 2fbd 4d99 82bd
000003f0: ceac 16bd df9e 86bd 1cde de3b e42d 153d
0.05109798 0.0065312847 0.0063325595 0.03868463 0.06695899 -0.012817442 0.07027138 0.022351373
-0.008626155 -0.06585775 0.040482033 0.028057555 -0.081467174 -0.012548738 0.02338477 -0.07158719
-0.019514777 -0.025906926 -0.12413579 -0.06945477 -0.15350987 -0.042041812 -0.121996164 -0.07086271
-0.07374511 -0.044414163 -0.05336682 0.07565821 0.10171777 0.09645415 -0.027419025 0.020292167
0.09844537 -0.025409652 0.044830076 0.05445521 -0.050485935 0.017744042 0.09603195 -0.13703433
0.00025012417 0.021716308 -0.1156981 -0.013884876 0.10159208 -0.11181033 0.09586698 0.15722948
-0.023420492 0.06628611 0.08056644 -0.11609199 -0.025528196 0.091188304 0.044634007 0.021599505
0.0826662 -0.094520465 -0.035961684 -0.0013954428 -0.09749025 0.020363685 0.06232385 -0.04171509
0.07388397 0.025500195 0.02552307 0.027429493 -0.028647259 -0.05900305 -0.02781711 -0.07218185
-0.0693661 0.01640287 0.02683197 -0.016856262 -0.0015856342 0.04535798 -0.13268973 -0.011239001
0.0268312 0.0025160876 0.064887114 0.010159638 -0.05192788 0.015750935 0.02328071 -0.04288793
0.0076648393 -0.044123426 -0.0666154 -0.031448126 -0.1047719 0.055396274 0.047341052 0.030588554
0.062334266 0.03525297 0.036414437 0.0022149119 -0.016764136 0.073986314 -0.07784813 -0.04514378
-0.0036361876 -0.05358956 -0.08994349 -0.0013509166 -0.018969573 0.029723058 -0.05667783 0.031465463
0.012061368 -0.069413885 -0.072310925 -0.05937007 -0.057611063 0.07847519 0.12448989 0.07014283
0.026052903 0.10558414 0.10420735 -0.012699857 0.014289562 0.018578166 0.047103588 0.021365423
-0.042433433 -0.054492854 0.032299582 -0.077297926 -0.04146013 -0.00076051266 -0.014580618 -0.11462504
0.069216244 0.05808 -0.1369695 -0.05330116 -0.051251117 -0.04421049 -0.09081567 -0.011305045
0.03442235 -0.0037062129 -0.033820584 0.019359311 0.056106586 -0.025673052 -0.11709296 -0.057340052
-0.08414225 -0.017966092 0.059263498 -0.014803777 0.0050331545 -0.019110875 -0.0434454 -0.006204373
-0.054161035 0.021320313 0.09262674 0.053009033 0.06566389 0.054701917 0.091588914 0.067301355
-0.054021694 0.044169486 0.015013469 -0.013543281 0.052613605 0.06361057 -0.057126027 0.021714568
0.067566544 -0.10260819 -0.023152672 0.00075342174 -0.10293744 0.05854618 0.07021049 -0.062215596
0.072001055 0.13001725 -0.050745893 -0.053578567 0.09704967 -0.15866004 0.039549578 0.12226722
-0.15244307 -0.0742622 0.07048585 -0.112456255 -0.07870203 0.047982674 0.0095625585 0.014469873
0.0764712 -0.03990426 -0.0066461265 0.08801599 -0.11774911 0.04767114 0.003362448 -0.13872091
-0.053695936 0.039334245 -0.116558544 -0.013295634 0.09172571 -0.11297332 -0.05768532 0.04236579
-0.084532976 -0.017342567 0.09107686 -0.037263304 -0.014479351 0.0128599275 -0.14164561 -0.05686774
0.07599415 -0.034448236 -0.012333097 -0.032611802 0.11887569 0.080089405 0.007335408 -0.033740703
0.03770349 0.043948483 -0.0117911445 0.09041418 0.06755662 0.01610834 0.073825836 0.02806778
-0.09424227 -0.02297359 0.05845157 -0.17291825 -0.11293172 -0.11076724 -0.15093136 -0.1233525
-0.07938148 -0.1379372 -0.0429083 -0.06376896 -0.036785893 -0.06573271 0.00680138 0.036420718

encoder.blocks.2.conv.0.bias f4 [64]
00000000: 8df5 913d 7f6d 2b3d efac 79bd ba0d 97bc
00000010: 7968 75bc 5372 a03c d71f c73c 04d7 c23a
00000020: e547 c5bc 8128 ff3c 80d5 2abd ca7e 8cbb
00000030: 7eda 293d 3085 83bd 98d9 9bbc e85b 503d
00000040: a4ac 8e3d 2eea c6bb a0e0 40bc 510b 1f3d
00000050: 579b 43bd 8d78 0f3c a981 363c a9e5 aebc
00000060: 5973 663d 967f 293d 97e5 debc 73d9 e13c
00000070: c39a 253b 707d 983d 1af1 b43d f723 5dbb
00000080: 2e52 b6bc eb37 7b3d b4b4 8e3c 058a a83d
00000090: 60b2 d2bd 18ea 98bc 5cb6 b23c 77b9 4e3d
000000a0: a787 ddbc 2c4a 153c 4cfc 1b3d f842 1e3d
000000b0: c3d5 943c 06a8 bb3c c627 543d 747d 0f3d
000000c0: a34d 1ebd 3481 6dbd 8596 21bd a9a0 043c
000000d0: 80a1 c9bd 161d 0d3d 5f03 283d 4980 de3c
000000e0: 94c4 7fbc caa2 103d 769d cc3c 3834 a43d
000000f0: 610c 5bbc 6766 5f3c d2b6 ef3c 8c11 a33d
0.07126913 0.04185247 -0.060955938 -0.018439163 -0.0149785215 0.019585764 0.024307175 0.0014865105
-0.024082134 0.031147243 -0.041707516 -0.0042875754 0.041468136 -0.06421888 -0.019024655 0.0508689
0.06966522 -0.006070397 -0.011772305 0.03882915 -0.047755565 0.008756769 0.011139312 -0.021349745
0.056262348 0.04138144 -0.027209086 0.027569508 0.0025269247 0.074458 0.08835049 -0.003374336
-0.022255983 0.061332624 0.01742015 0.0822945 -0.102879286 -0.018666312 0.021815471 0.05046984
-0.027042223 0.009111922 0.038082406 0.038638085 0.018168336 0.022907268 0.051795743 0.03503175
-0.03864826 -0.057984546 -0.039450187 0.008094945 -0.09845257 0.034451567 0.04101884 0.02716078
-0.015610833 0.035311498 0.024977427 0.080177724 -0.013369651 0.013635254 0.02926198 0.07962331
