toyshapes/pinets_feedback/model_7.pth (torch, 466407 bytes, 71 tensors)

encoder.blocks.0.conv.0.weight f4 [16, 1, 3, 3]
0.056742605 -0.19092955 0.13622524 0.13005055 -0.10461908 -0.042203397 -0.15545562 0.21167766
-0.08171326 0.22957958 0.2606885 0.08981221 -0.17164084 -0.18697186 0.010609554 -0.11981792
0.09504135 -0.27342477 0.27295896 -0.43228033 0.06976623 -0.13960807 0.041334495 0.05651576
-0.030025499 0.0014279108 0.27377486 0.06423955 0.18110034 -0.32735035 0.13936698 0.20914535
0.032360047 -0.07325941 0.19861908 0.33861437 -0.027196204 -0.17918389 -0.08670299 -0.17660281
0.18529743 -0.17422968 -0.16807687 0.31239218 0.2936022 0.017738378 -0.09425344 -0.06422099
0.12858039 -0.3513792 -0.2855042 0.2245256 0.32463664 -0.02344127 -0.26310635 0.0004176211
-0.1860333 0.021474944 0.17226994 0.13810927 -0.02633037 0.04245471 0.09325684 -0.17827718
-0.008722024 0.0669799 -0.15041098 -0.13560386 0.14149232 0.27803293 0.028867662 -0.10896701
0.08884119 -0.27688298 -0.22660851 0.18466127 0.051475506 -0.10351925 0.06315363 -0.04470001
0.188297 -0.2919428 -0.16374728 -0.09722435 -0.086897776 -0.122860886 0.20172723 0.19329548
-0.022312367 0.24817254 -0.056343243 -0.22971798 0.1818103 0.14307216 -0.28809142 -0.2089814
-0.09369406 0.314164 0.17195728 0.2833988 -0.28698304 -0.18002793 -0.14357671 0.05044434
-0.034751188 -0.13771093 0.3689888 -0.065309234 -0.23076633 0.14565781 -0.12259644 0.18729621
0.075290695 0.048682626 0.12905933 -0.3061231 -0.07138954 -0.08091612 -0.2342836 0.063931994
0.096721515 -0.1395297 0.23661493 -0.12787251 0.09099144 -0.08650983 -0.24021026 -0.23874141
0.12794037 0.15819299 -0.22185333 -0.123416014 -0.31548235 0.183343 0.2772502 0.11568762
-0.23788638 0.16037282 0.28947502 -0.14672118 -0.008571982 -0.0066035218 -0.063112326 -0.19943844
00000000: ef6a 683d 0983 43be a17e 0b3e f92b 053e
00000010: 8742 d6bd 78dd 2cbd c22f 1fbe 07c2 583e
00000020: 4859 a7bd e916 6b3e f778 853e 77ef b73d
00000030: 9ec2 2fbe 8d75 3fbe b2d3 2d3c 1963 f5bd
00000040: 0aa5 c23d 55fe 8bbe 47c1 8b3e d953 ddbe
00000050: 99e1 8e3d 6bf5 0ebe 5c4e 293d 127d 673d
00000060: 09f8 f5bc bc28 bb3a 382c 8c3e 0690 833d
00000070: 5e72 393e 779a a7be 38b6 0e3e 332a 563e
00000080: f88b 043d 0809 96bd cd62 4b3e dd5e ad3e
00000090: 93ca debc fb7b 37be 5691 b1bd 5ed7 34be
000000a0: 9cbe 3d3e 4469 32be 581c 2cbe def1 9f3e
000000b0: 0753 963e 1350 913c f307 c1bd 4b86 83bd
000000c0: 94aa 033e f9e7 b3be 9b2d 92be 0aea 653e
000000d0: c636 a63e e807 c0bc e0b5 86be 28f4 da39
000000e0: 837f 3ebe 39ec af3c 8867 303e 846c 0d3e
000000f0: cab2 d7bc fde4 2d3d 71fd be3d 4b8e 36be
00000100: d2e6 0ebc c22c 893d 5605 1abe bddb 0abe
00000110: 5de3 103e 555a 8e3e e07b ec3c 192a dfbd
00000120: 5ff2 b53d 9bc3 8dbe 100c 68be d817 3d3e
00000130: fbd7 523d e701 d4bd b156 813d 5c17 37bd
00000140: eed0 403e 8779 95be 5ead 27be 8f1d c7bd
00000150: 76f7 b1bd 7d9e fbbd 9591 4e3e 40ef 453e
00000160: 6dc8 b6bc f120 7e3e 2cc8 66bd 313b 6bbe
00000170: 7b2c 3a3e 8281 123e b880 93be 38ff 55be
00000180: ace2 bfbd 1bda a03e 9215 303e a619 913e
00000190: 71ef 92be 3e59 38be c605 13be b99e 4e3d
000001a0: 4357 0ebd 1804 0dbe 1aec bc3e d9c0 85bd
000001b0: 024e 6cbe 5227 153e d813 fbbd 94ca 3f3e
000001c0: 0232 9a3d 6f67 473d 2128 043e 2bbc 9cbe
000001d0: ae34 92bd 5ab7 a5bd 0ae8 6fbe c7ee 823d
000001e0: ee15 c63d e0e0 0ebe 2f4b 723e 03f1 02be
000001f0: b859 ba3d 112c b1bd aef9 75be a178 74be
00000200: cd02 033e 58fd 213e 852d 63be 89c1 fcbd
00000210: e786 a1be 44be 3b3e bdf3 8d3e a2ed ec3d
00000220: 7d98 73be c638 243e 1236 943e 143e 16be
00000230: 8071 0cbc 5b62 d8bb 0941 81bd 9739 4cbe

encoder.blocks.0.conv.0.bias f4 [16]
-0.21652193 -0.122183494 0.051389813 -0.06653599 0.3275917 0.13494936 -0.042399872 -0.2751802
-0.44633186 0.04497486 0.38604355 0.0059895352 -0.27538183 0.084511444 0.2751574 -0.18307972
00000000: edb7 5dbe 573b fabd 207e 523d 0544 88bd
00000010: 19ba a73e 2a30 0a3e 7dab 2dbd 6be4 8cbe
00000020: 9c85 e4be 8f37 383d 80a7 c53e dd43 c43b
00000030: d9fe 8cbe 5614 ad3d 6ee1 8c3e 4079 3bbe

encoder.blocks.0.conv.1.weight f4 [16]
1.1609901 0.98165596 0.9435093 0.9539597 1.0520326 1.1239498 1.0156137 0.99870557
0.9953986 0.9784614 0.95691705 0.9240161 0.93595445 0.99862766 0.97197336 1.0538722
00000000: 539b 943f ce4d 7b3f d389 713f b436 743f
00000010: 01a9 863f 96dd 8f3f a1ff 813f 2bab 7f3f
00000020: 71d2 7e3f 727c 7a3f 84f8 743f 528c 6c3f
00000030: b69a 6f3f 10a6 7f3f 3fd3 783f 49e5 863f

encoder.blocks.0.conv.1.bias f4 [16]
-0.008668176 0.088340454 -0.03979968 -0.064851455 0.08865536 0.058590636 0.11258596 0.028643513
-0.014311909 0.09831125 0.011570694 0.044048615 0.004579852 -0.042229805 -0.022091338 0.028806537
00000000: f704 0ebc d7eb b43d fd04 23bd d7d0 84bd
00000010: f190 b53d bcfc 6f3d 7893 e63d cda5 ea3c
00000020: 7f7c 6abc 6957 c93d 0293 3d3c 526c 343d
00000030: 9512 963b 29f9 2cbd e5f8 b4bc b0fb eb3c

encoder.blocks.0.conv.1.running_mean f4 [16]
-0.23411699 -0.14564495 0.07801448 0.11002987 0.30957526 0.10284952 -0.04717148 -0.29550794
-0.4707944 0.007719674 0.36957487 -0.024470298 -0.31181046 0.044691954 0.18484683 -0.19050473
00000000: 5dbc 6fbe f323 15be 0ec6 9f3d 5757 e13d
00000010: a680 9e3e c5a2 d23d e236 41bd d14c 97be
00000020: f70b f1be 52f5 fc3b eb38 bd3e ef75 c8bc
00000030: 9fa5 9fbe e90e 373d 7d48 3d3e ac13 43be

encoder.blocks.0.conv.1.running_var f4 [16]
0.00015489709 0.0024165057 0.0013369248 0.012624609 0.0022505862 0.0034713 0.0013553888 0.0007161211
0.0019278892 0.0037845548 0.0012714342 0.0011706987 0.0011886677 0.0012692272 0.004891143 0.0012779078
00000000: df6b 2239 3d5e 1e3b c13b af3a 73d7 4e3c
00000010: 927e 133b c07e 633b 4da7 b13a 13ba 3b3a
00000020: 3ab1 fc3a 4b06 783b 41a6 a63a 2172 993a
00000030: 12cd 9b3a 335c a63a e245 a03b 787f a73a

encoder.blocks.0.conv.3.weight f4 [16, 16, 3, 3]
0.010604278 -0.007940596 -0.04643883 -0.07829155 0.09008181 -0.03959569 0.038710132 -0.05472524
0.124757074 0.041691393 0.09131887 0.0441803 0.20079678 0.10963028 0.06270538 0.13072895
0.037588954 0.1345509 0.057797264 0.06087487 0.19430597 0.048152946 0.08657229 0.12766287
0.007458725 0.05722087 0.0035474463 0.11076124 0.1159118 0.12822033 0.090333305 0.11366571
0.14228727 -0.022883683 0.04023601 0.014913064 0.11986136 -0.050424334 0.10730825 0.01638566
-0.0093463035 0.08881185 0.056550317 -0.18232073 -0.050958835 -0.023639701 -0.022441367 0.005684753
0.011363122 0.041838884 -0.026370365 0.0031254361 -0.048513208 0.050017197 0.14230913 -0.018573081
0.11366357 0.10890621 -0.034173552 0.010927666 0.08474871 -0.051369805 -0.03483154 0.023498144
0.056223746 -0.0676197 0.052148595 0.0028241046 -0.074014366 0.036354147 -0.012208698 0.038821213
0.0816601 0.108748175 0.13665618 0.0665201 0.06699216 -0.0118485065 0.13456169 0.028986257
0.00074034143 -0.0027092844 -0.010966156 -0.041305363 0.010906946 0.08093337 -0.037693705 -0.090038724
0.016499385 0.07095387 0.0707153 0.013583639 -0.012576419 0.09713143 -0.044994418 0.047335245
0.058538236 0.05840474 -0.038429547 0.015705353 -0.024219658 0.10183714 0.022388235 -0.02878978
0.08900624 0.06494085 0.05431393 -0.019050492 -0.06511615 0.06920223 -0.030075125 0.051970817
0.05035183 0.19183023 0.019954942 0.034869693 0.061358485 -0.06257374 0.09347747 0.0075316434
0.05019907 0.09842656 -0.039871342 0.06162065 -0.019045155 0.013182916 -0.022084387 -0.051280435
0.04190962 -0.015645884 0.008595227 -0.025886344 -0.016657025 0.021626253 0.025369162 0.104382135
-0.04734025 0.089412205 0.0015100219 0.10677175 0.13027498 0.07080872 0.024396932 0.15594572
-0.018739467 -0.025704192 -0.041452363 -0.073346704 -0.029341372 -0.059477847 0.082816966 -0.09014052
-0.08030611 0.08368264 0.07989046 0.09753474 -0.0016986623 0.1072311 0.063844055 -0.054001965
0.072069824 -0.024713967 0.040144175 -0.07318996 -0.021991089 -0.0814445 -0.035475902 0.017951248
-0.018462034 -0.08668191 0.04294559 0.017505715 -0.078185305 -0.07580714 -0.06672528 -0.014864392
-0.08418063 -0.04413392 -0.04159971 -0.08468827 0.059425328 0.056306504 0.013643784 -0.09593486
-0.15084489 -0.030300822 0.024332779 -0.019879099 -0.0896907 -0.039310716 -0.097554505 -0.023451284
-0.12077479 -0.03720003 -0.13994576 -0.04457616 -0.025945675 0.036022343 -0.015549301 0.08770217
0.061526712 -0.055012736 -0.13342716 -0.052482586 0.0076815602 -0.06533511 -0.12840183 -0.0018291053
-0.071351565 -0.09303764 0.045624916 -0.011296988 0.028075969 -0.0013010162 0.055406284 -0.039036058
-0.07257287 0.07107608 0.11149148 0.022910574 -0.049525328 -0.039742395 -0.001250597 0.018479833
0.021603651 0.021169754 -0.045488816 0.034364462 -0.010707826 -0.04906759 -0.05152625 -0.087476164
-0.118792996 -0.038923703 0.033546813 -0.03941169 -0.042441342 -0.06840308 -0.04057597 0.031993605
0.016549386 0.017884782 0.028807018 -0.094090976 0.008691524 0.03662771 -0.0716071 -0.0141731575
-0.028545804 0.010287308 0.005558336 -0.0934685 -0.08577944 0.05755121 -0.058784377 -0.086163774
00000000: 91bd 2d3c 4619 02bc a536 3ebd 5257 a0bd
00000010: d07c b83d 172f 22bd 848e 1e3d 9327 60bd
00000020: a380 ff3d 98c4 2a3d 6305 bb3d 67f6 343d
00000030: ac9d 4d3e d785 e03d ae6b 803d cfdd 053e
00000040: e0f6 193d b6c7 093e d3bc 6c3d ed57 793d
00000050: 25f8 463e 063c 453d d04c b13d 0eba 023e
00000060: 5268 f43b 6e60 6a3d 467c 683b cad6 e23d
00000070: 2a63 ed3d 314c 033e ab00 b93d 91c9 e83d
00000080: c1b3 113e 9076 bbbc 84ce 243d ed55 743c
00000090: df79 f53d bf89 4ebd 6ec4 db3d 383b 863c
000000a0: 3d21 19bc fde2 b53d 4ea1 673d 49b2 3abe
000000b0: 36ba 50bd 0ca8 c1bc f5d6 b7bc 2a47 ba3b
000000c0: 632c 3a3c 405f 2b3d aa06 d8bc 1ed4 4c3b
000000d0: c9b5 46bd d5de 4c3d 7cb9 113e 9326 98bc
000000e0: 72c8 e83d 380a df3d 91f9 0bbd f409 333c
000000f0: bb90 ad3d 2569 52bd 84ab 0ebd 2e7f c03c
00000100: df4a 663d 337c 8abd c499 553d 9d14 393b
00000110: d894 97bd 16e8 143d fe06 48bc fe02 1f3d
00000120: 693d a73d 5db7 de3d 99ef 0b3e b13b 883d
00000130: 3033 893d 3d20 42bc 8aca 093e 9674 ed3c
00000140: 7913 423a 408e 31bb 64ab 33bc d02f 29bd
00000150: 0cb3 323c 65c0 a53d b764 1abd 3966 b8bd
00000160: b829 873c 4350 913d 2fd3 903d e98d 5e3c
00000170: 530d 4ebc d8ec c63d 114c 38bd 9ae2 413d
00000180: cac5 6f3d cf39 6f3d 4d68 1dbd 83a8 803c
00000190: 4e68 c6bc fe8f d03d 8867 b73c 8bd8 ebbc
000001a0: e748 b63d b5ff 843d 4978 5e3d c70f 9cbc
000001b0: 9e5b 85bd e6b9 8d3d 1c60 f6bc 5adf 543d
000001c0: b83d 4e3d 256f 443e 8c78 a33c 86d3 0e3d
000001d0: 0953 7b3d a926 80bd 1e71 bf3d 01cc f63b
000001e0: 8a9d 4d3d dd93 c93d 2250 23bd ef65 7c3d
000001f0: 9604 9cbc 28fd 573c 51ea b4bc 6f0b 52bd
00000200: 6ca9 2b3d cc2b 80bc ffd2 0c3c 990f d4bc
00000210: 5074 88bc 8a29 b13c fdd2 cf3c 4dc6 d53d
00000220: dae7 41bd bf1d b73d edeb c53a 26ab da3d
00000230: ce66 053e 2a04 913d 13dc c73c 3cb0 1f3e
00000240: 8383 99bc 9991 d2bc f4c9 29bd cc36 96bd
00000250: 515d f0bc 0b9f 73bd f19b a93d 989b b8bd
00000260: 8877 a4bd ce61 ab3d 9c9d a33d 4bc0 c73d
00000270: a6a5 deba fb9b db3d acc0 823d 2a31 5dbd
00000280: 5899 933d f274 cabc 386e 243d 9ee4 95bd
00000290: a826 b4bc 60cc a6bd 2e4f 11bd 7f0e 933c
000002a0: b13d 97bc 4986 b1bd b7e7 2f3d 2568 8f3c
000002b0: 9e1f a0bd c640 9bbd 43a7 88bd c789 73bc
000002c0: e566 acbd c5c5 34bd 7564 2abd 0b71 adbd
000002d0: f967 733d a6a1 663d 2e8a 5f3c 7f79 c4bd
000002e0: 1577 1abe 6e39 f8bc 8955 c73c 7ed9 a2bc
000002f0: c2af b7bd 4604 21bd a8ca c7bd e81c c0bc
00000300: c658 f7bd 0f5f 18bd f14d 0fbe 7e95 36bd
00000310: 068c d4bc 2a8c 133d 7fc2 7ebc 329d b33d
00000320: 6f03 7c3d 0955 61bd 21a1 08be fbf7 56bd
00000330: 99b5 fb3b 6ace 85bd c57b 03be 97be efba
00000340: c520 92bd 858a bebd 31e1 3a3d 0117 39bc
00000350: 93ff e53c dc86 aaba b3f1 623d 46e4 1fbd
00000360: 16a1 94bd 5690 913d a555 e43d f5ae bb3c
00000370: 12db 4abd ecc8 22bd 12eb a3ba 0563 973c
00000380: 24fa b03c 316c ad3c 7b52 3abd c0c1 0c3d
00000390: e16f 2fbc 19fb 48bd 300d 53bd b426 b3bd
000003a0: be49 f3bd 766e 1fbd 6268 093d 276e 21bd
000003b0: f9d6 2dbd ea16 8cbd fd32 26bd ba0b 033d
000003c0: 9492 873c 1b83 923c b2fc eb3c c5b2 c0bd
000003d0: e566 0e3c f006 163d bea6 92bd 8836 68bc
000003e0: e4d8 e9bc 198c 283c b422 b63b 6a6c bfbd
000003f0: 22ad afbd d1ba 6b3d e3c7 70bd a276 b0bd

encoder.blocks.0.conv.3.bias f4 [16]
0.05977206 0.06266231 0.0900788 -0.07628062 -0.026470698 -0.10951021 -0.08658223 -0.049932472
-0.07106675 -0.009710579 0.025641514 -0.03170012 -0.025150536 0.09051104 -0.057486493 -0.019615043
00000000: 8cd3 743d 1955 803d 3c7b b83d 0439 9cbd
00000010: 14d9 d8bc e446 e0bd 0652 b1bd fe85 4cbd
00000020: 728b 91bd 1f19 1fbc 270e d23c fcd7 01bd
00000030: 7f08 cebc da5d b93d f576 6bbd baaf a0bc

encoder.blocks.0.conv.4.weight f4 [16]
1.0055877 0.9411358 0.98428744 1.007528 0.99344814 1.0331144 1.0173565 0.9874295
1.0863147 1.0744497 1.0029764 1.0150148 0.9853813 0.93022 0.92958665 0.92566806
00000000: 19b7 803f 47ee 703f 43fa 7b3f adf6 803f
00000010: 9e52 7e3f 183d 843f bd38 823f 2ec8 7c3f
00000020: 5c0c 8b3f 9187 893f 8861 803f 01ec 813f
00000030: f341 7c3f e622 6e3f 64f9 6d3f 95f8 6c3f

encoder.blocks.0.conv.4.bias f4 [16]
-0.007996521 -0.0056948527 0.016864784 0.031224156 0.044249404 -0.024674334 0.054706264 -0.011006168
-0.031320643 0.084486194 0.0048455605 0.11461913 -0.07000518 0.021471635 0.00076357275 -0.037347063
00000000: d703 03bc e39b babb 0428 8a3c cdc9 ff3c
00000010: dd3e 353d d421 cabc ad13 603d 3753 34bc
00000020: 134a 00bd 1907 ad3d 82c7 9e3b 6fbd ea3d
00000030: e05e 8fbd 48e5 af3c 802a 483a 3cf9 18bd

encoder.blocks.0.conv.4.running_mean f4 [16]
1.0553148 -0.5818354 -0.25980675 -0.08638273 0.063393764 -0.13078271 0.17802754 0.5383274
0.09565482 0.17850353 0.437082 -0.0013128129 -0.076957464 -0.8035015 0.7742095 -0.91496027
00000000: 8e14 873f 2af3 14bf 6405 85be 6ee9 b0bd
00000010: 97d4 813d e7eb 05be da4c 363e d3cf 093f
00000020: ade6 c33d a1c9 363e 36c9 df3e b112 acba
00000030: e09b 9dbd 46b2 4dbf 9832 463f d63a 6abf

encoder.blocks.0.conv.4.running_var f4 [16]
1.2596922 0.7400671 0.2845337 0.39990324 0.28697056 0.36197242 0.20155978 0.79399776
0.19068478 0.24687296 0.40642738 0.25818324 0.17430866 1.226059 1.1222377 1.3235282
00000000: 983d a13f 0a75 3d3f 67ae 913e 1ec0 cc3e
00000010: ceed 923e 7354 b93e b065 4e3e 7043 4b3f
00000020: df42 433e 44cc 7c3e 4017 d03e 9830 843e
00000030: f87d 323e 80ef 9c3f 7ca5 8f3f 5f69 a93f

encoder.blocks.0.skip.weight f4 [16, 1, 1, 1]
-0.14485884 -0.853698 0.2959249 -0.270774 -0.5970789 0.7490419 -0.10535121 0.30027115
-0.022447467 -0.6442456 0.054387093 0.37027478 -0.10068822 0.077469826 0.3307767 0.6250088
00000000: e055 14be f48b 5abf 7883 973e e4a2 8abe
00000010: 2ada 18bf 36c1 3f3f 60c2 d7bd 24bd 993e
00000020: c0e3 b7bc 48ed 24bf 00c5 5e3d a894 bd3e
00000030: a035 cebd 80a8 9e3d 905b a93e 9400 203f

encoder.blocks.0.skip.bias f4 [16]
0.040111303 -0.1234833 -0.6256689 -0.35922635 -0.4406861 -0.4488443 -0.6928141 -0.009348273
-0.61728156 0.12828434 0.2714603 0.8015399 0.0331825 0.70940304 -0.62195945 -0.2905891
00000000: c04b 243d d0e4 fcbd d62b 20bf 84ec b7be
00000010: 9ca1 e1be ecce e5be 445c 31bf 8029 19bc
00000020: 2a06 1ebf f85c 033e d8fc 8a3e b831 4d3f
00000030: 60ea 073d 709b 353f bc38 1fbf 18c8 94be

encoder.blocks.1.conv.0.weight f4 [32, 16, 3, 3]
-0.10962698 -0.097588755 -0.11393265 -0.14309104 -0.11313518 0.029573238 -0.084670335 -0.00016399032
-0.0054041645 -0.02004225 0.0062968587 -0.07780826 -0.058984805 0.0017498174 -0.08529775 0.07446569
0.032014526 -0.0495341 0.06736835 -0.06303318 -0.035294656 0.0015051445 0.09752018 0.03614095
1.5359456e-05 0.074363925 0.13055609 -0.0016813995 -0.053557064 -0.058814935 0.06414442 -0.04392926
0.064104855 0.010612686 0.047515333 -0.02493904 -0.10617042 -0.0402102 -0.09620099 0.053431813
-0.015026308 -0.03805613 -0.07805349 -0.02379154 0.032275464 -0.14570092 0.01686686 -0.1020394
-0.119811736 0.012225317 0.054791167 0.10046349 -0.057645485 0.025618162 0.094400465 0.05130477
0.016676387 0.10654718 0.06161599 0.050939415 0.051421676 0.038591407 -0.003127174 -0.08106512
-0.12338538 -0.07305488 -0.0069054957 -0.020181146 -0.07959858 -0.12406214 -0.062013924 0.01967151
0.13800047 0.043780133 -0.015629428 0.062049784 0.026611976 -0.002126005 0.11161934 0.15585922
0.10848393 -0.04257413 0.08190076 0.03364186 -0.06262602 -0.098944545 0.049726956 -0.09534506
-0.037104104 0.059332073 0.00082759175 0.07125586 -0.030604443 0.0071484526 0.06975633 0.038422424
0.011250816 -0.07719773 0.04816964 -0.057170663 0.052471764 -0.102564365 -0.051007286 0.047979955
0.048775323 -0.07333731 0.04340559 -0.06629851 0.028243776 0.008767376 -0.02738186 0.0617293
-0.04500845 0.04011331 0.010350972 -0.0301658 0.060286257 0.04898257 0.03150262 0.030354815
-0.038521707 -0.0054834597 -0.005253191 0.0443665 0.13114488 0.0040465947 0.01044152 -0.043126352
-0.06155648 -0.0047540474 -0.0024301477 0.024214178 0.008812997 -0.046179995 0.020791452 -0.01518467
-0.09478732 0.026360152 -0.10365077 0.032526027 -0.1292153 0.01865086 0.09059781 -0.0122748725
-0.103647105 -0.10489726 -0.021520138 -0.016221747 0.047443032 -0.005677253 0.019894253 -0.0073060286
-0.050732892 -0.09152279 -0.06294219 -0.059940107 -0.049901765 -0.031694975 -0.00830777 0.03593681
-0.05494849 0.06451817 0.1164522 0.06698378 0.021411095 0.021696465 -0.007164121 0.04900489
0.04389715 0.07666193 0.080881804 -0.10255769 0.058204353 -0.03920899 0.0369219 -0.06730678
-0.04658903 -0.05027177 -0.03952657 -0.041653354 -0.10057279 -0.029508676 -0.11659638 -0.07489013
-0.0155575555 -0.0118585015 -0.006123474 -0.09645019 -0.1480716 -0.16749603 -0.07940984 -0.0889053
-0.04895386 -0.08299742 -0.04605462 -0.12763779 -0.06349331 -0.12323648 -0.008287389 0.05991321
0.012354848 0.058387864 -0.00799573 0.07510812 -0.014235646 0.03350246 -0.04480117 -0.04529115
-0.06676774 -0.031209657 -0.015573649 -0.07069166 -0.13869935 -0.06924564 -0.070332155 0.013102372
0.115602925 0.13268475 0.08686891 0.07867661 0.09529307 0.14579263 0.15218809 0.107043765
0.1541975 0.06907939 0.1284895 0.019271992 0.06530702 0.08257272 0.08273667 0.018627627
0.032945395 -0.008690274 0.035919674 0.0004697529 0.0029227522 0.031959325 -0.06948143 0.06622363
0.04349163 0.026061608 -0.026859406 -0.10150074 -0.024072306 -0.07730052 -0.010555809 0.06953845
-0.023357412 -0.0959136 0.015039057 -0.15333326 -0.006781786 0.015003207 0.043509554 -0.08166909
00000000: 1c84 e0bd 9ddc c7bd 8555 e9bd 7586 12be
00000010: 6bb3 e7bd 9343 f23c a467 adbd d1f4 2bb9
00000020: 6b15 b1bb a52f a4bc e155 ce3b f059 9fbd
00000030: 0d9a 71bd 215a e53a 96b0 aebd 7881 983d
00000040: aa21 033d 45e4 4abd 6bf8 893d 8a17 81bd
00000050: 2191 10bd 4548 c53a a9b8 c73d 8808 143d
00000060: 2ed8 8037 1d4c 983d 7fb0 053e 6862 dcba
00000070: a75e 5bbd eee7 70bd 265e 833d 2bef 33bd
00000080: 6849 833d d5e0 2d3c 709f 423d f54c ccbc
00000090: e16f d9bd 73b3 24bd 0605 c5bd 51db 5a3d
000000a0: e730 76bc bfe0 1bbd 82da 9fbd 7ae6 c2bc
000000b0: 4733 043d 9f32 15be 5f2c 8a3c 08fa d0bd
000000c0: db5f f5bd b24c 483c b46c 603d cdbf cd3d
000000d0: ac1d 6cbd 2edd d13c 0855 c13d f324 523d
000000e0: eb9c 883c 6835 da3d 0c61 7c3d d9a5 503d
000000f0: 899f 523d 0612 1e3d 46f1 4cbb 7805 a6bd
00000100: 79b1 fcbd cc9d 95bd 7f47 e2bb ee52 a5bc
00000110: 9504 a3bd 4b14 febd 5002 7ebd 2626 a13c
00000120: ff4f 0d3e cc52 333d 4909 80bc ea27 7e3d
00000130: 5c01 da3c 7254 0bbb ae98 e43d 8f99 1f3e
00000140: d32c de3d 3662 2ebd 96bb a73d 0ccc 093d
00000150: 1242 80bd 70a3 cabd 7eae 4b3d 4544 c3bd
00000160: 79fa 17bd 3006 733d bef2 583a 98ee 913d
00000170: 2bb6 fabc 913d ea3b 68dc 8e3d d560 1d3d
00000180: 5855 383c d819 9ebd 874d 453d c92b 6abd
00000190: a2ec 563d 440d d2bd 04ed 50bd a186 443d
000001a0: a2c8 473d df31 96bd 0fca 313d 83c7 87bd
000001b0: 7e5f e73c 0aa5 0f3c ec4f e0bc ddd7 7c3d
000001c0: c85a 38bd db4d 243d 2097 293c 451e f7bc
000001d0: b9ee 763d f3a1 483d e408 013d a9aa f83c
000001e0: f0c8 1dbd 98ae b3bb f622 acbb a6b9 353d
000001f0: d84a 063e 4c99 843b e912 2b3c 42a5 30bd
00000200: a622 7cbd d7c7 9bbb 1d43 1fbb d05c c63c
00000210: 6364 103c 3c27 3dbd d652 aa3c 1fc9 78bc
00000220: db1f c2bd 3ff1 d73c db46 d4bd 033a 053d
00000230: 0451 04be b0c9 983c 588b b93d 8c1c 49bc
00000240: ef44 d4bd 60d4 d6bd 004b b0bc 78e3 84bc
00000250: a053 423d 4008 babb 46f9 a23c 6967 efbb
00000260: 4bcd 4fbd 4d70 bbbd d6e7 80bd c283 75bd
00000270: cb65 4cbd 97d2 01bd 501d 08bc 7a32 133d
00000280: ab11 61bd 1a22 843d 7e7e ee3d cb2e 893d
00000290: 5266 af3c c9bc b13c 01c1 eabb 5ab9 483d
000002a0: 7fcd 333d ee00 9d3d 5ca5 a53d c409 d2bd
000002b0: b067 6e3d 9b99 20bd 6b3b 173d 23d8 89bd
000002c0: 24d4 3ebd c6e9 4dbd 9de6 21bd b59c 2abd
000002d0: 1bf9 cdbd 2ebc f1bc 15ca eebd ff5f 99bd
000002e0: 1ee5 7ebc 294a 42bc 6ca7 c8bb ad87 c5bd
000002f0: 15a0 17be 1484 2bbe a0a1 a2bd fb13 b6bd
00000300: d883 48bd 8dfa a9bd c5a3 3cbd 7bb3 02be
00000310: c808 82bd 6863 fcbd d4c7 07bc 8e67 753d
00000320: fd6b 4a3c 1d28 6f3d 8600 03bc 49d2 993d
00000330: a13c 69bc e039 093d 6e81 37bd 3783 39bd
00000340: 86bd 88bd 65ab ffbc 9e28 7fbc cac6 90bd
00000350: 3407 0ebe a8d0 8dbd 4e0a 90bd 55ab 563c
00000360: 3ac1 ec3d 83de 073e 54e8 b13d 3421 a13d
00000370: 0329 c33d aa4a 153e 32d7 1b3e c339 db3d
00000380: f3e5 1d3e 7f79 8d3d c092 033e 4ce0 9d3c
00000390: b0bf 853d e31b a93d d871 a93d f798 983c
000003a0: c0f1 063d a761 0ebc 8220 133d 2b49 f639
000003b0: a58b 3f3b c8e7 023d 484c 8ebd 41a0 873d
000003c0: 4824 323d 277f d53c 4208 dcbc 9fdf cfbd
000003d0: 4933 c5bc bc4f 9ebd 46f2 2cbc 2d6a 8e3d
000003e0: 0b58 bfbc 596e c4bd 6066 763c 6503 1dbe
000003f0: bf39 debb 03d0 753c 1337 323d 2042 a7bd

encoder.blocks.1.conv.0.bias f4 [32]
-0.009516416 -0.08689302 0.053118553 0.046012554 0.011057732 -0.068639725 0.01056451 0.034852996
-0.003196791 -0.11354033 -0.05030261 0.0987756 0.025842272 0.04156368 0.010562725 0.09193943
0.068041205 -0.09682642 0.06870629 0.017178606 -0.02228305 -0.06832695 0.09862475 0.011278967
-0.024495596 -0.0058669406 -0.026140949 0.0148458 0.015682867 -0.054652493 -0.004477712 0.058055833
00000000: beea 1bbc f8f4 b1bd d792 593d a977 3c3d
00000010: 7d2b 353c fc92 8cbd c416 2d3c 04c2 0e3d
00000020: 4181 51bb d587 e8bd 1c0a 4ebd dd4a ca3d
00000030: 2cb3 d33c ad3e 2a3d 480f 2d3c bd4a bc3d
00000040: 3059 8b3d ee4c c6bd e2b5 8c3d 26ba 8c3c
00000050: f18a b6bc 00ef 8bbd c6fb c93d 6bcb 383c
00000060: fdaa c8bc 773f c0bb 8b25 d6bc cc3b 733c
00000070: 5b79 803c 4bdb 5fbd c5b9 92bb f4cb 6d3d

encoder.blocks.1.conv.1.weight f4 [32]
1.0280857 1.0374905 1.0334859 0.9714848 0.9943766 1.0350456 0.983507 1.0320007
1.0118498 0.93886524 0.9434038 1.034221 0.99373376 1.0324984 0.94801533 0.9111164
1.0321434 1.0096152 0.9994242 0.984541 1.0319704 0.9305816 0.973243 1.0196012
0.9754669 1.0709016 1.004714 0.97266614 0.99521124 1.0295587 0.9979819 0.9805397
00000000: 5098 833f 7dcc 843f 4449 843f 3ab3 783f
00000010: 778f 7e3f 607c 843f 1dc7 7b3f 9918 843f
00000020: 4b84 813f 7959 703f e982 713f 5b61 843f
00000030: 5665 7e3f e828 843f 22b1 723f ed3e 693f
00000040: 461d 843f 123b 813f 44da 7f3f e10a 7c3f
00000050: 9b17 843f 993a 6e3f 7426 793f 4b82 823f
00000060: 33b8 793f 4e13 893f 789a 803f a600 793f
00000070: 2ac6 7e3f 94c8 833f be7b 7f3f a604 7b3f

encoder.blocks.1.conv.1.bias f4 [32]
0.009593239 0.048745763 0.05194976 0.073722556 0.013785436 0.01992748 0.021997437 0.025410071
0.037407596 0.042381346 -0.06489199 -0.014709098 0.056801576 0.022705741 0.02000025 0.014363883
0.015250274 0.03207357 0.04823607 0.0041471864 -0.035634045 -0.013986479 -0.057439324 0.017840026
-0.007095995 0.00031139742 -0.016260473 -0.044895288 -0.073482424 0.027102446 0.028904147 -0.039265335
00000000: f62c 1d3c a3a9 473d 46c9 543d dafb 963d
00000010: 4fdc 613c f43e a33c f833 b43c c828 d03c
00000020: b538 193d 1098 2d3d 17e6 84bd 6efe 70bc
00000030: c5a8 683d 6401 ba3c 90d7 a33c 7e56 6b3c
00000040: 49dc 793c 935f 033d 2f93 453d 1fe5 873b
00000050: 01f5 11bd 8b27 65bc 7f45 6bbd 3f25 923c
00000060: 8585 e8bb 0e43 a339 af34 85bc 1fe4 37bd
00000070: f47d 96bd f305 de3c 64c8 ec3c b0d4 20bd

encoder.blocks.1.conv.1.running_mean f4 [32]
-0.21822736 -0.09394305 0.032216392 1.136801 -1.4385408 0.26951063 0.55904484 -1.3596449
0.45099783 0.38276222 -1.154007 0.36362377 0.85984516 -0.4991921 -0.68612736 0.7395712
-0.036123402 -0.9710242 1.3362147 0.71268404 0.038633857 -1.6647574 -1.4604518 -1.7112253
-0.4947833 0.6480521 1.7204299 0.35338134 -0.05326226 -1.5610564 0.7639617 0.6977534
00000000: fe76 5fbe 3765 c0bd 56f5 033d b282 913f
00000010: 1b22 b8bf 4cfd 893e 901d 0f3f d808 aebf
00000020: 30e9 e63e 69f9 c33e 80b6 93bf e52c ba3e
00000030: d01e 5c3f 1b96 ffbe 0ba6 2fbf 8a54 3d3f
00000040: 22f6 13bd 0b95 78bf 1509 ab3f 7672 363f
00000050: 893e 1e3d c516 d5bf 16f0 babf 6e09 dbbf
00000060: 3d54 fdbe bee6 253f 0c37 dc3f 66ee b43e
00000070: 8729 5abd b2d0 c7bf fe92 433f f89f 323f

encoder.blocks.1.conv.1.running_var f4 [32]
0.6790861 1.647878 1.0008119 2.0235016 5.7396364 1.3101627 1.2992023 5.5934176
2.0680816 1.682209 3.375901 0.7378778 1.9483979 1.1718712 1.6930888 1.8429942
1.1243008 1.9244268 4.6637654 1.2409252 1.4420553 5.5644555 5.227147 7.660684
1.5824564 1.1559842 7.784016 0.8206543 1.5593733 4.6862645 2.6535006 2.042034
00000000: 96d8 2d3f abed d23f 9b1a 803f 0d81 0140
00000010: 1aab b740 69b3 a73f 434c a63f 47fd b240
00000020: 735b 0440 a052 d73f c30e 5840 8fe5 3c3f
00000030: 1a65 f93f e0ff 953f 22b7 d83f 3ce7 eb3f
00000040: 17e9 8f3f 9e53 f63f 913d 9540 a3d6 9e3f
00000050: 4595 b83f 0510 b240 ca44 a740 5324 f540
00000060: ee8d ca3f 4af7 933f a916 f940 6616 523f
00000070: 8b99 c73f e1f5 9540 f4d2 2940 afb0 0240

encoder.blocks.1.conv.3.weight f4 [32, 32, 3, 3]
0.09091338 -0.029167837 -0.005081641 0.0754671 -0.029464195 -0.0360273 0.05706477 -0.0036322605
0.028595956 0.11603824 0.052148953 0.022981782 0.0443451 0.023553157 0.034336902 0.05851134
0.09467834 0.043805297 -0.0629873 -0.0619016 -0.0147904195 -0.07290969 -0.032545786 -0.04335867
-0.013515838 -0.054584682 -0.015062846 0.041429766 -0.038740054 0.05162255 0.054432724 0.013530779
0.05747797 0.016821925 -0.01762726 0.024773305 -0.02261178 -0.09733314 -0.010634125 -0.015808472
-0.059185322 -0.041969925 -0.03308032 -0.05426876 -0.02285024 0.03596923 0.0053916047 0.06089838
0.061483063 0.027601182 0.06640379 -0.0037095558 0.076956786 -0.02175969 0.024415918 0.023827907
0.04439768 0.06595337 0.048272036 0.052539755 0.0075793043 0.06991451 0.07275651 0.0096824635
-0.10228621 0.0070496523 -0.053549368 -0.027174253 -0.06108608 -0.085333526 -0.046615 -0.08490888
0.11081728 0.008795928 0.014830483 0.07491032 0.0096711 0.084971346 0.09828931 0.08322447
0.040184837 0.1130663 0.033990756 -0.0069489963 0.0001939434 -0.020249562 0.02136807 0.0014244363
0.028277855 0.05638914 -0.05006797 -0.054157313 0.023886153 -0.07009106 -0.079299085 -0.049665052
0.006292196 -0.0366035 -0.027926575 0.05482293 0.015984122 0.06518981 0.0045218817 0.007014824
-0.037279736 -0.0027721035 -0.026635868 -0.045373023 0.0107817305 0.015663618 -0.008173202 -0.053219784
-0.032739688 -0.05598492 -0.014126165 0.028353639 -0.05219528 0.028657336 0.12525894 0.06620622
0.11786776 0.075061284 0.053095467 0.11504724 0.059388895 -0.01571063 -0.044668168 0.033901893
-0.08175397 0.0139120715 0.042937532 -0.028494507 0.095378704 -0.053764056 -0.0016643616 0.053724587
-0.037480656 0.056944087 -0.036042728 -0.06934254 -0.0004762184 -0.0752192 -0.061763357 0.0026785
0.08332572 0.07537949 -0.016281595 0.03285431 0.06913543 0.05730585 0.043451816 0.0155022815
0.0063358946 0.011517116 -0.024543494 -0.015101623 0.07333825 0.010368495 0.053715743 0.033217397
-0.0025148583 0.00035162838 -0.0130533 -0.05787516 0.0029666054 -0.03564279 -0.029443745 -0.05588812
-0.009212959 -0.107262254 -0.05633212 0.012114108 -0.047957014 -0.008590879 -0.010079539 0.052159112
0.0054990556 0.038496457 0.0075966557 0.022912502 0.016827537 0.061312612 -0.020582298 -0.10130873
0.011112123 -0.10557953 -0.021101374 0.005372233 -0.036607735 0.03872914 0.044556744 0.012287575
-0.049570385 -0.003557019 0.059970617 0.011268633 -0.034779914 -0.07153956 0.014830129 0.024913087
0.034244742 0.063197345 -0.02386969 -0.03760035 0.064188 0.020731041 -0.0060754856 0.010512916
-0.07331002 0.044816133 0.053769443 -0.06771638 -0.087624535 0.009929455 -0.033854354 -0.058947533
-0.082087606 -0.08892499 0.024009116 -0.055564526 -0.0007668732 -0.041474752 -0.001861032 -0.096129745
-0.056361847 -0.018500576 -0.015833244 -0.027778715 -0.046674196 0.01168053 0.027380873 -0.049871236
-0.04080212 -0.01206689 -0.0030032138 -0.00202469 -0.11809338 -0.07819102 -0.08489689 -0.06716179
-0.0764701 -0.0099340845 0.010083882 -0.0050278176 -0.008354158 -0.013278998 0.05262707 0.0557883
0.035904348 -0.008393246 -0.009718562 0.04009992 -0.070194826 0.0055386373 -0.09306408 -0.027066162
00000000: cb30 ba3d 63f1 eebc e583 a6bb 7f8e 9a3d
00000010: e55e f1bc 5d91 13bd c0bc 693d 380b 6ebb
00000020: 1142 ea3c 75a5 ed3d 249a 553d 4a44 bc3c
00000030: 35a3 353d 8df2 c03c daa4 0c3d 96a9 6f3d
00000040: b8e6 c13d 2f6d 333d 7cff 80bd 888c 7dbd
00000050: 8453 72bc ad51 95bd bb4e 05bd dc98 31bd
00000060: 8971 5dbc 3094 5fbd 28ca 76bc 42b2 293d
00000070: e4ad 1ebd 2b72 533d d9f4 5e3d 33b0 5d3c
00000080: 056e 6b3d 22ce 893c 0b67 90bc 63f1 ca3c
00000090: 573c b9bc 9956 c7bd c13a 2ebc c580 81bc
000000a0: 4f6c 72bd a8e8 2bbd 3b7f 07bd eb48 5ebd
000000b0: 6d30 bbbc 7954 133d 0fac b03b 9470 793d
000000c0: aad5 7b3d e01b e23c b6fe 873d 051c 73bb
000000d0: 859b 9d3d 6141 b2bc e403 c83c be32 c33c
000000e0: 57da 353d 8f12 873d e6b8 453d ed33 573d
000000f0: d05b f83b 572f 8f3d 5d01 953d 32a3 1e3c
00000100: 6f7b d1bd c500 e73b 9556 5bbd 8a9c debc
00000110: 6635 7abd 58c3 aebd 5fef 3ebd b5e4 adbd
00000120: 2cf4 e23d cc1c 103c 8efb 723c 956a 993d
00000130: 8973 1e3c 7505 ae3d e84b c93d 9771 aa3d
00000140: db98 243d 4e8f e73d e439 0b3d 68b4 e3bb
00000150: 495d 4b39 69e2 a5bc 170c af3c 27b4 ba3a
00000160: f6a6 e73c 4df8 663d 1214 4dbd 0fd4 5dbd
00000170: e5ac c33c e78b 8fbd 8f67 a2bd 956d 4bbd
00000180: c42e ce3b 8ded 15bd 46c6 e4bc 028e 603d
00000190: 22f1 823c 3c82 853d 4b2c 943b 9cdc e53b
000001a0: a3b2 18bd 2eac 35bb 7733 dabc 10d9 39bd
000001b0: dba5 303c fd50 803c e5e8 05bc fdfc 59bd
000001c0: 0d1a 06bd 7250 65bd 6e71 67bc e445 e83c
000001d0: b8ca 55bd cac2 ea3c e143 003e 2097 873d
000001e0: a764 f13d bbb9 993d a27a 593d e39d eb3d
000001f0: c541 733d 94b3 80bc f8f5 36bd b6dc 0a3d
00000200: a06e a7bd 75ef 633c 44df 2f3d 506d e9bc
00000210: e955 c33d b337 5cbd b526 daba 500e 5c3d
00000220: 5185 19bd 343e 693d 8aa1 13bd 7603 8ebd
00000230: f4ac f9b9 860c 9abd 93fb 7cbd c689 2f3b
00000240: ada6 aa3d 9060 9a3d fb60 85bc 3e92 063d
00000250: e096 8d3d 8ab9 6a3d 88fa 313d 48fd 7d3c
00000260: 569d cf3b 49b2 3c3c 700f c9bc cc6c 77bc
00000270: 5d32 963d 9fe0 293c 0a05 5c3d f70e 083d
00000280: 52d0 24bb c35a b839 82dd 55bc 810e 6dbd
00000290: 616b 423b 2dfe 11bd 0234 f1bc f1ea 64bd
000002a0: f3f1 16bc 50ac dbbd 82bc 66bd 407a 463c
000002b0: 936e 44bd c2c0 0cbc a724 25bc cba4 553d
000002c0: 6c31 b43b 76ae 1d3d 5eed f83b 00b3 bb3c
000002d0: e7d9 893c ef22 7b3d 359c a8bc f47a cfbd
000002e0: 9f0f 363c 153a d8bd cadc acbc 8f09 b03b
000002f0: fef1 15bd 72a2 1e3d 2281 363d d351 493c
00000300: 510a 4bbd e01c 69bb c0a3 753d 13a0 383c
00000310: 6275 0ebd 5583 92bd 12fa 723c 8816 cc3c
00000320: 3744 0c3d 9c6d 813d 5e8a c3bc d302 1abd
00000330: 0075 833d 25d4 a93c de14 c7bb 5e3e 2c3c
00000340: 9023 96bd 1f91 373d 593d 5c3d e3ae 8abd
00000350: 7e74 b3bd 27af 223c ddaa 0abd f872 71bd
00000360: 8c1d a8bd 4e1e b6bd c4ae c43c a197 63bd
00000370: fd07 49ba 6ee1 29bd dfed f3ba acdf c4bd
00000380: aedb 66bd 858e 97bc b8b4 81bc 3090 e3bc
00000390: 712d 3fbd b25f 3f3c da4d e03c c845 4cbd
000003a0: 2020 27bd 34b4 45bc 91d1 44bb a9b0 04bb
000003b0: f1da f1bd 9d22 a0bd 6cde adbd 1f8c 89bd
000003c0: 5b9c 9cbd 92c2 22bc de36 253c 64c0 a4bb
000003d0: e1df 08bc 2890 59bc 7c8f 573d 4682 643d
000003e0: 7010 133d d383 09bc 9a3a 1fbc d03f 243d
000003f0: 4ec2 8fbd 757d b53b 6198 bebd dbb9 ddbc

encoder.blocks.1.conv.3.bias f4 [32]
0.010469576 -0.030262932 0.044470154 -0.041827835 -0.022746533 -0.021808535 0.0026549557 -0.052177027
-0.013324262 0.10045774 -0.014952716 -0.047900904 0.0004241995 0.032816898 -0.0050285333 0.014984341
-0.008380832 -0.0147260325 -0.07976975 0.027314683 0.021157023 0.042784587 -0.09066497 -0.006393151
-0.012364615 0.011043802 0.025765937 0.04447986 0.068001054 0.025003586 -0.09925751 -0.07633362
00000000: 9688 2b3c f8e9 f7bc 5626 363d aa53 2bbd
00000010: f056 babc d0a7 b2bc c4fe 2d3b 94b7 55bd
00000020: 014e 5abc cabc cd3d 3dfc 74bc bd33 44bd
00000030: 1867 de39 036b 063d 65c6 a4bb e280 753c
00000040: c24f 09bc 7545 71bc 535e a3bd 0bc3 df3c
00000050: 7e51 ad3c e43e 2f3d 8eae b9bd a37d d1bb
00000060: f494 4abc 10f1 343c 1613 d33c 8430 363d
00000070: 2344 8b3d 52d4 cc3c 8547 cbbd cd54 9cbd

encoder.blocks.1.conv.4.weight f4 [32]
0.95071846 0.99284244 0.9734154 0.98425055 0.9807566 0.949377 1.0012071 1.0643299
0.94851786 1.0262871 1.0211322 0.9365708 1.183285 0.97222245 0.91842854 1.1303074
1.0031246 0.9905403 1.0127711 0.9982328 0.9960726 1.0353303 1.0441517 0.97513634
0.9863825 0.9804669 1.0386612 0.9794884 0.97768945 0.9720531 0.98533225 1.0022621
00000000: 4962 733f ec2a 7e3f c031 793f d8f7 7b3f
00000010: dd12 7b3f 5f0a 733f 8e27 803f f63b 883f
00000020: 11d2 723f 605d 833f 76b4 823f 1bc3 6f3f
00000030: e275 973f 92e3 783f 221e 6b3f eaad 903f
00000040: 6366 803f 0d94 7d3f 7ca2 813f 2f8c 7f3f
00000050: 9dfe 7e3f b485 843f c3a6 853f 89a2 793f
00000060: 9083 7c3f e1ff 7a3f daf2 843f c0bf 7a3f
00000070: db49 7a3f 79d8 783f bc3e 7c3f 204a 803f

encoder.blocks.1.conv.4.bias f4 [32]
-0.027525378 0.016336698 -0.0014390553 -0.0062767216 -0.022557097 0.018260295 -0.027796397 0.032314226
0.0019512294 0.021882543 -0.015834859 0.000634968 0.05633875 0.017830577 -0.016959947 0.031344417
0.011709673 -0.022838118 -0.033406958 0.025952335 0.012482661 0.020420976 0.009351483 -0.063682094
0.0017018827 -0.00075948326 -0.011222864 -0.012258325 -0.047771007 0.011462928 0.007357031 0.046851948
00000000: e77c e1bc 8ad4 853c af9e bcba f5ac cdbb
00000010: a9c9 b8bc 9d96 953c 45b5 e3bc ec5b 043d
00000020: 65c0 ff3a 0543 b33c 1bb8 81bc fb73 263a
00000030: 76c3 663d 6e11 923c 96ef 8abc 0163 003d
00000040: eed9 3f3c 0117 bbbc bcd5 08bd fe99 d43c
00000050: 1384 4c3c e449 a73c f636 193c c26b 82bd
00000060: b511 df3a 0f18 47ba 1ae0 37bc 24d7 48bc
00000070: 88ab 43bd 01cf 3b3c 4013 f13b d4e7 3f3d

encoder.blocks.1.conv.4.running_mean f4 [32]
-0.1498154 -0.6272918 -0.09990821 0.39329287 -0.81624484 -1.5087721 0.9072372 0.041044123
-0.85595804 0.6586187 1.0882502 -0.2720606 0.008485635 -0.2265799 -1.2788082 -1.4927217
-0.22992393 -0.05578256 0.43170646 -0.078498505 -0.37788206 0.15481755 0.11586832 0.24565297
-1.2627491 0.90748596 1.3063334 -0.13066897 -0.66851765 -0.09097031 -0.5684303 -0.10980969
00000000: 3569 19be 3296 20bf ad9c ccbd af5d c93e
00000010: 6cf5 50bf 721f c1bf b240 683f e21d 283d
00000020: 1120 5bbf 3c9b 283f c84b 8b3f 874b 8bbe
00000030: 5507 0b3c 9004 68be fdaf a3bf 8111 bfbf
00000040: 2e71 6bbe 417c 64bd a108 dd3e d3c3 a0bd
00000050: c279 c1be 7e88 1e3e 5f4c ed3d 748c 7b3e
00000060: c3a1 a1bf 0051 683f ef35 a73f 16ce 05be
00000070: f923 2bbf a44e babd a684 11bf e7e3 e0bd

encoder.blocks.1.conv.4.running_var f4 [32]
1.4511857 0.6629366 2.3116615 4.198626 0.6857829 11.971108 2.370391 1.4740146
2.9327927 2.412392 5.705411 1.7608806 1.596082 1.5168372 8.459526 2.821875
1.2807568 0.8763351 1.6925418 2.7655556 2.0209994 1.3686135 2.6224318 1.6841952
1.4185551 0.5373874 4.4873986 1.230096 1.2170304 3.1760373 1.03382 8.020192
00000000: 74c0 b93f 37b6 293f 43f2 1340 255b 8640
00000010: 788f 2f3f a989 3f41 7cb4 1740 83ac bc3f
00000020: e0b2 3b40 a164 1a40 ba92 b640 8964 e13f
00000030: 6a4c cc3f b927 c23f 385a 0741 9a99 3440
00000040: d7ef a33f 7f57 603f 36a5 d83f ddfe 3040
00000050: 0e58 0140 ba2e af3f ecd5 2740 b593 d73f
00000060: 3793 b53f 3892 093f c598 8f40 c973 9d3f
00000070: a7c7 9b3f 3244 4b40 3754 843f b552 0041

encoder.blocks.1.skip.weight f4 [32, 16, 1, 1]
-0.2488262 0.04041046 -0.051741123 -0.20933926 0.24068815 0.19258517 0.16753009 -0.19919458
-0.042600006 0.15102601 -0.24723935 -0.1418936 0.008676767 0.12178579 -0.15285712 -0.12250477
-0.03809035 -0.1348804 0.18285376 -0.16558227 0.15444845 0.22710246 -0.146685 -0.018841118
-0.08851871 -0.123432815 -0.21416703 -0.08823562 -0.2412295 0.24439073 0.20286646 0.15568724
0.13133982 -0.19680706 0.08041969 0.2388018 -0.100886226 0.041365772 0.0264875 0.20110518
0.18313333 0.108646214 0.09051019 -0.22749665 -0.2129527 -0.24128583 0.24035472 0.032312006
0.22830746 -0.09692484 0.2285732 0.07106176 -0.06396523 0.10506943 0.21446851 0.015853852
-0.124872565 0.16935864 -0.06468198 -0.15154278 -0.14409444 -0.028637767 -0.03966266 0.052778512
-0.13522464 0.00027680397 0.12283602 -0.22121555 0.0762988 0.04357642 0.008349627 -0.17445037
-0.23121011 0.13459721 0.0762662 0.114186585 -0.12734708 -0.14872023 -0.03616309 0.17099994
-0.12622768 0.1472094 -0.17386338 -0.24244672 -0.19589189 0.07411796 0.14375252 -0.22687101
0.15980452 -0.19735816 -0.109927505 -0.11535591 -0.15706629 0.15756208 -0.087183446 0.224958
0.15837032 -0.18579453 -0.15224394 -0.008082062 -0.1408878 -0.117132306 -0.1963563 0.08975214
0.15215573 -0.010586351 -0.09967366 -0.23496592 0.06610471 0.047500223 -0.1648598 -0.022416085
-0.19271511 -0.2360397 -0.036448 -0.13874415 0.1857084 0.09015268 -0.03021741 -0.010100573
-0.059215486 0.02399227 0.046709567 -0.090596676 0.20948753 0.059631437 -0.076296985 0.03687629
0.1575365 -0.019872755 0.07773411 0.08801216 -0.082847536 -0.041409492 -0.16176316 0.24386394
0.15305021 0.013145089 0.02569595 -0.16352257 0.17454281 0.13756081 -0.13631392 0.006193489
0.19629046 -0.039840907 0.017912686 -0.059880346 0.1473585 0.035593748 0.18609104 -0.24680874
-0.005587131 0.06180492 0.0345259 0.10752046 0.19017264 0.029667884 0.039764255 0.17184275
0.21669859 0.18739435 0.0005441308 0.112124324 0.02426207 -0.06501719 0.19731209 0.0522725
0.05530891 0.04655868 -0.14259845 -0.16147867 0.07482943 -0.12895879 -0.094519466 0.16614157
0.13493264 -0.04154566 0.021455526 0.051448613 -0.24080172 0.044706106 -0.19120273 -0.09085593
0.12602085 0.073998004 -0.24460262 0.22019747 0.21250784 0.08131805 0.0023267567 0.035794824
-0.18000922 0.20659682 0.09388074 -0.108570814 -0.13290974 0.24600664 0.24501121 -0.059010416
0.18351924 -0.09894514 -0.03397298 0.17417806 0.20410332 0.052840054 -0.17903423 0.21419486
0.2045846 -0.15959558 -0.22086707 -0.19217527 -0.100023955 -0.19028306 -0.034965664 0.14581606
0.1454333 -0.14406937 -0.17944175 0.079247594 -0.24152786 0.21327394 0.2378147 0.016736895
-0.026281565 -0.19457817 0.06671658 -0.13288927 -0.15998578 -0.06585151 -0.2377618 -0.18604809
0.17302957 -0.086592466 -0.04691127 -0.19422993 0.056868136 -0.20266688 0.23844889 -0.2201665
0.10851401 -0.062010735 -0.08488792 0.1657272 0.24235645 -0.16239455 0.024195373 -0.08133042
-0.052753508 0.012699783 0.2329044 -0.0029520392 -0.1174483 -0.028075337 -0.082041115 0.21843645
00000000: 4ccc 7ebe 7085 253d 80ee 53bd 085d 56be
00000010: f476 763e 0c35 453e 028d 2b3e aaf9 4bbe
00000020: 587d 2ebd 90a6 1a3e 502c 7dbe 8e4c 11be
00000030: 0029 0e3c d46a f93d 9486 1cbe c8e3 fabd
00000040: a004 1cbd 161e 0abe 043e 3b3e 668e 29be
00000050: bc27 1e3e 8c8d 683e 9834 16be b058 9abc
00000060: 4c49 b5bd 58ca fcbd 9a4e 5bbe e0b4 b4bd
00000070: de04 77be 9041 7a3e 3abc 4f3e 7a6c 1f3e
00000080: f27d 063e ca87 49be 14b3 a43d 7688 743e
00000090: 709d cebd 286f 293d 50fc d83c 84ee 4d3e
000000a0: 4e87 3b3e e881 de3d 685d b93d e2f4 68be
000000b0: 4610 5abe a213 77be 8c1f 763e 9859 043d
000000c0: 6ec9 693e 8880 c6bd 180f 6a3e d488 913d
000000d0: 3400 83bd a42e d73d a29d 5b3e f0df 813c
000000e0: 30bd ffbd 5a6c 2d3e fc77 84bd 082e 1bbe
000000f0: 7e8d 13be c099 eabc 5075 22bd 482e 583d
00000100: 5478 0abe 0020 9139 7491 fb3d 5486 62be
00000110: 8c42 9c3d 307d 323d e0cc 083c 1ea3 32be
00000120: 58c2 6cbe dad3 093e 7431 9c3d a8da e93d
00000130: 4667 02be 1e4a 18be c01f 14bd 9c1a 2f3e
00000140: d441 01be 10be 163e 3e09 32be f443 78be
00000150: e297 48be 28cb 973d dc33 133e e050 68be
00000160: cca3 233e 4218 4abe ac21 e1bd b83f ecbd
00000170: fcd5 20be f457 213e 3c8d b2bd 645b 663e
00000180: d42b 223e ec40 3ebe d6e5 1bbe a06a 04bc
00000190: e444 10be 10e3 efbd a011 49be f8cf b73d
000001a0: b6ce 1b3e 6072 2dbc b421 ccbd e89a 70be
000001b0: e861 873d 988f 423d 02d1 28be f0a1 b7bc
000001c0: 1c57 45be 64b4 71be 804a 15bd f212 0ebe
000001d0: 582a 3e3e f8a1 b83d 808a f7bc e07c 25bc
000001e0: f08b 72bd 708b c43c 8852 3f3d c08a b9bd
000001f0: e683 563e 1840 743d 9841 9cbd 980b 173d
00000200: 4051 213e 30cc a2bc 1033 9f3d b83f b43d
00000210: f8ab a9bd 009d 29bd 3ea5 25be 78b7 793e
00000220: 32b9 1c3e 805e 573c 5080 d23c 7672 27be
00000230: 5abb 323e bedc 0c3e e095 0bbe c0f2 ca3b
00000240: 5e00 493e 3830 23bd a0bd 923c 1845 75bd
00000250: 26e5 163e c0ca 113d a68e 3e3e 6ebb 7cbe
00000260: 4014 b7bb 2827 7d3d 086b 0d3d b033 dc3d
00000270: 9ebc 423e 100a f33c d8df 223d 8cf7 2f3e
00000280: 3ce6 5d3e 4ee4 3f3e 00a4 0e3a 70a1 e53d
00000290: 40c1 c63c bc27 85bd 2e0c 4a3e b01b 563d
000002a0: 988b 623d 50b4 3e3d 5405 12be aa5a 25be
000002b0: 2c40 993d c60d 04be 6c93 c1bd 0421 2a3e
000002c0: c82b 0a3e c82b 2abd 80c3 af3c c8bb 523d
000002d0: ba94 76be c01d 373d a6ca 43be ac12 babd
000002e0: 9c0b 013e 448c 973d 1c79 7abe 727b 613e
000002f0: a89b 593e 148a a63d 807c 183b 989d 123d
00000300: 5654 38be 1e8e 533e 8c44 c03d 605a debd
00000310: 7e19 08be 2ae9 7b3e 38e4 7a3e e8b4 71bd
00000320: 78ec 3b3e c0a3 cabd 4027 0bbd bc5b 323e
00000330: 7600 513e d06e 583d c054 37be e655 5b3e
00000340: a07e 513e 066d 23be fa2a 62be 98c9 44be
00000350: 5cd9 ccbd 90d9 42be 2838 0fbd ce50 153e
00000360: 78ec 143e ec86 13be 94bf 37be 904c a23d
00000370: 1453 77be 7c64 5a3e b285 733e d01b 893c
00000380: 704c d7bc 803f 47be b4a2 883d 2014 08be
00000390: 50d3 23be 28dd 86bd d477 73be 6483 3ebe
000003a0: aa2e 313e 6457 b1bd 0826 40bd 36e4 46be
000003b0: 90ee 683d e887 4fbe f22b 743e 5473 61be
000003c0: 983c de3d f8fe 7dbd b8d9 adbd 64b4 293e
000003d0: 4a2c 783e c24a 26be 6035 c63c 9090 a6bd
000003e0: 1014 58bd c012 503c 7e7e 6e3e 0077 41bb
000003f0: bc88 f0bd 40fe e5bc 2c05 a8bd cead 5f3e

encoder.blocks.1.skip.bias f4 [32]
-0.01793313 -0.13804165 0.13807324 -0.078026384 -0.0643318 -0.13645613 -0.03897986 -0.15408099
0.09838176 -0.0048076212 0.1641812 -0.0372338 0.20132217 -0.12271863 -0.12822491 0.23458356
0.12171173 0.14757767 -0.15800959 -0.22095111 -0.1711252 -0.117048025 0.21199778 0.2012622
0.07873681 0.035600632 -0.0975835 0.17607439 0.13863531 -0.22568679 0.14854795 -0.09126696
00000000: 80e8 92bc ca5a 0dbe 1263 0d3e 4ccc 9fbd
00000010: 64c0 83bd 28bb 0bbe 58a9 1fbd 68c7 1dbe
00000020: 607c c93d 4089 9dbb 1e1f 283e 7882 18bd
00000030: 6627 4e3e e853 fbbd 644d 03be ac36 703e
00000040: 0044 f93d 9a1e 173e 44cd 21be 0241 62be
00000050: 723b 2fbe e0b6 efbd f215 593e ae17 4e3e
00000060: c440 a13d f8d1 113d dcd9 c7bd d84c 343e
00000070: 6af6 0d3e 701a 67be f41c 183e 2cea babd

encoder.blocks.2.conv.0.weight f4 [64, 32, 3, 3]
-0.023633836 0.028897708 -0.027129231 -0.07482846 0.08680549 0.007539183 -0.004991019 0.041571986
0.08186796 -0.057219055 -0.015614204 -0.053087465 -0.03327374 0.03697429 0.04336179 0.08935709
0.062498827 -0.011577025 -0.035652563 0.06873824 -0.0362271 -0.03289675 0.01923696 0.04050839
-0.026257938 0.026616016 0.07673085 -0.072043255 0.0018690007 -0.026486477 0.019393431 0.09833482
-0.018843105 -0.0115972 0.061812107 0.054259818 -0.0070459386 0.041759647 0.07005043 -0.026490876
0.015362397 0.05680175 0.082350455 0.038259402 0.048614834 -0.047478426 0.0012854829 -0.00598532
0.029224023 -0.08495353 0.05199083 -0.08324017 -0.01509357 0.04340851 -0.09844087 -0.06744342
-0.024832776 0.013429592 -0.10219161 -0.052609738 -0.04767671 -0.007719743 -0.06302034 0.06226724
0.084489435 -0.020800525 0.0053308546 0.0959548 0.069008 -0.022314062 0.031812314 0.055423852
0.024438918 0.05793441 -0.009564253 0.019474348 0.013505412 0.11101091 0.03803861 0.043290578
0.0091152955 -0.021797603 -0.05874839 -0.027902545 -0.08619328 -0.103757985 0.047207072 0.05760184
-0.07538412 -0.07542371 -0.087866865 0.003495029 -0.015817935 -0.06735886 -0.052292835 -0.0762497
0.009473597 0.023127327 0.00838507 -0.015065418 -0.019873753 0.06246758 0.0046426053 -0.00021070126
0.080802865 0.0028825605 0.019152418 0.044654094 -0.019466853 -0.07891372 -0.019394435 0.082535654
0.0061862906 -0.009471667 0.060769465 0.07709093 -0.045885626 0.0019176982 0.03751503 -0.041638955
-0.0044792495 0.072612636 0.03873769 0.04858772 0.08632621 -0.00065045344 0.057735078 0.070878804
0.0524727 0.08018794 -0.004225044 0.058154084 0.019325886 0.071078904 0.005423807 -0.07345922
-0.0017547535 -0.002339526 -0.073393725 -0.009543746 -0.045232695 0.060021736 0.061621536 -0.036773458
-0.058233015 0.038051706 0.026681721 0.004435739 0.085674815 0.014514771 -0.016699815 0.07025203
0.0035826245 0.014759126 0.092471756 0.051059797 0.049752574 0.09527588 0.04351273 0.031586867
-0.010694969 0.011690896 0.016723024 0.05013416 0.02364667 0.051905785 0.06472683 0.06878812
0.05190595 0.027534837 0.09888887 0.024979863 0.024262458 0.045072965 0.056892987 -0.05682466
-0.0213789 -0.120177805 -0.04014564 -0.024215296 -0.025567733 0.067722 0.040755898 0.0074988673
-0.0002129524 -0.013279322 0.06976927 0.010250127 0.07882873 0.0097828135 0.043487817 -0.0022005956
0.049831513 0.06104376 0.03391 0.081919625 0.09662394 0.025663786 -0.023225954 0.06875204
-0.030690894 -0.0003724483 -0.0013423684 0.094163544 -0.015806045 0.026898747 0.032982387 -0.04848742
-0.0094720395 0.06635575 0.0023674148 0.07619919 0.026203955 0.07795536 0.050439537 0.022676773
0.07174345 0.0387205 0.03952312 -0.03332083 0.03077321 0.036138758 0.09607924 0.12083345
0.12102395 -0.035504755 0.07755266 0.0839415 -0.04221103 0.041586503 0.042781606 0.07403016
-0.008452363 0.019508706 -0.022464914 -0.07345907 -0.00046358418 -0.033555277 -0.08293037 -0.03788956
-0.04164454 -0.04277096 0.03575327 -0.096114635 -0.01790833 0.0023444048 0.011178299 0.031268265
-0.06111104 -0.0011752612 0.029490111 -0.031434055 0.0013013432 -0.024060408 -0.042830758 0.02049294
00000000: bf9b c1bc e3ba ec3c 1f3e debc aa3f 99bd
00000010: 14c7 b13d 400b f73b b48b a3bb 6347 2a3d
00000020: 64aa a73d 875e 6abd b8d2 7fbc 3e72 59bd
00000030: 0c4a 08bd 5a72 173d 229c 313d da00 b73d
00000040: c5fe 7f3d 90ad 3dbc 6c08 12bd a2c6 8c3d
00000050: de62 14bd bebe 06bd d496 9d3c 20ec 253d
00000060: e31a d7bc d509 da3c 1025 9d3d 6a8b 93bd
00000070: 42f9 f43a 2bfa d8bc f9de 9e3c c463 c93d
00000080: db5c 9abc 2f02 3ebc b12e 7d3d 8b3f 5e3d
00000090: 9ee1 e6bb 2a0c 2b3d 9a76 8f3d 6503 d9bc
000000a0: 90b2 7b3c f4a8 683d 5ba7 a83d e4b5 1c3d
000000b0: 5920 473d bd78 42bd a67d a83a 8120 c4bb
000000c0: 3867 ef3c 1efc adbd 56f4 543d d279 aabd
000000d0: 054b 77bc 1fcd 313d 5e9b c9bd c71f 8abd
000000e0: 1b6e cbbc cb07 5c3c d649 d1bd 4f7d 57bd
000000f0: a748 43bd e6f5 fcbb cf10 81bd ef0b 7f3d
00000100: cc08 ad3d dd65 aabc 73ae ae3b f383 c43d
00000110: 1154 8d3d fbcb b6bc a14d 023d 1f04 633d
00000120: 2034 c83c a24c 6d3d 62b3 1cbc ab88 9f3c
00000130: ce45 5d3c b059 e33d 60ce 1b3d 7651 313d
00000140: 5258 153c e390 b2bc 27a2 70bd e193 e4bc
00000150: 1a86 b0bd 117f d4bd 345c 413d e8ef 6b3d
00000160: fd62 9abd bf77 9abd 8bf3 b3bd db0c 653b
00000170: 9d94 81bc 71f3 89bd 0331 56bd cd28 9cbd
00000180: 2537 1b3c 8575 bd3c 8861 093c f1d4 76bc
00000190: 48ce a2bc 01de 7f3d ff20 983b b0ef 5cb9
000001a0: f97b a53d 57e9 3c3b 88e5 9c3c 36e7 363d
000001b0: f378 9fbc 849d a1bd 14e1 9ebc 7408 a93d
000001c0: 5eb6 ca3b 0d2f 1bbc 67e9 783d d9e1 9d3d
000001d0: 91f2 3bbd 465b fb3a 5ca9 193d 9c8d 2abd
000001e0: abc6 92bb efb5 943d 69ab 1e3d eb03 473d
000001f0: cccb b03d 3183 2aba 9e7b 6c3d e828 913d
00000200: 9ded 563d 9339 a43d 3d72 8abb fa32 6e3d
00000210: 5251 9e3c d191 913d 31ba b13b ca71 96bd
00000220: c2ff e5ba bc52 19bb 734f 96bd 5f5d 1cbc
00000230: eb45 39bd 5ad9 753d dd66 7c3d c49f 16bd
00000240: be85 6ebd 1bdc 1b3d a093 da3c ad59 913b
00000250: 4776 af3d 5dcf 6d3c 0dce 88bc 4ce0 8f3d
00000260: 77ca 6a3b 43d0 713c d561 bd3d 1424 513d
00000270: 5bc9 4b3d 0020 c33d 683a 323d 3b61 013d
00000280: f439 2fbc 2c8b 3f3c b9fe 883c 7a59 4d3d
00000290: a9b6 c13c 299b 543d 808f 843d c9e0 8c3d
000002a0: 559b 543d bd90 e13c 3f86 ca3d 92a2 cc3c
000002b0: 10c2 c63c 6e9e 383d 9f08 693d fac0 68bd
000002c0: ce22 afbc c81f f6bd c16f 24bd 285f c6bc
000002d0: 6c73 d1bc d5b1 8a3d a8ef 263d 0fb9 f53b
000002e0: f94b 5fb9 8391 59bc 31e3 8e3d 26f0 273c
000002f0: f570 a13d 1848 203c 4820 323d de37 10bb
00000300: 211c 4c3d 0609 7a3d 36e5 0a3d 7ac5 a73d
00000310: c6e2 c53d dc3c d23c 5b44 bebc dfcd 8c3d
00000320: 786b fbbc 2a45 c3b9 69f2 afba d1d8 c03d
00000330: ae7b 81bc c35a dc3c 8a18 073d bf9a 46bd
00000340: 9d30 1bbc 86e5 873d a126 1b3b 520e 9c3d
00000350: ada9 d63c 0fa7 9f3d b099 4e3d a4c4 b93c
00000360: 3bee 923d 6399 1e3d ffe2 213d 6c7b 08bd
00000370: 1918 fc3c 3c06 143d 31c5 c43d 8777 f73d
00000380: 68db f73d 6f6d 11bd eed3 9e3d 85e9 ab3d
00000390: 79e5 2cbd 9c56 2a3d c43b 2f3d 209d 973d
000003a0: c87b 0abc b9d0 9f3c 5708 b8bc b571 96bd
000003b0: 370d f3b9 4271 09bd 66d7 a9bd 1532 1bbd
000003c0: 7793 2abd 9a30 2fbd 0572 123d c0d7 c4bd
000003d0: 7db4 92bc 96a4 193b 2f25 373c 2713 003d
000003e0: 924f 7abd 390b 9aba 3f95 f13c ffc0 00bd
000003f0: d591 aa3a 551a c5bc 4e6f 2fbd cfe0 a73c

encoder.blocks.2.conv.0.bias f4 [64]
-0.028759686 0.0020706367 0.017317876 0.028872943 -0.056309585 -0.066835396 0.007827229 -0.06300362
0.009812345 -0.027564317 0.0623256 0.038017944 -0.069461234 0.07655044 0.044023596 0.024623768
-0.03966013 0.03197275 -0.062976144 0.02110345 0.026783492 0.039739948 0.039643183 -0.08275579
0.049897756 -0.050199155 0.100004755 0.03837365 -0.049951587 0.06495813 -0.030031908 0.018103195
0.103976145 0.048182882 0.024651874 0.015944216 -0.047151938 -0.006392162 -0.037870683 -0.007567978
-0.01877616 -0.06941894 -0.062385157 0.06512526 -0.00034559952 -0.06741415 0.007969868 -0.03696542
0.029228225 0.05490467 -0.09393333 0.042675987 0.056245517 -0.06690316 0.039138384 0.064068146
0.09857286 -0.03589172 0.009458387 0.0005437858 0.056392316 -0.022579493 0.0457637 0.0038297356
00000000: 6f99 ebbc 85b3 073b 38de 8d3c f386 ec3c
00000010: e1a4 66bd ffe0 88bd c73d 003c 0b08 81bd
00000020: f5c3 203c 90ce e1bc 2149 7f3d b4b8 1b3d
00000030: b141 8ebd 7ac6 9c3d 1652 343d c9b7 c93c
00000040: a972 22bd dcf5 023d a3f9 80bd 24e1 ac3c
00000050: 0e69 db3c 5bc6 223d e460 223d de7b a9bd
00000060: 9761 4c3d a19d 4dbd 4bcf cc3d b02d 1d3d
00000070: 099a 4cbd c508 853d 7a05 f6bc 274d 943c
00000080: 72f1 d43d 6a5b 453d baf2 c93c 729d 823c
00000090: 6422 41bd 5775 d1bb 4a1e 1bbd cdfc f7bb
000000a0: 76d0 99bc 842b 8ebd 9487 7fbd 6460 853d
000000b0: 9531 b5b9 6e10 8abd 0d94 023c 0d69 17bd
000000c0: 0870 ef3c b8e3 603d 1e60 c0bd 04cd 2e3d
000000d0: b361 663d 8604 89bd 924f 203d 2936 833d
000000e0: 91e0 c93d 3203 13bd 5af7 1a3c d98c 0e3a
000000f0: a1fb 663d a1f8 b8bc b872 3b3d 4dfc 7a3b
