toyshapes/pinets_feedback/model_19.pth (torch, 466881 bytes, 71 tensors)

encoder.blocks.0.conv.0.weight f4 [16, 1, 3, 3]
0	0x3eb5a962	0.3548079
1	0xbe45f881	-0.19333078
2	0x3e910833	0.28326568
3	0x3d909425	0.07059506
4	0xbe10a3aa	-0.14124933
5	0xbe96c45f	-0.29446694
6	0xbda27ccd	-0.0793396
7	0xbe870fc9	-0.2637923
8	0x3e7be618	0.24599493
9	0x3eb9017c	0.36133945
10	0xbe2d24b6	-0.16908535
11	0x3bacc9e6	0.0052730916
12	0xbe8cc4a2	-0.2749377
13	0xbdeb6cdd	-0.114953734
14	0x3e00e4bf	0.1258726
15	0xbe42c5e9	-0.19020809
16	0x3eb26e34	0.34849703
17	0xbe136e05	-0.14397438
18	0x3dbf6562	0.09345509
19	0x3d04b389	0.03239778
20	0xbe18d2f4	-0.14924222
21	0xbdf4dcc7	-0.119561724
22	0x3df81af5	0.12114517
23	0xbdf7a1e8	-0.12091428
24	0x3e23d5a3	0.15999465
25	0xbe4b914c	-0.19879645
26	0x3eaacde2	0.333602
27	0x3d2e8f9c	0.042617425
28	0xbe76cb43	-0.24100976
29	0xbde2722f	-0.11056935
30	0x3eee1b52	0.4650522
31	0x3e0a9a12	0.13535336
32	0x3eac484f	0.33648917
33	0x3eb98d9e	0.36240858
34	0x3bdb9387	0.0067009362
35	0xbe553900	-0.20822525
36	0xbe82b78f	-0.2553067
37	0x3de48461	0.11158062
38	0xbd9e7411	-0.07736982
39	0x3ec772e5	0.38954845
40	0x3d4909b8	0.049081534
41	0x3e1a6aea	0.15079847
42	0xbe0065ea	-0.12538877
43	0xbdad26ae	-0.08454643
44	0xbe1f4e02	-0.15557101
45	0xbd4a2679	-0.049353097
46	0x3db9b8a9	0.09068424
47	0xbe761b94	-0.24033958
48	0x3d2e1ee2	0.04250992
49	0x3e0909f0	0.13382697
50	0x3db67ea0	0.089108706
51	0xbc8a5e23	-0.016890591
52	0x3e4bb9c7	0.19895087
53	0xbe824f4e	-0.2545113
54	0xbe9f4df5	-0.31114164
55	0xbe7ec457	-0.24879585
56	0xbd76922c	-0.060197994
57	0xbc0cef5a	-0.008601988
58	0x3d98ce0e	0.07461177
59	0xbd040363	-0.032229792
60	0x3dbe78f5	0.093004145
61	0x3e94dae2	0.29073244
62	0x3de38457	0.11109226
63	0x3c4650b8	0.012104206
64	0xbde57d6c	-0.11205563
65	0xbe7e21c2	-0.24817565
66	0x3e3e0195	0.18555291
67	0x3e813c7a	0.25241452
68	0x3d986390	0.07440865
69	0x3dc8e9dd	0.09810231
70	0xbe786ef1	-0.24261071
71	0xbd07f2c8	-0.03319052
72	0x3e690aca	0.22758022
73	0x3e817548	0.2528479
74	0xbdf0d473	-0.117592715
75	0x3e249201	0.16071321
76	0xbd636cd0	-0.055523694
77	0xbd7effcb	-0.062255662
78	0xbe9eb207	-0.309952
79	0x3c80011e	0.015625533
80	0xbe1cff0a	-0.15331665
81	0xbea73c68	-0.32663274
82	0x3cb6693c	0.022266977
83	0x3e7491f6	0.23883805
84	0x3d7342f2	0.059390016
85	0x3d4965b9	0.049169276
86	0xbc752dee	-0.014964564
87	0x3d7d1db1	0.061795894
88	0x3d0a77cc	0.033805653
89	0xbe494d8b	-0.19658487
90	0xbe9a33f6	-0.30117768
91	0x3da05791	0.07829202
92	0xbe093c3e	-0.13401887
93	0x3da4eedf	0.080533735
94	0xbe8b7406	-0.27236956
95	0x3e9c64ae	0.30545563
96	0xbe0f0a97	-0.13968883
97	0x3e4bde29	0.19908966
98	0x3dc9b697	0.098492794
99	0x3e0990e3	0.13434176
100	0x3de26116	0.11053674
101	0x3ed3dfb4	0.4138161
102	0xbe43f074	-0.19134694
103	0xbd93ad3f	-0.072107784
104	0x3e11dee3	0.14245181
105	0xbd608010	-0.05480963
106	0xbe3e7edd	-0.18603082
107	0xbe492abc	-0.19645208
108	0x3e13474c	0.14382666
109	0x3e9a2741	0.30108073
110	0xbe3a165c	-0.18172592
111	0xbe837beb	-0.2568048
112	0xbd874f90	-0.06606972
113	0xbe11d664	-0.1424194
114	0xbdb740c9	-0.08947904
115	0xbd2ef7e1	-0.042716864
116	0x3eb37c96	0.3505599
117	0xbe411b75	-0.1885813
118	0xbec2bf77	-0.380367
119	0x3d056638	0.032568187
120	0x3e45b40b	0.19306962
121	0x3e4eeb45	0.20206936
122	0x3ddd9f87	0.10821443
123	0xbe492065	-0.19641264
124	0x3ca5c45f	0.020235239
125	0x3e4f2ebb	0.2023267
126	0x3e01f0ed	0.12689562
127	0xbda5d519	-0.08097286
128	0x3e91bc23	0.2846385
129	0xbe81ee85	-0.25377288
130	0x3deb3f11	0.11486638
131	0x3d491c3a	0.049099185
132	0xbe91de9e	-0.28490156
133	0x3e428151	0.18994643
134	0xbd998783	-0.0749655
135	0xbd8ee676	-0.06977551
136	0xbe4f0437	-0.20216452
137	0x3e7900e8	0.24316752
138	0x3e07fcf2	0.13280085
139	0xbe2ac2ba	-0.16675845
140	0x3da8aec3	0.08236458
141	0x3e1c25e4	0.15248829
142	0xbe4397c2	-0.1910086
143	0x3d44c108	0.04803565

encoder.blocks.0.conv.0.bias f4 [16]
0	0x3dc58f1c	0.096464366
1	0x3e4b2d73	0.19841556
2	0x3d13d58f	0.036092337
3	0xbed28b2c	-0.41121805
4	0xbd8d824e	-0.06909619
5	0x3b26aafa	0.00254315
6	0x3e2f9411	0.17146327
7	0xbebffd25	-0.3749782
8	0x3c2ddd71	0.010611878
9	0xbe562b6a	-0.20914999
10	0x3eac4bc1	0.33651546
11	0x3eeecedd	0.466422
12	0xbe8392ac	-0.2569784
13	0x3c85159b	0.016245654
14	0xbdfd8c9e	-0.12380336
15	0x3e9f6828	0.31134152

encoder.blocks.0.conv.1.weight f4 [16]
0	0x3f9546d8	1.1662245
1	0x3f835ecc	1.0263305
2	0x3f7fd62b	0.9993617
3	0x3f6ec90e	0.93275535
4	0x3f8af0b4	1.0854707
5	0x3f789bd6	0.97112787
6	0x3f6784ca	0.90436995
7	0x3f5d945b	0.865545
8	0x3f69216d	0.9106663
9	0x3f6867b1	0.9078322
10	0x3f8395c6	1.0280082
11	0x3f7e0d09	0.9923864
12	0x3f8abd0b	1.0838941
13	0x3f7aa34f	0.9790544
14	0x3f7a4a2b	0.9776942
15	0x3f930fa5	1.1489149

encoder.blocks.0.conv.1.bias f4 [16]
0	0x3d609833	0.05483265
1	0x3da2523d	0.07925842
2	0x3dfb2f99	0.12264938
3	0xbdb9a443	-0.090645336
4	0x3d8a5783	0.06754973
5	0x3d698799	0.05701408
6	0x3d64522b	0.055742424
7	0xbe17ab93	-0.14811544
8	0x3e11bf50	0.14233136
9	0xbdd74016	-0.1051027
10	0x3d0b910a	0.034073867
11	0xbd084db3	-0.033277225
12	0x3dad8113	0.084718846
13	0xbde49061	-0.111603506
14	0x3d2cdfbf	0.04220557
15	0x3db29a4c	0.08720836

encoder.blocks.0.conv.1.running_mean f4 [16]
0	0x3daaa933	0.083330534
1	0x3e425c04	0.18980414
2	0x3d8f7cb8	0.0700621
3	0xbe668cfc	-0.22514719
4	0xbd7f79e0	-0.06237209
5	0x395dd07c	0.00021153869
6	0x3e1fbab9	0.15598573
7	0xbec155c3	-0.37760743
8	0x3bb13aa7	0.005408603
9	0xbe65fda4	-0.22460037
10	0x3e9f107b	0.3106726
11	0x3efceaf2	0.49398
12	0xbe834b43	-0.25643358
13	0x3c21cc1b	0.009875323
14	0xbde5c2dc	-0.11218807
15	0x3ea0cc5a	0.31405908

encoder.blocks.0.conv.1.running_var f4 [16]
0	0x3b039c06	0.002008201
1	0x3a221d2e	0.00061841577
2	0x3a78211b	0.00094653823
3	0x3c81b2a0	0.015832245
4	0x3a7f6513	0.0009742539
5	0x3a826c9d	0.0009950582
6	0x3b6073f3	0.0034248799
7	0x3ab14ccb	0.0013526914
8	0x3b157330	0.0022804253
9	0x3a189ea1	0.00058219774
10	0x3b008fe1	0.0019617009
11	0x3b8119de	0.003939851
12	0x3a867069	0.001025689
13	0x3b0f7433	0.0021889328
14	0x3b047c91	0.002021585
15	0x3a6876a9	0.00088677794

encoder.blocks.0.conv.3.weight f4 [16, 16, 3, 3]
0	0xbdec02fe	-0.11524008
1	0xbd703cff	-0.05865192
2	0x3dcdf1c0	0.10055876
3	0x3bc7c7a6	0.006096798
4	0x3e0416a1	0.12899257
5	0x3d24ecbd	0.040264834
6	0x3d527af8	0.051386803
7	0x3dd10105	0.102052726
8	0x3df756c3	0.12077095
9	0xbc8e7e6e	-0.01739427
10	0xbd20e968	-0.039285094
11	0xbd50ba94	-0.050959185
12	0x3dd953c3	0.106116794
13	0xbe11799f	-0.14206551
14	0xbdaa1567	-0.083048634
15	0x3d46dec9	0.04855231
16	0x3d4c5eda	0.049895145
17	0x3d591cfd	0.05300616
18	0x3d28680e	0.04111486
19	0x3ce5dcf9	0.02805947
20	0x3bf471c0	0.007459849
21	0x3a2831ef	0.0006416132
22	0xbd22da34	-0.039758876
23	0xbdd323b7	-0.103095464
24	0xbdbb9c49	-0.091606684
25	0xbd837bde	-0.0642011
26	0xbe091f95	-0.13390954
27	0x3e0367fe	0.12832639
28	0x3d3701a8	0.044679314
29	0xbbd64582	-0.0065390477
30	0x3de4da93	0.11174502
31	0x3cc7592c	0.024334513
32	0x3d9fee27	0.07809096
33	0x3d5dd5da	0.054159023
34	0x3d3e38ff	0.046441074
35	0xbd790121	-0.060792092
36	0x3e654540	0.22389698
37	0x3e30deb9	0.17272462
38	0x3d46693a	0.048440196
39	0xbc7c36e3	-0.015393945
40	0xbd108b1d	-0.03528892
41	0x3d4d6a97	0.05015048
42	0x3cc9ed89	0.024649398
43	0xbe095685	-0.13411911
44	0x3c8cfa3c	0.017209165
45	0x3cb9d354	0.022683777
46	0x3e346226	0.17615566
47	0x3e249af5	0.16074736
48	0x3ce58b55	0.02802054
49	0x3c03f7d7	0.008054695
50	0x3d80100e	0.06253062
51	0xbe13ccdc	-0.14433616
52	0xbbbc4056	-0.005744974
53	0x3d93a7f2	0.072097674
54	0x3d8560b6	0.06512587
55	0xbae36601	-0.0017349125
56	0x3dd45efb	0.103696786
57	0x3d500516	0.0507861
58	0x3cee2ccc	0.029074095
59	0x3d8dce69	0.06924135
60	0x3b0e2e76	0.0021695173
61	0x3c3d042f	0.011536642
62	0xbd1c4c02	-0.038158424
63	0x3dd08112	0.10180868
64	0xbb0898d9	-0.0020843057
65	0x3d735b21	0.05941308
66	0x3d45e651	0.04831535
67	0x3ca6e039	0.02037059
68	0x3d4dd755	0.050254185
69	0x3c74c37d	0.014939186
70	0x3c0860be	0.008323846
71	0x3d832ddd	0.06405232
72	0x3dc135bd	0.09434078
73	0x3bfb8ce7	0.007676709
74	0x3d46d804	0.048545852
75	0x3d9f14b8	0.07767624
76	0x3db34a08	0.08754355
77	0x3d84813b	0.06469961
78	0x3d935834	0.07194558
79	0x3d83f564	0.06443289
80	0x3dc1902a	0.09451325
81	0x3d1e7529	0.03868595
82	0x3dbd4311	0.092413075
83	0x3daa9dde	0.08330892
84	0xbcae1591	-0.021250518
85	0xbd8f1bfa	-0.06987758
86	0x3d8ef415	0.06980149
87	0x3b189395	0.0023281325
88	0xbb870eab	-0.0041216216
89	0xbd348378	-0.04407069
90	0xbd957458	-0.072975814
91	0x3d5c52fc	0.053790078
92	0xbd30b409	-0.043140445
93	0xbc1828c6	-0.009287065
94	0xbd38f9ea	-0.04516021
95	0xbcb916d5	-0.022593895
96	0x3cae0cc5	0.021246323
97	0xbd7361e7	-0.05941954
98	0xbc7fbc70	-0.015608892
99	0x3dcae71c	0.09907362
100	0x3de2530c	0.11050996
101	0x3db0e081	0.08636571
102	0x3e5af034	0.21380693
103	0x3ddc45a2	0.10755469
104	0x3d7a5bc8	0.061122686
105	0x3d23f381	0.040027145
106	0x3db74c3c	0.089500874
107	0x3dea4df7	0.11440652
108	0xbcfbc1d2	-0.03073207
109	0xbcfa05a0	-0.03052026
110	0xb958dcbc	-0.00020681595
111	0x3de25970	0.11052215
112	0x3dc406d3	0.09571614
113	0x3bd1d87b	0.0064039803
114	0x3d8ffe8b	0.07030972
115	0x3e58d979	0.21176709
116	0x3e0b631d	0.13612027
117	0x3e0ee684	0.13955122
118	0xbc98542d	-0.018594826
119	0x3d3d91df	0.04628169
120	0xbe209947	-0.1568347
121	0x3d66dfdf	0.056365844
122	0x3df475dc	0.119365424
123	0x3cc04e26	0.023474764
124	0xbde8fcb7	-0.113763265
125	0xbd10e56e	-0.03537505
126	0x3d96ddb2	0.07366504
127	0xbd2ef665	-0.04271545
128	0x3dc6b5af	0.09702622
129	0x3dca4e3a	0.09878202
130	0x3df35c12	0.118827954
131	0x3dce66ff	0.10078239
132	0x3d9afd3f	0.07567834
133	0x3d7f304f	0.06230193
134	0x3da37c22	0.07982661
135	0x3bedbdd9	0.0072552976
136	0x3984f216	0.0002535737
137	0xbdcc61a7	-0.09979563
138	0xbdae0f68	-0.08499032
139	0x3ba9abf2	0.005177968
140	0xbde9af87	-0.11410432
141	0x3dd24199	0.10266418
142	0xbda92c13	-0.082603596
143	0xbb1812ae	-0.0023204493
144	0xbaf83da2	-0.0018939266
145	0x3da7b219	0.08188266
146	0x3d654c2a	0.05598084
147	0xbd4b4fc0	-0.049636602
148	0xbd3fb37b	-0.046802025
149	0xbbb59f88	-0.0055426992
150	0xbd2c9cd4	-0.04214175
151	0x3d3bec64	0.045879737
152	0xbc99d1d8	-0.01877682
153	0x39de9e8f	0.00042461275
154	0xba6e6b4f	-0.000909497
155	0x3c556194	0.013023753
156	0x3dc96fde	0.0983579
157	0xbd312791	-0.043250624
158	0x3d95dc5e	0.07317422
159	0xbc876096	-0.016525548
160	0x3e055534	0.13020784
161	0xbd2fba8a	-0.042902507
162	0xbc211d1f	-0.009833603
163	0xbdcbbbf6	-0.0994796
164	0x3cb1c9b2	0.021702621
165	0xbdf5b8df	-0.11998152
166	0xbd7cd56d	-0.061726976
167	0xbe1694e7	-0.14705239
168	0x3c885cae	0.016645756
169	0xbc90c337	-0.01767121
170	0xbe01b578	-0.12666881
171	0xbd82fd3a	-0.063959554
172	0x3db7d5b7	0.0897631
173	0xbce9a2b4	-0.028519966
174	0x3d82b363	0.063818716
175	0xbc3db75d	-0.011579362
176	0x3d81b278	0.06332868
177	0xbca0a01f	-0.019607602
178	0xbd1d571e	-0.03841316
179	0xbc857f4c	-0.016296051
180	0xbe0167dc	-0.12637275
181	0xbdd151a8	-0.10220653
182	0xbdcc3efd	-0.099729516
183	0xbd49a205	-0.04922678
184	0xbe44a81b	-0.19204752
185	0xbdf635f9	-0.12022013
186	0xbd155e16	-0.03646668
187	0x3e023263	0.12714534
188	0x3c38f420	0.011288673
189	0xbdf6d33b	-0.12052008
190	0xbddf36eb	-0.10899147
191	0xbdae30d5	-0.08505408
192	0xbd8e4248	-0.06946236
193	0xbe2bdc32	-0.16783217
194	0xbceeb23e	-0.029137727
195	0xbcba537a	-0.022744883
196	0xbe2b79e8	-0.16745722
197	0xbdb54c0c	-0.088523954
198	0x3e49b56f	0.19698118
199	0x3da30ae9	0.07961065
200	0x3d3d2674	0.04617925
201	0x3dde8d02	0.10866739
202	0x3d962621	0.07331491
203	0x3de9bf28	0.11413413
204	0x3e0894c2	0.13337997
205	0x3e3a8a07	0.18216716
206	0x3dad4b7e	0.084616646
207	0x3d9c9206	0.07645039
208	0xbd2f2ec2	-0.0427692
209	0xbdc6ba55	-0.09703509
210	0xbdb42a43	-0.08797123
211	0x3d534240	0.051576853
212	0x3d042d40	0.032269716
213	0x3d355aac	0.044275925
214	0xbcbaf7b1	-0.022823187
215	0xbc1307aa	-0.008973995
216	0x3dc2423d	0.0948529
217	0x3de89367	0.1135624
218	0x3ddd2878	0.107987344
219	0x3dc807da	0.097671226
220	0xbd9d207b	-0.07672211
221	0x3d98f15d	0.074679114
222	0x3dba8a8c	0.09108457
223	0x3d96479d	0.07337878
224	0x3d080480	0.033207417
225	0xbd3d4e0f	-0.04621702
226	0x3ba2b75f	0.004965707
227	0x3dd0caab	0.10194906
228	0x3dca358e	0.09873496
229	0x3dccfb1a	0.10008831
230	0xbc709713	-0.014684456
231	0xbc6344c7	-0.013871378
232	0xbbde72c2	-0.0067885825
233	0xbd1737f4	-0.036918595
234	0xba52dfea	-0.000804423
235	0x3bf343f7	0.0074238735
236	0x3b164a3b	0.0022932428
237	0xbd653993	-0.05596311
238	0x3c586bf2	0.01320933
239	0xbcdffc03	-0.027341848
240	0xbe0811ee	-0.1328809
241	0xbd4b214a	-0.049592294
242	0x3c4ac970	0.012377128
243	0xbc7cc461	-0.01542768
244	0x3d207f42	0.039183863
245	0x3db89bf2	0.09014119
246	0x3d6880a1	0.056763295
247	0xbd01563b	-0.031576376
248	0xbc8c4485	-0.017122516
249	0x3da28c56	0.07936923
250	0x3d1e465b	0.038641315
251	0x3cc46a51	0.023976477
252	0xbe4adc81	-0.19810678
253	0xbe5e16eb	-0.2168843
254	0xbd654d86	-0.055982135
255	0xbd7eec75	-0.06223722

encoder.blocks.0.conv.3.bias f4 [16]
0	0xbd905f54	-0.070494324
1	0xbdfc90c2	-0.12332298
2	0x3ca98791	0.020694526
3	0xbd2bb33e	-0.041918986
4	0xbc94148e	-0.018076207
5	0xbd2461e6	-0.040132426
6	0x3c26f5fa	0.010190481
7	0x3d857153	0.065157555
8	0x3c195038	0.009357505
9	0x3d0c9577	0.03432223
10	0xbbbeff35	-0.005828763
11	0x3cc11564	0.02356977
12	0x3c4a78e6	0.012357926
13	0xbc26015c	-0.01013216
14	0xbd4e836c	-0.050418302
15	0x3c97ebda	0.01854508

encoder.blocks.0.conv.4.weight f4 [16]
0	0x3f81358f	1.009447
1	0x3f7b35ca	0.9812895
2	0x3f80e744	1.0070577
3	0x3f6e6c53	0.9313404
4	0x3f830ca2	1.023823
5	0x3f89e630	1.0773373
6	0x3f749056	0.9553274
7	0x3f8508df	1.0393332
8	0x3f543bbd	0.82903653
9	0x3f74c068	0.9560609
10	0x3f808661	1.0041009
11	0x3f5ce5aa	0.8628794
12	0x3f89dc2b	1.0770315
13	0x3f69d8e2	0.9134656
14	0x3f83a258	1.0283918
15	0x3f6e4bc5	0.93084365

encoder.blocks.0.conv.4.bias f4 [16]
0	0xbe286f3c	-0.16448683
1	0xbd99e8da	-0.07515116
2	0xbbee1a59	-0.0072663245
3	0xbc8e4ade	-0.017369684
4	0x3dcb9d11	0.099420674
5	0x3dd94ebc	0.106107205
6	0x3c8b03ae	0.016969528
7	0xbd537b68	-0.05163136
8	0xbe4241ec	-0.1897046
9	0xbd607f93	-0.054809164
10	0xbcbeca04	-0.023289688
11	0xbdf544c5	-0.11976007
12	0x3d0cc3f9	0.03436658
13	0xbcd17373	-0.025567746
14	0x3d9f2f10	0.07772648
15	0xbda13c96	-0.07872884

encoder.blocks.0.conv.4.running_mean f4 [16]
0	0x3f25914a	0.6467482
1	0xbf145268	-0.5793824
2	0xbfb2c372	-1.3965895
3	0xbee82151	-0.45337918
4	0xbe7cb9df	-0.24680279
5	0xbf2461fb	-0.64212006
6	0xbf6557c2	-0.8958703
7	0xbdbbe41b	-0.09174367
8	0xbf394e3e	-0.72385013
9	0xbf07daee	-0.53068435
10	0xbfa256ee	-1.2682779
11	0xbc0c5134	-0.008564282
12	0xbecd9dc6	-0.40159434
13	0xbfc311e9	-1.5239841
14	0xbe392fa5	-0.18084581
15	0xbf4f403c	-0.8095739

encoder.blocks.0.conv.4.running_var f4 [16]
0	0x4001b3ec	2.0266066
1	0x3f5a5f94	0.8530209
2	0x40506e0f	3.2567174
3	0x3fc7d25b	1.561107
4	0x3f142a0c	0.5787666
5	0x3f8abe29	1.0839282
6	0x3fd54686	1.6662147
7	0x3e99e55b	0.30057797
8	0x3fca1427	1.57874
9	0x3f946a4d	1.159494
10	0x403d947b	2.9621875
11	0x3fafc756	1.3732708
12	0x3f3a37a7	0.7274117
13	0x405ccb8c	3.4499235
14	0x3f12978a	0.5726248
15	0x3fdda3fe	1.7315671

encoder.blocks.0.skip.weight f4 [16, 1, 1, 1]
0	0x3f56dc20	0.83929634
1	0xbde239a0	-0.11046147
2	0xbf4e31fc	-0.8054502
3	0x3f7a9556	0.9788412
4	0xbf322f9c	-0.69603896
5	0xbf5c2caa	-0.8600565
6	0x3f399b4e	0.725026
7	0x3e861620	0.26188755
8	0xbf04667c	-0.5171888
9	0xbf4b3812	-0.7938243
10	0x3f4e9690	0.8069849
11	0xbd5a3120	-0.053269506
12	0x3ecfc5e4	0.40580666
13	0x3c37af00	0.011211157
14	0xbf11db5a	-0.5697533
15	0x3d34cd20	0.044140935

encoder.blocks.0.skip.bias f4 [16]
0	0x3f398290	0.7246485
1	0xbe1418e0	-0.14462614
2	0xbef3078c	-0.47466695
3	0x3f525daa	0.8217417
4	0xbf346930	-0.70473003
5	0xbf475136	-0.77858293
6	0xbc0d2c80	-0.008616567
7	0x3f79c870	0.9757147
8	0x3f4268fe	0.75941455
9	0xbe9ed140	-0.3101902
10	0xbf6db260	-0.92850304
11	0x3e4563d0	0.19276357
12	0xbf5ecae6	-0.8702835
13	0xbe3d71b8	-0.18500412
14	0xbf5887a6	-0.84581983
15	0xbef61948	-0.48066163

encoder.blocks.1.conv.0.weight f4 [32, 16, 3, 3]
0	0xbde64591	-0.112437375
1	0xbce9d49f	-0.028543768
2	0xbd042b15	-0.03226765
3	0xbd4c40c1	-0.04986644
4	0x3cf8d055	0.030372778
5	0xbd98105f	-0.074249975
6	0xbde689c0	-0.112567425
7	0xbde5f612	-0.11228575
8	0x3c98424d	0.018586302
9	0xbde426e2	-0.11140229
10	0xbd463be3	-0.048396956
11	0xbdb937e6	-0.09043865
12	0xbdc82622	-0.09772898
13	0xbc52f698	-0.012876175
14	0xbd13a00c	-0.036041304
15	0x3cba350e	0.022730377
16	0xbd861714	-0.065473706
17	0x3bceaa53	0.0063069253
18	0x3bc51343	0.006014259
19	0xbc96814a	-0.018372197
20	0x3da8f952	0.08250679
21	0x3d6eb1a6	0.058274888
22	0xbd5f73cd	-0.054553796
23	0x3d5ee609	0.054418597
24	0x3df87a57	0.121327095
25	0x3dad7ec9	0.08471448
26	0x3db82785	0.08991913
27	0xbd9037a6	-0.07041864
28	0xbc7ef6fe	-0.015561817
29	0xbb99dcc4	-0.0046955068
30	0xbc9ecbb5	-0.019384244
31	0xbdca98dd	-0.098924376
32	0xbd68dc6c	-0.056850836
33	0xbd9d8d61	-0.076929815
34	0xbd1298dc	-0.03579031
35	0xbe15a762	-0.14614633
36	0xbe03804b	-0.12841909
37	0xbcd034f5	-0.025415877
38	0x3c0897fe	0.008337019
39	0xbddbe5ee	-0.10737215
40	0xbd95f1ed	-0.07321534
41	0xbdd34737	-0.103163175
42	0xbddf6be1	-0.10909248
43	0x3c753f97	0.014968774
44	0xbcfab0d7	-0.030601902
45	0xbe06efab	-0.13177364
46	0xbd22b9a0	-0.039727807
47	0xbdb2a159	-0.08722181
48	0xbe436fb4	-0.1908558
49	0xbe2a72de	-0.16645381
50	0xbdb343e5	-0.08753184
51	0xbe1237bd	-0.14279075
52	0xbe029833	-0.12753372
53	0xbcbee794	-0.023303784
54	0xbdb099d8	-0.08623093
55	0xbd25ee67	-0.04051056
56	0x3c55a125	0.013038908
57	0x3d029866	0.03188362
58	0x3a2d5299	0.0006611734
59	0x3d693a95	0.056940634
60	0x3dcfe513	0.10151114
61	0x3c9a16e6	0.018809747
62	0x3c2d84ab	0.010590713
63	0xbd8924db	-0.06696483
64	0x3b790508	0.0037997384
65	0x3c52a044	0.012855593
66	0xbbe2aac4	-0.0069173295
67	0x3b98ce36	0.004663254
68	0x3d1b0951	0.03785068
69	0xbe05a81b	-0.13052408
70	0xbd71c357	-0.05902418
71	0xbddea86e	-0.10871969
72	0xbd836a19	-0.06416721
73	0xbd8eb3f1	-0.06967915
74	0x3d468bc9	0.048473153
75	0x3dc968d4	0.098344475
76	0x3accb993	0.001561927
77	0x3e0090d3	0.12555246
78	0x3d4bcecf	0.049757775
79	0xbc35b0f3	-0.011089551
80	0x3dc2e4b8	0.09516281
81	0x3cab906e	0.020942893
82	0x3ca12706	0.019671928
83	0xbd524705	-0.05133726
84	0xbd8ec224	-0.06970623
85	0x3cd5a46d	0.02607938
86	0x3d86ef23	0.065885805
87	0xbcdb0a70	-0.026738375
88	0xbd15f873	-0.036613893
89	0xbb885b33	-0.0041612624
90	0x3dd13197	0.10214537
91	0x3d93cf42	0.07217266
92	0x3de8c91e	0.11366485
93	0x3cc02617	0.023455663
94	0x3cb48c7c	0.022039644
95	0x3d525440	0.05134988
96	0x3ddbb577	0.10727971
97	0x3d8fc103	0.07019236
98	0x3dfb2f4f	0.12264883
99	0xbdb0be59	-0.08630056
100	0xbda6c0b2	-0.081422225
101	0xbe148919	-0.14505424
102	0xbd15164f	-0.03639823
103	0xbe143bc3	-0.14475922
104	0xbdf05a9c	-0.11736032
105	0xbe0b94a8	-0.13630927
106	0xbd085461	-0.033283595
107	0xbd3478f2	-0.044060655
108	0xbcafc726	-0.021457266
109	0xbdc48a5e	-0.09596704
110	0xbde77c0c	-0.11302957
111	0xbdeb8afa	-0.11501117
112	0xbe181295	-0.14850838
113	0xbd946b92	-0.0724708
114	0xbd906768	-0.07050973
115	0xbd7dbe62	-0.06194914
116	0xbe2aa06d	-0.1666276
117	0xbddf6b61	-0.10909153
118	0xbd80435c	-0.06262848
119	0x3c9ac933	0.018894767
120	0x3cef0daa	0.02918132
121	0x3d6ec7cb	0.058296006
122	0x3d6681a7	0.05627599
123	0xbd692b55	-0.05692609
124	0x3d347bef	0.044063505
125	0xbd796430	-0.060886562
126	0xbe01eb2a	-0.12687364
127	0xbdefd942	-0.117113605
128	0xbdd1552e	-0.10221325
129	0xbe162598	-0.14662778
130	0xbe06ef82	-0.13177302
131	0xbe3e7a68	-0.18601382
132	0xbe1fb5bf	-0.15596674
133	0xbe28f739	-0.16500558
134	0xbe0d56fb	-0.13802712
135	0x3d265ac8	0.04061392
136	0x3c1cdd99	0.009574317
137	0xbcc60c8a	-0.024175901
138	0xbcc512c0	-0.024056792
139	0x3d1706a9	0.036871586
140	0x3d278694	0.040899828
141	0x3bc7acef	0.0060936133
142	0xbcc7555c	-0.024332695
143	0xbc896052	-0.016769562
144	0x3e6b889c	0.23001331
145	0x3e20a5fd	0.1568832
146	0x3dd44d69	0.10366327
147	0x3da57b9d	0.08080218
148	0x3ddfd803	0.10929873
149	0xbd1f8dc3	-0.038953554
150	0xbd8f439c	-0.06995317
151	0x3d2b079f	0.041755315
152	0xbd0ef345	-0.03489997
153	0x3b316378	0.0027067345
154	0xbd8d0789	-0.06886203
155	0xbe09f0e2	-0.13470796
156	0xbd444593	-0.047917914
157	0x3c5d436e	0.013504846
158	0x3cb5b7cc	0.022182368
159	0xbd871138	-0.06595081
160	0xbc9e1ef5	-0.01930187
161	0xbdeba3b3	-0.115058325
162	0xbde010db	-0.10940715
163	0xbd9815c6	-0.07426028
164	0x3d049fb0	0.032378852
165	0x3d2768d4	0.040871456
166	0x3b9b1fa0	0.0047339946
167	0x3d547d08	0.05187705
168	0x3ddffb53	0.10936608
169	0x3dd804eb	0.10547813
170	0x3dc5e85a	0.09663458
171	0xbbc8fd4f	-0.0061337124
172	0x3d450f5d	0.048110355
173	0x3d6a28da	0.057167865
174	0xbd5a7636	-0.05333539
175	0xbce5734e	-0.028009083
176	0x3af65144	0.001879253
177	0xbcb682fc	-0.022279255
178	0xbcead332	-0.028665159
179	0x3d15d055	0.036575634
180	0x3db3986f	0.08769309
181	0x3e152a1c	0.14566845
182	0x3df09797	0.117476635
183	0x3da631c2	0.08114959
184	0x3e2e2929	0.17007889
185	0x3e28ceb8	0.16485107
186	0x3c32d3bb	0.010914738
187	0x3d0e0685	0.034674186
188	0x3d4e6dc8	0.050397664
189	0x3d7bc57d	0.061467636
190	0x3d935365	0.071936406
191	0x3e323243	0.17401986
192	0x3d9c5a31	0.0763439
193	0x3d21321d	0.039354432
194	0x3db30c47	0.08742576
195	0x3d1af9a9	0.03783575
196	0x3d851077	0.06497281
197	0xbc4729a6	-0.012155926
198	0x3d72e0af	0.059296306
199	0x3c5181d6	0.012787303
200	0xbd9825e0	-0.07429099
201	0x3ddcc0ef	0.10778987
202	0x3d5a05d6	0.05322822
203	0x3db40e9a	0.087918475
204	0x3db871cb	0.09006079
205	0xbc5bec58	-0.013423048
206	0xbb919db8	-0.0044438504
207	0x3c2300b1	0.009948895
208	0xbe07e4a2	-0.1327081
209	0xbd8fc905	-0.07020763
210	0xbd58686a	-0.052833952
211	0xbcd05f16	-0.025435966
212	0xbd41bcc1	-0.04729915
213	0x3d0f3726	0.034964703
214	0xbd355bde	-0.044277065
215	0xbd6e9ea0	-0.058256745
216	0xbc7bb8ff	-0.015363931
217	0x3ab871e9	0.0014072034
218	0x3c83c577	0.01608537
219	0x3df4153b	0.11918112
220	0xbccad033	-0.02475748
221	0xbb43a7d8	-0.0029854681
222	0x3d577d84	0.052609935
223	0x3d28a420	0.041172147
224	0x3c2af855	0.0104351835
225	0x3d191e47	0.03738239
226	0xba7efc93	-0.00097269675
227	0xbd47a778	-0.048743695
228	0xbd750d74	-0.059827283
229	0xbb17a03d	-0.002313628
230	0xbe0738b5	-0.13205226
231	0xbd8b4c62	-0.06801678
232	0xbacaad39	-0.0015463001
233	0xbd14a87f	-0.036293503
234	0xbd56e76c	-0.052466795
235	0xbdf6d3d9	-0.120521255
236	0x3a6ad4db	0.00089581095
237	0xbc881a93	-0.016614234
238	0xbe02c205	-0.12769325
239	0xbc47ca85	-0.0121942805
240	0xbd1734d0	-0.0369156
241	0xbdcdeba1	-0.10054708
242	0xbd88541d	-0.06656668
243	0xbcf07ecc	-0.029357336
244	0x3d074fb8	0.03303501
245	0x3d9da4c1	0.0769744
246	0x3dd73d51	0.10509742
247	0x3dad5b78	0.08464712
248	0x3c82b2c8	0.01595439
249	0x3cd1ceca	0.0256113
250	0x3dcb542b	0.09928163
251	0x3cdb1557	0.026743574
252	0x3dc9123f	0.09817933
253	0x3c4d77f1	0.012540803
254	0x3c4b429e	0.0124060195
255	0x3d818ec2	0.06326057

encoder.blocks.1.conv.0.bias f4 [32]
0	0xbda955e8	-0.082683384
1	0x3d5f6bc6	0.05454614
2	0x3dda7c08	0.10668188
3	0xbd41bd04	-0.0472994
4	0x3cd913e5	0.026498744
5	0xbc4d822f	-0.012543245
6	0xbc393fbb	-0.011306698
7	0xbcb2421a	-0.021760035
8	0x3d9e9fe0	0.077453375
9	0xbd9fd77f	-0.078047745
10	0x3b013c93	0.0019719943
11	0xbb05d7b0	-0.002042275
12	0xbd7a0d1a	-0.06104765
13	0x3dadbc7a	0.08483215
14	0x3d501710	0.050803244
15	0xbdbe9550	-0.09305823
16	0xbdadf857	-0.08494633
17	0x3e1aaa45	0.15104015
18	0xbd64c37d	-0.055850495
19	0xbc9d2730	-0.019183725
20	0xbd32960c	-0.043600127
21	0xbdb7d9e5	-0.08977107
22	0xbdaedacb	-0.08537825
23	0xbd081b39	-0.033229087
24	0x3d81ee9e	0.06344341
25	0xbcafd58b	-0.02146413
26	0xbd3fb775	-0.046805818
27	0x3d0dae31	0.03458995
28	0x3d8378f7	0.064195566
29	0x3d789b5d	0.06069504
30	0xbd0cbaf8	-0.034357995
31	0xbd67f722	-0.05663217

encoder.blocks.1.conv.1.weight f4 [32]
0	0x3f83050e	1.0235918
1	0x3f6d3dc3	0.92672366
2	0x3f8082eb	1.0039953
3	0x3f851d68	1.0399599
4	0x3f830c27	1.0238084
5	0x3f8a0841	1.0783769
6	0x3f75f454	0.9607594
7	0x3f8a0727	1.0783433
8	0x3f81801a	1.0117218
9	0x3f7fe19b	0.9995362
10	0x3f7cef15	0.9880231
11	0x3f827908	1.0193186
12	0x3f70e3b4	0.9409745
13	0x3f754a21	0.95816237
14	0x3f83ff73	1.0312332
15	0x3f71bc05	0.9442752
16	0x3f80284a	1.0012295
17	0x3f77280e	0.96545494
18	0x3f823cfe	1.0174863
19	0x3f77a2f4	0.9673302
20	0x3f7c405e	0.98535717
21	0x3f703031	0.93823534
22	0x3f7156d2	0.942731
23	0x3f7ecfc4	0.99535775
24	0x3f7b9a35	0.98282176
25	0x3f6ea6d7	0.9322333
26	0x3f71d587	0.9446644
27	0x3f7fc68c	0.99912333
28	0x3f641d93	0.89107627
29	0x3f80dd59	1.006755
30	0x3f710994	0.9415524
31	0x3f79d80e	0.975953

encoder.blocks.1.conv.1.bias f4 [32]
0	0x3e0fa1da	0.14026585
1	0xbd9c9aa0	-0.0764668
2	0x3c82ae09	0.015952127
3	0x3dad36b7	0.08457702
4	0x3c66da22	0.014090093
5	0x3d11f122	0.035630353
6	0x3d22ed55	0.03977712
7	0xbd93b4f8	-0.072122514
8	0x3e13813e	0.1440477
9	0x3e1156a4	0.14193207
10	0xba36b1fc	-0.0006969271
11	0x3e06d2b9	0.13166322
12	0xbdb09198	-0.0862152
13	0x3d94de3d	0.07268951
14	0x3e16ed20	0.14738894
15	0x3d744421	0.059635285
16	0x3e17466f	0.14772962
17	0x3e386510	0.18007302
18	0x3dd9239a	0.106024936
19	0x3dc3b10d	0.09555254
20	0x3de2e617	0.110790424
21	0x3d408f42	0.04701162
22	0x3ae2d6b6	0.001730642
23	0xbccd4fb9	-0.025062429
24	0x3da2c7b5	0.07948247
25	0xbc365fa7	-0.011131204
26	0x3c5f7e2f	0.013640924
27	0x3e04fd75	0.12987311
28	0x3d6961a2	0.056977876
29	0x3dbe5c2e	0.09294926
30	0xbc9e87cd	-0.019351864
31	0x3d7bd6e8	0.061484247

encoder.blocks.1.conv.1.running_mean f4 [32]
0	0xc004cf60	-2.0751572
1	0x3f911a5a	1.1336167
2	0x3f92d80c	1.1472182
3	0x3f8a6f9c	1.081531
4	0x3f6cfbe1	0.92571837
5	0x3f740882	0.9532548
6	0x3fb472bd	1.4097515
7	0x3f086a30	0.5328703
8	0xbff59cf5	-1.9188524
9	0x3fa7e04e	1.3115327
10	0x3f14d760	0.58141136
11	0xbffc700b	-1.9721693
12	0x3f13f27c	0.57791877
13	0x3f6cdce5	0.9252456
14	0xbf91850e	-1.136873
15	0x3f173884	0.5907061
16	0x3f9367db	1.1516069
17	0x3fa76e1a	1.3080475
18	0xc01ba880	-2.4321594
19	0x3e346b4d	0.17619057
20	0x3f498d9e	0.78731716
21	0x3f551475	0.8323434
22	0x3f4472af	0.76737493
23	0xbf2017a6	-0.62536085
24	0xbfe77def	-1.8085307
25	0x3fb6baf7	1.4275807
26	0x3f7c89a3	0.98647517
27	0x3f8e9f3e	1.1142347
28	0x3fb8ee80	1.4447784
29	0x3f13b352	0.57695496
30	0x3e77f111	0.24213053
31	0x3e944174	0.28956187

encoder.blocks.1.conv.1.running_var f4 [32]
0	0x40397397	2.89768
1	0x3fc38194	1.5273919
2	0x3fdb5419	1.713504
3	0x3f56c855	0.8389943
4	0x3eadd2f9	0.33950022
5	0x3f723173	0.94606704
6	0x3f98af3b	1.1928476
7	0x3f094d15	0.5363324
8	0x40117519	2.272772
9	0x3fca5ab1	1.5808927
10	0x3f8446dc	1.0334125
11	0x400699b6	2.1031318
12	0x3f6da2ac	0.9282634
13	0x403ca269	2.9474127
14	0x40087a2d	2.132457
15	0x40066002	2.0996099
16	0x3f8f5556	1.1197917
17	0x3fdc2114	1.7197595
18	0x40026c14	2.0378466
19	0x3f0b4f72	0.544181
20	0x3f675a91	0.9037257
21	0x3f89bddf	1.0761069
22	0x40211850	2.517109
23	0x3f4070b2	0.7517196
24	0x3f9c25d5	1.2199045
25	0x3fc3afd0	1.5288029
26	0x3fe94694	1.8224664
27	0x3fa018cb	1.2507566
28	0x3fb6f388	1.429307
29	0x3f42dec9	0.76121193
30	0x3fe4df66	1.7880676
31	0x3f1146aa	0.5674845

encoder.blocks.1.conv.3.weight f4 [32, 32, 3, 3]
0	0xbe1aa548	-0.15102112
1	0xbdd17f0a	-0.10229309
2	0xbd0cede5	-0.03440656
3	0xbd3c47cd	-0.045966912
4	0xbd6532af	-0.05595654
5	0xbdb2804c	-0.08715877
6	0xbc3d69be	-0.011560855
7	0xbd9cad77	-0.07650273
8	0xbe10ca9c	-0.1413979
9	0xbc3c79fc	-0.011503693
10	0xbdb7acf4	-0.08968535
11	0xbd91dc35	-0.07122079
12	0x3ca80fd1	0.020515354
13	0xbd5b28e0	-0.05350578
14	0xbd76836e	-0.060183935
15	0xbd10258b	-0.035192054
16	0xbc98dcb7	-0.018659933
17	0xbd5275a8	-0.051381737
18	0xbdaffaca	-0.08592756
19	0xbdccec98	-0.10006064
20	0xbcdbfb3f	-0.026853202
21	0xbda481b8	-0.080325544
22	0xbda33574	-0.0796918
23	0xbc9da559	-0.019243883
24	0x3ca06e56	0.019583862
25	0x3d15d663	0.03658141
26	0xbd66d078	-0.056351155
27	0x3d843bc3	0.06456711
28	0xbba8afe8	-0.005147923
29	0xbe1e9849	-0.1548778
30	0x3db45e94	0.08807102
31	0x3d7145fc	0.058904633
32	0xbd7d0857	-0.06177553
33	0x3da029c1	0.07820464
34	0x3d4b11da	0.04957757
35	0xbcc59d86	-0.024122965
36	0xbc657290	-0.014004365
37	0xbd8c51d7	-0.06851547
38	0x3cc8f741	0.024531962
39	0x3c8786f6	0.016543847
40	0x3d0bfb4f	0.034175213
41	0xbd351879	-0.044212792
42	0x3d803e4c	0.06261882
43	0xbb9cad7c	-0.004781423
44	0xbd044700	-0.032294273
45	0x3d325010	0.043533385
46	0x3c6b491a	0.0143606905
47	0xbcb0d6da	-0.021586824
48	0x3c03052c	0.007996839
49	0x3da0db91	0.07854379
50	0x3b93fec8	0.0045164563
51	0xbd1dc1bf	-0.03851485
52	0x3c3cf0ab	0.011531989
53	0x3e1a6842	0.15078834
54	0x3db2c3b3	0.08728733
55	0xbd9a8080	-0.07544041
56	0xbde73e3e	-0.11291169
57	0x3c9a702a	0.018852312
58	0xbd6ca9fe	-0.057779305
59	0xbe018c02	-0.12651065
60	0x3c52ee9d	0.012874273
61	0xbcc1d406	-0.023660671
62	0xbb367f0b	-0.002784672
63	0x3e2bfe15	0.16796143
64	0x3e634dea	0.2219769
65	0xbb55daba	-0.0032631592
66	0x3d55fb93	0.052241873
67	0x3e142719	0.1446804
68	0x3d651771	0.05593056
69	0xbd317ba1	-0.043330792
70	0x3e18ba74	0.14914876
71	0x3e28b780	0.1647625
72	0xbdb3f3e0	-0.0878675
73	0xbe094a3a	-0.13407221
74	0xbde24dc6	-0.1104999
75	0x3cc1c88c	0.023655199
76	0xbc8bf179	-0.017082917
77	0xbd3dd4cc	-0.046345517
78	0xbd8ca35d	-0.068670966
79	0x3c237c02	0.009978296
80	0xbd98d1e7	-0.07461911
81	0x3d07d03a	0.033157565
82	0xbd02804e	-0.031860642
83	0xbda75a72	-0.08171548
84	0x3dac93e5	0.08426646
85	0x3d12effb	0.035873394
86	0xbd850a02	-0.064960495
87	0x3d3ab90b	0.045586627
88	0x3ce823c5	0.028337369
89	0xbb9148b1	-0.0044337143
90	0xbd4e475a	-0.050361015
91	0xbd63054d	-0.055424977
92	0x3dc69e47	0.09698158
93	0xbd6d1a62	-0.05788649
94	0xbd90fb71	-0.07079209
95	0x3ca26c21	0.01982695
96	0xbc5c1e06	-0.0134348925
97	0xbc829af8	-0.015943035
98	0x3c5d9a04	0.01352549
99	0xbd44304b	-0.04789762
100	0xbda88e9b	-0.08230325
101	0xbc61461d	-0.013749626
102	0xbd97ee6f	-0.074185245
103	0xbcb990bf	-0.022652028
104	0xbda00f2e	-0.07815395
105	0xbd433223	-0.047655236
106	0xbd80ed09	-0.06295211
107	0xbceda47d	-0.029009098
108	0x3cb44b26	0.02200849
109	0xbdba364f	-0.0909239
110	0xbe11ec9d	-0.14250417
111	0xbbab1077	-0.0052204686
112	0xbd12fa68	-0.035883337
113	0xbe07c287	-0.132578
114	0x3da28692	0.079358235
115	0xbbfc36a1	-0.007696942
116	0xbd83f581	-0.064433105
117	0x3cf5ef6d	0.030021394
118	0x3bf5f395	0.007505844
119	0xbc3246f0	-0.010881171
120	0x3d4418d3	0.047875237
121	0x3d380a75	0.044931848
122	0xbd7ae35c	-0.061251983
123	0xbc393819	-0.011304879
124	0xbd27798f	-0.04088741
125	0x3c2e670f	0.010644688
126	0xbcf382bf	-0.02972543
127	0xbd2e416f	-0.04254287
128	0x387492ba	5.8310783e-05
129	0xbd8eba36	-0.06969111
130	0xbc602c33	-0.013682413
131	0x3c56b2b0	0.013104126
132	0xbd3e2068	-0.046417624
133	0xbdd0028d	-0.101567365
134	0xbddd3222	-0.10800578
135	0xbd134e49	-0.03596333
136	0xbda1296e	-0.0786923
137	0xbca16371	-0.019700738
138	0x3d890c22	0.06691767
139	0xbd578eca	-0.05262641
140	0xbd026537	-0.031834807
141	0xbcb9f318	-0.022698924
142	0xbd9af001	-0.07565308
143	0xbd7a2f1d	-0.061080087
144	0x3dbdb7ae	0.0926355
145	0xbd90b490	-0.070656896
146	0xbd738117	-0.05944928
147	0x3bdc79e5	0.006728398
148	0x3d5319db	0.05153833
149	0xbd952b0c	-0.07283601
150	0x3d1110a8	0.035416275
151	0x3d7013f5	0.058612783
152	0x3c4d31ba	0.012524063
153	0x3da87b1a	0.08226605
154	0x3bd41e8d	0.0064733685
155	0xbdd80e5b	-0.10549613
156	0x3da29a86	0.07939629
157	0x3d8e2d88	0.06942278
158	0xbd20db5c	-0.039271697
159	0x3db707b3	0.089370154
160	0x3dea3168	0.11435205
161	0xbdab8832	-0.083755866
162	0xbe094271	-0.13404252
163	0xbd7b8a8c	-0.061411425
164	0xbc1b3996	-0.009474179
165	0xbd83d0e8	-0.0643633
166	0xbd72c8dd	-0.05927359
167	0xbcc6c8d2	-0.02426568
168	0xbd2a9242	-0.04164339
169	0xbdb6358e	-0.088969335
170	0xbd85cb3f	-0.06532907
171	0x3d8d91e1	0.0691259
172	0xbd9a779b	-0.07542344
173	0xbe06da0e	-0.13169119
174	0x3df95c16	0.12175767
175	0x3c9c5d02	0.019087318
176	0xbdf306ce	-0.11866532
177	0xbc26a1b4	-0.010170389
178	0xbc959574	-0.018259741
179	0xbdba1bda	-0.090873435
180	0x3c5b49cb	0.013384293
181	0xbc0b88f5	-0.00851654
182	0xbd255ea9	-0.040373478
183	0x3d0b6059	0.03402743
184	0x3c65181b	0.013982798
185	0xbbea570e	-0.007151491
186	0x3da520f9	0.0806293
187	0x3d9cddd8	0.07659501
188	0x3d4db864	0.050224677
189	0x3d14a481	0.036289696
190	0xbdfbba55	-0.122913994
191	0xbdd89127	-0.105745606
192	0x3d457606	0.04820826
193	0xbc4b1ed2	-0.012397485
194	0xbd376122	-0.044770367
195	0xb9b99cd5	-0.000354028
196	0x3d874128	0.066042244
197	0xbd780352	-0.06055004
198	0xbd402eb6	-0.046919547
199	0xbbf464c3	-0.007458301
200	0xbd2c0060	-0.041992545
201	0x3d572520	0.05252564
202	0xbd1c8309	-0.038210902
203	0x3cf7dff7	0.030258162
204	0x3ca97e04	0.020689972
205	0xbd8ad7de	-0.06779455
206	0xbcc7e45f	-0.024400888
207	0xbcd5d3cc	-0.02610197
208	0x3b55adaa	0.0032604733
209	0x3d4d7103	0.050156604
210	0xbd14946a	-0.03627435
211	0xbcce3dbc	-0.025175922
212	0x3cc5f270	0.024163455
213	0x3c680edb	0.014163698
214	0xbd45ed55	-0.04832204
215	0xbcfe4a4b	-0.031041285
216	0xbd132f32	-0.03593368
217	0xbda3c7ee	-0.07997118
218	0x3d07d1b2	0.033158965
219	0xbd257a96	-0.04040011
220	0xbd61f0e3	-0.055161368
221	0xbd589917	-0.052880373
222	0xbd83f104	-0.064424545
223	0x3c1865fe	0.009301661
224	0xbd677dba	-0.056516387
225	0x3c3c1245	0.011478965
226	0x3cb6ad23	0.022299355
227	0xbd54a794	-0.051917627
228	0x3be4cd61	0.006982491
229	0x3d0f2931	0.034951393
230	0xbcf55624	-0.029948302
231	0xbcb66d2f	-0.02226886
232	0xbd13b706	-0.036063217
233	0xbdf849a5	-0.121234216
234	0xbce6cf45	-0.028175006
235	0xbb469b33	-0.0030304908
236	0xbd1df611	-0.038564745
237	0x3c681b6b	0.014166693
238	0xbd8784f3	-0.06617155
239	0xbd1717f8	-0.036888093
240	0xbc0eaeea	-0.008708695
241	0xbd9fd185	-0.078036346
242	0xbd09466d	-0.03351443
243	0x3dbf3196	0.0933563
244	0xbdaac74f	-0.08338796
245	0xbdc386f1	-0.095472224
246	0x3d0f4e2b	0.034986656
247	0x3cdc6b97	0.026906772
248	0xbd8875fa	-0.06663127
249	0xbca5a246	-0.02021898
250	0x37dd2b91	2.636554e-05
251	0xbdbe8eb5	-0.09304563
252	0x3d41a4d4	0.047276333
253	0xbc9a83e7	-0.018861724
254	0xbdc31028	-0.09524566
255	0x3cc392f7	0.02387379

encoder.blocks.1.conv.3.bias f4 [32]
0	0x3d02406f	0.03179973
1	0xbce8da05	-0.028424272
2	0xbd0e7156	-0.034776054
3	0x3d42ee59	0.047590587
4	0xbccffd9f	-0.02538949
5	0x3c9daa59	0.019246267
6	0xbd54d48a	-0.051960506
7	0x3cafde40	0.021468282
8	0xbd4ee81f	-0.050514337
9	0x3d1945b2	0.037419982
10	0x3d1407e3	0.036140334
11	0x3c72b2ef	0.014813169
12	0x3c3c72d7	0.011501989
13	0x3dc04622	0.09388377
14	0xbc4ba714	-0.012429971
15	0xbcdbb82b	-0.026821217
16	0xbdb125e0	-0.08649802
17	0xbd2aec06	-0.041728996
18	0x3d6487df	0.05579364
19	0x3da162a3	0.078801416
20	0xbca96066	-0.02067585
21	0xbd888593	-0.06666102
22	0xbc61ab01	-0.013773681
23	0xbd492a0b	-0.04911236
24	0xbceebc50	-0.029142529
25	0x3d01f007	0.03172305
26	0x3b14e7ac	0.0022721095
27	0xbd41b640	-0.047292948
28	0x3dc4786d	0.09593282
29	0xbc056cfb	-0.008143659
30	0x3d5f0ad1	0.054453675
31	0x3c1d9480	0.009617925

encoder.blocks.1.conv.4.weight f4 [32]
0	0x3f8d86c6	1.1056755
1	0x3f804625	1.0021406
2	0x3f8364b8	1.0265112
3	0x3f72378e	0.9461602
4	0x3f7ae70c	0.980088
5	0x3f7a6e8d	0.9782494
6	0x3f6afcf0	0.917922
7	0x3f83f763	1.0309871
8	0x3f85f5c6	1.0465629
9	0x3f674f74	0.9035561
10	0x3f97a0c1	1.1845933
11	0x3f8c8f63	1.0981258
12	0x3f6fc05e	0.93652904
13	0x3f898f8e	1.0746934
14	0x3f73b226	0.9519371
15	0x3f6abbdc	0.916929
16	0x3f62f04a	0.886479
17	0x3f6689a5	0.9005378
18	0x3f8f0093	1.117205
19	0x3f8a7b9e	1.0818975
20	0x3f684351	0.90727717
21	0x3f646bc0	0.89226913
22	0x3f722a6b	0.94595975
23	0x3f702b26	0.9381584
24	0x3f6d7a9c	0.9276521
25	0x3f7b09e5	0.9806197
26	0x3f700a88	0.9376607
27	0x3f7bb7dc	0.9832742
28	0x3f9058c0	1.1277084
29	0x3f79a2a2	0.9751378
30	0x3f6c407c	0.92285895
31	0x3f78b38c	0.97148967

encoder.blocks.1.conv.4.bias f4 [32]
0	0xbbab53ca	-0.0052284943
1	0x3e13ff25	0.14452799
2	0x3e28382e	0.16427681
3	0xbe032246	-0.12806043
4	0xbd50a680	-0.050940037
5	0x3ded8ee2	0.11599518
6	0xbcdf6615	-0.027270356
7	0xbc57100c	-0.0131263845
8	0x3d318174	0.043336347
9	0xbe2c67cb	-0.16836469
10	0xbd3daf5f	-0.046309825
11	0x3e026f0b	0.12737672
12	0xbcd96aeb	-0.02654024
13	0x3e292282	0.1651707
14	0xbdd5b740	-0.10435343
15	0x3d4fcea9	0.050734196
16	0xbe405ee6	-0.18786201
17	0xbdf4cd7d	-0.11953256
18	0xbd3139f4	-0.04326816
19	0x3dfecb5c	0.124411315
20	0xbd32ef2a	-0.043685116
21	0xbd6ff486	-0.058582805
22	0xbe049d87	-0.12950717
23	0xbd209edf	-0.03921401
24	0xbd9402a4	-0.07227066
25	0x3e018194	0.12647086
26	0x3de7ef75	0.1132497
27	0x3ceed9e6	0.029156636
28	0x3da1e66d	0.07905278
29	0x3dfcd87f	0.12345981
30	0xbbd3e927	-0.006467003
31	0x3e014e11	0.12627436

encoder.blocks.1.conv.4.running_mean f4 [32]
0	0xbfb5de08	-1.4208384
1	0xbf23ecb7	-0.64033073
2	0xbf39c744	-0.7256968
3	0xbf336280	-0.70072174
4	0xbf80fb9f	-1.0076789
5	0xc006022f	-2.0938833
6	0x3f573260	0.8406124
7	0x3fb15b23	1.3855938
8	0xbfd4d19e	-1.662647
9	0x3ff7c132	1.9355834
10	0xbfa32f86	-1.2748878
11	0xbf0a2f4c	-0.5397842
12	0xbfee9f35	-1.8642336
13	0xbf4118c1	-0.75428396
14	0x3fd80c76	1.6878803
15	0xbf7087b6	-0.9395708
16	0xc00534c4	-2.0813456
17	0xc01b4136	-2.4258552
18	0xbfb64a0e	-1.424135
19	0x3f97d9f2	1.1863387
20	0xbf557a09	-0.83389336
21	0x3fc0a397	1.5049924
22	0xbf8e7a7a	-1.1131127
23	0x3f10449f	0.5635471
24	0xbf80100a	-1.0004895
25	0xc0054c54	-2.0827837
26	0xbfcb0eb2	-1.586386
27	0xc03673aa	-2.8508096
28	0x3da93b39	0.08263249
29	0xbf4258dd	-0.75916845
30	0xbfda5952	-1.7058508
31	0xbe331b2e	-0.17490837

encoder.blocks.1.conv.4.running_var f4 [32]
0	0x40ca85ec	6.328848
1	0x40e0dc36	7.026881
2	0x411f9308	9.973396
3	0x40fec56a	7.9615984
4	0x40b0ea68	5.528614
5	0x4055b2cb	3.3390377
6	0x41b8f16c	23.117882
7	0x41b35e9b	22.421194
8	0x40e0c925	7.024554
9	0x41b8822a	23.063557
10	0x4126173e	10.380674
11	0x4112cb62	9.174654
12	0x41ecae6b	29.585165
13	0x40f80368	7.750416
14	0x42073b17	33.807705
15	0x40c9b4ec	6.303335
16	0x41ca07bc	25.253777
17	0x42472996	49.79061
18	0x41080b52	8.502764
19	0x4114f73a	9.310358
20	0x41efec2f	29.990324
21	0x41cd982c	25.699303
22	0x41a32b4c	20.396141
23	0x41a67b6b	20.810263
24	0x419648c1	18.785524
25	0x408e6dce	4.450904
26	0x40b14a26	5.5403013
27	0x40b4c341	5.6488347
28	0x4133c7df	11.236297
29	0x4107a9cd	8.478955
30	0x41e46208	28.547867
31	0x41126f95	9.152242

encoder.blocks.1.skip.weight f4 [32, 16, 1, 1]
0	0xbcb57fa0	-0.022155583
1	0xbd60ca30	-0.05488032
2	0x3e0f74a6	0.14009342
3	0x3e488f72	0.1958597
4	0xbe45cf5e	-0.19317386
5	0xbe2070f4	-0.15668088
6	0x3d676958	0.056496948
7	0xbd8edddc	-0.0697591
8	0xbe5af442	-0.2138224
9	0xbe50246e	-0.20326397
10	0xbdfddb40	-0.12395334
11	0xbde5b71c	-0.11216566
12	0xbe68d370	-0.22736907
13	0x3e7c6e04	0.24651343
14	0xbb716280	-0.0036832392
15	0xbe7b3330	-0.24531245
16	0xbd1da5a8	-0.03848806
17	0xbe7bfb66	-0.2460762
18	0xbd8f6860	-0.0700233
19	0xbe5e9d8c	-0.21739787
20	0xbd836758	-0.06416196
21	0x3e7a842c	0.24464482
22	0x3e4001c4	0.18750674
23	0xbdfae748	-0.12251145
24	0x3d9c8978	0.076434076
25	0xbe20f3b4	-0.15717965
26	0x3b7b2100	0.003831923
27	0x3dfc0e28	0.123073876
28	0x3e15af96	0.14617762
29	0x3e5f8a78	0.21830165
30	0x3dd90b4c	0.10597858
31	0x3e36da92	0.17856815
32	0x3e06beec	0.13158768
33	0x3e1a1f02	0.15050891
34	0xbe5fbda2	-0.21849683
35	0xbda24958	-0.079241455
36	0xbe518986	-0.20462617
37	0x3da924dc	0.082589835
38	0x3d3f1ac0	0.04665637
39	0x3e12e00e	0.14343283
40	0xbe380436	-0.17970356
41	0xbd517b70	-0.05114311
42	0x3d5fbf90	0.054626048
43	0x3cdf68b0	0.027271599
44	0x3e6f5b66	0.2337471
45	0x3d837e0c	0.06420526
46	0xbe26dcc6	-0.16295156
47	0xbe0d0762	-0.13772348
48	0x3ded4bf0	0.115867496
49	0xbe3d76a4	-0.18502289
50	0xbda27b24	-0.079336435
51	0xbe3edcb4	-0.18638879
52	0xbd801afc	-0.06255147
53	0xbe36cfbe	-0.17852685
54	0xbdf0da3c	-0.11760375
55	0xbe1c4260	-0.15259695
56	0x3e78784c	0.2426464
57	0x3aed0500	0.0018083155
58	0xbe3c0c4a	-0.18364063
59	0x3e17070a	0.14748779
60	0xbd97417c	-0.07385537
61	0xbdf738b4	-0.12071362
62	0x3e7a2ea0	0.24431849
63	0xbe7e4184	-0.2482968
64	0x3e76e706	0.24111566
65	0x3e3a7796	0.18209681
66	0x3e24680c	0.16055316
67	0xbe749d7a	-0.23888198
68	0x3cc2a1d0	0.023758799
69	0x3c7a1d00	0.015265703
70	0xbdc38450	-0.09546721
71	0xbe137858	-0.14401376
72	0x3e5c698c	0.21524638
73	0x3e5bc42a	0.2146155
74	0x3e1ace6c	0.15117806
75	0x3daf7f48	0.08569199
76	0x3e43d556	0.1912435
77	0x3decd8cc	0.11564788
78	0xbe39bfb8	-0.18139541
79	0xbdc28e1c	-0.094997615
80	0x3e23e024	0.16003472
81	0x3daea8f4	0.08528319
82	0xbd7af368	-0.061267287
83	0xbcac8d20	-0.021063387
84	0xbe1da462	-0.15394738
85	0xbe7d7090	-0.2474997
86	0xbe63706c	-0.22210854
87	0xbd06b448	-0.032886773
88	0xbdac5af0	-0.084157825
89	0x3c342ec0	0.010997474
90	0x3dcd4bf8	0.100242555
91	0xbe77df2e	-0.2420623
92	0xbe2a0dd4	-0.16606838
93	0x3e1ddd66	0.15416488
94	0xbe0b0bf2	-0.13578776
95	0x3e432c9c	0.19059986
96	0x3d803940	0.062609196
97	0xbde5de78	-0.11224073
98	0x3d6fde70	0.058561742
99	0xbe395f8a	-0.18102852
100	0xbe7b7b7e	-0.24558827
101	0x3e5be8d0	0.2147553
102	0x3d320938	0.043465823
103	0xbe2b2d3c	-0.16716474
104	0x3dec43fc	0.115364045
105	0xbe3d2388	-0.18470585
106	0xbdd51948	-0.10405213
107	0x3e533e92	0.20629337
108	0xbd4f2cc0	-0.050579786
109	0xbb9cbf40	-0.004783541
110	0x3de6466c	0.11243901
111	0xbe302e34	-0.17205125
112	0xbe6bfda4	-0.23045975
113	0x3d9d3394	0.07675853
114	0xbe52851a	-0.20558587
115	0xbd147b78	-0.03625056
116	0x3e0ed840	0.1394968
117	0xbd5ab5c0	-0.053395987
118	0x3c0bdc80	0.008536458
119	0xbdaa8578	-0.083262384
120	0xbb4dbd00	-0.003139317
121	0xbe065af4	-0.13120633
122	0xbdffb504	-0.12485698
123	0x3dac4ff8	0.0841369
124	0x3e4bae2a	0.19890657
125	0xbe7b0fa4	-0.24517685
126	0xbd97a630	-0.074047446
127	0x3d6357c0	0.055503607
128	0xbd092768	-0.033484846
129	0xbdef24a0	-0.116769075
130	0xbd3d2f30	-0.04618758
131	0xbe3379ea	-0.17526975
132	0x3ceb8620	0.02875048
133	0xbe7adaaa	-0.24497476
134	0x3e03e374	0.12879735
135	0xbe729ec0	-0.23693371
136	0xbe0e5500	-0.13899612
137	0x3db89dd0	0.09014475
138	0xbde6331c	-0.11240217
139	0x3de663ac	0.1124948
140	0x3dba0914	0.09083763
141	0xbe4f985e	-0.20272967
142	0x3d482018	0.048858732
143	0x3d1e0048	0.038574487
144	0x3e100014	0.1406253
145	0xbe12f90a	-0.14352813
146	0xbe3e6f8a	-0.18597236
147	0x3bbe93c0	0.005815953
148	0xbcffc600	-0.031222343
149	0xbb4aa200	-0.0030919313
150	0xbd6de278	-0.058077306
151	0x3c2db540	0.010602295
152	0xbdbf6328	-0.093450844
153	0xbd60db78	-0.0548968
154	0x3e4a655c	0.19765228
155	0x3df20630	0.118175864
156	0xbe612cfc	-0.21989816
157	0x3de1e9e4	0.11030939
158	0x3e2f8eb2	0.17144278
159	0xbd412750	-0.047156632
160	0xbd68c728	-0.056830555
161	0x3d4a1ea8	0.049345642
162	0xbe3686be	-0.17824838
163	0xbe4fa774	-0.20278722
164	0xbe7e033a	-0.24805918
165	0x3e27ca26	0.16385707
166	0x3c6dfc40	0.014525473
167	0x3e2caa66	0.16861877
168	0x3d876f6c	0.06613049
169	0xbccab820	-0.024746
170	0xbd93412c	-0.07190165
171	0xbdd59498	-0.10428733
172	0xbe0b4f8a	-0.1360456
173	0x3c61ae00	0.013774395
174	0x3cbf0d90	0.023321897
175	0x3d7b6a10	0.061380446
176	0x3e0073ae	0.12544128
177	0x3e55a47a	0.20863524
178	0x3d9bc6e4	0.07606295
179	0x3e1a27fa	0.15054312
180	0xbd105c70	-0.035244405
181	0xbe3df1b4	-0.18549234
182	0x3e483f52	0.19555405
183	0xbe57592a	-0.21030107
184	0x3e151e3c	0.14562315
185	0x3e7c27fe	0.24624631
186	0x3e2e0310	0.16993356
187	0xbcff10b0	-0.031135887
188	0xbe2613c6	-0.1621848
189	0x3e114154	0.14185077
190	0x3e1ae6b2	0.15127066
191	0x3e76d0e0	0.24103117
192	0xbe67c5c8	-0.22634041
193	0xbe7a6192	-0.24451283
194	0xbc392d60	-0.011302322
195	0x3c5fd820	0.013662368
196	0xbc833fb0	-0.01602158
197	0x3e31e35a	0.17371884
198	0xbd1a1cf0	-0.037625253
199	0xbe6dfece	-0.23241732
200	0xbe475288	-0.19465077
201	0xbe282b50	-0.16422772
202	0x3c171180	0.009220481
203	0x3e654744	0.22390467
204	0x3e45cc52	0.19316223
205	0x3e70dbb8	0.23521316
206	0xbda837bc	-0.082137555
207	0xbe61163e	-0.21981141
208	0xbd03db48	-0.032191545
209	0xbc955e30	-0.018233389
210	0x3da1d8f4	0.07902709
211	0x3e444b60	0.19169378
212	0x3d701220	0.058611035
213	0xbe6f14f2	-0.23347834
214	0xbdd22948	-0.1026178
215	0xbbcdc440	-0.0062794983
216	0xbdd1a0d0	-0.10235751
217	0xbd331f50	-0.043731034
218	0x3e5033fc	0.2033233
219	0xbc341780	-0.010991931
220	0x3df683e0	0.12036872
221	0x3e3ffd72	0.18749025
222	0xbda192dc	-0.07889339
223	0x3c93bda0	0.018034756
224	0xbe58e5b4	-0.21181375
225	0xbe139f1a	-0.14416161
226	0x3d8aa114	0.067690045
227	0xbe6def04	-0.23235708
228	0x3e11b372	0.14228609
229	0x3ca73530	0.020411104
230	0xbccd7f90	-0.02508524
231	0xbdddc3bc	-0.10828349
232	0xb9d19400	-0.00039973855
233	0xbe5bd6da	-0.21468678
234	0x3d6133e8	0.054981142
235	0xbded9464	-0.11600569
236	0x3e79c28e	0.24390623
237	0xbe7a346a	-0.24434057
238	0x3e53df56	0.20690665
239	0x3e7b3ea4	0.24535614
240	0x3dfecd24	0.12441471
241	0xbd957024	-0.0729678
242	0x3e3c18b8	0.18368804
243	0x3e6e1758	0.23251092
244	0xbd04aed8	-0.032393306
245	0xbe66105e	-0.22467181
246	0x3dc6b070	0.097016215
247	0x3e6f2114	0.23352462
248	0x3e41b002	0.18914798
249	0xbe6b1124	-0.22955757
250	0xbe157c08	-0.14598095
251	0x3e3b1fe8	0.1827389
252	0x3e672374	0.22572118
253	0xba5a9200	-0.0008337796
254	0xbd3af798	-0.04564628
255	0xbd37ab90	-0.04484135

encoder.blocks.1.skip.bias f4 [32]
0	0x3e631fc6	0.2218009
1	0x3d6f3a18	0.058405012
2	0x3e65f1ce	0.22455522
3	0xbe003b04	-0.12522513
4	0xbe05963a	-0.13045588
5	0xbe278578	-0.16359508
6	0x3df8a6a4	0.12141159
7	0xbcb35000	-0.021888733
8	0xbdf3821c	-0.11890051
9	0x3c7c5800	0.01540184
10	0xbe6a52c8	-0.22883141
11	0xbe166568	-0.14687121
12	0x3e635626	0.22200832
13	0x3daf0838	0.085464895
14	0xbe7a91f4	-0.24469739
15	0xbd37f4d0	-0.044911206
16	0x3e229c9a	0.15880051
17	0xbdb7c16c	-0.08972439
18	0x3e704586	0.23464021
19	0xbda7394c	-0.081652254
20	0x3e4e8b92	0.2017043
21	0xbe49a382	-0.1969128
22	0xbd64dfc0	-0.055877447
23	0xbe7f8d6e	-0.24956295
24	0x3d61d390	0.055133402
25	0xbe6c0f84	-0.23052794
26	0x3e7f9720	0.24959993
27	0x3c60b260	0.013714403
28	0x3d1e06e0	0.038580775
29	0xbdd74638	-0.1051144
30	0x3e26f38a	0.1630384
31	0x3de9331c	0.113867015
