toyshapes/pinets_feedback/model_15.pth (torch, 466881 bytes, 71 tensors)

encoder.blocks.0.conv.0.weight f4 [16, 1, 3, 3]
0	0xbe121b84	-0.14268309
1	0xbe593d6b	-0.21214835
2	0x3e8f7393	0.28017864
3	0xbdc217f5	-0.09477226
4	0x3e4b3b4b	0.19846837
5	0xbd498d35	-0.04920693
6	0xbd2558b3	-0.040367793
7	0x3daee8df	0.085405104
8	0xbcc20ad5	-0.023686806
9	0xbe553a1f	-0.20822953
10	0x3e15a2b7	0.14612852
11	0xbdc747ce	-0.097304925
12	0xbdf01da7	-0.11724406
13	0x3b2162c1	0.0024625512
14	0x3ea0d380	0.31411362
15	0xbdf03439	-0.11728711
16	0x3db2e593	0.08735194
17	0xbdedb2af	-0.11606347
18	0x3e9f9239	0.31166247
19	0xbe5c2891	-0.2149985
20	0x3e90ef6d	0.28307667
21	0xbe09cf2b	-0.13457935
22	0x3d07f05c	0.03318821
23	0xbc20b4a4	-0.009808693
24	0x3dca9d62	0.098933
25	0xbeae97fa	-0.34100324
26	0x3c9ec8f8	0.019382939
27	0xbec39f5e	-0.38207525
28	0x3c2e1bb1	0.010626719
29	0xbe813d13	-0.25241908
30	0x3e93fc8f	0.28903624
31	0xbd27d93b	-0.04097865
32	0x3e80bb0f	0.25142714
33	0x3dda7764	0.10667303
34	0x3e85db8c	0.26144063
35	0xbdcf9e88	-0.10137659
36	0xbe4c598c	-0.19956034
37	0x3eb5a32c	0.35476053
38	0xbe3cd4fc	-0.18440622
39	0xbe84fe66	-0.2597534
40	0x3dbed631	0.093181975
41	0x3dd08270	0.10181129
42	0x3e036e26	0.12834987
43	0xbe19bdf9	-0.15013875
44	0x3e398675	0.18117698
45	0xbd31c13a	-0.043397166
46	0xbe1ec0f4	-0.15503293
47	0x3d1e1c0b	0.038600963
48	0x3e2929c5	0.1651984
49	0xbe5c2be4	-0.21501118
50	0x3ed003c2	0.40627867
51	0x3d7c2cd1	0.061566178
52	0xbe7e9a68	-0.24863589
53	0xbd6e9957	-0.058251705
54	0xbe92a575	-0.2864186
55	0x3db3ce5b	0.087795936
56	0xbe700f7d	-0.23443408
57	0x3e5bf135	0.21478732
58	0x3e444953	0.19168596
59	0xbdcdd729	-0.10050804
60	0x3d9424b2	0.072335616
61	0x3de0c28e	0.10974608
62	0x3c93bf9d	0.018035704
63	0x3e480b5a	0.1953558
64	0xbd8a61f1	-0.06756962
65	0xbe71cb10	-0.23612618
66	0xbe3cc68d	-0.18435116
67	0xbca949c7	-0.020665063
68	0xbd685af0	-0.05672735
69	0x3e3cd20e	0.18439505
70	0x3d5b8002	0.053588875
71	0x3de9d612	0.11417784
72	0xbdfd91e2	-0.123813406
73	0x3e43f8ab	0.19137828
74	0xbe464b7d	-0.19364734
75	0xbe17ad6d	-0.1481225
76	0x3e93d1d5	0.28871027
77	0xbe5279ad	-0.20554228
78	0x3d5aa980	0.053384304
79	0x3eec3ecc	0.4614166
80	0xbe5372f5	-0.20649321
81	0x3db42f69	0.08798105
82	0xbcc2a57b	-0.023760548
83	0xbd44d8fb	-0.04805849
84	0xbea8bc7f	-0.3295631
85	0x3e717641	0.23580267
86	0xbe9a2b87	-0.30111334
87	0x3e9e09ee	0.3086695
88	0xbe800181	-0.25001147
89	0x3ea54ef2	0.32286793
90	0x3e4dfaa4	0.20115143
91	0x3dad0154	0.08447519
92	0x3e984cf7	0.2974622
93	0xbe2a963a	-0.1665887
94	0x3e489d27	0.19591199
95	0x3eee7d11	0.46579793
96	0x3d5e69b8	0.05430004
97	0x3ed99792	0.4249845
98	0xbe525440	-0.20539951
99	0xbd2fd094	-0.042923525
100	0x3e62f5e1	0.22164108
101	0xbe3df059	-0.18548717
102	0xbcff3be6	-0.031156491
103	0x3ecae7fa	0.3963011
104	0xbe93f130	-0.2889495
105	0xbce243eb	-0.027620276
106	0xbe62652f	-0.22108911
107	0x3e89458c	0.26810873
108	0x3e3c1f39	0.18371285
109	0xbeb96e56	-0.36216992
110	0xbe37862c	-0.17922276
111	0xbe548daf	-0.20757173
112	0x3db807ea	0.089858845
113	0x3e6986cd	0.22805329
114	0x3d9f9af7	0.07793229
115	0xbe1c4a6e	-0.15262768
116	0x3ea9a0d6	0.3313052
117	0xbe890721	-0.2676325
118	0xbd02ce83	-0.031935226
119	0x3e37b484	0.17939955
120	0xbeaf4aa5	-0.34236637
121	0x3d1ac4f9	0.037785504
122	0xbe858936	-0.26081246
123	0x3aaca270	0.0013170969
124	0x3da5db5c	0.0809848
125	0x3eddcb07	0.4331896
126	0x3d88e28a	0.06683834
127	0xbe899c04	-0.26876843
128	0xbe4550fe	-0.19269177
129	0x3eaf2aeb	0.3421243
130	0xbe9c5409	-0.30532864
131	0x3e875e6a	0.2643922
132	0x3e38fc04	0.18064886
133	0x3c563036	0.013073018
134	0xbd9e9ab9	-0.07744355
135	0xbe11cade	-0.14237544
136	0x3e8ee538	0.27909255
137	0xbe43a095	-0.19104226
138	0x3d040037	0.032226767
139	0x3e5f0e48	0.21782792
140	0xbe5db1aa	-0.21649805
141	0x3d07e669	0.03317872
142	0xbdc5a1eb	-0.09650024
143	0x3cd94bcd	0.026525402

encoder.blocks.0.conv.0.bias f4 [16]
0	0xbdaba6dc	-0.08381435
1	0x3ed438ee	0.41449684
2	0xbe747312	-0.23872021
3	0xbe18284b	-0.1485912
4	0x3d679aef	0.05654424
5	0x3d5a09cb	0.053231996
6	0x3ea46863	0.3211089
7	0x3e456fe5	0.19280966
8	0xbd8318de	-0.064012274
9	0xbe84b4a1	-0.2591906
10	0xbeb7c318	-0.35891032
11	0x3e19e98b	0.15030496
12	0x3eafc630	0.34330893
13	0x3b84dee0	0.004054889
14	0xbe559222	-0.20856526
15	0x3e1d8374	0.15382177

encoder.blocks.0.conv.1.weight f4 [16]
0	0x3f670961	0.90248686
1	0x3f72e628	0.9488244
2	0x3f82f603	1.0231327
3	0x3f7b5e16	0.9819044
4	0x3f8049d6	1.0022533
5	0x3f8051ed	1.0025002
6	0x3f5a6243	0.85306185
7	0x3f7d16f3	0.9886314
8	0x3f826f31	1.0190183
9	0x3f90a81b	1.1301302
10	0x3f7a3b95	0.97747165
11	0x3f8ccd41	1.1000139
12	0x3f7e601e	0.99365413
13	0x3f584fe0	0.8449688
14	0x3f821452	1.0162451
15	0x3f873481	1.0562898

encoder.blocks.0.conv.1.bias f4 [16]
0	0x3cc67dfa	0.024229992
1	0x3cd85484	0.026407488
2	0xbc4cdade	-0.012503354
3	0xbcafc718	-0.02145724
4	0x3e2f9e53	0.1715024
5	0x3d924a16	0.07143037
6	0xbc65d2da	-0.014027322
7	0xbde09005	-0.109649695
8	0x3d5d6459	0.054050777
9	0xbc1c8e10	-0.009555355
10	0x3cb33a9d	0.021878535
11	0x3e0bc663	0.13649897
12	0xbc97e98d	-0.018543983
13	0x3c19255b	0.009347285
14	0x3d8fab1d	0.07015059
15	0x3e391799	0.18075408

encoder.blocks.0.conv.1.running_mean f4 [16]
0	0xbda2f0e8	-0.079561055
1	0x3ecb0fb2	0.39660412
2	0xbe6708a8	-0.22561896
3	0xbdeafea0	-0.11474347
4	0x3d990748	0.07472092
5	0x3d3d2272	0.046175428
6	0x3eae1346	0.3399908
7	0x3e483bcc	0.1955406
8	0xbd007d58	-0.031369537
9	0xbe8729fd	-0.26399222
10	0xbd42613d	-0.047456015
11	0x3e2d4e94	0.16924506
12	0x3eaef5a5	0.34171787
13	0xbd169a60	-0.036768317
14	0xbe56fdd7	-0.2099527
15	0x3e10a0e9	0.14123882

encoder.blocks.0.conv.1.running_var f4 [16]
0	0x3a410f1f	0.0007364619
1	0x3a9b403f	0.0011844708
2	0x3ad4cfdd	0.0016236264
3	0x3b40ae8d	0.0029400915
4	0x3a7be3ad	0.00096088165
5	0x3aade402	0.0013266804
6	0x3af2e367	0.0018530906
7	0x3a891dd7	0.0010461163
8	0x3b42eda8	0.0029743705
9	0x3a6b66a9	0.0008979836
10	0x3d0d9688	0.034567386
11	0x3a4a138a	0.00077086
12	0x3aef9117	0.0018277493
13	0x3b8cbaeb	0.0042947433
14	0x3b2048a0	0.002445735
15	0x3a4c3586	0.0007789958

encoder.blocks.0.conv.3.weight f4 [16, 16, 3, 3]
0	0xbce9427e	-0.028474089
1	0x3d2253fa	0.039630868
2	0xbd723ccc	-0.05914001
3	0xbceb3549	-0.028711932
4	0xbd54b8f4	-0.051934198
5	0x3d7053e6	0.05867376
6	0xbb361291	-0.0027782063
7	0xbc69cf8a	-0.014270673
8	0xbcfb9a62	-0.030713264
9	0xbe109fd4	-0.1412347
10	0xbdcf17e9	-0.101119824
11	0xbce9e63e	-0.02855217
12	0xbda3615a	-0.07977553
13	0xbd4f3165	-0.050584216
14	0xbde94e2b	-0.113918625
15	0xbe13a62c	-0.14418858
16	0xbdc3f3db	-0.09567996
17	0x3ca872ee	0.020562615
18	0xbd3d2ccc	-0.0461853
19	0x3d2d524a	0.042314805
20	0xbd6da9a9	-0.05802313
21	0x3d915ba0	0.07097554
22	0xbd022569	-0.03177396
23	0x39b7c1a9	0.00035048768
24	0xbc92e022	-0.01792914
25	0x3d0d5e2d	0.03451364
26	0xbc8e6642	-0.017382745
27	0x3d0af858	0.033928245
28	0x3d3abfaf	0.04559296
29	0x3d8fc1f9	0.07019419
30	0xbd2cda31	-0.04220027
31	0x3df7c6de	0.12098478
32	0xba64b1bb	-0.00087239937
33	0x3ccc20a4	0.024917908
34	0x3af0b9df	0.0018365941
35	0x3dc26dc5	0.09493593
36	0xbd3fd5dc	-0.04683481
37	0xbdaa40e8	-0.08313161
38	0xbd9945e3	-0.07484033
39	0xbd0e4599	-0.034734342
40	0xbc74f8be	-0.014951883
41	0x3c4284ff	0.011872529
42	0xbdd02de5	-0.10165004
43	0xbdd572e5	-0.10422305
44	0xbd28b008	-0.0411835
45	0xbc1dd6a1	-0.009633691
46	0xbd2eeabf	-0.04270434
47	0xbb1d5c2f	-0.0024011245
48	0xbe3407ee	-0.1758115
49	0xbdcf9dcb	-0.101375185
50	0xbcd2004e	-0.02563491
51	0xbe0827a3	-0.1329637
52	0xbdec96a4	-0.1155217
53	0xbd91f911	-0.07127584
54	0x3e100cfe	0.14067456
55	0x3c094c9c	0.0083800815
56	0x3de0257f	0.10944652
57	0x3dc0339b	0.09384843
58	0x3d15e176	0.03659197
59	0x3d8866b9	0.06660218
60	0x3d325849	0.043541227
61	0x3ddf79fc	0.109119385
62	0x3d11386c	0.0354542
63	0xbbc86b18	-0.006116282
64	0xbdd0abef	-0.10189044
65	0xbd7852ab	-0.060625713
66	0xbca2c3b8	-0.019868717
67	0x3d1a1134	0.037614062
68	0x3c866fce	0.016410735
69	0xbdb1ae7b	-0.08675858
70	0xbd7f7c7c	-0.062374577
71	0x3b773649	0.0037721565
72	0x3d6c7243	0.057726156
73	0xbe1035e2	-0.14083055
74	0x3d4d764b	0.05016164
75	0xbe0c0d19	-0.13676871
76	0x3d8776aa	0.0661443
77	0xbde50d75	-0.11184207
78	0xbd5fc367	-0.05462971
79	0xbdf17728	-0.117903054
80	0xbd805ca0	-0.06267667
81	0xbdaf89ee	-0.0857123
82	0xbd04699b	-0.032327276
83	0x3b9cfb3c	0.0047906917
84	0x3cec4e6b	0.028845986
85	0xbd681898	-0.05666408
86	0x3d2a26bf	0.041540857
87	0x3d726e3b	0.059187155
88	0x3d953917	0.0728628
89	0x3c3d7c5a	0.011565292
90	0x3df20969	0.11818201
91	0x3d72f5ae	0.05931633
92	0x3b2ecb9d	0.0026671656
93	0x3e16ee52	0.1473935
94	0x3c807969	0.015682893
95	0x3d4e82e4	0.050417796
96	0x3ccf3ece	0.025298502
97	0x3dd64ed6	0.104642555
98	0x3dba20a3	0.09088256
99	0xbb2270b1	-0.0024786408
100	0x3d813b43	0.063101314
101	0xbd821a7b	-0.06352707
102	0xbd4e12f0	-0.05031103
103	0xbb1d9aad	-0.0024048493
104	0xbd5aebd1	-0.05344755
105	0xbc868250	-0.01641956
106	0xbd199062	-0.03749121
107	0xbb8e2e48	-0.0043390132
108	0x3d4da49a	0.050205804
109	0x3da5d111	0.08096517
110	0x3cf976d5	0.030452171
111	0x3e0a2673	0.1349123
112	0x3cce6247	0.025193347
113	0x3d89cab9	0.067281194
114	0xbb375bc1	-0.0027978274
115	0x3c579f9f	0.013160615
116	0xbcf489d3	-0.029850876
117	0xbe0c3997	-0.13693844
118	0xbddccf18	-0.107816875
119	0xbd3beac6	-0.045878194
120	0xbd60a4b2	-0.054844566
121	0xbdfa0156	-0.12207286
122	0x3d4312e2	0.04762543
123	0xbdb3d187	-0.087801985
124	0xbc4fa8b6	-0.012674501
125	0xbd2bbed7	-0.041930046
126	0x3db7069e	0.08936809
127	0xbd8a37a6	-0.06748895
128	0xbc8e0d9b	-0.017340472
129	0xbd1741f3	-0.03692813
130	0x3d0b78a1	0.034050588
131	0xbe0453c8	-0.12922585
132	0x3df1a41f	0.11798882
133	0xbd307300	-0.043078423
134	0x3dae7f4a	0.08520372
135	0xbd108045	-0.035278577
136	0x3ce2d604	0.027689941
137	0xbd1c3da1	-0.03814471
138	0xbda015ef	-0.078166835
139	0xbddbf57e	-0.10740183
140	0xbe0b2775	-0.1358927
141	0x3b2c074f	0.0026249473
142	0x3d732b9f	0.059367772
143	0xbc36b141	-0.011150659
144	0x3dc7562f	0.09733235
145	0x3d35f43a	0.044422366
146	0x3d1f42cf	0.038882073
147	0x3d95ac35	0.073082365
148	0xbce647ef	-0.028110472
149	0x3dc6690f	0.09688007
150	0xbd846022	-0.064636484
151	0x3d312e2a	0.043256916
152	0xbb91efaf	-0.0044536213
153	0x3c82d84a	0.015972275
154	0x3d3c6765	0.045997042
155	0x3c9f8eaa	0.019477207
156	0xbd3af776	-0.045646153
157	0xbdb5c6d8	-0.08875817
158	0xbd8f0fbb	-0.06985422
159	0xbd833076	-0.064057276
160	0xbde6e708	-0.112745345
161	0x3d52b6a2	0.051443703
162	0xbd575408	-0.052570373
163	0x3d7d86fd	0.061896313
164	0x3d7ac7b2	0.0612256
165	0x3e0ab4bc	0.13545507
166	0xbd00148f	-0.031269606
167	0x3e058884	0.13040358
168	0x3d0029fd	0.031290043
169	0xbc0c229b	-0.008553172
170	0xbd5d8fc9	-0.054092202
171	0x3daf7111	0.085664876
172	0x3db48064	0.08813551
173	0x3d82b1a8	0.063815415
174	0x3d745f4e	0.059661202
175	0x3d9eaac8	0.07747418
176	0xbdbe0419	-0.09278125
177	0xbddb0141	-0.106935985
178	0xbdfb21d1	-0.12262309
179	0xbc1b9002	-0.009494783
180	0x3ccae390	0.024766713
181	0xbcb974d5	-0.022638718
182	0xbda87d18	-0.08226985
183	0xbd966cd6	-0.073449776
184	0xb961da31	-0.00021538955
185	0xbdcb974a	-0.099409655
186	0x3cf48b73	0.02985165
187	0xbd9c9853	-0.07646241
188	0xbc053463	-0.008130166
189	0x3cf95b03	0.030438906
190	0xbd9829f0	-0.07429874
191	0xbcc9c4d1	-0.024629982
192	0x3b24474e	0.0025066915
193	0xbd9950a8	-0.07486087
194	0xbde19d07	-0.11016279
195	0x3c94cbf1	0.018163653
196	0xbe0be2b4	-0.13660699
197	0x3d55b375	0.052173097
198	0x3b897377	0.0041946727
199	0x3d72891c	0.05921279
200	0x3e13f2aa	0.14448038
201	0x3d12a5ee	0.035802774
202	0xbbb423aa	-0.0054974156
203	0x3e14c69c	0.14528888
204	0x3d0e5d46	0.03475692
205	0x3bcb428e	0.0062030023
206	0x3d88955a	0.066691115
207	0xbd1f4b63	-0.038890254
208	0x3d8e252c	0.06940684
209	0xbd083d53	-0.03326161
210	0xbb982085	-0.0046425485
211	0xbd1191b7	-0.035539355
212	0xbd3acc4d	-0.045604993
213	0xbc01586b	-0.007894616
214	0xbcfd6d1b	-0.030935815
215	0xbd8f90dd	-0.07010052
216	0xbc721903	-0.014776471
217	0x3e100bc1	0.14066984
218	0xbc789299	-0.01517167
219	0xbd1dee74	-0.038557485
220	0x3e59e0d8	0.21277177
221	0xbd055752	-0.03255398
222	0xbdb2373f	-0.087019436
223	0x3dd3a072	0.10333337
224	0x3dc7166f	0.09721076
225	0xbcafdfd1	-0.021469029
226	0x3cb7372c	0.022365175
227	0xbc465da1	-0.012107284
228	0x3d891b5f	0.06694674
229	0xbd752f88	-0.059859782
230	0x3e62b37f	0.22138785
231	0x3df6b039	0.120453306
232	0xbb5579a1	-0.0032573717
233	0xbd895d96	-0.06707303
234	0x3ce14064	0.027496524
235	0xbc0e5861	-0.008688063
236	0x3e112bd1	0.14176871
237	0x3d0bc772	0.034125753
238	0xbc1946f9	-0.0093553
239	0x3ddb63e7	0.10712414
240	0x3dd5bea4	0.104367524
241	0x3c96e440	0.018419385
242	0x3d98300c	0.07431039
243	0xba7ddb4d	-0.00096838624
244	0x3e1dd1ac	0.15412015
245	0xbd300923	-0.042977463
246	0x3d00e564	0.031468764
247	0xbd84c2e1	-0.06482483
248	0x3db683a8	0.0891183
249	0xbb1a6bd0	-0.0023562796
250	0x3cf37610	0.029719383
251	0xbd633f0f	-0.05548006
252	0x3dc2958d	0.09501181
253	0x3df165cf	0.117869966
254	0x3dd27246	0.10275702
255	0x3deea251	0.11652053

encoder.blocks.0.conv.3.bias f4 [16]
0	0xbb53bff6	-0.0032310463
1	0x3cab8230	0.020936102
2	0xbd854b89	-0.06508548
3	0xbd7136a4	-0.05889
4	0x3ce9f233	0.028557872
5	0x3d4df8e2	0.05028618
6	0x3d820302	0.0634823
7	0x3d18e2d6	0.037325703
8	0x3d3ce3a5	0.046115536
9	0xbd88b095	-0.06674305
10	0x3cdc0c52	0.026861344
11	0x3c72ea8b	0.014826427
12	0xbd517c30	-0.051143825
13	0x3d35b958	0.04436621
14	0x3d047501	0.032338146
15	0x3cb22f1f	0.021750985

encoder.blocks.0.conv.4.weight f4 [16]
0	0x3f62ebf3	0.8864128
1	0x3f724947	0.9464306
2	0x3f5498fc	0.83045936
3	0x3f91b0e0	1.1382103
4	0x3f846aca	1.034509
5	0x3f64ef5e	0.89427745
6	0x3f7e98fe	0.994522
7	0x3f62e773	0.88634413
8	0x3f66f6dc	0.9022043
9	0x3f834d20	1.0257912
10	0x3f7dc75b	0.9913232
11	0x3f6d90bd	0.9279898
12	0x3f803796	1.0016963
13	0x3f6b44a5	0.9190162
14	0x3f639292	0.88895524
15	0x3f7d280e	0.98889244

encoder.blocks.0.conv.4.bias f4 [16]
0	0x3c132619	0.008981251
1	0x3ca1ea14	0.019764937
2	0xbd9360d2	-0.071962014
3	0xbdb3f336	-0.08786623
4	0x3d89da91	0.06731141
5	0xbd7358ef	-0.059410986
6	0x394ca283	0.00019515496
7	0x3cd4a465	0.025957296
8	0x3d094625	0.03351416
9	0x3afc4b25	0.0019248469
10	0x3d3527ee	0.044227533
11	0x3d445f22	0.04794229
12	0xbce6cb08	-0.028172985
13	0x3bb47860	0.005507514
14	0xbc7fc30f	-0.01561047
15	0x3ba45b09	0.005015735

encoder.blocks.0.conv.4.running_mean f4 [16]
0	0xbea16010	-0.31518602
1	0x3efe002f	0.49609515
2	0xbf27d4b9	-0.65558964
3	0xbdb8ef45	-0.09030012
4	0xbe5ff497	-0.21870647
5	0x3fc25bc5	1.5184256
6	0x3dc8e201	0.09808732
7	0x3f20f8b0	0.62879467
8	0xbf5b70ce	-0.85719
9	0x3f550ee3	0.8322584
10	0xbda40a95	-0.08009831
11	0xbf8cd626	-1.1002853
12	0x3f3ba476	0.7329782
13	0xbf3ca4b1	-0.736888
14	0xbf6faada	-0.93620074
15	0xbe8d66e7	-0.2761757

encoder.blocks.0.conv.4.running_var f4 [16]
0	0x3f493a72	0.78604805
1	0x3fbb7330	1.4644527
2	0x3fb3aeb1	1.4037687
3	0x3edc0194	0.42969954
4	0x3f1b25a2	0.606043
5	0x4078daeb	3.8883617
6	0x3ecf0782	0.40435416
7	0x3f5aa524	0.85408235
8	0x3fb1a1e7	1.3877534
9	0x3fe4722c	1.7847342
10	0x3f49cd0d	0.7882851
11	0x4014bcf2	2.3240323
12	0x3fc8e4c5	1.5694815
13	0x402f97c9	2.7436392
14	0x403d3e64	2.956933
15	0x3f26077e	0.6485518

encoder.blocks.0.skip.weight f4 [16, 1, 1, 1]
0	0xbd826340	-0.06366587
1	0xbf3d5722	-0.7396108
2	0x3d3a48a0	0.045479417
3	0xbeb2c00c	-0.34912145
4	0x3f62fd9e	0.8866824
5	0xbecaf878	-0.39642692
6	0x3f626fbe	0.88451755
7	0x3f538cc0	0.8263664
8	0xbf51ede6	-0.8200363
9	0xbe48e668	-0.19619143
10	0xbec1df18	-0.3786552
11	0xbf341d70	-0.7035742
12	0x3e57ef00	0.21087265
13	0xbee60b78	-0.44930625
14	0xbf46f07e	-0.7771071
15	0xbe06b4f0	-0.1315496

encoder.blocks.0.skip.bias f4 [16]
0	0xbe4852f8	-0.195629
1	0x3f219090	0.6311121
2	0x3e86dafc	0.26338947
3	0x3f7f2f92	0.9968196
4	0xbf4b8fac	-0.795161
5	0xbf0d03d6	-0.5508398
6	0x3da9b260	0.082859755
7	0x3f6a9ec0	0.91648483
8	0x3f068380	0.52544403
9	0x3f539584	0.8265002
10	0xbeff94d8	-0.49918246
11	0xbf10742e	-0.56427276
12	0xbf6e9eaa	-0.9321085
13	0x3f368e7c	0.71311164
14	0x3e8055f8	0.2506559
15	0x3f625f20	0.884264

encoder.blocks.1.conv.0.weight f4 [32, 16, 3, 3]
0	0x3d940f29	0.07229454
1	0x3dea8586	0.11451249
2	0x3c967520	0.018366396
3	0xbd37e2b7	-0.044893946
4	0xbd75cd34	-0.06001015
5	0x3cdd9870	0.027050227
6	0xbd08f639	-0.03343794
7	0xbd2e29c0	-0.042520285
8	0xbd39c2f8	-0.045351952
9	0x3c9742f1	0.018464537
10	0x3dbe0f4b	0.09280261
11	0x3da9530c	0.08267793
12	0x3dcd3314	0.10019508
13	0xbb00b642	-0.0019639884
14	0x3cb79112	0.022408042
15	0x3e0b23bc	0.1358785
16	0x3df8fb78	0.12157339
17	0x3ddb29cb	0.10701331
18	0x3b8b17af	0.0042447667
19	0xbc9cd555	-0.019144693
20	0x3d5018c3	0.050804865
21	0xbd8f211c	-0.06988737
22	0x3d472e51	0.048628155
23	0xbc6f2f39	-0.014598661
24	0xbdceee52	-0.1010405
25	0x3d0e5204	0.034746185
26	0x3dfe7624	0.12424877
27	0x3c491978	0.012274139
28	0xbd9ef8ad	-0.07762275
29	0xbd6c2414	-0.057651594
30	0x3d5b6e2f	0.053571876
31	0xbced2079	-0.028946148
32	0x3cdb90b0	0.02680239
33	0xbce63986	-0.028103601
34	0x3c4056e5	0.011739467
35	0xbd6e3dde	-0.05816447
36	0x3bbcd040	0.00576213
37	0xbcf0e14d	-0.029404307
38	0x3d531343	0.05153204
39	0x3c6773c5	0.014126723
40	0xbd267493	-0.040638518
41	0x3c521df9	0.012824529
42	0x3c9ef243	0.019402629
43	0xbd105404	-0.035236374
44	0x3d7ad704	0.06124021
45	0x3e1c54b6	0.1526669
46	0x3d531f68	0.051543623
47	0x3df6cbbc	0.12050578
48	0x3dd1a4ef	0.10236537
49	0x3d9d8971	0.076922305
50	0x3e08d7a0	0.13363504
51	0x3c96659b	0.018358996
52	0x3d22c1c5	0.039735574
53	0x3e0a825a	0.13526288
54	0x3dbb4eb3	0.0914587
55	0x3e078e37	0.13237844
56	0x3e039cdf	0.1285281
57	0x3dc3df10	0.0956403
58	0x3dfc9377	0.12332814
59	0x3dd2af47	0.10287338
60	0xbd653250	-0.055956185
61	0x3c2674fd	0.010159728
62	0x3d17b94a	0.03704194
63	0x3dbf55cb	0.093425356
64	0x3db14e98	0.08657569
65	0xbd2c709f	-0.04209959
66	0xbc5cd575	-0.0134786265
67	0x3d16f7ba	0.036857344
68	0x3c038bb5	0.008028914
69	0x3d48805f	0.04895055
70	0x3d773b86	0.0603595
71	0x3db18085	0.08667091
72	0x3d77cc37	0.06049749
73	0x3dd744b9	0.10511155
74	0x3d91096f	0.070818774
75	0x3c8963a7	0.01677115
76	0x3dec3bf7	0.11534875
77	0xbced3b30	-0.028958887
78	0x3d4c13b0	0.049823463
79	0xbd546755	-0.051856358
80	0x3dd7f14a	0.10544069
81	0x3dcd0790	0.10011208
82	0x3dc49ca4	0.09600189
83	0x3e26829a	0.16260758
84	0x3dc46c74	0.09590998
85	0x3d382642	0.04495836
86	0x3d86a4c7	0.065743975
87	0x3c4abf34	0.012374688
88	0x3d5d9536	0.054097377
89	0x3e1b6cc2	0.15178207
90	0x3c69aeb4	0.014262844
91	0x3cbbfd92	0.02294806
92	0x3a4716ec	0.0007594663
93	0xba046c7d	-0.00050515664
94	0x3c94eaed	0.018178428
95	0x3d407069	0.046982203
96	0xbc0d949f	-0.008641391
97	0xbd496e39	-0.049177382
98	0x3d1aa516	0.037755094
99	0xbd9d6816	-0.076858684
100	0xbd148236	-0.03625699
101	0x3d1aca85	0.037790794
102	0x3d09a864	0.033607855
103	0x3d9087fb	0.07057186
104	0xbcef9b9d	-0.029249007
105	0xbcb250e4	-0.021767087
106	0xbd1e079c	-0.038581476
107	0x3b86b1d3	0.004110554
108	0x3dfad592	0.122477666
109	0x3d34b54f	0.04411822
110	0x3e226212	0.15857723
111	0x3db8bc40	0.09020281
112	0x3df2ed7f	0.11861705
113	0x3dda98eb	0.10673698
114	0x3ddb38b7	0.10704177
115	0x3bc6217e	0.006046473
116	0x3e39f48e	0.18159696
117	0x3d76dc6b	0.0602688
118	0xbcdd2c24	-0.026998587
119	0x3dd68b73	0.104758166
120	0xbd0bbfd4	-0.03411849
121	0x3d29008c	0.041260287
122	0x3dfb487d	0.122696854
123	0x3d5a0d83	0.053235542
124	0x3c3ddc85	0.0115882205
125	0x3db9a439	0.09064526
126	0x3c83e42c	0.016100012
127	0x3d3c6e3e	0.046003573
128	0x3d93740b	0.07199868
129	0x3d83d33b	0.064367734
130	0x3cf83a59	0.03030126
131	0x3e299cbe	0.16563699
132	0xbd14ace5	-0.036297698
133	0x3d94d921	0.072679766
134	0xbd09ce8c	-0.033644244
135	0xbd3eaa4c	-0.046549127
136	0x3cc92f6d	0.024558747
137	0xbb373255	-0.0027953584
138	0x3c5a04da	0.013306821
139	0x3d72b0e8	0.059250742
140	0x3dde902b	0.108673416
141	0x3dc09b0f	0.09404575
142	0x3d498e29	0.04920784
143	0xbb183756	-0.0023226342
144	0x3d8f9b64	0.0701206
145	0xbcd155ea	-0.025553662
146	0x3d619c1d	0.05508052
147	0x3db2f8bf	0.08738851
148	0xbd5c8bb2	-0.05384416
149	0xbd4c949c	-0.049946412
150	0x3dddd02b	0.108307205
151	0x3dad8961	0.084734686
152	0x3dd570b0	0.10421884
153	0xbc58f0c4	-0.013240997
154	0xbde50beb	-0.11183914
155	0xbd0644b8	-0.03278038
156	0xbd958786	-0.0730124
157	0xbcc4881f	-0.023990689
158	0xbc6bc000	-0.014389038
159	0xbcfecf7c	-0.031104796
160	0x3d433a27	0.04766288
161	0xbde3c63f	-0.11121797
162	0xbe08756e	-0.13326046
163	0xbdd51560	-0.104044676
164	0xbd85d880	-0.06535435
165	0xbcf92419	-0.03041272
166	0xbca67c7f	-0.020323036
167	0xbd98fa07	-0.07469564
168	0xbdf83e0c	-0.121212095
169	0xbd8b34a3	-0.06797149
170	0xbc89b718	-0.016810939
171	0x3dd7f4c8	0.10544735
172	0x3df62c7e	0.12020205
173	0x3e44659e	0.19179389
174	0x3dc92028	0.098205864
175	0x3e4c6b0f	0.19962715
176	0x3e1c8b51	0.1528752
177	0x3e02a7f9	0.12759389
178	0x3defe623	0.11713817
179	0x3dd1e95d	0.10249589
180	0x3d32630c	0.04355149
181	0x3d61dd84	0.055142894
182	0x3e0b9b9f	0.13633583
183	0xbc510f79	-0.012760037
184	0xb98426ec	-0.00025206
185	0xbcc68376	-0.024232607
186	0x3d49d337	0.049273696
187	0x3d9a9f13	0.07549872
188	0x3db2bfa4	0.08727959
189	0x3d6289e4	0.055307284
190	0xbd0578d9	-0.032585952
191	0xbc129495	-0.0089465575
192	0xbb3a9e37	-0.002847565
193	0x3de3782e	0.11106907
194	0xbc521df8	-0.012824528
195	0xbd711985	-0.058862228
196	0xbd2eb9e2	-0.04265774
197	0x3bfc702a	0.0077038007
198	0x3dfe1a2a	0.12407334
199	0x3d97fd9a	0.074214175
200	0xbb26f71f	-0.0025476885
201	0x3db8326d	0.08993993
202	0x3e291ea2	0.16515592
203	0x3e0381eb	0.12842529
204	0x3d1614c8	0.036640912
205	0x3d4c91fb	0.049943905
206	0x3d3ca81d	0.046058763
207	0xbcc62db5	-0.024191717
208	0xbdce4271	-0.100712664
209	0xbd413a0e	-0.047174506
210	0xbd273cbb	-0.0408294
211	0xbdb9eb9d	-0.09078143
212	0xbce751b4	-0.028237201
213	0xbe31e2a2	-0.1737161
214	0xbdba3829	-0.09092743
215	0xbd22bab8	-0.03972885
216	0xbd696c6d	-0.05698817
217	0x3bfaf903	0.007659079
218	0xbcf78df1	-0.03021905
219	0xbd1fc12b	-0.03900258
220	0xbce1d1b4	-0.027565815
221	0xbd7ca929	-0.06168476
222	0x3d527523	0.05138124
223	0xbd0abb12	-0.03386981
224	0xbd24a4ae	-0.040196113
225	0xbde080a2	-0.10962035
226	0xbe010029	-0.12597717
227	0xbd8d2138	-0.068911016
228	0xbd0dc317	-0.03460988
229	0x3c5a2f86	0.0133169945
230	0xbde72a9e	-0.112874255
231	0xbd7822de	-0.060580127
232	0xbd702dc0	-0.05863738
233	0xbd72a57d	-0.059239853
234	0xbc902937	-0.017597778
235	0x3d80d21e	0.06290077
236	0x3e057de7	0.13036309
237	0x3d7dc551	0.061955754
238	0x3d0aa423	0.03384794
239	0xbc3ac2d4	-0.01139899
240	0xbda399a0	-0.07988286
241	0xbc52dd2c	-0.012870114
242	0x3da4c912	0.080461636
243	0xbcf57615	-0.029963532
244	0x3c46c1a2	0.012131127
245	0xbc4d7e19	-0.012542271
246	0xbc898972	-0.016789172
247	0xbd0f682f	-0.035011467
248	0xbe052386	-0.13001832
249	0xbce5c4f3	-0.028048014
250	0xbe0aabae	-0.13542053
251	0xbe04be49	-0.12963213
252	0xbdd9f6f6	-0.10642807
253	0xbdf9c06b	-0.12194904
254	0xbd88662c	-0.06660113
255	0xbdfb6f60	-0.122771025

encoder.blocks.1.conv.0.bias f4 [32]
0	0x3cd9b59e	0.02657586
1	0x3d7dacfb	0.061932545
2	0xbd0b65dd	-0.03403269
3	0xbd324178	-0.043519467
4	0xbd9e09c1	-0.07716704
5	0xbd83875b	-0.064223014
6	0x3da089e6	0.07838802
7	0xbd2190f5	-0.039444882
8	0xbc661f1d	-0.014045504
9	0xbc3e9ff5	-0.011634816
10	0x3d04023c	0.032228693
11	0x3d65d6f7	0.05611321
12	0x3d53afa4	0.051681176
13	0x3cc60234	0.024170972
14	0xbc5f595a	-0.013632143
15	0x3c973052	0.018455658
16	0xbccb85b6	-0.024844032
17	0xbc06337c	-0.008190986
18	0xbdd5538e	-0.104163274
19	0xbdd84f6a	-0.10562022
20	0xbdc50e9f	-0.096219294
21	0x3cfac1a0	0.030609906
22	0xbdca8fb9	-0.09890694
23	0x3dd2ca7f	0.10292529
24	0xbabd7b1f	-0.0014456249
25	0x3c432afa	0.011912102
26	0x3d6202cd	0.055178452
27	0xbc94438a	-0.018098611
28	0x3b2c0861	0.0026250111
29	0xbd131492	-0.03590829
30	0xbd8115da	-0.06302996
31	0x3c2f4f07	0.010699994

encoder.blocks.1.conv.1.weight f4 [32]
0	0x3f7d189c	0.98865676
1	0x3f7e93d7	0.99444336
2	0x3f76d863	0.9642393
3	0x3f81e0d9	1.0146743
4	0x3f7907cf	0.9727754
5	0x3f6e4523	0.93074244
6	0x3f6d1efc	0.92625403
7	0x3f83af7f	1.0287932
8	0x3f872191	1.0557119
9	0x3f77084b	0.9649703
10	0x3f88a480	1.0675201
11	0x3f71a624	0.94394135
12	0x3f764409	0.96197563
13	0x3f83d850	1.0300388
14	0x3f82ecd5	1.0228525
15	0x3f800cf5	1.0003954
16	0x3f7ad9cf	0.979886
17	0x3f6ca176	0.9243387
18	0x3f71ce0c	0.9445503
19	0x3f7c3d68	0.985312
20	0x3f83d550	1.0299473
21	0x3f7a582c	0.9779079
22	0x3f8a92df	1.0826072
23	0x3f878863	1.0588497
24	0x3f63672c	0.888293
25	0x3f82509a	1.0180848
26	0x3f869ace	1.0515993
27	0x3f7af938	0.9803653
28	0x3f8298ff	1.0202941
29	0x3f63c86e	0.88977706
30	0x3f6c0a80	0.9220352
31	0x3f81a828	1.0129442

encoder.blocks.1.conv.1.bias f4 [32]
0	0x3c9b68bb	0.018970838
1	0xbcd81df3	-0.026381468
2	0x3cf4251d	0.029802853
3	0xbddad568	-0.10685235
4	0xbc4719a6	-0.012152111
5	0xbc191ed0	-0.009345725
6	0xbcfb89c5	-0.030705342
7	0xbd4b97e2	-0.049705394
8	0xbcee8c09	-0.029119508
9	0x3a9dcb2b	0.0012038698
10	0xbcbe2718	-0.023212
11	0x3d582528	0.05276981
12	0x3a9cef4a	0.0011973169
13	0x3d5c27b4	0.0537488
14	0xbc560b32	-0.013064193
15	0xbbe0ecbc	-0.0068641584
16	0xbb82c546	-0.003990802
17	0x3c046d1c	0.008082654
18	0x3cc69e23	0.024245327
19	0xbdfd9c95	-0.12383381
20	0xbd6d744e	-0.057972245
21	0x3d1cc590	0.038274348
22	0x3cbac5ce	0.022799399
23	0xbd83cb50	-0.06435263
24	0xbd821db9	-0.063533254
25	0x3d1c0cd4	0.03809817
26	0x38071016	3.220149e-05
27	0xbc8389f0	-0.016056985
28	0xbde1f64f	-0.11033308
29	0xbda11976	-0.078661844
30	0xbdd5682a	-0.10420258
31	0x3d7fe1f1	0.062471334

encoder.blocks.1.conv.1.running_mean f4 [32]
0	0x401acdcf	2.4188116
1	0xbecdc402	-0.40188605
2	0xbf291fb5	-0.66064006
3	0x3fe59894	1.7937188
4	0xbe1e4614	-0.1545642
5	0xc015837d	-2.3361504
6	0x3fd280ed	1.6445595
7	0xbee056e2	-0.43816286
8	0x3fad6b18	1.3548307
9	0x3fa5e6bc	1.296104
10	0xbf12986c	-0.5726383
11	0x3ffb3a77	1.9627217
12	0x3f017a7d	0.5057753
13	0x3eaa4e89	0.33263043
14	0x3f857dc4	1.0429006
15	0xc027d00f	-2.622074
16	0x3ffd3c6d	1.9784065
17	0xc0203910	-2.5034828
18	0xbf8c5d55	-1.0965983
19	0x3f5e91fe	0.86941516
20	0x4010b359	2.2609465
21	0x401434b1	2.315716
22	0x3fc7f06d	1.5620247
23	0x3e0b30d2	0.13592842
24	0xc016d137	-2.3565195
25	0x3f7c2a4f	0.9850206
26	0x3fda5104	1.7055974
27	0x3e80f7d3	0.25189075
28	0xbe9ef5a7	-0.31046793
29	0xc0036559	-2.0530608
30	0x3f363e2f	0.71188635
31	0xc03e4c67	-2.9734132

encoder.blocks.1.conv.1.running_var f4 [32]
0	0x414e15e8	12.880348
1	0x3ff505e8	1.9142427
2	0x4020beb3	2.5116394
3	0x404dc8ce	3.2153811
4	0x3fc020ea	1.5010045
5	0x4032780e	2.7885776
6	0x40324be3	2.7858818
7	0x400e92df	2.2277143
8	0x3fc5db4e	1.5457551
9	0x410b8388	8.719612
10	0x3ffef665	1.9918944
11	0x4117f6ae	9.497725
12	0x3fd25c27	1.6434373
13	0x3fa9bb4f	1.3260287
14	0x40049dd6	2.0721335
15	0x408c63d7	4.3871875
16	0x418e804b	17.812643
17	0x406758c4	3.6147928
18	0x3ff9bda5	1.9511
19	0x3fdc4e2e	1.7211359
20	0x41497d75	12.593129
21	0x4107ddea	8.491678
22	0x40797ad0	3.8981209
23	0x40257854	2.5854692
24	0x41a54658	20.659348
25	0x3fdbc10e	1.7168291
26	0x3ffee79e	1.9914434
27	0x40173f66	2.3632445
28	0x4061dcc1	3.5290987
29	0x402f9e9e	2.7440562
30	0x3fa4f914	1.2888513
31	0x4157289a	13.4474125

encoder.blocks.1.conv.3.weight f4 [32, 32, 3, 3]
0	0x3c935f4a	0.017989773
1	0x3b805c39	0.003917244
2	0xbde399d8	-0.11113328
3	0xbd95ed88	-0.07320696
4	0x38f380b5	0.000116111165
5	0xbd24dd18	-0.040249914
6	0xbda9d29d	-0.082921244
7	0xbd37bcfb	-0.04485796
8	0xbe04ffd5	-0.12988217
9	0x3d118151	0.035523716
10	0x3d904131	0.07043684
11	0x3dd0d86b	0.101975285
12	0x3e05fc50	0.13084531
13	0x3dbc7682	0.09202291
14	0x3d329456	0.043598495
15	0x3db7437d	0.08948419
16	0x3d746b29	0.05967251
17	0x3d76eec8	0.060286313
18	0x3d7befcb	0.06150798
19	0x3cee8526	0.029116224
20	0xbd5d251f	-0.05399048
21	0x3d28e0b1	0.041229907
22	0x3c3a8777	0.011384836
23	0xbd4ffb54	-0.050776795
24	0xbcfb58ac	-0.03068193
25	0xbd140214	-0.036134794
26	0xbd8bb86b	-0.06822284
27	0x3ce7fb8b	0.028318187
28	0x3d942cbc	0.07235095
29	0x3d70d917	0.058800783
30	0xbcc04318	-0.023469493
31	0x3dc6a544	0.09699491
32	0x3dfaabef	0.12239825
33	0x3d434880	0.047676563
34	0x3d605ce4	0.054776087
35	0x3c25606e	0.010093791
36	0x3d8a2121	0.067446
37	0x3df27c1a	0.11840077
38	0x3c11e46f	0.0089045605
39	0x3dcb6225	0.09930829
40	0x3dc60330	0.09668577
41	0xbbd2f81e	-0.0064382693
42	0x3d252965	0.04032268
43	0x3c33b909	0.010969409
44	0xbb22b97f	-0.0024829803
45	0xbc805c45	-0.015668998
46	0xbd82e5a2	-0.06391455
47	0xbd00dd56	-0.031461082
48	0xbdae5120	-0.08511567
49	0xbcded1e7	-0.027199699
50	0xbc9a1fed	-0.018814052
51	0xbd2468fa	-0.040139176
52	0xbd3be644	-0.045873895
53	0xbdc35cf1	-0.095392115
54	0xbc0f228e	-0.008736266
55	0x3d7f1d3b	0.062283736
56	0xbc7cfb55	-0.015440782
57	0x3cf19bc2	0.029493216
58	0x3d3ad6b4	0.045614913
59	0x3d969cbf	0.07354116
60	0x3c54fa2b	0.012999098
61	0x3d1dfeb8	0.038572997
62	0x3d423bf9	0.047420476
63	0xbb47216f	-0.0030384918
64	0x3d8616fc	0.06547353
65	0x3b6d864e	0.0036243382
66	0x3cf622c6	0.030045878
67	0x3db3fcfd	0.08788488
68	0xbcb8770e	-0.022517707
69	0x3db9989a	0.090623096
70	0x3e14faf5	0.14548858
71	0x3daaf033	0.083465956
72	0xbdaa21fa	-0.08307262
73	0x3b989508	0.004656438
74	0xbcb3855b	-0.021914175
75	0xbd5901b9	-0.05298016
76	0x3c9b6e3f	0.018973468
77	0xbd21173f	-0.03932881
78	0xbaaa44ce	-0.0012990476
79	0xbd0eb06f	-0.03483623
80	0xbd9348e2	-0.07191636
81	0xbdc7545b	-0.097328864
82	0xbdac4411	-0.0841142
83	0xbddf0534	-0.10889664
84	0xbca3ea21	-0.020009102
85	0x3ca95547	0.020670546
86	0x3c33c551	0.010972337
87	0xbc9b2089	-0.018936412
88	0xbdaf2c0a	-0.08553322
89	0xbd17cd9c	-0.03706132
90	0x3d99d261	0.0751083
91	0x3dab5b7a	0.08367057
92	0x3d868d99	0.06569976
93	0x3dd52022	0.104065195
94	0x3e0f78e8	0.14010966
95	0x3e22eb63	0.15910105
96	0x3d01ea74	0.031717733
97	0x3d72ac26	0.059246205
98	0x3e2736fc	0.16329569
99	0xbcb012eb	-0.021493396
100	0xbdc5cd4d	-0.09658299
101	0xbd79dc5c	-0.061001167
102	0xbd1f4f1d	-0.038893808
103	0xbc00c7a3	-0.007860097
104	0xbba65400	-0.0050759315
105	0x3d195472	0.03743405
106	0x3d420fdc	0.047378406
107	0x3d14ebd1	0.036357705
108	0x3d283d5e	0.04107415
109	0x3d5bbc06	0.05364611
110	0x3ba0566a	0.004893114
111	0xbd586ce8	-0.052838236
112	0xbd0db8ed	-0.034600187
113	0x3c9d3f10	0.01919511
114	0xbd88cfd6	-0.066802666
115	0x3bbf7dc7	0.0058438512
116	0xbceaa4c6	-0.028643023
117	0x3db39205	0.087680854
118	0x3db6cd6c	0.089259
119	0x3d311d1e	0.04324066
120	0x3c61bbad	0.013777656
121	0x3ce72a48	0.028218403
122	0x3d955bd2	0.07292904
123	0x3dbcc08f	0.09216415
124	0x3cb3b3d4	0.021936335
125	0x3d5021aa	0.050813355
126	0x3d11bdea	0.035581507
127	0x3d15d3d8	0.036578983
128	0xbc795933	-0.015219021
129	0xbc88c366	-0.016694736
130	0x3d4592dc	0.04823576
131	0xbd0f9e7c	-0.03506325
132	0x3c05f867	0.0081768995
133	0x3d4bd51a	0.049763776
134	0xbd21a475	-0.03946348
135	0xb936af59	-0.00017422195
136	0x3d68cfb7	0.056838717
137	0x3d351a3b	0.04421447
138	0x3d9c5001	0.07632447
139	0xbc8dafe7	-0.01729579
140	0x3d132b72	0.035930105
141	0x3cf28daa	0.029608566
142	0x3d938721	0.07203508
143	0x3d2ec509	0.042668376
144	0xbde22f2e	-0.11044155
145	0xbdca6e7b	-0.09884354
146	0xbd82bd77	-0.06383794
147	0xbce8850b	-0.028383752
148	0xbd40f324	-0.047106877
149	0xbd5fbbd0	-0.05462247
150	0xbd207dd6	-0.039182507
151	0x3caf8c84	0.021429308
152	0x3ca779df	0.020443855
153	0xbdc142a8	-0.09436542
154	0xbc8f1d87	-0.017470134
155	0xbdb708a5	-0.08937196
156	0xbd88d6ad	-0.06681571
157	0xbd8da6a3	-0.06916549
158	0xbd7007db	-0.05860124
159	0x3b0a5f92	0.0021114093
160	0xbd921cc0	-0.0713439
161	0x3cb965b0	0.022631496
162	0x3d3d3532	0.04619331
163	0x3d9657c0	0.07340956
164	0x3d02c5e5	0.03192701
165	0xbca9af02	-0.020713333
166	0xbc2c5549	-0.01051838
167	0x3d5a8d24	0.05335726
168	0xbd8557e4	-0.065109044
169	0xbc952f04	-0.018210895
170	0xbc8c5c60	-0.017133892
171	0xbc291ba3	-0.0103215305
172	0xbcb8aac5	-0.022542367
173	0x3c761749	0.0150202
174	0xbcd5f0a6	-0.026115727
175	0xbb8df4d8	-0.004332166
176	0x3d8794bc	0.06620166
177	0xbd57f4da	-0.052723743
178	0x3c419ca9	0.011817136
179	0x3d4d6888	0.050148517
180	0xbdb1a47e	-0.086739525
181	0xbd93fa4d	-0.072254755
182	0xbd15dd69	-0.036588106
183	0xbd2dcc53	-0.042431187
184	0xbdec462d	-0.115368225
185	0xbdf012be	-0.11722325
186	0xbe01ae39	-0.12664117
187	0xbd732d4e	-0.059369378
188	0xbd9659cd	-0.07341347
189	0xbc275b11	-0.010214583
190	0xbcd2ec03	-0.025747305
191	0x3d3030fa	0.043015458
192	0x3d3e1fb2	0.046416946
193	0xbc63bcb3	-0.01389997
194	0x3d94d16f	0.07266509
195	0x3c43a508	0.011941202
196	0xbd45e4de	-0.048313968
197	0x3bdf1671	0.006808095
198	0x3c775252	0.01509531
199	0x3d8a2d42	0.067469135
200	0x3ca9917d	0.020699257
201	0x3ddd2ac5	0.10799173
202	0x3d9e4764	0.077284604
203	0xbc8eea36	-0.017445665
204	0x3d177d74	0.036984876
205	0x3dacd03c	0.08438155
206	0x3d8b1f73	0.06793108
207	0x3db1cc8b	0.086815916
208	0x3dccc4fc	0.09998509
209	0x3d81231c	0.06305525
210	0x3d02c081	0.031921867
211	0x3d3b2a0e	0.045694403
212	0xbc552346	-0.013008898
213	0x3d5f6e5a	0.0545486
214	0x3d54ed92	0.051984377
215	0x3d3bef8b	0.045882743
216	0x3d2b2ffe	0.041793816
217	0x3cf66cac	0.030081116
218	0x3d8f909f	0.07010006
219	0x3c1315f0	0.008977398
220	0x3c05276e	0.008127077
221	0x3d9ca71b	0.0764906
222	0x3cec09b5	0.028813222
223	0x3cfa8178	0.030579314
224	0xbc22d49c	-0.009938385
225	0x3d23c89d	0.03998624
226	0x3cb96613	0.02263168
227	0x3ddbb0cf	0.10727083
228	0x3dd0d926	0.10197668
229	0x3da5ef8e	0.08102332
230	0x3de4f049	0.11178643
231	0xba9c7fea	-0.0011939977
232	0x3d8da990	0.06917107
233	0xbd564e9c	-0.05232106
234	0x3cfb403d	0.03067028
235	0x3d3e375b	0.04643951
236	0x3d482e6a	0.04887239
237	0x3c605b5a	0.013693655
238	0x3d43537e	0.047687046
239	0x3ce9de5d	0.028548414
240	0x3d854c5d	0.06508706
241	0xbc274dde	-0.010211436
242	0x3d5505ec	0.0520076
243	0xbc1af9b1	-0.009458945
244	0xbc8fba4a	-0.017544884
245	0x3cc1e5e5	0.023669193
246	0x3bb407df	0.0054941024
247	0x3d8c332e	0.06845699
248	0xbd09f03e	-0.03367638
249	0xbb961a97	-0.0045808065
250	0x3cba4305	0.022737036
251	0x3ce007d5	0.027347485
252	0x3dd688f5	0.10475341
253	0x3d8f66b4	0.07002011
254	0x3d34ba47	0.04412296
255	0x3cd0f050	0.025505215

encoder.blocks.1.conv.3.bias f4 [32]
0	0x3d18cdbe	0.037305586
1	0xbd05295e	-0.032510154
2	0xbc83f08a	-0.016105909
3	0xbd5a5cd9	-0.053311203
4	0xbce634b4	-0.028101303
5	0x3db6994f	0.0891596
6	0x3c6ab138	0.014324479
7	0x3d8de7e9	0.06928999
8	0x3cc03e8d	0.023467327
9	0x3d5c5286	0.053789638
10	0x3d8cc4c1	0.06873465
11	0xbd060c18	-0.032726377
12	0x3d816318	0.06317729
13	0x3bbdbf77	0.0057906467
14	0xbcefc2f3	-0.029267764
15	0x3c6408fc	0.013918158
16	0x3ca0de95	0.019637385
17	0xbc9879e0	-0.018612802
18	0xbd7064b3	-0.058689784
19	0xbd83da35	-0.06438104
20	0xbd9e68db	-0.07734843
21	0x3d71bbfe	0.059017174
22	0xbd770cef	-0.06031507
23	0xbd4a15b3	-0.0493371
24	0xbca878a3	-0.020565337
25	0x3d2d2f18	0.04228124
26	0xbbcbefdb	-0.0062236614
27	0x3c4e6cd4	0.012599189
28	0x3b7bd3ba	0.003842576
29	0xbd02e450	-0.031956017
30	0xbdb44545	-0.088022746
31	0x3cf0238e	0.029313829

encoder.blocks.1.conv.4.weight f4 [32]
0	0x3f85adb0	1.044363
1	0x3f83fc92	1.0311453
2	0x3f775665	0.966162
3	0x3f76a986	0.9635242
4	0x3f825edc	1.0185199
5	0x3f7b5a9d	0.9818514
6	0x3f7bc1ef	0.98342794
7	0x3f7c2ee0	0.98509026
8	0x3f73aa3d	0.9518164
9	0x3f6d7bf8	0.92767286
10	0x3f81b436	1.0133121
11	0x3f8328fe	1.0246885
12	0x3f81275f	1.009014
13	0x3f7ff5df	0.99984545
14	0x3f7d603b	0.9897496
15	0x3f805fd8	1.0029249
16	0x3f841e5a	1.0321763
17	0x3f81f839	1.0153877
18	0x3f8fcfb5	1.1235262
19	0x3f80fe2f	1.0077571
20	0x3f75e374	0.9605019
21	0x3f83b5f0	1.0289898
22	0x3f86d300	1.0533142
23	0x3f84200d	1.0322281
24	0x3f7ef93e	0.99599063
25	0x3f74420a	0.9541327
26	0x3f71c444	0.944401
27	0x3f7cec83	0.9879839
28	0x3f82fabe	1.023277
29	0x3f86531c	1.0494113
30	0x3f6898de	0.90858257
31	0x3f7d0e17	0.98849624

encoder.blocks.1.conv.4.bias f4 [32]
0	0xbda72646	-0.08161597
1	0xbdacb58e	-0.08433066
2	0xbd9bdf2c	-0.07610926
3	0xbcef0394	-0.02917651
4	0xbda9c323	-0.082891725
5	0xbded3ab4	-0.11583462
6	0x3ccc05a7	0.024905039
7	0xbd68ed00	-0.056866646
8	0xbdf402e8	-0.11914617
9	0x3cef77d3	0.029231941
10	0x3db7a99c	0.08967897
11	0xbd849912	-0.06474508
12	0x3a55dfb3	0.0008158639
13	0x3d32a78c	0.043616816
14	0xbe24b94b	-0.16086309
15	0xbd5a3a82	-0.053278454
16	0xbdb87f77	-0.09008687
17	0xbd999fd8	-0.07501191
18	0xbd2403bd	-0.040042628
19	0xbd093172	-0.03349442
20	0x3c96d8e6	0.018413972
21	0x3cc08d1e	0.02350479
22	0xbd048770	-0.032355726
23	0xbda0f2a2	-0.078587785
24	0xbe0f7583	-0.14009671
25	0xbd1ee499	-0.038792226
26	0xbdd1f161	-0.102511175
27	0x3c983759	0.01858108
28	0xbd70e158	-0.058808655
29	0xbe7342f5	-0.23756011
30	0xbe1003bf	-0.14063929
31	0xbdc19edb	-0.094541274

encoder.blocks.1.conv.4.running_mean f4 [32]
0	0x3f53b709	0.82701164
1	0x3f405004	0.75122094
2	0x3fd7b482	1.6851962
3	0xc036b818	-2.8549862
4	0xc04505df	-3.0784833
5	0x3f8a6c38	1.0814276
6	0xc0108fb3	-2.2587707
7	0xbfeb332f	-1.8374995
8	0xbf9a274d	-1.2043244
9	0xbd4da68f	-0.05020767
10	0xbf3c93fb	-0.736633
11	0xbfd04009	-1.6269542
12	0xc0078c6d	-2.117946
13	0x3f4a547f	0.7903518
14	0x3f63d7e0	0.89001274
15	0x3ed6b8e4	0.41937935
16	0x3f3547c6	0.7081264
17	0x3fb3322c	1.3999686
18	0x3e80aee5	0.25133434
19	0xbfeec402	-1.8653567
20	0xc0434d97	-3.0516107
21	0x3dded322	0.10880114
22	0x3f57ffc9	0.8437467
23	0xbee7736b	-0.45205244
24	0xbe89c2bf	-0.26906392
25	0xbff2dd3b	-1.8973764
26	0xc032313b	-2.7842548
27	0xc0229f8c	-2.540988
28	0x3eac5bbb	0.33663735
29	0xbfd50f99	-1.6645385
30	0x3d388e37	0.0450575
31	0x3f9a0fe7	1.2036103

encoder.blocks.1.conv.4.running_var f4 [32]
0	0x40e874c3	7.264253
1	0x40e019b9	7.00314
2	0x414b9b25	12.725377
3	0x423e228b	47.533733
4	0x419ae7d3	19.363195
5	0x41316eed	11.0895815
6	0x41af6715	21.925333
7	0x41ca0d7a	25.25658
8	0x418d7c90	17.685822
9	0x40e07070	7.0137253
10	0x40baf342	5.8421946
11	0x418dd88d	17.730738
12	0x4212111e	36.516716
13	0x41b7a136	22.953716
14	0x40bae81a	5.8408327
15	0x412fd57a	10.989618
16	0x40ae8a08	5.4543495
17	0x414f8753	12.970538
18	0x4085163e	4.158965
19	0x41884251	17.032381
20	0x422923c5	42.28493
21	0x40fb2cc5	7.849215
22	0x40bf5af8	5.9798546
23	0x410737f3	8.4511595
24	0x41031019	8.19143
25	0x41b241b7	22.282087
26	0x4229423b	42.31468
27	0x41d89cef	27.076628
28	0x4048474d	3.1293519
29	0x412189f7	10.096183
30	0x40d45af9	6.636105
31	0x4124cd1d	10.3000765

encoder.blocks.1.skip.weight f4 [32, 16, 1, 1]
0	0xbe142432	-0.14466932
1	0x3cc73020	0.02431494
2	0x3d82a5b8	0.063792646
3	0xbe172328	-0.14759505
4	0xbdd51c7c	-0.104058236
5	0xbe36ad02	-0.17839435
6	0x3d86519c	0.065585345
7	0x3e3fe4d4	0.18739635
8	0x3cd9e950	0.02660051
9	0x3e75d502	0.24007037
10	0x3e4b4974	0.19852239
11	0x3df5901c	0.11990377
12	0xbd9da77c	-0.07697961
13	0xbe118e94	-0.14214545
14	0x3e42cd84	0.1902371
15	0x3e566bf8	0.20939624
16	0x3d175968	0.0369505
17	0xbd8486c4	-0.06471017
18	0x3e0ef35c	0.13960022
19	0xbd33d2b8	-0.04390213
20	0xbda6e028	-0.08148223
21	0x3dd5e30c	0.104436964
22	0x3e19da3c	0.15024656
23	0xbde2297c	-0.11043069
24	0x3e45352e	0.19258568
25	0xbddd09ec	-0.10792908
26	0xbdbfd5f4	-0.0936698
27	0xbda25b7c	-0.079276055
28	0x3e230f3c	0.1592378
29	0xbd95ecb4	-0.07320538
30	0x3d97e258	0.074162185
31	0xbe2dbd2c	-0.16966695
32	0x3cdd8bd0	0.027044207
33	0x3d99c26c	0.07507786
34	0x3d53ca10	0.051706374
35	0x3df7cf7c	0.121001214
36	0xbe6d513e	-0.23175523
37	0x3e7058ba	0.23471346
38	0xbe241b6e	-0.16026089
39	0x3e456f56	0.19280753
40	0xbda3c550	-0.07996619
41	0x3e050c46	0.12992963
42	0xbe1bfa42	-0.15232185
43	0xbd8d2e38	-0.06893581
44	0xbdc8be1c	-0.098018855
45	0xbe2194ae	-0.15779373
46	0x3a9dd700	0.0012042224
47	0x3e1792b6	0.1480206
48	0xbe27f5d0	-0.16402364
49	0x3e58c624	0.21169335
50	0x3e1c5dd8	0.15270174
51	0x3d108d60	0.035291076
52	0xbd5b3f88	-0.053527385
53	0xbdf72d9c	-0.12069246
54	0xbcc2b1a0	-0.023766339
55	0xbe6ed5b6	-0.23323712
56	0xbe6c9ab8	-0.23105896
57	0xbe1873f0	-0.14887977
58	0xbe757cc8	-0.23973382
59	0x3e3ad804	0.18246466
60	0x3e6a1df8	0.22862995
61	0xbe0ec3ce	-0.13941881
62	0x3e10f692	0.14156559
63	0xbe506ea0	-0.203547
64	0xbd7035a8	-0.05864492
65	0xbe5ee684	-0.21767622
66	0x3e21af26	0.1578947
67	0xbdd47a90	-0.103749394
68	0x3e5f6326	0.21815166
69	0xbdecbf68	-0.11559945
70	0xbd781358	-0.060565323
71	0x3e757190	0.23969102
72	0xbdb91360	-0.090368986
73	0xbe7343fe	-0.23756406
74	0xbdbc452c	-0.09192881
75	0x39f5c000	0.00046873093
76	0x3da31c0c	0.07964334
77	0x3e7399ae	0.23789093
78	0xbd6a8758	-0.05725798
79	0x3e378850	0.17923093
80	0xbd42c580	-0.047551632
81	0x3dded11c	0.10879728
82	0xbe2ec624	-0.17067772
83	0xbe453be4	-0.19261128
84	0x3d2f4408	0.04278949
85	0x3dc3fb04	0.09569362
86	0xbd184f40	-0.037184954
87	0xbe4b9e90	-0.19884706
88	0xbd80f8a4	-0.062974244
89	0x3e064f00	0.13116074
90	0xbe533de6	-0.20629081
91	0xbcd479a0	-0.025936902
92	0x3e37ca0e	0.17948171
93	0x3d3ce430	0.046116054
94	0x3e6efc1c	0.2333836
95	0x3d79f650	0.061025918
96	0xbddb5520	-0.10709596
97	0xbe02bc6c	-0.1276719
98	0xbd758790	-0.059943736
99	0x3c97fd80	0.018553495
100	0x3e25cba8	0.1619097
101	0xbd93bc48	-0.07213646
102	0x3e6ae150	0.22937512
103	0xbe022fd2	-0.12713555
104	0x3de0e6b0	0.109815
105	0x3d12d840	0.035850763
106	0x3e522356	0.20521292
107	0x3e333a70	0.17502761
108	0xbcaacc20	-0.020849288
109	0x3d811e64	0.06304625
110	0x3d08f850	0.033439934
111	0x3e4085e2	0.18801072
112	0xbe4f5f62	-0.2025123
113	0x3dde05e4	0.10840967
114	0x3e5eef2a	0.21770921
115	0x3ca50ac0	0.020146728
116	0x3e1a15aa	0.15047327
117	0x3e781558	0.24226892
118	0xbe2e9fe4	-0.17053181
119	0x3e0838fc	0.13302988
120	0xbe5a3974	-0.21310979
121	0xbdd70044	-0.104980975
122	0x3e7716dc	0.24129814
123	0xbbe6fbc0	-0.007049054
124	0xbdd8c634	-0.10584679
125	0xbd0492f8	-0.032366723
126	0xbc80e190	-0.015732557
127	0x3d669918	0.056298345
128	0xbe64becc	-0.22338408
129	0xbe086fce	-0.133239
130	0x3e416dc4	0.18889529
131	0x3e5cfa5a	0.21579877
132	0x3e34b16e	0.17645809
133	0x3e514682	0.20437053
134	0xbc843930	-0.01614055
135	0x3e1b39b8	0.15158737
136	0xbe215400	-0.157547
137	0xbe0b761a	-0.13619271
138	0xbcb7fb10	-0.022458583
139	0x3deb4b40	0.11488962
140	0xbde5cca4	-0.11220673
141	0xbe3a405c	-0.18188614
142	0x3c81f1c0	0.015862346
143	0xbd893d04	-0.06701091
144	0x3ca2cdf0	0.01987359
145	0x3e26e2a0	0.16297388
146	0x3e32afe0	0.17449903
147	0xbc474fe0	-0.01216504
148	0x3dfb5d58	0.12273663
149	0xbe1ca31c	-0.15296596
150	0xbe2ff244	-0.17182261
151	0x3e4ae9cc	0.19815749
152	0xbe59826a	-0.21241155
153	0xbe5477a8	-0.2074877
154	0x3d69adc0	0.057050467
155	0x3e3f27e0	0.18667555
156	0x3e3d1ff8	0.18469226
157	0xbd004a60	-0.03132093
158	0x3e2dd900	0.1697731
159	0x3ddb0c00	0.10695648
160	0xbe6c785a	-0.23092785
161	0xbdd90b88	-0.105979025
162	0xbddd9bbc	-0.108207196
163	0x3ca0e430	0.019640058
164	0x3da93db0	0.08263719
165	0x3e4eb7b0	0.20187259
166	0x3d18c6e0	0.037299037
167	0xbe18fa4a	-0.14939228
168	0xbd2e0968	-0.04248944
169	0x3e3918c4	0.18075854
170	0x3e3763c8	0.17909157
171	0x3ddb9700	0.1072216
172	0xbd98f0dc	-0.07467815
173	0x3dea6af8	0.11446184
174	0x3e33fcb2	0.17576864
175	0x3e127770	0.14303374
176	0x3e571fac	0.21008176
177	0x3e4ffd06	0.20311365
178	0xbe5b1076	-0.21392998
179	0xbc0f1d80	-0.008735061
180	0x3dd6e54c	0.10492954
181	0x3d2b23e0	0.04178226
182	0xbe78af00	-0.24285507
183	0x3daaecf0	0.083459735
184	0x3e188704	0.14895254
185	0xbe16b442	-0.147172
186	0x3dbbe9f0	0.091754794
187	0x3dc422d4	0.095769554
188	0x3e1ea7a8	0.15493643
189	0xbdecc32c	-0.115606636
190	0xbe3cfc6a	-0.18455663
191	0x3d865c24	0.06560543
192	0xbde3650c	-0.111032575
193	0xbdc31d24	-0.095270425
194	0x3c1ace20	0.009448558
195	0xbd8af0e4	-0.067842275
196	0x3c9530b0	0.018211693
197	0x3e337aba	0.17527285
198	0xbdb4149c	-0.087929934
199	0xbe392ec0	-0.1808424
200	0xbd3a1d18	-0.045437902
201	0xbd4becd0	-0.04978639
202	0x3d611a50	0.054956734
203	0x3c952830	0.01820764
204	0xbcbcfca0	-0.02306968
205	0xbd85f338	-0.06540531
206	0x3e06af3a	0.13152781
207	0x3e65469e	0.2239022
208	0xbe08890a	-0.13333526
209	0xbe7d4488	-0.24733174
210	0xbd358f68	-0.044326216
211	0x3e27504e	0.16339228
212	0x3e359fde	0.17736766
213	0x3e569688	0.2095586
214	0x3d49ee10	0.0492993
215	0x3e09cc2a	0.13456789
216	0x3c7d03e0	0.015442818
217	0xbdb83cec	-0.08995995
218	0x3e4ff5f6	0.2030867
219	0xbe53b69a	-0.20675126
220	0x3dd91c2c	0.106010765
221	0xbe552b32	-0.20817259
222	0x3e035c88	0.12828267
223	0x3e08b16e	0.13348934
224	0x3d724380	0.059146404
225	0xbe035ee0	-0.1282916
226	0x3d8b4b08	0.068014205
227	0xbe602e76	-0.21892723
228	0xbe3a8b24	-0.1821714
229	0xbde71970	-0.11284149
230	0x3c842330	0.01613006
231	0xbe0de732	-0.13857725
232	0xbdc73778	-0.09727377
233	0xbe58c910	-0.2117045
234	0xbe7afcd8	-0.24510515
235	0x3e32b0fe	0.1745033
236	0xbddc4d34	-0.10756913
237	0x3daa2f8c	0.0830985
238	0x3e33259e	0.17494819
239	0xbceb2e60	-0.028708637
240	0xbdcd1a90	-0.10014832
241	0xbe099112	-0.13434246
242	0x3e34b882	0.17648509
243	0xbe29f6aa	-0.16598001
244	0x3e5764f4	0.21034604
245	0x3dd4b550	0.10386145
246	0xbc032c80	-0.008006215
247	0x3d48a930	0.048989475
248	0x3e00317e	0.1251888
249	0x3cd57270	0.026055545
250	0xbe4f2292	-0.20228031
251	0x3e7be760	0.24599981
252	0xbe6f62b8	-0.23377502
253	0x3e15bc66	0.1462265
254	0x3df330f0	0.118745685
255	0xbc6a0f40	-0.014285862

encoder.blocks.1.skip.bias f4 [32]
0	0xbe2b5868	-0.16732943
1	0xbe646008	-0.22302258
2	0xbe36748a	-0.17817894
3	0xbe18dd0e	-0.14928076
4	0x3e17d56c	0.14827508
5	0x3e2175b2	0.15767553
6	0xbe5d152e	-0.2159011
7	0xbe22f630	-0.15914226
8	0xbe31f91e	-0.17380187
9	0x3de6a8ec	0.11262688
10	0xbdeec9f4	-0.11659613
11	0x3e2581ca	0.16162792
12	0xbd5eb8e8	-0.05437556
13	0xbe33beee	-0.17553303
14	0xbe33247e	-0.1749439
15	0x3e75528e	0.23957273
16	0x3e033dd0	0.12816548
17	0x3e3f2b46	0.18668851
18	0x3e0b2c28	0.13591063
19	0xbe4b3020	-0.19842577
20	0x3e384190	0.1799376
21	0x3e7c3220	0.24628496
22	0x3c1c3060	0.009533018
23	0x3e25bc78	0.16185176
24	0x3c3e64a0	0.011620671
25	0x3d95965c	0.073040694
26	0xbe4bc8d0	-0.19900823
27	0x3e130de8	0.14360774
28	0x3e6421b2	0.22278479
29	0x3d0128d0	0.031533062
30	0xbd075aa0	-0.03304541
31	0x3e2f003a	0.1708993
