toyshapes/pinets_feedback/model_6.pth (torch, 466407 bytes, 71 tensors)

encoder.blocks.0.conv.0.weight f4 [16, 1, 3, 3]
00000000: ffac d93d 3581 ecbc e158 9b3e fee0 3e3d
00000010: 2840 4cbe 53bf 65be d570 473d 4310 a33d
00000020: cf65 7fbd e0db 79be 3943 2ebe c350 9fbd
00000030: fb1e 113d 2d6f 093e 965b 6ebe d08d 313e
00000040: f906 723e 5734 8d3d c2c3 f8bd 4f5b debd
00000050: 1a13 89bd 998f c4bd 8359 87bd 6e1d af3e
00000060: d598 c23d fb90 243c 7880 03be 57bd 823e
00000070: c2b3 6bbe 4776 38bd 23d6 a13c 9b77 a6be
00000080: 2a0e 6c3e 436e 71be c27a 533e 4070 d13d
00000090: c167 f0bd f40e 7ebe 353c 553e b0c4 80be
000000a0: c5bd ec3e 1efa 02be fa99 473e 5d61 f23d
000000b0: 9007 18be 1f40 14bd 32ed a6bd 502b 2e3e
000000c0: f7d0 d03d d407 7abe 7362 a5bd 99bf f0bc
000000d0: 2249 c63e 3c47 23bc 1624 27be b0e0 6fbe
000000e0: ed0c 40be 1eca 513e 6385 7a3c 8954 e7bd
000000f0: f057 183e 91ec 713e 1eab 4f3d dd1b b93d
00000100: 32de 1abe 25c6 ea3d fd4b 4f3e ec86 efbd
00000110: 3453 a1bd c192 26be 53d2 b73d 029b 2cbe
00000120: 9856 903e 0642 073e 80f8 a9be 53b0 afbd
00000130: 9389 943e c107 febd 1c6d 8dbe 1745 9b3e
00000140: dbbe 83be b772 09be e672 01bd 4911 7bbe
00000150: d7c2 9d3e 20f3 423e 8aae 10be cc7f 22bd
00000160: 7f56 43bd b833 b4bd 2732 c53d acee 8bbd
00000170: 3830 1b3c d9e1 91bd 5416 b0be b494 9f3e
00000180: 20b7 b23e 478f 51be 3f4d e2bd d84e 62be
00000190: 66b8 943e 47bf bb3d 0acb 183e 480e 65bd
000001a0: 13aa 2d3d 154c 8b3e a14d 0ebd d6b7 9f3e
000001b0: 22e7 713e 97be 43be 38ac 59be e3fa 733e
000001c0: 67fe 12bd 55bf e2bd d4fd 673e 900e 2ebd
000001d0: 26dc 51be 58a9 d1bd 80af 713c a81e 96bd
000001e0: 2d04 e43d 2839 16be 2f21 9f3e c325 5e3e
000001f0: 381b 51be 09a4 29be 3ff4 bbbd c67c 733e
00000200: 7dab 25be 7999 a8bd 07c0 9e3e ca92 3cbe
00000210: cb8a 21bc 022d 47be ae45 713e 24df 033e
00000220: 85cf b6bd b1e6 74be 8c75 6b3e 1c1f 9b3d
00000230: 0b0b 10bd f9ff af3d 0830 5d3e 5dd8 303d
0.106286995 -0.028870204 0.30341247 0.046601288 -0.19946349 -0.22436266 0.04869159 0.07962086
-0.06235295 -0.24400282 -0.17017831 -0.07779076 0.035429936 0.13421316 -0.23277125 0.17339253
0.23635472 0.06894749 -0.12146713 -0.108572595 -0.066930965 -0.095977016 -0.0660887 0.3420214
0.09501807 0.010044332 -0.12841976 0.2553508 -0.23017791 -0.045034673 0.019755429 -0.32513127
0.23052278 -0.23577218 0.20652297 0.10226488 -0.117385395 -0.24810392 0.20823748 -0.2515006
0.46238533 -0.12790725 0.19492331 0.11834977 -0.14846635 -0.036193963 -0.0815071 0.1700871
0.10196107 -0.24417049 -0.08075418 -0.029388236 0.3872767 -0.009965714 -0.1632236 -0.23425555
-0.18754931 0.20487258 0.015290591 -0.11295421 0.14877295 0.23625399 0.0507003 0.090385176
-0.15123823 0.11463574 0.20243831 -0.11695656 -0.07877198 -0.1626692 0.08975663 -0.16856006
0.28191066 0.1320878 -0.33197403 -0.08578553 0.2901121 -0.12403823 -0.27622306 0.3032615
-0.2573155 -0.13422666 -0.031603716 -0.24518313 0.30812714 0.19038057 -0.14129081 -0.039672658
-0.04768991 -0.08798927 0.096287064 -0.068326324 0.009471945 -0.07123155 -0.34392035 0.3116814
0.34905338 -0.20464812 -0.1104989 -0.22100389 0.29046935 0.09167343 0.14921203 -0.055921823
0.042398524 0.27206483 -0.034742 0.31194943 0.23623326 -0.19115673 -0.21257102 0.23826174
-0.03588715 -0.1107165 0.22655421 -0.042494357 -0.20494136 -0.10237378 0.014751315 -0.07330066
0.11133609 -0.14670241 0.31080005 0.21694092 -0.2042054 -0.1656648 -0.091774456 0.23778066
-0.16178699 -0.082323976 0.3100588 -0.1841537 -0.009859751 -0.19450763 0.23561737 0.1287809
-0.089263 -0.23916127 0.2299406 0.07574293 -0.03516678 0.08593745 0.21600354 0.04317509

encoder.blocks.0.conv.0.bias f4 [16]
00000000: 1f15 ccbe 2d3e efbb 9904 6cbe 67f0 b43d
00000010: d4ad c23c 3963 22bd 8a50 3e3d a0dc 9dbe
00000020: 72a5 623e 37d5 bcbd a79f e13c 1a6e d73d
00000030: a89c 893e 4bcb 27be 5aea 4b3e e452 8f3e
-0.39859864 -0.007301113 -0.23048629 0.088349156 0.023764528 -0.039645407 0.046463527 -0.30832386
0.22133425 -0.09220355 0.027541948 0.10519047 0.26877332 -0.16386144 0.19913617 0.27992928

encoder.blocks.0.conv.1.weight f4 [16]
00000000: 0563 873f 1d88 7b3f 7fc2 773f 0227 8d3f
00000010: 9c86 613f 9941 3e3f 3c93 843f f087 813f
00000020: 4f57 853f a09b 6a3f 7a23 903f cac8 643f
00000030: 7409 813f 53e4 903f 6f3d 913f 1f34 5e3f
1.0577093 0.9825457 0.9678115 1.1027529 0.8809602 0.74318844 1.0357432 1.011961
1.041727 0.91643715 1.1260827 0.8936888 1.008101 1.1319679 1.1346873 0.8679828

encoder.blocks.0.conv.1.bias f4 [16]
00000000: 7bc2 d73d a60e 8f3d c1dd 2b3c bf73 c43b
00000010: e118 90bc 9dd1 5ebd 23dc 45bd bccc 0d3e
00000020: 5edc 953d 62fd a33c 5508 4e3e 2ac5 be3c
00000030: 8774 2dbd d613 a33d 71db da3d 86e8 bfbd
0.10535141 0.06985216 0.010489882 0.0059952433 -0.017589988 -0.05439912 -0.04830564 0.13847631
0.07317422 0.020018283 0.20120366 0.023287375 -0.042347457 0.07962768 0.106863864 -0.09370522

encoder.blocks.0.conv.1.running_mean f4 [16]
00000000: 2432 c8be a137 0cbd aa49 89be e28f a93d
00000010: bb52 5f3d 9132 cc3b 3e8c 263d c988 b1be
00000020: 00f0 563e ab5a 0fbe ed05 903c 79bb 9b3e
00000030: e254 7d3e 01c8 34be cbf9 5b3e 9b99 be3e
-0.39100754 -0.03423274 -0.26814014 0.082793966 0.054522257 0.006231614 0.04066109 -0.3467467
0.2098999 -0.13999431 0.01758095 0.30416468 0.24739411 -0.1765442 0.21482007 0.37226567

encoder.blocks.0.conv.1.running_var f4 [16]
00000000: 1c52 6a3a 4629 373b 15a9 863a 2b1f 4c3a
00000010: c911 973a fc08 a03a 8366 503b 9203 803a
00000020: 227b 373b 1435 243b 6537 943a 0560 643c
00000030: cbd1 853b 9a75 383a a880 063a 1552 9f3b
0.0008938627 0.0027948185 0.0010273779 0.0007786627 0.0011525686 0.0012209709 0.0031799383 0.0009766689
0.0027996977 0.002505605 0.0011308013 0.013938908 0.004083847 0.0007036567 0.00051308656 0.00486208

encoder.blocks.0.conv.3.weight f4 [16, 16, 3, 3]
00000000: 29d9 a73b 909e c0bd 6532 4f3d 22d6 2c3d
00000010: 321c 10bd 3cdc 96bd be9e 7d3d d6ab 44bd
00000020: afd6 9ebd 32e0 90bd f622 8eba cc21 49bd
00000030: 69ea d33c fba7 8f3d cf01 99bd f8f0 68bd
00000040: 3230 e63c cf56 a8bc e9be 96bd a58b 12be
00000050: e1cb 1f3d 05e3 6bbd 05ec 773d 4503 40bd
00000060: 419b 3dbc c388 963c b63e 353c 3ad4 413d
00000070: 00b8 33bd 9cea 1d3e 8620 c93d fef5 3c3c
00000080: ac69 b63d 3384 aa3d 52ae 013c 1abe 34bd
00000090: 52b6 953d b645 d43c b6c6 48bd 85ed 05bd
000000a0: 80ac b4bd cf5b 433d 3737 df3c cf8e c73d
000000b0: 1197 80bd fd93 ce3b 287a 84bd 7f7c 853d
000000c0: 2074 9abb 738b 15bd 34d6 6cbc 9c5f 353d
000000d0: 59a1 863d c3be f7bc 3c6c 943b 5932 2e3b
000000e0: e3b4 083e 6d09 92bd 33b6 ba3d 0d1f 9b3d
000000f0: 916f a33d 88c7 983c ed85 01be 5669 c93c
00000100: af31 87bd 8643 2a3e 6a59 5abd 68ba b8bc
00000110: ed17 d3bc e95f 693c bbdc 36bd 31b4 333c
00000120: 6583 363d f322 043e 71e1 eebd 42b7 0cbe
00000130: d631 9c3d 9e66 56be 66bd 7abc dc80 e93d
00000140: 143f 84be 6e60 32bd 2554 993d 1e06 42bd
00000150: 3f36 1abe 667e 47ba b4bf 97bd bd2b 57bd
00000160: cc03 95bd 9e8b 95bd 1909 c7bc 0a38 983c
00000170: caf6 d9bc e210 873d 5c63 84bd 15b3 24bc
00000180: 747e 8f3d 534e 5abc 9f10 163e cb08 253d
00000190: 3269 643d 0abf 4ebd 574a 32bd 79ab e73c
000001a0: 3210 52bd 61ef ce3c 6b7a 9cbd 8e38 8f3d
000001b0: d335 a43b b1f2 563d cef9 a13d f0a3 3d3d
000001c0: 9f82 b03d 7db0 e73d 8058 dabd b633 31bd
000001d0: e98d 383c 3364 1c3e 94a0 dfbd b0ba a7bd
000001e0: 6b9d 1d3b 4398 fdbd 8474 fdbc 8d1e 7cbd
000001f0: 16e9 20be 514f 433e 8d81 353d 3042 d03d
00000200: 347b 70ba e809 1dbd 7803 fd3c bb1e b03c
00000210: d134 67bd c7af e4bc fabf 5dbd 155b 703d
00000220: 8439 ad3d aeb6 c93c e8e0 063c 1bde e53c
00000230: c53f ac3d a7c0 f53c 1048 7d3d 9ee8 19bc
00000240: 403b 51bd 56d0 4c3d b283 23be 53d6 503c
00000250: 8685 e83d debd d5bc 1a87 4bbd f9ef 073d
00000260: bd63 fa3b 7e0c b93d 404c 78bd b002 ae3c
00000270: 0d34 b7bc e944 d5bc 2dcd bb39 21f0 96bd
00000280: 060c e5bc 7d87 0f3d 69ea ff3c 158c 093e
00000290: a1f1 083d 8200 163d 1651 103c 02b4 a13d
000002a0: fb91 97bc 19ce 42bc 5c13 da3c 425d 4b3c
000002b0: 9966 a93e d02d 14be 3348 99bd d47d 0a3e
000002c0: 1e5c 83bd 988d 953e 4d1c 9fbd 574c 663d
000002d0: f7ad 933d 977b 99bd 6b11 2fbd 1094 ccbc
000002e0: fa1f 05bc 98b7 05be 8564 473b adfd 4f3d
000002f0: afcd 0abe de91 27bc e3dd edbb 0dbc 813c
00000300: cb0f bdbc e2fa 6cbd 29d0 ccbd 0fa9 0f3d
00000310: df9f 1c3d dd5a c73c 8015 4bbd e036 2bbc
00000320: 34eb e63c 8a07 ff3b f791 2dbd 6a5b 9a3c
00000330: b7cc f4bb 7fc4 efbc 14f0 5e3d e249 05be
00000340: dc36 993d 5619 96bd b832 bcbd f315 85bd
00000350: 0d7c 3ebd 9fe6 753d e567 283d 3071 b7bd
00000360: 3ae3 16bd 5e52 2a3d 0647 e83d 06fa c8bd
00000370: d39c 81bd cc69 f23c 4dfe cabc 27f3 8bbc
00000380: 2403 adbc 60fa f43d 617d 05bd d82d 903d
00000390: 1fb6 f4bc d6fe a93d 970e a3bc a8ec 523d
000003a0: 4b73 10bd 33d1 993d 61bb 9abd 3a38 a53d
000003b0: 959d 41be 175c ce3d 9380 10be 3fdb 433c
000003c0: bd3f f43c bd84 7cbe 44ac 0a3e 05eb dabc
000003d0: 95cd 2fbd f2f9 11bc 6905 a53c 1d7f fdbd
000003e0: 445c 9d3d 0d15 03bd 65a2 423d 5b8d d03c
000003f0: b3f0 ba3d 550a 143d 0119 7dbd a34e 993d
0.005122323 -0.094052434 0.05058517 0.0421964 -0.03518314 -0.07366225 0.061918966 -0.048015438
-0.077557914 -0.07074012 -0.0010844159 -0.049104497 0.025868611 0.070144616 -0.07471048 -0.05687043
0.028099153 -0.020549206 -0.07360632 -0.14311083 0.039012793 -0.05758955 0.06052782 -0.046878118
-0.01157266 0.01837576 0.011062315 0.047321536 -0.043876648 0.15421528 0.098206565 0.0115332585
0.08906874 0.08325996 0.007915096 -0.044126607 0.073101655 0.025912147 -0.04901763 -0.03269722
-0.08821964 0.047694977 0.027248008 0.097440355 -0.06278814 0.0063042627 -0.06468612 0.06517886
-0.00471355 -0.036509942 -0.014455367 0.044280633 0.065737434 -0.03024233 0.004529504 0.0026580303
0.13350253 -0.07130704 0.09116783 0.07574282 0.07980264 0.018649831 -0.12648745 0.02458636
-0.06601273 0.1662732 -0.05330793 -0.022549823 -0.025768245 0.014244058 -0.0446441 0.010968254
0.0445589 0.12903957 -0.11664093 -0.13741782 0.07626693 -0.20937583 -0.015303945 0.11401531
-0.25829375 -0.043548994 0.074867524 -0.047369115 -0.15059756 -0.00076100824 -0.07409611 -0.052531946
-0.07276115 -0.073020205 -0.02429633 0.018581409 -0.026606936 0.06595017 -0.06464264 -0.010052462
0.07006541 -0.013324338 0.14654778 0.04029159 0.055764385 -0.050475158 -0.043527927 0.028280007
-0.051284976 0.02526063 -0.07640537 0.06993209 0.005011299 0.052477542 0.079089746 0.04629892
0.08618664 0.11312959 -0.10661411 -0.043262206 0.011264303 0.15272598 -0.109193 -0.08189905
0.0024050127 -0.12382557 -0.030939348 -0.061552573 -0.15713915 0.19073226 0.044313002 0.10168874
-0.0009173632 -0.038339525 0.030885443 0.021499028 -0.056446854 -0.027915848 -0.05413816 0.058680613
0.08458236 0.024623241 0.008232333 0.02806001 0.084106006 0.02999909 0.061836302 -0.009393839
-0.051081896 0.050003372 -0.15968207 0.012746411 0.113535926 -0.026091512 -0.04968939 0.03318784
0.0076412843 0.09035586 -0.060619593 0.021241516 -0.022363687 -0.026033835 0.00035820287 -0.0737002
-0.027959835 0.03504132 0.031239705 0.13432343 0.03343356 0.036621578 0.008808395 0.07895662
-0.018502226 -0.011889958 0.02662056 0.012412371 0.33086088 -0.14470601 -0.07484474 0.13524562
-0.06414054 0.2920959 -0.0776907 0.056225147 0.072109155 -0.07494276 -0.04274122 -0.024972945
-0.0081253 -0.13058317 0.0030424905 0.050779033 -0.13555025 -0.010227649 -0.007259117 0.01583674
-0.02307882 -0.057856448 -0.10000641 0.035073336 0.038238402 0.02433532 -0.04958105 -0.010450095
0.028188325 0.007782881 -0.04237553 0.018842418 -0.007470693 -0.029268501 0.054428175 -0.13016465
0.07481167 -0.07329051 -0.09189361 -0.06498327 -0.046505023 0.06003439 0.041114707 -0.08957136
-0.036837794 0.041582458 0.11341672 -0.09813313 -0.0632874 0.029591464 -0.024779463 -0.017083718
-0.021119662 0.11961818 -0.032590274 0.07039994 -0.029871998 0.08300559 -0.019904418 0.051495224
-0.035266202 0.07510605 -0.07555271 0.08067365 -0.18907769 0.100761585 -0.14111547 0.011954128
0.029815549 -0.2466001 0.13542277 -0.026723394 -0.042920668 -0.008909689 0.020144181 -0.123777606
0.07683614 -0.032002497 0.047518153 0.025458029 0.09127941 0.036142666 -0.061791424 0.07485702

encoder.blocks.0.conv.3.bias f4 [16]
00000000: 073c 7f3d e38b 193d 5376 97bd 2973 99bc
00000010: d6e0 e6bd 17cd ab3c 8c88 12bd 9205 b53d
00000020: 13a8 1b3d a30d 993c 630b e33d 0638 1f3c
00000030: a731 ad3d eaf8 693d 53e6 993d 1bdf 79bd
0.062313106 0.037486922 -0.073956154 -0.01873167 -0.11273353 0.020971818 -0.035774752 0.08838953
0.038002085 0.01868326 0.11086156 0.009717947 0.08456736 0.05712215 0.07514634 -0.061003786

encoder.blocks.0.conv.4.weight f4 [16]
00000000: e4f1 7d3f 2380 8a3f 84b2 783f 9091 763f
00000010: 3b13 853f d37c 813f 8c69 7f3f dd05 753f
00000020: 02a3 733f 568e 693f 227a 833f c7cc 833f
00000030: 8202 673f fa7b 7b3f 711a 913f c3c8 813f
0.9919722 1.0820354 0.97147393 0.9631586 1.0396494 1.0116218 0.99770427 0.9571207
0.95170605 0.9123281 1.0271647 1.0296868 0.902382 0.9823605 1.1336194 1.0139393

encoder.blocks.0.conv.4.bias f4 [16]
00000000: 9453 d7bc c130 b1bc fdc7 323b c713 f93b
00000010: 40b5 883c 7c9d a43c 18f2 e5bd 9975 afbd
00000020: 39ea 0bbc 3dbc 85bd 7814 44bd 0d58 ff3c
00000030: 20ed 45bd ef9e 9ebd 33d3 d73d 8d6c fbbc
-0.02628497 -0.021629693 0.0027279847 0.0076012346 0.01668799 0.020094626 -0.11227816 -0.08567352
-0.00853973 -0.06530044 -0.047871083 0.031169916 -0.048321843 -0.07745158 0.1053833 -0.03069141

encoder.blocks.0.conv.4.running_mean f4 [16]
00000000: c77b b2bc 6739 b03d 7b47 1dbf 1728 89be
00000010: ed8b e5bb 759c ca3e 6b72 21be 91ca 753f
00000020: 275f fe3e 56d3 f7be c78c 003d 2a4f b0be
00000030: 3a10 953d bdd1 323f 8cb7 033e e6a7 f73d
-0.021787537 0.08604699 -0.61437196 -0.267884 -0.007005206 0.39572492 -0.15766303 0.96012217
0.4968197 -0.48403424 0.031384256 -0.34435397 0.072784856 0.69851285 0.12862986 0.12092571

encoder.blocks.0.conv.4.running_var f4 [16]
00000000: 0946 f03e d598 873e 805b 543f ee81 873f
00000010: 1fa0 883e 7135 373f 206d d43e daa8 ba3f
00000020: cad2 6e3f fa85 353f 78bb fa3e 00d3 4e3f
00000030: 1662 153f 720e 383f 463f 253f f211 053f
0.46928433 0.2648379 0.8295212 1.0586526 0.26684663 0.7156592 0.41489506 1.458278
0.9329039 0.70907557 0.48971152 0.8079071 0.5835279 0.7189704 0.6454967 0.5198051

encoder.blocks.0.skip.weight f4 [16, 1, 1, 1]
00000000: 789b 68bf ca7f 45bf b85c 023e f6d4 14bf
00000010: c08c 173f e0db 70bf f016 693f b2cf 063f
00000020: 80b1 4dbc 125e 1ebf 04f2 f6be f04d ffbe
00000030: c064 d63c ecc5 85be 3606 393f 32de 4ebf
-0.90862226 -0.77148116 0.12730682 -0.5813745 0.5919914 -0.940855 0.91050625 0.5266067
-0.012554526 -0.6186229 -0.48231518 -0.4986415 0.026171088 -0.26127565 0.722751 -0.80807793

encoder.blocks.0.skip.bias f4 [16]
00000000: e06a 61be 5e0f 463f 40b9 813d ecbc 623f
00000010: 40f2 373f 58fe b13e 0ed0 223f 0026 1f3e
00000020: 2815 abbe d001 8f3e 2882 4c3e 5cb6 0abf
00000030: 42ee 05bf 10ce d73e 2cde bebe 70ea 92bd
-0.22013426 0.773672 0.06334162 0.8856952 0.7185402 0.3476436 0.63598716 0.1554184
-0.33414578 0.2793107 0.19971526 -0.5418451 -0.5231668 0.421494 -0.3727888 -0.07173622

encoder.blocks.1.conv.0.weight f4 [32, 16, 3, 3]
00000000: 5169 ef3c 480d 1a3d 35eb 09bd a3e1 b1bd
00000010: 4c7f 5c3d 66c5 a33d 76d2 273d c450 a83c
00000020: 678e 543d 50fe 00be 8e58 e3bd 815c dcbd
00000030: d07b 143d f37c 46bd 9064 85bd dd39 493d
00000040: ade7 ef3c 71d2 9ebd 2cc4 b33c 84b9 e33d
00000050: 8912 13bd 9473 50bd 6e1d 3a3d 48f0 cb3d
00000060: bc45 9ebb c536 5c3c a7dc 333d a9b5 bfbc
00000070: 704b a5bb 7683 51bc feb6 ccbd 65ee b8bd
00000080: 4e05 9cbd 5f01 57bd b005 1b3d 7a20 b8bc
00000090: 6ccd dbbd 286f 71bc 82d9 c4bd 5520 a03d
000000a0: 167c a6bd 07c1 e9bc 6edb ebbc 0fab 8bbd
000000b0: 0400 7fbd 50c5 713c 907c 40bc 387a 663d
000000c0: 4ca9 a5bc 215b a03d 3405 883d 4d6c 06bd
000000d0: 4d41 3c3d 519e 93bd d65f 833c ec68 2abd
000000e0: dc09 2cbd 1cf4 8f3d 1e98 a93d 3c12 6e3d
000000f0: cf76 643d 21f0 b83a 8bf8 efbd f7d9 24bd
00000100: 61c7 d83c 98ad 2dbc 39b7 89bd ae3b 61bd
00000110: 6b04 7cbc 5cc8 243d 01c7 1ebd b2d8 a1bd
00000120: 9ab6 163d 7a9c b43d 1264 96bd 4143 4cbd
00000130: d7a1 8bbd c6eb ff3c 1e8a 7e3d 1377 96bd
00000140: 11b3 98bc 0f28 c2bd 0c20 893d d2ad adbc
00000150: 52af 71bd 34c0 6c3d 8ffe 9a3c caff fcbc
00000160: be0f 633d 7039 3bbd cf4a 96bd fbee 1cbc
00000170: 55ef f1bd 2004 133c 4051 5e3d c8ed e0bd
00000180: 2471 c33d 79ab 9d3c b93b a4bd 857d 6bbc
00000190: 07b6 ed3c 2b00 173d 7c44 10bc baa6 d2bc
000001a0: c0fb edbc ecdc c93d bb30 41bd 11bf e1bd
000001b0: c37e 73bc 44d5 a7bd 1a0c 13bd 4057 c93d
000001c0: e1bb 973d 95f5 c0bd cf86 97bc e142 8abd
000001d0: be05 4c3d be12 c4bc 1045 9fbd 6143 1cbe
000001e0: 229b d2bd 2887 a9bd 0b78 91bc c028 79bd
000001f0: 007d 03be 4ea8 d0bc 5ed6 9f3c 00c4 a5ba
00000200: bc8b 91bd 262e bd3c dcfe 75bd 9fa3 f5bc
00000210: 6d51 db3d b461 5c3d 9b02 fabd f247 82bc
00000220: 3f51 debd 9969 b2bd 3dcf 51bd a1cf cbbd
00000230: eee2 ccbc 9a4b 81bd 7c3a 053d 5cf5 423c
00000240: c8dc d4bc 627c 313d 497d 68bd d2cc 913d
00000250: 228e 7d3d 2b12 0cbe d808 2abd 9134 053d
00000260: 5c1e adbb bcb0 5ebd 7074 453d 5afc 1c3d
00000270: 532f 813d 9d55 183e b007 32bd cc6f 0d3d
00000280: d111 023e 485e c23c 0517 4bbd ea84 69bd
00000290: eb2c 2b3d 0ada a8bd 2574 24bd 2849 bebc
000002a0: c033 a9bd 549f e53c 45e9 a1bd 00d0 9d3a
000002b0: 4304 643d 8441 f33c c7f0 d83c 6684 0f3d
000002c0: abf9 40bc 4f68 41bd 689e 3c3c 934d d8bc
000002d0: dc50 153d 4cc5 f93c 6a05 d23c ff68 4c3d
000002e0: 2ec8 f93d 8a3b b53d 5550 a63c 8c62 093d
000002f0: 1bbb 1dbd d359 c2bc d0b2 bb3d 2819 c8bd
00000300: 5d8b 42bd 607d 8bbd 0a66 f9bd af06 1dbd
00000310: a5f9 31bd 984f 93bd 8132 c53d 65f4 9b3d
00000320: 9f10 763d af39 103e 1ebe 243e 4277 1a3e
00000330: 1666 b63c e385 843d 0a3d be3d b3f4 a9bd
00000340: c285 89bc ce16 e2bb 9369 cbbd 37e4 fabd
00000350: 43da 5dbd 8f77 01bd 14b7 20bc 0b58 413c
00000360: 69d7 a93d d6d8 b73d cf58 c4bb e2d2 b73d
00000370: 58de 74bd 78df 60bc 040f f0bc 285b 803c
00000380: e41a 26bd 78f9 d03c 2bfd a53c ddac 70bb
00000390: 6ada d0bd ecdc 423d efa4 b7bc f342 58bd
000003a0: 176c 3cbd 7750 f73b a2b1 b73d 104b 123e
000003b0: fd49 d03d bb3a 483c 4fd9 ad3d 12df f53d
000003c0: 5b15 d7bd b628 7b3d ecea ac3d dbfe 8a39
000003d0: 198b ed3d 4731 753d ed56 2fbd 3f13 5d3d
000003e0: 3f97 b23d 094d d0bd 0ca4 74bc eedb 5dbc
000003f0: b2bd e4bb 5429 7e3d 84c7 963d 4152 663d
0.029225023 0.037610322 -0.033671577 -0.08685615 0.053832337 0.07996635 0.040972196 0.020546325
0.051893618 -0.12597013 -0.11100875 -0.10759831 0.03625089 -0.048459005 -0.065133214 0.04912745
0.029285276 -0.07754982 0.021944128 0.11119369 -0.03590635 -0.050891474 0.045438223 0.099579394
-0.0048300903 0.013440792 0.043911602 -0.023402052 -0.0050443932 -0.01278769 -0.099958405 -0.09029845
-0.07618199 -0.052491542 0.03784722 -0.022476424 -0.107325405 -0.014735974 -0.09611799 0.07818667
-0.08129136 -0.028534425 -0.028791156 -0.06819736 -0.062255874 0.014756516 -0.011748448 0.0562689
-0.020222329 0.078298815 0.066416174 -0.032818127 0.045960713 -0.07207931 0.01603691 -0.041603968
-0.04200159 0.07028982 0.08280967 0.05812286 0.055777367 0.001410965 -0.11717328 -0.04024693
0.026462259 -0.01060047 -0.067244 -0.054988556 -0.015381913 0.04023014 -0.038764004 -0.079026595
0.036795236 0.08818908 -0.07343306 -0.049868826 -0.06817978 0.031240355 0.062143438 -0.0734693
-0.018640073 -0.09480297 0.066955656 -0.021201048 -0.05900509 0.057800487 0.018920211 -0.030883688
0.055434935 -0.045709074 -0.07338487 -0.009578462 -0.11813227 0.008973151 0.054276705 -0.10982853
0.09543064 0.019246804 -0.08019204 -0.014373188 0.029017461 0.036865395 -0.00880539 -0.025714267
-0.029050708 0.09856591 -0.047165614 -0.11022771 -0.014861765 -0.08194974 -0.035900213 0.09831095
0.07408882 -0.09421841 -0.018496899 -0.067510374 0.049810164 -0.023934718 -0.077768445 -0.15260078
-0.102834955 -0.08277732 -0.017757436 -0.060829878 -0.12840652 -0.025470879 0.019511398 -0.0012646914
-0.0710673 0.023093294 -0.060057506 -0.029985247 0.1070889 0.053804114 -0.12207528 -0.015903447
-0.1085534 -0.087115474 -0.05122303 -0.099517114 -0.025010552 -0.06313248 0.03252648 0.011899319
-0.025984183 0.04333151 -0.056760106 0.071191445 0.061903127 -0.13678806 -0.04151234 0.032520834
-0.00528316 -0.054367766 0.048206747 0.0383266 0.063078545 0.14876409 -0.043464363 0.034530446
0.12702109 0.023726597 -0.0495825 -0.057011522 0.041790884 -0.08244713 -0.040149827 -0.023228243
-0.08261824 0.028030075 -0.07905821 0.0012040138 0.055668127 0.029694326 0.026482 0.035038374
-0.0117782755 -0.047218617 0.011512376 -0.026404178 0.036454067 0.030489586 0.025637347 0.04990482
0.12196384 0.08849247 0.020301977 0.033541247 -0.038508516 -0.023724472 0.09164965 -0.09770423
-0.04749619 -0.06811023 -0.121776655 -0.038336452 -0.04345097 -0.07192916 0.096287735 0.07614974
0.060074445 0.14084505 0.16088149 0.15084556 0.022265475 0.06470849 0.09288986 -0.08298626
-0.016787414 -0.006899691 -0.09932246 -0.1225056 -0.05416323 -0.03160816 -0.009809274 0.011800776
0.08293039 0.08976905 -0.005992032 0.089757696 -0.059782356 -0.013725154 -0.029304035 0.015668467
-0.04055299 0.025509581 0.020262321 -0.0036724128 -0.10197909 0.04757397 -0.022417514 -0.052798223
-0.04600152 0.007547434 0.08969428 0.14286447 0.10170362 0.012221034 0.08488714 0.12005438
-0.1050212 0.06131812 0.08443245 0.00026511293 0.115987964 0.059861448 -0.04280751 0.053973433
0.08720254 -0.10170943 -0.01493169 -0.013541205 -0.0069806213 0.062051132 0.07362273 0.056230787

encoder.blocks.1.conv.0.bias f4 [32]
00000000: bace ca3b bcb0 bfbc 0ae2 43bd 9159 32bd
00000010: d8f5 6e3d a129 163d fe11 4e3d fce9 253d
00000020: ccb4 7e3d 8d7b 8f3d 9804 543d 97e4 ac3d
00000030: 90e3 873c 05f5 61bb 8116 81bd 05d5 543c
00000040: 9d7d 153d 4ed7 c83c 1870 7d3d 58be 35bc
00000050: 149b 9dbb 8308 8ebb 6b12 16bc 84bc bc3d
00000060: ea34 973c 5c4f ea3c e678 123d d2a0 863d
00000070: 4673 6ebd 0706 97bd 5ace a83d 184c c63c
0.0061891945 -0.023399703 -0.04782299 -0.04354245 0.058339924 0.036660794 0.050310127 0.040506348
0.06218414 0.07005987 0.051762193 0.084420376 0.016588002 -0.0034478318 -0.063031204 0.012990241
0.036496747 0.024516728 0.06187448 -0.011092745 -0.0048097465 -0.004334511 -0.009159665 0.09215644
0.018457849 0.028602295 0.03575983 0.06573643 -0.058215402 -0.073741965 0.082424834 0.024206206

encoder.blocks.1.conv.1.weight f4 [32]
00000000: c0e3 7a3f f9f9 723f 25b3 823f d9af 703f
00000010: 8409 743f 152c 8b3f 2a16 7f3f dc5e 583f
00000020: 2763 813f 4233 6b3f 38ee 733f 4345 7c3f
00000030: 27b7 823f 7303 6d3f 70d4 753f ba89 733f
00000040: e3de 893f a009 813f 456c 863f bac8 7a3f
00000050: ae7f 713f 7513 8a3f ebe0 973f 4568 813f
00000060: f372 7f3f fee2 7a3f 8054 793f 2139 823f
00000070: 44be 633f 0ee6 843f c882 6f3f da91 763f
0.9800377 0.9491268 1.021092 0.9401832 0.9532702 1.0872828 0.99643195 0.84519744
1.0108384 0.9187509 0.9528537 0.98543185 1.0212144 0.9258339 0.9602728 0.9513203
1.0771145 1.0081062 1.0501791 0.97962534 0.9433545 1.0787188 1.1865515 1.0109946
0.99784774 0.9800261 0.9739456 1.0173684 0.889622 1.0382707 0.9355893 0.963163

encoder.blocks.1.conv.1.bias f4 [32]
00000000: b9f5 cc3c 33b5 323d e3a1 053e fbc1 ccbd
00000010: d695 843d 9e28 8ebc 5c06 413d cb6f 17be
00000020: df0e 15bd 73a9 f4bd 8df2 cebd abbb bc3c
00000030: 7543 143b 3e42 ab3c 7388 933c b3ad ca3d
00000040: df72 683d 28c8 fb3b 66de 86bc a7c4 b6bd
00000050: 95c7 543b 6faa 05bd 7ab7 4fbd 0a2f 70bd
00000060: 8977 b73d 7400 023e 393b 873d 2621 41be
00000070: a066 fd3c 1af4 2abd 900b 59bd c9d5 bd3d
0.025019513 0.043629836 0.13050036 -0.09997936 0.064738914 -0.017353352 0.047125205 -0.1478874
-0.036391135 -0.119463824 -0.10104857 0.023038706 0.0022623215 0.02090561 0.0180094 0.09896412
0.056750175 0.0076837726 -0.01646347 -0.08924227 0.0032467593 -0.03263324 -0.050712086 -0.05863861
0.089583464 0.12695485 0.06603093 -0.18860301 0.030932724 -0.0417367 -0.052989542 0.09269292

encoder.blocks.1.conv.1.running_mean f4 [32]
00000000: e5ac 70bf aea2 103f d39b e2bf 582e 1bbe
00000010: e919 f33e 4793 1c3d 9caa f03e a674 3f3e
00000020: c6f8 9ebf 8170 8f3e 6c46 0040 ca96 e6be
00000030: 28bf 42be 1f40 c9bf 3d16 f93e 8d9d 413e
00000040: e514 76bf d9e8 6e3f 7b29 723f d74c 92bf
00000050: 158f ff3d 6571 ae3f c50c 2a3e f477 293e
00000060: 0563 0bbf 98d5 e0bf 5ae5 d5be d5d8 55bf
00000070: aad6 d7bf 0c0d 79be 7e58 7d3f 4067 0bc0
-0.94013816 0.5649823 -1.7703804 -0.15154397 0.47480705 0.038226392 0.47005165 0.18696842
-1.241967 0.2801552 2.0042982 -0.45036918 -0.19018233 -1.5722693 0.4864978 0.18907757
-0.9612563 0.9332405 0.94594544 -1.14297 0.124784626 1.3628355 0.16606434 0.16549665
-0.54447967 -1.7565184 -0.41776544 -0.83533984 -1.6862385 -0.24321383 0.98963153 -2.1781769

encoder.blocks.1.conv.1.running_var f4 [32]
00000000: 7468 8240 cf44 1740 ac71 a840 dd80 e53f
00000010: 7794 7a40 c1f8 2040 d93d 7740 b6b4 923f
00000020: ee7d 6b41 a5da 903f e225 5141 2c16 4f40
00000030: 4bd2 be3f 09a4 1041 1e26 2140 144f 6f40
00000040: e503 4c40 cde2 7f40 61c3 6040 5be8 e240
00000050: 3af7 6640 9edd ed40 0ea5 aa3f 560d 0a40
00000060: 49e4 3040 cd8b 2d41 77ba 1a40 ac4a 9040
00000070: 9586 0e41 f958 a13f dd48 4f40 c599 5441
4.0752506 2.3635747 5.263876 1.7929951 3.9153116 2.5151827 3.86315 1.1461399
14.718245 1.1316725 13.071749 3.2357283 1.4907926 9.040048 2.5179515 3.7392015
3.1877377 3.9982178 3.511925 7.0908637 3.6088395 7.433303 1.3331621 2.157064
2.7639334 10.846631 2.417631 4.509115 8.907857 1.2605277 3.2388222 13.287541

encoder.blocks.1.conv.3.weight f4 [32, 32, 3, 3]
00000000: 271a e43d 387b 143d 7b67 403d 60d3 b03d
00000010: b618 1f3c 0212 7d3d b135 a93d 09ba f73d
00000020: b08e 4d3d ace3 6c3d 203d 313c 8fe4 61bc
00000030: 029a 903d 1940 6d3d ee88 713d d3e6 b4bc
00000040: f641 f0ba 1c1a 9a3d 0457 5dbd 1b26 3abc
00000050: 0f52 b9bc 2add 1abc b6c9 143d 7fa3 babc
00000060: 4e41 bcbc 3ea1 3dbd f686 24bd 9c69 9639
00000070: b840 123d 3ebb 783c d3b4 3d3b baa5 8f3c
00000080: 1add 3b3b 0d4d d2bc 39d0 31bd 5942 87bd
00000090: 82b7 9e3c 8b5c a33d eb5c c2bc 6a7a af3c
000000a0: 6e79 3d3b 6545 61bd 3268 ad3d bfe6 ae3d
000000b0: b0bb a13c d90d bc3c 8c79 2b3e e3ea 143e
000000c0: 3a5e fc3d 92a3 c83d 9ea3 cc3d d663 243d
000000d0: 22d3 853d 6ce4 163e 6111 bd3c d252 073d
000000e0: 98f0 913d 5424 083d 8243 1c3d 716f e03c
000000f0: b5f2 2f3c 0904 f63c b16e 843d 0f0c 2e3d
00000100: 745a 413c 6f3f b63d be2a 553d 7ab1 dabc
00000110: dd1f 3f3d 91a7 9bbd 718c 043d d7f8 553d
00000120: a41e 58bc 19a5 f93c eb9f 9c3d efa2 883c
00000130: d6f4 713d 61f8 043d 1fb8 aa3c 2699 a13c
00000140: 627a d33b 4b5d 5b3d e976 293d 4eda 303d
00000150: f6ab c33d 2d43 e03c c566 9e3d a0c8 21bd
00000160: 0a50 0ebc f281 bb3d 4630 c13d 3cc7 c43c
00000170: 28c7 de3c 810b aa3d 686a 7d3c b61f f03d
00000180: 3f18 113d bcaa 333c 836a 863c 4a91 453d
00000190: 4e6e 7f3d bdfa f9ba 1d97 ae3c 5051 d93d
000001a0: c202 663d 159c 813d 3623 723d 8c71 b13d
000001b0: 8b9a e73d f611 e53d d1ae 2d3e 4041 1d3e
000001c0: a99a 053d d817 0a3e e136 8d3d 44cb 153e
000001d0: 86f8 7f3d ace2 a93c 84fc 753d e875 4cbd
000001e0: 43d4 1fbc c5d0 633d 2111 333d 5b64 8f3a
000001f0: 2e38 603d b720 96bc 2e2a 01bd 7888 2abc
00000200: cccc 85bc 5450 453d db1b 6f3c dbc6 c93b
00000210: d065 7bbd d498 043d 6a65 7d3d 890f 5fbd
00000220: 29d2 8ebd 87cf 063c a4c0 b4bc 5ad7 2f3d
00000230: d960 a33d b96b f0bb 220a 8d3d 69b0 af3d
00000240: a903 d7bc dd5e 963c 0879 0d3d 9e96 ad3d
00000250: 9c00 a13d a35e 3d3d 195f 933d c092 e73c
00000260: aac9 0fbc d683 953c ab5e 3cbb 290d b33c
00000270: 620f 6bbd a4ed ca3d f30b 903d 2de1 763c
00000280: 8209 0f3d aed2 b33d 1716 aa3d b56e 253c
00000290: c879 8c3d dcf2 ce3c 5483 8fbc 1c62 9d3d
000002a0: 277d 153d 68fd b43c 0b4c ad3d 0b3e 8c3d
000002b0: b08b 6e3c 4603 f9bc e87e ac3b 51ef 39bc
000002c0: 4875 7ebd 97d6 08bd 8085 eabc 7937 b5bb
000002d0: 9320 553c 7a33 a9bb e738 133d c200 91bb
000002e0: 259c 823d 8448 743d 32df 6c3d be18 edbc
000002f0: 28f2 12bd 8d30 443d 5d30 273c 1c44 83bc
00000300: 3432 0bbd 0f29 f03c 0bb3 843d ae52 123c
00000310: e573 f03d 4cf2 673d 70a1 933c 4d7c 233e
00000320: 917a 333e a935 b73d 92bd b83d bc9d 2b3e
00000330: 5465 e03d 9410 f23d f545 6b3e 1a7f 6cbd
00000340: bb96 8e3a 4604 98ba 5aaa 823c f3ae 8fbc
00000350: 2def c03b 232b b53d daa5 013e 17cd f73d
00000360: 3837 133e d8b9 903d 5c60 353d f166 833d
00000370: f73b fd3d 9fdf d63c d8e9 88bb 37b8 003e
00000380: f5d8 0d3e 4b8f 94bc 1770 5b3d bd10 75bd
00000390: 016f e23c 3ec2 b8bc d5fb 8d3d 235e ce3a
000003a0: cae7 723c 5bf1 153d 55d5 923d 14a8 0abc
000003b0: b8fb 873d 06f7 a63c 3719 dbbb de2f 213d
000003c0: 69b5 5b3b 4382 4b3d bb97 493d 2ce7 463d
000003d0: e0dc 923d 4789 143e d62b b8bc 7111 953d
000003e0: f1df 143d d9a5 aa3c 3c64 e13c 9046 a83d
000003f0: de25 453d fd65 d83d 6963 cf3c 1020 c13d
0.11137801 0.036250323 0.046973687 0.086340666 0.009710481 0.06178475 0.08262194 0.1209603
0.050184906 0.057834312 0.010817796 -0.013787403 0.07060625 0.057922456 0.058968477 -0.022082722
-0.0018330205 0.07524511 -0.054038063 -0.011361624 -0.022622136 -0.009452144 0.03632518 -0.02278304
-0.022980358 -0.04629635 -0.04016777 0.00028688915 0.03570625 0.015181361 0.002894689 0.01753508
0.0028665722 -0.025671506 -0.043411467 -0.06604452 0.019374613 0.079766355 -0.023725947 0.021420676
0.002891149 -0.05499782 0.08467139 0.08540105 0.019742817 0.022955822 0.16745585 0.14542727
0.1232266 0.097968236 0.09992145 0.040134273 0.06534411 0.14735574 0.023079576 0.033037968
0.07125968 0.03323777 0.038150318 0.02739689 0.010739018 0.030031221 0.06466425 0.04249197
0.011801351 0.08898818 0.052042715 -0.026695956 0.046661247 -0.0760032 0.032360498 0.052239265
-0.013190899 0.030474233 0.076476894 0.016679255 0.059071384 0.032463435 0.020839749 0.019726347
0.006453798 0.053555768 0.041373167 0.04317694 0.09554283 0.027375782 0.077344455 -0.03949797
-0.008686075 0.091556445 0.094330356 0.024020784 0.027194574 0.083029754 0.015467264 0.117247984
0.035423514 0.010965999 0.01640821 0.04823426 0.062361054 -0.0019071918 0.02131229 0.10611212
0.056154974 0.063285984 0.05911561 0.086642355 0.113087736 0.111850664 0.16961218 0.15356922
0.0326182 0.13485658 0.06895233 0.14628321 0.06249287 0.020737968 0.06005527 -0.04991713
-0.009755197 0.05561902 0.043717507 0.0010939942 0.054741077 -0.018326147 -0.031534366 -0.010408513
-0.016333006 0.04817231 0.014594044 0.0061577386 -0.061376393 0.03237231 0.061864294 -0.054458175
-0.069736786 0.008228189 -0.022064514 0.042929985 0.079774566 -0.0073370603 0.06886698 0.085785694
-0.026246862 0.018355781 0.034539253 0.084759936 0.07861444 0.04623283 0.07195873 0.028268218
-0.008776108 0.01825134 -0.002874295 0.021856861 -0.057387717 0.099086076 0.07033529 0.0150683345
0.034921177 0.08780418 0.083049946 0.010097195 0.068591654 0.025262289 -0.017518677 0.076847285
0.036496308 0.02209349 0.0846177 0.06847771 0.014559671 -0.030397069 0.005264152 -0.011348561
-0.062123567 -0.033407774 -0.02862811 -0.0055302945 0.013008255 -0.005163607 0.03594294 -0.004425139
0.063774385 0.05963947 0.057830043 -0.028942462 -0.03587547 0.047897864 0.010204402 -0.016023688
-0.033983424 0.029316453 0.06479462 0.008930845 0.11740855 0.056627557 0.018021315 0.15965386
0.17527224 0.08945782 0.09020533 0.1675939 0.10956827 0.11819568 0.22975905 -0.0577384
0.0010878661 -0.0011597953 0.01595037 -0.017539477 0.005887887 0.08846118 0.12660924 0.12099665
0.14376533 0.07066697 0.04428135 0.06416119 0.12364953 0.026229678 -0.004178267 0.12570272
0.13852294 -0.018134734 0.053573694 -0.059830416 0.027640821 -0.02255356 0.06932799 0.0015744608
0.014825771 0.036607128 0.07169596 -0.0084629245 0.066398084 0.020381462 -0.0066863555 0.03935229
0.0033524877 0.049684774 0.049216967 0.048560306 0.07171035 0.14505492 -0.02248184 0.07278717
0.03634638 0.020831035 0.027513616 0.08216584 0.048131816 0.10566328 0.025315957 0.094299436

encoder.blocks.1.conv.3.bias f4 [32]
00000000: e294 94bd cd03 a2bd 35c1 10bc 694e c8bb
00000010: 9b4c 863d a639 953d d2da c23c 98fc 30bd
00000020: 1d00 e8bd b076 533c 6234 463a bd17 8bbd
00000030: e924 cfbd bbd1 49bd 93eb 57bc cb7e 72bd
00000040: 80e8 d3bb b27b 93bc fe62 253d 23fe 103d
00000050: dec0 8c3d 4d01 09bd 74ef 71bd b4c9 e0bc
00000060: e503 1b3d 49d3 b7bd b7ab aabd 3a87 243d
00000070: 0cef b73c ba2c f8bb f12c 38bc befd 1bbc
-0.0725496 -0.07910881 -0.008835127 -0.006112863 0.0655758 0.07286386 0.023785982 -0.043209642
-0.113281466 0.012906715 0.0007560906 -0.06791637 -0.10114462 -0.04927228 -0.013178724 -0.05920295
-0.006466925 -0.018003318 0.04037761 0.035398614 0.06872724 -0.033448506 -0.05906625 -0.02743993
0.03784551 -0.08975846 -0.08333533 0.040168025 0.022452854 -0.007573691 -0.011241184 -0.009520946

encoder.blocks.1.conv.4.weight f4 [32]
00000000: 6af5 853f 66a3 823f d159 823f 0ba6 7c3f
00000010: e66f 833f 9ab3 813f d4f0 843f cc99 8c3f
00000020: d53a 753f 6a3d 683f ef2c 833f 6642 703f
00000030: bac5 813f 5fa0 813f 04e4 693f 1c9b 6e3f
00000040: d696 793f 91da 7a3f 8180 7e3f 4d09 893f
00000050: a56d 783f d11d 653f 5434 833f 82a4 643f
00000060: 899c 7a3f 1753 803f b9e5 8e3f 0e51 7a3f
00000070: 6b5a 613f 815d 773f 624f 843f 9196 703f
1.046552 1.0206115 1.018366 0.9869086 1.0268524 1.0132935 1.0385995 1.0984435
0.95792896 0.9071871 1.0248088 0.93851316 1.0138466 1.0127066 0.9136355 0.9320543
0.9749578 0.97989756 0.9941483 1.0705963 0.97042304 0.8949862 1.0250344 0.8931352
0.97895104 1.0025357 1.1163856 0.9777993 0.8802859 0.9662705 1.0336726 0.93979746

encoder.blocks.1.conv.4.bias f4 [32]
00000000: 3c35 93bd 7c45 b0bd bcee 593a f93e bebd
00000010: 8706 b2bd 906f cfbd a70c 29bc abfa 1b3d
00000020: 309c 41bd 97b9 1fbd 4975 54bd ef7b 163d
00000030: f6a2 a7bb 352c c1bb 6985 58bc 5381 2abc
00000040: e52e d3bd 442f b4bc d21f dcbc 5f68 8bbd
00000050: 481f debb dc5a 0abe d338 3d3d 5325 1dbd
00000060: 3e18 a43d d3bf dcbb 57bc 98bd 7dae 963c
00000070: d07f bcbd 6912 a4bc 57bd 6b3d 7697 7e3c
-0.07187888 -0.08607003 0.0008313467 -0.09289355 -0.08692651 -0.10128701 -0.010317958 0.038080852
-0.047268093 -0.03899535 -0.051869664 0.036739286 -0.005115862 -0.0058951625 -0.013215401 -0.01040681
-0.10311679 -0.021995194 -0.026870642 -0.068070166 -0.0067786314 -0.13511223 0.04619677 -0.038365673
0.08012436 -0.0067367344 -0.07457798 0.01839375 -0.09204066 -0.02002831 0.057553615 0.015539041

encoder.blocks.1.conv.4.running_mean f4 [32]
00000000: 8223 3b40 df47 cc3f 2dcf bdbf 3a59 403f
00000010: c6ba e23f 363b 0340 7f39 60bf c9a2 c1bf
00000020: ef22 93bf bb35 f5bf 1eeb 6e3e 554f 6bbf
00000030: 779a e9bf bbf2 10bf 3eb3 febf f873 153d
00000040: 2072 c53e 5543 b7bf 90fa b0bf 6626 d83f
00000050: 338b 5e3e 7da3 fbbf 5e1b 41bf e488 afbf
00000060: c812 fdbf 51b9 423f 822b e9bb e68a 52bf
00000070: 86e4 1cc0 65a1 513f 4ebc 7dbf 6bdd e0be
2.9240422 1.5959433 -1.482885 0.7513615 1.7713249 2.050489 -0.8758773 -1.5127803
-1.1495036 -1.9157022 0.23331878 -0.91917926 -1.8250264 -0.5662038 -1.989845 0.03648755
0.38563633 -1.4317423 -1.3826466 1.6886718 0.21732788 -1.9659268 -0.75432384 -1.3713651
-1.9771357 0.7606402 -0.0071157822 -0.8224319 -2.451448 0.81886894 -0.99115455 -0.43918929

encoder.blocks.1.conv.4.running_var f4 [32]
00000000: b517 ac41 d894 3341 28ee 6441 c555 8d40
00000010: 1a79 8d41 b2ce 6c41 215e 0341 31a3 3b40
00000020: d9ab 2940 2b77 8141 cef6 e440 ff37 2940
00000030: 4865 fe3f 7b0e b240 fbfc a040 c1da 7d40
00000040: 6b08 9240 9019 8f40 7525 8a41 dafd 1141
00000050: b551 d840 69b1 8241 15e9 2740 194c 7340
00000060: 0103 5640 867d 4341 104b 8d40 538c 4440
00000070: 9ee5 6f41 4938 a340 d956 e740 0679 1d40
21.511576 11.223839 14.308144 4.41672 17.684132 14.800463 8.210481 2.9318354
2.6511137 16.183187 7.1551275 2.6440427 1.9874659 5.5642676 5.0308814 3.9664767
4.5635276 4.4718704 17.26829 9.1244755 6.759974 16.336626 2.6236012 3.8015196
3.3439333 12.218145 4.415413 3.0710647 14.993559 5.1006207 7.2293515 2.4605117

encoder.blocks.1.skip.weight f4 [32, 16, 1, 1]
00000000: 80e1 6cbc 1877 133d 94b7 733e f0c5 63be
00000010: 70e9 a2bc 30bc 27bd fcc8 17be d050 77bd
00000020: 3029 033d 4017 773c 4e3e 01be b845 debd
00000030: 3097 1dbe 78ef 573d 2054 70bd 54e7 f83d
00000040: 6ceb 7fbe 36e7 50be e8a7 b03d fa93 793e
00000050: 2851 7cbe 10be 75be 3862 003d b0f0 dabd
00000060: 408d c23d 00d8 4dba 302a 62be 4cbb b73d
00000070: 204d 5bbc 302d 6bbe 6011 39bd bc1e 49be
00000080: c887 883d 1886 3ebe 2e9e 28be 009c 8a3b
00000090: 4066 c1bc 304d 643e a0cc d13d 9a60 67be
000000a0: c0a2 1d3e 20f7 c3bc 9eb0 57be 801d 19bb
000000b0: 8048 963c ea65 2abe d69f 52be 1056 853d
000000c0: 6013 09bc d0f0 fa3c 207a 093e cc39 77be
000000d0: 14b0 bdbd 407b b0bd 1e33 313e 0c0e febd
000000e0: 861a 6bbe 2881 053e 10dd 84bd f871 10be
000000f0: d070 3d3d d044 803d 50dd 0f3d 40a1 6b3e
00000100: c2d9 003e e059 393d c8c4 443e 20ca b43c
00000110: c8a2 b0bd 6690 54be 32fa 77be 7479 3a3e
00000120: 5c1e 893d 743e 503e 60eb 22be c44b 8dbd
00000130: 6a21 003e 027b 69be 38ff 593d 64a5 2cbe
00000140: 1451 80bd 7cdf 223e 0c8a 973d c0a8 043c
00000150: 206d 4b3e ceb0 4cbe 0419 6bbe 70e1 1fbe
00000160: 6021 c93d 04dc 2f3e eca8 e8bd 0014 b13d
00000170: 340d 61be 7c49 b13d a4d5 023e 185a 2e3e
00000180: 5c9b 843d 7a66 403e 96a4 093e 7015 403e
00000190: 1016 143e 90ee 133d f688 27be 0088 30bb
000001a0: fc92 33be 8c47 03be a43b 96bd 70db bc3d
000001b0: 6897 163e d2aa 2f3e a0be 0c3e 0073 5abe
000001c0: dc30 8dbd e21d 3fbe a085 20bd 6064 953c
000001d0: 58a9 08bd 60f3 57bd dad1 683e 00f9 e23a
000001e0: de73 78be d644 273e 3e77 1f3e 9c5f 8c3d
000001f0: 481e 0cbd 2a41 1dbe 30eb adbd c428 9dbd
00000200: 6c5a 1ebe c83a 44be 0298 20be 7838 5b3d
00000210: 9028 36bd be93 6f3e 1473 c5bd 68a8 c7bd
00000220: 1498 983d 7201 283e e803 0c3e 56fe 72be
00000230: b83d 06bd 7cec c0bd 30c0 c93c e85d 933d
00000240: 00b0 96bb a81f 36bd 60ae 563d dc03 803d
00000250: 984e 75bd d86a 3a3e fe8e 243e ec13 a93d
00000260: 6c71 50be 1cbe 38be 384d e83d 80a2 4fbb
00000270: 680c bbbd b8f0 0dbe fc78 aabd 10d3 3b3d
00000280: ec03 4bbe 442a 513e ee95 113e b214 52be
00000290: 50ef cfbc 00a1 3d3e 38d8 1dbe 5868 48be
000002a0: 7898 263e 161b 3fbe 169b 093e 40a4 19bd
000002b0: a00f 073d b4cc 823d 52de 40be a06e 6bbe
000002c0: a011 93bc 445a 46be 40ae 483d 3054 303d
000002d0: f002 eb3d 4891 15be b402 a43d 6845 a43d
000002e0: bcc0 3f3e 9ae8 0f3e 0c55 863d b002 69bd
000002f0: fcbd 58be ee02 443e 6823 303d 1e62 523e
00000300: b4bc ff3d 52ab 2a3e 0461 76be 3893 153e
00000310: 1074 873d b070 d9bd a0a7 32bd a4a3 bfbd
00000320: 60a8 113d 30d6 b4bd 887d 413d f0d7 e43d
00000330: f804 fd3d 9027 34bd 1c5e 7ebe 68c1 f4bd
00000340: 201c 0cbe a05d 263d e495 4ebe a2bc 133e
00000350: 3275 15be 54fd 0fbe c0f1 c53c 4c76 f13d
00000360: ca77 4f3e 90b6 b63d 603d 93bd f8b1 2bbe
00000370: 624a 793e 8a93 0cbe c099 98bd 2c8a 1bbe
00000380: 4889 61be 5a4d 5dbe 08fe 4abd 1c0c 80bd
00000390: ccc2 e43d 202c 093c 68b5 153e 6067 1fbc
000003a0: e857 aa3d 2062 4fbc 80c1 c7bb 403b e5bc
000003b0: da75 50be f66a 34be 1a98 243e b64c 3abe
000003c0: 18a0 62be 7aac 133e c461 3f3e c844 4cbe
000003d0: cc57 52be bcb4 acbd 803d be3c ac7b 263e
000003e0: b025 3bbe b0c0 f83d 60e3 7dbc e08d 983d
000003f0: 7e15 22be d044 b7bc b21f 2f3e a8e8 f2bd
-0.01445806 0.03600225 0.23800498 -0.22243476 -0.019886702 -0.040950954 -0.14822763 -0.060379803
0.0320217 0.015081227 -0.12621424 -0.108531415 -0.15389705 0.05271861 -0.058673978 0.12153497
-0.2499215 -0.204007 0.086257756 0.24372855 -0.24640334 -0.23998284 0.03134367 -0.10690439
0.094995975 -0.0007852316 -0.22086406 0.08971271 -0.013385087 -0.22966456 -0.045182586 -0.1964063
0.06666523 -0.1860584 -0.16466591 0.0042300224 -0.023608327 0.2229507 0.10244107 -0.22595444
0.15394115 -0.02392155 -0.21063468 -0.002336353 0.018345118 -0.1664044 -0.20568785 0.06510556
-0.008366436 0.030632406 0.13425493 -0.24143142 -0.092621 -0.08617258 0.17304656 -0.12405023
-0.22959337 0.1303755 -0.06487477 -0.14105976 0.046250165 0.06263125 0.03512317 0.2301073
0.12583068 0.045251727 0.19215691 0.022069037 -0.08624798 -0.20758209 -0.24216536 0.18210393
0.06695244 0.20336324 -0.15910101 -0.06899217 0.12512746 -0.2280083 0.05322191 -0.16859967
-0.062654644 0.15905565 0.07399377 0.008096874 0.19865847 -0.1998932 -0.22958761 -0.15613341
0.09820819 0.17173773 -0.11360344 0.08646393 -0.21977693 0.08656594 0.1277681 0.17026556
0.06474945 0.18789092 0.13441691 0.18758178 0.14461541 0.036116183 -0.1636084 -0.002693653
-0.17536539 -0.12820262 -0.07335594 0.09221542 0.14706194 0.17155007 0.13744593 -0.21332932
-0.06894085 -0.18663743 -0.039189935 0.01823634 -0.033364624 -0.052722335 0.22736302 0.001731664
-0.2426295 0.16334853 0.15572831 0.068541735 -0.034208566 -0.1535689 -0.08492124 -0.07673791
-0.1546418 -0.19163048 -0.15682986 0.05352065 -0.044472277 0.23396203 -0.0964109 -0.09748918
0.074508816 0.16406801 0.13673365 -0.23729834 -0.032773703 -0.09420106 0.024627775 0.071956456
-0.0045986176 -0.044463784 0.05241239 0.06250736 -0.059889406 0.1820482 0.16070172 0.08255753
-0.20355767 -0.18041271 0.11342853 -0.003168255 -0.09133226 -0.13861358 -0.08323857 0.04585558
-0.19825715 0.2042628 0.1421735 -0.20515707 -0.025382668 0.18518448 -0.15414512 -0.19571054
0.162691 -0.18662676 0.13438067 -0.037510157 0.032973886 0.063867 -0.18834808 -0.22991419
-0.01795274 -0.19370371 0.048994303 0.043049037 0.1147517 -0.14606202 0.08008328 0.08021051
0.18725866 0.14053574 0.0655919 -0.05688733 -0.21166223 0.19141743 0.043002516 0.20545241
0.12487164 0.16666916 -0.24060446 0.14606941 0.06613934 -0.106171966 -0.04361689 -0.09357384
0.035560966 -0.088299155 0.047238857 0.11173999 0.12354463 -0.043983042 -0.24840587 -0.11950952
-0.13682604 0.04061663 -0.20174366 0.14427426 -0.14595488 -0.14061481 0.024163127 0.117901415
0.2026054 0.0892154 -0.07189441 -0.16767108 0.24344781 -0.13728157 -0.074512005 -0.15189427
-0.22025025 -0.21611539 -0.04955867 -0.0625231 0.11169967 0.008372337 0.14619982 -0.009729236
0.08317548 -0.012657672 -0.006096065 -0.027982354 -0.20357457 -0.17618927 0.16073647 -0.18193325
-0.22131383 0.14421263 0.18689638 -0.19948113 -0.20541304 -0.0843291 0.023222685 0.16258115
-0.18276095 0.12146127 -0.015496105 0.074489355 -0.15828511 -0.02237168 0.17101935 -0.11860782

encoder.blocks.1.skip.bias f4 [32]
00000000: 062d 533e 3824 d5bd 8470 b0bd 8e36 38be
00000010: 44b4 1bbe 6a9e 47be 84e9 da3d a8ee e73d
00000020: 7c9f 203e 74e6 103e 1cf8 043e c4d8 ddbd
00000030: f645 613e 30ce 683e 80f6 ecbc 36ce 0bbe
00000040: c8c2 463d 6c09 6bbe 0a81 0e3e 2035 13bc
00000050: a0c7 6bbd e068 bc3c 9082 9f3d 748e 08be
00000060: e22b 5b3e a022 0f3e 8e1b 793e 3cb0 00be
00000070: 02e8 0b3e aa20 13be 12b7 373e bcd0 00be
0.20622644 -0.10407299 -0.08615211 -0.17989561 -0.15205485 -0.19494024 0.10689071 0.11324817
0.15685838 0.14150411 0.12985271 -0.108323604 0.21999344 0.22734904 -0.028926134 -0.13652882
0.0485256 -0.22952813 0.13916412 -0.008984834 -0.057563424 0.022999227 0.07788575 -0.13335592
0.21403459 0.13978052 0.24326918 -0.12567228 0.13662723 -0.14367929 0.1794093 -0.12579626

encoder.blocks.2.conv.0.weight f4 [64, 32, 3, 3]
00000000: e4cd 1b3d 1ba3 923d 1656 aa3d 2348 08bc
00000010: 9a42 e93d 178d 083e 5ab4 62bc c1c5 ea3d
00000020: 5f17 f43d 1f71 da3c c04b 243c 9e98 c43d
00000030: 02c7 d73d 084c e33d 084f a83d 7476 d53d
00000040: 77f9 213e e765 663d 1e02 8d3d 0c5f 28bd
00000050: dcca 53bd c387 2f3d 3d10 10bd f23b f0bc
00000060: e37b 99bc 130e 34bd 2faf 203d dd05 01bd
00000070: 0222 813c 2f78 003d 0e8e 313d 95d5 d13c
00000080: 5194 bb3d f34e 4d3d 41e6 ba3d 134b ad3d
00000090: 5aac c23c 8b7a a43d 591d f73d 7a39 a03c
000000a0: ad5e fe3d 6df5 4f3d effb ac3d fac7 0f3e
000000b0: 10de 1d3e 033d 903c 18c5 9d3d 0c02 463d
000000c0: 728d b43d f68c b23d c50b 1b3d 3954 9e3c
000000d0: 0d65 b23d 97f7 873d c334 85bd dd50 dcbc
000000e0: 4cef 2ebd 2aa0 5cbd 07e2 0c3d 3f20 0d3d
000000f0: 5057 4b3c 49c7 45bd e4ce 1cbd 9c47 ca3d
00000100: cab3 d63b ca1f 923d d6ab 773d c006 a9bb
00000110: f06b c13d 8f99 413d db19 803d ad0a f73d
00000120: e4e2 ffbc 0d99 0ebd bc86 81bc fb81 d8bc
00000130: 4ee6 6dbd 244a 83bc aa8c 6cbd b044 76bd
00000140: f217 9cbc 3dc0 6dbc 4dda 4a3d 07ee 753d
00000150: c741 883b 0a01 093b 3bbc 0e3d b08a d43c
00000160: 6d52 723d 4a59 6e3d 2c45 3e3d 4394 973d
00000170: 8c99 b23d 5c41 783d a9de 593c 1136 0c3e
00000180: 9af8 283d 4574 c13d 3d0b b83d df41 a4bd
00000190: 3c74 143c def6 1a3d 71b6 e1bc 803b f53c
000001a0: e2cc ff3b 232e 153c f32d 01bd 54f3 fa3c
000001b0: 28f3 02be 442e 88bd e8d9 9fbd 18c0 19be
000001c0: ecce 84bd 7e24 4fbd 60fd 83ba 13d6 4b3d
000001d0: 7a7f f8bc 7094 95bc b877 90bd c0bf 77bc
000001e0: 6912 0bbd b35e 57bd e766 e5bd a59c febd
000001f0: f60d 6dbd a8c7 3dbd 169a 913d d0f6 2b3d
00000200: d014 8b3d 1ca4 2fbb 8be8 d53b 95b2 0e3d
00000210: 717c 55bc cde8 c9bc 0583 4fbc ea93 923d
00000220: 1a56 bd3b 1f7c a13d 4105 e03d 7335 303d
00000230: 8469 873c 9b32 863d 8e09 083d 8ebd 063d
00000240: 15cc 0dbd b8d1 9a3d 714d 4cbb d0a2 183c
00000250: ed68 ebbb eac1 773b 323a 0f3d 1595 d93d
00000260: 0408 4b3d 4bf4 3ebd 797b 683a f769 82bd
00000270: 285e ccbc be4a 47bd db4b 80bd 46ce 063c
00000280: b30a 8ebd 7ea7 b73b 5d1b a03d 5fcb ae3d
00000290: e95a bf3d 92fb 463c 9ccc a03d 5d12 ea3d
000002a0: 282f 743c 8273 be3d 1acd fe3d a5c7 3e3d
000002b0: c307 b73d c678 1d3e 3367 583c b141 3d3d
000002c0: bff3 203d 3d39 fa3d 58a8 dd3d ca71 133d
000002d0: 94de a0bd 328f d7bc 2512 10bd a6f9 c2bc
000002e0: 1a14 ec3c 9809 8cbc 9bca 3cbd 07a5 9dbc
000002f0: e05c ffbc 3692 debc 44c5 15bd 886b da3c
00000300: dd3c 8fbc 4c01 f1bc da2b 143d 74fe db3b
00000310: 318e 283d 5766 2d3d f18b 893d 543e 8dbd
00000320: cf39 c5bd f5d4 8f3c 4712 11bd 15ad dcbd
00000330: fd53 353b 30f9 37bd bef9 cdbd 4b00 783d
00000340: 9200 4f3d 60fc 8a3b 9259 3b3d 40c0 863d
00000350: b54c 91bb 5329 b43d 0c45 cb3d 03d8 fcbb
00000360: 1018 4abd 2b1f b93c c9f0 153c 80c6 4fbd
00000370: 3af5 83bd b87f e9bc 2b2f 55bd 59fb f4bc
00000380: 0850 21bc c2f4 b0bc d34f 63bd 5375 f9bc
00000390: 7554 66bd 210e b5bc f513 5cbd fe14 253c
000003a0: 6cee 693a 9862 8ebd 3ab8 b4bb adf7 383c
000003b0: f7e4 d1bd c8fd 8cbd 4893 01bc ae64 9bbd
000003c0: 6767 d2bd e7a8 79bd 47ec 513b a6b7 e5bc
000003d0: 6db6 7c3d ad7c 813d a613 7e3c d6bf a23c
000003e0: 264a 9d3d 134c 383d 6eaf d13d 0949 b93c
000003f0: a3e5 ef3d be61 c13c cae0 8b3c f4f4 073e
0.03803815 0.07160016 0.08317201 -0.00831798 0.11389656 0.13335072 -0.0138369445 0.114635
0.1191852 0.026665268 0.010027826 0.09599422 0.105360046 0.11098486 0.08218199 0.10422984
0.1581782 0.056249525 0.068851694 -0.04110627 -0.051707134 0.04285408 -0.035171736 -0.02932546
-0.018735832 -0.043958735 0.039229568 -0.031499732 0.015763287 0.031364616 0.043348365 0.02561454
0.091591485 0.05012412 0.09125949 0.08461585 0.023763824 0.08031186 0.120661445 0.019558657
0.12420402 0.050771166 0.0844649 0.14041129 0.15416741 0.017607218 0.07703608 0.048341796
0.08816041 0.087182924 0.03785302 0.01932727 0.0871068 0.06639021 -0.06504204 -0.026894027
-0.04270868 -0.05386368 0.034395244 0.03445458 0.012410954 -0.048285756 -0.038283244 0.0987694
0.0065521942 0.071349695 0.06046661 -0.0051582754 0.094444156 0.047265586 0.062549315 0.12062583
-0.03123612 -0.03481393 -0.015811317 -0.026429167 -0.058080964 -0.016026564 -0.057751335 -0.0601241
-0.019054387 -0.014511165 0.049524594 0.060041454 0.004158232 0.002090516 0.03484748 0.025945038
0.05916064 0.05819062 0.046452686 0.074013256 0.08720693 0.060609207 0.013297715 0.136925
0.04125271 0.09446005 0.089865185 -0.080203764 0.009060916 0.037833087 -0.027552815 0.029935598
0.0078064064 0.009105238 -0.03153796 0.030633606 -0.12788069 -0.066494495 -0.07805234 -0.15014684
-0.0648478 -0.05057191 -0.0010070018 0.049764704 -0.030334223 -0.018259257 -0.070540845 -0.0151214
-0.033953104 -0.052580547 -0.11201268 -0.12432221 -0.057874642 -0.046332985 0.07109468 0.041983426
0.06791079 -0.0026800698 0.0065279654 0.034838278 -0.013030157 -0.02464714 -0.012665515 0.071571186
0.0057780864 0.07885002 0.10938502 0.043019723 0.016529806 0.06552621 0.033212237 0.032895617
-0.034618456 0.07559532 -0.0031174088 0.009316161 -0.007184139 0.003780479 0.03496761 0.10624138
0.04956819 -0.046619695 0.00088684965 -0.063678674 -0.024947241 -0.048655264 -0.06264468 0.00822789
-0.069356345 0.0056046834 0.07817719 0.08534884 0.093435116 0.01214494 0.07851526 0.11429284
0.014903821 0.09299375 0.12441464 0.046577115 0.08937027 0.15378103 0.013208198 0.046205226
0.039294954 0.122179486 0.10823125 0.03599719 -0.078549534 -0.026313398 -0.035173554 -0.023800682
0.028818179 -0.017094418 -0.046091657 -0.01924373 -0.031172216 -0.027169328 -0.03656508 0.026662603
-0.017485077 -0.029419564 0.036174633 0.006713683 0.04115123 0.042333927 0.06716145 -0.06896654
-0.09630167 0.0175576 -0.03541782 -0.107752 0.002766847 -0.044915378 -0.100574 0.060547154
0.050537653 0.004241511 0.045739718 0.065796375 -0.004434193 0.087969445 0.09925279 -0.0077161803
-0.049339354 0.02259787 0.009151646 -0.050726414 -0.06443258 -0.028503284 -0.052046936 -0.029905008
-0.009845741 -0.021601085 -0.05549605 -0.030451452 -0.05623289 -0.022101464 -0.05372997 0.010075806
0.0008923772 -0.06952399 -0.0055151256 0.011289519 -0.1024875 -0.068843424 -0.00790865 -0.075875625
-0.10273629 -0.060952093 0.0032031701 -0.028041672 0.061697412 0.06322608 0.015507614 0.019866865
0.07680158 0.044994425 0.10238539 0.022617834 0.117137216 0.023606177 0.017074961 0.13277036

encoder.blocks.2.conv.0.bias f4 [64]
00000000: cb24 0cbc 1ead 083d abf5 8bbd de76 e13c
00000010: 5eb7 893d d946 bb3d a3c3 283d e314 2b3d
00000020: 8bc4 c7bc 4541 863b b8b8 d7bd 82b7 cc3c
00000030: 05ba 3c3d 16ee c6bc f64e 803c 1c1a a2bc
00000040: be1b 4c3c f3e8 21bd 1f82 2bbd 7a50 833d
00000050: eb8c 38bc 9c88 9dbb 2103 9a3d 12da 823c
00000060: 4934 45bd 6be4 8d3d 32fe 7c3d f7e1 07bc
00000070: 07d3 50ba 1226 7f3d c9a6 7bbb cb87 48bc
00000080: e110 233c 90ec c43d 6f1a c23c add4 1abd
00000090: 9bf7 073d cae8 c63b 765b 163d 64a6 153c
000000a0: 3975 21bd 1208 28bc e025 5dbd ca98 f23b
000000b0: 4b45 993d 213e 723d dff6 903b 33b1 223d
000000c0: f876 2cbd 0e8d 85bc 15d1 213d 5834 de3d
000000d0: aa67 6b3c 6bb8 a03c 3263 65bd 03fa 63ba
000000e0: f491 813d 2e92 a63c 01d6 283d aa82 82bd
000000f0: 57ad 6b3d 1cef d0bd 779b 97bd a8e1 9d3c
-0.008553694 0.033368222 -0.06833967 0.0275225 0.06724428 0.091443725 0.0412022 0.041767966
-0.024385711 0.004097136 -0.10533279 0.024989847 0.04607584 -0.02428345 0.015662652 -0.01978784
0.012457786 -0.0395288 -0.04187214 0.06411834 -0.011264066 -0.004807545 0.07520128 0.015973125
-0.048145566 0.06928333 0.061765857 -0.00829362 -0.0007966016 0.062292166 -0.0038398972 -0.012239407
0.009952755 0.09615433 0.023694245 -0.03780048 0.03319512 0.006070231 0.036708318 0.009133909
-0.039418433 -0.01025583 -0.0539912 0.007403468 0.0748392 0.059141282 0.0044239606 0.03971977
-0.042105645 -0.016302612 0.039506037 0.108498275 0.014367977 0.019619187 -0.056002803 -0.00086966174
0.063266665 0.020333376 0.041219715 -0.063725784 0.057538357 -0.102018565 -0.074026994 0.01927264
