toyshapes/pinets_strong/model_26.pth (torch, 466881 bytes, 71 tensors)

encoder.blocks.0.conv.0.weight f4 [16, 1, 3, 3]
00000000: 65db a63e 87ee 063e 9ad6 b03e 2417 e83c
00000010: 1426 883d 5733 7cbe d775 abbe 66e7 0ebe
00000020: 383e 013e b2be 2d3e a21e 98be 3217 a03e
00000030: 88ce 8b3e e569 a2be cf95 4dbe b3b3 11bc
00000040: 91ea 9bbe 10bb b13e 63a3 283e 455c f0be
00000050: eb28 bebe 80fe 6abe 6abe 8c3e 753f 5dbd
00000060: ed86 36be 9a1f 3e3e 4522 3a3e 7cb6 beba
00000070: e875 7ebe 3f6b 5d3e 9ec8 9cbe 5265 c93e
00000080: 377d 5abd a335 2e3e 3061 d53e 5460 51be
00000090: 7c04 8e3d 3812 a8bc db4a 94bd 02cf 54be
000000a0: eae8 4dbd cc8e ee3d d885 293b ac10 89bd
000000b0: 5953 0a3f dabf 3c3d 4faf d4bd 57ca 403e
000000c0: 9062 2e3e 30c9 c0be ab16 d63d dd19 313e
000000d0: c5d4 26be d1ab 913c b417 483e d062 81bd
000000e0: c07c 173e 5f4d 97bd 3bd3 93be 9f79 0d3e
000000f0: a86d 40bd 9a7e 943e a67a 26be 7272 63bd
00000100: fb06 d03d 93cd d6bd 8f73 97be 9fbd bf3e
00000110: 0743 12be d83a 25be 351e 773e 84fc 23be
00000120: b825 f13e a03f 86be 0a52 07bd 1551 913e
00000130: 7751 533d acd3 103e 0229 513e cdac 16bd
00000140: a743 72bb f9d9 713d 9ce6 203e 3d38 043e
00000150: a0fc 073e f9ef 313e d8dc c23d 4f46 e1bd
00000160: 5049 f1be 74f1 713d 54be 90be 31a7 f33d
00000170: 1217 f43e c981 bd3e 9854 2ebe d604 963d
00000180: a7cd 2dbe 71e4 8abe 0e64 33be 94ac 62be
00000190: c3cf 9ebe 0b58 afbe 9484 abbc 41f2 193e
000001a0: e779 c43d 49e5 803e e414 113e a1ba 6d3e
000001b0: ffc7 7c3e 2ce6 093f 0f18 a43d 1034 1f3e
000001c0: 6ca0 043e 4ccc 91be 08f5 d9be 36b8 46bd
000001d0: 9d54 143e cda8 b23e 8463 813e e280 1fbd
000001e0: 0422 48be b47a c73e 0b5c 263e 2adf f4bd
000001f0: 751f 9a3e 609b 5a3e f4b7 483e 92b5 ebbe
00000200: 34b2 643e 7706 153e 795f 123e 3477 cfbd
00000210: 4277 7cbe 9699 803e bcb8 44be 54bd cbbe
00000220: 4ffb e73d 5519 f3bd b236 5abe 17e1 34be
00000230: 60b2 2cbc 5987 af3e 997c 923e 3826 1cbe
0.3258926 0.13176928 0.34538728 0.028331347 0.06647888 -0.2462896 -0.33488342 -0.13955459
0.12621391 0.16967276 -0.2971087 0.31267697 0.27306008 -0.31721416 -0.20076679 -0.008892941
-0.30452397 0.3471303 0.16468577 -0.46945396 -0.37140593 -0.22948647 0.27489024 -0.054015595
-0.17824908 0.18566743 0.18177135 -0.0014550234 -0.24849665 0.21622942 -0.3062181 0.39335114
-0.05334207 0.17012648 0.4167571 -0.20446903 0.06934449 -0.0205165 -0.0724084 -0.20782092
-0.050270952 0.1164833 0.002586713 -0.06692633 0.5403343 0.0460814 -0.10385 0.18827187
0.17029786 -0.37653494 0.10453542 0.17295022 -0.16292103 0.017782124 0.19540292 -0.06317675
0.14793682 -0.07387804 -0.28872094 0.13815926 -0.046979576 0.2900284 -0.16257724 -0.055529065
0.101575814 -0.10488429 -0.29580352 0.37449357 -0.14283381 -0.16135728 0.24132617 -0.16014296
0.4709909 -0.26220417 -0.033037223 0.28382173 0.051591363 0.14143246 0.204258 -0.03678589
-0.0036966593 0.059045766 0.1571297 0.12912078 0.13279963 0.17376699 0.09514779 -0.109997384
-0.47126245 0.05906816 -0.2827021 0.118971236 0.4767385 0.3701308 -0.17024457 0.07325141
-0.16972981 -0.27127412 -0.17518637 -0.22136146 -0.31017885 -0.3424686 -0.020937242 0.15033819
0.095935635 0.2517493 0.14168125 0.23215725 0.24685667 0.5386684 0.08012401 0.15547204
0.12951821 -0.2847618 -0.42569757 -0.04851552 0.14485402 0.3489441 0.25271237 -0.03894127
-0.19544226 0.38960803 0.16246049 -0.11956628 0.30102125 0.21348333 0.19601423 -0.46036965
0.22333604 0.14553247 0.14294232 -0.10130158 -0.24654868 0.25117177 -0.19211096 -0.39792883
0.1132723 -0.11870066 -0.21309927 -0.1766399 -0.010540575 0.3428295 0.28610685 -0.15248954

encoder.blocks.0.conv.0.bias f4 [16]
00000000: 2cf8 2abe 9300 40be 6ea0 153e be79 613e
00000010: 156c 75be b0a9 863e 791c e2be 44b5 60bd
00000020: 0d9d bbbe 7555 9dbd b724 a0be 010d 193e
00000030: 6fa4 ea3e 81b6 3d3e bd74 33be ec38 9cbe
-0.16696233 -0.18750219 0.1461198 0.22019097 -0.23967011 0.26301336 -0.44162348 -0.05486037
-0.36643258 -0.07682315 -0.3127801 0.14946367 0.45828578 0.18526651 -0.17525001 -0.30512178

encoder.blocks.0.conv.1.weight f4 [16]
00000000: 1335 793f 1614 9d3f 6193 733f 425f 433f
00000010: 615f 293f 7fc4 a13f fde4 693f a2a0 a03f
00000020: 3503 fe3e ad65 363f 031f 153f c5db 573f
00000030: e20f ef3e e4dd 533f d6d6 993f 630e 833f
0.9734661 1.2271755 0.9514676 0.76317227 0.6616116 1.2638091 0.91365033 1.2549021
0.49611822 0.71248895 0.58250445 0.84319717 0.46691805 0.82760453 1.2018688 1.0238765

encoder.blocks.0.conv.1.bias f4 [16]
00000000: 69a7 53be e7d5 f13e dc00 86be 3737 a6bd
00000010: cff7 1fbe ce16 063f 4179 9c3d db5e f53e
00000020: 5a60 f5be a1cc 7ebe 1ba2 a2be 765f 56be
00000030: d516 c1be 21a1 93be 7431 003f b4c0 21bc
-0.2066933 0.47233507 -0.2617253 -0.08116 -0.15621875 0.5237855 0.07640315 0.4792393
-0.47925073 -0.24882747 -0.31764302 -0.20934853 -0.37712732 -0.2883387 0.5007546 -0.009872604

encoder.blocks.0.conv.1.running_mean f4 [16]
00000000: 1038 d63c 78a1 5bbe 17a4 a5bd ca33 d13e
00000010: e6e4 e5bd 149e 933e 31f6 c6be 46e7 02be
00000020: 1d40 803b 8f63 ad3d f339 a8be bba4 083e
00000030: da63 3e3f a5fd 4d3f 3cc3 44be 98ce f4be
0.02614978 -0.21448314 -0.08087938 0.40859824 -0.112252995 0.28831542 -0.38859704 -0.12783536
0.003913893 0.08466255 -0.32856712 0.1334409 0.7437111 0.80465156 -0.19215101 -0.4781387

encoder.blocks.0.conv.1.running_var f4 [16]
00000000: 5c0f 5a3c 2d28 9a3b 5bf1 673c cd80 123c
00000010: 1994 043c b140 1d3b 02ef ac3a 71c3 853b
00000020: 13a1 f83c 7ef1 163c f4c2 eb3b 2549 3e3c
00000030: 4e80 ba3c 52ed 913d 7db9 ab3a b13f 2d3c
0.013309326 0.0047044964 0.014156665 0.008941841 0.00809195 0.0023994858 0.0013193788 0.0040821363
0.030350244 0.00921285 0.007194871 0.011614119 0.022766259 0.071253434 0.0013101544 0.010574267

encoder.blocks.0.conv.3.weight f4 [16, 16, 3, 3]
00000000: bb41 3bbd 4be6 b1bd df34 f4bd 6595 e03b
00000010: 3776 513e e0d8 503e 8edb 4e3e a30f 1d3e
00000020: 7db8 ff3d 6d11 0ebd 63f1 bbbd de6c 7bbd
00000030: ff0c 46be 2f0a 363d 4a35 51be b9cb e4bd
00000040: b16e f33d ab50 223e ebe8 353e b00e 803e
00000050: 5307 583e b1cc 6e3e 4b50 823e c2b5 3a3e
00000060: 3a11 bfbd 2be2 5fbe 466e 41be e775 543d
00000070: e674 4b3e 2829 943e b5f2 6f3d 4bb9 15bc
00000080: 8293 c13d 9809 8fbe 71be 11be 4287 0ebe
00000090: b4c3 be3d 8ccd 6b3e 0719 523e 6147 39be
000000a0: 74b7 0fbe 77ae 87bd 33a4 92be 75af 79be
000000b0: b3a0 26be 62b6 5dbd 87d9 fcbc 3520 0fbe
000000c0: 50af d3bd 22a0 edbd 573b c4bd 001f a23d
000000d0: 8f42 9b3b 8795 203d 0dec 53be 655d 4e3c
000000e0: 3539 023d a477 70be ebee 51be ebf6 a3bd
000000f0: a805 863c f3a5 463e db76 103d 3dd9 ccbd
00000100: 7041 01bd 63f9 2c3c ef37 16bc b433 19be
00000110: 076d d5bd 6c20 ac3b 625a d8bd 8c8f 5bbe
00000120: b255 edbd 5d85 4fbd e609 27be 2337 303d
00000130: a658 b63b ebe2 1ebe 8b1c 87be 2ca8 08be
00000140: 1a20 c3bd 6fe4 9cbd ffcd 2fbd df53 c73c
00000150: e3de 423e 16d3 063e 5ed7 583e 7ec0 a3bc
00000160: 894b 1b3e 84a0 e43d ea36 35be d793 1cbe
00000170: 0796 26bd ec08 8c3c 5302 243e 0611 4a3e
00000180: 5dfe b23c 8b72 263e c57b 97bd 3134 2c3e
00000190: ca5a 1c3e 1765 303e 5ea2 6a3e ad50 a13e
000001a0: 4d9d 793e 46d6 dfbd 1c8b 37be 196c 58be
000001b0: 31ea 06be 06f8 07be a3ea 33be 77d3 3fbd
000001c0: f0c0 a23d 984a 9b3d 214f 813d a966 4b3e
000001d0: 4c0b bf3d ae00 c3bd 5052 bbbd ae52 febb
000001e0: a191 78bd 61ca 023c c152 15bd d22e 963c
000001f0: 99c1 e4bb 1c6f 613d 7918 9bbe e62e 26be
00000200: 6021 8dbd c069 133d bb2b 35bd 8226 b73d
00000210: ff4b 4fbd 60bd bfbc 1000 ac3c 6ef5 a53e
00000220: 0101 a23e aeb0 a73e dcac cfbd 12a2 063c
00000230: 5b2b 7bbd d69d 58be 5325 8cbe 2fc6 9cbe
00000240: 402a b33d e020 9a3d eed2 20bb c4ab d5bd
00000250: 8d60 68be 9300 12be 1256 2fbe ffe3 17be
00000260: 04fe ebbd 8b51 903d e250 f1bd 87e7 bbbd
00000270: f169 98bd b28f 67be 0cff e7bd a1e4 8bbc
00000280: 6ddc 98bd ec37 2bbe a11d 143e 8ebf f83e
00000290: 483b cf3e a72a b63e e506 0b3e d2da 5f3e
000002a0: 0caa 66bd 4394 5cbd e2bb c4bc 9090 39be
000002b0: a1c4 12bc 1d08 653e e2af 62be 640f 3d3d
000002c0: bf10 b93d 71b7 04bd 36d9 50bd 2c7f 87bc
000002d0: aca9 60bd c438 1bbd 1970 0f3e 5434 e6bc
000002e0: d047 40bc 390d f5bd b6b2 e7bd 23ce 48be
000002f0: eaad 41bd 2a37 ed3b 45ed e1bc 805e cfbc
00000300: ba51 c0bd 1c9a 93bd 5da1 08bd 6672 df3d
00000310: 8582 3d3d e34c cbbb c0bf 65be f6d6 b23d
00000320: 5a51 253e 19bb 11bd dab1 2ebe 6ffc 3dbe
00000330: b883 3ebe 406f 60be 6787 dfbb 15a5 47be
00000340: d4df 27be 22df 993d 37ec 163d 7fa3 6a3d
00000350: 53be 3d3d 91a5 ce3d 4cb7 dabd 16e5 82bd
00000360: 7fb1 56be 4724 93be 6802 84be dec8 903d
00000370: 8d89 25be 4535 f3bd 5699 17bd 7925 c8bd
00000380: 65eb c9bd 43e6 f6bd 10f8 adbd 69dd 02be
00000390: acb0 cabd c422 ba3c 3f48 b63d b45b 30be
000003a0: 07d4 2e3c a060 b0bd 680e af3d 1825 a7be
000003b0: ed3d 6ebe 869e 03be aefa 25be 2a8b d6bc
000003c0: e681 5bbe 6c02 d4bd 6702 0dbd cbf6 763e
000003d0: e30e e43d 190e 2d3e 1caa 243e 1521 1c3e
000003e0: f7e5 283e e7f4 513d 193f 16be 7f24 15bd
000003f0: 88a5 b1bd e41a 1abe bad3 0cbe 6a24 33be
-0.045716982 -0.08686503 -0.11924147 0.0068537467 0.20455252 0.20395231 0.20200941 0.15337996
0.1248636 -0.034684587 -0.091769 -0.06138312 -0.19340895 0.044443306 -0.20430484 -0.111716695
0.11886347 0.15851085 0.17764632 0.25011206 0.21096544 0.23320271 0.25451884 0.18233398
-0.093294576 -0.2186362 -0.18889722 0.051870253 0.19868812 0.2893765 0.058581073 -0.009138416
0.09451963 -0.27937007 -0.14232804 -0.13918784 0.09314671 0.23027629 0.2051736 -0.18093635
-0.14034826 -0.066250734 -0.286409 -0.24383338 -0.1627224 -0.054129012 -0.030865444 -0.1397713
-0.103361726 -0.116028085 -0.09581631 0.07916069 0.004738159 0.0392051 -0.20695515 0.012595509
0.031792838 -0.2348314 -0.20501296 -0.0800608 0.016360119 0.19399242 0.0352696 -0.100023724
-0.031556547 0.010557505 -0.009168609 -0.1496113 -0.10421186 0.0052528884 -0.10564114 -0.21441478
-0.11588611 -0.050664295 -0.1631237 0.043021332 0.005564767 -0.1551625 -0.26388964 -0.13345402
-0.09527607 -0.07660758 -0.042921063 0.024331985 0.19030337 0.1316646 0.21175906 -0.019989248
0.15165533 0.111634284 -0.1769673 -0.15290771 -0.04067042 0.017094098 0.16016512 0.19733056
0.021849805 0.16254632 -0.07396654 0.16816784 0.15269008 0.17226063 0.229135 0.31506863
0.24376412 -0.10929541 -0.1792416 -0.21134986 -0.13175274 -0.13278207 -0.17569976 -0.046832528
0.07946956 0.07582587 0.06313921 0.1986338 0.093283266 -0.09521614 -0.09146559 -0.007761321
-0.060685758 0.007982821 -0.036455873 0.018332873 -0.0069810865 0.055037603 -0.3029211 -0.16228828
-0.068911314 0.035989523 -0.044231158 0.08942892 -0.050609585 -0.02340573 0.020996124 0.3241381
0.3164139 0.32751983 -0.10140392 0.0082173515 -0.061320644 -0.2115396 -0.27372226 -0.30619952
0.08748293 0.07525802 -0.0024539786 -0.10433152 -0.22693081 -0.14258032 -0.17122677 -0.14833067
-0.11523059 0.07046803 -0.11783005 -0.0917502 -0.07442082 -0.22613409 -0.11327943 -0.017076792
-0.07463918 -0.16720551 0.14464428 0.48583645 0.40474916 0.35579416 0.13576849 0.21860817
-0.056314513 -0.05385233 -0.02401537 -0.18121552 -0.008958013 0.22366376 -0.22137406 0.046157256
0.09036397 -0.032401506 -0.0509884 -0.016540132 -0.05484931 -0.037895933 0.14007606 -0.028101124
-0.011735871 -0.11965413 -0.11313383 -0.19609885 -0.047284998 0.007239242 -0.02757896 -0.025313616
-0.09390588 -0.072071284 -0.033357013 0.10910492 0.04626705 -0.006204234 -0.22436428 0.08732407
0.16144314 -0.03557882 -0.17060032 -0.18553327 -0.18604934 -0.21917439 -0.006821561 -0.19496568
-0.16393977 0.07513262 0.036846366 0.05728483 0.046324085 0.10090173 -0.10679492 -0.06391351
-0.20966147 -0.28738615 -0.25783086 0.070695624 -0.16165753 -0.11875395 -0.037011467 -0.09772772
-0.09859351 -0.12055638 -0.0849458 -0.12779774 -0.09896979 0.022721656 0.089004986 -0.17222482
0.010670668 -0.0861218 0.0854767 -0.32645488 -0.2326581 -0.1285344 -0.16208908 -0.026189405
-0.21436271 -0.103520244 -0.03442612 0.24117582 0.11135652 0.16899909 0.16080517 0.15246995
0.16493975 0.051258948 -0.14672507 -0.03641176 -0.08674151 -0.1504932 -0.13752642 -0.1749436

encoder.blocks.0.conv.3.bias f4 [16]
00000000: 8ac7 ae3d 26b9 04be cf47 fdbd 7371 0b3d
00000010: c02a 903c 2096 65bc 0e62 9fbd bc86 d2bd
00000020: 54cd 4abc 7ea0 4b3d 48f8 c2bb 188a 963d
00000030: 9c44 5c3d 17e2 2f3d d4c8 12be f414 333e
0.08534153 -0.12961254 -0.12367212 0.03404374 0.01759851 -0.014012843 -0.07782374 -0.10279605
-0.012378056 0.049713604 -0.0059500076 0.07350558 0.05377637 0.042940225 -0.14334422 0.17488462

encoder.blocks.0.conv.4.weight f4 [16]
00000000: cb25 733f f8a7 3f3f 94ac 563f 2a78 3b3f
00000010: 2b31 483f c447 643f 0007 883f 735d 683f
00000020: db31 8a3f 0ece a43f 9da0 7f3f 46c6 183f
00000030: d4a9 683f a033 6b3f cc9d 683f b873 583f
0.9497954 0.74865675 0.83857083 0.7323023 0.78200024 0.89172006 1.0627136 0.9076759
1.0796465 1.2875383 0.9985445 0.5967754 0.9088414 0.9187565 0.9086578 0.8455157

encoder.blocks.0.conv.4.bias f4 [16]
00000000: 6008 72be 7cf5 b8be 4195 a8be 05ca 91bd
00000010: bcba 0ebe e3ef d8bd 03b5 07be 3714 d3bd
00000020: b620 e63d b69a ffbe ddd7 8dbd eab4 34be
00000030: 67f8 643d b6d1 63bd 4c10 51be 4c7f 66bd
-0.23636007 -0.3612479 -0.32926372 -0.0711861 -0.13938421 -0.1059263 -0.13252644 -0.1030659
0.11236708 -0.49922723 -0.06925938 -0.17647138 0.055900957 -0.055619918 -0.20416373 -0.056273744

encoder.blocks.0.conv.4.running_mean f4 [16]
00000000: d84a 71bf 0064 e2bf 1b04 543e ad84 12c0
00000010: 94e8 8e3f 3b83 96c0 6549 26bf 63cc 80bf
00000020: ed96 ba3d 2b89 67bf 7726 243f d0a7 c0bf
00000030: a301 5abf c978 aa3f c7cd 0ebf 422e 1a3f
-0.9425483 -1.7686768 0.20704691 -2.289348 1.1164727 -4.7035193 -0.6495574 -1.0062374
0.09110818 -0.90443677 0.6412119 -1.5051212 -0.8515875 1.3318111 -0.5578274 0.60226834

encoder.blocks.0.conv.4.running_var f4 [16]
00000000: d33c 7b40 62c5 9240 0b39 7640 c2fc e340
00000010: 0ff5 0841 c0b3 d740 a7d8 cc3f dc7c 5340
00000020: 24f3 6340 270b dd3f 3f6d c240 f8b0 b540
00000030: 605c e340 1fe6 ac40 9a6b a740 42b8 bc40
3.9255874 4.5865946 3.8472316 7.124604 8.559829 6.740692 1.6003617 3.3044958
3.5617151 1.7269028 6.0758357 5.6778526 7.1050262 5.403091 5.231885 5.8974924

encoder.blocks.0.skip.weight f4 [16, 1, 1, 1]
00000000: d85a 823e 2c71 e23e 30a6 5c3e 2c82 e9be
00000010: 52ad 163f b018 a4bd aa47 663f a075 18bf
00000020: 8091 433e 8051 54be a69a 38bf fa92 4fbf
00000030: e0ee 953d 9e47 5a3f 0e6a 573f a025 d93d
0.25459933 0.44226968 0.2154777 -0.45607126 0.58858216 -0.08012521 0.899531 -0.5955448
0.19098473 -0.20734215 -0.72110975 -0.81083643 0.073209524 0.8526553 0.841462 0.106028795

encoder.blocks.0.skip.bias f4 [16]
00000000: 64b1 e03e 50c8 0abe 804b 35be 8071 d93d
00000010: 20ff f03e 3cad 353f 2419 7c3f 0e4e 0a3f
00000020: 3e53 343f 70b9 a3be 3c9b f93e 001c 4a3e
00000030: 442d 0d3f e8bc ea3e a83c 01bf 248f 8e3e
0.43885338 -0.13552976 -0.17704582 0.106173515 0.47069645 0.7096746 0.9847586 0.5402535
0.7043952 -0.31977415 0.48751247 0.19737244 0.55147195 0.4584725 -0.5048318 0.27843583

encoder.blocks.1.conv.0.weight f4 [32, 16, 3, 3]
00000000: 8d3c ddbc f294 cf3d d6a5 acbd 1d78 d13d
00000010: 15b6 bf3c 5792 20be 7cc1 783d 865f 023e
00000020: 0232 b23d 6792 b7bd 2687 343d 2369 63be
00000030: acc8 cd3c 336e c0bd 1a37 78be ea40 553c
00000040: 3f55 173e 20d9 003d 72bf 90bd 979d 9fbb
00000050: 3b5e dbbd 1877 9b3c b364 83bd 14b5 aebd
00000060: ce81 133e 670c e13d 1096 84bd f3cc 68bd
00000070: 7099 f7bd f465 34be 8af9 1b3c d8d4 01be
00000080: 88aa 73bd 3231 6dbd 1bd4 febb b5b6 b5ba
00000090: dec6 80bd 6649 243d 508e 11bc 03b6 31bd
000000a0: 7430 273c 8179 a0bd 809e d33d de2b 943d
000000b0: aeef 153e ec5c 6fbd 96f5 60be 92ed 7b3c
000000c0: b238 b0bd cb8d 05be 9038 103e 3941 24bd
000000d0: 8c16 85bd 3e23 f4bc 454f 613c 71ca 743e
000000e0: 0508 40bd d994 e4bc 155a 00bd cfde 613c
000000f0: 4e58 cbbc bd60 c1bd 489e 8abd ac3f c2bd
00000100: 92d4 45be f697 6ebe e2b2 0cbe a387 41bd
00000110: b75c b6bd 170e b1bc 49f0 0cbd 49ac 65be
00000120: 2374 5e3d acd2 0f3e edc7 8bbd 7e0e 893d
00000130: aefc 383e 8b07 403e 0038 363d 8c53 30bd
00000140: 1cee 673e fd0a 14be 82c3 953e 41e2 803e
00000150: 5fd5 3cbc 7212 e33d 3843 ee3d 351e 123e
00000160: f2d3 a03d 59c4 d8bc 11ef 0d3e 7a43 7f3e
00000170: f88a 3e3d 03af 093e f1b0 b93d 6551 1e3e
00000180: 3e20 1c3e 4a84 2e3d 84da bb3d 1cae ed3d
00000190: 338a 063e 365b 793e 7365 76ba 5009 9b3d
000001a0: 2ac5 803e 46bd 5ebd bd8e 0d3d a3b8 f63d
000001b0: 3963 573e 42e1 e43e 994f 3b3e b4bc 273d
000001c0: 6260 e33e 9fdd b23e 95e2 353e 3589 863e
000001d0: 154d 5e3e 11f2 f43d 4ee1 5d3e 701a 603d
000001e0: f6f7 423d 86c5 783e c5dc 1a3e 8be1 453a
000001f0: 2b6b c83c 41d7 c23d fd8f 65bd 8137 e6bc
00000200: 0a83 51be d1c7 e8bb e118 893d 03cf bcbd
00000210: c05e d43c 80de d53d aea9 ad3d be54 4d3e
00000220: e3cd 8f3e 1181 5a3d 82f9 d93c 6892 7f3e
00000230: 6063 b83d bd6f be3d 104f 0b3d 8934 753c
00000240: 1172 cf3b 7f90 70bd 6839 95bd 5517 80bd
00000250: 9f1f e03c f43a c7bd 87ef 4cbe 5452 6fbe
00000260: b126 46be 936e b63d ad5f b63c 91b1 073d
00000270: 882c 143e 1b8d 5f3e d2c8 a43d f905 4dbe
00000280: f0b2 83be 54b1 85be 42b0 95bd 9911 f6bd
00000290: 6af6 453c fd16 db3d c11a 9cbc 443b 95bc
000002a0: 754a 923d d3e5 27be 2cf8 45be 05cb f3bd
000002b0: 9548 a3bd 4284 26bd c147 e1bd 5992 03be
000002c0: a004 cebd 4d9f 023d 4033 863c 1704 fe3b
000002d0: 0c2c 7bbe 4d42 16be 9e18 9bbe 15fb 75bd
000002e0: ab7b 87bd 1d03 8bbe d609 283d 8133 98bd
000002f0: ee3c 38be a382 0d3e f758 193e 24d4 4b3e
00000300: 296e c83d fb3a 803d 19b6 193e 4946 363e
00000310: 1819 103e 2dcb 6e3d 2742 d5bd 5c68 1cbe
00000320: f4fe 81be 8fd4 613d 1e0c 5ebd 5c54 933c
00000330: 2b5e 8b3e 7dd3 243e 1e58 3fbc 02bb 9dbd
00000340: dffc 17bc 6740 63bd c5e9 10be fe3a 6bbd
00000350: c913 e7bd a3b9 063e 55ea bb3d 8909 8a3b
00000360: b58e e8be 3fd2 7ebe 1c57 9ebe 7ea0 44bd
00000370: d8f6 4cbe cd31 b6be cc7a d03d 6eb1 0cbe
00000380: 3b5f 80be 6f0a dfbd 5ddd 92bd 8e3a 6abe
00000390: ffb8 503d d175 80bc 9b22 a2bd 9c23 283e
000003a0: 56ef dcbd 01ea e4bd 3c0f 1dbe c0c7 74be
000003b0: 54a4 4cbe 24e0 e5bd 95b9 04be 0b34 debd
000003c0: 199c acbd 0acc e73b ed61 67bd aa25 09be
000003d0: 2403 d5bc be16 02be 3f10 12bd 0b58 08bd
000003e0: af42 a2bd db20 afbc 4ed2 ddba 9520 b0bd
000003f0: 766f 85be 8a24 833d 15bf 21be 13ee acbc
-0.027006412 0.10135831 -0.08430068 0.10227988 0.023402253 -0.15680824 0.060731396 0.12731752
0.087009445 -0.08963471 0.0440742 -0.22208075 0.025120102 -0.09396019 -0.2423977 0.013015965
0.14778613 0.031457067 -0.07067765 -0.004871081 -0.107113324 0.018977687 -0.06415691 -0.08530632
0.14404985 0.10988694 -0.06473935 -0.05683608 -0.12089813 -0.17617017 0.009519944 -0.1267885
-0.059488803 -0.057908244 -0.00777675 -0.0013863655 -0.06287931 0.04010906 -0.008884028 -0.04338647
0.010204423 -0.07835675 0.10332966 0.072349295 0.14642212 -0.058438227 -0.21968684 0.015376465
-0.08604564 -0.13042371 0.14084077 -0.040101264 -0.06498441 -0.029801961 0.0137518095 0.2390535
-0.046882648 -0.027903007 -0.03133591 0.013786032 -0.02482238 -0.094422795 -0.06768471 -0.09484801
-0.1931937 -0.23300156 -0.13740113 -0.047248494 -0.08904403 -0.021613164 -0.03440884 -0.22429003
0.054309975 0.14045209 -0.06825242 0.06692217 0.1806514 0.18752877 0.044487 -0.043048427
0.22649425 -0.14457317 0.29250723 0.25172618 -0.011525481 0.110875025 0.11633915 0.14269336
0.07852925 -0.026460813 0.13860728 0.24928084 0.04651925 0.13445668 0.09066952 0.15460737
0.15246674 0.04260663 0.09172538 0.11605474 0.13138656 0.243512 -0.00093992724 0.075701356
0.25150424 -0.054379724 0.034559954 0.120469354 0.21033944 0.44703108 0.18292083 0.040951446
0.44409472 0.34934708 0.17762215 0.26276556 0.21709092 0.11960233 0.21667978 0.054712713
0.047599755 0.24294099 0.1512328 0.0007548562 0.024465164 0.09513713 -0.05604552 -0.028102638
-0.20460144 -0.007103898 0.066941984 -0.09219172 0.025924087 0.10442829 0.084796295 0.20051858
0.28086767 0.053345744 0.026608232 0.24958193 0.09003329 0.09298656 0.034010947 0.014966139
0.0063307364 -0.058731552 -0.0728634 -0.0625445 0.027358828 -0.09728041 -0.20013247 -0.2337125
-0.19350697 0.08907809 0.022262419 0.033128325 0.14470112 0.21831171 0.08046116 -0.2002181
-0.25722456 -0.26111853 -0.07309009 -0.12015075 0.0120826755 0.10697744 -0.019055726 -0.018216737
0.07143108 -0.16396265 -0.19332951 -0.11903957 -0.07972828 -0.040653475 -0.11000014 -0.12848796
-0.10059476 0.031890202 0.01638186 0.0077519524 -0.24528521 -0.14673729 -0.3029222 -0.060053904
-0.06615385 -0.27150813 0.041025005 -0.074316986 -0.17991993 0.13819365 0.14975344 0.19905144
0.097866364 0.0626125 0.15010871 0.17800249 0.14072073 0.058299232 -0.10413008 -0.15274185
-0.25389826 0.055134352 -0.054210775 0.017984562 0.27220282 0.16096301 -0.011678724 -0.077016845
-0.009276598 -0.05548134 -0.14151676 -0.057429306 -0.112830706 0.13156752 0.09175555 0.0042125625
-0.45421377 -0.2488489 -0.30925834 -0.04800462 -0.20016038 -0.3558487 0.10179672 -0.13739559
-0.25072655 -0.10890662 -0.07171128 -0.228739 0.050957676 -0.01568118 -0.07916757 0.16419834
-0.10787837 -0.11177445 -0.15337843 -0.23904324 -0.19984561 -0.11224392 -0.12961419 -0.1084977
-0.08428211 0.007073884 -0.056489874 -0.13393274 -0.026002474 -0.12703988 -0.035660025 -0.03328709
-0.07922875 -0.021377971 -0.0016923638 -0.085999645 -0.260616 0.06403454 -0.15795548 -0.021109616

encoder.blocks.1.conv.0.bias f4 [32]
00000000: 96eb 203d 2ff4 ec3b 1aa7 093e 8fef a2bd
00000010: fddb e9bd c941 763b 49df 093b 1eca 9dbc
00000020: 11cf 0b3d 323d 27be 25d8 8d3d 10af 993d
00000030: 3084 103e f8f5 c83c bd11 0d3c 28c6 0cbd
00000040: 7573 c9bc 8247 35be 0d2e 32be 9d28 163e
00000050: 3f42 733d a77a c1bd 56af 583d 1c80 c03d
00000060: 4ce6 91bb c63c d9bd 6cc5 13bd 6362 8bbd
00000070: 8c13 80bd 8f4d 2ebe a086 f2bd 5bfe f6bd
0.039287172 0.0072312574 0.1344265 -0.079558484 -0.114189126 0.0037575832 0.002103763 -0.019261416
0.03413302 -0.16331938 0.06925992 0.07504094 0.14112926 0.02453135 0.008610186 -0.034368664
-0.024591187 -0.1770306 -0.1740038 0.1466393 0.05938935 -0.09447222 0.05290159 0.09399435
-0.0044525024 -0.10607295 -0.036076948 -0.06805875 -0.06253728 -0.17021774 -0.11842084 -0.12060233

encoder.blocks.1.conv.1.weight f4 [32]
00000000: 1953 383f 7ceb 5c3f cca2 4c3f db6d 463f
00000010: 2103 7a3f 1a2f 4a3f c3cc 613f 6a78 4b3f
00000020: e8c7 683f cc0b 573f 74b7 573f 116a 823f
00000030: d259 4f3f 4762 893f 0c47 673f 7be0 6c3f
00000040: 41d3 853f 7f87 813f 2ed1 7e3f f694 803f
00000050: 088b 8e3f 6674 6f3f a239 543f 80cc 8c3f
00000060: 413f 4d3f bc61 633f bb3b 973f a6ea 903f
00000070: 1a01 763f 6f2b 4f3f 6bb9 803f 9bc4 8f3f
0.72001797 0.8629682 0.7993591 0.77511376 0.97661024 0.7897812 0.88203067 0.7948061
0.9093003 0.84002376 0.842643 1.0188619 0.8099643 1.0733117 0.90342784 0.9253003
1.0455095 1.0119475 0.9953793 1.0045459 1.1136179 0.93536985 0.8290044 1.0999908
0.8017464 0.88821006 1.1815103 1.1321609 0.9609543 0.8092565 1.0056585 1.1231874

encoder.blocks.1.conv.1.bias f4 [32]
00000000: 6d08 7ebe 64ed 0ebe 3a82 243d c88f 7abe
00000010: 2a53 353e b320 bd3d 5732 1ebe 7bb9 85be
00000020: bbf3 64bd 3d97 0cbe fccb f93d 030e 4bbe
00000030: 1525 cfbb 7c55 bc3c cbb4 3abe ce2f 48bd
00000040: 5026 233e d8c6 52be fcfb ba3d 6cce 273e
00000050: a47c 2b3e 4136 acbd dcba 06bc e8f8 7c3d
00000060: 0444 18be 12e8 eebd 539e ac3d e79f a8be
00000070: 2be5 a6bb 4d24 a5bd 6bc2 69be bc7c 73be
-0.24807902 -0.13957745 0.040163256 -0.2446891 0.17707506 0.092347525 -0.1544889 -0.26118073
-0.055896502 -0.13729568 0.1219711 -0.19829564 -0.006321559 0.02298998 -0.1823303 -0.048873715
0.15932584 -0.20583665 0.091300935 0.16387337 0.16746765 -0.084087856 -0.008223262 0.061760813
-0.14869696 -0.11665358 0.084286354 -0.32934496 -0.005093237 -0.080635644 -0.22828071 -0.23778051

encoder.blocks.1.conv.1.running_mean f4 [32]
00000000: e301 2a40 a07e 80c0 157d 5940 0a17 58c0
00000010: 6906 2b40 9d51 913f 4881 82c0 49e9 373f
00000020: 25a9 2040 134b 3940 2cdd f83f 0f82 9fbf
00000030: 5937 813f ed62 ba3f bf7b 9fbf d9e1 4340
00000040: 6179 acbd 7a60 913f fe32 d33e 8f3b 683f
00000050: 549b 293f 0f85 9c3f c03c 2640 71b2 acbe
00000060: 2612 8ac0 9c90 66c0 8944 1dbf 184a 2dbf
00000070: 282a 123f 9d82 91c0 4044 8a3e cd16 96bd
2.6563652 -4.015457 3.3982594 -3.3764062 2.6722662 1.1353031 -4.0782814 0.7184034
2.5103238 2.8952072 1.9442496 -1.2461566 1.0095016 1.456144 -1.2459639 3.0606596
-0.08421589 1.1357567 0.4124984 0.9071588 0.66252637 1.2228106 2.597458 -0.3372989
-4.3147154 -3.6025763 -0.614327 -0.67691183 0.57095575 -4.547194 0.27005196 -0.07328568

encoder.blocks.1.conv.1.running_var f4 [32]
00000000: d609 6041 a039 ae41 1cf8 6741 680b 9c41
00000010: 0b5a 2941 b427 fe40 786c 8841 41fe e640
00000020: aaa9 3341 aec8 7941 137d 0041 b6db da40
00000030: 3f4f c740 592a 1241 f08c 1641 b2fa 5541
00000040: bc0d df40 dac9 1841 2858 c240 877a d340
00000050: 27bb fa40 854f ef40 7255 2841 6055 9440
00000060: 8b9b b741 4f9b 9d41 f28c d040 bd38 e840
00000070: eec7 f540 a9a7 9b41 bbf7 cc40 2723 8b40
14.002401 21.778137 14.498074 19.50557 10.584483 7.9423466 17.052963 7.218537
11.228922 15.611494 8.030536 6.83932 6.2284236 9.135339 9.409409 13.373705
6.9704266 9.54928 6.0732613 6.608707 7.8353457 7.478457 10.520861 4.6354218
22.950949 19.700834 6.517205 7.256926 7.6806555 19.456865 6.4052405 4.348041

encoder.blocks.1.conv.3.weight f4 [32, 32, 3, 3]
00000000: b895 dbbd 3834 68be 092b 18be 53ce c4bb
00000010: ae7a 0ebe 7848 07be 67f5 c73d 3f9a 033e
00000020: 18c5 03bc fa30 e6bd 5d6c bbbd 23fd 27bd
00000030: b6df 36be ec32 05be 0756 5b3b 9931 8cbd
00000040: 8914 6cbd 9c1c 143d b6a8 dbbc 26db dabb
00000050: 0a12 3b3d 3c83 f83c 30df b7bc a660 0abd
00000060: dfe7 d13d 8158 0d3e 8b01 e73c 9e69 c5bd
00000070: 49ac 9cbc 60c9 82bb 50ba 4ebe ecc6 99bd
00000080: 31cb 44bd d07e 97bd 187c dfbc ba12 7b3d
00000090: b932 9c3c 69c5 cabc 1a8e 183d e958 68bd
000000a0: 9405 1abd ed83 05be a14f 223e 7b60 af3d
000000b0: c9c4 103c 0d40 cd3d 1241 043c be9b bebb
000000c0: adcf 1c3d 993b 26bd 9d5e d6bd 923a e5bc
000000d0: a0cb 4cbd e905 313d 86c0 66bd 1d2e 50bd
000000e0: 6c65 77bc bb0a 40be d104 65bd 10a1 93bd
000000f0: 88fc 9abc b594 173c 970c 703d f1ad ecbd
00000100: 221e 90be a803 5dbe bef8 50bd 12ec 7abd
00000110: 4c84 82bd 36b4 8ebc 3fc5 9dbd 9fcf 90bc
00000120: 5d95 9cbd 7f3b 49be b1cb 9abd ccdc 83bd
00000130: f5cf 1abd a6bc 8bbd 8cb5 2b3d ad06 8abc
00000140: d432 cf3c 58e4 4fbd b0e6 2dbd d737 d2bd
00000150: caee d9bc b9c2 e2bd 3d38 84be 8aa1 c03b
00000160: 831f adbd ce0a 24be c0f3 a7bd a144 e2bd
00000170: 6c9b 70bd a19d 99ba b2dc e6bd a1d9 b5bd
00000180: 2e6b a03d 0071 ce3d 9a3c 3dbd fb17 81be
00000190: e5ad c1be 209e cebe 8d62 91be 2624 cfbe
000001a0: b2eb f2be 2589 81be 5f7a 9ebe 5837 87be
000001b0: f445 d53d bc67 c53d e1b2 1b3e d0f4 3fbd
000001c0: 7384 a5bd 3f3c 1b3c b428 b73d f874 973d
000001d0: 118f c039 0129 223e 1e3a 453e e788 283e
000001e0: 1bd1 7bbb fc7b 9b3d f0fa 873c 427a 5cbd
000001f0: 92df 72bd 98b4 223d 0e3a 9fbe 284e 72be
00000200: ae33 77be 695b 82bd 1e6a 1fbe c926 67bc
00000210: f9e9 82bd 54db 32be 26ea ca3b 3b0a c83c
00000220: 03a3 b33d b35a ad3d 76d5 433c efd8 74bc
00000230: a550 ba3d 2d02 c13d f964 063d 1e7b 0e3b
00000240: a5ef 8f3d 98f3 cdbd 4161 4fbe 7ace 4c3e
00000250: 98ec 983d 7a32 69bc f9e4 523e 3e05 553e
00000260: 0808 0b3e 0078 b6bd 759d 35be d09e 72be
00000270: a2d8 9bbd aed0 b5bd 9ae5 12be f0b3 36be
00000280: 938c 12be c74e fdbd 50b7 09be d036 8dbe
00000290: a9a8 54be a833 82bd 046f 2fbe b57c 48be
000002a0: de29 cf3d 6c6b d13d 8929 ea3d 495f b3bc
000002b0: b2e5 2dbe fe9a 12bd dca8 003d 9fb8 a6bd
000002c0: 3b32 33be 3ec4 cb3d 8217 dd3d c705 b83d
000002d0: 2898 bb3e 1e63 9f3e fc23 523e acdb cdbd
000002e0: 10d6 cabd 5205 a9bc 5a25 d9bd db3f 2ebe
000002f0: 1559 11be a1b3 983d d2c0 d53d 1cc8 b23c
00000300: 9e54 d7bd e855 4cbe 6863 2fbe a7e9 f1bd
00000310: f67d 1ebe 0484 7bbe 84cc ca3d 7e78 47bc
00000320: 376d 8cbc 24a0 6e3c e59c fd3c 6d41 73bd
00000330: f39b 583e 8ba1 4d3d abdc ec3d 3094 693c
00000340: 94d2 99bd 8756 b3be 9c83 1e3e 5ea5 bd3d
00000350: bc97 a6bc 5e33 563e fb6c 3a3e 66b9 e53d
00000360: 4cac dcbd db9b afbc 3941 8cbd 32bc 19be
00000370: 2d65 9cbd c9b2 fcbb a23f acbd 7d5f 60bd
00000380: b977 26bd fc0c 52be 4389 34be 856d d2bd
00000390: f0f5 f3bd eea0 a8bd 01e7 9fbc c5fd 1abe
000003a0: bf70 e8bd ee87 adbd 4be5 923d bf92 a53d
000003b0: ace6 05be c430 10bb 963a 4f3c b413 07be
000003c0: 81e8 25bd 470b a4bd dde1 c2bd e6c2 2cbe
000003d0: fe8a bcbe c6e2 e0be 475c a5be d203 b6be
000003e0: 6349 70be 4e50 03be 9f94 3ebe 12b0 9abd
000003f0: e085 80be 376a b5be 8fbc 77be cc7a 9cbd
-0.10721916 -0.2267617 -0.14860167 -0.006006041 -0.13913986 -0.13211238 0.09763604 0.12851809
-0.008042596 -0.1123981 -0.09151528 -0.041012894 -0.17858776 -0.13007706 0.0033468024 -0.068453975
-0.05763677 0.036160097 -0.026813846 -0.0066789566 0.0456715 0.030336015 -0.022445291 -0.033783577
0.10249304 0.13803293 0.028198978 -0.096392855 -0.01912512 -0.003991291 -0.2018826 -0.075086445
-0.04804534 -0.073972344 -0.027280852 0.061297156 0.019067155 -0.024752336 0.037244894 -0.056725416
-0.037602976 -0.13038607 0.15850689 0.08563324 0.00883598 0.10021982 0.008072155 -0.0058169058
0.038283993 -0.04058418 -0.10467265 -0.02798203 -0.04999888 0.043218527 -0.05633595 -0.050825227
-0.015099864 -0.18754093 -0.055912796 -0.072084546 -0.018919244 0.009251763 0.058605757 -0.11556614
-0.2814799 -0.21583426 -0.05101847 -0.06126029 -0.0637289 -0.017419916 -0.07703637 -0.017677126
-0.07645676 -0.19651602 -0.07558382 -0.06438598 -0.03779598 -0.06823091 0.041921183 -0.016848886
0.025292791 -0.050754875 -0.04245633 -0.10264557 -0.026603121 -0.11072297 -0.25824156 0.005878632
-0.08453276 -0.16019747 -0.082007885 -0.11048246 -0.05874197 -0.0011719951 -0.11272563 -0.088794
0.07832943 0.10080147 -0.046200372 -0.25213608 -0.37827983 -0.40355015 -0.283955 -0.40457267
-0.47445446 -0.25299945 -0.30952737 -0.2640941 0.10413733 0.096389264 0.15204956 -0.04686433
-0.08081903 0.009474813 0.089433104 0.07395357 0.00036727687 0.15835954 0.19260451 0.16458474
-0.0038424197 0.075920075 0.016599149 -0.05382753 -0.059295245 0.03972301 -0.3109898 -0.23662627
-0.24140808 -0.06365091 -0.15567824 -0.014108368 -0.06392283 -0.1746648 0.0061924635 0.02441894
0.087713264 0.08464565 0.0119527485 -0.014944299 0.09097413 0.09424243 0.03281114 0.0021740864
0.070281304 -0.100562274 -0.20251943 0.2000064 0.07467002 -0.014233226 0.20595159 0.20802781
0.13577282 -0.08909607 -0.17735846 -0.23693395 -0.07609679 -0.08877693 -0.14345399 -0.17842078
-0.14311437 -0.12368541 -0.13448834 -0.2758088 -0.20767464 -0.06357509 -0.17132193 -0.19578822
0.101154074 0.10225567 0.114337035 -0.021896021 -0.16982153 -0.035792343 0.031411037 -0.081406824
-0.1749963 0.099495396 0.107954994 0.08985477 0.36639524 0.31130308 0.2052154 -0.10051665
-0.099041104 -0.02063242 -0.10602827 -0.17016546 -0.14194138 0.074561365 0.10437168 0.021823935
-0.10514186 -0.19954646 -0.17127764 -0.11812144 -0.15477738 -0.24562079 0.099022895 -0.012174724
-0.017141921 0.014564548 0.030958602 -0.059388567 0.2115324 0.050202888 0.115655266 0.014256522
-0.07510868 -0.35026953 0.15479892 0.09260057 -0.020336024 0.20918033 0.18205635 0.112170026
-0.107750505 -0.021436622 -0.06848378 -0.15013197 -0.07636485 -0.0077117425 -0.084105745 -0.054778565
-0.04064152 -0.20512766 -0.17630486 -0.102747954 -0.11912143 -0.0823382 -0.019519331 -0.15135868
-0.113496296 -0.08473192 0.071726404 0.0808463 -0.13076276 -0.0022001723 0.012648245 -0.1319111
-0.040504936 -0.080099635 -0.09515736 -0.16871223 -0.36824793 -0.43923014 -0.32296965 -0.3554979
-0.23465495 -0.12823603 -0.18611382 -0.07553114 -0.2510214 -0.35432598 -0.24193023 -0.07640609

encoder.blocks.1.conv.3.bias f4 [32]
00000000: 2bd6 c83c b98b 9cbd 688b 373d 98c0 96bc
00000010: 1cf1 d53c 9041 e53d 5171 bc3b 9c25 8b3d
00000020: 00d9 a4bc 7fe2 1f3d 5cda 00bd 0974 f73c
00000030: a93d 26bd 59bc f83c 7482 e9bc 52da fd3d
00000040: a35b fabc 2c01 1bbc 49f8 693d 6237 7cbd
00000050: 1cb7 47bc 1844 4bbd 1898 bd3d 3082 25bd
00000060: bc01 ae3d bf1d 01bc ebe9 16be 3d12 d7bd
00000070: a461 c4bd 7546 853c 3040 aabc e719 53bd
0.024516186 -0.076438375 0.044810683 -0.018402383 0.026115946 0.11194146 0.005750813 0.06794283
-0.020123005 0.039034363 -0.031458244 0.030206697 -0.040586147 0.030363249 -0.028504588 0.12395157
-0.030561274 -0.009460729 0.05712155 -0.061576255 -0.012189653 -0.049625486 0.09257525 -0.04040736
0.084964246 -0.007880627 -0.1473767 -0.105015256 -0.09588936 0.016268948 -0.02078256 -0.051538374

encoder.blocks.1.conv.4.weight f4 [32]
00000000: f023 473f 9b3b 563f 6171 783f 069b 613f
00000010: 58e8 513f 6ffa 853f dfc8 993f 6c22 753f
00000020: a901 633f 570b 603f 0a83 8d3f b0bb 6e3f
00000030: fa8e 213f 58ab 493f 7695 713f fa3b 893f
00000040: a3e6 923f 716a 7c3f 4285 553f 2092 533f
00000050: 9e25 923f d610 593f bec4 803f 5f11 463f
00000060: 0a5f 6e3f 19fc 593f 3d31 953f b23c 8d3f
00000070: f63d 673f 8893 583f 7311 8e3f cb44 873f
0.7778921 0.836847 0.97048 0.8812717 0.81995153 1.0467051 1.2014426 0.9575565
0.8867441 0.87517303 1.1055615 0.9325514 0.6310879 0.78777075 0.94368684 1.0721428
1.1476635 0.98599917 0.8340646 0.82644844 1.141773 0.84791315 1.0060041 0.77370256
0.9311377 0.85150295 1.1655651 1.1034148 0.9032892 0.84600115 1.1099075 1.0567869

encoder.blocks.1.conv.4.bias f4 [32]
00000000: 27d2 86bd 4279 6fbe 3d1b 49be 38a2 81be
00000010: 77dc 7dbe 3d69 f13d fa08 80be cc04 04bd
00000020: 7918 cebd ef06 4abd 1501 22bd 779f a8bd
00000030: 2fbb d8be 028d 18be 43ae a7bd 72e0 b7bd
00000040: ee3c 2cbe e43b 77bd 3180 b2bd a9bf 233d
00000050: 3b85 543e 0744 173d 4a5f d63b 0ef4 1abe
00000060: 7610 28be 44d6 59be ec16 c13c fc50 7b3d
00000070: 79eb 973c bb0e e6bd ce3c 9bbe 3d46 d2bc
-0.06583052 -0.233861 -0.19639297 -0.25319076 -0.24791132 0.11787651 -0.2500685 -0.032231137
-0.100632615 -0.04932302 -0.039551813 -0.082335405 -0.4233031 -0.1489754 -0.08187535 -0.089783564
-0.16820118 -0.06035985 -0.08715857 0.039977703 0.20753948 0.03693011 0.006542121 -0.15132162
-0.1641253 -0.21273142 0.0235705 0.06135653 0.0185449 -0.11233278 -0.30319828 -0.025668258

encoder.blocks.1.conv.4.running_mean f4 [32]
00000000: 292f 83c0 5533 b83e 0e6b 1c3f b2e3 d13f
00000010: 4679 8cc0 291e 67c0 0417 de3e 6dcc 8cc0
00000020: 133b eec0 7249 043f 8e37 05c0 87aa 12c0
00000030: e646 ac3f bf6a b43d 2d18 adc0 cc21 acbf
00000040: 0532 c73f d766 66c0 62fa cd3f 7a9f 9fc0
00000050: f73c cebf 94c7 e0bf da65 51c0 866a 7f3f
00000060: 21d4 3a3e 9573 6cc0 d701 3bbf e1d6 8dc0
00000070: 60c8 9fc0 b2ae d4c0 ba71 a3bc adc2 753f
-4.099507 0.35976663 0.6110085 1.6397612 -4.389804 -3.6112158 0.43376935 -4.3999543
-7.444711 0.5167457 -2.0815158 -2.2916582 1.3459136 0.08809423 -5.409201 -1.3447814
1.556214 -3.6000268 1.6092036 -4.9882174 -1.6112355 -1.7560906 -3.2718415 0.99771917
0.18244983 -3.6945546 -0.7304968 -4.4324803 -4.99321 -6.646325 -0.01995169 0.96000177

encoder.blocks.1.conv.4.running_var f4 [32]
00000000: d364 1042 112e f941 8eb0 1d42 33c5 1442
00000010: 16a6 3642 b2db b241 6329 7341 6897 5742
00000020: 1ca0 8b42 1ffd 1a42 7ef8 b541 eec6 b741
00000030: 5872 e441 ceae 0442 6800 2e42 3245 fc41
00000040: d4ed d941 0c8e 0742 3495 6d42 7a1f ed41
00000050: e22b 9641 9027 4742 3f7e d241 e65f 3042
00000060: 314b da41 4995 4242 ddb5 d941 7a94 d141
00000070: 1506 4042 93a6 b342 2675 0542 83ec 1742
36.09846 31.147493 39.422417 37.192577 45.662193 22.357273 15.197604 53.897858
69.81271 38.74719 22.746334 22.972134 28.555832 33.170708 43.500397 31.533787
27.241127 33.888718 59.395706 29.64037 18.771427 49.788635 26.311644 44.09365
27.286715 48.645786 27.2138 26.197498 48.00594 89.82534 33.364403 37.98097

encoder.blocks.1.skip.weight f4 [32, 16, 1, 1]
00000000: 4ea5 493e 8a9b 20be 6c85 6abe 1cb9 7b3e
00000010: 806b 5ebe 54b9 ac3d dc08 bc3d ca99 20be
00000020: 7cc5 26be d835 2a3e aa31 033e 000d cbbc
00000030: 6ccc 1abe e027 c8bc 2851 2e3e 8037 b0bc
00000040: 60ab 0cbc 4ca1 b4bd 2c96 e53d a807 e7bd
00000050: 02ad 233e 3cf9 ae3d 883c e4bd 585a 063e
00000060: e2df 64be 022b 553e ea91 553e 0c84 033e
00000070: 1e97 233e 8046 aa3d 38ec 08bd c4b1 ab3d
00000080: 2aab 33be c0d8 ef3d 40f4 82bd d0d6 1abd
00000090: 7c2c 88bd 6857 a3bd 9891 31be 0064 a8bb
000000a0: e863 793d 70a8 9cbd 504d 3abd 80ae 40bc
000000b0: b06c babd e0b5 9f3c d626 2d3e 3ea9 5cbe
000000c0: c419 1bbe ec3b e7bd 400a b3bc 1855 f23d
000000d0: 162c 693e ae6f 243e a650 163e 7001 4cbd
000000e0: ec40 123e 6254 123e 90b8 48bd 701d 19be
000000f0: 6845 b43d 106f b33d fc40 773e 0cbe 46be
00000100: 506f aabd 0864 52bd 6e2f 503e 1eb3 703e
00000110: 9896 28be 38a3 293d 3881 6f3d 00e8 1bb9
00000120: 64ee 4cbe b0ee ee3d e455 eb3d c47b 053e
00000130: 484c 7bbd 00c6 8cba b89b b0bd d0a8 2b3d
00000140: d445 fe3d 3498 413e b032 c63d 983d 05bd
00000150: 18ab b23d 7ed3 76be d851 20be 0ad6 0c3e
00000160: 00bd d4bc 2a31 3abe b002 4a3d 86e7 793e
00000170: a09c 00bc 1481 c63d c011 71bd dede 0d3e
00000180: 5ed6 5bbe 82e2 7dbe 2052 453d 00f8 a0bb
00000190: d005 1ebe 0054 25be 94ee f7bd f4ea 34be
000001a0: 44d8 d7bd d0ec 8d3c 005c d63a f000 94bc
000001b0: a46d 5a3e 8c18 a03d b8ec 15be 824c 0d3e
000001c0: 481c ad3d 902d d13d 56a0 3ebe 10a5 d0bd
000001d0: e2ce 493e 88e6 1c3e 24d7 f53d 1a4b 11be
000001e0: 9a4b 4b3e 96ae 0e3e b03d 563e f8b4 4d3e
000001f0: 2a0e 473e d869 883d 2add 25be e609 60be
00000200: b0ae 293d a8ec 743e 44a7 6e3e 549e 9ebd
00000210: 1cef 7dbe 1884 4abd 08fd 45bd 24b5 afbd
00000220: 801a e43d 048f 0bbe e0b4 e3bc 105d e03c
00000230: 0063 b5bd fc5b c0bd 2066 29bc 30c5 313d
00000240: 4646 5fbe de14 533e 28c0 763d 705d 5abe
00000250: 70a4 22bd 3ca9 fa3d 3e9b 7d3e c05b 55bc
00000260: f08c 8b3d 1238 0e3e a8fa 793d 6c9d cfbd
00000270: aecb 67be 9899 9d3d 227c 1cbe f82a 4e3e
00000280: 5818 1fbd 2a31 613e 1c60 a3bd 601a 41be
00000290: d030 0f3e 400c 6d3e b09b 5e3d 00cc 36bc
000002a0: 80e7 4dbc 989b 4abd 886a 3b3e 4836 4f3d
000002b0: 74b3 6fbe e6c0 693e c62e 1c3e 34fc e3bd
000002c0: 480a c5bd 0273 56be 00ec 12ba 1c23 21be
000002d0: 74bc cc3d 109c acbc b404 c53d 8eb3 52be
000002e0: 5a06 323e 38a5 1f3d c6ad 1c3e 0805 7f3d
000002f0: 5421 633e 3ce6 23be d0f5 a83d 88c8 183e
00000300: a602 28be 10b8 4c3d ac73 6dbe 6041 95bc
00000310: 1ca6 f2bd 42f1 713e 98be de3d 16ae 3fbe
00000320: 5871 cf3d 6c6d 55be 98be 143d b8c0 783e
00000330: 7ee7 27be 1455 913d 1c28 b0bd b47a fb3d
00000340: 40db 37bd f036 07be c098 b13c 8064 513b
00000350: 1c03 e1bd 409e 3cbd e0a0 fbbd 9c7a 123e
00000360: d0a5 69be 0419 74be 882f bd3d fad1 72be
00000370: b884 6ebd 70de 373e 783f 8bbd 5c97 eabd
00000380: fc20 16be a84f 36bd 3c1a 4bbe ac0a 193e
00000390: c653 20be 4442 9bbd 2073 043d 36d1 33be
000003a0: d813 63be 20ab 0d3c e060 673c c43e 2cbe
000003b0: 38d8 cbbd 008c 76bc f8ea 59bd 6e25 57be
000003c0: e812 583e c091 d1bc 4c83 413e aefb 60be
000003d0: e292 28be 1856 0d3e d80f f93d f0a0 fe3d
000003e0: 80b8 75bc 6c5a bdbd c0f7 903c b8e7 8dbd
000003f0: c4b2 ba3d 8cd1 393e 404d 773c 1cf1 073e
0.19691965 -0.15684333 -0.22902459 0.24582332 -0.21720695 0.08433786 0.09181377 -0.15683666
-0.16286272 0.16622102 0.12811914 -0.024786472 -0.15117043 -0.024433076 0.17023146 -0.02151084
-0.008585781 -0.088198274 0.11210284 -0.11280757 0.15983966 0.085436314 -0.11144358 0.13120401
-0.2235103 0.20817187 0.20856443 0.1284334 0.15975615 0.08314228 -0.0334284 0.083835155
-0.17545763 0.11711264 -0.06394243 -0.037802517 -0.0664911 -0.07975656 -0.17340696 -0.005138874
0.060886294 -0.076493144 -0.045483887 -0.011760354 -0.09102762 0.019495904 0.16909346 -0.21548936
-0.15146548 -0.11290726 -0.021855474 0.118326366 0.22770724 0.16058227 0.14679202 -0.04980606
0.14282578 0.14290002 -0.049004138 -0.14952636 0.08802301 0.08761418 0.24145883 -0.19408435
-0.083220124 -0.05136493 0.20330593 0.23505828 -0.16463697 0.041415423 0.058472842 -0.00014868379
-0.20012814 0.1166662 0.11490992 0.13035494 -0.061352044 -0.0010740161 -0.08623451 0.04190904
0.124156624 0.18905717 0.096776366 -0.032529444 0.0872404 -0.24104115 -0.15656221 0.13753524
-0.025969028 -0.18182817 0.04931897 0.24404725 -0.007849842 0.096925884 -0.05885482 0.13854548
-0.21468493 -0.24793437 0.048174024 -0.0049123764 -0.15431905 -0.16145325 -0.12106052 -0.17667753
-0.10539296 0.017324835 0.0016354322 -0.018066853 0.21330887 0.07817182 -0.14641082 0.13798717
0.0845266 0.102137685 -0.18615851 -0.10187733 0.19707826 0.15322316 0.120039254 -0.14188805
0.19853058 0.13933787 0.2092197 0.20088565 0.19438997 0.06660813 -0.16197649 -0.21878776
0.04142636 0.23918402 0.23305994 -0.077450424 -0.24798244 -0.04944238 -0.048337013 -0.08579472
0.11137867 -0.13628775 -0.027796209 0.027388126 -0.088567734 -0.093925446 -0.01033929 0.043400943
-0.21804151 0.20613429 0.06024185 -0.21324706 -0.0397076 0.1223931 0.24766251 -0.013022363
0.06813991 0.13888577 0.06103006 -0.10137448 -0.22636291 0.07695311 -0.15281728 0.20133579
-0.038841575 0.21991411 -0.07977316 -0.18857718 0.13983464 0.23149204 0.054347694 -0.011157036
-0.012567401 -0.049464792 0.18302357 0.050588876 -0.234083 0.22827491 0.15252218 -0.11132088
-0.096211016 -0.2094231 -0.0005604625 -0.1573605 0.09996882 -0.02107051 0.09620038 -0.20576307
0.17385235 0.038975924 0.15300664 0.062260658 0.22180682 -0.16005796 0.0825001 0.14920247
-0.1640726 0.049980223 -0.23188657 -0.01821965 -0.11848089 0.23627189 0.108761966 -0.18718752
0.101290405 -0.20842522 0.036314577 0.24292266 -0.16396901 0.070963055 -0.086014 0.12279263
-0.044886827 -0.1320455 0.021679282 0.0031950772 -0.10986921 -0.046049356 -0.12286544 0.14304584
-0.22817159 -0.23837668 0.092375815 -0.23712912 -0.05823204 0.17955947 -0.06799215 -0.11454651
-0.1466102 -0.04450956 -0.19834226 0.14945477 -0.15656957 -0.075809985 0.032336354 -0.17560276
-0.22175539 0.008646756 0.014122218 -0.16820818 -0.0995335 -0.015048027 -0.0532026 -0.21010372
0.21100962 -0.025582194 0.18897742 -0.21971008 -0.16462281 0.13802373 0.12161225 0.1243304
-0.0149976015 -0.09245762 0.017696261 -0.069289625 0.09116128 0.18146342 0.015094101 0.1327557

encoder.blocks.1.skip.bias f4 [32]
00000000: 8063 c03d d876 ed3d 6855 01be 6cd1 d23d
00000010: 7e55 07be 0a69 40be 9afd 2e3e 3a62 393e
00000020: a0a9 333e a0d0 a93c 982b c6bd 5c96 40be
00000030: 20c9 8fbc deac 5dbe 1aa8 6f3e 5034 0a3e
00000040: 60db 313e 600f ef3d 7ad2 30be d24b 333e
00000050: 3455 22be 9859 c1bd bafc 1cbe c090 f63c
00000060: d497 9e3d 18b2 4f3d 9827 2ebd 28f0 07be
00000070: b040 58bd eaea 7f3e 28db 213d 002c bc3b
0.09393978 0.11594933 -0.12630236 0.1029385 -0.13216206 -0.18790069 0.17088929 0.18103877
0.17545176 0.020729363 -0.096762836 -0.18807358 -0.017551959 -0.21647975 0.2340397 0.13496518
0.17368841 0.116728544 -0.1726779 0.17509392 -0.15852815 -0.09440917 -0.15330783 0.030098319
0.07743803 0.050706953 -0.04251823 -0.13275206 -0.052796066 0.24991956 0.039515644 0.00574255

encoder.blocks.2.conv.0.weight f4 [64, 32, 3, 3]
00000000: 1f3f d4bc faf9 44bc a769 f0bc 6805 963b
00000010: f555 95bd 3e68 09be 3c9b 49bd d961 f4bd
00000020: 3d3c bcbd e59f fbbb 1a1b 91bc 1cb0 b23d
00000030: 3f77 c83c e7cf 153e 08dc df3d 1989 283c
00000040: 70bd 1a3d 366d 2e3e 29c1 233d 4b84 22bb
00000050: 564e bfbd eadf 243e efcb 7b3d c3e9 c13d
00000060: fa73 973c b201 41bc 69dd 8c3d 3d41 d3bc
00000070: 14fc a3bb a088 5c3d 4c98 2d3e 2395 c03c
00000080: b8b3 fd3c a51d 0bbc 80a6 e3bc 2275 a03d
00000090: cb0b cabd 1613 4dbe 4c2a dcbd 9b4e d7bd
000000a0: 975a 98be e333 b2be 820f 1fbc 3b00 60be
000000b0: 600e 2ebd a5de 0fbe 1126 80be 3c6f c1bd
000000c0: 9b13 bfbd f95d 07bf f0fb a7be 20d3 123e
000000d0: fa29 9fbd 0033 573b f094 fbbc 4d99 98bd
000000e0: c595 b23d ecab cd3d 1d47 e33d 3aba 3e3e
000000f0: c912 0a3d 50a2 0f3e 6b13 3e3e 8d2f 3e3e
00000100: 0154 503e 7647 813e 317f a63d d52c b93d
00000110: 88ec a73c 2623 3ebd 9134 71bd be76 98bd
00000120: 4425 4e3e 85a8 853e 4672 003e 926a 163e
00000130: 4d58 153e 4b02 dc3d 7ac2 f4bd bf88 0dbe
00000140: f081 bcbd 3648 7ebe d47b aabe 0051 73be
00000150: 9a8f 4fbe 3ca1 04bf 48a6 a5be ccef 82bc
00000160: e0e9 80be cee5 dabd 03a4 1ebb 8385 023e
00000170: f3c5 e3bd acb4 57be 7247 613e e0d8 033d
00000180: b7da 48be 2fb2 d2bd a23d f8bd fbec 1dbe
00000190: c7d2 c7be 390d 0ebe d315 b9bd a017 f8be
000001a0: b4f7 77be 2f4b c53c 6051 3dbe ef26 b3bc
000001b0: 27b1 18be 0b83 dcbe 5b25 a2be 1f85 86bd
000001c0: b7ca f2be 7e99 02bf 30dd d13d e436 fcbd
000001d0: d711 c4bd f61d 06be db5c 9fbe 08e2 11be
000001e0: fdf6 e4bc d774 eebe 927e 48be eb45 69bd
000001f0: a76a a0be 453d e1bc e647 123e cbdf 423e
00000200: 29ae fe3d 8ccc f13d 769f c33d 057f dd3d
00000210: 9101 18be 8479 1bbe 2f73 0fbe d4a7 49be
00000220: dcfa a1be 1a5d 6bbe 963f c43d 165a 8c3d
00000230: cd40 063e be0d 06be 7969 5e3d df0d 733e
00000240: 387f 1ebd 9795 cfbc a83c dabd f0c2 cd3a
00000250: a9f2 003e 2bea 03bc 58c6 29bd 5aa1 683d
00000260: 83b8 6a3d e666 773e 2647 8a3e a66e 413e
00000270: 87f3 803d 6c49 f83d 4adf 0f3e be4f 45be
00000280: 6d85 e0bd 9f26 2dbe ecac 02be f008 cfbe
00000290: 27b0 7bbe 24cb 17be 3224 10bf 307a 9ebe
000002a0: 5c2a bb3b 6089 8bbe 435d 46bd ed6f bdbd
000002b0: bc8e 99be 4663 09be 9982 b0bd 798e ffbe
000002c0: cea4 abbe 9b56 55bd 0cb7 74be e2a7 80bd
000002d0: 871d d3bd 14b4 38be 44a1 f8bd df5a 243e
000002e0: 07cf f13d 35f7 2e3e 09f5 153e dedd fe3d
000002f0: be91 693e 85da ddbd cd74 b5be 636f c7bd
00000300: 9392 89bc 1729 d3be 0fc7 a9be dd6f 703d
00000310: 3b36 20be 78ee 8cbd 8b92 83bd dd74 37be
00000320: cd27 9bbb ff68 96bd f930 09bf 0342 7abe
00000330: 2ad9 02bc bf98 00be 7d72 403d 3998 b1bd
00000340: de92 bfbe a7ad 5dbe ff62 80bc ee8e edbe
00000350: 5624 ecbe aa8e 4a3d 8f6e 56be a46b e5bd
00000360: 238e a23d 857e 7ebd 44c4 92be 03f7 e8bc
00000370: 20be 813d bca2 06bd b5d8 04bd 3982 eebc
00000380: 43c6 c1bd b4e4 373e f4b2 673e 237a da3d
00000390: b78c 433d 1833 3c3d 4b1b 9b3d 0a08 11be
000003a0: e85a 0abe 79c6 6fbe 045d 933b ef70 72bd
000003b0: 24a4 83bd 21b8 09bd 1cbe 013e ce95 7c3d
000003c0: d4f8 64be 8d1e 48be 6d19 b4bd 44a2 17be
000003d0: dac3 96be e94d 4fbe 5847 89be 63c5 2abf
000003e0: 3448 cabe 8b26 e2bc c8dd 5abe 5b71 8abd
000003f0: de3d 983d 7b7a fe3d 78ff f63d f707 bdbc
-0.025909005 -0.01202249 -0.029347254 0.004578281 -0.07291786 -0.13418671 -0.04922031 -0.119327255
-0.09191177 -0.007678973 -0.017713118 0.087249964 0.024470923 0.1463009 0.109306395 0.010286593
0.037778318 0.17033848 0.039979134 -0.002479809 -0.09341113 0.16101041 0.061473783 0.09468415
0.01848792 -0.011780189 0.06878168 -0.025787944 -0.0050044153 0.053841233 0.16952628 0.023508614
0.030969486 -0.0084909545 -0.027789354 0.07834841 -0.098655306 -0.20026812 -0.10750255 -0.1051304
-0.29756615 -0.3480521 -0.009708287 -0.21875088 -0.042494178 -0.14049776 -0.25029042 -0.094450444
-0.09329911 -0.52877766 -0.328094 0.1433835 -0.07771678 0.0032836795 -0.030710667 -0.07451115
0.087199725 0.10042557 0.11097548 0.18625727 0.03370932 0.14026761 0.18562095 0.18572827
0.20344545 0.25249833 0.081297286 0.09041754 0.02049853 -0.04642024 -0.05888802 -0.07444523
0.20131403 0.26105133 0.12543592 0.14689091 0.14584465 0.10742625 -0.11951156 -0.13821696
-0.09204471 -0.24832234 -0.33297598 -0.23761368 -0.20269623 -0.51808524 -0.32353425 -0.015983485
-0.25178432 -0.10688363 -0.0024206645 0.12746243 -0.1112174 -0.21065015 0.2199991 0.03218925
-0.19614683 -0.10287892 -0.121211305 -0.15422432 -0.39027998 -0.13872232 -0.09037366 -0.48455524
-0.24215585 0.024083702 -0.18488073 -0.02186915 -0.14911328 -0.43068728 -0.31669125 -0.065683596
-0.47420284 -0.5101546 0.10247266 -0.12315157 -0.09573715 -0.13097367 -0.3112553 -0.1424638
-0.027949804 -0.46573517 -0.19579533 -0.056951445 -0.3133137 -0.027495036 0.1428524 0.19030683
0.12435562 0.11806592 0.09551899 0.10815243 -0.14844348 -0.15183073 -0.14008783 -0.19692928
-0.31636703 -0.22984734 0.095824406 0.0685312 0.13110657 -0.1309118 0.054299805 0.2373576
-0.038695544 -0.025339885 -0.106561005 0.0015698355 0.12592568 -0.008051435 -0.04144892 0.0567945
0.05730487 0.24160346 0.27007407 0.18889865 0.06296449 0.12123379 0.14050022 -0.192687
-0.10962949 -0.16909264 -0.12761277 -0.40436506 -0.24578916 -0.14823586 -0.5630523 -0.30952597
0.0057118367 -0.27253246 -0.048428785 -0.09249864 -0.2999171 -0.13416776 -0.086186595 -0.49913386
-0.33524173 -0.052084547 -0.23897952 -0.06282021 -0.10308366 -0.18037444 -0.12140134 0.1605029
0.118070655 0.1708649 0.14644255 0.124446616 0.22809502 -0.10832695 -0.35440674 -0.09738042
-0.016793525 -0.41242287 -0.33159682 0.05870043 -0.15645687 -0.06881422 -0.06424435 -0.17915674
-0.004734969 -0.07344245 -0.5359035 -0.24439244 -0.007986346 -0.12558268 0.046984185 -0.08671612
-0.37416738 -0.21648274 -0.015672205 -0.4639811 -0.46121472 0.04945246 -0.20940612 -0.112021714
0.07937267 -0.062132377 -0.28665364 -0.028438097 0.063350916 -0.03287004 -0.03243323 -0.02911483
-0.094616435 0.17958337 0.22626859 0.10667827 0.047741618 0.045947164 0.07573565 -0.14163223
-0.1351124 -0.23415555 0.0044971723 -0.059189733 -0.06427792 -0.033622865 0.12670177 0.061666302
-0.22360545 -0.19542904 -0.08793912 -0.14807993 -0.29446298 -0.20244564 -0.26812243 -0.6670744
-0.39508212 -0.02760627 -0.21373665 -0.06759902 0.07433675 0.12425705 0.120604455 -0.023075087

encoder.blocks.2.conv.0.bias f4 [64]
00000000: 4970 193d 6fb4 aebc 2a36 bd3c 46e2 2b3d
00000010: 0668 9dbd 073f a4bb f405 2ebd 7a0e 873c
00000020: 7e01 c9bc 02a6 bbbd 2303 b6bc e15a 12bd
00000030: 6d63 7a3c 59b3 9dbc 0dff b13d 54dd 7c3d
00000040: a77c 9abd 14e8 01bd 293f 94bd 8d70 463c
00000050: 4986 a23d 1ee2 873d d253 51bd ced4 8d3c
00000060: d652 0e3d cb9d 81bc ec2e 8e3d df64 81bd
00000070: 7d82 08bd 66cf 7b3c b3c5 463c cd77 fcbc
00000080: bc55 f23c 7826 f6bc fcc9 b5bd b7df 813d
00000090: 2501 003c 9b50 983b ebac afbc 84db 243d
000000a0: e7a7 b23c 01f7 c5bd d97d 0fbd 3485 b8bd
000000b0: abb6 b23b 7669 9ebd 86e5 89bd 25e3 ea3c
000000c0: 1add 60bd 25f4 1e3b eb0b 0c3d 2b86 da3b
000000d0: 9f2e 983d 4736 b13d b25e 7c3d 96f5 3a3c
000000e0: 477e 63bd 3323 5bbd 0829 25bd 3678 553d
000000f0: be49 7dbd 6400 413c b6b3 85bc b6e0 a83a
0.0374606 -0.021326272 0.023097117 0.041963838 -0.076858565 -0.0050123963 -0.042486146 0.016486395
-0.024536844 -0.09162523 -0.022218293 -0.0357312 0.015282494 -0.019250559 0.08691225 0.061734512
-0.07543307 -0.031715468 -0.07238609 0.012111795 0.07935769 0.06634925 -0.051105328 0.017313387
0.034746967 -0.015822312 0.069425434 -0.06318068 -0.03332757 0.015369272 0.012132096 -0.030818844
0.029581897 -0.03004764 -0.08876416 0.06341498 0.007812773 0.004648281 -0.021444758 0.04024841
0.021808578 -0.09666253 -0.035032127 -0.090097815 0.0054539046 -0.07734959 -0.06733231 0.028672764
-0.05489836 0.0024254408 0.034191053 0.006668826 0.07430767 0.08652931 0.061613746 0.011411091
-0.05554035 -0.053500365 -0.040322334 0.052116595 -0.061837904 0.011779878 -0.016321044 0.0012884352
