toyshapes/pinets_strong/model_18.pth (torch, 466881 bytes, 71 tensors)

encoder.blocks.0.conv.0.weight f4 [16, 1, 3, 3]
0	0xbd8715eb	-0.065959774
1	0xbd1f9b07	-0.038966205
2	0xbdc9275c	-0.0982196
3	0x3de2141f	0.11038994
4	0x3eb21dbf	0.3478832
5	0x3d7cc990	0.061715662
6	0xbc3c5acc	-0.011496257
7	0x3c57dfde	0.013175933
8	0xbe554153	-0.208257
9	0xbe36ae35	-0.17839892
10	0xbecb6819	-0.39727858
11	0x3e88e780	0.2673912
12	0xbc14cad2	-0.009081559
13	0xbe3b495d	-0.18289705
14	0x3e3daa0e	0.18521902
15	0x3dc53100	0.09628487
16	0x3e5e7a53	0.2172635
17	0xbe13b05f	-0.14422749
18	0xbe53a4c3	-0.2066832
19	0x3e016755	0.12637074
20	0x3e5258b6	0.20541653
21	0x3e420d66	0.18950424
22	0x3ea3f7d5	0.32025018
23	0xbe9ada5b	-0.30244717
24	0xbd84375a	-0.0645587
25	0xbe46b8ee	-0.19406483
26	0xbda17fbe	-0.07885693
27	0x3e9f29be	0.31086534
28	0x3d66d85f	0.05635869
29	0x3e14d9a4	0.14536148
30	0xbe347b8f	-0.17625259
31	0xbea090c2	-0.3136044
32	0x3e8bbba6	0.27291602
33	0xbe674255	-0.22583897
34	0x3c8dcde4	0.01731009
35	0xbe0b7f01	-0.13622667
36	0x3e9fcd1d	0.31211177
37	0xbcf828f5	-0.030292967
38	0xbdc79317	-0.09744852
39	0xbe804407	-0.250519
40	0xbd44a779	-0.048011277
41	0x3ebcf4db	0.3690556
42	0xbe29f7c2	-0.16598418
43	0x3d814b11	0.06313146
44	0xbde7bb63	-0.11315038
45	0xbdead0ce	-0.114656076
46	0x3b7aaf70	0.0038251542
47	0x3e1db0a7	0.15399419
48	0x3d73c28e	0.059511714
49	0x3e73263a	0.23745051
50	0xbe7fd930	-0.24985194
51	0x3e20e1f2	0.15711191
52	0xbeb1f9c3	-0.34760866
53	0x3dada0f1	0.08477963
54	0x3cbc9884	0.023021944
55	0x3d765903	0.060143482
56	0xbe9c1446	-0.30484217
57	0x3e9f9a1b	0.3117226
58	0x3d879ed7	0.06622093
59	0x3e316ff3	0.17327861
60	0x3e2d79bf	0.16940974
61	0xbe8c8ded	-0.2745203
62	0xbe572731	-0.21011044
63	0x3c53df8f	0.0129317185
64	0xbe3bf05d	-0.1835341
65	0x3c82158a	0.015879411
66	0x3e927b3a	0.2860964
67	0x3e825386	0.25454348
68	0xbd4cb0c6	-0.04997327
69	0xbd0220ce	-0.031769566
70	0xbeb2e94f	-0.34943625
71	0x3d3139c9	0.043268
72	0x3e6840dc	0.22680992
73	0x3e1c17bb	0.15243427
74	0x3e6c1984	0.23056608
75	0xbd52dbac	-0.051479027
76	0xbddb55c4	-0.10709718
77	0x3e322940	0.17398548
78	0xbdc75632	-0.09733237
79	0xbe035ede	-0.12829158
80	0xbea2e6ef	-0.31816813
81	0xbe2396dd	-0.15975519
82	0x3eb5dad9	0.3551853
83	0xbe98fbd7	-0.2987964
84	0x3e35019c	0.17676395
85	0xbe25bef2	-0.16186121
86	0xbe1669cf	-0.146888
87	0x3d241d66	0.0400671
88	0xbe20e159	-0.15710963
89	0x3e9d2369	0.30691078
90	0xbe306002	-0.17224124
91	0x3e7fe61d	0.24990125
92	0xbdae82bc	-0.08521029
93	0xbe89c806	-0.26910418
94	0x3e563d61	0.20921852
95	0x3e2f9108	0.17145169
96	0x3ea1b10c	0.3158039
97	0xbe9719f2	-0.29511982
98	0xbe051501	-0.12996294
99	0xbea81a69	-0.3283265
100	0xbdd7d103	-0.10537913
101	0xbe22cc3f	-0.15898226
102	0x3e455d72	0.19273928
103	0x3e5f98bb	0.21835606
104	0x3dc1dd04	0.094659835
105	0xbeabe22d	-0.33570996
106	0xbe676599	-0.2259735
107	0xbe088aad	-0.1333415
108	0xbe992d89	-0.29917553
109	0xbe6fbde1	-0.23412277
110	0x3e56e91b	0.2098736
111	0x3e7d3126	0.2472578
112	0x3e957c29	0.2919629
113	0x3e9b1da7	0.3029606
114	0xbcda8a00	-0.026677132
115	0xbdb0e901	-0.08638192
116	0xbeb25fd8	-0.34838748
117	0xbe86ff7e	-0.263668
118	0x3ea4160c	0.3204807
119	0x3c1f7238	0.009731822
120	0xbe6f8064	-0.23388821
121	0xbd84473e	-0.06458901
122	0x3e9d3c92	0.30710274
123	0xba0e06e6	-0.0005417898
124	0x3e2ff595	0.17183526
125	0xbe1f2d13	-0.15544538
126	0x3e81e208	0.2536776
127	0x3dcc4592	0.09974207
128	0xbebd8a8b	-0.37019762
129	0x3e474167	0.19458543
130	0x3e314b34	0.17313844
131	0x3e4922a3	0.19642119
132	0xbe8c4da4	-0.27402985
133	0xbe9c353d	-0.30509368
134	0x3e110413	0.1416171
135	0xbe713dcb	-0.23558728
136	0x3e21c965	0.15799482
137	0x3e0b5675	0.136072
138	0x3e8072ec	0.25087678
139	0x3e6a0ada	0.22855702
140	0x3e46b45f	0.19404744
141	0xbe63bbb3	-0.2223957
142	0xbeba3623	-0.36369428
143	0xbe272d45	-0.16325863

encoder.blocks.0.conv.0.bias f4 [16]
0	0x3ef478e9	0.47748497
1	0x3e4cc502	0.19997028
2	0xbe560e85	-0.20903976
3	0x3d90105c	0.0703437
4	0x3e38e984	0.18057829
5	0xbcbd380e	-0.023098018
6	0x3e6cd6d7	0.2312883
7	0xbdc72ec3	-0.09725716
8	0x3e25e90e	0.16202185
9	0x3e67a60e	0.22621939
10	0x3dd4f662	0.10398556
11	0x3ee105cb	0.43949732
12	0x3e69c59b	0.22829287
13	0xbe8fdec5	-0.28099647
14	0x3e075246	0.13214979
15	0xbe68aa20	-0.22721148

encoder.blocks.0.conv.1.weight f4 [16]
0	0x3f575a1f	0.8412189
1	0x3f868af2	1.0511153
2	0x3f5d6ebe	0.86497104
3	0x3f500ca5	0.81269294
4	0x3f598505	0.84968597
5	0x3f689d98	0.9086547
6	0x3f68e782	0.9097825
7	0x3f80322a	1.0015309
8	0x3f87d423	1.0611614
9	0x3fa0078f	1.2502307
10	0x3fa0b51d	1.2555271
11	0x3f4769c5	0.77895766
12	0x3f84ddb8	1.0380163
13	0x3f66985b	0.90076226
14	0x3f746d6c	0.95479465
15	0x3f8540e3	1.0410427

encoder.blocks.0.conv.1.bias f4 [16]
0	0xbe0991ec	-0.13434571
1	0x3dcf11ce	0.10110818
2	0xbdd4ec5e	-0.10396646
3	0xbd134425	-0.03595366
4	0xbdb1a0ab	-0.08673223
5	0x3d943ed8	0.07238549
6	0xbd8b96ed	-0.06815896
7	0xbe327edd	-0.17431207
8	0xbd67eb7a	-0.056621052
9	0x3ef45587	0.47721502
10	0x3e3e2e74	0.18572408
11	0xbe54f8fe	-0.20798108
12	0xbbb4f8d4	-0.0055228267
13	0xbd1beb9a	-0.038066484
14	0xbcd16691	-0.025561603
15	0xbdaeedc0	-0.08541441

encoder.blocks.0.conv.1.running_mean f4 [16]
0	0x3f05b63f	0.5223121
1	0x3e1815e2	0.14852098
2	0xbe60baa4	-0.21946198
3	0x3bd3f20b	0.0064680628
4	0x3e2ec762	0.17068246
5	0xbd9763ed	-0.07392106
6	0x3e79e4bf	0.24403666
7	0xbde38228	-0.1110881
8	0x3e4b2a31	0.19840313
9	0x3e83073b	0.25591454
10	0x3da1b3c7	0.07895618
11	0x3d5e516b	0.054276865
12	0x3e84c717	0.25933143
13	0xbe8b4ba9	-0.27206162
14	0x3e4b649a	0.19862595
15	0xbe795dfd	-0.2435226

encoder.blocks.0.conv.1.running_var f4 [16]
0	0x3b23c830	0.0024991147
1	0x3b7f37cd	0.0038943172
2	0x3b183873	0.0023227006
3	0x3bc034ea	0.005865683
4	0x3af23110	0.0018477757
5	0x3a9b5ba3	0.0011852871
6	0x3bb27d8b	0.005447095
7	0x3b17fee6	0.0023192703
8	0x3bf18dd0	0.0073716417
9	0x3acf78c5	0.0015828839
10	0x3a971946	0.0011527918
11	0x3ce54b37	0.027989967
12	0x3b9176da	0.004439217
13	0x3b8667c5	0.0041017258
14	0x3b89c69a	0.0042045834
15	0x3bdd2928	0.006749291

encoder.blocks.0.conv.3.weight f4 [16, 16, 3, 3]
0	0x3dc5988d	0.096482374
1	0xbd1baf81	-0.03800917
2	0x3de9abce	0.11409722
3	0xbacf068f	-0.0015794801
4	0xbdb9a3f0	-0.09064472
5	0x3e1316e5	0.14364202
6	0xbe1112d4	-0.14167339
7	0xbd2024ac	-0.039097473
8	0x36e91b10	6.9470916e-06
9	0xbdcc3759	-0.09971494
10	0xbd91ba7f	-0.071156494
11	0xbe1cef45	-0.15325649
12	0xbe41bf88	-0.1892072
13	0x3c9bc48c	0.01901462
14	0xbde5ee29	-0.11227066
15	0xbc981c8f	-0.018568305
16	0xbdae765e	-0.085186705
17	0xbdfccef0	-0.12344158
18	0xbd9bf4c4	-0.07615045
19	0xbd8e3ece	-0.06945573
20	0x3c13603f	0.008995115
21	0xbd1388f6	-0.036019288
22	0xbd3ef5c0	-0.046621084
23	0xbdca96de	-0.09892057
24	0xbe4b41f9	-0.19849385
25	0xbdfc8aca	-0.123311594
26	0x3db2e3f0	0.08734882
27	0xbd92baac	-0.07164511
28	0x3c301885	0.010748033
29	0x3c2a0c33	0.010378885
30	0x3b4a58a8	0.0030875597
31	0x3df18fc1	0.11794997
32	0xbc58b1c3	-0.013225975
33	0xbd70e1a4	-0.058808938
34	0x3ca358fa	0.019939888
35	0x3cf89fbc	0.030349605
36	0xbd000643	-0.03125597
37	0xbdb179f3	-0.08665838
38	0xbe125675	-0.14290793
39	0xbe0aeeb0	-0.13567615
40	0xbca812b3	-0.020516729
41	0xbd186da0	-0.03721392
42	0xbda46938	-0.080278814
43	0xbd11d3d6	-0.035602413
44	0x3cf3c7bb	0.029758325
45	0x3b814858	0.0039453916
46	0xbd8a1fbd	-0.06744335
47	0xbcb47bc4	-0.022031672
48	0x3cb29ad4	0.021802343
49	0xbd434c6c	-0.047680303
50	0xbe34b78b	-0.17648141
51	0xbcae0480	-0.02124238
52	0xbdb9a667	-0.09064942
53	0xbc9795e8	-0.018504098
54	0xbd596f06	-0.053084396
55	0xbce7d656	-0.028300446
56	0xbd641792	-0.05568654
57	0xbe13293c	-0.14371198
58	0xbd9950db	-0.07486125
59	0xbd7493a8	-0.05971113
60	0xbd8e00a3	-0.06933715
61	0xbd3f7625	-0.04674353
62	0xbd2136c1	-0.039358858
63	0xbe1293d5	-0.14314206
64	0xbd15be9e	-0.03655874
65	0xbdcc01b5	-0.09961263
66	0xbe35800b	-0.17724626
67	0xbdc201b2	-0.094729796
68	0x3ce06d03	0.02739573
69	0xbdc4c710	-0.09608281
70	0xbd4de803	-0.05027009
71	0xbdf9b7fb	-0.121932946
72	0xbd916e8e	-0.07101165
73	0x3e024ee9	0.12725414
74	0xbb541ee7	-0.0032367052
75	0xbdcf270f	-0.10114872
76	0xbdb2511d	-0.087068774
77	0x3d15d5c3	0.036580812
78	0xbc9a539a	-0.018838692
79	0x3b69427e	0.003559261
80	0xbbb334fc	-0.0054689627
81	0xbe9ac229	-0.30226257
82	0xbe586e29	-0.21135773
83	0xbe19df79	-0.15026654
84	0xbe72bc75	-0.23704703
85	0xbe466542	-0.19374564
86	0xbd0e8a48	-0.034799844
87	0xbe614f8c	-0.22003001
88	0xbe341cfd	-0.17589183
89	0xbdf7b16b	-0.12094387
90	0x3c2ae652	0.010430889
91	0xbd6e5571	-0.058186952
92	0xbdf83c5f	-0.1212089
93	0xbe08a211	-0.13343073
94	0xbda84c4d	-0.08217678
95	0xbc139f4b	-0.009010146
96	0x3d3e09d8	0.046396106
97	0xbda11ee0	-0.07867217
98	0xbdf00144	-0.117189914
99	0xbda8efd9	-0.08248872
100	0x3cff508b	0.031166336
101	0xbdd42069	-0.10357744
102	0xbdef86d4	-0.11695638
103	0xbda1b501	-0.07895852
104	0xbda99c56	-0.08281772
105	0xbda14ff8	-0.07876581
106	0xbce34e0b	-0.027747175
107	0xbd1471b2	-0.03624124
108	0xbd6da802	-0.058021553
109	0xbd363af2	-0.04448981
110	0xb92c3231	-0.00016421896
111	0xbe843c20	-0.25827122
112	0xbdf46764	-0.11933783
113	0x3b0106dc	0.0019687926
114	0xbe98daa3	-0.29854307
115	0xbe1eb96e	-0.15500423
116	0xbe1d39be	-0.15354058
117	0xbdc7a094	-0.09747425
118	0x3d1aaa2b	0.03775994
119	0xbd1c9b79	-0.038234208
120	0xbde7e001	-0.11322022
121	0x3d44c720	0.048041463
122	0x3ba31b77	0.0049776393
123	0xbe2ff872	-0.17184618
124	0x3d25fb37	0.04052278
125	0x3c406262	0.011742206
126	0xbe5536a3	-0.20821624
127	0xbdaccea3	-0.0843785
128	0x3cf06291	0.029343875
129	0xbe36d2f7	-0.17853914
130	0xbc0dbfda	-0.008651698
131	0xbd2e138d	-0.042499114
132	0x3b231d5a	0.002488932
133	0xbd6467b8	-0.055762976
134	0x3d910d0d	0.07082567
135	0xbd90a6ce	-0.070630655
136	0xbc217f85	-0.009857063
137	0x3ca14a08	0.019688621
138	0xbda3f9a4	-0.080065995
139	0xbe48bcdb	-0.19603293
140	0xbc0b2eca	-0.008495042
141	0xbe1271b5	-0.14301188
142	0xbe42b74d	-0.19015236
143	0xbde949e7	-0.11391049
144	0xbdc8e360	-0.09808993
145	0x3c93cc34	0.018041708
146	0xbb871081	-0.0041218405
147	0xbd08c18f	-0.033387717
148	0x3db4fc46	0.0883718
149	0x3cdb3812	0.026760135
150	0x3d8608d2	0.06544651
151	0x3cd1d8eb	0.02561613
152	0x3b18f91e	0.0023341845
153	0xbd090454	-0.033451393
154	0x3e1ffbf1	0.15623452
155	0x3e1061ca	0.14099804
156	0x3d575126	0.052567624
157	0x3e08db46	0.13364896
158	0x3bdd059d	0.006745054
159	0x3de8d86a	0.11369403
160	0x3ddee7c1	0.10884047
161	0x3da57b5f	0.08080172
162	0xbe08ba0d	-0.13352223
163	0xbd03b9f4	-0.03215976
164	0xbc70c0c5	-0.014694397
165	0x3d4acd39	0.04951212
166	0x3dc06450	0.09394133
167	0x3d96bd33	0.07360306
168	0x3da7904b	0.081818186
169	0x3de2846f	0.11060416
170	0xbcb05b4a	-0.021527905
171	0x3dee0f9d	0.11624072
172	0x3dc2ab70	0.09505355
173	0xbd60fd46	-0.05492904
174	0x3ceda720	0.029010355
175	0xbd29d712	-0.041464873
176	0xbcfbcd0c	-0.030737422
177	0x3d898dc2	0.06716491
178	0xbd8018f5	-0.0625476
179	0x3c0ad9ec	0.008474808
180	0x3e133718	0.14376485
181	0x3e1ded61	0.15422584
182	0x3ca980f3	0.02069137
183	0xbcc58f23	-0.024116104
184	0xbc45e633	-0.01207881
185	0x3d076898	0.033058733
186	0xbd557057	-0.05210909
187	0xbdd5f0f0	-0.10446346
188	0x3d6bae24	0.05753912
189	0xbd980d6f	-0.07424437
190	0x3dfb0802	0.12257387
191	0x3db838f1	0.08995236
192	0xbbc3cc4d	-0.0059752823
193	0x3dab4440	0.08362627
194	0x3d7d5985	0.06185295
195	0xbcb18cf1	-0.021673651
196	0x3dcf6003	0.10125735
197	0x3d1dc7b6	0.038520537
198	0xbdb2b88a	-0.08726604
199	0x3d2ae5d3	0.041723084
200	0xbdb088dd	-0.086198546
201	0x3d868dd7	0.065700226
202	0xbc76b9bb	-0.01505893
203	0xbddd8c88	-0.1081782
204	0x3da6d1b1	0.08145464
205	0x3db2111b	0.08694669
206	0x3b117bfd	0.0022199147
207	0xbdd63dbb	-0.10460993
208	0xbe3716a1	-0.17879726
209	0xbdb41aa0	-0.08794141
210	0x3bfa61ff	0.0076410766
211	0x3d9b2c53	0.075768135
212	0x3bdd2bb6	0.0067495955
213	0x3e17073b	0.14748852
214	0x3d9b8415	0.07593552
215	0x3bc381a6	0.005966383
216	0xbd542877	-0.051796403
217	0xbd82b661	-0.06382442
218	0x3d89a124	0.06720188
219	0xbcbb7ebb	-0.022887578
220	0xbc19fcb7	-0.009398631
221	0x3dc877f2	0.09788503
222	0x3cebc27b	0.028779259
223	0x3d04208e	0.03225761
224	0xbd8749e1	-0.06605888
225	0xbc6c6327	-0.014427937
226	0xbe1b6e16	-0.15178713
227	0xbe031cf3	-0.12804012
228	0xbc92995f	-0.017895399
229	0x3b023bfb	0.0019872177
230	0x3d84f41a	0.06491871
231	0x3d78a84d	0.06070738
232	0x3de058c3	0.1095443
233	0xbc35f2c5	-0.011105244
234	0x3dcac35b	0.09900542
235	0xbca7d10f	-0.02048543
236	0x3e084088	0.13305867
237	0x3de39c6b	0.11113819
238	0x3e469d51	0.19395949
239	0xbd2578a3	-0.04039825
240	0x3e771301	0.24128343
241	0x3d902373	0.070380114
242	0x3ddb48ef	0.1070727
243	0xbcf62050	-0.030044705
244	0xbd9588fc	-0.07301518
245	0xbd47d806	-0.04879
246	0x3d3f5363	0.046710383
247	0x3d8dbbba	0.069205716
248	0x3ca1d2a8	0.019753769
249	0xbd5e693e	-0.054299586
250	0x3dac1479	0.08402342
251	0x3cc42403	0.023942953
252	0xbd54bae0	-0.05193603
253	0x3d6524b6	0.055943213
254	0x3e10a9c6	0.14127263
255	0x3cabacaf	0.020956365

encoder.blocks.0.conv.3.bias f4 [16]
0	0x3c9c3749	0.01906933
1	0x3da8fc56	0.08251254
2	0x3dabfb78	0.08397573
3	0x3cfb4928	0.030674532
4	0xbda63d2f	-0.081171386
5	0xbd85807b	-0.06518646
6	0xbdf7461f	-0.120739214
7	0xbd154a3d	-0.036447752
8	0xbc6aa10e	-0.014320625
9	0x3ce05f8f	0.027389316
10	0x3d1e0736	0.038581096
11	0x3cf8b981	0.030361893
12	0x3df1ef50	0.11813223
13	0xbbfb0256	-0.0076601906
14	0xbd512bdd	-0.051067222
15	0x3d397068	0.045273215

encoder.blocks.0.conv.4.weight f4 [16]
0	0x3f5d2feb	0.8640124
1	0x3f717392	0.9431697
2	0x3f69ba56	0.9129995
3	0x3f804a8c	1.002275
4	0x3f6a0afe	0.9142302
5	0x3f7a782a	0.97839606
6	0x3f8158aa	1.0105183
7	0x3f76bf68	0.9638581
8	0x3f87f9ce	1.0623109
9	0x3f985c2e	1.1903131
10	0x3f70366f	0.9383306
11	0x3f5fde4a	0.8744856
12	0x3f909bdf	1.1297568
13	0x3f65a798	0.8970885
14	0x3f5a6619	0.8531204
15	0x3f708706	0.9395603

encoder.blocks.0.conv.4.bias f4 [16]
0	0xbd577fbc	-0.05261205
1	0xbe0802ae	-0.13282272
2	0xbcdb8623	-0.02679736
3	0x3cbbf16b	0.022942265
4	0xbd34ec4e	-0.04417067
5	0xbc833709	-0.016017454
6	0x3c0952f6	0.008381596
7	0xbdda1c9f	-0.1064999
8	0xbdf792f9	-0.1208858
9	0x3d82375f	0.063582174
10	0xbd805aab	-0.062672935
11	0xbe28cae3	-0.16483645
12	0xbd49984c	-0.049217507
13	0xbd304f8a	-0.043044604
14	0xbe160266	-0.14649352
15	0xbd86329b	-0.06552621

encoder.blocks.0.conv.4.running_mean f4 [16]
0	0xc0338330	-2.804882
1	0x3fa185e9	1.2618991
2	0xbf823392	-1.0171988
3	0xc0068330	-2.101757
4	0xbf063a1c	-0.5243242
5	0xbf72f206	-0.9490055
6	0xbf34446e	-0.70416915
7	0x3fce366a	1.6110356
8	0x3fdc1ba1	1.7195932
9	0xbee58fda	-0.44836313
10	0xbf60afe8	-0.8776841
11	0x3f4e937d	0.806938
12	0xbf2cb1d2	-0.6745883
13	0xbf412e9f	-0.75461763
14	0xbfbeadca	-1.4896786
15	0x3fcc59a4	1.5964856

encoder.blocks.0.conv.4.running_var f4 [16]
0	0x40abb346	5.365634
1	0x402861ee	2.6309772
2	0x405f71d1	3.4913218
3	0x40e3b567	7.115894
4	0x3fdf8281	1.7461702
5	0x3ff3a6bd	1.903526
6	0x3fcd19b5	1.602347
7	0x4042ae28	3.0418797
8	0x405441f7	3.3165262
9	0x3f9b395a	1.2126877
10	0x404ea434	3.2287722
11	0x402d4c75	2.7077916
12	0x3f9347ff	1.1506346
13	0x404315d0	3.0482063
14	0x40913f31	4.538964
15	0x3febf8b7	1.8435277

encoder.blocks.0.skip.weight f4 [16, 1, 1, 1]
0	0xbf1c73f8	-0.61114454
1	0x3f1fe07c	0.6245191
2	0xbf17cd14	-0.592973
3	0xbf24c3bc	-0.64361167
4	0x3f3233c8	0.6961026
5	0x3e9ce84c	0.30645978
6	0xbefff134	-0.4998871
7	0x3dd38ea0	0.10329938
8	0xbd736800	-0.059425354
9	0x3f5b5efa	0.856918
10	0xbf30ad22	-0.6901418
11	0xbed1f22c	-0.41005075
12	0xbe0eed18	-0.13957632
13	0x3f275354	0.65361524
14	0xbf662272	-0.8989631
15	0xbf6df772	-0.92955697

encoder.blocks.0.skip.bias f4 [16]
0	0xbd8e7e40	-0.06957674
1	0x3dab63b0	0.08368623
2	0xbf36f132	-0.71461785
3	0x3df49af0	0.119436145
4	0x3dc48b50	0.09596884
5	0xbf5d05e2	-0.863371
6	0xbf52034e	-0.8203629
7	0x3f21c49e	0.6319064
8	0x3f02c970	0.5108862
9	0xbe8a03d4	-0.26956046
10	0xbd6d5fa0	-0.057952523
11	0xbf498b1c	-0.7872789
12	0x3ea14a4c	0.31501997
13	0xbf1590aa	-0.58423865
14	0xbe5a2db0	-0.21306491
15	0xbf277d00	-0.6542511

encoder.blocks.1.conv.0.weight f4 [32, 16, 3, 3]
0	0x3d553509	0.05205253
1	0xbd888069	-0.06665117
2	0xbdbf1618	-0.09330386
3	0xbc08dd9d	-0.008353618
4	0xbdb13121	-0.08651949
5	0xbd1a4b66	-0.03766956
6	0xbd662326	-0.056185864
7	0xbe72a5ed	-0.23696108
8	0xbdbb6cd6	-0.09151618
9	0xbd7afb97	-0.06127509
10	0xbd93a9b6	-0.07210104
11	0xbda59558	-0.08085126
12	0xbd68fee5	-0.05688371
13	0xbd388590	-0.04504925
14	0xbd8a1a01	-0.06743241
15	0x3c4d9de8	0.012549855
16	0x3c7eae28	0.015544452
17	0x3d740a3b	0.05958007
18	0x3db6328a	0.08896358
19	0x3db1c87b	0.08680817
20	0x3d870a99	0.06593818
21	0x3e252ea9	0.1613108
22	0x3d238794	0.03992422
23	0xbd90b1dc	-0.07065174
24	0x3e5ab680	0.2135868
25	0x3c160961	0.00915751
26	0x3d8b0486	0.06787972
27	0x3ce4bfa6	0.027923416
28	0xbe05ecf1	-0.13078667
29	0x3dd3f83c	0.10350081
30	0x3d5fdefb	0.05465601
31	0xbe2a6508	-0.16640103
32	0xbcf4b06c	-0.02986928
33	0xbdf8795c	-0.121325225
34	0xbe1e4ad1	-0.15458228
35	0xbd9d8559	-0.0769145
36	0xbd6532c0	-0.055956602
37	0x3d525638	0.051351756
38	0x3da9e5d0	0.082957864
39	0xbd31ad65	-0.043378253
40	0x3bdaadb5	0.0066735395
41	0x3c16ce98	0.009204529
42	0x3bd1c064	0.0064011086
43	0x3cea54c2	0.028604869
44	0x3dc10858	0.094254196
45	0x3d0a9bf7	0.033840146
46	0x3d3cbdc7	0.046079423
47	0x3dbecc6e	0.093163356
48	0x3df9086c	0.121598095
49	0xbc87cebb	-0.016578069
50	0x3e03bbf5	0.12864669
51	0x3cef2fa9	0.02919753
52	0x3dd2e9bd	0.10298488
53	0x3e190121	0.14941837
54	0x3db5f526	0.08884649
55	0x3df4f5a7	0.11960917
56	0xbd91b326	-0.07114248
57	0x3e2b8ce4	0.16752964
58	0x3d7ee74c	0.0622323
59	0xbc63650a	-0.01387907
60	0x3e85638a	0.26052505
61	0x3da1ebc6	0.07906298
62	0x3d7fdc4f	0.062465962
63	0xbd465b2b	-0.04842679
64	0xbbb160cb	-0.00541315
65	0xbcaaf213	-0.020867383
66	0xbdaa7864	-0.08323744
67	0x3c812980	0.015766859
68	0x3d8db846	0.06919913
69	0xbd6fdcb5	-0.058560092
70	0x3c79255c	0.015206661
71	0xbd80737a	-0.062720254
72	0xbe067875	-0.13131888
73	0xbe0b147e	-0.13582036
74	0xbe06e98b	-0.13175027
75	0xbe164f85	-0.14678772
76	0xbdf6e851	-0.120560296
77	0xbe261472	-0.16218737
78	0xbdca2d67	-0.09871941
79	0xbdd4b27e	-0.10385607
80	0xbd8fec1d	-0.07027457
81	0x3d1446af	0.03620022
82	0x3e2b04f9	0.16701116
83	0x3e1fba53	0.15598421
84	0x3d5b1961	0.053491
85	0x3e64c0df	0.223392
86	0x3e207f7c	0.15673631
87	0x3da53d31	0.08068312
88	0x3d8b6f69	0.06808359
89	0xbd5e6132	-0.05429191
90	0x3dfb1a9a	0.12260933
91	0x3b22cbb2	0.002484065
92	0x3e4e7053	0.20160036
93	0x3e3b1d89	0.18272986
94	0x3da2da4a	0.079517916
95	0x3de851c5	0.11343721
96	0x3e045fe3	0.12927203
97	0x3e082307	0.13294612
98	0x3d749de3	0.059720885
99	0x3dafedc7	0.08590274
100	0xbdc6a6bb	-0.0969977
101	0xbd9bb4cd	-0.076028444
102	0xbd114cd8	-0.035473675
103	0x3bd9e74a	0.0066498863
104	0xbc030eb3	-0.00799911
105	0xbd97f8e2	-0.074205175
106	0x3d41f118	0.047349066
107	0xbc3a79ee	-0.011381609
108	0x3df3928d	0.11893187
109	0x3cc93f8b	0.024566432
110	0x3d91fa3d	0.07127807
111	0x3ded78e8	0.11595327
112	0x3e27383a	0.16330042
113	0xbce3d47e	-0.027811285
114	0x3e565c50	0.20933652
115	0xbb63bbc6	-0.0034749373
116	0x3d5cbcfa	0.05389116
117	0x3de2e8bc	0.11079547
118	0x3dd248ac	0.10267767
119	0x3da0d822	0.07853724
120	0x3d0e5a90	0.034754336
121	0xbc2f4b5e	-0.010699121
122	0x3df23933	0.11827316
123	0x3d86d209	0.0658303
124	0x3c81fea0	0.015868485
125	0x3d9f8597	0.07789152
126	0xbe32cd4c	-0.17461127
127	0x3c8a4adf	0.016881404
128	0xbd11845f	-0.03552663
129	0xbdec985b	-0.11552497
130	0xbcceddd8	-0.025252268
131	0xbcaded10	-0.021231204
132	0xbe4b9651	-0.1988156
133	0xbd6aeaaa	-0.0573527
134	0xbe027057	-0.12738167
135	0xbd2735f5	-0.04082294
136	0xbcc11755	-0.023570696
137	0x3d0d4b4e	0.034495644
138	0x3d5e1e6c	0.05422823
139	0x3d386db8	0.04502651
140	0xbb9c3a90	-0.0047677234
141	0x3dda1795	0.10649029
142	0xbd1a2610	-0.037633955
143	0x3c58b8a5	0.013227616
144	0x3d6f2e48	0.058393747
145	0xbd528278	-0.051393956
146	0xbd784cbb	-0.06062005
147	0xbdcf7da0	-0.10131383
148	0xbe2eda65	-0.17075498
149	0xbcff7af5	-0.03118656
150	0xbe928a3d	-0.28621092
151	0xbe57ffdf	-0.21093701
152	0xbbacaa0b	-0.005269294
153	0x3da52dbd	0.080653645
154	0xbd8fef14	-0.070280224
155	0xbd000106	-0.031250976
156	0x3dc88c90	0.09792435
157	0x3db8dd45	0.09026579
158	0x3b9aab3d	0.00472012
159	0xbc9f04d4	-0.019411482
160	0x3afe0b47	0.0019382023
161	0x3d9ac6f9	0.07557482
162	0x3e1b351e	0.15156981
163	0xbd901885	-0.07035927
164	0xbc1cc95d	-0.009569493
165	0x3e234825	0.1594549
166	0xbd388a8c	-0.045054004
167	0x3c5f31ef	0.013622745
168	0x3db8b246	0.09018378
169	0xbe0e5c9e	-0.13902518
170	0x3c11f6a4	0.008908901
171	0xbe2687c6	-0.16262731
172	0xbd2ef92d	-0.0427181
173	0xbc92bc3f	-0.017912028
174	0xbd829f9b	-0.063780986
175	0xbdb1c27e	-0.086796746
176	0xbc92f98b	-0.017941257
177	0xbe15a8ca	-0.14615169
178	0xbe50ac5f	-0.20378254
179	0xbdcbbbb7	-0.09947913
180	0x3cd03021	0.025413575
181	0x3dbbd3f5	0.09171287
182	0xbd1c5aa3	-0.038172375
183	0x3d994c82	0.07485296
184	0x3cd1c7bd	0.025607938
185	0x3c78749d	0.0151645215
186	0x3c001bf7	0.007819167
187	0xbd6c3255	-0.057665188
188	0xbdb59fab	-0.08868345
189	0x3d8f7e75	0.07006542
190	0x3daced12	0.08443655
191	0x3cb7663d	0.022387618
192	0x3e324837	0.1741036
193	0x3e2ba8fa	0.16763678
194	0x3dc09d89	0.094050474
195	0xbd6c5feb	-0.057708662
196	0x3d1ed68c	0.038778827
197	0x3d93ebf4	0.07222739
198	0x3e7df09e	0.2479882
199	0x3dc4d572	0.09611024
200	0xbcce0a5d	-0.025151426
201	0x3e6e0a10	0.23246026
202	0x3d8540ba	0.06506486
203	0x3dfad153	0.12246957
204	0xbc396b6d	-0.011317116
205	0x3d273163	0.040818583
206	0x3e0a058b	0.13478677
207	0xbb72b78a	-0.0037035667
208	0xbd716062	-0.05892981
209	0xb9fc645c	-0.0004813996
210	0x3d2f9b31	0.04287261
211	0x3d5ca54a	0.05386857
212	0xbbc2785d	-0.0059347586
213	0xbc800397	-0.015626712
214	0xbc5f7a15	-0.0136399465
215	0x3de89b94	0.11357799
216	0xbceb8425	-0.028749535
217	0xbdcf970a	-0.1013623
218	0xbdea3dc8	-0.11437565
219	0xbd0b8175	-0.034059007
220	0xbd838284	-0.06421378
221	0xbdab4d64	-0.083643705
222	0xbd1a58ad	-0.037682224
223	0xbbea14fc	-0.007143615
224	0xbddf5d17	-0.10906427
225	0x3e84f4f0	0.25968122
226	0x3e6ece33	0.23320846
227	0xbce171cd	-0.027520085
228	0x3d9a94a5	0.07547883
229	0x3e292ca4	0.16520935
230	0xbd16310b	-0.036667865
231	0x3cbd5986	0.023113977
232	0xbd948530	-0.07251966
233	0x3dfd35c7	0.12363773
234	0x3c8ced94	0.01720313
235	0x3e0a2730	0.13491511
236	0xbc218557	-0.009858451
237	0x3de65f4c	0.11248645
238	0x3ddf80bb	0.10913225
239	0x3b4b6581	0.0031035843
240	0x3dde89f4	0.10866156
241	0x3da7c6c6	0.0819221
242	0x3d4dab9e	0.050212495
243	0x3da84c8a	0.08217724
244	0x3cb303ca	0.021852393
245	0xbd40e7ef	-0.04709619
246	0xbd85f806	-0.06541447
247	0x3d97b6dd	0.07407925
248	0x3d9ec8c8	0.0775314
249	0x3c886f28	0.016654566
250	0xbca123c3	-0.019670373
251	0xbb0dca34	-0.0021635415
252	0x3de445d4	0.11146131
253	0x3dcaab1f	0.0989592
254	0x3c98242b	0.018571934
255	0x3e094124	0.13403755

encoder.blocks.1.conv.0.bias f4 [32]
0	0xbe03552c	-0.12825459
1	0xbdaae37c	-0.083441705
2	0x3d1a3d81	0.03765631
3	0xbaeef587	-0.0018231132
4	0xbd98bb19	-0.07457561
5	0xbd45a52d	-0.048253227
6	0xbd55da5b	-0.052210193
7	0x3d52cfbb	0.05146764
8	0xbdb0c46f	-0.08631217
9	0xbd17f4ed	-0.037098814
10	0xbc3afd35	-0.011412908
11	0x3d00973c	0.03139423
12	0xbaa40f76	-0.0012516815
13	0x3dc025b0	0.09382188
14	0x3b9c8290	0.0047763065
15	0xbd391ca7	-0.04519334
16	0x3d46cd7c	0.04853581
17	0x3dc84610	0.09778988
18	0x3e18ec81	0.14933969
19	0xbdaecdd4	-0.08535352
20	0xbd7a67d9	-0.061134193
21	0x3d3de1e4	0.046358004
22	0x3db78547	0.089609675
23	0x3e30c764	0.17263561
24	0xbe4c8051	-0.19970824
25	0xba046421	-0.0005050321
26	0xbcb6021c	-0.022217803
27	0x3d796ef9	0.060896847
28	0x3cbb7d97	0.022887034
29	0x3cab5017	0.020912213
30	0xbd2b0eec	-0.041762277
31	0xbca3695d	-0.019947702

encoder.blocks.1.conv.1.weight f4 [32]
0	0x3f789560	0.9710293
1	0x3f73b299	0.95194393
2	0x3f8cc2a8	1.0996904
3	0x3f679018	0.90454245
4	0x3f7f8243	0.9980814
5	0x3f7f26c3	0.9966852
6	0x3f78b773	0.9715492
7	0x3f65620d	0.8960274
8	0x3f8a3f79	1.080062
9	0x3f5af127	0.8552422
10	0x3f8669e8	1.050107
11	0x3f895618	1.0729399
12	0x3f881b26	1.0633285
13	0x3f92572c	1.1432853
14	0x3f8db30d	1.1070267
15	0x3f8db56f	1.1070994
16	0x3f761b0e	0.9613503
17	0x3f900599	1.1251708
18	0x3f77c2d6	0.9678167
19	0x3f826a7d	1.0188748
20	0x3f596710	0.84922886
21	0x3f60248d	0.8755577
22	0x3f720d54	0.9455159
23	0x3f85e70d	1.0461136
24	0x3f8900db	1.0703386
25	0x3f7aae9e	0.97922695
26	0x3f63c5a9	0.8897348
27	0x3f769ad5	0.96330005
28	0x3f832b14	1.0247521
29	0x3f808847	1.0041589
30	0x3f6c99ca	0.92422163
31	0x3f71aedc	0.9440744

encoder.blocks.1.conv.1.bias f4 [32]
0	0xbcdfc8d4	-0.027317442
1	0x3d705936	0.05867883
2	0x3de441c3	0.111453556
3	0x3dadcc39	0.08486218
4	0xbe0dc030	-0.13842845
5	0x3d874192	0.066043034
6	0x3d7bc91e	0.061471097
7	0xbdbaa6d1	-0.09113849
8	0x3e214d96	0.15752253
9	0x3c4f7922	0.012663158
10	0xbdf1f24e	-0.11813794
11	0x3d7190e1	0.058976058
12	0x3db1b3b4	0.08676854
13	0x3e25c753	0.16189317
14	0x3d0eaced	0.034832884
15	0xbe17fe4b	-0.14843099
16	0x3d5f3284	0.054491535
17	0x3d9e4e1e	0.077297434
18	0xbd9ba2ea	-0.07599433
19	0xbd3ae1e2	-0.045625575
20	0xbde7d62d	-0.11320148
21	0xbc1c26cf	-0.009530737
22	0x3cda02f2	0.026612733
23	0x3d1b4827	0.037910607
24	0xbe0feb09	-0.14054503
25	0x3e489217	0.19586979
26	0x3c424f54	0.011859734
27	0x3dd2093a	0.10255666
28	0xbcc94b9a	-0.024572182
29	0xbda4f741	-0.080549724
30	0x3cfd0394	0.030885495
31	0x3d6a531e	0.057208173

encoder.blocks.1.conv.1.running_mean f4 [32]
0	0x3f821bf3	1.016478
1	0x3f860b39	1.0472175
2	0xbfcefeb6	-1.6171482
3	0x400530af	2.0810964
4	0xbf8eb691	-1.1149465
5	0x3fdd4c35	1.7288882
6	0x3fcf6f99	1.6205932
7	0xc0251c27	-2.5798433
8	0xbfe66474	-1.7999406
9	0x3f9f1ec6	1.2431266
10	0xbf930046	-1.1484458
11	0x401395a2	2.3060079
12	0xbff26b0d	-1.8938919
13	0xbdb1477f	-0.08656215
14	0xbf7cedcc	-0.9880035
15	0xbefd4739	-0.494684
16	0x400d6394	2.2092028
17	0x3e43c849	0.19119371
18	0xc0188607	-2.3831804
19	0xc00e265f	-2.221092
20	0xc04c2d7d	-3.1902764
21	0x3fe27897	1.7693051
22	0x400d038c	2.2033415
23	0xbed2634b	-0.4109138
24	0xbf10cbf5	-0.56561214
25	0xbe8fe05c	-0.2810086
26	0x3fae54b4	1.3619599
27	0x3f8ee72e	1.11643
28	0x3f160cd9	0.58613354
29	0xbdf105e1	-0.117686994
30	0x3f98248f	1.1886157
31	0x3f451c07	0.7699589

encoder.blocks.1.conv.1.running_var f4 [32]
0	0x401ca697	2.4476678
1	0x4008f62a	2.1400247
2	0x40ff0343	7.969148
3	0x40931247	4.595981
4	0x40c8f1e6	6.2795286
5	0x40491e31	3.1424677
6	0x40819659	4.049603
7	0x40cf45e6	6.4772825
8	0x410abbe2	8.67087
9	0x402dbfe3	2.7148368
10	0x4073e75f	3.8109968
11	0x40eb8777	7.360286
12	0x40f81003	7.7519546
13	0x3fdbf8f5	1.7185351
14	0x3f96f255	1.1792704
15	0x3fa8df1d	1.3193089
16	0x4100d8b2	8.052904
17	0x4018b587	2.3860795
18	0x405444c1	3.3166964
19	0x40eb07f5	7.3447213
20	0x40463d67	3.0974977
21	0x4029c65a	2.6527314
22	0x4089f1f7	4.3107867
23	0x40284946	2.6294723
24	0x3ff16568	1.8859072
25	0x40bceda1	5.9040074
26	0x4048c058	3.1367397
27	0x403de319	2.966986
28	0x405d1e5c	3.454978
29	0x40393e6f	2.8944356
30	0x4048aa31	3.1353877
31	0x402f5a00	2.7398682

encoder.blocks.1.conv.3.weight f4 [32, 32, 3, 3]
0	0x3e074321	0.13209201
1	0x3d63aa56	0.055582367
2	0xbb6c2466	-0.0036032437
3	0x3d82679f	0.063674204
4	0x3dd22310	0.10260594
5	0xbd9b3e69	-0.07580263
6	0x3d6f1967	0.058373835
7	0xbc0a5573	-0.008443224
8	0x3c351579	0.011052483
9	0x3d02aa1e	0.031900518
10	0x3c2f8b0d	0.010714305
11	0x3c64d8e3	0.013967725
12	0x3dcb8529	0.09937508
13	0x3ddd9bde	0.10820745
14	0x3d5ebed0	0.05438119
15	0x3d81eedb	0.06344386
16	0x3d9cb717	0.07652109
17	0x3d025bc0	0.03182578
18	0xbdbc8570	-0.09205139
19	0xbe057154	-0.13031512
20	0xbd035021	-0.03205884
21	0xbe3ef8f3	-0.18649654
22	0xbda11e85	-0.07867149
23	0xbe4992c0	-0.19684887
24	0xbe65a975	-0.22427924
25	0xbe1f5063	-0.15558009
26	0xbea25c95	-0.3171126
27	0x3db794e1	0.08963943
28	0x3d73949e	0.059467904
29	0xbd14f22a	-0.03636376
30	0x3df640fe	0.12024115
31	0x3d8a365c	0.067486495
32	0x3d3f2809	0.04666904
33	0x3e00ddf4	0.12584668
34	0x3dc93d46	0.0982614
35	0x3d658da6	0.05604329
36	0x3e1db7a7	0.15402089
37	0x3d896814	0.067093045
38	0xbd841343	-0.064489864
39	0x3d137d80	0.036008358
40	0x3e01e784	0.12685972
41	0xbc8cd02b	-0.017189106
42	0xbc26ce2a	-0.010180989
43	0x3d7f3e74	0.06231542
44	0xbc45c173	-0.012070048
45	0x3d15248e	0.036411814
46	0x3d9f3164	0.077730924
47	0x3c2bacc1	0.010478199
48	0x3d418215	0.047243197
49	0x3dc056e1	0.09391571
50	0xbbbae3d7	-0.00570343
51	0x3d0b514b	0.034013074
52	0xbb500a0c	-0.003174427
53	0x3d955303	0.07291224
54	0xbb72873b	-0.0037006873
55	0x3d7e2775	0.062049348
56	0xbd0c59c8	-0.03426531
57	0x3dc01664	0.09379271
58	0x3d2ce325	0.04220881
59	0x3d421669	0.047384653
60	0x3d279e60	0.040922523
61	0x3ddc5769	0.1075886
62	0x3d430b35	0.04761811
63	0xbe091ca4	-0.13389832
64	0x3d983e51	0.07433761
65	0x3d63d53c	0.055623278
66	0xbc9c6e12	-0.019095454
67	0xbd382e2c	-0.044965908
68	0x3d5e39c5	0.054254312
69	0xbdbd2918	-0.09236354
70	0xbdc02609	-0.09382255
71	0xbdaf7f1b	-0.08569165
72	0xbd56bb36	-0.052424632
73	0x3c046920	0.008081704
74	0x3cf4a99c	0.029866032
75	0xbe158ce0	-0.14604521
76	0xbe1abe6c	-0.15111703
77	0xbdaae4ff	-0.08344459
78	0xbdfa49e6	-0.12221126
79	0xbe0958e0	-0.1341281
80	0xbe3f511a	-0.18683282
81	0xbb4c4636	-0.0031169779
82	0x3e298d4e	0.1655781
83	0x3d0feb67	0.035136607
84	0x3e054451	0.13014342
85	0x3e0f539c	0.13996738
86	0x3c920493	0.017824447
87	0x3c427738	0.011869244
88	0xbd5f0c64	-0.054455176
89	0xbd140158	-0.036134094
90	0x3e0e61c9	0.1390449
91	0x3d504a17	0.050851908
92	0xbc4e65b6	-0.012597492
93	0x3de9d532	0.11417617
94	0xbc018dad	-0.007907313
95	0xbd90cfb2	-0.07070865
96	0x3c51295e	0.01276621
97	0xbd050642	-0.03247667
98	0xbd43fbeb	-0.04784767
99	0x3cc3ee18	0.023917243
100	0x3d4a15a1	0.049337033
101	0xbe03ff1f	-0.1289029
102	0xbd29673e	-0.041358225
103	0x3dabe7f4	0.08393851
104	0xbd83fd4a	-0.064447954
105	0x3cd8a46b	0.026445588
106	0xbd0001c5	-0.031251688
107	0xbd5679b5	-0.052362163
108	0xbe178a52	-0.14798859
109	0xbd2fc174	-0.0429091
110	0x3d595bc8	0.053066045
111	0xbe53ac04	-0.20671088
112	0xbdccba89	-0.09996516
113	0xbdf6c69b	-0.120496
114	0xbe8138e3	-0.25238714
115	0xbe6a77f8	-0.22897327
116	0xbe30c4a2	-0.1726251
117	0x3d16852a	0.03674809
118	0xbda5579a	-0.08073349
119	0xbc93f291	-0.01806
120	0x3c4744bd	0.012162385
121	0xbc8608ad	-0.016361559
122	0xbc337bff	-0.010954856
123	0xbc13ac14	-0.009013195
124	0x3d032c53	0.032024693
125	0xbc8ec0bf	-0.017425893
126	0x3e0f9851	0.14022948
127	0x3e2f5109	0.17120756
128	0xbcb726cf	-0.022357373
129	0x3d955247	0.07291084
130	0x3d07f9a0	0.033197045
131	0xbdba1134	-0.090853125
132	0x3d433eee	0.047667436
133	0xbe09eee5	-0.13470037
134	0xbdf7e79c	-0.12104723
135	0x3de1a3c4	0.11017564
136	0x3e05889f	0.13040398
137	0x3da1837d	0.078864075
138	0x3dd00825	0.101578034
139	0x3d9da11a	0.07696743
140	0x3cc41d8d	0.023939872
141	0x3db55905	0.0885487
142	0x3c81a236	0.015824419
143	0x3c2ed1ce	0.0106701385
144	0xbcbb1931	-0.02283916
145	0xbd4cfe75	-0.050047357
146	0xbc834df7	-0.016028387
147	0xbd063302	-0.03276349
148	0x3da05e79	0.07830519
149	0xbcacb765	-0.021083543
150	0x3bcf7559	0.0063311276
151	0x3cf53969	0.029934602
152	0x3d209dd0	0.039213
153	0x3e019813	0.12655668
154	0x3e1db98e	0.15402815
155	0xbd74132b	-0.059588592
156	0x3d90be68	0.07067567
157	0x3c37d79a	0.011220837
158	0x3d1846ba	0.037176825
159	0x3cc06188	0.023484007
160	0x3d20b814	0.03923805
161	0xbc2bfbf0	-0.010497078
162	0xbdc2911c	-0.09500334
163	0xbda97e63	-0.082760595
164	0xbdd0b135	-0.101900496
165	0xbb986de5	-0.0046517723
166	0xbd78bc60	-0.060726523
167	0xbb26bec3	-0.0025443293
168	0xbc8b71b7	-0.017021997
169	0x3d9ee8bb	0.077592336
170	0x3c14a7b8	0.00907319
171	0xbe0c679b	-0.13711397
172	0xbcec466a	-0.02884217
173	0xbd6cc053	-0.057800602
174	0xbdbc873a	-0.0920548
175	0xbd98b6c4	-0.07456735
176	0xbd70cee8	-0.05879107
177	0xbe8c446e	-0.27395958
178	0xbe55aed4	-0.20867473
179	0xbe33ac1a	-0.1754612
180	0xbda6549b	-0.08121606
181	0xbdeef348	-0.11667496
182	0xbce8b9d9	-0.028408932
183	0x3d6a22a0	0.057161927
184	0xbd572669	-0.052526865
185	0xbd590e90	-0.052992404
186	0xbdcc5e9c	-0.09978983
187	0xbd7cff61	-0.061766986
188	0xbdd913c3	-0.105994724
189	0x3db97b0c	0.090566725
190	0xbcff68d6	-0.03117792
191	0x3c131525	0.008977209
192	0x3dea6242	0.114445224
193	0x3dd55441	0.10416461
194	0x3d38da19	0.04512987
195	0x3d6575a7	0.056020405
196	0x3d504f6f	0.050857004
197	0xbcea9109	-0.028633611
198	0x3d8433cb	0.06455191
199	0x3d710858	0.058845848
200	0xbd08f3e8	-0.033435732
201	0x3e2fe958	0.17178857
202	0x3db25478	0.087075174
203	0xbd55b3ab	-0.052173298
204	0xbc3f139e	-0.011662392
205	0xbcad65fa	-0.02116679
206	0x3d90060a	0.07032402
207	0x3e0f9a45	0.14023693
208	0x3e0439f4	0.12912732
209	0xbc61ae8e	-0.013774527
210	0x3d417ed4	0.047240093
211	0x3d9e0e1f	0.07717537
212	0x3d9695c8	0.07352787
213	0x3d486601	0.048925404
214	0xbdb962a6	-0.09052019
215	0x3d508946	0.050912164
216	0x3da7e683	0.081982635
217	0x3db2604b	0.08709773
218	0x3d95c4f0	0.073129535
219	0x3c49aadc	0.012308802
220	0xbbd78032	-0.0065765614
221	0xbcd29c0c	-0.025709175
222	0x3daaac91	0.08333696
223	0xbc0173f6	-0.007901182
224	0x3d85ea5b	0.065388404
225	0x3c994f56	0.018714588
226	0x3d0c5e80	0.03426981
227	0x3dace9f3	0.0844306
228	0xbc8059aa	-0.015667755
229	0x3dc2f291	0.09518922
230	0x3d8e8ab2	0.06960048
231	0xbe01f25c	-0.12690109
232	0xbde8e00a	-0.11370857
233	0xbd9417ab	-0.07231077
234	0x3d580928	0.052743107
235	0xbc60aa10	-0.013712421
236	0xbac29bc2	-0.0014847445
237	0x3e2e00a2	0.16992429
238	0x3c6745ce	0.014115764
239	0x3d44029f	0.047854062
240	0x3d894a31	0.06703604
241	0x3dc52bd5	0.09627501
242	0x3d93e548	0.07221466
243	0x3e2447e8	0.16043055
244	0x3d8e1657	0.06937855
245	0x3cca949d	0.024729067
246	0x3def0ebf	0.116727345
247	0x3e3b4433	0.18287735
248	0x3d908a1c	0.07057592
249	0x3e05b75c	0.13058227
250	0x3dc4153c	0.09574363
251	0x3e3ce903	0.18448262
252	0x3dc4a6de	0.0960214
253	0x3e151622	0.14559224
254	0x3d9f84ec	0.07789025
255	0x3e200dd4	0.15630275

encoder.blocks.1.conv.3.bias f4 [32]
0	0x3ca6d13b	0.02036344
1	0xbda212e8	-0.07913762
2	0xbd2b4106	-0.041810058
3	0x3d5f33db	0.054492813
4	0xbbf9258f	-0.0076033543
5	0x3d115bc3	0.0354879
6	0xbcd33c8d	-0.025785709
7	0xbc840c65	-0.016119191
8	0xbd28c0cf	-0.0411995
9	0xbb92e1a9	-0.004482467
10	0xbd2de3aa	-0.042453445
11	0xbce793ec	-0.028268777
12	0x3c7505ba	0.014954979
13	0x3dbe252c	0.09284434
14	0xbdd8e3ee	-0.10590349
15	0xbd014d46	-0.031567834
16	0x3ca7fe2c	0.02050694
17	0x3d6e6d14	0.058209494
18	0x3cb7f6e5	0.022456596
19	0xbb77bfc5	-0.0037803513
20	0x3c837f92	0.016052041
21	0xbc8ef210	-0.017449409
22	0xbd97e626	-0.07416944
23	0xbcd6e30c	-0.026231311
24	0xbd682969	-0.056680117
25	0xbc0e7650	-0.0086952
26	0x3b88ae81	0.004171193
27	0xbd60a689	-0.05484632
28	0xbd393283	-0.045214187
29	0x3c9a8200	0.018860817
30	0x3da6e79a	0.08149643
31	0xbca15c64	-0.019697376

encoder.blocks.1.conv.4.weight f4 [32]
0	0x3f79e75d	0.9761866
1	0x3f79cc3a	0.9757725
2	0x3f800dbb	1.000419
3	0x3f8d3c9d	1.1034123
4	0x3f8835ed	1.0641457
5	0x3f844f3b	1.0336679
6	0x3f7850b4	0.96998143
7	0x3f70986c	0.9398258
8	0x3f853590	1.0406971
9	0x3f860014	1.0468774
10	0x3f824087	1.0175942
11	0x3f79599a	0.97402346
12	0x3f7f2c08	0.9967656
13	0x3f875b88	1.0574808
14	0x3f8b5a27	1.0886887
15	0x3f8ed12b	1.1157583
16	0x3f7f3ca5	0.9970191
17	0x3f893734	1.0719972
18	0x3f6daa6c	0.9283817
19	0x3f8cb840	1.0993729
20	0x3f8bb8a8	1.0915728
21	0x3f83f4d1	1.0309087
22	0x3f82a535	1.0206667
23	0x3f7430be	0.95386875
24	0x3f7225b3	0.94588774
25	0x3f719e79	0.94382435
26	0x3f6fc40e	0.9365853
27	0x3f8310af	1.0239466
28	0x3f8496e5	1.0358549
29	0x3f890a45	1.0706259
30	0x3f85636c	1.0420966
31	0x3f8232e9	1.0171787

encoder.blocks.1.conv.4.bias f4 [32]
0	0xbcaf4ca4	-0.02139885
1	0x3d8f9173	0.07010164
2	0x3dbcb139	0.0921349
3	0x3d9ddce5	0.07708148
4	0x3c81255e	0.015764888
5	0xbd1c5b5a	-0.038173057
6	0xbda6f9f7	-0.08153146
7	0xbbd97ca7	-0.006637174
8	0x3aa63ce1	0.0012682938
9	0xbd15b241	-0.03654695
10	0x3b3b336f	0.0028564592
11	0xbdd16929	-0.10225136
12	0xbcff2e84	-0.03115011
13	0xbc2e3c9b	-0.010634567
14	0x3de46c0a	0.11153419
15	0x3df34aab	0.11879476
16	0xbe248d97	-0.16069637
17	0xbd9ad342	-0.075598255
18	0xbe380439	-0.17970361
19	0x3d2e3519	0.042531107
20	0x3d68ef2f	0.05686873
21	0x3d01f905	0.031731624
22	0x3ddcc90c	0.10780534
23	0xbd91159f	-0.07084202
24	0xbbe23be5	-0.0069041126
25	0xbd5dd748	-0.054160386
26	0xbd2d0dee	-0.042249613
27	0x3d4eeb39	0.050517295
28	0x3d27a6c7	0.040930536
29	0x3d107cc9	0.035275254
30	0xbe32a9a5	-0.17447527
31	0x3d49b78d	0.049247313

encoder.blocks.1.conv.4.running_mean f4 [32]
0	0x3f5ed3ea	0.87042105
1	0xbedf86a9	-0.43657425
2	0xbe14a1f2	-0.14514902
3	0xc0a1727b	-5.0452247
4	0xc088217a	-4.2540865
5	0x3edebe97	0.43504784
6	0x3e5adf71	0.21374299
7	0xbf89ad72	-1.0756056
8	0xbdc6d6b6	-0.097089216
9	0xbf1d5c48	-0.61468935
10	0xbf0d8994	-0.5528805
11	0xbd10e4be	-0.035374396
12	0xc005d77e	-2.0912776
13	0x3f7e37dc	0.99303985
14	0xc05d0598	-3.4534664
15	0xbf725fa8	-0.9467721
16	0xbf0d226a	-0.55130637
17	0x3ec7d850	0.3903222
18	0x3d7447d9	0.05963883
19	0xc09698ee	-4.706168
20	0x3f86611b	1.0498384
21	0x3d81eb07	0.06343656
22	0xc0725e98	-3.7870235
23	0xc082e818	-4.0908318
24	0x3f32ff40	0.6992073
25	0x3f3e410c	0.74318004
26	0x3e08dd4c	0.13365668
27	0xbd97135a	-0.07376738
28	0xc0907ae3	-4.515001
29	0xc089b293	-4.3030486
30	0x3f7414dd	0.95344335
31	0x3ee1c372	0.44094425

encoder.blocks.1.conv.4.running_var f4 [32]
0	0x41a16c35	20.177835
1	0x411e37c5	9.888616
2	0x416c57be	14.771421
3	0x41528dfb	13.159663
4	0x41596dae	13.589277
5	0x415ef57f	13.934936
6	0x4108e0b1	8.554856
7	0x4076068e	3.84415
8	0x41468bba	12.409113
9	0x40a39458	5.1118584
10	0x4175966d	15.349225
11	0x414b1e4a	12.694895
12	0x4109af6c	8.605328
13	0x41817b5e	16.185238
14	0x41065d34	8.397755
15	0x40aac134	5.3360844
16	0x41bf019a	23.875782
17	0x40e6cfa5	7.212847
18	0x4131caf9	11.112054
19	0x40ec3ff4	7.382807
20	0x4188eb6d	17.114954
21	0x415bbd0b	13.733653
22	0x414d4e11	12.831559
23	0x4197c26f	18.969938
24	0x415e66b3	13.900073
25	0x41912d75	18.147196
26	0x4145ecd9	12.370324
27	0x413d9b4e	11.850416
28	0x41d46398	26.54863
29	0x413af2fd	11.684323
30	0x411a5f95	9.648335
31	0x417e966c	15.911724

encoder.blocks.1.skip.weight f4 [32, 16, 1, 1]
0	0xbdab35b0	-0.083598495
1	0x3e52947c	0.20564455
2	0xbdb833a8	-0.08994228
3	0xbe5b209e	-0.21399161
4	0x3c941f10	0.018081218
5	0xbe54a95c	-0.2076773
6	0xbdbb15bc	-0.09135005
7	0xbcc79440	-0.024362683
8	0x3deb7510	0.11496937
9	0x3d5a1b20	0.053248525
10	0xbd6829f0	-0.05668062
11	0x3e3890ee	0.18024036
12	0x3dd277f0	0.102767825
13	0x3ca05e30	0.019576162
14	0xbd4809f0	-0.048837602
15	0xbe069714	-0.13143569
16	0xbd72dee8	-0.05929461
17	0xbe2ca8c0	-0.16861248
18	0x3e71d0f0	0.2361486
19	0x3e377eca	0.1791946
20	0xbe7c7712	-0.24654797
21	0x3e3b77a6	0.18307361
22	0xbdfffbd0	-0.12499201
23	0x3e111f98	0.14172208
24	0x3def44d8	0.11683053
25	0xbd836780	-0.064162254
26	0x3e548514	0.2075389
27	0xbdf72988	-0.12068468
28	0xbdfd03b8	-0.12354225
29	0xbdcb1aec	-0.09917244
30	0xbe35fe6e	-0.17772838
31	0xbe0195fe	-0.12654874
32	0xbd0d6b18	-0.03452596
33	0x3e074794	0.13210899
34	0x3e2096ca	0.15682521
35	0x3e087170	0.13324523
36	0x3e7b4b4e	0.24540445
37	0xbe5cdbda	-0.21568242
38	0x3e533910	0.20627236
39	0xbe134974	-0.14383489
40	0x3de66b84	0.11250976
41	0x3cd1c0c0	0.025604606
42	0x3d90eb7c	0.07076165
43	0xbe303c42	-0.17210487
44	0xbe76298c	-0.24039286
45	0x3d91bc84	0.071160346
46	0xbd42ef18	-0.0475913
47	0x3d4235d8	0.04741463
48	0xbde28534	-0.11060563
49	0x3d81e180	0.06341839
50	0x3d827468	0.06369859
51	0x3c4b3aa0	0.012404114
52	0x3d7159c8	0.058923513
53	0xbdeae5c4	-0.114696056
54	0x3deb7448	0.11496788
55	0xbe65efb8	-0.22454727
56	0x3d2b4ec0	0.04182315
57	0x3df5073c	0.119642705
58	0x3de25ea8	0.110532105
59	0x3e5d7a7e	0.21628758
60	0x3b62ef80	0.0034627616
61	0xbdbbc870	-0.0916909
62	0x3cf5b880	0.029995203
63	0x3d9c66b4	0.076367766
64	0x3e043dac	0.12914151
65	0x3e2a22d8	0.16614854
66	0xbe44b8a4	-0.1921106
67	0xbe0dfd98	-0.1386627
68	0x3dfaaa40	0.12239504
69	0x3dbf886c	0.09352192
70	0xbda6af44	-0.08138898
71	0x3e1b7456	0.15181097
72	0xbdeea1dc	-0.11651966
73	0xbe475056	-0.1946424
74	0x3e3cd1f8	0.18439472
75	0xbceb49f0	-0.02872178
76	0xbcd8d790	-0.026469976
77	0x3cb698e0	0.022289693
78	0xbe262d96	-0.16228327
79	0x3d5e5a38	0.054285258
80	0xbcd5c9e0	-0.026097238
81	0xbcbc7080	-0.023002863
82	0xbe7341fc	-0.2375564
83	0xbd8d759c	-0.06907198
84	0x3e53a03a	0.2066659
85	0xbe32be8e	-0.17455503
86	0xbe7d8554	-0.24757892
87	0xbd1706f0	-0.03687185
88	0x3e6bbdac	0.23021573
89	0xbe352380	-0.17689323
90	0xbc787a20	-0.015165836
91	0xbe140e82	-0.1445866
92	0xba382600	-0.00070247054
93	0xbe322916	-0.17398486
94	0x3d9b2284	0.07574943
95	0xbe4f0bbe	-0.20219323
96	0xbd6c4280	-0.057680607
97	0xbc48f4c0	-0.012265384
98	0x3dcb2724	0.09919575
99	0xbe7d8a94	-0.24759895
100	0x3d27c000	0.04095459
101	0x3e67a14c	0.22620124
102	0x3e7eec2a	0.24894777
103	0x3e4d993c	0.20077986
104	0xbdd2e6a4	-0.102978975
105	0x3bc8bb40	0.0061258376
106	0x3d16a6c0	0.03678012
107	0x3da10330	0.07861936
108	0x3e4cf866	0.20016631
109	0x3e5ca78a	0.21548286
110	0x3e4614c2	0.19343856
111	0x3dac6ff0	0.08419788
112	0xbe45a778	-0.19302166
113	0xbe6c65a8	-0.23085654
114	0xbad3fb00	-0.0016172826
115	0x3d6817b0	0.056663215
116	0xbe6f4fc8	-0.23370278
117	0x3e357100	0.17718887
118	0x3c8ce710	0.017200023
119	0xbe046c2e	-0.12931892
120	0xbe7089a4	-0.23490006
121	0x3dd00088	0.10156351
122	0xbe230e20	-0.15923357
123	0xbc9b7750	-0.018977791
124	0xbdc6eb0c	-0.097128004
125	0x3b2a3180	0.0025969446
126	0x3e2df9be	0.169898
127	0xbe03a60c	-0.1285631
128	0xbe0536f2	-0.13009241
129	0x3d596c50	0.05308181
130	0xbe1f796e	-0.15573665
131	0xbde63678	-0.11240858
132	0x3d101b08	0.03518203
133	0xbdf42a44	-0.11922124
134	0x3e3b7210	0.1830523
135	0x3e2e651c	0.17030758
136	0x3ca7d470	0.02048704
137	0x3d844fa8	0.06460506
138	0xbe14b928	-0.14523757
139	0x3c971c30	0.018446058
140	0x3e05934c	0.1304447
141	0x3b565000	0.0032701492
142	0x3e73b382	0.23798946
143	0x3de24ad0	0.110494256
144	0x3d761df8	0.060087174
145	0xbbecda00	-0.007228136
146	0x3dc31f7c	0.095274895
147	0xbd8d1fdc	-0.06890842
148	0xbe29dbb6	-0.1658772
149	0xbe20d40c	-0.1570589
150	0xbe692bb2	-0.22770575
151	0xbe6d2f32	-0.23162535
152	0xbe785d88	-0.2425443
153	0xbd548ad8	-0.051890224
154	0xbe2c462e	-0.16823646
155	0xbd3d1f90	-0.04617268
156	0xbe3117a0	-0.17294168
157	0xbdc8474c	-0.09779224
158	0xbcff2470	-0.031145304
159	0xbe3d2b04	-0.1847344
160	0xbe4c4226	-0.19947109
161	0xbd967858	-0.073471725
162	0x3e5943d8	0.21217287
163	0xbe37e374	-0.1795786
164	0x3e4d855e	0.20070407
165	0x3d810f04	0.06301692
166	0xbcd0fac0	-0.025510192
167	0xbe146bfa	-0.14494315
168	0x3dd85eb0	0.10564935
169	0xbd987bdc	-0.07445499
170	0x3d6e5da8	0.058194786
171	0x3e7eebba	0.2489461
172	0xbe449a94	-0.19199592
173	0xbd009598	-0.031392664
174	0xbe33d278	-0.17560756
175	0xbe374238	-0.17896354
176	0xbdb28da0	-0.08718419
177	0xbe57ab96	-0.21061549
178	0x3e153272	0.14570025
179	0xbddd6218	-0.108097255
180	0xbe4b6e32	-0.19866255
181	0x3d976cb8	0.07393783
182	0xbdef09cc	-0.116717905
183	0x3e492b3e	0.19645402
184	0x3cabd860	0.0209772
185	0x3c67faa0	0.014158875
186	0xbe01e5a0	-0.12685251
187	0xbd614e58	-0.055006355
188	0xbd8dd590	-0.069254994
189	0xbd00fe68	-0.03149262
190	0x3dc5707c	0.09640595
191	0x3e19ff52	0.15038803
192	0x3e7854d0	0.24251103
193	0x3d68a2d8	0.056795925
194	0x3e13535c	0.14387268
195	0xbe6bc0a8	-0.23022711
196	0xbd7e8150	-0.06213504
197	0x3e1987ce	0.14993212
198	0x3e6d5ba0	0.23179483
199	0xbe46ff4c	-0.19433326
200	0xbdbeefac	-0.093230575
201	0x3da4836c	0.08032879
202	0xbdd442dc	-0.10364315
203	0xbdf77230	-0.120823264
204	0x3d3dfc00	0.046382904
205	0xbd509d38	-0.050931185
206	0xbde70938	-0.11281055
207	0x3cadf4c0	0.02123487
208	0xbbf483c0	-0.007461995
209	0x3e4f6034	0.20251542
210	0x3e2eeccc	0.17082518
211	0x3e7b2aec	0.24528092
212	0x3c8ef4b0	0.01745066
213	0x3e5fc3fa	0.21852103
214	0xbe4c455a	-0.1994833
215	0xbce8ac20	-0.028402388
216	0x3d9a28d0	0.075273156
217	0xbdccb13c	-0.09994742
218	0x3e3ed7a6	0.18636951
219	0x3e04fdb4	0.12987405
220	0xbd23d518	-0.039998144
221	0x3d92df74	0.071715266
222	0xbd895028	-0.06704742
223	0xbe2a3b22	-0.1662412
224	0xbda4eb14	-0.0805265
225	0xbd6ee530	-0.05832404
226	0x3e5872ac	0.21137494
227	0x3e5958ba	0.21225253
228	0x3e7372e0	0.2377429
229	0x3deba914	0.115068585
230	0x3d15b968	0.03655377
231	0xbe0f13b6	-0.13972363
232	0x3e6a4e60	0.2288146
233	0x3e28977a	0.16464034
234	0x3e4e0dcc	0.2012245
235	0x3e367b82	0.17820552
236	0xbcb5a8f0	-0.022175282
237	0xbc31ea80	-0.010859132
238	0x3d3327c0	0.04373908
239	0xbe18fce6	-0.14940223
240	0xbd24adc8	-0.040204793
241	0x3d8a3cfc	0.06749913
242	0xbde16160	-0.11004901
243	0xb9dcfc00	-0.00042149425
244	0xbdbea708	-0.093092024
245	0xbe21588c	-0.15756434
246	0x3e188aee	0.14896747
247	0x3e64695a	0.22305813
248	0x3e43be98	0.19115674
249	0xbd808ab0	-0.062764525
250	0xbdccb7b8	-0.09995979
251	0x3dfba6ec	0.12287697
252	0x3c99f4c0	0.018793464
253	0x3e76b094	0.24090797
254	0xbe7efb62	-0.24900582
255	0xbda3cef8	-0.079984605

encoder.blocks.1.skip.bias f4 [32]
0	0xbe2a5fd2	-0.16638115
1	0xbe7b0444	-0.24513346
2	0xbd82cae0	-0.063863516
3	0xbe2fd8a8	-0.17172492
4	0xbb924740	-0.00446406
5	0x3ddc1764	0.10746649
6	0x3ac5f800	0.0015103817
7	0x3e451524	0.19246346
8	0xbdd45fcc	-0.10369834
9	0xbe50c074	-0.20385915
10	0xbe540fd4	-0.20709163
11	0xbe645e1a	-0.22301522
12	0xbe384630	-0.17995524
13	0x3da57b50	0.080801606
14	0x3cc36760	0.023853004
15	0x3e57117e	0.21002766
16	0x3e1950d6	0.14972243
17	0x3df1bea4	0.1180394
18	0x3e77be7a	0.24193755
19	0xbc8442b0	-0.01614508
20	0xbda4b5a8	-0.08042461
21	0xbd3078c0	-0.043083906
22	0xbe6ac766	-0.22927627
23	0xbe350ab0	-0.17679858
24	0xbe480964	-0.19534832
25	0x3e5915e0	0.21199751
26	0x3d17c260	0.037050605
27	0x3daa5724	0.08317402
28	0xbddae5ac	-0.10688338
29	0xbc535620	-0.012898952
30	0xbdd5e62c	-0.104442924
31	0xbe4c6e1c	-0.19963878
