toyshapes/pinets_strong/model_11.pth (torch, 466881 bytes, 71 tensors)

encoder.blocks.0.conv.0.weight f4 [16, 1, 3, 3]
000000 1f 24 64 be 77 85 d1 3c 27 2f b5 3e 20 26 36 be
       -0.22279404 0.025576336 0.35387537 -0.17787981
000010 30 ed 9b 3d a7 6a 15 3e 41 8e 4a 3e c4 c8 8f be
       0.07613599 0.14591466 0.19780828 -0.2808286
000020 7f fc 4f 3c 35 1d b5 3e d8 16 54 be 89 c1 1a 3e
       0.012694477 0.35373846 -0.20711839 0.1511289
000030 c6 da ff bd d9 23 8d bd e5 db 25 3e fb c8 8b 3c
       -0.124928996 -0.06891603 0.16197164 0.017063608
000040 bd e5 a4 be 47 f5 02 3e bb 5c 83 3e da 11 07 3e
       -0.32206526 0.12788878 0.25656685 0.13190404
000050 4a f4 22 3e ec 1d 4f 3d 14 0e 35 3d f4 e8 d7 bd
       0.15913501 0.050565645 0.04420288 -0.10542479
000060 c2 f3 a4 3d 1e d8 eb be f1 b1 6c be 81 20 81 bc
       0.080543056 -0.46063322 -0.23114754 -0.01576257
000070 a3 6b 23 be 7a 33 56 3e 7d d0 5e 3e f7 02 82 be
       -0.15959029 0.20918074 0.2175922 -0.25392887
000080 86 90 21 bd ff 18 18 be d3 2b ae 3e f4 5a 6a be
       -0.03944447 -0.14853285 0.3401781 -0.22886258
000090 9d 19 e1 3e f0 74 35 be 4f 87 b4 3c c4 93 a0 3b
       0.43964854 -0.1772039 0.022037176 0.0049004275
0000a0 4d 5f c4 bd 75 00 b5 3e a0 09 19 3d da 36 e1 bd
       -0.0958849 0.3535191 0.037362695 -0.1099679
0000b0 d9 77 91 bd f8 d4 65 3d 38 1d 2e 3e 1d 3e 01 bd
       -0.07102937 0.056111306 0.17003334 -0.031553376
0000c0 65 08 56 3d 01 db 9d be 06 da 99 3c b8 eb 1f 3e
       0.0522541 -0.3083115 0.01878072 0.15617263
0000d0 bd f4 d8 bd 44 12 5f bd 8a 46 73 3b 73 56 76 3e
       -0.10593555 -0.05446078 0.0037120902 0.24056415
0000e0 42 b6 4f bd 62 6b 7c 3d 01 29 6f 3e 88 77 d3 3d
       -0.050710924 0.061625846 0.23355485 0.10325533
0000f0 3d 17 73 3e 59 45 bc be 0b 14 5b be cb 98 4c be
       0.23739333 -0.36771658 -0.21394365 -0.19980161
000100 5f 7a 1d 3e 98 c6 56 3e 9f 2d 95 be e6 ae 15 3e
       0.15378712 0.20974195 -0.2913637 0.146175
000110 9f 75 0a be 36 21 f2 3d aa 56 9a 3e 42 dc aa be
       -0.13521431 0.11822741 0.30144244 -0.33371168
000120 a1 9b 33 3b 0e 92 0d 3e 71 db d2 bd 3f d2 54 be
       0.0027405994 0.13825247 -0.102957614 -0.20783328
000130 2d 8c 0c be 1b 81 2f be 44 74 95 3e 12 72 b3 3e
       -0.13725348 -0.17139094 0.29190266 0.35047966
000140 bb 3f d1 bd c3 d6 9a be cc 17 aa bd 72 dc 76 be
       -0.10217234 -0.30241975 -0.0830532 -0.2410753
000150 fc a0 b6 3e 9d ce a3 3e 43 4d c7 3d c3 3b 8f 3d
       0.35669696 0.3199357 0.097315334 0.069938205
000160 41 6e b6 be b9 f8 3b 3d 5e dd 66 be ce 7f da bb
       -0.35630992 0.045891497 -0.22545382 -0.0066680675
000170 7b 89 1e be b9 fb 24 be 9a f8 3e 3e 1b 9f a0 3e
       -0.15482132 -0.1611165 0.18649521 0.31371388
000180 cb 56 65 3e e7 df 85 be c9 7f 2d 3e e2 9e 71 3e
       0.2239639 -0.26147386 0.16943277 0.23595765
000190 38 f5 e9 3d b2 a3 b6 3e 6f 1d b3 3c 95 61 ed bd
       0.11423725 0.35671765 0.021864621 -0.11590878
0001a0 d0 db 54 be 6e 66 b9 bd 8c 3d e5 3d 45 6c 68 be
       -0.20786977 -0.0905274 0.1119338 -0.22697552
0001b0 0c f9 7f 3d 40 a8 33 be 45 81 b3 be 4c 54 6b bd
       0.06249337 -0.17544651 -0.35059562 -0.05745344
0001c0 ea 3d 3c be 9c 8b 69 3e 21 d6 1d be ab a4 ac 3e
       -0.18382993 0.22807163 -0.15413715 0.33719382
0001d0 53 4e 20 3e ac 4f d0 3e fb 0d 85 bd c6 3b 43 bd
       0.15654878 0.40685785 -0.06496807 -0.047664426
0001e0 3e 12 a8 be 8d 0e 7c 3d e3 aa 42 3e ad 9e 44 bd
       -0.32826418 0.061537314 0.190105 -0.048002888
0001f0 46 be d1 bc 7a fd 2b bd 67 3f 6e 3e 4b 0e 99 be
       -0.025603425 -0.04198978 0.23266374 -0.29893717
000200 1d 5d f7 bd 6c 11 a0 3d a9 dd 04 3e a9 ca 49 3e
       -0.12078307 0.07815823 0.12975182 0.19706215
000210 5c 46 9d be 87 c6 20 3e 31 9a 2d 3d ee 38 bb bd
       -0.30717742 0.15700732 0.042383377 -0.09141718
000220 84 ae 75 bc 10 38 3d be 38 a3 73 be e2 9a 88 be
       -0.014995221 -0.18478417 -0.23792732 -0.26680666
000230 4e 26 7c bd c8 bb 93 3e 05 f6 b6 3e e3 bd f9 3c
       -0.061559968 0.28854203 0.35734573 0.030486053

encoder.blocks.0.conv.0.bias f4 [16]
000000 52 ed 47 be b7 bb aa bd 92 ec 73 3d c2 1a a3 3d
       -0.19524124 -0.08336585 0.059551783 0.07964088
000010 e1 5a ee 3d 8c db 97 be 14 1a 22 3c 46 72 77 3e
       0.116384275 -0.29659688 0.009893913 0.24164686
000020 d7 99 20 be 21 ac aa 3c c0 9b 19 be e0 ff 20 be
       -0.15683685 0.02083403 -0.1500082 -0.15722609
000030 93 84 b4 3e cb 06 89 3e 11 51 7f 3d 11 00 13 be
       0.35257396 0.26762995 0.06233317 -0.14355494

encoder.blocks.0.conv.1.weight f4 [16]
000000 7e 3a 87 3f 59 b8 82 3f 31 7e 70 3f c3 b0 8c 3f
       1.0564725 1.0212508 0.9394255 1.0991443
000010 b6 48 87 3f c8 f7 23 3f e6 89 74 3f e9 14 a1 3f
       1.0569065 0.6404996 0.95522916 1.2584506
000020 e2 38 34 3f cb 0b 93 3f 7a 6c 81 3f 5e 67 58 3f
       0.70399296 1.1487974 1.011123 0.84532726
000030 51 5f 5e 3f f8 a1 7b 3f 8d ff 7b 3f d5 6f 69 3f
       0.8686419 0.9829402 0.98436815 0.9118627

encoder.blocks.0.conv.1.bias f4 [16]
000000 8b 9b 81 bd a1 d8 ad 3c f5 7e 95 bc 8c c3 92 3d
       -0.063284956 0.02122146 -0.018249014 0.07166204
000010 f1 24 d2 bc 73 0b 3f be 54 81 44 bd 91 1f 0c 3f
       -0.02565238 -0.18656711 -0.0479749 0.54735667
000020 f8 a0 49 be 21 bd a7 3d f4 27 5c 3d 60 59 89 bd
       -0.19690311 0.0819037 0.05374904 -0.067065
000030 10 f9 84 ba 24 41 97 bd 60 f1 a7 3d 1b 94 79 be
       -0.0010145027 -0.073854715 0.082003355 -0.24372904

encoder.blocks.0.conv.1.running_mean f4 [16]
000000 f3 9e 24 be 45 c4 7c bd c8 89 f7 3c 7e c8 01 3d
       -0.1607626 -0.061710615 0.030217066 0.031685345
000010 e3 8e a4 3e 0b f5 af be 64 cd 3e 3e a0 64 62 3e
       0.32140264 -0.3436664 0.18633038 0.22108698
000020 ce 91 1d be 31 73 8c bc 32 42 cc bd 41 77 da bd
       -0.15387651 -0.017144771 -0.09973563 -0.10667277
000030 94 2d 83 3e 47 24 a1 3e d2 14 e3 3d f8 a8 69 be
       0.2562071 0.3147299 0.110879555 -0.22818363

encoder.blocks.0.conv.1.running_var f4 [16]
000000 5c a5 85 3b f4 54 6d 3b 74 80 16 3c 40 e2 86 3a
       0.0040785503 0.0036213966 0.009185899 0.0010290816
000010 6d 08 1e 3c c0 d1 f5 3a 79 c2 05 3c 52 c6 3d 3b
       0.009645564 0.0018754527 0.008164042 0.002895732
000020 9e 34 92 3b 69 66 9d 3b 81 f5 7a 3b 84 e9 c0 3b
       0.004461839 0.004803468 0.0038293304 0.005887212
000030 60 a5 b2 3b a7 8b ee 3a e2 3d ea 3a 08 95 02 3c
       0.005451843 0.0018199579 0.0017871226 0.007970102

encoder.blocks.0.conv.3.weight f4 [16, 16, 3, 3]
000000 83 3d 25 3e 18 a4 1a be 6b 4d 73 bd 1c d7 1c 3e
       0.16136746 -0.1510166 -0.059400003 0.15316433
000010 ef d7 33 bd 8f ab b2 bd f3 20 6e 3d 4d 7e 39 3d
       -0.043907102 -0.087241285 0.05813689 0.045286465
000020 9b ce 36 be 50 21 8e 3d e7 f7 9b bd e3 1d f4 bd
       -0.17852251 0.069399476 -0.07615643 -0.11919763
000030 a7 f5 6f bd 60 b7 5a bc f4 d4 4f bd 76 50 27 3d
       -0.05858388 -0.013349384 -0.050740197 0.040848218
000040 c9 9b e5 3c 1b e2 71 bd 81 3d ea bd c2 1d 64 bd
       0.028028386 -0.05905352 -0.11437512 -0.05569244
000050 70 20 c0 3d 2e 9a 2c 3d 81 58 7b bd 72 17 a2 3d
       0.09381187 0.042139225 -0.0613637 0.07914628
000060 1b 72 ef bc c6 82 7d bd 40 33 0c be a1 1f 16 bd
       -0.029229214 -0.061892293 -0.13691425 -0.036651257
000070 bb 22 6f 3e c7 4e 01 be 78 ab a7 3c 8e 08 7f bd
       0.23353092 -0.12627707 0.020467505 -0.062264018
000080 aa a7 2a 3d 68 f0 50 bc 85 cb 97 bd 1c 12 36 3e
       0.041663803 -0.01275263 -0.07411865 0.17780346
000090 33 4a 46 bd 59 87 b8 bc 95 92 c6 bd 41 de e4 bd
       -0.048410606 -0.022525476 -0.09695927 -0.11175204
0000a0 58 92 6b bd 56 00 4f 3d 7c 28 1b 3d c2 26 12 be
       -0.05751261 0.05053743 0.037880406 -0.14272597
0000b0 db ca 02 3c 87 ea 95 3c 63 5d a1 bd 45 bc 7c ba
       0.007982935 0.018300308 -0.0787914 -0.00096410915
0000c0 2d 9e d0 bd 3d 13 45 3d 5f d7 1c 3d 08 bf a6 bd
       -0.1018642 0.04811405 0.03829133 -0.08141905
0000d0 1e d8 dd bd e2 13 10 3c aa 7d 8f 3d 57 f4 c3 bd
       -0.10832237 0.008793803 0.070063904 -0.095680885
0000e0 3b fd 66 3e a1 b5 a5 bb 91 af 70 3d c1 15 1a 3e
       0.22557537 -0.0050570522 0.058761183 0.15047361
0000f0 b7 56 5a bd 0a f0 bc 3d ec 47 7d be 14 65 2e be
       -0.053305354 0.09225471 -0.24734467 -0.17030746
000100 dc 03 20 3d b0 17 a9 bd 22 16 6f be ca 20 15 3e
       0.03906618 -0.08256471 -0.23348287 0.1456329
000110 c1 20 1e be 3a ca c0 3d 71 8c bb bd 9b c2 fa bd
       -0.15442182 0.09413572 -0.091576464 -0.12244149
000120 33 31 19 bd db da fa 3c d1 77 df bc d4 c3 83 3d
       -0.037400436 0.030621937 -0.027278813 0.064338356
000130 91 0c ce bb bb bf b8 bc ae 3c de bc a0 2b c8 3c
       -0.006288119 -0.022552362 -0.027128544 0.024434865
000140 26 d7 13 3e 83 30 92 3e e2 3b 3b be a0 e4 e3 3c
       0.14437541 0.28552637 -0.18284562 0.027818978
000150 b4 7f 89 bd 49 13 73 bd eb ce 0f 3e bb b6 2f bd
       -0.067138106 -0.059344564 0.14043777 -0.042898875
000160 60 5d 31 3e a4 2b 9e bd 9a 2b 66 3d ba a8 95 bd
       0.17320776 -0.077231675 0.056193925 -0.07307573
000170 e9 6f 8f 3d a8 07 31 3e 9b de b6 3d fb 89 f0 bd
       0.07003767 0.17288077 0.089291774 -0.11745068
000180 d4 9d f6 3a ba 59 3e 3d 9b 16 71 bd fb 94 97 bd
       0.0018815347 0.04647229 -0.05885945 -0.07401463
000190 2a 28 87 3c b8 41 a6 3d aa a6 96 bb f4 d9 83 3d
       0.016498644 0.081180036 -0.0045975046 0.06438056
0001a0 ce 67 6b bd 00 62 d3 bd e4 f2 8f bd 4e 9c 84 bd
       -0.057472043 -0.103214264 -0.070287496 -0.06475125
0001b0 cc 2d c0 bd d8 1e 28 3e f9 50 1a be 72 6e 17 3d
       -0.09383735 0.16418016 -0.15069951 0.036970563
0001c0 89 db de bd 78 2e b7 bd aa c3 41 be 33 0f 8c bd
       -0.10881717 -0.0894441 -0.18922296 -0.068388365
0001d0 76 ee e3 3d 4e b7 e8 bd 22 39 55 3d b4 1e da bd
       0.11129467 -0.113630876 0.05205644 -0.106503874
0001e0 80 37 14 bd 07 64 63 3e df 92 1e 3c 98 4a c7 bb
       -0.03618574 0.22206126 0.0096785715 -0.0060818903
0001f0 36 11 0c 3d 3b 89 67 3d b7 e7 d0 bd 5b e6 31 3e
       0.0341961 0.056527358 -0.10200446 0.1737303
000200 42 7b 80 bd 74 9a 19 3c 69 e4 08 3e 1c 48 e2 bd
       -0.062735096 0.009375203 0.13368382 -0.1104891
000210 ed 49 23 bd 22 05 61 bd a7 a6 50 3e 8f 9e 86 bd
       -0.039865423 -0.054936536 0.20376073 -0.065732114
000220 46 a5 56 3c 8f fe 2a 3d 29 d0 e0 3d fc 2c 3f 3d
       0.013100928 0.041746672 0.109772034 0.04667376
000230 79 04 e6 bc dd 40 b8 bd 33 f2 c2 3c 1b 1d c8 3d
       -0.028078305 -0.08996747 0.02379713 0.097711764
000240 cf 56 7f 3d 8a 71 5e 3c d4 65 2b be c7 60 5b 3b
       0.062338647 0.0135768745 -0.16738063 0.0033474432
000250 fc c4 25 3d 9a 2a c3 bd fc 36 51 3a 68 45 2f bd
       0.040471062 -0.0952961 0.00079809106 -0.0427908
000260 0a 1f 2a 3e 69 8a 69 3d f9 7d 72 bd 86 52 ee bc
       0.16613403 0.057016764 -0.059202168 -0.029092085
000270 e5 67 24 bc ba 73 81 bd f7 44 e7 3d 5f dd 43 be
       -0.010034536 -0.06320901 0.11292451 -0.19127415
000280 43 64 f5 bd 16 28 a2 bd 4c 78 00 3d e2 12 e8 bd
       -0.11982014 -0.07917802 0.031364724 -0.113317266
000290 b1 07 46 be b6 12 c3 bd 4c 85 54 3c 85 d8 f8 bd
       -0.19338872 -0.09525053 0.012971234 -0.12150673
0002a0 a4 ce cb bd 21 ca d6 bd 7c 71 74 bd fa 29 1a 3e
       -0.09951523 -0.10487772 -0.05967854 0.15055075
0002b0 76 05 29 bc 9a 4f 30 3c 27 2a 10 3e c6 fb 41 bb
       -0.010316243 0.010761166 0.1407858 -0.0029599532
0002c0 3c 82 ed bd f5 56 f9 bd 7f 98 37 3e c2 32 ff 3d
       -0.11597106 -0.12174789 0.17929266 0.12460853
0002d0 7f ae 61 3d c0 ab 50 bd cd 50 60 bc 22 f6 4a bd
       0.055098053 -0.050945044 -0.013691139 -0.049551137
0002e0 69 12 23 bb 11 0d 06 3e d5 ea 82 be ce 38 1e bc
       -0.00248828 0.13090922 -0.25569788 -0.009657098
0002f0 87 3a aa bd 12 d5 6a 3d ab cb a0 3d 05 d5 a3 bd
       -0.083119445 0.057332106 0.078513466 -0.079996146
000300 8e 07 65 bd e1 43 bd 3d bf f6 f2 bd 92 d5 0e 3c
       -0.055915408 0.092414625 -0.11863469 0.008717911
000310 7d cf d9 3c 35 03 a2 3c ae a7 7d bd ce 5f 49 3c
       0.026588196 0.01977692 -0.06192749 0.012290908
000320 41 aa 60 be da b1 2c be a5 62 b8 3d b4 5e 1c be
       -0.21939947 -0.1686472 0.0900319 -0.15270501
000330 c7 c9 f0 ba f1 33 76 be 3c b2 6c bd dd b6 d6 3d
       -0.0018370681 -0.24043252 -0.057787165 0.10484097
000340 b6 30 5e be ec 1a 06 be 0d a3 83 3e 8a 52 cc bc
       -0.21698269 -0.13096207 0.25710335 -0.024941701
000350 5f 07 a0 be 8d 54 2a be 7f ff 3d be f0 18 6a 3d
       -0.31255624 -0.16633816 -0.18554495 0.05715269
000360 b5 42 be bc bc 7b 3f bd e4 3a 02 be c7 27 a5 3d
       -0.023225168 -0.04674886 -0.12717777 0.080642276
000370 73 43 e5 3c 5e 4d 31 be f5 6f ad bc 52 d8 1a 3d
       0.027986264 -0.1731467 -0.02117155 0.037803955
000380 f1 85 e9 bc 95 25 0d 3c 25 bd eb 3d f4 f5 fb bd
       -0.028506251 0.008614917 0.11510686 -0.12302771
000390 04 18 15 be 13 23 9d 3d 3c 9b 87 bd 76 90 54 3e
       -0.14559942 0.076727055 -0.066214055 0.20758232
0003a0 d4 f6 fd bd 11 c4 c9 b9 67 2b 4b bd ca cc 44 bd
       -0.12400594 -0.00038483788 -0.04960194 -0.048046865
0003b0 d9 78 34 be bf 61 70 3d 65 64 d7 bd 7c ce 7e 3d
       -0.17624225 0.058686968 -0.105171956 0.062208638
0003c0 01 28 c4 3d a0 4e 84 bd ed 8b 21 bd 5f 02 fb 3d
       0.09577943 -0.06460309 -0.039440084 0.122563116
0003d0 df 01 0e be 11 2d 75 bd 15 64 0a 3e 0b 62 bc 3b
       -0.13867901 -0.05985743 0.13514741 0.0057489923
0003e0 cd 75 5e bd 91 22 99 bc c9 14 80 3d b3 60 fe bd
       -0.054311562 -0.01869324 0.062539645 -0.12420788
0003f0 1d fd a2 3c e5 e8 f1 bc 47 6f 2c 3e 05 97 ca 3d
       0.019896084 -0.029529998 0.16839324 0.09892086

encoder.blocks.0.conv.3.bias f4 [16]
000000 dd 41 b1 bc 6e 94 3e 3d 3c 63 50 3e 75 19 74 bc
       -0.021637851 0.046528272 0.20350355 -0.014898648
000010 ab eb 98 bd 4b f5 3f bb 31 1b 67 3d a7 1b 31 bd
       -0.07466825 -0.0029290493 0.056422416 -0.043239262
000020 75 06 b6 3a c6 d2 96 3c 39 37 a6 3c 63 d0 c5 3d
       0.0013887422 0.018411051 0.020290004 0.09658887
000030 7b c6 0a bc 35 4b 26 3e e4 c8 4b 3b 77 2f 0e 3d
       -0.008470173 0.16239627 0.0031095082 0.034713235

encoder.blocks.0.conv.4.weight f4 [16]
000000 74 7c 89 3f 6c 08 78 3f 5f 35 67 3f aa bd 8f 3f
       1.0741105 0.9688785 0.9031581 1.1229756
000010 e4 7d 82 3f 44 8d 64 3f 67 1d 75 3f 77 28 8c 3f
       1.0194669 0.89278054 0.9574799 1.0949849
000020 93 e6 83 3f 91 db 62 3f 95 52 45 3f 09 ae 52 3f
       1.0304741 0.8861628 0.77079135 0.82296807
000030 ab 34 87 3f d6 73 7a 3f cf 83 84 3f a8 f4 82 3f
       1.0562948 0.97833 1.0352725 1.0230913

encoder.blocks.0.conv.4.bias f4 [16]
000000 e4 b1 b4 bd 7b db 01 bd 3d 76 0b be d1 99 33 bd
       -0.088229924 -0.031703454 -0.13619323 -0.043847863
000010 0d 92 b7 bd 6f a1 02 be 85 7a 0d be 5d b4 22 be
       -0.08963404 -0.12756895 -0.13816269 -0.15889116
000020 78 30 03 bc b2 ce 03 bd af 79 02 be 69 17 81 3c
       -0.008007161 -0.032179542 -0.12741731 0.015758233
000030 61 c9 76 bb ae 57 f0 bd 17 db 12 be 43 1f a6 3d
       -0.0037656652 -0.117354736 -0.14341389 0.081114314

encoder.blocks.0.conv.4.running_mean f4 [16]
000000 96 09 0c bf db e7 95 bf 5c 0b c5 bf af a2 5a bf
       -0.54702127 -1.1711382 -1.5394092 -0.85404485
000010 b7 38 5d c0 a5 43 28 bf 2b f3 2a c0 06 15 9c bf
       -3.4565866 -0.6572822 -2.6710918 -1.2193916
000020 8a 91 bf bf ee fe ed bf 61 d9 d2 bf 34 a1 af bf
       -1.496629 -1.8593423 -1.6472589 -1.372107
000030 3d b5 f4 3f 13 74 38 c0 8d b5 68 bf a0 59 4e 3f
       1.911781 -2.8820846 -0.90902025 0.80605507

encoder.blocks.0.conv.4.running_var f4 [16]
000000 6f d4 4d 3f 36 cd 08 40 5a 4c 27 40 a9 82 76 3f
       0.8040227 2.137525 2.6140351 0.9629312
000010 f3 4e dc 40 4d c1 dd 3f 08 33 b7 40 2e bb 00 40
       6.8846374 1.7324616 5.7249794 2.0114245
000020 48 21 56 40 35 fd 1a 40 66 20 59 40 9d 6a 2d 40
       3.3457813 2.4217045 3.3926024 2.7096322
000030 07 0a 46 40 72 47 d5 40 9b 5a c3 3f a9 96 14 40
       3.094362 6.6649714 1.5262026 2.3216956

encoder.blocks.0.skip.weight f4 [16, 1, 1, 1]
000000 40 15 0a 3f c8 b1 ec 3e 80 e7 5a be 9c 7b a5 be
       0.53938675 0.46229386 -0.21377373 -0.3232087
000010 54 83 65 3f 2a 7b 19 bf 08 e1 c2 be 98 6b 31 3f
       0.89653516 -0.5995356 -0.3806231 0.693048
000020 1c 52 9b be c0 6f 75 3d 30 16 2f 3f 78 e4 77 bf
       -0.30336082 0.059921026 0.6839323 -0.9683299
000030 30 cf e1 3d 58 7c c2 3e ae 58 59 3f 00 a5 69 3d
       0.11025846 0.37985492 0.8490094 0.057042122

encoder.blocks.0.skip.bias f4 [16]
000000 a8 8d e6 3e 84 31 50 bf 8a 27 52 bf 60 76 3a 3d
       0.4502995 -0.81325555 -0.8209158 0.045523047
000010 a0 33 3e bd d8 c2 9d 3e dc 20 ca be 72 89 63 3f
       -0.046435952 0.30812716 -0.39478195 0.888816
000020 28 b4 75 be 1c a1 21 bf 04 fd 09 bf c0 0b 7f bd
       -0.23994505 -0.6313646 -0.53901696 -0.062267065
000030 ea 11 6a bf ce 36 7e bf 02 d6 71 bf a0 30 84 bd
       -0.91433585 -0.99302375 -0.94467175 -0.06454587

encoder.blocks.1.conv.0.weight f4 [32, 16, 3, 3]
000000 b1 6e b0 3d d7 1b fd 3d f1 d3 89 be 39 5d 07 bc
       0.08614863 0.12358826 -0.2691951 -0.008261972
000010 3e 66 f3 3d b4 14 02 3c f5 19 28 be 87 ed 04 3d
       0.118847355 0.007939506 -0.16416152 0.032453086
000020 46 a5 83 3e d4 f1 10 3c db 40 02 3d b0 ba c2 bd
       0.2571203 0.008846719 0.031800132 -0.09508264
000030 cf de 49 ba 88 28 d5 3c 6b 69 01 bd c5 9f f2 bd
       -0.00077007426 0.026020303 -0.031594675 -0.1184688
000040 5f 49 9e 3c 35 d5 d8 3d 40 92 d5 bd dc 7e 19 bb
       0.019322095 0.10587541 -0.104282856 -0.0023421561
000050 4a a1 66 3d b4 a1 91 bc ee 9c 94 bd 95 46 9d bc
       0.05630616 -0.017777301 -0.072564945 -0.019198695
000060 27 b4 95 3c ba a7 35 be a4 a3 ac 3c 1f 1c 30 3e
       0.01827438 -0.17739764 0.021074124 0.17198227
000070 2d 24 0a 3e c1 86 5c be ed e2 bc 3c a2 df 06 3e
       0.13490362 -0.2153578 0.023057425 0.13171247
000080 50 3f c6 3c b0 ec b2 3a 32 45 f4 3c c8 5f 09 3e
       0.024200112 0.0013650861 0.029818151 0.13415444
000090 fc 9f f7 bd 3c 43 ff bc 38 f1 13 3e ba cd c9 bc
       -0.120910615 -0.03115999 0.14447486 -0.02463423
0000a0 0f 48 1d be d9 a4 eb 3d cb 8e bb 3d 5a 60 9a bc
       -0.1535952 0.115060516 0.09158095 -0.018844772
0000b0 f5 ee 8a 3d 9e 68 29 3d 27 d8 7a 3d dd c8 d7 b8
       0.06783859 0.041359536 0.061241295 -0.000102894126
0000c0 6c 7b a9 bd 7f 13 7f 3d 0d 1c 61 3d f9 d1 f0 bd
       -0.08275494 0.062274452 0.054958392 -0.11758799
0000d0 5a 14 d8 3d f4 94 b0 3d 91 16 19 be 42 5d 98 3d
       0.10550757 0.086221606 -0.14950015 0.074396625
0000e0 6a de 2b 3e 0c 81 06 be d2 f9 3f bd 61 86 69 3d
       0.16784063 -0.13135165 -0.046869107 0.05701292
0000f0 ff 99 18 3d 79 79 00 be 65 8c fd 3d e7 8c bf bb
       0.037256237 -0.12546338 0.12380294 -0.0058456543
000100 0f b7 14 be 2b 25 1c be df ff 34 3e 44 06 38 be
       -0.14522956 -0.15248553 0.17675732 -0.1797114
000110 fc 4a 83 be de 42 9c 3c fc cf 09 be 8c fe 27 be
       -0.25643146 0.019074854 -0.13458246 -0.16405696
000120 4f 28 ea bd d1 8c 7e bd 7f 56 0b bd f3 56 3c bd
       -0.114334695 -0.06214601 -0.034018036 -0.04598136
000130 b1 51 09 be f9 5f 23 3d 69 3c 2b bd 9c f8 a4 bd
       -0.13410069 0.03988645 -0.04180566 -0.08055231
000140 ca 5e a2 bd c2 45 8e 3c 11 b7 56 3e ef 6f 76 3d
       -0.07928236 0.017367247 0.20968272 0.060165342
000150 31 53 b5 3d ea a2 ac bc 2d 16 05 3e e5 fd 22 3d
       0.08853758 -0.021073777 0.1299674 0.039792914
000160 16 d5 84 3d 90 76 0f 3e 28 87 81 3d d4 ad 5d bd
       0.064859554 0.14010072 0.06324607 -0.054120854
000170 de a0 64 bd c4 f7 3f 3d a2 db ce bd 80 04 90 bd
       -0.055817477 0.046867147 -0.101004854 -0.07032108
000180 33 7f 3f 3d 2d 54 62 bd 40 2d 94 bd eb 60 d9 bc
       0.046752166 -0.055256058 -0.07235193 -0.026535472
000190 e6 65 86 bd a3 be 69 bd d2 1e 7b 3a 0c fe 3f bd
       -0.06562404 -0.05706657 0.0009579483 -0.046873137
0001a0 9b b0 ea bc 4e 81 5b 3d 6b 5a 1c 3e 41 33 20 bc
       -0.028648665 0.05359011 0.15268867 -0.009777845
0001b0 b4 53 bf bd aa c1 d2 3c 8f a2 c5 bd 5b b8 2c be
       -0.09342137 0.025727112 -0.09650146 -0.16867201
0001c0 16 72 26 3d 87 db a2 bd b5 40 29 be 58 bc f0 3b
       0.040636145 -0.07952028 -0.1652859 0.007346671
0001d0 d5 49 89 3a fd ee 2c bd b2 cc 1b bc e4 cd 88 bc
       0.0010474274 -0.042220104 -0.009509252 -0.016699739
0001e0 c3 6b b3 3c ff ce f3 bd 0d e5 70 3d 00 8c af 3a
       0.02190197 -0.11904716 0.05881219 0.0013393164
0001f0 da f2 89 bd 95 22 5c 3a 4e 3a 9a bc 0e ef 4b 3e
       -0.067357734 0.0008397487 -0.01882663 0.19915411
000200 2e b1 13 be 92 b3 da 3c 0e 1a 27 3c d9 7f 8b 3c
       -0.14423057 0.026696954 0.010199083 0.017028736
000210 be fe aa 3c bc 4f 48 3d 96 62 28 3e 91 86 96 3d
       0.020873424 0.048904166 0.16443858 0.07349885
000220 99 69 39 bc 01 49 97 be e4 3c ed bd 51 fd 10 bc
       -0.01131668 -0.29547885 -0.115838796 -0.008849458
000230 a8 ae ef bd f7 d3 f3 bd 47 ed 3c 3c 7e 3b 89 bd
       -0.11703235 -0.119056635 0.011531181 -0.067008
000240 95 66 18 ba 8c b1 a0 3d cf c2 41 bd 75 82 25 be
       -0.0005813626 0.078463644 -0.047304925 -0.16163047
000250 69 2b 81 3d 70 a7 f1 3b d3 03 31 be 61 8c b3 3d
       0.06307108 0.0073746964 -0.17286615 0.087670095
000260 be 5c ae 3d 3c ae 3a 3c 23 57 8b 3c cc cc ea 3d
       0.08513783 0.01139408 0.017009323 0.11464843
000270 99 b3 78 3d 29 05 21 3d 28 fc d2 3d c8 77 be bc
       0.060718153 0.03931156 0.10302001 -0.023250476
000280 e0 0a 11 3e 8b be 45 3d 79 ea ab bb b4 17 69 3d
       0.14164305 0.04827742 -0.005246457 0.05690737
000290 8f e8 f6 3d a3 4f d1 bc 71 e2 60 bd 30 b7 d6 3d
       0.12056076 -0.025550669 -0.05490345 0.10484159
0002a0 76 ed b3 3d 40 02 fe 3c 99 6e d2 3c 99 2e 1c 3c
       0.087855265 0.031006932 0.025687503 0.009532594
0002b0 3f 7e 46 3e 9c 3f fc 3d 3a 24 c1 3d 1d f9 1f 3e
       0.19384097 0.1231682 0.09430738 0.15622373
0002c0 0f f6 83 3e 08 91 41 3c 91 bf 1d 3e 03 31 40 3e
       0.25773665 0.011814363 0.15405108 0.18768696
0002d0 a2 62 bb bd 6a 61 4d bc 5f 9a bd ba 5a ea 45 be
       -0.09149672 -0.012535432 -0.0014465562 -0.1932768
0002e0 0f c7 45 be 17 4a d4 3d 70 2c c5 3c 42 cc 15 be
       -0.19314216 0.10365694 0.024069041 -0.146287
0002f0 cb a1 04 ba 85 b8 76 bd fd a8 e7 bc 4a 84 0c be
       -0.00050595094 -0.060234565 -0.028278822 -0.1372234
000300 eb 5a 65 3c bc 28 48 3d 02 80 9b bd 14 5d c0 bd
       0.013998727 0.048866972 -0.07592775 -0.09392753
000310 10 ff cc bc a1 f9 be 3c 16 b1 53 bd 01 2c 44 bd
       -0.025023967 0.023312392 -0.051682554 -0.047893528
000320 3b 4d 9b 3d 5a 42 06 be 1d 07 0e be 3b d5 0e 3b
       0.0758309 -0.13111249 -0.13869901 0.0021794576
000330 d1 1b 43 bd 7f 08 b4 bd 31 c5 07 3d 63 17 7c bc
       -0.04763395 -0.08790683 0.03314704 -0.015386435
000340 c6 45 82 3c 2d b4 d8 3d f6 a2 cc 3c bb 3e b3 3c
       0.015902411 0.10581241 0.02498005 0.021880498
000350 e7 96 d1 3b 4e 2a 14 3e 48 b5 a1 3d 37 17 b5 3c
       0.006396163 0.14469263 0.07895905 0.022105796
000360 82 e5 e8 bc f6 8a a4 bd e2 a4 88 3c 18 1e 2b 3c
       -0.02842975 -0.08034317 0.016680185 0.010444187
000370 d0 ba e7 bd 3a e2 96 3c e8 52 24 bc a3 c9 ab bd
       -0.113149285 0.01841842 -0.010029532 -0.083880685
000380 09 82 ca bd a5 42 09 bd af 80 15 3e f1 2f 15 3e
       -0.098880835 -0.033510823 0.1459987 0.1456907
000390 22 98 80 bd 8f e2 21 3e 9d 1b 0b 3e 1f bc 98 3d
       -0.06279017 0.15809081 0.13584752 0.07457756
0003a0 09 45 00 3d 15 0d 0e 3e 9b 95 1e bd ab 9b 9c bd
       0.031315837 0.13872178 -0.038716894 -0.07646879
0003b0 62 a7 5d bd e7 a4 8f 3d 1f 3b ee bc d6 8c b0 3b
       -0.054114707 0.070138745 -0.029080926 0.0053878827
0003c0 89 c0 d8 3c 1b fc 2b 3d a1 7f d5 3c 43 25 8d bd
       0.026458995 0.041988473 0.026061835 -0.06891873
0003d0 c2 eb 42 3c 8c 16 0d 3e 88 2a 6d 3d e5 d5 9c bd
       0.011897029 0.13778132 0.05790189 -0.07657985
0003e0 8a 58 6a 3d 75 44 00 3d 7c 34 98 3c f5 a6 9e 3d
       0.057213344 0.031315286 0.018579714 0.07746688
0003f0 59 4c b2 bd 50 60 5d be c3 16 5c be be ee 4e be
       -0.087059684 -0.21618772 -0.21493058 -0.2020826

encoder.blocks.1.conv.0.bias f4 [32]
000000 45 54 3c 3d 73 ce 74 bd a6 eb 7d 3c d3 33 8f bd
       0.045978803 -0.059767198 0.0154980775 -0.069923066
000010 4f 15 f2 3d 6f 66 d7 bd fd ac c7 3d 4c 23 9e 3d
       0.118204705 -0.105175845 0.09749792 0.07721576
000020 3e 63 a6 3d 6d c8 f0 bd 86 6d cd bc 2f ad 8d bc
       0.08124398 -0.11756978 -0.025076639 -0.017294494
000030 77 d7 14 3e 5a a6 f3 3d bf ca 09 3e 89 2d 57 3d
       0.14535318 0.118969634 0.13456248 0.05253366
000040 b2 13 7d bd 3c f7 f2 3d 2f 6f 20 3c 68 3a 05 3d
       -0.06178636 0.118635625 0.009792133 0.032526404
000050 52 66 f8 bd 32 a8 ee 3b 82 6c 6a bd 0c 72 71 3d
       -0.12128891 0.007283234 -0.057232387 0.058946654
000060 c5 f4 fa bb 38 60 31 be c6 c5 a0 bc e9 0c fb b7
       -0.0076585733 -0.17321861 -0.019625556 -2.9927543e-05
000070 58 ba 2d 3e f7 ec 33 bd 6d 2a 11 bd 04 97 2d 3d
       0.16965616 -0.04392716 -0.03544085 0.042380348

encoder.blocks.1.conv.1.weight f4 [32]
000000 23 63 7e 3f de 8c 71 3f da 45 94 3f 77 72 81 3f
       0.9937002 0.9435557 1.1583817 1.0113057
000010 d2 0f 48 3f 20 97 87 3f 51 3e 83 3f 00 15 87 3f
       0.7814914 1.0592995 1.0253392 1.0553284
000020 9b ac 85 3f e5 60 75 3f 2e 77 89 3f 44 75 55 3f
       1.04433 0.95850974 1.0739496 0.8338206
000030 33 d1 8e 3f 23 f3 7b 3f ff 5d 8f 3f 1e fd 51 3f
       1.1157593 0.9841787 1.120056 0.8202685
000040 3d 44 90 3f 8d 2f 8c 3f de 98 74 3f 25 67 5a 3f
       1.1270825 1.0952011 0.95545757 0.85313636
000050 c7 a7 97 3f c8 82 83 3f 18 fe 89 3f 70 a5 48 3f
       1.1848077 1.0274286 1.0780668 0.7837744
000060 5a bd 7f 3f ce d9 81 3f 5e f4 81 3f e2 f5 58 3f
       0.998983 1.0144594 1.01527 0.8475019
000070 16 fe 6d 3f b5 d9 58 3f a6 5c 4d 3f 79 fe 73 3f
       0.9296583 0.84707195 0.80219495 0.9531017

encoder.blocks.1.conv.1.bias f4 [32]
000000 c0 af 06 3b 18 e1 00 be ac 71 13 3e cb 0d ec bb
       0.0020551533 -0.12585866 0.14398831 -0.0072037927
000010 e9 5a b3 bd c2 6a 81 bd 97 99 7b 3d c0 e4 8c 3c
       -0.08757574 -0.063191906 0.06142577 0.01719892
000020 16 51 92 bd e9 9f ab bd dd 4a 08 bd 60 27 e4 bd
       -0.07144372 -0.0838011 -0.03327452 -0.11140323
000030 29 86 6a 3d af fa ca 3c 6a 34 0f 3e c2 c1 c3 bd
       0.05725685 0.024777738 0.13984838 -0.09558441
000040 24 8d 5e 3e e4 44 5a bd 40 8a 8d 3d 7f 4c 1a 3e
       0.21733528 -0.053288355 0.06911135 0.15068243
000050 4b 05 5b bd 1e 78 9d bc 8e 45 98 bc 36 76 18 bd
       -0.053471845 -0.019222315 -0.018587854 -0.03722211
000060 13 2d 6d 3d 7a 85 ac bd 7f 93 fe 3d ac 0f 07 bd
       0.057904314 -0.08423896 0.124304764 -0.03297393
000070 33 46 3c bd 7d b6 15 be 4e 64 ff bd 66 b9 4d bd
       -0.045965385 -0.14620395 -0.124703035 -0.050225638

encoder.blocks.1.conv.1.running_mean f4 [32]
000000 1a 81 10 bf 5c ee c2 be 59 ea c9 bf 09 4a 65 3f
       -0.56446993 -0.3807248 -1.5774642 0.89566094
000010 7f 52 a0 3f 06 5f 64 40 ee 7f ff 3e 55 c0 dd bd
       1.2525176 3.5682998 0.4990229 -0.108277
000020 8c cd 9d bd 79 4f 3a 40 f1 ff 1d 3f 34 ab 59 bf
       -0.077052206 2.9111006 0.6171866 -0.8502686
000030 14 54 b3 3e 9d b4 96 be a6 c9 4b bf 49 73 e7 3f
       0.35025084 -0.29434672 -0.79604566 1.8082057
000040 22 16 0c c0 21 9e 22 3f cf 23 0f bf 5e c8 25 bf
       -2.1888509 0.63522536 -0.55914015 -0.6475886
000050 36 1a 9e 3e ae d5 d2 3e 6b 3c 39 bf 10 7b 97 3f
       0.30879372 0.4117865 -0.72357816 1.1834431
000060 34 9f fe bf 15 0e 97 bf 71 96 16 c0 ba b8 c1 3f
       -1.9892335 -1.1801172 -2.3529322 1.5134499
000070 b3 f9 0d 40 7d 13 36 bf 78 70 34 40 39 3a ad bd
       2.2183654 -0.71123487 2.8193645 -0.08458371

encoder.blocks.1.conv.1.running_var f4 [32]
000000 53 fc a6 3f c1 98 3e 40 af d7 62 40 7b bb c6 3f
       1.3045753 2.9780734 3.5444143 1.5525964
000010 19 24 bc 3f 2d 46 03 41 af ab 93 3f 9c 66 15 40
       1.4698516 8.204633 1.1536769 2.3343878
000020 cf 29 e9 3f 55 27 b2 40 ed 94 de 3f d6 fc 2c 40
       1.8215884 5.5673013 1.7389199 2.702932
000030 ba 48 32 40 22 13 a8 3f 0b b6 1e 40 66 4d e2 3f
       2.7856889 1.3130839 2.479861 1.767987
000040 a6 9d fc 40 a2 58 a5 3f a4 70 c5 3f db 87 fa 3f
       7.894244 1.2917674 1.5425 1.957271
000050 f4 74 8b 3f 61 1a d6 3f b5 63 00 40 7a 84 e4 3f
       1.0895066 1.67268 2.0060856 1.7852929
000060 61 fa 05 41 f2 08 13 40 1d 56 12 41 94 96 4d 40
       8.373628 2.297421 9.146024 3.2123156
000070 3a 52 56 40 31 0c c5 3f 9b 50 c0 40 60 43 7a 40
       3.3487687 1.5394346 6.0098395 3.9103622

encoder.blocks.1.conv.3.weight f4 [32, 32, 3, 3]
000000 f5 f2 07 3c 48 9c 66 bd 70 80 38 bc e7 76 3c bd
       0.008297672 -0.056301385 -0.011261091 -0.04601183
000010 08 57 47 bd 2a 23 15 be 12 20 79 be c7 53 f4 bd
       -0.048666984 -0.14564195 -0.2432864 -0.11930042
000020 9b 63 67 be 54 a6 f3 3c 64 cd 24 3d 5d c7 76 3b
       -0.2259659 0.029742397 0.04023494 0.003765545
000030 b7 f9 1b bc ef f2 fd 3d d9 21 97 3d 41 01 82 bd
       -0.009519986 0.123998515 0.07379503 -0.063478954
000040 9a a7 30 bd ee 04 de 3d 71 11 14 3e e9 5f db 3d
       -0.043128587 0.10840784 0.14459778 0.10711653
000050 04 f3 8d 3d eb 68 80 bb bc 34 74 3d 45 a5 35 bd
       0.06931117 -0.003918757 0.059620604 -0.044347066
000060 ca a2 95 bd 32 5c 48 bd 0f 3c aa bd 9f 02 88 bd
       -0.0730644 -0.04891605 -0.083122365 -0.06641125
000070 17 30 86 3c fd 7e 0c 3b 95 9f 50 bc da a5 e0 3c
       0.016380353 0.0021437996 -0.01273336 0.027422834
000080 ae ad f1 3d 68 bf c9 bd 09 f5 48 3a 8c 55 22 bd
       0.11800705 -0.09850961 0.00076659076 -0.039632365
000090 6f 87 0a bd 82 04 b1 3d 68 b3 8d 3c 89 75 f3 bd
       -0.033820566 0.08643438 0.017297462 -0.118876524
0000a0 63 f0 e7 bc 9a 28 fb bd 15 73 fb bd 70 e5 da bd
       -0.028312868 -0.122636035 -0.122778095 -0.10688293
0000b0 04 2b 97 b9 bd 6f b3 bd 5f ee c7 bd 86 27 9e bd
       -0.00028833013 -0.08761547 -0.097622626 -0.07722382
0000c0 91 6e 39 be b1 76 20 be da b3 3a be a6 57 59 be
       -0.18108584 -0.15670277 -0.1823267 -0.21224841
0000d0 c9 05 28 be af 7a 2a be 68 3a 9f 3d 91 ae 5c 3d
       -0.16408457 -0.16648363 0.07774812 0.053877417
0000e0 bb 94 1b 3c 01 c1 11 be 9b 4b 71 bd 3c 79 2e be
       0.009495909 -0.14233781 -0.058909994 -0.17038435
0000f0 d9 2a 83 bd 1c 51 21 be 10 e8 d6 bc ac 33 0f bd
       -0.06404657 -0.15753597 -0.026233703 -0.034961388
000100 22 d6 f9 bc 05 d0 85 3d 73 33 f7 bd 62 54 0e bc
       -0.030497614 0.06533817 -0.1207036 -0.008687111
000110 ba 96 2a bd a4 ec c7 bd 62 6c 2f be 8d 9c fc bd
       -0.04164765 -0.097619325 -0.17131189 -0.12334547
000120 8a 17 33 3d 95 5c 4d 3b 40 1f 57 3d 34 5b ed bd
       0.04372362 0.00313357 0.052520037 -0.11589661
000130 9b 0a 8f bd f6 86 f9 3d 3b 61 4e be 6d ac 96 bc
       -0.06984445 0.12183945 -0.20154278 -0.018392766
000140 7b d3 4c bb 50 7e 8e bc a0 57 b7 bd 11 3a 81 bd
       -0.0031253982 -0.017394215 -0.0895226 -0.063099034
000150 41 40 66 be 86 1e 62 be f7 9c 8c bd 3e 08 bd bd
       -0.22485448 -0.22081956 -0.06865876 -0.09230088
000160 a8 f7 c0 bd 6e c5 9c bd 12 53 f3 bd 83 c5 02 be
       -0.09422237 -0.07654844 -0.11881079 -0.12770657
000170 87 8b c3 bc 98 3d 65 be 67 c3 9c 3b 35 bb 0b be
       -0.023870243 -0.22386777 0.004784036 -0.13645633
000180 33 b1 4b be 55 2d af bd 50 dc 65 bd fe 34 cc bd
       -0.19891815 -0.08553568 -0.05611831 -0.09971045
000190 31 77 67 3c a9 cd 00 be 26 5f ae bb 91 b2 a1 bc
       0.014127539 -0.12578453 -0.005321401 -0.019738467
0001a0 2f b9 f3 bc 5d 90 3a be 8e 10 06 bd 89 6a d2 bd
       -0.029751388 -0.18219133 -0.03273063 -0.10274226
0001b0 e0 ea ea bd 30 40 9b 3c 22 82 f6 bd c8 f9 9a bd
       -0.1147058 0.018951505 -0.120365396 -0.07567173
0001c0 32 44 7d bd 05 d4 fa bd 67 af 28 be 76 74 2d be
       -0.061832614 -0.12247471 -0.1647316 -0.16938958
0001d0 b7 6a 47 be 06 30 78 bd f0 2e 10 be 35 c5 64 be
       -0.19474302 -0.060592674 -0.14080405 -0.22340854
0001e0 9b 7d 6b bd 6c a5 26 3d 9c 62 c7 bc b7 cd 1f 3d
       -0.057492834 0.040685102 -0.024339013 0.039014544
0001f0 ba 14 72 3c 97 cb 80 bd 38 cd fe bd 41 00 10 be
       0.014775449 -0.06288832 -0.12441486 -0.14062597
000200 f8 f2 70 bd 3c 7b 0b be 2c 7c d6 bd ea 70 ae bd
       -0.058825463 -0.13621229 -0.10472903 -0.085176304
000210 6f ef 2a be 69 df 2b be ef 0f 29 be 04 af 7b 3c
       -0.16692899 -0.16784443 -0.16509984 0.015361551
000220 d3 2b f5 3b c8 48 ae bc 8f 9c 15 be 1d e3 b1 bd
       0.007482031 -0.02127494 -0.14610504 -0.086858965
000230 89 ce b1 bd 26 3d f2 bd b7 ed 21 be a4 95 21 bd
       -0.086819716 -0.118280694 -0.15813337 -0.03944935
000240 e4 ba 14 bd 98 62 6f 3d c2 24 51 be 81 6d 97 3d
       -0.036311045 0.058443636 -0.20424178 0.07393933
000250 b3 2c a2 3c fc c1 36 bd 50 cd 2b bd 2d 86 84 bd
       0.019796705 -0.04461859 -0.041943848 -0.064709045
000260 d3 1d ff bd e0 2a ef bd 84 3e 90 3b d8 d3 6b bd
       -0.124568604 -0.116781 0.0044019837 -0.057575077
000270 ba 19 c2 bd 7e d8 d1 bd 03 96 9a bd 2c cb cb bd
       -0.09477563 -0.10246371 -0.07548144 -0.09950861
000280 90 46 b4 3c 03 e0 36 be 5a 7a a3 bd 41 95 2a 3d
       0.022006303 -0.17858891 -0.07982321 0.041646246
000290 bb 11 96 bd 29 fd 3e bd c6 d2 ce 3d 09 ba 8e bd
       -0.073276006 -0.04662815 0.100987956 -0.06969077
0002a0 a2 06 a6 bd 8a f4 83 bd 25 70 5f 3c 59 eb ef bc
       -0.08106734 -0.064431265 0.013637577 -0.029287027
0002b0 ec 9f ab bd 6d 18 f0 bd ae 3d 8c bc 93 98 f9 ba
       -0.08380112 -0.11723409 -0.017119255 -0.0019042663
0002c0 4a a5 93 bd 5c da 03 be db 54 94 3c 80 53 a7 3d
       -0.07209261 -0.12876266 0.018106868 0.08170223
0002d0 17 77 64 be 22 da 44 3d 2c b7 07 be e3 b4 dc bd
       -0.22311054 0.04805959 -0.13253468 -0.10776689
0002e0 76 8e a0 bd 8c bb 11 3d 6f 7f f5 bd 6f 6d bc bd
       -0.07839672 0.03557925 -0.11987197 -0.0920056
0002f0 ef 2c 00 3d 88 3a f5 bd 3c 6f 44 be 9a 3a 0e be
       0.031292852 -0.119740546 -0.19183058 -0.13889542
000300 b9 95 ea bd 6d 67 8a bb 96 dd 57 bc 1c 56 1e bc
       -0.114543386 -0.004223755 -0.013175389 -0.009664085
000310 ed aa d9 3d 42 52 b7 3c 54 f7 32 3d ee fc 40 bd
       0.10628305 0.02237809 0.0436929 -0.047116213
000320 fd 86 c9 3b 3f 0f 93 3c b3 50 d7 3c 3f 1b 02 3d
       0.006150125 0.017951606 0.026283598 0.031764265
000330 c3 b3 59 bd 4a 92 21 3d 01 01 d5 3a 09 be 1b be
       -0.05314995 0.039446153 0.001625091 -0.15209211
000340 a5 4a f1 bc 26 16 10 bd 70 3a 9a bd ed ee 8a 3b
       -0.029454539 -0.035177372 -0.07530677 0.004239908
000350 c7 dc 19 3c e1 45 79 bd 42 b7 04 bd 10 b1 7f bd
       0.009391016 -0.060857657 -0.03240133 -0.06242472
000360 0a ca 11 bb e0 72 cd 3d 83 10 ad bb 39 4a 9d bb
       -0.0022245669 0.10031676 -0.0052815094 -0.004800108
000370 ab b5 03 bc 39 05 58 bd f2 71 2e bd 14 3d 89 bc
       -0.0080389185 -0.052739356 -0.042589135 -0.016752757
000380 75 af 06 be 54 6c c1 3d 64 0c 8f 3d fd 44 cc bc
       -0.13152869 0.0944449 0.06984785 -0.02493524
000390 f9 ed 0e 3e 2b e5 e4 3d 92 96 2d bd 10 8d 57 ba
       0.13957967 0.11176523 -0.042379923 -0.0008222619
0003a0 5d 82 b9 3d 0c 0d 26 3d 8a 6d ee 3d 9f 56 a9 3d
       0.09058068 0.040539786 0.11641987 0.08268475
0003b0 91 e6 11 3c 8a 00 2b 3d 53 a4 13 bd ca c7 c9 bd
       0.008905069 0.04174856 -0.036045384 -0.0985256
0003c0 b5 a7 13 be 7f 42 33 be 8c 8c 46 be 0c d3 fb 3c
       -0.14419444 -0.17505835 -0.19389552 0.030740283
0003d0 3e 52 89 3d 49 7b 5f bd dd 03 13 be 6f 09 d8 bd
       0.067051396 -0.054560933 -0.14356942 -0.10548674
0003e0 df 13 48 be 9a 17 f9 bd 02 b9 ae bd f2 5c 4f be
       -0.1953883 -0.12162705 -0.08531381 -0.202503
0003f0 1c da 03 3e e7 99 a9 3c 1a 4b e1 3d 50 d2 5d be
       0.12876171 0.02070327 0.110006526 -0.21662259

encoder.blocks.1.conv.3.bias f4 [32]
000000 e7 98 5a bd 31 bb cd 3d da 88 99 bd 51 29 56 bd
       -0.053368475 0.100454696 -0.074968055 -0.052285496
000010 50 76 8b bd 21 1a 87 bd e2 29 d4 bc fa df 0e 3d
       -0.06809676 -0.065967806 -0.025898878 0.03488157
000020 0f 99 d8 bd 86 35 35 bd 82 ce 2c 3c ac 95 15 bc
       -0.105760686 -0.044240497 0.010547282 -0.009129923
000030 9b 66 fd bd c1 a8 e2 3c 81 a5 a5 bc b9 ae 20 3e
       -0.12373086 0.027668359 -0.02022052 0.15691651
000040 22 13 a5 3d d2 78 f0 3c 2c 55 a8 bc 00 c8 5b bd
       0.0806029 0.029354487 -0.020548426 -0.05365753
000050 88 e6 33 bd 9a 81 88 3d c1 9f 67 bd 0e 1a b3 3a
       -0.043921024 0.066653445 -0.056548838 0.0013664381
000060 15 87 8e bd 27 5b e6 3d be 38 10 bb 8d 3f c2 3d
       -0.069593586 0.11247855 -0.0022006477 0.094847776
000070 84 34 ee 3d 1b c7 a1 bc 71 16 ea 3c 1f 5f db 3d
       0.1163111 -0.019748261 0.028575154 0.10711502

encoder.blocks.1.conv.4.weight f4 [32]
000000 4c 1a 83 3f 86 b6 84 3f 5b 88 66 3f 32 b0 6f 3f
       1.02424 1.0368202 0.9005181 0.9362823
000010 c2 d4 79 3f 0a fd 65 3f 9a 71 84 3f 82 83 81 3f
       0.9759027 0.8983923 1.0347168 1.0118258
000020 cb ea 85 3f 81 c2 78 3f a7 d3 82 3f c4 56 88 3f
       1.0462278 0.9717179 1.0220841 1.0651479
000030 ee e0 7b 3f 26 c4 8b 3f e7 d7 68 3f 29 9b 88 3f
       0.9839009 1.0919235 0.9095444 1.0672351
000040 fb af 7b 3f 95 e8 83 3f 2b ad 77 3f b8 18 81 3f
       0.983154 1.0305353 0.9674861 1.0085669
000050 73 96 81 3f c4 c0 78 3f 7f c0 6c 3f e5 c1 8e 3f
       1.0124038 0.97169137 0.92481226 1.1152922
000060 12 48 6c 3f 3c 76 85 3f d4 3f 7a 3f 43 eb 87 3f
       0.9229747 1.0426707 0.97753644 1.0618671
000070 de ad 84 3f 12 ce 7c 3f 7c 9e 94 3f 45 ad 80 3f
       1.036556 0.9875194 1.1610866 1.0052878

encoder.blocks.1.conv.4.bias f4 [32]
000000 35 97 9c 3c 88 e4 f7 bc 0c 3f 0b be 2a cc 08 be
       0.01911507 -0.03026034 -0.13598269 -0.13359132
000010 6d 7a ad bc ef 06 f8 bc ac cd 94 3c 24 28 92 bd
       -0.021176541 -0.030276744 0.018164478 -0.071365625
000020 45 56 12 3d 5f c3 8a bd e1 52 01 be a8 d3 fe bd
       0.035726804 -0.06775545 -0.12629272 -0.12442714
000030 c0 c4 99 3d af 56 03 bd ef b2 a5 bd fd 6c 7d bd
       0.0750823 -0.03206509 -0.080907695 -0.061871517
000040 12 ce e3 3c ea ac 09 3e 77 41 87 bd e3 a6 74 3c
       0.027808223 0.13444868 -0.06604283 0.014932367
000050 91 bc 73 3d e8 eb 9f bd e9 a3 1b be ea f2 6f 3e
       0.059506003 -0.078086674 -0.15199246 0.23432508
000060 d1 98 ae bd 9a 30 fa 3c 32 7d f6 bd 83 c2 4c bd
       -0.08525241 0.030540753 -0.12035598 -0.04999019
000070 60 42 45 be a2 f6 9e 3c 22 cb 0f 3e 8d e2 50 bd
       -0.19263601 0.019404713 0.14042333 -0.050997306

encoder.blocks.1.conv.4.running_mean f4 [32]
000000 7d 38 a5 c0 08 4b 32 c0 47 b0 87 c0 49 2c 75 be
       -5.1631455 -2.7858295 -4.240268 -0.23942675
000010 a0 6e 8d c0 34 19 f5 3f bd 67 07 c0 80 50 c7 3e
       -4.419754 1.9148316 -2.1157067 0.38928604
000020 9d c7 0b c0 19 49 22 3f 4a 48 39 c0 5e 7c 79 c0
       -2.1840584 0.6339279 -2.8950372 -3.8982158
000030 9e 2d 6e c0 08 6d 4d c0 ce cc 22 40 70 95 cf 3f
       -3.7215343 -3.2097797 2.5437503 1.621748
000040 c2 30 90 c0 2a 08 95 c0 6e 0a ac bf 3a 76 fc bf
       -4.505952 -4.6572466 -1.3440683 -1.972358
000050 1e c8 88 c0 fa aa 6f 40 43 30 7b 3f e1 2a 2f c0
       -4.2744284 3.7448106 0.98120517 -2.7369921
000060 6a 20 93 c0 73 68 ac c0 6f 75 84 c0 01 ac 7c c0
       -4.597707 -5.38775 -4.139335 -3.9479983
000070 59 38 67 c0 de d8 7f c0 6b bd d9 bf bc 21 df be
       -3.6128142 -3.9976115 -1.7010931 -0.43580425

encoder.blocks.1.conv.4.running_var f4 [32]
000000 a6 65 ba 41 f6 c1 1a 41 79 ea aa 41 bd 2c 28 41
       23.299633 9.672354 21.364489 10.510922
000010 d6 f2 c1 41 3c 7a 58 41 67 93 bd 40 a9 82 16 41
       24.243572 13.529842 5.9242435 9.406899
000020 bf 52 29 41 6d e7 c4 40 fc df 13 41 2a c6 dd 40
       10.582702 6.15325 9.242184 6.93044
000030 4a bf 15 41 f1 e8 2d 41 f4 f2 08 41 f4 48 36 41
       9.359201 10.86937 8.559315 11.392811
000040 c4 17 da 41 75 fe d5 40 58 82 9c 40 bf 88 a5 41
       27.261604 6.6873116 4.890911 20.69177
000050 33 b3 c1 41 4d 8d c2 41 69 9c 1c 41 a2 35 37 41
       24.2125 24.318995 9.788186 11.450594
000060 1f 08 ff 40 0a 26 00 41 2c 14 7b 41 ff 38 35 41
       7.9697413 8.009287 15.692425 11.326415
000070 6e 2c 06 41 89 9c d1 41 9c df fd 40 27 9f bf 40
       8.385847 26.201433 7.933546 5.988178

encoder.blocks.1.skip.weight f4 [32, 16, 1, 1]
000000 50 6d 2a be b0 47 c8 3c e8 4a 60 be e2 8b 46 3e
       -0.16643262 0.024448246 -0.21903574 0.19389299
000010 6e 62 33 3e 96 da 5d be f0 a7 23 be 52 af 20 be
       0.17518017 -0.21665415 -0.15982032 -0.1569188
000020 40 75 80 bb 2a 64 03 be 90 ca 4b be b0 9e d2 3c
       -0.0039202273 -0.12831178 -0.1990149 0.025710434
000030 28 49 31 3d 88 5d fd 3d 60 12 a9 bc 12 ca 03 be
       0.043282658 0.12371355 -0.020638645 -0.12870052
000040 b6 dc 69 be 48 1b c6 3d 5c 00 84 bd 98 47 19 3d
       -0.22838101 0.09673172 -0.06445381 0.037421793
000050 c0 19 9b bd fc 49 db bd 28 bc 10 be 3c ab 8a 3d
       -0.07573271 -0.10707471 -0.14134276 0.067709416
000060 88 0a 8f bd dc f2 70 be 40 e8 8c bb de 77 5d 3e
       -0.069844306 -0.23530143 -0.0043001473 0.21627757
000070 74 ae cf bd 5c 50 d4 bd 40 14 77 3c e0 12 18 3e
       -0.10140696 -0.1036689 0.015080512 0.1485095
000080 5c f4 36 3e ea a7 03 3e 18 c2 be 3d ac 4e e7 3d
       0.17866653 0.12857023 0.09314364 0.11294302
000090 5c d5 59 be 50 f3 f0 3d e8 77 15 be a0 c4 63 be
       -0.21272796 0.11765158 -0.14596522 -0.22242975
0000a0 28 dd 35 3e 3c c5 ac 3d 08 99 16 be b8 ce 9c 3d
       0.17760146 0.08436057 -0.14706814 0.07656616
0000b0 80 31 73 bc 74 78 d8 3d 20 55 15 bc d8 33 ea bd
       -0.014843345 0.105698496 -0.009114534 -0.1143567
0000c0 62 58 41 be 00 3d cc bb c0 60 8a 3d f2 4a 27 3e
       -0.18881372 -0.0062328577 0.06756735 0.16337183
0000d0 d4 14 33 be ec aa b6 bd 40 e0 c6 3c 58 b2 17 3d
       -0.17488414 -0.089193195 0.024276853 0.037035316
0000e0 6e 7e 52 be 80 0f 38 3c 40 0c 20 bd 02 e7 25 3e
       -0.20556042 0.011234164 -0.039074183 0.16201404
0000f0 f8 82 43 3d a0 0f 19 3d 7a 0e 2e 3e 24 ce a3 bd
       0.047732323 0.037368417 0.1699771 -0.079983026
000100 60 49 b5 3c 76 53 63 3e 34 42 a4 bd 30 fa 19 bd
       0.022129714 0.22199807 -0.0802044 -0.037592113
000110 ce 9c 21 be 08 23 0f be 24 23 dd 3d 58 3d 80 bd
       -0.15782472 -0.13978207 0.10797718 -0.062617004
000120 bc f2 5c 3e 46 41 65 be ba 78 15 3e 80 a6 d4 bd
       0.21576971 -0.22388181 0.14596835 -0.1038332
000130 f2 8d 40 be de cf 79 3e 18 44 4a be 90 c0 d3 3c
       -0.18804148 0.24395701 -0.19752538 0.025848657
000140 32 d7 58 3e f4 31 9c bd a2 ee 0e be 00 8a 31 ba
       0.2117584 -0.07626715 -0.13958219 -0.0006772578
000150 c0 52 81 3b 00 d3 f0 bd b4 f3 1d 3e de 18 09 be
       0.003946632 -0.11758995 0.15424997 -0.13388392
000160 f4 ac 93 bd 58 7f fb bd 8a e8 59 be 24 9e 51 3e
       -0.072107226 -0.12280148 -0.21280113 0.20470482
000170 0c c8 9c 3d 00 b5 a3 3a 38 b5 97 bd 28 24 9d 3d
       0.076553434 0.0012489855 -0.074076116 0.07672912
000180 98 41 06 bd ca 64 0f 3e 18 43 6e bd 84 46 70 be
       -0.0327774 0.14003292 -0.058169454 -0.234644
000190 94 7b 10 3e 76 87 33 3e 44 6d e6 3d d0 95 90 3d
       0.14109641 0.17532143 0.112513095 0.070598245
0001a0 8c f7 10 3e d8 e3 81 3d 40 0d a2 3b 00 9a 9c bc
       0.14156932 0.06342286 0.004945427 -0.019116402
0001b0 00 6e c7 3d 48 32 13 3e 5a cb 3a 3e 50 fc d5 3d
       0.09737778 0.1437465 0.18241635 0.104485154
0001c0 00 b7 f7 bb 2c 4b 30 be c0 49 47 3d ac 68 5a be
       -0.007559657 -0.17216176 0.048654318 -0.21328992
0001d0 88 6b 40 bd 84 7c 55 3e 58 2d 60 bd 70 aa 8e 3d
       -0.04697755 0.2084828 -0.054730743 0.06966102
0001e0 a0 fc cd bd f0 82 e0 bd 76 f8 12 3e 92 c1 71 be
       -0.1005795 -0.10962474 0.14352593 -0.23608997
0001f0 10 d1 5f 3d 3e 58 70 be 4e f4 6a be 28 f9 0f be
       0.054642737 -0.23471162 -0.22944757 -0.1405989
000200 0a e2 41 3e 5c 76 a4 3d 34 d5 42 3e d8 9a ae bd
       0.18933883 0.08030388 0.19026643 -0.08525628
000210 ea c2 44 be 64 35 f1 bd 90 a7 2f 3e 70 dd 1d be
       -0.19214979 -0.117777616 0.17153764 -0.15416503
000220 08 5e 4d bd 58 69 38 3e c0 89 1e 3e 90 0f 81 3c
       -0.050138503 0.18008935 0.15482235 0.015754491
000230 02 cc 74 3e 8c a6 15 be 9c 85 0e 3e fc 30 39 3e
       0.23905948 -0.14614314 0.13918155 0.18085092
000240 7c 80 e3 3d 1c a0 89 3d 7e b9 67 3e dc 31 43 be
       0.11108491 0.067199916 0.22629353 -0.19061989
000250 8c ff 54 be c4 d7 56 3e 80 fd b2 3d 98 45 55 bd
       -0.20800608 0.20980746 0.087397575 -0.052068323
000260 14 bd 7e be 44 ab 09 be 8c 4f 39 3e a0 16 f6 bc
       -0.24876815 -0.13444239 0.18096751 -0.030040085
000270 56 09 0a 3e b2 cd 6a 3e 52 ae 5a be 08 30 31 be
       0.13480124 0.22930029 -0.2135556 -0.17303479
000280 40 fd d6 3c 06 31 17 3e 8c 07 7f be c8 b2 f6 3d
       0.026243806 0.14764795 -0.24905223 0.120458186
000290 42 85 50 3e 04 e3 13 be a0 93 4a 3d d8 90 01 3d
       0.20363334 -0.14442068 0.049457192 0.031632274
0002a0 d0 48 f7 bd ee 73 32 be 66 1e 71 be 12 44 05 3e
       -0.12074435 -0.17427036 -0.23546752 0.13014248
0002b0 12 42 0f be 88 dd 98 3d 02 57 4f be f0 1d cd 3d
       -0.13990048 0.07464129 -0.20248035 0.10015476
0002c0 60 71 0d 3d d0 dc 9b bc c0 1e ce 3d 68 4f aa bd
       0.03453195 -0.01902619 0.10064459 -0.08315927
0002d0 24 7d 6d 3e de 66 12 be 7c 0c 24 be cc 43 3a be
       0.23192269 -0.14297053 -0.16020387 -0.18189925
0002e0 f6 0d 59 be 2a 6c 7f be 72 6c 53 be 80 aa 30 be
       -0.21196732 -0.24943605 -0.20646837 -0.1725254
0002f0 20 bc 1e 3e 4c 52 3d 3e 6e 80 60 3e b4 bd 1d 3e
       0.15501451 0.18488425 0.21923992 0.15404397
000300 40 cf 35 3d 78 5d 51 3e f2 93 05 be 82 3d 4f 3e
       0.044387102 0.20445812 -0.13044718 0.20238307
000310 00 d7 50 bd 60 31 6c 3d 3c 2b 60 3e 18 69 09 3e
       -0.05098629 0.057664275 0.21891493 0.13418996
000320 64 5d 00 be 68 07 0a 3e b6 29 5f 3e 96 6c 1b 3e
       -0.12535626 0.13479388 0.21793255 0.15178141
000330 6c ad 22 3e c8 26 2d bd 8a a7 66 3e 22 b4 6d 3e
       0.15886468 -0.042273313 0.22524849 0.23213246
000340 50 2c d8 bd be 77 1c be 40 18 6a bd 4c 54 ec 3d
       -0.10555327 -0.15280053 -0.057152033 0.11539516
000350 bc 64 75 be 50 1a 07 3d 60 5e 22 be 28 c5 4a 3d
       -0.23964208 0.032984078 -0.15856314 0.04950443
000360 94 17 f0 bd 78 d0 1a bd dc a2 86 3d 88 fa e2 3d
       -0.11723247 -0.037796468 0.06574032 0.11082941
000370 bc b8 4b be c6 92 28 3e 92 af 32 3e 3c 83 46 3e
       -0.1989469 0.1646224 0.17449787 0.19386
000380 90 28 cd 3d 44 bb 9c bd b0 e1 42 3e dc 44 10 be
       0.10017502 -0.076529056 0.19031405 -0.14088768
000390 bc 61 2c 3e b4 0b 63 be 1c 16 32 be d0 bc c5 3d
       0.16834158 -0.22172433 -0.17391247 0.09655154
0003a0 dc f2 27 be 26 20 73 3e 96 b4 6a 3e 1c 65 52 be
       -0.16401237 0.23742732 0.2292045 -0.20546383
0003b0 b4 a1 2b 3e c0 4b 9c bc a4 79 fd 3d 14 9a 12 be
       0.16760904 -0.01907909 0.12376717 -0.14316589
0003c0 30 15 4c bd f0 9f 34 bd 0c ba d1 bd ea ff 7a be
       -0.049824893 -0.04409784 -0.10240564 -0.24511686
0003d0 88 42 9e bd 34 fd ab bd a0 a9 c1 bd 80 0e c1 3b
       -0.077275336 -0.08397904 -0.094561815 0.005891621
0003e0 f6 54 1e be 3c c1 f4 bd 40 5c dd bc 72 94 4b be
       -0.15462098 -0.11950919 -0.027021527 -0.19880846
0003f0 04 5c bc bd bc f9 65 be aa 87 0d be 6c 97 60 be
       -0.09197238 -0.22458547 -0.13821283 -0.21932763

encoder.blocks.1.skip.bias f4 [32]
000000 50 68 12 3d 00 76 cd bb 20 ee 9c bd dc ac 35 be
       0.03574401 -0.00627017 -0.07662606 -0.17741722
000010 38 b7 86 3d 00 11 6b be b4 5c 9b 3d 20 c7 ec bc
       0.06577915 -0.22955704 0.07586041 -0.028903544
000020 9c b8 29 be e0 a9 06 3d 92 cd 46 be 94 15 96 3d
       -0.16574329 0.03287685 -0.19414356 0.073283345
000030 28 3a 2b 3e f0 b8 21 3e 12 a7 3e 3e f4 46 2b 3e
       0.16721404 0.15793204 0.1861842 0.16726285
000040 10 0b 25 3e 00 b3 2a be 68 5c 22 3d 00 e8 20 bd
       0.16117501 -0.16669846 0.039638907 -0.039283752
000050 74 4c 8f 3d f0 2f b5 bd 2c 41 68 3e 6c c9 78 be
       0.06997004 -0.08847034 0.22681111 -0.24295586
000060 a8 80 c3 bd 24 8a dd bd 68 02 cd 3d 22 cc 19 3e
       -0.095460236 -0.10817364 0.100102246 0.15019277
000070 38 0f 42 3e 1c c3 29 be f0 e5 a5 bd 0a d0 49 be
       0.18951118 -0.16578335 -0.08100498 -0.19708267
